…
I0910 12:58:37.229079  1862 net.cpp:294] The NetState phase (0) differed from the phase (1) specified by a rule in layer accuracy_5
I0910 12:58:37.229318  1862 net.cpp:51] Initializing net from parameters: 
name: "AlexNet-BN"
state {
  phase: TRAIN
  level: 0
  stage: ""
}
layer {
  name: "data"
  type: "Data"
  top: "data"
  top: "label"
  include {
    phase: TRAIN
  }
  transform_param {
    mirror: true
    crop_size: 224
    mean_value: 103.939
    mean_value: 116.779
    mean_value: 123.68
  }
  data_param {
    source: "/home/zhengzhe/Data/ilsvrc12/ilsvrc12_train_lmdb"
    batch_size: 256
    backend: LMDB
  }
}
layer {
  name: "conv1"
  type: "BinaryConvolution"
  bottom: "data"
  top: "conv1"
  param {
    lr_mult: 1
    decay_mult: 1
  }
  param {
    lr_mult: 2
    decay_mult: 0
  }
  convolution_param {
    num_output: 96
    pad: 2
    kernel_size: 11
    stride: 4
    weight_filler {
      type: "gaussian"
      std: 0.01
    }
    bias_filler {
      type: "constant"
      value: 0
    }
  }
  debug_param {
    xnorno_grad: true
  }
}
layer {
  name: "bn1"
  type: "BatchNorm"
  bottom: "conv1"
  top: "conv1"
}
layer {
  name: "scale1"
  type: "Scale"
  bottom: "conv1"
  top: "conv1"
  scale_param {
    bias_term: true
  }
}
layer {
  name: "relu1"
  type: "ReLU"
  bottom: "conv1"
  top: "conv1"
}
layer {
  name: "pool1"
  type: "Pooling"
  bottom: "conv1"
  top: "pool1"
  pooling_param {
    pool: MAX
    kernel_size: 3
    stride: 2
  }
}
layer {
  name: "conv2"
  type: "BinaryConvolution"
  bottom: "pool1"
  top: "conv2"
  param {
    lr_mult: 1
    decay_mult: 1
  }
  param {
    lr_mult: 2
    decay_mult: 0
  }
  convolution_param {
    num_output: 256
    pad: 2
    kernel_size: 5
    weight_filler {
      type: "gaussian"
      std: 0.01
    }
    bias_filler {
      type: "constant"
      value: 0.1
    }
  }
  debug_param {
    xnorno_grad: true
  }
}
layer {
  name: "bn2"
  type: "BatchNorm"
  bottom: "conv2"
  top: "conv2"
}
layer {
  name: "scale2"
  type: "Scale"
  bottom: "conv2"
  top: "conv2"
  scale_param {
    bias_term: true
  }
}
layer {
  name: "relu2"
  type: "ReLU"
  bottom: "conv2"
  top: "conv2"
}
layer {
  name: "pool2"
  type: "Pooling"
  bottom: "conv2"
  top: "pool2"
  pooling_param {
    pool: MAX
    kernel_size: 3
    stride: 2
  }
}
layer {
  name: "conv3"
  type: "BinaryConvolution"
  bottom: "pool2"
  top: "conv3"
  param {
    lr_mult: 1
    decay_mult: 1
  }
  param {
    lr_mult: 2
    decay_mult: 0
  }
  convolution_param {
    num_output: 384
    pad: 1
    kernel_size: 3
    weight_filler {
      type: "gaussian"
      std: 0.01
    }
    bias_filler {
      type: "constant"
      value: 0
    }
  }
  debug_param {
    xnorno_grad: true
  }
}
layer {
  name: "bn3"
  type: "BatchNorm"
  bottom: "conv3"
  top: "conv3"
}
layer {
  name: "scale3"
  type: "Scale"
  bottom: "conv3"
  top: "conv3"
  scale_param {
    bias_term: true
  }
}
layer {
  name: "relu3"
  type: "ReLU"
  bottom: "conv3"
  top: "conv3"
}
layer {
  name: "conv4"
  type: "BinaryConvolution"
  bottom: "conv3"
  top: "conv4"
  param {
    lr_mult: 1
    decay_mult: 1
  }
  param {
    lr_mult: 2
    decay_mult: 0
  }
  convolution_param {
    num_output: 384
    pad: 1
    kernel_size: 3
    weight_filler {
      type: "gaussian"
      std: 0.01
    }
    bias_filler {
      type: "constant"
      value: 0.1
    }
  }
  debug_param {
    xnorno_grad: true
  }
}
layer {
  name: "bn4"
  type: "BatchNorm"
  bottom: "conv4"
  top: "conv4"
}
layer {
  name: "scale4"
  type: "Scale"
  bottom: "conv4"
  top: "conv4"
  scale_param {
    bias_term: true
  }
}
layer {
  name: "relu4"
  type: "ReLU"
  bottom: "conv4"
  top: "conv4"
}
layer {
  name: "conv5"
  type: "BinaryConvolution"
  bottom: "conv4"
  top: "conv5"
  param {
    lr_mult: 1
    decay_mult: 1
  }
  param {
    lr_mult: 2
    decay_mult: 0
  }
  convolution_param {
    num_output: 256
    pad: 1
    kernel_size: 3
    weight_filler {
      type: "gaussian"
      std: 0.01
    }
    bias_filler {
      type: "constant"
      value: 0.1
    }
  }
  debug_param {
    xnorno_grad: true
  }
}
layer {
  name: "bn5"
  type: "BatchNorm"
  bottom: "conv5"
  top: "conv5"
}
layer {
  name: "scale5"
  type: "Scale"
  bottom: "conv5"
  top: "conv5"
  scale_param {
    bias_term: true
  }
}
layer {
  name: "relu5"
  type: "ReLU"
  bottom: "conv5"
  top: "conv5"
}
layer {
  name: "pool5"
  type: "Pooling"
  bottom: "conv5"
  top: "pool5"
  pooling_param {
    pool: MAX
    kernel_size: 3
    stride: 2
  }
}
layer {
  name: "drop6"
  type: "Dropout"
  bottom: "pool5"
  top: "pool5"
  dropout_param {
    dropout_ratio: 0.1
  }
}
layer {
  name: "fc6"
  type: "BinaryInnerProduct"
  bottom: "pool5"
  top: "fc6"
  param {
    lr_mult: 1
    decay_mult: 1
  }
  param {
    lr_mult: 2
    decay_mult: 0
  }
  inner_product_param {
    num_output: 4096
    weight_filler {
      type: "gaussian"
      std: 0.005
    }
    bias_filler {
      type: "constant"
      value: 0.1
    }
  }
  debug_param {
    xnorno_grad: true
  }
}
layer {
  name: "bn6"
  type: "BatchNorm"
  bottom: "fc6"
  top: "fc6"
}
layer {
  name: "scale6"
  type: "Scale"
  bottom: "fc6"
  top: "fc6"
  scale_param {
    bias_term: true
  }
}
layer {
  name: "relu6"
  type: "ReLU"
  bottom: "fc6"
  top: "fc6"
}
layer {
  name: "drop7"
  type: "Dropout"
  bottom: "fc6"
  top: "fc6"
  dropout_param {
    dropout_ratio: 0.1
  }
}
layer {
  name: "fc7"
  type: "BinaryInnerProduct"
  bottom: "fc6"
  top: "fc7"
  param {
    lr_mult: 1
    decay_mult: 1
  }
  param {
    lr_mult: 2
    decay_mult: 0
  }
  inner_product_param {
    num_output: 4096
    weight_filler {
      type: "gaussian"
      std: 0.005
    }
    bias_filler {
      type: "constant"
      value: 0.1
    }
  }
  debug_param {
    xnorno_grad: true
  }
}
layer {
  name: "bn7"
  type: "BatchNorm"
  bottom: "fc7"
  top: "fc7"
}
layer {
  name: "scale7"
  type: "Scale"
  bottom: "fc7"
  top: "fc7"
  scale_param {
    bias_term: true
  }
}
layer {
  name: "relu7"
  type: "ReLU"
  bottom: "fc7"
  top: "fc7"
}
layer {
  name: "fc8"
  type: "BinaryInnerProduct"
  bottom: "fc7"
  top: "fc8"
  param {
    lr_mult: 1
    decay_mult: 1
  }
  param {
    lr_mult: 2
    decay_mult: 0
  }
  inner_product_param {
    num_output: 1000
    weight_filler {
      type: "gaussian"
      std: 0.01
    }
    bias_filler {
      type: "constant"
      value: 0
    }
  }
  debug_param {
    xnorno_grad: true
  }
}
layer {
  name: "accuracy_5_TRAIN"
  type: "Accuracy"
  bottom: "fc8"
  bottom: "label"
  top: "accuracy_5_TRAIN"
  include {
    phase: TRAIN
  }
  accuracy_param {
    top_k: 5
  }
}
layer {
  name: "loss"
  type: "SoftmaxWithLoss"
  bottom: "fc8"
  bottom: "label"
  top: "loss"
}
I0910 12:58:37.229529  1862 layer_factory.hpp:77] Creating layer data
I0910 12:58:37.229679  1862 db_lmdb.cpp:35] Opened lmdb /home/zhengzhe/Data/ilsvrc12/ilsvrc12_train_lmdb
I0910 12:58:37.229723  1862 net.cpp:84] Creating Layer data
I0910 12:58:37.229738  1862 net.cpp:380] data -> data
I0910 12:58:37.229771  1862 net.cpp:380] data -> label
I0910 12:58:37.231771  1862 data_layer.cpp:45] output data size: 256,3,224,224
I0910 12:58:38.385323  1862 net.cpp:122] Setting up data
I0910 12:58:38.392714  1862 net.cpp:129] Top shape: 256 3 224 224 (38535168)
I0910 12:58:38.392784  1862 net.cpp:129] Top shape: 256 (256)
I0910 12:58:38.392818  1862 net.cpp:137] Memory required for data: 154141696
I0910 12:58:38.392863  1862 layer_factory.hpp:77] Creating layer label_data_1_split
I0910 12:58:38.392918  1862 net.cpp:84] Creating Layer label_data_1_split
I0910 12:58:38.392977  1862 net.cpp:406] label_data_1_split <- label
I0910 12:58:38.393401  1862 net.cpp:380] label_data_1_split -> label_data_1_split_0
I0910 12:58:38.393442  1862 net.cpp:380] label_data_1_split -> label_data_1_split_1
I0910 12:58:38.413938  1862 net.cpp:122] Setting up label_data_1_split
I0910 12:58:38.413969  1862 net.cpp:129] Top shape: 256 (256)
I0910 12:58:38.413986  1862 net.cpp:129] Top shape: 256 (256)
I0910 12:58:38.414002  1862 net.cpp:137] Memory required for data: 154143744
I0910 12:58:38.414018  1862 layer_factory.hpp:77] Creating layer conv1
I0910 12:58:38.414050  1862 net.cpp:84] Creating Layer conv1
I0910 12:58:38.414068  1862 net.cpp:406] conv1 <- data
I0910 12:58:38.414089  1862 net.cpp:380] conv1 -> conv1
I0910 12:58:38.427604  1862 net.cpp:122] Setting up conv1
I0910 12:58:38.427644  1862 net.cpp:129] Top shape: 256 96 55 55 (74342400)
I0910 12:58:38.427661  1862 net.cpp:137] Memory required for data: 451513344
I0910 12:58:38.427695  1862 layer_factory.hpp:77] Creating layer bn1
I0910 12:58:38.427718  1862 net.cpp:84] Creating Layer bn1
I0910 12:58:38.427737  1862 net.cpp:406] bn1 <- conv1
I0910 12:58:38.427755  1862 net.cpp:367] bn1 -> conv1 (in-place)
I0910 12:58:38.427973  1862 net.cpp:122] Setting up bn1
I0910 12:58:38.427996  1862 net.cpp:129] Top shape: 256 96 55 55 (74342400)
I0910 12:58:38.428014  1862 net.cpp:137] Memory required for data: 748882944
I0910 12:58:38.428037  1862 layer_factory.hpp:77] Creating layer scale1
I0910 12:58:38.428061  1862 net.cpp:84] Creating Layer scale1
I0910 12:58:38.428077  1862 net.cpp:406] scale1 <- conv1
I0910 12:58:38.428097  1862 net.cpp:367] scale1 -> conv1 (in-place)
I0910 12:58:38.428153  1862 layer_factory.hpp:77] Creating layer scale1
I0910 12:58:38.428303  1862 net.cpp:122] Setting up scale1
I0910 12:58:38.428325  1862 net.cpp:129] Top shape: 256 96 55 55 (74342400)
I0910 12:58:38.428341  1862 net.cpp:137] Memory required for data: 1046252544
I0910 12:58:38.428361  1862 layer_factory.hpp:77] Creating layer relu1
I0910 12:58:38.428387  1862 net.cpp:84] Creating Layer relu1
I0910 12:58:38.428405  1862 net.cpp:406] relu1 <- conv1
I0910 12:58:38.428423  1862 net.cpp:367] relu1 -> conv1 (in-place)
I0910 12:58:38.428443  1862 net.cpp:122] Setting up relu1
I0910 12:58:38.428462  1862 net.cpp:129] Top shape: 256 96 55 55 (74342400)
I0910 12:58:38.428478  1862 net.cpp:137] Memory required for data: 1343622144
I0910 12:58:38.428494  1862 layer_factory.hpp:77] Creating layer pool1
I0910 12:58:38.428514  1862 net.cpp:84] Creating Layer pool1
I0910 12:58:38.428530  1862 net.cpp:406] pool1 <- conv1
I0910 12:58:38.428550  1862 net.cpp:380] pool1 -> pool1
I0910 12:58:38.428617  1862 net.cpp:122] Setting up pool1
I0910 12:58:38.428639  1862 net.cpp:129] Top shape: 256 96 27 27 (17915904)
I0910 12:58:38.428655  1862 net.cpp:137] Memory required for data: 1415285760
I0910 12:58:38.428670  1862 layer_factory.hpp:77] Creating layer conv2
I0910 12:58:38.428694  1862 net.cpp:84] Creating Layer conv2
I0910 12:58:38.428710  1862 net.cpp:406] conv2 <- pool1
I0910 12:58:38.428730  1862 net.cpp:380] conv2 -> conv2
I0910 12:58:38.441536  1862 net.cpp:122] Setting up conv2
I0910 12:58:38.441574  1862 net.cpp:129] Top shape: 256 256 27 27 (47775744)
I0910 12:58:38.441593  1862 net.cpp:137] Memory required for data: 1606388736
I0910 12:58:38.441617  1862 layer_factory.hpp:77] Creating layer bn2
I0910 12:58:38.441639  1862 net.cpp:84] Creating Layer bn2
I0910 12:58:38.441658  1862 net.cpp:406] bn2 <- conv2
I0910 12:58:38.441678  1862 net.cpp:367] bn2 -> conv2 (in-place)
I0910 12:58:38.441874  1862 net.cpp:122] Setting up bn2
I0910 12:58:38.441905  1862 net.cpp:129] Top shape: 256 256 27 27 (47775744)
I0910 12:58:38.441932  1862 net.cpp:137] Memory required for data: 1797491712
I0910 12:58:38.441953  1862 layer_factory.hpp:77] Creating layer scale2
I0910 12:58:38.441973  1862 net.cpp:84] Creating Layer scale2
I0910 12:58:38.441992  1862 net.cpp:406] scale2 <- conv2
I0910 12:58:38.442010  1862 net.cpp:367] scale2 -> conv2 (in-place)
I0910 12:58:38.442061  1862 layer_factory.hpp:77] Creating layer scale2
I0910 12:58:38.442189  1862 net.cpp:122] Setting up scale2
I0910 12:58:38.442212  1862 net.cpp:129] Top shape: 256 256 27 27 (47775744)
I0910 12:58:38.442229  1862 net.cpp:137] Memory required for data: 1988594688
I0910 12:58:38.442248  1862 layer_factory.hpp:77] Creating layer relu2
I0910 12:58:38.442267  1862 net.cpp:84] Creating Layer relu2
I0910 12:58:38.442284  1862 net.cpp:406] relu2 <- conv2
I0910 12:58:38.442303  1862 net.cpp:367] relu2 -> conv2 (in-place)
I0910 12:58:38.442323  1862 net.cpp:122] Setting up relu2
I0910 12:58:38.442342  1862 net.cpp:129] Top shape: 256 256 27 27 (47775744)
I0910 12:58:38.442358  1862 net.cpp:137] Memory required for data: 2179697664
I0910 12:58:38.442373  1862 layer_factory.hpp:77] Creating layer pool2
I0910 12:58:38.442392  1862 net.cpp:84] Creating Layer pool2
I0910 12:58:38.442409  1862 net.cpp:406] pool2 <- conv2
I0910 12:58:38.442427  1862 net.cpp:380] pool2 -> pool2
I0910 12:58:38.442482  1862 net.cpp:122] Setting up pool2
I0910 12:58:38.442503  1862 net.cpp:129] Top shape: 256 256 13 13 (11075584)
I0910 12:58:38.442519  1862 net.cpp:137] Memory required for data: 2224000000
I0910 12:58:38.442535  1862 layer_factory.hpp:77] Creating layer conv3
I0910 12:58:38.442557  1862 net.cpp:84] Creating Layer conv3
I0910 12:58:38.442574  1862 net.cpp:406] conv3 <- pool2
I0910 12:58:38.442593  1862 net.cpp:380] conv3 -> conv3
I0910 12:58:38.483172  1862 net.cpp:122] Setting up conv3
I0910 12:58:38.483232  1862 net.cpp:129] Top shape: 256 384 13 13 (16613376)
I0910 12:58:38.483250  1862 net.cpp:137] Memory required for data: 2290453504
I0910 12:58:38.483273  1862 layer_factory.hpp:77] Creating layer bn3
I0910 12:58:38.483295  1862 net.cpp:84] Creating Layer bn3
I0910 12:58:38.483314  1862 net.cpp:406] bn3 <- conv3
I0910 12:58:38.483335  1862 net.cpp:367] bn3 -> conv3 (in-place)
I0910 12:58:38.483539  1862 net.cpp:122] Setting up bn3
I0910 12:58:38.483563  1862 net.cpp:129] Top shape: 256 384 13 13 (16613376)
I0910 12:58:38.483580  1862 net.cpp:137] Memory required for data: 2356907008
I0910 12:58:38.483608  1862 layer_factory.hpp:77] Creating layer scale3
I0910 12:58:38.483629  1862 net.cpp:84] Creating Layer scale3
I0910 12:58:38.483647  1862 net.cpp:406] scale3 <- conv3
I0910 12:58:38.483666  1862 net.cpp:367] scale3 -> conv3 (in-place)
I0910 12:58:38.483719  1862 layer_factory.hpp:77] Creating layer scale3
I0910 12:58:38.483852  1862 net.cpp:122] Setting up scale3
I0910 12:58:38.483875  1862 net.cpp:129] Top shape: 256 384 13 13 (16613376)
I0910 12:58:38.483891  1862 net.cpp:137] Memory required for data: 2423360512
I0910 12:58:38.483911  1862 layer_factory.hpp:77] Creating layer relu3
I0910 12:58:38.483933  1862 net.cpp:84] Creating Layer relu3
I0910 12:58:38.483950  1862 net.cpp:406] relu3 <- conv3
I0910 12:58:38.483969  1862 net.cpp:367] relu3 -> conv3 (in-place)
I0910 12:58:38.483989  1862 net.cpp:122] Setting up relu3
I0910 12:58:38.484007  1862 net.cpp:129] Top shape: 256 384 13 13 (16613376)
I0910 12:58:38.484024  1862 net.cpp:137] Memory required for data: 2489814016
I0910 12:58:38.484040  1862 layer_factory.hpp:77] Creating layer conv4
I0910 12:58:38.484066  1862 net.cpp:84] Creating Layer conv4
I0910 12:58:38.484083  1862 net.cpp:406] conv4 <- conv3
I0910 12:58:38.484103  1862 net.cpp:380] conv4 -> conv4
I0910 12:58:38.538051  1862 net.cpp:122] Setting up conv4
I0910 12:58:38.544904  1862 net.cpp:129] Top shape: 256 384 13 13 (16613376)
I0910 12:58:38.545037  1862 net.cpp:137] Memory required for data: 2556267520
I0910 12:58:38.545203  1862 layer_factory.hpp:77] Creating layer bn4
I0910 12:58:38.545331  1862 net.cpp:84] Creating Layer bn4
I0910 12:58:38.545451  1862 net.cpp:406] bn4 <- conv4
I0910 12:58:38.545572  1862 net.cpp:367] bn4 -> conv4 (in-place)
I0910 12:58:38.545876  1862 net.cpp:122] Setting up bn4
I0910 12:58:38.546557  1862 net.cpp:129] Top shape: 256 384 13 13 (16613376)
I0910 12:58:38.546797  1862 net.cpp:137] Memory required for data: 2622721024
I0910 12:58:38.546880  1862 layer_factory.hpp:77] Creating layer scale4
I0910 12:58:38.546932  1862 net.cpp:84] Creating Layer scale4
I0910 12:58:38.546978  1862 net.cpp:406] scale4 <- conv4
I0910 12:58:38.547026  1862 net.cpp:367] scale4 -> conv4 (in-place)
I0910 12:58:38.547132  1862 layer_factory.hpp:77] Creating layer scale4
I0910 12:58:38.547400  1862 net.cpp:122] Setting up scale4
I0910 12:58:38.547632  1862 net.cpp:129] Top shape: 256 384 13 13 (16613376)
I0910 12:58:38.547682  1862 net.cpp:137] Memory required for data: 2689174528
I0910 12:58:38.547731  1862 layer_factory.hpp:77] Creating layer relu4
I0910 12:58:38.547809  1862 net.cpp:84] Creating Layer relu4
I0910 12:58:38.547884  1862 net.cpp:406] relu4 <- conv4
I0910 12:58:38.547960  1862 net.cpp:367] relu4 -> conv4 (in-place)
I0910 12:58:38.548054  1862 net.cpp:122] Setting up relu4
I0910 12:58:38.548132  1862 net.cpp:129] Top shape: 256 384 13 13 (16613376)
I0910 12:58:38.548199  1862 net.cpp:137] Memory required for data: 2755628032
I0910 12:58:38.548260  1862 layer_factory.hpp:77] Creating layer conv5
I0910 12:58:38.548338  1862 net.cpp:84] Creating Layer conv5
I0910 12:58:38.548565  1862 net.cpp:406] conv5 <- conv4
I0910 12:58:38.548626  1862 net.cpp:380] conv5 -> conv5
I0910 12:58:38.577597  1862 net.cpp:122] Setting up conv5
I0910 12:58:38.586058  1862 net.cpp:129] Top shape: 256 256 13 13 (11075584)
I0910 12:58:38.586195  1862 net.cpp:137] Memory required for data: 2799930368
I0910 12:58:38.586278  1862 layer_factory.hpp:77] Creating layer bn5
I0910 12:58:38.586390  1862 net.cpp:84] Creating Layer bn5
I0910 12:58:38.586482  1862 net.cpp:406] bn5 <- conv5
I0910 12:58:38.586555  1862 net.cpp:367] bn5 -> conv5 (in-place)
I0910 12:58:38.586846  1862 net.cpp:122] Setting up bn5
I0910 12:58:38.587354  1862 net.cpp:129] Top shape: 256 256 13 13 (11075584)
I0910 12:58:38.587456  1862 net.cpp:137] Memory required for data: 2844232704
I0910 12:58:38.587530  1862 layer_factory.hpp:77] Creating layer scale5
I0910 12:58:38.587626  1862 net.cpp:84] Creating Layer scale5
I0910 12:58:38.587715  1862 net.cpp:406] scale5 <- conv5
I0910 12:58:38.587783  1862 net.cpp:367] scale5 -> conv5 (in-place)
I0910 12:58:38.587908  1862 layer_factory.hpp:77] Creating layer scale5
I0910 12:58:38.588193  1862 net.cpp:122] Setting up scale5
I0910 12:58:38.589220  1862 net.cpp:129] Top shape: 256 256 13 13 (11075584)
I0910 12:58:38.589309  1862 net.cpp:137] Memory required for data: 2888535040
I0910 12:58:38.589371  1862 layer_factory.hpp:77] Creating layer relu5
I0910 12:58:38.589426  1862 net.cpp:84] Creating Layer relu5
I0910 12:58:38.589475  1862 net.cpp:406] relu5 <- conv5
I0910 12:58:38.589531  1862 net.cpp:367] relu5 -> conv5 (in-place)
I0910 12:58:38.589583  1862 net.cpp:122] Setting up relu5
I0910 12:58:38.589633  1862 net.cpp:129] Top shape: 256 256 13 13 (11075584)
I0910 12:58:38.589680  1862 net.cpp:137] Memory required for data: 2932837376
I0910 12:58:38.589720  1862 layer_factory.hpp:77] Creating layer pool5
I0910 12:58:38.589785  1862 net.cpp:84] Creating Layer pool5
I0910 12:58:38.589829  1862 net.cpp:406] pool5 <- conv5
I0910 12:58:38.589872  1862 net.cpp:380] pool5 -> pool5
I0910 12:58:38.589994  1862 net.cpp:122] Setting up pool5
I0910 12:58:38.590047  1862 net.cpp:129] Top shape: 256 256 6 6 (2359296)
I0910 12:58:38.590090  1862 net.cpp:137] Memory required for data: 2942274560
I0910 12:58:38.590127  1862 layer_factory.hpp:77] Creating layer drop6
I0910 12:58:38.590171  1862 net.cpp:84] Creating Layer drop6
I0910 12:58:38.590211  1862 net.cpp:406] drop6 <- pool5
I0910 12:58:38.590260  1862 net.cpp:367] drop6 -> pool5 (in-place)
I0910 12:58:38.590339  1862 net.cpp:122] Setting up drop6
I0910 12:58:38.590387  1862 net.cpp:129] Top shape: 256 256 6 6 (2359296)
I0910 12:58:38.590456  1862 net.cpp:137] Memory required for data: 2951711744
I0910 12:58:38.590504  1862 layer_factory.hpp:77] Creating layer fc6
I0910 12:58:38.590561  1862 net.cpp:84] Creating Layer fc6
I0910 12:58:38.590607  1862 net.cpp:406] fc6 <- pool5
I0910 12:58:38.590652  1862 net.cpp:380] fc6 -> fc6
I0910 12:58:39.534416  1862 net.cpp:122] Setting up fc6
I0910 12:58:39.534449  1862 net.cpp:129] Top shape: 256 4096 (1048576)
I0910 12:58:39.534454  1862 net.cpp:137] Memory required for data: 2955906048
I0910 12:58:39.534468  1862 layer_factory.hpp:77] Creating layer bn6
I0910 12:58:39.534482  1862 net.cpp:84] Creating Layer bn6
I0910 12:58:39.534487  1862 net.cpp:406] bn6 <- fc6
I0910 12:58:39.534503  1862 net.cpp:367] bn6 -> fc6 (in-place)
I0910 12:58:39.534713  1862 net.cpp:122] Setting up bn6
I0910 12:58:39.534724  1862 net.cpp:129] Top shape: 256 4096 (1048576)
I0910 12:58:39.534729  1862 net.cpp:137] Memory required for data: 2960100352
I0910 12:58:39.534737  1862 layer_factory.hpp:77] Creating layer scale6
I0910 12:58:39.534745  1862 net.cpp:84] Creating Layer scale6
I0910 12:58:39.534750  1862 net.cpp:406] scale6 <- fc6
I0910 12:58:39.534759  1862 net.cpp:367] scale6 -> fc6 (in-place)
I0910 12:58:39.534797  1862 layer_factory.hpp:77] Creating layer scale6
I0910 12:58:39.534924  1862 net.cpp:122] Setting up scale6
I0910 12:58:39.534936  1862 net.cpp:129] Top shape: 256 4096 (1048576)
I0910 12:58:39.534940  1862 net.cpp:137] Memory required for data: 2964294656
I0910 12:58:39.534946  1862 layer_factory.hpp:77] Creating layer relu6
I0910 12:58:39.534953  1862 net.cpp:84] Creating Layer relu6
I0910 12:58:39.534960  1862 net.cpp:406] relu6 <- fc6
I0910 12:58:39.534965  1862 net.cpp:367] relu6 -> fc6 (in-place)
I0910 12:58:39.534971  1862 net.cpp:122] Setting up relu6
I0910 12:58:39.534977  1862 net.cpp:129] Top shape: 256 4096 (1048576)
I0910 12:58:39.534981  1862 net.cpp:137] Memory required for data: 2968488960
I0910 12:58:39.534984  1862 layer_factory.hpp:77] Creating layer drop7
I0910 12:58:39.534992  1862 net.cpp:84] Creating Layer drop7
I0910 12:58:39.534996  1862 net.cpp:406] drop7 <- fc6
I0910 12:58:39.535003  1862 net.cpp:367] drop7 -> fc6 (in-place)
I0910 12:58:39.535022  1862 net.cpp:122] Setting up drop7
I0910 12:58:39.535032  1862 net.cpp:129] Top shape: 256 4096 (1048576)
I0910 12:58:39.535035  1862 net.cpp:137] Memory required for data: 2972683264
I0910 12:58:39.535039  1862 layer_factory.hpp:77] Creating layer fc7
I0910 12:58:39.535049  1862 net.cpp:84] Creating Layer fc7
I0910 12:58:39.535053  1862 net.cpp:406] fc7 <- fc6
I0910 12:58:39.535063  1862 net.cpp:380] fc7 -> fc7
I0910 12:58:40.003401  1862 net.cpp:122] Setting up fc7
I0910 12:58:40.003438  1862 net.cpp:129] Top shape: 256 4096 (1048576)
I0910 12:58:40.003443  1862 net.cpp:137] Memory required for data: 2976877568
I0910 12:58:40.003456  1862 layer_factory.hpp:77] Creating layer bn7
I0910 12:58:40.003475  1862 net.cpp:84] Creating Layer bn7
I0910 12:58:40.003481  1862 net.cpp:406] bn7 <- fc7
I0910 12:58:40.003490  1862 net.cpp:367] bn7 -> fc7 (in-place)
I0910 12:58:40.003697  1862 net.cpp:122] Setting up bn7
I0910 12:58:40.003710  1862 net.cpp:129] Top shape: 256 4096 (1048576)
I0910 12:58:40.003712  1862 net.cpp:137] Memory required for data: 2981071872
I0910 12:58:40.003721  1862 layer_factory.hpp:77] Creating layer scale7
I0910 12:58:40.003731  1862 net.cpp:84] Creating Layer scale7
I0910 12:58:40.003736  1862 net.cpp:406] scale7 <- fc7
I0910 12:58:40.003743  1862 net.cpp:367] scale7 -> fc7 (in-place)
I0910 12:58:40.003782  1862 layer_factory.hpp:77] Creating layer scale7
I0910 12:58:40.003906  1862 net.cpp:122] Setting up scale7
I0910 12:58:40.003918  1862 net.cpp:129] Top shape: 256 4096 (1048576)
I0910 12:58:40.003922  1862 net.cpp:137] Memory required for data: 2985266176
I0910 12:58:40.003929  1862 layer_factory.hpp:77] Creating layer relu7
I0910 12:58:40.003937  1862 net.cpp:84] Creating Layer relu7
I0910 12:58:40.003942  1862 net.cpp:406] relu7 <- fc7
I0910 12:58:40.003947  1862 net.cpp:367] relu7 -> fc7 (in-place)
I0910 12:58:40.003954  1862 net.cpp:122] Setting up relu7
I0910 12:58:40.003986  1862 net.cpp:129] Top shape: 256 4096 (1048576)
I0910 12:58:40.003991  1862 net.cpp:137] Memory required for data: 2989460480
I0910 12:58:40.003994  1862 layer_factory.hpp:77] Creating layer fc8
I0910 12:58:40.004007  1862 net.cpp:84] Creating Layer fc8
I0910 12:58:40.004012  1862 net.cpp:406] fc8 <- fc7
I0910 12:58:40.004022  1862 net.cpp:380] fc8 -> fc8
I0910 12:58:40.155118  1862 net.cpp:122] Setting up fc8
I0910 12:58:40.157148  1862 net.cpp:129] Top shape: 256 1000 (256000)
I0910 12:58:40.157253  1862 net.cpp:137] Memory required for data: 2990484480
I0910 12:58:40.157339  1862 layer_factory.hpp:77] Creating layer fc8_fc8_0_split
I0910 12:58:40.157435  1862 net.cpp:84] Creating Layer fc8_fc8_0_split
I0910 12:58:40.157507  1862 net.cpp:406] fc8_fc8_0_split <- fc8
I0910 12:58:40.157578  1862 net.cpp:380] fc8_fc8_0_split -> fc8_fc8_0_split_0
I0910 12:58:40.157662  1862 net.cpp:380] fc8_fc8_0_split -> fc8_fc8_0_split_1
I0910 12:58:40.157781  1862 net.cpp:122] Setting up fc8_fc8_0_split
I0910 12:58:40.157898  1862 net.cpp:129] Top shape: 256 1000 (256000)
I0910 12:58:40.157989  1862 net.cpp:129] Top shape: 256 1000 (256000)
I0910 12:58:40.158056  1862 net.cpp:137] Memory required for data: 2992532480
I0910 12:58:40.158116  1862 layer_factory.hpp:77] Creating layer accuracy_5_TRAIN
I0910 12:58:40.158185  1862 net.cpp:84] Creating Layer accuracy_5_TRAIN
I0910 12:58:40.158252  1862 net.cpp:406] accuracy_5_TRAIN <- fc8_fc8_0_split_0
I0910 12:58:40.158318  1862 net.cpp:406] accuracy_5_TRAIN <- label_data_1_split_0
…
I0910 12:58:40.168457  1862 net.cpp:294] The NetState phase (1) differed from the phase (0) specified by a rule in layer accuracy_5_TRAIN
I0910 12:58:40.168926  1862 net.cpp:51] Initializing net from parameters: 
name: "AlexNet-BN"
state {
  phase: TEST
}
layer {
  name: "data"
  type: "Data"
  top: "data"
  top: "label"
  include {
    phase: TEST
  }
  transform_param {
    mirror: false
    crop_size: 224
    mean_value: 103.939
    mean_value: 116.779
    mean_value: 123.68
  }
  data_param {
    source: "/home/zhengzhe/Data/ilsvrc12/ilsvrc12_val_lmdb"
    batch_size: 50
    backend: LMDB
  }
}
layer {
  name: "conv1"
  type: "BinaryConvolution"
  bottom: "data"
  top: "conv1"
  param {
    lr_mult: 1
    decay_mult: 1
  }
  param {
    lr_mult: 2
    decay_mult: 0
  }
  convolution_param {
    num_output: 96
    pad: 2
    kernel_size: 11
    stride: 4
    weight_filler {
      type: "gaussian"
      std: 0.01
    }
    bias_filler {
      type: "constant"
      value: 0
    }
  }
  debug_param {
    xnorno_grad: true
  }
}
layer {
  name: "bn1"
  type: "BatchNorm"
  bottom: "conv1"
  top: "conv1"
}
layer {
  name: "scale1"
  type: "Scale"
  bottom: "conv1"
  top: "conv1"
  scale_param {
    bias_term: true
  }
}
layer {
  name: "relu1"
  type: "ReLU"
  bottom: "conv1"
  top: "conv1"
}
layer {
  name: "pool1"
  type: "Pooling"
  bottom: "conv1"
  top: "pool1"
  pooling_param {
    pool: MAX
    kernel_size: 3
    stride: 2
  }
}
layer {
  name: "conv2"
  type: "BinaryConvolution"
  bottom: "pool1"
  top: "conv2"
  param {
    lr_mult: 1
    decay_mult: 1
  }
  param {
    lr_mult: 2
    decay_mult: 0
  }
  convolution_param {
    num_output: 256
    pad: 2
    kernel_size: 5
    weight_filler {
      type: "gaussian"
      std: 0.01
    }
    bias_filler {
      type: "constant"
      value: 0.1
    }
  }
  debug_param {
    xnorno_grad: true
  }
}
layer {
  name: "bn2"
  type: "BatchNorm"
  bottom: "conv2"
  top: "conv2"
}
layer {
  name: "scale2"
  type: "Scale"
  bottom: "conv2"
  top: "conv2"
  scale_param {
    bias_term: true
  }
}
layer {
  name: "relu2"
  type: "ReLU"
  bottom: "conv2"
  top: "conv2"
}
layer {
  name: "pool2"
  type: "Pooling"
  bottom: "conv2"
  top: "pool2"
  pooling_param {
    pool: MAX
    kernel_size: 3
    stride: 2
  }
}
layer {
  name: "conv3"
  type: "BinaryConvolution"
  bottom: "pool2"
  top: "conv3"
  param {
    lr_mult: 1
    decay_mult: 1
  }
  param {
    lr_mult: 2
    decay_mult: 0
  }
  convolution_param {
    num_output: 384
    pad: 1
    kernel_size: 3
    weight_filler {
      type: "gaussian"
      std: 0.01
    }
    bias_filler {
      type: "constant"
      value: 0
    }
  }
  debug_param {
    xnorno_grad: true
  }
}
layer {
  name: "bn3"
  type: "BatchNorm"
  bottom: "conv3"
  top: "conv3"
}
layer {
  name: "scale3"
  type: "Scale"
  bottom: "conv3"
  top: "conv3"
  scale_param {
    bias_term: true
  }
}
layer {
  name: "relu3"
  type: "ReLU"
  bottom: "conv3"
  top: "conv3"
}
layer {
  name: "conv4"
  type: "BinaryConvolution"
  bottom: "conv3"
  top: "conv4"
  param {
    lr_mult: 1
    decay_mult: 1
  }
  param {
    lr_mult: 2
    decay_mult: 0
  }
  convolution_param {
    num_output: 384
    pad: 1
    kernel_size: 3
    weight_filler {
      type: "gaussian"
      std: 0.01
    }
    bias_filler {
      type: "constant"
      value: 0.1
    }
  }
  debug_param {
    xnorno_grad: true
  }
}
layer {
  name: "bn4"
  type: "BatchNorm"
  bottom: "conv4"
  top: "conv4"
}
layer {
  name: "scale4"
  type: "Scale"
  bottom: "conv4"
  top: "conv4"
  scale_param {
    bias_term: true
  }
}
layer {
  name: "relu4"
  type: "ReLU"
  bottom: "conv4"
  top: "conv4"
}
layer {
  name: "conv5"
  type: "BinaryConvolution"
  bottom: "conv4"
  top: "conv5"
  param {
    lr_mult: 1
    decay_mult: 1
  }
  param {
    lr_mult: 2
    decay_mult: 0
  }
  convolution_param {
    num_output: 256
    pad: 1
    kernel_size: 3
    weight_filler {
      type: "gaussian"
      std: 0.01
    }
    bias_filler {
      type: "constant"
      value: 0.1
    }
  }
  debug_param {
    xnorno_grad: true
  }
}
layer {
  name: "bn5"
  type: "BatchNorm"
  bottom: "conv5"
  top: "conv5"
}
layer {
  name: "scale5"
  type: "Scale"
  bottom: "conv5"
  top: "conv5"
  scale_param {
    bias_term: true
  }
}
layer {
  name: "relu5"
  type: "ReLU"
  bottom: "conv5"
  top: "conv5"
}
layer {
  name: "pool5"
  type: "Pooling"
  bottom: "conv5"
  top: "pool5"
  pooling_param {
    pool: MAX
    kernel_size: 3
    stride: 2
  }
}
layer {
  name: "drop6"
  type: "Dropout"
  bottom: "pool5"
  top: "pool5"
  dropout_param {
    dropout_ratio: 0.1
  }
}
layer {
  name: "fc6"
  type: "BinaryInnerProduct"
  bottom: "pool5"
  top: "fc6"
  param {
    lr_mult: 1
    decay_mult: 1
  }
  param {
    lr_mult: 2
    decay_mult: 0
  }
  inner_product_param {
    num_output: 4096
    weight_filler {
      type: "gaussian"
      std: 0.005
    }
    bias_filler {
      type: "constant"
      value: 0.1
    }
  }
  debug_param {
    xnorno_grad: true
  }
}
layer {
  name: "bn6"
  type: "BatchNorm"
  bottom: "fc6"
  top: "fc6"
}
layer {
  name: "scale6"
  type: "Scale"
  bottom: "fc6"
  top: "fc6"
  scale_param {
    bias_term: true
  }
}
layer {
  name: "relu6"
  type: "ReLU"
  bottom: "fc6"
  top: "fc6"
}
layer {
  name: "drop7"
  type: "Dropout"
  bottom: "fc6"
  top: "fc6"
  dropout_param {
    dropout_ratio: 0.1
  }
}
layer {
  name: "fc7"
  type: "BinaryInnerProduct"
  bottom: "fc6"
  top: "fc7"
  param {
    lr_mult: 1
    decay_mult: 1
  }
  param {
    lr_mult: 2
    decay_mult: 0
  }
  inner_product_param {
    num_output: 4096
    weight_filler {
      type: "gaussian"
      std: 0.005
    }
    bias_filler {
      type: "constant"
      value: 0.1
    }
  }
  debug_param {
    xnorno_grad: true
  }
}
layer {
  name: "bn7"
  type: "BatchNorm"
  bottom: "fc7"
  top: "fc7"
}
layer {
  name: "scale7"
  type: "Scale"
  bottom: "fc7"
  top: "fc7"
  scale_param {
    bias_term: true
  }
}
layer {
  name: "relu7"
  type: "ReLU"
  bottom: "fc7"
  top: "fc7"
}
layer {
  name: "fc8"
  type: "BinaryInnerProduct"
  bottom: "fc7"
  top: "fc8"
  param {
    lr_mult: 1
    decay_mult: 1
  }
  param {
    lr_mult: 2
    decay_mult: 0
  }
  inner_product_param {
    num_output: 1000
    weight_filler {
      type: "gaussian"
      std: 0.01
    }
    bias_filler {
      type: "constant"
      value: 0
    }
  }
  debug_param {
    xnorno_grad: true
  }
}
layer {
  name: "accuracy"
  type: "Accuracy"
  bottom: "fc8"
  bottom: "label"
  top: "accuracy"
  include {
    phase: TEST
  }
}
layer {
  name: "accuracy_5"
  type: "Accuracy"
  bottom: "fc8"
  bottom: "label"
  top: "accuracy_5"
  include {
    phase: TEST
  }
  accuracy_param {
    top_k: 5
  }
}
layer {
  name: "loss"
  type: "SoftmaxWithLoss"
  bottom: "fc8"
  bottom: "label"
  top: "loss"
}
I0910 12:58:40.172310  1862 layer_factory.hpp:77] Creating layer data
I0910 12:58:40.212388  1862 db_lmdb.cpp:35] Opened lmdb /home/zhengzhe/Data/ilsvrc12/ilsvrc12_val_lmdb
I0910 12:58:40.212419  1862 net.cpp:84] Creating Layer data
I0910 12:58:40.212430  1862 net.cpp:380] data -> data
I0910 12:58:40.212441  1862 net.cpp:380] data -> label
I0910 12:58:40.212823  1862 data_layer.cpp:45] output data size: 50,3,224,224
I0910 12:58:40.544471  1862 net.cpp:122] Setting up data
I0910 12:58:40.544804  1862 net.cpp:129] Top shape: 50 3 224 224 (7526400)
I0910 12:58:40.544900  1862 net.cpp:129] Top shape: 50 (50)
I0910 12:58:40.544970  1862 net.cpp:137] Memory required for data: 30105800
I0910 12:58:40.545042  1862 layer_factory.hpp:77] Creating layer label_data_1_split
I0910 12:58:40.545131  1862 net.cpp:84] Creating Layer label_data_1_split
I0910 12:58:40.545219  1862 net.cpp:406] label_data_1_split <- label
I0910 12:58:40.545291  1862 net.cpp:380] label_data_1_split -> label_data_1_split_0
I0910 12:58:40.545449  1862 net.cpp:380] label_data_1_split -> label_data_1_split_1
I0910 12:58:40.545558  1862 net.cpp:380] label_data_1_split -> label_data_1_split_2
I0910 12:58:40.545735  1862 net.cpp:122] Setting up label_data_1_split
I0910 12:58:40.545971  1862 net.cpp:129] Top shape: 50 (50)
I0910 12:58:40.546061  1862 net.cpp:129] Top shape: 50 (50)
I0910 12:58:40.546128  1862 net.cpp:129] Top shape: 50 (50)
I0910 12:58:40.546193  1862 net.cpp:137] Memory required for data: 30106400
I0910 12:58:40.546254  1862 layer_factory.hpp:77] Creating layer conv1
I0910 12:58:40.546329  1862 net.cpp:84] Creating Layer conv1
I0910 12:58:40.546419  1862 net.cpp:406] conv1 <- data
I0910 12:58:40.546490  1862 net.cpp:380] conv1 -> conv1
I0910 12:58:40.547389  1862 net.cpp:122] Setting up conv1
I0910 12:58:40.549123  1862 net.cpp:129] Top shape: 50 96 55 55 (14520000)
I0910 12:58:40.549216  1862 net.cpp:137] Memory required for data: 88186400
I0910 12:58:40.549289  1862 layer_factory.hpp:77] Creating layer bn1
I0910 12:58:40.549389  1862 net.cpp:84] Creating Layer bn1
I0910 12:58:40.549466  1862 net.cpp:406] bn1 <- conv1
I0910 12:58:40.549535  1862 net.cpp:367] bn1 -> conv1 (in-place)
I0910 12:58:40.553283  1862 net.cpp:122] Setting up bn1
I0910 12:58:40.553367  1862 net.cpp:129] Top shape: 50 96 55 55 (14520000)
I0910 12:58:40.553413  1862 net.cpp:137] Memory required for data: 146266400
I0910 12:58:40.553467  1862 layer_factory.hpp:77] Creating layer scale1
I0910 12:58:40.553520  1862 net.cpp:84] Creating Layer scale1
I0910 12:58:40.553561  1862 net.cpp:406] scale1 <- conv1
I0910 12:58:40.553603  1862 net.cpp:367] scale1 -> conv1 (in-place)
I0910 12:58:40.553694  1862 layer_factory.hpp:77] Creating layer scale1
I0910 12:58:40.553884  1862 net.cpp:122] Setting up scale1
I0910 12:58:40.553937  1862 net.cpp:129] Top shape: 50 96 55 55 (14520000)
I0910 12:58:40.553982  1862 net.cpp:137] Memory required for data: 204346400
I0910 12:58:40.554029  1862 layer_factory.hpp:77] Creating layer relu1
I0910 12:58:40.554077  1862 net.cpp:84] Creating Layer relu1
I0910 12:58:40.554121  1862 net.cpp:406] relu1 <- conv1
I0910 12:58:40.554163  1862 net.cpp:367] relu1 -> conv1 (in-place)
I0910 12:58:40.554208  1862 net.cpp:122] Setting up relu1
I0910 12:58:40.554251  1862 net.cpp:129] Top shape: 50 96 55 55 (14520000)
I0910 12:58:40.554288  1862 net.cpp:137] Memory required for data: 262426400
I0910 12:58:40.554325  1862 layer_factory.hpp:77] Creating layer pool1
I0910 12:58:40.554379  1862 net.cpp:84] Creating Layer pool1
I0910 12:58:40.554443  1862 net.cpp:406] pool1 <- conv1
I0910 12:58:40.554494  1862 net.cpp:380] pool1 -> pool1
I0910 12:58:40.554587  1862 net.cpp:122] Setting up pool1
I0910 12:58:40.554641  1862 net.cpp:129] Top shape: 50 96 27 27 (3499200)
I0910 12:58:40.554682  1862 net.cpp:137] Memory required for data: 276423200
I0910 12:58:40.554721  1862 layer_factory.hpp:77] Creating layer conv2
I0910 12:58:40.554767  1862 net.cpp:84] Creating Layer conv2
I0910 12:58:40.554807  1862 net.cpp:406] conv2 <- pool1
I0910 12:58:40.554850  1862 net.cpp:380] conv2 -> conv2
I0910 12:58:40.575121  1862 net.cpp:122] Setting up conv2
I0910 12:58:40.580340  1862 net.cpp:129] Top shape: 50 256 27 27 (9331200)
I0910 12:58:40.580446  1862 net.cpp:137] Memory required for data: 313748000
I0910 12:58:40.580525  1862 layer_factory.hpp:77] Creating layer bn2
I0910 12:58:40.580624  1862 net.cpp:84] Creating Layer bn2
I0910 12:58:40.580708  1862 net.cpp:406] bn2 <- conv2
I0910 12:58:40.580778  1862 net.cpp:367] bn2 -> conv2 (in-place)
I0910 12:58:40.581073  1862 net.cpp:122] Setting up bn2
I0910 12:58:40.581594  1862 net.cpp:129] Top shape: 50 256 27 27 (9331200)
I0910 12:58:40.581686  1862 net.cpp:137] Memory required for data: 351072800
I0910 12:58:40.581756  1862 layer_factory.hpp:77] Creating layer scale2
I0910 12:58:40.581836  1862 net.cpp:84] Creating Layer scale2
I0910 12:58:40.581909  1862 net.cpp:406] scale2 <- conv2
I0910 12:58:40.581976  1862 net.cpp:367] scale2 -> conv2 (in-place)
I0910 12:58:40.582099  1862 layer_factory.hpp:77] Creating layer scale2
I0910 12:58:40.582401  1862 net.cpp:122] Setting up scale2
I0910 12:58:40.582731  1862 net.cpp:129] Top shape: 50 256 27 27 (9331200)
I0910 12:58:40.582818  1862 net.cpp:137] Memory required for data: 388397600
I0910 12:58:40.582886  1862 layer_factory.hpp:77] Creating layer relu2
I0910 12:58:40.582964  1862 net.cpp:84] Creating Layer relu2
I0910 12:58:40.583034  1862 net.cpp:406] relu2 <- conv2
I0910 12:58:40.583099  1862 net.cpp:367] relu2 -> conv2 (in-place)
I0910 12:58:40.583175  1862 net.cpp:122] Setting up relu2
I0910 12:58:40.583252  1862 net.cpp:129] Top shape: 50 256 27 27 (9331200)
I0910 12:58:40.583318  1862 net.cpp:137] Memory required for data: 425722400
I0910 12:58:40.583379  1862 layer_factory.hpp:77] Creating layer pool2
I0910 12:58:40.583447  1862 net.cpp:84] Creating Layer pool2
I0910 12:58:40.583518  1862 net.cpp:406] pool2 <- conv2
I0910 12:58:40.583578  1862 net.cpp:380] pool2 -> pool2
I0910 12:58:40.583698  1862 net.cpp:122] Setting up pool2
I0910 12:58:40.583873  1862 net.cpp:129] Top shape: 50 256 13 13 (2163200)
I0910 12:58:40.583941  1862 net.cpp:137] Memory required for data: 434375200
I0910 12:58:40.584000  1862 layer_factory.hpp:77] Creating layer conv3
I0910 12:58:40.584071  1862 net.cpp:84] Creating Layer conv3
I0910 12:58:40.584151  1862 net.cpp:406] conv3 <- pool2
I0910 12:58:40.584218  1862 net.cpp:380] conv3 -> conv3
I0910 12:58:40.630091  1862 net.cpp:122] Setting up conv3
I0910 12:58:40.632956  1862 net.cpp:129] Top shape: 50 384 13 13 (3244800)
I0910 12:58:40.633088  1862 net.cpp:137] Memory required for data: 447354400
I0910 12:58:40.633172  1862 layer_factory.hpp:77] Creating layer bn3
I0910 12:58:40.633293  1862 net.cpp:84] Creating Layer bn3
I0910 12:58:40.633401  1862 net.cpp:406] bn3 <- conv3
I0910 12:58:40.633507  1862 net.cpp:367] bn3 -> conv3 (in-place)
I0910 12:58:40.633849  1862 net.cpp:122] Setting up bn3
I0910 12:58:40.634506  1862 net.cpp:129] Top shape: 50 384 13 13 (3244800)
I0910 12:58:40.634624  1862 net.cpp:137] Memory required for data: 460333600
I0910 12:58:40.634690  1862 layer_factory.hpp:77] Creating layer scale3
I0910 12:58:40.634802  1862 net.cpp:84] Creating Layer scale3
I0910 12:58:40.634886  1862 net.cpp:406] scale3 <- conv3
I0910 12:58:40.634953  1862 net.cpp:367] scale3 -> conv3 (in-place)
I0910 12:58:40.635089  1862 layer_factory.hpp:77] Creating layer scale3
I0910 12:58:40.635432  1862 net.cpp:122] Setting up scale3
I0910 12:58:40.635812  1862 net.cpp:129] Top shape: 50 384 13 13 (3244800)
I0910 12:58:40.635980  1862 net.cpp:137] Memory required for data: 473312800
I0910 12:58:40.636073  1862 layer_factory.hpp:77] Creating layer relu3
I0910 12:58:40.636147  1862 net.cpp:84] Creating Layer relu3
I0910 12:58:40.636219  1862 net.cpp:406] relu3 <- conv3
I0910 12:58:40.636287  1862 net.cpp:367] relu3 -> conv3 (in-place)
I0910 12:58:40.636368  1862 net.cpp:122] Setting up relu3
I0910 12:58:40.636443  1862 net.cpp:129] Top shape: 50 384 13 13 (3244800)
I0910 12:58:40.636507  1862 net.cpp:137] Memory required for data: 486292000
I0910 12:58:40.636567  1862 layer_factory.hpp:77] Creating layer conv4
I0910 12:58:40.636643  1862 net.cpp:84] Creating Layer conv4
I0910 12:58:40.636739  1862 net.cpp:406] conv4 <- conv3
I0910 12:58:40.636806  1862 net.cpp:380] conv4 -> conv4
I0910 12:58:40.676975  1862 net.cpp:122] Setting up conv4
I0910 12:58:40.693806  1862 net.cpp:129] Top shape: 50 384 13 13 (3244800)
I0910 12:58:40.693914  1862 net.cpp:137] Memory required for data: 499271200
I0910 12:58:40.693995  1862 layer_factory.hpp:77] Creating layer bn4
I0910 12:58:40.694084  1862 net.cpp:84] Creating Layer bn4
I0910 12:58:40.694169  1862 net.cpp:406] bn4 <- conv4
I0910 12:58:40.694242  1862 net.cpp:367] bn4 -> conv4 (in-place)
I0910 12:58:40.694562  1862 net.cpp:122] Setting up bn4
I0910 12:58:40.695119  1862 net.cpp:129] Top shape: 50 384 13 13 (3244800)
I0910 12:58:40.695209  1862 net.cpp:137] Memory required for data: 512250400
I0910 12:58:40.695281  1862 layer_factory.hpp:77] Creating layer scale4
I0910 12:58:40.695366  1862 net.cpp:84] Creating Layer scale4
I0910 12:58:40.695441  1862 net.cpp:406] scale4 <- conv4
I0910 12:58:40.695513  1862 net.cpp:367] scale4 -> conv4 (in-place)
I0910 12:58:40.695638  1862 layer_factory.hpp:77] Creating layer scale4
I0910 12:58:40.695950  1862 net.cpp:122] Setting up scale4
I0910 12:58:40.696310  1862 net.cpp:129] Top shape: 50 384 13 13 (3244800)
I0910 12:58:40.696399  1862 net.cpp:137] Memory required for data: 525229600
I0910 12:58:40.696465  1862 layer_factory.hpp:77] Creating layer relu4
I0910 12:58:40.696542  1862 net.cpp:84] Creating Layer relu4
I0910 12:58:40.696591  1862 net.cpp:406] relu4 <- conv4
I0910 12:58:40.696635  1862 net.cpp:367] relu4 -> conv4 (in-place)
I0910 12:58:40.696689  1862 net.cpp:122] Setting up relu4
I0910 12:58:40.696738  1862 net.cpp:129] Top shape: 50 384 13 13 (3244800)
I0910 12:58:40.696776  1862 net.cpp:137] Memory required for data: 538208800
I0910 12:58:40.696813  1862 layer_factory.hpp:77] Creating layer conv5
I0910 12:58:40.696862  1862 net.cpp:84] Creating Layer conv5
I0910 12:58:40.696923  1862 net.cpp:406] conv5 <- conv4
I0910 12:58:40.696964  1862 net.cpp:380] conv5 -> conv5
I0910 12:58:40.726685  1862 net.cpp:122] Setting up conv5
I0910 12:58:40.735630  1862 net.cpp:129] Top shape: 50 256 13 13 (2163200)
I0910 12:58:40.735685  1862 net.cpp:137] Memory required for data: 546861600
I0910 12:58:40.735731  1862 layer_factory.hpp:77] Creating layer bn5
I0910 12:58:40.735801  1862 net.cpp:84] Creating Layer bn5
I0910 12:58:40.735857  1862 net.cpp:406] bn5 <- conv5
I0910 12:58:40.735896  1862 net.cpp:367] bn5 -> conv5 (in-place)
I0910 12:58:40.736165  1862 net.cpp:122] Setting up bn5
I0910 12:58:40.736660  1862 net.cpp:129] Top shape: 50 256 13 13 (2163200)
I0910 12:58:40.736701  1862 net.cpp:137] Memory required for data: 555514400
I0910 12:58:40.736747  1862 layer_factory.hpp:77] Creating layer scale5
I0910 12:58:40.736812  1862 net.cpp:84] Creating Layer scale5
I0910 12:58:40.736860  1862 net.cpp:406] scale5 <- conv5
I0910 12:58:40.736903  1862 net.cpp:367] scale5 -> conv5 (in-place)
I0910 12:58:40.737000  1862 layer_factory.hpp:77] Creating layer scale5
I0910 12:58:40.737274  1862 net.cpp:122] Setting up scale5
I0910 12:58:40.737586  1862 net.cpp:129] Top shape: 50 256 13 13 (2163200)
I0910 12:58:40.737629  1862 net.cpp:137] Memory required for data: 564167200
I0910 12:58:40.737669  1862 layer_factory.hpp:77] Creating layer relu5
I0910 12:58:40.737715  1862 net.cpp:84] Creating Layer relu5
I0910 12:58:40.737771  1862 net.cpp:406] relu5 <- conv5
I0910 12:58:40.737852  1862 net.cpp:367] relu5 -> conv5 (in-place)
I0910 12:58:40.737903  1862 net.cpp:122] Setting up relu5
I0910 12:58:40.737956  1862 net.cpp:129] Top shape: 50 256 13 13 (2163200)
I0910 12:58:40.737995  1862 net.cpp:137] Memory required for data: 572820000
I0910 12:58:40.738032  1862 layer_factory.hpp:77] Creating layer pool5
I0910 12:58:40.738071  1862 net.cpp:84] Creating Layer pool5
I0910 12:58:40.738114  1862 net.cpp:406] pool5 <- conv5
I0910 12:58:40.738157  1862 net.cpp:380] pool5 -> pool5
I0910 12:58:40.738250  1862 net.cpp:122] Setting up pool5
I0910 12:58:40.738394  1862 net.cpp:129] Top shape: 50 256 6 6 (460800)
I0910 12:58:40.738435  1862 net.cpp:137] Memory required for data: 574663200
I0910 12:58:40.738473  1862 layer_factory.hpp:77] Creating layer drop6
I0910 12:58:40.738519  1862 net.cpp:84] Creating Layer drop6
I0910 12:58:40.738571  1862 net.cpp:406] drop6 <- pool5
I0910 12:58:40.738612  1862 net.cpp:367] drop6 -> pool5 (in-place)
I0910 12:58:40.738685  1862 net.cpp:122] Setting up drop6
I0910 12:58:40.738786  1862 net.cpp:129] Top shape: 50 256 6 6 (460800)
I0910 12:58:40.738828  1862 net.cpp:137] Memory required for data: 576506400
I0910 12:58:40.738863  1862 layer_factory.hpp:77] Creating layer fc6
I0910 12:58:40.738909  1862 net.cpp:84] Creating Layer fc6
I0910 12:58:40.738958  1862 net.cpp:406] fc6 <- pool5
I0910 12:58:40.738997  1862 net.cpp:380] fc6 -> fc6
I0910 12:58:42.806288  1862 net.cpp:122] Setting up fc6
I0910 12:58:42.806479  1862 net.cpp:129] Top shape: 50 4096 (204800)
I0910 12:58:42.806529  1862 net.cpp:137] Memory required for data: 577325600
I0910 12:58:42.806579  1862 layer_factory.hpp:77] Creating layer bn6
I0910 12:58:42.806635  1862 net.cpp:84] Creating Layer bn6
I0910 12:58:42.806680  1862 net.cpp:406] bn6 <- fc6
I0910 12:58:42.806723  1862 net.cpp:367] bn6 -> fc6 (in-place)
I0910 12:58:42.807008  1862 net.cpp:122] Setting up bn6
I0910 12:58:42.807085  1862 net.cpp:129] Top shape: 50 4096 (204800)
I0910 12:58:42.807128  1862 net.cpp:137] Memory required for data: 578144800
I0910 12:58:42.807178  1862 layer_factory.hpp:77] Creating layer scale6
I0910 12:58:42.807227  1862 net.cpp:84] Creating Layer scale6
I0910 12:58:42.807268  1862 net.cpp:406] scale6 <- fc6
I0910 12:58:42.807312  1862 net.cpp:367] scale6 -> fc6 (in-place)
I0910 12:58:42.807405  1862 layer_factory.hpp:77] Creating layer scale6
I0910 12:58:42.807607  1862 net.cpp:122] Setting up scale6
I0910 12:58:42.807677  1862 net.cpp:129] Top shape: 50 4096 (204800)
I0910 12:58:42.807718  1862 net.cpp:137] Memory required for data: 578964000
I0910 12:58:42.807760  1862 layer_factory.hpp:77] Creating layer relu6
I0910 12:58:42.807806  1862 net.cpp:84] Creating Layer relu6
I0910 12:58:42.807844  1862 net.cpp:406] relu6 <- fc6
I0910 12:58:42.807890  1862 net.cpp:367] relu6 -> fc6 (in-place)
I0910 12:58:42.807935  1862 net.cpp:122] Setting up relu6
I0910 12:58:42.807976  1862 net.cpp:129] Top shape: 50 4096 (204800)
I0910 12:58:42.808013  1862 net.cpp:137] Memory required for data: 579783200
I0910 12:58:42.808051  1862 layer_factory.hpp:77] Creating layer drop7
I0910 12:58:42.808092  1862 net.cpp:84] Creating Layer drop7
I0910 12:58:42.808131  1862 net.cpp:406] drop7 <- fc6
I0910 12:58:42.808171  1862 net.cpp:367] drop7 -> fc6 (in-place)
I0910 12:58:42.808243  1862 net.cpp:122] Setting up drop7
I0910 12:58:42.808300  1862 net.cpp:129] Top shape: 50 4096 (204800)
I0910 12:58:42.808344  1862 net.cpp:137] Memory required for data: 580602400
I0910 12:58:42.808383  1862 layer_factory.hpp:77] Creating layer fc7
I0910 12:58:42.808430  1862 net.cpp:84] Creating Layer fc7
I0910 12:58:42.808471  1862 net.cpp:406] fc7 <- fc6
I0910 12:58:42.808516  1862 net.cpp:380] fc7 -> fc7
I0910 12:58:43.522239  1862 net.cpp:122] Setting up fc7
I0910 12:58:43.522491  1862 net.cpp:129] Top shape: 50 4096 (204800)
I0910 12:58:43.522516  1862 net.cpp:137] Memory required for data: 581421600
I0910 12:58:43.522560  1862 layer_factory.hpp:77] Creating layer bn7
I0910 12:58:43.522615  1862 net.cpp:84] Creating Layer bn7
I0910 12:58:43.522637  1862 net.cpp:406] bn7 <- fc7
I0910 12:58:43.522713  1862 net.cpp:367] bn7 -> fc7 (in-place)
I0910 12:58:43.523725  1862 net.cpp:122] Setting up bn7
I0910 12:58:43.523792  1862 net.cpp:129] Top shape: 50 4096 (204800)
I0910 12:58:43.523833  1862 net.cpp:137] Memory required for data: 582240800
I0910 12:58:43.523888  1862 layer_factory.hpp:77] Creating layer scale7
I0910 12:58:43.523943  1862 net.cpp:84] Creating Layer scale7
I0910 12:58:43.523984  1862 net.cpp:406] scale7 <- fc7
I0910 12:58:43.524034  1862 net.cpp:367] scale7 -> fc7 (in-place)
I0910 12:58:43.524271  1862 layer_factory.hpp:77] Creating layer scale7
I0910 12:58:43.524832  1862 net.cpp:122] Setting up scale7
I0910 12:58:43.524893  1862 net.cpp:129] Top shape: 50 4096 (204800)
I0910 12:58:43.524933  1862 net.cpp:137] Memory required for data: 583060000
I0910 12:58:43.524986  1862 layer_factory.hpp:77] Creating layer relu7
I0910 12:58:43.525036  1862 net.cpp:84] Creating Layer relu7
I0910 12:58:43.525075  1862 net.cpp:406] relu7 <- fc7
I0910 12:58:43.525121  1862 net.cpp:367] relu7 -> fc7 (in-place)
I0910 12:58:43.525173  1862 net.cpp:122] Setting up relu7
I0910 12:58:43.525214  1862 net.cpp:129] Top shape: 50 4096 (204800)
I0910 12:58:43.525241  1862 net.cpp:137] Memory required for data: 583879200
I0910 12:58:43.525280  1862 layer_factory.hpp:77] Creating layer fc8
I0910 12:58:43.525352  1862 net.cpp:84] Creating Layer fc8
I0910 12:58:43.525395  1862 net.cpp:406] fc8 <- fc7
I0910 12:58:43.525454  1862 net.cpp:380] fc8 -> fc8
I0910 12:58:43.871373  1862 net.cpp:122] Setting up fc8
I0910 12:58:43.887282  1862 net.cpp:129] Top shape: 50 1000 (50000)
I0910 12:58:43.887712  1862 net.cpp:137] Memory required for data: 584079200
I0910 12:58:43.887917  1862 layer_factory.hpp:77] Creating layer fc8_fc8_0_split
I0910 12:58:43.888160  1862 net.cpp:84] Creating Layer fc8_fc8_0_split
I0910 12:58:43.888267  1862 net.cpp:406] fc8_fc8_0_split <- fc8
I0910 12:58:43.888432  1862 net.cpp:380] fc8_fc8_0_split -> fc8_fc8_0_split_0
I0910 12:58:43.888514  1862 net.cpp:380] fc8_fc8_0_split -> fc8_fc8_0_split_1
I0910 12:58:43.888593  1862 net.cpp:380] fc8_fc8_0_split -> fc8_fc8_0_split_2
I0910 12:58:43.888854  1862 net.cpp:122] Setting up fc8_fc8_0_split
I0910 12:58:43.889065  1862 net.cpp:129] Top shape: 50 1000 (50000)
I0910 12:58:43.889163  1862 net.cpp:129] Top shape: 50 1000 (50000)
I0910 12:58:43.889305  1862 net.cpp:129] Top shape: 50 1000 (50000)
I0910 12:58:43.889377  1862 net.cpp:137] Memory required for data: 584679200
I0910 12:58:43.889421  1862 layer_factory.hpp:77] Creating layer accuracy
I0910 12:58:43.889473  1862 net.cpp:84] Creating Layer accuracy
I0910 12:58:43.889554  1862 net.cpp:406] accuracy <- fc8_fc8_0_split_0
I0910 12:58:43.889700  1862 net.cpp:406] accuracy <- label_data_1_split_0
I0910 12:58:43.889755  1862 net.cpp:380] accuracy -> accuracy
…
