…
I0121 19:49:08.436890 12111 net.cpp:294] The NetState phase (0) differed from the phase (1) specified by a rule in layer data
I0121 19:49:08.437261 12111 net.cpp:51] Initializing net from parameters: 
name: "AlexNet-BN"
state {
  phase: TRAIN
  level: 0
  stage: ""
}
layer {
  name: "data"
  type: "Data"
  top: "data"
  top: "label"
  include {
    phase: TRAIN
  }
  transform_param {
    mirror: true
    crop_size: 224
    mean_value: 104
    mean_value: 117
    mean_value: 123
  }
  data_param {
    source: "/home/zhengzhe/Data/imagenet_shrt256/ilsvrc12_train_lmdb"
    batch_size: 256
    backend: LMDB
  }
}
layer {
  name: "conv1"
  type: "Convolution"
  bottom: "data"
  top: "conv1"
  param {
    lr_mult: 1
    decay_mult: 1
  }
  convolution_param {
    num_output: 96
    bias_term: false
    pad: 2
    kernel_size: 11
    stride: 4
    weight_filler {
      type: "msra"
    }
  }
}
layer {
  name: "bn1"
  type: "BatchNorm"
  bottom: "conv1"
  top: "conv1"
}
layer {
  name: "scale1"
  type: "Scale"
  bottom: "conv1"
  top: "conv1"
  scale_param {
    bias_term: true
  }
}
layer {
  name: "relu1"
  type: "ReLU"
  bottom: "conv1"
  top: "conv1"
}
layer {
  name: "pool1"
  type: "Pooling"
  bottom: "conv1"
  top: "pool1"
  pooling_param {
    pool: MAX
    kernel_size: 3
    stride: 2
  }
}
layer {
  name: "bn2"
  type: "BatchNorm"
  bottom: "pool1"
  top: "pool1"
}
layer {
  name: "scale2"
  type: "Scale"
  bottom: "pool1"
  top: "pool1"
  scale_param {
    bias_term: true
  }
}
layer {
  name: "binactive1"
  type: "BinActive"
  bottom: "pool1"
  top: "binactive1"
}
layer {
  name: "conv2"
  type: "BinaryConvolution"
  bottom: "binactive1"
  top: "conv2"
  param {
    lr_mult: 1
    decay_mult: 1
  }
  convolution_param {
    num_output: 256
    bias_term: false
    pad: 2
    kernel_size: 5
    weight_filler {
      type: "msra"
    }
  }
  debug_param {
    xnorno_grad: false
  }
}
layer {
  name: "pool2"
  type: "Pooling"
  bottom: "conv2"
  top: "pool2"
  pooling_param {
    pool: MAX
    kernel_size: 3
    stride: 2
  }
}
layer {
  name: "bn3"
  type: "BatchNorm"
  bottom: "pool2"
  top: "pool2"
}
layer {
  name: "scale3"
  type: "Scale"
  bottom: "pool2"
  top: "pool2"
  scale_param {
    bias_term: true
  }
}
layer {
  name: "binactive2"
  type: "BinActive"
  bottom: "pool2"
  top: "binactive2"
}
layer {
  name: "conv3"
  type: "BinaryConvolution"
  bottom: "binactive2"
  top: "conv3"
  param {
    lr_mult: 1
    decay_mult: 1
  }
  convolution_param {
    num_output: 384
    bias_term: false
    pad: 1
    kernel_size: 3
    weight_filler {
      type: "msra"
    }
  }
  debug_param {
    xnorno_grad: false
  }
}
layer {
  name: "bn4"
  type: "BatchNorm"
  bottom: "conv3"
  top: "conv3"
}
layer {
  name: "scale4"
  type: "Scale"
  bottom: "conv3"
  top: "conv3"
  scale_param {
    bias_term: true
  }
}
layer {
  name: "binactive3"
  type: "BinActive"
  bottom: "conv3"
  top: "binactive3"
}
layer {
  name: "conv4"
  type: "BinaryConvolution"
  bottom: "binactive3"
  top: "conv4"
  param {
    lr_mult: 1
    decay_mult: 1
  }
  convolution_param {
    num_output: 384
    bias_term: false
    pad: 1
    kernel_size: 3
    weight_filler {
      type: "msra"
    }
  }
  debug_param {
    xnorno_grad: false
  }
}
layer {
  name: "bn5"
  type: "BatchNorm"
  bottom: "conv4"
  top: "conv4"
}
layer {
  name: "scale5"
  type: "Scale"
  bottom: "conv4"
  top: "conv4"
  scale_param {
    bias_term: true
  }
}
layer {
  name: "binactive4"
  type: "BinActive"
  bottom: "conv4"
  top: "binactive4"
}
layer {
  name: "conv5"
  type: "BinaryConvolution"
  bottom: "binactive4"
  top: "conv5"
  param {
    lr_mult: 1
    decay_mult: 1
  }
  convolution_param {
    num_output: 256
    bias_term: false
    pad: 1
    kernel_size: 3
    weight_filler {
      type: "msra"
    }
  }
  debug_param {
    xnorno_grad: false
  }
}
layer {
  name: "pool5"
  type: "Pooling"
  bottom: "conv5"
  top: "pool5"
  pooling_param {
    pool: MAX
    kernel_size: 3
    stride: 2
  }
}
layer {
  name: "bn6"
  type: "BatchNorm"
  bottom: "pool5"
  top: "pool5"
}
layer {
  name: "scale6"
  type: "Scale"
  bottom: "pool5"
  top: "pool5"
  scale_param {
    bias_term: true
  }
}
layer {
  name: "binactive5"
  type: "BinActive"
  bottom: "pool5"
  top: "binactive5"
}
layer {
  name: "fc6"
  type: "BinaryInnerProduct"
  bottom: "binactive5"
  top: "fc6"
  param {
    lr_mult: 1
    decay_mult: 1
  }
  inner_product_param {
    num_output: 4096
    bias_term: false
    weight_filler {
      type: "msra"
    }
  }
  debug_param {
    xnorno_grad: false
  }
}
layer {
  name: "bn7"
  type: "BatchNorm"
  bottom: "fc6"
  top: "fc6"
}
layer {
  name: "scale7"
  type: "Scale"
  bottom: "fc6"
  top: "fc6"
  scale_param {
    bias_term: true
  }
}
layer {
  name: "binactive6"
  type: "BinActive"
  bottom: "fc6"
  top: "binactive6"
}
layer {
  name: "fc7"
  type: "BinaryInnerProduct"
  bottom: "binactive6"
  top: "fc7"
  param {
    lr_mult: 1
    decay_mult: 1
  }
  inner_product_param {
    num_output: 4096
    bias_term: false
    weight_filler {
      type: "msra"
    }
  }
  debug_param {
    xnorno_grad: false
  }
}
layer {
  name: "bn8"
  type: "BatchNorm"
  bottom: "fc7"
  top: "fc7"
}
layer {
  name: "scale8"
  type: "Scale"
  bottom: "fc7"
  top: "fc7"
  scale_param {
    bias_term: true
  }
}
layer {
  name: "relu7"
  type: "ReLU"
  bottom: "fc7"
  top: "fc7"
}
layer {
  name: "fc8"
  type: "InnerProduct"
  bottom: "fc7"
  top: "fc8"
  param {
    lr_mult: 1
    decay_mult: 1
  }
  param {
    lr_mult: 2
    decay_mult: 0
  }
  inner_product_param {
    num_output: 1000
    weight_filler {
      type: "msra"
    }
    bias_filler {
      type: "constant"
      value: 0
    }
  }
}
layer {
  name: "loss"
  type: "SoftmaxWithLoss"
  bottom: "fc8"
  bottom: "label"
  top: "loss"
}
layer {
  name: "accuracy"
  type: "Accuracy"
  bottom: "fc8"
  bottom: "label"
  top: "accuracy"
}
layer {
  name: "accuracy_5"
  type: "Accuracy"
  bottom: "fc8"
  bottom: "label"
  top: "accuracy_5"
  accuracy_param {
    top_k: 5
  }
}
I0121 19:49:08.438441 12111 layer_factory.hpp:78] Creating layer data
I0121 19:49:08.438791 12111 db_lmdb.cpp:35] Opened lmdb /home/zhengzhe/Data/imagenet_shrt256/ilsvrc12_train_lmdb
I0121 19:49:08.438912 12111 net.cpp:84] Creating Layer data
I0121 19:49:08.438966 12111 net.cpp:380] data -> data
I0121 19:49:08.439239 12111 net.cpp:380] data -> label
I0121 19:49:08.444947 12111 data_layer.cpp:45] output data size: 256,3,224,224
I0121 19:49:08.902585 12111 base_data_layer.cpp:72] Initializing prefetch
I0121 19:49:09.064522 12111 base_data_layer.cpp:75] Prefetch initialized.
I0121 19:49:09.064565 12111 net.cpp:122] Setting up data
I0121 19:49:09.064641 12111 net.cpp:129] Top shape: 256 3 224 224 (38535168)
I0121 19:49:09.064663 12111 net.cpp:129] Top shape: 256 (256)
I0121 19:49:09.064673 12111 net.cpp:137] Memory required for data: 154141696
I0121 19:49:09.064721 12111 layer_factory.hpp:78] Creating layer label_data_1_split
I0121 19:49:09.064836 12111 net.cpp:84] Creating Layer label_data_1_split
I0121 19:49:09.064867 12111 net.cpp:406] label_data_1_split <- label
I0121 19:49:09.064947 12111 net.cpp:380] label_data_1_split -> label_data_1_split_0
I0121 19:49:09.064994 12111 net.cpp:380] label_data_1_split -> label_data_1_split_1
I0121 19:49:09.065017 12111 net.cpp:380] label_data_1_split -> label_data_1_split_2
I0121 19:49:09.065229 12111 net.cpp:122] Setting up label_data_1_split
I0121 19:49:09.065248 12111 net.cpp:129] Top shape: 256 (256)
I0121 19:49:09.065274 12111 net.cpp:129] Top shape: 256 (256)
I0121 19:49:09.065281 12111 net.cpp:129] Top shape: 256 (256)
I0121 19:49:09.065285 12111 net.cpp:137] Memory required for data: 154144768
I0121 19:49:09.065292 12111 layer_factory.hpp:78] Creating layer conv1
I0121 19:49:09.065395 12111 net.cpp:84] Creating Layer conv1
I0121 19:49:09.065409 12111 net.cpp:406] conv1 <- data
I0121 19:49:09.065433 12111 net.cpp:380] conv1 -> conv1
I0121 19:49:10.579862 12111 cudnn_conv_layer.cpp:194] Reallocating workspace storage: 127416
I0121 19:49:10.580334 12111 net.cpp:122] Setting up conv1
I0121 19:49:10.580412 12111 net.cpp:129] Top shape: 256 96 55 55 (74342400)
I0121 19:49:10.580420 12111 net.cpp:137] Memory required for data: 451514368
I0121 19:49:10.580597 12111 layer_factory.hpp:78] Creating layer bn1
I0121 19:49:10.580685 12111 net.cpp:84] Creating Layer bn1
I0121 19:49:10.580723 12111 net.cpp:406] bn1 <- conv1
I0121 19:49:10.580770 12111 net.cpp:367] bn1 -> conv1 (in-place)
I0121 19:49:10.584180 12111 net.cpp:122] Setting up bn1
I0121 19:49:10.584220 12111 net.cpp:129] Top shape: 256 96 55 55 (74342400)
I0121 19:49:10.584225 12111 net.cpp:137] Memory required for data: 748883968
I0121 19:49:10.584300 12111 layer_factory.hpp:78] Creating layer scale1
I0121 19:49:10.584398 12111 net.cpp:84] Creating Layer scale1
I0121 19:49:10.584414 12111 net.cpp:406] scale1 <- conv1
I0121 19:49:10.584447 12111 net.cpp:367] scale1 -> conv1 (in-place)
I0121 19:49:10.584616 12111 layer_factory.hpp:78] Creating layer scale1
I0121 19:49:10.584952 12111 net.cpp:122] Setting up scale1
I0121 19:49:10.585000 12111 net.cpp:129] Top shape: 256 96 55 55 (74342400)
I0121 19:49:10.585006 12111 net.cpp:137] Memory required for data: 1046253568
I0121 19:49:10.585041 12111 layer_factory.hpp:78] Creating layer relu1
I0121 19:49:10.585093 12111 net.cpp:84] Creating Layer relu1
I0121 19:49:10.585105 12111 net.cpp:406] relu1 <- conv1
I0121 19:49:10.585151 12111 net.cpp:367] relu1 -> conv1 (in-place)
I0121 19:49:10.586042 12111 net.cpp:122] Setting up relu1
I0121 19:49:10.586081 12111 net.cpp:129] Top shape: 256 96 55 55 (74342400)
I0121 19:49:10.586086 12111 net.cpp:137] Memory required for data: 1343623168
I0121 19:49:10.586097 12111 layer_factory.hpp:78] Creating layer pool1
I0121 19:49:10.586153 12111 net.cpp:84] Creating Layer pool1
I0121 19:49:10.586170 12111 net.cpp:406] pool1 <- conv1
I0121 19:49:10.586215 12111 net.cpp:380] pool1 -> pool1
I0121 19:49:10.586400 12111 net.cpp:122] Setting up pool1
I0121 19:49:10.586427 12111 net.cpp:129] Top shape: 256 96 27 27 (17915904)
I0121 19:49:10.586436 12111 net.cpp:137] Memory required for data: 1415286784
I0121 19:49:10.586446 12111 layer_factory.hpp:78] Creating layer bn2
I0121 19:49:10.586475 12111 net.cpp:84] Creating Layer bn2
I0121 19:49:10.586488 12111 net.cpp:406] bn2 <- pool1
I0121 19:49:10.586513 12111 net.cpp:367] bn2 -> pool1 (in-place)
I0121 19:49:10.588969 12111 net.cpp:122] Setting up bn2
I0121 19:49:10.589005 12111 net.cpp:129] Top shape: 256 96 27 27 (17915904)
I0121 19:49:10.589011 12111 net.cpp:137] Memory required for data: 1486950400
I0121 19:49:10.589056 12111 layer_factory.hpp:78] Creating layer scale2
I0121 19:49:10.589103 12111 net.cpp:84] Creating Layer scale2
I0121 19:49:10.589118 12111 net.cpp:406] scale2 <- pool1
I0121 19:49:10.589160 12111 net.cpp:367] scale2 -> pool1 (in-place)
I0121 19:49:10.589272 12111 layer_factory.hpp:78] Creating layer scale2
I0121 19:49:10.589670 12111 net.cpp:122] Setting up scale2
I0121 19:49:10.589718 12111 net.cpp:129] Top shape: 256 96 27 27 (17915904)
I0121 19:49:10.589725 12111 net.cpp:137] Memory required for data: 1558614016
I0121 19:49:10.589751 12111 layer_factory.hpp:78] Creating layer binactive1
I0121 19:49:10.589823 12111 net.cpp:84] Creating Layer binactive1
I0121 19:49:10.589833 12111 net.cpp:406] binactive1 <- pool1
I0121 19:49:10.589855 12111 net.cpp:380] binactive1 -> binactive1
I0121 19:49:10.589970 12111 net.cpp:122] Setting up binactive1
I0121 19:49:10.589988 12111 net.cpp:129] Top shape: 256 96 27 27 (17915904)
I0121 19:49:10.590001 12111 net.cpp:137] Memory required for data: 1630277632
I0121 19:49:10.590014 12111 layer_factory.hpp:78] Creating layer conv2
I0121 19:49:10.590070 12111 net.cpp:84] Creating Layer conv2
I0121 19:49:10.590085 12111 net.cpp:406] conv2 <- binactive1
I0121 19:49:10.590119 12111 net.cpp:380] conv2 -> conv2
I0121 19:49:10.672654 12111 cudnn_binary_conv_layer.cpp:194] Reallocating workspace storage: 19668
I0121 19:49:10.672691 12111 net.cpp:122] Setting up conv2
I0121 19:49:10.672722 12111 net.cpp:129] Top shape: 256 256 27 27 (47775744)
I0121 19:49:10.672725 12111 net.cpp:137] Memory required for data: 1821380608
I0121 19:49:10.672742 12111 layer_factory.hpp:78] Creating layer pool2
I0121 19:49:10.672767 12111 net.cpp:84] Creating Layer pool2
I0121 19:49:10.672778 12111 net.cpp:406] pool2 <- conv2
I0121 19:49:10.672798 12111 net.cpp:380] pool2 -> pool2
I0121 19:49:10.672866 12111 net.cpp:122] Setting up pool2
I0121 19:49:10.672879 12111 net.cpp:129] Top shape: 256 256 13 13 (11075584)
I0121 19:49:10.672884 12111 net.cpp:137] Memory required for data: 1865682944
I0121 19:49:10.672890 12111 layer_factory.hpp:78] Creating layer bn3
I0121 19:49:10.672904 12111 net.cpp:84] Creating Layer bn3
I0121 19:49:10.672912 12111 net.cpp:406] bn3 <- pool2
I0121 19:49:10.672943 12111 net.cpp:367] bn3 -> pool2 (in-place)
I0121 19:49:10.673169 12111 net.cpp:122] Setting up bn3
I0121 19:49:10.673195 12111 net.cpp:129] Top shape: 256 256 13 13 (11075584)
I0121 19:49:10.673198 12111 net.cpp:137] Memory required for data: 1909985280
I0121 19:49:10.673233 12111 layer_factory.hpp:78] Creating layer scale3
I0121 19:49:10.673267 12111 net.cpp:84] Creating Layer scale3
I0121 19:49:10.673274 12111 net.cpp:406] scale3 <- pool2
I0121 19:49:10.673288 12111 net.cpp:367] scale3 -> pool2 (in-place)
I0121 19:49:10.673379 12111 layer_factory.hpp:78] Creating layer scale3
I0121 19:49:10.673557 12111 net.cpp:122] Setting up scale3
I0121 19:49:10.673569 12111 net.cpp:129] Top shape: 256 256 13 13 (11075584)
I0121 19:49:10.673589 12111 net.cpp:137] Memory required for data: 1954287616
I0121 19:49:10.673633 12111 layer_factory.hpp:78] Creating layer binactive2
I0121 19:49:10.673650 12111 net.cpp:84] Creating Layer binactive2
I0121 19:49:10.673660 12111 net.cpp:406] binactive2 <- pool2
I0121 19:49:10.673674 12111 net.cpp:380] binactive2 -> binactive2
I0121 19:49:10.673712 12111 net.cpp:122] Setting up binactive2
I0121 19:49:10.673724 12111 net.cpp:129] Top shape: 256 256 13 13 (11075584)
I0121 19:49:10.673727 12111 net.cpp:137] Memory required for data: 1998589952
I0121 19:49:10.673733 12111 layer_factory.hpp:78] Creating layer conv3
I0121 19:49:10.673759 12111 net.cpp:84] Creating Layer conv3
I0121 19:49:10.673769 12111 net.cpp:406] conv3 <- binactive2
I0121 19:49:10.673789 12111 net.cpp:380] conv3 -> conv3
I0121 19:49:10.756635 12111 cudnn_binary_conv_layer.cpp:194] Reallocating workspace storage: 18874368
I0121 19:49:10.757053 12111 net.cpp:122] Setting up conv3
I0121 19:49:10.757095 12111 net.cpp:129] Top shape: 256 384 13 13 (16613376)
I0121 19:49:10.757100 12111 net.cpp:137] Memory required for data: 2065043456
I0121 19:49:10.757127 12111 layer_factory.hpp:78] Creating layer bn4
I0121 19:49:10.757200 12111 net.cpp:84] Creating Layer bn4
I0121 19:49:10.757215 12111 net.cpp:406] bn4 <- conv3
I0121 19:49:10.757252 12111 net.cpp:367] bn4 -> conv3 (in-place)
I0121 19:49:10.757629 12111 net.cpp:122] Setting up bn4
I0121 19:49:10.757647 12111 net.cpp:129] Top shape: 256 384 13 13 (16613376)
I0121 19:49:10.757666 12111 net.cpp:137] Memory required for data: 2131496960
I0121 19:49:10.757704 12111 layer_factory.hpp:78] Creating layer scale4
I0121 19:49:10.757750 12111 net.cpp:84] Creating Layer scale4
I0121 19:49:10.757761 12111 net.cpp:406] scale4 <- conv3
I0121 19:49:10.757781 12111 net.cpp:367] scale4 -> conv3 (in-place)
I0121 19:49:10.757874 12111 layer_factory.hpp:78] Creating layer scale4
I0121 19:49:10.758153 12111 net.cpp:122] Setting up scale4
I0121 19:49:10.758169 12111 net.cpp:129] Top shape: 256 384 13 13 (16613376)
I0121 19:49:10.758177 12111 net.cpp:137] Memory required for data: 2197950464
I0121 19:49:10.758226 12111 layer_factory.hpp:78] Creating layer binactive3
I0121 19:49:10.758244 12111 net.cpp:84] Creating Layer binactive3
I0121 19:49:10.758255 12111 net.cpp:406] binactive3 <- conv3
I0121 19:49:10.758275 12111 net.cpp:380] binactive3 -> binactive3
I0121 19:49:10.758324 12111 net.cpp:122] Setting up binactive3
I0121 19:49:10.758347 12111 net.cpp:129] Top shape: 256 384 13 13 (16613376)
I0121 19:49:10.758354 12111 net.cpp:137] Memory required for data: 2264403968
I0121 19:49:10.758363 12111 layer_factory.hpp:78] Creating layer conv4
I0121 19:49:10.758404 12111 net.cpp:84] Creating Layer conv4
I0121 19:49:10.758416 12111 net.cpp:406] conv4 <- binactive3
I0121 19:49:10.758445 12111 net.cpp:380] conv4 -> conv4
I0121 19:49:10.879763 12111 cudnn_binary_conv_layer.cpp:194] Reallocating workspace storage: 9840
I0121 19:49:10.879822 12111 net.cpp:122] Setting up conv4
I0121 19:49:10.879840 12111 net.cpp:129] Top shape: 256 384 13 13 (16613376)
I0121 19:49:10.879844 12111 net.cpp:137] Memory required for data: 2330857472
I0121 19:49:10.879868 12111 layer_factory.hpp:78] Creating layer bn5
I0121 19:49:10.879932 12111 net.cpp:84] Creating Layer bn5
I0121 19:49:10.879948 12111 net.cpp:406] bn5 <- conv4
I0121 19:49:10.879989 12111 net.cpp:367] bn5 -> conv4 (in-place)
I0121 19:49:10.880240 12111 net.cpp:122] Setting up bn5
I0121 19:49:10.880295 12111 net.cpp:129] Top shape: 256 384 13 13 (16613376)
I0121 19:49:10.880298 12111 net.cpp:137] Memory required for data: 2397310976
I0121 19:49:10.880318 12111 layer_factory.hpp:78] Creating layer scale5
I0121 19:49:10.880364 12111 net.cpp:84] Creating Layer scale5
I0121 19:49:10.880374 12111 net.cpp:406] scale5 <- conv4
I0121 19:49:10.880389 12111 net.cpp:367] scale5 -> conv4 (in-place)
I0121 19:49:10.880456 12111 layer_factory.hpp:78] Creating layer scale5
I0121 19:49:10.880637 12111 net.cpp:122] Setting up scale5
I0121 19:49:10.880650 12111 net.cpp:129] Top shape: 256 384 13 13 (16613376)
I0121 19:49:10.880653 12111 net.cpp:137] Memory required for data: 2463764480
I0121 19:49:10.880668 12111 layer_factory.hpp:78] Creating layer binactive4
I0121 19:49:10.880703 12111 net.cpp:84] Creating Layer binactive4
I0121 19:49:10.880712 12111 net.cpp:406] binactive4 <- conv4
I0121 19:49:10.880728 12111 net.cpp:380] binactive4 -> binactive4
I0121 19:49:10.880767 12111 net.cpp:122] Setting up binactive4
I0121 19:49:10.880779 12111 net.cpp:129] Top shape: 256 384 13 13 (16613376)
I0121 19:49:10.880784 12111 net.cpp:137] Memory required for data: 2530217984
I0121 19:49:10.880789 12111 layer_factory.hpp:78] Creating layer conv5
I0121 19:49:10.880820 12111 net.cpp:84] Creating Layer conv5
I0121 19:49:10.880829 12111 net.cpp:406] conv5 <- binactive4
I0121 19:49:10.880848 12111 net.cpp:380] conv5 -> conv5
I0121 19:49:10.954097 12111 cudnn_binary_conv_layer.cpp:194] Reallocating workspace storage: 18874368
I0121 19:49:10.954457 12111 net.cpp:122] Setting up conv5
I0121 19:49:10.954478 12111 net.cpp:129] Top shape: 256 256 13 13 (11075584)
I0121 19:49:10.954483 12111 net.cpp:137] Memory required for data: 2574520320
I0121 19:49:10.954505 12111 layer_factory.hpp:78] Creating layer pool5
I0121 19:49:10.954561 12111 net.cpp:84] Creating Layer pool5
I0121 19:49:10.954576 12111 net.cpp:406] pool5 <- conv5
I0121 19:49:10.954603 12111 net.cpp:380] pool5 -> pool5
I0121 19:49:10.954689 12111 net.cpp:122] Setting up pool5
I0121 19:49:10.954708 12111 net.cpp:129] Top shape: 256 256 6 6 (2359296)
I0121 19:49:10.954713 12111 net.cpp:137] Memory required for data: 2583957504
I0121 19:49:10.954720 12111 layer_factory.hpp:78] Creating layer bn6
I0121 19:49:10.954735 12111 net.cpp:84] Creating Layer bn6
I0121 19:49:10.954743 12111 net.cpp:406] bn6 <- pool5
I0121 19:49:10.954757 12111 net.cpp:367] bn6 -> pool5 (in-place)
I0121 19:49:10.955026 12111 net.cpp:122] Setting up bn6
I0121 19:49:10.955073 12111 net.cpp:129] Top shape: 256 256 6 6 (2359296)
I0121 19:49:10.955093 12111 net.cpp:137] Memory required for data: 2593394688
I0121 19:49:10.955129 12111 layer_factory.hpp:78] Creating layer scale6
I0121 19:49:10.955170 12111 net.cpp:84] Creating Layer scale6
I0121 19:49:10.955193 12111 net.cpp:406] scale6 <- pool5
I0121 19:49:10.955209 12111 net.cpp:367] scale6 -> pool5 (in-place)
I0121 19:49:10.955279 12111 layer_factory.hpp:78] Creating layer scale6
I0121 19:49:10.955474 12111 net.cpp:122] Setting up scale6
I0121 19:49:10.955487 12111 net.cpp:129] Top shape: 256 256 6 6 (2359296)
I0121 19:49:10.955490 12111 net.cpp:137] Memory required for data: 2602831872
I0121 19:49:10.955504 12111 layer_factory.hpp:78] Creating layer binactive5
I0121 19:49:10.955535 12111 net.cpp:84] Creating Layer binactive5
I0121 19:49:10.955543 12111 net.cpp:406] binactive5 <- pool5
I0121 19:49:10.955559 12111 net.cpp:380] binactive5 -> binactive5
I0121 19:49:10.955598 12111 net.cpp:122] Setting up binactive5
I0121 19:49:10.955610 12111 net.cpp:129] Top shape: 256 256 6 6 (2359296)
I0121 19:49:10.955615 12111 net.cpp:137] Memory required for data: 2612269056
I0121 19:49:10.955621 12111 layer_factory.hpp:78] Creating layer fc6
I0121 19:49:10.955651 12111 net.cpp:84] Creating Layer fc6
I0121 19:49:10.955660 12111 net.cpp:406] fc6 <- binactive5
I0121 19:49:10.955679 12111 net.cpp:380] fc6 -> fc6
I0121 19:49:14.709210 12111 net.cpp:122] Setting up fc6
I0121 19:49:14.709264 12111 net.cpp:129] Top shape: 256 4096 (1048576)
I0121 19:49:14.709269 12111 net.cpp:137] Memory required for data: 2616463360
I0121 19:49:14.709309 12111 layer_factory.hpp:78] Creating layer bn7
I0121 19:49:14.709406 12111 net.cpp:84] Creating Layer bn7
I0121 19:49:14.709507 12111 net.cpp:406] bn7 <- fc6
I0121 19:49:14.709538 12111 net.cpp:367] bn7 -> fc6 (in-place)
I0121 19:49:14.709825 12111 net.cpp:122] Setting up bn7
I0121 19:49:14.709836 12111 net.cpp:129] Top shape: 256 4096 (1048576)
I0121 19:49:14.709839 12111 net.cpp:137] Memory required for data: 2620657664
I0121 19:49:14.709859 12111 layer_factory.hpp:78] Creating layer scale7
I0121 19:49:14.709883 12111 net.cpp:84] Creating Layer scale7
I0121 19:49:14.709890 12111 net.cpp:406] scale7 <- fc6
I0121 19:49:14.709904 12111 net.cpp:367] scale7 -> fc6 (in-place)
I0121 19:49:14.709982 12111 layer_factory.hpp:78] Creating layer scale7
I0121 19:49:14.710194 12111 net.cpp:122] Setting up scale7
I0121 19:49:14.710206 12111 net.cpp:129] Top shape: 256 4096 (1048576)
I0121 19:49:14.710209 12111 net.cpp:137] Memory required for data: 2624851968
I0121 19:49:14.710225 12111 layer_factory.hpp:78] Creating layer binactive6
I0121 19:49:14.710258 12111 net.cpp:84] Creating Layer binactive6
I0121 19:49:14.710265 12111 net.cpp:406] binactive6 <- fc6
I0121 19:49:14.710284 12111 net.cpp:380] binactive6 -> binactive6
I0121 19:49:14.710328 12111 net.cpp:122] Setting up binactive6
I0121 19:49:14.710340 12111 net.cpp:129] Top shape: 256 4096 (1048576)
I0121 19:49:14.710350 12111 net.cpp:137] Memory required for data: 2629046272
I0121 19:49:14.710371 12111 layer_factory.hpp:78] Creating layer fc7
I0121 19:49:14.710407 12111 net.cpp:84] Creating Layer fc7
I0121 19:49:14.710417 12111 net.cpp:406] fc7 <- binactive6
I0121 19:49:14.710438 12111 net.cpp:380] fc7 -> fc7
I0121 19:49:16.195225 12111 net.cpp:122] Setting up fc7
I0121 19:49:16.195276 12111 net.cpp:129] Top shape: 256 4096 (1048576)
I0121 19:49:16.195281 12111 net.cpp:137] Memory required for data: 2633240576
I0121 19:49:16.195315 12111 layer_factory.hpp:78] Creating layer bn8
I0121 19:49:16.195358 12111 net.cpp:84] Creating Layer bn8
I0121 19:49:16.195374 12111 net.cpp:406] bn8 <- fc7
I0121 19:49:16.195405 12111 net.cpp:367] bn8 -> fc7 (in-place)
I0121 19:49:16.195680 12111 net.cpp:122] Setting up bn8
I0121 19:49:16.195691 12111 net.cpp:129] Top shape: 256 4096 (1048576)
I0121 19:49:16.195695 12111 net.cpp:137] Memory required for data: 2637434880
I0121 19:49:16.195715 12111 layer_factory.hpp:78] Creating layer scale8
I0121 19:49:16.195739 12111 net.cpp:84] Creating Layer scale8
I0121 19:49:16.195767 12111 net.cpp:406] scale8 <- fc7
I0121 19:49:16.195788 12111 net.cpp:367] scale8 -> fc7 (in-place)
I0121 19:49:16.195868 12111 layer_factory.hpp:78] Creating layer scale8
I0121 19:49:16.196055 12111 net.cpp:122] Setting up scale8
I0121 19:49:16.196069 12111 net.cpp:129] Top shape: 256 4096 (1048576)
I0121 19:49:16.196072 12111 net.cpp:137] Memory required for data: 2641629184
I0121 19:49:16.196089 12111 layer_factory.hpp:78] Creating layer relu7
I0121 19:49:16.196105 12111 net.cpp:84] Creating Layer relu7
I0121 19:49:16.196115 12111 net.cpp:406] relu7 <- fc7
I0121 19:49:16.196130 12111 net.cpp:367] relu7 -> fc7 (in-place)
I0121 19:49:16.197021 12111 net.cpp:122] Setting up relu7
I0121 19:49:16.197036 12111 net.cpp:129] Top shape: 256 4096 (1048576)
I0121 19:49:16.197041 12111 net.cpp:137] Memory required for data: 2645823488
I0121 19:49:16.197046 12111 layer_factory.hpp:78] Creating layer fc8
I0121 19:49:16.197098 12111 net.cpp:84] Creating Layer fc8
I0121 19:49:16.197108 12111 net.cpp:406] fc8 <- fc7
I0121 19:49:16.197129 12111 net.cpp:380] fc8 -> fc8
I0121 19:49:16.558763 12111 net.cpp:122] Setting up fc8
I0121 19:49:16.558815 12111 net.cpp:129] Top shape: 256 1000 (256000)
I0121 19:49:16.558820 12111 net.cpp:137] Memory required for data: 2646847488
I0121 19:49:16.558851 12111 layer_factory.hpp:78] Creating layer fc8_fc8_0_split
I0121 19:49:16.558885 12111 net.cpp:84] Creating Layer fc8_fc8_0_split
I0121 19:49:16.558898 12111 net.cpp:406] fc8_fc8_0_split <- fc8
I0121 19:49:16.558928 12111 net.cpp:380] fc8_fc8_0_split -> fc8_fc8_0_split_0
I0121 19:49:16.558955 12111 net.cpp:380] fc8_fc8_0_split -> fc8_fc8_0_split_1
I0121 19:49:16.558970 12111 net.cpp:380] fc8_fc8_0_split -> fc8_fc8_0_split_2
I0121 19:49:16.559051 12111 net.cpp:122] Setting up fc8_fc8_0_split
I0121 19:49:16.559067 12111 net.cpp:129] Top shape: 256 1000 (256000)
I0121 19:49:16.559072 12111 net.cpp:129] Top shape: 256 1000 (256000)
I0121 19:49:16.559077 12111 net.cpp:129] Top shape: 256 1000 (256000)
I0121 19:49:16.559079 12111 net.cpp:137] Memory required for data: 2649919488
I0121 19:49:16.559085 12111 layer_factory.hpp:78] Creating layer loss
I0121 19:49:16.559113 12111 net.cpp:84] Creating Layer loss
I0121 19:49:16.559120 12111 net.cpp:406] loss <- fc8_fc8_0_split_0
I0121 19:49:16.559134 12111 net.cpp:406] loss <- label_data_1_split_0
I0121 19:49:16.559160 12111 net.cpp:380] loss -> loss
…
I0121 19:49:16.787612 12111 net.cpp:294] The NetState phase (1) differed from the phase (0) specified by a rule in layer data
I0121 19:49:16.787832 12111 net.cpp:51] Initializing net from parameters: 
name: "AlexNet-BN"
state {
  phase: TEST
}
layer {
  name: "data"
  type: "Data"
  top: "data"
  top: "label"
  include {
    phase: TEST
  }
  transform_param {
    mirror: false
    crop_size: 224
    mean_value: 104
    mean_value: 117
    mean_value: 123
  }
  data_param {
    source: "/home/zhengzhe/Data/imagenet_shrt256/ilsvrc12_val_lmdb"
    batch_size: 50
    backend: LMDB
  }
}
layer {
  name: "conv1"
  type: "Convolution"
  bottom: "data"
  top: "conv1"
  param {
    lr_mult: 1
    decay_mult: 1
  }
  convolution_param {
    num_output: 96
    bias_term: false
    pad: 2
    kernel_size: 11
    stride: 4
    weight_filler {
      type: "msra"
    }
  }
}
layer {
  name: "bn1"
  type: "BatchNorm"
  bottom: "conv1"
  top: "conv1"
}
layer {
  name: "scale1"
  type: "Scale"
  bottom: "conv1"
  top: "conv1"
  scale_param {
    bias_term: true
  }
}
layer {
  name: "relu1"
  type: "ReLU"
  bottom: "conv1"
  top: "conv1"
}
layer {
  name: "pool1"
  type: "Pooling"
  bottom: "conv1"
  top: "pool1"
  pooling_param {
    pool: MAX
    kernel_size: 3
    stride: 2
  }
}
layer {
  name: "bn2"
  type: "BatchNorm"
  bottom: "pool1"
  top: "pool1"
}
layer {
  name: "scale2"
  type: "Scale"
  bottom: "pool1"
  top: "pool1"
  scale_param {
    bias_term: true
  }
}
layer {
  name: "binactive1"
  type: "BinActive"
  bottom: "pool1"
  top: "binactive1"
}
layer {
  name: "conv2"
  type: "BinaryConvolution"
  bottom: "binactive1"
  top: "conv2"
  param {
    lr_mult: 1
    decay_mult: 1
  }
  convolution_param {
    num_output: 256
    bias_term: false
    pad: 2
    kernel_size: 5
    weight_filler {
      type: "msra"
    }
  }
  debug_param {
    xnorno_grad: false
  }
}
layer {
  name: "pool2"
  type: "Pooling"
  bottom: "conv2"
  top: "pool2"
  pooling_param {
    pool: MAX
    kernel_size: 3
    stride: 2
  }
}
layer {
  name: "bn3"
  type: "BatchNorm"
  bottom: "pool2"
  top: "pool2"
}
layer {
  name: "scale3"
  type: "Scale"
  bottom: "pool2"
  top: "pool2"
  scale_param {
    bias_term: true
  }
}
layer {
  name: "binactive2"
  type: "BinActive"
  bottom: "pool2"
  top: "binactive2"
}
layer {
  name: "conv3"
  type: "BinaryConvolution"
  bottom: "binactive2"
  top: "conv3"
  param {
    lr_mult: 1
    decay_mult: 1
  }
  convolution_param {
    num_output: 384
    bias_term: false
    pad: 1
    kernel_size: 3
    weight_filler {
      type: "msra"
    }
  }
  debug_param {
    xnorno_grad: false
  }
}
layer {
  name: "bn4"
  type: "BatchNorm"
  bottom: "conv3"
  top: "conv3"
}
layer {
  name: "scale4"
  type: "Scale"
  bottom: "conv3"
  top: "conv3"
  scale_param {
    bias_term: true
  }
}
layer {
  name: "binactive3"
  type: "BinActive"
  bottom: "conv3"
  top: "binactive3"
}
layer {
  name: "conv4"
  type: "BinaryConvolution"
  bottom: "binactive3"
  top: "conv4"
  param {
    lr_mult: 1
    decay_mult: 1
  }
  convolution_param {
    num_output: 384
    bias_term: false
    pad: 1
    kernel_size: 3
    weight_filler {
      type: "msra"
    }
  }
  debug_param {
    xnorno_grad: false
  }
}
layer {
  name: "bn5"
  type: "BatchNorm"
  bottom: "conv4"
  top: "conv4"
}
layer {
  name: "scale5"
  type: "Scale"
  bottom: "conv4"
  top: "conv4"
  scale_param {
    bias_term: true
  }
}
layer {
  name: "binactive4"
  type: "BinActive"
  bottom: "conv4"
  top: "binactive4"
}
layer {
  name: "conv5"
  type: "BinaryConvolution"
  bottom: "binactive4"
  top: "conv5"
  param {
    lr_mult: 1
    decay_mult: 1
  }
  convolution_param {
    num_output: 256
    bias_term: false
    pad: 1
    kernel_size: 3
    weight_filler {
      type: "msra"
    }
  }
  debug_param {
    xnorno_grad: false
  }
}
layer {
  name: "pool5"
  type: "Pooling"
  bottom: "conv5"
  top: "pool5"
  pooling_param {
    pool: MAX
    kernel_size: 3
    stride: 2
  }
}
layer {
  name: "bn6"
  type: "BatchNorm"
  bottom: "pool5"
  top: "pool5"
}
layer {
  name: "scale6"
  type: "Scale"
  bottom: "pool5"
  top: "pool5"
  scale_param {
    bias_term: true
  }
}
layer {
  name: "binactive5"
  type: "BinActive"
  bottom: "pool5"
  top: "binactive5"
}
layer {
  name: "fc6"
  type: "BinaryInnerProduct"
  bottom: "binactive5"
  top: "fc6"
  param {
    lr_mult: 1
    decay_mult: 1
  }
  inner_product_param {
    num_output: 4096
    bias_term: false
    weight_filler {
      type: "msra"
    }
  }
  debug_param {
    xnorno_grad: false
  }
}
layer {
  name: "bn7"
  type: "BatchNorm"
  bottom: "fc6"
  top: "fc6"
}
layer {
  name: "scale7"
  type: "Scale"
  bottom: "fc6"
  top: "fc6"
  scale_param {
    bias_term: true
  }
}
layer {
  name: "binactive6"
  type: "BinActive"
  bottom: "fc6"
  top: "binactive6"
}
layer {
  name: "fc7"
  type: "BinaryInnerProduct"
  bottom: "binactive6"
  top: "fc7"
  param {
    lr_mult: 1
    decay_mult: 1
  }
  inner_product_param {
    num_output: 4096
    bias_term: false
    weight_filler {
      type: "msra"
    }
  }
  debug_param {
    xnorno_grad: false
  }
}
layer {
  name: "bn8"
  type: "BatchNorm"
  bottom: "fc7"
  top: "fc7"
}
layer {
  name: "scale8"
  type: "Scale"
  bottom: "fc7"
  top: "fc7"
  scale_param {
    bias_term: true
  }
}
layer {
  name: "relu7"
  type: "ReLU"
  bottom: "fc7"
  top: "fc7"
}
layer {
  name: "fc8"
  type: "InnerProduct"
  bottom: "fc7"
  top: "fc8"
  param {
    lr_mult: 1
    decay_mult: 1
  }
  param {
    lr_mult: 2
    decay_mult: 0
  }
  inner_product_param {
    num_output: 1000
    weight_filler {
      type: "msra"
    }
    bias_filler {
      type: "constant"
      value: 0
    }
  }
}
layer {
  name: "loss"
  type: "SoftmaxWithLoss"
  bottom: "fc8"
  bottom: "label"
  top: "loss"
}
layer {
  name: "accuracy"
  type: "Accuracy"
  bottom: "fc8"
  bottom: "label"
  top: "accuracy"
}
layer {
  name: "accuracy_5"
  type: "Accuracy"
  bottom: "fc8"
  bottom: "label"
  top: "accuracy_5"
  accuracy_param {
    top_k: 5
  }
}
I0121 19:49:16.788225 12111 layer_factory.hpp:78] Creating layer data
I0121 19:49:16.788339 12111 db_lmdb.cpp:35] Opened lmdb /home/zhengzhe/Data/imagenet_shrt256/ilsvrc12_val_lmdb
I0121 19:49:16.788375 12111 net.cpp:84] Creating Layer data
I0121 19:49:16.788390 12111 net.cpp:380] data -> data
I0121 19:49:16.788421 12111 net.cpp:380] data -> label
I0121 19:49:16.789062 12111 data_layer.cpp:45] output data size: 50,3,224,224
I0121 19:49:16.871973 12111 base_data_layer.cpp:72] Initializing prefetch
I0121 19:49:18.204978 12111 base_data_layer.cpp:75] Prefetch initialized.
I0121 19:49:18.205030 12111 net.cpp:122] Setting up data
I0121 19:49:18.205056 12111 net.cpp:129] Top shape: 50 3 224 224 (7526400)
I0121 19:49:18.205065 12111 net.cpp:129] Top shape: 50 (50)
I0121 19:49:18.205067 12111 net.cpp:137] Memory required for data: 30105800
I0121 19:49:18.205111 12111 layer_factory.hpp:78] Creating layer label_data_1_split
I0121 19:49:18.205163 12111 net.cpp:84] Creating Layer label_data_1_split
I0121 19:49:18.205179 12111 net.cpp:406] label_data_1_split <- label
I0121 19:49:18.205209 12111 net.cpp:380] label_data_1_split -> label_data_1_split_0
I0121 19:49:18.205245 12111 net.cpp:380] label_data_1_split -> label_data_1_split_1
I0121 19:49:18.205262 12111 net.cpp:380] label_data_1_split -> label_data_1_split_2
I0121 19:49:18.205561 12111 net.cpp:122] Setting up label_data_1_split
I0121 19:49:18.205576 12111 net.cpp:129] Top shape: 50 (50)
I0121 19:49:18.205582 12111 net.cpp:129] Top shape: 50 (50)
I0121 19:49:18.205587 12111 net.cpp:129] Top shape: 50 (50)
I0121 19:49:18.205590 12111 net.cpp:137] Memory required for data: 30106400
I0121 19:49:18.205596 12111 layer_factory.hpp:78] Creating layer conv1
I0121 19:49:18.205636 12111 net.cpp:84] Creating Layer conv1
I0121 19:49:18.205644 12111 net.cpp:406] conv1 <- data
I0121 19:49:18.205664 12111 net.cpp:380] conv1 -> conv1
I0121 19:49:18.213812 12111 cudnn_conv_layer.cpp:194] Reallocating workspace storage: 127416
I0121 19:49:18.213863 12111 net.cpp:122] Setting up conv1
I0121 19:49:18.213874 12111 net.cpp:129] Top shape: 50 96 55 55 (14520000)
I0121 19:49:18.213878 12111 net.cpp:137] Memory required for data: 88186400
I0121 19:49:18.213908 12111 layer_factory.hpp:78] Creating layer bn1
I0121 19:49:18.213929 12111 net.cpp:84] Creating Layer bn1
I0121 19:49:18.213937 12111 net.cpp:406] bn1 <- conv1
I0121 19:49:18.213954 12111 net.cpp:367] bn1 -> conv1 (in-place)
I0121 19:49:18.214251 12111 net.cpp:122] Setting up bn1
I0121 19:49:18.214264 12111 net.cpp:129] Top shape: 50 96 55 55 (14520000)
I0121 19:49:18.214268 12111 net.cpp:137] Memory required for data: 146266400
I0121 19:49:18.214304 12111 layer_factory.hpp:78] Creating layer scale1
I0121 19:49:18.214336 12111 net.cpp:84] Creating Layer scale1
I0121 19:49:18.214359 12111 net.cpp:406] scale1 <- conv1
I0121 19:49:18.214376 12111 net.cpp:367] scale1 -> conv1 (in-place)
I0121 19:49:18.214486 12111 layer_factory.hpp:78] Creating layer scale1
I0121 19:49:18.214709 12111 net.cpp:122] Setting up scale1
I0121 19:49:18.214722 12111 net.cpp:129] Top shape: 50 96 55 55 (14520000)
I0121 19:49:18.214726 12111 net.cpp:137] Memory required for data: 204346400
I0121 19:49:18.214751 12111 layer_factory.hpp:78] Creating layer relu1
I0121 19:49:18.214768 12111 net.cpp:84] Creating Layer relu1
I0121 19:49:18.214776 12111 net.cpp:406] relu1 <- conv1
I0121 19:49:18.214789 12111 net.cpp:367] relu1 -> conv1 (in-place)
I0121 19:49:18.215401 12111 net.cpp:122] Setting up relu1
I0121 19:49:18.215416 12111 net.cpp:129] Top shape: 50 96 55 55 (14520000)
I0121 19:49:18.215420 12111 net.cpp:137] Memory required for data: 262426400
I0121 19:49:18.215426 12111 layer_factory.hpp:78] Creating layer pool1
I0121 19:49:18.215450 12111 net.cpp:84] Creating Layer pool1
I0121 19:49:18.215456 12111 net.cpp:406] pool1 <- conv1
I0121 19:49:18.215474 12111 net.cpp:380] pool1 -> pool1
I0121 19:49:18.215553 12111 net.cpp:122] Setting up pool1
I0121 19:49:18.215565 12111 net.cpp:129] Top shape: 50 96 27 27 (3499200)
I0121 19:49:18.215569 12111 net.cpp:137] Memory required for data: 276423200
I0121 19:49:18.215574 12111 layer_factory.hpp:78] Creating layer bn2
I0121 19:49:18.215587 12111 net.cpp:84] Creating Layer bn2
I0121 19:49:18.215595 12111 net.cpp:406] bn2 <- pool1
I0121 19:49:18.215611 12111 net.cpp:367] bn2 -> pool1 (in-place)
I0121 19:49:18.215881 12111 net.cpp:122] Setting up bn2
I0121 19:49:18.215896 12111 net.cpp:129] Top shape: 50 96 27 27 (3499200)
I0121 19:49:18.215899 12111 net.cpp:137] Memory required for data: 290420000
I0121 19:49:18.215931 12111 layer_factory.hpp:78] Creating layer scale2
I0121 19:49:18.215975 12111 net.cpp:84] Creating Layer scale2
I0121 19:49:18.215986 12111 net.cpp:406] scale2 <- pool1
I0121 19:49:18.216001 12111 net.cpp:367] scale2 -> pool1 (in-place)
I0121 19:49:18.216079 12111 layer_factory.hpp:78] Creating layer scale2
I0121 19:49:18.216290 12111 net.cpp:122] Setting up scale2
I0121 19:49:18.216303 12111 net.cpp:129] Top shape: 50 96 27 27 (3499200)
I0121 19:49:18.216306 12111 net.cpp:137] Memory required for data: 304416800
I0121 19:49:18.216321 12111 layer_factory.hpp:78] Creating layer binactive1
I0121 19:49:18.216334 12111 net.cpp:84] Creating Layer binactive1
I0121 19:49:18.216348 12111 net.cpp:406] binactive1 <- pool1
I0121 19:49:18.216367 12111 net.cpp:380] binactive1 -> binactive1
I0121 19:49:18.216413 12111 net.cpp:122] Setting up binactive1
I0121 19:49:18.216426 12111 net.cpp:129] Top shape: 50 96 27 27 (3499200)
I0121 19:49:18.216430 12111 net.cpp:137] Memory required for data: 318413600
I0121 19:49:18.216436 12111 layer_factory.hpp:78] Creating layer conv2
I0121 19:49:18.216461 12111 net.cpp:84] Creating Layer conv2
I0121 19:49:18.216470 12111 net.cpp:406] conv2 <- binactive1
I0121 19:49:18.216491 12111 net.cpp:380] conv2 -> conv2
I0121 19:49:18.288473 12111 cudnn_binary_conv_layer.cpp:194] Reallocating workspace storage: 19668
I0121 19:49:18.288512 12111 net.cpp:122] Setting up conv2
I0121 19:49:18.288528 12111 net.cpp:129] Top shape: 50 256 27 27 (9331200)
I0121 19:49:18.288532 12111 net.cpp:137] Memory required for data: 355738400
I0121 19:49:18.288552 12111 layer_factory.hpp:78] Creating layer pool2
I0121 19:49:18.288583 12111 net.cpp:84] Creating Layer pool2
I0121 19:49:18.288595 12111 net.cpp:406] pool2 <- conv2
I0121 19:49:18.288619 12111 net.cpp:380] pool2 -> pool2
I0121 19:49:18.288698 12111 net.cpp:122] Setting up pool2
I0121 19:49:18.288712 12111 net.cpp:129] Top shape: 50 256 13 13 (2163200)
I0121 19:49:18.288720 12111 net.cpp:137] Memory required for data: 364391200
I0121 19:49:18.288729 12111 layer_factory.hpp:78] Creating layer bn3
I0121 19:49:18.288764 12111 net.cpp:84] Creating Layer bn3
I0121 19:49:18.288774 12111 net.cpp:406] bn3 <- pool2
I0121 19:49:18.288790 12111 net.cpp:367] bn3 -> pool2 (in-place)
I0121 19:49:18.289055 12111 net.cpp:122] Setting up bn3
I0121 19:49:18.289067 12111 net.cpp:129] Top shape: 50 256 13 13 (2163200)
I0121 19:49:18.289088 12111 net.cpp:137] Memory required for data: 373044000
I0121 19:49:18.289113 12111 layer_factory.hpp:78] Creating layer scale3
I0121 19:49:18.289136 12111 net.cpp:84] Creating Layer scale3
I0121 19:49:18.289145 12111 net.cpp:406] scale3 <- pool2
I0121 19:49:18.289161 12111 net.cpp:367] scale3 -> pool2 (in-place)
I0121 19:49:18.289274 12111 layer_factory.hpp:78] Creating layer scale3
I0121 19:49:18.289579 12111 net.cpp:122] Setting up scale3
I0121 19:49:18.289602 12111 net.cpp:129] Top shape: 50 256 13 13 (2163200)
I0121 19:49:18.289607 12111 net.cpp:137] Memory required for data: 381696800
I0121 19:49:18.289647 12111 layer_factory.hpp:78] Creating layer binactive2
I0121 19:49:18.289670 12111 net.cpp:84] Creating Layer binactive2
I0121 19:49:18.289682 12111 net.cpp:406] binactive2 <- pool2
I0121 19:49:18.289716 12111 net.cpp:380] binactive2 -> binactive2
I0121 19:49:18.289782 12111 net.cpp:122] Setting up binactive2
I0121 19:49:18.289800 12111 net.cpp:129] Top shape: 50 256 13 13 (2163200)
I0121 19:49:18.289809 12111 net.cpp:137] Memory required for data: 390349600
I0121 19:49:18.289819 12111 layer_factory.hpp:78] Creating layer conv3
I0121 19:49:18.289875 12111 net.cpp:84] Creating Layer conv3
I0121 19:49:18.289891 12111 net.cpp:406] conv3 <- binactive2
I0121 19:49:18.289921 12111 net.cpp:380] conv3 -> conv3
I0121 19:49:18.402318 12111 cudnn_binary_conv_layer.cpp:194] Reallocating workspace storage: 18874368
I0121 19:49:18.402652 12111 net.cpp:122] Setting up conv3
I0121 19:49:18.402678 12111 net.cpp:129] Top shape: 50 384 13 13 (3244800)
I0121 19:49:18.402694 12111 net.cpp:137] Memory required for data: 403328800
I0121 19:49:18.402722 12111 layer_factory.hpp:78] Creating layer bn4
I0121 19:49:18.402763 12111 net.cpp:84] Creating Layer bn4
I0121 19:49:18.402778 12111 net.cpp:406] bn4 <- conv3
I0121 19:49:18.402802 12111 net.cpp:367] bn4 -> conv3 (in-place)
I0121 19:49:18.403075 12111 net.cpp:122] Setting up bn4
I0121 19:49:18.403090 12111 net.cpp:129] Top shape: 50 384 13 13 (3244800)
I0121 19:49:18.403093 12111 net.cpp:137] Memory required for data: 416308000
I0121 19:49:18.403115 12111 layer_factory.hpp:78] Creating layer scale4
I0121 19:49:18.403136 12111 net.cpp:84] Creating Layer scale4
I0121 19:49:18.403146 12111 net.cpp:406] scale4 <- conv3
I0121 19:49:18.403161 12111 net.cpp:367] scale4 -> conv3 (in-place)
I0121 19:49:18.403251 12111 layer_factory.hpp:78] Creating layer scale4
I0121 19:49:18.403448 12111 net.cpp:122] Setting up scale4
I0121 19:49:18.403462 12111 net.cpp:129] Top shape: 50 384 13 13 (3244800)
I0121 19:49:18.403465 12111 net.cpp:137] Memory required for data: 429287200
I0121 19:49:18.403481 12111 layer_factory.hpp:78] Creating layer binactive3
I0121 19:49:18.403496 12111 net.cpp:84] Creating Layer binactive3
I0121 19:49:18.403504 12111 net.cpp:406] binactive3 <- conv3
I0121 19:49:18.403520 12111 net.cpp:380] binactive3 -> binactive3
I0121 19:49:18.403568 12111 net.cpp:122] Setting up binactive3
I0121 19:49:18.403584 12111 net.cpp:129] Top shape: 50 384 13 13 (3244800)
I0121 19:49:18.403589 12111 net.cpp:137] Memory required for data: 442266400
I0121 19:49:18.403595 12111 layer_factory.hpp:78] Creating layer conv4
I0121 19:49:18.403625 12111 net.cpp:84] Creating Layer conv4
I0121 19:49:18.403633 12111 net.cpp:406] conv4 <- binactive3
I0121 19:49:18.403656 12111 net.cpp:380] conv4 -> conv4
I0121 19:49:18.525038 12111 cudnn_binary_conv_layer.cpp:194] Reallocating workspace storage: 9840
I0121 19:49:18.525084 12111 net.cpp:122] Setting up conv4
I0121 19:49:18.525104 12111 net.cpp:129] Top shape: 50 384 13 13 (3244800)
I0121 19:49:18.525107 12111 net.cpp:137] Memory required for data: 455245600
I0121 19:49:18.525137 12111 layer_factory.hpp:78] Creating layer bn5
I0121 19:49:18.525168 12111 net.cpp:84] Creating Layer bn5
I0121 19:49:18.525183 12111 net.cpp:406] bn5 <- conv4
I0121 19:49:18.525209 12111 net.cpp:367] bn5 -> conv4 (in-place)
I0121 19:49:18.525494 12111 net.cpp:122] Setting up bn5
I0121 19:49:18.525506 12111 net.cpp:129] Top shape: 50 384 13 13 (3244800)
I0121 19:49:18.525511 12111 net.cpp:137] Memory required for data: 468224800
I0121 19:49:18.525550 12111 layer_factory.hpp:78] Creating layer scale5
I0121 19:49:18.525576 12111 net.cpp:84] Creating Layer scale5
I0121 19:49:18.525585 12111 net.cpp:406] scale5 <- conv4
I0121 19:49:18.525606 12111 net.cpp:367] scale5 -> conv4 (in-place)
I0121 19:49:18.525688 12111 layer_factory.hpp:78] Creating layer scale5
I0121 19:49:18.525889 12111 net.cpp:122] Setting up scale5
I0121 19:49:18.525902 12111 net.cpp:129] Top shape: 50 384 13 13 (3244800)
I0121 19:49:18.525907 12111 net.cpp:137] Memory required for data: 481204000
I0121 19:49:18.525921 12111 layer_factory.hpp:78] Creating layer binactive4
I0121 19:49:18.525938 12111 net.cpp:84] Creating Layer binactive4
I0121 19:49:18.525944 12111 net.cpp:406] binactive4 <- conv4
I0121 19:49:18.525959 12111 net.cpp:380] binactive4 -> binactive4
I0121 19:49:18.526013 12111 net.cpp:122] Setting up binactive4
I0121 19:49:18.526026 12111 net.cpp:129] Top shape: 50 384 13 13 (3244800)
I0121 19:49:18.526029 12111 net.cpp:137] Memory required for data: 494183200
I0121 19:49:18.526034 12111 layer_factory.hpp:78] Creating layer conv5
I0121 19:49:18.526065 12111 net.cpp:84] Creating Layer conv5
I0121 19:49:18.526074 12111 net.cpp:406] conv5 <- binactive4
I0121 19:49:18.526094 12111 net.cpp:380] conv5 -> conv5
I0121 19:49:18.607131 12111 cudnn_binary_conv_layer.cpp:194] Reallocating workspace storage: 18874368
I0121 19:49:18.607616 12111 net.cpp:122] Setting up conv5
I0121 19:49:18.607640 12111 net.cpp:129] Top shape: 50 256 13 13 (2163200)
I0121 19:49:18.607645 12111 net.cpp:137] Memory required for data: 502836000
I0121 19:49:18.607672 12111 layer_factory.hpp:78] Creating layer pool5
I0121 19:49:18.607709 12111 net.cpp:84] Creating Layer pool5
I0121 19:49:18.607724 12111 net.cpp:406] pool5 <- conv5
I0121 19:49:18.607753 12111 net.cpp:380] pool5 -> pool5
I0121 19:49:18.607849 12111 net.cpp:122] Setting up pool5
I0121 19:49:18.607864 12111 net.cpp:129] Top shape: 50 256 6 6 (460800)
I0121 19:49:18.607869 12111 net.cpp:137] Memory required for data: 504679200
I0121 19:49:18.607875 12111 layer_factory.hpp:78] Creating layer bn6
I0121 19:49:18.607890 12111 net.cpp:84] Creating Layer bn6
I0121 19:49:18.607898 12111 net.cpp:406] bn6 <- pool5
I0121 19:49:18.607913 12111 net.cpp:367] bn6 -> pool5 (in-place)
I0121 19:49:18.608196 12111 net.cpp:122] Setting up bn6
I0121 19:49:18.608208 12111 net.cpp:129] Top shape: 50 256 6 6 (460800)
I0121 19:49:18.608211 12111 net.cpp:137] Memory required for data: 506522400
I0121 19:49:18.608247 12111 layer_factory.hpp:78] Creating layer scale6
I0121 19:49:18.608273 12111 net.cpp:84] Creating Layer scale6
I0121 19:49:18.608281 12111 net.cpp:406] scale6 <- pool5
I0121 19:49:18.608297 12111 net.cpp:367] scale6 -> pool5 (in-place)
I0121 19:49:18.608392 12111 layer_factory.hpp:78] Creating layer scale6
I0121 19:49:18.608579 12111 net.cpp:122] Setting up scale6
I0121 19:49:18.608592 12111 net.cpp:129] Top shape: 50 256 6 6 (460800)
I0121 19:49:18.608597 12111 net.cpp:137] Memory required for data: 508365600
I0121 19:49:18.608610 12111 layer_factory.hpp:78] Creating layer binactive5
I0121 19:49:18.608628 12111 net.cpp:84] Creating Layer binactive5
I0121 19:49:18.608638 12111 net.cpp:406] binactive5 <- pool5
I0121 19:49:18.608654 12111 net.cpp:380] binactive5 -> binactive5
I0121 19:49:18.608700 12111 net.cpp:122] Setting up binactive5
I0121 19:49:18.608712 12111 net.cpp:129] Top shape: 50 256 6 6 (460800)
I0121 19:49:18.608718 12111 net.cpp:137] Memory required for data: 510208800
I0121 19:49:18.608724 12111 layer_factory.hpp:78] Creating layer fc6
I0121 19:49:18.608758 12111 net.cpp:84] Creating Layer fc6
I0121 19:49:18.608767 12111 net.cpp:406] fc6 <- binactive5
I0121 19:49:18.608788 12111 net.cpp:380] fc6 -> fc6
I0121 19:49:21.949812 12111 net.cpp:122] Setting up fc6
I0121 19:49:21.949867 12111 net.cpp:129] Top shape: 50 4096 (204800)
I0121 19:49:21.949872 12111 net.cpp:137] Memory required for data: 511028000
I0121 19:49:21.949908 12111 layer_factory.hpp:78] Creating layer bn7
I0121 19:49:21.949947 12111 net.cpp:84] Creating Layer bn7
I0121 19:49:21.949991 12111 net.cpp:406] bn7 <- fc6
I0121 19:49:21.950023 12111 net.cpp:367] bn7 -> fc6 (in-place)
I0121 19:49:21.950346 12111 net.cpp:122] Setting up bn7
I0121 19:49:21.950359 12111 net.cpp:129] Top shape: 50 4096 (204800)
I0121 19:49:21.950363 12111 net.cpp:137] Memory required for data: 511847200
I0121 19:49:21.950384 12111 layer_factory.hpp:78] Creating layer scale7
I0121 19:49:21.950409 12111 net.cpp:84] Creating Layer scale7
I0121 19:49:21.950417 12111 net.cpp:406] scale7 <- fc6
I0121 19:49:21.950435 12111 net.cpp:367] scale7 -> fc6 (in-place)
I0121 19:49:21.950541 12111 layer_factory.hpp:78] Creating layer scale7
I0121 19:49:21.950764 12111 net.cpp:122] Setting up scale7
I0121 19:49:21.950778 12111 net.cpp:129] Top shape: 50 4096 (204800)
I0121 19:49:21.950781 12111 net.cpp:137] Memory required for data: 512666400
I0121 19:49:21.950798 12111 layer_factory.hpp:78] Creating layer binactive6
I0121 19:49:21.950814 12111 net.cpp:84] Creating Layer binactive6
I0121 19:49:21.950820 12111 net.cpp:406] binactive6 <- fc6
I0121 19:49:21.950840 12111 net.cpp:380] binactive6 -> binactive6
I0121 19:49:21.950889 12111 net.cpp:122] Setting up binactive6
I0121 19:49:21.950902 12111 net.cpp:129] Top shape: 50 4096 (204800)
I0121 19:49:21.950906 12111 net.cpp:137] Memory required for data: 513485600
I0121 19:49:21.950911 12111 layer_factory.hpp:78] Creating layer fc7
I0121 19:49:21.950947 12111 net.cpp:84] Creating Layer fc7
I0121 19:49:21.950958 12111 net.cpp:406] fc7 <- binactive6
I0121 19:49:21.950978 12111 net.cpp:380] fc7 -> fc7
I0121 19:49:23.439275 12111 net.cpp:122] Setting up fc7
I0121 19:49:23.439316 12111 net.cpp:129] Top shape: 50 4096 (204800)
I0121 19:49:23.439321 12111 net.cpp:137] Memory required for data: 514304800
I0121 19:49:23.439357 12111 layer_factory.hpp:78] Creating layer bn8
I0121 19:49:23.439394 12111 net.cpp:84] Creating Layer bn8
I0121 19:49:23.439409 12111 net.cpp:406] bn8 <- fc7
I0121 19:49:23.439440 12111 net.cpp:367] bn8 -> fc7 (in-place)
I0121 19:49:23.439736 12111 net.cpp:122] Setting up bn8
I0121 19:49:23.439749 12111 net.cpp:129] Top shape: 50 4096 (204800)
I0121 19:49:23.439751 12111 net.cpp:137] Memory required for data: 515124000
I0121 19:49:23.439774 12111 layer_factory.hpp:78] Creating layer scale8
I0121 19:49:23.439797 12111 net.cpp:84] Creating Layer scale8
I0121 19:49:23.439807 12111 net.cpp:406] scale8 <- fc7
I0121 19:49:23.439826 12111 net.cpp:367] scale8 -> fc7 (in-place)
I0121 19:49:23.439914 12111 layer_factory.hpp:78] Creating layer scale8
I0121 19:49:23.440119 12111 net.cpp:122] Setting up scale8
I0121 19:49:23.440130 12111 net.cpp:129] Top shape: 50 4096 (204800)
I0121 19:49:23.440135 12111 net.cpp:137] Memory required for data: 515943200
I0121 19:49:23.440150 12111 layer_factory.hpp:78] Creating layer relu7
I0121 19:49:23.440166 12111 net.cpp:84] Creating Layer relu7
I0121 19:49:23.440174 12111 net.cpp:406] relu7 <- fc7
I0121 19:49:23.440191 12111 net.cpp:367] relu7 -> fc7 (in-place)
I0121 19:49:23.441514 12111 net.cpp:122] Setting up relu7
I0121 19:49:23.441529 12111 net.cpp:129] Top shape: 50 4096 (204800)
I0121 19:49:23.441532 12111 net.cpp:137] Memory required for data: 516762400
I0121 19:49:23.441540 12111 layer_factory.hpp:78] Creating layer fc8
I0121 19:49:23.441563 12111 net.cpp:84] Creating Layer fc8
I0121 19:49:23.441572 12111 net.cpp:406] fc8 <- fc7
I0121 19:49:23.441593 12111 net.cpp:380] fc8 -> fc8
I0121 19:49:23.806922 12111 net.cpp:122] Setting up fc8
I0121 19:49:23.806977 12111 net.cpp:129] Top shape: 50 1000 (50000)
I0121 19:49:23.806982 12111 net.cpp:137] Memory required for data: 516962400
I0121 19:49:23.807010 12111 layer_factory.hpp:78] Creating layer fc8_fc8_0_split
I0121 19:49:23.807042 12111 net.cpp:84] Creating Layer fc8_fc8_0_split
I0121 19:49:23.807056 12111 net.cpp:406] fc8_fc8_0_split <- fc8
I0121 19:49:23.807080 12111 net.cpp:380] fc8_fc8_0_split -> fc8_fc8_0_split_0
I0121 19:49:23.807106 12111 net.cpp:380] fc8_fc8_0_split -> fc8_fc8_0_split_1
I0121 19:49:23.807121 12111 net.cpp:380] fc8_fc8_0_split -> fc8_fc8_0_split_2
I0121 19:49:23.807227 12111 net.cpp:122] Setting up fc8_fc8_0_split
I0121 19:49:23.807242 12111 net.cpp:129] Top shape: 50 1000 (50000)
I0121 19:49:23.807250 12111 net.cpp:129] Top shape: 50 1000 (50000)
I0121 19:49:23.807253 12111 net.cpp:129] Top shape: 50 1000 (50000)
I0121 19:49:23.807256 12111 net.cpp:137] Memory required for data: 517562400
I0121 19:49:23.807262 12111 layer_factory.hpp:78] Creating layer loss
I0121 19:49:23.807281 12111 net.cpp:84] Creating Layer loss
I0121 19:49:23.807289 12111 net.cpp:406] loss <- fc8_fc8_0_split_0
I0121 19:49:23.807302 12111 net.cpp:406] loss <- label_data_1_split_0
I0121 19:49:23.807315 12111 net.cpp:380] loss -> loss
…
