…
I0629 21:13:33.948215 26611 net.cpp:294] The NetState phase (0) differed from the phase (1) specified by a rule in layer mnist
I0629 21:13:33.948247 26611 net.cpp:294] The NetState phase (0) differed from the phase (1) specified by a rule in layer accuracy
I0629 21:13:33.948338 26611 net.cpp:51] Initializing net from parameters: 
name: "LeNet"
state {
  phase: TRAIN
  level: 0
  stage: ""
}
layer {
  name: "mnist"
  type: "Data"
  top: "data"
  top: "label"
  include {
    phase: TRAIN
  }
  transform_param {
    scale: 0.00390625
  }
  data_param {
    source: "examples/mnist/mnist_train_lmdb"
    batch_size: 100
    backend: LMDB
  }
}
layer {
  name: "conv1"
  type: "BinaryConvolution"
  bottom: "data"
  top: "conv1"
  param {
    lr_mult: 1
  }
  param {
    lr_mult: 2
  }
  convolution_param {
    num_output: 20
    kernel_size: 5
    stride: 1
    weight_filler {
      type: "xavier"
    }
    bias_filler {
      type: "constant"
    }
  }
  debug_param {
    xnorno_grad: false
  }
}
layer {
  name: "norm1"
  type: "BatchNorm"
  bottom: "conv1"
  top: "norm1"
}
layer {
  name: "bn1_scal"
  type: "Scale"
  bottom: "norm1"
  top: "conv1_sc"
  scale_param {
    bias_term: true
  }
}
layer {
  name: "relu1"
  type: "ReLU"
  bottom: "conv1_sc"
  top: "relu1"
}
layer {
  name: "pool1"
  type: "Pooling"
  bottom: "relu1"
  top: "pool1"
  pooling_param {
    pool: MAX
    kernel_size: 2
    stride: 2
  }
}
layer {
  name: "conv2"
  type: "BinaryConvolution"
  bottom: "pool1"
  top: "conv2"
  param {
    lr_mult: 1
  }
  param {
    lr_mult: 2
  }
  convolution_param {
    num_output: 50
    kernel_size: 5
    stride: 1
    weight_filler {
      type: "xavier"
    }
    bias_filler {
      type: "constant"
    }
  }
  debug_param {
    xnorno_grad: false
  }
}
layer {
  name: "norm2"
  type: "BatchNorm"
  bottom: "conv2"
  top: "norm2"
}
layer {
  name: "bn2_scal"
  type: "Scale"
  bottom: "norm2"
  top: "conv2_sc"
  scale_param {
    bias_term: true
  }
}
layer {
  name: "relu2"
  type: "ReLU"
  bottom: "conv2_sc"
  top: "relu2"
}
layer {
  name: "pool2"
  type: "Pooling"
  bottom: "relu2"
  top: "pool2"
  pooling_param {
    pool: MAX
    kernel_size: 2
    stride: 2
  }
}
layer {
  name: "ip1"
  type: "BinaryInnerProduct"
  bottom: "pool2"
  top: "ip1"
  param {
    lr_mult: 1
  }
  param {
    lr_mult: 2
  }
  inner_product_param {
    num_output: 500
    weight_filler {
      type: "xavier"
    }
    bias_filler {
      type: "constant"
    }
  }
  debug_param {
    xnorno_grad: false
  }
}
layer {
  name: "ip1_norm"
  type: "BatchNorm"
  bottom: "ip1"
  top: "ip1_norm"
}
layer {
  name: "ip1_sc"
  type: "Scale"
  bottom: "ip1_norm"
  top: "ip1_sc"
  scale_param {
    bias_term: true
  }
}
layer {
  name: "ip1_relu"
  type: "ReLU"
  bottom: "ip1_sc"
  top: "ip1_relu"
}
layer {
  name: "ip2"
  type: "BinaryInnerProduct"
  bottom: "ip1_relu"
  top: "ip2"
  param {
    lr_mult: 1
  }
  param {
    lr_mult: 2
  }
  inner_product_param {
    num_output: 10
    weight_filler {
      type: "xavier"
    }
    bias_filler {
      type: "constant"
    }
  }
  debug_param {
    xnorno_grad: false
  }
}
layer {
  name: "loss"
  type: "SoftmaxWithLoss"
  bottom: "ip2"
  bottom: "label"
  top: "loss"
}
I0629 21:13:33.948789 26611 layer_factory.hpp:77] Creating layer mnist
I0629 21:13:33.948997 26611 db_lmdb.cpp:35] Opened lmdb examples/mnist/mnist_train_lmdb
I0629 21:13:33.949043 26611 net.cpp:84] Creating Layer mnist
I0629 21:13:33.949067 26611 net.cpp:380] mnist -> data
I0629 21:13:33.949203 26611 net.cpp:380] mnist -> label
I0629 21:13:33.949748 26611 data_layer.cpp:45] output data size: 100,1,28,28
I0629 21:13:33.951002 26611 base_data_layer.cpp:72] Initializing prefetch
I0629 21:13:33.951290 26611 base_data_layer.cpp:75] Prefetch initialized.
I0629 21:13:33.951300 26611 net.cpp:122] Setting up mnist
I0629 21:13:33.951323 26611 net.cpp:129] Top shape: 100 1 28 28 (78400)
I0629 21:13:33.951329 26611 net.cpp:129] Top shape: 100 (100)
I0629 21:13:33.951341 26611 net.cpp:137] Memory required for data: 314000
I0629 21:13:33.951359 26611 layer_factory.hpp:77] Creating layer conv1
I0629 21:13:33.951412 26611 net.cpp:84] Creating Layer conv1
I0629 21:13:33.951429 26611 net.cpp:406] conv1 <- data
I0629 21:13:33.951494 26611 net.cpp:380] conv1 -> conv1
I0629 21:13:33.952337 26611 net.cpp:122] Setting up conv1
I0629 21:13:33.952349 26611 net.cpp:129] Top shape: 100 20 24 24 (1152000)
I0629 21:13:33.952353 26611 net.cpp:137] Memory required for data: 4922000
I0629 21:13:33.952415 26611 layer_factory.hpp:77] Creating layer norm1
I0629 21:13:33.952440 26611 net.cpp:84] Creating Layer norm1
I0629 21:13:33.952457 26611 net.cpp:406] norm1 <- conv1
I0629 21:13:33.952487 26611 net.cpp:380] norm1 -> norm1
I0629 21:13:33.952711 26611 net.cpp:122] Setting up norm1
I0629 21:13:33.952734 26611 net.cpp:129] Top shape: 100 20 24 24 (1152000)
I0629 21:13:33.952742 26611 net.cpp:137] Memory required for data: 9530000
I0629 21:13:33.952787 26611 layer_factory.hpp:77] Creating layer bn1_scal
I0629 21:13:33.952818 26611 net.cpp:84] Creating Layer bn1_scal
I0629 21:13:33.952836 26611 net.cpp:406] bn1_scal <- norm1
I0629 21:13:33.952899 26611 net.cpp:380] bn1_scal -> conv1_sc
I0629 21:13:33.952998 26611 layer_factory.hpp:77] Creating layer bn1_scal
I0629 21:13:33.953150 26611 net.cpp:122] Setting up bn1_scal
I0629 21:13:33.953161 26611 net.cpp:129] Top shape: 100 20 24 24 (1152000)
I0629 21:13:33.953166 26611 net.cpp:137] Memory required for data: 14138000
I0629 21:13:33.953179 26611 layer_factory.hpp:77] Creating layer relu1
I0629 21:13:33.953203 26611 net.cpp:84] Creating Layer relu1
I0629 21:13:33.953212 26611 net.cpp:406] relu1 <- conv1_sc
I0629 21:13:33.953228 26611 net.cpp:380] relu1 -> relu1
I0629 21:13:33.953263 26611 net.cpp:122] Setting up relu1
I0629 21:13:33.953274 26611 net.cpp:129] Top shape: 100 20 24 24 (1152000)
I0629 21:13:33.953279 26611 net.cpp:137] Memory required for data: 18746000
I0629 21:13:33.953287 26611 layer_factory.hpp:77] Creating layer pool1
I0629 21:13:33.953310 26611 net.cpp:84] Creating Layer pool1
I0629 21:13:33.953318 26611 net.cpp:406] pool1 <- relu1
I0629 21:13:33.953336 26611 net.cpp:380] pool1 -> pool1
I0629 21:13:33.953394 26611 net.cpp:122] Setting up pool1
I0629 21:13:33.953405 26611 net.cpp:129] Top shape: 100 20 12 12 (288000)
I0629 21:13:33.953411 26611 net.cpp:137] Memory required for data: 19898000
I0629 21:13:33.953418 26611 layer_factory.hpp:77] Creating layer conv2
I0629 21:13:33.953438 26611 net.cpp:84] Creating Layer conv2
I0629 21:13:33.953446 26611 net.cpp:406] conv2 <- pool1
I0629 21:13:33.953466 26611 net.cpp:380] conv2 -> conv2
I0629 21:13:33.955232 26611 net.cpp:122] Setting up conv2
I0629 21:13:33.955247 26611 net.cpp:129] Top shape: 100 50 8 8 (320000)
I0629 21:13:33.955252 26611 net.cpp:137] Memory required for data: 21178000
I0629 21:13:33.955276 26611 layer_factory.hpp:77] Creating layer norm2
I0629 21:13:33.955292 26611 net.cpp:84] Creating Layer norm2
I0629 21:13:33.955302 26611 net.cpp:406] norm2 <- conv2
I0629 21:13:33.955317 26611 net.cpp:380] norm2 -> norm2
I0629 21:13:33.955502 26611 net.cpp:122] Setting up norm2
I0629 21:13:33.955515 26611 net.cpp:129] Top shape: 100 50 8 8 (320000)
I0629 21:13:33.955520 26611 net.cpp:137] Memory required for data: 22458000
I0629 21:13:33.955540 26611 layer_factory.hpp:77] Creating layer bn2_scal
I0629 21:13:33.955574 26611 net.cpp:84] Creating Layer bn2_scal
I0629 21:13:33.955582 26611 net.cpp:406] bn2_scal <- norm2
I0629 21:13:33.955602 26611 net.cpp:380] bn2_scal -> conv2_sc
I0629 21:13:33.955658 26611 layer_factory.hpp:77] Creating layer bn2_scal
I0629 21:13:33.955790 26611 net.cpp:122] Setting up bn2_scal
I0629 21:13:33.955802 26611 net.cpp:129] Top shape: 100 50 8 8 (320000)
I0629 21:13:33.955807 26611 net.cpp:137] Memory required for data: 23738000
I0629 21:13:33.955822 26611 layer_factory.hpp:77] Creating layer relu2
I0629 21:13:33.955837 26611 net.cpp:84] Creating Layer relu2
I0629 21:13:33.955845 26611 net.cpp:406] relu2 <- conv2_sc
I0629 21:13:33.955862 26611 net.cpp:380] relu2 -> relu2
I0629 21:13:33.955899 26611 net.cpp:122] Setting up relu2
I0629 21:13:33.955910 26611 net.cpp:129] Top shape: 100 50 8 8 (320000)
I0629 21:13:33.955915 26611 net.cpp:137] Memory required for data: 25018000
I0629 21:13:33.955924 26611 layer_factory.hpp:77] Creating layer pool2
I0629 21:13:33.955938 26611 net.cpp:84] Creating Layer pool2
I0629 21:13:33.955946 26611 net.cpp:406] pool2 <- relu2
I0629 21:13:33.955965 26611 net.cpp:380] pool2 -> pool2
I0629 21:13:33.956012 26611 net.cpp:122] Setting up pool2
I0629 21:13:33.956023 26611 net.cpp:129] Top shape: 100 50 4 4 (80000)
I0629 21:13:33.956028 26611 net.cpp:137] Memory required for data: 25338000
I0629 21:13:33.956037 26611 layer_factory.hpp:77] Creating layer ip1
I0629 21:13:33.956061 26611 net.cpp:84] Creating Layer ip1
I0629 21:13:33.956076 26611 net.cpp:406] ip1 <- pool2
I0629 21:13:33.956099 26611 net.cpp:380] ip1 -> ip1
I0629 21:13:33.974781 26611 net.cpp:122] Setting up ip1
I0629 21:13:33.974804 26611 net.cpp:129] Top shape: 100 500 (50000)
I0629 21:13:33.974808 26611 net.cpp:137] Memory required for data: 25538000
I0629 21:13:33.974838 26611 layer_factory.hpp:77] Creating layer ip1_norm
I0629 21:13:33.974861 26611 net.cpp:84] Creating Layer ip1_norm
I0629 21:13:33.974872 26611 net.cpp:406] ip1_norm <- ip1
I0629 21:13:33.974895 26611 net.cpp:380] ip1_norm -> ip1_norm
I0629 21:13:33.975083 26611 net.cpp:122] Setting up ip1_norm
I0629 21:13:33.975093 26611 net.cpp:129] Top shape: 100 500 (50000)
I0629 21:13:33.975106 26611 net.cpp:137] Memory required for data: 25738000
I0629 21:13:33.975147 26611 layer_factory.hpp:77] Creating layer ip1_sc
I0629 21:13:33.975172 26611 net.cpp:84] Creating Layer ip1_sc
I0629 21:13:33.975180 26611 net.cpp:406] ip1_sc <- ip1_norm
I0629 21:13:33.975196 26611 net.cpp:380] ip1_sc -> ip1_sc
I0629 21:13:33.975253 26611 layer_factory.hpp:77] Creating layer ip1_sc
I0629 21:13:33.975387 26611 net.cpp:122] Setting up ip1_sc
I0629 21:13:33.975399 26611 net.cpp:129] Top shape: 100 500 (50000)
I0629 21:13:33.975402 26611 net.cpp:137] Memory required for data: 25938000
I0629 21:13:33.975423 26611 layer_factory.hpp:77] Creating layer ip1_relu
I0629 21:13:33.975437 26611 net.cpp:84] Creating Layer ip1_relu
I0629 21:13:33.975445 26611 net.cpp:406] ip1_relu <- ip1_sc
I0629 21:13:33.975471 26611 net.cpp:380] ip1_relu -> ip1_relu
I0629 21:13:33.975500 26611 net.cpp:122] Setting up ip1_relu
I0629 21:13:33.975509 26611 net.cpp:129] Top shape: 100 500 (50000)
I0629 21:13:33.975513 26611 net.cpp:137] Memory required for data: 26138000
I0629 21:13:33.975518 26611 layer_factory.hpp:77] Creating layer ip2
I0629 21:13:33.975538 26611 net.cpp:84] Creating Layer ip2
I0629 21:13:33.975545 26611 net.cpp:406] ip2 <- ip1_relu
I0629 21:13:33.975564 26611 net.cpp:380] ip2 -> ip2
I0629 21:13:33.976379 26611 net.cpp:122] Setting up ip2
I0629 21:13:33.976392 26611 net.cpp:129] Top shape: 100 10 (1000)
I0629 21:13:33.976406 26611 net.cpp:137] Memory required for data: 26142000
I0629 21:13:33.976420 26611 layer_factory.hpp:77] Creating layer loss
I0629 21:13:33.976447 26611 net.cpp:84] Creating Layer loss
I0629 21:13:33.976457 26611 net.cpp:406] loss <- ip2
I0629 21:13:33.976470 26611 net.cpp:406] loss <- label
I0629 21:13:33.976485 26611 net.cpp:380] loss -> loss
I0629 21:13:33.976507 26611 layer_factory.hpp:77] Creating layer loss
…
I0629 21:13:33.977102 26611 solver.cpp:190] Creating test net (#0) specified by net file: my/BWN/GroupConvolution/Mnist/lenet_train_test_b.prototxt
I0629 21:13:33.977167 26611 net.cpp:294] The NetState phase (1) differed from the phase (0) specified by a rule in layer mnist
I0629 21:13:33.977284 26611 net.cpp:51] Initializing net from parameters: 
name: "LeNet"
state {
  phase: TEST
}
layer {
  name: "mnist"
  type: "Data"
  top: "data"
  top: "label"
  include {
    phase: TEST
  }
  transform_param {
    scale: 0.00390625
  }
  data_param {
    source: "examples/mnist/mnist_test_lmdb"
    batch_size: 100
    backend: LMDB
  }
}
layer {
  name: "conv1"
  type: "BinaryConvolution"
  bottom: "data"
  top: "conv1"
  param {
    lr_mult: 1
  }
  param {
    lr_mult: 2
  }
  convolution_param {
    num_output: 20
    kernel_size: 5
    stride: 1
    weight_filler {
      type: "xavier"
    }
    bias_filler {
      type: "constant"
    }
  }
  debug_param {
    xnorno_grad: false
  }
}
layer {
  name: "norm1"
  type: "BatchNorm"
  bottom: "conv1"
  top: "norm1"
}
layer {
  name: "bn1_scal"
  type: "Scale"
  bottom: "norm1"
  top: "conv1_sc"
  scale_param {
    bias_term: true
  }
}
layer {
  name: "relu1"
  type: "ReLU"
  bottom: "conv1_sc"
  top: "relu1"
}
layer {
  name: "pool1"
  type: "Pooling"
  bottom: "relu1"
  top: "pool1"
  pooling_param {
    pool: MAX
    kernel_size: 2
    stride: 2
  }
}
layer {
  name: "conv2"
  type: "BinaryConvolution"
  bottom: "pool1"
  top: "conv2"
  param {
    lr_mult: 1
  }
  param {
    lr_mult: 2
  }
  convolution_param {
    num_output: 50
    kernel_size: 5
    stride: 1
    weight_filler {
      type: "xavier"
    }
    bias_filler {
      type: "constant"
    }
  }
  debug_param {
    xnorno_grad: false
  }
}
layer {
  name: "norm2"
  type: "BatchNorm"
  bottom: "conv2"
  top: "norm2"
}
layer {
  name: "bn2_scal"
  type: "Scale"
  bottom: "norm2"
  top: "conv2_sc"
  scale_param {
    bias_term: true
  }
}
layer {
  name: "relu2"
  type: "ReLU"
  bottom: "conv2_sc"
  top: "relu2"
}
layer {
  name: "pool2"
  type: "Pooling"
  bottom: "relu2"
  top: "pool2"
  pooling_param {
    pool: MAX
    kernel_size: 2
    stride: 2
  }
}
layer {
  name: "ip1"
  type: "BinaryInnerProduct"
  bottom: "pool2"
  top: "ip1"
  param {
    lr_mult: 1
  }
  param {
    lr_mult: 2
  }
  inner_product_param {
    num_output: 500
    weight_filler {
      type: "xavier"
    }
    bias_filler {
      type: "constant"
    }
  }
  debug_param {
    xnorno_grad: false
  }
}
layer {
  name: "ip1_norm"
  type: "BatchNorm"
  bottom: "ip1"
  top: "ip1_norm"
}
layer {
  name: "ip1_sc"
  type: "Scale"
  bottom: "ip1_norm"
  top: "ip1_sc"
  scale_param {
    bias_term: true
  }
}
layer {
  name: "ip1_relu"
  type: "ReLU"
  bottom: "ip1_sc"
  top: "ip1_relu"
}
layer {
  name: "ip2"
  type: "BinaryInnerProduct"
  bottom: "ip1_relu"
  top: "ip2"
  param {
    lr_mult: 1
  }
  param {
    lr_mult: 2
  }
  inner_product_param {
    num_output: 10
    weight_filler {
      type: "xavier"
    }
    bias_filler {
      type: "constant"
    }
  }
  debug_param {
    xnorno_grad: false
  }
}
layer {
  name: "accuracy"
  type: "Accuracy"
  bottom: "ip2"
  bottom: "label"
  top: "accuracy"
  include {
    phase: TEST
  }
}
layer {
  name: "loss"
  type: "SoftmaxWithLoss"
  bottom: "ip2"
  bottom: "label"
  top: "loss"
}
I0629 21:13:33.977568 26611 layer_factory.hpp:77] Creating layer mnist
I0629 21:13:33.977643 26611 db_lmdb.cpp:35] Opened lmdb examples/mnist/mnist_test_lmdb
I0629 21:13:33.977664 26611 net.cpp:84] Creating Layer mnist
I0629 21:13:33.977679 26611 net.cpp:380] mnist -> data
I0629 21:13:33.977702 26611 net.cpp:380] mnist -> label
I0629 21:13:33.977802 26611 data_layer.cpp:45] output data size: 100,1,28,28
I0629 21:13:33.978790 26611 base_data_layer.cpp:72] Initializing prefetch
I0629 21:13:33.978849 26611 base_data_layer.cpp:75] Prefetch initialized.
I0629 21:13:33.978857 26611 net.cpp:122] Setting up mnist
I0629 21:13:33.978875 26611 net.cpp:129] Top shape: 100 1 28 28 (78400)
I0629 21:13:33.978883 26611 net.cpp:129] Top shape: 100 (100)
I0629 21:13:33.978888 26611 net.cpp:137] Memory required for data: 314000
I0629 21:13:33.978899 26611 layer_factory.hpp:77] Creating layer label_mnist_1_split
I0629 21:13:33.978919 26611 net.cpp:84] Creating Layer label_mnist_1_split
I0629 21:13:33.978929 26611 net.cpp:406] label_mnist_1_split <- label
I0629 21:13:33.978947 26611 net.cpp:380] label_mnist_1_split -> label_mnist_1_split_0
I0629 21:13:33.978968 26611 net.cpp:380] label_mnist_1_split -> label_mnist_1_split_1
I0629 21:13:33.979018 26611 net.cpp:122] Setting up label_mnist_1_split
I0629 21:13:33.979028 26611 net.cpp:129] Top shape: 100 (100)
I0629 21:13:33.979035 26611 net.cpp:129] Top shape: 100 (100)
I0629 21:13:33.979039 26611 net.cpp:137] Memory required for data: 314800
I0629 21:13:33.979044 26611 layer_factory.hpp:77] Creating layer conv1
I0629 21:13:33.979068 26611 net.cpp:84] Creating Layer conv1
I0629 21:13:33.979077 26611 net.cpp:406] conv1 <- data
I0629 21:13:33.979099 26611 net.cpp:380] conv1 -> conv1
I0629 21:13:33.979429 26611 net.cpp:122] Setting up conv1
I0629 21:13:33.979441 26611 net.cpp:129] Top shape: 100 20 24 24 (1152000)
I0629 21:13:33.979446 26611 net.cpp:137] Memory required for data: 4922800
I0629 21:13:33.979472 26611 layer_factory.hpp:77] Creating layer norm1
I0629 21:13:33.979487 26611 net.cpp:84] Creating Layer norm1
I0629 21:13:33.979496 26611 net.cpp:406] norm1 <- conv1
I0629 21:13:33.979511 26611 net.cpp:380] norm1 -> norm1
I0629 21:13:33.979732 26611 net.cpp:122] Setting up norm1
I0629 21:13:33.979743 26611 net.cpp:129] Top shape: 100 20 24 24 (1152000)
I0629 21:13:33.979748 26611 net.cpp:137] Memory required for data: 9530800
I0629 21:13:33.979779 26611 layer_factory.hpp:77] Creating layer bn1_scal
I0629 21:13:33.979800 26611 net.cpp:84] Creating Layer bn1_scal
I0629 21:13:33.979809 26611 net.cpp:406] bn1_scal <- norm1
I0629 21:13:33.979825 26611 net.cpp:380] bn1_scal -> conv1_sc
I0629 21:13:33.979882 26611 layer_factory.hpp:77] Creating layer bn1_scal
I0629 21:13:33.980018 26611 net.cpp:122] Setting up bn1_scal
I0629 21:13:33.980031 26611 net.cpp:129] Top shape: 100 20 24 24 (1152000)
I0629 21:13:33.980036 26611 net.cpp:137] Memory required for data: 14138800
I0629 21:13:33.980048 26611 layer_factory.hpp:77] Creating layer relu1
I0629 21:13:33.980062 26611 net.cpp:84] Creating Layer relu1
I0629 21:13:33.980077 26611 net.cpp:406] relu1 <- conv1_sc
I0629 21:13:33.980092 26611 net.cpp:380] relu1 -> relu1
I0629 21:13:33.980134 26611 net.cpp:122] Setting up relu1
I0629 21:13:33.980144 26611 net.cpp:129] Top shape: 100 20 24 24 (1152000)
I0629 21:13:33.980149 26611 net.cpp:137] Memory required for data: 18746800
I0629 21:13:33.980154 26611 layer_factory.hpp:77] Creating layer pool1
I0629 21:13:33.980170 26611 net.cpp:84] Creating Layer pool1
I0629 21:13:33.980176 26611 net.cpp:406] pool1 <- relu1
I0629 21:13:33.980192 26611 net.cpp:380] pool1 -> pool1
I0629 21:13:33.980243 26611 net.cpp:122] Setting up pool1
I0629 21:13:33.980254 26611 net.cpp:129] Top shape: 100 20 12 12 (288000)
I0629 21:13:33.980260 26611 net.cpp:137] Memory required for data: 19898800
I0629 21:13:33.980267 26611 layer_factory.hpp:77] Creating layer conv2
I0629 21:13:33.980284 26611 net.cpp:84] Creating Layer conv2
I0629 21:13:33.980293 26611 net.cpp:406] conv2 <- pool1
I0629 21:13:33.980311 26611 net.cpp:380] conv2 -> conv2
I0629 21:13:33.981748 26611 net.cpp:122] Setting up conv2
I0629 21:13:33.981760 26611 net.cpp:129] Top shape: 100 50 8 8 (320000)
I0629 21:13:33.981765 26611 net.cpp:137] Memory required for data: 21178800
I0629 21:13:33.981786 26611 layer_factory.hpp:77] Creating layer norm2
I0629 21:13:33.981803 26611 net.cpp:84] Creating Layer norm2
I0629 21:13:33.981812 26611 net.cpp:406] norm2 <- conv2
I0629 21:13:33.981829 26611 net.cpp:380] norm2 -> norm2
I0629 21:13:33.982022 26611 net.cpp:122] Setting up norm2
I0629 21:13:33.982033 26611 net.cpp:129] Top shape: 100 50 8 8 (320000)
I0629 21:13:33.982036 26611 net.cpp:137] Memory required for data: 22458800
I0629 21:13:33.982054 26611 layer_factory.hpp:77] Creating layer bn2_scal
I0629 21:13:33.982071 26611 net.cpp:84] Creating Layer bn2_scal
I0629 21:13:33.982079 26611 net.cpp:406] bn2_scal <- norm2
I0629 21:13:33.982095 26611 net.cpp:380] bn2_scal -> conv2_sc
I0629 21:13:33.982151 26611 layer_factory.hpp:77] Creating layer bn2_scal
I0629 21:13:33.982282 26611 net.cpp:122] Setting up bn2_scal
I0629 21:13:33.982295 26611 net.cpp:129] Top shape: 100 50 8 8 (320000)
I0629 21:13:33.982300 26611 net.cpp:137] Memory required for data: 23738800
I0629 21:13:33.982311 26611 layer_factory.hpp:77] Creating layer relu2
I0629 21:13:33.982323 26611 net.cpp:84] Creating Layer relu2
I0629 21:13:33.982331 26611 net.cpp:406] relu2 <- conv2_sc
I0629 21:13:33.982347 26611 net.cpp:380] relu2 -> relu2
I0629 21:13:33.982378 26611 net.cpp:122] Setting up relu2
I0629 21:13:33.982388 26611 net.cpp:129] Top shape: 100 50 8 8 (320000)
I0629 21:13:33.982398 26611 net.cpp:137] Memory required for data: 25018800
I0629 21:13:33.982409 26611 layer_factory.hpp:77] Creating layer pool2
I0629 21:13:33.982424 26611 net.cpp:84] Creating Layer pool2
I0629 21:13:33.982431 26611 net.cpp:406] pool2 <- relu2
I0629 21:13:33.982447 26611 net.cpp:380] pool2 -> pool2
I0629 21:13:33.982496 26611 net.cpp:122] Setting up pool2
I0629 21:13:33.982511 26611 net.cpp:129] Top shape: 100 50 4 4 (80000)
I0629 21:13:33.982517 26611 net.cpp:137] Memory required for data: 25338800
I0629 21:13:33.982527 26611 layer_factory.hpp:77] Creating layer ip1
I0629 21:13:33.982543 26611 net.cpp:84] Creating Layer ip1
I0629 21:13:33.982551 26611 net.cpp:406] ip1 <- pool2
I0629 21:13:33.982571 26611 net.cpp:380] ip1 -> ip1
I0629 21:13:34.001046 26611 net.cpp:122] Setting up ip1
I0629 21:13:34.001073 26611 net.cpp:129] Top shape: 100 500 (50000)
I0629 21:13:34.001077 26611 net.cpp:137] Memory required for data: 25538800
I0629 21:13:34.001093 26611 layer_factory.hpp:77] Creating layer ip1_norm
I0629 21:13:34.001109 26611 net.cpp:84] Creating Layer ip1_norm
I0629 21:13:34.001119 26611 net.cpp:406] ip1_norm <- ip1
I0629 21:13:34.001138 26611 net.cpp:380] ip1_norm -> ip1_norm
I0629 21:13:34.001323 26611 net.cpp:122] Setting up ip1_norm
I0629 21:13:34.001343 26611 net.cpp:129] Top shape: 100 500 (50000)
I0629 21:13:34.001346 26611 net.cpp:137] Memory required for data: 25738800
I0629 21:13:34.001374 26611 layer_factory.hpp:77] Creating layer ip1_sc
I0629 21:13:34.001408 26611 net.cpp:84] Creating Layer ip1_sc
I0629 21:13:34.001416 26611 net.cpp:406] ip1_sc <- ip1_norm
I0629 21:13:34.001441 26611 net.cpp:380] ip1_sc -> ip1_sc
I0629 21:13:34.001513 26611 layer_factory.hpp:77] Creating layer ip1_sc
I0629 21:13:34.001662 26611 net.cpp:122] Setting up ip1_sc
I0629 21:13:34.001682 26611 net.cpp:129] Top shape: 100 500 (50000)
I0629 21:13:34.001687 26611 net.cpp:137] Memory required for data: 25938800
I0629 21:13:34.001698 26611 layer_factory.hpp:77] Creating layer ip1_relu
I0629 21:13:34.001710 26611 net.cpp:84] Creating Layer ip1_relu
I0629 21:13:34.001718 26611 net.cpp:406] ip1_relu <- ip1_sc
I0629 21:13:34.001732 26611 net.cpp:380] ip1_relu -> ip1_relu
I0629 21:13:34.001780 26611 net.cpp:122] Setting up ip1_relu
I0629 21:13:34.001790 26611 net.cpp:129] Top shape: 100 500 (50000)
I0629 21:13:34.001793 26611 net.cpp:137] Memory required for data: 26138800
I0629 21:13:34.001798 26611 layer_factory.hpp:77] Creating layer ip2
I0629 21:13:34.001821 26611 net.cpp:84] Creating Layer ip2
I0629 21:13:34.001829 26611 net.cpp:406] ip2 <- ip1_relu
I0629 21:13:34.001847 26611 net.cpp:380] ip2 -> ip2
I0629 21:13:34.002256 26611 net.cpp:122] Setting up ip2
I0629 21:13:34.002267 26611 net.cpp:129] Top shape: 100 10 (1000)
I0629 21:13:34.002271 26611 net.cpp:137] Memory required for data: 26142800
I0629 21:13:34.002283 26611 layer_factory.hpp:77] Creating layer ip2_ip2_0_split
I0629 21:13:34.002296 26611 net.cpp:84] Creating Layer ip2_ip2_0_split
I0629 21:13:34.002303 26611 net.cpp:406] ip2_ip2_0_split <- ip2
I0629 21:13:34.002317 26611 net.cpp:380] ip2_ip2_0_split -> ip2_ip2_0_split_0
I0629 21:13:34.002337 26611 net.cpp:380] ip2_ip2_0_split -> ip2_ip2_0_split_1
I0629 21:13:34.002377 26611 net.cpp:122] Setting up ip2_ip2_0_split
I0629 21:13:34.002387 26611 net.cpp:129] Top shape: 100 10 (1000)
I0629 21:13:34.002393 26611 net.cpp:129] Top shape: 100 10 (1000)
I0629 21:13:34.002396 26611 net.cpp:137] Memory required for data: 26150800
I0629 21:13:34.002403 26611 layer_factory.hpp:77] Creating layer accuracy
I0629 21:13:34.002421 26611 net.cpp:84] Creating Layer accuracy
I0629 21:13:34.002429 26611 net.cpp:406] accuracy <- ip2_ip2_0_split_0
I0629 21:13:34.002441 26611 net.cpp:406] accuracy <- label_mnist_1_split_0
I0629 21:13:34.002455 26611 net.cpp:380] accuracy -> accuracy
…
