…
I0718 20:41:19.592633 16045 net.cpp:294] The NetState phase (0) differed from the phase (1) specified by a rule in layer accuracy
I0718 20:41:19.592983 16045 net.cpp:51] Initializing net from parameters: 
name: "CIFAR10_vgg"
state {
  phase: TRAIN
  level: 0
  stage: ""
}
layer {
  name: "cifar"
  type: "Data"
  top: "data"
  top: "label"
  include {
    phase: TRAIN
  }
  transform_param {
    mirror: true
    crop_size: 32
    mean_file: "examples/cifar10/mean.binaryproto"
  }
  data_param {
    source: "examples/cifar10/cifar10_train_lmdb"
    batch_size: 100
    backend: LMDB
  }
}
layer {
  name: "conv1"
  type: "BinaryConvolution"
  bottom: "data"
  top: "conv1"
  param {
    lr_mult: 1
    decay_mult: 1
  }
  convolution_param {
    num_output: 64
    bias_term: false
    pad: 1
    kernel_size: 3
    stride: 1
    weight_filler {
      type: "gaussian"
      std: 0.01
    }
  }
  debug_param {
    xnorno_grad: false
  }
}
layer {
  name: "bn1_bn"
  type: "BatchNorm"
  bottom: "conv1"
  top: "conv1_bn"
}
layer {
  name: "bn1_scal"
  type: "Scale"
  bottom: "conv1_bn"
  top: "conv1_sc"
  scale_param {
    bias_term: true
  }
}
layer {
  name: "relu1"
  type: "ReLU"
  bottom: "conv1_sc"
  top: "conv1_sc"
}
layer {
  name: "conv2"
  type: "BinaryConvolution"
  bottom: "conv1_sc"
  top: "conv2"
  param {
    lr_mult: 1
    decay_mult: 1
  }
  convolution_param {
    num_output: 64
    bias_term: false
    pad: 1
    kernel_size: 3
    stride: 1
    weight_filler {
      type: "gaussian"
      std: 0.01
    }
  }
  debug_param {
    xnorno_grad: false
  }
}
layer {
  name: "bn2_bn"
  type: "BatchNorm"
  bottom: "conv2"
  top: "conv2_bn"
}
layer {
  name: "bn2_scal"
  type: "Scale"
  bottom: "conv2_bn"
  top: "conv2_sc"
  scale_param {
    bias_term: true
  }
}
layer {
  name: "relu2"
  type: "ReLU"
  bottom: "conv2_sc"
  top: "conv2_sc"
}
layer {
  name: "pool1"
  type: "Pooling"
  bottom: "conv2_sc"
  top: "pool1"
  pooling_param {
    pool: MAX
    kernel_size: 2
    stride: 2
  }
}
layer {
  name: "drop1"
  type: "Dropout"
  bottom: "pool1"
  top: "pool1"
  dropout_param {
    dropout_ratio: 0.25
  }
}
layer {
  name: "conv3"
  type: "BinaryConvolution"
  bottom: "pool1"
  top: "conv3"
  param {
    lr_mult: 1
    decay_mult: 1
  }
  convolution_param {
    num_output: 128
    bias_term: false
    pad: 1
    kernel_size: 3
    stride: 1
    weight_filler {
      type: "gaussian"
      std: 0.01
    }
  }
  debug_param {
    xnorno_grad: false
  }
}
layer {
  name: "bn3_bn"
  type: "BatchNorm"
  bottom: "conv3"
  top: "conv3_bn"
}
layer {
  name: "bn3_scal"
  type: "Scale"
  bottom: "conv3_bn"
  top: "conv3_sc"
  scale_param {
    bias_term: true
  }
}
layer {
  name: "relu3"
  type: "ReLU"
  bottom: "conv3_sc"
  top: "conv3_sc"
}
layer {
  name: "conv4"
  type: "BinaryConvolution"
  bottom: "conv3_sc"
  top: "conv4"
  param {
    lr_mult: 1
    decay_mult: 1
  }
  convolution_param {
    num_output: 128
    bias_term: false
    pad: 1
    kernel_size: 3
    stride: 1
    weight_filler {
      type: "gaussian"
      std: 0.01
    }
  }
  debug_param {
    xnorno_grad: false
  }
}
layer {
  name: "bn4_bn"
  type: "BatchNorm"
  bottom: "conv4"
  top: "conv4_bn"
}
layer {
  name: "bn4_scal"
  type: "Scale"
  bottom: "conv4_bn"
  top: "conv4_sc"
  scale_param {
    bias_term: true
  }
}
layer {
  name: "relu4"
  type: "ReLU"
  bottom: "conv4_sc"
  top: "conv4_sc"
}
layer {
  name: "pool2"
  type: "Pooling"
  bottom: "conv4_sc"
  top: "pool2"
  pooling_param {
    pool: MAX
    kernel_size: 2
    stride: 2
  }
}
layer {
  name: "drop2"
  type: "Dropout"
  bottom: "pool2"
  top: "pool2"
  dropout_param {
    dropout_ratio: 0.25
  }
}
layer {
  name: "conv5"
  type: "BinaryConvolution"
  bottom: "pool2"
  top: "conv5"
  param {
    lr_mult: 1
    decay_mult: 1
  }
  convolution_param {
    num_output: 256
    bias_term: false
    pad: 1
    kernel_size: 3
    stride: 1
    weight_filler {
      type: "gaussian"
      std: 0.01
    }
  }
  debug_param {
    xnorno_grad: false
  }
}
layer {
  name: "bn5_bn"
  type: "BatchNorm"
  bottom: "conv5"
  top: "conv5_bn"
}
layer {
  name: "bn5_scal"
  type: "Scale"
  bottom: "conv5_bn"
  top: "conv5_sc"
  scale_param {
    bias_term: true
  }
}
layer {
  name: "relu5"
  type: "ReLU"
  bottom: "conv5_sc"
  top: "conv5_sc"
}
layer {
  name: "conv6"
  type: "BinaryConvolution"
  bottom: "conv5_sc"
  top: "conv6"
  param {
    lr_mult: 1
    decay_mult: 1
  }
  convolution_param {
    num_output: 256
    bias_term: false
    pad: 1
    kernel_size: 3
    stride: 1
    weight_filler {
      type: "gaussian"
      std: 0.01
    }
  }
  debug_param {
    xnorno_grad: false
  }
}
layer {
  name: "bn6_bn"
  type: "BatchNorm"
  bottom: "conv6"
  top: "conv6_bn"
}
layer {
  name: "bn6_scal"
  type: "Scale"
  bottom: "conv6_bn"
  top: "conv6_sc"
  scale_param {
    bias_term: true
  }
}
layer {
  name: "relu6"
  type: "ReLU"
  bottom: "conv6_sc"
  top: "conv6_sc"
}
layer {
  name: "pool3"
  type: "Pooling"
  bottom: "conv6_sc"
  top: "pool3"
  pooling_param {
    pool: MAX
    kernel_size: 2
    stride: 2
  }
}
layer {
  name: "drop3"
  type: "Dropout"
  bottom: "pool3"
  top: "pool3"
  dropout_param {
    dropout_ratio: 0.25
  }
}
layer {
  name: "fc7"
  type: "BinaryInnerProduct"
  bottom: "pool3"
  top: "fc7"
  param {
    lr_mult: 1
    decay_mult: 1
  }
  inner_product_param {
    num_output: 512
    bias_term: false
    weight_filler {
      type: "gaussian"
      std: 0.01
    }
  }
  debug_param {
    xnorno_grad: false
  }
}
layer {
  name: "bn7_bn"
  type: "BatchNorm"
  bottom: "fc7"
  top: "fc7_bn"
}
layer {
  name: "bn7_scal"
  type: "Scale"
  bottom: "fc7_bn"
  top: "fc7_sc"
  scale_param {
    bias_term: true
  }
}
layer {
  name: "relu7"
  type: "ReLU"
  bottom: "fc7_sc"
  top: "fc7_sc"
}
layer {
  name: "drop7"
  type: "Dropout"
  bottom: "fc7_sc"
  top: "fc7_sc"
  dropout_param {
    dropout_ratio: 0.5
  }
}
layer {
  name: "fc8"
  type: "BinaryInnerProduct"
  bottom: "fc7_sc"
  top: "fc8"
  param {
    lr_mult: 1
    decay_mult: 1
  }
  inner_product_param {
    num_output: 512
    bias_term: false
    weight_filler {
      type: "gaussian"
      std: 0.01
    }
  }
  debug_param {
    xnorno_grad: false
  }
}
layer {
  name: "bn8_bn"
  type: "BatchNorm"
  bottom: "fc8"
  top: "fc8_bn"
}
layer {
  name: "bn8_scal"
  type: "Scale"
  bottom: "fc8_bn"
  top: "fc8_sc"
  scale_param {
    bias_term: true
  }
}
layer {
  name: "relu8"
  type: "ReLU"
  bottom: "fc8_sc"
  top: "fc8_sc"
}
layer {
  name: "drop8"
  type: "Dropout"
  bottom: "fc8_sc"
  top: "fc8_sc"
  dropout_param {
    dropout_ratio: 0.5
  }
}
layer {
  name: "fc9"
  type: "BinaryInnerProduct"
  bottom: "fc8_sc"
  top: "fc9"
  param {
    lr_mult: 1
    decay_mult: 1
  }
  param {
    lr_mult: 2
    decay_mult: 0
  }
  inner_product_param {
    num_output: 10
    weight_filler {
      type: "gaussian"
      std: 0.01
    }
    bias_filler {
      type: "constant"
      value: 0.01
    }
  }
  debug_param {
    xnorno_grad: false
  }
}
layer {
  name: "loss"
  type: "SoftmaxWithLoss"
  bottom: "fc9"
  bottom: "label"
  top: "loss"
}
I0718 20:41:19.594147 16045 layer_factory.hpp:77] Creating layer cifar
I0718 20:41:19.621868 16045 db_lmdb.cpp:35] Opened lmdb examples/cifar10/cifar10_train_lmdb
I0718 20:41:19.637380 16045 net.cpp:84] Creating Layer cifar
I0718 20:41:19.637436 16045 net.cpp:380] cifar -> data
I0718 20:41:19.637636 16045 net.cpp:380] cifar -> label
I0718 20:41:19.637709 16045 data_transformer.cpp:25] Loading mean file from: examples/cifar10/mean.binaryproto
I0718 20:41:19.648391 16045 data_layer.cpp:45] output data size: 100,3,32,32
I0718 20:41:19.653784 16045 base_data_layer.cpp:72] Initializing prefetch
I0718 20:41:19.653996 16045 base_data_layer.cpp:75] Prefetch initialized.
I0718 20:41:19.654018 16045 net.cpp:122] Setting up cifar
I0718 20:41:19.654074 16045 net.cpp:129] Top shape: 100 3 32 32 (307200)
I0718 20:41:19.654095 16045 net.cpp:129] Top shape: 100 (100)
I0718 20:41:19.654103 16045 net.cpp:137] Memory required for data: 1229200
I0718 20:41:19.654148 16045 layer_factory.hpp:77] Creating layer conv1
I0718 20:41:19.654253 16045 net.cpp:84] Creating Layer conv1
I0718 20:41:19.654289 16045 net.cpp:406] conv1 <- data
I0718 20:41:19.654400 16045 net.cpp:380] conv1 -> conv1
I0718 20:41:19.655622 16045 net.cpp:122] Setting up conv1
I0718 20:41:19.655652 16045 net.cpp:129] Top shape: 100 64 32 32 (6553600)
I0718 20:41:19.655661 16045 net.cpp:137] Memory required for data: 27443600
I0718 20:41:19.655730 16045 layer_factory.hpp:77] Creating layer bn1_bn
I0718 20:41:19.655776 16045 net.cpp:84] Creating Layer bn1_bn
I0718 20:41:19.655794 16045 net.cpp:406] bn1_bn <- conv1
I0718 20:41:19.655830 16045 net.cpp:380] bn1_bn -> conv1_bn
I0718 20:41:19.657263 16045 net.cpp:122] Setting up bn1_bn
I0718 20:41:19.657304 16045 net.cpp:129] Top shape: 100 64 32 32 (6553600)
I0718 20:41:19.657317 16045 net.cpp:137] Memory required for data: 53658000
I0718 20:41:19.657399 16045 layer_factory.hpp:77] Creating layer bn1_scal
I0718 20:41:19.657446 16045 net.cpp:84] Creating Layer bn1_scal
I0718 20:41:19.657471 16045 net.cpp:406] bn1_scal <- conv1_bn
I0718 20:41:19.657521 16045 net.cpp:380] bn1_scal -> conv1_sc
I0718 20:41:19.657680 16045 layer_factory.hpp:77] Creating layer bn1_scal
I0718 20:41:19.658035 16045 net.cpp:122] Setting up bn1_scal
I0718 20:41:19.658063 16045 net.cpp:129] Top shape: 100 64 32 32 (6553600)
I0718 20:41:19.658072 16045 net.cpp:137] Memory required for data: 79872400
I0718 20:41:19.658116 16045 layer_factory.hpp:77] Creating layer relu1
I0718 20:41:19.658166 16045 net.cpp:84] Creating Layer relu1
I0718 20:41:19.658205 16045 net.cpp:406] relu1 <- conv1_sc
I0718 20:41:19.658241 16045 net.cpp:367] relu1 -> conv1_sc (in-place)
I0718 20:41:23.209602 16045 net.cpp:122] Setting up relu1
I0718 20:41:23.209640 16045 net.cpp:129] Top shape: 100 64 32 32 (6553600)
I0718 20:41:23.209646 16045 net.cpp:137] Memory required for data: 106086800
I0718 20:41:23.209663 16045 layer_factory.hpp:77] Creating layer conv2
I0718 20:41:23.209720 16045 net.cpp:84] Creating Layer conv2
I0718 20:41:23.209736 16045 net.cpp:406] conv2 <- conv1_sc
I0718 20:41:23.209779 16045 net.cpp:380] conv2 -> conv2
I0718 20:41:23.219434 16045 net.cpp:122] Setting up conv2
I0718 20:41:23.219463 16045 net.cpp:129] Top shape: 100 64 32 32 (6553600)
I0718 20:41:23.219471 16045 net.cpp:137] Memory required for data: 132301200
I0718 20:41:23.219493 16045 layer_factory.hpp:77] Creating layer bn2_bn
I0718 20:41:23.219519 16045 net.cpp:84] Creating Layer bn2_bn
I0718 20:41:23.219540 16045 net.cpp:406] bn2_bn <- conv2
I0718 20:41:23.219558 16045 net.cpp:380] bn2_bn -> conv2_bn
I0718 20:41:23.219954 16045 net.cpp:122] Setting up bn2_bn
I0718 20:41:23.219975 16045 net.cpp:129] Top shape: 100 64 32 32 (6553600)
I0718 20:41:23.219982 16045 net.cpp:137] Memory required for data: 158515600
I0718 20:41:23.220036 16045 layer_factory.hpp:77] Creating layer bn2_scal
I0718 20:41:23.220070 16045 net.cpp:84] Creating Layer bn2_scal
I0718 20:41:23.220079 16045 net.cpp:406] bn2_scal <- conv2_bn
I0718 20:41:23.220096 16045 net.cpp:380] bn2_scal -> conv2_sc
I0718 20:41:23.220188 16045 layer_factory.hpp:77] Creating layer bn2_scal
I0718 20:41:23.220480 16045 net.cpp:122] Setting up bn2_scal
I0718 20:41:23.220502 16045 net.cpp:129] Top shape: 100 64 32 32 (6553600)
I0718 20:41:23.220512 16045 net.cpp:137] Memory required for data: 184730000
I0718 20:41:23.220535 16045 layer_factory.hpp:77] Creating layer relu2
I0718 20:41:23.220594 16045 net.cpp:84] Creating Layer relu2
I0718 20:41:23.220610 16045 net.cpp:406] relu2 <- conv2_sc
I0718 20:41:23.220636 16045 net.cpp:367] relu2 -> conv2_sc (in-place)
I0718 20:41:23.221230 16045 net.cpp:122] Setting up relu2
I0718 20:41:23.221251 16045 net.cpp:129] Top shape: 100 64 32 32 (6553600)
I0718 20:41:23.221258 16045 net.cpp:137] Memory required for data: 210944400
I0718 20:41:23.221269 16045 layer_factory.hpp:77] Creating layer pool1
I0718 20:41:23.221307 16045 net.cpp:84] Creating Layer pool1
I0718 20:41:23.221329 16045 net.cpp:406] pool1 <- conv2_sc
I0718 20:41:23.221349 16045 net.cpp:380] pool1 -> pool1
I0718 20:41:23.221472 16045 net.cpp:122] Setting up pool1
I0718 20:41:23.221494 16045 net.cpp:129] Top shape: 100 64 16 16 (1638400)
I0718 20:41:23.221501 16045 net.cpp:137] Memory required for data: 217498000
I0718 20:41:23.221513 16045 layer_factory.hpp:77] Creating layer drop1
I0718 20:41:23.221542 16045 net.cpp:84] Creating Layer drop1
I0718 20:41:23.221555 16045 net.cpp:406] drop1 <- pool1
I0718 20:41:23.221591 16045 net.cpp:367] drop1 -> pool1 (in-place)
I0718 20:41:23.221648 16045 net.cpp:122] Setting up drop1
I0718 20:41:23.221664 16045 net.cpp:129] Top shape: 100 64 16 16 (1638400)
I0718 20:41:23.221671 16045 net.cpp:137] Memory required for data: 224051600
I0718 20:41:23.221681 16045 layer_factory.hpp:77] Creating layer conv3
I0718 20:41:23.221709 16045 net.cpp:84] Creating Layer conv3
I0718 20:41:23.221725 16045 net.cpp:406] conv3 <- pool1
I0718 20:41:23.221760 16045 net.cpp:380] conv3 -> conv3
I0718 20:41:23.234459 16045 net.cpp:122] Setting up conv3
I0718 20:41:23.234483 16045 net.cpp:129] Top shape: 100 128 16 16 (3276800)
I0718 20:41:23.234490 16045 net.cpp:137] Memory required for data: 237158800
I0718 20:41:23.234506 16045 layer_factory.hpp:77] Creating layer bn3_bn
I0718 20:41:23.234526 16045 net.cpp:84] Creating Layer bn3_bn
I0718 20:41:23.234546 16045 net.cpp:406] bn3_bn <- conv3
I0718 20:41:23.234576 16045 net.cpp:380] bn3_bn -> conv3_bn
I0718 20:41:23.234833 16045 net.cpp:122] Setting up bn3_bn
I0718 20:41:23.234845 16045 net.cpp:129] Top shape: 100 128 16 16 (3276800)
I0718 20:41:23.234850 16045 net.cpp:137] Memory required for data: 250266000
I0718 20:41:23.234871 16045 layer_factory.hpp:77] Creating layer bn3_scal
I0718 20:41:23.234889 16045 net.cpp:84] Creating Layer bn3_scal
I0718 20:41:23.234899 16045 net.cpp:406] bn3_scal <- conv3_bn
I0718 20:41:23.234917 16045 net.cpp:380] bn3_scal -> conv3_sc
I0718 20:41:23.234988 16045 layer_factory.hpp:77] Creating layer bn3_scal
I0718 20:41:23.235148 16045 net.cpp:122] Setting up bn3_scal
I0718 20:41:23.235162 16045 net.cpp:129] Top shape: 100 128 16 16 (3276800)
I0718 20:41:23.235167 16045 net.cpp:137] Memory required for data: 263373200
I0718 20:41:23.235193 16045 layer_factory.hpp:77] Creating layer relu3
I0718 20:41:23.235208 16045 net.cpp:84] Creating Layer relu3
I0718 20:41:23.235216 16045 net.cpp:406] relu3 <- conv3_sc
I0718 20:41:23.235232 16045 net.cpp:367] relu3 -> conv3_sc (in-place)
I0718 20:41:23.235779 16045 net.cpp:122] Setting up relu3
I0718 20:41:23.235792 16045 net.cpp:129] Top shape: 100 128 16 16 (3276800)
I0718 20:41:23.235798 16045 net.cpp:137] Memory required for data: 276480400
I0718 20:41:23.235805 16045 layer_factory.hpp:77] Creating layer conv4
I0718 20:41:23.235826 16045 net.cpp:84] Creating Layer conv4
I0718 20:41:23.235836 16045 net.cpp:406] conv4 <- conv3_sc
I0718 20:41:23.235858 16045 net.cpp:380] conv4 -> conv4
I0718 20:41:23.259152 16045 net.cpp:122] Setting up conv4
I0718 20:41:23.259176 16045 net.cpp:129] Top shape: 100 128 16 16 (3276800)
I0718 20:41:23.259181 16045 net.cpp:137] Memory required for data: 289587600
I0718 20:41:23.259210 16045 layer_factory.hpp:77] Creating layer bn4_bn
I0718 20:41:23.259248 16045 net.cpp:84] Creating Layer bn4_bn
I0718 20:41:23.259258 16045 net.cpp:406] bn4_bn <- conv4
I0718 20:41:23.259289 16045 net.cpp:380] bn4_bn -> conv4_bn
I0718 20:41:23.259553 16045 net.cpp:122] Setting up bn4_bn
I0718 20:41:23.259567 16045 net.cpp:129] Top shape: 100 128 16 16 (3276800)
I0718 20:41:23.259584 16045 net.cpp:137] Memory required for data: 302694800
I0718 20:41:23.259608 16045 layer_factory.hpp:77] Creating layer bn4_scal
I0718 20:41:23.259636 16045 net.cpp:84] Creating Layer bn4_scal
I0718 20:41:23.259645 16045 net.cpp:406] bn4_scal <- conv4_bn
I0718 20:41:23.259663 16045 net.cpp:380] bn4_scal -> conv4_sc
I0718 20:41:23.259745 16045 layer_factory.hpp:77] Creating layer bn4_scal
I0718 20:41:23.259937 16045 net.cpp:122] Setting up bn4_scal
I0718 20:41:23.259951 16045 net.cpp:129] Top shape: 100 128 16 16 (3276800)
I0718 20:41:23.259956 16045 net.cpp:137] Memory required for data: 315802000
I0718 20:41:23.259971 16045 layer_factory.hpp:77] Creating layer relu4
I0718 20:41:23.259986 16045 net.cpp:84] Creating Layer relu4
I0718 20:41:23.259996 16045 net.cpp:406] relu4 <- conv4_sc
I0718 20:41:23.260023 16045 net.cpp:367] relu4 -> conv4_sc (in-place)
I0718 20:41:23.260402 16045 net.cpp:122] Setting up relu4
I0718 20:41:23.260416 16045 net.cpp:129] Top shape: 100 128 16 16 (3276800)
I0718 20:41:23.260421 16045 net.cpp:137] Memory required for data: 328909200
I0718 20:41:23.260427 16045 layer_factory.hpp:77] Creating layer pool2
I0718 20:41:23.260447 16045 net.cpp:84] Creating Layer pool2
I0718 20:41:23.260455 16045 net.cpp:406] pool2 <- conv4_sc
I0718 20:41:23.260474 16045 net.cpp:380] pool2 -> pool2
I0718 20:41:23.260542 16045 net.cpp:122] Setting up pool2
I0718 20:41:23.260555 16045 net.cpp:129] Top shape: 100 128 8 8 (819200)
I0718 20:41:23.260560 16045 net.cpp:137] Memory required for data: 332186000
I0718 20:41:23.260566 16045 layer_factory.hpp:77] Creating layer drop2
I0718 20:41:23.260582 16045 net.cpp:84] Creating Layer drop2
I0718 20:41:23.260591 16045 net.cpp:406] drop2 <- pool2
I0718 20:41:23.260609 16045 net.cpp:367] drop2 -> pool2 (in-place)
I0718 20:41:23.260649 16045 net.cpp:122] Setting up drop2
I0718 20:41:23.260660 16045 net.cpp:129] Top shape: 100 128 8 8 (819200)
I0718 20:41:23.260665 16045 net.cpp:137] Memory required for data: 335462800
I0718 20:41:23.260671 16045 layer_factory.hpp:77] Creating layer conv5
I0718 20:41:23.260694 16045 net.cpp:84] Creating Layer conv5
I0718 20:41:23.260702 16045 net.cpp:406] conv5 <- pool2
I0718 20:41:23.260725 16045 net.cpp:380] conv5 -> conv5
I0718 20:41:23.301960 16045 net.cpp:122] Setting up conv5
I0718 20:41:23.301987 16045 net.cpp:129] Top shape: 100 256 8 8 (1638400)
I0718 20:41:23.301992 16045 net.cpp:137] Memory required for data: 342016400
I0718 20:41:23.302011 16045 layer_factory.hpp:77] Creating layer bn5_bn
I0718 20:41:23.302033 16045 net.cpp:84] Creating Layer bn5_bn
I0718 20:41:23.302045 16045 net.cpp:406] bn5_bn <- conv5
I0718 20:41:23.302067 16045 net.cpp:380] bn5_bn -> conv5_bn
I0718 20:41:23.302299 16045 net.cpp:122] Setting up bn5_bn
I0718 20:41:23.302323 16045 net.cpp:129] Top shape: 100 256 8 8 (1638400)
I0718 20:41:23.302328 16045 net.cpp:137] Memory required for data: 348570000
I0718 20:41:23.302348 16045 layer_factory.hpp:77] Creating layer bn5_scal
I0718 20:41:23.302366 16045 net.cpp:84] Creating Layer bn5_scal
I0718 20:41:23.302373 16045 net.cpp:406] bn5_scal <- conv5_bn
I0718 20:41:23.302389 16045 net.cpp:380] bn5_scal -> conv5_sc
I0718 20:41:23.302459 16045 layer_factory.hpp:77] Creating layer bn5_scal
I0718 20:41:23.302615 16045 net.cpp:122] Setting up bn5_scal
I0718 20:41:23.302628 16045 net.cpp:129] Top shape: 100 256 8 8 (1638400)
I0718 20:41:23.302634 16045 net.cpp:137] Memory required for data: 355123600
I0718 20:41:23.302647 16045 layer_factory.hpp:77] Creating layer relu5
I0718 20:41:23.302661 16045 net.cpp:84] Creating Layer relu5
I0718 20:41:23.302670 16045 net.cpp:406] relu5 <- conv5_sc
I0718 20:41:23.302685 16045 net.cpp:367] relu5 -> conv5_sc (in-place)
I0718 20:41:23.303259 16045 net.cpp:122] Setting up relu5
I0718 20:41:23.303273 16045 net.cpp:129] Top shape: 100 256 8 8 (1638400)
I0718 20:41:23.303277 16045 net.cpp:137] Memory required for data: 361677200
I0718 20:41:23.303284 16045 layer_factory.hpp:77] Creating layer conv6
I0718 20:41:23.303310 16045 net.cpp:84] Creating Layer conv6
I0718 20:41:23.303333 16045 net.cpp:406] conv6 <- conv5_sc
I0718 20:41:23.303356 16045 net.cpp:380] conv6 -> conv6
I0718 20:41:23.375746 16045 net.cpp:122] Setting up conv6
I0718 20:41:23.375774 16045 net.cpp:129] Top shape: 100 256 8 8 (1638400)
I0718 20:41:23.375778 16045 net.cpp:137] Memory required for data: 368230800
I0718 20:41:23.375797 16045 layer_factory.hpp:77] Creating layer bn6_bn
I0718 20:41:23.375835 16045 net.cpp:84] Creating Layer bn6_bn
I0718 20:41:23.375866 16045 net.cpp:406] bn6_bn <- conv6
I0718 20:41:23.375910 16045 net.cpp:380] bn6_bn -> conv6_bn
I0718 20:41:23.376159 16045 net.cpp:122] Setting up bn6_bn
I0718 20:41:23.376169 16045 net.cpp:129] Top shape: 100 256 8 8 (1638400)
I0718 20:41:23.376173 16045 net.cpp:137] Memory required for data: 374784400
I0718 20:41:23.376219 16045 layer_factory.hpp:77] Creating layer bn6_scal
I0718 20:41:23.376255 16045 net.cpp:84] Creating Layer bn6_scal
I0718 20:41:23.376263 16045 net.cpp:406] bn6_scal <- conv6_bn
I0718 20:41:23.376286 16045 net.cpp:380] bn6_scal -> conv6_sc
I0718 20:41:23.376402 16045 layer_factory.hpp:77] Creating layer bn6_scal
I0718 20:41:23.376569 16045 net.cpp:122] Setting up bn6_scal
I0718 20:41:23.376581 16045 net.cpp:129] Top shape: 100 256 8 8 (1638400)
I0718 20:41:23.376600 16045 net.cpp:137] Memory required for data: 381338000
I0718 20:41:23.376618 16045 layer_factory.hpp:77] Creating layer relu6
I0718 20:41:23.376634 16045 net.cpp:84] Creating Layer relu6
I0718 20:41:23.376643 16045 net.cpp:406] relu6 <- conv6_sc
I0718 20:41:23.376657 16045 net.cpp:367] relu6 -> conv6_sc (in-place)
I0718 20:41:23.377189 16045 net.cpp:122] Setting up relu6
I0718 20:41:23.377209 16045 net.cpp:129] Top shape: 100 256 8 8 (1638400)
I0718 20:41:23.377213 16045 net.cpp:137] Memory required for data: 387891600
I0718 20:41:23.377219 16045 layer_factory.hpp:77] Creating layer pool3
I0718 20:41:23.377240 16045 net.cpp:84] Creating Layer pool3
I0718 20:41:23.377249 16045 net.cpp:406] pool3 <- conv6_sc
I0718 20:41:23.377265 16045 net.cpp:380] pool3 -> pool3
I0718 20:41:23.377338 16045 net.cpp:122] Setting up pool3
I0718 20:41:23.377357 16045 net.cpp:129] Top shape: 100 256 4 4 (409600)
I0718 20:41:23.377362 16045 net.cpp:137] Memory required for data: 389530000
I0718 20:41:23.377379 16045 layer_factory.hpp:77] Creating layer drop3
I0718 20:41:23.377398 16045 net.cpp:84] Creating Layer drop3
I0718 20:41:23.377406 16045 net.cpp:406] drop3 <- pool3
I0718 20:41:23.377424 16045 net.cpp:367] drop3 -> pool3 (in-place)
I0718 20:41:23.377465 16045 net.cpp:122] Setting up drop3
I0718 20:41:23.377475 16045 net.cpp:129] Top shape: 100 256 4 4 (409600)
I0718 20:41:23.377481 16045 net.cpp:137] Memory required for data: 391168400
I0718 20:41:23.377492 16045 layer_factory.hpp:77] Creating layer fc7
I0718 20:41:23.377523 16045 net.cpp:84] Creating Layer fc7
I0718 20:41:23.377533 16045 net.cpp:406] fc7 <- pool3
I0718 20:41:23.377557 16045 net.cpp:380] fc7 -> fc7
I0718 20:41:23.621337 16045 net.cpp:122] Setting up fc7
I0718 20:41:23.621385 16045 net.cpp:129] Top shape: 100 512 (51200)
I0718 20:41:23.621389 16045 net.cpp:137] Memory required for data: 391373200
I0718 20:41:23.621428 16045 layer_factory.hpp:77] Creating layer bn7_bn
I0718 20:41:23.621474 16045 net.cpp:84] Creating Layer bn7_bn
I0718 20:41:23.621507 16045 net.cpp:406] bn7_bn <- fc7
I0718 20:41:23.621539 16045 net.cpp:380] bn7_bn -> fc7_bn
I0718 20:41:23.621801 16045 net.cpp:122] Setting up bn7_bn
I0718 20:41:23.621820 16045 net.cpp:129] Top shape: 100 512 (51200)
I0718 20:41:23.621824 16045 net.cpp:137] Memory required for data: 391578000
I0718 20:41:23.621848 16045 layer_factory.hpp:77] Creating layer bn7_scal
I0718 20:41:23.621868 16045 net.cpp:84] Creating Layer bn7_scal
I0718 20:41:23.621877 16045 net.cpp:406] bn7_scal <- fc7_bn
I0718 20:41:23.621901 16045 net.cpp:380] bn7_scal -> fc7_sc
I0718 20:41:23.621992 16045 layer_factory.hpp:77] Creating layer bn7_scal
I0718 20:41:23.622143 16045 net.cpp:122] Setting up bn7_scal
I0718 20:41:23.622155 16045 net.cpp:129] Top shape: 100 512 (51200)
I0718 20:41:23.622176 16045 net.cpp:137] Memory required for data: 391782800
I0718 20:41:23.622196 16045 layer_factory.hpp:77] Creating layer relu7
I0718 20:41:23.622213 16045 net.cpp:84] Creating Layer relu7
I0718 20:41:23.622223 16045 net.cpp:406] relu7 <- fc7_sc
I0718 20:41:23.622241 16045 net.cpp:367] relu7 -> fc7_sc (in-place)
I0718 20:41:23.622620 16045 net.cpp:122] Setting up relu7
I0718 20:41:23.622632 16045 net.cpp:129] Top shape: 100 512 (51200)
I0718 20:41:23.622638 16045 net.cpp:137] Memory required for data: 391987600
I0718 20:41:23.622648 16045 layer_factory.hpp:77] Creating layer drop7
I0718 20:41:23.622668 16045 net.cpp:84] Creating Layer drop7
I0718 20:41:23.622678 16045 net.cpp:406] drop7 <- fc7_sc
I0718 20:41:23.622699 16045 net.cpp:367] drop7 -> fc7_sc (in-place)
I0718 20:41:23.622740 16045 net.cpp:122] Setting up drop7
I0718 20:41:23.622748 16045 net.cpp:129] Top shape: 100 512 (51200)
I0718 20:41:23.622756 16045 net.cpp:137] Memory required for data: 392192400
I0718 20:41:23.622766 16045 layer_factory.hpp:77] Creating layer fc8
I0718 20:41:23.622792 16045 net.cpp:84] Creating Layer fc8
I0718 20:41:23.622802 16045 net.cpp:406] fc8 <- fc7_sc
I0718 20:41:23.622824 16045 net.cpp:380] fc8 -> fc8
I0718 20:41:23.654441 16045 net.cpp:122] Setting up fc8
I0718 20:41:23.654462 16045 net.cpp:129] Top shape: 100 512 (51200)
I0718 20:41:23.654466 16045 net.cpp:137] Memory required for data: 392397200
I0718 20:41:23.654481 16045 layer_factory.hpp:77] Creating layer bn8_bn
I0718 20:41:23.654505 16045 net.cpp:84] Creating Layer bn8_bn
I0718 20:41:23.654517 16045 net.cpp:406] bn8_bn <- fc8
I0718 20:41:23.654541 16045 net.cpp:380] bn8_bn -> fc8_bn
I0718 20:41:23.654757 16045 net.cpp:122] Setting up bn8_bn
I0718 20:41:23.654767 16045 net.cpp:129] Top shape: 100 512 (51200)
I0718 20:41:23.654770 16045 net.cpp:137] Memory required for data: 392602000
I0718 20:41:23.654788 16045 layer_factory.hpp:77] Creating layer bn8_scal
I0718 20:41:23.654808 16045 net.cpp:84] Creating Layer bn8_scal
I0718 20:41:23.654816 16045 net.cpp:406] bn8_scal <- fc8_bn
I0718 20:41:23.654831 16045 net.cpp:380] bn8_scal -> fc8_sc
I0718 20:41:23.654899 16045 layer_factory.hpp:77] Creating layer bn8_scal
I0718 20:41:23.655048 16045 net.cpp:122] Setting up bn8_scal
I0718 20:41:23.655061 16045 net.cpp:129] Top shape: 100 512 (51200)
I0718 20:41:23.655068 16045 net.cpp:137] Memory required for data: 392806800
I0718 20:41:23.655088 16045 layer_factory.hpp:77] Creating layer relu8
I0718 20:41:23.655104 16045 net.cpp:84] Creating Layer relu8
I0718 20:41:23.655114 16045 net.cpp:406] relu8 <- fc8_sc
I0718 20:41:23.655133 16045 net.cpp:367] relu8 -> fc8_sc (in-place)
I0718 20:41:23.655642 16045 net.cpp:122] Setting up relu8
I0718 20:41:23.655653 16045 net.cpp:129] Top shape: 100 512 (51200)
I0718 20:41:23.655661 16045 net.cpp:137] Memory required for data: 393011600
I0718 20:41:23.655671 16045 layer_factory.hpp:77] Creating layer drop8
I0718 20:41:23.655689 16045 net.cpp:84] Creating Layer drop8
I0718 20:41:23.655699 16045 net.cpp:406] drop8 <- fc8_sc
I0718 20:41:23.655720 16045 net.cpp:367] drop8 -> fc8_sc (in-place)
I0718 20:41:23.655761 16045 net.cpp:122] Setting up drop8
I0718 20:41:23.655771 16045 net.cpp:129] Top shape: 100 512 (51200)
I0718 20:41:23.655776 16045 net.cpp:137] Memory required for data: 393216400
I0718 20:41:23.655797 16045 layer_factory.hpp:77] Creating layer fc9
I0718 20:41:23.655818 16045 net.cpp:84] Creating Layer fc9
I0718 20:41:23.655827 16045 net.cpp:406] fc9 <- fc8_sc
I0718 20:41:23.655849 16045 net.cpp:380] fc9 -> fc9
I0718 20:41:23.657052 16045 net.cpp:122] Setting up fc9
I0718 20:41:23.657073 16045 net.cpp:129] Top shape: 100 10 (1000)
I0718 20:41:23.657076 16045 net.cpp:137] Memory required for data: 393220400
I0718 20:41:23.657094 16045 layer_factory.hpp:77] Creating layer loss
I0718 20:41:23.657116 16045 net.cpp:84] Creating Layer loss
I0718 20:41:23.657124 16045 net.cpp:406] loss <- fc9
I0718 20:41:23.657142 16045 net.cpp:406] loss <- label
I0718 20:41:23.657162 16045 net.cpp:380] loss -> loss
I0718 20:41:23.657213 16045 layer_factory.hpp:77] Creating layer loss
…
I0718 20:41:23.658704 16045 net.cpp:294] The NetState phase (1) differed from the phase (0) specified by a rule in layer cifar
I0718 20:41:23.658928 16045 net.cpp:51] Initializing net from parameters: 
name: "CIFAR10_vgg"
state {
  phase: TEST
}
layer {
  name: "cifar"
  type: "Data"
  top: "data"
  top: "label"
  include {
    phase: TEST
  }
  transform_param {
    mirror: false
    crop_size: 32
    mean_file: "examples/cifar10/mean.binaryproto"
  }
  data_param {
    source: "examples/cifar10/cifar10_test_lmdb"
    batch_size: 100
    backend: LMDB
  }
}
layer {
  name: "conv1"
  type: "BinaryConvolution"
  bottom: "data"
  top: "conv1"
  param {
    lr_mult: 1
    decay_mult: 1
  }
  convolution_param {
    num_output: 64
    bias_term: false
    pad: 1
    kernel_size: 3
    stride: 1
    weight_filler {
      type: "gaussian"
      std: 0.01
    }
  }
  debug_param {
    xnorno_grad: false
  }
}
layer {
  name: "bn1_bn"
  type: "BatchNorm"
  bottom: "conv1"
  top: "conv1_bn"
}
layer {
  name: "bn1_scal"
  type: "Scale"
  bottom: "conv1_bn"
  top: "conv1_sc"
  scale_param {
    bias_term: true
  }
}
layer {
  name: "relu1"
  type: "ReLU"
  bottom: "conv1_sc"
  top: "conv1_sc"
}
layer {
  name: "conv2"
  type: "BinaryConvolution"
  bottom: "conv1_sc"
  top: "conv2"
  param {
    lr_mult: 1
    decay_mult: 1
  }
  convolution_param {
    num_output: 64
    bias_term: false
    pad: 1
    kernel_size: 3
    stride: 1
    weight_filler {
      type: "gaussian"
      std: 0.01
    }
  }
  debug_param {
    xnorno_grad: false
  }
}
layer {
  name: "bn2_bn"
  type: "BatchNorm"
  bottom: "conv2"
  top: "conv2_bn"
}
layer {
  name: "bn2_scal"
  type: "Scale"
  bottom: "conv2_bn"
  top: "conv2_sc"
  scale_param {
    bias_term: true
  }
}
layer {
  name: "relu2"
  type: "ReLU"
  bottom: "conv2_sc"
  top: "conv2_sc"
}
layer {
  name: "pool1"
  type: "Pooling"
  bottom: "conv2_sc"
  top: "pool1"
  pooling_param {
    pool: MAX
    kernel_size: 2
    stride: 2
  }
}
layer {
  name: "drop1"
  type: "Dropout"
  bottom: "pool1"
  top: "pool1"
  dropout_param {
    dropout_ratio: 0.25
  }
}
layer {
  name: "conv3"
  type: "BinaryConvolution"
  bottom: "pool1"
  top: "conv3"
  param {
    lr_mult: 1
    decay_mult: 1
  }
  convolution_param {
    num_output: 128
    bias_term: false
    pad: 1
    kernel_size: 3
    stride: 1
    weight_filler {
      type: "gaussian"
      std: 0.01
    }
  }
  debug_param {
    xnorno_grad: false
  }
}
layer {
  name: "bn3_bn"
  type: "BatchNorm"
  bottom: "conv3"
  top: "conv3_bn"
}
layer {
  name: "bn3_scal"
  type: "Scale"
  bottom: "conv3_bn"
  top: "conv3_sc"
  scale_param {
    bias_term: true
  }
}
layer {
  name: "relu3"
  type: "ReLU"
  bottom: "conv3_sc"
  top: "conv3_sc"
}
layer {
  name: "conv4"
  type: "BinaryConvolution"
  bottom: "conv3_sc"
  top: "conv4"
  param {
    lr_mult: 1
    decay_mult: 1
  }
  convolution_param {
    num_output: 128
    bias_term: false
    pad: 1
    kernel_size: 3
    stride: 1
    weight_filler {
      type: "gaussian"
      std: 0.01
    }
  }
  debug_param {
    xnorno_grad: false
  }
}
layer {
  name: "bn4_bn"
  type: "BatchNorm"
  bottom: "conv4"
  top: "conv4_bn"
}
layer {
  name: "bn4_scal"
  type: "Scale"
  bottom: "conv4_bn"
  top: "conv4_sc"
  scale_param {
    bias_term: true
  }
}
layer {
  name: "relu4"
  type: "ReLU"
  bottom: "conv4_sc"
  top: "conv4_sc"
}
layer {
  name: "pool2"
  type: "Pooling"
  bottom: "conv4_sc"
  top: "pool2"
  pooling_param {
    pool: MAX
    kernel_size: 2
    stride: 2
  }
}
layer {
  name: "drop2"
  type: "Dropout"
  bottom: "pool2"
  top: "pool2"
  dropout_param {
    dropout_ratio: 0.25
  }
}
layer {
  name: "conv5"
  type: "BinaryConvolution"
  bottom: "pool2"
  top: "conv5"
  param {
    lr_mult: 1
    decay_mult: 1
  }
  convolution_param {
    num_output: 256
    bias_term: false
    pad: 1
    kernel_size: 3
    stride: 1
    weight_filler {
      type: "gaussian"
      std: 0.01
    }
  }
  debug_param {
    xnorno_grad: false
  }
}
layer {
  name: "bn5_bn"
  type: "BatchNorm"
  bottom: "conv5"
  top: "conv5_bn"
}
layer {
  name: "bn5_scal"
  type: "Scale"
  bottom: "conv5_bn"
  top: "conv5_sc"
  scale_param {
    bias_term: true
  }
}
layer {
  name: "relu5"
  type: "ReLU"
  bottom: "conv5_sc"
  top: "conv5_sc"
}
layer {
  name: "conv6"
  type: "BinaryConvolution"
  bottom: "conv5_sc"
  top: "conv6"
  param {
    lr_mult: 1
    decay_mult: 1
  }
  convolution_param {
    num_output: 256
    bias_term: false
    pad: 1
    kernel_size: 3
    stride: 1
    weight_filler {
      type: "gaussian"
      std: 0.01
    }
  }
  debug_param {
    xnorno_grad: false
  }
}
layer {
  name: "bn6_bn"
  type: "BatchNorm"
  bottom: "conv6"
  top: "conv6_bn"
}
layer {
  name: "bn6_scal"
  type: "Scale"
  bottom: "conv6_bn"
  top: "conv6_sc"
  scale_param {
    bias_term: true
  }
}
layer {
  name: "relu6"
  type: "ReLU"
  bottom: "conv6_sc"
  top: "conv6_sc"
}
layer {
  name: "pool3"
  type: "Pooling"
  bottom: "conv6_sc"
  top: "pool3"
  pooling_param {
    pool: MAX
    kernel_size: 2
    stride: 2
  }
}
layer {
  name: "drop3"
  type: "Dropout"
  bottom: "pool3"
  top: "pool3"
  dropout_param {
    dropout_ratio: 0.25
  }
}
layer {
  name: "fc7"
  type: "BinaryInnerProduct"
  bottom: "pool3"
  top: "fc7"
  param {
    lr_mult: 1
    decay_mult: 1
  }
  inner_product_param {
    num_output: 512
    bias_term: false
    weight_filler {
      type: "gaussian"
      std: 0.01
    }
  }
  debug_param {
    xnorno_grad: false
  }
}
layer {
  name: "bn7_bn"
  type: "BatchNorm"
  bottom: "fc7"
  top: "fc7_bn"
}
layer {
  name: "bn7_scal"
  type: "Scale"
  bottom: "fc7_bn"
  top: "fc7_sc"
  scale_param {
    bias_term: true
  }
}
layer {
  name: "relu7"
  type: "ReLU"
  bottom: "fc7_sc"
  top: "fc7_sc"
}
layer {
  name: "drop7"
  type: "Dropout"
  bottom: "fc7_sc"
  top: "fc7_sc"
  dropout_param {
    dropout_ratio: 0.5
  }
}
layer {
  name: "fc8"
  type: "BinaryInnerProduct"
  bottom: "fc7_sc"
  top: "fc8"
  param {
    lr_mult: 1
    decay_mult: 1
  }
  inner_product_param {
    num_output: 512
    bias_term: false
    weight_filler {
      type: "gaussian"
      std: 0.01
    }
  }
  debug_param {
    xnorno_grad: false
  }
}
layer {
  name: "bn8_bn"
  type: "BatchNorm"
  bottom: "fc8"
  top: "fc8_bn"
}
layer {
  name: "bn8_scal"
  type: "Scale"
  bottom: "fc8_bn"
  top: "fc8_sc"
  scale_param {
    bias_term: true
  }
}
layer {
  name: "relu8"
  type: "ReLU"
  bottom: "fc8_sc"
  top: "fc8_sc"
}
layer {
  name: "drop8"
  type: "Dropout"
  bottom: "fc8_sc"
  top: "fc8_sc"
  dropout_param {
    dropout_ratio: 0.5
  }
}
layer {
  name: "fc9"
  type: "BinaryInnerProduct"
  bottom: "fc8_sc"
  top: "fc9"
  param {
    lr_mult: 1
    decay_mult: 1
  }
  param {
    lr_mult: 2
    decay_mult: 0
  }
  inner_product_param {
    num_output: 10
    weight_filler {
      type: "gaussian"
      std: 0.01
    }
    bias_filler {
      type: "constant"
      value: 0.01
    }
  }
  debug_param {
    xnorno_grad: false
  }
}
layer {
  name: "accuracy"
  type: "Accuracy"
  bottom: "fc9"
  bottom: "label"
  top: "accuracy"
  include {
    phase: TEST
  }
}
layer {
  name: "loss"
  type: "SoftmaxWithLoss"
  bottom: "fc9"
  bottom: "label"
  top: "loss"
}
I0718 20:41:23.659447 16045 layer_factory.hpp:77] Creating layer cifar
I0718 20:41:23.676085 16045 db_lmdb.cpp:35] Opened lmdb examples/cifar10/cifar10_test_lmdb
I0718 20:41:23.683233 16045 net.cpp:84] Creating Layer cifar
I0718 20:41:23.683264 16045 net.cpp:380] cifar -> data
I0718 20:41:23.683301 16045 net.cpp:380] cifar -> label
I0718 20:41:23.683326 16045 data_transformer.cpp:25] Loading mean file from: examples/cifar10/mean.binaryproto
I0718 20:41:23.683652 16045 data_layer.cpp:45] output data size: 100,3,32,32
I0718 20:41:23.687167 16045 base_data_layer.cpp:72] Initializing prefetch
I0718 20:41:23.687248 16045 base_data_layer.cpp:75] Prefetch initialized.
I0718 20:41:23.687259 16045 net.cpp:122] Setting up cifar
I0718 20:41:23.687278 16045 net.cpp:129] Top shape: 100 3 32 32 (307200)
I0718 20:41:23.687286 16045 net.cpp:129] Top shape: 100 (100)
I0718 20:41:23.687290 16045 net.cpp:137] Memory required for data: 1229200
I0718 20:41:23.687312 16045 layer_factory.hpp:77] Creating layer label_cifar_1_split
I0718 20:41:23.687364 16045 net.cpp:84] Creating Layer label_cifar_1_split
I0718 20:41:23.687378 16045 net.cpp:406] label_cifar_1_split <- label
I0718 20:41:23.687428 16045 net.cpp:380] label_cifar_1_split -> label_cifar_1_split_0
I0718 20:41:23.687476 16045 net.cpp:380] label_cifar_1_split -> label_cifar_1_split_1
I0718 20:41:23.687577 16045 net.cpp:122] Setting up label_cifar_1_split
I0718 20:41:23.687587 16045 net.cpp:129] Top shape: 100 (100)
I0718 20:41:23.687594 16045 net.cpp:129] Top shape: 100 (100)
I0718 20:41:23.687598 16045 net.cpp:137] Memory required for data: 1230000
I0718 20:41:23.687603 16045 layer_factory.hpp:77] Creating layer conv1
I0718 20:41:23.687662 16045 net.cpp:84] Creating Layer conv1
I0718 20:41:23.687670 16045 net.cpp:406] conv1 <- data
I0718 20:41:23.687690 16045 net.cpp:380] conv1 -> conv1
I0718 20:41:23.688534 16045 net.cpp:122] Setting up conv1
I0718 20:41:23.688549 16045 net.cpp:129] Top shape: 100 64 32 32 (6553600)
I0718 20:41:23.688562 16045 net.cpp:137] Memory required for data: 27444400
I0718 20:41:23.688585 16045 layer_factory.hpp:77] Creating layer bn1_bn
I0718 20:41:23.688601 16045 net.cpp:84] Creating Layer bn1_bn
I0718 20:41:23.688608 16045 net.cpp:406] bn1_bn <- conv1
I0718 20:41:23.688623 16045 net.cpp:380] bn1_bn -> conv1_bn
I0718 20:41:23.688882 16045 net.cpp:122] Setting up bn1_bn
I0718 20:41:23.688894 16045 net.cpp:129] Top shape: 100 64 32 32 (6553600)
I0718 20:41:23.688897 16045 net.cpp:137] Memory required for data: 53658800
I0718 20:41:23.688925 16045 layer_factory.hpp:77] Creating layer bn1_scal
I0718 20:41:23.688946 16045 net.cpp:84] Creating Layer bn1_scal
I0718 20:41:23.688956 16045 net.cpp:406] bn1_scal <- conv1_bn
I0718 20:41:23.688969 16045 net.cpp:380] bn1_scal -> conv1_sc
I0718 20:41:23.689033 16045 layer_factory.hpp:77] Creating layer bn1_scal
I0718 20:41:23.689187 16045 net.cpp:122] Setting up bn1_scal
I0718 20:41:23.689198 16045 net.cpp:129] Top shape: 100 64 32 32 (6553600)
I0718 20:41:23.689203 16045 net.cpp:137] Memory required for data: 79873200
I0718 20:41:23.689221 16045 layer_factory.hpp:77] Creating layer relu1
I0718 20:41:23.689235 16045 net.cpp:84] Creating Layer relu1
I0718 20:41:23.689244 16045 net.cpp:406] relu1 <- conv1_sc
I0718 20:41:23.689257 16045 net.cpp:367] relu1 -> conv1_sc (in-place)
I0718 20:41:23.689714 16045 net.cpp:122] Setting up relu1
I0718 20:41:23.689726 16045 net.cpp:129] Top shape: 100 64 32 32 (6553600)
I0718 20:41:23.689730 16045 net.cpp:137] Memory required for data: 106087600
I0718 20:41:23.689738 16045 layer_factory.hpp:77] Creating layer conv2
I0718 20:41:23.689756 16045 net.cpp:84] Creating Layer conv2
I0718 20:41:23.689765 16045 net.cpp:406] conv2 <- conv1_sc
I0718 20:41:23.689785 16045 net.cpp:380] conv2 -> conv2
I0718 20:41:23.694651 16045 net.cpp:122] Setting up conv2
I0718 20:41:23.694664 16045 net.cpp:129] Top shape: 100 64 32 32 (6553600)
I0718 20:41:23.694677 16045 net.cpp:137] Memory required for data: 132302000
I0718 20:41:23.694689 16045 layer_factory.hpp:77] Creating layer bn2_bn
I0718 20:41:23.694703 16045 net.cpp:84] Creating Layer bn2_bn
I0718 20:41:23.694711 16045 net.cpp:406] bn2_bn <- conv2
I0718 20:41:23.694726 16045 net.cpp:380] bn2_bn -> conv2_bn
I0718 20:41:23.694957 16045 net.cpp:122] Setting up bn2_bn
I0718 20:41:23.694968 16045 net.cpp:129] Top shape: 100 64 32 32 (6553600)
I0718 20:41:23.694983 16045 net.cpp:137] Memory required for data: 158516400
I0718 20:41:23.695034 16045 layer_factory.hpp:77] Creating layer bn2_scal
I0718 20:41:23.695060 16045 net.cpp:84] Creating Layer bn2_scal
I0718 20:41:23.695075 16045 net.cpp:406] bn2_scal <- conv2_bn
I0718 20:41:23.695106 16045 net.cpp:380] bn2_scal -> conv2_sc
I0718 20:41:23.695225 16045 layer_factory.hpp:77] Creating layer bn2_scal
I0718 20:41:23.695400 16045 net.cpp:122] Setting up bn2_scal
I0718 20:41:23.695415 16045 net.cpp:129] Top shape: 100 64 32 32 (6553600)
I0718 20:41:23.695425 16045 net.cpp:137] Memory required for data: 184730800
I0718 20:41:23.695444 16045 layer_factory.hpp:77] Creating layer relu2
I0718 20:41:23.695464 16045 net.cpp:84] Creating Layer relu2
I0718 20:41:23.695482 16045 net.cpp:406] relu2 <- conv2_sc
I0718 20:41:23.695509 16045 net.cpp:367] relu2 -> conv2_sc (in-place)
I0718 20:41:23.696034 16045 net.cpp:122] Setting up relu2
I0718 20:41:23.696048 16045 net.cpp:129] Top shape: 100 64 32 32 (6553600)
I0718 20:41:23.696051 16045 net.cpp:137] Memory required for data: 210945200
I0718 20:41:23.696058 16045 layer_factory.hpp:77] Creating layer pool1
I0718 20:41:23.696079 16045 net.cpp:84] Creating Layer pool1
I0718 20:41:23.696089 16045 net.cpp:406] pool1 <- conv2_sc
I0718 20:41:23.696108 16045 net.cpp:380] pool1 -> pool1
I0718 20:41:23.696193 16045 net.cpp:122] Setting up pool1
I0718 20:41:23.696207 16045 net.cpp:129] Top shape: 100 64 16 16 (1638400)
I0718 20:41:23.696211 16045 net.cpp:137] Memory required for data: 217498800
I0718 20:41:23.696218 16045 layer_factory.hpp:77] Creating layer drop1
I0718 20:41:23.696234 16045 net.cpp:84] Creating Layer drop1
I0718 20:41:23.696249 16045 net.cpp:406] drop1 <- pool1
I0718 20:41:23.696281 16045 net.cpp:367] drop1 -> pool1 (in-place)
I0718 20:41:23.696333 16045 net.cpp:122] Setting up drop1
I0718 20:41:23.696354 16045 net.cpp:129] Top shape: 100 64 16 16 (1638400)
I0718 20:41:23.696360 16045 net.cpp:137] Memory required for data: 224052400
I0718 20:41:23.696375 16045 layer_factory.hpp:77] Creating layer conv3
I0718 20:41:23.696405 16045 net.cpp:84] Creating Layer conv3
I0718 20:41:23.696434 16045 net.cpp:406] conv3 <- pool1
I0718 20:41:23.696461 16045 net.cpp:380] conv3 -> conv3
I0718 20:41:23.707036 16045 net.cpp:122] Setting up conv3
I0718 20:41:23.707056 16045 net.cpp:129] Top shape: 100 128 16 16 (3276800)
I0718 20:41:23.707062 16045 net.cpp:137] Memory required for data: 237159600
I0718 20:41:23.707084 16045 layer_factory.hpp:77] Creating layer bn3_bn
I0718 20:41:23.707114 16045 net.cpp:84] Creating Layer bn3_bn
I0718 20:41:23.707125 16045 net.cpp:406] bn3_bn <- conv3
I0718 20:41:23.707149 16045 net.cpp:380] bn3_bn -> conv3_bn
I0718 20:41:23.707367 16045 net.cpp:122] Setting up bn3_bn
I0718 20:41:23.707378 16045 net.cpp:129] Top shape: 100 128 16 16 (3276800)
I0718 20:41:23.707386 16045 net.cpp:137] Memory required for data: 250266800
I0718 20:41:23.707419 16045 layer_factory.hpp:77] Creating layer bn3_scal
I0718 20:41:23.707454 16045 net.cpp:84] Creating Layer bn3_scal
I0718 20:41:23.707463 16045 net.cpp:406] bn3_scal <- conv3_bn
I0718 20:41:23.707494 16045 net.cpp:380] bn3_scal -> conv3_sc
I0718 20:41:23.707559 16045 layer_factory.hpp:77] Creating layer bn3_scal
I0718 20:41:23.707706 16045 net.cpp:122] Setting up bn3_scal
I0718 20:41:23.707717 16045 net.cpp:129] Top shape: 100 128 16 16 (3276800)
I0718 20:41:23.707726 16045 net.cpp:137] Memory required for data: 263374000
I0718 20:41:23.707752 16045 layer_factory.hpp:77] Creating layer relu3
I0718 20:41:23.707787 16045 net.cpp:84] Creating Layer relu3
I0718 20:41:23.707796 16045 net.cpp:406] relu3 <- conv3_sc
I0718 20:41:23.707816 16045 net.cpp:367] relu3 -> conv3_sc (in-place)
I0718 20:41:23.708217 16045 net.cpp:122] Setting up relu3
I0718 20:41:23.708228 16045 net.cpp:129] Top shape: 100 128 16 16 (3276800)
I0718 20:41:23.708235 16045 net.cpp:137] Memory required for data: 276481200
I0718 20:41:23.708246 16045 layer_factory.hpp:77] Creating layer conv4
I0718 20:41:23.708288 16045 net.cpp:84] Creating Layer conv4
I0718 20:41:23.708299 16045 net.cpp:406] conv4 <- conv3_sc
I0718 20:41:23.708328 16045 net.cpp:380] conv4 -> conv4
I0718 20:41:23.727573 16045 net.cpp:122] Setting up conv4
I0718 20:41:23.727596 16045 net.cpp:129] Top shape: 100 128 16 16 (3276800)
I0718 20:41:23.727602 16045 net.cpp:137] Memory required for data: 289588400
I0718 20:41:23.727623 16045 layer_factory.hpp:77] Creating layer bn4_bn
I0718 20:41:23.727645 16045 net.cpp:84] Creating Layer bn4_bn
I0718 20:41:23.727658 16045 net.cpp:406] bn4_bn <- conv4
I0718 20:41:23.727681 16045 net.cpp:380] bn4_bn -> conv4_bn
I0718 20:41:23.727908 16045 net.cpp:122] Setting up bn4_bn
I0718 20:41:23.727922 16045 net.cpp:129] Top shape: 100 128 16 16 (3276800)
I0718 20:41:23.727929 16045 net.cpp:137] Memory required for data: 302695600
I0718 20:41:23.727953 16045 layer_factory.hpp:77] Creating layer bn4_scal
I0718 20:41:23.727973 16045 net.cpp:84] Creating Layer bn4_scal
I0718 20:41:23.727998 16045 net.cpp:406] bn4_scal <- conv4_bn
I0718 20:41:23.728021 16045 net.cpp:380] bn4_scal -> conv4_sc
I0718 20:41:23.728097 16045 layer_factory.hpp:77] Creating layer bn4_scal
I0718 20:41:23.728250 16045 net.cpp:122] Setting up bn4_scal
I0718 20:41:23.728266 16045 net.cpp:129] Top shape: 100 128 16 16 (3276800)
I0718 20:41:23.728272 16045 net.cpp:137] Memory required for data: 315802800
I0718 20:41:23.728291 16045 layer_factory.hpp:77] Creating layer relu4
I0718 20:41:23.728307 16045 net.cpp:84] Creating Layer relu4
I0718 20:41:23.728317 16045 net.cpp:406] relu4 <- conv4_sc
I0718 20:41:23.728337 16045 net.cpp:367] relu4 -> conv4_sc (in-place)
I0718 20:41:23.728876 16045 net.cpp:122] Setting up relu4
I0718 20:41:23.728889 16045 net.cpp:129] Top shape: 100 128 16 16 (3276800)
I0718 20:41:23.728898 16045 net.cpp:137] Memory required for data: 328910000
I0718 20:41:23.728909 16045 layer_factory.hpp:77] Creating layer pool2
I0718 20:41:23.728929 16045 net.cpp:84] Creating Layer pool2
I0718 20:41:23.728940 16045 net.cpp:406] pool2 <- conv4_sc
I0718 20:41:23.728962 16045 net.cpp:380] pool2 -> pool2
I0718 20:41:23.729029 16045 net.cpp:122] Setting up pool2
I0718 20:41:23.729043 16045 net.cpp:129] Top shape: 100 128 8 8 (819200)
I0718 20:41:23.729050 16045 net.cpp:137] Memory required for data: 332186800
I0718 20:41:23.729060 16045 layer_factory.hpp:77] Creating layer drop2
I0718 20:41:23.729079 16045 net.cpp:84] Creating Layer drop2
I0718 20:41:23.729089 16045 net.cpp:406] drop2 <- pool2
I0718 20:41:23.729110 16045 net.cpp:367] drop2 -> pool2 (in-place)
I0718 20:41:23.729152 16045 net.cpp:122] Setting up drop2
I0718 20:41:23.729163 16045 net.cpp:129] Top shape: 100 128 8 8 (819200)
I0718 20:41:23.729171 16045 net.cpp:137] Memory required for data: 335463600
I0718 20:41:23.729180 16045 layer_factory.hpp:77] Creating layer conv5
I0718 20:41:23.729207 16045 net.cpp:84] Creating Layer conv5
I0718 20:41:23.729216 16045 net.cpp:406] conv5 <- pool2
I0718 20:41:23.729241 16045 net.cpp:380] conv5 -> conv5
I0718 20:41:23.765470 16045 net.cpp:122] Setting up conv5
I0718 20:41:23.765493 16045 net.cpp:129] Top shape: 100 256 8 8 (1638400)
I0718 20:41:23.765509 16045 net.cpp:137] Memory required for data: 342017200
I0718 20:41:23.765532 16045 layer_factory.hpp:77] Creating layer bn5_bn
I0718 20:41:23.765554 16045 net.cpp:84] Creating Layer bn5_bn
I0718 20:41:23.765566 16045 net.cpp:406] bn5_bn <- conv5
I0718 20:41:23.765589 16045 net.cpp:380] bn5_bn -> conv5_bn
I0718 20:41:23.765820 16045 net.cpp:122] Setting up bn5_bn
I0718 20:41:23.765833 16045 net.cpp:129] Top shape: 100 256 8 8 (1638400)
I0718 20:41:23.765848 16045 net.cpp:137] Memory required for data: 348570800
I0718 20:41:23.765872 16045 layer_factory.hpp:77] Creating layer bn5_scal
I0718 20:41:23.765892 16045 net.cpp:84] Creating Layer bn5_scal
I0718 20:41:23.765902 16045 net.cpp:406] bn5_scal <- conv5_bn
I0718 20:41:23.765921 16045 net.cpp:380] bn5_scal -> conv5_sc
I0718 20:41:23.766000 16045 layer_factory.hpp:77] Creating layer bn5_scal
I0718 20:41:23.766166 16045 net.cpp:122] Setting up bn5_scal
I0718 20:41:23.766180 16045 net.cpp:129] Top shape: 100 256 8 8 (1638400)
I0718 20:41:23.766196 16045 net.cpp:137] Memory required for data: 355124400
I0718 20:41:23.766213 16045 layer_factory.hpp:77] Creating layer relu5
I0718 20:41:23.766229 16045 net.cpp:84] Creating Layer relu5
I0718 20:41:23.766238 16045 net.cpp:406] relu5 <- conv5_sc
I0718 20:41:23.766258 16045 net.cpp:367] relu5 -> conv5_sc (in-place)
I0718 20:41:23.766643 16045 net.cpp:122] Setting up relu5
I0718 20:41:23.766654 16045 net.cpp:129] Top shape: 100 256 8 8 (1638400)
I0718 20:41:23.766662 16045 net.cpp:137] Memory required for data: 361678000
I0718 20:41:23.766672 16045 layer_factory.hpp:77] Creating layer conv6
I0718 20:41:23.766700 16045 net.cpp:84] Creating Layer conv6
I0718 20:41:23.766710 16045 net.cpp:406] conv6 <- conv5_sc
I0718 20:41:23.766736 16045 net.cpp:380] conv6 -> conv6
I0718 20:41:23.836748 16045 net.cpp:122] Setting up conv6
I0718 20:41:23.836779 16045 net.cpp:129] Top shape: 100 256 8 8 (1638400)
I0718 20:41:23.836810 16045 net.cpp:137] Memory required for data: 368231600
I0718 20:41:23.836846 16045 layer_factory.hpp:77] Creating layer bn6_bn
I0718 20:41:23.836884 16045 net.cpp:84] Creating Layer bn6_bn
I0718 20:41:23.836906 16045 net.cpp:406] bn6_bn <- conv6
I0718 20:41:23.836931 16045 net.cpp:380] bn6_bn -> conv6_bn
I0718 20:41:23.837220 16045 net.cpp:122] Setting up bn6_bn
I0718 20:41:23.837231 16045 net.cpp:129] Top shape: 100 256 8 8 (1638400)
I0718 20:41:23.837236 16045 net.cpp:137] Memory required for data: 374785200
I0718 20:41:23.837276 16045 layer_factory.hpp:77] Creating layer bn6_scal
I0718 20:41:23.837296 16045 net.cpp:84] Creating Layer bn6_scal
I0718 20:41:23.837306 16045 net.cpp:406] bn6_scal <- conv6_bn
I0718 20:41:23.837321 16045 net.cpp:380] bn6_scal -> conv6_sc
I0718 20:41:23.837394 16045 layer_factory.hpp:77] Creating layer bn6_scal
I0718 20:41:23.837556 16045 net.cpp:122] Setting up bn6_scal
I0718 20:41:23.837568 16045 net.cpp:129] Top shape: 100 256 8 8 (1638400)
I0718 20:41:23.837572 16045 net.cpp:137] Memory required for data: 381338800
I0718 20:41:23.837589 16045 layer_factory.hpp:77] Creating layer relu6
I0718 20:41:23.837607 16045 net.cpp:84] Creating Layer relu6
I0718 20:41:23.837617 16045 net.cpp:406] relu6 <- conv6_sc
I0718 20:41:23.837641 16045 net.cpp:367] relu6 -> conv6_sc (in-place)
I0718 20:41:23.838223 16045 net.cpp:122] Setting up relu6
I0718 20:41:23.838237 16045 net.cpp:129] Top shape: 100 256 8 8 (1638400)
I0718 20:41:23.838248 16045 net.cpp:137] Memory required for data: 387892400
I0718 20:41:23.838258 16045 layer_factory.hpp:77] Creating layer pool3
I0718 20:41:23.838280 16045 net.cpp:84] Creating Layer pool3
I0718 20:41:23.838290 16045 net.cpp:406] pool3 <- conv6_sc
I0718 20:41:23.838318 16045 net.cpp:380] pool3 -> pool3
I0718 20:41:23.838390 16045 net.cpp:122] Setting up pool3
I0718 20:41:23.838403 16045 net.cpp:129] Top shape: 100 256 4 4 (409600)
I0718 20:41:23.838409 16045 net.cpp:137] Memory required for data: 389530800
I0718 20:41:23.838419 16045 layer_factory.hpp:77] Creating layer drop3
I0718 20:41:23.838438 16045 net.cpp:84] Creating Layer drop3
I0718 20:41:23.838449 16045 net.cpp:406] drop3 <- pool3
I0718 20:41:23.838470 16045 net.cpp:367] drop3 -> pool3 (in-place)
I0718 20:41:23.838513 16045 net.cpp:122] Setting up drop3
I0718 20:41:23.838524 16045 net.cpp:129] Top shape: 100 256 4 4 (409600)
I0718 20:41:23.838531 16045 net.cpp:137] Memory required for data: 391169200
I0718 20:41:23.838541 16045 layer_factory.hpp:77] Creating layer fc7
I0718 20:41:23.838577 16045 net.cpp:84] Creating Layer fc7
I0718 20:41:23.838588 16045 net.cpp:406] fc7 <- pool3
I0718 20:41:23.838613 16045 net.cpp:380] fc7 -> fc7
I0718 20:41:24.083478 16045 net.cpp:122] Setting up fc7
I0718 20:41:24.083514 16045 net.cpp:129] Top shape: 100 512 (51200)
I0718 20:41:24.083518 16045 net.cpp:137] Memory required for data: 391374000
I0718 20:41:24.083544 16045 layer_factory.hpp:77] Creating layer bn7_bn
I0718 20:41:24.083597 16045 net.cpp:84] Creating Layer bn7_bn
I0718 20:41:24.083629 16045 net.cpp:406] bn7_bn <- fc7
I0718 20:41:24.083667 16045 net.cpp:380] bn7_bn -> fc7_bn
I0718 20:41:24.083941 16045 net.cpp:122] Setting up bn7_bn
I0718 20:41:24.083952 16045 net.cpp:129] Top shape: 100 512 (51200)
I0718 20:41:24.083956 16045 net.cpp:137] Memory required for data: 391578800
I0718 20:41:24.083973 16045 layer_factory.hpp:77] Creating layer bn7_scal
I0718 20:41:24.084002 16045 net.cpp:84] Creating Layer bn7_scal
I0718 20:41:24.084012 16045 net.cpp:406] bn7_scal <- fc7_bn
I0718 20:41:24.084028 16045 net.cpp:380] bn7_scal -> fc7_sc
I0718 20:41:24.084118 16045 layer_factory.hpp:77] Creating layer bn7_scal
I0718 20:41:24.084300 16045 net.cpp:122] Setting up bn7_scal
I0718 20:41:24.084311 16045 net.cpp:129] Top shape: 100 512 (51200)
I0718 20:41:24.084316 16045 net.cpp:137] Memory required for data: 391783600
I0718 20:41:24.084327 16045 layer_factory.hpp:77] Creating layer relu7
I0718 20:41:24.084342 16045 net.cpp:84] Creating Layer relu7
I0718 20:41:24.084359 16045 net.cpp:406] relu7 <- fc7_sc
I0718 20:41:24.084390 16045 net.cpp:367] relu7 -> fc7_sc (in-place)
I0718 20:41:24.085021 16045 net.cpp:122] Setting up relu7
I0718 20:41:24.085039 16045 net.cpp:129] Top shape: 100 512 (51200)
I0718 20:41:24.085043 16045 net.cpp:137] Memory required for data: 391988400
I0718 20:41:24.085049 16045 layer_factory.hpp:77] Creating layer drop7
I0718 20:41:24.085069 16045 net.cpp:84] Creating Layer drop7
I0718 20:41:24.085079 16045 net.cpp:406] drop7 <- fc7_sc
I0718 20:41:24.085094 16045 net.cpp:367] drop7 -> fc7_sc (in-place)
I0718 20:41:24.085149 16045 net.cpp:122] Setting up drop7
I0718 20:41:24.085157 16045 net.cpp:129] Top shape: 100 512 (51200)
I0718 20:41:24.085160 16045 net.cpp:137] Memory required for data: 392193200
I0718 20:41:24.085165 16045 layer_factory.hpp:77] Creating layer fc8
I0718 20:41:24.085189 16045 net.cpp:84] Creating Layer fc8
I0718 20:41:24.085208 16045 net.cpp:406] fc8 <- fc7_sc
I0718 20:41:24.085228 16045 net.cpp:380] fc8 -> fc8
I0718 20:41:24.116374 16045 net.cpp:122] Setting up fc8
I0718 20:41:24.116394 16045 net.cpp:129] Top shape: 100 512 (51200)
I0718 20:41:24.116397 16045 net.cpp:137] Memory required for data: 392398000
I0718 20:41:24.116410 16045 layer_factory.hpp:77] Creating layer bn8_bn
I0718 20:41:24.116443 16045 net.cpp:84] Creating Layer bn8_bn
I0718 20:41:24.116454 16045 net.cpp:406] bn8_bn <- fc8
I0718 20:41:24.116477 16045 net.cpp:380] bn8_bn -> fc8_bn
I0718 20:41:24.116721 16045 net.cpp:122] Setting up bn8_bn
I0718 20:41:24.116732 16045 net.cpp:129] Top shape: 100 512 (51200)
I0718 20:41:24.116735 16045 net.cpp:137] Memory required for data: 392602800
I0718 20:41:24.116753 16045 layer_factory.hpp:77] Creating layer bn8_scal
I0718 20:41:24.116780 16045 net.cpp:84] Creating Layer bn8_scal
I0718 20:41:24.116789 16045 net.cpp:406] bn8_scal <- fc8_bn
I0718 20:41:24.116804 16045 net.cpp:380] bn8_scal -> fc8_sc
I0718 20:41:24.116884 16045 layer_factory.hpp:77] Creating layer bn8_scal
I0718 20:41:24.117064 16045 net.cpp:122] Setting up bn8_scal
I0718 20:41:24.117075 16045 net.cpp:129] Top shape: 100 512 (51200)
I0718 20:41:24.117079 16045 net.cpp:137] Memory required for data: 392807600
I0718 20:41:24.117090 16045 layer_factory.hpp:77] Creating layer relu8
I0718 20:41:24.117103 16045 net.cpp:84] Creating Layer relu8
I0718 20:41:24.117122 16045 net.cpp:406] relu8 <- fc8_sc
I0718 20:41:24.117146 16045 net.cpp:367] relu8 -> fc8_sc (in-place)
I0718 20:41:24.117570 16045 net.cpp:122] Setting up relu8
I0718 20:41:24.117580 16045 net.cpp:129] Top shape: 100 512 (51200)
I0718 20:41:24.117597 16045 net.cpp:137] Memory required for data: 393012400
I0718 20:41:24.117604 16045 layer_factory.hpp:77] Creating layer drop8
I0718 20:41:24.117624 16045 net.cpp:84] Creating Layer drop8
I0718 20:41:24.117635 16045 net.cpp:406] drop8 <- fc8_sc
I0718 20:41:24.117667 16045 net.cpp:367] drop8 -> fc8_sc (in-place)
I0718 20:41:24.117736 16045 net.cpp:122] Setting up drop8
I0718 20:41:24.117744 16045 net.cpp:129] Top shape: 100 512 (51200)
I0718 20:41:24.117758 16045 net.cpp:137] Memory required for data: 393217200
I0718 20:41:24.117764 16045 layer_factory.hpp:77] Creating layer fc9
I0718 20:41:24.117815 16045 net.cpp:84] Creating Layer fc9
I0718 20:41:24.117822 16045 net.cpp:406] fc9 <- fc8_sc
I0718 20:41:24.117853 16045 net.cpp:380] fc9 -> fc9
I0718 20:41:24.118710 16045 net.cpp:122] Setting up fc9
I0718 20:41:24.118722 16045 net.cpp:129] Top shape: 100 10 (1000)
I0718 20:41:24.118739 16045 net.cpp:137] Memory required for data: 393221200
I0718 20:41:24.118770 16045 layer_factory.hpp:77] Creating layer fc9_fc9_0_split
I0718 20:41:24.118785 16045 net.cpp:84] Creating Layer fc9_fc9_0_split
I0718 20:41:24.118793 16045 net.cpp:406] fc9_fc9_0_split <- fc9
I0718 20:41:24.118808 16045 net.cpp:380] fc9_fc9_0_split -> fc9_fc9_0_split_0
I0718 20:41:24.118854 16045 net.cpp:380] fc9_fc9_0_split -> fc9_fc9_0_split_1
I0718 20:41:24.118906 16045 net.cpp:122] Setting up fc9_fc9_0_split
I0718 20:41:24.118919 16045 net.cpp:129] Top shape: 100 10 (1000)
I0718 20:41:24.118927 16045 net.cpp:129] Top shape: 100 10 (1000)
I0718 20:41:24.118943 16045 net.cpp:137] Memory required for data: 393229200
I0718 20:41:24.118954 16045 layer_factory.hpp:77] Creating layer accuracy
I0718 20:41:24.118980 16045 net.cpp:84] Creating Layer accuracy
I0718 20:41:24.118990 16045 net.cpp:406] accuracy <- fc9_fc9_0_split_0
I0718 20:41:24.119009 16045 net.cpp:406] accuracy <- label_cifar_1_split_0
I0718 20:41:24.119029 16045 net.cpp:380] accuracy -> accuracy
…
