…
I0724 09:02:11.119019 22100 net.cpp:294] The NetState phase (0) differed from the phase (1) specified by a rule in layer accuracy
I0724 09:02:11.119216 22100 net.cpp:51] Initializing net from parameters: 
name: "CIFAR10_vgg"
state {
  phase: TRAIN
  level: 0
  stage: ""
}
layer {
  name: "cifar"
  type: "Data"
  top: "data"
  top: "label"
  include {
    phase: TRAIN
  }
  transform_param {
    mirror: true
    crop_size: 32
    mean_file: "examples/cifar10/mean.binaryproto"
  }
  data_param {
    source: "examples/cifar10/cifar10_train_lmdb"
    batch_size: 100
    backend: LMDB
  }
}
layer {
  name: "conv1"
  type: "BinaryConvolution"
  bottom: "data"
  top: "conv1"
  param {
    lr_mult: 1
    decay_mult: 1
  }
  convolution_param {
    num_output: 64
    bias_term: false
    pad: 1
    kernel_size: 3
    stride: 1
    weight_filler {
      type: "gaussian"
      std: 0.01
    }
  }
  debug_param {
    xnorno_grad: false
  }
}
layer {
  name: "bn1_bn"
  type: "BatchNorm"
  bottom: "conv1"
  top: "conv1_bn"
}
layer {
  name: "bn1_scal"
  type: "Scale"
  bottom: "conv1_bn"
  top: "conv1_sc"
  scale_param {
    bias_term: true
  }
}
layer {
  name: "relu1"
  type: "ReLU"
  bottom: "conv1_sc"
  top: "conv1_sc"
}
layer {
  name: "conv2"
  type: "BinaryConvolution"
  bottom: "conv1_sc"
  top: "conv2"
  param {
    lr_mult: 1
    decay_mult: 1
  }
  convolution_param {
    num_output: 64
    bias_term: false
    pad: 1
    kernel_size: 3
    stride: 1
    weight_filler {
      type: "gaussian"
      std: 0.01
    }
  }
  debug_param {
    xnorno_grad: false
  }
}
layer {
  name: "bn2_bn"
  type: "BatchNorm"
  bottom: "conv2"
  top: "conv2_bn"
}
layer {
  name: "bn2_scal"
  type: "Scale"
  bottom: "conv2_bn"
  top: "conv2_sc"
  scale_param {
    bias_term: true
  }
}
layer {
  name: "relu2"
  type: "ReLU"
  bottom: "conv2_sc"
  top: "conv2_sc"
}
layer {
  name: "pool1"
  type: "Pooling"
  bottom: "conv2_sc"
  top: "pool1"
  pooling_param {
    pool: MAX
    kernel_size: 2
    stride: 2
  }
}
layer {
  name: "drop1"
  type: "Dropout"
  bottom: "pool1"
  top: "pool1"
  dropout_param {
    dropout_ratio: 0.25
  }
}
layer {
  name: "conv3"
  type: "BinaryConvolution"
  bottom: "pool1"
  top: "conv3"
  param {
    lr_mult: 1
    decay_mult: 1
  }
  convolution_param {
    num_output: 128
    bias_term: false
    pad: 1
    kernel_size: 3
    stride: 1
    weight_filler {
      type: "gaussian"
      std: 0.01
    }
  }
  debug_param {
    xnorno_grad: false
  }
}
layer {
  name: "bn3_bn"
  type: "BatchNorm"
  bottom: "conv3"
  top: "conv3_bn"
}
layer {
  name: "bn3_scal"
  type: "Scale"
  bottom: "conv3_bn"
  top: "conv3_sc"
  scale_param {
    bias_term: true
  }
}
layer {
  name: "relu3"
  type: "ReLU"
  bottom: "conv3_sc"
  top: "conv3_sc"
}
layer {
  name: "conv4"
  type: "BinaryConvolution"
  bottom: "conv3_sc"
  top: "conv4"
  param {
    lr_mult: 1
    decay_mult: 1
  }
  convolution_param {
    num_output: 128
    bias_term: false
    pad: 1
    kernel_size: 3
    stride: 1
    weight_filler {
      type: "gaussian"
      std: 0.01
    }
  }
  debug_param {
    xnorno_grad: false
  }
}
layer {
  name: "bn4_bn"
  type: "BatchNorm"
  bottom: "conv4"
  top: "conv4_bn"
}
layer {
  name: "bn4_scal"
  type: "Scale"
  bottom: "conv4_bn"
  top: "conv4_sc"
  scale_param {
    bias_term: true
  }
}
layer {
  name: "relu4"
  type: "ReLU"
  bottom: "conv4_sc"
  top: "conv4_sc"
}
layer {
  name: "pool2"
  type: "Pooling"
  bottom: "conv4_sc"
  top: "pool2"
  pooling_param {
    pool: MAX
    kernel_size: 2
    stride: 2
  }
}
layer {
  name: "drop2"
  type: "Dropout"
  bottom: "pool2"
  top: "pool2"
  dropout_param {
    dropout_ratio: 0.25
  }
}
layer {
  name: "conv5"
  type: "BinaryConvolution"
  bottom: "pool2"
  top: "conv5"
  param {
    lr_mult: 1
    decay_mult: 1
  }
  convolution_param {
    num_output: 256
    bias_term: false
    pad: 1
    kernel_size: 3
    stride: 1
    weight_filler {
      type: "gaussian"
      std: 0.01
    }
  }
  debug_param {
    xnorno_grad: false
  }
}
layer {
  name: "bn5_bn"
  type: "BatchNorm"
  bottom: "conv5"
  top: "conv5_bn"
}
layer {
  name: "bn5_scal"
  type: "Scale"
  bottom: "conv5_bn"
  top: "conv5_sc"
  scale_param {
    bias_term: true
  }
}
layer {
  name: "relu5"
  type: "ReLU"
  bottom: "conv5_sc"
  top: "conv5_sc"
}
layer {
  name: "conv6"
  type: "BinaryConvolution"
  bottom: "conv5_sc"
  top: "conv6"
  param {
    lr_mult: 1
    decay_mult: 1
  }
  convolution_param {
    num_output: 256
    bias_term: false
    pad: 1
    kernel_size: 3
    stride: 1
    weight_filler {
      type: "gaussian"
      std: 0.01
    }
  }
  debug_param {
    xnorno_grad: false
  }
}
layer {
  name: "bn6_bn"
  type: "BatchNorm"
  bottom: "conv6"
  top: "conv6_bn"
}
layer {
  name: "bn6_scal"
  type: "Scale"
  bottom: "conv6_bn"
  top: "conv6_sc"
  scale_param {
    bias_term: true
  }
}
layer {
  name: "relu6"
  type: "ReLU"
  bottom: "conv6_sc"
  top: "conv6_sc"
}
layer {
  name: "pool3"
  type: "Pooling"
  bottom: "conv6_sc"
  top: "pool3"
  pooling_param {
    pool: MAX
    kernel_size: 2
    stride: 2
  }
}
layer {
  name: "drop3"
  type: "Dropout"
  bottom: "pool3"
  top: "pool3"
  dropout_param {
    dropout_ratio: 0.25
  }
}
layer {
  name: "fc7"
  type: "BinaryInnerProduct"
  bottom: "pool3"
  top: "fc7"
  param {
    lr_mult: 1
    decay_mult: 1
  }
  inner_product_param {
    num_output: 512
    bias_term: false
    weight_filler {
      type: "gaussian"
      std: 0.01
    }
  }
  debug_param {
    xnorno_grad: false
  }
}
layer {
  name: "bn7_bn"
  type: "BatchNorm"
  bottom: "fc7"
  top: "fc7_bn"
}
layer {
  name: "bn7_scal"
  type: "Scale"
  bottom: "fc7_bn"
  top: "fc7_sc"
  scale_param {
    bias_term: true
  }
}
layer {
  name: "relu7"
  type: "ReLU"
  bottom: "fc7_sc"
  top: "fc7_sc"
}
layer {
  name: "drop7"
  type: "Dropout"
  bottom: "fc7_sc"
  top: "fc7_sc"
  dropout_param {
    dropout_ratio: 0.5
  }
}
layer {
  name: "fc8"
  type: "BinaryInnerProduct"
  bottom: "fc7_sc"
  top: "fc8"
  param {
    lr_mult: 1
    decay_mult: 1
  }
  inner_product_param {
    num_output: 512
    bias_term: false
    weight_filler {
      type: "gaussian"
      std: 0.01
    }
  }
  debug_param {
    xnorno_grad: false
  }
}
layer {
  name: "bn8_bn"
  type: "BatchNorm"
  bottom: "fc8"
  top: "fc8_bn"
}
layer {
  name: "bn8_scal"
  type: "Scale"
  bottom: "fc8_bn"
  top: "fc8_sc"
  scale_param {
    bias_term: true
  }
}
layer {
  name: "relu8"
  type: "ReLU"
  bottom: "fc8_sc"
  top: "fc8_sc"
}
layer {
  name: "drop8"
  type: "Dropout"
  bottom: "fc8_sc"
  top: "fc8_sc"
  dropout_param {
    dropout_ratio: 0.5
  }
}
layer {
  name: "fc9"
  type: "BinaryInnerProduct"
  bottom: "fc8_sc"
  top: "fc9"
  param {
    lr_mult: 1
    decay_mult: 1
  }
  param {
    lr_mult: 2
    decay_mult: 0
  }
  inner_product_param {
    num_output: 10
    weight_filler {
      type: "gaussian"
      std: 0.01
    }
    bias_filler {
      type: "constant"
      value: 0.01
    }
  }
  debug_param {
    xnorno_grad: false
  }
}
layer {
  name: "loss"
  type: "SoftmaxWithLoss"
  bottom: "fc9"
  bottom: "label"
  top: "loss"
}
I0724 09:02:11.119899 22100 layer_factory.hpp:77] Creating layer cifar
I0724 09:02:11.120077 22100 db_lmdb.cpp:35] Opened lmdb examples/cifar10/cifar10_train_lmdb
I0724 09:02:11.120127 22100 net.cpp:84] Creating Layer cifar
I0724 09:02:11.120151 22100 net.cpp:380] cifar -> data
I0724 09:02:11.120261 22100 net.cpp:380] cifar -> label
I0724 09:02:11.120296 22100 data_transformer.cpp:25] Loading mean file from: examples/cifar10/mean.binaryproto
I0724 09:02:11.121474 22100 data_layer.cpp:45] output data size: 100,3,32,32
I0724 09:02:11.124251 22100 base_data_layer.cpp:72] Initializing prefetch
I0724 09:02:11.124384 22100 base_data_layer.cpp:75] Prefetch initialized.
I0724 09:02:11.124394 22100 net.cpp:122] Setting up cifar
I0724 09:02:11.124423 22100 net.cpp:129] Top shape: 100 3 32 32 (307200)
I0724 09:02:11.124430 22100 net.cpp:129] Top shape: 100 (100)
I0724 09:02:11.124434 22100 net.cpp:137] Memory required for data: 1229200
I0724 09:02:11.124464 22100 layer_factory.hpp:77] Creating layer conv1
I0724 09:02:11.124523 22100 net.cpp:84] Creating Layer conv1
I0724 09:02:11.124542 22100 net.cpp:406] conv1 <- data
I0724 09:02:11.124586 22100 net.cpp:380] conv1 -> conv1
I0724 09:02:11.125123 22100 net.cpp:122] Setting up conv1
I0724 09:02:11.125135 22100 net.cpp:129] Top shape: 100 64 32 32 (6553600)
I0724 09:02:11.125140 22100 net.cpp:137] Memory required for data: 27443600
I0724 09:02:11.125174 22100 layer_factory.hpp:77] Creating layer bn1_bn
I0724 09:02:11.125195 22100 net.cpp:84] Creating Layer bn1_bn
I0724 09:02:11.125203 22100 net.cpp:406] bn1_bn <- conv1
I0724 09:02:11.125218 22100 net.cpp:380] bn1_bn -> conv1_bn
I0724 09:02:11.125861 22100 net.cpp:122] Setting up bn1_bn
I0724 09:02:11.125876 22100 net.cpp:129] Top shape: 100 64 32 32 (6553600)
I0724 09:02:11.125881 22100 net.cpp:137] Memory required for data: 53658000
I0724 09:02:11.125916 22100 layer_factory.hpp:77] Creating layer bn1_scal
I0724 09:02:11.125937 22100 net.cpp:84] Creating Layer bn1_scal
I0724 09:02:11.125946 22100 net.cpp:406] bn1_scal <- conv1_bn
I0724 09:02:11.125965 22100 net.cpp:380] bn1_scal -> conv1_sc
I0724 09:02:11.126035 22100 layer_factory.hpp:77] Creating layer bn1_scal
I0724 09:02:11.126181 22100 net.cpp:122] Setting up bn1_scal
I0724 09:02:11.126193 22100 net.cpp:129] Top shape: 100 64 32 32 (6553600)
I0724 09:02:11.126197 22100 net.cpp:137] Memory required for data: 79872400
I0724 09:02:11.126219 22100 layer_factory.hpp:77] Creating layer relu1
I0724 09:02:11.126240 22100 net.cpp:84] Creating Layer relu1
I0724 09:02:11.126247 22100 net.cpp:406] relu1 <- conv1_sc
I0724 09:02:11.126263 22100 net.cpp:367] relu1 -> conv1_sc (in-place)
I0724 09:02:11.478883 22100 net.cpp:122] Setting up relu1
I0724 09:02:11.478914 22100 net.cpp:129] Top shape: 100 64 32 32 (6553600)
I0724 09:02:11.478919 22100 net.cpp:137] Memory required for data: 106086800
I0724 09:02:11.478936 22100 layer_factory.hpp:77] Creating layer conv2
I0724 09:02:11.479009 22100 net.cpp:84] Creating Layer conv2
I0724 09:02:11.479032 22100 net.cpp:406] conv2 <- conv1_sc
I0724 09:02:11.479082 22100 net.cpp:380] conv2 -> conv2
I0724 09:02:11.484033 22100 net.cpp:122] Setting up conv2
I0724 09:02:11.484050 22100 net.cpp:129] Top shape: 100 64 32 32 (6553600)
I0724 09:02:11.484053 22100 net.cpp:137] Memory required for data: 132301200
I0724 09:02:11.484066 22100 layer_factory.hpp:77] Creating layer bn2_bn
I0724 09:02:11.484088 22100 net.cpp:84] Creating Layer bn2_bn
I0724 09:02:11.484097 22100 net.cpp:406] bn2_bn <- conv2
I0724 09:02:11.484129 22100 net.cpp:380] bn2_bn -> conv2_bn
I0724 09:02:11.484375 22100 net.cpp:122] Setting up bn2_bn
I0724 09:02:11.484385 22100 net.cpp:129] Top shape: 100 64 32 32 (6553600)
I0724 09:02:11.484390 22100 net.cpp:137] Memory required for data: 158515600
I0724 09:02:11.484426 22100 layer_factory.hpp:77] Creating layer bn2_scal
I0724 09:02:11.484472 22100 net.cpp:84] Creating Layer bn2_scal
I0724 09:02:11.484479 22100 net.cpp:406] bn2_scal <- conv2_bn
I0724 09:02:11.484503 22100 net.cpp:380] bn2_scal -> conv2_sc
I0724 09:02:11.484601 22100 layer_factory.hpp:77] Creating layer bn2_scal
I0724 09:02:11.484741 22100 net.cpp:122] Setting up bn2_scal
I0724 09:02:11.484752 22100 net.cpp:129] Top shape: 100 64 32 32 (6553600)
I0724 09:02:11.484758 22100 net.cpp:137] Memory required for data: 184730000
I0724 09:02:11.484771 22100 layer_factory.hpp:77] Creating layer relu2
I0724 09:02:11.484802 22100 net.cpp:84] Creating Layer relu2
I0724 09:02:11.484810 22100 net.cpp:406] relu2 <- conv2_sc
I0724 09:02:11.484824 22100 net.cpp:367] relu2 -> conv2_sc (in-place)
I0724 09:02:11.485126 22100 net.cpp:122] Setting up relu2
I0724 09:02:11.485136 22100 net.cpp:129] Top shape: 100 64 32 32 (6553600)
I0724 09:02:11.485139 22100 net.cpp:137] Memory required for data: 210944400
I0724 09:02:11.485146 22100 layer_factory.hpp:77] Creating layer pool1
I0724 09:02:11.485167 22100 net.cpp:84] Creating Layer pool1
I0724 09:02:11.485174 22100 net.cpp:406] pool1 <- conv2_sc
I0724 09:02:11.485189 22100 net.cpp:380] pool1 -> pool1
I0724 09:02:11.485255 22100 net.cpp:122] Setting up pool1
I0724 09:02:11.485267 22100 net.cpp:129] Top shape: 100 64 16 16 (1638400)
I0724 09:02:11.485271 22100 net.cpp:137] Memory required for data: 217498000
I0724 09:02:11.485277 22100 layer_factory.hpp:77] Creating layer drop1
I0724 09:02:11.485293 22100 net.cpp:84] Creating Layer drop1
I0724 09:02:11.485301 22100 net.cpp:406] drop1 <- pool1
I0724 09:02:11.485316 22100 net.cpp:367] drop1 -> pool1 (in-place)
I0724 09:02:11.485350 22100 net.cpp:122] Setting up drop1
I0724 09:02:11.485358 22100 net.cpp:129] Top shape: 100 64 16 16 (1638400)
I0724 09:02:11.485363 22100 net.cpp:137] Memory required for data: 224051600
I0724 09:02:11.485368 22100 layer_factory.hpp:77] Creating layer conv3
I0724 09:02:11.485384 22100 net.cpp:84] Creating Layer conv3
I0724 09:02:11.485393 22100 net.cpp:406] conv3 <- pool1
I0724 09:02:11.485409 22100 net.cpp:380] conv3 -> conv3
I0724 09:02:11.494922 22100 net.cpp:122] Setting up conv3
I0724 09:02:11.494943 22100 net.cpp:129] Top shape: 100 128 16 16 (3276800)
I0724 09:02:11.494947 22100 net.cpp:137] Memory required for data: 237158800
I0724 09:02:11.494961 22100 layer_factory.hpp:77] Creating layer bn3_bn
I0724 09:02:11.494979 22100 net.cpp:84] Creating Layer bn3_bn
I0724 09:02:11.494990 22100 net.cpp:406] bn3_bn <- conv3
I0724 09:02:11.495008 22100 net.cpp:380] bn3_bn -> conv3_bn
I0724 09:02:11.495208 22100 net.cpp:122] Setting up bn3_bn
I0724 09:02:11.495219 22100 net.cpp:129] Top shape: 100 128 16 16 (3276800)
I0724 09:02:11.495223 22100 net.cpp:137] Memory required for data: 250266000
I0724 09:02:11.495240 22100 layer_factory.hpp:77] Creating layer bn3_scal
I0724 09:02:11.495255 22100 net.cpp:84] Creating Layer bn3_scal
I0724 09:02:11.495262 22100 net.cpp:406] bn3_scal <- conv3_bn
I0724 09:02:11.495277 22100 net.cpp:380] bn3_scal -> conv3_sc
I0724 09:02:11.495337 22100 layer_factory.hpp:77] Creating layer bn3_scal
I0724 09:02:11.495468 22100 net.cpp:122] Setting up bn3_scal
I0724 09:02:11.495479 22100 net.cpp:129] Top shape: 100 128 16 16 (3276800)
I0724 09:02:11.495483 22100 net.cpp:137] Memory required for data: 263373200
I0724 09:02:11.495507 22100 layer_factory.hpp:77] Creating layer relu3
I0724 09:02:11.495519 22100 net.cpp:84] Creating Layer relu3
I0724 09:02:11.495527 22100 net.cpp:406] relu3 <- conv3_sc
I0724 09:02:11.495539 22100 net.cpp:367] relu3 -> conv3_sc (in-place)
I0724 09:02:11.496050 22100 net.cpp:122] Setting up relu3
I0724 09:02:11.496062 22100 net.cpp:129] Top shape: 100 128 16 16 (3276800)
I0724 09:02:11.496067 22100 net.cpp:137] Memory required for data: 276480400
I0724 09:02:11.496073 22100 layer_factory.hpp:77] Creating layer conv4
I0724 09:02:11.496094 22100 net.cpp:84] Creating Layer conv4
I0724 09:02:11.496104 22100 net.cpp:406] conv4 <- conv3_sc
I0724 09:02:11.496124 22100 net.cpp:380] conv4 -> conv4
I0724 09:02:11.515115 22100 net.cpp:122] Setting up conv4
I0724 09:02:11.515147 22100 net.cpp:129] Top shape: 100 128 16 16 (3276800)
I0724 09:02:11.515152 22100 net.cpp:137] Memory required for data: 289587600
I0724 09:02:11.515175 22100 layer_factory.hpp:77] Creating layer bn4_bn
I0724 09:02:11.515214 22100 net.cpp:84] Creating Layer bn4_bn
I0724 09:02:11.515229 22100 net.cpp:406] bn4_bn <- conv4
I0724 09:02:11.515255 22100 net.cpp:380] bn4_bn -> conv4_bn
I0724 09:02:11.515486 22100 net.cpp:122] Setting up bn4_bn
I0724 09:02:11.515498 22100 net.cpp:129] Top shape: 100 128 16 16 (3276800)
I0724 09:02:11.515516 22100 net.cpp:137] Memory required for data: 302694800
I0724 09:02:11.515547 22100 layer_factory.hpp:77] Creating layer bn4_scal
I0724 09:02:11.515571 22100 net.cpp:84] Creating Layer bn4_scal
I0724 09:02:11.515583 22100 net.cpp:406] bn4_scal <- conv4_bn
I0724 09:02:11.515607 22100 net.cpp:380] bn4_scal -> conv4_sc
I0724 09:02:11.515691 22100 layer_factory.hpp:77] Creating layer bn4_scal
I0724 09:02:11.515844 22100 net.cpp:122] Setting up bn4_scal
I0724 09:02:11.515858 22100 net.cpp:129] Top shape: 100 128 16 16 (3276800)
I0724 09:02:11.515866 22100 net.cpp:137] Memory required for data: 315802000
I0724 09:02:11.515887 22100 layer_factory.hpp:77] Creating layer relu4
I0724 09:02:11.515904 22100 net.cpp:84] Creating Layer relu4
I0724 09:02:11.515915 22100 net.cpp:406] relu4 <- conv4_sc
I0724 09:02:11.515938 22100 net.cpp:367] relu4 -> conv4_sc (in-place)
I0724 09:02:11.516360 22100 net.cpp:122] Setting up relu4
I0724 09:02:11.516374 22100 net.cpp:129] Top shape: 100 128 16 16 (3276800)
I0724 09:02:11.516383 22100 net.cpp:137] Memory required for data: 328909200
I0724 09:02:11.516394 22100 layer_factory.hpp:77] Creating layer pool2
I0724 09:02:11.516417 22100 net.cpp:84] Creating Layer pool2
I0724 09:02:11.516428 22100 net.cpp:406] pool2 <- conv4_sc
I0724 09:02:11.516453 22100 net.cpp:380] pool2 -> pool2
I0724 09:02:11.516521 22100 net.cpp:122] Setting up pool2
I0724 09:02:11.516535 22100 net.cpp:129] Top shape: 100 128 8 8 (819200)
I0724 09:02:11.516543 22100 net.cpp:137] Memory required for data: 332186000
I0724 09:02:11.516553 22100 layer_factory.hpp:77] Creating layer drop2
I0724 09:02:11.516575 22100 net.cpp:84] Creating Layer drop2
I0724 09:02:11.516587 22100 net.cpp:406] drop2 <- pool2
I0724 09:02:11.516607 22100 net.cpp:367] drop2 -> pool2 (in-place)
I0724 09:02:11.516650 22100 net.cpp:122] Setting up drop2
I0724 09:02:11.516662 22100 net.cpp:129] Top shape: 100 128 8 8 (819200)
I0724 09:02:11.516670 22100 net.cpp:137] Memory required for data: 335462800
I0724 09:02:11.516681 22100 layer_factory.hpp:77] Creating layer conv5
I0724 09:02:11.516711 22100 net.cpp:84] Creating Layer conv5
I0724 09:02:11.516722 22100 net.cpp:406] conv5 <- pool2
I0724 09:02:11.516749 22100 net.cpp:380] conv5 -> conv5
I0724 09:02:11.554198 22100 net.cpp:122] Setting up conv5
I0724 09:02:11.554247 22100 net.cpp:129] Top shape: 100 256 8 8 (1638400)
I0724 09:02:11.554255 22100 net.cpp:137] Memory required for data: 342016400
I0724 09:02:11.554294 22100 layer_factory.hpp:77] Creating layer bn5_bn
I0724 09:02:11.554347 22100 net.cpp:84] Creating Layer bn5_bn
I0724 09:02:11.554376 22100 net.cpp:406] bn5_bn <- conv5
I0724 09:02:11.554411 22100 net.cpp:380] bn5_bn -> conv5_bn
I0724 09:02:11.554698 22100 net.cpp:122] Setting up bn5_bn
I0724 09:02:11.554721 22100 net.cpp:129] Top shape: 100 256 8 8 (1638400)
I0724 09:02:11.554747 22100 net.cpp:137] Memory required for data: 348570000
I0724 09:02:11.554777 22100 layer_factory.hpp:77] Creating layer bn5_scal
I0724 09:02:11.554801 22100 net.cpp:84] Creating Layer bn5_scal
I0724 09:02:11.554821 22100 net.cpp:406] bn5_scal <- conv5_bn
I0724 09:02:11.554852 22100 net.cpp:380] bn5_scal -> conv5_sc
I0724 09:02:11.554930 22100 layer_factory.hpp:77] Creating layer bn5_scal
I0724 09:02:11.555111 22100 net.cpp:122] Setting up bn5_scal
I0724 09:02:11.555133 22100 net.cpp:129] Top shape: 100 256 8 8 (1638400)
I0724 09:02:11.555137 22100 net.cpp:137] Memory required for data: 355123600
I0724 09:02:11.555151 22100 layer_factory.hpp:77] Creating layer relu5
I0724 09:02:11.555167 22100 net.cpp:84] Creating Layer relu5
I0724 09:02:11.555177 22100 net.cpp:406] relu5 <- conv5_sc
I0724 09:02:11.555193 22100 net.cpp:367] relu5 -> conv5_sc (in-place)
I0724 09:02:11.555830 22100 net.cpp:122] Setting up relu5
I0724 09:02:11.555842 22100 net.cpp:129] Top shape: 100 256 8 8 (1638400)
I0724 09:02:11.555850 22100 net.cpp:137] Memory required for data: 361677200
I0724 09:02:11.555861 22100 layer_factory.hpp:77] Creating layer conv6
I0724 09:02:11.555891 22100 net.cpp:84] Creating Layer conv6
I0724 09:02:11.555913 22100 net.cpp:406] conv6 <- conv5_sc
I0724 09:02:11.555941 22100 net.cpp:380] conv6 -> conv6
I0724 09:02:11.626168 22100 net.cpp:122] Setting up conv6
I0724 09:02:11.626201 22100 net.cpp:129] Top shape: 100 256 8 8 (1638400)
I0724 09:02:11.626206 22100 net.cpp:137] Memory required for data: 368230800
I0724 09:02:11.626230 22100 layer_factory.hpp:77] Creating layer bn6_bn
I0724 09:02:11.626266 22100 net.cpp:84] Creating Layer bn6_bn
I0724 09:02:11.626281 22100 net.cpp:406] bn6_bn <- conv6
I0724 09:02:11.626312 22100 net.cpp:380] bn6_bn -> conv6_bn
I0724 09:02:11.626557 22100 net.cpp:122] Setting up bn6_bn
I0724 09:02:11.626569 22100 net.cpp:129] Top shape: 100 256 8 8 (1638400)
I0724 09:02:11.626572 22100 net.cpp:137] Memory required for data: 374784400
I0724 09:02:11.626613 22100 layer_factory.hpp:77] Creating layer bn6_scal
I0724 09:02:11.626633 22100 net.cpp:84] Creating Layer bn6_scal
I0724 09:02:11.626641 22100 net.cpp:406] bn6_scal <- conv6_bn
I0724 09:02:11.626660 22100 net.cpp:380] bn6_scal -> conv6_sc
I0724 09:02:11.626740 22100 layer_factory.hpp:77] Creating layer bn6_scal
I0724 09:02:11.626897 22100 net.cpp:122] Setting up bn6_scal
I0724 09:02:11.626909 22100 net.cpp:129] Top shape: 100 256 8 8 (1638400)
I0724 09:02:11.626912 22100 net.cpp:137] Memory required for data: 381338000
I0724 09:02:11.626924 22100 layer_factory.hpp:77] Creating layer relu6
I0724 09:02:11.626940 22100 net.cpp:84] Creating Layer relu6
I0724 09:02:11.626953 22100 net.cpp:406] relu6 <- conv6_sc
I0724 09:02:11.626972 22100 net.cpp:367] relu6 -> conv6_sc (in-place)
I0724 09:02:11.627588 22100 net.cpp:122] Setting up relu6
I0724 09:02:11.627600 22100 net.cpp:129] Top shape: 100 256 8 8 (1638400)
I0724 09:02:11.627609 22100 net.cpp:137] Memory required for data: 387891600
I0724 09:02:11.627620 22100 layer_factory.hpp:77] Creating layer pool3
I0724 09:02:11.627642 22100 net.cpp:84] Creating Layer pool3
I0724 09:02:11.627651 22100 net.cpp:406] pool3 <- conv6_sc
I0724 09:02:11.627674 22100 net.cpp:380] pool3 -> pool3
I0724 09:02:11.627739 22100 net.cpp:122] Setting up pool3
I0724 09:02:11.627751 22100 net.cpp:129] Top shape: 100 256 4 4 (409600)
I0724 09:02:11.627758 22100 net.cpp:137] Memory required for data: 389530000
I0724 09:02:11.627768 22100 layer_factory.hpp:77] Creating layer drop3
I0724 09:02:11.627789 22100 net.cpp:84] Creating Layer drop3
I0724 09:02:11.627799 22100 net.cpp:406] drop3 <- pool3
I0724 09:02:11.627820 22100 net.cpp:367] drop3 -> pool3 (in-place)
I0724 09:02:11.627858 22100 net.cpp:122] Setting up drop3
I0724 09:02:11.627868 22100 net.cpp:129] Top shape: 100 256 4 4 (409600)
I0724 09:02:11.627876 22100 net.cpp:137] Memory required for data: 391168400
I0724 09:02:11.627884 22100 layer_factory.hpp:77] Creating layer fc7
I0724 09:02:11.627918 22100 net.cpp:84] Creating Layer fc7
I0724 09:02:11.627928 22100 net.cpp:406] fc7 <- pool3
I0724 09:02:11.627951 22100 net.cpp:380] fc7 -> fc7
I0724 09:02:11.874295 22100 net.cpp:122] Setting up fc7
I0724 09:02:11.874331 22100 net.cpp:129] Top shape: 100 512 (51200)
I0724 09:02:11.874336 22100 net.cpp:137] Memory required for data: 391373200
I0724 09:02:11.874370 22100 layer_factory.hpp:77] Creating layer bn7_bn
I0724 09:02:11.874424 22100 net.cpp:84] Creating Layer bn7_bn
I0724 09:02:11.874439 22100 net.cpp:406] bn7_bn <- fc7
I0724 09:02:11.874477 22100 net.cpp:380] bn7_bn -> fc7_bn
I0724 09:02:11.874742 22100 net.cpp:122] Setting up bn7_bn
I0724 09:02:11.874752 22100 net.cpp:129] Top shape: 100 512 (51200)
I0724 09:02:11.874755 22100 net.cpp:137] Memory required for data: 391578000
I0724 09:02:11.874773 22100 layer_factory.hpp:77] Creating layer bn7_scal
I0724 09:02:11.874804 22100 net.cpp:84] Creating Layer bn7_scal
I0724 09:02:11.874830 22100 net.cpp:406] bn7_scal <- fc7_bn
I0724 09:02:11.874855 22100 net.cpp:380] bn7_scal -> fc7_sc
I0724 09:02:11.874953 22100 layer_factory.hpp:77] Creating layer bn7_scal
I0724 09:02:11.875138 22100 net.cpp:122] Setting up bn7_scal
I0724 09:02:11.875149 22100 net.cpp:129] Top shape: 100 512 (51200)
I0724 09:02:11.875164 22100 net.cpp:137] Memory required for data: 391782800
I0724 09:02:11.875181 22100 layer_factory.hpp:77] Creating layer relu7
I0724 09:02:11.875198 22100 net.cpp:84] Creating Layer relu7
I0724 09:02:11.875205 22100 net.cpp:406] relu7 <- fc7_sc
I0724 09:02:11.875218 22100 net.cpp:367] relu7 -> fc7_sc (in-place)
I0724 09:02:11.875638 22100 net.cpp:122] Setting up relu7
I0724 09:02:11.875648 22100 net.cpp:129] Top shape: 100 512 (51200)
I0724 09:02:11.875655 22100 net.cpp:137] Memory required for data: 391987600
I0724 09:02:11.875665 22100 layer_factory.hpp:77] Creating layer drop7
I0724 09:02:11.875684 22100 net.cpp:84] Creating Layer drop7
I0724 09:02:11.875692 22100 net.cpp:406] drop7 <- fc7_sc
I0724 09:02:11.875715 22100 net.cpp:367] drop7 -> fc7_sc (in-place)
I0724 09:02:11.875757 22100 net.cpp:122] Setting up drop7
I0724 09:02:11.875766 22100 net.cpp:129] Top shape: 100 512 (51200)
I0724 09:02:11.875773 22100 net.cpp:137] Memory required for data: 392192400
I0724 09:02:11.875783 22100 layer_factory.hpp:77] Creating layer fc8
I0724 09:02:11.875809 22100 net.cpp:84] Creating Layer fc8
I0724 09:02:11.875818 22100 net.cpp:406] fc8 <- fc7_sc
I0724 09:02:11.875843 22100 net.cpp:380] fc8 -> fc8
I0724 09:02:11.907454 22100 net.cpp:122] Setting up fc8
I0724 09:02:11.907480 22100 net.cpp:129] Top shape: 100 512 (51200)
I0724 09:02:11.907483 22100 net.cpp:137] Memory required for data: 392397200
I0724 09:02:11.907503 22100 layer_factory.hpp:77] Creating layer bn8_bn
I0724 09:02:11.907533 22100 net.cpp:84] Creating Layer bn8_bn
I0724 09:02:11.907547 22100 net.cpp:406] bn8_bn <- fc8
I0724 09:02:11.907570 22100 net.cpp:380] bn8_bn -> fc8_bn
I0724 09:02:11.907801 22100 net.cpp:122] Setting up bn8_bn
I0724 09:02:11.907814 22100 net.cpp:129] Top shape: 100 512 (51200)
I0724 09:02:11.907820 22100 net.cpp:137] Memory required for data: 392602000
I0724 09:02:11.907841 22100 layer_factory.hpp:77] Creating layer bn8_scal
I0724 09:02:11.907860 22100 net.cpp:84] Creating Layer bn8_scal
I0724 09:02:11.907866 22100 net.cpp:406] bn8_scal <- fc8_bn
I0724 09:02:11.907887 22100 net.cpp:380] bn8_scal -> fc8_sc
I0724 09:02:11.907963 22100 layer_factory.hpp:77] Creating layer bn8_scal
I0724 09:02:11.908123 22100 net.cpp:122] Setting up bn8_scal
I0724 09:02:11.908133 22100 net.cpp:129] Top shape: 100 512 (51200)
I0724 09:02:11.908140 22100 net.cpp:137] Memory required for data: 392806800
I0724 09:02:11.908157 22100 layer_factory.hpp:77] Creating layer relu8
I0724 09:02:11.908172 22100 net.cpp:84] Creating Layer relu8
I0724 09:02:11.908181 22100 net.cpp:406] relu8 <- fc8_sc
I0724 09:02:11.908201 22100 net.cpp:367] relu8 -> fc8_sc (in-place)
I0724 09:02:11.908808 22100 net.cpp:122] Setting up relu8
I0724 09:02:11.908820 22100 net.cpp:129] Top shape: 100 512 (51200)
I0724 09:02:11.908828 22100 net.cpp:137] Memory required for data: 393011600
I0724 09:02:11.908838 22100 layer_factory.hpp:77] Creating layer drop8
I0724 09:02:11.908857 22100 net.cpp:84] Creating Layer drop8
I0724 09:02:11.908865 22100 net.cpp:406] drop8 <- fc8_sc
I0724 09:02:11.908884 22100 net.cpp:367] drop8 -> fc8_sc (in-place)
I0724 09:02:11.908926 22100 net.cpp:122] Setting up drop8
I0724 09:02:11.908936 22100 net.cpp:129] Top shape: 100 512 (51200)
I0724 09:02:11.908942 22100 net.cpp:137] Memory required for data: 393216400
I0724 09:02:11.908952 22100 layer_factory.hpp:77] Creating layer fc9
I0724 09:02:11.908979 22100 net.cpp:84] Creating Layer fc9
I0724 09:02:11.908989 22100 net.cpp:406] fc9 <- fc8_sc
I0724 09:02:11.909014 22100 net.cpp:380] fc9 -> fc9
I0724 09:02:11.910204 22100 net.cpp:122] Setting up fc9
I0724 09:02:11.910218 22100 net.cpp:129] Top shape: 100 10 (1000)
I0724 09:02:11.910225 22100 net.cpp:137] Memory required for data: 393220400
I0724 09:02:11.910244 22100 layer_factory.hpp:77] Creating layer loss
I0724 09:02:11.910269 22100 net.cpp:84] Creating Layer loss
I0724 09:02:11.910277 22100 net.cpp:406] loss <- fc9
I0724 09:02:11.910295 22100 net.cpp:406] loss <- label
I0724 09:02:11.910333 22100 net.cpp:380] loss -> loss
I0724 09:02:11.910379 22100 layer_factory.hpp:77] Creating layer loss
…
I0724 09:02:11.911877 22100 net.cpp:294] The NetState phase (1) differed from the phase (0) specified by a rule in layer cifar
I0724 09:02:11.912097 22100 net.cpp:51] Initializing net from parameters: 
name: "CIFAR10_vgg"
state {
  phase: TEST
}
layer {
  name: "cifar"
  type: "Data"
  top: "data"
  top: "label"
  include {
    phase: TEST
  }
  transform_param {
    mirror: false
    crop_size: 32
    mean_file: "examples/cifar10/mean.binaryproto"
  }
  data_param {
    source: "examples/cifar10/cifar10_test_lmdb"
    batch_size: 100
    backend: LMDB
  }
}
layer {
  name: "conv1"
  type: "BinaryConvolution"
  bottom: "data"
  top: "conv1"
  param {
    lr_mult: 1
    decay_mult: 1
  }
  convolution_param {
    num_output: 64
    bias_term: false
    pad: 1
    kernel_size: 3
    stride: 1
    weight_filler {
      type: "gaussian"
      std: 0.01
    }
  }
  debug_param {
    xnorno_grad: false
  }
}
layer {
  name: "bn1_bn"
  type: "BatchNorm"
  bottom: "conv1"
  top: "conv1_bn"
}
layer {
  name: "bn1_scal"
  type: "Scale"
  bottom: "conv1_bn"
  top: "conv1_sc"
  scale_param {
    bias_term: true
  }
}
layer {
  name: "relu1"
  type: "ReLU"
  bottom: "conv1_sc"
  top: "conv1_sc"
}
layer {
  name: "conv2"
  type: "BinaryConvolution"
  bottom: "conv1_sc"
  top: "conv2"
  param {
    lr_mult: 1
    decay_mult: 1
  }
  convolution_param {
    num_output: 64
    bias_term: false
    pad: 1
    kernel_size: 3
    stride: 1
    weight_filler {
      type: "gaussian"
      std: 0.01
    }
  }
  debug_param {
    xnorno_grad: false
  }
}
layer {
  name: "bn2_bn"
  type: "BatchNorm"
  bottom: "conv2"
  top: "conv2_bn"
}
layer {
  name: "bn2_scal"
  type: "Scale"
  bottom: "conv2_bn"
  top: "conv2_sc"
  scale_param {
    bias_term: true
  }
}
layer {
  name: "relu2"
  type: "ReLU"
  bottom: "conv2_sc"
  top: "conv2_sc"
}
layer {
  name: "pool1"
  type: "Pooling"
  bottom: "conv2_sc"
  top: "pool1"
  pooling_param {
    pool: MAX
    kernel_size: 2
    stride: 2
  }
}
layer {
  name: "drop1"
  type: "Dropout"
  bottom: "pool1"
  top: "pool1"
  dropout_param {
    dropout_ratio: 0.25
  }
}
layer {
  name: "conv3"
  type: "BinaryConvolution"
  bottom: "pool1"
  top: "conv3"
  param {
    lr_mult: 1
    decay_mult: 1
  }
  convolution_param {
    num_output: 128
    bias_term: false
    pad: 1
    kernel_size: 3
    stride: 1
    weight_filler {
      type: "gaussian"
      std: 0.01
    }
  }
  debug_param {
    xnorno_grad: false
  }
}
layer {
  name: "bn3_bn"
  type: "BatchNorm"
  bottom: "conv3"
  top: "conv3_bn"
}
layer {
  name: "bn3_scal"
  type: "Scale"
  bottom: "conv3_bn"
  top: "conv3_sc"
  scale_param {
    bias_term: true
  }
}
layer {
  name: "relu3"
  type: "ReLU"
  bottom: "conv3_sc"
  top: "conv3_sc"
}
layer {
  name: "conv4"
  type: "BinaryConvolution"
  bottom: "conv3_sc"
  top: "conv4"
  param {
    lr_mult: 1
    decay_mult: 1
  }
  convolution_param {
    num_output: 128
    bias_term: false
    pad: 1
    kernel_size: 3
    stride: 1
    weight_filler {
      type: "gaussian"
      std: 0.01
    }
  }
  debug_param {
    xnorno_grad: false
  }
}
layer {
  name: "bn4_bn"
  type: "BatchNorm"
  bottom: "conv4"
  top: "conv4_bn"
}
layer {
  name: "bn4_scal"
  type: "Scale"
  bottom: "conv4_bn"
  top: "conv4_sc"
  scale_param {
    bias_term: true
  }
}
layer {
  name: "relu4"
  type: "ReLU"
  bottom: "conv4_sc"
  top: "conv4_sc"
}
layer {
  name: "pool2"
  type: "Pooling"
  bottom: "conv4_sc"
  top: "pool2"
  pooling_param {
    pool: MAX
    kernel_size: 2
    stride: 2
  }
}
layer {
  name: "drop2"
  type: "Dropout"
  bottom: "pool2"
  top: "pool2"
  dropout_param {
    dropout_ratio: 0.25
  }
}
layer {
  name: "conv5"
  type: "BinaryConvolution"
  bottom: "pool2"
  top: "conv5"
  param {
    lr_mult: 1
    decay_mult: 1
  }
  convolution_param {
    num_output: 256
    bias_term: false
    pad: 1
    kernel_size: 3
    stride: 1
    weight_filler {
      type: "gaussian"
      std: 0.01
    }
  }
  debug_param {
    xnorno_grad: false
  }
}
layer {
  name: "bn5_bn"
  type: "BatchNorm"
  bottom: "conv5"
  top: "conv5_bn"
}
layer {
  name: "bn5_scal"
  type: "Scale"
  bottom: "conv5_bn"
  top: "conv5_sc"
  scale_param {
    bias_term: true
  }
}
layer {
  name: "relu5"
  type: "ReLU"
  bottom: "conv5_sc"
  top: "conv5_sc"
}
layer {
  name: "conv6"
  type: "BinaryConvolution"
  bottom: "conv5_sc"
  top: "conv6"
  param {
    lr_mult: 1
    decay_mult: 1
  }
  convolution_param {
    num_output: 256
    bias_term: false
    pad: 1
    kernel_size: 3
    stride: 1
    weight_filler {
      type: "gaussian"
      std: 0.01
    }
  }
  debug_param {
    xnorno_grad: false
  }
}
layer {
  name: "bn6_bn"
  type: "BatchNorm"
  bottom: "conv6"
  top: "conv6_bn"
}
layer {
  name: "bn6_scal"
  type: "Scale"
  bottom: "conv6_bn"
  top: "conv6_sc"
  scale_param {
    bias_term: true
  }
}
layer {
  name: "relu6"
  type: "ReLU"
  bottom: "conv6_sc"
  top: "conv6_sc"
}
layer {
  name: "pool3"
  type: "Pooling"
  bottom: "conv6_sc"
  top: "pool3"
  pooling_param {
    pool: MAX
    kernel_size: 2
    stride: 2
  }
}
layer {
  name: "drop3"
  type: "Dropout"
  bottom: "pool3"
  top: "pool3"
  dropout_param {
    dropout_ratio: 0.25
  }
}
layer {
  name: "fc7"
  type: "BinaryInnerProduct"
  bottom: "pool3"
  top: "fc7"
  param {
    lr_mult: 1
    decay_mult: 1
  }
  inner_product_param {
    num_output: 512
    bias_term: false
    weight_filler {
      type: "gaussian"
      std: 0.01
    }
  }
  debug_param {
    xnorno_grad: false
  }
}
layer {
  name: "bn7_bn"
  type: "BatchNorm"
  bottom: "fc7"
  top: "fc7_bn"
}
layer {
  name: "bn7_scal"
  type: "Scale"
  bottom: "fc7_bn"
  top: "fc7_sc"
  scale_param {
    bias_term: true
  }
}
layer {
  name: "relu7"
  type: "ReLU"
  bottom: "fc7_sc"
  top: "fc7_sc"
}
layer {
  name: "drop7"
  type: "Dropout"
  bottom: "fc7_sc"
  top: "fc7_sc"
  dropout_param {
    dropout_ratio: 0.5
  }
}
layer {
  name: "fc8"
  type: "BinaryInnerProduct"
  bottom: "fc7_sc"
  top: "fc8"
  param {
    lr_mult: 1
    decay_mult: 1
  }
  inner_product_param {
    num_output: 512
    bias_term: false
    weight_filler {
      type: "gaussian"
      std: 0.01
    }
  }
  debug_param {
    xnorno_grad: false
  }
}
layer {
  name: "bn8_bn"
  type: "BatchNorm"
  bottom: "fc8"
  top: "fc8_bn"
}
layer {
  name: "bn8_scal"
  type: "Scale"
  bottom: "fc8_bn"
  top: "fc8_sc"
  scale_param {
    bias_term: true
  }
}
layer {
  name: "relu8"
  type: "ReLU"
  bottom: "fc8_sc"
  top: "fc8_sc"
}
layer {
  name: "drop8"
  type: "Dropout"
  bottom: "fc8_sc"
  top: "fc8_sc"
  dropout_param {
    dropout_ratio: 0.5
  }
}
layer {
  name: "fc9"
  type: "BinaryInnerProduct"
  bottom: "fc8_sc"
  top: "fc9"
  param {
    lr_mult: 1
    decay_mult: 1
  }
  param {
    lr_mult: 2
    decay_mult: 0
  }
  inner_product_param {
    num_output: 10
    weight_filler {
      type: "gaussian"
      std: 0.01
    }
    bias_filler {
      type: "constant"
      value: 0.01
    }
  }
  debug_param {
    xnorno_grad: false
  }
}
layer {
  name: "accuracy"
  type: "Accuracy"
  bottom: "fc9"
  bottom: "label"
  top: "accuracy"
  include {
    phase: TEST
  }
}
layer {
  name: "loss"
  type: "SoftmaxWithLoss"
  bottom: "fc9"
  bottom: "label"
  top: "loss"
}
I0724 09:02:11.912622 22100 layer_factory.hpp:77] Creating layer cifar
I0724 09:02:11.912703 22100 db_lmdb.cpp:35] Opened lmdb examples/cifar10/cifar10_test_lmdb
I0724 09:02:11.912726 22100 net.cpp:84] Creating Layer cifar
I0724 09:02:11.912742 22100 net.cpp:380] cifar -> data
I0724 09:02:11.912770 22100 net.cpp:380] cifar -> label
I0724 09:02:11.912793 22100 data_transformer.cpp:25] Loading mean file from: examples/cifar10/mean.binaryproto
I0724 09:02:11.913038 22100 data_layer.cpp:45] output data size: 100,3,32,32
I0724 09:02:11.915920 22100 base_data_layer.cpp:72] Initializing prefetch
I0724 09:02:11.915988 22100 base_data_layer.cpp:75] Prefetch initialized.
I0724 09:02:11.915997 22100 net.cpp:122] Setting up cifar
I0724 09:02:11.916016 22100 net.cpp:129] Top shape: 100 3 32 32 (307200)
I0724 09:02:11.916023 22100 net.cpp:129] Top shape: 100 (100)
I0724 09:02:11.916028 22100 net.cpp:137] Memory required for data: 1229200
I0724 09:02:11.916059 22100 layer_factory.hpp:77] Creating layer label_cifar_1_split
I0724 09:02:11.916091 22100 net.cpp:84] Creating Layer label_cifar_1_split
I0724 09:02:11.916103 22100 net.cpp:406] label_cifar_1_split <- label
I0724 09:02:11.916139 22100 net.cpp:380] label_cifar_1_split -> label_cifar_1_split_0
I0724 09:02:11.916170 22100 net.cpp:380] label_cifar_1_split -> label_cifar_1_split_1
I0724 09:02:11.916265 22100 net.cpp:122] Setting up label_cifar_1_split
I0724 09:02:11.916278 22100 net.cpp:129] Top shape: 100 (100)
I0724 09:02:11.916304 22100 net.cpp:129] Top shape: 100 (100)
I0724 09:02:11.916316 22100 net.cpp:137] Memory required for data: 1230000
I0724 09:02:11.916323 22100 layer_factory.hpp:77] Creating layer conv1
I0724 09:02:11.916354 22100 net.cpp:84] Creating Layer conv1
I0724 09:02:11.916373 22100 net.cpp:406] conv1 <- data
I0724 09:02:11.916409 22100 net.cpp:380] conv1 -> conv1
I0724 09:02:11.917130 22100 net.cpp:122] Setting up conv1
I0724 09:02:11.917145 22100 net.cpp:129] Top shape: 100 64 32 32 (6553600)
I0724 09:02:11.917153 22100 net.cpp:137] Memory required for data: 27444400
I0724 09:02:11.917181 22100 layer_factory.hpp:77] Creating layer bn1_bn
I0724 09:02:11.917201 22100 net.cpp:84] Creating Layer bn1_bn
I0724 09:02:11.917209 22100 net.cpp:406] bn1_bn <- conv1
I0724 09:02:11.917232 22100 net.cpp:380] bn1_bn -> conv1_bn
I0724 09:02:11.917481 22100 net.cpp:122] Setting up bn1_bn
I0724 09:02:11.917495 22100 net.cpp:129] Top shape: 100 64 32 32 (6553600)
I0724 09:02:11.917501 22100 net.cpp:137] Memory required for data: 53658800
I0724 09:02:11.917536 22100 layer_factory.hpp:77] Creating layer bn1_scal
I0724 09:02:11.917558 22100 net.cpp:84] Creating Layer bn1_scal
I0724 09:02:11.917567 22100 net.cpp:406] bn1_scal <- conv1_bn
I0724 09:02:11.917582 22100 net.cpp:380] bn1_scal -> conv1_sc
I0724 09:02:11.917649 22100 layer_factory.hpp:77] Creating layer bn1_scal
I0724 09:02:11.917814 22100 net.cpp:122] Setting up bn1_scal
I0724 09:02:11.917824 22100 net.cpp:129] Top shape: 100 64 32 32 (6553600)
I0724 09:02:11.917829 22100 net.cpp:137] Memory required for data: 79873200
I0724 09:02:11.917847 22100 layer_factory.hpp:77] Creating layer relu1
I0724 09:02:11.917862 22100 net.cpp:84] Creating Layer relu1
I0724 09:02:11.917870 22100 net.cpp:406] relu1 <- conv1_sc
I0724 09:02:11.917884 22100 net.cpp:367] relu1 -> conv1_sc (in-place)
I0724 09:02:11.918401 22100 net.cpp:122] Setting up relu1
I0724 09:02:11.918412 22100 net.cpp:129] Top shape: 100 64 32 32 (6553600)
I0724 09:02:11.918417 22100 net.cpp:137] Memory required for data: 106087600
I0724 09:02:11.918423 22100 layer_factory.hpp:77] Creating layer conv2
I0724 09:02:11.918448 22100 net.cpp:84] Creating Layer conv2
I0724 09:02:11.918459 22100 net.cpp:406] conv2 <- conv1_sc
I0724 09:02:11.918488 22100 net.cpp:380] conv2 -> conv2
I0724 09:02:11.923287 22100 net.cpp:122] Setting up conv2
I0724 09:02:11.923300 22100 net.cpp:129] Top shape: 100 64 32 32 (6553600)
I0724 09:02:11.923305 22100 net.cpp:137] Memory required for data: 132302000
I0724 09:02:11.923331 22100 layer_factory.hpp:77] Creating layer bn2_bn
I0724 09:02:11.923348 22100 net.cpp:84] Creating Layer bn2_bn
I0724 09:02:11.923358 22100 net.cpp:406] bn2_bn <- conv2
I0724 09:02:11.923377 22100 net.cpp:380] bn2_bn -> conv2_bn
I0724 09:02:11.923638 22100 net.cpp:122] Setting up bn2_bn
I0724 09:02:11.923652 22100 net.cpp:129] Top shape: 100 64 32 32 (6553600)
I0724 09:02:11.923660 22100 net.cpp:137] Memory required for data: 158516400
I0724 09:02:11.923692 22100 layer_factory.hpp:77] Creating layer bn2_scal
I0724 09:02:11.923734 22100 net.cpp:84] Creating Layer bn2_scal
I0724 09:02:11.923744 22100 net.cpp:406] bn2_scal <- conv2_bn
I0724 09:02:11.923766 22100 net.cpp:380] bn2_scal -> conv2_sc
I0724 09:02:11.923849 22100 layer_factory.hpp:77] Creating layer bn2_scal
I0724 09:02:11.924029 22100 net.cpp:122] Setting up bn2_scal
I0724 09:02:11.924041 22100 net.cpp:129] Top shape: 100 64 32 32 (6553600)
I0724 09:02:11.924058 22100 net.cpp:137] Memory required for data: 184730800
I0724 09:02:11.924077 22100 layer_factory.hpp:77] Creating layer relu2
I0724 09:02:11.924091 22100 net.cpp:84] Creating Layer relu2
I0724 09:02:11.924106 22100 net.cpp:406] relu2 <- conv2_sc
I0724 09:02:11.924129 22100 net.cpp:367] relu2 -> conv2_sc (in-place)
I0724 09:02:11.924688 22100 net.cpp:122] Setting up relu2
I0724 09:02:11.924700 22100 net.cpp:129] Top shape: 100 64 32 32 (6553600)
I0724 09:02:11.924708 22100 net.cpp:137] Memory required for data: 210945200
I0724 09:02:11.924720 22100 layer_factory.hpp:77] Creating layer pool1
I0724 09:02:11.924741 22100 net.cpp:84] Creating Layer pool1
I0724 09:02:11.924751 22100 net.cpp:406] pool1 <- conv2_sc
I0724 09:02:11.924773 22100 net.cpp:380] pool1 -> pool1
I0724 09:02:11.924840 22100 net.cpp:122] Setting up pool1
I0724 09:02:11.924854 22100 net.cpp:129] Top shape: 100 64 16 16 (1638400)
I0724 09:02:11.924861 22100 net.cpp:137] Memory required for data: 217498800
I0724 09:02:11.924871 22100 layer_factory.hpp:77] Creating layer drop1
I0724 09:02:11.924891 22100 net.cpp:84] Creating Layer drop1
I0724 09:02:11.924901 22100 net.cpp:406] drop1 <- pool1
I0724 09:02:11.924921 22100 net.cpp:367] drop1 -> pool1 (in-place)
I0724 09:02:11.924960 22100 net.cpp:122] Setting up drop1
I0724 09:02:11.924971 22100 net.cpp:129] Top shape: 100 64 16 16 (1638400)
I0724 09:02:11.924978 22100 net.cpp:137] Memory required for data: 224052400
I0724 09:02:11.924988 22100 layer_factory.hpp:77] Creating layer conv3
I0724 09:02:11.925014 22100 net.cpp:84] Creating Layer conv3
I0724 09:02:11.925029 22100 net.cpp:406] conv3 <- pool1
I0724 09:02:11.925053 22100 net.cpp:380] conv3 -> conv3
I0724 09:02:11.934675 22100 net.cpp:122] Setting up conv3
I0724 09:02:11.934693 22100 net.cpp:129] Top shape: 100 128 16 16 (3276800)
I0724 09:02:11.934701 22100 net.cpp:137] Memory required for data: 237159600
I0724 09:02:11.934720 22100 layer_factory.hpp:77] Creating layer bn3_bn
I0724 09:02:11.934741 22100 net.cpp:84] Creating Layer bn3_bn
I0724 09:02:11.934752 22100 net.cpp:406] bn3_bn <- conv3
I0724 09:02:11.934775 22100 net.cpp:380] bn3_bn -> conv3_bn
I0724 09:02:11.935041 22100 net.cpp:122] Setting up bn3_bn
I0724 09:02:11.935061 22100 net.cpp:129] Top shape: 100 128 16 16 (3276800)
I0724 09:02:11.935065 22100 net.cpp:137] Memory required for data: 250266800
I0724 09:02:11.935091 22100 layer_factory.hpp:77] Creating layer bn3_scal
I0724 09:02:11.935107 22100 net.cpp:84] Creating Layer bn3_scal
I0724 09:02:11.935115 22100 net.cpp:406] bn3_scal <- conv3_bn
I0724 09:02:11.935137 22100 net.cpp:380] bn3_scal -> conv3_sc
I0724 09:02:11.935210 22100 layer_factory.hpp:77] Creating layer bn3_scal
I0724 09:02:11.935365 22100 net.cpp:122] Setting up bn3_scal
I0724 09:02:11.935379 22100 net.cpp:129] Top shape: 100 128 16 16 (3276800)
I0724 09:02:11.935384 22100 net.cpp:137] Memory required for data: 263374000
I0724 09:02:11.935423 22100 layer_factory.hpp:77] Creating layer relu3
I0724 09:02:11.935456 22100 net.cpp:84] Creating Layer relu3
I0724 09:02:11.935464 22100 net.cpp:406] relu3 <- conv3_sc
I0724 09:02:11.935482 22100 net.cpp:367] relu3 -> conv3_sc (in-place)
I0724 09:02:11.935873 22100 net.cpp:122] Setting up relu3
I0724 09:02:11.935883 22100 net.cpp:129] Top shape: 100 128 16 16 (3276800)
I0724 09:02:11.935890 22100 net.cpp:137] Memory required for data: 276481200
I0724 09:02:11.935899 22100 layer_factory.hpp:77] Creating layer conv4
I0724 09:02:11.935931 22100 net.cpp:84] Creating Layer conv4
I0724 09:02:11.935940 22100 net.cpp:406] conv4 <- conv3_sc
I0724 09:02:11.935961 22100 net.cpp:380] conv4 -> conv4
I0724 09:02:11.953416 22100 net.cpp:122] Setting up conv4
I0724 09:02:11.953430 22100 net.cpp:129] Top shape: 100 128 16 16 (3276800)
I0724 09:02:11.953433 22100 net.cpp:137] Memory required for data: 289588400
I0724 09:02:11.953444 22100 layer_factory.hpp:77] Creating layer bn4_bn
I0724 09:02:11.953470 22100 net.cpp:84] Creating Layer bn4_bn
I0724 09:02:11.953482 22100 net.cpp:406] bn4_bn <- conv4
I0724 09:02:11.953503 22100 net.cpp:380] bn4_bn -> conv4_bn
I0724 09:02:11.953776 22100 net.cpp:122] Setting up bn4_bn
I0724 09:02:11.953795 22100 net.cpp:129] Top shape: 100 128 16 16 (3276800)
I0724 09:02:11.953799 22100 net.cpp:137] Memory required for data: 302695600
I0724 09:02:11.953821 22100 layer_factory.hpp:77] Creating layer bn4_scal
I0724 09:02:11.953840 22100 net.cpp:84] Creating Layer bn4_scal
I0724 09:02:11.953877 22100 net.cpp:406] bn4_scal <- conv4_bn
I0724 09:02:11.953896 22100 net.cpp:380] bn4_scal -> conv4_sc
I0724 09:02:11.953979 22100 layer_factory.hpp:77] Creating layer bn4_scal
I0724 09:02:11.954143 22100 net.cpp:122] Setting up bn4_scal
I0724 09:02:11.954155 22100 net.cpp:129] Top shape: 100 128 16 16 (3276800)
I0724 09:02:11.954164 22100 net.cpp:137] Memory required for data: 315802800
I0724 09:02:11.954183 22100 layer_factory.hpp:77] Creating layer relu4
I0724 09:02:11.954200 22100 net.cpp:84] Creating Layer relu4
I0724 09:02:11.954210 22100 net.cpp:406] relu4 <- conv4_sc
I0724 09:02:11.954228 22100 net.cpp:367] relu4 -> conv4_sc (in-place)
I0724 09:02:11.954799 22100 net.cpp:122] Setting up relu4
I0724 09:02:11.954813 22100 net.cpp:129] Top shape: 100 128 16 16 (3276800)
I0724 09:02:11.954819 22100 net.cpp:137] Memory required for data: 328910000
I0724 09:02:11.954829 22100 layer_factory.hpp:77] Creating layer pool2
I0724 09:02:11.954849 22100 net.cpp:84] Creating Layer pool2
I0724 09:02:11.954856 22100 net.cpp:406] pool2 <- conv4_sc
I0724 09:02:11.954874 22100 net.cpp:380] pool2 -> pool2
I0724 09:02:11.954936 22100 net.cpp:122] Setting up pool2
I0724 09:02:11.954946 22100 net.cpp:129] Top shape: 100 128 8 8 (819200)
I0724 09:02:11.954952 22100 net.cpp:137] Memory required for data: 332186800
I0724 09:02:11.954957 22100 layer_factory.hpp:77] Creating layer drop2
I0724 09:02:11.954977 22100 net.cpp:84] Creating Layer drop2
I0724 09:02:11.954985 22100 net.cpp:406] drop2 <- pool2
I0724 09:02:11.955005 22100 net.cpp:367] drop2 -> pool2 (in-place)
I0724 09:02:11.955046 22100 net.cpp:122] Setting up drop2
I0724 09:02:11.955056 22100 net.cpp:129] Top shape: 100 128 8 8 (819200)
I0724 09:02:11.955063 22100 net.cpp:137] Memory required for data: 335463600
I0724 09:02:11.955073 22100 layer_factory.hpp:77] Creating layer conv5
I0724 09:02:11.955096 22100 net.cpp:84] Creating Layer conv5
I0724 09:02:11.955106 22100 net.cpp:406] conv5 <- pool2
I0724 09:02:11.955130 22100 net.cpp:380] conv5 -> conv5
I0724 09:02:11.990489 22100 net.cpp:122] Setting up conv5
I0724 09:02:11.990511 22100 net.cpp:129] Top shape: 100 256 8 8 (1638400)
I0724 09:02:11.990515 22100 net.cpp:137] Memory required for data: 342017200
I0724 09:02:11.990532 22100 layer_factory.hpp:77] Creating layer bn5_bn
I0724 09:02:11.990566 22100 net.cpp:84] Creating Layer bn5_bn
I0724 09:02:11.990597 22100 net.cpp:406] bn5_bn <- conv5
I0724 09:02:11.990638 22100 net.cpp:380] bn5_bn -> conv5_bn
I0724 09:02:11.990906 22100 net.cpp:122] Setting up bn5_bn
I0724 09:02:11.990916 22100 net.cpp:129] Top shape: 100 256 8 8 (1638400)
I0724 09:02:11.990919 22100 net.cpp:137] Memory required for data: 348570800
I0724 09:02:11.990937 22100 layer_factory.hpp:77] Creating layer bn5_scal
I0724 09:02:11.990967 22100 net.cpp:84] Creating Layer bn5_scal
I0724 09:02:11.990993 22100 net.cpp:406] bn5_scal <- conv5_bn
I0724 09:02:11.991009 22100 net.cpp:380] bn5_scal -> conv5_sc
I0724 09:02:11.991111 22100 layer_factory.hpp:77] Creating layer bn5_scal
I0724 09:02:11.991286 22100 net.cpp:122] Setting up bn5_scal
I0724 09:02:11.991297 22100 net.cpp:129] Top shape: 100 256 8 8 (1638400)
I0724 09:02:11.991300 22100 net.cpp:137] Memory required for data: 355124400
I0724 09:02:11.991312 22100 layer_factory.hpp:77] Creating layer relu5
I0724 09:02:11.991338 22100 net.cpp:84] Creating Layer relu5
I0724 09:02:11.991349 22100 net.cpp:406] relu5 <- conv5_sc
I0724 09:02:11.991369 22100 net.cpp:367] relu5 -> conv5_sc (in-place)
I0724 09:02:11.991772 22100 net.cpp:122] Setting up relu5
I0724 09:02:11.991783 22100 net.cpp:129] Top shape: 100 256 8 8 (1638400)
I0724 09:02:11.991791 22100 net.cpp:137] Memory required for data: 361678000
I0724 09:02:11.991798 22100 layer_factory.hpp:77] Creating layer conv6
I0724 09:02:11.991827 22100 net.cpp:84] Creating Layer conv6
I0724 09:02:11.991835 22100 net.cpp:406] conv6 <- conv5_sc
I0724 09:02:11.991861 22100 net.cpp:380] conv6 -> conv6
I0724 09:02:12.061628 22100 net.cpp:122] Setting up conv6
I0724 09:02:12.061668 22100 net.cpp:129] Top shape: 100 256 8 8 (1638400)
I0724 09:02:12.061710 22100 net.cpp:137] Memory required for data: 368231600
I0724 09:02:12.061741 22100 layer_factory.hpp:77] Creating layer bn6_bn
I0724 09:02:12.061786 22100 net.cpp:84] Creating Layer bn6_bn
I0724 09:02:12.061810 22100 net.cpp:406] bn6_bn <- conv6
I0724 09:02:12.061851 22100 net.cpp:380] bn6_bn -> conv6_bn
I0724 09:02:12.062114 22100 net.cpp:122] Setting up bn6_bn
I0724 09:02:12.062125 22100 net.cpp:129] Top shape: 100 256 8 8 (1638400)
I0724 09:02:12.062129 22100 net.cpp:137] Memory required for data: 374785200
I0724 09:02:12.062171 22100 layer_factory.hpp:77] Creating layer bn6_scal
I0724 09:02:12.062209 22100 net.cpp:84] Creating Layer bn6_scal
I0724 09:02:12.062216 22100 net.cpp:406] bn6_scal <- conv6_bn
I0724 09:02:12.062237 22100 net.cpp:380] bn6_scal -> conv6_sc
I0724 09:02:12.062368 22100 layer_factory.hpp:77] Creating layer bn6_scal
I0724 09:02:12.062544 22100 net.cpp:122] Setting up bn6_scal
I0724 09:02:12.062556 22100 net.cpp:129] Top shape: 100 256 8 8 (1638400)
I0724 09:02:12.062566 22100 net.cpp:137] Memory required for data: 381338800
I0724 09:02:12.062585 22100 layer_factory.hpp:77] Creating layer relu6
I0724 09:02:12.062602 22100 net.cpp:84] Creating Layer relu6
I0724 09:02:12.062611 22100 net.cpp:406] relu6 <- conv6_sc
I0724 09:02:12.062633 22100 net.cpp:367] relu6 -> conv6_sc (in-place)
I0724 09:02:12.063252 22100 net.cpp:122] Setting up relu6
I0724 09:02:12.063266 22100 net.cpp:129] Top shape: 100 256 8 8 (1638400)
I0724 09:02:12.063273 22100 net.cpp:137] Memory required for data: 387892400
I0724 09:02:12.063284 22100 layer_factory.hpp:77] Creating layer pool3
I0724 09:02:12.063307 22100 net.cpp:84] Creating Layer pool3
I0724 09:02:12.063316 22100 net.cpp:406] pool3 <- conv6_sc
I0724 09:02:12.063339 22100 net.cpp:380] pool3 -> pool3
I0724 09:02:12.063407 22100 net.cpp:122] Setting up pool3
I0724 09:02:12.063419 22100 net.cpp:129] Top shape: 100 256 4 4 (409600)
I0724 09:02:12.063426 22100 net.cpp:137] Memory required for data: 389530800
I0724 09:02:12.063436 22100 layer_factory.hpp:77] Creating layer drop3
I0724 09:02:12.063457 22100 net.cpp:84] Creating Layer drop3
I0724 09:02:12.063465 22100 net.cpp:406] drop3 <- pool3
I0724 09:02:12.063485 22100 net.cpp:367] drop3 -> pool3 (in-place)
I0724 09:02:12.063526 22100 net.cpp:122] Setting up drop3
I0724 09:02:12.063536 22100 net.cpp:129] Top shape: 100 256 4 4 (409600)
I0724 09:02:12.063544 22100 net.cpp:137] Memory required for data: 391169200
I0724 09:02:12.063554 22100 layer_factory.hpp:77] Creating layer fc7
I0724 09:02:12.063590 22100 net.cpp:84] Creating Layer fc7
I0724 09:02:12.063599 22100 net.cpp:406] fc7 <- pool3
I0724 09:02:12.063622 22100 net.cpp:380] fc7 -> fc7
I0724 09:02:12.309227 22100 net.cpp:122] Setting up fc7
I0724 09:02:12.309258 22100 net.cpp:129] Top shape: 100 512 (51200)
I0724 09:02:12.309263 22100 net.cpp:137] Memory required for data: 391374000
I0724 09:02:12.309298 22100 layer_factory.hpp:77] Creating layer bn7_bn
I0724 09:02:12.309340 22100 net.cpp:84] Creating Layer bn7_bn
I0724 09:02:12.309355 22100 net.cpp:406] bn7_bn <- fc7
I0724 09:02:12.309402 22100 net.cpp:380] bn7_bn -> fc7_bn
I0724 09:02:12.309725 22100 net.cpp:122] Setting up bn7_bn
I0724 09:02:12.309736 22100 net.cpp:129] Top shape: 100 512 (51200)
I0724 09:02:12.309739 22100 net.cpp:137] Memory required for data: 391578800
I0724 09:02:12.309759 22100 layer_factory.hpp:77] Creating layer bn7_scal
I0724 09:02:12.309800 22100 net.cpp:84] Creating Layer bn7_scal
I0724 09:02:12.309818 22100 net.cpp:406] bn7_scal <- fc7_bn
I0724 09:02:12.309845 22100 net.cpp:380] bn7_scal -> fc7_sc
I0724 09:02:12.309945 22100 layer_factory.hpp:77] Creating layer bn7_scal
I0724 09:02:12.310147 22100 net.cpp:122] Setting up bn7_scal
I0724 09:02:12.310158 22100 net.cpp:129] Top shape: 100 512 (51200)
I0724 09:02:12.310166 22100 net.cpp:137] Memory required for data: 391783600
I0724 09:02:12.310185 22100 layer_factory.hpp:77] Creating layer relu7
I0724 09:02:12.310201 22100 net.cpp:84] Creating Layer relu7
I0724 09:02:12.310210 22100 net.cpp:406] relu7 <- fc7_sc
I0724 09:02:12.310250 22100 net.cpp:367] relu7 -> fc7_sc (in-place)
I0724 09:02:12.310910 22100 net.cpp:122] Setting up relu7
I0724 09:02:12.310922 22100 net.cpp:129] Top shape: 100 512 (51200)
I0724 09:02:12.310930 22100 net.cpp:137] Memory required for data: 391988400
I0724 09:02:12.310948 22100 layer_factory.hpp:77] Creating layer drop7
I0724 09:02:12.310968 22100 net.cpp:84] Creating Layer drop7
I0724 09:02:12.310976 22100 net.cpp:406] drop7 <- fc7_sc
I0724 09:02:12.311010 22100 net.cpp:367] drop7 -> fc7_sc (in-place)
I0724 09:02:12.311051 22100 net.cpp:122] Setting up drop7
I0724 09:02:12.311069 22100 net.cpp:129] Top shape: 100 512 (51200)
I0724 09:02:12.311082 22100 net.cpp:137] Memory required for data: 392193200
I0724 09:02:12.311089 22100 layer_factory.hpp:77] Creating layer fc8
I0724 09:02:12.311113 22100 net.cpp:84] Creating Layer fc8
I0724 09:02:12.311131 22100 net.cpp:406] fc8 <- fc7_sc
I0724 09:02:12.311159 22100 net.cpp:380] fc8 -> fc8
I0724 09:02:12.342934 22100 net.cpp:122] Setting up fc8
I0724 09:02:12.342958 22100 net.cpp:129] Top shape: 100 512 (51200)
I0724 09:02:12.342963 22100 net.cpp:137] Memory required for data: 392398000
I0724 09:02:12.342979 22100 layer_factory.hpp:77] Creating layer bn8_bn
I0724 09:02:12.342998 22100 net.cpp:84] Creating Layer bn8_bn
I0724 09:02:12.343009 22100 net.cpp:406] bn8_bn <- fc8
I0724 09:02:12.343029 22100 net.cpp:380] bn8_bn -> fc8_bn
I0724 09:02:12.343276 22100 net.cpp:122] Setting up bn8_bn
I0724 09:02:12.343287 22100 net.cpp:129] Top shape: 100 512 (51200)
I0724 09:02:12.343291 22100 net.cpp:137] Memory required for data: 392602800
I0724 09:02:12.343309 22100 layer_factory.hpp:77] Creating layer bn8_scal
I0724 09:02:12.343327 22100 net.cpp:84] Creating Layer bn8_scal
I0724 09:02:12.343335 22100 net.cpp:406] bn8_scal <- fc8_bn
I0724 09:02:12.343350 22100 net.cpp:380] bn8_scal -> fc8_sc
I0724 09:02:12.343417 22100 layer_factory.hpp:77] Creating layer bn8_scal
I0724 09:02:12.343580 22100 net.cpp:122] Setting up bn8_scal
I0724 09:02:12.343590 22100 net.cpp:129] Top shape: 100 512 (51200)
I0724 09:02:12.343593 22100 net.cpp:137] Memory required for data: 392807600
I0724 09:02:12.343605 22100 layer_factory.hpp:77] Creating layer relu8
I0724 09:02:12.343618 22100 net.cpp:84] Creating Layer relu8
I0724 09:02:12.343626 22100 net.cpp:406] relu8 <- fc8_sc
I0724 09:02:12.343641 22100 net.cpp:367] relu8 -> fc8_sc (in-place)
I0724 09:02:12.344048 22100 net.cpp:122] Setting up relu8
I0724 09:02:12.344066 22100 net.cpp:129] Top shape: 100 512 (51200)
I0724 09:02:12.344070 22100 net.cpp:137] Memory required for data: 393012400
I0724 09:02:12.344079 22100 layer_factory.hpp:77] Creating layer drop8
I0724 09:02:12.344097 22100 net.cpp:84] Creating Layer drop8
I0724 09:02:12.344117 22100 net.cpp:406] drop8 <- fc8_sc
I0724 09:02:12.344146 22100 net.cpp:367] drop8 -> fc8_sc (in-place)
I0724 09:02:12.344188 22100 net.cpp:122] Setting up drop8
I0724 09:02:12.344199 22100 net.cpp:129] Top shape: 100 512 (51200)
I0724 09:02:12.344208 22100 net.cpp:137] Memory required for data: 393217200
I0724 09:02:12.344215 22100 layer_factory.hpp:77] Creating layer fc9
I0724 09:02:12.344239 22100 net.cpp:84] Creating Layer fc9
I0724 09:02:12.344249 22100 net.cpp:406] fc9 <- fc8_sc
I0724 09:02:12.344272 22100 net.cpp:380] fc9 -> fc9
I0724 09:02:12.345118 22100 net.cpp:122] Setting up fc9
I0724 09:02:12.345130 22100 net.cpp:129] Top shape: 100 10 (1000)
I0724 09:02:12.345136 22100 net.cpp:137] Memory required for data: 393221200
I0724 09:02:12.345155 22100 layer_factory.hpp:77] Creating layer fc9_fc9_0_split
I0724 09:02:12.345172 22100 net.cpp:84] Creating Layer fc9_fc9_0_split
I0724 09:02:12.345182 22100 net.cpp:406] fc9_fc9_0_split <- fc9
I0724 09:02:12.345201 22100 net.cpp:380] fc9_fc9_0_split -> fc9_fc9_0_split_0
I0724 09:02:12.345232 22100 net.cpp:380] fc9_fc9_0_split -> fc9_fc9_0_split_1
I0724 09:02:12.345289 22100 net.cpp:122] Setting up fc9_fc9_0_split
I0724 09:02:12.345302 22100 net.cpp:129] Top shape: 100 10 (1000)
I0724 09:02:12.345311 22100 net.cpp:129] Top shape: 100 10 (1000)
I0724 09:02:12.345329 22100 net.cpp:137] Memory required for data: 393229200
I0724 09:02:12.345340 22100 layer_factory.hpp:77] Creating layer accuracy
I0724 09:02:12.345365 22100 net.cpp:84] Creating Layer accuracy
I0724 09:02:12.345373 22100 net.cpp:406] accuracy <- fc9_fc9_0_split_0
I0724 09:02:12.345391 22100 net.cpp:406] accuracy <- label_cifar_1_split_0
I0724 09:02:12.345410 22100 net.cpp:380] accuracy -> accuracy
…
