…
I0928 18:47:22.516609  5189 net.cpp:294] The NetState phase (0) differed from the phase (1) specified by a rule in layer data
I0928 18:47:22.516825  5189 net.cpp:51] Initializing net from parameters: 
name: "AlexNet-BN"
state {
  phase: TRAIN
  level: 0
  stage: ""
}
layer {
  name: "data"
  type: "Data"
  top: "data"
  top: "label"
  include {
    phase: TRAIN
  }
  transform_param {
    mirror: true
    crop_size: 224
    mean_file: "/mnt/data/ilsvrc12/origin/imagenet_mean.binaryproto"
  }
  data_param {
    source: "/mnt/data/ilsvrc12/origin/ilsvrc12_train_lmdb"
    batch_size: 128
    backend: LMDB
  }
}
layer {
  name: "conv1"
  type: "BinaryConvolution"
  bottom: "data"
  top: "conv1"
  param {
    lr_mult: 1
    decay_mult: 1
  }
  convolution_param {
    num_output: 96
    bias_term: false
    pad: 2
    kernel_size: 11
    stride: 4
    weight_filler {
      type: "msra"
    }
  }
  debug_param {
    binary_relax: false
  }
}
layer {
  name: "bn1"
  type: "BatchNorm"
  bottom: "conv1"
  top: "conv1"
}
layer {
  name: "scale1"
  type: "Scale"
  bottom: "conv1"
  top: "conv1"
  scale_param {
    bias_term: true
  }
}
layer {
  name: "relu1"
  type: "ReLU"
  bottom: "conv1"
  top: "conv1"
}
layer {
  name: "pool1"
  type: "Pooling"
  bottom: "conv1"
  top: "pool1"
  pooling_param {
    pool: MAX
    kernel_size: 3
    stride: 2
  }
}
layer {
  name: "conv2"
  type: "BinaryConvolution"
  bottom: "pool1"
  top: "conv2"
  param {
    lr_mult: 1
    decay_mult: 1
  }
  convolution_param {
    num_output: 256
    bias_term: false
    pad: 2
    kernel_size: 5
    weight_filler {
      type: "msra"
    }
  }
  debug_param {
    binary_relax: false
  }
}
layer {
  name: "bn2"
  type: "BatchNorm"
  bottom: "conv2"
  top: "conv2"
}
layer {
  name: "scale2"
  type: "Scale"
  bottom: "conv2"
  top: "conv2"
  scale_param {
    bias_term: true
  }
}
layer {
  name: "relu2"
  type: "ReLU"
  bottom: "conv2"
  top: "conv2"
}
layer {
  name: "pool2"
  type: "Pooling"
  bottom: "conv2"
  top: "pool2"
  pooling_param {
    pool: MAX
    kernel_size: 3
    stride: 2
  }
}
layer {
  name: "conv3"
  type: "BinaryConvolution"
  bottom: "pool2"
  top: "conv3"
  param {
    lr_mult: 1
    decay_mult: 1
  }
  convolution_param {
    num_output: 384
    bias_term: false
    pad: 1
    kernel_size: 3
    weight_filler {
      type: "msra"
    }
  }
  debug_param {
    binary_relax: false
  }
}
layer {
  name: "bn3"
  type: "BatchNorm"
  bottom: "conv3"
  top: "conv3"
}
layer {
  name: "scale3"
  type: "Scale"
  bottom: "conv3"
  top: "conv3"
  scale_param {
    bias_term: true
  }
}
layer {
  name: "relu3"
  type: "ReLU"
  bottom: "conv3"
  top: "conv3"
}
layer {
  name: "conv4"
  type: "BinaryConvolution"
  bottom: "conv3"
  top: "conv4"
  param {
    lr_mult: 1
    decay_mult: 1
  }
  convolution_param {
    num_output: 384
    bias_term: false
    pad: 1
    kernel_size: 3
    weight_filler {
      type: "msra"
    }
  }
  debug_param {
    binary_relax: false
  }
}
layer {
  name: "bn4"
  type: "BatchNorm"
  bottom: "conv4"
  top: "conv4"
}
layer {
  name: "scale4"
  type: "Scale"
  bottom: "conv4"
  top: "conv4"
  scale_param {
    bias_term: true
  }
}
layer {
  name: "relu4"
  type: "ReLU"
  bottom: "conv4"
  top: "conv4"
}
layer {
  name: "conv5"
  type: "BinaryConvolution"
  bottom: "conv4"
  top: "conv5"
  param {
    lr_mult: 1
    decay_mult: 1
  }
  convolution_param {
    num_output: 256
    bias_term: false
    pad: 1
    kernel_size: 3
    weight_filler {
      type: "msra"
    }
  }
  debug_param {
    binary_relax: false
  }
}
layer {
  name: "bn5"
  type: "BatchNorm"
  bottom: "conv5"
  top: "conv5"
}
layer {
  name: "scale5"
  type: "Scale"
  bottom: "conv5"
  top: "conv5"
  scale_param {
    bias_term: true
  }
}
layer {
  name: "relu5"
  type: "ReLU"
  bottom: "conv5"
  top: "conv5"
}
layer {
  name: "pool5"
  type: "Pooling"
  bottom: "conv5"
  top: "pool5"
  pooling_param {
    pool: MAX
    kernel_size: 3
    stride: 2
  }
}
layer {
  name: "fc6"
  type: "BinaryInnerProduct"
  bottom: "pool5"
  top: "fc6"
  param {
    lr_mult: 1
    decay_mult: 1
  }
  inner_product_param {
    num_output: 4096
    bias_term: false
    weight_filler {
      type: "msra"
    }
  }
  debug_param {
    binary_relax: false
  }
}
layer {
  name: "bn6"
  type: "BatchNorm"
  bottom: "fc6"
  top: "fc6"
}
layer {
  name: "scale6"
  type: "Scale"
  bottom: "fc6"
  top: "fc6"
  scale_param {
    bias_term: true
  }
}
layer {
  name: "relu6"
  type: "ReLU"
  bottom: "fc6"
  top: "fc6"
}
layer {
  name: "drop6"
  type: "Dropout"
  bottom: "fc6"
  top: "fc6"
  dropout_param {
    dropout_ratio: 0.5
  }
}
layer {
  name: "fc7"
  type: "BinaryInnerProduct"
  bottom: "fc6"
  top: "fc7"
  param {
    lr_mult: 1
    decay_mult: 1
  }
  inner_product_param {
    num_output: 4096
    bias_term: false
    weight_filler {
      type: "msra"
    }
  }
  debug_param {
    binary_relax: false
  }
}
layer {
  name: "bn7"
  type: "BatchNorm"
  bottom: "fc7"
  top: "fc7"
}
layer {
  name: "scale7"
  type: "Scale"
  bottom: "fc7"
  top: "fc7"
  scale_param {
    bias_term: true
  }
}
layer {
  name: "relu7"
  type: "ReLU"
  bottom: "fc7"
  top: "fc7"
}
layer {
  name: "drop7"
  type: "Dropout"
  bottom: "fc7"
  top: "fc7"
  dropout_param {
    dropout_ratio: 0.5
  }
}
layer {
  name: "fc8"
  type: "BinaryInnerProduct"
  bottom: "fc7"
  top: "fc8"
  param {
    lr_mult: 1
    decay_mult: 1
  }
  param {
    lr_mult: 2
    decay_mult: 0
  }
  inner_product_param {
    num_output: 1000
    weight_filler {
      type: "msra"
    }
    bias_filler {
      type: "constant"
      value: 0
    }
  }
  debug_param {
    binary_relax: false
  }
}
layer {
  name: "loss"
  type: "SoftmaxWithLoss"
  bottom: "fc8"
  bottom: "label"
  top: "loss"
}
layer {
  name: "accuracy"
  type: "Accuracy"
  bottom: "fc8"
  bottom: "label"
  top: "accuracy"
}
layer {
  name: "accuracy_5"
  type: "Accuracy"
  bottom: "fc8"
  bottom: "label"
  top: "accuracy_5"
  accuracy_param {
    top_k: 5
  }
}
I0928 18:47:22.517454  5189 layer_factory.hpp:77] Creating layer data
I0928 18:47:22.517640  5189 db_lmdb.cpp:35] Opened lmdb /mnt/data/ilsvrc12/origin/ilsvrc12_train_lmdb
I0928 18:47:22.517694  5189 net.cpp:84] Creating Layer data
I0928 18:47:22.517719  5189 net.cpp:380] data -> data
I0928 18:47:22.517835  5189 net.cpp:380] data -> label
I0928 18:47:22.517873  5189 data_transformer.cpp:25] Loading mean file from: /mnt/data/ilsvrc12/origin/imagenet_mean.binaryproto
I0928 18:47:22.525013  5189 data_layer.cpp:45] output data size: 128,3,224,224
I0928 18:47:22.636119  5189 base_data_layer.cpp:72] Initializing prefetch
I0928 18:47:22.636296  5189 base_data_layer.cpp:75] Prefetch initialized.
I0928 18:47:22.636315  5189 net.cpp:122] Setting up data
I0928 18:47:22.636359  5189 net.cpp:129] Top shape: 128 3 224 224 (19267584)
I0928 18:47:22.636395  5189 net.cpp:129] Top shape: 128 (128)
I0928 18:47:22.636399  5189 net.cpp:137] Memory required for data: 77070848
I0928 18:47:22.636435  5189 layer_factory.hpp:77] Creating layer label_data_1_split
I0928 18:47:22.636507  5189 net.cpp:84] Creating Layer label_data_1_split
I0928 18:47:22.636555  5189 net.cpp:406] label_data_1_split <- label
I0928 18:47:22.636615  5189 net.cpp:380] label_data_1_split -> label_data_1_split_0
I0928 18:47:22.636690  5189 net.cpp:380] label_data_1_split -> label_data_1_split_1
I0928 18:47:22.636716  5189 net.cpp:380] label_data_1_split -> label_data_1_split_2
I0928 18:47:22.636777  5189 net.cpp:122] Setting up label_data_1_split
I0928 18:47:22.636788  5189 net.cpp:129] Top shape: 128 (128)
I0928 18:47:22.636799  5189 net.cpp:129] Top shape: 128 (128)
I0928 18:47:22.636806  5189 net.cpp:129] Top shape: 128 (128)
I0928 18:47:22.636811  5189 net.cpp:137] Memory required for data: 77072384
I0928 18:47:22.636816  5189 layer_factory.hpp:77] Creating layer conv1
I0928 18:47:22.636852  5189 net.cpp:84] Creating Layer conv1
I0928 18:47:22.636860  5189 net.cpp:406] conv1 <- data
I0928 18:47:22.636879  5189 net.cpp:380] conv1 -> conv1
I0928 18:47:22.644174  5189 net.cpp:122] Setting up conv1
I0928 18:47:22.644193  5189 net.cpp:129] Top shape: 128 96 55 55 (37171200)
I0928 18:47:22.644199  5189 net.cpp:137] Memory required for data: 225757184
I0928 18:47:22.644246  5189 layer_factory.hpp:77] Creating layer bn1
I0928 18:47:22.644266  5189 net.cpp:84] Creating Layer bn1
I0928 18:47:22.644275  5189 net.cpp:406] bn1 <- conv1
I0928 18:47:22.644290  5189 net.cpp:367] bn1 -> conv1 (in-place)
I0928 18:47:22.644783  5189 net.cpp:122] Setting up bn1
I0928 18:47:22.644793  5189 net.cpp:129] Top shape: 128 96 55 55 (37171200)
I0928 18:47:22.644798  5189 net.cpp:137] Memory required for data: 374441984
I0928 18:47:22.644845  5189 layer_factory.hpp:77] Creating layer scale1
I0928 18:47:22.644883  5189 net.cpp:84] Creating Layer scale1
I0928 18:47:22.644892  5189 net.cpp:406] scale1 <- conv1
I0928 18:47:22.644908  5189 net.cpp:367] scale1 -> conv1 (in-place)
I0928 18:47:22.644971  5189 layer_factory.hpp:77] Creating layer scale1
I0928 18:47:22.645126  5189 net.cpp:122] Setting up scale1
I0928 18:47:22.645136  5189 net.cpp:129] Top shape: 128 96 55 55 (37171200)
I0928 18:47:22.645141  5189 net.cpp:137] Memory required for data: 523126784
I0928 18:47:22.645161  5189 layer_factory.hpp:77] Creating layer relu1
I0928 18:47:22.645200  5189 net.cpp:84] Creating Layer relu1
I0928 18:47:22.645206  5189 net.cpp:406] relu1 <- conv1
I0928 18:47:22.645220  5189 net.cpp:367] relu1 -> conv1 (in-place)
I0928 18:47:23.022584  5189 net.cpp:122] Setting up relu1
I0928 18:47:23.022627  5189 net.cpp:129] Top shape: 128 96 55 55 (37171200)
I0928 18:47:23.022632  5189 net.cpp:137] Memory required for data: 671811584
I0928 18:47:23.022648  5189 layer_factory.hpp:77] Creating layer pool1
I0928 18:47:23.022716  5189 net.cpp:84] Creating Layer pool1
I0928 18:47:23.022740  5189 net.cpp:406] pool1 <- conv1
I0928 18:47:23.022796  5189 net.cpp:380] pool1 -> pool1
I0928 18:47:23.022902  5189 net.cpp:122] Setting up pool1
I0928 18:47:23.022927  5189 net.cpp:129] Top shape: 128 96 27 27 (8957952)
I0928 18:47:23.022930  5189 net.cpp:137] Memory required for data: 707643392
I0928 18:47:23.022936  5189 layer_factory.hpp:77] Creating layer conv2
I0928 18:47:23.022987  5189 net.cpp:84] Creating Layer conv2
I0928 18:47:23.023015  5189 net.cpp:406] conv2 <- pool1
I0928 18:47:23.023041  5189 net.cpp:380] conv2 -> conv2
I0928 18:47:23.108750  5189 net.cpp:122] Setting up conv2
I0928 18:47:23.108781  5189 net.cpp:129] Top shape: 128 256 27 27 (23887872)
I0928 18:47:23.108794  5189 net.cpp:137] Memory required for data: 803194880
I0928 18:47:23.108820  5189 layer_factory.hpp:77] Creating layer bn2
I0928 18:47:23.108876  5189 net.cpp:84] Creating Layer bn2
I0928 18:47:23.108889  5189 net.cpp:406] bn2 <- conv2
I0928 18:47:23.108912  5189 net.cpp:367] bn2 -> conv2 (in-place)
I0928 18:47:23.109125  5189 net.cpp:122] Setting up bn2
I0928 18:47:23.109135  5189 net.cpp:129] Top shape: 128 256 27 27 (23887872)
I0928 18:47:23.109148  5189 net.cpp:137] Memory required for data: 898746368
I0928 18:47:23.109190  5189 layer_factory.hpp:77] Creating layer scale2
I0928 18:47:23.109220  5189 net.cpp:84] Creating Layer scale2
I0928 18:47:23.109227  5189 net.cpp:406] scale2 <- conv2
I0928 18:47:23.109241  5189 net.cpp:367] scale2 -> conv2 (in-place)
I0928 18:47:23.109311  5189 layer_factory.hpp:77] Creating layer scale2
I0928 18:47:23.109493  5189 net.cpp:122] Setting up scale2
I0928 18:47:23.109503  5189 net.cpp:129] Top shape: 128 256 27 27 (23887872)
I0928 18:47:23.109508  5189 net.cpp:137] Memory required for data: 994297856
I0928 18:47:23.109521  5189 layer_factory.hpp:77] Creating layer relu2
I0928 18:47:23.109535  5189 net.cpp:84] Creating Layer relu2
I0928 18:47:23.109544  5189 net.cpp:406] relu2 <- conv2
I0928 18:47:23.109556  5189 net.cpp:367] relu2 -> conv2 (in-place)
I0928 18:47:23.109953  5189 net.cpp:122] Setting up relu2
I0928 18:47:23.109964  5189 net.cpp:129] Top shape: 128 256 27 27 (23887872)
I0928 18:47:23.109969  5189 net.cpp:137] Memory required for data: 1089849344
I0928 18:47:23.109975  5189 layer_factory.hpp:77] Creating layer pool2
I0928 18:47:23.109993  5189 net.cpp:84] Creating Layer pool2
I0928 18:47:23.110002  5189 net.cpp:406] pool2 <- conv2
I0928 18:47:23.110018  5189 net.cpp:380] pool2 -> pool2
I0928 18:47:23.110081  5189 net.cpp:122] Setting up pool2
I0928 18:47:23.110093  5189 net.cpp:129] Top shape: 128 256 13 13 (5537792)
I0928 18:47:23.110098  5189 net.cpp:137] Memory required for data: 1112000512
I0928 18:47:23.110105  5189 layer_factory.hpp:77] Creating layer conv3
I0928 18:47:23.110126  5189 net.cpp:84] Creating Layer conv3
I0928 18:47:23.110136  5189 net.cpp:406] conv3 <- pool2
I0928 18:47:23.110167  5189 net.cpp:380] conv3 -> conv3
I0928 18:47:23.223675  5189 net.cpp:122] Setting up conv3
I0928 18:47:23.223729  5189 net.cpp:129] Top shape: 128 384 13 13 (8306688)
I0928 18:47:23.223733  5189 net.cpp:137] Memory required for data: 1145227264
I0928 18:47:23.223760  5189 layer_factory.hpp:77] Creating layer bn3
I0928 18:47:23.223800  5189 net.cpp:84] Creating Layer bn3
I0928 18:47:23.223824  5189 net.cpp:406] bn3 <- conv3
I0928 18:47:23.223847  5189 net.cpp:367] bn3 -> conv3 (in-place)
I0928 18:47:23.224083  5189 net.cpp:122] Setting up bn3
I0928 18:47:23.224102  5189 net.cpp:129] Top shape: 128 384 13 13 (8306688)
I0928 18:47:23.224105  5189 net.cpp:137] Memory required for data: 1178454016
I0928 18:47:23.224124  5189 layer_factory.hpp:77] Creating layer scale3
I0928 18:47:23.224144  5189 net.cpp:84] Creating Layer scale3
I0928 18:47:23.224161  5189 net.cpp:406] scale3 <- conv3
I0928 18:47:23.224184  5189 net.cpp:367] scale3 -> conv3 (in-place)
I0928 18:47:23.224249  5189 layer_factory.hpp:77] Creating layer scale3
I0928 18:47:23.224416  5189 net.cpp:122] Setting up scale3
I0928 18:47:23.224434  5189 net.cpp:129] Top shape: 128 384 13 13 (8306688)
I0928 18:47:23.224438  5189 net.cpp:137] Memory required for data: 1211680768
I0928 18:47:23.224464  5189 layer_factory.hpp:77] Creating layer relu3
I0928 18:47:23.224498  5189 net.cpp:84] Creating Layer relu3
I0928 18:47:23.224504  5189 net.cpp:406] relu3 <- conv3
I0928 18:47:23.224516  5189 net.cpp:367] relu3 -> conv3 (in-place)
I0928 18:47:23.225164  5189 net.cpp:122] Setting up relu3
I0928 18:47:23.225175  5189 net.cpp:129] Top shape: 128 384 13 13 (8306688)
I0928 18:47:23.225189  5189 net.cpp:137] Memory required for data: 1244907520
I0928 18:47:23.225196  5189 layer_factory.hpp:77] Creating layer conv4
I0928 18:47:23.225237  5189 net.cpp:84] Creating Layer conv4
I0928 18:47:23.225255  5189 net.cpp:406] conv4 <- conv3
I0928 18:47:23.225283  5189 net.cpp:380] conv4 -> conv4
I0928 18:47:23.393206  5189 net.cpp:122] Setting up conv4
I0928 18:47:23.393249  5189 net.cpp:129] Top shape: 128 384 13 13 (8306688)
I0928 18:47:23.393254  5189 net.cpp:137] Memory required for data: 1278134272
I0928 18:47:23.393288  5189 layer_factory.hpp:77] Creating layer bn4
I0928 18:47:23.393332  5189 net.cpp:84] Creating Layer bn4
I0928 18:47:23.393362  5189 net.cpp:406] bn4 <- conv4
I0928 18:47:23.393394  5189 net.cpp:367] bn4 -> conv4 (in-place)
I0928 18:47:23.393643  5189 net.cpp:122] Setting up bn4
I0928 18:47:23.393661  5189 net.cpp:129] Top shape: 128 384 13 13 (8306688)
I0928 18:47:23.393664  5189 net.cpp:137] Memory required for data: 1311361024
I0928 18:47:23.393693  5189 layer_factory.hpp:77] Creating layer scale4
I0928 18:47:23.393744  5189 net.cpp:84] Creating Layer scale4
I0928 18:47:23.393752  5189 net.cpp:406] scale4 <- conv4
I0928 18:47:23.393767  5189 net.cpp:367] scale4 -> conv4 (in-place)
I0928 18:47:23.393826  5189 layer_factory.hpp:77] Creating layer scale4
I0928 18:47:23.393985  5189 net.cpp:122] Setting up scale4
I0928 18:47:23.393995  5189 net.cpp:129] Top shape: 128 384 13 13 (8306688)
I0928 18:47:23.393999  5189 net.cpp:137] Memory required for data: 1344587776
I0928 18:47:23.394012  5189 layer_factory.hpp:77] Creating layer relu4
I0928 18:47:23.394026  5189 net.cpp:84] Creating Layer relu4
I0928 18:47:23.394034  5189 net.cpp:406] relu4 <- conv4
I0928 18:47:23.394049  5189 net.cpp:367] relu4 -> conv4 (in-place)
I0928 18:47:23.394457  5189 net.cpp:122] Setting up relu4
I0928 18:47:23.394467  5189 net.cpp:129] Top shape: 128 384 13 13 (8306688)
I0928 18:47:23.394472  5189 net.cpp:137] Memory required for data: 1377814528
I0928 18:47:23.394479  5189 layer_factory.hpp:77] Creating layer conv5
I0928 18:47:23.394502  5189 net.cpp:84] Creating Layer conv5
I0928 18:47:23.394511  5189 net.cpp:406] conv5 <- conv4
I0928 18:47:23.394532  5189 net.cpp:380] conv5 -> conv5
I0928 18:47:23.509001  5189 net.cpp:122] Setting up conv5
I0928 18:47:23.509040  5189 net.cpp:129] Top shape: 128 256 13 13 (5537792)
I0928 18:47:23.509044  5189 net.cpp:137] Memory required for data: 1399965696
I0928 18:47:23.509066  5189 layer_factory.hpp:77] Creating layer bn5
I0928 18:47:23.509095  5189 net.cpp:84] Creating Layer bn5
I0928 18:47:23.509125  5189 net.cpp:406] bn5 <- conv5
I0928 18:47:23.509145  5189 net.cpp:367] bn5 -> conv5 (in-place)
I0928 18:47:23.509359  5189 net.cpp:122] Setting up bn5
I0928 18:47:23.509369  5189 net.cpp:129] Top shape: 128 256 13 13 (5537792)
I0928 18:47:23.509372  5189 net.cpp:137] Memory required for data: 1422116864
I0928 18:47:23.509392  5189 layer_factory.hpp:77] Creating layer scale5
I0928 18:47:23.509411  5189 net.cpp:84] Creating Layer scale5
I0928 18:47:23.509420  5189 net.cpp:406] scale5 <- conv5
I0928 18:47:23.509435  5189 net.cpp:367] scale5 -> conv5 (in-place)
I0928 18:47:23.509496  5189 layer_factory.hpp:77] Creating layer scale5
I0928 18:47:23.509649  5189 net.cpp:122] Setting up scale5
I0928 18:47:23.509658  5189 net.cpp:129] Top shape: 128 256 13 13 (5537792)
I0928 18:47:23.509663  5189 net.cpp:137] Memory required for data: 1444268032
I0928 18:47:23.509676  5189 layer_factory.hpp:77] Creating layer relu5
I0928 18:47:23.509690  5189 net.cpp:84] Creating Layer relu5
I0928 18:47:23.509697  5189 net.cpp:406] relu5 <- conv5
I0928 18:47:23.509713  5189 net.cpp:367] relu5 -> conv5 (in-place)
I0928 18:47:23.510295  5189 net.cpp:122] Setting up relu5
I0928 18:47:23.510308  5189 net.cpp:129] Top shape: 128 256 13 13 (5537792)
I0928 18:47:23.510313  5189 net.cpp:137] Memory required for data: 1466419200
I0928 18:47:23.510318  5189 layer_factory.hpp:77] Creating layer pool5
I0928 18:47:23.510337  5189 net.cpp:84] Creating Layer pool5
I0928 18:47:23.510345  5189 net.cpp:406] pool5 <- conv5
I0928 18:47:23.510365  5189 net.cpp:380] pool5 -> pool5
I0928 18:47:23.510427  5189 net.cpp:122] Setting up pool5
I0928 18:47:23.510440  5189 net.cpp:129] Top shape: 128 256 6 6 (1179648)
I0928 18:47:23.510445  5189 net.cpp:137] Memory required for data: 1471137792
I0928 18:47:23.510452  5189 layer_factory.hpp:77] Creating layer fc6
I0928 18:47:23.510478  5189 net.cpp:84] Creating Layer fc6
I0928 18:47:23.510488  5189 net.cpp:406] fc6 <- pool5
I0928 18:47:23.510507  5189 net.cpp:380] fc6 -> fc6
I0928 18:47:28.306601  5189 net.cpp:122] Setting up fc6
I0928 18:47:28.306634  5189 net.cpp:129] Top shape: 128 4096 (524288)
I0928 18:47:28.306638  5189 net.cpp:137] Memory required for data: 1473234944
I0928 18:47:28.306675  5189 layer_factory.hpp:77] Creating layer bn6
I0928 18:47:28.306718  5189 net.cpp:84] Creating Layer bn6
I0928 18:47:28.306751  5189 net.cpp:406] bn6 <- fc6
I0928 18:47:28.306780  5189 net.cpp:367] bn6 -> fc6 (in-place)
I0928 18:47:28.307011  5189 net.cpp:122] Setting up bn6
I0928 18:47:28.307020  5189 net.cpp:129] Top shape: 128 4096 (524288)
I0928 18:47:28.307036  5189 net.cpp:137] Memory required for data: 1475332096
I0928 18:47:28.307093  5189 layer_factory.hpp:77] Creating layer scale6
I0928 18:47:28.307132  5189 net.cpp:84] Creating Layer scale6
I0928 18:47:28.307140  5189 net.cpp:406] scale6 <- fc6
I0928 18:47:28.307164  5189 net.cpp:367] scale6 -> fc6 (in-place)
I0928 18:47:28.307262  5189 layer_factory.hpp:77] Creating layer scale6
I0928 18:47:28.307480  5189 net.cpp:122] Setting up scale6
I0928 18:47:28.307489  5189 net.cpp:129] Top shape: 128 4096 (524288)
I0928 18:47:28.307503  5189 net.cpp:137] Memory required for data: 1477429248
I0928 18:47:28.307526  5189 layer_factory.hpp:77] Creating layer relu6
I0928 18:47:28.307551  5189 net.cpp:84] Creating Layer relu6
I0928 18:47:28.307559  5189 net.cpp:406] relu6 <- fc6
I0928 18:47:28.307580  5189 net.cpp:367] relu6 -> fc6 (in-place)
I0928 18:47:28.308148  5189 net.cpp:122] Setting up relu6
I0928 18:47:28.308158  5189 net.cpp:129] Top shape: 128 4096 (524288)
I0928 18:47:28.308162  5189 net.cpp:137] Memory required for data: 1479526400
I0928 18:47:28.308167  5189 layer_factory.hpp:77] Creating layer drop6
I0928 18:47:28.308194  5189 net.cpp:84] Creating Layer drop6
I0928 18:47:28.308203  5189 net.cpp:406] drop6 <- fc6
I0928 18:47:28.308230  5189 net.cpp:367] drop6 -> fc6 (in-place)
I0928 18:47:28.308290  5189 net.cpp:122] Setting up drop6
I0928 18:47:28.308301  5189 net.cpp:129] Top shape: 128 4096 (524288)
I0928 18:47:28.308305  5189 net.cpp:137] Memory required for data: 1481623552
I0928 18:47:28.308320  5189 layer_factory.hpp:77] Creating layer fc7
I0928 18:47:28.308351  5189 net.cpp:84] Creating Layer fc7
I0928 18:47:28.308358  5189 net.cpp:406] fc7 <- fc6
I0928 18:47:28.308378  5189 net.cpp:380] fc7 -> fc7
I0928 18:47:30.415854  5189 net.cpp:122] Setting up fc7
I0928 18:47:30.415891  5189 net.cpp:129] Top shape: 128 4096 (524288)
I0928 18:47:30.415896  5189 net.cpp:137] Memory required for data: 1483720704
I0928 18:47:30.415932  5189 layer_factory.hpp:77] Creating layer bn7
I0928 18:47:30.415984  5189 net.cpp:84] Creating Layer bn7
I0928 18:47:30.416007  5189 net.cpp:406] bn7 <- fc7
I0928 18:47:30.416050  5189 net.cpp:367] bn7 -> fc7 (in-place)
I0928 18:47:30.416298  5189 net.cpp:122] Setting up bn7
I0928 18:47:30.416307  5189 net.cpp:129] Top shape: 128 4096 (524288)
I0928 18:47:30.416311  5189 net.cpp:137] Memory required for data: 1485817856
I0928 18:47:30.416329  5189 layer_factory.hpp:77] Creating layer scale7
I0928 18:47:30.416385  5189 net.cpp:84] Creating Layer scale7
I0928 18:47:30.416411  5189 net.cpp:406] scale7 <- fc7
I0928 18:47:30.416426  5189 net.cpp:367] scale7 -> fc7 (in-place)
I0928 18:47:30.416522  5189 layer_factory.hpp:77] Creating layer scale7
I0928 18:47:30.416700  5189 net.cpp:122] Setting up scale7
I0928 18:47:30.416710  5189 net.cpp:129] Top shape: 128 4096 (524288)
I0928 18:47:30.416713  5189 net.cpp:137] Memory required for data: 1487915008
I0928 18:47:30.416726  5189 layer_factory.hpp:77] Creating layer relu7
I0928 18:47:30.416748  5189 net.cpp:84] Creating Layer relu7
I0928 18:47:30.416756  5189 net.cpp:406] relu7 <- fc7
I0928 18:47:30.416782  5189 net.cpp:367] relu7 -> fc7 (in-place)
I0928 18:47:30.417244  5189 net.cpp:122] Setting up relu7
I0928 18:47:30.417256  5189 net.cpp:129] Top shape: 128 4096 (524288)
I0928 18:47:30.417261  5189 net.cpp:137] Memory required for data: 1490012160
I0928 18:47:30.417268  5189 layer_factory.hpp:77] Creating layer drop7
I0928 18:47:30.417282  5189 net.cpp:84] Creating Layer drop7
I0928 18:47:30.417290  5189 net.cpp:406] drop7 <- fc7
I0928 18:47:30.417315  5189 net.cpp:367] drop7 -> fc7 (in-place)
I0928 18:47:30.417361  5189 net.cpp:122] Setting up drop7
I0928 18:47:30.417378  5189 net.cpp:129] Top shape: 128 4096 (524288)
I0928 18:47:30.417382  5189 net.cpp:137] Memory required for data: 1492109312
I0928 18:47:30.417388  5189 layer_factory.hpp:77] Creating layer fc8
I0928 18:47:30.417412  5189 net.cpp:84] Creating Layer fc8
I0928 18:47:30.417420  5189 net.cpp:406] fc8 <- fc7
I0928 18:47:30.417441  5189 net.cpp:380] fc8 -> fc8
I0928 18:47:30.960129  5189 net.cpp:122] Setting up fc8
I0928 18:47:30.960166  5189 net.cpp:129] Top shape: 128 1000 (128000)
I0928 18:47:30.960170  5189 net.cpp:137] Memory required for data: 1492621312
I0928 18:47:30.960206  5189 layer_factory.hpp:77] Creating layer fc8_fc8_0_split
I0928 18:47:30.960245  5189 net.cpp:84] Creating Layer fc8_fc8_0_split
I0928 18:47:30.960278  5189 net.cpp:406] fc8_fc8_0_split <- fc8
I0928 18:47:30.960312  5189 net.cpp:380] fc8_fc8_0_split -> fc8_fc8_0_split_0
I0928 18:47:30.960366  5189 net.cpp:380] fc8_fc8_0_split -> fc8_fc8_0_split_1
I0928 18:47:30.960392  5189 net.cpp:380] fc8_fc8_0_split -> fc8_fc8_0_split_2
I0928 18:47:30.960485  5189 net.cpp:122] Setting up fc8_fc8_0_split
I0928 18:47:30.960497  5189 net.cpp:129] Top shape: 128 1000 (128000)
I0928 18:47:30.960502  5189 net.cpp:129] Top shape: 128 1000 (128000)
I0928 18:47:30.960507  5189 net.cpp:129] Top shape: 128 1000 (128000)
I0928 18:47:30.960510  5189 net.cpp:137] Memory required for data: 1494157312
I0928 18:47:30.960515  5189 layer_factory.hpp:77] Creating layer loss
I0928 18:47:30.960544  5189 net.cpp:84] Creating Layer loss
I0928 18:47:30.960572  5189 net.cpp:406] loss <- fc8_fc8_0_split_0
I0928 18:47:30.960583  5189 net.cpp:406] loss <- label_data_1_split_0
I0928 18:47:30.960604  5189 net.cpp:380] loss -> loss
…
I0928 18:47:34.373188  5189 net.cpp:294] The NetState phase (1) differed from the phase (0) specified by a rule in layer data
I0928 18:47:34.373394  5189 net.cpp:51] Initializing net from parameters: 
name: "AlexNet-BN"
state {
  phase: TEST
}
layer {
  name: "data"
  type: "Data"
  top: "data"
  top: "label"
  include {
    phase: TEST
  }
  transform_param {
    mirror: false
    crop_size: 224
    mean_file: "/mnt/data/ilsvrc12/origin/imagenet_mean.binaryproto"
  }
  data_param {
    source: "/mnt/data/ilsvrc12/origin/ilsvrc12_val_lmdb"
    batch_size: 50
    backend: LMDB
  }
}
layer {
  name: "conv1"
  type: "BinaryConvolution"
  bottom: "data"
  top: "conv1"
  param {
    lr_mult: 1
    decay_mult: 1
  }
  convolution_param {
    num_output: 96
    bias_term: false
    pad: 2
    kernel_size: 11
    stride: 4
    weight_filler {
      type: "msra"
    }
  }
  debug_param {
    binary_relax: false
  }
}
layer {
  name: "bn1"
  type: "BatchNorm"
  bottom: "conv1"
  top: "conv1"
}
layer {
  name: "scale1"
  type: "Scale"
  bottom: "conv1"
  top: "conv1"
  scale_param {
    bias_term: true
  }
}
layer {
  name: "relu1"
  type: "ReLU"
  bottom: "conv1"
  top: "conv1"
}
layer {
  name: "pool1"
  type: "Pooling"
  bottom: "conv1"
  top: "pool1"
  pooling_param {
    pool: MAX
    kernel_size: 3
    stride: 2
  }
}
layer {
  name: "conv2"
  type: "BinaryConvolution"
  bottom: "pool1"
  top: "conv2"
  param {
    lr_mult: 1
    decay_mult: 1
  }
  convolution_param {
    num_output: 256
    bias_term: false
    pad: 2
    kernel_size: 5
    weight_filler {
      type: "msra"
    }
  }
  debug_param {
    binary_relax: false
  }
}
layer {
  name: "bn2"
  type: "BatchNorm"
  bottom: "conv2"
  top: "conv2"
}
layer {
  name: "scale2"
  type: "Scale"
  bottom: "conv2"
  top: "conv2"
  scale_param {
    bias_term: true
  }
}
layer {
  name: "relu2"
  type: "ReLU"
  bottom: "conv2"
  top: "conv2"
}
layer {
  name: "pool2"
  type: "Pooling"
  bottom: "conv2"
  top: "pool2"
  pooling_param {
    pool: MAX
    kernel_size: 3
    stride: 2
  }
}
layer {
  name: "conv3"
  type: "BinaryConvolution"
  bottom: "pool2"
  top: "conv3"
  param {
    lr_mult: 1
    decay_mult: 1
  }
  convolution_param {
    num_output: 384
    bias_term: false
    pad: 1
    kernel_size: 3
    weight_filler {
      type: "msra"
    }
  }
  debug_param {
    binary_relax: false
  }
}
layer {
  name: "bn3"
  type: "BatchNorm"
  bottom: "conv3"
  top: "conv3"
}
layer {
  name: "scale3"
  type: "Scale"
  bottom: "conv3"
  top: "conv3"
  scale_param {
    bias_term: true
  }
}
layer {
  name: "relu3"
  type: "ReLU"
  bottom: "conv3"
  top: "conv3"
}
layer {
  name: "conv4"
  type: "BinaryConvolution"
  bottom: "conv3"
  top: "conv4"
  param {
    lr_mult: 1
    decay_mult: 1
  }
  convolution_param {
    num_output: 384
    bias_term: false
    pad: 1
    kernel_size: 3
    weight_filler {
      type: "msra"
    }
  }
  debug_param {
    binary_relax: false
  }
}
layer {
  name: "bn4"
  type: "BatchNorm"
  bottom: "conv4"
  top: "conv4"
}
layer {
  name: "scale4"
  type: "Scale"
  bottom: "conv4"
  top: "conv4"
  scale_param {
    bias_term: true
  }
}
layer {
  name: "relu4"
  type: "ReLU"
  bottom: "conv4"
  top: "conv4"
}
layer {
  name: "conv5"
  type: "BinaryConvolution"
  bottom: "conv4"
  top: "conv5"
  param {
    lr_mult: 1
    decay_mult: 1
  }
  convolution_param {
    num_output: 256
    bias_term: false
    pad: 1
    kernel_size: 3
    weight_filler {
      type: "msra"
    }
  }
  debug_param {
    binary_relax: false
  }
}
layer {
  name: "bn5"
  type: "BatchNorm"
  bottom: "conv5"
  top: "conv5"
}
layer {
  name: "scale5"
  type: "Scale"
  bottom: "conv5"
  top: "conv5"
  scale_param {
    bias_term: true
  }
}
layer {
  name: "relu5"
  type: "ReLU"
  bottom: "conv5"
  top: "conv5"
}
layer {
  name: "pool5"
  type: "Pooling"
  bottom: "conv5"
  top: "pool5"
  pooling_param {
    pool: MAX
    kernel_size: 3
    stride: 2
  }
}
layer {
  name: "fc6"
  type: "BinaryInnerProduct"
  bottom: "pool5"
  top: "fc6"
  param {
    lr_mult: 1
    decay_mult: 1
  }
  inner_product_param {
    num_output: 4096
    bias_term: false
    weight_filler {
      type: "msra"
    }
  }
  debug_param {
    binary_relax: false
  }
}
layer {
  name: "bn6"
  type: "BatchNorm"
  bottom: "fc6"
  top: "fc6"
}
layer {
  name: "scale6"
  type: "Scale"
  bottom: "fc6"
  top: "fc6"
  scale_param {
    bias_term: true
  }
}
layer {
  name: "relu6"
  type: "ReLU"
  bottom: "fc6"
  top: "fc6"
}
layer {
  name: "drop6"
  type: "Dropout"
  bottom: "fc6"
  top: "fc6"
  dropout_param {
    dropout_ratio: 0.5
  }
}
layer {
  name: "fc7"
  type: "BinaryInnerProduct"
  bottom: "fc6"
  top: "fc7"
  param {
    lr_mult: 1
    decay_mult: 1
  }
  inner_product_param {
    num_output: 4096
    bias_term: false
    weight_filler {
      type: "msra"
    }
  }
  debug_param {
    binary_relax: false
  }
}
layer {
  name: "bn7"
  type: "BatchNorm"
  bottom: "fc7"
  top: "fc7"
}
layer {
  name: "scale7"
  type: "Scale"
  bottom: "fc7"
  top: "fc7"
  scale_param {
    bias_term: true
  }
}
layer {
  name: "relu7"
  type: "ReLU"
  bottom: "fc7"
  top: "fc7"
}
layer {
  name: "drop7"
  type: "Dropout"
  bottom: "fc7"
  top: "fc7"
  dropout_param {
    dropout_ratio: 0.5
  }
}
layer {
  name: "fc8"
  type: "BinaryInnerProduct"
  bottom: "fc7"
  top: "fc8"
  param {
    lr_mult: 1
    decay_mult: 1
  }
  param {
    lr_mult: 2
    decay_mult: 0
  }
  inner_product_param {
    num_output: 1000
    weight_filler {
      type: "msra"
    }
    bias_filler {
      type: "constant"
      value: 0
    }
  }
  debug_param {
    binary_relax: false
  }
}
layer {
  name: "loss"
  type: "SoftmaxWithLoss"
  bottom: "fc8"
  bottom: "label"
  top: "loss"
}
layer {
  name: "accuracy"
  type: "Accuracy"
  bottom: "fc8"
  bottom: "label"
  top: "accuracy"
}
layer {
  name: "accuracy_5"
  type: "Accuracy"
  bottom: "fc8"
  bottom: "label"
  top: "accuracy_5"
  accuracy_param {
    top_k: 5
  }
}
I0928 18:47:34.373821  5189 layer_factory.hpp:77] Creating layer data
I0928 18:47:34.373934  5189 db_lmdb.cpp:35] Opened lmdb /mnt/data/ilsvrc12/origin/ilsvrc12_val_lmdb
I0928 18:47:34.373971  5189 net.cpp:84] Creating Layer data
I0928 18:47:34.373987  5189 net.cpp:380] data -> data
I0928 18:47:34.374025  5189 net.cpp:380] data -> label
I0928 18:47:34.374048  5189 data_transformer.cpp:25] Loading mean file from: /mnt/data/ilsvrc12/origin/imagenet_mean.binaryproto
I0928 18:47:34.380578  5189 data_layer.cpp:45] output data size: 50,3,224,224
I0928 18:47:34.425092  5189 base_data_layer.cpp:72] Initializing prefetch
I0928 18:47:34.425202  5189 base_data_layer.cpp:75] Prefetch initialized.
I0928 18:47:34.425231  5189 net.cpp:122] Setting up data
I0928 18:47:34.425261  5189 net.cpp:129] Top shape: 50 3 224 224 (7526400)
I0928 18:47:34.425271  5189 net.cpp:129] Top shape: 50 (50)
I0928 18:47:34.425274  5189 net.cpp:137] Memory required for data: 30105800
I0928 18:47:34.425313  5189 layer_factory.hpp:77] Creating layer label_data_1_split
I0928 18:47:34.425374  5189 net.cpp:84] Creating Layer label_data_1_split
I0928 18:47:34.425390  5189 net.cpp:406] label_data_1_split <- label
I0928 18:47:34.425438  5189 net.cpp:380] label_data_1_split -> label_data_1_split_0
I0928 18:47:34.425493  5189 net.cpp:380] label_data_1_split -> label_data_1_split_1
I0928 18:47:34.425511  5189 net.cpp:380] label_data_1_split -> label_data_1_split_2
I0928 18:47:34.425629  5189 net.cpp:122] Setting up label_data_1_split
I0928 18:47:34.425643  5189 net.cpp:129] Top shape: 50 (50)
I0928 18:47:34.425650  5189 net.cpp:129] Top shape: 50 (50)
I0928 18:47:34.425657  5189 net.cpp:129] Top shape: 50 (50)
I0928 18:47:34.425662  5189 net.cpp:137] Memory required for data: 30106400
I0928 18:47:34.425668  5189 layer_factory.hpp:77] Creating layer conv1
I0928 18:47:34.425703  5189 net.cpp:84] Creating Layer conv1
I0928 18:47:34.425711  5189 net.cpp:406] conv1 <- data
I0928 18:47:34.425732  5189 net.cpp:380] conv1 -> conv1
I0928 18:47:34.430835  5189 net.cpp:122] Setting up conv1
I0928 18:47:34.430851  5189 net.cpp:129] Top shape: 50 96 55 55 (14520000)
I0928 18:47:34.430856  5189 net.cpp:137] Memory required for data: 88186400
I0928 18:47:34.430882  5189 layer_factory.hpp:77] Creating layer bn1
I0928 18:47:34.430900  5189 net.cpp:84] Creating Layer bn1
I0928 18:47:34.430910  5189 net.cpp:406] bn1 <- conv1
I0928 18:47:34.430925  5189 net.cpp:367] bn1 -> conv1 (in-place)
I0928 18:47:34.431164  5189 net.cpp:122] Setting up bn1
I0928 18:47:34.431174  5189 net.cpp:129] Top shape: 50 96 55 55 (14520000)
I0928 18:47:34.431179  5189 net.cpp:137] Memory required for data: 146266400
I0928 18:47:34.431210  5189 layer_factory.hpp:77] Creating layer scale1
I0928 18:47:34.431233  5189 net.cpp:84] Creating Layer scale1
I0928 18:47:34.431241  5189 net.cpp:406] scale1 <- conv1
I0928 18:47:34.431257  5189 net.cpp:367] scale1 -> conv1 (in-place)
I0928 18:47:34.431326  5189 layer_factory.hpp:77] Creating layer scale1
I0928 18:47:34.431509  5189 net.cpp:122] Setting up scale1
I0928 18:47:34.431519  5189 net.cpp:129] Top shape: 50 96 55 55 (14520000)
I0928 18:47:34.431524  5189 net.cpp:137] Memory required for data: 204346400
I0928 18:47:34.431545  5189 layer_factory.hpp:77] Creating layer relu1
I0928 18:47:34.431560  5189 net.cpp:84] Creating Layer relu1
I0928 18:47:34.431566  5189 net.cpp:406] relu1 <- conv1
I0928 18:47:34.431581  5189 net.cpp:367] relu1 -> conv1 (in-place)
I0928 18:47:34.431960  5189 net.cpp:122] Setting up relu1
I0928 18:47:34.431970  5189 net.cpp:129] Top shape: 50 96 55 55 (14520000)
I0928 18:47:34.431974  5189 net.cpp:137] Memory required for data: 262426400
I0928 18:47:34.431989  5189 layer_factory.hpp:77] Creating layer pool1
I0928 18:47:34.432009  5189 net.cpp:84] Creating Layer pool1
I0928 18:47:34.432016  5189 net.cpp:406] pool1 <- conv1
I0928 18:47:34.432034  5189 net.cpp:380] pool1 -> pool1
I0928 18:47:34.432097  5189 net.cpp:122] Setting up pool1
I0928 18:47:34.432118  5189 net.cpp:129] Top shape: 50 96 27 27 (3499200)
I0928 18:47:34.432132  5189 net.cpp:137] Memory required for data: 276423200
I0928 18:47:34.432137  5189 layer_factory.hpp:77] Creating layer conv2
I0928 18:47:34.432158  5189 net.cpp:84] Creating Layer conv2
I0928 18:47:34.432166  5189 net.cpp:406] conv2 <- pool1
I0928 18:47:34.432185  5189 net.cpp:380] conv2 -> conv2
I0928 18:47:34.512894  5189 net.cpp:122] Setting up conv2
I0928 18:47:34.512928  5189 net.cpp:129] Top shape: 50 256 27 27 (9331200)
I0928 18:47:34.512933  5189 net.cpp:137] Memory required for data: 313748000
I0928 18:47:34.512961  5189 layer_factory.hpp:77] Creating layer bn2
I0928 18:47:34.513020  5189 net.cpp:84] Creating Layer bn2
I0928 18:47:34.513043  5189 net.cpp:406] bn2 <- conv2
I0928 18:47:34.513077  5189 net.cpp:367] bn2 -> conv2 (in-place)
I0928 18:47:34.513332  5189 net.cpp:122] Setting up bn2
I0928 18:47:34.513350  5189 net.cpp:129] Top shape: 50 256 27 27 (9331200)
I0928 18:47:34.513355  5189 net.cpp:137] Memory required for data: 351072800
I0928 18:47:34.513422  5189 layer_factory.hpp:77] Creating layer scale2
I0928 18:47:34.513443  5189 net.cpp:84] Creating Layer scale2
I0928 18:47:34.513451  5189 net.cpp:406] scale2 <- conv2
I0928 18:47:34.513474  5189 net.cpp:367] scale2 -> conv2 (in-place)
I0928 18:47:34.513548  5189 layer_factory.hpp:77] Creating layer scale2
I0928 18:47:34.513741  5189 net.cpp:122] Setting up scale2
I0928 18:47:34.513751  5189 net.cpp:129] Top shape: 50 256 27 27 (9331200)
I0928 18:47:34.513756  5189 net.cpp:137] Memory required for data: 388397600
I0928 18:47:34.513778  5189 layer_factory.hpp:77] Creating layer relu2
I0928 18:47:34.513792  5189 net.cpp:84] Creating Layer relu2
I0928 18:47:34.513799  5189 net.cpp:406] relu2 <- conv2
I0928 18:47:34.513813  5189 net.cpp:367] relu2 -> conv2 (in-place)
I0928 18:47:34.514420  5189 net.cpp:122] Setting up relu2
I0928 18:47:34.514431  5189 net.cpp:129] Top shape: 50 256 27 27 (9331200)
I0928 18:47:34.514436  5189 net.cpp:137] Memory required for data: 425722400
I0928 18:47:34.514442  5189 layer_factory.hpp:77] Creating layer pool2
I0928 18:47:34.514461  5189 net.cpp:84] Creating Layer pool2
I0928 18:47:34.514469  5189 net.cpp:406] pool2 <- conv2
I0928 18:47:34.514487  5189 net.cpp:380] pool2 -> pool2
I0928 18:47:34.514555  5189 net.cpp:122] Setting up pool2
I0928 18:47:34.514566  5189 net.cpp:129] Top shape: 50 256 13 13 (2163200)
I0928 18:47:34.514571  5189 net.cpp:137] Memory required for data: 434375200
I0928 18:47:34.514577  5189 layer_factory.hpp:77] Creating layer conv3
I0928 18:47:34.514600  5189 net.cpp:84] Creating Layer conv3
I0928 18:47:34.514609  5189 net.cpp:406] conv3 <- pool2
I0928 18:47:34.514627  5189 net.cpp:380] conv3 -> conv3
I0928 18:47:34.628026  5189 net.cpp:122] Setting up conv3
I0928 18:47:34.628070  5189 net.cpp:129] Top shape: 50 384 13 13 (3244800)
I0928 18:47:34.628074  5189 net.cpp:137] Memory required for data: 447354400
I0928 18:47:34.628109  5189 layer_factory.hpp:77] Creating layer bn3
I0928 18:47:34.628140  5189 net.cpp:84] Creating Layer bn3
I0928 18:47:34.628172  5189 net.cpp:406] bn3 <- conv3
I0928 18:47:34.628196  5189 net.cpp:367] bn3 -> conv3 (in-place)
I0928 18:47:34.628437  5189 net.cpp:122] Setting up bn3
I0928 18:47:34.628455  5189 net.cpp:129] Top shape: 50 384 13 13 (3244800)
I0928 18:47:34.628459  5189 net.cpp:137] Memory required for data: 460333600
I0928 18:47:34.628487  5189 layer_factory.hpp:77] Creating layer scale3
I0928 18:47:34.628507  5189 net.cpp:84] Creating Layer scale3
I0928 18:47:34.628515  5189 net.cpp:406] scale3 <- conv3
I0928 18:47:34.628528  5189 net.cpp:367] scale3 -> conv3 (in-place)
I0928 18:47:34.628620  5189 layer_factory.hpp:77] Creating layer scale3
I0928 18:47:34.628794  5189 net.cpp:122] Setting up scale3
I0928 18:47:34.628804  5189 net.cpp:129] Top shape: 50 384 13 13 (3244800)
I0928 18:47:34.628809  5189 net.cpp:137] Memory required for data: 473312800
I0928 18:47:34.628844  5189 layer_factory.hpp:77] Creating layer relu3
I0928 18:47:34.628877  5189 net.cpp:84] Creating Layer relu3
I0928 18:47:34.628885  5189 net.cpp:406] relu3 <- conv3
I0928 18:47:34.628897  5189 net.cpp:367] relu3 -> conv3 (in-place)
I0928 18:47:34.629508  5189 net.cpp:122] Setting up relu3
I0928 18:47:34.629519  5189 net.cpp:129] Top shape: 50 384 13 13 (3244800)
I0928 18:47:34.629523  5189 net.cpp:137] Memory required for data: 486292000
I0928 18:47:34.629530  5189 layer_factory.hpp:77] Creating layer conv4
I0928 18:47:34.629564  5189 net.cpp:84] Creating Layer conv4
I0928 18:47:34.629572  5189 net.cpp:406] conv4 <- conv3
I0928 18:47:34.629592  5189 net.cpp:380] conv4 -> conv4
I0928 18:47:34.797832  5189 net.cpp:122] Setting up conv4
I0928 18:47:34.797866  5189 net.cpp:129] Top shape: 50 384 13 13 (3244800)
I0928 18:47:34.797871  5189 net.cpp:137] Memory required for data: 499271200
I0928 18:47:34.797895  5189 layer_factory.hpp:77] Creating layer bn4
I0928 18:47:34.797935  5189 net.cpp:84] Creating Layer bn4
I0928 18:47:34.797966  5189 net.cpp:406] bn4 <- conv4
I0928 18:47:34.798007  5189 net.cpp:367] bn4 -> conv4 (in-place)
I0928 18:47:34.798290  5189 net.cpp:122] Setting up bn4
I0928 18:47:34.798300  5189 net.cpp:129] Top shape: 50 384 13 13 (3244800)
I0928 18:47:34.798303  5189 net.cpp:137] Memory required for data: 512250400
I0928 18:47:34.798322  5189 layer_factory.hpp:77] Creating layer scale4
I0928 18:47:34.798348  5189 net.cpp:84] Creating Layer scale4
I0928 18:47:34.798357  5189 net.cpp:406] scale4 <- conv4
I0928 18:47:34.798370  5189 net.cpp:367] scale4 -> conv4 (in-place)
I0928 18:47:34.798481  5189 layer_factory.hpp:77] Creating layer scale4
I0928 18:47:34.798651  5189 net.cpp:122] Setting up scale4
I0928 18:47:34.798661  5189 net.cpp:129] Top shape: 50 384 13 13 (3244800)
I0928 18:47:34.798666  5189 net.cpp:137] Memory required for data: 525229600
I0928 18:47:34.798677  5189 layer_factory.hpp:77] Creating layer relu4
I0928 18:47:34.798689  5189 net.cpp:84] Creating Layer relu4
I0928 18:47:34.798705  5189 net.cpp:406] relu4 <- conv4
I0928 18:47:34.798718  5189 net.cpp:367] relu4 -> conv4 (in-place)
I0928 18:47:34.799108  5189 net.cpp:122] Setting up relu4
I0928 18:47:34.799118  5189 net.cpp:129] Top shape: 50 384 13 13 (3244800)
I0928 18:47:34.799123  5189 net.cpp:137] Memory required for data: 538208800
I0928 18:47:34.799129  5189 layer_factory.hpp:77] Creating layer conv5
I0928 18:47:34.799160  5189 net.cpp:84] Creating Layer conv5
I0928 18:47:34.799170  5189 net.cpp:406] conv5 <- conv4
I0928 18:47:34.799197  5189 net.cpp:380] conv5 -> conv5
I0928 18:47:34.911134  5189 net.cpp:122] Setting up conv5
I0928 18:47:34.911167  5189 net.cpp:129] Top shape: 50 256 13 13 (2163200)
I0928 18:47:34.911172  5189 net.cpp:137] Memory required for data: 546861600
I0928 18:47:34.911208  5189 layer_factory.hpp:77] Creating layer bn5
I0928 18:47:34.911252  5189 net.cpp:84] Creating Layer bn5
I0928 18:47:34.911267  5189 net.cpp:406] bn5 <- conv5
I0928 18:47:34.911290  5189 net.cpp:367] bn5 -> conv5 (in-place)
I0928 18:47:34.911537  5189 net.cpp:122] Setting up bn5
I0928 18:47:34.911547  5189 net.cpp:129] Top shape: 50 256 13 13 (2163200)
I0928 18:47:34.911550  5189 net.cpp:137] Memory required for data: 555514400
I0928 18:47:34.911569  5189 layer_factory.hpp:77] Creating layer scale5
I0928 18:47:34.911602  5189 net.cpp:84] Creating Layer scale5
I0928 18:47:34.911628  5189 net.cpp:406] scale5 <- conv5
I0928 18:47:34.911643  5189 net.cpp:367] scale5 -> conv5 (in-place)
I0928 18:47:34.911743  5189 layer_factory.hpp:77] Creating layer scale5
I0928 18:47:34.911917  5189 net.cpp:122] Setting up scale5
I0928 18:47:34.911927  5189 net.cpp:129] Top shape: 50 256 13 13 (2163200)
I0928 18:47:34.911931  5189 net.cpp:137] Memory required for data: 564167200
I0928 18:47:34.911944  5189 layer_factory.hpp:77] Creating layer relu5
I0928 18:47:34.911959  5189 net.cpp:84] Creating Layer relu5
I0928 18:47:34.911980  5189 net.cpp:406] relu5 <- conv5
I0928 18:47:34.912000  5189 net.cpp:367] relu5 -> conv5 (in-place)
I0928 18:47:34.912619  5189 net.cpp:122] Setting up relu5
I0928 18:47:34.912631  5189 net.cpp:129] Top shape: 50 256 13 13 (2163200)
I0928 18:47:34.912634  5189 net.cpp:137] Memory required for data: 572820000
I0928 18:47:34.912641  5189 layer_factory.hpp:77] Creating layer pool5
I0928 18:47:34.912658  5189 net.cpp:84] Creating Layer pool5
I0928 18:47:34.912679  5189 net.cpp:406] pool5 <- conv5
I0928 18:47:34.912703  5189 net.cpp:380] pool5 -> pool5
I0928 18:47:34.912789  5189 net.cpp:122] Setting up pool5
I0928 18:47:34.912802  5189 net.cpp:129] Top shape: 50 256 6 6 (460800)
I0928 18:47:34.912808  5189 net.cpp:137] Memory required for data: 574663200
I0928 18:47:34.912819  5189 layer_factory.hpp:77] Creating layer fc6
I0928 18:47:34.912847  5189 net.cpp:84] Creating Layer fc6
I0928 18:47:34.912856  5189 net.cpp:406] fc6 <- pool5
I0928 18:47:34.912895  5189 net.cpp:380] fc6 -> fc6
I0928 18:47:39.679255  5189 net.cpp:122] Setting up fc6
I0928 18:47:39.679291  5189 net.cpp:129] Top shape: 50 4096 (204800)
I0928 18:47:39.679296  5189 net.cpp:137] Memory required for data: 575482400
I0928 18:47:39.679332  5189 layer_factory.hpp:77] Creating layer bn6
I0928 18:47:39.679389  5189 net.cpp:84] Creating Layer bn6
I0928 18:47:39.679420  5189 net.cpp:406] bn6 <- fc6
I0928 18:47:39.679453  5189 net.cpp:367] bn6 -> fc6 (in-place)
I0928 18:47:39.679697  5189 net.cpp:122] Setting up bn6
I0928 18:47:39.679705  5189 net.cpp:129] Top shape: 50 4096 (204800)
I0928 18:47:39.679709  5189 net.cpp:137] Memory required for data: 576301600
I0928 18:47:39.679754  5189 layer_factory.hpp:77] Creating layer scale6
I0928 18:47:39.679774  5189 net.cpp:84] Creating Layer scale6
I0928 18:47:39.679781  5189 net.cpp:406] scale6 <- fc6
I0928 18:47:39.679795  5189 net.cpp:367] scale6 -> fc6 (in-place)
I0928 18:47:39.679898  5189 layer_factory.hpp:77] Creating layer scale6
I0928 18:47:39.680080  5189 net.cpp:122] Setting up scale6
I0928 18:47:39.680099  5189 net.cpp:129] Top shape: 50 4096 (204800)
I0928 18:47:39.680102  5189 net.cpp:137] Memory required for data: 577120800
I0928 18:47:39.680115  5189 layer_factory.hpp:77] Creating layer relu6
I0928 18:47:39.680128  5189 net.cpp:84] Creating Layer relu6
I0928 18:47:39.680135  5189 net.cpp:406] relu6 <- fc6
I0928 18:47:39.680148  5189 net.cpp:367] relu6 -> fc6 (in-place)
I0928 18:47:39.680567  5189 net.cpp:122] Setting up relu6
I0928 18:47:39.680577  5189 net.cpp:129] Top shape: 50 4096 (204800)
I0928 18:47:39.680580  5189 net.cpp:137] Memory required for data: 577940000
I0928 18:47:39.680586  5189 layer_factory.hpp:77] Creating layer drop6
I0928 18:47:39.680600  5189 net.cpp:84] Creating Layer drop6
I0928 18:47:39.680608  5189 net.cpp:406] drop6 <- fc6
I0928 18:47:39.680622  5189 net.cpp:367] drop6 -> fc6 (in-place)
I0928 18:47:39.680660  5189 net.cpp:122] Setting up drop6
I0928 18:47:39.680668  5189 net.cpp:129] Top shape: 50 4096 (204800)
I0928 18:47:39.680672  5189 net.cpp:137] Memory required for data: 578759200
I0928 18:47:39.680677  5189 layer_factory.hpp:77] Creating layer fc7
I0928 18:47:39.680699  5189 net.cpp:84] Creating Layer fc7
I0928 18:47:39.680707  5189 net.cpp:406] fc7 <- fc6
I0928 18:47:39.680724  5189 net.cpp:380] fc7 -> fc7
I0928 18:47:41.781208  5189 net.cpp:122] Setting up fc7
I0928 18:47:41.781245  5189 net.cpp:129] Top shape: 50 4096 (204800)
I0928 18:47:41.781250  5189 net.cpp:137] Memory required for data: 579578400
I0928 18:47:41.781286  5189 layer_factory.hpp:77] Creating layer bn7
I0928 18:47:41.781339  5189 net.cpp:84] Creating Layer bn7
I0928 18:47:41.781353  5189 net.cpp:406] bn7 <- fc7
I0928 18:47:41.781376  5189 net.cpp:367] bn7 -> fc7 (in-place)
I0928 18:47:41.781625  5189 net.cpp:122] Setting up bn7
I0928 18:47:41.781635  5189 net.cpp:129] Top shape: 50 4096 (204800)
I0928 18:47:41.781638  5189 net.cpp:137] Memory required for data: 580397600
I0928 18:47:41.781657  5189 layer_factory.hpp:77] Creating layer scale7
I0928 18:47:41.781710  5189 net.cpp:84] Creating Layer scale7
I0928 18:47:41.781736  5189 net.cpp:406] scale7 <- fc7
I0928 18:47:41.781751  5189 net.cpp:367] scale7 -> fc7 (in-place)
I0928 18:47:41.781853  5189 layer_factory.hpp:77] Creating layer scale7
I0928 18:47:41.782034  5189 net.cpp:122] Setting up scale7
I0928 18:47:41.782044  5189 net.cpp:129] Top shape: 50 4096 (204800)
I0928 18:47:41.782047  5189 net.cpp:137] Memory required for data: 581216800
I0928 18:47:41.782060  5189 layer_factory.hpp:77] Creating layer relu7
I0928 18:47:41.782073  5189 net.cpp:84] Creating Layer relu7
I0928 18:47:41.782091  5189 net.cpp:406] relu7 <- fc7
I0928 18:47:41.782115  5189 net.cpp:367] relu7 -> fc7 (in-place)
I0928 18:47:41.782708  5189 net.cpp:122] Setting up relu7
I0928 18:47:41.782719  5189 net.cpp:129] Top shape: 50 4096 (204800)
I0928 18:47:41.782724  5189 net.cpp:137] Memory required for data: 582036000
I0928 18:47:41.782730  5189 layer_factory.hpp:77] Creating layer drop7
I0928 18:47:41.782747  5189 net.cpp:84] Creating Layer drop7
I0928 18:47:41.782755  5189 net.cpp:406] drop7 <- fc7
I0928 18:47:41.782793  5189 net.cpp:367] drop7 -> fc7 (in-place)
I0928 18:47:41.782850  5189 net.cpp:122] Setting up drop7
I0928 18:47:41.782868  5189 net.cpp:129] Top shape: 50 4096 (204800)
I0928 18:47:41.782881  5189 net.cpp:137] Memory required for data: 582855200
I0928 18:47:41.782908  5189 layer_factory.hpp:77] Creating layer fc8
I0928 18:47:41.782934  5189 net.cpp:84] Creating Layer fc8
I0928 18:47:41.782951  5189 net.cpp:406] fc8 <- fc7
I0928 18:47:41.782979  5189 net.cpp:380] fc8 -> fc8
I0928 18:47:42.297919  5189 net.cpp:122] Setting up fc8
I0928 18:47:42.297955  5189 net.cpp:129] Top shape: 50 1000 (50000)
I0928 18:47:42.297960  5189 net.cpp:137] Memory required for data: 583055200
I0928 18:47:42.297996  5189 layer_factory.hpp:77] Creating layer fc8_fc8_0_split
I0928 18:47:42.298034  5189 net.cpp:84] Creating Layer fc8_fc8_0_split
I0928 18:47:42.298056  5189 net.cpp:406] fc8_fc8_0_split <- fc8
I0928 18:47:42.298099  5189 net.cpp:380] fc8_fc8_0_split -> fc8_fc8_0_split_0
I0928 18:47:42.298161  5189 net.cpp:380] fc8_fc8_0_split -> fc8_fc8_0_split_1
I0928 18:47:42.298187  5189 net.cpp:380] fc8_fc8_0_split -> fc8_fc8_0_split_2
I0928 18:47:42.298285  5189 net.cpp:122] Setting up fc8_fc8_0_split
I0928 18:47:42.298296  5189 net.cpp:129] Top shape: 50 1000 (50000)
I0928 18:47:42.298301  5189 net.cpp:129] Top shape: 50 1000 (50000)
I0928 18:47:42.298306  5189 net.cpp:129] Top shape: 50 1000 (50000)
I0928 18:47:42.298310  5189 net.cpp:137] Memory required for data: 583655200
I0928 18:47:42.298315  5189 layer_factory.hpp:77] Creating layer loss
I0928 18:47:42.298337  5189 net.cpp:84] Creating Layer loss
I0928 18:47:42.298346  5189 net.cpp:406] loss <- fc8_fc8_0_split_0
I0928 18:47:42.298367  5189 net.cpp:406] loss <- label_data_1_split_0
I0928 18:47:42.298399  5189 net.cpp:380] loss -> loss
…
