…
I0911 22:15:01.099158 19805 net.cpp:294] The NetState phase (0) differed from the phase (1) specified by a rule in layer data
I0911 22:15:01.099400 19805 net.cpp:51] Initializing net from parameters: 
name: "AlexNet-BN"
state {
  phase: TRAIN
  level: 0
  stage: ""
}
layer {
  name: "data"
  type: "Data"
  top: "data"
  top: "label"
  include {
    phase: TRAIN
  }
  transform_param {
    mirror: true
    crop_size: 224
    mean_file: "/mnt/data/ilsvrc12/origin/imagenet_mean.binaryproto"
  }
  data_param {
    source: "/mnt/data/ilsvrc12/origin/ilsvrc12_train_lmdb"
    batch_size: 128
    backend: LMDB
  }
}
layer {
  name: "conv1"
  type: "BinaryConvolution"
  bottom: "data"
  top: "conv1"
  param {
    lr_mult: 1
    decay_mult: 1
  }
  convolution_param {
    num_output: 96
    bias_term: false
    pad: 2
    kernel_size: 11
    stride: 4
    weight_filler {
      type: "msra"
    }
  }
  debug_param {
    binary_relax: true
  }
}
layer {
  name: "bn1"
  type: "BatchNorm"
  bottom: "conv1"
  top: "conv1"
}
layer {
  name: "scale1"
  type: "Scale"
  bottom: "conv1"
  top: "conv1"
  scale_param {
    bias_term: true
  }
}
layer {
  name: "relu1"
  type: "ReLU"
  bottom: "conv1"
  top: "conv1"
}
layer {
  name: "pool1"
  type: "Pooling"
  bottom: "conv1"
  top: "pool1"
  pooling_param {
    pool: MAX
    kernel_size: 3
    stride: 2
  }
}
layer {
  name: "conv2"
  type: "BinaryConvolution"
  bottom: "pool1"
  top: "conv2"
  param {
    lr_mult: 1
    decay_mult: 1
  }
  convolution_param {
    num_output: 256
    bias_term: false
    pad: 2
    kernel_size: 5
    weight_filler {
      type: "msra"
    }
  }
  debug_param {
    binary_relax: true
  }
}
layer {
  name: "bn2"
  type: "BatchNorm"
  bottom: "conv2"
  top: "conv2"
}
layer {
  name: "scale2"
  type: "Scale"
  bottom: "conv2"
  top: "conv2"
  scale_param {
    bias_term: true
  }
}
layer {
  name: "relu2"
  type: "ReLU"
  bottom: "conv2"
  top: "conv2"
}
layer {
  name: "pool2"
  type: "Pooling"
  bottom: "conv2"
  top: "pool2"
  pooling_param {
    pool: MAX
    kernel_size: 3
    stride: 2
  }
}
layer {
  name: "conv3"
  type: "BinaryConvolution"
  bottom: "pool2"
  top: "conv3"
  param {
    lr_mult: 1
    decay_mult: 1
  }
  convolution_param {
    num_output: 384
    bias_term: false
    pad: 1
    kernel_size: 3
    weight_filler {
      type: "msra"
    }
  }
  debug_param {
    binary_relax: true
  }
}
layer {
  name: "bn3"
  type: "BatchNorm"
  bottom: "conv3"
  top: "conv3"
}
layer {
  name: "scale3"
  type: "Scale"
  bottom: "conv3"
  top: "conv3"
  scale_param {
    bias_term: true
  }
}
layer {
  name: "relu3"
  type: "ReLU"
  bottom: "conv3"
  top: "conv3"
}
layer {
  name: "conv4"
  type: "BinaryConvolution"
  bottom: "conv3"
  top: "conv4"
  param {
    lr_mult: 1
    decay_mult: 1
  }
  convolution_param {
    num_output: 384
    bias_term: false
    pad: 1
    kernel_size: 3
    weight_filler {
      type: "msra"
    }
  }
  debug_param {
    binary_relax: true
  }
}
layer {
  name: "bn4"
  type: "BatchNorm"
  bottom: "conv4"
  top: "conv4"
}
layer {
  name: "scale4"
  type: "Scale"
  bottom: "conv4"
  top: "conv4"
  scale_param {
    bias_term: true
  }
}
layer {
  name: "relu4"
  type: "ReLU"
  bottom: "conv4"
  top: "conv4"
}
layer {
  name: "conv5"
  type: "BinaryConvolution"
  bottom: "conv4"
  top: "conv5"
  param {
    lr_mult: 1
    decay_mult: 1
  }
  convolution_param {
    num_output: 256
    bias_term: false
    pad: 1
    kernel_size: 3
    weight_filler {
      type: "msra"
    }
  }
  debug_param {
    binary_relax: true
  }
}
layer {
  name: "bn5"
  type: "BatchNorm"
  bottom: "conv5"
  top: "conv5"
}
layer {
  name: "scale5"
  type: "Scale"
  bottom: "conv5"
  top: "conv5"
  scale_param {
    bias_term: true
  }
}
layer {
  name: "relu5"
  type: "ReLU"
  bottom: "conv5"
  top: "conv5"
}
layer {
  name: "pool5"
  type: "Pooling"
  bottom: "conv5"
  top: "pool5"
  pooling_param {
    pool: MAX
    kernel_size: 3
    stride: 2
  }
}
layer {
  name: "fc6"
  type: "BinaryInnerProduct"
  bottom: "pool5"
  top: "fc6"
  param {
    lr_mult: 1
    decay_mult: 1
  }
  inner_product_param {
    num_output: 4096
    bias_term: false
    weight_filler {
      type: "msra"
    }
  }
  debug_param {
    binary_relax: true
  }
}
layer {
  name: "bn6"
  type: "BatchNorm"
  bottom: "fc6"
  top: "fc6"
}
layer {
  name: "scale6"
  type: "Scale"
  bottom: "fc6"
  top: "fc6"
  scale_param {
    bias_term: true
  }
}
layer {
  name: "relu6"
  type: "ReLU"
  bottom: "fc6"
  top: "fc6"
}
layer {
  name: "drop6"
  type: "Dropout"
  bottom: "fc6"
  top: "fc6"
  dropout_param {
    dropout_ratio: 0.5
  }
}
layer {
  name: "fc7"
  type: "BinaryInnerProduct"
  bottom: "fc6"
  top: "fc7"
  param {
    lr_mult: 1
    decay_mult: 1
  }
  inner_product_param {
    num_output: 4096
    bias_term: false
    weight_filler {
      type: "msra"
    }
  }
  debug_param {
    binary_relax: true
  }
}
layer {
  name: "bn7"
  type: "BatchNorm"
  bottom: "fc7"
  top: "fc7"
}
layer {
  name: "scale7"
  type: "Scale"
  bottom: "fc7"
  top: "fc7"
  scale_param {
    bias_term: true
  }
}
layer {
  name: "relu7"
  type: "ReLU"
  bottom: "fc7"
  top: "fc7"
}
layer {
  name: "drop7"
  type: "Dropout"
  bottom: "fc7"
  top: "fc7"
  dropout_param {
    dropout_ratio: 0.5
  }
}
layer {
  name: "fc8"
  type: "BinaryInnerProduct"
  bottom: "fc7"
  top: "fc8"
  param {
    lr_mult: 1
    decay_mult: 1
  }
  param {
    lr_mult: 2
    decay_mult: 0
  }
  inner_product_param {
    num_output: 1000
    weight_filler {
      type: "msra"
    }
    bias_filler {
      type: "constant"
      value: 0
    }
  }
  debug_param {
    binary_relax: true
  }
}
layer {
  name: "loss"
  type: "SoftmaxWithLoss"
  bottom: "fc8"
  bottom: "label"
  top: "loss"
}
layer {
  name: "accuracy"
  type: "Accuracy"
  bottom: "fc8"
  bottom: "label"
  top: "accuracy"
}
layer {
  name: "accuracy_5"
  type: "Accuracy"
  bottom: "fc8"
  bottom: "label"
  top: "accuracy_5"
  accuracy_param {
    top_k: 5
  }
}
layer {
  name: "accuracy_train_1"
  type: "Accuracy"
  bottom: "fc8"
  bottom: "label"
  top: "accuracy_train_1"
  include {
    phase: TRAIN
  }
}
layer {
  name: "accuracy_train_5"
  type: "Accuracy"
  bottom: "fc8"
  bottom: "label"
  top: "accuracy_train_5"
  include {
    phase: TRAIN
  }
  accuracy_param {
    top_k: 5
  }
}
I0911 22:15:01.100061 19805 layer_factory.hpp:77] Creating layer data
I0911 22:15:01.100239 19805 db_lmdb.cpp:35] Opened lmdb /mnt/data/ilsvrc12/origin/ilsvrc12_train_lmdb
I0911 22:15:01.100292 19805 net.cpp:84] Creating Layer data
I0911 22:15:01.100316 19805 net.cpp:380] data -> data
I0911 22:15:01.100448 19805 net.cpp:380] data -> label
I0911 22:15:01.100487 19805 data_transformer.cpp:25] Loading mean file from: /mnt/data/ilsvrc12/origin/imagenet_mean.binaryproto
I0911 22:15:01.107470 19805 data_layer.cpp:45] output data size: 128,3,224,224
I0911 22:15:01.220791 19805 base_data_layer.cpp:72] Initializing prefetch
I0911 22:15:01.220964 19805 base_data_layer.cpp:75] Prefetch initialized.
I0911 22:15:01.220975 19805 net.cpp:122] Setting up data
I0911 22:15:01.221030 19805 net.cpp:129] Top shape: 128 3 224 224 (19267584)
I0911 22:15:01.221040 19805 net.cpp:129] Top shape: 128 (128)
I0911 22:15:01.221045 19805 net.cpp:137] Memory required for data: 77070848
I0911 22:15:01.221086 19805 layer_factory.hpp:77] Creating layer label_data_1_split
I0911 22:15:01.221149 19805 net.cpp:84] Creating Layer label_data_1_split
I0911 22:15:01.221173 19805 net.cpp:406] label_data_1_split <- label
I0911 22:15:01.221215 19805 net.cpp:380] label_data_1_split -> label_data_1_split_0
I0911 22:15:01.221249 19805 net.cpp:380] label_data_1_split -> label_data_1_split_1
I0911 22:15:01.221267 19805 net.cpp:380] label_data_1_split -> label_data_1_split_2
I0911 22:15:01.221285 19805 net.cpp:380] label_data_1_split -> label_data_1_split_3
I0911 22:15:01.221299 19805 net.cpp:380] label_data_1_split -> label_data_1_split_4
I0911 22:15:01.221386 19805 net.cpp:122] Setting up label_data_1_split
I0911 22:15:01.221397 19805 net.cpp:129] Top shape: 128 (128)
I0911 22:15:01.221417 19805 net.cpp:129] Top shape: 128 (128)
I0911 22:15:01.221424 19805 net.cpp:129] Top shape: 128 (128)
I0911 22:15:01.221431 19805 net.cpp:129] Top shape: 128 (128)
I0911 22:15:01.221436 19805 net.cpp:129] Top shape: 128 (128)
I0911 22:15:01.221441 19805 net.cpp:137] Memory required for data: 77073408
I0911 22:15:01.221447 19805 layer_factory.hpp:77] Creating layer conv1
I0911 22:15:01.221490 19805 net.cpp:84] Creating Layer conv1
I0911 22:15:01.221499 19805 net.cpp:406] conv1 <- data
I0911 22:15:01.221527 19805 net.cpp:380] conv1 -> conv1
I0911 22:15:01.228884 19805 net.cpp:122] Setting up conv1
I0911 22:15:01.228900 19805 net.cpp:129] Top shape: 128 96 55 55 (37171200)
I0911 22:15:01.228914 19805 net.cpp:137] Memory required for data: 225758208
I0911 22:15:01.228969 19805 layer_factory.hpp:77] Creating layer bn1
I0911 22:15:01.228998 19805 net.cpp:84] Creating Layer bn1
I0911 22:15:01.229007 19805 net.cpp:406] bn1 <- conv1
I0911 22:15:01.229025 19805 net.cpp:367] bn1 -> conv1 (in-place)
I0911 22:15:01.229521 19805 net.cpp:122] Setting up bn1
I0911 22:15:01.229532 19805 net.cpp:129] Top shape: 128 96 55 55 (37171200)
I0911 22:15:01.229535 19805 net.cpp:137] Memory required for data: 374443008
I0911 22:15:01.229583 19805 layer_factory.hpp:77] Creating layer scale1
I0911 22:15:01.229626 19805 net.cpp:84] Creating Layer scale1
I0911 22:15:01.229635 19805 net.cpp:406] scale1 <- conv1
I0911 22:15:01.229651 19805 net.cpp:367] scale1 -> conv1 (in-place)
I0911 22:15:01.229712 19805 layer_factory.hpp:77] Creating layer scale1
I0911 22:15:01.229897 19805 net.cpp:122] Setting up scale1
I0911 22:15:01.229907 19805 net.cpp:129] Top shape: 128 96 55 55 (37171200)
I0911 22:15:01.229920 19805 net.cpp:137] Memory required for data: 523127808
I0911 22:15:01.229941 19805 layer_factory.hpp:77] Creating layer relu1
I0911 22:15:01.229960 19805 net.cpp:84] Creating Layer relu1
I0911 22:15:01.229969 19805 net.cpp:406] relu1 <- conv1
I0911 22:15:01.229982 19805 net.cpp:367] relu1 -> conv1 (in-place)
I0911 22:15:01.610882 19805 net.cpp:122] Setting up relu1
I0911 22:15:01.610926 19805 net.cpp:129] Top shape: 128 96 55 55 (37171200)
I0911 22:15:01.610931 19805 net.cpp:137] Memory required for data: 671812608
I0911 22:15:01.610947 19805 layer_factory.hpp:77] Creating layer pool1
I0911 22:15:01.611006 19805 net.cpp:84] Creating Layer pool1
I0911 22:15:01.611042 19805 net.cpp:406] pool1 <- conv1
I0911 22:15:01.611093 19805 net.cpp:380] pool1 -> pool1
I0911 22:15:01.611218 19805 net.cpp:122] Setting up pool1
I0911 22:15:01.611243 19805 net.cpp:129] Top shape: 128 96 27 27 (8957952)
I0911 22:15:01.611248 19805 net.cpp:137] Memory required for data: 707644416
I0911 22:15:01.611253 19805 layer_factory.hpp:77] Creating layer conv2
I0911 22:15:01.611290 19805 net.cpp:84] Creating Layer conv2
I0911 22:15:01.611316 19805 net.cpp:406] conv2 <- pool1
I0911 22:15:01.611344 19805 net.cpp:380] conv2 -> conv2
I0911 22:15:01.690789 19805 net.cpp:122] Setting up conv2
I0911 22:15:01.690824 19805 net.cpp:129] Top shape: 128 256 27 27 (23887872)
I0911 22:15:01.690829 19805 net.cpp:137] Memory required for data: 803195904
I0911 22:15:01.690852 19805 layer_factory.hpp:77] Creating layer bn2
I0911 22:15:01.690898 19805 net.cpp:84] Creating Layer bn2
I0911 22:15:01.690933 19805 net.cpp:406] bn2 <- conv2
I0911 22:15:01.690958 19805 net.cpp:367] bn2 -> conv2 (in-place)
I0911 22:15:01.691170 19805 net.cpp:122] Setting up bn2
I0911 22:15:01.691180 19805 net.cpp:129] Top shape: 128 256 27 27 (23887872)
I0911 22:15:01.691184 19805 net.cpp:137] Memory required for data: 898747392
I0911 22:15:01.691215 19805 layer_factory.hpp:77] Creating layer scale2
I0911 22:15:01.691233 19805 net.cpp:84] Creating Layer scale2
I0911 22:15:01.691241 19805 net.cpp:406] scale2 <- conv2
I0911 22:15:01.691256 19805 net.cpp:367] scale2 -> conv2 (in-place)
I0911 22:15:01.691315 19805 layer_factory.hpp:77] Creating layer scale2
I0911 22:15:01.691469 19805 net.cpp:122] Setting up scale2
I0911 22:15:01.691478 19805 net.cpp:129] Top shape: 128 256 27 27 (23887872)
I0911 22:15:01.691483 19805 net.cpp:137] Memory required for data: 994298880
I0911 22:15:01.691495 19805 layer_factory.hpp:77] Creating layer relu2
I0911 22:15:01.691509 19805 net.cpp:84] Creating Layer relu2
I0911 22:15:01.691515 19805 net.cpp:406] relu2 <- conv2
I0911 22:15:01.691529 19805 net.cpp:367] relu2 -> conv2 (in-place)
I0911 22:15:01.691900 19805 net.cpp:122] Setting up relu2
I0911 22:15:01.691910 19805 net.cpp:129] Top shape: 128 256 27 27 (23887872)
I0911 22:15:01.691915 19805 net.cpp:137] Memory required for data: 1089850368
I0911 22:15:01.691920 19805 layer_factory.hpp:77] Creating layer pool2
I0911 22:15:01.691941 19805 net.cpp:84] Creating Layer pool2
I0911 22:15:01.691948 19805 net.cpp:406] pool2 <- conv2
I0911 22:15:01.691965 19805 net.cpp:380] pool2 -> pool2
I0911 22:15:01.692028 19805 net.cpp:122] Setting up pool2
I0911 22:15:01.692039 19805 net.cpp:129] Top shape: 128 256 13 13 (5537792)
I0911 22:15:01.692044 19805 net.cpp:137] Memory required for data: 1112001536
I0911 22:15:01.692049 19805 layer_factory.hpp:77] Creating layer conv3
I0911 22:15:01.692073 19805 net.cpp:84] Creating Layer conv3
I0911 22:15:01.692081 19805 net.cpp:406] conv3 <- pool2
I0911 22:15:01.692101 19805 net.cpp:380] conv3 -> conv3
I0911 22:15:01.804869 19805 net.cpp:122] Setting up conv3
I0911 22:15:01.804916 19805 net.cpp:129] Top shape: 128 384 13 13 (8306688)
I0911 22:15:01.804920 19805 net.cpp:137] Memory required for data: 1145228288
I0911 22:15:01.804946 19805 layer_factory.hpp:77] Creating layer bn3
I0911 22:15:01.804989 19805 net.cpp:84] Creating Layer bn3
I0911 22:15:01.805004 19805 net.cpp:406] bn3 <- conv3
I0911 22:15:01.805035 19805 net.cpp:367] bn3 -> conv3 (in-place)
I0911 22:15:01.805264 19805 net.cpp:122] Setting up bn3
I0911 22:15:01.805282 19805 net.cpp:129] Top shape: 128 384 13 13 (8306688)
I0911 22:15:01.805286 19805 net.cpp:137] Memory required for data: 1178455040
I0911 22:15:01.805305 19805 layer_factory.hpp:77] Creating layer scale3
I0911 22:15:01.805325 19805 net.cpp:84] Creating Layer scale3
I0911 22:15:01.805333 19805 net.cpp:406] scale3 <- conv3
I0911 22:15:01.805346 19805 net.cpp:367] scale3 -> conv3 (in-place)
I0911 22:15:01.805413 19805 layer_factory.hpp:77] Creating layer scale3
I0911 22:15:01.805586 19805 net.cpp:122] Setting up scale3
I0911 22:15:01.805604 19805 net.cpp:129] Top shape: 128 384 13 13 (8306688)
I0911 22:15:01.805608 19805 net.cpp:137] Memory required for data: 1211681792
I0911 22:15:01.805635 19805 layer_factory.hpp:77] Creating layer relu3
I0911 22:15:01.805650 19805 net.cpp:84] Creating Layer relu3
I0911 22:15:01.805657 19805 net.cpp:406] relu3 <- conv3
I0911 22:15:01.805673 19805 net.cpp:367] relu3 -> conv3 (in-place)
I0911 22:15:01.806275 19805 net.cpp:122] Setting up relu3
I0911 22:15:01.806288 19805 net.cpp:129] Top shape: 128 384 13 13 (8306688)
I0911 22:15:01.806291 19805 net.cpp:137] Memory required for data: 1244908544
I0911 22:15:01.806298 19805 layer_factory.hpp:77] Creating layer conv4
I0911 22:15:01.806326 19805 net.cpp:84] Creating Layer conv4
I0911 22:15:01.806335 19805 net.cpp:406] conv4 <- conv3
I0911 22:15:01.806355 19805 net.cpp:380] conv4 -> conv4
I0911 22:15:01.974115 19805 net.cpp:122] Setting up conv4
I0911 22:15:01.974150 19805 net.cpp:129] Top shape: 128 384 13 13 (8306688)
I0911 22:15:01.974177 19805 net.cpp:137] Memory required for data: 1278135296
I0911 22:15:01.974226 19805 layer_factory.hpp:77] Creating layer bn4
I0911 22:15:01.974298 19805 net.cpp:84] Creating Layer bn4
I0911 22:15:01.974334 19805 net.cpp:406] bn4 <- conv4
I0911 22:15:01.974369 19805 net.cpp:367] bn4 -> conv4 (in-place)
I0911 22:15:01.974613 19805 net.cpp:122] Setting up bn4
I0911 22:15:01.974623 19805 net.cpp:129] Top shape: 128 384 13 13 (8306688)
I0911 22:15:01.974627 19805 net.cpp:137] Memory required for data: 1311362048
I0911 22:15:01.974645 19805 layer_factory.hpp:77] Creating layer scale4
I0911 22:15:01.974673 19805 net.cpp:84] Creating Layer scale4
I0911 22:15:01.974680 19805 net.cpp:406] scale4 <- conv4
I0911 22:15:01.974694 19805 net.cpp:367] scale4 -> conv4 (in-place)
I0911 22:15:01.974761 19805 layer_factory.hpp:77] Creating layer scale4
I0911 22:15:01.974927 19805 net.cpp:122] Setting up scale4
I0911 22:15:01.974937 19805 net.cpp:129] Top shape: 128 384 13 13 (8306688)
I0911 22:15:01.974941 19805 net.cpp:137] Memory required for data: 1344588800
I0911 22:15:01.974963 19805 layer_factory.hpp:77] Creating layer relu4
I0911 22:15:01.974994 19805 net.cpp:84] Creating Layer relu4
I0911 22:15:01.975001 19805 net.cpp:406] relu4 <- conv4
I0911 22:15:01.975035 19805 net.cpp:367] relu4 -> conv4 (in-place)
I0911 22:15:01.975414 19805 net.cpp:122] Setting up relu4
I0911 22:15:01.975423 19805 net.cpp:129] Top shape: 128 384 13 13 (8306688)
I0911 22:15:01.975427 19805 net.cpp:137] Memory required for data: 1377815552
I0911 22:15:01.975442 19805 layer_factory.hpp:77] Creating layer conv5
I0911 22:15:01.975466 19805 net.cpp:84] Creating Layer conv5
I0911 22:15:01.975473 19805 net.cpp:406] conv5 <- conv4
I0911 22:15:01.975512 19805 net.cpp:380] conv5 -> conv5
I0911 22:15:02.087386 19805 net.cpp:122] Setting up conv5
I0911 22:15:02.087422 19805 net.cpp:129] Top shape: 128 256 13 13 (5537792)
I0911 22:15:02.087426 19805 net.cpp:137] Memory required for data: 1399966720
I0911 22:15:02.087460 19805 layer_factory.hpp:77] Creating layer bn5
I0911 22:15:02.087496 19805 net.cpp:84] Creating Layer bn5
I0911 22:15:02.087519 19805 net.cpp:406] bn5 <- conv5
I0911 22:15:02.087550 19805 net.cpp:367] bn5 -> conv5 (in-place)
I0911 22:15:02.087775 19805 net.cpp:122] Setting up bn5
I0911 22:15:02.087785 19805 net.cpp:129] Top shape: 128 256 13 13 (5537792)
I0911 22:15:02.087787 19805 net.cpp:137] Memory required for data: 1422117888
I0911 22:15:02.087806 19805 layer_factory.hpp:77] Creating layer scale5
I0911 22:15:02.087832 19805 net.cpp:84] Creating Layer scale5
I0911 22:15:02.087841 19805 net.cpp:406] scale5 <- conv5
I0911 22:15:02.087863 19805 net.cpp:367] scale5 -> conv5 (in-place)
I0911 22:15:02.087978 19805 layer_factory.hpp:77] Creating layer scale5
I0911 22:15:02.088176 19805 net.cpp:122] Setting up scale5
I0911 22:15:02.088186 19805 net.cpp:129] Top shape: 128 256 13 13 (5537792)
I0911 22:15:02.088188 19805 net.cpp:137] Memory required for data: 1444269056
I0911 22:15:02.088201 19805 layer_factory.hpp:77] Creating layer relu5
I0911 22:15:02.088223 19805 net.cpp:84] Creating Layer relu5
I0911 22:15:02.088232 19805 net.cpp:406] relu5 <- conv5
I0911 22:15:02.088255 19805 net.cpp:367] relu5 -> conv5 (in-place)
I0911 22:15:02.088810 19805 net.cpp:122] Setting up relu5
I0911 22:15:02.088821 19805 net.cpp:129] Top shape: 128 256 13 13 (5537792)
I0911 22:15:02.088825 19805 net.cpp:137] Memory required for data: 1466420224
I0911 22:15:02.088840 19805 layer_factory.hpp:77] Creating layer pool5
I0911 22:15:02.088858 19805 net.cpp:84] Creating Layer pool5
I0911 22:15:02.088867 19805 net.cpp:406] pool5 <- conv5
I0911 22:15:02.088884 19805 net.cpp:380] pool5 -> pool5
I0911 22:15:02.088973 19805 net.cpp:122] Setting up pool5
I0911 22:15:02.088984 19805 net.cpp:129] Top shape: 128 256 6 6 (1179648)
I0911 22:15:02.088997 19805 net.cpp:137] Memory required for data: 1471138816
I0911 22:15:02.089004 19805 layer_factory.hpp:77] Creating layer fc6
I0911 22:15:02.089031 19805 net.cpp:84] Creating Layer fc6
I0911 22:15:02.089048 19805 net.cpp:406] fc6 <- pool5
I0911 22:15:02.089089 19805 net.cpp:380] fc6 -> fc6
I0911 22:15:06.823220 19805 net.cpp:122] Setting up fc6
I0911 22:15:06.823256 19805 net.cpp:129] Top shape: 128 4096 (524288)
I0911 22:15:06.823261 19805 net.cpp:137] Memory required for data: 1473235968
I0911 22:15:06.823297 19805 layer_factory.hpp:77] Creating layer bn6
I0911 22:15:06.823348 19805 net.cpp:84] Creating Layer bn6
I0911 22:15:06.823379 19805 net.cpp:406] bn6 <- fc6
I0911 22:15:06.823417 19805 net.cpp:367] bn6 -> fc6 (in-place)
I0911 22:15:06.823719 19805 net.cpp:122] Setting up bn6
I0911 22:15:06.823729 19805 net.cpp:129] Top shape: 128 4096 (524288)
I0911 22:15:06.823734 19805 net.cpp:137] Memory required for data: 1475333120
I0911 22:15:06.823787 19805 layer_factory.hpp:77] Creating layer scale6
I0911 22:15:06.823808 19805 net.cpp:84] Creating Layer scale6
I0911 22:15:06.823825 19805 net.cpp:406] scale6 <- fc6
I0911 22:15:06.823849 19805 net.cpp:367] scale6 -> fc6 (in-place)
I0911 22:15:06.823956 19805 layer_factory.hpp:77] Creating layer scale6
I0911 22:15:06.824149 19805 net.cpp:122] Setting up scale6
I0911 22:15:06.824159 19805 net.cpp:129] Top shape: 128 4096 (524288)
I0911 22:15:06.824162 19805 net.cpp:137] Memory required for data: 1477430272
I0911 22:15:06.824175 19805 layer_factory.hpp:77] Creating layer relu6
I0911 22:15:06.824198 19805 net.cpp:84] Creating Layer relu6
I0911 22:15:06.824206 19805 net.cpp:406] relu6 <- fc6
I0911 22:15:06.824230 19805 net.cpp:367] relu6 -> fc6 (in-place)
I0911 22:15:06.824801 19805 net.cpp:122] Setting up relu6
I0911 22:15:06.824813 19805 net.cpp:129] Top shape: 128 4096 (524288)
I0911 22:15:06.824818 19805 net.cpp:137] Memory required for data: 1479527424
I0911 22:15:06.824826 19805 layer_factory.hpp:77] Creating layer drop6
I0911 22:15:06.824846 19805 net.cpp:84] Creating Layer drop6
I0911 22:15:06.824853 19805 net.cpp:406] drop6 <- fc6
I0911 22:15:06.824868 19805 net.cpp:367] drop6 -> fc6 (in-place)
I0911 22:15:06.824908 19805 net.cpp:122] Setting up drop6
I0911 22:15:06.824918 19805 net.cpp:129] Top shape: 128 4096 (524288)
I0911 22:15:06.824921 19805 net.cpp:137] Memory required for data: 1481624576
I0911 22:15:06.824928 19805 layer_factory.hpp:77] Creating layer fc7
I0911 22:15:06.824950 19805 net.cpp:84] Creating Layer fc7
I0911 22:15:06.824959 19805 net.cpp:406] fc7 <- fc6
I0911 22:15:06.824976 19805 net.cpp:380] fc7 -> fc7
I0911 22:15:08.929888 19805 net.cpp:122] Setting up fc7
I0911 22:15:08.929934 19805 net.cpp:129] Top shape: 128 4096 (524288)
I0911 22:15:08.929939 19805 net.cpp:137] Memory required for data: 1483721728
I0911 22:15:08.929976 19805 layer_factory.hpp:77] Creating layer bn7
I0911 22:15:08.930018 19805 net.cpp:84] Creating Layer bn7
I0911 22:15:08.930037 19805 net.cpp:406] bn7 <- fc7
I0911 22:15:08.930078 19805 net.cpp:367] bn7 -> fc7 (in-place)
I0911 22:15:08.930362 19805 net.cpp:122] Setting up bn7
I0911 22:15:08.930382 19805 net.cpp:129] Top shape: 128 4096 (524288)
I0911 22:15:08.930385 19805 net.cpp:137] Memory required for data: 1485818880
I0911 22:15:08.930405 19805 layer_factory.hpp:77] Creating layer scale7
I0911 22:15:08.930443 19805 net.cpp:84] Creating Layer scale7
I0911 22:15:08.930467 19805 net.cpp:406] scale7 <- fc7
I0911 22:15:08.930482 19805 net.cpp:367] scale7 -> fc7 (in-place)
I0911 22:15:08.930564 19805 layer_factory.hpp:77] Creating layer scale7
I0911 22:15:08.930733 19805 net.cpp:122] Setting up scale7
I0911 22:15:08.930743 19805 net.cpp:129] Top shape: 128 4096 (524288)
I0911 22:15:08.930747 19805 net.cpp:137] Memory required for data: 1487916032
I0911 22:15:08.930760 19805 layer_factory.hpp:77] Creating layer relu7
I0911 22:15:08.930774 19805 net.cpp:84] Creating Layer relu7
I0911 22:15:08.930781 19805 net.cpp:406] relu7 <- fc7
I0911 22:15:08.930795 19805 net.cpp:367] relu7 -> fc7 (in-place)
I0911 22:15:08.931167 19805 net.cpp:122] Setting up relu7
I0911 22:15:08.931177 19805 net.cpp:129] Top shape: 128 4096 (524288)
I0911 22:15:08.931182 19805 net.cpp:137] Memory required for data: 1490013184
I0911 22:15:08.931188 19805 layer_factory.hpp:77] Creating layer drop7
I0911 22:15:08.931219 19805 net.cpp:84] Creating Layer drop7
I0911 22:15:08.931228 19805 net.cpp:406] drop7 <- fc7
I0911 22:15:08.931243 19805 net.cpp:367] drop7 -> fc7 (in-place)
I0911 22:15:08.931282 19805 net.cpp:122] Setting up drop7
I0911 22:15:08.931290 19805 net.cpp:129] Top shape: 128 4096 (524288)
I0911 22:15:08.931295 19805 net.cpp:137] Memory required for data: 1492110336
I0911 22:15:08.931300 19805 layer_factory.hpp:77] Creating layer fc8
I0911 22:15:08.931321 19805 net.cpp:84] Creating Layer fc8
I0911 22:15:08.931330 19805 net.cpp:406] fc8 <- fc7
I0911 22:15:08.931349 19805 net.cpp:380] fc8 -> fc8
I0911 22:15:09.446043 19805 net.cpp:122] Setting up fc8
I0911 22:15:09.446081 19805 net.cpp:129] Top shape: 128 1000 (128000)
I0911 22:15:09.446086 19805 net.cpp:137] Memory required for data: 1492622336
I0911 22:15:09.446123 19805 layer_factory.hpp:77] Creating layer fc8_fc8_0_split
I0911 22:15:09.446171 19805 net.cpp:84] Creating Layer fc8_fc8_0_split
I0911 22:15:09.446194 19805 net.cpp:406] fc8_fc8_0_split <- fc8
I0911 22:15:09.446220 19805 net.cpp:380] fc8_fc8_0_split -> fc8_fc8_0_split_0
I0911 22:15:09.446265 19805 net.cpp:380] fc8_fc8_0_split -> fc8_fc8_0_split_1
I0911 22:15:09.446280 19805 net.cpp:380] fc8_fc8_0_split -> fc8_fc8_0_split_2
I0911 22:15:09.446296 19805 net.cpp:380] fc8_fc8_0_split -> fc8_fc8_0_split_3
I0911 22:15:09.446310 19805 net.cpp:380] fc8_fc8_0_split -> fc8_fc8_0_split_4
I0911 22:15:09.446420 19805 net.cpp:122] Setting up fc8_fc8_0_split
I0911 22:15:09.446430 19805 net.cpp:129] Top shape: 128 1000 (128000)
I0911 22:15:09.446436 19805 net.cpp:129] Top shape: 128 1000 (128000)
I0911 22:15:09.446441 19805 net.cpp:129] Top shape: 128 1000 (128000)
I0911 22:15:09.446446 19805 net.cpp:129] Top shape: 128 1000 (128000)
I0911 22:15:09.446450 19805 net.cpp:129] Top shape: 128 1000 (128000)
I0911 22:15:09.446455 19805 net.cpp:137] Memory required for data: 1495182336
I0911 22:15:09.446468 19805 layer_factory.hpp:77] Creating layer loss
I0911 22:15:09.446497 19805 net.cpp:84] Creating Layer loss
I0911 22:15:09.446518 19805 net.cpp:406] loss <- fc8_fc8_0_split_0
I0911 22:15:09.446542 19805 net.cpp:406] loss <- label_data_1_split_0
I0911 22:15:09.446554 19805 net.cpp:380] loss -> loss
…
I0911 22:15:12.851195 19805 net.cpp:294] The NetState phase (1) differed from the phase (0) specified by a rule in layer accuracy_train_5
I0911 22:15:12.851398 19805 net.cpp:51] Initializing net from parameters: 
name: "AlexNet-BN"
state {
  phase: TEST
}
layer {
  name: "data"
  type: "Data"
  top: "data"
  top: "label"
  include {
    phase: TEST
  }
  transform_param {
    mirror: false
    crop_size: 224
    mean_file: "/mnt/data/ilsvrc12/origin/imagenet_mean.binaryproto"
  }
  data_param {
    source: "/mnt/data/ilsvrc12/origin/ilsvrc12_val_lmdb"
    batch_size: 50
    backend: LMDB
  }
}
layer {
  name: "conv1"
  type: "BinaryConvolution"
  bottom: "data"
  top: "conv1"
  param {
    lr_mult: 1
    decay_mult: 1
  }
  convolution_param {
    num_output: 96
    bias_term: false
    pad: 2
    kernel_size: 11
    stride: 4
    weight_filler {
      type: "msra"
    }
  }
  debug_param {
    binary_relax: true
  }
}
layer {
  name: "bn1"
  type: "BatchNorm"
  bottom: "conv1"
  top: "conv1"
}
layer {
  name: "scale1"
  type: "Scale"
  bottom: "conv1"
  top: "conv1"
  scale_param {
    bias_term: true
  }
}
layer {
  name: "relu1"
  type: "ReLU"
  bottom: "conv1"
  top: "conv1"
}
layer {
  name: "pool1"
  type: "Pooling"
  bottom: "conv1"
  top: "pool1"
  pooling_param {
    pool: MAX
    kernel_size: 3
    stride: 2
  }
}
layer {
  name: "conv2"
  type: "BinaryConvolution"
  bottom: "pool1"
  top: "conv2"
  param {
    lr_mult: 1
    decay_mult: 1
  }
  convolution_param {
    num_output: 256
    bias_term: false
    pad: 2
    kernel_size: 5
    weight_filler {
      type: "msra"
    }
  }
  debug_param {
    binary_relax: true
  }
}
layer {
  name: "bn2"
  type: "BatchNorm"
  bottom: "conv2"
  top: "conv2"
}
layer {
  name: "scale2"
  type: "Scale"
  bottom: "conv2"
  top: "conv2"
  scale_param {
    bias_term: true
  }
}
layer {
  name: "relu2"
  type: "ReLU"
  bottom: "conv2"
  top: "conv2"
}
layer {
  name: "pool2"
  type: "Pooling"
  bottom: "conv2"
  top: "pool2"
  pooling_param {
    pool: MAX
    kernel_size: 3
    stride: 2
  }
}
layer {
  name: "conv3"
  type: "BinaryConvolution"
  bottom: "pool2"
  top: "conv3"
  param {
    lr_mult: 1
    decay_mult: 1
  }
  convolution_param {
    num_output: 384
    bias_term: false
    pad: 1
    kernel_size: 3
    weight_filler {
      type: "msra"
    }
  }
  debug_param {
    binary_relax: true
  }
}
layer {
  name: "bn3"
  type: "BatchNorm"
  bottom: "conv3"
  top: "conv3"
}
layer {
  name: "scale3"
  type: "Scale"
  bottom: "conv3"
  top: "conv3"
  scale_param {
    bias_term: true
  }
}
layer {
  name: "relu3"
  type: "ReLU"
  bottom: "conv3"
  top: "conv3"
}
layer {
  name: "conv4"
  type: "BinaryConvolution"
  bottom: "conv3"
  top: "conv4"
  param {
    lr_mult: 1
    decay_mult: 1
  }
  convolution_param {
    num_output: 384
    bias_term: false
    pad: 1
    kernel_size: 3
    weight_filler {
      type: "msra"
    }
  }
  debug_param {
    binary_relax: true
  }
}
layer {
  name: "bn4"
  type: "BatchNorm"
  bottom: "conv4"
  top: "conv4"
}
layer {
  name: "scale4"
  type: "Scale"
  bottom: "conv4"
  top: "conv4"
  scale_param {
    bias_term: true
  }
}
layer {
  name: "relu4"
  type: "ReLU"
  bottom: "conv4"
  top: "conv4"
}
layer {
  name: "conv5"
  type: "BinaryConvolution"
  bottom: "conv4"
  top: "conv5"
  param {
    lr_mult: 1
    decay_mult: 1
  }
  convolution_param {
    num_output: 256
    bias_term: false
    pad: 1
    kernel_size: 3
    weight_filler {
      type: "msra"
    }
  }
  debug_param {
    binary_relax: true
  }
}
layer {
  name: "bn5"
  type: "BatchNorm"
  bottom: "conv5"
  top: "conv5"
}
layer {
  name: "scale5"
  type: "Scale"
  bottom: "conv5"
  top: "conv5"
  scale_param {
    bias_term: true
  }
}
layer {
  name: "relu5"
  type: "ReLU"
  bottom: "conv5"
  top: "conv5"
}
layer {
  name: "pool5"
  type: "Pooling"
  bottom: "conv5"
  top: "pool5"
  pooling_param {
    pool: MAX
    kernel_size: 3
    stride: 2
  }
}
layer {
  name: "fc6"
  type: "BinaryInnerProduct"
  bottom: "pool5"
  top: "fc6"
  param {
    lr_mult: 1
    decay_mult: 1
  }
  inner_product_param {
    num_output: 4096
    bias_term: false
    weight_filler {
      type: "msra"
    }
  }
  debug_param {
    binary_relax: true
  }
}
layer {
  name: "bn6"
  type: "BatchNorm"
  bottom: "fc6"
  top: "fc6"
}
layer {
  name: "scale6"
  type: "Scale"
  bottom: "fc6"
  top: "fc6"
  scale_param {
    bias_term: true
  }
}
layer {
  name: "relu6"
  type: "ReLU"
  bottom: "fc6"
  top: "fc6"
}
layer {
  name: "drop6"
  type: "Dropout"
  bottom: "fc6"
  top: "fc6"
  dropout_param {
    dropout_ratio: 0.5
  }
}
layer {
  name: "fc7"
  type: "BinaryInnerProduct"
  bottom: "fc6"
  top: "fc7"
  param {
    lr_mult: 1
    decay_mult: 1
  }
  inner_product_param {
    num_output: 4096
    bias_term: false
    weight_filler {
      type: "msra"
    }
  }
  debug_param {
    binary_relax: true
  }
}
layer {
  name: "bn7"
  type: "BatchNorm"
  bottom: "fc7"
  top: "fc7"
}
layer {
  name: "scale7"
  type: "Scale"
  bottom: "fc7"
  top: "fc7"
  scale_param {
    bias_term: true
  }
}
layer {
  name: "relu7"
  type: "ReLU"
  bottom: "fc7"
  top: "fc7"
}
layer {
  name: "drop7"
  type: "Dropout"
  bottom: "fc7"
  top: "fc7"
  dropout_param {
    dropout_ratio: 0.5
  }
}
layer {
  name: "fc8"
  type: "BinaryInnerProduct"
  bottom: "fc7"
  top: "fc8"
  param {
    lr_mult: 1
    decay_mult: 1
  }
  param {
    lr_mult: 2
    decay_mult: 0
  }
  inner_product_param {
    num_output: 1000
    weight_filler {
      type: "msra"
    }
    bias_filler {
      type: "constant"
      value: 0
    }
  }
  debug_param {
    binary_relax: true
  }
}
layer {
  name: "loss"
  type: "SoftmaxWithLoss"
  bottom: "fc8"
  bottom: "label"
  top: "loss"
}
layer {
  name: "accuracy"
  type: "Accuracy"
  bottom: "fc8"
  bottom: "label"
  top: "accuracy"
}
layer {
  name: "accuracy_5"
  type: "Accuracy"
  bottom: "fc8"
  bottom: "label"
  top: "accuracy_5"
  accuracy_param {
    top_k: 5
  }
}
I0911 22:15:12.851914 19805 layer_factory.hpp:77] Creating layer data
I0911 22:15:12.858618 19805 db_lmdb.cpp:35] Opened lmdb /mnt/data/ilsvrc12/origin/ilsvrc12_val_lmdb
I0911 22:15:12.858659 19805 net.cpp:84] Creating Layer data
I0911 22:15:12.858690 19805 net.cpp:380] data -> data
I0911 22:15:12.858738 19805 net.cpp:380] data -> label
I0911 22:15:12.858786 19805 data_transformer.cpp:25] Loading mean file from: /mnt/data/ilsvrc12/origin/imagenet_mean.binaryproto
I0911 22:15:12.865532 19805 data_layer.cpp:45] output data size: 50,3,224,224
I0911 22:15:12.909680 19805 base_data_layer.cpp:72] Initializing prefetch
I0911 22:15:12.909804 19805 base_data_layer.cpp:75] Prefetch initialized.
I0911 22:15:12.909817 19805 net.cpp:122] Setting up data
I0911 22:15:12.909868 19805 net.cpp:129] Top shape: 50 3 224 224 (7526400)
I0911 22:15:12.909881 19805 net.cpp:129] Top shape: 50 (50)
I0911 22:15:12.909907 19805 net.cpp:137] Memory required for data: 30105800
I0911 22:15:12.909945 19805 layer_factory.hpp:77] Creating layer label_data_1_split
I0911 22:15:12.910006 19805 net.cpp:84] Creating Layer label_data_1_split
I0911 22:15:12.910034 19805 net.cpp:406] label_data_1_split <- label
I0911 22:15:12.910069 19805 net.cpp:380] label_data_1_split -> label_data_1_split_0
I0911 22:15:12.910120 19805 net.cpp:380] label_data_1_split -> label_data_1_split_1
I0911 22:15:12.910156 19805 net.cpp:380] label_data_1_split -> label_data_1_split_2
I0911 22:15:12.910264 19805 net.cpp:122] Setting up label_data_1_split
I0911 22:15:12.910281 19805 net.cpp:129] Top shape: 50 (50)
I0911 22:15:12.910295 19805 net.cpp:129] Top shape: 50 (50)
I0911 22:15:12.910307 19805 net.cpp:129] Top shape: 50 (50)
I0911 22:15:12.910315 19805 net.cpp:137] Memory required for data: 30106400
I0911 22:15:12.910326 19805 layer_factory.hpp:77] Creating layer conv1
I0911 22:15:12.910367 19805 net.cpp:84] Creating Layer conv1
I0911 22:15:12.910378 19805 net.cpp:406] conv1 <- data
I0911 22:15:12.910408 19805 net.cpp:380] conv1 -> conv1
I0911 22:15:12.915407 19805 net.cpp:122] Setting up conv1
I0911 22:15:12.915424 19805 net.cpp:129] Top shape: 50 96 55 55 (14520000)
I0911 22:15:12.915432 19805 net.cpp:137] Memory required for data: 88186400
I0911 22:15:12.915465 19805 layer_factory.hpp:77] Creating layer bn1
I0911 22:15:12.915496 19805 net.cpp:84] Creating Layer bn1
I0911 22:15:12.915508 19805 net.cpp:406] bn1 <- conv1
I0911 22:15:12.915531 19805 net.cpp:367] bn1 -> conv1 (in-place)
I0911 22:15:12.915774 19805 net.cpp:122] Setting up bn1
I0911 22:15:12.915786 19805 net.cpp:129] Top shape: 50 96 55 55 (14520000)
I0911 22:15:12.915802 19805 net.cpp:137] Memory required for data: 146266400
I0911 22:15:12.915853 19805 layer_factory.hpp:77] Creating layer scale1
I0911 22:15:12.915889 19805 net.cpp:84] Creating Layer scale1
I0911 22:15:12.915901 19805 net.cpp:406] scale1 <- conv1
I0911 22:15:12.915941 19805 net.cpp:367] scale1 -> conv1 (in-place)
I0911 22:15:12.916026 19805 layer_factory.hpp:77] Creating layer scale1
I0911 22:15:12.916263 19805 net.cpp:122] Setting up scale1
I0911 22:15:12.916276 19805 net.cpp:129] Top shape: 50 96 55 55 (14520000)
I0911 22:15:12.916283 19805 net.cpp:137] Memory required for data: 204346400
I0911 22:15:12.916314 19805 layer_factory.hpp:77] Creating layer relu1
I0911 22:15:12.916334 19805 net.cpp:84] Creating Layer relu1
I0911 22:15:12.916345 19805 net.cpp:406] relu1 <- conv1
I0911 22:15:12.916368 19805 net.cpp:367] relu1 -> conv1 (in-place)
I0911 22:15:12.916733 19805 net.cpp:122] Setting up relu1
I0911 22:15:12.916746 19805 net.cpp:129] Top shape: 50 96 55 55 (14520000)
I0911 22:15:12.916754 19805 net.cpp:137] Memory required for data: 262426400
I0911 22:15:12.916764 19805 layer_factory.hpp:77] Creating layer pool1
I0911 22:15:12.916791 19805 net.cpp:84] Creating Layer pool1
I0911 22:15:12.916802 19805 net.cpp:406] pool1 <- conv1
I0911 22:15:12.916826 19805 net.cpp:380] pool1 -> pool1
I0911 22:15:12.916896 19805 net.cpp:122] Setting up pool1
I0911 22:15:12.916911 19805 net.cpp:129] Top shape: 50 96 27 27 (3499200)
I0911 22:15:12.916919 19805 net.cpp:137] Memory required for data: 276423200
I0911 22:15:12.916929 19805 layer_factory.hpp:77] Creating layer conv2
I0911 22:15:12.916954 19805 net.cpp:84] Creating Layer conv2
I0911 22:15:12.916965 19805 net.cpp:406] conv2 <- pool1
I0911 22:15:12.916991 19805 net.cpp:380] conv2 -> conv2
I0911 22:15:12.995667 19805 net.cpp:122] Setting up conv2
I0911 22:15:12.995705 19805 net.cpp:129] Top shape: 50 256 27 27 (9331200)
I0911 22:15:12.995721 19805 net.cpp:137] Memory required for data: 313748000
I0911 22:15:12.995764 19805 layer_factory.hpp:77] Creating layer bn2
I0911 22:15:12.995820 19805 net.cpp:84] Creating Layer bn2
I0911 22:15:12.995836 19805 net.cpp:406] bn2 <- conv2
I0911 22:15:12.995872 19805 net.cpp:367] bn2 -> conv2 (in-place)
I0911 22:15:12.996146 19805 net.cpp:122] Setting up bn2
I0911 22:15:12.996160 19805 net.cpp:129] Top shape: 50 256 27 27 (9331200)
I0911 22:15:12.996166 19805 net.cpp:137] Memory required for data: 351072800
I0911 22:15:12.996212 19805 layer_factory.hpp:77] Creating layer scale2
I0911 22:15:12.996238 19805 net.cpp:84] Creating Layer scale2
I0911 22:15:12.996250 19805 net.cpp:406] scale2 <- conv2
I0911 22:15:12.996274 19805 net.cpp:367] scale2 -> conv2 (in-place)
I0911 22:15:12.996357 19805 layer_factory.hpp:77] Creating layer scale2
I0911 22:15:12.996541 19805 net.cpp:122] Setting up scale2
I0911 22:15:12.996553 19805 net.cpp:129] Top shape: 50 256 27 27 (9331200)
I0911 22:15:12.996562 19805 net.cpp:137] Memory required for data: 388397600
I0911 22:15:12.996584 19805 layer_factory.hpp:77] Creating layer relu2
I0911 22:15:12.996603 19805 net.cpp:84] Creating Layer relu2
I0911 22:15:12.996614 19805 net.cpp:406] relu2 <- conv2
I0911 22:15:12.996636 19805 net.cpp:367] relu2 -> conv2 (in-place)
I0911 22:15:12.997257 19805 net.cpp:122] Setting up relu2
I0911 22:15:12.997270 19805 net.cpp:129] Top shape: 50 256 27 27 (9331200)
I0911 22:15:12.997278 19805 net.cpp:137] Memory required for data: 425722400
I0911 22:15:12.997289 19805 layer_factory.hpp:77] Creating layer pool2
I0911 22:15:12.997315 19805 net.cpp:84] Creating Layer pool2
I0911 22:15:12.997326 19805 net.cpp:406] pool2 <- conv2
I0911 22:15:12.997354 19805 net.cpp:380] pool2 -> pool2
I0911 22:15:12.997431 19805 net.cpp:122] Setting up pool2
I0911 22:15:12.997457 19805 net.cpp:129] Top shape: 50 256 13 13 (2163200)
I0911 22:15:12.997465 19805 net.cpp:137] Memory required for data: 434375200
I0911 22:15:12.997475 19805 layer_factory.hpp:77] Creating layer conv3
I0911 22:15:12.997515 19805 net.cpp:84] Creating Layer conv3
I0911 22:15:12.997536 19805 net.cpp:406] conv3 <- pool2
I0911 22:15:12.997572 19805 net.cpp:380] conv3 -> conv3
I0911 22:15:13.110610 19805 net.cpp:122] Setting up conv3
I0911 22:15:13.110646 19805 net.cpp:129] Top shape: 50 384 13 13 (3244800)
I0911 22:15:13.110661 19805 net.cpp:137] Memory required for data: 447354400
I0911 22:15:13.110702 19805 layer_factory.hpp:77] Creating layer bn3
I0911 22:15:13.110754 19805 net.cpp:84] Creating Layer bn3
I0911 22:15:13.110788 19805 net.cpp:406] bn3 <- conv3
I0911 22:15:13.110826 19805 net.cpp:367] bn3 -> conv3 (in-place)
I0911 22:15:13.111107 19805 net.cpp:122] Setting up bn3
I0911 22:15:13.111119 19805 net.cpp:129] Top shape: 50 384 13 13 (3244800)
I0911 22:15:13.111135 19805 net.cpp:137] Memory required for data: 460333600
I0911 22:15:13.111179 19805 layer_factory.hpp:77] Creating layer scale3
I0911 22:15:13.111203 19805 net.cpp:84] Creating Layer scale3
I0911 22:15:13.111214 19805 net.cpp:406] scale3 <- conv3
I0911 22:15:13.111237 19805 net.cpp:367] scale3 -> conv3 (in-place)
I0911 22:15:13.111311 19805 layer_factory.hpp:77] Creating layer scale3
I0911 22:15:13.111479 19805 net.cpp:122] Setting up scale3
I0911 22:15:13.111490 19805 net.cpp:129] Top shape: 50 384 13 13 (3244800)
I0911 22:15:13.111497 19805 net.cpp:137] Memory required for data: 473312800
I0911 22:15:13.111532 19805 layer_factory.hpp:77] Creating layer relu3
I0911 22:15:13.111552 19805 net.cpp:84] Creating Layer relu3
I0911 22:15:13.111563 19805 net.cpp:406] relu3 <- conv3
I0911 22:15:13.111584 19805 net.cpp:367] relu3 -> conv3 (in-place)
I0911 22:15:13.112179 19805 net.cpp:122] Setting up relu3
I0911 22:15:13.112191 19805 net.cpp:129] Top shape: 50 384 13 13 (3244800)
I0911 22:15:13.112198 19805 net.cpp:137] Memory required for data: 486292000
I0911 22:15:13.112208 19805 layer_factory.hpp:77] Creating layer conv4
I0911 22:15:13.112263 19805 net.cpp:84] Creating Layer conv4
I0911 22:15:13.112275 19805 net.cpp:406] conv4 <- conv3
I0911 22:15:13.112303 19805 net.cpp:380] conv4 -> conv4
I0911 22:15:13.281033 19805 net.cpp:122] Setting up conv4
I0911 22:15:13.281075 19805 net.cpp:129] Top shape: 50 384 13 13 (3244800)
I0911 22:15:13.281080 19805 net.cpp:137] Memory required for data: 499271200
I0911 22:15:13.281127 19805 layer_factory.hpp:77] Creating layer bn4
I0911 22:15:13.281170 19805 net.cpp:84] Creating Layer bn4
I0911 22:15:13.281189 19805 net.cpp:406] bn4 <- conv4
I0911 22:15:13.281219 19805 net.cpp:367] bn4 -> conv4 (in-place)
I0911 22:15:13.281482 19805 net.cpp:122] Setting up bn4
I0911 22:15:13.281493 19805 net.cpp:129] Top shape: 50 384 13 13 (3244800)
I0911 22:15:13.281500 19805 net.cpp:137] Memory required for data: 512250400
I0911 22:15:13.281539 19805 layer_factory.hpp:77] Creating layer scale4
I0911 22:15:13.281580 19805 net.cpp:84] Creating Layer scale4
I0911 22:15:13.281608 19805 net.cpp:406] scale4 <- conv4
I0911 22:15:13.281630 19805 net.cpp:367] scale4 -> conv4 (in-place)
I0911 22:15:13.281730 19805 layer_factory.hpp:77] Creating layer scale4
I0911 22:15:13.281913 19805 net.cpp:122] Setting up scale4
I0911 22:15:13.281924 19805 net.cpp:129] Top shape: 50 384 13 13 (3244800)
I0911 22:15:13.281942 19805 net.cpp:137] Memory required for data: 525229600
I0911 22:15:13.281980 19805 layer_factory.hpp:77] Creating layer relu4
I0911 22:15:13.281998 19805 net.cpp:84] Creating Layer relu4
I0911 22:15:13.282009 19805 net.cpp:406] relu4 <- conv4
I0911 22:15:13.282047 19805 net.cpp:367] relu4 -> conv4 (in-place)
I0911 22:15:13.282426 19805 net.cpp:122] Setting up relu4
I0911 22:15:13.282438 19805 net.cpp:129] Top shape: 50 384 13 13 (3244800)
I0911 22:15:13.282446 19805 net.cpp:137] Memory required for data: 538208800
I0911 22:15:13.282457 19805 layer_factory.hpp:77] Creating layer conv5
I0911 22:15:13.282486 19805 net.cpp:84] Creating Layer conv5
I0911 22:15:13.282521 19805 net.cpp:406] conv5 <- conv4
I0911 22:15:13.282558 19805 net.cpp:380] conv5 -> conv5
I0911 22:15:13.394997 19805 net.cpp:122] Setting up conv5
I0911 22:15:13.395033 19805 net.cpp:129] Top shape: 50 256 13 13 (2163200)
I0911 22:15:13.395048 19805 net.cpp:137] Memory required for data: 546861600
I0911 22:15:13.395085 19805 layer_factory.hpp:77] Creating layer bn5
I0911 22:15:13.395117 19805 net.cpp:84] Creating Layer bn5
I0911 22:15:13.395143 19805 net.cpp:406] bn5 <- conv5
I0911 22:15:13.395169 19805 net.cpp:367] bn5 -> conv5 (in-place)
I0911 22:15:13.395432 19805 net.cpp:122] Setting up bn5
I0911 22:15:13.395444 19805 net.cpp:129] Top shape: 50 256 13 13 (2163200)
I0911 22:15:13.395459 19805 net.cpp:137] Memory required for data: 555514400
I0911 22:15:13.395486 19805 layer_factory.hpp:77] Creating layer scale5
I0911 22:15:13.395526 19805 net.cpp:84] Creating Layer scale5
I0911 22:15:13.395537 19805 net.cpp:406] scale5 <- conv5
I0911 22:15:13.395560 19805 net.cpp:367] scale5 -> conv5 (in-place)
I0911 22:15:13.395660 19805 layer_factory.hpp:77] Creating layer scale5
I0911 22:15:13.395831 19805 net.cpp:122] Setting up scale5
I0911 22:15:13.395843 19805 net.cpp:129] Top shape: 50 256 13 13 (2163200)
I0911 22:15:13.395850 19805 net.cpp:137] Memory required for data: 564167200
I0911 22:15:13.395871 19805 layer_factory.hpp:77] Creating layer relu5
I0911 22:15:13.395907 19805 net.cpp:84] Creating Layer relu5
I0911 22:15:13.395918 19805 net.cpp:406] relu5 <- conv5
I0911 22:15:13.395939 19805 net.cpp:367] relu5 -> conv5 (in-place)
I0911 22:15:13.396512 19805 net.cpp:122] Setting up relu5
I0911 22:15:13.396524 19805 net.cpp:129] Top shape: 50 256 13 13 (2163200)
I0911 22:15:13.396539 19805 net.cpp:137] Memory required for data: 572820000
I0911 22:15:13.396550 19805 layer_factory.hpp:77] Creating layer pool5
I0911 22:15:13.396577 19805 net.cpp:84] Creating Layer pool5
I0911 22:15:13.396597 19805 net.cpp:406] pool5 <- conv5
I0911 22:15:13.396630 19805 net.cpp:380] pool5 -> pool5
I0911 22:15:13.396708 19805 net.cpp:122] Setting up pool5
I0911 22:15:13.396723 19805 net.cpp:129] Top shape: 50 256 6 6 (460800)
I0911 22:15:13.396739 19805 net.cpp:137] Memory required for data: 574663200
I0911 22:15:13.396751 19805 layer_factory.hpp:77] Creating layer fc6
I0911 22:15:13.396778 19805 net.cpp:84] Creating Layer fc6
I0911 22:15:13.396798 19805 net.cpp:406] fc6 <- pool5
I0911 22:15:13.396831 19805 net.cpp:380] fc6 -> fc6
I0911 22:15:18.142087 19805 net.cpp:122] Setting up fc6
I0911 22:15:18.142128 19805 net.cpp:129] Top shape: 50 4096 (204800)
I0911 22:15:18.142135 19805 net.cpp:137] Memory required for data: 575482400
I0911 22:15:18.142186 19805 layer_factory.hpp:77] Creating layer bn6
I0911 22:15:18.142235 19805 net.cpp:84] Creating Layer bn6
I0911 22:15:18.142278 19805 net.cpp:406] bn6 <- fc6
I0911 22:15:18.142311 19805 net.cpp:367] bn6 -> fc6 (in-place)
I0911 22:15:18.142601 19805 net.cpp:122] Setting up bn6
I0911 22:15:18.142612 19805 net.cpp:129] Top shape: 50 4096 (204800)
I0911 22:15:18.142618 19805 net.cpp:137] Memory required for data: 576301600
I0911 22:15:18.142663 19805 layer_factory.hpp:77] Creating layer scale6
I0911 22:15:18.142686 19805 net.cpp:84] Creating Layer scale6
I0911 22:15:18.142696 19805 net.cpp:406] scale6 <- fc6
I0911 22:15:18.142719 19805 net.cpp:367] scale6 -> fc6 (in-place)
I0911 22:15:18.142802 19805 layer_factory.hpp:77] Creating layer scale6
I0911 22:15:18.142972 19805 net.cpp:122] Setting up scale6
I0911 22:15:18.142983 19805 net.cpp:129] Top shape: 50 4096 (204800)
I0911 22:15:18.142990 19805 net.cpp:137] Memory required for data: 577120800
I0911 22:15:18.143012 19805 layer_factory.hpp:77] Creating layer relu6
I0911 22:15:18.143030 19805 net.cpp:84] Creating Layer relu6
I0911 22:15:18.143041 19805 net.cpp:406] relu6 <- fc6
I0911 22:15:18.143062 19805 net.cpp:367] relu6 -> fc6 (in-place)
I0911 22:15:18.143440 19805 net.cpp:122] Setting up relu6
I0911 22:15:18.143452 19805 net.cpp:129] Top shape: 50 4096 (204800)
I0911 22:15:18.143460 19805 net.cpp:137] Memory required for data: 577940000
I0911 22:15:18.143486 19805 layer_factory.hpp:77] Creating layer drop6
I0911 22:15:18.143508 19805 net.cpp:84] Creating Layer drop6
I0911 22:15:18.143519 19805 net.cpp:406] drop6 <- fc6
I0911 22:15:18.143541 19805 net.cpp:367] drop6 -> fc6 (in-place)
I0911 22:15:18.143585 19805 net.cpp:122] Setting up drop6
I0911 22:15:18.143596 19805 net.cpp:129] Top shape: 50 4096 (204800)
I0911 22:15:18.143611 19805 net.cpp:137] Memory required for data: 578759200
I0911 22:15:18.143622 19805 layer_factory.hpp:77] Creating layer fc7
I0911 22:15:18.143651 19805 net.cpp:84] Creating Layer fc7
I0911 22:15:18.143662 19805 net.cpp:406] fc7 <- fc6
I0911 22:15:18.143688 19805 net.cpp:380] fc7 -> fc7
I0911 22:15:20.251153 19805 net.cpp:122] Setting up fc7
I0911 22:15:20.251194 19805 net.cpp:129] Top shape: 50 4096 (204800)
I0911 22:15:20.251201 19805 net.cpp:137] Memory required for data: 579578400
I0911 22:15:20.251253 19805 layer_factory.hpp:77] Creating layer bn7
I0911 22:15:20.251308 19805 net.cpp:84] Creating Layer bn7
I0911 22:15:20.251344 19805 net.cpp:406] bn7 <- fc7
I0911 22:15:20.251384 19805 net.cpp:367] bn7 -> fc7 (in-place)
I0911 22:15:20.251672 19805 net.cpp:122] Setting up bn7
I0911 22:15:20.251682 19805 net.cpp:129] Top shape: 50 4096 (204800)
I0911 22:15:20.251689 19805 net.cpp:137] Memory required for data: 580397600
I0911 22:15:20.251726 19805 layer_factory.hpp:77] Creating layer scale7
I0911 22:15:20.251794 19805 net.cpp:84] Creating Layer scale7
I0911 22:15:20.251814 19805 net.cpp:406] scale7 <- fc7
I0911 22:15:20.251870 19805 net.cpp:367] scale7 -> fc7 (in-place)
I0911 22:15:20.251981 19805 layer_factory.hpp:77] Creating layer scale7
I0911 22:15:20.252156 19805 net.cpp:122] Setting up scale7
I0911 22:15:20.252167 19805 net.cpp:129] Top shape: 50 4096 (204800)
I0911 22:15:20.252174 19805 net.cpp:137] Memory required for data: 581216800
I0911 22:15:20.252197 19805 layer_factory.hpp:77] Creating layer relu7
I0911 22:15:20.252231 19805 net.cpp:84] Creating Layer relu7
I0911 22:15:20.252243 19805 net.cpp:406] relu7 <- fc7
I0911 22:15:20.252264 19805 net.cpp:367] relu7 -> fc7 (in-place)
I0911 22:15:20.252849 19805 net.cpp:122] Setting up relu7
I0911 22:15:20.252862 19805 net.cpp:129] Top shape: 50 4096 (204800)
I0911 22:15:20.252869 19805 net.cpp:137] Memory required for data: 582036000
I0911 22:15:20.252882 19805 layer_factory.hpp:77] Creating layer drop7
I0911 22:15:20.252903 19805 net.cpp:84] Creating Layer drop7
I0911 22:15:20.252915 19805 net.cpp:406] drop7 <- fc7
I0911 22:15:20.252938 19805 net.cpp:367] drop7 -> fc7 (in-place)
I0911 22:15:20.252984 19805 net.cpp:122] Setting up drop7
I0911 22:15:20.252995 19805 net.cpp:129] Top shape: 50 4096 (204800)
I0911 22:15:20.253001 19805 net.cpp:137] Memory required for data: 582855200
I0911 22:15:20.253012 19805 layer_factory.hpp:77] Creating layer fc8
I0911 22:15:20.253041 19805 net.cpp:84] Creating Layer fc8
I0911 22:15:20.253053 19805 net.cpp:406] fc8 <- fc7
I0911 22:15:20.253079 19805 net.cpp:380] fc8 -> fc8
I0911 22:15:20.769382 19805 net.cpp:122] Setting up fc8
I0911 22:15:20.769423 19805 net.cpp:129] Top shape: 50 1000 (50000)
I0911 22:15:20.769430 19805 net.cpp:137] Memory required for data: 583055200
I0911 22:15:20.769492 19805 layer_factory.hpp:77] Creating layer fc8_fc8_0_split
I0911 22:15:20.769536 19805 net.cpp:84] Creating Layer fc8_fc8_0_split
I0911 22:15:20.769569 19805 net.cpp:406] fc8_fc8_0_split <- fc8
I0911 22:15:20.769625 19805 net.cpp:380] fc8_fc8_0_split -> fc8_fc8_0_split_0
I0911 22:15:20.769692 19805 net.cpp:380] fc8_fc8_0_split -> fc8_fc8_0_split_1
I0911 22:15:20.769717 19805 net.cpp:380] fc8_fc8_0_split -> fc8_fc8_0_split_2
I0911 22:15:20.769798 19805 net.cpp:122] Setting up fc8_fc8_0_split
I0911 22:15:20.769812 19805 net.cpp:129] Top shape: 50 1000 (50000)
I0911 22:15:20.769825 19805 net.cpp:129] Top shape: 50 1000 (50000)
I0911 22:15:20.769835 19805 net.cpp:129] Top shape: 50 1000 (50000)
I0911 22:15:20.769843 19805 net.cpp:137] Memory required for data: 583655200
I0911 22:15:20.769852 19805 layer_factory.hpp:77] Creating layer loss
I0911 22:15:20.769886 19805 net.cpp:84] Creating Layer loss
I0911 22:15:20.769897 19805 net.cpp:406] loss <- fc8_fc8_0_split_0
I0911 22:15:20.769917 19805 net.cpp:406] loss <- label_data_1_split_0
I0911 22:15:20.769937 19805 net.cpp:380] loss -> loss
…
