…
I0928 18:37:18.891465  5056 net.cpp:294] The NetState phase (0) differed from the phase (1) specified by a rule in layer mnist
I0928 18:37:18.891500  5056 net.cpp:294] The NetState phase (0) differed from the phase (1) specified by a rule in layer accuracy
I0928 18:37:18.891599  5056 net.cpp:51] Initializing net from parameters: 
name: "LeNet"
state {
  phase: TRAIN
  level: 0
  stage: ""
}
is_quantization: true
layer {
  name: "mnist"
  type: "Data"
  top: "data"
  top: "label"
  include {
    phase: TRAIN
  }
  transform_param {
    scale: 0.00390625
  }
  data_param {
    source: "examples/mnist/mnist_train_lmdb"
    batch_size: 100
    backend: LMDB
  }
}
layer {
  name: "conv1"
  type: "BinaryConvolution"
  bottom: "data"
  top: "conv1"
  param {
    lr_mult: 1
  }
  param {
    lr_mult: 2
  }
  convolution_param {
    num_output: 20
    kernel_size: 5
    stride: 1
    weight_filler {
      type: "xavier"
    }
    bias_filler {
      type: "constant"
    }
  }
  debug_param {
    binary_relax: false
  }
}
layer {
  name: "relu1"
  type: "ReLU"
  bottom: "conv1"
  top: "relu1"
}
layer {
  name: "pool1"
  type: "Pooling"
  bottom: "relu1"
  top: "pool1"
  pooling_param {
    pool: MAX
    kernel_size: 2
    stride: 2
  }
}
layer {
  name: "conv2"
  type: "BinaryConvolution"
  bottom: "pool1"
  top: "conv2"
  param {
    lr_mult: 1
  }
  param {
    lr_mult: 2
  }
  convolution_param {
    num_output: 50
    kernel_size: 5
    stride: 1
    weight_filler {
      type: "xavier"
    }
    bias_filler {
      type: "constant"
    }
  }
  debug_param {
    binary_relax: false
  }
}
layer {
  name: "pool2"
  type: "Pooling"
  bottom: "conv2"
  top: "pool2"
  pooling_param {
    pool: MAX
    kernel_size: 2
    stride: 2
  }
}
layer {
  name: "ip1"
  type: "BinaryInnerProduct"
  bottom: "pool2"
  top: "ip1"
  param {
    lr_mult: 1
  }
  param {
    lr_mult: 2
  }
  inner_product_param {
    num_output: 500
    weight_filler {
      type: "xavier"
    }
    bias_filler {
      type: "constant"
    }
  }
  debug_param {
    binary_relax: false
  }
}
layer {
  name: "relu1"
  type: "ReLU"
  bottom: "ip1"
  top: "ip1"
}
layer {
  name: "ip2"
  type: "BinaryInnerProduct"
  bottom: "ip1"
  top: "ip2"
  param {
    lr_mult: 1
  }
  param {
    lr_mult: 2
  }
  inner_product_param {
    num_output: 10
    weight_filler {
      type: "xavier"
    }
    bias_filler {
      type: "constant"
    }
  }
  debug_param {
    binary_relax: false
  }
}
layer {
  name: "loss"
  type: "SoftmaxWithLoss"
  bottom: "ip2"
  bottom: "label"
  top: "loss"
}
I0928 18:37:18.891968  5056 layer_factory.hpp:77] Creating layer mnist
I0928 18:37:18.892181  5056 db_lmdb.cpp:35] Opened lmdb examples/mnist/mnist_train_lmdb
I0928 18:37:18.892259  5056 net.cpp:84] Creating Layer mnist
I0928 18:37:18.892304  5056 net.cpp:380] mnist -> data
I0928 18:37:18.892454  5056 net.cpp:380] mnist -> label
I0928 18:37:18.893072  5056 data_layer.cpp:45] output data size: 100,1,28,28
I0928 18:37:18.894362  5056 base_data_layer.cpp:72] Initializing prefetch
I0928 18:37:18.894665  5056 base_data_layer.cpp:75] Prefetch initialized.
I0928 18:37:18.894676  5056 net.cpp:122] Setting up mnist
I0928 18:37:18.894711  5056 net.cpp:129] Top shape: 100 1 28 28 (78400)
I0928 18:37:18.894724  5056 net.cpp:129] Top shape: 100 (100)
I0928 18:37:18.894732  5056 net.cpp:137] Memory required for data: 314000
I0928 18:37:18.894764  5056 layer_factory.hpp:77] Creating layer conv1
I0928 18:37:18.894811  5056 net.cpp:84] Creating Layer conv1
I0928 18:37:18.894834  5056 net.cpp:406] conv1 <- data
I0928 18:37:18.894876  5056 net.cpp:380] conv1 -> conv1
I0928 18:37:18.895637  5056 net.cpp:122] Setting up conv1
I0928 18:37:18.895654  5056 net.cpp:129] Top shape: 100 20 24 24 (1152000)
I0928 18:37:18.895663  5056 net.cpp:137] Memory required for data: 4922000
I0928 18:37:18.895722  5056 layer_factory.hpp:77] Creating layer relu1
I0928 18:37:18.895750  5056 net.cpp:84] Creating Layer relu1
I0928 18:37:18.895761  5056 net.cpp:406] relu1 <- conv1
I0928 18:37:18.895784  5056 net.cpp:380] relu1 -> relu1
I0928 18:37:19.245002  5056 net.cpp:122] Setting up relu1
I0928 18:37:19.245052  5056 net.cpp:129] Top shape: 100 20 24 24 (1152000)
I0928 18:37:19.245062  5056 net.cpp:137] Memory required for data: 9530000
I0928 18:37:19.245093  5056 layer_factory.hpp:77] Creating layer pool1
I0928 18:37:19.245167  5056 net.cpp:84] Creating Layer pool1
I0928 18:37:19.245204  5056 net.cpp:406] pool1 <- relu1
I0928 18:37:19.245280  5056 net.cpp:380] pool1 -> pool1
I0928 18:37:19.245402  5056 net.cpp:122] Setting up pool1
I0928 18:37:19.245419  5056 net.cpp:129] Top shape: 100 20 12 12 (288000)
I0928 18:37:19.245427  5056 net.cpp:137] Memory required for data: 10682000
I0928 18:37:19.245437  5056 layer_factory.hpp:77] Creating layer conv2
I0928 18:37:19.245481  5056 net.cpp:84] Creating Layer conv2
I0928 18:37:19.245492  5056 net.cpp:406] conv2 <- pool1
I0928 18:37:19.245518  5056 net.cpp:380] conv2 -> conv2
I0928 18:37:19.247328  5056 net.cpp:122] Setting up conv2
I0928 18:37:19.247344  5056 net.cpp:129] Top shape: 100 50 8 8 (320000)
I0928 18:37:19.247354  5056 net.cpp:137] Memory required for data: 11962000
I0928 18:37:19.247387  5056 layer_factory.hpp:77] Creating layer pool2
I0928 18:37:19.247409  5056 net.cpp:84] Creating Layer pool2
I0928 18:37:19.247421  5056 net.cpp:406] pool2 <- conv2
I0928 18:37:19.247453  5056 net.cpp:380] pool2 -> pool2
I0928 18:37:19.247526  5056 net.cpp:122] Setting up pool2
I0928 18:37:19.247539  5056 net.cpp:129] Top shape: 100 50 4 4 (80000)
I0928 18:37:19.247556  5056 net.cpp:137] Memory required for data: 12282000
I0928 18:37:19.247567  5056 layer_factory.hpp:77] Creating layer ip1
I0928 18:37:19.247598  5056 net.cpp:84] Creating Layer ip1
I0928 18:37:19.247611  5056 net.cpp:406] ip1 <- pool2
I0928 18:37:19.247654  5056 net.cpp:380] ip1 -> ip1
I0928 18:37:19.265633  5056 net.cpp:122] Setting up ip1
I0928 18:37:19.265656  5056 net.cpp:129] Top shape: 100 500 (50000)
I0928 18:37:19.265672  5056 net.cpp:137] Memory required for data: 12482000
I0928 18:37:19.265722  5056 layer_factory.hpp:77] Creating layer relu1
I0928 18:37:19.265753  5056 net.cpp:84] Creating Layer relu1
I0928 18:37:19.265767  5056 net.cpp:406] relu1 <- ip1
I0928 18:37:19.265789  5056 net.cpp:367] relu1 -> ip1 (in-place)
I0928 18:37:19.266201  5056 net.cpp:122] Setting up relu1
I0928 18:37:19.266212  5056 net.cpp:129] Top shape: 100 500 (50000)
I0928 18:37:19.266227  5056 net.cpp:137] Memory required for data: 12682000
I0928 18:37:19.266237  5056 layer_factory.hpp:77] Creating layer ip2
I0928 18:37:19.266291  5056 net.cpp:84] Creating Layer ip2
I0928 18:37:19.266311  5056 net.cpp:406] ip2 <- ip1
I0928 18:37:19.266346  5056 net.cpp:380] ip2 -> ip2
I0928 18:37:19.267180  5056 net.cpp:122] Setting up ip2
I0928 18:37:19.267196  5056 net.cpp:129] Top shape: 100 10 (1000)
I0928 18:37:19.267213  5056 net.cpp:137] Memory required for data: 12686000
I0928 18:37:19.267235  5056 layer_factory.hpp:77] Creating layer loss
I0928 18:37:19.267259  5056 net.cpp:84] Creating Layer loss
I0928 18:37:19.267271  5056 net.cpp:406] loss <- ip2
I0928 18:37:19.267298  5056 net.cpp:406] loss <- label
I0928 18:37:19.267338  5056 net.cpp:380] loss -> loss
I0928 18:37:19.267374  5056 layer_factory.hpp:77] Creating layer loss
…
I0928 18:37:19.268496  5056 solver.cpp:193] Creating test net (#0) specified by net file: my/Mnist/BWN/lenet_train_test.prototxt
I0928 18:37:19.268563  5056 net.cpp:294] The NetState phase (1) differed from the phase (0) specified by a rule in layer mnist
I0928 18:37:19.268676  5056 net.cpp:51] Initializing net from parameters: 
name: "LeNet"
state {
  phase: TEST
}
is_quantization: true
layer {
  name: "mnist"
  type: "Data"
  top: "data"
  top: "label"
  include {
    phase: TEST
  }
  transform_param {
    scale: 0.00390625
  }
  data_param {
    source: "examples/mnist/mnist_test_lmdb"
    batch_size: 100
    backend: LMDB
  }
}
layer {
  name: "conv1"
  type: "BinaryConvolution"
  bottom: "data"
  top: "conv1"
  param {
    lr_mult: 1
  }
  param {
    lr_mult: 2
  }
  convolution_param {
    num_output: 20
    kernel_size: 5
    stride: 1
    weight_filler {
      type: "xavier"
    }
    bias_filler {
      type: "constant"
    }
  }
  debug_param {
    binary_relax: false
  }
}
layer {
  name: "relu1"
  type: "ReLU"
  bottom: "conv1"
  top: "relu1"
}
layer {
  name: "pool1"
  type: "Pooling"
  bottom: "relu1"
  top: "pool1"
  pooling_param {
    pool: MAX
    kernel_size: 2
    stride: 2
  }
}
layer {
  name: "conv2"
  type: "BinaryConvolution"
  bottom: "pool1"
  top: "conv2"
  param {
    lr_mult: 1
  }
  param {
    lr_mult: 2
  }
  convolution_param {
    num_output: 50
    kernel_size: 5
    stride: 1
    weight_filler {
      type: "xavier"
    }
    bias_filler {
      type: "constant"
    }
  }
  debug_param {
    binary_relax: false
  }
}
layer {
  name: "pool2"
  type: "Pooling"
  bottom: "conv2"
  top: "pool2"
  pooling_param {
    pool: MAX
    kernel_size: 2
    stride: 2
  }
}
layer {
  name: "ip1"
  type: "BinaryInnerProduct"
  bottom: "pool2"
  top: "ip1"
  param {
    lr_mult: 1
  }
  param {
    lr_mult: 2
  }
  inner_product_param {
    num_output: 500
    weight_filler {
      type: "xavier"
    }
    bias_filler {
      type: "constant"
    }
  }
  debug_param {
    binary_relax: false
  }
}
layer {
  name: "relu1"
  type: "ReLU"
  bottom: "ip1"
  top: "ip1"
}
layer {
  name: "ip2"
  type: "BinaryInnerProduct"
  bottom: "ip1"
  top: "ip2"
  param {
    lr_mult: 1
  }
  param {
    lr_mult: 2
  }
  inner_product_param {
    num_output: 10
    weight_filler {
      type: "xavier"
    }
    bias_filler {
      type: "constant"
    }
  }
  debug_param {
    binary_relax: false
  }
}
layer {
  name: "accuracy"
  type: "Accuracy"
  bottom: "ip2"
  bottom: "label"
  top: "accuracy"
  include {
    phase: TEST
  }
}
layer {
  name: "loss"
  type: "SoftmaxWithLoss"
  bottom: "ip2"
  bottom: "label"
  top: "loss"
}
I0928 18:37:19.268956  5056 layer_factory.hpp:77] Creating layer mnist
I0928 18:37:19.269037  5056 db_lmdb.cpp:35] Opened lmdb examples/mnist/mnist_test_lmdb
I0928 18:37:19.269062  5056 net.cpp:84] Creating Layer mnist
I0928 18:37:19.269083  5056 net.cpp:380] mnist -> data
I0928 18:37:19.269115  5056 net.cpp:380] mnist -> label
I0928 18:37:19.269242  5056 data_layer.cpp:45] output data size: 100,1,28,28
I0928 18:37:19.270226  5056 base_data_layer.cpp:72] Initializing prefetch
I0928 18:37:19.270269  5056 base_data_layer.cpp:75] Prefetch initialized.
I0928 18:37:19.270278  5056 net.cpp:122] Setting up mnist
I0928 18:37:19.270293  5056 net.cpp:129] Top shape: 100 1 28 28 (78400)
I0928 18:37:19.270305  5056 net.cpp:129] Top shape: 100 (100)
I0928 18:37:19.270313  5056 net.cpp:137] Memory required for data: 314000
I0928 18:37:19.270325  5056 layer_factory.hpp:77] Creating layer label_mnist_1_split
I0928 18:37:19.270350  5056 net.cpp:84] Creating Layer label_mnist_1_split
I0928 18:37:19.270362  5056 net.cpp:406] label_mnist_1_split <- label
I0928 18:37:19.270387  5056 net.cpp:380] label_mnist_1_split -> label_mnist_1_split_0
I0928 18:37:19.270416  5056 net.cpp:380] label_mnist_1_split -> label_mnist_1_split_1
I0928 18:37:19.270480  5056 net.cpp:122] Setting up label_mnist_1_split
I0928 18:37:19.270495  5056 net.cpp:129] Top shape: 100 (100)
I0928 18:37:19.270507  5056 net.cpp:129] Top shape: 100 (100)
I0928 18:37:19.270514  5056 net.cpp:137] Memory required for data: 314800
I0928 18:37:19.270524  5056 layer_factory.hpp:77] Creating layer conv1
I0928 18:37:19.270553  5056 net.cpp:84] Creating Layer conv1
I0928 18:37:19.270565  5056 net.cpp:406] conv1 <- data
I0928 18:37:19.270594  5056 net.cpp:380] conv1 -> conv1
I0928 18:37:19.271008  5056 net.cpp:122] Setting up conv1
I0928 18:37:19.271025  5056 net.cpp:129] Top shape: 100 20 24 24 (1152000)
I0928 18:37:19.271034  5056 net.cpp:137] Memory required for data: 4922800
I0928 18:37:19.271068  5056 layer_factory.hpp:77] Creating layer relu1
I0928 18:37:19.271087  5056 net.cpp:84] Creating Layer relu1
I0928 18:37:19.271098  5056 net.cpp:406] relu1 <- conv1
I0928 18:37:19.271124  5056 net.cpp:380] relu1 -> relu1
I0928 18:37:19.271522  5056 net.cpp:122] Setting up relu1
I0928 18:37:19.271538  5056 net.cpp:129] Top shape: 100 20 24 24 (1152000)
I0928 18:37:19.271545  5056 net.cpp:137] Memory required for data: 9530800
I0928 18:37:19.271559  5056 layer_factory.hpp:77] Creating layer pool1
I0928 18:37:19.271582  5056 net.cpp:84] Creating Layer pool1
I0928 18:37:19.271595  5056 net.cpp:406] pool1 <- relu1
I0928 18:37:19.271621  5056 net.cpp:380] pool1 -> pool1
I0928 18:37:19.271689  5056 net.cpp:122] Setting up pool1
I0928 18:37:19.271703  5056 net.cpp:129] Top shape: 100 20 12 12 (288000)
I0928 18:37:19.271713  5056 net.cpp:137] Memory required for data: 10682800
I0928 18:37:19.271724  5056 layer_factory.hpp:77] Creating layer conv2
I0928 18:37:19.271751  5056 net.cpp:84] Creating Layer conv2
I0928 18:37:19.271764  5056 net.cpp:406] conv2 <- pool1
I0928 18:37:19.271791  5056 net.cpp:380] conv2 -> conv2
I0928 18:37:19.273275  5056 net.cpp:122] Setting up conv2
I0928 18:37:19.273289  5056 net.cpp:129] Top shape: 100 50 8 8 (320000)
I0928 18:37:19.273298  5056 net.cpp:137] Memory required for data: 11962800
I0928 18:37:19.273327  5056 layer_factory.hpp:77] Creating layer pool2
I0928 18:37:19.273349  5056 net.cpp:84] Creating Layer pool2
I0928 18:37:19.273360  5056 net.cpp:406] pool2 <- conv2
I0928 18:37:19.273386  5056 net.cpp:380] pool2 -> pool2
I0928 18:37:19.273463  5056 net.cpp:122] Setting up pool2
I0928 18:37:19.273480  5056 net.cpp:129] Top shape: 100 50 4 4 (80000)
I0928 18:37:19.273489  5056 net.cpp:137] Memory required for data: 12282800
I0928 18:37:19.273505  5056 layer_factory.hpp:77] Creating layer ip1
I0928 18:37:19.273530  5056 net.cpp:84] Creating Layer ip1
I0928 18:37:19.273546  5056 net.cpp:406] ip1 <- pool2
I0928 18:37:19.273583  5056 net.cpp:380] ip1 -> ip1
I0928 18:37:19.291481  5056 net.cpp:122] Setting up ip1
I0928 18:37:19.291502  5056 net.cpp:129] Top shape: 100 500 (50000)
I0928 18:37:19.291517  5056 net.cpp:137] Memory required for data: 12482800
I0928 18:37:19.291553  5056 layer_factory.hpp:77] Creating layer relu1
I0928 18:37:19.291599  5056 net.cpp:84] Creating Layer relu1
I0928 18:37:19.291620  5056 net.cpp:406] relu1 <- ip1
I0928 18:37:19.291652  5056 net.cpp:367] relu1 -> ip1 (in-place)
I0928 18:37:19.292219  5056 net.cpp:122] Setting up relu1
I0928 18:37:19.292243  5056 net.cpp:129] Top shape: 100 500 (50000)
I0928 18:37:19.292249  5056 net.cpp:137] Memory required for data: 12682800
I0928 18:37:19.292261  5056 layer_factory.hpp:77] Creating layer ip2
I0928 18:37:19.292289  5056 net.cpp:84] Creating Layer ip2
I0928 18:37:19.292301  5056 net.cpp:406] ip2 <- ip1
I0928 18:37:19.292331  5056 net.cpp:380] ip2 -> ip2
I0928 18:37:19.292791  5056 net.cpp:122] Setting up ip2
I0928 18:37:19.292805  5056 net.cpp:129] Top shape: 100 10 (1000)
I0928 18:37:19.292814  5056 net.cpp:137] Memory required for data: 12686800
I0928 18:37:19.292835  5056 layer_factory.hpp:77] Creating layer ip2_ip2_0_split
I0928 18:37:19.292855  5056 net.cpp:84] Creating Layer ip2_ip2_0_split
I0928 18:37:19.292865  5056 net.cpp:406] ip2_ip2_0_split <- ip2
I0928 18:37:19.292888  5056 net.cpp:380] ip2_ip2_0_split -> ip2_ip2_0_split_0
I0928 18:37:19.292913  5056 net.cpp:380] ip2_ip2_0_split -> ip2_ip2_0_split_1
I0928 18:37:19.292973  5056 net.cpp:122] Setting up ip2_ip2_0_split
I0928 18:37:19.292985  5056 net.cpp:129] Top shape: 100 10 (1000)
I0928 18:37:19.292997  5056 net.cpp:129] Top shape: 100 10 (1000)
I0928 18:37:19.293005  5056 net.cpp:137] Memory required for data: 12694800
I0928 18:37:19.293015  5056 layer_factory.hpp:77] Creating layer accuracy
I0928 18:37:19.293040  5056 net.cpp:84] Creating Layer accuracy
I0928 18:37:19.293052  5056 net.cpp:406] accuracy <- ip2_ip2_0_split_0
I0928 18:37:19.293072  5056 net.cpp:406] accuracy <- label_mnist_1_split_0
I0928 18:37:19.293094  5056 net.cpp:380] accuracy -> accuracy
…
