…
I0828 16:20:44.418504   643 net.cpp:294] The NetState phase (0) differed from the phase (1) specified by a rule in layer mnist
I0828 16:20:44.418531   643 net.cpp:294] The NetState phase (0) differed from the phase (1) specified by a rule in layer accuracy
I0828 16:20:44.418664   643 net.cpp:51] Initializing net from parameters: 
name: "LeNet"
state {
  phase: TRAIN
  level: 0
  stage: ""
}
is_quantization: true
layer {
  name: "mnist"
  type: "Data"
  top: "data"
  top: "label"
  include {
    phase: TRAIN
  }
  transform_param {
    scale: 0.00390625
  }
  data_param {
    source: "examples/mnist/mnist_train_lmdb"
    batch_size: 100
    backend: LMDB
  }
}
layer {
  name: "conv1"
  type: "BinaryConvolution"
  bottom: "data"
  top: "conv1"
  param {
    lr_mult: 1
  }
  param {
    lr_mult: 2
  }
  convolution_param {
    num_output: 20
    kernel_size: 5
    stride: 1
    weight_filler {
      type: "xavier"
    }
    bias_filler {
      type: "constant"
    }
  }
  debug_param {
    binary_relax: true
  }
}
layer {
  name: "relu1"
  type: "ReLU"
  bottom: "conv1"
  top: "relu1"
}
layer {
  name: "pool1"
  type: "Pooling"
  bottom: "relu1"
  top: "pool1"
  pooling_param {
    pool: MAX
    kernel_size: 2
    stride: 2
  }
}
layer {
  name: "conv2"
  type: "BinaryConvolution"
  bottom: "pool1"
  top: "conv2"
  param {
    lr_mult: 1
  }
  param {
    lr_mult: 2
  }
  convolution_param {
    num_output: 50
    kernel_size: 5
    stride: 1
    weight_filler {
      type: "xavier"
    }
    bias_filler {
      type: "constant"
    }
  }
  debug_param {
    binary_relax: true
  }
}
layer {
  name: "pool2"
  type: "Pooling"
  bottom: "conv2"
  top: "pool2"
  pooling_param {
    pool: MAX
    kernel_size: 2
    stride: 2
  }
}
layer {
  name: "ip1"
  type: "BinaryInnerProduct"
  bottom: "pool2"
  top: "ip1"
  param {
    lr_mult: 1
  }
  param {
    lr_mult: 2
  }
  inner_product_param {
    num_output: 500
    weight_filler {
      type: "xavier"
    }
    bias_filler {
      type: "constant"
    }
  }
  debug_param {
    binary_relax: true
  }
}
layer {
  name: "relu1"
  type: "ReLU"
  bottom: "ip1"
  top: "ip1"
}
layer {
  name: "ip2"
  type: "BinaryInnerProduct"
  bottom: "ip1"
  top: "ip2"
  param {
    lr_mult: 1
  }
  param {
    lr_mult: 2
  }
  inner_product_param {
    num_output: 10
    weight_filler {
      type: "xavier"
    }
    bias_filler {
      type: "constant"
    }
  }
  debug_param {
    binary_relax: true
  }
}
layer {
  name: "loss"
  type: "SoftmaxWithLoss"
  bottom: "ip2"
  bottom: "label"
  top: "loss"
}
I0828 16:20:44.419034   643 layer_factory.hpp:77] Creating layer mnist
I0828 16:20:44.419236   643 db_lmdb.cpp:35] Opened lmdb examples/mnist/mnist_train_lmdb
I0828 16:20:44.419292   643 net.cpp:84] Creating Layer mnist
I0828 16:20:44.419358   643 net.cpp:380] mnist -> data
I0828 16:20:44.419515   643 net.cpp:380] mnist -> label
I0828 16:20:44.420101   643 data_layer.cpp:45] output data size: 100,1,28,28
I0828 16:20:44.421447   643 base_data_layer.cpp:72] Initializing prefetch
I0828 16:20:44.421757   643 base_data_layer.cpp:75] Prefetch initialized.
I0828 16:20:44.421767   643 net.cpp:122] Setting up mnist
I0828 16:20:44.421799   643 net.cpp:129] Top shape: 100 1 28 28 (78400)
I0828 16:20:44.421830   643 net.cpp:129] Top shape: 100 (100)
I0828 16:20:44.421835   643 net.cpp:137] Memory required for data: 314000
I0828 16:20:44.421850   643 layer_factory.hpp:77] Creating layer conv1
I0828 16:20:44.421890   643 net.cpp:84] Creating Layer conv1
I0828 16:20:44.421908   643 net.cpp:406] conv1 <- data
I0828 16:20:44.421952   643 net.cpp:380] conv1 -> conv1
I0828 16:20:44.422895   643 net.cpp:122] Setting up conv1
I0828 16:20:44.422911   643 net.cpp:129] Top shape: 100 20 24 24 (1152000)
I0828 16:20:44.422924   643 net.cpp:137] Memory required for data: 4922000
I0828 16:20:44.423010   643 layer_factory.hpp:77] Creating layer relu1
I0828 16:20:44.423043   643 net.cpp:84] Creating Layer relu1
I0828 16:20:44.423059   643 net.cpp:406] relu1 <- conv1
I0828 16:20:44.423087   643 net.cpp:380] relu1 -> relu1
I0828 16:20:44.785231   643 net.cpp:122] Setting up relu1
I0828 16:20:44.785281   643 net.cpp:129] Top shape: 100 20 24 24 (1152000)
I0828 16:20:44.785287   643 net.cpp:137] Memory required for data: 9530000
I0828 16:20:44.785305   643 layer_factory.hpp:77] Creating layer pool1
I0828 16:20:44.785372   643 net.cpp:84] Creating Layer pool1
I0828 16:20:44.785408   643 net.cpp:406] pool1 <- relu1
I0828 16:20:44.785444   643 net.cpp:380] pool1 -> pool1
I0828 16:20:44.785567   643 net.cpp:122] Setting up pool1
I0828 16:20:44.785579   643 net.cpp:129] Top shape: 100 20 12 12 (288000)
I0828 16:20:44.785583   643 net.cpp:137] Memory required for data: 10682000
I0828 16:20:44.785589   643 layer_factory.hpp:77] Creating layer conv2
I0828 16:20:44.785643   643 net.cpp:84] Creating Layer conv2
I0828 16:20:44.785660   643 net.cpp:406] conv2 <- pool1
I0828 16:20:44.785697   643 net.cpp:380] conv2 -> conv2
I0828 16:20:44.787530   643 net.cpp:122] Setting up conv2
I0828 16:20:44.787544   643 net.cpp:129] Top shape: 100 50 8 8 (320000)
I0828 16:20:44.787549   643 net.cpp:137] Memory required for data: 11962000
I0828 16:20:44.787575   643 layer_factory.hpp:77] Creating layer pool2
I0828 16:20:44.787591   643 net.cpp:84] Creating Layer pool2
I0828 16:20:44.787600   643 net.cpp:406] pool2 <- conv2
I0828 16:20:44.787618   643 net.cpp:380] pool2 -> pool2
I0828 16:20:44.787673   643 net.cpp:122] Setting up pool2
I0828 16:20:44.787684   643 net.cpp:129] Top shape: 100 50 4 4 (80000)
I0828 16:20:44.787689   643 net.cpp:137] Memory required for data: 12282000
I0828 16:20:44.787694   643 layer_factory.hpp:77] Creating layer ip1
I0828 16:20:44.787719   643 net.cpp:84] Creating Layer ip1
I0828 16:20:44.787727   643 net.cpp:406] ip1 <- pool2
I0828 16:20:44.787750   643 net.cpp:380] ip1 -> ip1
I0828 16:20:44.805748   643 net.cpp:122] Setting up ip1
I0828 16:20:44.805780   643 net.cpp:129] Top shape: 100 500 (50000)
I0828 16:20:44.805785   643 net.cpp:137] Memory required for data: 12482000
I0828 16:20:44.805821   643 layer_factory.hpp:77] Creating layer relu1
I0828 16:20:44.805860   643 net.cpp:84] Creating Layer relu1
I0828 16:20:44.805869   643 net.cpp:406] relu1 <- ip1
I0828 16:20:44.805886   643 net.cpp:367] relu1 -> ip1 (in-place)
I0828 16:20:44.806300   643 net.cpp:122] Setting up relu1
I0828 16:20:44.806319   643 net.cpp:129] Top shape: 100 500 (50000)
I0828 16:20:44.806324   643 net.cpp:137] Memory required for data: 12682000
I0828 16:20:44.806329   643 layer_factory.hpp:77] Creating layer ip2
I0828 16:20:44.806357   643 net.cpp:84] Creating Layer ip2
I0828 16:20:44.806367   643 net.cpp:406] ip2 <- ip1
I0828 16:20:44.806387   643 net.cpp:380] ip2 -> ip2
I0828 16:20:44.807458   643 net.cpp:122] Setting up ip2
I0828 16:20:44.807487   643 net.cpp:129] Top shape: 100 10 (1000)
I0828 16:20:44.807492   643 net.cpp:137] Memory required for data: 12686000
I0828 16:20:44.807509   643 layer_factory.hpp:77] Creating layer loss
I0828 16:20:44.807534   643 net.cpp:84] Creating Layer loss
I0828 16:20:44.807562   643 net.cpp:406] loss <- ip2
I0828 16:20:44.807575   643 net.cpp:406] loss <- label
I0828 16:20:44.807590   643 net.cpp:380] loss -> loss
I0828 16:20:44.807615   643 layer_factory.hpp:77] Creating layer loss
…
I0828 16:20:44.819190   643 solver.cpp:193] Creating test net (#0) specified by net file: my/Mnist/BWN_INQ_Relax/lenet_train_test.prototxt
I0828 16:20:44.819275   643 net.cpp:294] The NetState phase (1) differed from the phase (0) specified by a rule in layer mnist
I0828 16:20:44.819380   643 net.cpp:51] Initializing net from parameters: 
name: "LeNet"
state {
  phase: TEST
}
is_quantization: true
layer {
  name: "mnist"
  type: "Data"
  top: "data"
  top: "label"
  include {
    phase: TEST
  }
  transform_param {
    scale: 0.00390625
  }
  data_param {
    source: "examples/mnist/mnist_test_lmdb"
    batch_size: 100
    backend: LMDB
  }
}
layer {
  name: "conv1"
  type: "BinaryConvolution"
  bottom: "data"
  top: "conv1"
  param {
    lr_mult: 1
  }
  param {
    lr_mult: 2
  }
  convolution_param {
    num_output: 20
    kernel_size: 5
    stride: 1
    weight_filler {
      type: "xavier"
    }
    bias_filler {
      type: "constant"
    }
  }
  debug_param {
    binary_relax: true
  }
}
layer {
  name: "relu1"
  type: "ReLU"
  bottom: "conv1"
  top: "relu1"
}
layer {
  name: "pool1"
  type: "Pooling"
  bottom: "relu1"
  top: "pool1"
  pooling_param {
    pool: MAX
    kernel_size: 2
    stride: 2
  }
}
layer {
  name: "conv2"
  type: "BinaryConvolution"
  bottom: "pool1"
  top: "conv2"
  param {
    lr_mult: 1
  }
  param {
    lr_mult: 2
  }
  convolution_param {
    num_output: 50
    kernel_size: 5
    stride: 1
    weight_filler {
      type: "xavier"
    }
    bias_filler {
      type: "constant"
    }
  }
  debug_param {
    binary_relax: true
  }
}
layer {
  name: "pool2"
  type: "Pooling"
  bottom: "conv2"
  top: "pool2"
  pooling_param {
    pool: MAX
    kernel_size: 2
    stride: 2
  }
}
layer {
  name: "ip1"
  type: "BinaryInnerProduct"
  bottom: "pool2"
  top: "ip1"
  param {
    lr_mult: 1
  }
  param {
    lr_mult: 2
  }
  inner_product_param {
    num_output: 500
    weight_filler {
      type: "xavier"
    }
    bias_filler {
      type: "constant"
    }
  }
  debug_param {
    binary_relax: true
  }
}
layer {
  name: "relu1"
  type: "ReLU"
  bottom: "ip1"
  top: "ip1"
}
layer {
  name: "ip2"
  type: "BinaryInnerProduct"
  bottom: "ip1"
  top: "ip2"
  param {
    lr_mult: 1
  }
  param {
    lr_mult: 2
  }
  inner_product_param {
    num_output: 10
    weight_filler {
      type: "xavier"
    }
    bias_filler {
      type: "constant"
    }
  }
  debug_param {
    binary_relax: true
  }
}
layer {
  name: "accuracy"
  type: "Accuracy"
  bottom: "ip2"
  bottom: "label"
  top: "accuracy"
  include {
    phase: TEST
  }
}
layer {
  name: "loss"
  type: "SoftmaxWithLoss"
  bottom: "ip2"
  bottom: "label"
  top: "loss"
}
I0828 16:20:44.819643   643 layer_factory.hpp:77] Creating layer mnist
I0828 16:20:44.819732   643 db_lmdb.cpp:35] Opened lmdb examples/mnist/mnist_test_lmdb
I0828 16:20:44.819756   643 net.cpp:84] Creating Layer mnist
I0828 16:20:44.819768   643 net.cpp:380] mnist -> data
I0828 16:20:44.819806   643 net.cpp:380] mnist -> label
I0828 16:20:44.819952   643 data_layer.cpp:45] output data size: 100,1,28,28
I0828 16:20:44.821101   643 base_data_layer.cpp:72] Initializing prefetch
I0828 16:20:44.821149   643 base_data_layer.cpp:75] Prefetch initialized.
I0828 16:20:44.821157   643 net.cpp:122] Setting up mnist
I0828 16:20:44.821166   643 net.cpp:129] Top shape: 100 1 28 28 (78400)
I0828 16:20:44.821171   643 net.cpp:129] Top shape: 100 (100)
I0828 16:20:44.821175   643 net.cpp:137] Memory required for data: 314000
I0828 16:20:44.821192   643 layer_factory.hpp:77] Creating layer label_mnist_1_split
I0828 16:20:44.821213   643 net.cpp:84] Creating Layer label_mnist_1_split
I0828 16:20:44.821231   643 net.cpp:406] label_mnist_1_split <- label
I0828 16:20:44.821247   643 net.cpp:380] label_mnist_1_split -> label_mnist_1_split_0
I0828 16:20:44.821295   643 net.cpp:380] label_mnist_1_split -> label_mnist_1_split_1
I0828 16:20:44.821439   643 net.cpp:122] Setting up label_mnist_1_split
I0828 16:20:44.821457   643 net.cpp:129] Top shape: 100 (100)
I0828 16:20:44.821477   643 net.cpp:129] Top shape: 100 (100)
I0828 16:20:44.821485   643 net.cpp:137] Memory required for data: 314800
I0828 16:20:44.821491   643 layer_factory.hpp:77] Creating layer conv1
I0828 16:20:44.821514   643 net.cpp:84] Creating Layer conv1
I0828 16:20:44.821523   643 net.cpp:406] conv1 <- data
I0828 16:20:44.821544   643 net.cpp:380] conv1 -> conv1
I0828 16:20:44.821945   643 net.cpp:122] Setting up conv1
I0828 16:20:44.821959   643 net.cpp:129] Top shape: 100 20 24 24 (1152000)
I0828 16:20:44.821962   643 net.cpp:137] Memory required for data: 4922800
I0828 16:20:44.821988   643 layer_factory.hpp:77] Creating layer relu1
I0828 16:20:44.822003   643 net.cpp:84] Creating Layer relu1
I0828 16:20:44.822011   643 net.cpp:406] relu1 <- conv1
I0828 16:20:44.822026   643 net.cpp:380] relu1 -> relu1
I0828 16:20:44.822556   643 net.cpp:122] Setting up relu1
I0828 16:20:44.822567   643 net.cpp:129] Top shape: 100 20 24 24 (1152000)
I0828 16:20:44.822572   643 net.cpp:137] Memory required for data: 9530800
I0828 16:20:44.822578   643 layer_factory.hpp:77] Creating layer pool1
I0828 16:20:44.822612   643 net.cpp:84] Creating Layer pool1
I0828 16:20:44.822621   643 net.cpp:406] pool1 <- relu1
I0828 16:20:44.822638   643 net.cpp:380] pool1 -> pool1
I0828 16:20:44.822695   643 net.cpp:122] Setting up pool1
I0828 16:20:44.822706   643 net.cpp:129] Top shape: 100 20 12 12 (288000)
I0828 16:20:44.822712   643 net.cpp:137] Memory required for data: 10682800
I0828 16:20:44.822718   643 layer_factory.hpp:77] Creating layer conv2
I0828 16:20:44.822736   643 net.cpp:84] Creating Layer conv2
I0828 16:20:44.822743   643 net.cpp:406] conv2 <- pool1
I0828 16:20:44.822762   643 net.cpp:380] conv2 -> conv2
I0828 16:20:44.824252   643 net.cpp:122] Setting up conv2
I0828 16:20:44.824265   643 net.cpp:129] Top shape: 100 50 8 8 (320000)
I0828 16:20:44.824268   643 net.cpp:137] Memory required for data: 11962800
I0828 16:20:44.824290   643 layer_factory.hpp:77] Creating layer pool2
I0828 16:20:44.824304   643 net.cpp:84] Creating Layer pool2
I0828 16:20:44.824312   643 net.cpp:406] pool2 <- conv2
I0828 16:20:44.824331   643 net.cpp:380] pool2 -> pool2
I0828 16:20:44.824403   643 net.cpp:122] Setting up pool2
I0828 16:20:44.824414   643 net.cpp:129] Top shape: 100 50 4 4 (80000)
I0828 16:20:44.824420   643 net.cpp:137] Memory required for data: 12282800
I0828 16:20:44.824426   643 layer_factory.hpp:77] Creating layer ip1
I0828 16:20:44.824443   643 net.cpp:84] Creating Layer ip1
I0828 16:20:44.824451   643 net.cpp:406] ip1 <- pool2
I0828 16:20:44.824468   643 net.cpp:380] ip1 -> ip1
I0828 16:20:44.842289   643 net.cpp:122] Setting up ip1
I0828 16:20:44.842314   643 net.cpp:129] Top shape: 100 500 (50000)
I0828 16:20:44.842317   643 net.cpp:137] Memory required for data: 12482800
I0828 16:20:44.842350   643 layer_factory.hpp:77] Creating layer relu1
I0828 16:20:44.842368   643 net.cpp:84] Creating Layer relu1
I0828 16:20:44.842376   643 net.cpp:406] relu1 <- ip1
I0828 16:20:44.842391   643 net.cpp:367] relu1 -> ip1 (in-place)
I0828 16:20:44.842859   643 net.cpp:122] Setting up relu1
I0828 16:20:44.842878   643 net.cpp:129] Top shape: 100 500 (50000)
I0828 16:20:44.842882   643 net.cpp:137] Memory required for data: 12682800
I0828 16:20:44.842890   643 layer_factory.hpp:77] Creating layer ip2
I0828 16:20:44.842906   643 net.cpp:84] Creating Layer ip2
I0828 16:20:44.842923   643 net.cpp:406] ip2 <- ip1
I0828 16:20:44.842950   643 net.cpp:380] ip2 -> ip2
I0828 16:20:44.843379   643 net.cpp:122] Setting up ip2
I0828 16:20:44.843399   643 net.cpp:129] Top shape: 100 10 (1000)
I0828 16:20:44.843402   643 net.cpp:137] Memory required for data: 12686800
I0828 16:20:44.843415   643 layer_factory.hpp:77] Creating layer ip2_ip2_0_split
I0828 16:20:44.843427   643 net.cpp:84] Creating Layer ip2_ip2_0_split
I0828 16:20:44.843436   643 net.cpp:406] ip2_ip2_0_split <- ip2
I0828 16:20:44.843467   643 net.cpp:380] ip2_ip2_0_split -> ip2_ip2_0_split_0
I0828 16:20:44.843482   643 net.cpp:380] ip2_ip2_0_split -> ip2_ip2_0_split_1
I0828 16:20:44.843538   643 net.cpp:122] Setting up ip2_ip2_0_split
I0828 16:20:44.843559   643 net.cpp:129] Top shape: 100 10 (1000)
I0828 16:20:44.843564   643 net.cpp:129] Top shape: 100 10 (1000)
I0828 16:20:44.843567   643 net.cpp:137] Memory required for data: 12694800
I0828 16:20:44.843572   643 layer_factory.hpp:77] Creating layer accuracy
I0828 16:20:44.843590   643 net.cpp:84] Creating Layer accuracy
I0828 16:20:44.843616   643 net.cpp:406] accuracy <- ip2_ip2_0_split_0
I0828 16:20:44.843627   643 net.cpp:406] accuracy <- label_mnist_1_split_0
I0828 16:20:44.843639   643 net.cpp:380] accuracy -> accuracy
…
