…
I0111 23:16:58.374943 48059 net.cpp:294] The NetState phase (0) differed from the phase (1) specified by a rule in layer data
I0111 23:16:58.375171 48059 net.cpp:51] Initializing net from parameters: 
name: "AlexNet-BN"
state {
  phase: TRAIN
  level: 0
  stage: ""
}
layer {
  name: "data"
  type: "Data"
  top: "data"
  top: "label"
  include {
    phase: TRAIN
  }
  transform_param {
    mirror: true
    crop_size: 224
    mean_value: 104
    mean_value: 117
    mean_value: 123
  }
  data_param {
    source: "/home/zhengzhe/Data/imagenet_shrt256/ilsvrc12_train_lmdb"
    batch_size: 256
    backend: LMDB
  }
}
layer {
  name: "conv1"
  type: "Convolution"
  bottom: "data"
  top: "conv1"
  param {
    lr_mult: 1
    decay_mult: 1
  }
  convolution_param {
    num_output: 96
    bias_term: false
    pad: 2
    kernel_size: 11
    stride: 4
    weight_filler {
      type: "msra"
    }
  }
}
layer {
  name: "bn1"
  type: "BatchNorm"
  bottom: "conv1"
  top: "conv1"
}
layer {
  name: "scale1"
  type: "Scale"
  bottom: "conv1"
  top: "conv1"
  scale_param {
    bias_term: true
  }
}
layer {
  name: "relu1"
  type: "ReLU"
  bottom: "conv1"
  top: "conv1"
}
layer {
  name: "pool1"
  type: "Pooling"
  bottom: "conv1"
  top: "pool1"
  pooling_param {
    pool: MAX
    kernel_size: 3
    stride: 2
  }
}
layer {
  name: "conv2"
  type: "BinaryConvolution"
  bottom: "pool1"
  top: "conv2"
  param {
    lr_mult: 1
    decay_mult: 1
  }
  convolution_param {
    num_output: 256
    bias_term: false
    pad: 2
    kernel_size: 5
    weight_filler {
      type: "msra"
    }
  }
  debug_param {
    xnorno_grad: true
  }
}
layer {
  name: "bn2"
  type: "BatchNorm"
  bottom: "conv2"
  top: "conv2"
}
layer {
  name: "scale2"
  type: "Scale"
  bottom: "conv2"
  top: "conv2"
  scale_param {
    bias_term: true
  }
}
layer {
  name: "relu2"
  type: "ReLU"
  bottom: "conv2"
  top: "conv2"
}
layer {
  name: "pool2"
  type: "Pooling"
  bottom: "conv2"
  top: "pool2"
  pooling_param {
    pool: MAX
    kernel_size: 3
    stride: 2
  }
}
layer {
  name: "conv3"
  type: "BinaryConvolution"
  bottom: "pool2"
  top: "conv3"
  param {
    lr_mult: 1
    decay_mult: 1
  }
  convolution_param {
    num_output: 384
    bias_term: false
    pad: 1
    kernel_size: 3
    weight_filler {
      type: "msra"
    }
  }
  debug_param {
    xnorno_grad: true
  }
}
layer {
  name: "bn3"
  type: "BatchNorm"
  bottom: "conv3"
  top: "conv3"
}
layer {
  name: "scale3"
  type: "Scale"
  bottom: "conv3"
  top: "conv3"
  scale_param {
    bias_term: true
  }
}
layer {
  name: "relu3"
  type: "ReLU"
  bottom: "conv3"
  top: "conv3"
}
layer {
  name: "conv4"
  type: "BinaryConvolution"
  bottom: "conv3"
  top: "conv4"
  param {
    lr_mult: 1
    decay_mult: 1
  }
  convolution_param {
    num_output: 384
    bias_term: false
    pad: 1
    kernel_size: 3
    weight_filler {
      type: "msra"
    }
  }
  debug_param {
    xnorno_grad: true
  }
}
layer {
  name: "bn4"
  type: "BatchNorm"
  bottom: "conv4"
  top: "conv4"
}
layer {
  name: "scale4"
  type: "Scale"
  bottom: "conv4"
  top: "conv4"
  scale_param {
    bias_term: true
  }
}
layer {
  name: "relu4"
  type: "ReLU"
  bottom: "conv4"
  top: "conv4"
}
layer {
  name: "conv5"
  type: "BinaryConvolution"
  bottom: "conv4"
  top: "conv5"
  param {
    lr_mult: 1
    decay_mult: 1
  }
  convolution_param {
    num_output: 256
    bias_term: false
    pad: 1
    kernel_size: 3
    weight_filler {
      type: "msra"
    }
  }
  debug_param {
    xnorno_grad: true
  }
}
layer {
  name: "bn5"
  type: "BatchNorm"
  bottom: "conv5"
  top: "conv5"
}
layer {
  name: "scale5"
  type: "Scale"
  bottom: "conv5"
  top: "conv5"
  scale_param {
    bias_term: true
  }
}
layer {
  name: "relu5"
  type: "ReLU"
  bottom: "conv5"
  top: "conv5"
}
layer {
  name: "pool5"
  type: "Pooling"
  bottom: "conv5"
  top: "pool5"
  pooling_param {
    pool: MAX
    kernel_size: 3
    stride: 2
  }
}
layer {
  name: "fc6"
  type: "BinaryInnerProduct"
  bottom: "pool5"
  top: "fc6"
  param {
    lr_mult: 1
    decay_mult: 1
  }
  inner_product_param {
    num_output: 4096
    bias_term: false
    weight_filler {
      type: "msra"
    }
  }
  debug_param {
    xnorno_grad: true
  }
}
layer {
  name: "bn6"
  type: "BatchNorm"
  bottom: "fc6"
  top: "fc6"
}
layer {
  name: "scale6"
  type: "Scale"
  bottom: "fc6"
  top: "fc6"
  scale_param {
    bias_term: true
  }
}
layer {
  name: "relu6"
  type: "ReLU"
  bottom: "fc6"
  top: "fc6"
}
layer {
  name: "drop6"
  type: "Dropout"
  bottom: "fc6"
  top: "fc6"
  dropout_param {
    dropout_ratio: 0.1
  }
}
layer {
  name: "fc7"
  type: "BinaryInnerProduct"
  bottom: "fc6"
  top: "fc7"
  param {
    lr_mult: 1
    decay_mult: 1
  }
  inner_product_param {
    num_output: 4096
    bias_term: false
    weight_filler {
      type: "msra"
    }
  }
  debug_param {
    xnorno_grad: true
  }
}
layer {
  name: "bn7"
  type: "BatchNorm"
  bottom: "fc7"
  top: "fc7"
}
layer {
  name: "scale7"
  type: "Scale"
  bottom: "fc7"
  top: "fc7"
  scale_param {
    bias_term: true
  }
}
layer {
  name: "relu7"
  type: "ReLU"
  bottom: "fc7"
  top: "fc7"
}
layer {
  name: "drop7"
  type: "Dropout"
  bottom: "fc7"
  top: "fc7"
  dropout_param {
    dropout_ratio: 0.1
  }
}
layer {
  name: "fc8"
  type: "InnerProduct"
  bottom: "fc7"
  top: "fc8"
  param {
    lr_mult: 1
    decay_mult: 1
  }
  param {
    lr_mult: 2
    decay_mult: 0
  }
  inner_product_param {
    num_output: 1000
    weight_filler {
      type: "msra"
    }
    bias_filler {
      type: "constant"
      value: 0
    }
  }
}
layer {
  name: "loss"
  type: "SoftmaxWithLoss"
  bottom: "fc8"
  bottom: "label"
  top: "loss"
}
layer {
  name: "accuracy"
  type: "Accuracy"
  bottom: "fc8"
  bottom: "label"
  top: "accuracy"
}
layer {
  name: "accuracy_5"
  type: "Accuracy"
  bottom: "fc8"
  bottom: "label"
  top: "accuracy_5"
  accuracy_param {
    top_k: 5
  }
}
I0111 23:16:58.375845 48059 layer_factory.hpp:78] Creating layer data
I0111 23:16:58.376062 48059 db_lmdb.cpp:35] Opened lmdb /home/zhengzhe/Data/imagenet_shrt256/ilsvrc12_train_lmdb
I0111 23:16:58.376163 48059 net.cpp:84] Creating Layer data
I0111 23:16:58.376195 48059 net.cpp:380] data -> data
I0111 23:16:58.376353 48059 net.cpp:380] data -> label
I0111 23:16:58.379139 48059 data_layer.cpp:45] output data size: 256,3,224,224
I0111 23:16:58.857599 48059 base_data_layer.cpp:72] Initializing prefetch
I0111 23:16:58.857928 48059 base_data_layer.cpp:75] Prefetch initialized.
I0111 23:16:58.857942 48059 net.cpp:122] Setting up data
I0111 23:16:58.857985 48059 net.cpp:129] Top shape: 256 3 224 224 (38535168)
I0111 23:16:58.857995 48059 net.cpp:129] Top shape: 256 (256)
I0111 23:16:58.857997 48059 net.cpp:137] Memory required for data: 154141696
I0111 23:16:58.858033 48059 layer_factory.hpp:78] Creating layer label_data_1_split
I0111 23:16:58.858093 48059 net.cpp:84] Creating Layer label_data_1_split
I0111 23:16:58.858121 48059 net.cpp:406] label_data_1_split <- label
I0111 23:16:58.858181 48059 net.cpp:380] label_data_1_split -> label_data_1_split_0
I0111 23:16:58.858218 48059 net.cpp:380] label_data_1_split -> label_data_1_split_1
I0111 23:16:58.858260 48059 net.cpp:380] label_data_1_split -> label_data_1_split_2
I0111 23:16:58.858350 48059 net.cpp:122] Setting up label_data_1_split
I0111 23:16:58.858364 48059 net.cpp:129] Top shape: 256 (256)
I0111 23:16:58.858376 48059 net.cpp:129] Top shape: 256 (256)
I0111 23:16:58.858381 48059 net.cpp:129] Top shape: 256 (256)
I0111 23:16:58.858384 48059 net.cpp:137] Memory required for data: 154144768
I0111 23:16:58.858391 48059 layer_factory.hpp:78] Creating layer conv1
I0111 23:16:58.858467 48059 net.cpp:84] Creating Layer conv1
I0111 23:16:58.858477 48059 net.cpp:406] conv1 <- data
I0111 23:16:58.858496 48059 net.cpp:380] conv1 -> conv1
I0111 23:17:01.087648 48059 cudnn_conv_layer.cpp:194] Reallocating workspace storage: 127416
I0111 23:17:01.088189 48059 net.cpp:122] Setting up conv1
I0111 23:17:01.088227 48059 net.cpp:129] Top shape: 256 96 55 55 (74342400)
I0111 23:17:01.088237 48059 net.cpp:137] Memory required for data: 451514368
I0111 23:17:01.088371 48059 layer_factory.hpp:78] Creating layer bn1
I0111 23:17:01.088434 48059 net.cpp:84] Creating Layer bn1
I0111 23:17:01.088452 48059 net.cpp:406] bn1 <- conv1
I0111 23:17:01.088491 48059 net.cpp:367] bn1 -> conv1 (in-place)
I0111 23:17:01.090636 48059 net.cpp:122] Setting up bn1
I0111 23:17:01.090659 48059 net.cpp:129] Top shape: 256 96 55 55 (74342400)
I0111 23:17:01.090665 48059 net.cpp:137] Memory required for data: 748883968
I0111 23:17:01.090731 48059 layer_factory.hpp:78] Creating layer scale1
I0111 23:17:01.090786 48059 net.cpp:84] Creating Layer scale1
I0111 23:17:01.090800 48059 net.cpp:406] scale1 <- conv1
I0111 23:17:01.090822 48059 net.cpp:367] scale1 -> conv1 (in-place)
I0111 23:17:01.090951 48059 layer_factory.hpp:78] Creating layer scale1
I0111 23:17:01.091269 48059 net.cpp:122] Setting up scale1
I0111 23:17:01.091289 48059 net.cpp:129] Top shape: 256 96 55 55 (74342400)
I0111 23:17:01.091293 48059 net.cpp:137] Memory required for data: 1046253568
I0111 23:17:01.091328 48059 layer_factory.hpp:78] Creating layer relu1
I0111 23:17:01.091378 48059 net.cpp:84] Creating Layer relu1
I0111 23:17:01.091392 48059 net.cpp:406] relu1 <- conv1
I0111 23:17:01.091413 48059 net.cpp:367] relu1 -> conv1 (in-place)
I0111 23:17:01.092272 48059 net.cpp:122] Setting up relu1
I0111 23:17:01.092291 48059 net.cpp:129] Top shape: 256 96 55 55 (74342400)
I0111 23:17:01.092298 48059 net.cpp:137] Memory required for data: 1343623168
I0111 23:17:01.092308 48059 layer_factory.hpp:78] Creating layer pool1
I0111 23:17:01.092355 48059 net.cpp:84] Creating Layer pool1
I0111 23:17:01.092366 48059 net.cpp:406] pool1 <- conv1
I0111 23:17:01.092392 48059 net.cpp:380] pool1 -> pool1
I0111 23:17:01.092522 48059 net.cpp:122] Setting up pool1
I0111 23:17:01.092542 48059 net.cpp:129] Top shape: 256 96 27 27 (17915904)
I0111 23:17:01.092550 48059 net.cpp:137] Memory required for data: 1415286784
I0111 23:17:01.092558 48059 layer_factory.hpp:78] Creating layer conv2
I0111 23:17:01.092614 48059 net.cpp:84] Creating Layer conv2
I0111 23:17:01.092628 48059 net.cpp:406] conv2 <- pool1
I0111 23:17:01.092655 48059 net.cpp:380] conv2 -> conv2
I0111 23:17:01.165690 48059 cudnn_binary_conv_layer.cpp:194] Reallocating workspace storage: 19668
I0111 23:17:01.165729 48059 net.cpp:122] Setting up conv2
I0111 23:17:01.165740 48059 net.cpp:129] Top shape: 256 256 27 27 (47775744)
I0111 23:17:01.165745 48059 net.cpp:137] Memory required for data: 1606389760
I0111 23:17:01.165760 48059 layer_factory.hpp:78] Creating layer bn2
I0111 23:17:01.165787 48059 net.cpp:84] Creating Layer bn2
I0111 23:17:01.165799 48059 net.cpp:406] bn2 <- conv2
I0111 23:17:01.165817 48059 net.cpp:367] bn2 -> conv2 (in-place)
I0111 23:17:01.167361 48059 net.cpp:122] Setting up bn2
I0111 23:17:01.167377 48059 net.cpp:129] Top shape: 256 256 27 27 (47775744)
I0111 23:17:01.167381 48059 net.cpp:137] Memory required for data: 1797492736
I0111 23:17:01.167415 48059 layer_factory.hpp:78] Creating layer scale2
I0111 23:17:01.167438 48059 net.cpp:84] Creating Layer scale2
I0111 23:17:01.167448 48059 net.cpp:406] scale2 <- conv2
I0111 23:17:01.167487 48059 net.cpp:367] scale2 -> conv2 (in-place)
I0111 23:17:01.167559 48059 layer_factory.hpp:78] Creating layer scale2
I0111 23:17:01.167747 48059 net.cpp:122] Setting up scale2
I0111 23:17:01.167760 48059 net.cpp:129] Top shape: 256 256 27 27 (47775744)
I0111 23:17:01.167763 48059 net.cpp:137] Memory required for data: 1988595712
I0111 23:17:01.167779 48059 layer_factory.hpp:78] Creating layer relu2
I0111 23:17:01.167796 48059 net.cpp:84] Creating Layer relu2
I0111 23:17:01.167804 48059 net.cpp:406] relu2 <- conv2
I0111 23:17:01.167819 48059 net.cpp:367] relu2 -> conv2 (in-place)
I0111 23:17:01.168450 48059 net.cpp:122] Setting up relu2
I0111 23:17:01.168463 48059 net.cpp:129] Top shape: 256 256 27 27 (47775744)
I0111 23:17:01.168478 48059 net.cpp:137] Memory required for data: 2179698688
I0111 23:17:01.168484 48059 layer_factory.hpp:78] Creating layer pool2
I0111 23:17:01.168503 48059 net.cpp:84] Creating Layer pool2
I0111 23:17:01.168512 48059 net.cpp:406] pool2 <- conv2
I0111 23:17:01.168529 48059 net.cpp:380] pool2 -> pool2
I0111 23:17:01.168604 48059 net.cpp:122] Setting up pool2
I0111 23:17:01.168618 48059 net.cpp:129] Top shape: 256 256 13 13 (11075584)
I0111 23:17:01.168622 48059 net.cpp:137] Memory required for data: 2224001024
I0111 23:17:01.168628 48059 layer_factory.hpp:78] Creating layer conv3
I0111 23:17:01.168656 48059 net.cpp:84] Creating Layer conv3
I0111 23:17:01.168666 48059 net.cpp:406] conv3 <- pool2
I0111 23:17:01.168684 48059 net.cpp:380] conv3 -> conv3
I0111 23:17:01.275627 48059 cudnn_binary_conv_layer.cpp:194] Reallocating workspace storage: 18874368
I0111 23:17:01.276129 48059 net.cpp:122] Setting up conv3
I0111 23:17:01.276165 48059 net.cpp:129] Top shape: 256 384 13 13 (16613376)
I0111 23:17:01.276172 48059 net.cpp:137] Memory required for data: 2290454528
I0111 23:17:01.276219 48059 layer_factory.hpp:78] Creating layer bn3
I0111 23:17:01.276278 48059 net.cpp:84] Creating Layer bn3
I0111 23:17:01.276304 48059 net.cpp:406] bn3 <- conv3
I0111 23:17:01.276352 48059 net.cpp:367] bn3 -> conv3 (in-place)
I0111 23:17:01.276769 48059 net.cpp:122] Setting up bn3
I0111 23:17:01.276788 48059 net.cpp:129] Top shape: 256 384 13 13 (16613376)
I0111 23:17:01.276794 48059 net.cpp:137] Memory required for data: 2356908032
I0111 23:17:01.276839 48059 layer_factory.hpp:78] Creating layer scale3
I0111 23:17:01.276873 48059 net.cpp:84] Creating Layer scale3
I0111 23:17:01.276886 48059 net.cpp:406] scale3 <- conv3
I0111 23:17:01.276914 48059 net.cpp:367] scale3 -> conv3 (in-place)
I0111 23:17:01.277016 48059 layer_factory.hpp:78] Creating layer scale3
I0111 23:17:01.277302 48059 net.cpp:122] Setting up scale3
I0111 23:17:01.277321 48059 net.cpp:129] Top shape: 256 384 13 13 (16613376)
I0111 23:17:01.277329 48059 net.cpp:137] Memory required for data: 2423361536
I0111 23:17:01.277379 48059 layer_factory.hpp:78] Creating layer relu3
I0111 23:17:01.277408 48059 net.cpp:84] Creating Layer relu3
I0111 23:17:01.277420 48059 net.cpp:406] relu3 <- conv3
I0111 23:17:01.277447 48059 net.cpp:367] relu3 -> conv3 (in-place)
I0111 23:17:01.278841 48059 net.cpp:122] Setting up relu3
I0111 23:17:01.278868 48059 net.cpp:129] Top shape: 256 384 13 13 (16613376)
I0111 23:17:01.278874 48059 net.cpp:137] Memory required for data: 2489815040
I0111 23:17:01.278885 48059 layer_factory.hpp:78] Creating layer conv4
I0111 23:17:01.278935 48059 net.cpp:84] Creating Layer conv4
I0111 23:17:01.278951 48059 net.cpp:406] conv4 <- conv3
I0111 23:17:01.278988 48059 net.cpp:380] conv4 -> conv4
I0111 23:17:01.435250 48059 cudnn_binary_conv_layer.cpp:194] Reallocating workspace storage: 9840
I0111 23:17:01.435302 48059 net.cpp:122] Setting up conv4
I0111 23:17:01.435325 48059 net.cpp:129] Top shape: 256 384 13 13 (16613376)
I0111 23:17:01.435329 48059 net.cpp:137] Memory required for data: 2556268544
I0111 23:17:01.435367 48059 layer_factory.hpp:78] Creating layer bn4
I0111 23:17:01.435415 48059 net.cpp:84] Creating Layer bn4
I0111 23:17:01.435433 48059 net.cpp:406] bn4 <- conv4
I0111 23:17:01.435461 48059 net.cpp:367] bn4 -> conv4 (in-place)
I0111 23:17:01.435783 48059 net.cpp:122] Setting up bn4
I0111 23:17:01.435797 48059 net.cpp:129] Top shape: 256 384 13 13 (16613376)
I0111 23:17:01.435801 48059 net.cpp:137] Memory required for data: 2622722048
I0111 23:17:01.435835 48059 layer_factory.hpp:78] Creating layer scale4
I0111 23:17:01.435861 48059 net.cpp:84] Creating Layer scale4
I0111 23:17:01.435870 48059 net.cpp:406] scale4 <- conv4
I0111 23:17:01.435887 48059 net.cpp:367] scale4 -> conv4 (in-place)
I0111 23:17:01.435968 48059 layer_factory.hpp:78] Creating layer scale4
I0111 23:17:01.436173 48059 net.cpp:122] Setting up scale4
I0111 23:17:01.436187 48059 net.cpp:129] Top shape: 256 384 13 13 (16613376)
I0111 23:17:01.436192 48059 net.cpp:137] Memory required for data: 2689175552
I0111 23:17:01.436208 48059 layer_factory.hpp:78] Creating layer relu4
I0111 23:17:01.436226 48059 net.cpp:84] Creating Layer relu4
I0111 23:17:01.436239 48059 net.cpp:406] relu4 <- conv4
I0111 23:17:01.436261 48059 net.cpp:367] relu4 -> conv4 (in-place)
I0111 23:17:01.441735 48059 net.cpp:122] Setting up relu4
I0111 23:17:01.441757 48059 net.cpp:129] Top shape: 256 384 13 13 (16613376)
I0111 23:17:01.441762 48059 net.cpp:137] Memory required for data: 2755629056
I0111 23:17:01.441771 48059 layer_factory.hpp:78] Creating layer conv5
I0111 23:17:01.441821 48059 net.cpp:84] Creating Layer conv5
I0111 23:17:01.441834 48059 net.cpp:406] conv5 <- conv4
I0111 23:17:01.441861 48059 net.cpp:380] conv5 -> conv5
I0111 23:17:01.546823 48059 cudnn_binary_conv_layer.cpp:194] Reallocating workspace storage: 18874368
I0111 23:17:01.547207 48059 net.cpp:122] Setting up conv5
I0111 23:17:01.547240 48059 net.cpp:129] Top shape: 256 256 13 13 (11075584)
I0111 23:17:01.547300 48059 net.cpp:137] Memory required for data: 2799931392
I0111 23:17:01.547348 48059 layer_factory.hpp:78] Creating layer bn5
I0111 23:17:01.547403 48059 net.cpp:84] Creating Layer bn5
I0111 23:17:01.547427 48059 net.cpp:406] bn5 <- conv5
I0111 23:17:01.547482 48059 net.cpp:367] bn5 -> conv5 (in-place)
I0111 23:17:01.547791 48059 net.cpp:122] Setting up bn5
I0111 23:17:01.547806 48059 net.cpp:129] Top shape: 256 256 13 13 (11075584)
I0111 23:17:01.547813 48059 net.cpp:137] Memory required for data: 2844233728
I0111 23:17:01.547853 48059 layer_factory.hpp:78] Creating layer scale5
I0111 23:17:01.547888 48059 net.cpp:84] Creating Layer scale5
I0111 23:17:01.547901 48059 net.cpp:406] scale5 <- conv5
I0111 23:17:01.547927 48059 net.cpp:367] scale5 -> conv5 (in-place)
I0111 23:17:01.548015 48059 layer_factory.hpp:78] Creating layer scale5
I0111 23:17:01.548224 48059 net.cpp:122] Setting up scale5
I0111 23:17:01.548241 48059 net.cpp:129] Top shape: 256 256 13 13 (11075584)
I0111 23:17:01.548249 48059 net.cpp:137] Memory required for data: 2888536064
I0111 23:17:01.548274 48059 layer_factory.hpp:78] Creating layer relu5
I0111 23:17:01.548296 48059 net.cpp:84] Creating Layer relu5
I0111 23:17:01.548308 48059 net.cpp:406] relu5 <- conv5
I0111 23:17:01.548337 48059 net.cpp:367] relu5 -> conv5 (in-place)
I0111 23:17:01.549105 48059 net.cpp:122] Setting up relu5
I0111 23:17:01.549124 48059 net.cpp:129] Top shape: 256 256 13 13 (11075584)
I0111 23:17:01.549130 48059 net.cpp:137] Memory required for data: 2932838400
I0111 23:17:01.549142 48059 layer_factory.hpp:78] Creating layer pool5
I0111 23:17:01.549194 48059 net.cpp:84] Creating Layer pool5
I0111 23:17:01.549208 48059 net.cpp:406] pool5 <- conv5
I0111 23:17:01.549239 48059 net.cpp:380] pool5 -> pool5
I0111 23:17:01.549345 48059 net.cpp:122] Setting up pool5
I0111 23:17:01.549365 48059 net.cpp:129] Top shape: 256 256 6 6 (2359296)
I0111 23:17:01.549391 48059 net.cpp:137] Memory required for data: 2942275584
I0111 23:17:01.549402 48059 layer_factory.hpp:78] Creating layer fc6
I0111 23:17:01.549479 48059 net.cpp:84] Creating Layer fc6
I0111 23:17:01.549494 48059 net.cpp:406] fc6 <- pool5
I0111 23:17:01.549527 48059 net.cpp:380] fc6 -> fc6
I0111 23:17:05.085992 48059 net.cpp:122] Setting up fc6
I0111 23:17:05.086055 48059 net.cpp:129] Top shape: 256 4096 (1048576)
I0111 23:17:05.086091 48059 net.cpp:137] Memory required for data: 2946469888
I0111 23:17:05.086153 48059 layer_factory.hpp:78] Creating layer bn6
I0111 23:17:05.086203 48059 net.cpp:84] Creating Layer bn6
I0111 23:17:05.086225 48059 net.cpp:406] bn6 <- fc6
I0111 23:17:05.086253 48059 net.cpp:367] bn6 -> fc6 (in-place)
I0111 23:17:05.086535 48059 net.cpp:122] Setting up bn6
I0111 23:17:05.086552 48059 net.cpp:129] Top shape: 256 4096 (1048576)
I0111 23:17:05.086555 48059 net.cpp:137] Memory required for data: 2950664192
I0111 23:17:05.086596 48059 layer_factory.hpp:78] Creating layer scale6
I0111 23:17:05.086632 48059 net.cpp:84] Creating Layer scale6
I0111 23:17:05.086650 48059 net.cpp:406] scale6 <- fc6
I0111 23:17:05.086664 48059 net.cpp:367] scale6 -> fc6 (in-place)
I0111 23:17:05.086750 48059 layer_factory.hpp:78] Creating layer scale6
I0111 23:17:05.086951 48059 net.cpp:122] Setting up scale6
I0111 23:17:05.086964 48059 net.cpp:129] Top shape: 256 4096 (1048576)
I0111 23:17:05.086967 48059 net.cpp:137] Memory required for data: 2954858496
I0111 23:17:05.086982 48059 layer_factory.hpp:78] Creating layer relu6
I0111 23:17:05.087000 48059 net.cpp:84] Creating Layer relu6
I0111 23:17:05.087010 48059 net.cpp:406] relu6 <- fc6
I0111 23:17:05.087023 48059 net.cpp:367] relu6 -> fc6 (in-place)
I0111 23:17:05.088604 48059 net.cpp:122] Setting up relu6
I0111 23:17:05.088626 48059 net.cpp:129] Top shape: 256 4096 (1048576)
I0111 23:17:05.088630 48059 net.cpp:137] Memory required for data: 2959052800
I0111 23:17:05.088637 48059 layer_factory.hpp:78] Creating layer drop6
I0111 23:17:05.088676 48059 net.cpp:84] Creating Layer drop6
I0111 23:17:05.088694 48059 net.cpp:406] drop6 <- fc6
I0111 23:17:05.088711 48059 net.cpp:367] drop6 -> fc6 (in-place)
I0111 23:17:05.088774 48059 net.cpp:122] Setting up drop6
I0111 23:17:05.088789 48059 net.cpp:129] Top shape: 256 4096 (1048576)
I0111 23:17:05.088793 48059 net.cpp:137] Memory required for data: 2963247104
I0111 23:17:05.088798 48059 layer_factory.hpp:78] Creating layer fc7
I0111 23:17:05.088831 48059 net.cpp:84] Creating Layer fc7
I0111 23:17:05.088841 48059 net.cpp:406] fc7 <- fc6
I0111 23:17:05.088874 48059 net.cpp:380] fc7 -> fc7
I0111 23:17:06.860328 48059 net.cpp:122] Setting up fc7
I0111 23:17:06.860391 48059 net.cpp:129] Top shape: 256 4096 (1048576)
I0111 23:17:06.860396 48059 net.cpp:137] Memory required for data: 2967441408
I0111 23:17:06.860440 48059 layer_factory.hpp:78] Creating layer bn7
I0111 23:17:06.860482 48059 net.cpp:84] Creating Layer bn7
I0111 23:17:06.860498 48059 net.cpp:406] bn7 <- fc7
I0111 23:17:06.860522 48059 net.cpp:367] bn7 -> fc7 (in-place)
I0111 23:17:06.860816 48059 net.cpp:122] Setting up bn7
I0111 23:17:06.860827 48059 net.cpp:129] Top shape: 256 4096 (1048576)
I0111 23:17:06.860831 48059 net.cpp:137] Memory required for data: 2971635712
I0111 23:17:06.860855 48059 layer_factory.hpp:78] Creating layer scale7
I0111 23:17:06.860890 48059 net.cpp:84] Creating Layer scale7
I0111 23:17:06.860899 48059 net.cpp:406] scale7 <- fc7
I0111 23:17:06.860914 48059 net.cpp:367] scale7 -> fc7 (in-place)
I0111 23:17:06.860998 48059 layer_factory.hpp:78] Creating layer scale7
I0111 23:17:06.861188 48059 net.cpp:122] Setting up scale7
I0111 23:17:06.861201 48059 net.cpp:129] Top shape: 256 4096 (1048576)
I0111 23:17:06.861205 48059 net.cpp:137] Memory required for data: 2975830016
I0111 23:17:06.861220 48059 layer_factory.hpp:78] Creating layer relu7
I0111 23:17:06.861235 48059 net.cpp:84] Creating Layer relu7
I0111 23:17:06.861243 48059 net.cpp:406] relu7 <- fc7
I0111 23:17:06.861258 48059 net.cpp:367] relu7 -> fc7 (in-place)
I0111 23:17:06.862401 48059 net.cpp:122] Setting up relu7
I0111 23:17:06.862416 48059 net.cpp:129] Top shape: 256 4096 (1048576)
I0111 23:17:06.862419 48059 net.cpp:137] Memory required for data: 2980024320
I0111 23:17:06.862426 48059 layer_factory.hpp:78] Creating layer drop7
I0111 23:17:06.862458 48059 net.cpp:84] Creating Layer drop7
I0111 23:17:06.862468 48059 net.cpp:406] drop7 <- fc7
I0111 23:17:06.862488 48059 net.cpp:367] drop7 -> fc7 (in-place)
I0111 23:17:06.862560 48059 net.cpp:122] Setting up drop7
I0111 23:17:06.862571 48059 net.cpp:129] Top shape: 256 4096 (1048576)
I0111 23:17:06.862573 48059 net.cpp:137] Memory required for data: 2984218624
I0111 23:17:06.862579 48059 layer_factory.hpp:78] Creating layer fc8
I0111 23:17:06.862620 48059 net.cpp:84] Creating Layer fc8
I0111 23:17:06.862629 48059 net.cpp:406] fc8 <- fc7
I0111 23:17:06.862650 48059 net.cpp:380] fc8 -> fc8
I0111 23:17:07.239070 48059 net.cpp:122] Setting up fc8
I0111 23:17:07.239126 48059 net.cpp:129] Top shape: 256 1000 (256000)
I0111 23:17:07.239135 48059 net.cpp:137] Memory required for data: 2985242624
I0111 23:17:07.239168 48059 layer_factory.hpp:78] Creating layer fc8_fc8_0_split
I0111 23:17:07.239208 48059 net.cpp:84] Creating Layer fc8_fc8_0_split
I0111 23:17:07.239223 48059 net.cpp:406] fc8_fc8_0_split <- fc8
I0111 23:17:07.239248 48059 net.cpp:380] fc8_fc8_0_split -> fc8_fc8_0_split_0
I0111 23:17:07.239286 48059 net.cpp:380] fc8_fc8_0_split -> fc8_fc8_0_split_1
I0111 23:17:07.239302 48059 net.cpp:380] fc8_fc8_0_split -> fc8_fc8_0_split_2
I0111 23:17:07.239382 48059 net.cpp:122] Setting up fc8_fc8_0_split
I0111 23:17:07.239397 48059 net.cpp:129] Top shape: 256 1000 (256000)
I0111 23:17:07.239403 48059 net.cpp:129] Top shape: 256 1000 (256000)
I0111 23:17:07.239408 48059 net.cpp:129] Top shape: 256 1000 (256000)
I0111 23:17:07.239410 48059 net.cpp:137] Memory required for data: 2988314624
I0111 23:17:07.239416 48059 layer_factory.hpp:78] Creating layer loss
I0111 23:17:07.239460 48059 net.cpp:84] Creating Layer loss
I0111 23:17:07.239470 48059 net.cpp:406] loss <- fc8_fc8_0_split_0
I0111 23:17:07.239483 48059 net.cpp:406] loss <- label_data_1_split_0
I0111 23:17:07.239496 48059 net.cpp:380] loss -> loss
…
I0111 23:17:16.436753 48059 net.cpp:294] The NetState phase (1) differed from the phase (0) specified by a rule in layer data
I0111 23:17:16.436993 48059 net.cpp:51] Initializing net from parameters: 
name: "AlexNet-BN"
state {
  phase: TEST
}
layer {
  name: "data"
  type: "Data"
  top: "data"
  top: "label"
  include {
    phase: TEST
  }
  transform_param {
    mirror: false
    crop_size: 224
    mean_value: 104
    mean_value: 117
    mean_value: 123
  }
  data_param {
    source: "/home/zhengzhe/Data/imagenet_shrt256/ilsvrc12_val_lmdb"
    batch_size: 50
    backend: LMDB
  }
}
layer {
  name: "conv1"
  type: "Convolution"
  bottom: "data"
  top: "conv1"
  param {
    lr_mult: 1
    decay_mult: 1
  }
  convolution_param {
    num_output: 96
    bias_term: false
    pad: 2
    kernel_size: 11
    stride: 4
    weight_filler {
      type: "msra"
    }
  }
}
layer {
  name: "bn1"
  type: "BatchNorm"
  bottom: "conv1"
  top: "conv1"
}
layer {
  name: "scale1"
  type: "Scale"
  bottom: "conv1"
  top: "conv1"
  scale_param {
    bias_term: true
  }
}
layer {
  name: "relu1"
  type: "ReLU"
  bottom: "conv1"
  top: "conv1"
}
layer {
  name: "pool1"
  type: "Pooling"
  bottom: "conv1"
  top: "pool1"
  pooling_param {
    pool: MAX
    kernel_size: 3
    stride: 2
  }
}
layer {
  name: "conv2"
  type: "BinaryConvolution"
  bottom: "pool1"
  top: "conv2"
  param {
    lr_mult: 1
    decay_mult: 1
  }
  convolution_param {
    num_output: 256
    bias_term: false
    pad: 2
    kernel_size: 5
    weight_filler {
      type: "msra"
    }
  }
  debug_param {
    xnorno_grad: true
  }
}
layer {
  name: "bn2"
  type: "BatchNorm"
  bottom: "conv2"
  top: "conv2"
}
layer {
  name: "scale2"
  type: "Scale"
  bottom: "conv2"
  top: "conv2"
  scale_param {
    bias_term: true
  }
}
layer {
  name: "relu2"
  type: "ReLU"
  bottom: "conv2"
  top: "conv2"
}
layer {
  name: "pool2"
  type: "Pooling"
  bottom: "conv2"
  top: "pool2"
  pooling_param {
    pool: MAX
    kernel_size: 3
    stride: 2
  }
}
layer {
  name: "conv3"
  type: "BinaryConvolution"
  bottom: "pool2"
  top: "conv3"
  param {
    lr_mult: 1
    decay_mult: 1
  }
  convolution_param {
    num_output: 384
    bias_term: false
    pad: 1
    kernel_size: 3
    weight_filler {
      type: "msra"
    }
  }
  debug_param {
    xnorno_grad: true
  }
}
layer {
  name: "bn3"
  type: "BatchNorm"
  bottom: "conv3"
  top: "conv3"
}
layer {
  name: "scale3"
  type: "Scale"
  bottom: "conv3"
  top: "conv3"
  scale_param {
    bias_term: true
  }
}
layer {
  name: "relu3"
  type: "ReLU"
  bottom: "conv3"
  top: "conv3"
}
layer {
  name: "conv4"
  type: "BinaryConvolution"
  bottom: "conv3"
  top: "conv4"
  param {
    lr_mult: 1
    decay_mult: 1
  }
  convolution_param {
    num_output: 384
    bias_term: false
    pad: 1
    kernel_size: 3
    weight_filler {
      type: "msra"
    }
  }
  debug_param {
    xnorno_grad: true
  }
}
layer {
  name: "bn4"
  type: "BatchNorm"
  bottom: "conv4"
  top: "conv4"
}
layer {
  name: "scale4"
  type: "Scale"
  bottom: "conv4"
  top: "conv4"
  scale_param {
    bias_term: true
  }
}
layer {
  name: "relu4"
  type: "ReLU"
  bottom: "conv4"
  top: "conv4"
}
layer {
  name: "conv5"
  type: "BinaryConvolution"
  bottom: "conv4"
  top: "conv5"
  param {
    lr_mult: 1
    decay_mult: 1
  }
  convolution_param {
    num_output: 256
    bias_term: false
    pad: 1
    kernel_size: 3
    weight_filler {
      type: "msra"
    }
  }
  debug_param {
    xnorno_grad: true
  }
}
layer {
  name: "bn5"
  type: "BatchNorm"
  bottom: "conv5"
  top: "conv5"
}
layer {
  name: "scale5"
  type: "Scale"
  bottom: "conv5"
  top: "conv5"
  scale_param {
    bias_term: true
  }
}
layer {
  name: "relu5"
  type: "ReLU"
  bottom: "conv5"
  top: "conv5"
}
layer {
  name: "pool5"
  type: "Pooling"
  bottom: "conv5"
  top: "pool5"
  pooling_param {
    pool: MAX
    kernel_size: 3
    stride: 2
  }
}
layer {
  name: "fc6"
  type: "BinaryInnerProduct"
  bottom: "pool5"
  top: "fc6"
  param {
    lr_mult: 1
    decay_mult: 1
  }
  inner_product_param {
    num_output: 4096
    bias_term: false
    weight_filler {
      type: "msra"
    }
  }
  debug_param {
    xnorno_grad: true
  }
}
layer {
  name: "bn6"
  type: "BatchNorm"
  bottom: "fc6"
  top: "fc6"
}
layer {
  name: "scale6"
  type: "Scale"
  bottom: "fc6"
  top: "fc6"
  scale_param {
    bias_term: true
  }
}
layer {
  name: "relu6"
  type: "ReLU"
  bottom: "fc6"
  top: "fc6"
}
layer {
  name: "drop6"
  type: "Dropout"
  bottom: "fc6"
  top: "fc6"
  dropout_param {
    dropout_ratio: 0.1
  }
}
layer {
  name: "fc7"
  type: "BinaryInnerProduct"
  bottom: "fc6"
  top: "fc7"
  param {
    lr_mult: 1
    decay_mult: 1
  }
  inner_product_param {
    num_output: 4096
    bias_term: false
    weight_filler {
      type: "msra"
    }
  }
  debug_param {
    xnorno_grad: true
  }
}
layer {
  name: "bn7"
  type: "BatchNorm"
  bottom: "fc7"
  top: "fc7"
}
layer {
  name: "scale7"
  type: "Scale"
  bottom: "fc7"
  top: "fc7"
  scale_param {
    bias_term: true
  }
}
layer {
  name: "relu7"
  type: "ReLU"
  bottom: "fc7"
  top: "fc7"
}
layer {
  name: "drop7"
  type: "Dropout"
  bottom: "fc7"
  top: "fc7"
  dropout_param {
    dropout_ratio: 0.1
  }
}
layer {
  name: "fc8"
  type: "InnerProduct"
  bottom: "fc7"
  top: "fc8"
  param {
    lr_mult: 1
    decay_mult: 1
  }
  param {
    lr_mult: 2
    decay_mult: 0
  }
  inner_product_param {
    num_output: 1000
    weight_filler {
      type: "msra"
    }
    bias_filler {
      type: "constant"
      value: 0
    }
  }
}
layer {
  name: "loss"
  type: "SoftmaxWithLoss"
  bottom: "fc8"
  bottom: "label"
  top: "loss"
}
layer {
  name: "accuracy"
  type: "Accuracy"
  bottom: "fc8"
  bottom: "label"
  top: "accuracy"
}
layer {
  name: "accuracy_5"
  type: "Accuracy"
  bottom: "fc8"
  bottom: "label"
  top: "accuracy_5"
  accuracy_param {
    top_k: 5
  }
}
I0111 23:17:16.437459 48059 layer_factory.hpp:78] Creating layer data
I0111 23:17:16.437602 48059 db_lmdb.cpp:35] Opened lmdb /home/zhengzhe/Data/imagenet_shrt256/ilsvrc12_val_lmdb
I0111 23:17:16.437639 48059 net.cpp:84] Creating Layer data
I0111 23:17:16.437656 48059 net.cpp:380] data -> data
I0111 23:17:16.437728 48059 net.cpp:380] data -> label
I0111 23:17:16.438380 48059 data_layer.cpp:45] output data size: 50,3,224,224
I0111 23:17:16.527367 48059 base_data_layer.cpp:72] Initializing prefetch
I0111 23:17:16.527530 48059 base_data_layer.cpp:75] Prefetch initialized.
I0111 23:17:16.527541 48059 net.cpp:122] Setting up data
I0111 23:17:16.527562 48059 net.cpp:129] Top shape: 50 3 224 224 (7526400)
I0111 23:17:16.527590 48059 net.cpp:129] Top shape: 50 (50)
I0111 23:17:16.527593 48059 net.cpp:137] Memory required for data: 30105800
I0111 23:17:16.527616 48059 layer_factory.hpp:78] Creating layer label_data_1_split
I0111 23:17:16.527678 48059 net.cpp:84] Creating Layer label_data_1_split
I0111 23:17:16.527691 48059 net.cpp:406] label_data_1_split <- label
I0111 23:17:16.527719 48059 net.cpp:380] label_data_1_split -> label_data_1_split_0
I0111 23:17:16.527753 48059 net.cpp:380] label_data_1_split -> label_data_1_split_1
I0111 23:17:16.527770 48059 net.cpp:380] label_data_1_split -> label_data_1_split_2
I0111 23:17:16.528136 48059 net.cpp:122] Setting up label_data_1_split
I0111 23:17:16.528151 48059 net.cpp:129] Top shape: 50 (50)
I0111 23:17:16.528157 48059 net.cpp:129] Top shape: 50 (50)
I0111 23:17:16.528162 48059 net.cpp:129] Top shape: 50 (50)
I0111 23:17:16.528165 48059 net.cpp:137] Memory required for data: 30106400
I0111 23:17:16.528170 48059 layer_factory.hpp:78] Creating layer conv1
I0111 23:17:16.528210 48059 net.cpp:84] Creating Layer conv1
I0111 23:17:16.528220 48059 net.cpp:406] conv1 <- data
I0111 23:17:16.528240 48059 net.cpp:380] conv1 -> conv1
I0111 23:17:16.536571 48059 cudnn_conv_layer.cpp:194] Reallocating workspace storage: 127416
I0111 23:17:16.536634 48059 net.cpp:122] Setting up conv1
I0111 23:17:16.536654 48059 net.cpp:129] Top shape: 50 96 55 55 (14520000)
I0111 23:17:16.536692 48059 net.cpp:137] Memory required for data: 88186400
I0111 23:17:16.536733 48059 layer_factory.hpp:78] Creating layer bn1
I0111 23:17:16.536765 48059 net.cpp:84] Creating Layer bn1
I0111 23:17:16.536778 48059 net.cpp:406] bn1 <- conv1
I0111 23:17:16.536823 48059 net.cpp:367] bn1 -> conv1 (in-place)
I0111 23:17:16.537163 48059 net.cpp:122] Setting up bn1
I0111 23:17:16.537175 48059 net.cpp:129] Top shape: 50 96 55 55 (14520000)
I0111 23:17:16.537178 48059 net.cpp:137] Memory required for data: 146266400
I0111 23:17:16.537212 48059 layer_factory.hpp:78] Creating layer scale1
I0111 23:17:16.537240 48059 net.cpp:84] Creating Layer scale1
I0111 23:17:16.537247 48059 net.cpp:406] scale1 <- conv1
I0111 23:17:16.537262 48059 net.cpp:367] scale1 -> conv1 (in-place)
I0111 23:17:16.537350 48059 layer_factory.hpp:78] Creating layer scale1
I0111 23:17:16.537576 48059 net.cpp:122] Setting up scale1
I0111 23:17:16.537590 48059 net.cpp:129] Top shape: 50 96 55 55 (14520000)
I0111 23:17:16.537592 48059 net.cpp:137] Memory required for data: 204346400
I0111 23:17:16.537617 48059 layer_factory.hpp:78] Creating layer relu1
I0111 23:17:16.537634 48059 net.cpp:84] Creating Layer relu1
I0111 23:17:16.537642 48059 net.cpp:406] relu1 <- conv1
I0111 23:17:16.537654 48059 net.cpp:367] relu1 -> conv1 (in-place)
I0111 23:17:16.538301 48059 net.cpp:122] Setting up relu1
I0111 23:17:16.538316 48059 net.cpp:129] Top shape: 50 96 55 55 (14520000)
I0111 23:17:16.538318 48059 net.cpp:137] Memory required for data: 262426400
I0111 23:17:16.538324 48059 layer_factory.hpp:78] Creating layer pool1
I0111 23:17:16.538358 48059 net.cpp:84] Creating Layer pool1
I0111 23:17:16.538373 48059 net.cpp:406] pool1 <- conv1
I0111 23:17:16.538421 48059 net.cpp:380] pool1 -> pool1
I0111 23:17:16.538514 48059 net.cpp:122] Setting up pool1
I0111 23:17:16.538530 48059 net.cpp:129] Top shape: 50 96 27 27 (3499200)
I0111 23:17:16.538535 48059 net.cpp:137] Memory required for data: 276423200
I0111 23:17:16.538561 48059 layer_factory.hpp:78] Creating layer conv2
I0111 23:17:16.538599 48059 net.cpp:84] Creating Layer conv2
I0111 23:17:16.538610 48059 net.cpp:406] conv2 <- pool1
I0111 23:17:16.538636 48059 net.cpp:380] conv2 -> conv2
I0111 23:17:16.596727 48059 cudnn_binary_conv_layer.cpp:194] Reallocating workspace storage: 19668
I0111 23:17:16.596781 48059 net.cpp:122] Setting up conv2
I0111 23:17:16.596802 48059 net.cpp:129] Top shape: 50 256 27 27 (9331200)
I0111 23:17:16.596840 48059 net.cpp:137] Memory required for data: 313748000
I0111 23:17:16.596889 48059 layer_factory.hpp:78] Creating layer bn2
I0111 23:17:16.596936 48059 net.cpp:84] Creating Layer bn2
I0111 23:17:16.596953 48059 net.cpp:406] bn2 <- conv2
I0111 23:17:16.597005 48059 net.cpp:367] bn2 -> conv2 (in-place)
I0111 23:17:16.597313 48059 net.cpp:122] Setting up bn2
I0111 23:17:16.597327 48059 net.cpp:129] Top shape: 50 256 27 27 (9331200)
I0111 23:17:16.597332 48059 net.cpp:137] Memory required for data: 351072800
I0111 23:17:16.597381 48059 layer_factory.hpp:78] Creating layer scale2
I0111 23:17:16.597411 48059 net.cpp:84] Creating Layer scale2
I0111 23:17:16.597421 48059 net.cpp:406] scale2 <- conv2
I0111 23:17:16.597465 48059 net.cpp:367] scale2 -> conv2 (in-place)
I0111 23:17:16.597553 48059 layer_factory.hpp:78] Creating layer scale2
I0111 23:17:16.597774 48059 net.cpp:122] Setting up scale2
I0111 23:17:16.597787 48059 net.cpp:129] Top shape: 50 256 27 27 (9331200)
I0111 23:17:16.597790 48059 net.cpp:137] Memory required for data: 388397600
I0111 23:17:16.597805 48059 layer_factory.hpp:78] Creating layer relu2
I0111 23:17:16.597822 48059 net.cpp:84] Creating Layer relu2
I0111 23:17:16.597829 48059 net.cpp:406] relu2 <- conv2
I0111 23:17:16.597842 48059 net.cpp:367] relu2 -> conv2 (in-place)
I0111 23:17:16.598853 48059 net.cpp:122] Setting up relu2
I0111 23:17:16.598870 48059 net.cpp:129] Top shape: 50 256 27 27 (9331200)
I0111 23:17:16.598876 48059 net.cpp:137] Memory required for data: 425722400
I0111 23:17:16.598886 48059 layer_factory.hpp:78] Creating layer pool2
I0111 23:17:16.598932 48059 net.cpp:84] Creating Layer pool2
I0111 23:17:16.598944 48059 net.cpp:406] pool2 <- conv2
I0111 23:17:16.598970 48059 net.cpp:380] pool2 -> pool2
I0111 23:17:16.599066 48059 net.cpp:122] Setting up pool2
I0111 23:17:16.599083 48059 net.cpp:129] Top shape: 50 256 13 13 (2163200)
I0111 23:17:16.599092 48059 net.cpp:137] Memory required for data: 434375200
I0111 23:17:16.599099 48059 layer_factory.hpp:78] Creating layer conv3
I0111 23:17:16.599131 48059 net.cpp:84] Creating Layer conv3
I0111 23:17:16.599141 48059 net.cpp:406] conv3 <- pool2
I0111 23:17:16.599169 48059 net.cpp:380] conv3 -> conv3
I0111 23:17:16.682159 48059 cudnn_binary_conv_layer.cpp:194] Reallocating workspace storage: 18874368
I0111 23:17:16.682601 48059 net.cpp:122] Setting up conv3
I0111 23:17:16.682636 48059 net.cpp:129] Top shape: 50 384 13 13 (3244800)
I0111 23:17:16.682646 48059 net.cpp:137] Memory required for data: 447354400
I0111 23:17:16.682678 48059 layer_factory.hpp:78] Creating layer bn3
I0111 23:17:16.682710 48059 net.cpp:84] Creating Layer bn3
I0111 23:17:16.682723 48059 net.cpp:406] bn3 <- conv3
I0111 23:17:16.682749 48059 net.cpp:367] bn3 -> conv3 (in-place)
I0111 23:17:16.683041 48059 net.cpp:122] Setting up bn3
I0111 23:17:16.683055 48059 net.cpp:129] Top shape: 50 384 13 13 (3244800)
I0111 23:17:16.683061 48059 net.cpp:137] Memory required for data: 460333600
I0111 23:17:16.683091 48059 layer_factory.hpp:78] Creating layer scale3
I0111 23:17:16.683120 48059 net.cpp:84] Creating Layer scale3
I0111 23:17:16.683130 48059 net.cpp:406] scale3 <- conv3
I0111 23:17:16.683154 48059 net.cpp:367] scale3 -> conv3 (in-place)
I0111 23:17:16.683235 48059 layer_factory.hpp:78] Creating layer scale3
I0111 23:17:16.683434 48059 net.cpp:122] Setting up scale3
I0111 23:17:16.683446 48059 net.cpp:129] Top shape: 50 384 13 13 (3244800)
I0111 23:17:16.683450 48059 net.cpp:137] Memory required for data: 473312800
I0111 23:17:16.683477 48059 layer_factory.hpp:78] Creating layer relu3
I0111 23:17:16.683495 48059 net.cpp:84] Creating Layer relu3
I0111 23:17:16.683502 48059 net.cpp:406] relu3 <- conv3
I0111 23:17:16.683516 48059 net.cpp:367] relu3 -> conv3 (in-place)
I0111 23:17:16.684461 48059 net.cpp:122] Setting up relu3
I0111 23:17:16.684478 48059 net.cpp:129] Top shape: 50 384 13 13 (3244800)
I0111 23:17:16.684482 48059 net.cpp:137] Memory required for data: 486292000
I0111 23:17:16.684489 48059 layer_factory.hpp:78] Creating layer conv4
I0111 23:17:16.684528 48059 net.cpp:84] Creating Layer conv4
I0111 23:17:16.684538 48059 net.cpp:406] conv4 <- conv3
I0111 23:17:16.684559 48059 net.cpp:380] conv4 -> conv4
I0111 23:17:16.807129 48059 cudnn_binary_conv_layer.cpp:194] Reallocating workspace storage: 9840
I0111 23:17:16.807238 48059 net.cpp:122] Setting up conv4
I0111 23:17:16.807293 48059 net.cpp:129] Top shape: 50 384 13 13 (3244800)
I0111 23:17:16.807319 48059 net.cpp:137] Memory required for data: 499271200
I0111 23:17:16.807379 48059 layer_factory.hpp:78] Creating layer bn4
I0111 23:17:16.807430 48059 net.cpp:84] Creating Layer bn4
I0111 23:17:16.807449 48059 net.cpp:406] bn4 <- conv4
I0111 23:17:16.807523 48059 net.cpp:367] bn4 -> conv4 (in-place)
I0111 23:17:16.807859 48059 net.cpp:122] Setting up bn4
I0111 23:17:16.807873 48059 net.cpp:129] Top shape: 50 384 13 13 (3244800)
I0111 23:17:16.807879 48059 net.cpp:137] Memory required for data: 512250400
I0111 23:17:16.807915 48059 layer_factory.hpp:78] Creating layer scale4
I0111 23:17:16.807946 48059 net.cpp:84] Creating Layer scale4
I0111 23:17:16.807958 48059 net.cpp:406] scale4 <- conv4
I0111 23:17:16.808007 48059 net.cpp:367] scale4 -> conv4 (in-place)
I0111 23:17:16.808106 48059 layer_factory.hpp:78] Creating layer scale4
I0111 23:17:16.808344 48059 net.cpp:122] Setting up scale4
I0111 23:17:16.808368 48059 net.cpp:129] Top shape: 50 384 13 13 (3244800)
I0111 23:17:16.808378 48059 net.cpp:137] Memory required for data: 525229600
I0111 23:17:16.808401 48059 layer_factory.hpp:78] Creating layer relu4
I0111 23:17:16.808424 48059 net.cpp:84] Creating Layer relu4
I0111 23:17:16.808434 48059 net.cpp:406] relu4 <- conv4
I0111 23:17:16.808471 48059 net.cpp:367] relu4 -> conv4 (in-place)
I0111 23:17:16.809193 48059 net.cpp:122] Setting up relu4
I0111 23:17:16.809209 48059 net.cpp:129] Top shape: 50 384 13 13 (3244800)
I0111 23:17:16.809214 48059 net.cpp:137] Memory required for data: 538208800
I0111 23:17:16.809223 48059 layer_factory.hpp:78] Creating layer conv5
I0111 23:17:16.809264 48059 net.cpp:84] Creating Layer conv5
I0111 23:17:16.809273 48059 net.cpp:406] conv5 <- conv4
I0111 23:17:16.809303 48059 net.cpp:380] conv5 -> conv5
I0111 23:17:16.893378 48059 cudnn_binary_conv_layer.cpp:194] Reallocating workspace storage: 18874368
I0111 23:17:16.893743 48059 net.cpp:122] Setting up conv5
I0111 23:17:16.893771 48059 net.cpp:129] Top shape: 50 256 13 13 (2163200)
I0111 23:17:16.893781 48059 net.cpp:137] Memory required for data: 546861600
I0111 23:17:16.893815 48059 layer_factory.hpp:78] Creating layer bn5
I0111 23:17:16.893851 48059 net.cpp:84] Creating Layer bn5
I0111 23:17:16.893868 48059 net.cpp:406] bn5 <- conv5
I0111 23:17:16.893908 48059 net.cpp:367] bn5 -> conv5 (in-place)
I0111 23:17:16.894243 48059 net.cpp:122] Setting up bn5
I0111 23:17:16.894258 48059 net.cpp:129] Top shape: 50 256 13 13 (2163200)
I0111 23:17:16.894263 48059 net.cpp:137] Memory required for data: 555514400
I0111 23:17:16.894295 48059 layer_factory.hpp:78] Creating layer scale5
I0111 23:17:16.894327 48059 net.cpp:84] Creating Layer scale5
I0111 23:17:16.894343 48059 net.cpp:406] scale5 <- conv5
I0111 23:17:16.894368 48059 net.cpp:367] scale5 -> conv5 (in-place)
I0111 23:17:16.894466 48059 layer_factory.hpp:78] Creating layer scale5
I0111 23:17:16.894698 48059 net.cpp:122] Setting up scale5
I0111 23:17:16.894714 48059 net.cpp:129] Top shape: 50 256 13 13 (2163200)
I0111 23:17:16.894719 48059 net.cpp:137] Memory required for data: 564167200
I0111 23:17:16.894742 48059 layer_factory.hpp:78] Creating layer relu5
I0111 23:17:16.894762 48059 net.cpp:84] Creating Layer relu5
I0111 23:17:16.894771 48059 net.cpp:406] relu5 <- conv5
I0111 23:17:16.894798 48059 net.cpp:367] relu5 -> conv5 (in-place)
I0111 23:17:16.895479 48059 net.cpp:122] Setting up relu5
I0111 23:17:16.895493 48059 net.cpp:129] Top shape: 50 256 13 13 (2163200)
I0111 23:17:16.895498 48059 net.cpp:137] Memory required for data: 572820000
I0111 23:17:16.895509 48059 layer_factory.hpp:78] Creating layer pool5
I0111 23:17:16.895536 48059 net.cpp:84] Creating Layer pool5
I0111 23:17:16.895546 48059 net.cpp:406] pool5 <- conv5
I0111 23:17:16.895567 48059 net.cpp:380] pool5 -> pool5
I0111 23:17:16.895650 48059 net.cpp:122] Setting up pool5
I0111 23:17:16.895663 48059 net.cpp:129] Top shape: 50 256 6 6 (460800)
I0111 23:17:16.895689 48059 net.cpp:137] Memory required for data: 574663200
I0111 23:17:16.895695 48059 layer_factory.hpp:78] Creating layer fc6
I0111 23:17:16.895720 48059 net.cpp:84] Creating Layer fc6
I0111 23:17:16.895728 48059 net.cpp:406] fc6 <- pool5
I0111 23:17:16.895746 48059 net.cpp:380] fc6 -> fc6
I0111 23:17:20.562785 48059 net.cpp:122] Setting up fc6
I0111 23:17:20.562849 48059 net.cpp:129] Top shape: 50 4096 (204800)
I0111 23:17:20.562855 48059 net.cpp:137] Memory required for data: 575482400
I0111 23:17:20.562888 48059 layer_factory.hpp:78] Creating layer bn6
I0111 23:17:20.562927 48059 net.cpp:84] Creating Layer bn6
I0111 23:17:20.562943 48059 net.cpp:406] bn6 <- fc6
I0111 23:17:20.562968 48059 net.cpp:367] bn6 -> fc6 (in-place)
I0111 23:17:20.563271 48059 net.cpp:122] Setting up bn6
I0111 23:17:20.563282 48059 net.cpp:129] Top shape: 50 4096 (204800)
I0111 23:17:20.563284 48059 net.cpp:137] Memory required for data: 576301600
I0111 23:17:20.563325 48059 layer_factory.hpp:78] Creating layer scale6
I0111 23:17:20.563360 48059 net.cpp:84] Creating Layer scale6
I0111 23:17:20.563369 48059 net.cpp:406] scale6 <- fc6
I0111 23:17:20.563385 48059 net.cpp:367] scale6 -> fc6 (in-place)
I0111 23:17:20.563486 48059 layer_factory.hpp:78] Creating layer scale6
I0111 23:17:20.563688 48059 net.cpp:122] Setting up scale6
I0111 23:17:20.563701 48059 net.cpp:129] Top shape: 50 4096 (204800)
I0111 23:17:20.563706 48059 net.cpp:137] Memory required for data: 577120800
I0111 23:17:20.563721 48059 layer_factory.hpp:78] Creating layer relu6
I0111 23:17:20.563738 48059 net.cpp:84] Creating Layer relu6
I0111 23:17:20.563745 48059 net.cpp:406] relu6 <- fc6
I0111 23:17:20.563758 48059 net.cpp:367] relu6 -> fc6 (in-place)
I0111 23:17:20.565101 48059 net.cpp:122] Setting up relu6
I0111 23:17:20.565116 48059 net.cpp:129] Top shape: 50 4096 (204800)
I0111 23:17:20.565119 48059 net.cpp:137] Memory required for data: 577940000
I0111 23:17:20.565126 48059 layer_factory.hpp:78] Creating layer drop6
I0111 23:17:20.565145 48059 net.cpp:84] Creating Layer drop6
I0111 23:17:20.565152 48059 net.cpp:406] drop6 <- fc6
I0111 23:17:20.565168 48059 net.cpp:367] drop6 -> fc6 (in-place)
I0111 23:17:20.565217 48059 net.cpp:122] Setting up drop6
I0111 23:17:20.565227 48059 net.cpp:129] Top shape: 50 4096 (204800)
I0111 23:17:20.565230 48059 net.cpp:137] Memory required for data: 578759200
I0111 23:17:20.565237 48059 layer_factory.hpp:78] Creating layer fc7
I0111 23:17:20.565259 48059 net.cpp:84] Creating Layer fc7
I0111 23:17:20.565266 48059 net.cpp:406] fc7 <- fc6
I0111 23:17:20.565285 48059 net.cpp:380] fc7 -> fc7
I0111 23:17:22.163189 48059 net.cpp:122] Setting up fc7
I0111 23:17:22.163234 48059 net.cpp:129] Top shape: 50 4096 (204800)
I0111 23:17:22.163239 48059 net.cpp:137] Memory required for data: 579578400
I0111 23:17:22.163269 48059 layer_factory.hpp:78] Creating layer bn7
I0111 23:17:22.163316 48059 net.cpp:84] Creating Layer bn7
I0111 23:17:22.163331 48059 net.cpp:406] bn7 <- fc7
I0111 23:17:22.163365 48059 net.cpp:367] bn7 -> fc7 (in-place)
I0111 23:17:22.163671 48059 net.cpp:122] Setting up bn7
I0111 23:17:22.163683 48059 net.cpp:129] Top shape: 50 4096 (204800)
I0111 23:17:22.163689 48059 net.cpp:137] Memory required for data: 580397600
I0111 23:17:22.163718 48059 layer_factory.hpp:78] Creating layer scale7
I0111 23:17:22.163777 48059 net.cpp:84] Creating Layer scale7
I0111 23:17:22.163787 48059 net.cpp:406] scale7 <- fc7
I0111 23:17:22.163805 48059 net.cpp:367] scale7 -> fc7 (in-place)
I0111 23:17:22.163904 48059 layer_factory.hpp:78] Creating layer scale7
I0111 23:17:22.164104 48059 net.cpp:122] Setting up scale7
I0111 23:17:22.164116 48059 net.cpp:129] Top shape: 50 4096 (204800)
I0111 23:17:22.164121 48059 net.cpp:137] Memory required for data: 581216800
I0111 23:17:22.164136 48059 layer_factory.hpp:78] Creating layer relu7
I0111 23:17:22.164155 48059 net.cpp:84] Creating Layer relu7
I0111 23:17:22.164162 48059 net.cpp:406] relu7 <- fc7
I0111 23:17:22.164177 48059 net.cpp:367] relu7 -> fc7 (in-place)
I0111 23:17:22.165374 48059 net.cpp:122] Setting up relu7
I0111 23:17:22.165410 48059 net.cpp:129] Top shape: 50 4096 (204800)
I0111 23:17:22.165415 48059 net.cpp:137] Memory required for data: 582036000
I0111 23:17:22.165422 48059 layer_factory.hpp:78] Creating layer drop7
I0111 23:17:22.165441 48059 net.cpp:84] Creating Layer drop7
I0111 23:17:22.165449 48059 net.cpp:406] drop7 <- fc7
I0111 23:17:22.165467 48059 net.cpp:367] drop7 -> fc7 (in-place)
I0111 23:17:22.165518 48059 net.cpp:122] Setting up drop7
I0111 23:17:22.165529 48059 net.cpp:129] Top shape: 50 4096 (204800)
I0111 23:17:22.165531 48059 net.cpp:137] Memory required for data: 582855200
I0111 23:17:22.165537 48059 layer_factory.hpp:78] Creating layer fc8
I0111 23:17:22.165557 48059 net.cpp:84] Creating Layer fc8
I0111 23:17:22.165565 48059 net.cpp:406] fc8 <- fc7
I0111 23:17:22.165580 48059 net.cpp:380] fc8 -> fc8
I0111 23:17:22.543117 48059 net.cpp:122] Setting up fc8
I0111 23:17:22.543157 48059 net.cpp:129] Top shape: 50 1000 (50000)
I0111 23:17:22.543162 48059 net.cpp:137] Memory required for data: 583055200
I0111 23:17:22.543193 48059 layer_factory.hpp:78] Creating layer fc8_fc8_0_split
I0111 23:17:22.543227 48059 net.cpp:84] Creating Layer fc8_fc8_0_split
I0111 23:17:22.543241 48059 net.cpp:406] fc8_fc8_0_split <- fc8
I0111 23:17:22.543265 48059 net.cpp:380] fc8_fc8_0_split -> fc8_fc8_0_split_0
I0111 23:17:22.543298 48059 net.cpp:380] fc8_fc8_0_split -> fc8_fc8_0_split_1
I0111 23:17:22.543313 48059 net.cpp:380] fc8_fc8_0_split -> fc8_fc8_0_split_2
I0111 23:17:22.543409 48059 net.cpp:122] Setting up fc8_fc8_0_split
I0111 23:17:22.543423 48059 net.cpp:129] Top shape: 50 1000 (50000)
I0111 23:17:22.543431 48059 net.cpp:129] Top shape: 50 1000 (50000)
I0111 23:17:22.543434 48059 net.cpp:129] Top shape: 50 1000 (50000)
I0111 23:17:22.543437 48059 net.cpp:137] Memory required for data: 583655200
I0111 23:17:22.543443 48059 layer_factory.hpp:78] Creating layer loss
I0111 23:17:22.543462 48059 net.cpp:84] Creating Layer loss
I0111 23:17:22.543467 48059 net.cpp:406] loss <- fc8_fc8_0_split_0
I0111 23:17:22.543480 48059 net.cpp:406] loss <- label_data_1_split_0
I0111 23:17:22.543491 48059 net.cpp:380] loss -> loss
…
