…
I0114 16:10:55.945605 24705 net.cpp:294] The NetState phase (0) differed from the phase (1) specified by a rule in layer data
I0114 16:10:55.945946 24705 net.cpp:51] Initializing net from parameters: 
name: "AlexNet-BN"
state {
  phase: TRAIN
  level: 0
  stage: ""
}
layer {
  name: "data"
  type: "Data"
  top: "data"
  top: "label"
  include {
    phase: TRAIN
  }
  transform_param {
    mirror: true
    crop_size: 224
    mean_value: 104
    mean_value: 117
    mean_value: 123
  }
  data_param {
    source: "/home/zhengzhe/Data/imagenet_shrt256/ilsvrc12_train_lmdb"
    batch_size: 256
    backend: LMDB
  }
}
layer {
  name: "conv1"
  type: "Convolution"
  bottom: "data"
  top: "conv1"
  param {
    lr_mult: 1
    decay_mult: 1
  }
  convolution_param {
    num_output: 96
    bias_term: false
    pad: 2
    kernel_size: 11
    stride: 4
    weight_filler {
      type: "msra"
    }
  }
}
layer {
  name: "bn1"
  type: "BatchNorm"
  bottom: "conv1"
  top: "conv1"
}
layer {
  name: "scale1"
  type: "Scale"
  bottom: "conv1"
  top: "conv1"
  scale_param {
    bias_term: true
  }
}
layer {
  name: "relu1"
  type: "ReLU"
  bottom: "conv1"
  top: "conv1"
}
layer {
  name: "pool1"
  type: "Pooling"
  bottom: "conv1"
  top: "pool1"
  pooling_param {
    pool: MAX
    kernel_size: 3
    stride: 2
  }
}
layer {
  name: "conv2"
  type: "BinaryConvolution"
  bottom: "pool1"
  top: "conv2"
  param {
    lr_mult: 1
    decay_mult: 1
  }
  convolution_param {
    num_output: 256
    bias_term: false
    pad: 2
    kernel_size: 5
    weight_filler {
      type: "msra"
    }
  }
  debug_param {
    xnorno_grad: false
  }
}
layer {
  name: "bn2"
  type: "BatchNorm"
  bottom: "conv2"
  top: "conv2"
}
layer {
  name: "scale2"
  type: "Scale"
  bottom: "conv2"
  top: "conv2"
  scale_param {
    bias_term: true
  }
}
layer {
  name: "relu2"
  type: "ReLU"
  bottom: "conv2"
  top: "conv2"
}
layer {
  name: "pool2"
  type: "Pooling"
  bottom: "conv2"
  top: "pool2"
  pooling_param {
    pool: MAX
    kernel_size: 3
    stride: 2
  }
}
layer {
  name: "conv3"
  type: "BinaryConvolution"
  bottom: "pool2"
  top: "conv3"
  param {
    lr_mult: 1
    decay_mult: 1
  }
  convolution_param {
    num_output: 384
    bias_term: false
    pad: 1
    kernel_size: 3
    weight_filler {
      type: "msra"
    }
  }
  debug_param {
    xnorno_grad: false
  }
}
layer {
  name: "bn3"
  type: "BatchNorm"
  bottom: "conv3"
  top: "conv3"
}
layer {
  name: "scale3"
  type: "Scale"
  bottom: "conv3"
  top: "conv3"
  scale_param {
    bias_term: true
  }
}
layer {
  name: "relu3"
  type: "ReLU"
  bottom: "conv3"
  top: "conv3"
}
layer {
  name: "conv4"
  type: "BinaryConvolution"
  bottom: "conv3"
  top: "conv4"
  param {
    lr_mult: 1
    decay_mult: 1
  }
  convolution_param {
    num_output: 384
    bias_term: false
    pad: 1
    kernel_size: 3
    weight_filler {
      type: "msra"
    }
  }
  debug_param {
    xnorno_grad: false
  }
}
layer {
  name: "bn4"
  type: "BatchNorm"
  bottom: "conv4"
  top: "conv4"
}
layer {
  name: "scale4"
  type: "Scale"
  bottom: "conv4"
  top: "conv4"
  scale_param {
    bias_term: true
  }
}
layer {
  name: "relu4"
  type: "ReLU"
  bottom: "conv4"
  top: "conv4"
}
layer {
  name: "conv5"
  type: "BinaryConvolution"
  bottom: "conv4"
  top: "conv5"
  param {
    lr_mult: 1
    decay_mult: 1
  }
  convolution_param {
    num_output: 256
    bias_term: false
    pad: 1
    kernel_size: 3
    weight_filler {
      type: "msra"
    }
  }
  debug_param {
    xnorno_grad: false
  }
}
layer {
  name: "bn5"
  type: "BatchNorm"
  bottom: "conv5"
  top: "conv5"
}
layer {
  name: "scale5"
  type: "Scale"
  bottom: "conv5"
  top: "conv5"
  scale_param {
    bias_term: true
  }
}
layer {
  name: "relu5"
  type: "ReLU"
  bottom: "conv5"
  top: "conv5"
}
layer {
  name: "pool5"
  type: "Pooling"
  bottom: "conv5"
  top: "pool5"
  pooling_param {
    pool: MAX
    kernel_size: 3
    stride: 2
  }
}
layer {
  name: "fc6"
  type: "BinaryInnerProduct"
  bottom: "pool5"
  top: "fc6"
  param {
    lr_mult: 1
    decay_mult: 1
  }
  inner_product_param {
    num_output: 4096
    bias_term: false
    weight_filler {
      type: "msra"
    }
  }
  debug_param {
    xnorno_grad: false
  }
}
layer {
  name: "bn6"
  type: "BatchNorm"
  bottom: "fc6"
  top: "fc6"
}
layer {
  name: "scale6"
  type: "Scale"
  bottom: "fc6"
  top: "fc6"
  scale_param {
    bias_term: true
  }
}
layer {
  name: "relu6"
  type: "ReLU"
  bottom: "fc6"
  top: "fc6"
}
layer {
  name: "drop6"
  type: "Dropout"
  bottom: "fc6"
  top: "fc6"
  dropout_param {
    dropout_ratio: 0.1
  }
}
layer {
  name: "fc7"
  type: "BinaryInnerProduct"
  bottom: "fc6"
  top: "fc7"
  param {
    lr_mult: 1
    decay_mult: 1
  }
  inner_product_param {
    num_output: 4096
    bias_term: false
    weight_filler {
      type: "msra"
    }
  }
  debug_param {
    xnorno_grad: false
  }
}
layer {
  name: "bn7"
  type: "BatchNorm"
  bottom: "fc7"
  top: "fc7"
}
layer {
  name: "scale7"
  type: "Scale"
  bottom: "fc7"
  top: "fc7"
  scale_param {
    bias_term: true
  }
}
layer {
  name: "relu7"
  type: "ReLU"
  bottom: "fc7"
  top: "fc7"
}
layer {
  name: "drop7"
  type: "Dropout"
  bottom: "fc7"
  top: "fc7"
  dropout_param {
    dropout_ratio: 0.1
  }
}
layer {
  name: "fc8"
  type: "InnerProduct"
  bottom: "fc7"
  top: "fc8"
  param {
    lr_mult: 1
    decay_mult: 1
  }
  param {
    lr_mult: 2
    decay_mult: 0
  }
  inner_product_param {
    num_output: 1000
    weight_filler {
      type: "msra"
    }
    bias_filler {
      type: "constant"
      value: 0
    }
  }
}
layer {
  name: "loss"
  type: "SoftmaxWithLoss"
  bottom: "fc8"
  bottom: "label"
  top: "loss"
}
layer {
  name: "accuracy"
  type: "Accuracy"
  bottom: "fc8"
  bottom: "label"
  top: "accuracy"
}
layer {
  name: "accuracy_5"
  type: "Accuracy"
  bottom: "fc8"
  bottom: "label"
  top: "accuracy_5"
  accuracy_param {
    top_k: 5
  }
}
I0114 16:10:55.946926 24705 layer_factory.hpp:78] Creating layer data
I0114 16:10:55.947226 24705 db_lmdb.cpp:35] Opened lmdb /home/zhengzhe/Data/imagenet_shrt256/ilsvrc12_train_lmdb
I0114 16:10:55.947321 24705 net.cpp:84] Creating Layer data
I0114 16:10:55.947371 24705 net.cpp:380] data -> data
I0114 16:10:55.947582 24705 net.cpp:380] data -> label
I0114 16:10:56.001322 24705 data_layer.cpp:45] output data size: 256,3,224,224
I0114 16:10:56.997768 24705 base_data_layer.cpp:72] Initializing prefetch
I0114 16:10:56.998437 24705 base_data_layer.cpp:75] Prefetch initialized.
I0114 16:10:56.998456 24705 net.cpp:122] Setting up data
I0114 16:10:56.999285 24705 net.cpp:129] Top shape: 256 3 224 224 (38535168)
I0114 16:10:56.999369 24705 net.cpp:129] Top shape: 256 (256)
I0114 16:10:56.999410 24705 net.cpp:137] Memory required for data: 154141696
I0114 16:10:56.999480 24705 layer_factory.hpp:78] Creating layer label_data_1_split
I0114 16:10:56.999608 24705 net.cpp:84] Creating Layer label_data_1_split
I0114 16:10:56.999732 24705 net.cpp:406] label_data_1_split <- label
I0114 16:10:56.999853 24705 net.cpp:380] label_data_1_split -> label_data_1_split_0
I0114 16:10:57.000017 24705 net.cpp:380] label_data_1_split -> label_data_1_split_1
I0114 16:10:57.000155 24705 net.cpp:380] label_data_1_split -> label_data_1_split_2
I0114 16:10:57.000310 24705 net.cpp:122] Setting up label_data_1_split
I0114 16:10:57.000458 24705 net.cpp:129] Top shape: 256 (256)
I0114 16:10:57.000509 24705 net.cpp:129] Top shape: 256 (256)
I0114 16:10:57.000553 24705 net.cpp:129] Top shape: 256 (256)
I0114 16:10:57.000586 24705 net.cpp:137] Memory required for data: 154144768
I0114 16:10:57.000617 24705 layer_factory.hpp:78] Creating layer conv1
I0114 16:10:57.000730 24705 net.cpp:84] Creating Layer conv1
I0114 16:10:57.000852 24705 net.cpp:406] conv1 <- data
I0114 16:10:57.000910 24705 net.cpp:380] conv1 -> conv1
I0114 16:10:58.956348 24705 cudnn_conv_layer.cpp:194] Reallocating workspace storage: 127416
I0114 16:10:58.957031 24705 net.cpp:122] Setting up conv1
I0114 16:10:58.957064 24705 net.cpp:129] Top shape: 256 96 55 55 (74342400)
I0114 16:10:58.957072 24705 net.cpp:137] Memory required for data: 451514368
I0114 16:10:58.957190 24705 layer_factory.hpp:78] Creating layer bn1
I0114 16:10:58.957245 24705 net.cpp:84] Creating Layer bn1
I0114 16:10:58.957263 24705 net.cpp:406] bn1 <- conv1
I0114 16:10:58.957303 24705 net.cpp:367] bn1 -> conv1 (in-place)
I0114 16:10:58.959336 24705 net.cpp:122] Setting up bn1
I0114 16:10:58.959359 24705 net.cpp:129] Top shape: 256 96 55 55 (74342400)
I0114 16:10:58.959365 24705 net.cpp:137] Memory required for data: 748883968
I0114 16:10:58.959426 24705 layer_factory.hpp:78] Creating layer scale1
I0114 16:10:58.959473 24705 net.cpp:84] Creating Layer scale1
I0114 16:10:58.959484 24705 net.cpp:406] scale1 <- conv1
I0114 16:10:58.959504 24705 net.cpp:367] scale1 -> conv1 (in-place)
I0114 16:10:58.959616 24705 layer_factory.hpp:78] Creating layer scale1
I0114 16:10:58.959898 24705 net.cpp:122] Setting up scale1
I0114 16:10:58.959913 24705 net.cpp:129] Top shape: 256 96 55 55 (74342400)
I0114 16:10:58.959918 24705 net.cpp:137] Memory required for data: 1046253568
I0114 16:10:58.959950 24705 layer_factory.hpp:78] Creating layer relu1
I0114 16:10:58.959987 24705 net.cpp:84] Creating Layer relu1
I0114 16:10:58.959997 24705 net.cpp:406] relu1 <- conv1
I0114 16:10:58.960016 24705 net.cpp:367] relu1 -> conv1 (in-place)
I0114 16:10:58.960736 24705 net.cpp:122] Setting up relu1
I0114 16:10:58.960775 24705 net.cpp:129] Top shape: 256 96 55 55 (74342400)
I0114 16:10:58.960793 24705 net.cpp:137] Memory required for data: 1343623168
I0114 16:10:58.960824 24705 layer_factory.hpp:78] Creating layer pool1
I0114 16:10:58.960883 24705 net.cpp:84] Creating Layer pool1
I0114 16:10:58.960902 24705 net.cpp:406] pool1 <- conv1
I0114 16:10:58.960949 24705 net.cpp:380] pool1 -> pool1
I0114 16:10:58.961079 24705 net.cpp:122] Setting up pool1
I0114 16:10:58.961118 24705 net.cpp:129] Top shape: 256 96 27 27 (17915904)
I0114 16:10:58.961146 24705 net.cpp:137] Memory required for data: 1415286784
I0114 16:10:58.961158 24705 layer_factory.hpp:78] Creating layer conv2
I0114 16:10:58.961230 24705 net.cpp:84] Creating Layer conv2
I0114 16:10:58.961266 24705 net.cpp:406] conv2 <- pool1
I0114 16:10:58.961313 24705 net.cpp:380] conv2 -> conv2
I0114 16:10:59.109416 24705 cudnn_binary_conv_layer.cpp:194] Reallocating workspace storage: 19668
I0114 16:10:59.109473 24705 net.cpp:122] Setting up conv2
I0114 16:10:59.109498 24705 net.cpp:129] Top shape: 256 256 27 27 (47775744)
I0114 16:10:59.109503 24705 net.cpp:137] Memory required for data: 1606389760
I0114 16:10:59.109560 24705 layer_factory.hpp:78] Creating layer bn2
I0114 16:10:59.109609 24705 net.cpp:84] Creating Layer bn2
I0114 16:10:59.109627 24705 net.cpp:406] bn2 <- conv2
I0114 16:10:59.109658 24705 net.cpp:367] bn2 -> conv2 (in-place)
I0114 16:10:59.111694 24705 net.cpp:122] Setting up bn2
I0114 16:10:59.111717 24705 net.cpp:129] Top shape: 256 256 27 27 (47775744)
I0114 16:10:59.111726 24705 net.cpp:137] Memory required for data: 1797492736
I0114 16:10:59.111778 24705 layer_factory.hpp:78] Creating layer scale2
I0114 16:10:59.111812 24705 net.cpp:84] Creating Layer scale2
I0114 16:10:59.111824 24705 net.cpp:406] scale2 <- conv2
I0114 16:10:59.111874 24705 net.cpp:367] scale2 -> conv2 (in-place)
I0114 16:10:59.111971 24705 layer_factory.hpp:78] Creating layer scale2
I0114 16:10:59.112367 24705 net.cpp:122] Setting up scale2
I0114 16:10:59.112386 24705 net.cpp:129] Top shape: 256 256 27 27 (47775744)
I0114 16:10:59.112391 24705 net.cpp:137] Memory required for data: 1988595712
I0114 16:10:59.112413 24705 layer_factory.hpp:78] Creating layer relu2
I0114 16:10:59.112434 24705 net.cpp:84] Creating Layer relu2
I0114 16:10:59.112444 24705 net.cpp:406] relu2 <- conv2
I0114 16:10:59.112466 24705 net.cpp:367] relu2 -> conv2 (in-place)
I0114 16:10:59.113158 24705 net.cpp:122] Setting up relu2
I0114 16:10:59.113175 24705 net.cpp:129] Top shape: 256 256 27 27 (47775744)
I0114 16:10:59.113183 24705 net.cpp:137] Memory required for data: 2179698688
I0114 16:10:59.113190 24705 layer_factory.hpp:78] Creating layer pool2
I0114 16:10:59.113234 24705 net.cpp:84] Creating Layer pool2
I0114 16:10:59.113246 24705 net.cpp:406] pool2 <- conv2
I0114 16:10:59.113270 24705 net.cpp:380] pool2 -> pool2
I0114 16:10:59.113376 24705 net.cpp:122] Setting up pool2
I0114 16:10:59.113396 24705 net.cpp:129] Top shape: 256 256 13 13 (11075584)
I0114 16:10:59.113404 24705 net.cpp:137] Memory required for data: 2224001024
I0114 16:10:59.113422 24705 layer_factory.hpp:78] Creating layer conv3
I0114 16:10:59.113466 24705 net.cpp:84] Creating Layer conv3
I0114 16:10:59.113478 24705 net.cpp:406] conv3 <- pool2
I0114 16:10:59.113507 24705 net.cpp:380] conv3 -> conv3
I0114 16:10:59.336218 24705 cudnn_binary_conv_layer.cpp:194] Reallocating workspace storage: 18874368
I0114 16:10:59.336894 24705 net.cpp:122] Setting up conv3
I0114 16:10:59.336984 24705 net.cpp:129] Top shape: 256 384 13 13 (16613376)
I0114 16:10:59.337039 24705 net.cpp:137] Memory required for data: 2290454528
I0114 16:10:59.337133 24705 layer_factory.hpp:78] Creating layer bn3
I0114 16:10:59.337235 24705 net.cpp:84] Creating Layer bn3
I0114 16:10:59.337303 24705 net.cpp:406] bn3 <- conv3
I0114 16:10:59.337399 24705 net.cpp:367] bn3 -> conv3 (in-place)
I0114 16:10:59.337800 24705 net.cpp:122] Setting up bn3
I0114 16:10:59.337867 24705 net.cpp:129] Top shape: 256 384 13 13 (16613376)
I0114 16:10:59.337918 24705 net.cpp:137] Memory required for data: 2356908032
I0114 16:10:59.337997 24705 layer_factory.hpp:78] Creating layer scale3
I0114 16:10:59.338083 24705 net.cpp:84] Creating Layer scale3
I0114 16:10:59.338140 24705 net.cpp:406] scale3 <- conv3
I0114 16:10:59.338209 24705 net.cpp:367] scale3 -> conv3 (in-place)
I0114 16:10:59.338366 24705 layer_factory.hpp:78] Creating layer scale3
I0114 16:10:59.338665 24705 net.cpp:122] Setting up scale3
I0114 16:10:59.338733 24705 net.cpp:129] Top shape: 256 384 13 13 (16613376)
I0114 16:10:59.338784 24705 net.cpp:137] Memory required for data: 2423361536
I0114 16:10:59.338874 24705 layer_factory.hpp:78] Creating layer relu3
I0114 16:10:59.338949 24705 net.cpp:84] Creating Layer relu3
I0114 16:10:59.339005 24705 net.cpp:406] relu3 <- conv3
I0114 16:10:59.339071 24705 net.cpp:367] relu3 -> conv3 (in-place)
I0114 16:10:59.340199 24705 net.cpp:122] Setting up relu3
I0114 16:10:59.340276 24705 net.cpp:129] Top shape: 256 384 13 13 (16613376)
I0114 16:10:59.340332 24705 net.cpp:137] Memory required for data: 2489815040
I0114 16:10:59.340395 24705 layer_factory.hpp:78] Creating layer conv4
I0114 16:10:59.340499 24705 net.cpp:84] Creating Layer conv4
I0114 16:10:59.340562 24705 net.cpp:406] conv4 <- conv3
I0114 16:10:59.340639 24705 net.cpp:380] conv4 -> conv4
I0114 16:10:59.660972 24705 cudnn_binary_conv_layer.cpp:194] Reallocating workspace storage: 9840
I0114 16:10:59.661033 24705 net.cpp:122] Setting up conv4
I0114 16:10:59.661058 24705 net.cpp:129] Top shape: 256 384 13 13 (16613376)
I0114 16:10:59.661096 24705 net.cpp:137] Memory required for data: 2556268544
I0114 16:10:59.661150 24705 layer_factory.hpp:78] Creating layer bn4
I0114 16:10:59.661229 24705 net.cpp:84] Creating Layer bn4
I0114 16:10:59.661265 24705 net.cpp:406] bn4 <- conv4
I0114 16:10:59.661317 24705 net.cpp:367] bn4 -> conv4 (in-place)
I0114 16:10:59.661696 24705 net.cpp:122] Setting up bn4
I0114 16:10:59.661731 24705 net.cpp:129] Top shape: 256 384 13 13 (16613376)
I0114 16:10:59.661751 24705 net.cpp:137] Memory required for data: 2622722048
I0114 16:10:59.661794 24705 layer_factory.hpp:78] Creating layer scale4
I0114 16:10:59.661844 24705 net.cpp:84] Creating Layer scale4
I0114 16:10:59.661871 24705 net.cpp:406] scale4 <- conv4
I0114 16:10:59.661911 24705 net.cpp:367] scale4 -> conv4 (in-place)
I0114 16:10:59.662019 24705 layer_factory.hpp:78] Creating layer scale4
I0114 16:10:59.674587 24705 net.cpp:122] Setting up scale4
I0114 16:10:59.674628 24705 net.cpp:129] Top shape: 256 384 13 13 (16613376)
I0114 16:10:59.674650 24705 net.cpp:137] Memory required for data: 2689175552
I0114 16:10:59.674685 24705 layer_factory.hpp:78] Creating layer relu4
I0114 16:10:59.674723 24705 net.cpp:84] Creating Layer relu4
I0114 16:10:59.674749 24705 net.cpp:406] relu4 <- conv4
I0114 16:10:59.674787 24705 net.cpp:367] relu4 -> conv4 (in-place)
I0114 16:10:59.676002 24705 net.cpp:122] Setting up relu4
I0114 16:10:59.676048 24705 net.cpp:129] Top shape: 256 384 13 13 (16613376)
I0114 16:10:59.676069 24705 net.cpp:137] Memory required for data: 2755629056
I0114 16:10:59.676092 24705 layer_factory.hpp:78] Creating layer conv5
I0114 16:10:59.676151 24705 net.cpp:84] Creating Layer conv5
I0114 16:10:59.676180 24705 net.cpp:406] conv5 <- conv4
I0114 16:10:59.676226 24705 net.cpp:380] conv5 -> conv5
I0114 16:10:59.797044 24705 cudnn_binary_conv_layer.cpp:194] Reallocating workspace storage: 18874368
I0114 16:10:59.797595 24705 net.cpp:122] Setting up conv5
I0114 16:10:59.797677 24705 net.cpp:129] Top shape: 256 256 13 13 (11075584)
I0114 16:10:59.797726 24705 net.cpp:137] Memory required for data: 2799931392
I0114 16:10:59.797807 24705 layer_factory.hpp:78] Creating layer bn5
I0114 16:10:59.797900 24705 net.cpp:84] Creating Layer bn5
I0114 16:10:59.797960 24705 net.cpp:406] bn5 <- conv5
I0114 16:10:59.798038 24705 net.cpp:367] bn5 -> conv5 (in-place)
I0114 16:10:59.798420 24705 net.cpp:122] Setting up bn5
I0114 16:10:59.798486 24705 net.cpp:129] Top shape: 256 256 13 13 (11075584)
I0114 16:10:59.798537 24705 net.cpp:137] Memory required for data: 2844233728
I0114 16:10:59.798614 24705 layer_factory.hpp:78] Creating layer scale5
I0114 16:10:59.798693 24705 net.cpp:84] Creating Layer scale5
I0114 16:10:59.798750 24705 net.cpp:406] scale5 <- conv5
I0114 16:10:59.798817 24705 net.cpp:367] scale5 -> conv5 (in-place)
I0114 16:10:59.798972 24705 layer_factory.hpp:78] Creating layer scale5
I0114 16:10:59.799259 24705 net.cpp:122] Setting up scale5
I0114 16:10:59.799325 24705 net.cpp:129] Top shape: 256 256 13 13 (11075584)
I0114 16:10:59.799381 24705 net.cpp:137] Memory required for data: 2888536064
I0114 16:10:59.799449 24705 layer_factory.hpp:78] Creating layer relu5
I0114 16:10:59.799520 24705 net.cpp:84] Creating Layer relu5
I0114 16:10:59.799576 24705 net.cpp:406] relu5 <- conv5
I0114 16:10:59.799640 24705 net.cpp:367] relu5 -> conv5 (in-place)
I0114 16:10:59.800544 24705 net.cpp:122] Setting up relu5
I0114 16:10:59.800616 24705 net.cpp:129] Top shape: 256 256 13 13 (11075584)
I0114 16:10:59.800668 24705 net.cpp:137] Memory required for data: 2932838400
I0114 16:10:59.800720 24705 layer_factory.hpp:78] Creating layer pool5
I0114 16:10:59.800798 24705 net.cpp:84] Creating Layer pool5
I0114 16:10:59.800855 24705 net.cpp:406] pool5 <- conv5
I0114 16:10:59.800930 24705 net.cpp:380] pool5 -> pool5
I0114 16:10:59.801077 24705 net.cpp:122] Setting up pool5
I0114 16:10:59.801153 24705 net.cpp:129] Top shape: 256 256 6 6 (2359296)
I0114 16:10:59.801204 24705 net.cpp:137] Memory required for data: 2942275584
I0114 16:10:59.801257 24705 layer_factory.hpp:78] Creating layer fc6
I0114 16:10:59.801350 24705 net.cpp:84] Creating Layer fc6
I0114 16:10:59.801411 24705 net.cpp:406] fc6 <- pool5
I0114 16:10:59.801501 24705 net.cpp:380] fc6 -> fc6
I0114 16:11:04.577028 24705 net.cpp:122] Setting up fc6
I0114 16:11:04.579705 24705 net.cpp:129] Top shape: 256 4096 (1048576)
I0114 16:11:04.579818 24705 net.cpp:137] Memory required for data: 2946469888
I0114 16:11:04.579896 24705 layer_factory.hpp:78] Creating layer bn6
I0114 16:11:04.580020 24705 net.cpp:84] Creating Layer bn6
I0114 16:11:04.580113 24705 net.cpp:406] bn6 <- fc6
I0114 16:11:04.580199 24705 net.cpp:367] bn6 -> fc6 (in-place)
I0114 16:11:04.580622 24705 net.cpp:122] Setting up bn6
I0114 16:11:04.581017 24705 net.cpp:129] Top shape: 256 4096 (1048576)
I0114 16:11:04.581051 24705 net.cpp:137] Memory required for data: 2950664192
I0114 16:11:04.581132 24705 layer_factory.hpp:78] Creating layer scale6
I0114 16:11:04.581248 24705 net.cpp:84] Creating Layer scale6
I0114 16:11:04.581308 24705 net.cpp:406] scale6 <- fc6
I0114 16:11:04.581364 24705 net.cpp:367] scale6 -> fc6 (in-place)
I0114 16:11:04.581528 24705 layer_factory.hpp:78] Creating layer scale6
I0114 16:11:04.581913 24705 net.cpp:122] Setting up scale6
I0114 16:11:04.582201 24705 net.cpp:129] Top shape: 256 4096 (1048576)
I0114 16:11:04.582239 24705 net.cpp:137] Memory required for data: 2954858496
I0114 16:11:04.582283 24705 layer_factory.hpp:78] Creating layer relu6
I0114 16:11:04.582353 24705 net.cpp:84] Creating Layer relu6
I0114 16:11:04.582412 24705 net.cpp:406] relu6 <- fc6
I0114 16:11:04.582463 24705 net.cpp:367] relu6 -> fc6 (in-place)
I0114 16:11:04.583923 24705 net.cpp:122] Setting up relu6
I0114 16:11:04.585392 24705 net.cpp:129] Top shape: 256 4096 (1048576)
I0114 16:11:04.585433 24705 net.cpp:137] Memory required for data: 2959052800
I0114 16:11:04.585467 24705 layer_factory.hpp:78] Creating layer drop6
I0114 16:11:04.585530 24705 net.cpp:84] Creating Layer drop6
I0114 16:11:04.585594 24705 net.cpp:406] drop6 <- fc6
I0114 16:11:04.585647 24705 net.cpp:367] drop6 -> fc6 (in-place)
I0114 16:11:04.585763 24705 net.cpp:122] Setting up drop6
I0114 16:11:04.585871 24705 net.cpp:129] Top shape: 256 4096 (1048576)
I0114 16:11:04.585907 24705 net.cpp:137] Memory required for data: 2963247104
I0114 16:11:04.585937 24705 layer_factory.hpp:78] Creating layer fc7
I0114 16:11:04.585997 24705 net.cpp:84] Creating Layer fc7
I0114 16:11:04.586061 24705 net.cpp:406] fc7 <- fc6
I0114 16:11:04.586118 24705 net.cpp:380] fc7 -> fc7
I0114 16:11:06.814972 24705 net.cpp:122] Setting up fc7
I0114 16:11:06.815130 24705 net.cpp:129] Top shape: 256 4096 (1048576)
I0114 16:11:06.815169 24705 net.cpp:137] Memory required for data: 2967441408
I0114 16:11:06.815244 24705 layer_factory.hpp:78] Creating layer bn7
I0114 16:11:06.815328 24705 net.cpp:84] Creating Layer bn7
I0114 16:11:06.815392 24705 net.cpp:406] bn7 <- fc7
I0114 16:11:06.815456 24705 net.cpp:367] bn7 -> fc7 (in-place)
I0114 16:11:06.815860 24705 net.cpp:122] Setting up bn7
I0114 16:11:06.815907 24705 net.cpp:129] Top shape: 256 4096 (1048576)
I0114 16:11:06.815942 24705 net.cpp:137] Memory required for data: 2971635712
I0114 16:11:06.816004 24705 layer_factory.hpp:78] Creating layer scale7
I0114 16:11:06.816083 24705 net.cpp:84] Creating Layer scale7
I0114 16:11:06.816126 24705 net.cpp:406] scale7 <- fc7
I0114 16:11:06.816179 24705 net.cpp:367] scale7 -> fc7 (in-place)
I0114 16:11:06.816328 24705 layer_factory.hpp:78] Creating layer scale7
I0114 16:11:06.816642 24705 net.cpp:122] Setting up scale7
I0114 16:11:06.816692 24705 net.cpp:129] Top shape: 256 4096 (1048576)
I0114 16:11:06.816727 24705 net.cpp:137] Memory required for data: 2975830016
I0114 16:11:06.816781 24705 layer_factory.hpp:78] Creating layer relu7
I0114 16:11:06.816833 24705 net.cpp:84] Creating Layer relu7
I0114 16:11:06.816871 24705 net.cpp:406] relu7 <- fc7
I0114 16:11:06.816922 24705 net.cpp:367] relu7 -> fc7 (in-place)
I0114 16:11:06.817965 24705 net.cpp:122] Setting up relu7
I0114 16:11:06.818022 24705 net.cpp:129] Top shape: 256 4096 (1048576)
I0114 16:11:06.818056 24705 net.cpp:137] Memory required for data: 2980024320
I0114 16:11:06.818096 24705 layer_factory.hpp:78] Creating layer drop7
I0114 16:11:06.818150 24705 net.cpp:84] Creating Layer drop7
I0114 16:11:06.818207 24705 net.cpp:406] drop7 <- fc7
I0114 16:11:06.818260 24705 net.cpp:367] drop7 -> fc7 (in-place)
I0114 16:11:06.818382 24705 net.cpp:122] Setting up drop7
I0114 16:11:06.818429 24705 net.cpp:129] Top shape: 256 4096 (1048576)
I0114 16:11:06.818461 24705 net.cpp:137] Memory required for data: 2984218624
I0114 16:11:06.818498 24705 layer_factory.hpp:78] Creating layer fc8
I0114 16:11:06.818574 24705 net.cpp:84] Creating Layer fc8
I0114 16:11:06.818615 24705 net.cpp:406] fc8 <- fc7
I0114 16:11:06.818673 24705 net.cpp:380] fc8 -> fc8
I0114 16:11:07.510556 24705 net.cpp:122] Setting up fc8
I0114 16:11:07.510671 24705 net.cpp:129] Top shape: 256 1000 (256000)
I0114 16:11:07.510697 24705 net.cpp:137] Memory required for data: 2985242624
I0114 16:11:07.510758 24705 layer_factory.hpp:78] Creating layer fc8_fc8_0_split
I0114 16:11:07.510825 24705 net.cpp:84] Creating Layer fc8_fc8_0_split
I0114 16:11:07.510864 24705 net.cpp:406] fc8_fc8_0_split <- fc8
I0114 16:11:07.510921 24705 net.cpp:380] fc8_fc8_0_split -> fc8_fc8_0_split_0
I0114 16:11:07.510993 24705 net.cpp:380] fc8_fc8_0_split -> fc8_fc8_0_split_1
I0114 16:11:07.511039 24705 net.cpp:380] fc8_fc8_0_split -> fc8_fc8_0_split_2
I0114 16:11:07.511164 24705 net.cpp:122] Setting up fc8_fc8_0_split
I0114 16:11:07.511202 24705 net.cpp:129] Top shape: 256 1000 (256000)
I0114 16:11:07.511229 24705 net.cpp:129] Top shape: 256 1000 (256000)
I0114 16:11:07.511252 24705 net.cpp:129] Top shape: 256 1000 (256000)
I0114 16:11:07.511273 24705 net.cpp:137] Memory required for data: 2988314624
I0114 16:11:07.511297 24705 layer_factory.hpp:78] Creating layer loss
I0114 16:11:07.511355 24705 net.cpp:84] Creating Layer loss
I0114 16:11:07.511385 24705 net.cpp:406] loss <- fc8_fc8_0_split_0
I0114 16:11:07.511422 24705 net.cpp:406] loss <- label_data_1_split_0
I0114 16:11:07.511462 24705 net.cpp:380] loss -> loss
…
I0114 16:11:07.518816 24705 net.cpp:294] The NetState phase (1) differed from the phase (0) specified by a rule in layer data
I0114 16:11:07.519181 24705 net.cpp:51] Initializing net from parameters: 
name: "AlexNet-BN"
state {
  phase: TEST
}
layer {
  name: "data"
  type: "Data"
  top: "data"
  top: "label"
  include {
    phase: TEST
  }
  transform_param {
    mirror: false
    crop_size: 224
    mean_value: 104
    mean_value: 117
    mean_value: 123
  }
  data_param {
    source: "/home/zhengzhe/Data/imagenet_shrt256/ilsvrc12_val_lmdb"
    batch_size: 50
    backend: LMDB
  }
}
layer {
  name: "conv1"
  type: "Convolution"
  bottom: "data"
  top: "conv1"
  param {
    lr_mult: 1
    decay_mult: 1
  }
  convolution_param {
    num_output: 96
    bias_term: false
    pad: 2
    kernel_size: 11
    stride: 4
    weight_filler {
      type: "msra"
    }
  }
}
layer {
  name: "bn1"
  type: "BatchNorm"
  bottom: "conv1"
  top: "conv1"
}
layer {
  name: "scale1"
  type: "Scale"
  bottom: "conv1"
  top: "conv1"
  scale_param {
    bias_term: true
  }
}
layer {
  name: "relu1"
  type: "ReLU"
  bottom: "conv1"
  top: "conv1"
}
layer {
  name: "pool1"
  type: "Pooling"
  bottom: "conv1"
  top: "pool1"
  pooling_param {
    pool: MAX
    kernel_size: 3
    stride: 2
  }
}
layer {
  name: "conv2"
  type: "BinaryConvolution"
  bottom: "pool1"
  top: "conv2"
  param {
    lr_mult: 1
    decay_mult: 1
  }
  convolution_param {
    num_output: 256
    bias_term: false
    pad: 2
    kernel_size: 5
    weight_filler {
      type: "msra"
    }
  }
  debug_param {
    xnorno_grad: false
  }
}
layer {
  name: "bn2"
  type: "BatchNorm"
  bottom: "conv2"
  top: "conv2"
}
layer {
  name: "scale2"
  type: "Scale"
  bottom: "conv2"
  top: "conv2"
  scale_param {
    bias_term: true
  }
}
layer {
  name: "relu2"
  type: "ReLU"
  bottom: "conv2"
  top: "conv2"
}
layer {
  name: "pool2"
  type: "Pooling"
  bottom: "conv2"
  top: "pool2"
  pooling_param {
    pool: MAX
    kernel_size: 3
    stride: 2
  }
}
layer {
  name: "conv3"
  type: "BinaryConvolution"
  bottom: "pool2"
  top: "conv3"
  param {
    lr_mult: 1
    decay_mult: 1
  }
  convolution_param {
    num_output: 384
    bias_term: false
    pad: 1
    kernel_size: 3
    weight_filler {
      type: "msra"
    }
  }
  debug_param {
    xnorno_grad: false
  }
}
layer {
  name: "bn3"
  type: "BatchNorm"
  bottom: "conv3"
  top: "conv3"
}
layer {
  name: "scale3"
  type: "Scale"
  bottom: "conv3"
  top: "conv3"
  scale_param {
    bias_term: true
  }
}
layer {
  name: "relu3"
  type: "ReLU"
  bottom: "conv3"
  top: "conv3"
}
layer {
  name: "conv4"
  type: "BinaryConvolution"
  bottom: "conv3"
  top: "conv4"
  param {
    lr_mult: 1
    decay_mult: 1
  }
  convolution_param {
    num_output: 384
    bias_term: false
    pad: 1
    kernel_size: 3
    weight_filler {
      type: "msra"
    }
  }
  debug_param {
    xnorno_grad: false
  }
}
layer {
  name: "bn4"
  type: "BatchNorm"
  bottom: "conv4"
  top: "conv4"
}
layer {
  name: "scale4"
  type: "Scale"
  bottom: "conv4"
  top: "conv4"
  scale_param {
    bias_term: true
  }
}
layer {
  name: "relu4"
  type: "ReLU"
  bottom: "conv4"
  top: "conv4"
}
layer {
  name: "conv5"
  type: "BinaryConvolution"
  bottom: "conv4"
  top: "conv5"
  param {
    lr_mult: 1
    decay_mult: 1
  }
  convolution_param {
    num_output: 256
    bias_term: false
    pad: 1
    kernel_size: 3
    weight_filler {
      type: "msra"
    }
  }
  debug_param {
    xnorno_grad: false
  }
}
layer {
  name: "bn5"
  type: "BatchNorm"
  bottom: "conv5"
  top: "conv5"
}
layer {
  name: "scale5"
  type: "Scale"
  bottom: "conv5"
  top: "conv5"
  scale_param {
    bias_term: true
  }
}
layer {
  name: "relu5"
  type: "ReLU"
  bottom: "conv5"
  top: "conv5"
}
layer {
  name: "pool5"
  type: "Pooling"
  bottom: "conv5"
  top: "pool5"
  pooling_param {
    pool: MAX
    kernel_size: 3
    stride: 2
  }
}
layer {
  name: "fc6"
  type: "BinaryInnerProduct"
  bottom: "pool5"
  top: "fc6"
  param {
    lr_mult: 1
    decay_mult: 1
  }
  inner_product_param {
    num_output: 4096
    bias_term: false
    weight_filler {
      type: "msra"
    }
  }
  debug_param {
    xnorno_grad: false
  }
}
layer {
  name: "bn6"
  type: "BatchNorm"
  bottom: "fc6"
  top: "fc6"
}
layer {
  name: "scale6"
  type: "Scale"
  bottom: "fc6"
  top: "fc6"
  scale_param {
    bias_term: true
  }
}
layer {
  name: "relu6"
  type: "ReLU"
  bottom: "fc6"
  top: "fc6"
}
layer {
  name: "drop6"
  type: "Dropout"
  bottom: "fc6"
  top: "fc6"
  dropout_param {
    dropout_ratio: 0.1
  }
}
layer {
  name: "fc7"
  type: "BinaryInnerProduct"
  bottom: "fc6"
  top: "fc7"
  param {
    lr_mult: 1
    decay_mult: 1
  }
  inner_product_param {
    num_output: 4096
    bias_term: false
    weight_filler {
      type: "msra"
    }
  }
  debug_param {
    xnorno_grad: false
  }
}
layer {
  name: "bn7"
  type: "BatchNorm"
  bottom: "fc7"
  top: "fc7"
}
layer {
  name: "scale7"
  type: "Scale"
  bottom: "fc7"
  top: "fc7"
  scale_param {
    bias_term: true
  }
}
layer {
  name: "relu7"
  type: "ReLU"
  bottom: "fc7"
  top: "fc7"
}
layer {
  name: "drop7"
  type: "Dropout"
  bottom: "fc7"
  top: "fc7"
  dropout_param {
    dropout_ratio: 0.1
  }
}
layer {
  name: "fc8"
  type: "InnerProduct"
  bottom: "fc7"
  top: "fc8"
  param {
    lr_mult: 1
    decay_mult: 1
  }
  param {
    lr_mult: 2
    decay_mult: 0
  }
  inner_product_param {
    num_output: 1000
    weight_filler {
      type: "msra"
    }
    bias_filler {
      type: "constant"
      value: 0
    }
  }
}
layer {
  name: "loss"
  type: "SoftmaxWithLoss"
  bottom: "fc8"
  bottom: "label"
  top: "loss"
}
layer {
  name: "accuracy"
  type: "Accuracy"
  bottom: "fc8"
  bottom: "label"
  top: "accuracy"
}
layer {
  name: "accuracy_5"
  type: "Accuracy"
  bottom: "fc8"
  bottom: "label"
  top: "accuracy_5"
  accuracy_param {
    top_k: 5
  }
}
I0114 16:11:07.520102 24705 layer_factory.hpp:78] Creating layer data
I0114 16:11:07.520793 24705 db_lmdb.cpp:35] Opened lmdb /home/zhengzhe/Data/imagenet_shrt256/ilsvrc12_val_lmdb
I0114 16:11:07.520980 24705 net.cpp:84] Creating Layer data
I0114 16:11:07.521059 24705 net.cpp:380] data -> data
I0114 16:11:07.521145 24705 net.cpp:380] data -> label
I0114 16:11:07.521917 24705 data_layer.cpp:45] output data size: 50,3,224,224
I0114 16:11:07.613796 24705 base_data_layer.cpp:72] Initializing prefetch
I0114 16:11:07.624765 24705 base_data_layer.cpp:75] Prefetch initialized.
I0114 16:11:07.624902 24705 net.cpp:122] Setting up data
I0114 16:11:07.624958 24705 net.cpp:129] Top shape: 50 3 224 224 (7526400)
I0114 16:11:07.624997 24705 net.cpp:129] Top shape: 50 (50)
I0114 16:11:07.625028 24705 net.cpp:137] Memory required for data: 30105800
I0114 16:11:07.625088 24705 layer_factory.hpp:78] Creating layer label_data_1_split
I0114 16:11:07.625181 24705 net.cpp:84] Creating Layer label_data_1_split
I0114 16:11:07.625236 24705 net.cpp:406] label_data_1_split <- label
I0114 16:11:07.625303 24705 net.cpp:380] label_data_1_split -> label_data_1_split_0
I0114 16:11:07.625394 24705 net.cpp:380] label_data_1_split -> label_data_1_split_1
I0114 16:11:07.625458 24705 net.cpp:380] label_data_1_split -> label_data_1_split_2
I0114 16:11:07.625681 24705 net.cpp:122] Setting up label_data_1_split
I0114 16:11:07.625735 24705 net.cpp:129] Top shape: 50 (50)
I0114 16:11:07.625773 24705 net.cpp:129] Top shape: 50 (50)
I0114 16:11:07.625813 24705 net.cpp:129] Top shape: 50 (50)
I0114 16:11:07.625844 24705 net.cpp:137] Memory required for data: 30106400
I0114 16:11:07.625878 24705 layer_factory.hpp:78] Creating layer conv1
I0114 16:11:07.625960 24705 net.cpp:84] Creating Layer conv1
I0114 16:11:07.626004 24705 net.cpp:406] conv1 <- data
I0114 16:11:07.626061 24705 net.cpp:380] conv1 -> conv1
I0114 16:11:07.634654 24705 cudnn_conv_layer.cpp:194] Reallocating workspace storage: 127416
I0114 16:11:07.634780 24705 net.cpp:122] Setting up conv1
I0114 16:11:07.634832 24705 net.cpp:129] Top shape: 50 96 55 55 (14520000)
I0114 16:11:07.634871 24705 net.cpp:137] Memory required for data: 88186400
I0114 16:11:07.634948 24705 layer_factory.hpp:78] Creating layer bn1
I0114 16:11:07.635017 24705 net.cpp:84] Creating Layer bn1
I0114 16:11:07.635061 24705 net.cpp:406] bn1 <- conv1
I0114 16:11:07.635118 24705 net.cpp:367] bn1 -> conv1 (in-place)
I0114 16:11:07.635586 24705 net.cpp:122] Setting up bn1
I0114 16:11:07.635638 24705 net.cpp:129] Top shape: 50 96 55 55 (14520000)
I0114 16:11:07.635673 24705 net.cpp:137] Memory required for data: 146266400
I0114 16:11:07.635753 24705 layer_factory.hpp:78] Creating layer scale1
I0114 16:11:07.635825 24705 net.cpp:84] Creating Layer scale1
I0114 16:11:07.635869 24705 net.cpp:406] scale1 <- conv1
I0114 16:11:07.635922 24705 net.cpp:367] scale1 -> conv1 (in-place)
I0114 16:11:07.636073 24705 layer_factory.hpp:78] Creating layer scale1
I0114 16:11:07.636430 24705 net.cpp:122] Setting up scale1
I0114 16:11:07.636482 24705 net.cpp:129] Top shape: 50 96 55 55 (14520000)
I0114 16:11:07.636518 24705 net.cpp:137] Memory required for data: 204346400
I0114 16:11:07.636584 24705 layer_factory.hpp:78] Creating layer relu1
I0114 16:11:07.636641 24705 net.cpp:84] Creating Layer relu1
I0114 16:11:07.636684 24705 net.cpp:406] relu1 <- conv1
I0114 16:11:07.636739 24705 net.cpp:367] relu1 -> conv1 (in-place)
I0114 16:11:07.637656 24705 net.cpp:122] Setting up relu1
I0114 16:11:07.637712 24705 net.cpp:129] Top shape: 50 96 55 55 (14520000)
I0114 16:11:07.637749 24705 net.cpp:137] Memory required for data: 262426400
I0114 16:11:07.637804 24705 layer_factory.hpp:78] Creating layer pool1
I0114 16:11:07.637866 24705 net.cpp:84] Creating Layer pool1
I0114 16:11:07.637926 24705 net.cpp:406] pool1 <- conv1
I0114 16:11:07.637986 24705 net.cpp:380] pool1 -> pool1
I0114 16:11:07.638128 24705 net.cpp:122] Setting up pool1
I0114 16:11:07.638181 24705 net.cpp:129] Top shape: 50 96 27 27 (3499200)
I0114 16:11:07.638218 24705 net.cpp:137] Memory required for data: 276423200
I0114 16:11:07.638257 24705 layer_factory.hpp:78] Creating layer conv2
I0114 16:11:07.638332 24705 net.cpp:84] Creating Layer conv2
I0114 16:11:07.638386 24705 net.cpp:406] conv2 <- pool1
I0114 16:11:07.638471 24705 net.cpp:380] conv2 -> conv2
I0114 16:11:07.721477 24705 cudnn_binary_conv_layer.cpp:194] Reallocating workspace storage: 19668
I0114 16:11:07.721626 24705 net.cpp:122] Setting up conv2
I0114 16:11:07.721678 24705 net.cpp:129] Top shape: 50 256 27 27 (9331200)
I0114 16:11:07.721709 24705 net.cpp:137] Memory required for data: 313748000
I0114 16:11:07.721771 24705 layer_factory.hpp:78] Creating layer bn2
I0114 16:11:07.721853 24705 net.cpp:84] Creating Layer bn2
I0114 16:11:07.721896 24705 net.cpp:406] bn2 <- conv2
I0114 16:11:07.721961 24705 net.cpp:367] bn2 -> conv2 (in-place)
I0114 16:11:07.722365 24705 net.cpp:122] Setting up bn2
I0114 16:11:07.722411 24705 net.cpp:129] Top shape: 50 256 27 27 (9331200)
I0114 16:11:07.722441 24705 net.cpp:137] Memory required for data: 351072800
I0114 16:11:07.722513 24705 layer_factory.hpp:78] Creating layer scale2
I0114 16:11:07.722575 24705 net.cpp:84] Creating Layer scale2
I0114 16:11:07.722617 24705 net.cpp:406] scale2 <- conv2
I0114 16:11:07.722669 24705 net.cpp:367] scale2 -> conv2 (in-place)
I0114 16:11:07.722808 24705 layer_factory.hpp:78] Creating layer scale2
I0114 16:11:07.723111 24705 net.cpp:122] Setting up scale2
I0114 16:11:07.723158 24705 net.cpp:129] Top shape: 50 256 27 27 (9331200)
I0114 16:11:07.723191 24705 net.cpp:137] Memory required for data: 388397600
I0114 16:11:07.723237 24705 layer_factory.hpp:78] Creating layer relu2
I0114 16:11:07.723284 24705 net.cpp:84] Creating Layer relu2
I0114 16:11:07.723320 24705 net.cpp:406] relu2 <- conv2
I0114 16:11:07.723377 24705 net.cpp:367] relu2 -> conv2 (in-place)
I0114 16:11:07.724579 24705 net.cpp:122] Setting up relu2
I0114 16:11:07.724633 24705 net.cpp:129] Top shape: 50 256 27 27 (9331200)
I0114 16:11:07.724665 24705 net.cpp:137] Memory required for data: 425722400
I0114 16:11:07.724700 24705 layer_factory.hpp:78] Creating layer pool2
I0114 16:11:07.724755 24705 net.cpp:84] Creating Layer pool2
I0114 16:11:07.724794 24705 net.cpp:406] pool2 <- conv2
I0114 16:11:07.724849 24705 net.cpp:380] pool2 -> pool2
I0114 16:11:07.724994 24705 net.cpp:122] Setting up pool2
I0114 16:11:07.725042 24705 net.cpp:129] Top shape: 50 256 13 13 (2163200)
I0114 16:11:07.725075 24705 net.cpp:137] Memory required for data: 434375200
I0114 16:11:07.725111 24705 layer_factory.hpp:78] Creating layer conv3
I0114 16:11:07.725180 24705 net.cpp:84] Creating Layer conv3
I0114 16:11:07.725220 24705 net.cpp:406] conv3 <- pool2
I0114 16:11:07.725276 24705 net.cpp:380] conv3 -> conv3
I0114 16:11:07.881593 24705 cudnn_binary_conv_layer.cpp:194] Reallocating workspace storage: 18874368
I0114 16:11:07.881992 24705 net.cpp:122] Setting up conv3
I0114 16:11:07.882022 24705 net.cpp:129] Top shape: 50 384 13 13 (3244800)
I0114 16:11:07.882028 24705 net.cpp:137] Memory required for data: 447354400
I0114 16:11:07.882062 24705 layer_factory.hpp:78] Creating layer bn3
I0114 16:11:07.882103 24705 net.cpp:84] Creating Layer bn3
I0114 16:11:07.882122 24705 net.cpp:406] bn3 <- conv3
I0114 16:11:07.882153 24705 net.cpp:367] bn3 -> conv3 (in-place)
I0114 16:11:07.882524 24705 net.cpp:122] Setting up bn3
I0114 16:11:07.882539 24705 net.cpp:129] Top shape: 50 384 13 13 (3244800)
I0114 16:11:07.882544 24705 net.cpp:137] Memory required for data: 460333600
I0114 16:11:07.882572 24705 layer_factory.hpp:78] Creating layer scale3
I0114 16:11:07.882602 24705 net.cpp:84] Creating Layer scale3
I0114 16:11:07.882612 24705 net.cpp:406] scale3 <- conv3
I0114 16:11:07.882633 24705 net.cpp:367] scale3 -> conv3 (in-place)
I0114 16:11:07.882730 24705 layer_factory.hpp:78] Creating layer scale3
I0114 16:11:07.883005 24705 net.cpp:122] Setting up scale3
I0114 16:11:07.883021 24705 net.cpp:129] Top shape: 50 384 13 13 (3244800)
I0114 16:11:07.883028 24705 net.cpp:137] Memory required for data: 473312800
I0114 16:11:07.883065 24705 layer_factory.hpp:78] Creating layer relu3
I0114 16:11:07.883087 24705 net.cpp:84] Creating Layer relu3
I0114 16:11:07.883097 24705 net.cpp:406] relu3 <- conv3
I0114 16:11:07.883124 24705 net.cpp:367] relu3 -> conv3 (in-place)
I0114 16:11:07.884312 24705 net.cpp:122] Setting up relu3
I0114 16:11:07.884335 24705 net.cpp:129] Top shape: 50 384 13 13 (3244800)
I0114 16:11:07.884343 24705 net.cpp:137] Memory required for data: 486292000
I0114 16:11:07.884352 24705 layer_factory.hpp:78] Creating layer conv4
I0114 16:11:07.884400 24705 net.cpp:84] Creating Layer conv4
I0114 16:11:07.884413 24705 net.cpp:406] conv4 <- conv3
I0114 16:11:07.884444 24705 net.cpp:380] conv4 -> conv4
I0114 16:11:08.060597 24705 cudnn_binary_conv_layer.cpp:194] Reallocating workspace storage: 9840
I0114 16:11:08.060660 24705 net.cpp:122] Setting up conv4
I0114 16:11:08.060684 24705 net.cpp:129] Top shape: 50 384 13 13 (3244800)
I0114 16:11:08.060722 24705 net.cpp:137] Memory required for data: 499271200
I0114 16:11:08.060775 24705 layer_factory.hpp:78] Creating layer bn4
I0114 16:11:08.060839 24705 net.cpp:84] Creating Layer bn4
I0114 16:11:08.060873 24705 net.cpp:406] bn4 <- conv4
I0114 16:11:08.060923 24705 net.cpp:367] bn4 -> conv4 (in-place)
I0114 16:11:08.061318 24705 net.cpp:122] Setting up bn4
I0114 16:11:08.061362 24705 net.cpp:129] Top shape: 50 384 13 13 (3244800)
I0114 16:11:08.061384 24705 net.cpp:137] Memory required for data: 512250400
I0114 16:11:08.061431 24705 layer_factory.hpp:78] Creating layer scale4
I0114 16:11:08.061481 24705 net.cpp:84] Creating Layer scale4
I0114 16:11:08.061509 24705 net.cpp:406] scale4 <- conv4
I0114 16:11:08.061547 24705 net.cpp:367] scale4 -> conv4 (in-place)
I0114 16:11:08.061681 24705 layer_factory.hpp:78] Creating layer scale4
I0114 16:11:08.061961 24705 net.cpp:122] Setting up scale4
I0114 16:11:08.061997 24705 net.cpp:129] Top shape: 50 384 13 13 (3244800)
I0114 16:11:08.062017 24705 net.cpp:137] Memory required for data: 525229600
I0114 16:11:08.062054 24705 layer_factory.hpp:78] Creating layer relu4
I0114 16:11:08.062091 24705 net.cpp:84] Creating Layer relu4
I0114 16:11:08.062117 24705 net.cpp:406] relu4 <- conv4
I0114 16:11:08.062153 24705 net.cpp:367] relu4 -> conv4 (in-place)
I0114 16:11:08.063035 24705 net.cpp:122] Setting up relu4
I0114 16:11:08.063076 24705 net.cpp:129] Top shape: 50 384 13 13 (3244800)
I0114 16:11:08.063097 24705 net.cpp:137] Memory required for data: 538208800
I0114 16:11:08.063122 24705 layer_factory.hpp:78] Creating layer conv5
I0114 16:11:08.063179 24705 net.cpp:84] Creating Layer conv5
I0114 16:11:08.063207 24705 net.cpp:406] conv5 <- conv4
I0114 16:11:08.063251 24705 net.cpp:380] conv5 -> conv5
I0114 16:11:08.221741 24705 cudnn_binary_conv_layer.cpp:194] Reallocating workspace storage: 18874368
I0114 16:11:08.231926 24705 net.cpp:122] Setting up conv5
I0114 16:11:08.232586 24705 net.cpp:129] Top shape: 50 256 13 13 (2163200)
I0114 16:11:08.232664 24705 net.cpp:137] Memory required for data: 546861600
I0114 16:11:08.232765 24705 layer_factory.hpp:78] Creating layer bn5
I0114 16:11:08.232924 24705 net.cpp:84] Creating Layer bn5
I0114 16:11:08.233047 24705 net.cpp:406] bn5 <- conv5
I0114 16:11:08.233155 24705 net.cpp:367] bn5 -> conv5 (in-place)
I0114 16:11:08.233814 24705 net.cpp:122] Setting up bn5
I0114 16:11:08.234447 24705 net.cpp:129] Top shape: 50 256 13 13 (2163200)
I0114 16:11:08.234506 24705 net.cpp:137] Memory required for data: 555514400
I0114 16:11:08.234594 24705 layer_factory.hpp:78] Creating layer scale5
I0114 16:11:08.234727 24705 net.cpp:84] Creating Layer scale5
I0114 16:11:08.234812 24705 net.cpp:406] scale5 <- conv5
I0114 16:11:08.234879 24705 net.cpp:367] scale5 -> conv5 (in-place)
I0114 16:11:08.235088 24705 layer_factory.hpp:78] Creating layer scale5
I0114 16:11:08.235527 24705 net.cpp:122] Setting up scale5
I0114 16:11:08.235883 24705 net.cpp:129] Top shape: 50 256 13 13 (2163200)
I0114 16:11:08.235922 24705 net.cpp:137] Memory required for data: 564167200
I0114 16:11:08.235973 24705 layer_factory.hpp:78] Creating layer relu5
I0114 16:11:08.236037 24705 net.cpp:84] Creating Layer relu5
I0114 16:11:08.236093 24705 net.cpp:406] relu5 <- conv5
I0114 16:11:08.236150 24705 net.cpp:367] relu5 -> conv5 (in-place)
I0114 16:11:08.237112 24705 net.cpp:122] Setting up relu5
I0114 16:11:08.238066 24705 net.cpp:129] Top shape: 50 256 13 13 (2163200)
I0114 16:11:08.238104 24705 net.cpp:137] Memory required for data: 572820000
I0114 16:11:08.238142 24705 layer_factory.hpp:78] Creating layer pool5
I0114 16:11:08.238204 24705 net.cpp:84] Creating Layer pool5
I0114 16:11:08.238273 24705 net.cpp:406] pool5 <- conv5
I0114 16:11:08.238328 24705 net.cpp:380] pool5 -> pool5
I0114 16:11:08.238498 24705 net.cpp:122] Setting up pool5
I0114 16:11:08.238651 24705 net.cpp:129] Top shape: 50 256 6 6 (460800)
I0114 16:11:08.238694 24705 net.cpp:137] Memory required for data: 574663200
I0114 16:11:08.238723 24705 layer_factory.hpp:78] Creating layer fc6
I0114 16:11:08.238785 24705 net.cpp:84] Creating Layer fc6
I0114 16:11:08.238853 24705 net.cpp:406] fc6 <- pool5
I0114 16:11:08.238915 24705 net.cpp:380] fc6 -> fc6
I0114 16:11:12.702535 24705 net.cpp:122] Setting up fc6
I0114 16:11:12.702662 24705 net.cpp:129] Top shape: 50 4096 (204800)
I0114 16:11:12.702688 24705 net.cpp:137] Memory required for data: 575482400
I0114 16:11:12.702754 24705 layer_factory.hpp:78] Creating layer bn6
I0114 16:11:12.702823 24705 net.cpp:84] Creating Layer bn6
I0114 16:11:12.702864 24705 net.cpp:406] bn6 <- fc6
I0114 16:11:12.702919 24705 net.cpp:367] bn6 -> fc6 (in-place)
I0114 16:11:12.703372 24705 net.cpp:122] Setting up bn6
I0114 16:11:12.703421 24705 net.cpp:129] Top shape: 50 4096 (204800)
I0114 16:11:12.703451 24705 net.cpp:137] Memory required for data: 576301600
I0114 16:11:12.703523 24705 layer_factory.hpp:78] Creating layer scale6
I0114 16:11:12.703580 24705 net.cpp:84] Creating Layer scale6
I0114 16:11:12.703610 24705 net.cpp:406] scale6 <- fc6
I0114 16:11:12.703652 24705 net.cpp:367] scale6 -> fc6 (in-place)
I0114 16:11:12.703812 24705 layer_factory.hpp:78] Creating layer scale6
I0114 16:11:12.704120 24705 net.cpp:122] Setting up scale6
I0114 16:11:12.704159 24705 net.cpp:129] Top shape: 50 4096 (204800)
I0114 16:11:12.704181 24705 net.cpp:137] Memory required for data: 577120800
I0114 16:11:12.704222 24705 layer_factory.hpp:78] Creating layer relu6
I0114 16:11:12.704267 24705 net.cpp:84] Creating Layer relu6
I0114 16:11:12.704295 24705 net.cpp:406] relu6 <- fc6
I0114 16:11:12.704334 24705 net.cpp:367] relu6 -> fc6 (in-place)
I0114 16:11:12.705718 24705 net.cpp:122] Setting up relu6
I0114 16:11:12.705760 24705 net.cpp:129] Top shape: 50 4096 (204800)
I0114 16:11:12.705781 24705 net.cpp:137] Memory required for data: 577940000
I0114 16:11:12.705806 24705 layer_factory.hpp:78] Creating layer drop6
I0114 16:11:12.705850 24705 net.cpp:84] Creating Layer drop6
I0114 16:11:12.705878 24705 net.cpp:406] drop6 <- fc6
I0114 16:11:12.705920 24705 net.cpp:367] drop6 -> fc6 (in-place)
I0114 16:11:12.706007 24705 net.cpp:122] Setting up drop6
I0114 16:11:12.706039 24705 net.cpp:129] Top shape: 50 4096 (204800)
I0114 16:11:12.706059 24705 net.cpp:137] Memory required for data: 578759200
I0114 16:11:12.706084 24705 layer_factory.hpp:78] Creating layer fc7
I0114 16:11:12.706133 24705 net.cpp:84] Creating Layer fc7
I0114 16:11:12.706161 24705 net.cpp:406] fc7 <- fc6
I0114 16:11:12.706210 24705 net.cpp:380] fc7 -> fc7
I0114 16:11:14.847584 24705 net.cpp:122] Setting up fc7
I0114 16:11:14.848001 24705 net.cpp:129] Top shape: 50 4096 (204800)
I0114 16:11:14.848006 24705 net.cpp:137] Memory required for data: 579578400
I0114 16:11:14.848042 24705 layer_factory.hpp:78] Creating layer bn7
I0114 16:11:14.848081 24705 net.cpp:84] Creating Layer bn7
I0114 16:11:14.848096 24705 net.cpp:406] bn7 <- fc7
I0114 16:11:14.848126 24705 net.cpp:367] bn7 -> fc7 (in-place)
I0114 16:11:14.848443 24705 net.cpp:122] Setting up bn7
I0114 16:11:14.848454 24705 net.cpp:129] Top shape: 50 4096 (204800)
I0114 16:11:14.848459 24705 net.cpp:137] Memory required for data: 580397600
I0114 16:11:14.848481 24705 layer_factory.hpp:78] Creating layer scale7
I0114 16:11:14.848518 24705 net.cpp:84] Creating Layer scale7
I0114 16:11:14.848528 24705 net.cpp:406] scale7 <- fc7
I0114 16:11:14.848544 24705 net.cpp:367] scale7 -> fc7 (in-place)
I0114 16:11:14.848639 24705 layer_factory.hpp:78] Creating layer scale7
I0114 16:11:14.848835 24705 net.cpp:122] Setting up scale7
I0114 16:11:14.848847 24705 net.cpp:129] Top shape: 50 4096 (204800)
I0114 16:11:14.848851 24705 net.cpp:137] Memory required for data: 581216800
I0114 16:11:14.848866 24705 layer_factory.hpp:78] Creating layer relu7
I0114 16:11:14.848886 24705 net.cpp:84] Creating Layer relu7
I0114 16:11:14.848896 24705 net.cpp:406] relu7 <- fc7
I0114 16:11:14.848911 24705 net.cpp:367] relu7 -> fc7 (in-place)
I0114 16:11:14.850271 24705 net.cpp:122] Setting up relu7
I0114 16:11:14.850288 24705 net.cpp:129] Top shape: 50 4096 (204800)
I0114 16:11:14.850292 24705 net.cpp:137] Memory required for data: 582036000
I0114 16:11:14.850299 24705 layer_factory.hpp:78] Creating layer drop7
I0114 16:11:14.850317 24705 net.cpp:84] Creating Layer drop7
I0114 16:11:14.850327 24705 net.cpp:406] drop7 <- fc7
I0114 16:11:14.850349 24705 net.cpp:367] drop7 -> fc7 (in-place)
I0114 16:11:14.850400 24705 net.cpp:122] Setting up drop7
I0114 16:11:14.850414 24705 net.cpp:129] Top shape: 50 4096 (204800)
I0114 16:11:14.850416 24705 net.cpp:137] Memory required for data: 582855200
I0114 16:11:14.850423 24705 layer_factory.hpp:78] Creating layer fc8
I0114 16:11:14.850445 24705 net.cpp:84] Creating Layer fc8
I0114 16:11:14.850453 24705 net.cpp:406] fc8 <- fc7
I0114 16:11:14.850471 24705 net.cpp:380] fc8 -> fc8
I0114 16:11:15.219653 24705 net.cpp:122] Setting up fc8
I0114 16:11:15.219714 24705 net.cpp:129] Top shape: 50 1000 (50000)
I0114 16:11:15.219753 24705 net.cpp:137] Memory required for data: 583055200
I0114 16:11:15.219816 24705 layer_factory.hpp:78] Creating layer fc8_fc8_0_split
I0114 16:11:15.219866 24705 net.cpp:84] Creating Layer fc8_fc8_0_split
I0114 16:11:15.219885 24705 net.cpp:406] fc8_fc8_0_split <- fc8
I0114 16:11:15.219928 24705 net.cpp:380] fc8_fc8_0_split -> fc8_fc8_0_split_0
I0114 16:11:15.219976 24705 net.cpp:380] fc8_fc8_0_split -> fc8_fc8_0_split_1
I0114 16:11:15.220002 24705 net.cpp:380] fc8_fc8_0_split -> fc8_fc8_0_split_2
I0114 16:11:15.220115 24705 net.cpp:122] Setting up fc8_fc8_0_split
I0114 16:11:15.220132 24705 net.cpp:129] Top shape: 50 1000 (50000)
I0114 16:11:15.220144 24705 net.cpp:129] Top shape: 50 1000 (50000)
I0114 16:11:15.220154 24705 net.cpp:129] Top shape: 50 1000 (50000)
I0114 16:11:15.220160 24705 net.cpp:137] Memory required for data: 583655200
I0114 16:11:15.220168 24705 layer_factory.hpp:78] Creating layer loss
I0114 16:11:15.220192 24705 net.cpp:84] Creating Layer loss
I0114 16:11:15.220202 24705 net.cpp:406] loss <- fc8_fc8_0_split_0
I0114 16:11:15.220240 24705 net.cpp:406] loss <- label_data_1_split_0
I0114 16:11:15.220266 24705 net.cpp:380] loss -> loss
…
