…
I0629 21:33:11.842142 26982 net.cpp:294] The NetState phase (0) differed from the phase (1) specified by a rule in layer mnist
I0629 21:33:11.842171 26982 net.cpp:294] The NetState phase (0) differed from the phase (1) specified by a rule in layer accuracy
I0629 21:33:11.842293 26982 net.cpp:51] Initializing net from parameters: 
name: "LeNet"
state {
  phase: TRAIN
  level: 0
  stage: ""
}
layer {
  name: "mnist"
  type: "Data"
  top: "data"
  top: "label"
  include {
    phase: TRAIN
  }
  transform_param {
    scale: 0.00390625
  }
  data_param {
    source: "examples/mnist/mnist_train_lmdb"
    batch_size: 100
    backend: LMDB
  }
}
layer {
  name: "conv1"
  type: "BinaryConvolution"
  bottom: "data"
  top: "conv1"
  param {
    lr_mult: 1
  }
  param {
    lr_mult: 2
  }
  convolution_param {
    num_output: 20
    kernel_size: 5
    stride: 1
    weight_filler {
      type: "xavier"
    }
    bias_filler {
      type: "constant"
    }
  }
  debug_param {
    xnorno_grad: true
  }
}
layer {
  name: "norm1"
  type: "BatchNorm"
  bottom: "conv1"
  top: "norm1"
}
layer {
  name: "bn1_scal"
  type: "Scale"
  bottom: "norm1"
  top: "conv1_sc"
  scale_param {
    bias_term: true
  }
}
layer {
  name: "relu1"
  type: "ReLU"
  bottom: "conv1_sc"
  top: "relu1"
}
layer {
  name: "pool1"
  type: "Pooling"
  bottom: "relu1"
  top: "pool1"
  pooling_param {
    pool: MAX
    kernel_size: 2
    stride: 2
  }
}
layer {
  name: "conv2"
  type: "BinaryConvolution"
  bottom: "pool1"
  top: "conv2"
  param {
    lr_mult: 1
  }
  param {
    lr_mult: 2
  }
  convolution_param {
    num_output: 50
    kernel_size: 5
    stride: 1
    weight_filler {
      type: "xavier"
    }
    bias_filler {
      type: "constant"
    }
  }
  debug_param {
    xnorno_grad: true
  }
}
layer {
  name: "norm2"
  type: "BatchNorm"
  bottom: "conv2"
  top: "norm2"
}
layer {
  name: "bn2_scal"
  type: "Scale"
  bottom: "norm2"
  top: "conv2_sc"
  scale_param {
    bias_term: true
  }
}
layer {
  name: "relu2"
  type: "ReLU"
  bottom: "conv2_sc"
  top: "relu2"
}
layer {
  name: "pool2"
  type: "Pooling"
  bottom: "relu2"
  top: "pool2"
  pooling_param {
    pool: MAX
    kernel_size: 2
    stride: 2
  }
}
layer {
  name: "ip1"
  type: "BinaryInnerProduct"
  bottom: "pool2"
  top: "ip1"
  param {
    lr_mult: 1
  }
  param {
    lr_mult: 2
  }
  inner_product_param {
    num_output: 500
    weight_filler {
      type: "xavier"
    }
    bias_filler {
      type: "constant"
    }
  }
  debug_param {
    xnorno_grad: true
  }
}
layer {
  name: "ip1_norm"
  type: "BatchNorm"
  bottom: "ip1"
  top: "ip1_norm"
}
layer {
  name: "ip1_sc"
  type: "Scale"
  bottom: "ip1_norm"
  top: "ip1_sc"
  scale_param {
    bias_term: true
  }
}
layer {
  name: "ip1_relu"
  type: "ReLU"
  bottom: "ip1_sc"
  top: "ip1_relu"
}
layer {
  name: "ip2"
  type: "BinaryInnerProduct"
  bottom: "ip1_relu"
  top: "ip2"
  param {
    lr_mult: 1
  }
  param {
    lr_mult: 2
  }
  inner_product_param {
    num_output: 10
    weight_filler {
      type: "xavier"
    }
    bias_filler {
      type: "constant"
    }
  }
  debug_param {
    xnorno_grad: true
  }
}
layer {
  name: "loss"
  type: "SoftmaxWithLoss"
  bottom: "ip2"
  bottom: "label"
  top: "loss"
}
I0629 21:33:11.842731 26982 layer_factory.hpp:77] Creating layer mnist
I0629 21:33:11.842931 26982 db_lmdb.cpp:35] Opened lmdb examples/mnist/mnist_train_lmdb
I0629 21:33:11.842985 26982 net.cpp:84] Creating Layer mnist
I0629 21:33:11.843008 26982 net.cpp:380] mnist -> data
I0629 21:33:11.843113 26982 net.cpp:380] mnist -> label
I0629 21:33:11.843655 26982 data_layer.cpp:45] output data size: 100,1,28,28
I0629 21:33:11.844939 26982 base_data_layer.cpp:72] Initializing prefetch
I0629 21:33:11.845227 26982 base_data_layer.cpp:75] Prefetch initialized.
I0629 21:33:11.845237 26982 net.cpp:122] Setting up mnist
I0629 21:33:11.845257 26982 net.cpp:129] Top shape: 100 1 28 28 (78400)
I0629 21:33:11.845264 26982 net.cpp:129] Top shape: 100 (100)
I0629 21:33:11.845276 26982 net.cpp:137] Memory required for data: 314000
I0629 21:33:11.845290 26982 layer_factory.hpp:77] Creating layer conv1
I0629 21:33:11.845324 26982 net.cpp:84] Creating Layer conv1
I0629 21:33:11.845340 26982 net.cpp:406] conv1 <- data
I0629 21:33:11.845388 26982 net.cpp:380] conv1 -> conv1
I0629 21:33:11.846324 26982 net.cpp:122] Setting up conv1
I0629 21:33:11.846340 26982 net.cpp:129] Top shape: 100 20 24 24 (1152000)
I0629 21:33:11.846344 26982 net.cpp:137] Memory required for data: 4922000
I0629 21:33:11.846406 26982 layer_factory.hpp:77] Creating layer norm1
I0629 21:33:11.846447 26982 net.cpp:84] Creating Layer norm1
I0629 21:33:11.846472 26982 net.cpp:406] norm1 <- conv1
I0629 21:33:11.846493 26982 net.cpp:380] norm1 -> norm1
I0629 21:33:11.846721 26982 net.cpp:122] Setting up norm1
I0629 21:33:11.846734 26982 net.cpp:129] Top shape: 100 20 24 24 (1152000)
I0629 21:33:11.846738 26982 net.cpp:137] Memory required for data: 9530000
I0629 21:33:11.846787 26982 layer_factory.hpp:77] Creating layer bn1_scal
I0629 21:33:11.846808 26982 net.cpp:84] Creating Layer bn1_scal
I0629 21:33:11.846815 26982 net.cpp:406] bn1_scal <- norm1
I0629 21:33:11.846839 26982 net.cpp:380] bn1_scal -> conv1_sc
I0629 21:33:11.846915 26982 layer_factory.hpp:77] Creating layer bn1_scal
I0629 21:33:11.847072 26982 net.cpp:122] Setting up bn1_scal
I0629 21:33:11.847084 26982 net.cpp:129] Top shape: 100 20 24 24 (1152000)
I0629 21:33:11.847090 26982 net.cpp:137] Memory required for data: 14138000
I0629 21:33:11.847103 26982 layer_factory.hpp:77] Creating layer relu1
I0629 21:33:11.847124 26982 net.cpp:84] Creating Layer relu1
I0629 21:33:11.847134 26982 net.cpp:406] relu1 <- conv1_sc
I0629 21:33:11.847148 26982 net.cpp:380] relu1 -> relu1
I0629 21:33:11.847182 26982 net.cpp:122] Setting up relu1
I0629 21:33:11.847193 26982 net.cpp:129] Top shape: 100 20 24 24 (1152000)
I0629 21:33:11.847196 26982 net.cpp:137] Memory required for data: 18746000
I0629 21:33:11.847203 26982 layer_factory.hpp:77] Creating layer pool1
I0629 21:33:11.847223 26982 net.cpp:84] Creating Layer pool1
I0629 21:33:11.847231 26982 net.cpp:406] pool1 <- relu1
I0629 21:33:11.847246 26982 net.cpp:380] pool1 -> pool1
I0629 21:33:11.847302 26982 net.cpp:122] Setting up pool1
I0629 21:33:11.847313 26982 net.cpp:129] Top shape: 100 20 12 12 (288000)
I0629 21:33:11.847318 26982 net.cpp:137] Memory required for data: 19898000
I0629 21:33:11.847324 26982 layer_factory.hpp:77] Creating layer conv2
I0629 21:33:11.847342 26982 net.cpp:84] Creating Layer conv2
I0629 21:33:11.847349 26982 net.cpp:406] conv2 <- pool1
I0629 21:33:11.847371 26982 net.cpp:380] conv2 -> conv2
I0629 21:33:11.849103 26982 net.cpp:122] Setting up conv2
I0629 21:33:11.849117 26982 net.cpp:129] Top shape: 100 50 8 8 (320000)
I0629 21:33:11.849122 26982 net.cpp:137] Memory required for data: 21178000
I0629 21:33:11.849141 26982 layer_factory.hpp:77] Creating layer norm2
I0629 21:33:11.849158 26982 net.cpp:84] Creating Layer norm2
I0629 21:33:11.849166 26982 net.cpp:406] norm2 <- conv2
I0629 21:33:11.849181 26982 net.cpp:380] norm2 -> norm2
I0629 21:33:11.849357 26982 net.cpp:122] Setting up norm2
I0629 21:33:11.849369 26982 net.cpp:129] Top shape: 100 50 8 8 (320000)
I0629 21:33:11.849375 26982 net.cpp:137] Memory required for data: 22458000
I0629 21:33:11.849397 26982 layer_factory.hpp:77] Creating layer bn2_scal
I0629 21:33:11.849431 26982 net.cpp:84] Creating Layer bn2_scal
I0629 21:33:11.849439 26982 net.cpp:406] bn2_scal <- norm2
I0629 21:33:11.849457 26982 net.cpp:380] bn2_scal -> conv2_sc
I0629 21:33:11.849515 26982 layer_factory.hpp:77] Creating layer bn2_scal
I0629 21:33:11.849647 26982 net.cpp:122] Setting up bn2_scal
I0629 21:33:11.849658 26982 net.cpp:129] Top shape: 100 50 8 8 (320000)
I0629 21:33:11.849663 26982 net.cpp:137] Memory required for data: 23738000
I0629 21:33:11.849674 26982 layer_factory.hpp:77] Creating layer relu2
I0629 21:33:11.849689 26982 net.cpp:84] Creating Layer relu2
I0629 21:33:11.849697 26982 net.cpp:406] relu2 <- conv2_sc
I0629 21:33:11.849711 26982 net.cpp:380] relu2 -> relu2
I0629 21:33:11.849742 26982 net.cpp:122] Setting up relu2
I0629 21:33:11.849753 26982 net.cpp:129] Top shape: 100 50 8 8 (320000)
I0629 21:33:11.849758 26982 net.cpp:137] Memory required for data: 25018000
I0629 21:33:11.849763 26982 layer_factory.hpp:77] Creating layer pool2
I0629 21:33:11.849781 26982 net.cpp:84] Creating Layer pool2
I0629 21:33:11.849787 26982 net.cpp:406] pool2 <- relu2
I0629 21:33:11.849803 26982 net.cpp:380] pool2 -> pool2
I0629 21:33:11.849848 26982 net.cpp:122] Setting up pool2
I0629 21:33:11.849860 26982 net.cpp:129] Top shape: 100 50 4 4 (80000)
I0629 21:33:11.849869 26982 net.cpp:137] Memory required for data: 25338000
I0629 21:33:11.849874 26982 layer_factory.hpp:77] Creating layer ip1
I0629 21:33:11.849900 26982 net.cpp:84] Creating Layer ip1
I0629 21:33:11.849910 26982 net.cpp:406] ip1 <- pool2
I0629 21:33:11.849930 26982 net.cpp:380] ip1 -> ip1
I0629 21:33:11.867940 26982 net.cpp:122] Setting up ip1
I0629 21:33:11.867964 26982 net.cpp:129] Top shape: 100 500 (50000)
I0629 21:33:11.867969 26982 net.cpp:137] Memory required for data: 25538000
I0629 21:33:11.867986 26982 layer_factory.hpp:77] Creating layer ip1_norm
I0629 21:33:11.868007 26982 net.cpp:84] Creating Layer ip1_norm
I0629 21:33:11.868017 26982 net.cpp:406] ip1_norm <- ip1
I0629 21:33:11.868039 26982 net.cpp:380] ip1_norm -> ip1_norm
I0629 21:33:11.868242 26982 net.cpp:122] Setting up ip1_norm
I0629 21:33:11.868260 26982 net.cpp:129] Top shape: 100 500 (50000)
I0629 21:33:11.868264 26982 net.cpp:137] Memory required for data: 25738000
I0629 21:33:11.868294 26982 layer_factory.hpp:77] Creating layer ip1_sc
I0629 21:33:11.868329 26982 net.cpp:84] Creating Layer ip1_sc
I0629 21:33:11.868336 26982 net.cpp:406] ip1_sc <- ip1_norm
I0629 21:33:11.868351 26982 net.cpp:380] ip1_sc -> ip1_sc
I0629 21:33:11.868407 26982 layer_factory.hpp:77] Creating layer ip1_sc
I0629 21:33:11.868535 26982 net.cpp:122] Setting up ip1_sc
I0629 21:33:11.868544 26982 net.cpp:129] Top shape: 100 500 (50000)
I0629 21:33:11.868548 26982 net.cpp:137] Memory required for data: 25938000
I0629 21:33:11.868561 26982 layer_factory.hpp:77] Creating layer ip1_relu
I0629 21:33:11.868572 26982 net.cpp:84] Creating Layer ip1_relu
I0629 21:33:11.868580 26982 net.cpp:406] ip1_relu <- ip1_sc
I0629 21:33:11.868595 26982 net.cpp:380] ip1_relu -> ip1_relu
I0629 21:33:11.868625 26982 net.cpp:122] Setting up ip1_relu
I0629 21:33:11.868634 26982 net.cpp:129] Top shape: 100 500 (50000)
I0629 21:33:11.868638 26982 net.cpp:137] Memory required for data: 26138000
I0629 21:33:11.868643 26982 layer_factory.hpp:77] Creating layer ip2
I0629 21:33:11.868664 26982 net.cpp:84] Creating Layer ip2
I0629 21:33:11.868671 26982 net.cpp:406] ip2 <- ip1_relu
I0629 21:33:11.868690 26982 net.cpp:380] ip2 -> ip2
I0629 21:33:11.869518 26982 net.cpp:122] Setting up ip2
I0629 21:33:11.869531 26982 net.cpp:129] Top shape: 100 10 (1000)
I0629 21:33:11.869534 26982 net.cpp:137] Memory required for data: 26142000
I0629 21:33:11.869546 26982 layer_factory.hpp:77] Creating layer loss
I0629 21:33:11.869573 26982 net.cpp:84] Creating Layer loss
I0629 21:33:11.869582 26982 net.cpp:406] loss <- ip2
I0629 21:33:11.869594 26982 net.cpp:406] loss <- label
I0629 21:33:11.869609 26982 net.cpp:380] loss -> loss
I0629 21:33:11.869630 26982 layer_factory.hpp:77] Creating layer loss
…
I0629 21:33:11.870190 26982 solver.cpp:190] Creating test net (#0) specified by net file: my/BWN/GroupConvolution/Mnist/lenet_train_test_b.prototxt
I0629 21:33:11.870254 26982 net.cpp:294] The NetState phase (1) differed from the phase (0) specified by a rule in layer mnist
I0629 21:33:11.870368 26982 net.cpp:51] Initializing net from parameters: 
name: "LeNet"
state {
  phase: TEST
}
layer {
  name: "mnist"
  type: "Data"
  top: "data"
  top: "label"
  include {
    phase: TEST
  }
  transform_param {
    scale: 0.00390625
  }
  data_param {
    source: "examples/mnist/mnist_test_lmdb"
    batch_size: 100
    backend: LMDB
  }
}
layer {
  name: "conv1"
  type: "BinaryConvolution"
  bottom: "data"
  top: "conv1"
  param {
    lr_mult: 1
  }
  param {
    lr_mult: 2
  }
  convolution_param {
    num_output: 20
    kernel_size: 5
    stride: 1
    weight_filler {
      type: "xavier"
    }
    bias_filler {
      type: "constant"
    }
  }
  debug_param {
    xnorno_grad: true
  }
}
layer {
  name: "norm1"
  type: "BatchNorm"
  bottom: "conv1"
  top: "norm1"
}
layer {
  name: "bn1_scal"
  type: "Scale"
  bottom: "norm1"
  top: "conv1_sc"
  scale_param {
    bias_term: true
  }
}
layer {
  name: "relu1"
  type: "ReLU"
  bottom: "conv1_sc"
  top: "relu1"
}
layer {
  name: "pool1"
  type: "Pooling"
  bottom: "relu1"
  top: "pool1"
  pooling_param {
    pool: MAX
    kernel_size: 2
    stride: 2
  }
}
layer {
  name: "conv2"
  type: "BinaryConvolution"
  bottom: "pool1"
  top: "conv2"
  param {
    lr_mult: 1
  }
  param {
    lr_mult: 2
  }
  convolution_param {
    num_output: 50
    kernel_size: 5
    stride: 1
    weight_filler {
      type: "xavier"
    }
    bias_filler {
      type: "constant"
    }
  }
  debug_param {
    xnorno_grad: true
  }
}
layer {
  name: "norm2"
  type: "BatchNorm"
  bottom: "conv2"
  top: "norm2"
}
layer {
  name: "bn2_scal"
  type: "Scale"
  bottom: "norm2"
  top: "conv2_sc"
  scale_param {
    bias_term: true
  }
}
layer {
  name: "relu2"
  type: "ReLU"
  bottom: "conv2_sc"
  top: "relu2"
}
layer {
  name: "pool2"
  type: "Pooling"
  bottom: "relu2"
  top: "pool2"
  pooling_param {
    pool: MAX
    kernel_size: 2
    stride: 2
  }
}
layer {
  name: "ip1"
  type: "BinaryInnerProduct"
  bottom: "pool2"
  top: "ip1"
  param {
    lr_mult: 1
  }
  param {
    lr_mult: 2
  }
  inner_product_param {
    num_output: 500
    weight_filler {
      type: "xavier"
    }
    bias_filler {
      type: "constant"
    }
  }
  debug_param {
    xnorno_grad: true
  }
}
layer {
  name: "ip1_norm"
  type: "BatchNorm"
  bottom: "ip1"
  top: "ip1_norm"
}
layer {
  name: "ip1_sc"
  type: "Scale"
  bottom: "ip1_norm"
  top: "ip1_sc"
  scale_param {
    bias_term: true
  }
}
layer {
  name: "ip1_relu"
  type: "ReLU"
  bottom: "ip1_sc"
  top: "ip1_relu"
}
layer {
  name: "ip2"
  type: "BinaryInnerProduct"
  bottom: "ip1_relu"
  top: "ip2"
  param {
    lr_mult: 1
  }
  param {
    lr_mult: 2
  }
  inner_product_param {
    num_output: 10
    weight_filler {
      type: "xavier"
    }
    bias_filler {
      type: "constant"
    }
  }
  debug_param {
    xnorno_grad: true
  }
}
layer {
  name: "accuracy"
  type: "Accuracy"
  bottom: "ip2"
  bottom: "label"
  top: "accuracy"
  include {
    phase: TEST
  }
}
layer {
  name: "loss"
  type: "SoftmaxWithLoss"
  bottom: "ip2"
  bottom: "label"
  top: "loss"
}
I0629 21:33:11.870682 26982 layer_factory.hpp:77] Creating layer mnist
I0629 21:33:11.870777 26982 db_lmdb.cpp:35] Opened lmdb examples/mnist/mnist_test_lmdb
I0629 21:33:11.870807 26982 net.cpp:84] Creating Layer mnist
I0629 21:33:11.870821 26982 net.cpp:380] mnist -> data
I0629 21:33:11.870846 26982 net.cpp:380] mnist -> label
I0629 21:33:11.870954 26982 data_layer.cpp:45] output data size: 100,1,28,28
I0629 21:33:11.872069 26982 base_data_layer.cpp:72] Initializing prefetch
I0629 21:33:11.872117 26982 base_data_layer.cpp:75] Prefetch initialized.
I0629 21:33:11.872124 26982 net.cpp:122] Setting up mnist
I0629 21:33:11.872138 26982 net.cpp:129] Top shape: 100 1 28 28 (78400)
I0629 21:33:11.872146 26982 net.cpp:129] Top shape: 100 (100)
I0629 21:33:11.872149 26982 net.cpp:137] Memory required for data: 314000
I0629 21:33:11.872159 26982 layer_factory.hpp:77] Creating layer label_mnist_1_split
I0629 21:33:11.872180 26982 net.cpp:84] Creating Layer label_mnist_1_split
I0629 21:33:11.872189 26982 net.cpp:406] label_mnist_1_split <- label
I0629 21:33:11.872207 26982 net.cpp:380] label_mnist_1_split -> label_mnist_1_split_0
I0629 21:33:11.872228 26982 net.cpp:380] label_mnist_1_split -> label_mnist_1_split_1
I0629 21:33:11.872278 26982 net.cpp:122] Setting up label_mnist_1_split
I0629 21:33:11.872292 26982 net.cpp:129] Top shape: 100 (100)
I0629 21:33:11.872303 26982 net.cpp:129] Top shape: 100 (100)
I0629 21:33:11.872309 26982 net.cpp:137] Memory required for data: 314800
I0629 21:33:11.872319 26982 layer_factory.hpp:77] Creating layer conv1
I0629 21:33:11.872354 26982 net.cpp:84] Creating Layer conv1
I0629 21:33:11.872364 26982 net.cpp:406] conv1 <- data
I0629 21:33:11.872395 26982 net.cpp:380] conv1 -> conv1
I0629 21:33:11.872733 26982 net.cpp:122] Setting up conv1
I0629 21:33:11.872748 26982 net.cpp:129] Top shape: 100 20 24 24 (1152000)
I0629 21:33:11.872757 26982 net.cpp:137] Memory required for data: 4922800
I0629 21:33:11.872792 26982 layer_factory.hpp:77] Creating layer norm1
I0629 21:33:11.872812 26982 net.cpp:84] Creating Layer norm1
I0629 21:33:11.872823 26982 net.cpp:406] norm1 <- conv1
I0629 21:33:11.872859 26982 net.cpp:380] norm1 -> norm1
I0629 21:33:11.873147 26982 net.cpp:122] Setting up norm1
I0629 21:33:11.873162 26982 net.cpp:129] Top shape: 100 20 24 24 (1152000)
I0629 21:33:11.873172 26982 net.cpp:137] Memory required for data: 9530800
I0629 21:33:11.873208 26982 layer_factory.hpp:77] Creating layer bn1_scal
I0629 21:33:11.873234 26982 net.cpp:84] Creating Layer bn1_scal
I0629 21:33:11.873246 26982 net.cpp:406] bn1_scal <- norm1
I0629 21:33:11.873270 26982 net.cpp:380] bn1_scal -> conv1_sc
I0629 21:33:11.873335 26982 layer_factory.hpp:77] Creating layer bn1_scal
I0629 21:33:11.873487 26982 net.cpp:122] Setting up bn1_scal
I0629 21:33:11.873502 26982 net.cpp:129] Top shape: 100 20 24 24 (1152000)
I0629 21:33:11.873510 26982 net.cpp:137] Memory required for data: 14138800
I0629 21:33:11.873531 26982 layer_factory.hpp:77] Creating layer relu1
I0629 21:33:11.873550 26982 net.cpp:84] Creating Layer relu1
I0629 21:33:11.873562 26982 net.cpp:406] relu1 <- conv1_sc
I0629 21:33:11.873589 26982 net.cpp:380] relu1 -> relu1
I0629 21:33:11.873639 26982 net.cpp:122] Setting up relu1
I0629 21:33:11.873656 26982 net.cpp:129] Top shape: 100 20 24 24 (1152000)
I0629 21:33:11.873664 26982 net.cpp:137] Memory required for data: 18746800
I0629 21:33:11.873675 26982 layer_factory.hpp:77] Creating layer pool1
I0629 21:33:11.873697 26982 net.cpp:84] Creating Layer pool1
I0629 21:33:11.873708 26982 net.cpp:406] pool1 <- relu1
I0629 21:33:11.873731 26982 net.cpp:380] pool1 -> pool1
I0629 21:33:11.873790 26982 net.cpp:122] Setting up pool1
I0629 21:33:11.873809 26982 net.cpp:129] Top shape: 100 20 12 12 (288000)
I0629 21:33:11.873817 26982 net.cpp:137] Memory required for data: 19898800
I0629 21:33:11.873831 26982 layer_factory.hpp:77] Creating layer conv2
I0629 21:33:11.873854 26982 net.cpp:84] Creating Layer conv2
I0629 21:33:11.873867 26982 net.cpp:406] conv2 <- pool1
I0629 21:33:11.873893 26982 net.cpp:380] conv2 -> conv2
I0629 21:33:11.875300 26982 net.cpp:122] Setting up conv2
I0629 21:33:11.875315 26982 net.cpp:129] Top shape: 100 50 8 8 (320000)
I0629 21:33:11.875324 26982 net.cpp:137] Memory required for data: 21178800
I0629 21:33:11.875351 26982 layer_factory.hpp:77] Creating layer norm2
I0629 21:33:11.875376 26982 net.cpp:84] Creating Layer norm2
I0629 21:33:11.875387 26982 net.cpp:406] norm2 <- conv2
I0629 21:33:11.875411 26982 net.cpp:380] norm2 -> norm2
I0629 21:33:11.875614 26982 net.cpp:122] Setting up norm2
I0629 21:33:11.875628 26982 net.cpp:129] Top shape: 100 50 8 8 (320000)
I0629 21:33:11.875636 26982 net.cpp:137] Memory required for data: 22458800
I0629 21:33:11.875661 26982 layer_factory.hpp:77] Creating layer bn2_scal
I0629 21:33:11.875682 26982 net.cpp:84] Creating Layer bn2_scal
I0629 21:33:11.875694 26982 net.cpp:406] bn2_scal <- norm2
I0629 21:33:11.875715 26982 net.cpp:380] bn2_scal -> conv2_sc
I0629 21:33:11.875774 26982 layer_factory.hpp:77] Creating layer bn2_scal
I0629 21:33:11.875911 26982 net.cpp:122] Setting up bn2_scal
I0629 21:33:11.875924 26982 net.cpp:129] Top shape: 100 50 8 8 (320000)
I0629 21:33:11.875933 26982 net.cpp:137] Memory required for data: 23738800
I0629 21:33:11.875962 26982 layer_factory.hpp:77] Creating layer relu2
I0629 21:33:11.875988 26982 net.cpp:84] Creating Layer relu2
I0629 21:33:11.875998 26982 net.cpp:406] relu2 <- conv2_sc
I0629 21:33:11.876021 26982 net.cpp:380] relu2 -> relu2
I0629 21:33:11.876058 26982 net.cpp:122] Setting up relu2
I0629 21:33:11.876071 26982 net.cpp:129] Top shape: 100 50 8 8 (320000)
I0629 21:33:11.876080 26982 net.cpp:137] Memory required for data: 25018800
I0629 21:33:11.876091 26982 layer_factory.hpp:77] Creating layer pool2
I0629 21:33:11.876111 26982 net.cpp:84] Creating Layer pool2
I0629 21:33:11.876124 26982 net.cpp:406] pool2 <- relu2
I0629 21:33:11.876147 26982 net.cpp:380] pool2 -> pool2
I0629 21:33:11.876200 26982 net.cpp:122] Setting up pool2
I0629 21:33:11.876212 26982 net.cpp:129] Top shape: 100 50 4 4 (80000)
I0629 21:33:11.876221 26982 net.cpp:137] Memory required for data: 25338800
I0629 21:33:11.876231 26982 layer_factory.hpp:77] Creating layer ip1
I0629 21:33:11.876253 26982 net.cpp:84] Creating Layer ip1
I0629 21:33:11.876265 26982 net.cpp:406] ip1 <- pool2
I0629 21:33:11.876291 26982 net.cpp:380] ip1 -> ip1
I0629 21:33:11.893971 26982 net.cpp:122] Setting up ip1
I0629 21:33:11.893987 26982 net.cpp:129] Top shape: 100 500 (50000)
I0629 21:33:11.894002 26982 net.cpp:137] Memory required for data: 25538800
I0629 21:33:11.894032 26982 layer_factory.hpp:77] Creating layer ip1_norm
I0629 21:33:11.894058 26982 net.cpp:84] Creating Layer ip1_norm
I0629 21:33:11.894069 26982 net.cpp:406] ip1_norm <- ip1
I0629 21:33:11.894093 26982 net.cpp:380] ip1_norm -> ip1_norm
I0629 21:33:11.894285 26982 net.cpp:122] Setting up ip1_norm
I0629 21:33:11.894299 26982 net.cpp:129] Top shape: 100 500 (50000)
I0629 21:33:11.894307 26982 net.cpp:137] Memory required for data: 25738800
I0629 21:33:11.894341 26982 layer_factory.hpp:77] Creating layer ip1_sc
I0629 21:33:11.894362 26982 net.cpp:84] Creating Layer ip1_sc
I0629 21:33:11.894374 26982 net.cpp:406] ip1_sc <- ip1_norm
I0629 21:33:11.894404 26982 net.cpp:380] ip1_sc -> ip1_sc
I0629 21:33:11.894472 26982 layer_factory.hpp:77] Creating layer ip1_sc
I0629 21:33:11.894608 26982 net.cpp:122] Setting up ip1_sc
I0629 21:33:11.894621 26982 net.cpp:129] Top shape: 100 500 (50000)
I0629 21:33:11.894630 26982 net.cpp:137] Memory required for data: 25938800
I0629 21:33:11.894650 26982 layer_factory.hpp:77] Creating layer ip1_relu
I0629 21:33:11.894668 26982 net.cpp:84] Creating Layer ip1_relu
I0629 21:33:11.894680 26982 net.cpp:406] ip1_relu <- ip1_sc
I0629 21:33:11.894701 26982 net.cpp:380] ip1_relu -> ip1_relu
I0629 21:33:11.894755 26982 net.cpp:122] Setting up ip1_relu
I0629 21:33:11.894767 26982 net.cpp:129] Top shape: 100 500 (50000)
I0629 21:33:11.894775 26982 net.cpp:137] Memory required for data: 26138800
I0629 21:33:11.894785 26982 layer_factory.hpp:77] Creating layer ip2
I0629 21:33:11.894830 26982 net.cpp:84] Creating Layer ip2
I0629 21:33:11.894842 26982 net.cpp:406] ip2 <- ip1_relu
I0629 21:33:11.894867 26982 net.cpp:380] ip2 -> ip2
I0629 21:33:11.895308 26982 net.cpp:122] Setting up ip2
I0629 21:33:11.895320 26982 net.cpp:129] Top shape: 100 10 (1000)
I0629 21:33:11.895329 26982 net.cpp:137] Memory required for data: 26142800
I0629 21:33:11.895349 26982 layer_factory.hpp:77] Creating layer ip2_ip2_0_split
I0629 21:33:11.895383 26982 net.cpp:84] Creating Layer ip2_ip2_0_split
I0629 21:33:11.895393 26982 net.cpp:406] ip2_ip2_0_split <- ip2
I0629 21:33:11.895423 26982 net.cpp:380] ip2_ip2_0_split -> ip2_ip2_0_split_0
I0629 21:33:11.895465 26982 net.cpp:380] ip2_ip2_0_split -> ip2_ip2_0_split_1
I0629 21:33:11.895522 26982 net.cpp:122] Setting up ip2_ip2_0_split
I0629 21:33:11.895534 26982 net.cpp:129] Top shape: 100 10 (1000)
I0629 21:33:11.895545 26982 net.cpp:129] Top shape: 100 10 (1000)
I0629 21:33:11.895553 26982 net.cpp:137] Memory required for data: 26150800
I0629 21:33:11.895562 26982 layer_factory.hpp:77] Creating layer accuracy
I0629 21:33:11.895596 26982 net.cpp:84] Creating Layer accuracy
I0629 21:33:11.895607 26982 net.cpp:406] accuracy <- ip2_ip2_0_split_0
I0629 21:33:11.895627 26982 net.cpp:406] accuracy <- label_mnist_1_split_0
I0629 21:33:11.895649 26982 net.cpp:380] accuracy -> accuracy
…
