…
I0713 09:38:27.711779 22135 net.cpp:294] The NetState phase (0) differed from the phase (1) specified by a rule in layer accuracy
I0713 09:38:27.711979 22135 net.cpp:51] Initializing net from parameters: 
name: "CIFAR10_vgg"
state {
  phase: TRAIN
  level: 0
  stage: ""
}
layer {
  name: "cifar"
  type: "Data"
  top: "data"
  top: "label"
  include {
    phase: TRAIN
  }
  transform_param {
    mirror: true
    crop_size: 32
    mean_file: "examples/cifar10/mean.binaryproto"
  }
  data_param {
    source: "examples/cifar10/cifar10_train_lmdb"
    batch_size: 100
    backend: LMDB
  }
}
layer {
  name: "conv1"
  type: "BinaryConvolution"
  bottom: "data"
  top: "conv1"
  param {
    lr_mult: 1
    decay_mult: 1
  }
  convolution_param {
    num_output: 64
    bias_term: false
    pad: 1
    kernel_size: 3
    stride: 1
    weight_filler {
      type: "gaussian"
      std: 0.01
    }
  }
  debug_param {
    xnorno_grad: false
  }
}
layer {
  name: "bn1_bn"
  type: "BatchNorm"
  bottom: "conv1"
  top: "conv1_bn"
}
layer {
  name: "bn1_scal"
  type: "Scale"
  bottom: "conv1_bn"
  top: "conv1_sc"
  scale_param {
    bias_term: true
  }
}
layer {
  name: "relu1"
  type: "ReLU"
  bottom: "conv1_sc"
  top: "conv1_sc"
}
layer {
  name: "conv2"
  type: "BinaryConvolution"
  bottom: "conv1_sc"
  top: "conv2"
  param {
    lr_mult: 1
    decay_mult: 1
  }
  convolution_param {
    num_output: 64
    bias_term: false
    pad: 1
    kernel_size: 3
    stride: 1
    weight_filler {
      type: "gaussian"
      std: 0.01
    }
  }
  debug_param {
    xnorno_grad: false
  }
}
layer {
  name: "bn2_bn"
  type: "BatchNorm"
  bottom: "conv2"
  top: "conv2_bn"
}
layer {
  name: "bn2_scal"
  type: "Scale"
  bottom: "conv2_bn"
  top: "conv2_sc"
  scale_param {
    bias_term: true
  }
}
layer {
  name: "relu2"
  type: "ReLU"
  bottom: "conv2_sc"
  top: "conv2_sc"
}
layer {
  name: "pool1"
  type: "Pooling"
  bottom: "conv2_sc"
  top: "pool1"
  pooling_param {
    pool: MAX
    kernel_size: 2
    stride: 2
  }
}
layer {
  name: "drop1"
  type: "Dropout"
  bottom: "pool1"
  top: "pool1"
  dropout_param {
    dropout_ratio: 0.25
  }
}
layer {
  name: "conv3"
  type: "BinaryConvolution"
  bottom: "pool1"
  top: "conv3"
  param {
    lr_mult: 1
    decay_mult: 1
  }
  convolution_param {
    num_output: 128
    bias_term: false
    pad: 1
    kernel_size: 3
    stride: 1
    weight_filler {
      type: "gaussian"
      std: 0.01
    }
  }
  debug_param {
    xnorno_grad: false
  }
}
layer {
  name: "bn3_bn"
  type: "BatchNorm"
  bottom: "conv3"
  top: "conv3_bn"
}
layer {
  name: "bn3_scal"
  type: "Scale"
  bottom: "conv3_bn"
  top: "conv3_sc"
  scale_param {
    bias_term: true
  }
}
layer {
  name: "relu3"
  type: "ReLU"
  bottom: "conv3_sc"
  top: "conv3_sc"
}
layer {
  name: "conv4"
  type: "BinaryConvolution"
  bottom: "conv3_sc"
  top: "conv4"
  param {
    lr_mult: 1
    decay_mult: 1
  }
  convolution_param {
    num_output: 128
    bias_term: false
    pad: 1
    kernel_size: 3
    stride: 1
    weight_filler {
      type: "gaussian"
      std: 0.01
    }
  }
  debug_param {
    xnorno_grad: false
  }
}
layer {
  name: "bn4_bn"
  type: "BatchNorm"
  bottom: "conv4"
  top: "conv4_bn"
}
layer {
  name: "bn4_scal"
  type: "Scale"
  bottom: "conv4_bn"
  top: "conv4_sc"
  scale_param {
    bias_term: true
  }
}
layer {
  name: "relu4"
  type: "ReLU"
  bottom: "conv4_sc"
  top: "conv4_sc"
}
layer {
  name: "pool2"
  type: "Pooling"
  bottom: "conv4_sc"
  top: "pool2"
  pooling_param {
    pool: MAX
    kernel_size: 2
    stride: 2
  }
}
layer {
  name: "drop2"
  type: "Dropout"
  bottom: "pool2"
  top: "pool2"
  dropout_param {
    dropout_ratio: 0.25
  }
}
layer {
  name: "conv5"
  type: "BinaryConvolution"
  bottom: "pool2"
  top: "conv5"
  param {
    lr_mult: 1
    decay_mult: 1
  }
  convolution_param {
    num_output: 256
    bias_term: false
    pad: 1
    kernel_size: 3
    stride: 1
    weight_filler {
      type: "gaussian"
      std: 0.01
    }
  }
  debug_param {
    xnorno_grad: false
  }
}
layer {
  name: "bn5_bn"
  type: "BatchNorm"
  bottom: "conv5"
  top: "conv5_bn"
}
layer {
  name: "bn5_scal"
  type: "Scale"
  bottom: "conv5_bn"
  top: "conv5_sc"
  scale_param {
    bias_term: true
  }
}
layer {
  name: "relu5"
  type: "ReLU"
  bottom: "conv5_sc"
  top: "conv5_sc"
}
layer {
  name: "conv6"
  type: "BinaryConvolution"
  bottom: "conv5_sc"
  top: "conv6"
  param {
    lr_mult: 1
    decay_mult: 1
  }
  convolution_param {
    num_output: 256
    bias_term: false
    pad: 1
    kernel_size: 3
    stride: 1
    weight_filler {
      type: "gaussian"
      std: 0.01
    }
  }
  debug_param {
    xnorno_grad: false
  }
}
layer {
  name: "bn6_bn"
  type: "BatchNorm"
  bottom: "conv6"
  top: "conv6_bn"
}
layer {
  name: "bn6_scal"
  type: "Scale"
  bottom: "conv6_bn"
  top: "conv6_sc"
  scale_param {
    bias_term: true
  }
}
layer {
  name: "relu6"
  type: "ReLU"
  bottom: "conv6_sc"
  top: "conv6_sc"
}
layer {
  name: "pool3"
  type: "Pooling"
  bottom: "conv6_sc"
  top: "pool3"
  pooling_param {
    pool: MAX
    kernel_size: 2
    stride: 2
  }
}
layer {
  name: "drop3"
  type: "Dropout"
  bottom: "pool3"
  top: "pool3"
  dropout_param {
    dropout_ratio: 0.25
  }
}
layer {
  name: "fc7"
  type: "BinaryInnerProduct"
  bottom: "pool3"
  top: "fc7"
  param {
    lr_mult: 1
    decay_mult: 1
  }
  inner_product_param {
    num_output: 512
    bias_term: false
    weight_filler {
      type: "gaussian"
      std: 0.01
    }
  }
  debug_param {
    xnorno_grad: false
  }
}
layer {
  name: "bn7_bn"
  type: "BatchNorm"
  bottom: "fc7"
  top: "fc7_bn"
}
layer {
  name: "bn7_scal"
  type: "Scale"
  bottom: "fc7_bn"
  top: "fc7_sc"
  scale_param {
    bias_term: true
  }
}
layer {
  name: "relu7"
  type: "ReLU"
  bottom: "fc7_sc"
  top: "fc7_sc"
}
layer {
  name: "drop7"
  type: "Dropout"
  bottom: "fc7_sc"
  top: "fc7_sc"
  dropout_param {
    dropout_ratio: 0.5
  }
}
layer {
  name: "fc8"
  type: "BinaryInnerProduct"
  bottom: "fc7_sc"
  top: "fc8"
  param {
    lr_mult: 1
    decay_mult: 1
  }
  inner_product_param {
    num_output: 512
    bias_term: false
    weight_filler {
      type: "gaussian"
      std: 0.01
    }
  }
  debug_param {
    xnorno_grad: false
  }
}
layer {
  name: "bn8_bn"
  type: "BatchNorm"
  bottom: "fc8"
  top: "fc8_bn"
}
layer {
  name: "bn8_scal"
  type: "Scale"
  bottom: "fc8_bn"
  top: "fc8_sc"
  scale_param {
    bias_term: true
  }
}
layer {
  name: "relu8"
  type: "ReLU"
  bottom: "fc8_sc"
  top: "fc8_sc"
}
layer {
  name: "drop8"
  type: "Dropout"
  bottom: "fc8_sc"
  top: "fc8_sc"
  dropout_param {
    dropout_ratio: 0.5
  }
}
layer {
  name: "fc9"
  type: "BinaryInnerProduct"
  bottom: "fc8_sc"
  top: "fc9"
  param {
    lr_mult: 1
    decay_mult: 1
  }
  param {
    lr_mult: 2
    decay_mult: 0
  }
  inner_product_param {
    num_output: 10
    weight_filler {
      type: "gaussian"
      std: 0.01
    }
    bias_filler {
      type: "constant"
      value: 0.01
    }
  }
  debug_param {
    xnorno_grad: false
  }
}
layer {
  name: "loss"
  type: "SoftmaxWithLoss"
  bottom: "fc9"
  bottom: "label"
  top: "loss"
}
I0713 09:38:27.712631 22135 layer_factory.hpp:77] Creating layer cifar
I0713 09:38:27.712810 22135 db_lmdb.cpp:35] Opened lmdb examples/cifar10/cifar10_train_lmdb
I0713 09:38:27.712859 22135 net.cpp:84] Creating Layer cifar
I0713 09:38:27.712883 22135 net.cpp:380] cifar -> data
I0713 09:38:27.712990 22135 net.cpp:380] cifar -> label
I0713 09:38:27.713028 22135 data_transformer.cpp:25] Loading mean file from: examples/cifar10/mean.binaryproto
I0713 09:38:27.714218 22135 data_layer.cpp:45] output data size: 100,3,32,32
I0713 09:38:27.716910 22135 base_data_layer.cpp:72] Initializing prefetch
I0713 09:38:27.717017 22135 base_data_layer.cpp:75] Prefetch initialized.
I0713 09:38:27.717027 22135 net.cpp:122] Setting up cifar
I0713 09:38:27.717052 22135 net.cpp:129] Top shape: 100 3 32 32 (307200)
I0713 09:38:27.717061 22135 net.cpp:129] Top shape: 100 (100)
I0713 09:38:27.717064 22135 net.cpp:137] Memory required for data: 1229200
I0713 09:38:27.717084 22135 layer_factory.hpp:77] Creating layer conv1
I0713 09:38:27.717134 22135 net.cpp:84] Creating Layer conv1
I0713 09:38:27.717155 22135 net.cpp:406] conv1 <- data
I0713 09:38:27.717205 22135 net.cpp:380] conv1 -> conv1
I0713 09:38:27.717882 22135 net.cpp:122] Setting up conv1
I0713 09:38:27.717911 22135 net.cpp:129] Top shape: 100 64 32 32 (6553600)
I0713 09:38:27.717916 22135 net.cpp:137] Memory required for data: 27443600
I0713 09:38:27.717973 22135 layer_factory.hpp:77] Creating layer bn1_bn
I0713 09:38:27.718005 22135 net.cpp:84] Creating Layer bn1_bn
I0713 09:38:27.718025 22135 net.cpp:406] bn1_bn <- conv1
I0713 09:38:27.718041 22135 net.cpp:380] bn1_bn -> conv1_bn
I0713 09:38:27.718730 22135 net.cpp:122] Setting up bn1_bn
I0713 09:38:27.718750 22135 net.cpp:129] Top shape: 100 64 32 32 (6553600)
I0713 09:38:27.718756 22135 net.cpp:137] Memory required for data: 53658000
I0713 09:38:27.718792 22135 layer_factory.hpp:77] Creating layer bn1_scal
I0713 09:38:27.718816 22135 net.cpp:84] Creating Layer bn1_scal
I0713 09:38:27.718824 22135 net.cpp:406] bn1_scal <- conv1_bn
I0713 09:38:27.718849 22135 net.cpp:380] bn1_scal -> conv1_sc
I0713 09:38:27.718922 22135 layer_factory.hpp:77] Creating layer bn1_scal
I0713 09:38:27.719075 22135 net.cpp:122] Setting up bn1_scal
I0713 09:38:27.719087 22135 net.cpp:129] Top shape: 100 64 32 32 (6553600)
I0713 09:38:27.719092 22135 net.cpp:137] Memory required for data: 79872400
I0713 09:38:27.719112 22135 layer_factory.hpp:77] Creating layer relu1
I0713 09:38:27.719133 22135 net.cpp:84] Creating Layer relu1
I0713 09:38:27.719142 22135 net.cpp:406] relu1 <- conv1_sc
I0713 09:38:27.719159 22135 net.cpp:367] relu1 -> conv1_sc (in-place)
I0713 09:38:27.719177 22135 net.cpp:122] Setting up relu1
I0713 09:38:27.719183 22135 net.cpp:129] Top shape: 100 64 32 32 (6553600)
I0713 09:38:27.719187 22135 net.cpp:137] Memory required for data: 106086800
I0713 09:38:27.719194 22135 layer_factory.hpp:77] Creating layer conv2
I0713 09:38:27.719215 22135 net.cpp:84] Creating Layer conv2
I0713 09:38:27.719223 22135 net.cpp:406] conv2 <- conv1_sc
I0713 09:38:27.719243 22135 net.cpp:380] conv2 -> conv2
I0713 09:38:27.724310 22135 net.cpp:122] Setting up conv2
I0713 09:38:27.724340 22135 net.cpp:129] Top shape: 100 64 32 32 (6553600)
I0713 09:38:27.724345 22135 net.cpp:137] Memory required for data: 132301200
I0713 09:38:27.724359 22135 layer_factory.hpp:77] Creating layer bn2_bn
I0713 09:38:27.724377 22135 net.cpp:84] Creating Layer bn2_bn
I0713 09:38:27.724388 22135 net.cpp:406] bn2_bn <- conv2
I0713 09:38:27.724407 22135 net.cpp:380] bn2_bn -> conv2_bn
I0713 09:38:27.724599 22135 net.cpp:122] Setting up bn2_bn
I0713 09:38:27.724622 22135 net.cpp:129] Top shape: 100 64 32 32 (6553600)
I0713 09:38:27.724625 22135 net.cpp:137] Memory required for data: 158515600
I0713 09:38:27.724653 22135 layer_factory.hpp:77] Creating layer bn2_scal
I0713 09:38:27.724690 22135 net.cpp:84] Creating Layer bn2_scal
I0713 09:38:27.724699 22135 net.cpp:406] bn2_scal <- conv2_bn
I0713 09:38:27.724715 22135 net.cpp:380] bn2_scal -> conv2_sc
I0713 09:38:27.724783 22135 layer_factory.hpp:77] Creating layer bn2_scal
I0713 09:38:27.724936 22135 net.cpp:122] Setting up bn2_scal
I0713 09:38:27.724956 22135 net.cpp:129] Top shape: 100 64 32 32 (6553600)
I0713 09:38:27.724961 22135 net.cpp:137] Memory required for data: 184730000
I0713 09:38:27.724972 22135 layer_factory.hpp:77] Creating layer relu2
I0713 09:38:27.725004 22135 net.cpp:84] Creating Layer relu2
I0713 09:38:27.725014 22135 net.cpp:406] relu2 <- conv2_sc
I0713 09:38:27.725030 22135 net.cpp:367] relu2 -> conv2_sc (in-place)
I0713 09:38:27.725052 22135 net.cpp:122] Setting up relu2
I0713 09:38:27.725066 22135 net.cpp:129] Top shape: 100 64 32 32 (6553600)
I0713 09:38:27.725075 22135 net.cpp:137] Memory required for data: 210944400
I0713 09:38:27.725086 22135 layer_factory.hpp:77] Creating layer pool1
I0713 09:38:27.725116 22135 net.cpp:84] Creating Layer pool1
I0713 09:38:27.725127 22135 net.cpp:406] pool1 <- conv2_sc
I0713 09:38:27.725157 22135 net.cpp:380] pool1 -> pool1
I0713 09:38:27.725229 22135 net.cpp:122] Setting up pool1
I0713 09:38:27.725244 22135 net.cpp:129] Top shape: 100 64 16 16 (1638400)
I0713 09:38:27.725252 22135 net.cpp:137] Memory required for data: 217498000
I0713 09:38:27.725263 22135 layer_factory.hpp:77] Creating layer drop1
I0713 09:38:27.725288 22135 net.cpp:84] Creating Layer drop1
I0713 09:38:27.725299 22135 net.cpp:406] drop1 <- pool1
I0713 09:38:27.725324 22135 net.cpp:367] drop1 -> pool1 (in-place)
I0713 09:38:27.725366 22135 net.cpp:122] Setting up drop1
I0713 09:38:27.725378 22135 net.cpp:129] Top shape: 100 64 16 16 (1638400)
I0713 09:38:27.725387 22135 net.cpp:137] Memory required for data: 224051600
I0713 09:38:27.725399 22135 layer_factory.hpp:77] Creating layer conv3
I0713 09:38:27.725425 22135 net.cpp:84] Creating Layer conv3
I0713 09:38:27.725435 22135 net.cpp:406] conv3 <- pool1
I0713 09:38:27.725464 22135 net.cpp:380] conv3 -> conv3
I0713 09:38:27.734963 22135 net.cpp:122] Setting up conv3
I0713 09:38:27.734983 22135 net.cpp:129] Top shape: 100 128 16 16 (3276800)
I0713 09:38:27.734990 22135 net.cpp:137] Memory required for data: 237158800
I0713 09:38:27.735008 22135 layer_factory.hpp:77] Creating layer bn3_bn
I0713 09:38:27.735030 22135 net.cpp:84] Creating Layer bn3_bn
I0713 09:38:27.735043 22135 net.cpp:406] bn3_bn <- conv3
I0713 09:38:27.735066 22135 net.cpp:380] bn3_bn -> conv3_bn
I0713 09:38:27.735247 22135 net.cpp:122] Setting up bn3_bn
I0713 09:38:27.735261 22135 net.cpp:129] Top shape: 100 128 16 16 (3276800)
I0713 09:38:27.735270 22135 net.cpp:137] Memory required for data: 250266000
I0713 09:38:27.735294 22135 layer_factory.hpp:77] Creating layer bn3_scal
I0713 09:38:27.735316 22135 net.cpp:84] Creating Layer bn3_scal
I0713 09:38:27.735327 22135 net.cpp:406] bn3_scal <- conv3_bn
I0713 09:38:27.735349 22135 net.cpp:380] bn3_scal -> conv3_sc
I0713 09:38:27.735415 22135 layer_factory.hpp:77] Creating layer bn3_scal
I0713 09:38:27.735543 22135 net.cpp:122] Setting up bn3_scal
I0713 09:38:27.735558 22135 net.cpp:129] Top shape: 100 128 16 16 (3276800)
I0713 09:38:27.735566 22135 net.cpp:137] Memory required for data: 263373200
I0713 09:38:27.735599 22135 layer_factory.hpp:77] Creating layer relu3
I0713 09:38:27.735616 22135 net.cpp:84] Creating Layer relu3
I0713 09:38:27.735627 22135 net.cpp:406] relu3 <- conv3_sc
I0713 09:38:27.735648 22135 net.cpp:367] relu3 -> conv3_sc (in-place)
I0713 09:38:27.735669 22135 net.cpp:122] Setting up relu3
I0713 09:38:27.735679 22135 net.cpp:129] Top shape: 100 128 16 16 (3276800)
I0713 09:38:27.735688 22135 net.cpp:137] Memory required for data: 276480400
I0713 09:38:27.735698 22135 layer_factory.hpp:77] Creating layer conv4
I0713 09:38:27.735733 22135 net.cpp:84] Creating Layer conv4
I0713 09:38:27.735745 22135 net.cpp:406] conv4 <- conv3_sc
I0713 09:38:27.735774 22135 net.cpp:380] conv4 -> conv4
I0713 09:38:27.753568 22135 net.cpp:122] Setting up conv4
I0713 09:38:27.753588 22135 net.cpp:129] Top shape: 100 128 16 16 (3276800)
I0713 09:38:27.753597 22135 net.cpp:137] Memory required for data: 289587600
I0713 09:38:27.753623 22135 layer_factory.hpp:77] Creating layer bn4_bn
I0713 09:38:27.753669 22135 net.cpp:84] Creating Layer bn4_bn
I0713 09:38:27.753690 22135 net.cpp:406] bn4_bn <- conv4
I0713 09:38:27.753749 22135 net.cpp:380] bn4_bn -> conv4_bn
I0713 09:38:27.753963 22135 net.cpp:122] Setting up bn4_bn
I0713 09:38:27.753976 22135 net.cpp:129] Top shape: 100 128 16 16 (3276800)
I0713 09:38:27.753993 22135 net.cpp:137] Memory required for data: 302694800
I0713 09:38:27.754037 22135 layer_factory.hpp:77] Creating layer bn4_scal
I0713 09:38:27.754065 22135 net.cpp:84] Creating Layer bn4_scal
I0713 09:38:27.754076 22135 net.cpp:406] bn4_scal <- conv4_bn
I0713 09:38:27.754115 22135 net.cpp:380] bn4_scal -> conv4_sc
I0713 09:38:27.754187 22135 layer_factory.hpp:77] Creating layer bn4_scal
I0713 09:38:27.754343 22135 net.cpp:122] Setting up bn4_scal
I0713 09:38:27.754357 22135 net.cpp:129] Top shape: 100 128 16 16 (3276800)
I0713 09:38:27.754366 22135 net.cpp:137] Memory required for data: 315802000
I0713 09:38:27.754385 22135 layer_factory.hpp:77] Creating layer relu4
I0713 09:38:27.754402 22135 net.cpp:84] Creating Layer relu4
I0713 09:38:27.754413 22135 net.cpp:406] relu4 <- conv4_sc
I0713 09:38:27.754436 22135 net.cpp:367] relu4 -> conv4_sc (in-place)
I0713 09:38:27.754457 22135 net.cpp:122] Setting up relu4
I0713 09:38:27.754468 22135 net.cpp:129] Top shape: 100 128 16 16 (3276800)
I0713 09:38:27.754477 22135 net.cpp:137] Memory required for data: 328909200
I0713 09:38:27.754487 22135 layer_factory.hpp:77] Creating layer pool2
I0713 09:38:27.754508 22135 net.cpp:84] Creating Layer pool2
I0713 09:38:27.754518 22135 net.cpp:406] pool2 <- conv4_sc
I0713 09:38:27.754542 22135 net.cpp:380] pool2 -> pool2
I0713 09:38:27.754595 22135 net.cpp:122] Setting up pool2
I0713 09:38:27.754609 22135 net.cpp:129] Top shape: 100 128 8 8 (819200)
I0713 09:38:27.754617 22135 net.cpp:137] Memory required for data: 332186000
I0713 09:38:27.754628 22135 layer_factory.hpp:77] Creating layer drop2
I0713 09:38:27.754647 22135 net.cpp:84] Creating Layer drop2
I0713 09:38:27.754658 22135 net.cpp:406] drop2 <- pool2
I0713 09:38:27.754683 22135 net.cpp:367] drop2 -> pool2 (in-place)
I0713 09:38:27.754719 22135 net.cpp:122] Setting up drop2
I0713 09:38:27.754730 22135 net.cpp:129] Top shape: 100 128 8 8 (819200)
I0713 09:38:27.754739 22135 net.cpp:137] Memory required for data: 335462800
I0713 09:38:27.754748 22135 layer_factory.hpp:77] Creating layer conv5
I0713 09:38:27.754775 22135 net.cpp:84] Creating Layer conv5
I0713 09:38:27.754786 22135 net.cpp:406] conv5 <- pool2
I0713 09:38:27.754812 22135 net.cpp:380] conv5 -> conv5
I0713 09:38:27.789978 22135 net.cpp:122] Setting up conv5
I0713 09:38:27.790004 22135 net.cpp:129] Top shape: 100 256 8 8 (1638400)
I0713 09:38:27.790011 22135 net.cpp:137] Memory required for data: 342016400
I0713 09:38:27.790032 22135 layer_factory.hpp:77] Creating layer bn5_bn
I0713 09:38:27.790055 22135 net.cpp:84] Creating Layer bn5_bn
I0713 09:38:27.790067 22135 net.cpp:406] bn5_bn <- conv5
I0713 09:38:27.790092 22135 net.cpp:380] bn5_bn -> conv5_bn
I0713 09:38:27.790274 22135 net.cpp:122] Setting up bn5_bn
I0713 09:38:27.790288 22135 net.cpp:129] Top shape: 100 256 8 8 (1638400)
I0713 09:38:27.790297 22135 net.cpp:137] Memory required for data: 348570000
I0713 09:38:27.790321 22135 layer_factory.hpp:77] Creating layer bn5_scal
I0713 09:38:27.790343 22135 net.cpp:84] Creating Layer bn5_scal
I0713 09:38:27.790354 22135 net.cpp:406] bn5_scal <- conv5_bn
I0713 09:38:27.790376 22135 net.cpp:380] bn5_scal -> conv5_sc
I0713 09:38:27.790439 22135 layer_factory.hpp:77] Creating layer bn5_scal
I0713 09:38:27.790566 22135 net.cpp:122] Setting up bn5_scal
I0713 09:38:27.790580 22135 net.cpp:129] Top shape: 100 256 8 8 (1638400)
I0713 09:38:27.790588 22135 net.cpp:137] Memory required for data: 355123600
I0713 09:38:27.790607 22135 layer_factory.hpp:77] Creating layer relu5
I0713 09:38:27.790624 22135 net.cpp:84] Creating Layer relu5
I0713 09:38:27.790635 22135 net.cpp:406] relu5 <- conv5_sc
I0713 09:38:27.790657 22135 net.cpp:367] relu5 -> conv5_sc (in-place)
I0713 09:38:27.790678 22135 net.cpp:122] Setting up relu5
I0713 09:38:27.790688 22135 net.cpp:129] Top shape: 100 256 8 8 (1638400)
I0713 09:38:27.790695 22135 net.cpp:137] Memory required for data: 361677200
I0713 09:38:27.790705 22135 layer_factory.hpp:77] Creating layer conv6
I0713 09:38:27.790732 22135 net.cpp:84] Creating Layer conv6
I0713 09:38:27.790752 22135 net.cpp:406] conv6 <- conv5_sc
I0713 09:38:27.790778 22135 net.cpp:380] conv6 -> conv6
I0713 09:38:27.859685 22135 net.cpp:122] Setting up conv6
I0713 09:38:27.859715 22135 net.cpp:129] Top shape: 100 256 8 8 (1638400)
I0713 09:38:27.859722 22135 net.cpp:137] Memory required for data: 368230800
I0713 09:38:27.859746 22135 layer_factory.hpp:77] Creating layer bn6_bn
I0713 09:38:27.859773 22135 net.cpp:84] Creating Layer bn6_bn
I0713 09:38:27.859787 22135 net.cpp:406] bn6_bn <- conv6
I0713 09:38:27.859815 22135 net.cpp:380] bn6_bn -> conv6_bn
I0713 09:38:27.860004 22135 net.cpp:122] Setting up bn6_bn
I0713 09:38:27.860018 22135 net.cpp:129] Top shape: 100 256 8 8 (1638400)
I0713 09:38:27.860026 22135 net.cpp:137] Memory required for data: 374784400
I0713 09:38:27.860091 22135 layer_factory.hpp:77] Creating layer bn6_scal
I0713 09:38:27.860122 22135 net.cpp:84] Creating Layer bn6_scal
I0713 09:38:27.860134 22135 net.cpp:406] bn6_scal <- conv6_bn
I0713 09:38:27.860180 22135 net.cpp:380] bn6_scal -> conv6_sc
I0713 09:38:27.860293 22135 layer_factory.hpp:77] Creating layer bn6_scal
I0713 09:38:27.860443 22135 net.cpp:122] Setting up bn6_scal
I0713 09:38:27.860457 22135 net.cpp:129] Top shape: 100 256 8 8 (1638400)
I0713 09:38:27.860466 22135 net.cpp:137] Memory required for data: 381338000
I0713 09:38:27.860494 22135 layer_factory.hpp:77] Creating layer relu6
I0713 09:38:27.860528 22135 net.cpp:84] Creating Layer relu6
I0713 09:38:27.860540 22135 net.cpp:406] relu6 <- conv6_sc
I0713 09:38:27.860563 22135 net.cpp:367] relu6 -> conv6_sc (in-place)
I0713 09:38:27.860584 22135 net.cpp:122] Setting up relu6
I0713 09:38:27.860594 22135 net.cpp:129] Top shape: 100 256 8 8 (1638400)
I0713 09:38:27.860604 22135 net.cpp:137] Memory required for data: 387891600
I0713 09:38:27.860613 22135 layer_factory.hpp:77] Creating layer pool3
I0713 09:38:27.860635 22135 net.cpp:84] Creating Layer pool3
I0713 09:38:27.860644 22135 net.cpp:406] pool3 <- conv6_sc
I0713 09:38:27.860666 22135 net.cpp:380] pool3 -> pool3
I0713 09:38:27.860723 22135 net.cpp:122] Setting up pool3
I0713 09:38:27.860738 22135 net.cpp:129] Top shape: 100 256 4 4 (409600)
I0713 09:38:27.860744 22135 net.cpp:137] Memory required for data: 389530000
I0713 09:38:27.860755 22135 layer_factory.hpp:77] Creating layer drop3
I0713 09:38:27.860774 22135 net.cpp:84] Creating Layer drop3
I0713 09:38:27.860785 22135 net.cpp:406] drop3 <- pool3
I0713 09:38:27.860807 22135 net.cpp:367] drop3 -> pool3 (in-place)
I0713 09:38:27.860844 22135 net.cpp:122] Setting up drop3
I0713 09:38:27.860857 22135 net.cpp:129] Top shape: 100 256 4 4 (409600)
I0713 09:38:27.860863 22135 net.cpp:137] Memory required for data: 391168400
I0713 09:38:27.860874 22135 layer_factory.hpp:77] Creating layer fc7
I0713 09:38:27.860906 22135 net.cpp:84] Creating Layer fc7
I0713 09:38:27.860918 22135 net.cpp:406] fc7 <- pool3
I0713 09:38:27.860944 22135 net.cpp:380] fc7 -> fc7
I0713 09:38:28.104676 22135 net.cpp:122] Setting up fc7
I0713 09:38:28.104718 22135 net.cpp:129] Top shape: 100 512 (51200)
I0713 09:38:28.104725 22135 net.cpp:137] Memory required for data: 391373200
I0713 09:38:28.104754 22135 layer_factory.hpp:77] Creating layer bn7_bn
I0713 09:38:28.104800 22135 net.cpp:84] Creating Layer bn7_bn
I0713 09:38:28.104818 22135 net.cpp:406] bn7_bn <- fc7
I0713 09:38:28.104849 22135 net.cpp:380] bn7_bn -> fc7_bn
I0713 09:38:28.105042 22135 net.cpp:122] Setting up bn7_bn
I0713 09:38:28.105056 22135 net.cpp:129] Top shape: 100 512 (51200)
I0713 09:38:28.105063 22135 net.cpp:137] Memory required for data: 391578000
I0713 09:38:28.105087 22135 layer_factory.hpp:77] Creating layer bn7_scal
I0713 09:38:28.105109 22135 net.cpp:84] Creating Layer bn7_scal
I0713 09:38:28.105119 22135 net.cpp:406] bn7_scal <- fc7_bn
I0713 09:38:28.105144 22135 net.cpp:380] bn7_scal -> fc7_sc
I0713 09:38:28.105213 22135 layer_factory.hpp:77] Creating layer bn7_scal
I0713 09:38:28.105358 22135 net.cpp:122] Setting up bn7_scal
I0713 09:38:28.105372 22135 net.cpp:129] Top shape: 100 512 (51200)
I0713 09:38:28.105389 22135 net.cpp:137] Memory required for data: 391782800
I0713 09:38:28.105410 22135 layer_factory.hpp:77] Creating layer relu7
I0713 09:38:28.105428 22135 net.cpp:84] Creating Layer relu7
I0713 09:38:28.105438 22135 net.cpp:406] relu7 <- fc7_sc
I0713 09:38:28.105459 22135 net.cpp:367] relu7 -> fc7_sc (in-place)
I0713 09:38:28.105479 22135 net.cpp:122] Setting up relu7
I0713 09:38:28.105489 22135 net.cpp:129] Top shape: 100 512 (51200)
I0713 09:38:28.105496 22135 net.cpp:137] Memory required for data: 391987600
I0713 09:38:28.105505 22135 layer_factory.hpp:77] Creating layer drop7
I0713 09:38:28.105526 22135 net.cpp:84] Creating Layer drop7
I0713 09:38:28.105537 22135 net.cpp:406] drop7 <- fc7_sc
I0713 09:38:28.105558 22135 net.cpp:367] drop7 -> fc7_sc (in-place)
I0713 09:38:28.105597 22135 net.cpp:122] Setting up drop7
I0713 09:38:28.105607 22135 net.cpp:129] Top shape: 100 512 (51200)
I0713 09:38:28.105614 22135 net.cpp:137] Memory required for data: 392192400
I0713 09:38:28.105624 22135 layer_factory.hpp:77] Creating layer fc8
I0713 09:38:28.105669 22135 net.cpp:84] Creating Layer fc8
I0713 09:38:28.105679 22135 net.cpp:406] fc8 <- fc7_sc
I0713 09:38:28.105723 22135 net.cpp:380] fc8 -> fc8
I0713 09:38:28.136754 22135 net.cpp:122] Setting up fc8
I0713 09:38:28.136786 22135 net.cpp:129] Top shape: 100 512 (51200)
I0713 09:38:28.136795 22135 net.cpp:137] Memory required for data: 392397200
I0713 09:38:28.136826 22135 layer_factory.hpp:77] Creating layer bn8_bn
I0713 09:38:28.136868 22135 net.cpp:84] Creating Layer bn8_bn
I0713 09:38:28.136883 22135 net.cpp:406] bn8_bn <- fc8
I0713 09:38:28.136926 22135 net.cpp:380] bn8_bn -> fc8_bn
I0713 09:38:28.137156 22135 net.cpp:122] Setting up bn8_bn
I0713 09:38:28.137169 22135 net.cpp:129] Top shape: 100 512 (51200)
I0713 09:38:28.137177 22135 net.cpp:137] Memory required for data: 392602000
I0713 09:38:28.137212 22135 layer_factory.hpp:77] Creating layer bn8_scal
I0713 09:38:28.137251 22135 net.cpp:84] Creating Layer bn8_scal
I0713 09:38:28.137264 22135 net.cpp:406] bn8_scal <- fc8_bn
I0713 09:38:28.137289 22135 net.cpp:380] bn8_scal -> fc8_sc
I0713 09:38:28.137363 22135 layer_factory.hpp:77] Creating layer bn8_scal
I0713 09:38:28.137519 22135 net.cpp:122] Setting up bn8_scal
I0713 09:38:28.137532 22135 net.cpp:129] Top shape: 100 512 (51200)
I0713 09:38:28.137562 22135 net.cpp:137] Memory required for data: 392806800
I0713 09:38:28.137588 22135 layer_factory.hpp:77] Creating layer relu8
I0713 09:38:28.137606 22135 net.cpp:84] Creating Layer relu8
I0713 09:38:28.137626 22135 net.cpp:406] relu8 <- fc8_sc
I0713 09:38:28.137658 22135 net.cpp:367] relu8 -> fc8_sc (in-place)
I0713 09:38:28.137681 22135 net.cpp:122] Setting up relu8
I0713 09:38:28.137691 22135 net.cpp:129] Top shape: 100 512 (51200)
I0713 09:38:28.137697 22135 net.cpp:137] Memory required for data: 393011600
I0713 09:38:28.137708 22135 layer_factory.hpp:77] Creating layer drop8
I0713 09:38:28.137728 22135 net.cpp:84] Creating Layer drop8
I0713 09:38:28.137739 22135 net.cpp:406] drop8 <- fc8_sc
I0713 09:38:28.137761 22135 net.cpp:367] drop8 -> fc8_sc (in-place)
I0713 09:38:28.137801 22135 net.cpp:122] Setting up drop8
I0713 09:38:28.137812 22135 net.cpp:129] Top shape: 100 512 (51200)
I0713 09:38:28.137820 22135 net.cpp:137] Memory required for data: 393216400
I0713 09:38:28.137831 22135 layer_factory.hpp:77] Creating layer fc9
I0713 09:38:28.137858 22135 net.cpp:84] Creating Layer fc9
I0713 09:38:28.137869 22135 net.cpp:406] fc9 <- fc8_sc
I0713 09:38:28.137897 22135 net.cpp:380] fc9 -> fc9
I0713 09:38:28.139072 22135 net.cpp:122] Setting up fc9
I0713 09:38:28.139088 22135 net.cpp:129] Top shape: 100 10 (1000)
I0713 09:38:28.139096 22135 net.cpp:137] Memory required for data: 393220400
I0713 09:38:28.139117 22135 layer_factory.hpp:77] Creating layer loss
I0713 09:38:28.139143 22135 net.cpp:84] Creating Layer loss
I0713 09:38:28.139155 22135 net.cpp:406] loss <- fc9
I0713 09:38:28.139178 22135 net.cpp:406] loss <- label
I0713 09:38:28.139200 22135 net.cpp:380] loss -> loss
I0713 09:38:28.139240 22135 layer_factory.hpp:77] Creating layer loss
…
I0713 09:38:28.140486 22135 net.cpp:294] The NetState phase (1) differed from the phase (0) specified by a rule in layer cifar
I0713 09:38:28.140718 22135 net.cpp:51] Initializing net from parameters: 
name: "CIFAR10_vgg"
state {
  phase: TEST
}
layer {
  name: "cifar"
  type: "Data"
  top: "data"
  top: "label"
  include {
    phase: TEST
  }
  transform_param {
    mirror: false
    crop_size: 32
    mean_file: "examples/cifar10/mean.binaryproto"
  }
  data_param {
    source: "examples/cifar10/cifar10_test_lmdb"
    batch_size: 100
    backend: LMDB
  }
}
layer {
  name: "conv1"
  type: "BinaryConvolution"
  bottom: "data"
  top: "conv1"
  param {
    lr_mult: 1
    decay_mult: 1
  }
  convolution_param {
    num_output: 64
    bias_term: false
    pad: 1
    kernel_size: 3
    stride: 1
    weight_filler {
      type: "gaussian"
      std: 0.01
    }
  }
  debug_param {
    xnorno_grad: false
  }
}
layer {
  name: "bn1_bn"
  type: "BatchNorm"
  bottom: "conv1"
  top: "conv1_bn"
}
layer {
  name: "bn1_scal"
  type: "Scale"
  bottom: "conv1_bn"
  top: "conv1_sc"
  scale_param {
    bias_term: true
  }
}
layer {
  name: "relu1"
  type: "ReLU"
  bottom: "conv1_sc"
  top: "conv1_sc"
}
layer {
  name: "conv2"
  type: "BinaryConvolution"
  bottom: "conv1_sc"
  top: "conv2"
  param {
    lr_mult: 1
    decay_mult: 1
  }
  convolution_param {
    num_output: 64
    bias_term: false
    pad: 1
    kernel_size: 3
    stride: 1
    weight_filler {
      type: "gaussian"
      std: 0.01
    }
  }
  debug_param {
    xnorno_grad: false
  }
}
layer {
  name: "bn2_bn"
  type: "BatchNorm"
  bottom: "conv2"
  top: "conv2_bn"
}
layer {
  name: "bn2_scal"
  type: "Scale"
  bottom: "conv2_bn"
  top: "conv2_sc"
  scale_param {
    bias_term: true
  }
}
layer {
  name: "relu2"
  type: "ReLU"
  bottom: "conv2_sc"
  top: "conv2_sc"
}
layer {
  name: "pool1"
  type: "Pooling"
  bottom: "conv2_sc"
  top: "pool1"
  pooling_param {
    pool: MAX
    kernel_size: 2
    stride: 2
  }
}
layer {
  name: "drop1"
  type: "Dropout"
  bottom: "pool1"
  top: "pool1"
  dropout_param {
    dropout_ratio: 0.25
  }
}
layer {
  name: "conv3"
  type: "BinaryConvolution"
  bottom: "pool1"
  top: "conv3"
  param {
    lr_mult: 1
    decay_mult: 1
  }
  convolution_param {
    num_output: 128
    bias_term: false
    pad: 1
    kernel_size: 3
    stride: 1
    weight_filler {
      type: "gaussian"
      std: 0.01
    }
  }
  debug_param {
    xnorno_grad: false
  }
}
layer {
  name: "bn3_bn"
  type: "BatchNorm"
  bottom: "conv3"
  top: "conv3_bn"
}
layer {
  name: "bn3_scal"
  type: "Scale"
  bottom: "conv3_bn"
  top: "conv3_sc"
  scale_param {
    bias_term: true
  }
}
layer {
  name: "relu3"
  type: "ReLU"
  bottom: "conv3_sc"
  top: "conv3_sc"
}
layer {
  name: "conv4"
  type: "BinaryConvolution"
  bottom: "conv3_sc"
  top: "conv4"
  param {
    lr_mult: 1
    decay_mult: 1
  }
  convolution_param {
    num_output: 128
    bias_term: false
    pad: 1
    kernel_size: 3
    stride: 1
    weight_filler {
      type: "gaussian"
      std: 0.01
    }
  }
  debug_param {
    xnorno_grad: false
  }
}
layer {
  name: "bn4_bn"
  type: "BatchNorm"
  bottom: "conv4"
  top: "conv4_bn"
}
layer {
  name: "bn4_scal"
  type: "Scale"
  bottom: "conv4_bn"
  top: "conv4_sc"
  scale_param {
    bias_term: true
  }
}
layer {
  name: "relu4"
  type: "ReLU"
  bottom: "conv4_sc"
  top: "conv4_sc"
}
layer {
  name: "pool2"
  type: "Pooling"
  bottom: "conv4_sc"
  top: "pool2"
  pooling_param {
    pool: MAX
    kernel_size: 2
    stride: 2
  }
}
layer {
  name: "drop2"
  type: "Dropout"
  bottom: "pool2"
  top: "pool2"
  dropout_param {
    dropout_ratio: 0.25
  }
}
layer {
  name: "conv5"
  type: "BinaryConvolution"
  bottom: "pool2"
  top: "conv5"
  param {
    lr_mult: 1
    decay_mult: 1
  }
  convolution_param {
    num_output: 256
    bias_term: false
    pad: 1
    kernel_size: 3
    stride: 1
    weight_filler {
      type: "gaussian"
      std: 0.01
    }
  }
  debug_param {
    xnorno_grad: false
  }
}
layer {
  name: "bn5_bn"
  type: "BatchNorm"
  bottom: "conv5"
  top: "conv5_bn"
}
layer {
  name: "bn5_scal"
  type: "Scale"
  bottom: "conv5_bn"
  top: "conv5_sc"
  scale_param {
    bias_term: true
  }
}
layer {
  name: "relu5"
  type: "ReLU"
  bottom: "conv5_sc"
  top: "conv5_sc"
}
layer {
  name: "conv6"
  type: "BinaryConvolution"
  bottom: "conv5_sc"
  top: "conv6"
  param {
    lr_mult: 1
    decay_mult: 1
  }
  convolution_param {
    num_output: 256
    bias_term: false
    pad: 1
    kernel_size: 3
    stride: 1
    weight_filler {
      type: "gaussian"
      std: 0.01
    }
  }
  debug_param {
    xnorno_grad: false
  }
}
layer {
  name: "bn6_bn"
  type: "BatchNorm"
  bottom: "conv6"
  top: "conv6_bn"
}
layer {
  name: "bn6_scal"
  type: "Scale"
  bottom: "conv6_bn"
  top: "conv6_sc"
  scale_param {
    bias_term: true
  }
}
layer {
  name: "relu6"
  type: "ReLU"
  bottom: "conv6_sc"
  top: "conv6_sc"
}
layer {
  name: "pool3"
  type: "Pooling"
  bottom: "conv6_sc"
  top: "pool3"
  pooling_param {
    pool: MAX
    kernel_size: 2
    stride: 2
  }
}
layer {
  name: "drop3"
  type: "Dropout"
  bottom: "pool3"
  top: "pool3"
  dropout_param {
    dropout_ratio: 0.25
  }
}
layer {
  name: "fc7"
  type: "BinaryInnerProduct"
  bottom: "pool3"
  top: "fc7"
  param {
    lr_mult: 1
    decay_mult: 1
  }
  inner_product_param {
    num_output: 512
    bias_term: false
    weight_filler {
      type: "gaussian"
      std: 0.01
    }
  }
  debug_param {
    xnorno_grad: false
  }
}
layer {
  name: "bn7_bn"
  type: "BatchNorm"
  bottom: "fc7"
  top: "fc7_bn"
}
layer {
  name: "bn7_scal"
  type: "Scale"
  bottom: "fc7_bn"
  top: "fc7_sc"
  scale_param {
    bias_term: true
  }
}
layer {
  name: "relu7"
  type: "ReLU"
  bottom: "fc7_sc"
  top: "fc7_sc"
}
layer {
  name: "drop7"
  type: "Dropout"
  bottom: "fc7_sc"
  top: "fc7_sc"
  dropout_param {
    dropout_ratio: 0.5
  }
}
layer {
  name: "fc8"
  type: "BinaryInnerProduct"
  bottom: "fc7_sc"
  top: "fc8"
  param {
    lr_mult: 1
    decay_mult: 1
  }
  inner_product_param {
    num_output: 512
    bias_term: false
    weight_filler {
      type: "gaussian"
      std: 0.01
    }
  }
  debug_param {
    xnorno_grad: false
  }
}
layer {
  name: "bn8_bn"
  type: "BatchNorm"
  bottom: "fc8"
  top: "fc8_bn"
}
layer {
  name: "bn8_scal"
  type: "Scale"
  bottom: "fc8_bn"
  top: "fc8_sc"
  scale_param {
    bias_term: true
  }
}
layer {
  name: "relu8"
  type: "ReLU"
  bottom: "fc8_sc"
  top: "fc8_sc"
}
layer {
  name: "drop8"
  type: "Dropout"
  bottom: "fc8_sc"
  top: "fc8_sc"
  dropout_param {
    dropout_ratio: 0.5
  }
}
layer {
  name: "fc9"
  type: "BinaryInnerProduct"
  bottom: "fc8_sc"
  top: "fc9"
  param {
    lr_mult: 1
    decay_mult: 1
  }
  param {
    lr_mult: 2
    decay_mult: 0
  }
  inner_product_param {
    num_output: 10
    weight_filler {
      type: "gaussian"
      std: 0.01
    }
    bias_filler {
      type: "constant"
      value: 0.01
    }
  }
  debug_param {
    xnorno_grad: false
  }
}
layer {
  name: "accuracy"
  type: "Accuracy"
  bottom: "fc9"
  bottom: "label"
  top: "accuracy"
  include {
    phase: TEST
  }
}
layer {
  name: "loss"
  type: "SoftmaxWithLoss"
  bottom: "fc9"
  bottom: "label"
  top: "loss"
}
I0713 09:38:28.141363 22135 layer_factory.hpp:77] Creating layer cifar
I0713 09:38:28.141448 22135 db_lmdb.cpp:35] Opened lmdb examples/cifar10/cifar10_test_lmdb
I0713 09:38:28.141472 22135 net.cpp:84] Creating Layer cifar
I0713 09:38:28.141494 22135 net.cpp:380] cifar -> data
I0713 09:38:28.141527 22135 net.cpp:380] cifar -> label
I0713 09:38:28.141556 22135 data_transformer.cpp:25] Loading mean file from: examples/cifar10/mean.binaryproto
I0713 09:38:28.141783 22135 data_layer.cpp:45] output data size: 100,3,32,32
I0713 09:38:28.144584 22135 base_data_layer.cpp:72] Initializing prefetch
I0713 09:38:28.144647 22135 base_data_layer.cpp:75] Prefetch initialized.
I0713 09:38:28.144665 22135 net.cpp:122] Setting up cifar
I0713 09:38:28.144688 22135 net.cpp:129] Top shape: 100 3 32 32 (307200)
I0713 09:38:28.144701 22135 net.cpp:129] Top shape: 100 (100)
I0713 09:38:28.144707 22135 net.cpp:137] Memory required for data: 1229200
I0713 09:38:28.144728 22135 layer_factory.hpp:77] Creating layer label_cifar_1_split
I0713 09:38:28.144760 22135 net.cpp:84] Creating Layer label_cifar_1_split
I0713 09:38:28.144776 22135 net.cpp:406] label_cifar_1_split <- label
I0713 09:38:28.144814 22135 net.cpp:380] label_cifar_1_split -> label_cifar_1_split_0
I0713 09:38:28.144845 22135 net.cpp:380] label_cifar_1_split -> label_cifar_1_split_1
I0713 09:38:28.144909 22135 net.cpp:122] Setting up label_cifar_1_split
I0713 09:38:28.144924 22135 net.cpp:129] Top shape: 100 (100)
I0713 09:38:28.144937 22135 net.cpp:129] Top shape: 100 (100)
I0713 09:38:28.144944 22135 net.cpp:137] Memory required for data: 1230000
I0713 09:38:28.144954 22135 layer_factory.hpp:77] Creating layer conv1
I0713 09:38:28.144987 22135 net.cpp:84] Creating Layer conv1
I0713 09:38:28.144999 22135 net.cpp:406] conv1 <- data
I0713 09:38:28.145028 22135 net.cpp:380] conv1 -> conv1
I0713 09:38:28.145659 22135 net.cpp:122] Setting up conv1
I0713 09:38:28.145676 22135 net.cpp:129] Top shape: 100 64 32 32 (6553600)
I0713 09:38:28.145685 22135 net.cpp:137] Memory required for data: 27444400
I0713 09:38:28.145711 22135 layer_factory.hpp:77] Creating layer bn1_bn
I0713 09:38:28.145731 22135 net.cpp:84] Creating Layer bn1_bn
I0713 09:38:28.145743 22135 net.cpp:406] bn1_bn <- conv1
I0713 09:38:28.145766 22135 net.cpp:380] bn1_bn -> conv1_bn
I0713 09:38:28.145983 22135 net.cpp:122] Setting up bn1_bn
I0713 09:38:28.145999 22135 net.cpp:129] Top shape: 100 64 32 32 (6553600)
I0713 09:38:28.146008 22135 net.cpp:137] Memory required for data: 53658800
I0713 09:38:28.146045 22135 layer_factory.hpp:77] Creating layer bn1_scal
I0713 09:38:28.146070 22135 net.cpp:84] Creating Layer bn1_scal
I0713 09:38:28.146082 22135 net.cpp:406] bn1_scal <- conv1_bn
I0713 09:38:28.146106 22135 net.cpp:380] bn1_scal -> conv1_sc
I0713 09:38:28.146174 22135 layer_factory.hpp:77] Creating layer bn1_scal
I0713 09:38:28.146324 22135 net.cpp:122] Setting up bn1_scal
I0713 09:38:28.146338 22135 net.cpp:129] Top shape: 100 64 32 32 (6553600)
I0713 09:38:28.146347 22135 net.cpp:137] Memory required for data: 79873200
I0713 09:38:28.146373 22135 layer_factory.hpp:77] Creating layer relu1
I0713 09:38:28.146394 22135 net.cpp:84] Creating Layer relu1
I0713 09:38:28.146405 22135 net.cpp:406] relu1 <- conv1_sc
I0713 09:38:28.146427 22135 net.cpp:367] relu1 -> conv1_sc (in-place)
I0713 09:38:28.146450 22135 net.cpp:122] Setting up relu1
I0713 09:38:28.146461 22135 net.cpp:129] Top shape: 100 64 32 32 (6553600)
I0713 09:38:28.146469 22135 net.cpp:137] Memory required for data: 106087600
I0713 09:38:28.146479 22135 layer_factory.hpp:77] Creating layer conv2
I0713 09:38:28.146504 22135 net.cpp:84] Creating Layer conv2
I0713 09:38:28.146517 22135 net.cpp:406] conv2 <- conv1_sc
I0713 09:38:28.146543 22135 net.cpp:380] conv2 -> conv2
I0713 09:38:28.151211 22135 net.cpp:122] Setting up conv2
I0713 09:38:28.151224 22135 net.cpp:129] Top shape: 100 64 32 32 (6553600)
I0713 09:38:28.151233 22135 net.cpp:137] Memory required for data: 132302000
I0713 09:38:28.151252 22135 layer_factory.hpp:77] Creating layer bn2_bn
I0713 09:38:28.151270 22135 net.cpp:84] Creating Layer bn2_bn
I0713 09:38:28.151281 22135 net.cpp:406] bn2_bn <- conv2
I0713 09:38:28.151306 22135 net.cpp:380] bn2_bn -> conv2_bn
I0713 09:38:28.151511 22135 net.cpp:122] Setting up bn2_bn
I0713 09:38:28.151527 22135 net.cpp:129] Top shape: 100 64 32 32 (6553600)
I0713 09:38:28.151535 22135 net.cpp:137] Memory required for data: 158516400
I0713 09:38:28.151568 22135 layer_factory.hpp:77] Creating layer bn2_scal
I0713 09:38:28.151594 22135 net.cpp:84] Creating Layer bn2_scal
I0713 09:38:28.151607 22135 net.cpp:406] bn2_scal <- conv2_bn
I0713 09:38:28.151630 22135 net.cpp:380] bn2_scal -> conv2_sc
I0713 09:38:28.151695 22135 layer_factory.hpp:77] Creating layer bn2_scal
I0713 09:38:28.151835 22135 net.cpp:122] Setting up bn2_scal
I0713 09:38:28.151849 22135 net.cpp:129] Top shape: 100 64 32 32 (6553600)
I0713 09:38:28.151859 22135 net.cpp:137] Memory required for data: 184730800
I0713 09:38:28.151877 22135 layer_factory.hpp:77] Creating layer relu2
I0713 09:38:28.151896 22135 net.cpp:84] Creating Layer relu2
I0713 09:38:28.151907 22135 net.cpp:406] relu2 <- conv2_sc
I0713 09:38:28.151927 22135 net.cpp:367] relu2 -> conv2_sc (in-place)
I0713 09:38:28.151955 22135 net.cpp:122] Setting up relu2
I0713 09:38:28.151967 22135 net.cpp:129] Top shape: 100 64 32 32 (6553600)
I0713 09:38:28.151974 22135 net.cpp:137] Memory required for data: 210945200
I0713 09:38:28.151984 22135 layer_factory.hpp:77] Creating layer pool1
I0713 09:38:28.152007 22135 net.cpp:84] Creating Layer pool1
I0713 09:38:28.152019 22135 net.cpp:406] pool1 <- conv2_sc
I0713 09:38:28.152055 22135 net.cpp:380] pool1 -> pool1
I0713 09:38:28.152123 22135 net.cpp:122] Setting up pool1
I0713 09:38:28.152137 22135 net.cpp:129] Top shape: 100 64 16 16 (1638400)
I0713 09:38:28.152146 22135 net.cpp:137] Memory required for data: 217498800
I0713 09:38:28.152158 22135 layer_factory.hpp:77] Creating layer drop1
I0713 09:38:28.152176 22135 net.cpp:84] Creating Layer drop1
I0713 09:38:28.152189 22135 net.cpp:406] drop1 <- pool1
I0713 09:38:28.152211 22135 net.cpp:367] drop1 -> pool1 (in-place)
I0713 09:38:28.152254 22135 net.cpp:122] Setting up drop1
I0713 09:38:28.152266 22135 net.cpp:129] Top shape: 100 64 16 16 (1638400)
I0713 09:38:28.152273 22135 net.cpp:137] Memory required for data: 224052400
I0713 09:38:28.152284 22135 layer_factory.hpp:77] Creating layer conv3
I0713 09:38:28.152308 22135 net.cpp:84] Creating Layer conv3
I0713 09:38:28.152319 22135 net.cpp:406] conv3 <- pool1
I0713 09:38:28.152351 22135 net.cpp:380] conv3 -> conv3
I0713 09:38:28.161731 22135 net.cpp:122] Setting up conv3
I0713 09:38:28.161751 22135 net.cpp:129] Top shape: 100 128 16 16 (3276800)
I0713 09:38:28.161757 22135 net.cpp:137] Memory required for data: 237159600
I0713 09:38:28.161777 22135 layer_factory.hpp:77] Creating layer bn3_bn
I0713 09:38:28.161798 22135 net.cpp:84] Creating Layer bn3_bn
I0713 09:38:28.161810 22135 net.cpp:406] bn3_bn <- conv3
I0713 09:38:28.161834 22135 net.cpp:380] bn3_bn -> conv3_bn
I0713 09:38:28.162024 22135 net.cpp:122] Setting up bn3_bn
I0713 09:38:28.162037 22135 net.cpp:129] Top shape: 100 128 16 16 (3276800)
I0713 09:38:28.162046 22135 net.cpp:137] Memory required for data: 250266800
I0713 09:38:28.162071 22135 layer_factory.hpp:77] Creating layer bn3_scal
I0713 09:38:28.162091 22135 net.cpp:84] Creating Layer bn3_scal
I0713 09:38:28.162102 22135 net.cpp:406] bn3_scal <- conv3_bn
I0713 09:38:28.162127 22135 net.cpp:380] bn3_scal -> conv3_sc
I0713 09:38:28.162192 22135 layer_factory.hpp:77] Creating layer bn3_scal
I0713 09:38:28.162323 22135 net.cpp:122] Setting up bn3_scal
I0713 09:38:28.162338 22135 net.cpp:129] Top shape: 100 128 16 16 (3276800)
I0713 09:38:28.162345 22135 net.cpp:137] Memory required for data: 263374000
I0713 09:38:28.162377 22135 layer_factory.hpp:77] Creating layer relu3
I0713 09:38:28.162396 22135 net.cpp:84] Creating Layer relu3
I0713 09:38:28.162407 22135 net.cpp:406] relu3 <- conv3_sc
I0713 09:38:28.162431 22135 net.cpp:367] relu3 -> conv3_sc (in-place)
I0713 09:38:28.162451 22135 net.cpp:122] Setting up relu3
I0713 09:38:28.162462 22135 net.cpp:129] Top shape: 100 128 16 16 (3276800)
I0713 09:38:28.162469 22135 net.cpp:137] Memory required for data: 276481200
I0713 09:38:28.162480 22135 layer_factory.hpp:77] Creating layer conv4
I0713 09:38:28.162510 22135 net.cpp:84] Creating Layer conv4
I0713 09:38:28.162523 22135 net.cpp:406] conv4 <- conv3_sc
I0713 09:38:28.162550 22135 net.cpp:380] conv4 -> conv4
I0713 09:38:28.180133 22135 net.cpp:122] Setting up conv4
I0713 09:38:28.180153 22135 net.cpp:129] Top shape: 100 128 16 16 (3276800)
I0713 09:38:28.180171 22135 net.cpp:137] Memory required for data: 289588400
I0713 09:38:28.180189 22135 layer_factory.hpp:77] Creating layer bn4_bn
I0713 09:38:28.180212 22135 net.cpp:84] Creating Layer bn4_bn
I0713 09:38:28.180224 22135 net.cpp:406] bn4_bn <- conv4
I0713 09:38:28.180248 22135 net.cpp:380] bn4_bn -> conv4_bn
I0713 09:38:28.180454 22135 net.cpp:122] Setting up bn4_bn
I0713 09:38:28.180469 22135 net.cpp:129] Top shape: 100 128 16 16 (3276800)
I0713 09:38:28.180476 22135 net.cpp:137] Memory required for data: 302695600
I0713 09:38:28.180505 22135 layer_factory.hpp:77] Creating layer bn4_scal
I0713 09:38:28.180526 22135 net.cpp:84] Creating Layer bn4_scal
I0713 09:38:28.180546 22135 net.cpp:406] bn4_scal <- conv4_bn
I0713 09:38:28.180572 22135 net.cpp:380] bn4_scal -> conv4_sc
I0713 09:38:28.180642 22135 layer_factory.hpp:77] Creating layer bn4_scal
I0713 09:38:28.180780 22135 net.cpp:122] Setting up bn4_scal
I0713 09:38:28.180796 22135 net.cpp:129] Top shape: 100 128 16 16 (3276800)
I0713 09:38:28.180804 22135 net.cpp:137] Memory required for data: 315802800
I0713 09:38:28.180824 22135 layer_factory.hpp:77] Creating layer relu4
I0713 09:38:28.180841 22135 net.cpp:84] Creating Layer relu4
I0713 09:38:28.180852 22135 net.cpp:406] relu4 <- conv4_sc
I0713 09:38:28.180873 22135 net.cpp:367] relu4 -> conv4_sc (in-place)
I0713 09:38:28.180896 22135 net.cpp:122] Setting up relu4
I0713 09:38:28.180905 22135 net.cpp:129] Top shape: 100 128 16 16 (3276800)
I0713 09:38:28.180913 22135 net.cpp:137] Memory required for data: 328910000
I0713 09:38:28.180923 22135 layer_factory.hpp:77] Creating layer pool2
I0713 09:38:28.180955 22135 net.cpp:84] Creating Layer pool2
I0713 09:38:28.180975 22135 net.cpp:406] pool2 <- conv4_sc
I0713 09:38:28.180997 22135 net.cpp:380] pool2 -> pool2
I0713 09:38:28.181053 22135 net.cpp:122] Setting up pool2
I0713 09:38:28.181066 22135 net.cpp:129] Top shape: 100 128 8 8 (819200)
I0713 09:38:28.181076 22135 net.cpp:137] Memory required for data: 332186800
I0713 09:38:28.181087 22135 layer_factory.hpp:77] Creating layer drop2
I0713 09:38:28.181107 22135 net.cpp:84] Creating Layer drop2
I0713 09:38:28.181118 22135 net.cpp:406] drop2 <- pool2
I0713 09:38:28.181140 22135 net.cpp:367] drop2 -> pool2 (in-place)
I0713 09:38:28.181179 22135 net.cpp:122] Setting up drop2
I0713 09:38:28.181190 22135 net.cpp:129] Top shape: 100 128 8 8 (819200)
I0713 09:38:28.181197 22135 net.cpp:137] Memory required for data: 335463600
I0713 09:38:28.181208 22135 layer_factory.hpp:77] Creating layer conv5
I0713 09:38:28.181233 22135 net.cpp:84] Creating Layer conv5
I0713 09:38:28.181246 22135 net.cpp:406] conv5 <- pool2
I0713 09:38:28.181270 22135 net.cpp:380] conv5 -> conv5
I0713 09:38:28.216740 22135 net.cpp:122] Setting up conv5
I0713 09:38:28.216765 22135 net.cpp:129] Top shape: 100 256 8 8 (1638400)
I0713 09:38:28.216771 22135 net.cpp:137] Memory required for data: 342017200
I0713 09:38:28.216792 22135 layer_factory.hpp:77] Creating layer bn5_bn
I0713 09:38:28.216815 22135 net.cpp:84] Creating Layer bn5_bn
I0713 09:38:28.216828 22135 net.cpp:406] bn5_bn <- conv5
I0713 09:38:28.216853 22135 net.cpp:380] bn5_bn -> conv5_bn
I0713 09:38:28.217048 22135 net.cpp:122] Setting up bn5_bn
I0713 09:38:28.217062 22135 net.cpp:129] Top shape: 100 256 8 8 (1638400)
I0713 09:38:28.217072 22135 net.cpp:137] Memory required for data: 348570800
I0713 09:38:28.217095 22135 layer_factory.hpp:77] Creating layer bn5_scal
I0713 09:38:28.217116 22135 net.cpp:84] Creating Layer bn5_scal
I0713 09:38:28.217128 22135 net.cpp:406] bn5_scal <- conv5_bn
I0713 09:38:28.217150 22135 net.cpp:380] bn5_scal -> conv5_sc
I0713 09:38:28.217214 22135 layer_factory.hpp:77] Creating layer bn5_scal
I0713 09:38:28.217348 22135 net.cpp:122] Setting up bn5_scal
I0713 09:38:28.217362 22135 net.cpp:129] Top shape: 100 256 8 8 (1638400)
I0713 09:38:28.217370 22135 net.cpp:137] Memory required for data: 355124400
I0713 09:38:28.217389 22135 layer_factory.hpp:77] Creating layer relu5
I0713 09:38:28.217408 22135 net.cpp:84] Creating Layer relu5
I0713 09:38:28.217418 22135 net.cpp:406] relu5 <- conv5_sc
I0713 09:38:28.217439 22135 net.cpp:367] relu5 -> conv5_sc (in-place)
I0713 09:38:28.217460 22135 net.cpp:122] Setting up relu5
I0713 09:38:28.217470 22135 net.cpp:129] Top shape: 100 256 8 8 (1638400)
I0713 09:38:28.217478 22135 net.cpp:137] Memory required for data: 361678000
I0713 09:38:28.217489 22135 layer_factory.hpp:77] Creating layer conv6
I0713 09:38:28.217514 22135 net.cpp:84] Creating Layer conv6
I0713 09:38:28.217525 22135 net.cpp:406] conv6 <- conv5_sc
I0713 09:38:28.217555 22135 net.cpp:380] conv6 -> conv6
I0713 09:38:28.287485 22135 net.cpp:122] Setting up conv6
I0713 09:38:28.287518 22135 net.cpp:129] Top shape: 100 256 8 8 (1638400)
I0713 09:38:28.287540 22135 net.cpp:137] Memory required for data: 368231600
I0713 09:38:28.287566 22135 layer_factory.hpp:77] Creating layer bn6_bn
I0713 09:38:28.287597 22135 net.cpp:84] Creating Layer bn6_bn
I0713 09:38:28.287614 22135 net.cpp:406] bn6_bn <- conv6
I0713 09:38:28.287643 22135 net.cpp:380] bn6_bn -> conv6_bn
I0713 09:38:28.287849 22135 net.cpp:122] Setting up bn6_bn
I0713 09:38:28.287863 22135 net.cpp:129] Top shape: 100 256 8 8 (1638400)
I0713 09:38:28.287871 22135 net.cpp:137] Memory required for data: 374785200
I0713 09:38:28.287910 22135 layer_factory.hpp:77] Creating layer bn6_scal
I0713 09:38:28.287935 22135 net.cpp:84] Creating Layer bn6_scal
I0713 09:38:28.287946 22135 net.cpp:406] bn6_scal <- conv6_bn
I0713 09:38:28.287969 22135 net.cpp:380] bn6_scal -> conv6_sc
I0713 09:38:28.288040 22135 layer_factory.hpp:77] Creating layer bn6_scal
I0713 09:38:28.288185 22135 net.cpp:122] Setting up bn6_scal
I0713 09:38:28.288199 22135 net.cpp:129] Top shape: 100 256 8 8 (1638400)
I0713 09:38:28.288208 22135 net.cpp:137] Memory required for data: 381338800
I0713 09:38:28.288228 22135 layer_factory.hpp:77] Creating layer relu6
I0713 09:38:28.288244 22135 net.cpp:84] Creating Layer relu6
I0713 09:38:28.288254 22135 net.cpp:406] relu6 <- conv6_sc
I0713 09:38:28.288276 22135 net.cpp:367] relu6 -> conv6_sc (in-place)
I0713 09:38:28.288298 22135 net.cpp:122] Setting up relu6
I0713 09:38:28.288308 22135 net.cpp:129] Top shape: 100 256 8 8 (1638400)
I0713 09:38:28.288316 22135 net.cpp:137] Memory required for data: 387892400
I0713 09:38:28.288326 22135 layer_factory.hpp:77] Creating layer pool3
I0713 09:38:28.288347 22135 net.cpp:84] Creating Layer pool3
I0713 09:38:28.288357 22135 net.cpp:406] pool3 <- conv6_sc
I0713 09:38:28.288380 22135 net.cpp:380] pool3 -> pool3
I0713 09:38:28.288437 22135 net.cpp:122] Setting up pool3
I0713 09:38:28.288450 22135 net.cpp:129] Top shape: 100 256 4 4 (409600)
I0713 09:38:28.288458 22135 net.cpp:137] Memory required for data: 389530800
I0713 09:38:28.288470 22135 layer_factory.hpp:77] Creating layer drop3
I0713 09:38:28.288489 22135 net.cpp:84] Creating Layer drop3
I0713 09:38:28.288499 22135 net.cpp:406] drop3 <- pool3
I0713 09:38:28.288520 22135 net.cpp:367] drop3 -> pool3 (in-place)
I0713 09:38:28.288560 22135 net.cpp:122] Setting up drop3
I0713 09:38:28.288571 22135 net.cpp:129] Top shape: 100 256 4 4 (409600)
I0713 09:38:28.288578 22135 net.cpp:137] Memory required for data: 391169200
I0713 09:38:28.288589 22135 layer_factory.hpp:77] Creating layer fc7
I0713 09:38:28.288625 22135 net.cpp:84] Creating Layer fc7
I0713 09:38:28.288636 22135 net.cpp:406] fc7 <- pool3
I0713 09:38:28.288662 22135 net.cpp:380] fc7 -> fc7
I0713 09:38:28.533443 22135 net.cpp:122] Setting up fc7
I0713 09:38:28.533486 22135 net.cpp:129] Top shape: 100 512 (51200)
I0713 09:38:28.533493 22135 net.cpp:137] Memory required for data: 391374000
I0713 09:38:28.533520 22135 layer_factory.hpp:77] Creating layer bn7_bn
I0713 09:38:28.533555 22135 net.cpp:84] Creating Layer bn7_bn
I0713 09:38:28.533573 22135 net.cpp:406] bn7_bn <- fc7
I0713 09:38:28.533604 22135 net.cpp:380] bn7_bn -> fc7_bn
I0713 09:38:28.533808 22135 net.cpp:122] Setting up bn7_bn
I0713 09:38:28.533823 22135 net.cpp:129] Top shape: 100 512 (51200)
I0713 09:38:28.533830 22135 net.cpp:137] Memory required for data: 391578800
I0713 09:38:28.533854 22135 layer_factory.hpp:77] Creating layer bn7_scal
I0713 09:38:28.533877 22135 net.cpp:84] Creating Layer bn7_scal
I0713 09:38:28.533888 22135 net.cpp:406] bn7_scal <- fc7_bn
I0713 09:38:28.533912 22135 net.cpp:380] bn7_scal -> fc7_sc
I0713 09:38:28.533984 22135 layer_factory.hpp:77] Creating layer bn7_scal
I0713 09:38:28.534133 22135 net.cpp:122] Setting up bn7_scal
I0713 09:38:28.534147 22135 net.cpp:129] Top shape: 100 512 (51200)
I0713 09:38:28.534154 22135 net.cpp:137] Memory required for data: 391783600
I0713 09:38:28.534174 22135 layer_factory.hpp:77] Creating layer relu7
I0713 09:38:28.534193 22135 net.cpp:84] Creating Layer relu7
I0713 09:38:28.534205 22135 net.cpp:406] relu7 <- fc7_sc
I0713 09:38:28.534237 22135 net.cpp:367] relu7 -> fc7_sc (in-place)
I0713 09:38:28.534260 22135 net.cpp:122] Setting up relu7
I0713 09:38:28.534270 22135 net.cpp:129] Top shape: 100 512 (51200)
I0713 09:38:28.534276 22135 net.cpp:137] Memory required for data: 391988400
I0713 09:38:28.534286 22135 layer_factory.hpp:77] Creating layer drop7
I0713 09:38:28.534307 22135 net.cpp:84] Creating Layer drop7
I0713 09:38:28.534317 22135 net.cpp:406] drop7 <- fc7_sc
I0713 09:38:28.534337 22135 net.cpp:367] drop7 -> fc7_sc (in-place)
I0713 09:38:28.534377 22135 net.cpp:122] Setting up drop7
I0713 09:38:28.534389 22135 net.cpp:129] Top shape: 100 512 (51200)
I0713 09:38:28.534395 22135 net.cpp:137] Memory required for data: 392193200
I0713 09:38:28.534405 22135 layer_factory.hpp:77] Creating layer fc8
I0713 09:38:28.534451 22135 net.cpp:84] Creating Layer fc8
I0713 09:38:28.534463 22135 net.cpp:406] fc8 <- fc7_sc
I0713 09:38:28.534505 22135 net.cpp:380] fc8 -> fc8
I0713 09:38:28.566179 22135 net.cpp:122] Setting up fc8
I0713 09:38:28.566213 22135 net.cpp:129] Top shape: 100 512 (51200)
I0713 09:38:28.566222 22135 net.cpp:137] Memory required for data: 392398000
I0713 09:38:28.566252 22135 layer_factory.hpp:77] Creating layer bn8_bn
I0713 09:38:28.566277 22135 net.cpp:84] Creating Layer bn8_bn
I0713 09:38:28.566308 22135 net.cpp:406] bn8_bn <- fc8
I0713 09:38:28.566352 22135 net.cpp:380] bn8_bn -> fc8_bn
I0713 09:38:28.566560 22135 net.cpp:122] Setting up bn8_bn
I0713 09:38:28.566574 22135 net.cpp:129] Top shape: 100 512 (51200)
I0713 09:38:28.566603 22135 net.cpp:137] Memory required for data: 392602800
I0713 09:38:28.566637 22135 layer_factory.hpp:77] Creating layer bn8_scal
I0713 09:38:28.566660 22135 net.cpp:84] Creating Layer bn8_scal
I0713 09:38:28.566671 22135 net.cpp:406] bn8_scal <- fc8_bn
I0713 09:38:28.566695 22135 net.cpp:380] bn8_scal -> fc8_sc
I0713 09:38:28.566773 22135 layer_factory.hpp:77] Creating layer bn8_scal
I0713 09:38:28.566934 22135 net.cpp:122] Setting up bn8_scal
I0713 09:38:28.566948 22135 net.cpp:129] Top shape: 100 512 (51200)
I0713 09:38:28.566975 22135 net.cpp:137] Memory required for data: 392807600
I0713 09:38:28.567003 22135 layer_factory.hpp:77] Creating layer relu8
I0713 09:38:28.567019 22135 net.cpp:84] Creating Layer relu8
I0713 09:38:28.567031 22135 net.cpp:406] relu8 <- fc8_sc
I0713 09:38:28.567055 22135 net.cpp:367] relu8 -> fc8_sc (in-place)
I0713 09:38:28.567095 22135 net.cpp:122] Setting up relu8
I0713 09:38:28.567104 22135 net.cpp:129] Top shape: 100 512 (51200)
I0713 09:38:28.567112 22135 net.cpp:137] Memory required for data: 393012400
I0713 09:38:28.567122 22135 layer_factory.hpp:77] Creating layer drop8
I0713 09:38:28.567142 22135 net.cpp:84] Creating Layer drop8
I0713 09:38:28.567152 22135 net.cpp:406] drop8 <- fc8_sc
I0713 09:38:28.567176 22135 net.cpp:367] drop8 -> fc8_sc (in-place)
I0713 09:38:28.567215 22135 net.cpp:122] Setting up drop8
I0713 09:38:28.567227 22135 net.cpp:129] Top shape: 100 512 (51200)
I0713 09:38:28.567234 22135 net.cpp:137] Memory required for data: 393217200
I0713 09:38:28.567245 22135 layer_factory.hpp:77] Creating layer fc9
I0713 09:38:28.567273 22135 net.cpp:84] Creating Layer fc9
I0713 09:38:28.567284 22135 net.cpp:406] fc9 <- fc8_sc
I0713 09:38:28.567312 22135 net.cpp:380] fc9 -> fc9
I0713 09:38:28.568138 22135 net.cpp:122] Setting up fc9
I0713 09:38:28.568153 22135 net.cpp:129] Top shape: 100 10 (1000)
I0713 09:38:28.568162 22135 net.cpp:137] Memory required for data: 393221200
I0713 09:38:28.568181 22135 layer_factory.hpp:77] Creating layer fc9_fc9_0_split
I0713 09:38:28.568199 22135 net.cpp:84] Creating Layer fc9_fc9_0_split
I0713 09:38:28.568210 22135 net.cpp:406] fc9_fc9_0_split <- fc9
I0713 09:38:28.568233 22135 net.cpp:380] fc9_fc9_0_split -> fc9_fc9_0_split_0
I0713 09:38:28.568269 22135 net.cpp:380] fc9_fc9_0_split -> fc9_fc9_0_split_1
I0713 09:38:28.568321 22135 net.cpp:122] Setting up fc9_fc9_0_split
I0713 09:38:28.568336 22135 net.cpp:129] Top shape: 100 10 (1000)
I0713 09:38:28.568347 22135 net.cpp:129] Top shape: 100 10 (1000)
I0713 09:38:28.568363 22135 net.cpp:137] Memory required for data: 393229200
I0713 09:38:28.568373 22135 layer_factory.hpp:77] Creating layer accuracy
I0713 09:38:28.568401 22135 net.cpp:84] Creating Layer accuracy
I0713 09:38:28.568413 22135 net.cpp:406] accuracy <- fc9_fc9_0_split_0
I0713 09:38:28.568434 22135 net.cpp:406] accuracy <- label_cifar_1_split_0
I0713 09:38:28.568456 22135 net.cpp:380] accuracy -> accuracy
…
