…
I0716 09:13:00.690341 29143 net.cpp:294] The NetState phase (0) differed from the phase (1) specified by a rule in layer accuracy
I0716 09:13:00.690568 29143 net.cpp:51] Initializing net from parameters: 
name: "CIFAR10_vgg"
state {
  phase: TRAIN
  level: 0
  stage: ""
}
layer {
  name: "cifar"
  type: "Data"
  top: "data"
  top: "label"
  include {
    phase: TRAIN
  }
  transform_param {
    mirror: true
    crop_size: 32
    mean_file: "examples/cifar10/mean.binaryproto"
  }
  data_param {
    source: "examples/cifar10/cifar10_train_lmdb"
    batch_size: 100
    backend: LMDB
  }
}
layer {
  name: "conv1"
  type: "BinaryConvolution"
  bottom: "data"
  top: "conv1"
  param {
    lr_mult: 1
    decay_mult: 1
  }
  convolution_param {
    num_output: 64
    bias_term: false
    pad: 1
    kernel_size: 3
    stride: 1
    weight_filler {
      type: "gaussian"
      std: 0.01
    }
  }
  debug_param {
    xnorno_grad: false
  }
}
layer {
  name: "bn1_bn"
  type: "BatchNorm"
  bottom: "conv1"
  top: "conv1_bn"
}
layer {
  name: "bn1_scal"
  type: "Scale"
  bottom: "conv1_bn"
  top: "conv1_sc"
  scale_param {
    bias_term: true
  }
}
layer {
  name: "relu1"
  type: "ReLU"
  bottom: "conv1_sc"
  top: "conv1_sc"
}
layer {
  name: "conv2"
  type: "BinaryConvolution"
  bottom: "conv1_sc"
  top: "conv2"
  param {
    lr_mult: 1
    decay_mult: 1
  }
  convolution_param {
    num_output: 64
    bias_term: false
    pad: 1
    kernel_size: 3
    stride: 1
    weight_filler {
      type: "gaussian"
      std: 0.01
    }
  }
  debug_param {
    xnorno_grad: false
  }
}
layer {
  name: "bn2_bn"
  type: "BatchNorm"
  bottom: "conv2"
  top: "conv2_bn"
}
layer {
  name: "bn2_scal"
  type: "Scale"
  bottom: "conv2_bn"
  top: "conv2_sc"
  scale_param {
    bias_term: true
  }
}
layer {
  name: "relu2"
  type: "ReLU"
  bottom: "conv2_sc"
  top: "conv2_sc"
}
layer {
  name: "pool1"
  type: "Pooling"
  bottom: "conv2_sc"
  top: "pool1"
  pooling_param {
    pool: MAX
    kernel_size: 2
    stride: 2
  }
}
layer {
  name: "drop1"
  type: "Dropout"
  bottom: "pool1"
  top: "pool1"
  dropout_param {
    dropout_ratio: 0.25
  }
}
layer {
  name: "conv3"
  type: "BinaryConvolution"
  bottom: "pool1"
  top: "conv3"
  param {
    lr_mult: 1
    decay_mult: 1
  }
  convolution_param {
    num_output: 128
    bias_term: false
    pad: 1
    kernel_size: 3
    stride: 1
    weight_filler {
      type: "gaussian"
      std: 0.01
    }
  }
  debug_param {
    xnorno_grad: false
  }
}
layer {
  name: "bn3_bn"
  type: "BatchNorm"
  bottom: "conv3"
  top: "conv3_bn"
}
layer {
  name: "bn3_scal"
  type: "Scale"
  bottom: "conv3_bn"
  top: "conv3_sc"
  scale_param {
    bias_term: true
  }
}
layer {
  name: "relu3"
  type: "ReLU"
  bottom: "conv3_sc"
  top: "conv3_sc"
}
layer {
  name: "conv4"
  type: "BinaryConvolution"
  bottom: "conv3_sc"
  top: "conv4"
  param {
    lr_mult: 1
    decay_mult: 1
  }
  convolution_param {
    num_output: 128
    bias_term: false
    pad: 1
    kernel_size: 3
    stride: 1
    weight_filler {
      type: "gaussian"
      std: 0.01
    }
  }
  debug_param {
    xnorno_grad: false
  }
}
layer {
  name: "bn4_bn"
  type: "BatchNorm"
  bottom: "conv4"
  top: "conv4_bn"
}
layer {
  name: "bn4_scal"
  type: "Scale"
  bottom: "conv4_bn"
  top: "conv4_sc"
  scale_param {
    bias_term: true
  }
}
layer {
  name: "relu4"
  type: "ReLU"
  bottom: "conv4_sc"
  top: "conv4_sc"
}
layer {
  name: "pool2"
  type: "Pooling"
  bottom: "conv4_sc"
  top: "pool2"
  pooling_param {
    pool: MAX
    kernel_size: 2
    stride: 2
  }
}
layer {
  name: "drop2"
  type: "Dropout"
  bottom: "pool2"
  top: "pool2"
  dropout_param {
    dropout_ratio: 0.25
  }
}
layer {
  name: "conv5"
  type: "BinaryConvolution"
  bottom: "pool2"
  top: "conv5"
  param {
    lr_mult: 1
    decay_mult: 1
  }
  convolution_param {
    num_output: 256
    bias_term: false
    pad: 1
    kernel_size: 3
    stride: 1
    weight_filler {
      type: "gaussian"
      std: 0.01
    }
  }
  debug_param {
    xnorno_grad: false
  }
}
layer {
  name: "bn5_bn"
  type: "BatchNorm"
  bottom: "conv5"
  top: "conv5_bn"
}
layer {
  name: "bn5_scal"
  type: "Scale"
  bottom: "conv5_bn"
  top: "conv5_sc"
  scale_param {
    bias_term: true
  }
}
layer {
  name: "relu5"
  type: "ReLU"
  bottom: "conv5_sc"
  top: "conv5_sc"
}
layer {
  name: "conv6"
  type: "BinaryConvolution"
  bottom: "conv5_sc"
  top: "conv6"
  param {
    lr_mult: 1
    decay_mult: 1
  }
  convolution_param {
    num_output: 256
    bias_term: false
    pad: 1
    kernel_size: 3
    stride: 1
    weight_filler {
      type: "gaussian"
      std: 0.01
    }
  }
  debug_param {
    xnorno_grad: false
  }
}
layer {
  name: "bn6_bn"
  type: "BatchNorm"
  bottom: "conv6"
  top: "conv6_bn"
}
layer {
  name: "bn6_scal"
  type: "Scale"
  bottom: "conv6_bn"
  top: "conv6_sc"
  scale_param {
    bias_term: true
  }
}
layer {
  name: "relu6"
  type: "ReLU"
  bottom: "conv6_sc"
  top: "conv6_sc"
}
layer {
  name: "pool3"
  type: "Pooling"
  bottom: "conv6_sc"
  top: "pool3"
  pooling_param {
    pool: MAX
    kernel_size: 2
    stride: 2
  }
}
layer {
  name: "drop3"
  type: "Dropout"
  bottom: "pool3"
  top: "pool3"
  dropout_param {
    dropout_ratio: 0.25
  }
}
layer {
  name: "fc7"
  type: "BinaryInnerProduct"
  bottom: "pool3"
  top: "fc7"
  param {
    lr_mult: 1
    decay_mult: 1
  }
  inner_product_param {
    num_output: 512
    bias_term: false
    weight_filler {
      type: "gaussian"
      std: 0.01
    }
  }
  debug_param {
    xnorno_grad: false
  }
}
layer {
  name: "bn7_bn"
  type: "BatchNorm"
  bottom: "fc7"
  top: "fc7_bn"
}
layer {
  name: "bn7_scal"
  type: "Scale"
  bottom: "fc7_bn"
  top: "fc7_sc"
  scale_param {
    bias_term: true
  }
}
layer {
  name: "relu7"
  type: "ReLU"
  bottom: "fc7_sc"
  top: "fc7_sc"
}
layer {
  name: "drop7"
  type: "Dropout"
  bottom: "fc7_sc"
  top: "fc7_sc"
  dropout_param {
    dropout_ratio: 0.5
  }
}
layer {
  name: "fc8"
  type: "BinaryInnerProduct"
  bottom: "fc7_sc"
  top: "fc8"
  param {
    lr_mult: 1
    decay_mult: 1
  }
  inner_product_param {
    num_output: 512
    bias_term: false
    weight_filler {
      type: "gaussian"
      std: 0.01
    }
  }
  debug_param {
    xnorno_grad: false
  }
}
layer {
  name: "bn8_bn"
  type: "BatchNorm"
  bottom: "fc8"
  top: "fc8_bn"
}
layer {
  name: "bn8_scal"
  type: "Scale"
  bottom: "fc8_bn"
  top: "fc8_sc"
  scale_param {
    bias_term: true
  }
}
layer {
  name: "relu8"
  type: "ReLU"
  bottom: "fc8_sc"
  top: "fc8_sc"
}
layer {
  name: "drop8"
  type: "Dropout"
  bottom: "fc8_sc"
  top: "fc8_sc"
  dropout_param {
    dropout_ratio: 0.5
  }
}
layer {
  name: "fc9"
  type: "BinaryInnerProduct"
  bottom: "fc8_sc"
  top: "fc9"
  param {
    lr_mult: 1
    decay_mult: 1
  }
  param {
    lr_mult: 2
    decay_mult: 0
  }
  inner_product_param {
    num_output: 10
    weight_filler {
      type: "gaussian"
      std: 0.01
    }
    bias_filler {
      type: "constant"
      value: 0.01
    }
  }
  debug_param {
    xnorno_grad: false
  }
}
layer {
  name: "loss"
  type: "SoftmaxWithLoss"
  bottom: "fc9"
  bottom: "label"
  top: "loss"
}
I0716 09:13:00.691378 29143 layer_factory.hpp:77] Creating layer cifar
I0716 09:13:00.691577 29143 db_lmdb.cpp:35] Opened lmdb examples/cifar10/cifar10_train_lmdb
I0716 09:13:00.691634 29143 net.cpp:84] Creating Layer cifar
I0716 09:13:00.691661 29143 net.cpp:380] cifar -> data
I0716 09:13:00.691785 29143 net.cpp:380] cifar -> label
I0716 09:13:00.691826 29143 data_transformer.cpp:25] Loading mean file from: examples/cifar10/mean.binaryproto
I0716 09:13:00.693186 29143 data_layer.cpp:45] output data size: 100,3,32,32
I0716 09:13:00.696216 29143 base_data_layer.cpp:72] Initializing prefetch
I0716 09:13:00.696329 29143 base_data_layer.cpp:75] Prefetch initialized.
I0716 09:13:00.696342 29143 net.cpp:122] Setting up cifar
I0716 09:13:00.696372 29143 net.cpp:129] Top shape: 100 3 32 32 (307200)
I0716 09:13:00.696383 29143 net.cpp:129] Top shape: 100 (100)
I0716 09:13:00.696388 29143 net.cpp:137] Memory required for data: 1229200
I0716 09:13:00.696411 29143 layer_factory.hpp:77] Creating layer conv1
I0716 09:13:00.696467 29143 net.cpp:84] Creating Layer conv1
I0716 09:13:00.696491 29143 net.cpp:406] conv1 <- data
I0716 09:13:00.696542 29143 net.cpp:380] conv1 -> conv1
I0716 09:13:00.697299 29143 net.cpp:122] Setting up conv1
I0716 09:13:00.697324 29143 net.cpp:129] Top shape: 100 64 32 32 (6553600)
I0716 09:13:00.697330 29143 net.cpp:137] Memory required for data: 27443600
I0716 09:13:00.697371 29143 layer_factory.hpp:77] Creating layer bn1_bn
I0716 09:13:00.697401 29143 net.cpp:84] Creating Layer bn1_bn
I0716 09:13:00.697409 29143 net.cpp:406] bn1_bn <- conv1
I0716 09:13:00.697429 29143 net.cpp:380] bn1_bn -> conv1_bn
I0716 09:13:00.698067 29143 net.cpp:122] Setting up bn1_bn
I0716 09:13:00.698086 29143 net.cpp:129] Top shape: 100 64 32 32 (6553600)
I0716 09:13:00.698091 29143 net.cpp:137] Memory required for data: 53658000
I0716 09:13:00.698132 29143 layer_factory.hpp:77] Creating layer bn1_scal
I0716 09:13:00.698158 29143 net.cpp:84] Creating Layer bn1_scal
I0716 09:13:00.698165 29143 net.cpp:406] bn1_scal <- conv1_bn
I0716 09:13:00.698189 29143 net.cpp:380] bn1_scal -> conv1_sc
I0716 09:13:00.698274 29143 layer_factory.hpp:77] Creating layer bn1_scal
I0716 09:13:00.698449 29143 net.cpp:122] Setting up bn1_scal
I0716 09:13:00.698463 29143 net.cpp:129] Top shape: 100 64 32 32 (6553600)
I0716 09:13:00.698468 29143 net.cpp:137] Memory required for data: 79872400
I0716 09:13:00.698490 29143 layer_factory.hpp:77] Creating layer relu1
I0716 09:13:00.698518 29143 net.cpp:84] Creating Layer relu1
I0716 09:13:00.698527 29143 net.cpp:406] relu1 <- conv1_sc
I0716 09:13:00.698544 29143 net.cpp:367] relu1 -> conv1_sc (in-place)
I0716 09:13:01.246691 29143 net.cpp:122] Setting up relu1
I0716 09:13:01.246726 29143 net.cpp:129] Top shape: 100 64 32 32 (6553600)
I0716 09:13:01.246732 29143 net.cpp:137] Memory required for data: 106086800
I0716 09:13:01.246748 29143 layer_factory.hpp:77] Creating layer conv2
I0716 09:13:01.246832 29143 net.cpp:84] Creating Layer conv2
I0716 09:13:01.246852 29143 net.cpp:406] conv2 <- conv1_sc
I0716 09:13:01.246915 29143 net.cpp:380] conv2 -> conv2
I0716 09:13:01.251962 29143 net.cpp:122] Setting up conv2
I0716 09:13:01.251978 29143 net.cpp:129] Top shape: 100 64 32 32 (6553600)
I0716 09:13:01.251982 29143 net.cpp:137] Memory required for data: 132301200
I0716 09:13:01.251994 29143 layer_factory.hpp:77] Creating layer bn2_bn
I0716 09:13:01.252008 29143 net.cpp:84] Creating Layer bn2_bn
I0716 09:13:01.252017 29143 net.cpp:406] bn2_bn <- conv2
I0716 09:13:01.252039 29143 net.cpp:380] bn2_bn -> conv2_bn
I0716 09:13:01.252274 29143 net.cpp:122] Setting up bn2_bn
I0716 09:13:01.252285 29143 net.cpp:129] Top shape: 100 64 32 32 (6553600)
I0716 09:13:01.252290 29143 net.cpp:137] Memory required for data: 158515600
I0716 09:13:01.252328 29143 layer_factory.hpp:77] Creating layer bn2_scal
I0716 09:13:01.252362 29143 net.cpp:84] Creating Layer bn2_scal
I0716 09:13:01.252379 29143 net.cpp:406] bn2_scal <- conv2_bn
I0716 09:13:01.252413 29143 net.cpp:380] bn2_scal -> conv2_sc
I0716 09:13:01.252519 29143 layer_factory.hpp:77] Creating layer bn2_scal
I0716 09:13:01.252688 29143 net.cpp:122] Setting up bn2_scal
I0716 09:13:01.252701 29143 net.cpp:129] Top shape: 100 64 32 32 (6553600)
I0716 09:13:01.252713 29143 net.cpp:137] Memory required for data: 184730000
I0716 09:13:01.252732 29143 layer_factory.hpp:77] Creating layer relu2
I0716 09:13:01.252773 29143 net.cpp:84] Creating Layer relu2
I0716 09:13:01.252781 29143 net.cpp:406] relu2 <- conv2_sc
I0716 09:13:01.252802 29143 net.cpp:367] relu2 -> conv2_sc (in-place)
I0716 09:13:01.253113 29143 net.cpp:122] Setting up relu2
I0716 09:13:01.253123 29143 net.cpp:129] Top shape: 100 64 32 32 (6553600)
I0716 09:13:01.253126 29143 net.cpp:137] Memory required for data: 210944400
I0716 09:13:01.253132 29143 layer_factory.hpp:77] Creating layer pool1
I0716 09:13:01.253156 29143 net.cpp:84] Creating Layer pool1
I0716 09:13:01.253165 29143 net.cpp:406] pool1 <- conv2_sc
I0716 09:13:01.253185 29143 net.cpp:380] pool1 -> pool1
I0716 09:13:01.253269 29143 net.cpp:122] Setting up pool1
I0716 09:13:01.253281 29143 net.cpp:129] Top shape: 100 64 16 16 (1638400)
I0716 09:13:01.253285 29143 net.cpp:137] Memory required for data: 217498000
I0716 09:13:01.253291 29143 layer_factory.hpp:77] Creating layer drop1
I0716 09:13:01.253310 29143 net.cpp:84] Creating Layer drop1
I0716 09:13:01.253319 29143 net.cpp:406] drop1 <- pool1
I0716 09:13:01.253336 29143 net.cpp:367] drop1 -> pool1 (in-place)
I0716 09:13:01.253386 29143 net.cpp:122] Setting up drop1
I0716 09:13:01.253397 29143 net.cpp:129] Top shape: 100 64 16 16 (1638400)
I0716 09:13:01.253402 29143 net.cpp:137] Memory required for data: 224051600
I0716 09:13:01.253408 29143 layer_factory.hpp:77] Creating layer conv3
I0716 09:13:01.253428 29143 net.cpp:84] Creating Layer conv3
I0716 09:13:01.253442 29143 net.cpp:406] conv3 <- pool1
I0716 09:13:01.253470 29143 net.cpp:380] conv3 -> conv3
I0716 09:13:01.263484 29143 net.cpp:122] Setting up conv3
I0716 09:13:01.263504 29143 net.cpp:129] Top shape: 100 128 16 16 (3276800)
I0716 09:13:01.263507 29143 net.cpp:137] Memory required for data: 237158800
I0716 09:13:01.263521 29143 layer_factory.hpp:77] Creating layer bn3_bn
I0716 09:13:01.263550 29143 net.cpp:84] Creating Layer bn3_bn
I0716 09:13:01.263573 29143 net.cpp:406] bn3_bn <- conv3
I0716 09:13:01.263605 29143 net.cpp:380] bn3_bn -> conv3_bn
I0716 09:13:01.263854 29143 net.cpp:122] Setting up bn3_bn
I0716 09:13:01.263864 29143 net.cpp:129] Top shape: 100 128 16 16 (3276800)
I0716 09:13:01.263869 29143 net.cpp:137] Memory required for data: 250266000
I0716 09:13:01.263886 29143 layer_factory.hpp:77] Creating layer bn3_scal
I0716 09:13:01.263913 29143 net.cpp:84] Creating Layer bn3_scal
I0716 09:13:01.263926 29143 net.cpp:406] bn3_scal <- conv3_bn
I0716 09:13:01.263947 29143 net.cpp:380] bn3_scal -> conv3_sc
I0716 09:13:01.264047 29143 layer_factory.hpp:77] Creating layer bn3_scal
I0716 09:13:01.264209 29143 net.cpp:122] Setting up bn3_scal
I0716 09:13:01.264230 29143 net.cpp:129] Top shape: 100 128 16 16 (3276800)
I0716 09:13:01.264235 29143 net.cpp:137] Memory required for data: 263373200
I0716 09:13:01.264267 29143 layer_factory.hpp:77] Creating layer relu3
I0716 09:13:01.264302 29143 net.cpp:84] Creating Layer relu3
I0716 09:13:01.264309 29143 net.cpp:406] relu3 <- conv3_sc
I0716 09:13:01.264328 29143 net.cpp:367] relu3 -> conv3_sc (in-place)
I0716 09:13:01.264859 29143 net.cpp:122] Setting up relu3
I0716 09:13:01.264871 29143 net.cpp:129] Top shape: 100 128 16 16 (3276800)
I0716 09:13:01.264875 29143 net.cpp:137] Memory required for data: 276480400
I0716 09:13:01.264880 29143 layer_factory.hpp:77] Creating layer conv4
I0716 09:13:01.264909 29143 net.cpp:84] Creating Layer conv4
I0716 09:13:01.264921 29143 net.cpp:406] conv4 <- conv3_sc
I0716 09:13:01.264946 29143 net.cpp:380] conv4 -> conv4
I0716 09:13:01.283596 29143 net.cpp:122] Setting up conv4
I0716 09:13:01.283622 29143 net.cpp:129] Top shape: 100 128 16 16 (3276800)
I0716 09:13:01.283627 29143 net.cpp:137] Memory required for data: 289587600
I0716 09:13:01.283639 29143 layer_factory.hpp:77] Creating layer bn4_bn
I0716 09:13:01.283679 29143 net.cpp:84] Creating Layer bn4_bn
I0716 09:13:01.283690 29143 net.cpp:406] bn4_bn <- conv4
I0716 09:13:01.283707 29143 net.cpp:380] bn4_bn -> conv4_bn
I0716 09:13:01.283949 29143 net.cpp:122] Setting up bn4_bn
I0716 09:13:01.283969 29143 net.cpp:129] Top shape: 100 128 16 16 (3276800)
I0716 09:13:01.283984 29143 net.cpp:137] Memory required for data: 302694800
I0716 09:13:01.284025 29143 layer_factory.hpp:77] Creating layer bn4_scal
I0716 09:13:01.284066 29143 net.cpp:84] Creating Layer bn4_scal
I0716 09:13:01.284080 29143 net.cpp:406] bn4_scal <- conv4_bn
I0716 09:13:01.284121 29143 net.cpp:380] bn4_scal -> conv4_sc
I0716 09:13:01.284220 29143 layer_factory.hpp:77] Creating layer bn4_scal
I0716 09:13:01.284392 29143 net.cpp:122] Setting up bn4_scal
I0716 09:13:01.284404 29143 net.cpp:129] Top shape: 100 128 16 16 (3276800)
I0716 09:13:01.284407 29143 net.cpp:137] Memory required for data: 315802000
I0716 09:13:01.284418 29143 layer_factory.hpp:77] Creating layer relu4
I0716 09:13:01.284441 29143 net.cpp:84] Creating Layer relu4
I0716 09:13:01.284451 29143 net.cpp:406] relu4 <- conv4_sc
I0716 09:13:01.284484 29143 net.cpp:367] relu4 -> conv4_sc (in-place)
I0716 09:13:01.284873 29143 net.cpp:122] Setting up relu4
I0716 09:13:01.284883 29143 net.cpp:129] Top shape: 100 128 16 16 (3276800)
I0716 09:13:01.284896 29143 net.cpp:137] Memory required for data: 328909200
I0716 09:13:01.284903 29143 layer_factory.hpp:77] Creating layer pool2
I0716 09:13:01.284922 29143 net.cpp:84] Creating Layer pool2
I0716 09:13:01.284943 29143 net.cpp:406] pool2 <- conv4_sc
I0716 09:13:01.284970 29143 net.cpp:380] pool2 -> pool2
I0716 09:13:01.285055 29143 net.cpp:122] Setting up pool2
I0716 09:13:01.285068 29143 net.cpp:129] Top shape: 100 128 8 8 (819200)
I0716 09:13:01.285071 29143 net.cpp:137] Memory required for data: 332186000
I0716 09:13:01.285078 29143 layer_factory.hpp:77] Creating layer drop2
I0716 09:13:01.285091 29143 net.cpp:84] Creating Layer drop2
I0716 09:13:01.285097 29143 net.cpp:406] drop2 <- pool2
I0716 09:13:01.285113 29143 net.cpp:367] drop2 -> pool2 (in-place)
I0716 09:13:01.285162 29143 net.cpp:122] Setting up drop2
I0716 09:13:01.285176 29143 net.cpp:129] Top shape: 100 128 8 8 (819200)
I0716 09:13:01.285182 29143 net.cpp:137] Memory required for data: 335462800
I0716 09:13:01.285193 29143 layer_factory.hpp:77] Creating layer conv5
I0716 09:13:01.285223 29143 net.cpp:84] Creating Layer conv5
I0716 09:13:01.285233 29143 net.cpp:406] conv5 <- pool2
I0716 09:13:01.285264 29143 net.cpp:380] conv5 -> conv5
I0716 09:13:01.321508 29143 net.cpp:122] Setting up conv5
I0716 09:13:01.321540 29143 net.cpp:129] Top shape: 100 256 8 8 (1638400)
I0716 09:13:01.321545 29143 net.cpp:137] Memory required for data: 342016400
I0716 09:13:01.321569 29143 layer_factory.hpp:77] Creating layer bn5_bn
I0716 09:13:01.321597 29143 net.cpp:84] Creating Layer bn5_bn
I0716 09:13:01.321630 29143 net.cpp:406] bn5_bn <- conv5
I0716 09:13:01.321658 29143 net.cpp:380] bn5_bn -> conv5_bn
I0716 09:13:01.321920 29143 net.cpp:122] Setting up bn5_bn
I0716 09:13:01.321940 29143 net.cpp:129] Top shape: 100 256 8 8 (1638400)
I0716 09:13:01.321944 29143 net.cpp:137] Memory required for data: 348570000
I0716 09:13:01.321972 29143 layer_factory.hpp:77] Creating layer bn5_scal
I0716 09:13:01.321995 29143 net.cpp:84] Creating Layer bn5_scal
I0716 09:13:01.322023 29143 net.cpp:406] bn5_scal <- conv5_bn
I0716 09:13:01.322049 29143 net.cpp:380] bn5_scal -> conv5_sc
I0716 09:13:01.322154 29143 layer_factory.hpp:77] Creating layer bn5_scal
I0716 09:13:01.322331 29143 net.cpp:122] Setting up bn5_scal
I0716 09:13:01.322342 29143 net.cpp:129] Top shape: 100 256 8 8 (1638400)
I0716 09:13:01.322346 29143 net.cpp:137] Memory required for data: 355123600
I0716 09:13:01.322358 29143 layer_factory.hpp:77] Creating layer relu5
I0716 09:13:01.322379 29143 net.cpp:84] Creating Layer relu5
I0716 09:13:01.322386 29143 net.cpp:406] relu5 <- conv5_sc
I0716 09:13:01.322414 29143 net.cpp:367] relu5 -> conv5_sc (in-place)
I0716 09:13:01.322971 29143 net.cpp:122] Setting up relu5
I0716 09:13:01.322983 29143 net.cpp:129] Top shape: 100 256 8 8 (1638400)
I0716 09:13:01.322989 29143 net.cpp:137] Memory required for data: 361677200
I0716 09:13:01.323000 29143 layer_factory.hpp:77] Creating layer conv6
I0716 09:13:01.323029 29143 net.cpp:84] Creating Layer conv6
I0716 09:13:01.323063 29143 net.cpp:406] conv6 <- conv5_sc
I0716 09:13:01.323096 29143 net.cpp:380] conv6 -> conv6
I0716 09:13:01.392894 29143 net.cpp:122] Setting up conv6
I0716 09:13:01.392926 29143 net.cpp:129] Top shape: 100 256 8 8 (1638400)
I0716 09:13:01.392930 29143 net.cpp:137] Memory required for data: 368230800
I0716 09:13:01.392951 29143 layer_factory.hpp:77] Creating layer bn6_bn
I0716 09:13:01.392995 29143 net.cpp:84] Creating Layer bn6_bn
I0716 09:13:01.393021 29143 net.cpp:406] bn6_bn <- conv6
I0716 09:13:01.393059 29143 net.cpp:380] bn6_bn -> conv6_bn
I0716 09:13:01.393332 29143 net.cpp:122] Setting up bn6_bn
I0716 09:13:01.393343 29143 net.cpp:129] Top shape: 100 256 8 8 (1638400)
I0716 09:13:01.393347 29143 net.cpp:137] Memory required for data: 374784400
I0716 09:13:01.393394 29143 layer_factory.hpp:77] Creating layer bn6_scal
I0716 09:13:01.393427 29143 net.cpp:84] Creating Layer bn6_scal
I0716 09:13:01.393446 29143 net.cpp:406] bn6_scal <- conv6_bn
I0716 09:13:01.393471 29143 net.cpp:380] bn6_scal -> conv6_sc
I0716 09:13:01.393581 29143 layer_factory.hpp:77] Creating layer bn6_scal
I0716 09:13:01.393762 29143 net.cpp:122] Setting up bn6_scal
I0716 09:13:01.393774 29143 net.cpp:129] Top shape: 100 256 8 8 (1638400)
I0716 09:13:01.393779 29143 net.cpp:137] Memory required for data: 381338000
I0716 09:13:01.393790 29143 layer_factory.hpp:77] Creating layer relu6
I0716 09:13:01.393812 29143 net.cpp:84] Creating Layer relu6
I0716 09:13:01.393822 29143 net.cpp:406] relu6 <- conv6_sc
I0716 09:13:01.393856 29143 net.cpp:367] relu6 -> conv6_sc (in-place)
I0716 09:13:01.394450 29143 net.cpp:122] Setting up relu6
I0716 09:13:01.394462 29143 net.cpp:129] Top shape: 100 256 8 8 (1638400)
I0716 09:13:01.394476 29143 net.cpp:137] Memory required for data: 387891600
I0716 09:13:01.394503 29143 layer_factory.hpp:77] Creating layer pool3
I0716 09:13:01.394542 29143 net.cpp:84] Creating Layer pool3
I0716 09:13:01.394560 29143 net.cpp:406] pool3 <- conv6_sc
I0716 09:13:01.394593 29143 net.cpp:380] pool3 -> pool3
I0716 09:13:01.394665 29143 net.cpp:122] Setting up pool3
I0716 09:13:01.394677 29143 net.cpp:129] Top shape: 100 256 4 4 (409600)
I0716 09:13:01.394685 29143 net.cpp:137] Memory required for data: 389530000
I0716 09:13:01.394695 29143 layer_factory.hpp:77] Creating layer drop3
I0716 09:13:01.394718 29143 net.cpp:84] Creating Layer drop3
I0716 09:13:01.394728 29143 net.cpp:406] drop3 <- pool3
I0716 09:13:01.394753 29143 net.cpp:367] drop3 -> pool3 (in-place)
I0716 09:13:01.394799 29143 net.cpp:122] Setting up drop3
I0716 09:13:01.394809 29143 net.cpp:129] Top shape: 100 256 4 4 (409600)
I0716 09:13:01.394815 29143 net.cpp:137] Memory required for data: 391168400
I0716 09:13:01.394835 29143 layer_factory.hpp:77] Creating layer fc7
I0716 09:13:01.394882 29143 net.cpp:84] Creating Layer fc7
I0716 09:13:01.394892 29143 net.cpp:406] fc7 <- pool3
I0716 09:13:01.394927 29143 net.cpp:380] fc7 -> fc7
I0716 09:13:01.639904 29143 net.cpp:122] Setting up fc7
I0716 09:13:01.639942 29143 net.cpp:129] Top shape: 100 512 (51200)
I0716 09:13:01.639947 29143 net.cpp:137] Memory required for data: 391373200
I0716 09:13:01.639981 29143 layer_factory.hpp:77] Creating layer bn7_bn
I0716 09:13:01.640035 29143 net.cpp:84] Creating Layer bn7_bn
I0716 09:13:01.640054 29143 net.cpp:406] bn7_bn <- fc7
I0716 09:13:01.640091 29143 net.cpp:380] bn7_bn -> fc7_bn
I0716 09:13:01.640367 29143 net.cpp:122] Setting up bn7_bn
I0716 09:13:01.640377 29143 net.cpp:129] Top shape: 100 512 (51200)
I0716 09:13:01.640381 29143 net.cpp:137] Memory required for data: 391578000
I0716 09:13:01.640399 29143 layer_factory.hpp:77] Creating layer bn7_scal
I0716 09:13:01.640427 29143 net.cpp:84] Creating Layer bn7_scal
I0716 09:13:01.640447 29143 net.cpp:406] bn7_scal <- fc7_bn
I0716 09:13:01.640489 29143 net.cpp:380] bn7_scal -> fc7_sc
I0716 09:13:01.640607 29143 layer_factory.hpp:77] Creating layer bn7_scal
I0716 09:13:01.640790 29143 net.cpp:122] Setting up bn7_scal
I0716 09:13:01.640803 29143 net.cpp:129] Top shape: 100 512 (51200)
I0716 09:13:01.640817 29143 net.cpp:137] Memory required for data: 391782800
I0716 09:13:01.640841 29143 layer_factory.hpp:77] Creating layer relu7
I0716 09:13:01.640856 29143 net.cpp:84] Creating Layer relu7
I0716 09:13:01.640877 29143 net.cpp:406] relu7 <- fc7_sc
I0716 09:13:01.640904 29143 net.cpp:367] relu7 -> fc7_sc (in-place)
I0716 09:13:01.641321 29143 net.cpp:122] Setting up relu7
I0716 09:13:01.641332 29143 net.cpp:129] Top shape: 100 512 (51200)
I0716 09:13:01.641340 29143 net.cpp:137] Memory required for data: 391987600
I0716 09:13:01.641350 29143 layer_factory.hpp:77] Creating layer drop7
I0716 09:13:01.641372 29143 net.cpp:84] Creating Layer drop7
I0716 09:13:01.641386 29143 net.cpp:406] drop7 <- fc7_sc
I0716 09:13:01.641410 29143 net.cpp:367] drop7 -> fc7_sc (in-place)
I0716 09:13:01.641460 29143 net.cpp:122] Setting up drop7
I0716 09:13:01.641469 29143 net.cpp:129] Top shape: 100 512 (51200)
I0716 09:13:01.641476 29143 net.cpp:137] Memory required for data: 392192400
I0716 09:13:01.641495 29143 layer_factory.hpp:77] Creating layer fc8
I0716 09:13:01.641526 29143 net.cpp:84] Creating Layer fc8
I0716 09:13:01.641536 29143 net.cpp:406] fc8 <- fc7_sc
I0716 09:13:01.641566 29143 net.cpp:380] fc8 -> fc8
I0716 09:13:01.673993 29143 net.cpp:122] Setting up fc8
I0716 09:13:01.674027 29143 net.cpp:129] Top shape: 100 512 (51200)
I0716 09:13:01.674031 29143 net.cpp:137] Memory required for data: 392397200
I0716 09:13:01.674057 29143 layer_factory.hpp:77] Creating layer bn8_bn
I0716 09:13:01.674085 29143 net.cpp:84] Creating Layer bn8_bn
I0716 09:13:01.674118 29143 net.cpp:406] bn8_bn <- fc8
I0716 09:13:01.674142 29143 net.cpp:380] bn8_bn -> fc8_bn
I0716 09:13:01.674401 29143 net.cpp:122] Setting up bn8_bn
I0716 09:13:01.674422 29143 net.cpp:129] Top shape: 100 512 (51200)
I0716 09:13:01.674425 29143 net.cpp:137] Memory required for data: 392602000
I0716 09:13:01.674450 29143 layer_factory.hpp:77] Creating layer bn8_scal
I0716 09:13:01.674490 29143 net.cpp:84] Creating Layer bn8_scal
I0716 09:13:01.674499 29143 net.cpp:406] bn8_scal <- fc8_bn
I0716 09:13:01.674525 29143 net.cpp:380] bn8_scal -> fc8_sc
I0716 09:13:01.674631 29143 layer_factory.hpp:77] Creating layer bn8_scal
I0716 09:13:01.674813 29143 net.cpp:122] Setting up bn8_scal
I0716 09:13:01.674832 29143 net.cpp:129] Top shape: 100 512 (51200)
I0716 09:13:01.674836 29143 net.cpp:137] Memory required for data: 392806800
I0716 09:13:01.674849 29143 layer_factory.hpp:77] Creating layer relu8
I0716 09:13:01.674870 29143 net.cpp:84] Creating Layer relu8
I0716 09:13:01.674881 29143 net.cpp:406] relu8 <- fc8_sc
I0716 09:13:01.674906 29143 net.cpp:367] relu8 -> fc8_sc (in-place)
I0716 09:13:01.675482 29143 net.cpp:122] Setting up relu8
I0716 09:13:01.675493 29143 net.cpp:129] Top shape: 100 512 (51200)
I0716 09:13:01.675500 29143 net.cpp:137] Memory required for data: 393011600
I0716 09:13:01.675511 29143 layer_factory.hpp:77] Creating layer drop8
I0716 09:13:01.675545 29143 net.cpp:84] Creating Layer drop8
I0716 09:13:01.675565 29143 net.cpp:406] drop8 <- fc8_sc
I0716 09:13:01.675595 29143 net.cpp:367] drop8 -> fc8_sc (in-place)
I0716 09:13:01.675674 29143 net.cpp:122] Setting up drop8
I0716 09:13:01.675683 29143 net.cpp:129] Top shape: 100 512 (51200)
I0716 09:13:01.675696 29143 net.cpp:137] Memory required for data: 393216400
I0716 09:13:01.675704 29143 layer_factory.hpp:77] Creating layer fc9
I0716 09:13:01.675742 29143 net.cpp:84] Creating Layer fc9
I0716 09:13:01.675751 29143 net.cpp:406] fc9 <- fc8_sc
I0716 09:13:01.675786 29143 net.cpp:380] fc9 -> fc9
I0716 09:13:01.677029 29143 net.cpp:122] Setting up fc9
I0716 09:13:01.677042 29143 net.cpp:129] Top shape: 100 10 (1000)
I0716 09:13:01.677047 29143 net.cpp:137] Memory required for data: 393220400
I0716 09:13:01.677062 29143 layer_factory.hpp:77] Creating layer loss
I0716 09:13:01.677090 29143 net.cpp:84] Creating Layer loss
I0716 09:13:01.677101 29143 net.cpp:406] loss <- fc9
I0716 09:13:01.677115 29143 net.cpp:406] loss <- label
I0716 09:13:01.677139 29143 net.cpp:380] loss -> loss
I0716 09:13:01.677182 29143 layer_factory.hpp:77] Creating layer loss
…
I0716 09:13:01.678860 29143 net.cpp:294] The NetState phase (1) differed from the phase (0) specified by a rule in layer cifar
I0716 09:13:01.679100 29143 net.cpp:51] Initializing net from parameters: 
name: "CIFAR10_vgg"
state {
  phase: TEST
}
layer {
  name: "cifar"
  type: "Data"
  top: "data"
  top: "label"
  include {
    phase: TEST
  }
  transform_param {
    mirror: false
    crop_size: 32
    mean_file: "examples/cifar10/mean.binaryproto"
  }
  data_param {
    source: "examples/cifar10/cifar10_test_lmdb"
    batch_size: 100
    backend: LMDB
  }
}
layer {
  name: "conv1"
  type: "BinaryConvolution"
  bottom: "data"
  top: "conv1"
  param {
    lr_mult: 1
    decay_mult: 1
  }
  convolution_param {
    num_output: 64
    bias_term: false
    pad: 1
    kernel_size: 3
    stride: 1
    weight_filler {
      type: "gaussian"
      std: 0.01
    }
  }
  debug_param {
    xnorno_grad: false
  }
}
layer {
  name: "bn1_bn"
  type: "BatchNorm"
  bottom: "conv1"
  top: "conv1_bn"
}
layer {
  name: "bn1_scal"
  type: "Scale"
  bottom: "conv1_bn"
  top: "conv1_sc"
  scale_param {
    bias_term: true
  }
}
layer {
  name: "relu1"
  type: "ReLU"
  bottom: "conv1_sc"
  top: "conv1_sc"
}
layer {
  name: "conv2"
  type: "BinaryConvolution"
  bottom: "conv1_sc"
  top: "conv2"
  param {
    lr_mult: 1
    decay_mult: 1
  }
  convolution_param {
    num_output: 64
    bias_term: false
    pad: 1
    kernel_size: 3
    stride: 1
    weight_filler {
      type: "gaussian"
      std: 0.01
    }
  }
  debug_param {
    xnorno_grad: false
  }
}
layer {
  name: "bn2_bn"
  type: "BatchNorm"
  bottom: "conv2"
  top: "conv2_bn"
}
layer {
  name: "bn2_scal"
  type: "Scale"
  bottom: "conv2_bn"
  top: "conv2_sc"
  scale_param {
    bias_term: true
  }
}
layer {
  name: "relu2"
  type: "ReLU"
  bottom: "conv2_sc"
  top: "conv2_sc"
}
layer {
  name: "pool1"
  type: "Pooling"
  bottom: "conv2_sc"
  top: "pool1"
  pooling_param {
    pool: MAX
    kernel_size: 2
    stride: 2
  }
}
layer {
  name: "drop1"
  type: "Dropout"
  bottom: "pool1"
  top: "pool1"
  dropout_param {
    dropout_ratio: 0.25
  }
}
layer {
  name: "conv3"
  type: "BinaryConvolution"
  bottom: "pool1"
  top: "conv3"
  param {
    lr_mult: 1
    decay_mult: 1
  }
  convolution_param {
    num_output: 128
    bias_term: false
    pad: 1
    kernel_size: 3
    stride: 1
    weight_filler {
      type: "gaussian"
      std: 0.01
    }
  }
  debug_param {
    xnorno_grad: false
  }
}
layer {
  name: "bn3_bn"
  type: "BatchNorm"
  bottom: "conv3"
  top: "conv3_bn"
}
layer {
  name: "bn3_scal"
  type: "Scale"
  bottom: "conv3_bn"
  top: "conv3_sc"
  scale_param {
    bias_term: true
  }
}
layer {
  name: "relu3"
  type: "ReLU"
  bottom: "conv3_sc"
  top: "conv3_sc"
}
layer {
  name: "conv4"
  type: "BinaryConvolution"
  bottom: "conv3_sc"
  top: "conv4"
  param {
    lr_mult: 1
    decay_mult: 1
  }
  convolution_param {
    num_output: 128
    bias_term: false
    pad: 1
    kernel_size: 3
    stride: 1
    weight_filler {
      type: "gaussian"
      std: 0.01
    }
  }
  debug_param {
    xnorno_grad: false
  }
}
layer {
  name: "bn4_bn"
  type: "BatchNorm"
  bottom: "conv4"
  top: "conv4_bn"
}
layer {
  name: "bn4_scal"
  type: "Scale"
  bottom: "conv4_bn"
  top: "conv4_sc"
  scale_param {
    bias_term: true
  }
}
layer {
  name: "relu4"
  type: "ReLU"
  bottom: "conv4_sc"
  top: "conv4_sc"
}
layer {
  name: "pool2"
  type: "Pooling"
  bottom: "conv4_sc"
  top: "pool2"
  pooling_param {
    pool: MAX
    kernel_size: 2
    stride: 2
  }
}
layer {
  name: "drop2"
  type: "Dropout"
  bottom: "pool2"
  top: "pool2"
  dropout_param {
    dropout_ratio: 0.25
  }
}
layer {
  name: "conv5"
  type: "BinaryConvolution"
  bottom: "pool2"
  top: "conv5"
  param {
    lr_mult: 1
    decay_mult: 1
  }
  convolution_param {
    num_output: 256
    bias_term: false
    pad: 1
    kernel_size: 3
    stride: 1
    weight_filler {
      type: "gaussian"
      std: 0.01
    }
  }
  debug_param {
    xnorno_grad: false
  }
}
layer {
  name: "bn5_bn"
  type: "BatchNorm"
  bottom: "conv5"
  top: "conv5_bn"
}
layer {
  name: "bn5_scal"
  type: "Scale"
  bottom: "conv5_bn"
  top: "conv5_sc"
  scale_param {
    bias_term: true
  }
}
layer {
  name: "relu5"
  type: "ReLU"
  bottom: "conv5_sc"
  top: "conv5_sc"
}
layer {
  name: "conv6"
  type: "BinaryConvolution"
  bottom: "conv5_sc"
  top: "conv6"
  param {
    lr_mult: 1
    decay_mult: 1
  }
  convolution_param {
    num_output: 256
    bias_term: false
    pad: 1
    kernel_size: 3
    stride: 1
    weight_filler {
      type: "gaussian"
      std: 0.01
    }
  }
  debug_param {
    xnorno_grad: false
  }
}
layer {
  name: "bn6_bn"
  type: "BatchNorm"
  bottom: "conv6"
  top: "conv6_bn"
}
layer {
  name: "bn6_scal"
  type: "Scale"
  bottom: "conv6_bn"
  top: "conv6_sc"
  scale_param {
    bias_term: true
  }
}
layer {
  name: "relu6"
  type: "ReLU"
  bottom: "conv6_sc"
  top: "conv6_sc"
}
layer {
  name: "pool3"
  type: "Pooling"
  bottom: "conv6_sc"
  top: "pool3"
  pooling_param {
    pool: MAX
    kernel_size: 2
    stride: 2
  }
}
layer {
  name: "drop3"
  type: "Dropout"
  bottom: "pool3"
  top: "pool3"
  dropout_param {
    dropout_ratio: 0.25
  }
}
layer {
  name: "fc7"
  type: "BinaryInnerProduct"
  bottom: "pool3"
  top: "fc7"
  param {
    lr_mult: 1
    decay_mult: 1
  }
  inner_product_param {
    num_output: 512
    bias_term: false
    weight_filler {
      type: "gaussian"
      std: 0.01
    }
  }
  debug_param {
    xnorno_grad: false
  }
}
layer {
  name: "bn7_bn"
  type: "BatchNorm"
  bottom: "fc7"
  top: "fc7_bn"
}
layer {
  name: "bn7_scal"
  type: "Scale"
  bottom: "fc7_bn"
  top: "fc7_sc"
  scale_param {
    bias_term: true
  }
}
layer {
  name: "relu7"
  type: "ReLU"
  bottom: "fc7_sc"
  top: "fc7_sc"
}
layer {
  name: "drop7"
  type: "Dropout"
  bottom: "fc7_sc"
  top: "fc7_sc"
  dropout_param {
    dropout_ratio: 0.5
  }
}
layer {
  name: "fc8"
  type: "BinaryInnerProduct"
  bottom: "fc7_sc"
  top: "fc8"
  param {
    lr_mult: 1
    decay_mult: 1
  }
  inner_product_param {
    num_output: 512
    bias_term: false
    weight_filler {
      type: "gaussian"
      std: 0.01
    }
  }
  debug_param {
    xnorno_grad: false
  }
}
layer {
  name: "bn8_bn"
  type: "BatchNorm"
  bottom: "fc8"
  top: "fc8_bn"
}
layer {
  name: "bn8_scal"
  type: "Scale"
  bottom: "fc8_bn"
  top: "fc8_sc"
  scale_param {
    bias_term: true
  }
}
layer {
  name: "relu8"
  type: "ReLU"
  bottom: "fc8_sc"
  top: "fc8_sc"
}
layer {
  name: "drop8"
  type: "Dropout"
  bottom: "fc8_sc"
  top: "fc8_sc"
  dropout_param {
    dropout_ratio: 0.5
  }
}
layer {
  name: "fc9"
  type: "BinaryInnerProduct"
  bottom: "fc8_sc"
  top: "fc9"
  param {
    lr_mult: 1
    decay_mult: 1
  }
  param {
    lr_mult: 2
    decay_mult: 0
  }
  inner_product_param {
    num_output: 10
    weight_filler {
      type: "gaussian"
      std: 0.01
    }
    bias_filler {
      type: "constant"
      value: 0.01
    }
  }
  debug_param {
    xnorno_grad: false
  }
}
layer {
  name: "accuracy"
  type: "Accuracy"
  bottom: "fc9"
  bottom: "label"
  top: "accuracy"
  include {
    phase: TEST
  }
}
layer {
  name: "loss"
  type: "SoftmaxWithLoss"
  bottom: "fc9"
  bottom: "label"
  top: "loss"
}
I0716 09:13:01.679695 29143 layer_factory.hpp:77] Creating layer cifar
I0716 09:13:01.679782 29143 db_lmdb.cpp:35] Opened lmdb examples/cifar10/cifar10_test_lmdb
I0716 09:13:01.679808 29143 net.cpp:84] Creating Layer cifar
I0716 09:13:01.679828 29143 net.cpp:380] cifar -> data
I0716 09:13:01.679865 29143 net.cpp:380] cifar -> label
I0716 09:13:01.679893 29143 data_transformer.cpp:25] Loading mean file from: examples/cifar10/mean.binaryproto
I0716 09:13:01.680150 29143 data_layer.cpp:45] output data size: 100,3,32,32
I0716 09:13:01.682958 29143 base_data_layer.cpp:72] Initializing prefetch
I0716 09:13:01.683025 29143 base_data_layer.cpp:75] Prefetch initialized.
I0716 09:13:01.683034 29143 net.cpp:122] Setting up cifar
I0716 09:13:01.683056 29143 net.cpp:129] Top shape: 100 3 32 32 (307200)
I0716 09:13:01.683064 29143 net.cpp:129] Top shape: 100 (100)
I0716 09:13:01.683071 29143 net.cpp:137] Memory required for data: 1229200
I0716 09:13:01.683102 29143 layer_factory.hpp:77] Creating layer label_cifar_1_split
I0716 09:13:01.683142 29143 net.cpp:84] Creating Layer label_cifar_1_split
I0716 09:13:01.683156 29143 net.cpp:406] label_cifar_1_split <- label
I0716 09:13:01.683203 29143 net.cpp:380] label_cifar_1_split -> label_cifar_1_split_0
I0716 09:13:01.683239 29143 net.cpp:380] label_cifar_1_split -> label_cifar_1_split_1
I0716 09:13:01.683312 29143 net.cpp:122] Setting up label_cifar_1_split
I0716 09:13:01.683326 29143 net.cpp:129] Top shape: 100 (100)
I0716 09:13:01.683338 29143 net.cpp:129] Top shape: 100 (100)
I0716 09:13:01.683346 29143 net.cpp:137] Memory required for data: 1230000
I0716 09:13:01.683357 29143 layer_factory.hpp:77] Creating layer conv1
I0716 09:13:01.683394 29143 net.cpp:84] Creating Layer conv1
I0716 09:13:01.683404 29143 net.cpp:406] conv1 <- data
I0716 09:13:01.683432 29143 net.cpp:380] conv1 -> conv1
I0716 09:13:01.684140 29143 net.cpp:122] Setting up conv1
I0716 09:13:01.684154 29143 net.cpp:129] Top shape: 100 64 32 32 (6553600)
I0716 09:13:01.684165 29143 net.cpp:137] Memory required for data: 27444400
I0716 09:13:01.684195 29143 layer_factory.hpp:77] Creating layer bn1_bn
I0716 09:13:01.684217 29143 net.cpp:84] Creating Layer bn1_bn
I0716 09:13:01.684229 29143 net.cpp:406] bn1_bn <- conv1
I0716 09:13:01.684263 29143 net.cpp:380] bn1_bn -> conv1_bn
I0716 09:13:01.684535 29143 net.cpp:122] Setting up bn1_bn
I0716 09:13:01.684546 29143 net.cpp:129] Top shape: 100 64 32 32 (6553600)
I0716 09:13:01.684554 29143 net.cpp:137] Memory required for data: 53658800
I0716 09:13:01.684608 29143 layer_factory.hpp:77] Creating layer bn1_scal
I0716 09:13:01.684643 29143 net.cpp:84] Creating Layer bn1_scal
I0716 09:13:01.684656 29143 net.cpp:406] bn1_scal <- conv1_bn
I0716 09:13:01.684680 29143 net.cpp:380] bn1_scal -> conv1_sc
I0716 09:13:01.684787 29143 layer_factory.hpp:77] Creating layer bn1_scal
I0716 09:13:01.684976 29143 net.cpp:122] Setting up bn1_scal
I0716 09:13:01.684988 29143 net.cpp:129] Top shape: 100 64 32 32 (6553600)
I0716 09:13:01.684998 29143 net.cpp:137] Memory required for data: 79873200
I0716 09:13:01.685034 29143 layer_factory.hpp:77] Creating layer relu1
I0716 09:13:01.685053 29143 net.cpp:84] Creating Layer relu1
I0716 09:13:01.685067 29143 net.cpp:406] relu1 <- conv1_sc
I0716 09:13:01.685091 29143 net.cpp:367] relu1 -> conv1_sc (in-place)
I0716 09:13:01.685598 29143 net.cpp:122] Setting up relu1
I0716 09:13:01.685609 29143 net.cpp:129] Top shape: 100 64 32 32 (6553600)
I0716 09:13:01.685619 29143 net.cpp:137] Memory required for data: 106087600
I0716 09:13:01.685629 29143 layer_factory.hpp:77] Creating layer conv2
I0716 09:13:01.685654 29143 net.cpp:84] Creating Layer conv2
I0716 09:13:01.685669 29143 net.cpp:406] conv2 <- conv1_sc
I0716 09:13:01.685701 29143 net.cpp:380] conv2 -> conv2
I0716 09:13:01.690521 29143 net.cpp:122] Setting up conv2
I0716 09:13:01.690534 29143 net.cpp:129] Top shape: 100 64 32 32 (6553600)
I0716 09:13:01.690549 29143 net.cpp:137] Memory required for data: 132302000
I0716 09:13:01.690568 29143 layer_factory.hpp:77] Creating layer bn2_bn
I0716 09:13:01.690593 29143 net.cpp:84] Creating Layer bn2_bn
I0716 09:13:01.690606 29143 net.cpp:406] bn2_bn <- conv2
I0716 09:13:01.690634 29143 net.cpp:380] bn2_bn -> conv2_bn
I0716 09:13:01.690899 29143 net.cpp:122] Setting up bn2_bn
I0716 09:13:01.690913 29143 net.cpp:129] Top shape: 100 64 32 32 (6553600)
I0716 09:13:01.690922 29143 net.cpp:137] Memory required for data: 158516400
I0716 09:13:01.690963 29143 layer_factory.hpp:77] Creating layer bn2_scal
I0716 09:13:01.690989 29143 net.cpp:84] Creating Layer bn2_scal
I0716 09:13:01.691002 29143 net.cpp:406] bn2_scal <- conv2_bn
I0716 09:13:01.691028 29143 net.cpp:380] bn2_scal -> conv2_sc
I0716 09:13:01.691110 29143 layer_factory.hpp:77] Creating layer bn2_scal
I0716 09:13:01.691287 29143 net.cpp:122] Setting up bn2_scal
I0716 09:13:01.691298 29143 net.cpp:129] Top shape: 100 64 32 32 (6553600)
I0716 09:13:01.691308 29143 net.cpp:137] Memory required for data: 184730800
I0716 09:13:01.691331 29143 layer_factory.hpp:77] Creating layer relu2
I0716 09:13:01.691349 29143 net.cpp:84] Creating Layer relu2
I0716 09:13:01.691362 29143 net.cpp:406] relu2 <- conv2_sc
I0716 09:13:01.691388 29143 net.cpp:367] relu2 -> conv2_sc (in-place)
I0716 09:13:01.692047 29143 net.cpp:122] Setting up relu2
I0716 09:13:01.692072 29143 net.cpp:129] Top shape: 100 64 32 32 (6553600)
I0716 09:13:01.692083 29143 net.cpp:137] Memory required for data: 210945200
I0716 09:13:01.692095 29143 layer_factory.hpp:77] Creating layer pool1
I0716 09:13:01.692121 29143 net.cpp:84] Creating Layer pool1
I0716 09:13:01.692133 29143 net.cpp:406] pool1 <- conv2_sc
I0716 09:13:01.692162 29143 net.cpp:380] pool1 -> pool1
I0716 09:13:01.692237 29143 net.cpp:122] Setting up pool1
I0716 09:13:01.692250 29143 net.cpp:129] Top shape: 100 64 16 16 (1638400)
I0716 09:13:01.692257 29143 net.cpp:137] Memory required for data: 217498800
I0716 09:13:01.692268 29143 layer_factory.hpp:77] Creating layer drop1
I0716 09:13:01.692293 29143 net.cpp:84] Creating Layer drop1
I0716 09:13:01.692303 29143 net.cpp:406] drop1 <- pool1
I0716 09:13:01.692327 29143 net.cpp:367] drop1 -> pool1 (in-place)
I0716 09:13:01.692375 29143 net.cpp:122] Setting up drop1
I0716 09:13:01.692385 29143 net.cpp:129] Top shape: 100 64 16 16 (1638400)
I0716 09:13:01.692394 29143 net.cpp:137] Memory required for data: 224052400
I0716 09:13:01.692405 29143 layer_factory.hpp:77] Creating layer conv3
I0716 09:13:01.692436 29143 net.cpp:84] Creating Layer conv3
I0716 09:13:01.692446 29143 net.cpp:406] conv3 <- pool1
I0716 09:13:01.692476 29143 net.cpp:380] conv3 -> conv3
I0716 09:13:01.703649 29143 net.cpp:122] Setting up conv3
I0716 09:13:01.703667 29143 net.cpp:129] Top shape: 100 128 16 16 (3276800)
I0716 09:13:01.703671 29143 net.cpp:137] Memory required for data: 237159600
I0716 09:13:01.703685 29143 layer_factory.hpp:77] Creating layer bn3_bn
I0716 09:13:01.703706 29143 net.cpp:84] Creating Layer bn3_bn
I0716 09:13:01.703714 29143 net.cpp:406] bn3_bn <- conv3
I0716 09:13:01.703733 29143 net.cpp:380] bn3_bn -> conv3_bn
I0716 09:13:01.703969 29143 net.cpp:122] Setting up bn3_bn
I0716 09:13:01.703989 29143 net.cpp:129] Top shape: 100 128 16 16 (3276800)
I0716 09:13:01.703994 29143 net.cpp:137] Memory required for data: 250266800
I0716 09:13:01.704011 29143 layer_factory.hpp:77] Creating layer bn3_scal
I0716 09:13:01.704027 29143 net.cpp:84] Creating Layer bn3_scal
I0716 09:13:01.704035 29143 net.cpp:406] bn3_scal <- conv3_bn
I0716 09:13:01.704056 29143 net.cpp:380] bn3_scal -> conv3_sc
I0716 09:13:01.704135 29143 layer_factory.hpp:77] Creating layer bn3_scal
I0716 09:13:01.704295 29143 net.cpp:122] Setting up bn3_scal
I0716 09:13:01.704306 29143 net.cpp:129] Top shape: 100 128 16 16 (3276800)
I0716 09:13:01.704310 29143 net.cpp:137] Memory required for data: 263374000
I0716 09:13:01.704335 29143 layer_factory.hpp:77] Creating layer relu3
I0716 09:13:01.704349 29143 net.cpp:84] Creating Layer relu3
I0716 09:13:01.704357 29143 net.cpp:406] relu3 <- conv3_sc
I0716 09:13:01.704370 29143 net.cpp:367] relu3 -> conv3_sc (in-place)
I0716 09:13:01.704803 29143 net.cpp:122] Setting up relu3
I0716 09:13:01.704813 29143 net.cpp:129] Top shape: 100 128 16 16 (3276800)
I0716 09:13:01.704821 29143 net.cpp:137] Memory required for data: 276481200
I0716 09:13:01.704833 29143 layer_factory.hpp:77] Creating layer conv4
I0716 09:13:01.704870 29143 net.cpp:84] Creating Layer conv4
I0716 09:13:01.704880 29143 net.cpp:406] conv4 <- conv3_sc
I0716 09:13:01.704912 29143 net.cpp:380] conv4 -> conv4
I0716 09:13:01.722313 29143 net.cpp:122] Setting up conv4
I0716 09:13:01.722326 29143 net.cpp:129] Top shape: 100 128 16 16 (3276800)
I0716 09:13:01.722329 29143 net.cpp:137] Memory required for data: 289588400
I0716 09:13:01.722339 29143 layer_factory.hpp:77] Creating layer bn4_bn
I0716 09:13:01.722362 29143 net.cpp:84] Creating Layer bn4_bn
I0716 09:13:01.722369 29143 net.cpp:406] bn4_bn <- conv4
I0716 09:13:01.722391 29143 net.cpp:380] bn4_bn -> conv4_bn
I0716 09:13:01.722661 29143 net.cpp:122] Setting up bn4_bn
I0716 09:13:01.722671 29143 net.cpp:129] Top shape: 100 128 16 16 (3276800)
I0716 09:13:01.722676 29143 net.cpp:137] Memory required for data: 302695600
I0716 09:13:01.722692 29143 layer_factory.hpp:77] Creating layer bn4_scal
I0716 09:13:01.722714 29143 net.cpp:84] Creating Layer bn4_scal
I0716 09:13:01.722749 29143 net.cpp:406] bn4_scal <- conv4_bn
I0716 09:13:01.722779 29143 net.cpp:380] bn4_scal -> conv4_sc
I0716 09:13:01.722894 29143 layer_factory.hpp:77] Creating layer bn4_scal
I0716 09:13:01.723074 29143 net.cpp:122] Setting up bn4_scal
I0716 09:13:01.723086 29143 net.cpp:129] Top shape: 100 128 16 16 (3276800)
I0716 09:13:01.723090 29143 net.cpp:137] Memory required for data: 315802800
I0716 09:13:01.723101 29143 layer_factory.hpp:77] Creating layer relu4
I0716 09:13:01.723121 29143 net.cpp:84] Creating Layer relu4
I0716 09:13:01.723130 29143 net.cpp:406] relu4 <- conv4_sc
I0716 09:13:01.723170 29143 net.cpp:367] relu4 -> conv4_sc (in-place)
I0716 09:13:01.723709 29143 net.cpp:122] Setting up relu4
I0716 09:13:01.723721 29143 net.cpp:129] Top shape: 100 128 16 16 (3276800)
I0716 09:13:01.723727 29143 net.cpp:137] Memory required for data: 328910000
I0716 09:13:01.723738 29143 layer_factory.hpp:77] Creating layer pool2
I0716 09:13:01.723767 29143 net.cpp:84] Creating Layer pool2
I0716 09:13:01.723776 29143 net.cpp:406] pool2 <- conv4_sc
I0716 09:13:01.723803 29143 net.cpp:380] pool2 -> pool2
I0716 09:13:01.723875 29143 net.cpp:122] Setting up pool2
I0716 09:13:01.723886 29143 net.cpp:129] Top shape: 100 128 8 8 (819200)
I0716 09:13:01.723894 29143 net.cpp:137] Memory required for data: 332186800
I0716 09:13:01.723906 29143 layer_factory.hpp:77] Creating layer drop2
I0716 09:13:01.723927 29143 net.cpp:84] Creating Layer drop2
I0716 09:13:01.723937 29143 net.cpp:406] drop2 <- pool2
I0716 09:13:01.723963 29143 net.cpp:367] drop2 -> pool2 (in-place)
I0716 09:13:01.724009 29143 net.cpp:122] Setting up drop2
I0716 09:13:01.724021 29143 net.cpp:129] Top shape: 100 128 8 8 (819200)
I0716 09:13:01.724030 29143 net.cpp:137] Memory required for data: 335463600
I0716 09:13:01.724040 29143 layer_factory.hpp:77] Creating layer conv5
I0716 09:13:01.724071 29143 net.cpp:84] Creating Layer conv5
I0716 09:13:01.724082 29143 net.cpp:406] conv5 <- pool2
I0716 09:13:01.724114 29143 net.cpp:380] conv5 -> conv5
I0716 09:13:01.760118 29143 net.cpp:122] Setting up conv5
I0716 09:13:01.760139 29143 net.cpp:129] Top shape: 100 256 8 8 (1638400)
I0716 09:13:01.760143 29143 net.cpp:137] Memory required for data: 342017200
I0716 09:13:01.760157 29143 layer_factory.hpp:77] Creating layer bn5_bn
I0716 09:13:01.760187 29143 net.cpp:84] Creating Layer bn5_bn
I0716 09:13:01.760210 29143 net.cpp:406] bn5_bn <- conv5
I0716 09:13:01.760242 29143 net.cpp:380] bn5_bn -> conv5_bn
I0716 09:13:01.760522 29143 net.cpp:122] Setting up bn5_bn
I0716 09:13:01.760534 29143 net.cpp:129] Top shape: 100 256 8 8 (1638400)
I0716 09:13:01.760537 29143 net.cpp:137] Memory required for data: 348570800
I0716 09:13:01.760555 29143 layer_factory.hpp:77] Creating layer bn5_scal
I0716 09:13:01.760578 29143 net.cpp:84] Creating Layer bn5_scal
I0716 09:13:01.760591 29143 net.cpp:406] bn5_scal <- conv5_bn
I0716 09:13:01.760630 29143 net.cpp:380] bn5_scal -> conv5_sc
I0716 09:13:01.760718 29143 layer_factory.hpp:77] Creating layer bn5_scal
I0716 09:13:01.760905 29143 net.cpp:122] Setting up bn5_scal
I0716 09:13:01.760916 29143 net.cpp:129] Top shape: 100 256 8 8 (1638400)
I0716 09:13:01.760921 29143 net.cpp:137] Memory required for data: 355124400
I0716 09:13:01.760932 29143 layer_factory.hpp:77] Creating layer relu5
I0716 09:13:01.760953 29143 net.cpp:84] Creating Layer relu5
I0716 09:13:01.760960 29143 net.cpp:406] relu5 <- conv5_sc
I0716 09:13:01.760980 29143 net.cpp:367] relu5 -> conv5_sc (in-place)
I0716 09:13:01.761400 29143 net.cpp:122] Setting up relu5
I0716 09:13:01.761411 29143 net.cpp:129] Top shape: 100 256 8 8 (1638400)
I0716 09:13:01.761417 29143 net.cpp:137] Memory required for data: 361678000
I0716 09:13:01.761427 29143 layer_factory.hpp:77] Creating layer conv6
I0716 09:13:01.761456 29143 net.cpp:84] Creating Layer conv6
I0716 09:13:01.761476 29143 net.cpp:406] conv6 <- conv5_sc
I0716 09:13:01.761512 29143 net.cpp:380] conv6 -> conv6
I0716 09:13:01.831353 29143 net.cpp:122] Setting up conv6
I0716 09:13:01.831394 29143 net.cpp:129] Top shape: 100 256 8 8 (1638400)
I0716 09:13:01.831429 29143 net.cpp:137] Memory required for data: 368231600
I0716 09:13:01.831456 29143 layer_factory.hpp:77] Creating layer bn6_bn
I0716 09:13:01.831526 29143 net.cpp:84] Creating Layer bn6_bn
I0716 09:13:01.831542 29143 net.cpp:406] bn6_bn <- conv6
I0716 09:13:01.831593 29143 net.cpp:380] bn6_bn -> conv6_bn
I0716 09:13:01.831910 29143 net.cpp:122] Setting up bn6_bn
I0716 09:13:01.831930 29143 net.cpp:129] Top shape: 100 256 8 8 (1638400)
I0716 09:13:01.831934 29143 net.cpp:137] Memory required for data: 374785200
I0716 09:13:01.832005 29143 layer_factory.hpp:77] Creating layer bn6_scal
I0716 09:13:01.832037 29143 net.cpp:84] Creating Layer bn6_scal
I0716 09:13:01.832046 29143 net.cpp:406] bn6_scal <- conv6_bn
I0716 09:13:01.832068 29143 net.cpp:380] bn6_scal -> conv6_sc
I0716 09:13:01.832165 29143 layer_factory.hpp:77] Creating layer bn6_scal
I0716 09:13:01.832339 29143 net.cpp:122] Setting up bn6_scal
I0716 09:13:01.832351 29143 net.cpp:129] Top shape: 100 256 8 8 (1638400)
I0716 09:13:01.832360 29143 net.cpp:137] Memory required for data: 381338800
I0716 09:13:01.832383 29143 layer_factory.hpp:77] Creating layer relu6
I0716 09:13:01.832402 29143 net.cpp:84] Creating Layer relu6
I0716 09:13:01.832410 29143 net.cpp:406] relu6 <- conv6_sc
I0716 09:13:01.832425 29143 net.cpp:367] relu6 -> conv6_sc (in-place)
I0716 09:13:01.833041 29143 net.cpp:122] Setting up relu6
I0716 09:13:01.833053 29143 net.cpp:129] Top shape: 100 256 8 8 (1638400)
I0716 09:13:01.833060 29143 net.cpp:137] Memory required for data: 387892400
I0716 09:13:01.833071 29143 layer_factory.hpp:77] Creating layer pool3
I0716 09:13:01.833097 29143 net.cpp:84] Creating Layer pool3
I0716 09:13:01.833107 29143 net.cpp:406] pool3 <- conv6_sc
I0716 09:13:01.833137 29143 net.cpp:380] pool3 -> pool3
I0716 09:13:01.833211 29143 net.cpp:122] Setting up pool3
I0716 09:13:01.833225 29143 net.cpp:129] Top shape: 100 256 4 4 (409600)
I0716 09:13:01.833233 29143 net.cpp:137] Memory required for data: 389530800
I0716 09:13:01.833245 29143 layer_factory.hpp:77] Creating layer drop3
I0716 09:13:01.833267 29143 net.cpp:84] Creating Layer drop3
I0716 09:13:01.833278 29143 net.cpp:406] drop3 <- pool3
I0716 09:13:01.833302 29143 net.cpp:367] drop3 -> pool3 (in-place)
I0716 09:13:01.833351 29143 net.cpp:122] Setting up drop3
I0716 09:13:01.833361 29143 net.cpp:129] Top shape: 100 256 4 4 (409600)
I0716 09:13:01.833369 29143 net.cpp:137] Memory required for data: 391169200
I0716 09:13:01.833379 29143 layer_factory.hpp:77] Creating layer fc7
I0716 09:13:01.833422 29143 net.cpp:84] Creating Layer fc7
I0716 09:13:01.833432 29143 net.cpp:406] fc7 <- pool3
I0716 09:13:01.833452 29143 net.cpp:380] fc7 -> fc7
I0716 09:13:02.077795 29143 net.cpp:122] Setting up fc7
I0716 09:13:02.077834 29143 net.cpp:129] Top shape: 100 512 (51200)
I0716 09:13:02.077838 29143 net.cpp:137] Memory required for data: 391374000
I0716 09:13:02.077870 29143 layer_factory.hpp:77] Creating layer bn7_bn
I0716 09:13:02.077910 29143 net.cpp:84] Creating Layer bn7_bn
I0716 09:13:02.077942 29143 net.cpp:406] bn7_bn <- fc7
I0716 09:13:02.077970 29143 net.cpp:380] bn7_bn -> fc7_bn
I0716 09:13:02.078245 29143 net.cpp:122] Setting up bn7_bn
I0716 09:13:02.078255 29143 net.cpp:129] Top shape: 100 512 (51200)
I0716 09:13:02.078259 29143 net.cpp:137] Memory required for data: 391578800
I0716 09:13:02.078276 29143 layer_factory.hpp:77] Creating layer bn7_scal
I0716 09:13:02.078305 29143 net.cpp:84] Creating Layer bn7_scal
I0716 09:13:02.078331 29143 net.cpp:406] bn7_scal <- fc7_bn
I0716 09:13:02.078347 29143 net.cpp:380] bn7_scal -> fc7_sc
I0716 09:13:02.078440 29143 layer_factory.hpp:77] Creating layer bn7_scal
I0716 09:13:02.078631 29143 net.cpp:122] Setting up bn7_scal
I0716 09:13:02.078642 29143 net.cpp:129] Top shape: 100 512 (51200)
I0716 09:13:02.078646 29143 net.cpp:137] Memory required for data: 391783600
I0716 09:13:02.078660 29143 layer_factory.hpp:77] Creating layer relu7
I0716 09:13:02.078673 29143 net.cpp:84] Creating Layer relu7
I0716 09:13:02.078680 29143 net.cpp:406] relu7 <- fc7_sc
I0716 09:13:02.078725 29143 net.cpp:367] relu7 -> fc7_sc (in-place)
I0716 09:13:02.079360 29143 net.cpp:122] Setting up relu7
I0716 09:13:02.079371 29143 net.cpp:129] Top shape: 100 512 (51200)
I0716 09:13:02.079375 29143 net.cpp:137] Memory required for data: 391988400
I0716 09:13:02.079380 29143 layer_factory.hpp:77] Creating layer drop7
I0716 09:13:02.079406 29143 net.cpp:84] Creating Layer drop7
I0716 09:13:02.079412 29143 net.cpp:406] drop7 <- fc7_sc
I0716 09:13:02.079429 29143 net.cpp:367] drop7 -> fc7_sc (in-place)
I0716 09:13:02.079470 29143 net.cpp:122] Setting up drop7
I0716 09:13:02.079488 29143 net.cpp:129] Top shape: 100 512 (51200)
I0716 09:13:02.079493 29143 net.cpp:137] Memory required for data: 392193200
I0716 09:13:02.079497 29143 layer_factory.hpp:77] Creating layer fc8
I0716 09:13:02.079530 29143 net.cpp:84] Creating Layer fc8
I0716 09:13:02.079546 29143 net.cpp:406] fc8 <- fc7_sc
I0716 09:13:02.079574 29143 net.cpp:380] fc8 -> fc8
I0716 09:13:02.111433 29143 net.cpp:122] Setting up fc8
I0716 09:13:02.111457 29143 net.cpp:129] Top shape: 100 512 (51200)
I0716 09:13:02.111461 29143 net.cpp:137] Memory required for data: 392398000
I0716 09:13:02.111477 29143 layer_factory.hpp:77] Creating layer bn8_bn
I0716 09:13:02.111498 29143 net.cpp:84] Creating Layer bn8_bn
I0716 09:13:02.111510 29143 net.cpp:406] bn8_bn <- fc8
I0716 09:13:02.111531 29143 net.cpp:380] bn8_bn -> fc8_bn
I0716 09:13:02.111788 29143 net.cpp:122] Setting up bn8_bn
I0716 09:13:02.111799 29143 net.cpp:129] Top shape: 100 512 (51200)
I0716 09:13:02.111804 29143 net.cpp:137] Memory required for data: 392602800
I0716 09:13:02.111820 29143 layer_factory.hpp:77] Creating layer bn8_scal
I0716 09:13:02.111840 29143 net.cpp:84] Creating Layer bn8_scal
I0716 09:13:02.111847 29143 net.cpp:406] bn8_scal <- fc8_bn
I0716 09:13:02.111872 29143 net.cpp:380] bn8_scal -> fc8_sc
I0716 09:13:02.111968 29143 layer_factory.hpp:77] Creating layer bn8_scal
I0716 09:13:02.112165 29143 net.cpp:122] Setting up bn8_scal
I0716 09:13:02.112177 29143 net.cpp:129] Top shape: 100 512 (51200)
I0716 09:13:02.112180 29143 net.cpp:137] Memory required for data: 392807600
I0716 09:13:02.112192 29143 layer_factory.hpp:77] Creating layer relu8
I0716 09:13:02.112215 29143 net.cpp:84] Creating Layer relu8
I0716 09:13:02.112223 29143 net.cpp:406] relu8 <- fc8_sc
I0716 09:13:02.112246 29143 net.cpp:367] relu8 -> fc8_sc (in-place)
I0716 09:13:02.112707 29143 net.cpp:122] Setting up relu8
I0716 09:13:02.112717 29143 net.cpp:129] Top shape: 100 512 (51200)
I0716 09:13:02.112721 29143 net.cpp:137] Memory required for data: 393012400
I0716 09:13:02.112727 29143 layer_factory.hpp:77] Creating layer drop8
I0716 09:13:02.112741 29143 net.cpp:84] Creating Layer drop8
I0716 09:13:02.112747 29143 net.cpp:406] drop8 <- fc8_sc
I0716 09:13:02.112764 29143 net.cpp:367] drop8 -> fc8_sc (in-place)
I0716 09:13:02.112804 29143 net.cpp:122] Setting up drop8
I0716 09:13:02.112813 29143 net.cpp:129] Top shape: 100 512 (51200)
I0716 09:13:02.112818 29143 net.cpp:137] Memory required for data: 393217200
I0716 09:13:02.112823 29143 layer_factory.hpp:77] Creating layer fc9
I0716 09:13:02.112843 29143 net.cpp:84] Creating Layer fc9
I0716 09:13:02.112849 29143 net.cpp:406] fc9 <- fc8_sc
I0716 09:13:02.112869 29143 net.cpp:380] fc9 -> fc9
I0716 09:13:02.113737 29143 net.cpp:122] Setting up fc9
I0716 09:13:02.113749 29143 net.cpp:129] Top shape: 100 10 (1000)
I0716 09:13:02.113754 29143 net.cpp:137] Memory required for data: 393221200
I0716 09:13:02.113765 29143 layer_factory.hpp:77] Creating layer fc9_fc9_0_split
I0716 09:13:02.113780 29143 net.cpp:84] Creating Layer fc9_fc9_0_split
I0716 09:13:02.113787 29143 net.cpp:406] fc9_fc9_0_split <- fc9
I0716 09:13:02.113802 29143 net.cpp:380] fc9_fc9_0_split -> fc9_fc9_0_split_0
I0716 09:13:02.113829 29143 net.cpp:380] fc9_fc9_0_split -> fc9_fc9_0_split_1
I0716 09:13:02.113883 29143 net.cpp:122] Setting up fc9_fc9_0_split
I0716 09:13:02.113895 29143 net.cpp:129] Top shape: 100 10 (1000)
I0716 09:13:02.113900 29143 net.cpp:129] Top shape: 100 10 (1000)
I0716 09:13:02.113915 29143 net.cpp:137] Memory required for data: 393229200
I0716 09:13:02.113921 29143 layer_factory.hpp:77] Creating layer accuracy
I0716 09:13:02.113945 29143 net.cpp:84] Creating Layer accuracy
I0716 09:13:02.113952 29143 net.cpp:406] accuracy <- fc9_fc9_0_split_0
I0716 09:13:02.113966 29143 net.cpp:406] accuracy <- label_cifar_1_split_0
I0716 09:13:02.113979 29143 net.cpp:380] accuracy -> accuracy
…
