…
I0110 14:13:03.369719   846 net.cpp:294] The NetState phase (0) differed from the phase (1) specified by a rule in layer data
I0110 14:13:03.369964   846 net.cpp:51] Initializing net from parameters: 
name: "AlexNet-BN"
state {
  phase: TRAIN
  level: 0
  stage: ""
}
layer {
  name: "data"
  type: "Data"
  top: "data"
  top: "label"
  include {
    phase: TRAIN
  }
  transform_param {
    mirror: true
    crop_size: 224
    mean_value: 104
    mean_value: 117
    mean_value: 123
  }
  data_param {
    source: "/home/zhengzhe/Data/imagenet_shrt256/ilsvrc12_train_lmdb"
    batch_size: 256
    backend: LMDB
  }
}
layer {
  name: "conv1"
  type: "Convolution"
  bottom: "data"
  top: "conv1"
  param {
    lr_mult: 1
    decay_mult: 1
  }
  convolution_param {
    num_output: 96
    bias_term: false
    pad: 2
    kernel_size: 11
    stride: 4
    weight_filler {
      type: "msra"
    }
  }
}
layer {
  name: "bn1"
  type: "BatchNorm"
  bottom: "conv1"
  top: "conv1"
}
layer {
  name: "scale1"
  type: "Scale"
  bottom: "conv1"
  top: "conv1"
  scale_param {
    bias_term: true
  }
}
layer {
  name: "relu1"
  type: "ReLU"
  bottom: "conv1"
  top: "conv1"
}
layer {
  name: "pool1"
  type: "Pooling"
  bottom: "conv1"
  top: "pool1"
  pooling_param {
    pool: MAX
    kernel_size: 3
    stride: 2
  }
}
layer {
  name: "conv2"
  type: "BinaryConvolution"
  bottom: "pool1"
  top: "conv2"
  param {
    lr_mult: 1
    decay_mult: 1
  }
  convolution_param {
    num_output: 256
    bias_term: false
    pad: 2
    kernel_size: 5
    weight_filler {
      type: "msra"
    }
  }
  debug_param {
    binary_relax: true
  }
}
layer {
  name: "bn2"
  type: "BatchNorm"
  bottom: "conv2"
  top: "conv2"
}
layer {
  name: "scale2"
  type: "Scale"
  bottom: "conv2"
  top: "conv2"
  scale_param {
    bias_term: true
  }
}
layer {
  name: "relu2"
  type: "ReLU"
  bottom: "conv2"
  top: "conv2"
}
layer {
  name: "pool2"
  type: "Pooling"
  bottom: "conv2"
  top: "pool2"
  pooling_param {
    pool: MAX
    kernel_size: 3
    stride: 2
  }
}
layer {
  name: "conv3"
  type: "BinaryConvolution"
  bottom: "pool2"
  top: "conv3"
  param {
    lr_mult: 1
    decay_mult: 1
  }
  convolution_param {
    num_output: 384
    bias_term: false
    pad: 1
    kernel_size: 3
    weight_filler {
      type: "msra"
    }
  }
  debug_param {
    binary_relax: true
  }
}
layer {
  name: "bn3"
  type: "BatchNorm"
  bottom: "conv3"
  top: "conv3"
}
layer {
  name: "scale3"
  type: "Scale"
  bottom: "conv3"
  top: "conv3"
  scale_param {
    bias_term: true
  }
}
layer {
  name: "relu3"
  type: "ReLU"
  bottom: "conv3"
  top: "conv3"
}
layer {
  name: "conv4"
  type: "BinaryConvolution"
  bottom: "conv3"
  top: "conv4"
  param {
    lr_mult: 1
    decay_mult: 1
  }
  convolution_param {
    num_output: 384
    bias_term: false
    pad: 1
    kernel_size: 3
    weight_filler {
      type: "msra"
    }
  }
  debug_param {
    binary_relax: true
  }
}
layer {
  name: "bn4"
  type: "BatchNorm"
  bottom: "conv4"
  top: "conv4"
}
layer {
  name: "scale4"
  type: "Scale"
  bottom: "conv4"
  top: "conv4"
  scale_param {
    bias_term: true
  }
}
layer {
  name: "relu4"
  type: "ReLU"
  bottom: "conv4"
  top: "conv4"
}
layer {
  name: "conv5"
  type: "BinaryConvolution"
  bottom: "conv4"
  top: "conv5"
  param {
    lr_mult: 1
    decay_mult: 1
  }
  convolution_param {
    num_output: 256
    bias_term: false
    pad: 1
    kernel_size: 3
    weight_filler {
      type: "msra"
    }
  }
  debug_param {
    binary_relax: true
  }
}
layer {
  name: "bn5"
  type: "BatchNorm"
  bottom: "conv5"
  top: "conv5"
}
layer {
  name: "scale5"
  type: "Scale"
  bottom: "conv5"
  top: "conv5"
  scale_param {
    bias_term: true
  }
}
layer {
  name: "relu5"
  type: "ReLU"
  bottom: "conv5"
  top: "conv5"
}
layer {
  name: "pool5"
  type: "Pooling"
  bottom: "conv5"
  top: "pool5"
  pooling_param {
    pool: MAX
    kernel_size: 3
    stride: 2
  }
}
layer {
  name: "fc6"
  type: "BinaryInnerProduct"
  bottom: "pool5"
  top: "fc6"
  param {
    lr_mult: 1
    decay_mult: 1
  }
  inner_product_param {
    num_output: 4096
    bias_term: false
    weight_filler {
      type: "msra"
    }
  }
  debug_param {
    binary_relax: true
  }
}
layer {
  name: "bn6"
  type: "BatchNorm"
  bottom: "fc6"
  top: "fc6"
}
layer {
  name: "scale6"
  type: "Scale"
  bottom: "fc6"
  top: "fc6"
  scale_param {
    bias_term: true
  }
}
layer {
  name: "relu6"
  type: "ReLU"
  bottom: "fc6"
  top: "fc6"
}
layer {
  name: "drop6"
  type: "Dropout"
  bottom: "fc6"
  top: "fc6"
  dropout_param {
    dropout_ratio: 0.5
  }
}
layer {
  name: "fc7"
  type: "BinaryInnerProduct"
  bottom: "fc6"
  top: "fc7"
  param {
    lr_mult: 1
    decay_mult: 1
  }
  inner_product_param {
    num_output: 4096
    bias_term: false
    weight_filler {
      type: "msra"
    }
  }
  debug_param {
    binary_relax: true
  }
}
layer {
  name: "bn7"
  type: "BatchNorm"
  bottom: "fc7"
  top: "fc7"
}
layer {
  name: "scale7"
  type: "Scale"
  bottom: "fc7"
  top: "fc7"
  scale_param {
    bias_term: true
  }
}
layer {
  name: "relu7"
  type: "ReLU"
  bottom: "fc7"
  top: "fc7"
}
layer {
  name: "drop7"
  type: "Dropout"
  bottom: "fc7"
  top: "fc7"
  dropout_param {
    dropout_ratio: 0.5
  }
}
layer {
  name: "fc8"
  type: "InnerProduct"
  bottom: "fc7"
  top: "fc8"
  param {
    lr_mult: 1
    decay_mult: 1
  }
  param {
    lr_mult: 2
    decay_mult: 0
  }
  inner_product_param {
    num_output: 1000
    weight_filler {
      type: "msra"
    }
    bias_filler {
      type: "constant"
      value: 0
    }
  }
}
layer {
  name: "loss"
  type: "SoftmaxWithLoss"
  bottom: "fc8"
  bottom: "label"
  top: "loss"
}
layer {
  name: "accuracy"
  type: "Accuracy"
  bottom: "fc8"
  bottom: "label"
  top: "accuracy"
}
layer {
  name: "accuracy_5"
  type: "Accuracy"
  bottom: "fc8"
  bottom: "label"
  top: "accuracy_5"
  accuracy_param {
    top_k: 5
  }
}
I0110 14:13:03.370738   846 layer_factory.hpp:78] Creating layer data
I0110 14:13:03.371232   846 db_lmdb.cpp:35] Opened lmdb /home/zhengzhe/Data/imagenet_shrt256/ilsvrc12_train_lmdb
I0110 14:13:03.371333   846 net.cpp:84] Creating Layer data
I0110 14:13:03.371381   846 net.cpp:380] data -> data
I0110 14:13:03.371559   846 net.cpp:380] data -> label
I0110 14:13:03.374106   846 data_layer.cpp:45] output data size: 256,3,224,224
I0110 14:13:03.784768   846 base_data_layer.cpp:72] Initializing prefetch
I0110 14:13:03.785444   846 base_data_layer.cpp:75] Prefetch initialized.
I0110 14:13:03.785459   846 net.cpp:122] Setting up data
I0110 14:13:03.785501   846 net.cpp:129] Top shape: 256 3 224 224 (38535168)
I0110 14:13:03.785511   846 net.cpp:129] Top shape: 256 (256)
I0110 14:13:03.785516   846 net.cpp:137] Memory required for data: 154141696
I0110 14:13:03.785550   846 layer_factory.hpp:78] Creating layer label_data_1_split
I0110 14:13:03.785610   846 net.cpp:84] Creating Layer label_data_1_split
I0110 14:13:03.785639   846 net.cpp:406] label_data_1_split <- label
I0110 14:13:03.785702   846 net.cpp:380] label_data_1_split -> label_data_1_split_0
I0110 14:13:03.785753   846 net.cpp:380] label_data_1_split -> label_data_1_split_1
I0110 14:13:03.785771   846 net.cpp:380] label_data_1_split -> label_data_1_split_2
I0110 14:13:03.785874   846 net.cpp:122] Setting up label_data_1_split
I0110 14:13:03.785888   846 net.cpp:129] Top shape: 256 (256)
I0110 14:13:03.785903   846 net.cpp:129] Top shape: 256 (256)
I0110 14:13:03.785912   846 net.cpp:129] Top shape: 256 (256)
I0110 14:13:03.785914   846 net.cpp:137] Memory required for data: 154144768
I0110 14:13:03.785940   846 layer_factory.hpp:78] Creating layer conv1
I0110 14:13:03.786020   846 net.cpp:84] Creating Layer conv1
I0110 14:13:03.786031   846 net.cpp:406] conv1 <- data
I0110 14:13:03.786051   846 net.cpp:380] conv1 -> conv1
I0110 14:13:16.395208   846 cudnn_conv_layer.cpp:194] Reallocating workspace storage: 127416
I0110 14:13:16.395630   846 net.cpp:122] Setting up conv1
I0110 14:13:16.395666   846 net.cpp:129] Top shape: 256 96 55 55 (74342400)
I0110 14:13:16.395673   846 net.cpp:137] Memory required for data: 451514368
I0110 14:13:16.395797   846 layer_factory.hpp:78] Creating layer bn1
I0110 14:13:16.395854   846 net.cpp:84] Creating Layer bn1
I0110 14:13:16.395872   846 net.cpp:406] bn1 <- conv1
I0110 14:13:16.395907   846 net.cpp:367] bn1 -> conv1 (in-place)
I0110 14:13:16.398324   846 net.cpp:122] Setting up bn1
I0110 14:13:16.398370   846 net.cpp:129] Top shape: 256 96 55 55 (74342400)
I0110 14:13:16.398375   846 net.cpp:137] Memory required for data: 748883968
I0110 14:13:16.398468   846 layer_factory.hpp:78] Creating layer scale1
I0110 14:13:16.398535   846 net.cpp:84] Creating Layer scale1
I0110 14:13:16.398550   846 net.cpp:406] scale1 <- conv1
I0110 14:13:16.398574   846 net.cpp:367] scale1 -> conv1 (in-place)
I0110 14:13:16.398694   846 layer_factory.hpp:78] Creating layer scale1
I0110 14:13:16.398936   846 net.cpp:122] Setting up scale1
I0110 14:13:16.398950   846 net.cpp:129] Top shape: 256 96 55 55 (74342400)
I0110 14:13:16.398955   846 net.cpp:137] Memory required for data: 1046253568
I0110 14:13:16.398979   846 layer_factory.hpp:78] Creating layer relu1
I0110 14:13:16.399016   846 net.cpp:84] Creating Layer relu1
I0110 14:13:16.399025   846 net.cpp:406] relu1 <- conv1
I0110 14:13:16.399040   846 net.cpp:367] relu1 -> conv1 (in-place)
I0110 14:13:16.399741   846 net.cpp:122] Setting up relu1
I0110 14:13:16.399756   846 net.cpp:129] Top shape: 256 96 55 55 (74342400)
I0110 14:13:16.399760   846 net.cpp:137] Memory required for data: 1343623168
I0110 14:13:16.399767   846 layer_factory.hpp:78] Creating layer pool1
I0110 14:13:16.399794   846 net.cpp:84] Creating Layer pool1
I0110 14:13:16.399803   846 net.cpp:406] pool1 <- conv1
I0110 14:13:16.399824   846 net.cpp:380] pool1 -> pool1
I0110 14:13:16.399915   846 net.cpp:122] Setting up pool1
I0110 14:13:16.399930   846 net.cpp:129] Top shape: 256 96 27 27 (17915904)
I0110 14:13:16.399935   846 net.cpp:137] Memory required for data: 1415286784
I0110 14:13:16.399942   846 layer_factory.hpp:78] Creating layer conv2
I0110 14:13:16.399986   846 net.cpp:84] Creating Layer conv2
I0110 14:13:16.399996   846 net.cpp:406] conv2 <- pool1
I0110 14:13:16.400015   846 net.cpp:380] conv2 -> conv2
I0110 14:13:16.459218   846 cudnn_binary_conv_layer.cpp:194] Reallocating workspace storage: 19668
I0110 14:13:16.459276   846 net.cpp:122] Setting up conv2
I0110 14:13:16.459298   846 net.cpp:129] Top shape: 256 256 27 27 (47775744)
I0110 14:13:16.459302   846 net.cpp:137] Memory required for data: 1606389760
I0110 14:13:16.459334   846 layer_factory.hpp:78] Creating layer bn2
I0110 14:13:16.459390   846 net.cpp:84] Creating Layer bn2
I0110 14:13:16.459408   846 net.cpp:406] bn2 <- conv2
I0110 14:13:16.459439   846 net.cpp:367] bn2 -> conv2 (in-place)
I0110 14:13:16.461027   846 net.cpp:122] Setting up bn2
I0110 14:13:16.461045   846 net.cpp:129] Top shape: 256 256 27 27 (47775744)
I0110 14:13:16.461050   846 net.cpp:137] Memory required for data: 1797492736
I0110 14:13:16.461088   846 layer_factory.hpp:78] Creating layer scale2
I0110 14:13:16.461114   846 net.cpp:84] Creating Layer scale2
I0110 14:13:16.461124   846 net.cpp:406] scale2 <- conv2
I0110 14:13:16.461143   846 net.cpp:367] scale2 -> conv2 (in-place)
I0110 14:13:16.461217   846 layer_factory.hpp:78] Creating layer scale2
I0110 14:13:16.461403   846 net.cpp:122] Setting up scale2
I0110 14:13:16.461417   846 net.cpp:129] Top shape: 256 256 27 27 (47775744)
I0110 14:13:16.461421   846 net.cpp:137] Memory required for data: 1988595712
I0110 14:13:16.461436   846 layer_factory.hpp:78] Creating layer relu2
I0110 14:13:16.461478   846 net.cpp:84] Creating Layer relu2
I0110 14:13:16.461488   846 net.cpp:406] relu2 <- conv2
I0110 14:13:16.461504   846 net.cpp:367] relu2 -> conv2 (in-place)
I0110 14:13:16.462100   846 net.cpp:122] Setting up relu2
I0110 14:13:16.462113   846 net.cpp:129] Top shape: 256 256 27 27 (47775744)
I0110 14:13:16.462117   846 net.cpp:137] Memory required for data: 2179698688
I0110 14:13:16.462126   846 layer_factory.hpp:78] Creating layer pool2
I0110 14:13:16.462147   846 net.cpp:84] Creating Layer pool2
I0110 14:13:16.462154   846 net.cpp:406] pool2 <- conv2
I0110 14:13:16.462174   846 net.cpp:380] pool2 -> pool2
I0110 14:13:16.462252   846 net.cpp:122] Setting up pool2
I0110 14:13:16.462270   846 net.cpp:129] Top shape: 256 256 13 13 (11075584)
I0110 14:13:16.462275   846 net.cpp:137] Memory required for data: 2224001024
I0110 14:13:16.462281   846 layer_factory.hpp:78] Creating layer conv3
I0110 14:13:16.462312   846 net.cpp:84] Creating Layer conv3
I0110 14:13:16.462321   846 net.cpp:406] conv3 <- pool2
I0110 14:13:16.462347   846 net.cpp:380] conv3 -> conv3
I0110 14:13:16.565210   846 cudnn_binary_conv_layer.cpp:194] Reallocating workspace storage: 18874368
I0110 14:13:16.565687   846 net.cpp:122] Setting up conv3
I0110 14:13:16.565723   846 net.cpp:129] Top shape: 256 384 13 13 (16613376)
I0110 14:13:16.565732   846 net.cpp:137] Memory required for data: 2290454528
I0110 14:13:16.565779   846 layer_factory.hpp:78] Creating layer bn3
I0110 14:13:16.565835   846 net.cpp:84] Creating Layer bn3
I0110 14:13:16.565857   846 net.cpp:406] bn3 <- conv3
I0110 14:13:16.565901   846 net.cpp:367] bn3 -> conv3 (in-place)
I0110 14:13:16.566242   846 net.cpp:122] Setting up bn3
I0110 14:13:16.566257   846 net.cpp:129] Top shape: 256 384 13 13 (16613376)
I0110 14:13:16.566263   846 net.cpp:137] Memory required for data: 2356908032
I0110 14:13:16.566294   846 layer_factory.hpp:78] Creating layer scale3
I0110 14:13:16.566332   846 net.cpp:84] Creating Layer scale3
I0110 14:13:16.566350   846 net.cpp:406] scale3 <- conv3
I0110 14:13:16.566375   846 net.cpp:367] scale3 -> conv3 (in-place)
I0110 14:13:16.566464   846 layer_factory.hpp:78] Creating layer scale3
I0110 14:13:16.566704   846 net.cpp:122] Setting up scale3
I0110 14:13:16.566720   846 net.cpp:129] Top shape: 256 384 13 13 (16613376)
I0110 14:13:16.566726   846 net.cpp:137] Memory required for data: 2423361536
I0110 14:13:16.566776   846 layer_factory.hpp:78] Creating layer relu3
I0110 14:13:16.566802   846 net.cpp:84] Creating Layer relu3
I0110 14:13:16.566812   846 net.cpp:406] relu3 <- conv3
I0110 14:13:16.566833   846 net.cpp:367] relu3 -> conv3 (in-place)
I0110 14:13:16.568011   846 net.cpp:122] Setting up relu3
I0110 14:13:16.568032   846 net.cpp:129] Top shape: 256 384 13 13 (16613376)
I0110 14:13:16.568039   846 net.cpp:137] Memory required for data: 2489815040
I0110 14:13:16.568084   846 layer_factory.hpp:78] Creating layer conv4
I0110 14:13:16.568147   846 net.cpp:84] Creating Layer conv4
I0110 14:13:16.568161   846 net.cpp:406] conv4 <- conv3
I0110 14:13:16.568193   846 net.cpp:380] conv4 -> conv4
I0110 14:13:16.729868   846 cudnn_binary_conv_layer.cpp:194] Reallocating workspace storage: 9840
I0110 14:13:16.729928   846 net.cpp:122] Setting up conv4
I0110 14:13:16.729954   846 net.cpp:129] Top shape: 256 384 13 13 (16613376)
I0110 14:13:16.729959   846 net.cpp:137] Memory required for data: 2556268544
I0110 14:13:16.729996   846 layer_factory.hpp:78] Creating layer bn4
I0110 14:13:16.730041   846 net.cpp:84] Creating Layer bn4
I0110 14:13:16.730057   846 net.cpp:406] bn4 <- conv4
I0110 14:13:16.730093   846 net.cpp:367] bn4 -> conv4 (in-place)
I0110 14:13:16.730350   846 net.cpp:122] Setting up bn4
I0110 14:13:16.730361   846 net.cpp:129] Top shape: 256 384 13 13 (16613376)
I0110 14:13:16.730367   846 net.cpp:137] Memory required for data: 2622722048
I0110 14:13:16.730391   846 layer_factory.hpp:78] Creating layer scale4
I0110 14:13:16.730413   846 net.cpp:84] Creating Layer scale4
I0110 14:13:16.730422   846 net.cpp:406] scale4 <- conv4
I0110 14:13:16.730463   846 net.cpp:367] scale4 -> conv4 (in-place)
I0110 14:13:16.730536   846 layer_factory.hpp:78] Creating layer scale4
I0110 14:13:16.730716   846 net.cpp:122] Setting up scale4
I0110 14:13:16.730729   846 net.cpp:129] Top shape: 256 384 13 13 (16613376)
I0110 14:13:16.730734   846 net.cpp:137] Memory required for data: 2689175552
I0110 14:13:16.730751   846 layer_factory.hpp:78] Creating layer relu4
I0110 14:13:16.730767   846 net.cpp:84] Creating Layer relu4
I0110 14:13:16.730774   846 net.cpp:406] relu4 <- conv4
I0110 14:13:16.730787   846 net.cpp:367] relu4 -> conv4 (in-place)
I0110 14:13:16.732470   846 net.cpp:122] Setting up relu4
I0110 14:13:16.732488   846 net.cpp:129] Top shape: 256 384 13 13 (16613376)
I0110 14:13:16.732493   846 net.cpp:137] Memory required for data: 2755629056
I0110 14:13:16.732499   846 layer_factory.hpp:78] Creating layer conv5
I0110 14:13:16.732540   846 net.cpp:84] Creating Layer conv5
I0110 14:13:16.732551   846 net.cpp:406] conv5 <- conv4
I0110 14:13:16.732575   846 net.cpp:380] conv5 -> conv5
I0110 14:13:16.834645   846 cudnn_binary_conv_layer.cpp:194] Reallocating workspace storage: 18874368
I0110 14:13:16.838863   846 net.cpp:122] Setting up conv5
I0110 14:13:16.838907   846 net.cpp:129] Top shape: 256 256 13 13 (11075584)
I0110 14:13:16.838915   846 net.cpp:137] Memory required for data: 2799931392
I0110 14:13:16.838958   846 layer_factory.hpp:78] Creating layer bn5
I0110 14:13:16.839006   846 net.cpp:84] Creating Layer bn5
I0110 14:13:16.839028   846 net.cpp:406] bn5 <- conv5
I0110 14:13:16.839068   846 net.cpp:367] bn5 -> conv5 (in-place)
I0110 14:13:16.839426   846 net.cpp:122] Setting up bn5
I0110 14:13:16.839442   846 net.cpp:129] Top shape: 256 256 13 13 (11075584)
I0110 14:13:16.839448   846 net.cpp:137] Memory required for data: 2844233728
I0110 14:13:16.839478   846 layer_factory.hpp:78] Creating layer scale5
I0110 14:13:16.839510   846 net.cpp:84] Creating Layer scale5
I0110 14:13:16.839521   846 net.cpp:406] scale5 <- conv5
I0110 14:13:16.839541   846 net.cpp:367] scale5 -> conv5 (in-place)
I0110 14:13:16.839637   846 layer_factory.hpp:78] Creating layer scale5
I0110 14:13:16.839871   846 net.cpp:122] Setting up scale5
I0110 14:13:16.839890   846 net.cpp:129] Top shape: 256 256 13 13 (11075584)
I0110 14:13:16.839897   846 net.cpp:137] Memory required for data: 2888536064
I0110 14:13:16.839921   846 layer_factory.hpp:78] Creating layer relu5
I0110 14:13:16.839942   846 net.cpp:84] Creating Layer relu5
I0110 14:13:16.839953   846 net.cpp:406] relu5 <- conv5
I0110 14:13:16.839972   846 net.cpp:367] relu5 -> conv5 (in-place)
I0110 14:13:16.840826   846 net.cpp:122] Setting up relu5
I0110 14:13:16.840847   846 net.cpp:129] Top shape: 256 256 13 13 (11075584)
I0110 14:13:16.840852   846 net.cpp:137] Memory required for data: 2932838400
I0110 14:13:16.840864   846 layer_factory.hpp:78] Creating layer pool5
I0110 14:13:16.840894   846 net.cpp:84] Creating Layer pool5
I0110 14:13:16.840904   846 net.cpp:406] pool5 <- conv5
I0110 14:13:16.840931   846 net.cpp:380] pool5 -> pool5
I0110 14:13:16.841033   846 net.cpp:122] Setting up pool5
I0110 14:13:16.841053   846 net.cpp:129] Top shape: 256 256 6 6 (2359296)
I0110 14:13:16.841060   846 net.cpp:137] Memory required for data: 2942275584
I0110 14:13:16.841069   846 layer_factory.hpp:78] Creating layer fc6
I0110 14:13:16.841120   846 net.cpp:84] Creating Layer fc6
I0110 14:13:16.841132   846 net.cpp:406] fc6 <- pool5
I0110 14:13:16.841161   846 net.cpp:380] fc6 -> fc6
I0110 14:13:21.028877   846 net.cpp:122] Setting up fc6
I0110 14:13:21.028957   846 net.cpp:129] Top shape: 256 4096 (1048576)
I0110 14:13:21.028962   846 net.cpp:137] Memory required for data: 2946469888
I0110 14:13:21.029000   846 layer_factory.hpp:78] Creating layer bn6
I0110 14:13:21.029042   846 net.cpp:84] Creating Layer bn6
I0110 14:13:21.029062   846 net.cpp:406] bn6 <- fc6
I0110 14:13:21.029089   846 net.cpp:367] bn6 -> fc6 (in-place)
I0110 14:13:21.029387   846 net.cpp:122] Setting up bn6
I0110 14:13:21.029399   846 net.cpp:129] Top shape: 256 4096 (1048576)
I0110 14:13:21.029423   846 net.cpp:137] Memory required for data: 2950664192
I0110 14:13:21.029469   846 layer_factory.hpp:78] Creating layer scale6
I0110 14:13:21.029497   846 net.cpp:84] Creating Layer scale6
I0110 14:13:21.029506   846 net.cpp:406] scale6 <- fc6
I0110 14:13:21.029523   846 net.cpp:367] scale6 -> fc6 (in-place)
I0110 14:13:21.029605   846 layer_factory.hpp:78] Creating layer scale6
I0110 14:13:21.029789   846 net.cpp:122] Setting up scale6
I0110 14:13:21.029803   846 net.cpp:129] Top shape: 256 4096 (1048576)
I0110 14:13:21.029806   846 net.cpp:137] Memory required for data: 2954858496
I0110 14:13:21.029821   846 layer_factory.hpp:78] Creating layer relu6
I0110 14:13:21.029850   846 net.cpp:84] Creating Layer relu6
I0110 14:13:21.029857   846 net.cpp:406] relu6 <- fc6
I0110 14:13:21.029872   846 net.cpp:367] relu6 -> fc6 (in-place)
I0110 14:13:21.031062   846 net.cpp:122] Setting up relu6
I0110 14:13:21.031081   846 net.cpp:129] Top shape: 256 4096 (1048576)
I0110 14:13:21.031086   846 net.cpp:137] Memory required for data: 2959052800
I0110 14:13:21.031093   846 layer_factory.hpp:78] Creating layer drop6
I0110 14:13:21.031118   846 net.cpp:84] Creating Layer drop6
I0110 14:13:21.031126   846 net.cpp:406] drop6 <- fc6
I0110 14:13:21.031143   846 net.cpp:367] drop6 -> fc6 (in-place)
I0110 14:13:21.031198   846 net.cpp:122] Setting up drop6
I0110 14:13:21.031208   846 net.cpp:129] Top shape: 256 4096 (1048576)
I0110 14:13:21.031211   846 net.cpp:137] Memory required for data: 2963247104
I0110 14:13:21.031219   846 layer_factory.hpp:78] Creating layer fc7
I0110 14:13:21.031246   846 net.cpp:84] Creating Layer fc7
I0110 14:13:21.031255   846 net.cpp:406] fc7 <- fc6
I0110 14:13:21.031275   846 net.cpp:380] fc7 -> fc7
I0110 14:13:22.576975   846 net.cpp:122] Setting up fc7
I0110 14:13:22.577021   846 net.cpp:129] Top shape: 256 4096 (1048576)
I0110 14:13:22.577026   846 net.cpp:137] Memory required for data: 2967441408
I0110 14:13:22.577059   846 layer_factory.hpp:78] Creating layer bn7
I0110 14:13:22.577106   846 net.cpp:84] Creating Layer bn7
I0110 14:13:22.577124   846 net.cpp:406] bn7 <- fc7
I0110 14:13:22.577149   846 net.cpp:367] bn7 -> fc7 (in-place)
I0110 14:13:22.577448   846 net.cpp:122] Setting up bn7
I0110 14:13:22.577461   846 net.cpp:129] Top shape: 256 4096 (1048576)
I0110 14:13:22.577466   846 net.cpp:137] Memory required for data: 2971635712
I0110 14:13:22.577489   846 layer_factory.hpp:78] Creating layer scale7
I0110 14:13:22.577525   846 net.cpp:84] Creating Layer scale7
I0110 14:13:22.577535   846 net.cpp:406] scale7 <- fc7
I0110 14:13:22.577553   846 net.cpp:367] scale7 -> fc7 (in-place)
I0110 14:13:22.577642   846 layer_factory.hpp:78] Creating layer scale7
I0110 14:13:22.577827   846 net.cpp:122] Setting up scale7
I0110 14:13:22.577842   846 net.cpp:129] Top shape: 256 4096 (1048576)
I0110 14:13:22.577847   846 net.cpp:137] Memory required for data: 2975830016
I0110 14:13:22.577862   846 layer_factory.hpp:78] Creating layer relu7
I0110 14:13:22.577880   846 net.cpp:84] Creating Layer relu7
I0110 14:13:22.577888   846 net.cpp:406] relu7 <- fc7
I0110 14:13:22.577903   846 net.cpp:367] relu7 -> fc7 (in-place)
I0110 14:13:22.578868   846 net.cpp:122] Setting up relu7
I0110 14:13:22.578883   846 net.cpp:129] Top shape: 256 4096 (1048576)
I0110 14:13:22.578887   846 net.cpp:137] Memory required for data: 2980024320
I0110 14:13:22.578893   846 layer_factory.hpp:78] Creating layer drop7
I0110 14:13:22.578913   846 net.cpp:84] Creating Layer drop7
I0110 14:13:22.578922   846 net.cpp:406] drop7 <- fc7
I0110 14:13:22.578939   846 net.cpp:367] drop7 -> fc7 (in-place)
I0110 14:13:22.578985   846 net.cpp:122] Setting up drop7
I0110 14:13:22.578994   846 net.cpp:129] Top shape: 256 4096 (1048576)
I0110 14:13:22.579000   846 net.cpp:137] Memory required for data: 2984218624
I0110 14:13:22.579006   846 layer_factory.hpp:78] Creating layer fc8
I0110 14:13:22.579041   846 net.cpp:84] Creating Layer fc8
I0110 14:13:22.579051   846 net.cpp:406] fc8 <- fc7
I0110 14:13:22.579071   846 net.cpp:380] fc8 -> fc8
I0110 14:13:22.948482   846 net.cpp:122] Setting up fc8
I0110 14:13:22.948554   846 net.cpp:129] Top shape: 256 1000 (256000)
I0110 14:13:22.948560   846 net.cpp:137] Memory required for data: 2985242624
I0110 14:13:22.948606   846 layer_factory.hpp:78] Creating layer fc8_fc8_0_split
I0110 14:13:22.948660   846 net.cpp:84] Creating Layer fc8_fc8_0_split
I0110 14:13:22.948680   846 net.cpp:406] fc8_fc8_0_split <- fc8
I0110 14:13:22.948712   846 net.cpp:380] fc8_fc8_0_split -> fc8_fc8_0_split_0
I0110 14:13:22.948750   846 net.cpp:380] fc8_fc8_0_split -> fc8_fc8_0_split_1
I0110 14:13:22.948765   846 net.cpp:380] fc8_fc8_0_split -> fc8_fc8_0_split_2
I0110 14:13:22.948859   846 net.cpp:122] Setting up fc8_fc8_0_split
I0110 14:13:22.948873   846 net.cpp:129] Top shape: 256 1000 (256000)
I0110 14:13:22.948880   846 net.cpp:129] Top shape: 256 1000 (256000)
I0110 14:13:22.948886   846 net.cpp:129] Top shape: 256 1000 (256000)
I0110 14:13:22.948889   846 net.cpp:137] Memory required for data: 2988314624
I0110 14:13:22.948895   846 layer_factory.hpp:78] Creating layer loss
I0110 14:13:22.948921   846 net.cpp:84] Creating Layer loss
I0110 14:13:22.948930   846 net.cpp:406] loss <- fc8_fc8_0_split_0
I0110 14:13:22.948945   846 net.cpp:406] loss <- label_data_1_split_0
I0110 14:13:22.948961   846 net.cpp:380] loss -> loss
…
I0110 14:13:22.955153   846 net.cpp:294] The NetState phase (1) differed from the phase (0) specified by a rule in layer data
I0110 14:13:22.955385   846 net.cpp:51] Initializing net from parameters: 
name: "AlexNet-BN"
state {
  phase: TEST
}
layer {
  name: "data"
  type: "Data"
  top: "data"
  top: "label"
  include {
    phase: TEST
  }
  transform_param {
    mirror: false
    crop_size: 224
    mean_value: 104
    mean_value: 117
    mean_value: 123
  }
  data_param {
    source: "/home/zhengzhe/Data/imagenet_shrt256/ilsvrc12_val_lmdb"
    batch_size: 50
    backend: LMDB
  }
}
layer {
  name: "conv1"
  type: "Convolution"
  bottom: "data"
  top: "conv1"
  param {
    lr_mult: 1
    decay_mult: 1
  }
  convolution_param {
    num_output: 96
    bias_term: false
    pad: 2
    kernel_size: 11
    stride: 4
    weight_filler {
      type: "msra"
    }
  }
}
layer {
  name: "bn1"
  type: "BatchNorm"
  bottom: "conv1"
  top: "conv1"
}
layer {
  name: "scale1"
  type: "Scale"
  bottom: "conv1"
  top: "conv1"
  scale_param {
    bias_term: true
  }
}
layer {
  name: "relu1"
  type: "ReLU"
  bottom: "conv1"
  top: "conv1"
}
layer {
  name: "pool1"
  type: "Pooling"
  bottom: "conv1"
  top: "pool1"
  pooling_param {
    pool: MAX
    kernel_size: 3
    stride: 2
  }
}
layer {
  name: "conv2"
  type: "BinaryConvolution"
  bottom: "pool1"
  top: "conv2"
  param {
    lr_mult: 1
    decay_mult: 1
  }
  convolution_param {
    num_output: 256
    bias_term: false
    pad: 2
    kernel_size: 5
    weight_filler {
      type: "msra"
    }
  }
  debug_param {
    binary_relax: true
  }
}
layer {
  name: "bn2"
  type: "BatchNorm"
  bottom: "conv2"
  top: "conv2"
}
layer {
  name: "scale2"
  type: "Scale"
  bottom: "conv2"
  top: "conv2"
  scale_param {
    bias_term: true
  }
}
layer {
  name: "relu2"
  type: "ReLU"
  bottom: "conv2"
  top: "conv2"
}
layer {
  name: "pool2"
  type: "Pooling"
  bottom: "conv2"
  top: "pool2"
  pooling_param {
    pool: MAX
    kernel_size: 3
    stride: 2
  }
}
layer {
  name: "conv3"
  type: "BinaryConvolution"
  bottom: "pool2"
  top: "conv3"
  param {
    lr_mult: 1
    decay_mult: 1
  }
  convolution_param {
    num_output: 384
    bias_term: false
    pad: 1
    kernel_size: 3
    weight_filler {
      type: "msra"
    }
  }
  debug_param {
    binary_relax: true
  }
}
layer {
  name: "bn3"
  type: "BatchNorm"
  bottom: "conv3"
  top: "conv3"
}
layer {
  name: "scale3"
  type: "Scale"
  bottom: "conv3"
  top: "conv3"
  scale_param {
    bias_term: true
  }
}
layer {
  name: "relu3"
  type: "ReLU"
  bottom: "conv3"
  top: "conv3"
}
layer {
  name: "conv4"
  type: "BinaryConvolution"
  bottom: "conv3"
  top: "conv4"
  param {
    lr_mult: 1
    decay_mult: 1
  }
  convolution_param {
    num_output: 384
    bias_term: false
    pad: 1
    kernel_size: 3
    weight_filler {
      type: "msra"
    }
  }
  debug_param {
    binary_relax: true
  }
}
layer {
  name: "bn4"
  type: "BatchNorm"
  bottom: "conv4"
  top: "conv4"
}
layer {
  name: "scale4"
  type: "Scale"
  bottom: "conv4"
  top: "conv4"
  scale_param {
    bias_term: true
  }
}
layer {
  name: "relu4"
  type: "ReLU"
  bottom: "conv4"
  top: "conv4"
}
layer {
  name: "conv5"
  type: "BinaryConvolution"
  bottom: "conv4"
  top: "conv5"
  param {
    lr_mult: 1
    decay_mult: 1
  }
  convolution_param {
    num_output: 256
    bias_term: false
    pad: 1
    kernel_size: 3
    weight_filler {
      type: "msra"
    }
  }
  debug_param {
    binary_relax: true
  }
}
layer {
  name: "bn5"
  type: "BatchNorm"
  bottom: "conv5"
  top: "conv5"
}
layer {
  name: "scale5"
  type: "Scale"
  bottom: "conv5"
  top: "conv5"
  scale_param {
    bias_term: true
  }
}
layer {
  name: "relu5"
  type: "ReLU"
  bottom: "conv5"
  top: "conv5"
}
layer {
  name: "pool5"
  type: "Pooling"
  bottom: "conv5"
  top: "pool5"
  pooling_param {
    pool: MAX
    kernel_size: 3
    stride: 2
  }
}
layer {
  name: "fc6"
  type: "BinaryInnerProduct"
  bottom: "pool5"
  top: "fc6"
  param {
    lr_mult: 1
    decay_mult: 1
  }
  inner_product_param {
    num_output: 4096
    bias_term: false
    weight_filler {
      type: "msra"
    }
  }
  debug_param {
    binary_relax: true
  }
}
layer {
  name: "bn6"
  type: "BatchNorm"
  bottom: "fc6"
  top: "fc6"
}
layer {
  name: "scale6"
  type: "Scale"
  bottom: "fc6"
  top: "fc6"
  scale_param {
    bias_term: true
  }
}
layer {
  name: "relu6"
  type: "ReLU"
  bottom: "fc6"
  top: "fc6"
}
layer {
  name: "drop6"
  type: "Dropout"
  bottom: "fc6"
  top: "fc6"
  dropout_param {
    dropout_ratio: 0.5
  }
}
layer {
  name: "fc7"
  type: "BinaryInnerProduct"
  bottom: "fc6"
  top: "fc7"
  param {
    lr_mult: 1
    decay_mult: 1
  }
  inner_product_param {
    num_output: 4096
    bias_term: false
    weight_filler {
      type: "msra"
    }
  }
  debug_param {
    binary_relax: true
  }
}
layer {
  name: "bn7"
  type: "BatchNorm"
  bottom: "fc7"
  top: "fc7"
}
layer {
  name: "scale7"
  type: "Scale"
  bottom: "fc7"
  top: "fc7"
  scale_param {
    bias_term: true
  }
}
layer {
  name: "relu7"
  type: "ReLU"
  bottom: "fc7"
  top: "fc7"
}
layer {
  name: "drop7"
  type: "Dropout"
  bottom: "fc7"
  top: "fc7"
  dropout_param {
    dropout_ratio: 0.5
  }
}
layer {
  name: "fc8"
  type: "InnerProduct"
  bottom: "fc7"
  top: "fc8"
  param {
    lr_mult: 1
    decay_mult: 1
  }
  param {
    lr_mult: 2
    decay_mult: 0
  }
  inner_product_param {
    num_output: 1000
    weight_filler {
      type: "msra"
    }
    bias_filler {
      type: "constant"
      value: 0
    }
  }
}
layer {
  name: "loss"
  type: "SoftmaxWithLoss"
  bottom: "fc8"
  bottom: "label"
  top: "loss"
}
layer {
  name: "accuracy"
  type: "Accuracy"
  bottom: "fc8"
  bottom: "label"
  top: "accuracy"
}
layer {
  name: "accuracy_5"
  type: "Accuracy"
  bottom: "fc8"
  bottom: "label"
  top: "accuracy_5"
  accuracy_param {
    top_k: 5
  }
}
I0110 14:13:22.955772   846 layer_factory.hpp:78] Creating layer data
I0110 14:13:22.999578   846 db_lmdb.cpp:35] Opened lmdb /home/zhengzhe/Data/imagenet_shrt256/ilsvrc12_val_lmdb
I0110 14:13:22.999634   846 net.cpp:84] Creating Layer data
I0110 14:13:22.999667   846 net.cpp:380] data -> data
I0110 14:13:22.999719   846 net.cpp:380] data -> label
I0110 14:13:23.000367   846 data_layer.cpp:45] output data size: 50,3,224,224
I0110 14:13:23.083058   846 base_data_layer.cpp:72] Initializing prefetch
I0110 14:13:23.574131   846 base_data_layer.cpp:75] Prefetch initialized.
I0110 14:13:23.574237   846 net.cpp:122] Setting up data
I0110 14:13:23.574290   846 net.cpp:129] Top shape: 50 3 224 224 (7526400)
I0110 14:13:23.574318   846 net.cpp:129] Top shape: 50 (50)
I0110 14:13:23.574349   846 net.cpp:137] Memory required for data: 30105800
I0110 14:13:23.574409   846 layer_factory.hpp:78] Creating layer label_data_1_split
I0110 14:13:23.574497   846 net.cpp:84] Creating Layer label_data_1_split
I0110 14:13:23.574538   846 net.cpp:406] label_data_1_split <- label
I0110 14:13:23.574606   846 net.cpp:380] label_data_1_split -> label_data_1_split_0
I0110 14:13:23.574693   846 net.cpp:380] label_data_1_split -> label_data_1_split_1
I0110 14:13:23.574744   846 net.cpp:380] label_data_1_split -> label_data_1_split_2
I0110 14:13:23.575019   846 net.cpp:122] Setting up label_data_1_split
I0110 14:13:23.575062   846 net.cpp:129] Top shape: 50 (50)
I0110 14:13:23.575093   846 net.cpp:129] Top shape: 50 (50)
I0110 14:13:23.575122   846 net.cpp:129] Top shape: 50 (50)
I0110 14:13:23.575145   846 net.cpp:137] Memory required for data: 30106400
I0110 14:13:23.575175   846 layer_factory.hpp:78] Creating layer conv1
I0110 14:13:23.575258   846 net.cpp:84] Creating Layer conv1
I0110 14:13:23.575292   846 net.cpp:406] conv1 <- data
I0110 14:13:23.575348   846 net.cpp:380] conv1 -> conv1
I0110 14:13:23.584214   846 cudnn_conv_layer.cpp:194] Reallocating workspace storage: 127416
I0110 14:13:23.584331   846 net.cpp:122] Setting up conv1
I0110 14:13:23.584379   846 net.cpp:129] Top shape: 50 96 55 55 (14520000)
I0110 14:13:23.584403   846 net.cpp:137] Memory required for data: 88186400
I0110 14:13:23.584468   846 layer_factory.hpp:78] Creating layer bn1
I0110 14:13:23.584524   846 net.cpp:84] Creating Layer bn1
I0110 14:13:23.584556   846 net.cpp:406] bn1 <- conv1
I0110 14:13:23.584602   846 net.cpp:367] bn1 -> conv1 (in-place)
I0110 14:13:23.585033   846 net.cpp:122] Setting up bn1
I0110 14:13:23.585070   846 net.cpp:129] Top shape: 50 96 55 55 (14520000)
I0110 14:13:23.585093   846 net.cpp:137] Memory required for data: 146266400
I0110 14:13:23.585158   846 layer_factory.hpp:78] Creating layer scale1
I0110 14:13:23.585217   846 net.cpp:84] Creating Layer scale1
I0110 14:13:23.585247   846 net.cpp:406] scale1 <- conv1
I0110 14:13:23.585286   846 net.cpp:367] scale1 -> conv1 (in-place)
I0110 14:13:23.585422   846 layer_factory.hpp:78] Creating layer scale1
I0110 14:13:23.585731   846 net.cpp:122] Setting up scale1
I0110 14:13:23.585768   846 net.cpp:129] Top shape: 50 96 55 55 (14520000)
I0110 14:13:23.585793   846 net.cpp:137] Memory required for data: 204346400
I0110 14:13:23.585839   846 layer_factory.hpp:78] Creating layer relu1
I0110 14:13:23.585882   846 net.cpp:84] Creating Layer relu1
I0110 14:13:23.585909   846 net.cpp:406] relu1 <- conv1
I0110 14:13:23.585947   846 net.cpp:367] relu1 -> conv1 (in-place)
I0110 14:13:23.586818   846 net.cpp:122] Setting up relu1
I0110 14:13:23.586858   846 net.cpp:129] Top shape: 50 96 55 55 (14520000)
I0110 14:13:23.586884   846 net.cpp:137] Memory required for data: 262426400
I0110 14:13:23.586905   846 layer_factory.hpp:78] Creating layer pool1
I0110 14:13:23.586946   846 net.cpp:84] Creating Layer pool1
I0110 14:13:23.586974   846 net.cpp:406] pool1 <- conv1
I0110 14:13:23.587018   846 net.cpp:380] pool1 -> pool1
I0110 14:13:23.587138   846 net.cpp:122] Setting up pool1
I0110 14:13:23.587175   846 net.cpp:129] Top shape: 50 96 27 27 (3499200)
I0110 14:13:23.587198   846 net.cpp:137] Memory required for data: 276423200
I0110 14:13:23.587235   846 layer_factory.hpp:78] Creating layer conv2
I0110 14:13:23.587296   846 net.cpp:84] Creating Layer conv2
I0110 14:13:23.587349   846 net.cpp:406] conv2 <- pool1
I0110 14:13:23.587399   846 net.cpp:380] conv2 -> conv2
I0110 14:13:23.670205   846 cudnn_binary_conv_layer.cpp:194] Reallocating workspace storage: 19668
I0110 14:13:23.670279   846 net.cpp:122] Setting up conv2
I0110 14:13:23.670310   846 net.cpp:129] Top shape: 50 256 27 27 (9331200)
I0110 14:13:23.670320   846 net.cpp:137] Memory required for data: 313748000
I0110 14:13:23.670369   846 layer_factory.hpp:78] Creating layer bn2
I0110 14:13:23.670434   846 net.cpp:84] Creating Layer bn2
I0110 14:13:23.670455   846 net.cpp:406] bn2 <- conv2
I0110 14:13:23.670495   846 net.cpp:367] bn2 -> conv2 (in-place)
I0110 14:13:23.670879   846 net.cpp:122] Setting up bn2
I0110 14:13:23.670895   846 net.cpp:129] Top shape: 50 256 27 27 (9331200)
I0110 14:13:23.670902   846 net.cpp:137] Memory required for data: 351072800
I0110 14:13:23.670953   846 layer_factory.hpp:78] Creating layer scale2
I0110 14:13:23.670987   846 net.cpp:84] Creating Layer scale2
I0110 14:13:23.670998   846 net.cpp:406] scale2 <- conv2
I0110 14:13:23.671020   846 net.cpp:367] scale2 -> conv2 (in-place)
I0110 14:13:23.671128   846 layer_factory.hpp:78] Creating layer scale2
I0110 14:13:23.671433   846 net.cpp:122] Setting up scale2
I0110 14:13:23.671452   846 net.cpp:129] Top shape: 50 256 27 27 (9331200)
I0110 14:13:23.671458   846 net.cpp:137] Memory required for data: 388397600
I0110 14:13:23.671481   846 layer_factory.hpp:78] Creating layer relu2
I0110 14:13:23.671504   846 net.cpp:84] Creating Layer relu2
I0110 14:13:23.671514   846 net.cpp:406] relu2 <- conv2
I0110 14:13:23.671535   846 net.cpp:367] relu2 -> conv2 (in-place)
I0110 14:13:23.672776   846 net.cpp:122] Setting up relu2
I0110 14:13:23.672801   846 net.cpp:129] Top shape: 50 256 27 27 (9331200)
I0110 14:13:23.672808   846 net.cpp:137] Memory required for data: 425722400
I0110 14:13:23.672817   846 layer_factory.hpp:78] Creating layer pool2
I0110 14:13:23.672849   846 net.cpp:84] Creating Layer pool2
I0110 14:13:23.672860   846 net.cpp:406] pool2 <- conv2
I0110 14:13:23.672886   846 net.cpp:380] pool2 -> pool2
I0110 14:13:23.672996   846 net.cpp:122] Setting up pool2
I0110 14:13:23.673015   846 net.cpp:129] Top shape: 50 256 13 13 (2163200)
I0110 14:13:23.673022   846 net.cpp:137] Memory required for data: 434375200
I0110 14:13:23.673030   846 layer_factory.hpp:78] Creating layer conv3
I0110 14:13:23.673076   846 net.cpp:84] Creating Layer conv3
I0110 14:13:23.673089   846 net.cpp:406] conv3 <- pool2
I0110 14:13:23.673118   846 net.cpp:380] conv3 -> conv3
I0110 14:13:23.758249   846 cudnn_binary_conv_layer.cpp:194] Reallocating workspace storage: 18874368
I0110 14:13:23.758666   846 net.cpp:122] Setting up conv3
I0110 14:13:23.758700   846 net.cpp:129] Top shape: 50 384 13 13 (3244800)
I0110 14:13:23.758724   846 net.cpp:137] Memory required for data: 447354400
I0110 14:13:23.758767   846 layer_factory.hpp:78] Creating layer bn3
I0110 14:13:23.758822   846 net.cpp:84] Creating Layer bn3
I0110 14:13:23.758850   846 net.cpp:406] bn3 <- conv3
I0110 14:13:23.758909   846 net.cpp:367] bn3 -> conv3 (in-place)
I0110 14:13:23.759223   846 net.cpp:122] Setting up bn3
I0110 14:13:23.759240   846 net.cpp:129] Top shape: 50 384 13 13 (3244800)
I0110 14:13:23.759261   846 net.cpp:137] Memory required for data: 460333600
I0110 14:13:23.759296   846 layer_factory.hpp:78] Creating layer scale3
I0110 14:13:23.759327   846 net.cpp:84] Creating Layer scale3
I0110 14:13:23.759343   846 net.cpp:406] scale3 <- conv3
I0110 14:13:23.759368   846 net.cpp:367] scale3 -> conv3 (in-place)
I0110 14:13:23.759469   846 layer_factory.hpp:78] Creating layer scale3
I0110 14:13:23.759685   846 net.cpp:122] Setting up scale3
I0110 14:13:23.759702   846 net.cpp:129] Top shape: 50 384 13 13 (3244800)
I0110 14:13:23.759711   846 net.cpp:137] Memory required for data: 473312800
I0110 14:13:23.759749   846 layer_factory.hpp:78] Creating layer relu3
I0110 14:13:23.759773   846 net.cpp:84] Creating Layer relu3
I0110 14:13:23.759784   846 net.cpp:406] relu3 <- conv3
I0110 14:13:23.759830   846 net.cpp:367] relu3 -> conv3 (in-place)
I0110 14:13:23.760812   846 net.cpp:122] Setting up relu3
I0110 14:13:23.760830   846 net.cpp:129] Top shape: 50 384 13 13 (3244800)
I0110 14:13:23.760836   846 net.cpp:137] Memory required for data: 486292000
I0110 14:13:23.760846   846 layer_factory.hpp:78] Creating layer conv4
I0110 14:13:23.760913   846 net.cpp:84] Creating Layer conv4
I0110 14:13:23.760942   846 net.cpp:406] conv4 <- conv3
I0110 14:13:23.760974   846 net.cpp:380] conv4 -> conv4
I0110 14:13:23.899215   846 cudnn_binary_conv_layer.cpp:194] Reallocating workspace storage: 9840
I0110 14:13:23.899279   846 net.cpp:122] Setting up conv4
I0110 14:13:23.899307   846 net.cpp:129] Top shape: 50 384 13 13 (3244800)
I0110 14:13:23.899315   846 net.cpp:137] Memory required for data: 499271200
I0110 14:13:23.899364   846 layer_factory.hpp:78] Creating layer bn4
I0110 14:13:23.899417   846 net.cpp:84] Creating Layer bn4
I0110 14:13:23.899435   846 net.cpp:406] bn4 <- conv4
I0110 14:13:23.899471   846 net.cpp:367] bn4 -> conv4 (in-place)
I0110 14:13:23.899771   846 net.cpp:122] Setting up bn4
I0110 14:13:23.899782   846 net.cpp:129] Top shape: 50 384 13 13 (3244800)
I0110 14:13:23.899787   846 net.cpp:137] Memory required for data: 512250400
I0110 14:13:23.899811   846 layer_factory.hpp:78] Creating layer scale4
I0110 14:13:23.899837   846 net.cpp:84] Creating Layer scale4
I0110 14:13:23.899845   846 net.cpp:406] scale4 <- conv4
I0110 14:13:23.899861   846 net.cpp:367] scale4 -> conv4 (in-place)
I0110 14:13:23.899940   846 layer_factory.hpp:78] Creating layer scale4
I0110 14:13:23.900125   846 net.cpp:122] Setting up scale4
I0110 14:13:23.900137   846 net.cpp:129] Top shape: 50 384 13 13 (3244800)
I0110 14:13:23.900142   846 net.cpp:137] Memory required for data: 525229600
I0110 14:13:23.900158   846 layer_factory.hpp:78] Creating layer relu4
I0110 14:13:23.900176   846 net.cpp:84] Creating Layer relu4
I0110 14:13:23.900183   846 net.cpp:406] relu4 <- conv4
I0110 14:13:23.900200   846 net.cpp:367] relu4 -> conv4 (in-place)
I0110 14:13:23.900844   846 net.cpp:122] Setting up relu4
I0110 14:13:23.900864   846 net.cpp:129] Top shape: 50 384 13 13 (3244800)
I0110 14:13:23.900871   846 net.cpp:137] Memory required for data: 538208800
I0110 14:13:23.900882   846 layer_factory.hpp:78] Creating layer conv5
I0110 14:13:23.900923   846 net.cpp:84] Creating Layer conv5
I0110 14:13:23.900934   846 net.cpp:406] conv5 <- conv4
I0110 14:13:23.900955   846 net.cpp:380] conv5 -> conv5
I0110 14:13:23.997191   846 cudnn_binary_conv_layer.cpp:194] Reallocating workspace storage: 18874368
I0110 14:13:23.997741   846 net.cpp:122] Setting up conv5
I0110 14:13:23.997818   846 net.cpp:129] Top shape: 50 256 13 13 (2163200)
I0110 14:13:23.997851   846 net.cpp:137] Memory required for data: 546861600
I0110 14:13:23.997937   846 layer_factory.hpp:78] Creating layer bn5
I0110 14:13:23.998028   846 net.cpp:84] Creating Layer bn5
I0110 14:13:23.998080   846 net.cpp:406] bn5 <- conv5
I0110 14:13:23.998144   846 net.cpp:367] bn5 -> conv5 (in-place)
I0110 14:13:23.998651   846 net.cpp:122] Setting up bn5
I0110 14:13:23.998689   846 net.cpp:129] Top shape: 50 256 13 13 (2163200)
I0110 14:13:23.998709   846 net.cpp:137] Memory required for data: 555514400
I0110 14:13:23.998772   846 layer_factory.hpp:78] Creating layer scale5
I0110 14:13:23.998849   846 net.cpp:84] Creating Layer scale5
I0110 14:13:23.998884   846 net.cpp:406] scale5 <- conv5
I0110 14:13:23.998936   846 net.cpp:367] scale5 -> conv5 (in-place)
I0110 14:13:23.999111   846 layer_factory.hpp:78] Creating layer scale5
I0110 14:13:23.999433   846 net.cpp:122] Setting up scale5
I0110 14:13:23.999474   846 net.cpp:129] Top shape: 50 256 13 13 (2163200)
I0110 14:13:23.999498   846 net.cpp:137] Memory required for data: 564167200
I0110 14:13:23.999534   846 layer_factory.hpp:78] Creating layer relu5
I0110 14:13:23.999572   846 net.cpp:84] Creating Layer relu5
I0110 14:13:23.999613   846 net.cpp:406] relu5 <- conv5
I0110 14:13:23.999655   846 net.cpp:367] relu5 -> conv5 (in-place)
I0110 14:13:24.000686   846 net.cpp:122] Setting up relu5
I0110 14:13:24.000730   846 net.cpp:129] Top shape: 50 256 13 13 (2163200)
I0110 14:13:24.000751   846 net.cpp:137] Memory required for data: 572820000
I0110 14:13:24.000777   846 layer_factory.hpp:78] Creating layer pool5
I0110 14:13:24.000839   846 net.cpp:84] Creating Layer pool5
I0110 14:13:24.000870   846 net.cpp:406] pool5 <- conv5
I0110 14:13:24.000933   846 net.cpp:380] pool5 -> pool5
I0110 14:13:24.001063   846 net.cpp:122] Setting up pool5
I0110 14:13:24.001106   846 net.cpp:129] Top shape: 50 256 6 6 (460800)
I0110 14:13:24.001130   846 net.cpp:137] Memory required for data: 574663200
I0110 14:13:24.001152   846 layer_factory.hpp:78] Creating layer fc6
I0110 14:13:24.001209   846 net.cpp:84] Creating Layer fc6
I0110 14:13:24.001242   846 net.cpp:406] fc6 <- pool5
I0110 14:13:24.001291   846 net.cpp:380] fc6 -> fc6
I0110 14:13:28.110556   846 net.cpp:122] Setting up fc6
I0110 14:13:28.110677   846 net.cpp:129] Top shape: 50 4096 (204800)
I0110 14:13:28.110703   846 net.cpp:137] Memory required for data: 575482400
I0110 14:13:28.110772   846 layer_factory.hpp:78] Creating layer bn6
I0110 14:13:28.110841   846 net.cpp:84] Creating Layer bn6
I0110 14:13:28.110882   846 net.cpp:406] bn6 <- fc6
I0110 14:13:28.110944   846 net.cpp:367] bn6 -> fc6 (in-place)
I0110 14:13:28.111446   846 net.cpp:122] Setting up bn6
I0110 14:13:28.111492   846 net.cpp:129] Top shape: 50 4096 (204800)
I0110 14:13:28.111517   846 net.cpp:137] Memory required for data: 576301600
I0110 14:13:28.111598   846 layer_factory.hpp:78] Creating layer scale6
I0110 14:13:28.111658   846 net.cpp:84] Creating Layer scale6
I0110 14:13:28.111690   846 net.cpp:406] scale6 <- fc6
I0110 14:13:28.111737   846 net.cpp:367] scale6 -> fc6 (in-place)
I0110 14:13:28.111932   846 layer_factory.hpp:78] Creating layer scale6
I0110 14:13:28.112243   846 net.cpp:122] Setting up scale6
I0110 14:13:28.112282   846 net.cpp:129] Top shape: 50 4096 (204800)
I0110 14:13:28.112303   846 net.cpp:137] Memory required for data: 577120800
I0110 14:13:28.112350   846 layer_factory.hpp:78] Creating layer relu6
I0110 14:13:28.112398   846 net.cpp:84] Creating Layer relu6
I0110 14:13:28.112426   846 net.cpp:406] relu6 <- fc6
I0110 14:13:28.112468   846 net.cpp:367] relu6 -> fc6 (in-place)
I0110 14:13:28.114362   846 net.cpp:122] Setting up relu6
I0110 14:13:28.114405   846 net.cpp:129] Top shape: 50 4096 (204800)
I0110 14:13:28.114428   846 net.cpp:137] Memory required for data: 577940000
I0110 14:13:28.114451   846 layer_factory.hpp:78] Creating layer drop6
I0110 14:13:28.114496   846 net.cpp:84] Creating Layer drop6
I0110 14:13:28.114526   846 net.cpp:406] drop6 <- fc6
I0110 14:13:28.114572   846 net.cpp:367] drop6 -> fc6 (in-place)
I0110 14:13:28.114686   846 net.cpp:122] Setting up drop6
I0110 14:13:28.114722   846 net.cpp:129] Top shape: 50 4096 (204800)
I0110 14:13:28.114742   846 net.cpp:137] Memory required for data: 578759200
I0110 14:13:28.114770   846 layer_factory.hpp:78] Creating layer fc7
I0110 14:13:28.114823   846 net.cpp:84] Creating Layer fc7
I0110 14:13:28.114857   846 net.cpp:406] fc7 <- fc6
I0110 14:13:28.114907   846 net.cpp:380] fc7 -> fc7
I0110 14:13:29.861748   846 net.cpp:122] Setting up fc7
I0110 14:13:29.861855   846 net.cpp:129] Top shape: 50 4096 (204800)
I0110 14:13:29.861891   846 net.cpp:137] Memory required for data: 579578400
I0110 14:13:29.861989   846 layer_factory.hpp:78] Creating layer bn7
I0110 14:13:29.862037   846 net.cpp:84] Creating Layer bn7
I0110 14:13:29.862062   846 net.cpp:406] bn7 <- fc7
I0110 14:13:29.862112   846 net.cpp:367] bn7 -> fc7 (in-place)
I0110 14:13:29.862641   846 net.cpp:122] Setting up bn7
I0110 14:13:29.862660   846 net.cpp:129] Top shape: 50 4096 (204800)
I0110 14:13:29.862668   846 net.cpp:137] Memory required for data: 580397600
I0110 14:13:29.862699   846 layer_factory.hpp:78] Creating layer scale7
I0110 14:13:29.862742   846 net.cpp:84] Creating Layer scale7
I0110 14:13:29.862758   846 net.cpp:406] scale7 <- fc7
I0110 14:13:29.862784   846 net.cpp:367] scale7 -> fc7 (in-place)
I0110 14:13:29.862985   846 layer_factory.hpp:78] Creating layer scale7
I0110 14:13:29.863271   846 net.cpp:122] Setting up scale7
I0110 14:13:29.863289   846 net.cpp:129] Top shape: 50 4096 (204800)
I0110 14:13:29.863296   846 net.cpp:137] Memory required for data: 581216800
I0110 14:13:29.863317   846 layer_factory.hpp:78] Creating layer relu7
I0110 14:13:29.863346   846 net.cpp:84] Creating Layer relu7
I0110 14:13:29.863382   846 net.cpp:406] relu7 <- fc7
I0110 14:13:29.863415   846 net.cpp:367] relu7 -> fc7 (in-place)
I0110 14:13:29.865643   846 net.cpp:122] Setting up relu7
I0110 14:13:29.865666   846 net.cpp:129] Top shape: 50 4096 (204800)
I0110 14:13:29.865700   846 net.cpp:137] Memory required for data: 582036000
I0110 14:13:29.865725   846 layer_factory.hpp:78] Creating layer drop7
I0110 14:13:29.865761   846 net.cpp:84] Creating Layer drop7
I0110 14:13:29.865774   846 net.cpp:406] drop7 <- fc7
I0110 14:13:29.865801   846 net.cpp:367] drop7 -> fc7 (in-place)
I0110 14:13:29.865883   846 net.cpp:122] Setting up drop7
I0110 14:13:29.865907   846 net.cpp:129] Top shape: 50 4096 (204800)
I0110 14:13:29.865914   846 net.cpp:137] Memory required for data: 582855200
I0110 14:13:29.865932   846 layer_factory.hpp:78] Creating layer fc8
I0110 14:13:29.866019   846 net.cpp:84] Creating Layer fc8
I0110 14:13:29.866037   846 net.cpp:406] fc8 <- fc7
I0110 14:13:29.866078   846 net.cpp:380] fc8 -> fc8
I0110 14:13:30.315843   846 net.cpp:122] Setting up fc8
I0110 14:13:30.315891   846 net.cpp:129] Top shape: 50 1000 (50000)
I0110 14:13:30.315896   846 net.cpp:137] Memory required for data: 583055200
I0110 14:13:30.315928   846 layer_factory.hpp:78] Creating layer fc8_fc8_0_split
I0110 14:13:30.315966   846 net.cpp:84] Creating Layer fc8_fc8_0_split
I0110 14:13:30.315982   846 net.cpp:406] fc8_fc8_0_split <- fc8
I0110 14:13:30.316011   846 net.cpp:380] fc8_fc8_0_split -> fc8_fc8_0_split_0
I0110 14:13:30.316048   846 net.cpp:380] fc8_fc8_0_split -> fc8_fc8_0_split_1
I0110 14:13:30.316064   846 net.cpp:380] fc8_fc8_0_split -> fc8_fc8_0_split_2
I0110 14:13:30.316157   846 net.cpp:122] Setting up fc8_fc8_0_split
I0110 14:13:30.316172   846 net.cpp:129] Top shape: 50 1000 (50000)
I0110 14:13:30.316179   846 net.cpp:129] Top shape: 50 1000 (50000)
I0110 14:13:30.316184   846 net.cpp:129] Top shape: 50 1000 (50000)
I0110 14:13:30.316187   846 net.cpp:137] Memory required for data: 583655200
I0110 14:13:30.316193   846 layer_factory.hpp:78] Creating layer loss
I0110 14:13:30.316222   846 net.cpp:84] Creating Layer loss
I0110 14:13:30.316231   846 net.cpp:406] loss <- fc8_fc8_0_split_0
I0110 14:13:30.316249   846 net.cpp:406] loss <- label_data_1_split_0
I0110 14:13:30.316263   846 net.cpp:380] loss -> loss
…
