…
I0110 14:19:18.961835  8229 net.cpp:294] The NetState phase (0) differed from the phase (1) specified by a rule in layer data
I0110 14:19:18.962227  8229 net.cpp:51] Initializing net from parameters: 
name: "AlexNet-BN"
state {
  phase: TRAIN
  level: 0
  stage: ""
}
layer {
  name: "data"
  type: "Data"
  top: "data"
  top: "label"
  include {
    phase: TRAIN
  }
  transform_param {
    mirror: true
    crop_size: 224
    mean_value: 104
    mean_value: 117
    mean_value: 123
  }
  data_param {
    source: "/home/zhengzhe/Data/imagenet_shrt256/ilsvrc12_train_lmdb"
    batch_size: 256
    backend: LMDB
  }
}
layer {
  name: "conv1"
  type: "Convolution"
  bottom: "data"
  top: "conv1"
  param {
    lr_mult: 1
    decay_mult: 1
  }
  convolution_param {
    num_output: 96
    bias_term: false
    pad: 2
    kernel_size: 11
    stride: 4
    weight_filler {
      type: "msra"
    }
  }
}
layer {
  name: "bn1"
  type: "BatchNorm"
  bottom: "conv1"
  top: "conv1"
}
layer {
  name: "scale1"
  type: "Scale"
  bottom: "conv1"
  top: "conv1"
  scale_param {
    bias_term: true
  }
}
layer {
  name: "relu1"
  type: "ReLU"
  bottom: "conv1"
  top: "conv1"
}
layer {
  name: "pool1"
  type: "Pooling"
  bottom: "conv1"
  top: "pool1"
  pooling_param {
    pool: MAX
    kernel_size: 3
    stride: 2
  }
}
layer {
  name: "conv2"
  type: "BinaryConvolution"
  bottom: "pool1"
  top: "conv2"
  param {
    lr_mult: 1
    decay_mult: 1
  }
  convolution_param {
    num_output: 256
    bias_term: false
    pad: 2
    kernel_size: 5
    weight_filler {
      type: "msra"
    }
  }
  debug_param {
    binary_relax: true
  }
}
layer {
  name: "bn2"
  type: "BatchNorm"
  bottom: "conv2"
  top: "conv2"
}
layer {
  name: "scale2"
  type: "Scale"
  bottom: "conv2"
  top: "conv2"
  scale_param {
    bias_term: true
  }
}
layer {
  name: "relu2"
  type: "ReLU"
  bottom: "conv2"
  top: "conv2"
}
layer {
  name: "pool2"
  type: "Pooling"
  bottom: "conv2"
  top: "pool2"
  pooling_param {
    pool: MAX
    kernel_size: 3
    stride: 2
  }
}
layer {
  name: "conv3"
  type: "BinaryConvolution"
  bottom: "pool2"
  top: "conv3"
  param {
    lr_mult: 1
    decay_mult: 1
  }
  convolution_param {
    num_output: 384
    bias_term: false
    pad: 1
    kernel_size: 3
    weight_filler {
      type: "msra"
    }
  }
  debug_param {
    binary_relax: true
  }
}
layer {
  name: "bn3"
  type: "BatchNorm"
  bottom: "conv3"
  top: "conv3"
}
layer {
  name: "scale3"
  type: "Scale"
  bottom: "conv3"
  top: "conv3"
  scale_param {
    bias_term: true
  }
}
layer {
  name: "relu3"
  type: "ReLU"
  bottom: "conv3"
  top: "conv3"
}
layer {
  name: "conv4"
  type: "BinaryConvolution"
  bottom: "conv3"
  top: "conv4"
  param {
    lr_mult: 1
    decay_mult: 1
  }
  convolution_param {
    num_output: 384
    bias_term: false
    pad: 1
    kernel_size: 3
    weight_filler {
      type: "msra"
    }
  }
  debug_param {
    binary_relax: true
  }
}
layer {
  name: "bn4"
  type: "BatchNorm"
  bottom: "conv4"
  top: "conv4"
}
layer {
  name: "scale4"
  type: "Scale"
  bottom: "conv4"
  top: "conv4"
  scale_param {
    bias_term: true
  }
}
layer {
  name: "relu4"
  type: "ReLU"
  bottom: "conv4"
  top: "conv4"
}
layer {
  name: "conv5"
  type: "BinaryConvolution"
  bottom: "conv4"
  top: "conv5"
  param {
    lr_mult: 1
    decay_mult: 1
  }
  convolution_param {
    num_output: 256
    bias_term: false
    pad: 1
    kernel_size: 3
    weight_filler {
      type: "msra"
    }
  }
  debug_param {
    binary_relax: true
  }
}
layer {
  name: "bn5"
  type: "BatchNorm"
  bottom: "conv5"
  top: "conv5"
}
layer {
  name: "scale5"
  type: "Scale"
  bottom: "conv5"
  top: "conv5"
  scale_param {
    bias_term: true
  }
}
layer {
  name: "relu5"
  type: "ReLU"
  bottom: "conv5"
  top: "conv5"
}
layer {
  name: "pool5"
  type: "Pooling"
  bottom: "conv5"
  top: "pool5"
  pooling_param {
    pool: MAX
    kernel_size: 3
    stride: 2
  }
}
layer {
  name: "fc6"
  type: "BinaryInnerProduct"
  bottom: "pool5"
  top: "fc6"
  param {
    lr_mult: 1
    decay_mult: 1
  }
  inner_product_param {
    num_output: 4096
    bias_term: false
    weight_filler {
      type: "msra"
    }
  }
  debug_param {
    binary_relax: true
  }
}
layer {
  name: "bn6"
  type: "BatchNorm"
  bottom: "fc6"
  top: "fc6"
}
layer {
  name: "scale6"
  type: "Scale"
  bottom: "fc6"
  top: "fc6"
  scale_param {
    bias_term: true
  }
}
layer {
  name: "relu6"
  type: "ReLU"
  bottom: "fc6"
  top: "fc6"
}
layer {
  name: "drop6"
  type: "Dropout"
  bottom: "fc6"
  top: "fc6"
  dropout_param {
    dropout_ratio: 0.5
  }
}
layer {
  name: "fc7"
  type: "BinaryInnerProduct"
  bottom: "fc6"
  top: "fc7"
  param {
    lr_mult: 1
    decay_mult: 1
  }
  inner_product_param {
    num_output: 4096
    bias_term: false
    weight_filler {
      type: "msra"
    }
  }
  debug_param {
    binary_relax: true
  }
}
layer {
  name: "bn7"
  type: "BatchNorm"
  bottom: "fc7"
  top: "fc7"
}
layer {
  name: "scale7"
  type: "Scale"
  bottom: "fc7"
  top: "fc7"
  scale_param {
    bias_term: true
  }
}
layer {
  name: "relu7"
  type: "ReLU"
  bottom: "fc7"
  top: "fc7"
}
layer {
  name: "drop7"
  type: "Dropout"
  bottom: "fc7"
  top: "fc7"
  dropout_param {
    dropout_ratio: 0.5
  }
}
layer {
  name: "fc8"
  type: "InnerProduct"
  bottom: "fc7"
  top: "fc8"
  param {
    lr_mult: 1
    decay_mult: 1
  }
  param {
    lr_mult: 2
    decay_mult: 0
  }
  inner_product_param {
    num_output: 1000
    weight_filler {
      type: "msra"
    }
    bias_filler {
      type: "constant"
      value: 0
    }
  }
}
layer {
  name: "loss"
  type: "SoftmaxWithLoss"
  bottom: "fc8"
  bottom: "label"
  top: "loss"
}
layer {
  name: "accuracy"
  type: "Accuracy"
  bottom: "fc8"
  bottom: "label"
  top: "accuracy"
}
layer {
  name: "accuracy_5"
  type: "Accuracy"
  bottom: "fc8"
  bottom: "label"
  top: "accuracy_5"
  accuracy_param {
    top_k: 5
  }
}
I0110 14:19:18.963446  8229 layer_factory.hpp:78] Creating layer data
I0110 14:19:18.963790  8229 db_lmdb.cpp:35] Opened lmdb /home/zhengzhe/Data/imagenet_shrt256/ilsvrc12_train_lmdb
I0110 14:19:18.963927  8229 net.cpp:84] Creating Layer data
I0110 14:19:18.963980  8229 net.cpp:380] data -> data
I0110 14:19:18.964221  8229 net.cpp:380] data -> label
I0110 14:19:18.967687  8229 data_layer.cpp:45] output data size: 256,3,224,224
I0110 14:19:19.421770  8229 base_data_layer.cpp:72] Initializing prefetch
I0110 14:19:19.423367  8229 base_data_layer.cpp:75] Prefetch initialized.
I0110 14:19:19.423403  8229 net.cpp:122] Setting up data
I0110 14:19:19.423492  8229 net.cpp:129] Top shape: 256 3 224 224 (38535168)
I0110 14:19:19.423512  8229 net.cpp:129] Top shape: 256 (256)
I0110 14:19:19.423522  8229 net.cpp:137] Memory required for data: 154141696
I0110 14:19:19.423593  8229 layer_factory.hpp:78] Creating layer label_data_1_split
I0110 14:19:19.423785  8229 net.cpp:84] Creating Layer label_data_1_split
I0110 14:19:19.423825  8229 net.cpp:406] label_data_1_split <- label
I0110 14:19:19.423913  8229 net.cpp:380] label_data_1_split -> label_data_1_split_0
I0110 14:19:19.423976  8229 net.cpp:380] label_data_1_split -> label_data_1_split_1
I0110 14:19:19.424008  8229 net.cpp:380] label_data_1_split -> label_data_1_split_2
I0110 14:19:19.424389  8229 net.cpp:122] Setting up label_data_1_split
I0110 14:19:19.424415  8229 net.cpp:129] Top shape: 256 (256)
I0110 14:19:19.424444  8229 net.cpp:129] Top shape: 256 (256)
I0110 14:19:19.424454  8229 net.cpp:129] Top shape: 256 (256)
I0110 14:19:19.424460  8229 net.cpp:137] Memory required for data: 154144768
I0110 14:19:19.424547  8229 layer_factory.hpp:78] Creating layer conv1
I0110 14:19:19.424657  8229 net.cpp:84] Creating Layer conv1
I0110 14:19:19.424675  8229 net.cpp:406] conv1 <- data
I0110 14:19:19.424726  8229 net.cpp:380] conv1 -> conv1
I0110 14:19:20.303999  8229 cudnn_conv_layer.cpp:194] Reallocating workspace storage: 127416
I0110 14:19:20.304400  8229 net.cpp:122] Setting up conv1
I0110 14:19:20.304440  8229 net.cpp:129] Top shape: 256 96 55 55 (74342400)
I0110 14:19:20.304479  8229 net.cpp:137] Memory required for data: 451514368
I0110 14:19:20.304622  8229 layer_factory.hpp:78] Creating layer bn1
I0110 14:19:20.304682  8229 net.cpp:84] Creating Layer bn1
I0110 14:19:20.304703  8229 net.cpp:406] bn1 <- conv1
I0110 14:19:20.304756  8229 net.cpp:367] bn1 -> conv1 (in-place)
I0110 14:19:20.306435  8229 net.cpp:122] Setting up bn1
I0110 14:19:20.306454  8229 net.cpp:129] Top shape: 256 96 55 55 (74342400)
I0110 14:19:20.306461  8229 net.cpp:137] Memory required for data: 748883968
I0110 14:19:20.306531  8229 layer_factory.hpp:78] Creating layer scale1
I0110 14:19:20.306612  8229 net.cpp:84] Creating Layer scale1
I0110 14:19:20.306627  8229 net.cpp:406] scale1 <- conv1
I0110 14:19:20.306654  8229 net.cpp:367] scale1 -> conv1 (in-place)
I0110 14:19:20.306797  8229 layer_factory.hpp:78] Creating layer scale1
I0110 14:19:20.307060  8229 net.cpp:122] Setting up scale1
I0110 14:19:20.307076  8229 net.cpp:129] Top shape: 256 96 55 55 (74342400)
I0110 14:19:20.307081  8229 net.cpp:137] Memory required for data: 1046253568
I0110 14:19:20.307119  8229 layer_factory.hpp:78] Creating layer relu1
I0110 14:19:20.307184  8229 net.cpp:84] Creating Layer relu1
I0110 14:19:20.307199  8229 net.cpp:406] relu1 <- conv1
I0110 14:19:20.307221  8229 net.cpp:367] relu1 -> conv1 (in-place)
I0110 14:19:20.307792  8229 net.cpp:122] Setting up relu1
I0110 14:19:20.307812  8229 net.cpp:129] Top shape: 256 96 55 55 (74342400)
I0110 14:19:20.307817  8229 net.cpp:137] Memory required for data: 1343623168
I0110 14:19:20.307827  8229 layer_factory.hpp:78] Creating layer pool1
I0110 14:19:20.307891  8229 net.cpp:84] Creating Layer pool1
I0110 14:19:20.307921  8229 net.cpp:406] pool1 <- conv1
I0110 14:19:20.307965  8229 net.cpp:380] pool1 -> pool1
I0110 14:19:20.308080  8229 net.cpp:122] Setting up pool1
I0110 14:19:20.308099  8229 net.cpp:129] Top shape: 256 96 27 27 (17915904)
I0110 14:19:20.308121  8229 net.cpp:137] Memory required for data: 1415286784
I0110 14:19:20.308145  8229 layer_factory.hpp:78] Creating layer conv2
I0110 14:19:20.308214  8229 net.cpp:84] Creating Layer conv2
I0110 14:19:20.308228  8229 net.cpp:406] conv2 <- pool1
I0110 14:19:20.308259  8229 net.cpp:380] conv2 -> conv2
I0110 14:19:20.365936  8229 cudnn_binary_conv_layer.cpp:194] Reallocating workspace storage: 19668
I0110 14:19:20.365995  8229 net.cpp:122] Setting up conv2
I0110 14:19:20.366025  8229 net.cpp:129] Top shape: 256 256 27 27 (47775744)
I0110 14:19:20.366119  8229 net.cpp:137] Memory required for data: 1606389760
I0110 14:19:20.366178  8229 layer_factory.hpp:78] Creating layer bn2
I0110 14:19:20.366252  8229 net.cpp:84] Creating Layer bn2
I0110 14:19:20.366274  8229 net.cpp:406] bn2 <- conv2
I0110 14:19:20.366328  8229 net.cpp:367] bn2 -> conv2 (in-place)
I0110 14:19:20.367900  8229 net.cpp:122] Setting up bn2
I0110 14:19:20.367920  8229 net.cpp:129] Top shape: 256 256 27 27 (47775744)
I0110 14:19:20.367926  8229 net.cpp:137] Memory required for data: 1797492736
I0110 14:19:20.367986  8229 layer_factory.hpp:78] Creating layer scale2
I0110 14:19:20.368050  8229 net.cpp:84] Creating Layer scale2
I0110 14:19:20.368079  8229 net.cpp:406] scale2 <- conv2
I0110 14:19:20.368129  8229 net.cpp:367] scale2 -> conv2 (in-place)
I0110 14:19:20.368235  8229 layer_factory.hpp:78] Creating layer scale2
I0110 14:19:20.368448  8229 net.cpp:122] Setting up scale2
I0110 14:19:20.368464  8229 net.cpp:129] Top shape: 256 256 27 27 (47775744)
I0110 14:19:20.368469  8229 net.cpp:137] Memory required for data: 1988595712
I0110 14:19:20.368491  8229 layer_factory.hpp:78] Creating layer relu2
I0110 14:19:20.368559  8229 net.cpp:84] Creating Layer relu2
I0110 14:19:20.368587  8229 net.cpp:406] relu2 <- conv2
I0110 14:19:20.368626  8229 net.cpp:367] relu2 -> conv2 (in-place)
I0110 14:19:20.369141  8229 net.cpp:122] Setting up relu2
I0110 14:19:20.369158  8229 net.cpp:129] Top shape: 256 256 27 27 (47775744)
I0110 14:19:20.369163  8229 net.cpp:137] Memory required for data: 2179698688
I0110 14:19:20.369171  8229 layer_factory.hpp:78] Creating layer pool2
I0110 14:19:20.369220  8229 net.cpp:84] Creating Layer pool2
I0110 14:19:20.369246  8229 net.cpp:406] pool2 <- conv2
I0110 14:19:20.369288  8229 net.cpp:380] pool2 -> pool2
I0110 14:19:20.369393  8229 net.cpp:122] Setting up pool2
I0110 14:19:20.369413  8229 net.cpp:129] Top shape: 256 256 13 13 (11075584)
I0110 14:19:20.369434  8229 net.cpp:137] Memory required for data: 2224001024
I0110 14:19:20.369458  8229 layer_factory.hpp:78] Creating layer conv3
I0110 14:19:20.369520  8229 net.cpp:84] Creating Layer conv3
I0110 14:19:20.369534  8229 net.cpp:406] conv3 <- pool2
I0110 14:19:20.369565  8229 net.cpp:380] conv3 -> conv3
I0110 14:19:20.458475  8229 cudnn_binary_conv_layer.cpp:194] Reallocating workspace storage: 18874368
I0110 14:19:20.459069  8229 net.cpp:122] Setting up conv3
I0110 14:19:20.459131  8229 net.cpp:129] Top shape: 256 384 13 13 (16613376)
I0110 14:19:20.459153  8229 net.cpp:137] Memory required for data: 2290454528
I0110 14:19:20.459224  8229 layer_factory.hpp:78] Creating layer bn3
I0110 14:19:20.459290  8229 net.cpp:84] Creating Layer bn3
I0110 14:19:20.459326  8229 net.cpp:406] bn3 <- conv3
I0110 14:19:20.459390  8229 net.cpp:367] bn3 -> conv3 (in-place)
I0110 14:19:20.459808  8229 net.cpp:122] Setting up bn3
I0110 14:19:20.459846  8229 net.cpp:129] Top shape: 256 384 13 13 (16613376)
I0110 14:19:20.459867  8229 net.cpp:137] Memory required for data: 2356908032
I0110 14:19:20.459918  8229 layer_factory.hpp:78] Creating layer scale3
I0110 14:19:20.459971  8229 net.cpp:84] Creating Layer scale3
I0110 14:19:20.460001  8229 net.cpp:406] scale3 <- conv3
I0110 14:19:20.460043  8229 net.cpp:367] scale3 -> conv3 (in-place)
I0110 14:19:20.460165  8229 layer_factory.hpp:78] Creating layer scale3
I0110 14:19:20.460475  8229 net.cpp:122] Setting up scale3
I0110 14:19:20.460516  8229 net.cpp:129] Top shape: 256 384 13 13 (16613376)
I0110 14:19:20.460536  8229 net.cpp:137] Memory required for data: 2423361536
I0110 14:19:20.460605  8229 layer_factory.hpp:78] Creating layer relu3
I0110 14:19:20.460650  8229 net.cpp:84] Creating Layer relu3
I0110 14:19:20.460685  8229 net.cpp:406] relu3 <- conv3
I0110 14:19:20.460726  8229 net.cpp:367] relu3 -> conv3 (in-place)
I0110 14:19:20.461977  8229 net.cpp:122] Setting up relu3
I0110 14:19:20.462025  8229 net.cpp:129] Top shape: 256 384 13 13 (16613376)
I0110 14:19:20.462050  8229 net.cpp:137] Memory required for data: 2489815040
I0110 14:19:20.462075  8229 layer_factory.hpp:78] Creating layer conv4
I0110 14:19:20.462154  8229 net.cpp:84] Creating Layer conv4
I0110 14:19:20.462188  8229 net.cpp:406] conv4 <- conv3
I0110 14:19:20.462239  8229 net.cpp:380] conv4 -> conv4
I0110 14:19:20.617871  8229 cudnn_binary_conv_layer.cpp:194] Reallocating workspace storage: 9840
I0110 14:19:20.617933  8229 net.cpp:122] Setting up conv4
I0110 14:19:20.617955  8229 net.cpp:129] Top shape: 256 384 13 13 (16613376)
I0110 14:19:20.617961  8229 net.cpp:137] Memory required for data: 2556268544
I0110 14:19:20.617993  8229 layer_factory.hpp:78] Creating layer bn4
I0110 14:19:20.618034  8229 net.cpp:84] Creating Layer bn4
I0110 14:19:20.618052  8229 net.cpp:406] bn4 <- conv4
I0110 14:19:20.618118  8229 net.cpp:367] bn4 -> conv4 (in-place)
I0110 14:19:20.618484  8229 net.cpp:122] Setting up bn4
I0110 14:19:20.618520  8229 net.cpp:129] Top shape: 256 384 13 13 (16613376)
I0110 14:19:20.618540  8229 net.cpp:137] Memory required for data: 2622722048
I0110 14:19:20.618583  8229 layer_factory.hpp:78] Creating layer scale4
I0110 14:19:20.618646  8229 net.cpp:84] Creating Layer scale4
I0110 14:19:20.618677  8229 net.cpp:406] scale4 <- conv4
I0110 14:19:20.618737  8229 net.cpp:367] scale4 -> conv4 (in-place)
I0110 14:19:20.618845  8229 layer_factory.hpp:78] Creating layer scale4
I0110 14:19:20.619107  8229 net.cpp:122] Setting up scale4
I0110 14:19:20.619143  8229 net.cpp:129] Top shape: 256 384 13 13 (16613376)
I0110 14:19:20.619163  8229 net.cpp:137] Memory required for data: 2689175552
I0110 14:19:20.619196  8229 layer_factory.hpp:78] Creating layer relu4
I0110 14:19:20.619235  8229 net.cpp:84] Creating Layer relu4
I0110 14:19:20.619266  8229 net.cpp:406] relu4 <- conv4
I0110 14:19:20.619300  8229 net.cpp:367] relu4 -> conv4 (in-place)
I0110 14:19:20.620362  8229 net.cpp:122] Setting up relu4
I0110 14:19:20.620404  8229 net.cpp:129] Top shape: 256 384 13 13 (16613376)
I0110 14:19:20.620429  8229 net.cpp:137] Memory required for data: 2755629056
I0110 14:19:20.620450  8229 layer_factory.hpp:78] Creating layer conv5
I0110 14:19:20.620504  8229 net.cpp:84] Creating Layer conv5
I0110 14:19:20.620534  8229 net.cpp:406] conv5 <- conv4
I0110 14:19:20.620579  8229 net.cpp:380] conv5 -> conv5
I0110 14:19:20.734938  8229 cudnn_binary_conv_layer.cpp:194] Reallocating workspace storage: 18874368
I0110 14:19:20.735414  8229 net.cpp:122] Setting up conv5
I0110 14:19:20.735466  8229 net.cpp:129] Top shape: 256 256 13 13 (11075584)
I0110 14:19:20.735489  8229 net.cpp:137] Memory required for data: 2799931392
I0110 14:19:20.735539  8229 layer_factory.hpp:78] Creating layer bn5
I0110 14:19:20.735599  8229 net.cpp:84] Creating Layer bn5
I0110 14:19:20.735630  8229 net.cpp:406] bn5 <- conv5
I0110 14:19:20.735678  8229 net.cpp:367] bn5 -> conv5 (in-place)
I0110 14:19:20.736057  8229 net.cpp:122] Setting up bn5
I0110 14:19:20.736091  8229 net.cpp:129] Top shape: 256 256 13 13 (11075584)
I0110 14:19:20.736111  8229 net.cpp:137] Memory required for data: 2844233728
I0110 14:19:20.736157  8229 layer_factory.hpp:78] Creating layer scale5
I0110 14:19:20.736204  8229 net.cpp:84] Creating Layer scale5
I0110 14:19:20.736229  8229 net.cpp:406] scale5 <- conv5
I0110 14:19:20.736266  8229 net.cpp:367] scale5 -> conv5 (in-place)
I0110 14:19:20.736387  8229 layer_factory.hpp:78] Creating layer scale5
I0110 14:19:20.736639  8229 net.cpp:122] Setting up scale5
I0110 14:19:20.736673  8229 net.cpp:129] Top shape: 256 256 13 13 (11075584)
I0110 14:19:20.736694  8229 net.cpp:137] Memory required for data: 2888536064
I0110 14:19:20.736727  8229 layer_factory.hpp:78] Creating layer relu5
I0110 14:19:20.736768  8229 net.cpp:84] Creating Layer relu5
I0110 14:19:20.736793  8229 net.cpp:406] relu5 <- conv5
I0110 14:19:20.736827  8229 net.cpp:367] relu5 -> conv5 (in-place)
I0110 14:19:20.737715  8229 net.cpp:122] Setting up relu5
I0110 14:19:20.737754  8229 net.cpp:129] Top shape: 256 256 13 13 (11075584)
I0110 14:19:20.737774  8229 net.cpp:137] Memory required for data: 2932838400
I0110 14:19:20.737795  8229 layer_factory.hpp:78] Creating layer pool5
I0110 14:19:20.737835  8229 net.cpp:84] Creating Layer pool5
I0110 14:19:20.737860  8229 net.cpp:406] pool5 <- conv5
I0110 14:19:20.737900  8229 net.cpp:380] pool5 -> pool5
I0110 14:19:20.738016  8229 net.cpp:122] Setting up pool5
I0110 14:19:20.738050  8229 net.cpp:129] Top shape: 256 256 6 6 (2359296)
I0110 14:19:20.738073  8229 net.cpp:137] Memory required for data: 2942275584
I0110 14:19:20.738095  8229 layer_factory.hpp:78] Creating layer fc6
I0110 14:19:20.738148  8229 net.cpp:84] Creating Layer fc6
I0110 14:19:20.738174  8229 net.cpp:406] fc6 <- pool5
I0110 14:19:20.738219  8229 net.cpp:380] fc6 -> fc6
I0110 14:19:24.707485  8229 net.cpp:122] Setting up fc6
I0110 14:19:24.707562  8229 net.cpp:129] Top shape: 256 4096 (1048576)
I0110 14:19:24.707567  8229 net.cpp:137] Memory required for data: 2946469888
I0110 14:19:24.707613  8229 layer_factory.hpp:78] Creating layer bn6
I0110 14:19:24.707659  8229 net.cpp:84] Creating Layer bn6
I0110 14:19:24.707676  8229 net.cpp:406] bn6 <- fc6
I0110 14:19:24.707705  8229 net.cpp:367] bn6 -> fc6 (in-place)
I0110 14:19:24.707979  8229 net.cpp:122] Setting up bn6
I0110 14:19:24.707991  8229 net.cpp:129] Top shape: 256 4096 (1048576)
I0110 14:19:24.708022  8229 net.cpp:137] Memory required for data: 2950664192
I0110 14:19:24.708066  8229 layer_factory.hpp:78] Creating layer scale6
I0110 14:19:24.708092  8229 net.cpp:84] Creating Layer scale6
I0110 14:19:24.708109  8229 net.cpp:406] scale6 <- fc6
I0110 14:19:24.708124  8229 net.cpp:367] scale6 -> fc6 (in-place)
I0110 14:19:24.708205  8229 layer_factory.hpp:78] Creating layer scale6
I0110 14:19:24.708401  8229 net.cpp:122] Setting up scale6
I0110 14:19:24.708415  8229 net.cpp:129] Top shape: 256 4096 (1048576)
I0110 14:19:24.708420  8229 net.cpp:137] Memory required for data: 2954858496
I0110 14:19:24.708434  8229 layer_factory.hpp:78] Creating layer relu6
I0110 14:19:24.708449  8229 net.cpp:84] Creating Layer relu6
I0110 14:19:24.708456  8229 net.cpp:406] relu6 <- fc6
I0110 14:19:24.708472  8229 net.cpp:367] relu6 -> fc6 (in-place)
I0110 14:19:24.709712  8229 net.cpp:122] Setting up relu6
I0110 14:19:24.709728  8229 net.cpp:129] Top shape: 256 4096 (1048576)
I0110 14:19:24.709748  8229 net.cpp:137] Memory required for data: 2959052800
I0110 14:19:24.709755  8229 layer_factory.hpp:78] Creating layer drop6
I0110 14:19:24.709785  8229 net.cpp:84] Creating Layer drop6
I0110 14:19:24.709792  8229 net.cpp:406] drop6 <- fc6
I0110 14:19:24.709808  8229 net.cpp:367] drop6 -> fc6 (in-place)
I0110 14:19:24.709872  8229 net.cpp:122] Setting up drop6
I0110 14:19:24.709882  8229 net.cpp:129] Top shape: 256 4096 (1048576)
I0110 14:19:24.709885  8229 net.cpp:137] Memory required for data: 2963247104
I0110 14:19:24.709892  8229 layer_factory.hpp:78] Creating layer fc7
I0110 14:19:24.709919  8229 net.cpp:84] Creating Layer fc7
I0110 14:19:24.709928  8229 net.cpp:406] fc7 <- fc6
I0110 14:19:24.709945  8229 net.cpp:380] fc7 -> fc7
I0110 14:19:26.204429  8229 net.cpp:122] Setting up fc7
I0110 14:19:26.204529  8229 net.cpp:129] Top shape: 256 4096 (1048576)
I0110 14:19:26.204533  8229 net.cpp:137] Memory required for data: 2967441408
I0110 14:19:26.204571  8229 layer_factory.hpp:78] Creating layer bn7
I0110 14:19:26.204648  8229 net.cpp:84] Creating Layer bn7
I0110 14:19:26.204676  8229 net.cpp:406] bn7 <- fc7
I0110 14:19:26.204731  8229 net.cpp:367] bn7 -> fc7 (in-place)
I0110 14:19:26.205045  8229 net.cpp:122] Setting up bn7
I0110 14:19:26.205056  8229 net.cpp:129] Top shape: 256 4096 (1048576)
I0110 14:19:26.205060  8229 net.cpp:137] Memory required for data: 2971635712
I0110 14:19:26.205081  8229 layer_factory.hpp:78] Creating layer scale7
I0110 14:19:26.205137  8229 net.cpp:84] Creating Layer scale7
I0110 14:19:26.205147  8229 net.cpp:406] scale7 <- fc7
I0110 14:19:26.205162  8229 net.cpp:367] scale7 -> fc7 (in-place)
I0110 14:19:26.205250  8229 layer_factory.hpp:78] Creating layer scale7
I0110 14:19:26.205451  8229 net.cpp:122] Setting up scale7
I0110 14:19:26.205466  8229 net.cpp:129] Top shape: 256 4096 (1048576)
I0110 14:19:26.205468  8229 net.cpp:137] Memory required for data: 2975830016
I0110 14:19:26.205483  8229 layer_factory.hpp:78] Creating layer relu7
I0110 14:19:26.205505  8229 net.cpp:84] Creating Layer relu7
I0110 14:19:26.205513  8229 net.cpp:406] relu7 <- fc7
I0110 14:19:26.205526  8229 net.cpp:367] relu7 -> fc7 (in-place)
I0110 14:19:26.206940  8229 net.cpp:122] Setting up relu7
I0110 14:19:26.206954  8229 net.cpp:129] Top shape: 256 4096 (1048576)
I0110 14:19:26.206974  8229 net.cpp:137] Memory required for data: 2980024320
I0110 14:19:26.206981  8229 layer_factory.hpp:78] Creating layer drop7
I0110 14:19:26.206997  8229 net.cpp:84] Creating Layer drop7
I0110 14:19:26.207005  8229 net.cpp:406] drop7 <- fc7
I0110 14:19:26.207022  8229 net.cpp:367] drop7 -> fc7 (in-place)
I0110 14:19:26.207083  8229 net.cpp:122] Setting up drop7
I0110 14:19:26.207092  8229 net.cpp:129] Top shape: 256 4096 (1048576)
I0110 14:19:26.207094  8229 net.cpp:137] Memory required for data: 2984218624
I0110 14:19:26.207100  8229 layer_factory.hpp:78] Creating layer fc8
I0110 14:19:26.207137  8229 net.cpp:84] Creating Layer fc8
I0110 14:19:26.207146  8229 net.cpp:406] fc8 <- fc7
I0110 14:19:26.207165  8229 net.cpp:380] fc8 -> fc8
I0110 14:19:26.567674  8229 net.cpp:122] Setting up fc8
I0110 14:19:26.567737  8229 net.cpp:129] Top shape: 256 1000 (256000)
I0110 14:19:26.567742  8229 net.cpp:137] Memory required for data: 2985242624
I0110 14:19:26.567773  8229 layer_factory.hpp:78] Creating layer fc8_fc8_0_split
I0110 14:19:26.567803  8229 net.cpp:84] Creating Layer fc8_fc8_0_split
I0110 14:19:26.567844  8229 net.cpp:406] fc8_fc8_0_split <- fc8
I0110 14:19:26.567869  8229 net.cpp:380] fc8_fc8_0_split -> fc8_fc8_0_split_0
I0110 14:19:26.567908  8229 net.cpp:380] fc8_fc8_0_split -> fc8_fc8_0_split_1
I0110 14:19:26.567924  8229 net.cpp:380] fc8_fc8_0_split -> fc8_fc8_0_split_2
I0110 14:19:26.568006  8229 net.cpp:122] Setting up fc8_fc8_0_split
I0110 14:19:26.568019  8229 net.cpp:129] Top shape: 256 1000 (256000)
I0110 14:19:26.568025  8229 net.cpp:129] Top shape: 256 1000 (256000)
I0110 14:19:26.568029  8229 net.cpp:129] Top shape: 256 1000 (256000)
I0110 14:19:26.568032  8229 net.cpp:137] Memory required for data: 2988314624
I0110 14:19:26.568037  8229 layer_factory.hpp:78] Creating layer loss
I0110 14:19:26.568064  8229 net.cpp:84] Creating Layer loss
I0110 14:19:26.568073  8229 net.cpp:406] loss <- fc8_fc8_0_split_0
I0110 14:19:26.568084  8229 net.cpp:406] loss <- label_data_1_split_0
I0110 14:19:26.568119  8229 net.cpp:380] loss -> loss
…
I0110 14:19:26.573101  8229 net.cpp:294] The NetState phase (1) differed from the phase (0) specified by a rule in layer data
I0110 14:19:26.573354  8229 net.cpp:51] Initializing net from parameters: 
name: "AlexNet-BN"
state {
  phase: TEST
}
layer {
  name: "data"
  type: "Data"
  top: "data"
  top: "label"
  include {
    phase: TEST
  }
  transform_param {
    mirror: false
    crop_size: 224
    mean_value: 104
    mean_value: 117
    mean_value: 123
  }
  data_param {
    source: "/home/zhengzhe/Data/imagenet_shrt256/ilsvrc12_val_lmdb"
    batch_size: 50
    backend: LMDB
  }
}
layer {
  name: "conv1"
  type: "Convolution"
  bottom: "data"
  top: "conv1"
  param {
    lr_mult: 1
    decay_mult: 1
  }
  convolution_param {
    num_output: 96
    bias_term: false
    pad: 2
    kernel_size: 11
    stride: 4
    weight_filler {
      type: "msra"
    }
  }
}
layer {
  name: "bn1"
  type: "BatchNorm"
  bottom: "conv1"
  top: "conv1"
}
layer {
  name: "scale1"
  type: "Scale"
  bottom: "conv1"
  top: "conv1"
  scale_param {
    bias_term: true
  }
}
layer {
  name: "relu1"
  type: "ReLU"
  bottom: "conv1"
  top: "conv1"
}
layer {
  name: "pool1"
  type: "Pooling"
  bottom: "conv1"
  top: "pool1"
  pooling_param {
    pool: MAX
    kernel_size: 3
    stride: 2
  }
}
layer {
  name: "conv2"
  type: "BinaryConvolution"
  bottom: "pool1"
  top: "conv2"
  param {
    lr_mult: 1
    decay_mult: 1
  }
  convolution_param {
    num_output: 256
    bias_term: false
    pad: 2
    kernel_size: 5
    weight_filler {
      type: "msra"
    }
  }
  debug_param {
    binary_relax: true
  }
}
layer {
  name: "bn2"
  type: "BatchNorm"
  bottom: "conv2"
  top: "conv2"
}
layer {
  name: "scale2"
  type: "Scale"
  bottom: "conv2"
  top: "conv2"
  scale_param {
    bias_term: true
  }
}
layer {
  name: "relu2"
  type: "ReLU"
  bottom: "conv2"
  top: "conv2"
}
layer {
  name: "pool2"
  type: "Pooling"
  bottom: "conv2"
  top: "pool2"
  pooling_param {
    pool: MAX
    kernel_size: 3
    stride: 2
  }
}
layer {
  name: "conv3"
  type: "BinaryConvolution"
  bottom: "pool2"
  top: "conv3"
  param {
    lr_mult: 1
    decay_mult: 1
  }
  convolution_param {
    num_output: 384
    bias_term: false
    pad: 1
    kernel_size: 3
    weight_filler {
      type: "msra"
    }
  }
  debug_param {
    binary_relax: true
  }
}
layer {
  name: "bn3"
  type: "BatchNorm"
  bottom: "conv3"
  top: "conv3"
}
layer {
  name: "scale3"
  type: "Scale"
  bottom: "conv3"
  top: "conv3"
  scale_param {
    bias_term: true
  }
}
layer {
  name: "relu3"
  type: "ReLU"
  bottom: "conv3"
  top: "conv3"
}
layer {
  name: "conv4"
  type: "BinaryConvolution"
  bottom: "conv3"
  top: "conv4"
  param {
    lr_mult: 1
    decay_mult: 1
  }
  convolution_param {
    num_output: 384
    bias_term: false
    pad: 1
    kernel_size: 3
    weight_filler {
      type: "msra"
    }
  }
  debug_param {
    binary_relax: true
  }
}
layer {
  name: "bn4"
  type: "BatchNorm"
  bottom: "conv4"
  top: "conv4"
}
layer {
  name: "scale4"
  type: "Scale"
  bottom: "conv4"
  top: "conv4"
  scale_param {
    bias_term: true
  }
}
layer {
  name: "relu4"
  type: "ReLU"
  bottom: "conv4"
  top: "conv4"
}
layer {
  name: "conv5"
  type: "BinaryConvolution"
  bottom: "conv4"
  top: "conv5"
  param {
    lr_mult: 1
    decay_mult: 1
  }
  convolution_param {
    num_output: 256
    bias_term: false
    pad: 1
    kernel_size: 3
    weight_filler {
      type: "msra"
    }
  }
  debug_param {
    binary_relax: true
  }
}
layer {
  name: "bn5"
  type: "BatchNorm"
  bottom: "conv5"
  top: "conv5"
}
layer {
  name: "scale5"
  type: "Scale"
  bottom: "conv5"
  top: "conv5"
  scale_param {
    bias_term: true
  }
}
layer {
  name: "relu5"
  type: "ReLU"
  bottom: "conv5"
  top: "conv5"
}
layer {
  name: "pool5"
  type: "Pooling"
  bottom: "conv5"
  top: "pool5"
  pooling_param {
    pool: MAX
    kernel_size: 3
    stride: 2
  }
}
layer {
  name: "fc6"
  type: "BinaryInnerProduct"
  bottom: "pool5"
  top: "fc6"
  param {
    lr_mult: 1
    decay_mult: 1
  }
  inner_product_param {
    num_output: 4096
    bias_term: false
    weight_filler {
      type: "msra"
    }
  }
  debug_param {
    binary_relax: true
  }
}
layer {
  name: "bn6"
  type: "BatchNorm"
  bottom: "fc6"
  top: "fc6"
}
layer {
  name: "scale6"
  type: "Scale"
  bottom: "fc6"
  top: "fc6"
  scale_param {
    bias_term: true
  }
}
layer {
  name: "relu6"
  type: "ReLU"
  bottom: "fc6"
  top: "fc6"
}
layer {
  name: "drop6"
  type: "Dropout"
  bottom: "fc6"
  top: "fc6"
  dropout_param {
    dropout_ratio: 0.5
  }
}
layer {
  name: "fc7"
  type: "BinaryInnerProduct"
  bottom: "fc6"
  top: "fc7"
  param {
    lr_mult: 1
    decay_mult: 1
  }
  inner_product_param {
    num_output: 4096
    bias_term: false
    weight_filler {
      type: "msra"
    }
  }
  debug_param {
    binary_relax: true
  }
}
layer {
  name: "bn7"
  type: "BatchNorm"
  bottom: "fc7"
  top: "fc7"
}
layer {
  name: "scale7"
  type: "Scale"
  bottom: "fc7"
  top: "fc7"
  scale_param {
    bias_term: true
  }
}
layer {
  name: "relu7"
  type: "ReLU"
  bottom: "fc7"
  top: "fc7"
}
layer {
  name: "drop7"
  type: "Dropout"
  bottom: "fc7"
  top: "fc7"
  dropout_param {
    dropout_ratio: 0.5
  }
}
layer {
  name: "fc8"
  type: "InnerProduct"
  bottom: "fc7"
  top: "fc8"
  param {
    lr_mult: 1
    decay_mult: 1
  }
  param {
    lr_mult: 2
    decay_mult: 0
  }
  inner_product_param {
    num_output: 1000
    weight_filler {
      type: "msra"
    }
    bias_filler {
      type: "constant"
      value: 0
    }
  }
}
layer {
  name: "loss"
  type: "SoftmaxWithLoss"
  bottom: "fc8"
  bottom: "label"
  top: "loss"
}
layer {
  name: "accuracy"
  type: "Accuracy"
  bottom: "fc8"
  bottom: "label"
  top: "accuracy"
}
layer {
  name: "accuracy_5"
  type: "Accuracy"
  bottom: "fc8"
  bottom: "label"
  top: "accuracy_5"
  accuracy_param {
    top_k: 5
  }
}
I0110 14:19:26.573725  8229 layer_factory.hpp:78] Creating layer data
I0110 14:19:26.573820  8229 db_lmdb.cpp:35] Opened lmdb /home/zhengzhe/Data/imagenet_shrt256/ilsvrc12_val_lmdb
I0110 14:19:26.573865  8229 net.cpp:84] Creating Layer data
I0110 14:19:26.573881  8229 net.cpp:380] data -> data
I0110 14:19:26.573912  8229 net.cpp:380] data -> label
I0110 14:19:26.574576  8229 data_layer.cpp:45] output data size: 50,3,224,224
I0110 14:19:26.663844  8229 base_data_layer.cpp:72] Initializing prefetch
I0110 14:19:26.664463  8229 base_data_layer.cpp:75] Prefetch initialized.
I0110 14:19:26.664491  8229 net.cpp:122] Setting up data
I0110 14:19:26.664513  8229 net.cpp:129] Top shape: 50 3 224 224 (7526400)
I0110 14:19:26.664520  8229 net.cpp:129] Top shape: 50 (50)
I0110 14:19:26.664522  8229 net.cpp:137] Memory required for data: 30105800
I0110 14:19:26.664561  8229 layer_factory.hpp:78] Creating layer label_data_1_split
I0110 14:19:26.664642  8229 net.cpp:84] Creating Layer label_data_1_split
I0110 14:19:26.664664  8229 net.cpp:406] label_data_1_split <- label
I0110 14:19:26.664710  8229 net.cpp:380] label_data_1_split -> label_data_1_split_0
I0110 14:19:26.664744  8229 net.cpp:380] label_data_1_split -> label_data_1_split_1
I0110 14:19:26.664759  8229 net.cpp:380] label_data_1_split -> label_data_1_split_2
I0110 14:19:26.665032  8229 net.cpp:122] Setting up label_data_1_split
I0110 14:19:26.665046  8229 net.cpp:129] Top shape: 50 (50)
I0110 14:19:26.665051  8229 net.cpp:129] Top shape: 50 (50)
I0110 14:19:26.665056  8229 net.cpp:129] Top shape: 50 (50)
I0110 14:19:26.665058  8229 net.cpp:137] Memory required for data: 30106400
I0110 14:19:26.665064  8229 layer_factory.hpp:78] Creating layer conv1
I0110 14:19:26.665105  8229 net.cpp:84] Creating Layer conv1
I0110 14:19:26.665114  8229 net.cpp:406] conv1 <- data
I0110 14:19:26.665134  8229 net.cpp:380] conv1 -> conv1
I0110 14:19:26.673440  8229 cudnn_conv_layer.cpp:194] Reallocating workspace storage: 127416
I0110 14:19:26.673497  8229 net.cpp:122] Setting up conv1
I0110 14:19:26.673509  8229 net.cpp:129] Top shape: 50 96 55 55 (14520000)
I0110 14:19:26.673512  8229 net.cpp:137] Memory required for data: 88186400
I0110 14:19:26.673565  8229 layer_factory.hpp:78] Creating layer bn1
I0110 14:19:26.673586  8229 net.cpp:84] Creating Layer bn1
I0110 14:19:26.673595  8229 net.cpp:406] bn1 <- conv1
I0110 14:19:26.673609  8229 net.cpp:367] bn1 -> conv1 (in-place)
I0110 14:19:26.673892  8229 net.cpp:122] Setting up bn1
I0110 14:19:26.673903  8229 net.cpp:129] Top shape: 50 96 55 55 (14520000)
I0110 14:19:26.673907  8229 net.cpp:137] Memory required for data: 146266400
I0110 14:19:26.673938  8229 layer_factory.hpp:78] Creating layer scale1
I0110 14:19:26.673965  8229 net.cpp:84] Creating Layer scale1
I0110 14:19:26.673974  8229 net.cpp:406] scale1 <- conv1
I0110 14:19:26.673988  8229 net.cpp:367] scale1 -> conv1 (in-place)
I0110 14:19:26.674079  8229 layer_factory.hpp:78] Creating layer scale1
I0110 14:19:26.674329  8229 net.cpp:122] Setting up scale1
I0110 14:19:26.674351  8229 net.cpp:129] Top shape: 50 96 55 55 (14520000)
I0110 14:19:26.674355  8229 net.cpp:137] Memory required for data: 204346400
I0110 14:19:26.674379  8229 layer_factory.hpp:78] Creating layer relu1
I0110 14:19:26.674408  8229 net.cpp:84] Creating Layer relu1
I0110 14:19:26.674417  8229 net.cpp:406] relu1 <- conv1
I0110 14:19:26.674432  8229 net.cpp:367] relu1 -> conv1 (in-place)
I0110 14:19:26.675071  8229 net.cpp:122] Setting up relu1
I0110 14:19:26.675087  8229 net.cpp:129] Top shape: 50 96 55 55 (14520000)
I0110 14:19:26.675091  8229 net.cpp:137] Memory required for data: 262426400
I0110 14:19:26.675097  8229 layer_factory.hpp:78] Creating layer pool1
I0110 14:19:26.675148  8229 net.cpp:84] Creating Layer pool1
I0110 14:19:26.675155  8229 net.cpp:406] pool1 <- conv1
I0110 14:19:26.675171  8229 net.cpp:380] pool1 -> pool1
I0110 14:19:26.675242  8229 net.cpp:122] Setting up pool1
I0110 14:19:26.675256  8229 net.cpp:129] Top shape: 50 96 27 27 (3499200)
I0110 14:19:26.675258  8229 net.cpp:137] Memory required for data: 276423200
I0110 14:19:26.675303  8229 layer_factory.hpp:78] Creating layer conv2
I0110 14:19:26.675333  8229 net.cpp:84] Creating Layer conv2
I0110 14:19:26.675369  8229 net.cpp:406] conv2 <- pool1
I0110 14:19:26.675392  8229 net.cpp:380] conv2 -> conv2
I0110 14:19:26.734747  8229 cudnn_binary_conv_layer.cpp:194] Reallocating workspace storage: 19668
I0110 14:19:26.734783  8229 net.cpp:122] Setting up conv2
I0110 14:19:26.734797  8229 net.cpp:129] Top shape: 50 256 27 27 (9331200)
I0110 14:19:26.734802  8229 net.cpp:137] Memory required for data: 313748000
I0110 14:19:26.734818  8229 layer_factory.hpp:78] Creating layer bn2
I0110 14:19:26.734841  8229 net.cpp:84] Creating Layer bn2
I0110 14:19:26.734853  8229 net.cpp:406] bn2 <- conv2
I0110 14:19:26.734869  8229 net.cpp:367] bn2 -> conv2 (in-place)
I0110 14:19:26.735193  8229 net.cpp:122] Setting up bn2
I0110 14:19:26.735204  8229 net.cpp:129] Top shape: 50 256 27 27 (9331200)
I0110 14:19:26.735222  8229 net.cpp:137] Memory required for data: 351072800
I0110 14:19:26.735252  8229 layer_factory.hpp:78] Creating layer scale2
I0110 14:19:26.735272  8229 net.cpp:84] Creating Layer scale2
I0110 14:19:26.735282  8229 net.cpp:406] scale2 <- conv2
I0110 14:19:26.735311  8229 net.cpp:367] scale2 -> conv2 (in-place)
I0110 14:19:26.735402  8229 layer_factory.hpp:78] Creating layer scale2
I0110 14:19:26.735607  8229 net.cpp:122] Setting up scale2
I0110 14:19:26.735620  8229 net.cpp:129] Top shape: 50 256 27 27 (9331200)
I0110 14:19:26.735623  8229 net.cpp:137] Memory required for data: 388397600
I0110 14:19:26.735637  8229 layer_factory.hpp:78] Creating layer relu2
I0110 14:19:26.735664  8229 net.cpp:84] Creating Layer relu2
I0110 14:19:26.735674  8229 net.cpp:406] relu2 <- conv2
I0110 14:19:26.735688  8229 net.cpp:367] relu2 -> conv2 (in-place)
I0110 14:19:26.736603  8229 net.cpp:122] Setting up relu2
I0110 14:19:26.736616  8229 net.cpp:129] Top shape: 50 256 27 27 (9331200)
I0110 14:19:26.736636  8229 net.cpp:137] Memory required for data: 425722400
I0110 14:19:26.736642  8229 layer_factory.hpp:78] Creating layer pool2
I0110 14:19:26.736662  8229 net.cpp:84] Creating Layer pool2
I0110 14:19:26.736670  8229 net.cpp:406] pool2 <- conv2
I0110 14:19:26.736686  8229 net.cpp:380] pool2 -> pool2
I0110 14:19:26.736798  8229 net.cpp:122] Setting up pool2
I0110 14:19:26.736812  8229 net.cpp:129] Top shape: 50 256 13 13 (2163200)
I0110 14:19:26.736815  8229 net.cpp:137] Memory required for data: 434375200
I0110 14:19:26.736829  8229 layer_factory.hpp:78] Creating layer conv3
I0110 14:19:26.736857  8229 net.cpp:84] Creating Layer conv3
I0110 14:19:26.736866  8229 net.cpp:406] conv3 <- pool2
I0110 14:19:26.736889  8229 net.cpp:380] conv3 -> conv3
I0110 14:19:26.826146  8229 cudnn_binary_conv_layer.cpp:194] Reallocating workspace storage: 18874368
I0110 14:19:26.826540  8229 net.cpp:122] Setting up conv3
I0110 14:19:26.826562  8229 net.cpp:129] Top shape: 50 384 13 13 (3244800)
I0110 14:19:26.826566  8229 net.cpp:137] Memory required for data: 447354400
I0110 14:19:26.826588  8229 layer_factory.hpp:78] Creating layer bn3
I0110 14:19:26.826617  8229 net.cpp:84] Creating Layer bn3
I0110 14:19:26.826627  8229 net.cpp:406] bn3 <- conv3
I0110 14:19:26.826649  8229 net.cpp:367] bn3 -> conv3 (in-place)
I0110 14:19:26.826937  8229 net.cpp:122] Setting up bn3
I0110 14:19:26.826951  8229 net.cpp:129] Top shape: 50 384 13 13 (3244800)
I0110 14:19:26.826956  8229 net.cpp:137] Memory required for data: 460333600
I0110 14:19:26.826990  8229 layer_factory.hpp:78] Creating layer scale3
I0110 14:19:26.827010  8229 net.cpp:84] Creating Layer scale3
I0110 14:19:26.827018  8229 net.cpp:406] scale3 <- conv3
I0110 14:19:26.827031  8229 net.cpp:367] scale3 -> conv3 (in-place)
I0110 14:19:26.827109  8229 layer_factory.hpp:78] Creating layer scale3
I0110 14:19:26.827296  8229 net.cpp:122] Setting up scale3
I0110 14:19:26.827311  8229 net.cpp:129] Top shape: 50 384 13 13 (3244800)
I0110 14:19:26.827314  8229 net.cpp:137] Memory required for data: 473312800
I0110 14:19:26.827347  8229 layer_factory.hpp:78] Creating layer relu3
I0110 14:19:26.827363  8229 net.cpp:84] Creating Layer relu3
I0110 14:19:26.827370  8229 net.cpp:406] relu3 <- conv3
I0110 14:19:26.827423  8229 net.cpp:367] relu3 -> conv3 (in-place)
I0110 14:19:26.828379  8229 net.cpp:122] Setting up relu3
I0110 14:19:26.828395  8229 net.cpp:129] Top shape: 50 384 13 13 (3244800)
I0110 14:19:26.828399  8229 net.cpp:137] Memory required for data: 486292000
I0110 14:19:26.828416  8229 layer_factory.hpp:78] Creating layer conv4
I0110 14:19:26.828455  8229 net.cpp:84] Creating Layer conv4
I0110 14:19:26.828481  8229 net.cpp:406] conv4 <- conv3
I0110 14:19:26.828503  8229 net.cpp:380] conv4 -> conv4
I0110 14:19:26.951794  8229 cudnn_binary_conv_layer.cpp:194] Reallocating workspace storage: 9840
I0110 14:19:26.951862  8229 net.cpp:122] Setting up conv4
I0110 14:19:26.951881  8229 net.cpp:129] Top shape: 50 384 13 13 (3244800)
I0110 14:19:26.951885  8229 net.cpp:137] Memory required for data: 499271200
I0110 14:19:26.951942  8229 layer_factory.hpp:78] Creating layer bn4
I0110 14:19:26.951977  8229 net.cpp:84] Creating Layer bn4
I0110 14:19:26.951990  8229 net.cpp:406] bn4 <- conv4
I0110 14:19:26.952014  8229 net.cpp:367] bn4 -> conv4 (in-place)
I0110 14:19:26.952289  8229 net.cpp:122] Setting up bn4
I0110 14:19:26.952301  8229 net.cpp:129] Top shape: 50 384 13 13 (3244800)
I0110 14:19:26.952304  8229 net.cpp:137] Memory required for data: 512250400
I0110 14:19:26.952325  8229 layer_factory.hpp:78] Creating layer scale4
I0110 14:19:26.952355  8229 net.cpp:84] Creating Layer scale4
I0110 14:19:26.952363  8229 net.cpp:406] scale4 <- conv4
I0110 14:19:26.952378  8229 net.cpp:367] scale4 -> conv4 (in-place)
I0110 14:19:26.952456  8229 layer_factory.hpp:78] Creating layer scale4
I0110 14:19:26.952646  8229 net.cpp:122] Setting up scale4
I0110 14:19:26.952658  8229 net.cpp:129] Top shape: 50 384 13 13 (3244800)
I0110 14:19:26.952662  8229 net.cpp:137] Memory required for data: 525229600
I0110 14:19:26.952677  8229 layer_factory.hpp:78] Creating layer relu4
I0110 14:19:26.952710  8229 net.cpp:84] Creating Layer relu4
I0110 14:19:26.952728  8229 net.cpp:406] relu4 <- conv4
I0110 14:19:26.952744  8229 net.cpp:367] relu4 -> conv4 (in-place)
I0110 14:19:26.953383  8229 net.cpp:122] Setting up relu4
I0110 14:19:26.953397  8229 net.cpp:129] Top shape: 50 384 13 13 (3244800)
I0110 14:19:26.953415  8229 net.cpp:137] Memory required for data: 538208800
I0110 14:19:26.953430  8229 layer_factory.hpp:78] Creating layer conv5
I0110 14:19:26.953464  8229 net.cpp:84] Creating Layer conv5
I0110 14:19:26.953474  8229 net.cpp:406] conv5 <- conv4
I0110 14:19:26.953495  8229 net.cpp:380] conv5 -> conv5
I0110 14:19:27.038789  8229 cudnn_binary_conv_layer.cpp:194] Reallocating workspace storage: 18874368
I0110 14:19:27.039156  8229 net.cpp:122] Setting up conv5
I0110 14:19:27.039181  8229 net.cpp:129] Top shape: 50 256 13 13 (2163200)
I0110 14:19:27.039187  8229 net.cpp:137] Memory required for data: 546861600
I0110 14:19:27.039219  8229 layer_factory.hpp:78] Creating layer bn5
I0110 14:19:27.039252  8229 net.cpp:84] Creating Layer bn5
I0110 14:19:27.039266  8229 net.cpp:406] bn5 <- conv5
I0110 14:19:27.039299  8229 net.cpp:367] bn5 -> conv5 (in-place)
I0110 14:19:27.039589  8229 net.cpp:122] Setting up bn5
I0110 14:19:27.039615  8229 net.cpp:129] Top shape: 50 256 13 13 (2163200)
I0110 14:19:27.039618  8229 net.cpp:137] Memory required for data: 555514400
I0110 14:19:27.039656  8229 layer_factory.hpp:78] Creating layer scale5
I0110 14:19:27.039677  8229 net.cpp:84] Creating Layer scale5
I0110 14:19:27.039685  8229 net.cpp:406] scale5 <- conv5
I0110 14:19:27.039700  8229 net.cpp:367] scale5 -> conv5 (in-place)
I0110 14:19:27.039783  8229 layer_factory.hpp:78] Creating layer scale5
I0110 14:19:27.039964  8229 net.cpp:122] Setting up scale5
I0110 14:19:27.039976  8229 net.cpp:129] Top shape: 50 256 13 13 (2163200)
I0110 14:19:27.039980  8229 net.cpp:137] Memory required for data: 564167200
I0110 14:19:27.039994  8229 layer_factory.hpp:78] Creating layer relu5
I0110 14:19:27.040012  8229 net.cpp:84] Creating Layer relu5
I0110 14:19:27.040019  8229 net.cpp:406] relu5 <- conv5
I0110 14:19:27.040036  8229 net.cpp:367] relu5 -> conv5 (in-place)
I0110 14:19:27.040721  8229 net.cpp:122] Setting up relu5
I0110 14:19:27.040740  8229 net.cpp:129] Top shape: 50 256 13 13 (2163200)
I0110 14:19:27.040742  8229 net.cpp:137] Memory required for data: 572820000
I0110 14:19:27.040765  8229 layer_factory.hpp:78] Creating layer pool5
I0110 14:19:27.040786  8229 net.cpp:84] Creating Layer pool5
I0110 14:19:27.040796  8229 net.cpp:406] pool5 <- conv5
I0110 14:19:27.040818  8229 net.cpp:380] pool5 -> pool5
I0110 14:19:27.040899  8229 net.cpp:122] Setting up pool5
I0110 14:19:27.040918  8229 net.cpp:129] Top shape: 50 256 6 6 (460800)
I0110 14:19:27.040923  8229 net.cpp:137] Memory required for data: 574663200
I0110 14:19:27.040930  8229 layer_factory.hpp:78] Creating layer fc6
I0110 14:19:27.040977  8229 net.cpp:84] Creating Layer fc6
I0110 14:19:27.040992  8229 net.cpp:406] fc6 <- pool5
I0110 14:19:27.041024  8229 net.cpp:380] fc6 -> fc6
I0110 14:19:30.358934  8229 net.cpp:122] Setting up fc6
I0110 14:19:30.358994  8229 net.cpp:129] Top shape: 50 4096 (204800)
I0110 14:19:30.359000  8229 net.cpp:137] Memory required for data: 575482400
I0110 14:19:30.359042  8229 layer_factory.hpp:78] Creating layer bn6
I0110 14:19:30.359094  8229 net.cpp:84] Creating Layer bn6
I0110 14:19:30.359115  8229 net.cpp:406] bn6 <- fc6
I0110 14:19:30.359148  8229 net.cpp:367] bn6 -> fc6 (in-place)
I0110 14:19:30.359496  8229 net.cpp:122] Setting up bn6
I0110 14:19:30.359510  8229 net.cpp:129] Top shape: 50 4096 (204800)
I0110 14:19:30.359514  8229 net.cpp:137] Memory required for data: 576301600
I0110 14:19:30.359555  8229 layer_factory.hpp:78] Creating layer scale6
I0110 14:19:30.359580  8229 net.cpp:84] Creating Layer scale6
I0110 14:19:30.359589  8229 net.cpp:406] scale6 <- fc6
I0110 14:19:30.359604  8229 net.cpp:367] scale6 -> fc6 (in-place)
I0110 14:19:30.359712  8229 layer_factory.hpp:78] Creating layer scale6
I0110 14:19:30.359917  8229 net.cpp:122] Setting up scale6
I0110 14:19:30.359930  8229 net.cpp:129] Top shape: 50 4096 (204800)
I0110 14:19:30.359932  8229 net.cpp:137] Memory required for data: 577120800
I0110 14:19:30.359947  8229 layer_factory.hpp:78] Creating layer relu6
I0110 14:19:30.359972  8229 net.cpp:84] Creating Layer relu6
I0110 14:19:30.359980  8229 net.cpp:406] relu6 <- fc6
I0110 14:19:30.359995  8229 net.cpp:367] relu6 -> fc6 (in-place)
I0110 14:19:30.361146  8229 net.cpp:122] Setting up relu6
I0110 14:19:30.361161  8229 net.cpp:129] Top shape: 50 4096 (204800)
I0110 14:19:30.361166  8229 net.cpp:137] Memory required for data: 577940000
I0110 14:19:30.361172  8229 layer_factory.hpp:78] Creating layer drop6
I0110 14:19:30.361189  8229 net.cpp:84] Creating Layer drop6
I0110 14:19:30.361196  8229 net.cpp:406] drop6 <- fc6
I0110 14:19:30.361212  8229 net.cpp:367] drop6 -> fc6 (in-place)
I0110 14:19:30.361263  8229 net.cpp:122] Setting up drop6
I0110 14:19:30.361272  8229 net.cpp:129] Top shape: 50 4096 (204800)
I0110 14:19:30.361275  8229 net.cpp:137] Memory required for data: 578759200
I0110 14:19:30.361280  8229 layer_factory.hpp:78] Creating layer fc7
I0110 14:19:30.361304  8229 net.cpp:84] Creating Layer fc7
I0110 14:19:30.361313  8229 net.cpp:406] fc7 <- fc6
I0110 14:19:30.361330  8229 net.cpp:380] fc7 -> fc7
I0110 14:19:31.857513  8229 net.cpp:122] Setting up fc7
I0110 14:19:31.857566  8229 net.cpp:129] Top shape: 50 4096 (204800)
I0110 14:19:31.857570  8229 net.cpp:137] Memory required for data: 579578400
I0110 14:19:31.857602  8229 layer_factory.hpp:78] Creating layer bn7
I0110 14:19:31.857640  8229 net.cpp:84] Creating Layer bn7
I0110 14:19:31.857661  8229 net.cpp:406] bn7 <- fc7
I0110 14:19:31.857694  8229 net.cpp:367] bn7 -> fc7 (in-place)
I0110 14:19:31.858016  8229 net.cpp:122] Setting up bn7
I0110 14:19:31.858029  8229 net.cpp:129] Top shape: 50 4096 (204800)
I0110 14:19:31.858036  8229 net.cpp:137] Memory required for data: 580397600
I0110 14:19:31.858065  8229 layer_factory.hpp:78] Creating layer scale7
I0110 14:19:31.858110  8229 net.cpp:84] Creating Layer scale7
I0110 14:19:31.858121  8229 net.cpp:406] scale7 <- fc7
I0110 14:19:31.858147  8229 net.cpp:367] scale7 -> fc7 (in-place)
I0110 14:19:31.858283  8229 layer_factory.hpp:78] Creating layer scale7
I0110 14:19:31.858506  8229 net.cpp:122] Setting up scale7
I0110 14:19:31.858521  8229 net.cpp:129] Top shape: 50 4096 (204800)
I0110 14:19:31.858526  8229 net.cpp:137] Memory required for data: 581216800
I0110 14:19:31.858547  8229 layer_factory.hpp:78] Creating layer relu7
I0110 14:19:31.858569  8229 net.cpp:84] Creating Layer relu7
I0110 14:19:31.858580  8229 net.cpp:406] relu7 <- fc7
I0110 14:19:31.858602  8229 net.cpp:367] relu7 -> fc7 (in-place)
I0110 14:19:31.859875  8229 net.cpp:122] Setting up relu7
I0110 14:19:31.859895  8229 net.cpp:129] Top shape: 50 4096 (204800)
I0110 14:19:31.859902  8229 net.cpp:137] Memory required for data: 582036000
I0110 14:19:31.859912  8229 layer_factory.hpp:78] Creating layer drop7
I0110 14:19:31.859938  8229 net.cpp:84] Creating Layer drop7
I0110 14:19:31.859948  8229 net.cpp:406] drop7 <- fc7
I0110 14:19:31.859972  8229 net.cpp:367] drop7 -> fc7 (in-place)
I0110 14:19:31.860028  8229 net.cpp:122] Setting up drop7
I0110 14:19:31.860039  8229 net.cpp:129] Top shape: 50 4096 (204800)
I0110 14:19:31.860044  8229 net.cpp:137] Memory required for data: 582855200
I0110 14:19:31.860055  8229 layer_factory.hpp:78] Creating layer fc8
I0110 14:19:31.860088  8229 net.cpp:84] Creating Layer fc8
I0110 14:19:31.860098  8229 net.cpp:406] fc8 <- fc7
I0110 14:19:31.860124  8229 net.cpp:380] fc8 -> fc8
I0110 14:19:32.227035  8229 net.cpp:122] Setting up fc8
I0110 14:19:32.227085  8229 net.cpp:129] Top shape: 50 1000 (50000)
I0110 14:19:32.227092  8229 net.cpp:137] Memory required for data: 583055200
I0110 14:19:32.227129  8229 layer_factory.hpp:78] Creating layer fc8_fc8_0_split
I0110 14:19:32.227180  8229 net.cpp:84] Creating Layer fc8_fc8_0_split
I0110 14:19:32.227207  8229 net.cpp:406] fc8_fc8_0_split <- fc8
I0110 14:19:32.227241  8229 net.cpp:380] fc8_fc8_0_split -> fc8_fc8_0_split_0
I0110 14:19:32.227284  8229 net.cpp:380] fc8_fc8_0_split -> fc8_fc8_0_split_1
I0110 14:19:32.227308  8229 net.cpp:380] fc8_fc8_0_split -> fc8_fc8_0_split_2
I0110 14:19:32.227425  8229 net.cpp:122] Setting up fc8_fc8_0_split
I0110 14:19:32.227442  8229 net.cpp:129] Top shape: 50 1000 (50000)
I0110 14:19:32.227453  8229 net.cpp:129] Top shape: 50 1000 (50000)
I0110 14:19:32.227458  8229 net.cpp:129] Top shape: 50 1000 (50000)
I0110 14:19:32.227460  8229 net.cpp:137] Memory required for data: 583655200
I0110 14:19:32.227468  8229 layer_factory.hpp:78] Creating layer loss
I0110 14:19:32.227504  8229 net.cpp:84] Creating Layer loss
I0110 14:19:32.227510  8229 net.cpp:406] loss <- fc8_fc8_0_split_0
I0110 14:19:32.227524  8229 net.cpp:406] loss <- label_data_1_split_0
I0110 14:19:32.227535  8229 net.cpp:380] loss -> loss
…
