…
I0718 22:42:15.042470 23405 net.cpp:294] The NetState phase (0) differed from the phase (1) specified by a rule in layer data
I0718 22:42:15.042733 23405 net.cpp:51] Initializing net from parameters: 
name: "AlexNet-BN"
state {
  phase: TRAIN
  level: 0
  stage: ""
}
layer {
  name: "data"
  type: "Data"
  top: "data"
  top: "label"
  include {
    phase: TRAIN
  }
  transform_param {
    mirror: true
    crop_size: 224
    mean_file: "data/imagenet_mean.binaryproto"
  }
  data_param {
    source: "/home/zhengzhe/Data/ilsvrc12/ilsvrc12_train_lmdb"
    batch_size: 256
    backend: LMDB
  }
}
layer {
  name: "conv1"
  type: "BinaryConvolution"
  bottom: "data"
  top: "conv1"
  param {
    lr_mult: 1
    decay_mult: 1
  }
  convolution_param {
    num_output: 96
    bias_term: false
    pad: 2
    kernel_size: 11
    stride: 4
    weight_filler {
      type: "msra"
    }
  }
}
layer {
  name: "bn1"
  type: "BatchNorm"
  bottom: "conv1"
  top: "conv1"
}
layer {
  name: "scale1"
  type: "Scale"
  bottom: "conv1"
  top: "conv1"
  scale_param {
    bias_term: true
  }
}
layer {
  name: "relu1"
  type: "ReLU"
  bottom: "conv1"
  top: "conv1"
}
layer {
  name: "pool1"
  type: "Pooling"
  bottom: "conv1"
  top: "pool1"
  pooling_param {
    pool: MAX
    kernel_size: 3
    stride: 2
  }
}
layer {
  name: "conv2"
  type: "BinaryConvolution"
  bottom: "pool1"
  top: "conv2"
  param {
    lr_mult: 1
    decay_mult: 1
  }
  convolution_param {
    num_output: 256
    bias_term: false
    pad: 2
    kernel_size: 5
    weight_filler {
      type: "msra"
    }
  }
}
layer {
  name: "bn2"
  type: "BatchNorm"
  bottom: "conv2"
  top: "conv2"
}
layer {
  name: "scale2"
  type: "Scale"
  bottom: "conv2"
  top: "conv2"
  scale_param {
    bias_term: true
  }
}
layer {
  name: "relu2"
  type: "ReLU"
  bottom: "conv2"
  top: "conv2"
}
layer {
  name: "pool2"
  type: "Pooling"
  bottom: "conv2"
  top: "pool2"
  pooling_param {
    pool: MAX
    kernel_size: 3
    stride: 2
  }
}
layer {
  name: "conv3"
  type: "BinaryConvolution"
  bottom: "pool2"
  top: "conv3"
  param {
    lr_mult: 1
    decay_mult: 1
  }
  convolution_param {
    num_output: 384
    bias_term: false
    pad: 1
    kernel_size: 3
    weight_filler {
      type: "msra"
    }
  }
}
layer {
  name: "bn3"
  type: "BatchNorm"
  bottom: "conv3"
  top: "conv3"
}
layer {
  name: "scale3"
  type: "Scale"
  bottom: "conv3"
  top: "conv3"
  scale_param {
    bias_term: true
  }
}
layer {
  name: "relu3"
  type: "ReLU"
  bottom: "conv3"
  top: "conv3"
}
layer {
  name: "conv4"
  type: "BinaryConvolution"
  bottom: "conv3"
  top: "conv4"
  param {
    lr_mult: 1
    decay_mult: 1
  }
  convolution_param {
    num_output: 384
    bias_term: false
    pad: 1
    kernel_size: 3
    weight_filler {
      type: "msra"
    }
  }
}
layer {
  name: "bn4"
  type: "BatchNorm"
  bottom: "conv4"
  top: "conv4"
}
layer {
  name: "scale4"
  type: "Scale"
  bottom: "conv4"
  top: "conv4"
  scale_param {
    bias_term: true
  }
}
layer {
  name: "relu4"
  type: "ReLU"
  bottom: "conv4"
  top: "conv4"
}
layer {
  name: "conv5"
  type: "BinaryConvolution"
  bottom: "conv4"
  top: "conv5"
  param {
    lr_mult: 1
    decay_mult: 1
  }
  convolution_param {
    num_output: 256
    bias_term: false
    pad: 1
    kernel_size: 3
    weight_filler {
      type: "msra"
    }
  }
}
layer {
  name: "bn5"
  type: "BatchNorm"
  bottom: "conv5"
  top: "conv5"
}
layer {
  name: "scale5"
  type: "Scale"
  bottom: "conv5"
  top: "conv5"
  scale_param {
    bias_term: true
  }
}
layer {
  name: "relu5"
  type: "ReLU"
  bottom: "conv5"
  top: "conv5"
}
layer {
  name: "pool5"
  type: "Pooling"
  bottom: "conv5"
  top: "pool5"
  pooling_param {
    pool: MAX
    kernel_size: 3
    stride: 2
  }
}
layer {
  name: "fc6"
  type: "BinaryInnerProduct"
  bottom: "pool5"
  top: "fc6"
  param {
    lr_mult: 1
    decay_mult: 1
  }
  inner_product_param {
    num_output: 4096
    bias_term: false
    weight_filler {
      type: "msra"
    }
  }
}
layer {
  name: "bn6"
  type: "BatchNorm"
  bottom: "fc6"
  top: "fc6"
}
layer {
  name: "scale6"
  type: "Scale"
  bottom: "fc6"
  top: "fc6"
  scale_param {
    bias_term: true
  }
}
layer {
  name: "relu6"
  type: "ReLU"
  bottom: "fc6"
  top: "fc6"
}
layer {
  name: "drop6"
  type: "Dropout"
  bottom: "fc6"
  top: "fc6"
  dropout_param {
    dropout_ratio: 0.5
  }
}
layer {
  name: "fc7"
  type: "BinaryInnerProduct"
  bottom: "fc6"
  top: "fc7"
  param {
    lr_mult: 1
    decay_mult: 1
  }
  inner_product_param {
    num_output: 4096
    bias_term: false
    weight_filler {
      type: "msra"
    }
  }
}
layer {
  name: "bn7"
  type: "BatchNorm"
  bottom: "fc7"
  top: "fc7"
}
layer {
  name: "scale7"
  type: "Scale"
  bottom: "fc7"
  top: "fc7"
  scale_param {
    bias_term: true
  }
}
layer {
  name: "relu7"
  type: "ReLU"
  bottom: "fc7"
  top: "fc7"
}
layer {
  name: "drop7"
  type: "Dropout"
  bottom: "fc7"
  top: "fc7"
  dropout_param {
    dropout_ratio: 0.5
  }
}
layer {
  name: "fc8"
  type: "BinaryInnerProduct"
  bottom: "fc7"
  top: "fc8"
  param {
    lr_mult: 1
    decay_mult: 1
  }
  param {
    lr_mult: 2
    decay_mult: 0
  }
  inner_product_param {
    num_output: 1000
    weight_filler {
      type: "msra"
    }
    bias_filler {
      type: "constant"
      value: 0
    }
  }
}
layer {
  name: "loss"
  type: "SoftmaxWithLoss"
  bottom: "fc8"
  bottom: "label"
  top: "loss"
}
layer {
  name: "accuracy"
  type: "Accuracy"
  bottom: "fc8"
  bottom: "label"
  top: "accuracy"
}
layer {
  name: "accuracy_5"
  type: "Accuracy"
  bottom: "fc8"
  bottom: "label"
  top: "accuracy_5"
  accuracy_param {
    top_k: 5
  }
}
I0718 22:42:15.043577 23405 layer_factory.hpp:77] Creating layer data
I0718 22:42:15.043810 23405 db_lmdb.cpp:35] Opened lmdb /home/zhengzhe/Data/ilsvrc12/ilsvrc12_train_lmdb
I0718 22:42:15.043893 23405 net.cpp:84] Creating Layer data
I0718 22:42:15.043929 23405 net.cpp:380] data -> data
I0718 22:42:15.044066 23405 net.cpp:380] data -> label
I0718 22:42:15.044117 23405 data_transformer.cpp:25] Loading mean file from: data/imagenet_mean.binaryproto
I0718 22:42:15.055701 23405 data_layer.cpp:45] output data size: 256,3,224,224
I0718 22:42:15.452922 23405 base_data_layer.cpp:72] Initializing prefetch
I0718 22:42:15.453511 23405 base_data_layer.cpp:75] Prefetch initialized.
I0718 22:42:15.453527 23405 net.cpp:122] Setting up data
I0718 22:42:15.453569 23405 net.cpp:129] Top shape: 256 3 224 224 (38535168)
I0718 22:42:15.453583 23405 net.cpp:129] Top shape: 256 (256)
I0718 22:42:15.453589 23405 net.cpp:137] Memory required for data: 154141696
I0718 22:42:15.453624 23405 layer_factory.hpp:77] Creating layer label_data_1_split
I0718 22:42:15.453678 23405 net.cpp:84] Creating Layer label_data_1_split
I0718 22:42:15.453706 23405 net.cpp:406] label_data_1_split <- label
I0718 22:42:15.453765 23405 net.cpp:380] label_data_1_split -> label_data_1_split_0
I0718 22:42:15.453810 23405 net.cpp:380] label_data_1_split -> label_data_1_split_1
I0718 22:42:15.453835 23405 net.cpp:380] label_data_1_split -> label_data_1_split_2
I0718 22:42:15.453929 23405 net.cpp:122] Setting up label_data_1_split
I0718 22:42:15.453946 23405 net.cpp:129] Top shape: 256 (256)
I0718 22:42:15.453958 23405 net.cpp:129] Top shape: 256 (256)
I0718 22:42:15.453969 23405 net.cpp:129] Top shape: 256 (256)
I0718 22:42:15.453974 23405 net.cpp:137] Memory required for data: 154144768
I0718 22:42:15.453982 23405 layer_factory.hpp:77] Creating layer conv1
I0718 22:42:15.454025 23405 net.cpp:84] Creating Layer conv1
I0718 22:42:15.454061 23405 net.cpp:406] conv1 <- data
I0718 22:42:15.454093 23405 net.cpp:380] conv1 -> conv1
I0718 22:42:15.477321 23405 net.cpp:122] Setting up conv1
I0718 22:42:15.477346 23405 net.cpp:129] Top shape: 256 96 55 55 (74342400)
I0718 22:42:15.477355 23405 net.cpp:137] Memory required for data: 451514368
I0718 22:42:15.477409 23405 layer_factory.hpp:77] Creating layer bn1
I0718 22:42:15.477439 23405 net.cpp:84] Creating Layer bn1
I0718 22:42:15.477452 23405 net.cpp:406] bn1 <- conv1
I0718 22:42:15.477480 23405 net.cpp:367] bn1 -> conv1 (in-place)
I0718 22:42:15.478793 23405 net.cpp:122] Setting up bn1
I0718 22:42:15.478812 23405 net.cpp:129] Top shape: 256 96 55 55 (74342400)
I0718 22:42:15.478819 23405 net.cpp:137] Memory required for data: 748883968
I0718 22:42:15.478873 23405 layer_factory.hpp:77] Creating layer scale1
I0718 22:42:15.478909 23405 net.cpp:84] Creating Layer scale1
I0718 22:42:15.478924 23405 net.cpp:406] scale1 <- conv1
I0718 22:42:15.478947 23405 net.cpp:367] scale1 -> conv1 (in-place)
I0718 22:42:15.479037 23405 layer_factory.hpp:77] Creating layer scale1
I0718 22:42:15.479267 23405 net.cpp:122] Setting up scale1
I0718 22:42:15.479282 23405 net.cpp:129] Top shape: 256 96 55 55 (74342400)
I0718 22:42:15.479290 23405 net.cpp:137] Memory required for data: 1046253568
I0718 22:42:15.479321 23405 layer_factory.hpp:77] Creating layer relu1
I0718 22:42:15.479346 23405 net.cpp:84] Creating Layer relu1
I0718 22:42:15.479359 23405 net.cpp:406] relu1 <- conv1
I0718 22:42:15.479382 23405 net.cpp:367] relu1 -> conv1 (in-place)
I0718 22:42:15.479404 23405 net.cpp:122] Setting up relu1
I0718 22:42:15.479414 23405 net.cpp:129] Top shape: 256 96 55 55 (74342400)
I0718 22:42:15.479421 23405 net.cpp:137] Memory required for data: 1343623168
I0718 22:42:15.479429 23405 layer_factory.hpp:77] Creating layer pool1
I0718 22:42:15.479455 23405 net.cpp:84] Creating Layer pool1
I0718 22:42:15.479466 23405 net.cpp:406] pool1 <- conv1
I0718 22:42:15.479488 23405 net.cpp:380] pool1 -> pool1
I0718 22:42:15.479570 23405 net.cpp:122] Setting up pool1
I0718 22:42:15.479588 23405 net.cpp:129] Top shape: 256 96 27 27 (17915904)
I0718 22:42:15.479594 23405 net.cpp:137] Memory required for data: 1415286784
I0718 22:42:15.479604 23405 layer_factory.hpp:77] Creating layer conv2
I0718 22:42:15.479629 23405 net.cpp:84] Creating Layer conv2
I0718 22:42:15.479642 23405 net.cpp:406] conv2 <- pool1
I0718 22:42:15.479671 23405 net.cpp:380] conv2 -> conv2
I0718 22:42:15.601245 23405 net.cpp:122] Setting up conv2
I0718 22:42:15.601292 23405 net.cpp:129] Top shape: 256 256 27 27 (47775744)
I0718 22:42:15.601300 23405 net.cpp:137] Memory required for data: 1606389760
I0718 22:42:15.601327 23405 layer_factory.hpp:77] Creating layer bn2
I0718 22:42:15.601374 23405 net.cpp:84] Creating Layer bn2
I0718 22:42:15.601392 23405 net.cpp:406] bn2 <- conv2
I0718 22:42:15.601428 23405 net.cpp:367] bn2 -> conv2 (in-place)
I0718 22:42:15.601678 23405 net.cpp:122] Setting up bn2
I0718 22:42:15.601692 23405 net.cpp:129] Top shape: 256 256 27 27 (47775744)
I0718 22:42:15.601699 23405 net.cpp:137] Memory required for data: 1797492736
I0718 22:42:15.601742 23405 layer_factory.hpp:77] Creating layer scale2
I0718 22:42:15.601768 23405 net.cpp:84] Creating Layer scale2
I0718 22:42:15.601780 23405 net.cpp:406] scale2 <- conv2
I0718 22:42:15.601804 23405 net.cpp:367] scale2 -> conv2 (in-place)
I0718 22:42:15.601879 23405 layer_factory.hpp:77] Creating layer scale2
I0718 22:42:15.602072 23405 net.cpp:122] Setting up scale2
I0718 22:42:15.602087 23405 net.cpp:129] Top shape: 256 256 27 27 (47775744)
I0718 22:42:15.602093 23405 net.cpp:137] Memory required for data: 1988595712
I0718 22:42:15.602113 23405 layer_factory.hpp:77] Creating layer relu2
I0718 22:42:15.602133 23405 net.cpp:84] Creating Layer relu2
I0718 22:42:15.602144 23405 net.cpp:406] relu2 <- conv2
I0718 22:42:15.602165 23405 net.cpp:367] relu2 -> conv2 (in-place)
I0718 22:42:15.602188 23405 net.cpp:122] Setting up relu2
I0718 22:42:15.602198 23405 net.cpp:129] Top shape: 256 256 27 27 (47775744)
I0718 22:42:15.602223 23405 net.cpp:137] Memory required for data: 2179698688
I0718 22:42:15.602232 23405 layer_factory.hpp:77] Creating layer pool2
I0718 22:42:15.602257 23405 net.cpp:84] Creating Layer pool2
I0718 22:42:15.602267 23405 net.cpp:406] pool2 <- conv2
I0718 22:42:15.602291 23405 net.cpp:380] pool2 -> pool2
I0718 22:42:15.602375 23405 net.cpp:122] Setting up pool2
I0718 22:42:15.602391 23405 net.cpp:129] Top shape: 256 256 13 13 (11075584)
I0718 22:42:15.602398 23405 net.cpp:137] Memory required for data: 2224001024
I0718 22:42:15.602406 23405 layer_factory.hpp:77] Creating layer conv3
I0718 22:42:15.602437 23405 net.cpp:84] Creating Layer conv3
I0718 22:42:15.602448 23405 net.cpp:406] conv3 <- pool2
I0718 22:42:15.602476 23405 net.cpp:380] conv3 -> conv3
I0718 22:42:15.777612 23405 net.cpp:122] Setting up conv3
I0718 22:42:15.777660 23405 net.cpp:129] Top shape: 256 384 13 13 (16613376)
I0718 22:42:15.777667 23405 net.cpp:137] Memory required for data: 2290454528
I0718 22:42:15.777701 23405 layer_factory.hpp:77] Creating layer bn3
I0718 22:42:15.777742 23405 net.cpp:84] Creating Layer bn3
I0718 22:42:15.777763 23405 net.cpp:406] bn3 <- conv3
I0718 22:42:15.777799 23405 net.cpp:367] bn3 -> conv3 (in-place)
I0718 22:42:15.778033 23405 net.cpp:122] Setting up bn3
I0718 22:42:15.778044 23405 net.cpp:129] Top shape: 256 384 13 13 (16613376)
I0718 22:42:15.778049 23405 net.cpp:137] Memory required for data: 2356908032
I0718 22:42:15.778071 23405 layer_factory.hpp:77] Creating layer scale3
I0718 22:42:15.778093 23405 net.cpp:84] Creating Layer scale3
I0718 22:42:15.778101 23405 net.cpp:406] scale3 <- conv3
I0718 22:42:15.778120 23405 net.cpp:367] scale3 -> conv3 (in-place)
I0718 22:42:15.778187 23405 layer_factory.hpp:77] Creating layer scale3
I0718 22:42:15.778357 23405 net.cpp:122] Setting up scale3
I0718 22:42:15.778370 23405 net.cpp:129] Top shape: 256 384 13 13 (16613376)
I0718 22:42:15.778375 23405 net.cpp:137] Memory required for data: 2423361536
I0718 22:42:15.778412 23405 layer_factory.hpp:77] Creating layer relu3
I0718 22:42:15.778435 23405 net.cpp:84] Creating Layer relu3
I0718 22:42:15.778445 23405 net.cpp:406] relu3 <- conv3
I0718 22:42:15.778465 23405 net.cpp:367] relu3 -> conv3 (in-place)
I0718 22:42:15.778486 23405 net.cpp:122] Setting up relu3
I0718 22:42:15.778494 23405 net.cpp:129] Top shape: 256 384 13 13 (16613376)
I0718 22:42:15.778498 23405 net.cpp:137] Memory required for data: 2489815040
I0718 22:42:15.778504 23405 layer_factory.hpp:77] Creating layer conv4
I0718 22:42:15.778542 23405 net.cpp:84] Creating Layer conv4
I0718 22:42:15.778553 23405 net.cpp:406] conv4 <- conv3
I0718 22:42:15.778575 23405 net.cpp:380] conv4 -> conv4
I0718 22:42:16.043498 23405 net.cpp:122] Setting up conv4
I0718 22:42:16.043547 23405 net.cpp:129] Top shape: 256 384 13 13 (16613376)
I0718 22:42:16.043553 23405 net.cpp:137] Memory required for data: 2556268544
I0718 22:42:16.043581 23405 layer_factory.hpp:77] Creating layer bn4
I0718 22:42:16.043620 23405 net.cpp:84] Creating Layer bn4
I0718 22:42:16.043637 23405 net.cpp:406] bn4 <- conv4
I0718 22:42:16.043668 23405 net.cpp:367] bn4 -> conv4 (in-place)
I0718 22:42:16.043964 23405 net.cpp:122] Setting up bn4
I0718 22:42:16.043978 23405 net.cpp:129] Top shape: 256 384 13 13 (16613376)
I0718 22:42:16.043983 23405 net.cpp:137] Memory required for data: 2622722048
I0718 22:42:16.044008 23405 layer_factory.hpp:77] Creating layer scale4
I0718 22:42:16.044029 23405 net.cpp:84] Creating Layer scale4
I0718 22:42:16.044039 23405 net.cpp:406] scale4 <- conv4
I0718 22:42:16.044060 23405 net.cpp:367] scale4 -> conv4 (in-place)
I0718 22:42:16.044128 23405 layer_factory.hpp:77] Creating layer scale4
I0718 22:42:16.044301 23405 net.cpp:122] Setting up scale4
I0718 22:42:16.044315 23405 net.cpp:129] Top shape: 256 384 13 13 (16613376)
I0718 22:42:16.044322 23405 net.cpp:137] Memory required for data: 2689175552
I0718 22:42:16.044338 23405 layer_factory.hpp:77] Creating layer relu4
I0718 22:42:16.044358 23405 net.cpp:84] Creating Layer relu4
I0718 22:42:16.044368 23405 net.cpp:406] relu4 <- conv4
I0718 22:42:16.044409 23405 net.cpp:367] relu4 -> conv4 (in-place)
I0718 22:42:16.044430 23405 net.cpp:122] Setting up relu4
I0718 22:42:16.044440 23405 net.cpp:129] Top shape: 256 384 13 13 (16613376)
I0718 22:42:16.044445 23405 net.cpp:137] Memory required for data: 2755629056
I0718 22:42:16.044451 23405 layer_factory.hpp:77] Creating layer conv5
I0718 22:42:16.044482 23405 net.cpp:84] Creating Layer conv5
I0718 22:42:16.044492 23405 net.cpp:406] conv5 <- conv4
I0718 22:42:16.044515 23405 net.cpp:380] conv5 -> conv5
I0718 22:42:16.220216 23405 net.cpp:122] Setting up conv5
I0718 22:42:16.220264 23405 net.cpp:129] Top shape: 256 256 13 13 (11075584)
I0718 22:42:16.220270 23405 net.cpp:137] Memory required for data: 2799931392
I0718 22:42:16.220295 23405 layer_factory.hpp:77] Creating layer bn5
I0718 22:42:16.220327 23405 net.cpp:84] Creating Layer bn5
I0718 22:42:16.220345 23405 net.cpp:406] bn5 <- conv5
I0718 22:42:16.220376 23405 net.cpp:367] bn5 -> conv5 (in-place)
I0718 22:42:16.220619 23405 net.cpp:122] Setting up bn5
I0718 22:42:16.220633 23405 net.cpp:129] Top shape: 256 256 13 13 (11075584)
I0718 22:42:16.220639 23405 net.cpp:137] Memory required for data: 2844233728
I0718 22:42:16.220661 23405 layer_factory.hpp:77] Creating layer scale5
I0718 22:42:16.220682 23405 net.cpp:84] Creating Layer scale5
I0718 22:42:16.220692 23405 net.cpp:406] scale5 <- conv5
I0718 22:42:16.220711 23405 net.cpp:367] scale5 -> conv5 (in-place)
I0718 22:42:16.220783 23405 layer_factory.hpp:77] Creating layer scale5
I0718 22:42:16.220952 23405 net.cpp:122] Setting up scale5
I0718 22:42:16.220966 23405 net.cpp:129] Top shape: 256 256 13 13 (11075584)
I0718 22:42:16.220973 23405 net.cpp:137] Memory required for data: 2888536064
I0718 22:42:16.220988 23405 layer_factory.hpp:77] Creating layer relu5
I0718 22:42:16.221005 23405 net.cpp:84] Creating Layer relu5
I0718 22:42:16.221015 23405 net.cpp:406] relu5 <- conv5
I0718 22:42:16.221035 23405 net.cpp:367] relu5 -> conv5 (in-place)
I0718 22:42:16.221055 23405 net.cpp:122] Setting up relu5
I0718 22:42:16.221063 23405 net.cpp:129] Top shape: 256 256 13 13 (11075584)
I0718 22:42:16.221067 23405 net.cpp:137] Memory required for data: 2932838400
I0718 22:42:16.221074 23405 layer_factory.hpp:77] Creating layer pool5
I0718 22:42:16.221094 23405 net.cpp:84] Creating Layer pool5
I0718 22:42:16.221102 23405 net.cpp:406] pool5 <- conv5
I0718 22:42:16.221122 23405 net.cpp:380] pool5 -> pool5
I0718 22:42:16.221189 23405 net.cpp:122] Setting up pool5
I0718 22:42:16.221202 23405 net.cpp:129] Top shape: 256 256 6 6 (2359296)
I0718 22:42:16.221207 23405 net.cpp:137] Memory required for data: 2942275584
I0718 22:42:16.221215 23405 layer_factory.hpp:77] Creating layer fc6
I0718 22:42:16.221258 23405 net.cpp:84] Creating Layer fc6
I0718 22:42:16.221268 23405 net.cpp:406] fc6 <- pool5
I0718 22:42:16.221293 23405 net.cpp:380] fc6 -> fc6
I0718 22:42:23.660799 23405 net.cpp:122] Setting up fc6
I0718 22:42:23.660856 23405 net.cpp:129] Top shape: 256 4096 (1048576)
I0718 22:42:23.660862 23405 net.cpp:137] Memory required for data: 2946469888
I0718 22:42:23.660898 23405 layer_factory.hpp:77] Creating layer bn6
I0718 22:42:23.660938 23405 net.cpp:84] Creating Layer bn6
I0718 22:42:23.660957 23405 net.cpp:406] bn6 <- fc6
I0718 22:42:23.660990 23405 net.cpp:367] bn6 -> fc6 (in-place)
I0718 22:42:23.661247 23405 net.cpp:122] Setting up bn6
I0718 22:42:23.661258 23405 net.cpp:129] Top shape: 256 4096 (1048576)
I0718 22:42:23.661264 23405 net.cpp:137] Memory required for data: 2950664192
I0718 22:42:23.661322 23405 layer_factory.hpp:77] Creating layer scale6
I0718 22:42:23.661355 23405 net.cpp:84] Creating Layer scale6
I0718 22:42:23.661365 23405 net.cpp:406] scale6 <- fc6
I0718 22:42:23.661388 23405 net.cpp:367] scale6 -> fc6 (in-place)
I0718 22:42:23.661473 23405 layer_factory.hpp:77] Creating layer scale6
I0718 22:42:23.661664 23405 net.cpp:122] Setting up scale6
I0718 22:42:23.661676 23405 net.cpp:129] Top shape: 256 4096 (1048576)
I0718 22:42:23.661681 23405 net.cpp:137] Memory required for data: 2954858496
I0718 22:42:23.661718 23405 layer_factory.hpp:77] Creating layer relu6
I0718 22:42:23.661741 23405 net.cpp:84] Creating Layer relu6
I0718 22:42:23.661751 23405 net.cpp:406] relu6 <- fc6
I0718 22:42:23.661772 23405 net.cpp:367] relu6 -> fc6 (in-place)
I0718 22:42:23.661789 23405 net.cpp:122] Setting up relu6
I0718 22:42:23.661798 23405 net.cpp:129] Top shape: 256 4096 (1048576)
I0718 22:42:23.661803 23405 net.cpp:137] Memory required for data: 2959052800
I0718 22:42:23.661809 23405 layer_factory.hpp:77] Creating layer drop6
I0718 22:42:23.661839 23405 net.cpp:84] Creating Layer drop6
I0718 22:42:23.661849 23405 net.cpp:406] drop6 <- fc6
I0718 22:42:23.661865 23405 net.cpp:367] drop6 -> fc6 (in-place)
I0718 22:42:23.661906 23405 net.cpp:122] Setting up drop6
I0718 22:42:23.661916 23405 net.cpp:129] Top shape: 256 4096 (1048576)
I0718 22:42:23.661921 23405 net.cpp:137] Memory required for data: 2963247104
I0718 22:42:23.661927 23405 layer_factory.hpp:77] Creating layer fc7
I0718 22:42:23.661962 23405 net.cpp:84] Creating Layer fc7
I0718 22:42:23.661972 23405 net.cpp:406] fc7 <- fc6
I0718 22:42:23.661995 23405 net.cpp:380] fc7 -> fc7
I0718 22:42:26.968047 23405 net.cpp:122] Setting up fc7
I0718 22:42:26.968104 23405 net.cpp:129] Top shape: 256 4096 (1048576)
I0718 22:42:26.968109 23405 net.cpp:137] Memory required for data: 2967441408
I0718 22:42:26.968143 23405 layer_factory.hpp:77] Creating layer bn7
I0718 22:42:26.968184 23405 net.cpp:84] Creating Layer bn7
I0718 22:42:26.968204 23405 net.cpp:406] bn7 <- fc7
I0718 22:42:26.968235 23405 net.cpp:367] bn7 -> fc7 (in-place)
I0718 22:42:26.968488 23405 net.cpp:122] Setting up bn7
I0718 22:42:26.968500 23405 net.cpp:129] Top shape: 256 4096 (1048576)
I0718 22:42:26.968505 23405 net.cpp:137] Memory required for data: 2971635712
I0718 22:42:26.968528 23405 layer_factory.hpp:77] Creating layer scale7
I0718 22:42:26.968575 23405 net.cpp:84] Creating Layer scale7
I0718 22:42:26.968585 23405 net.cpp:406] scale7 <- fc7
I0718 22:42:26.968606 23405 net.cpp:367] scale7 -> fc7 (in-place)
I0718 22:42:26.968689 23405 layer_factory.hpp:77] Creating layer scale7
I0718 22:42:26.968878 23405 net.cpp:122] Setting up scale7
I0718 22:42:26.968890 23405 net.cpp:129] Top shape: 256 4096 (1048576)
I0718 22:42:26.968896 23405 net.cpp:137] Memory required for data: 2975830016
I0718 22:42:26.968912 23405 layer_factory.hpp:77] Creating layer relu7
I0718 22:42:26.968930 23405 net.cpp:84] Creating Layer relu7
I0718 22:42:26.968940 23405 net.cpp:406] relu7 <- fc7
I0718 22:42:26.968961 23405 net.cpp:367] relu7 -> fc7 (in-place)
I0718 22:42:26.968981 23405 net.cpp:122] Setting up relu7
I0718 22:42:26.968988 23405 net.cpp:129] Top shape: 256 4096 (1048576)
I0718 22:42:26.968992 23405 net.cpp:137] Memory required for data: 2980024320
I0718 22:42:26.968999 23405 layer_factory.hpp:77] Creating layer drop7
I0718 22:42:26.969018 23405 net.cpp:84] Creating Layer drop7
I0718 22:42:26.969027 23405 net.cpp:406] drop7 <- fc7
I0718 22:42:26.969041 23405 net.cpp:367] drop7 -> fc7 (in-place)
I0718 22:42:26.969079 23405 net.cpp:122] Setting up drop7
I0718 22:42:26.969089 23405 net.cpp:129] Top shape: 256 4096 (1048576)
I0718 22:42:26.969092 23405 net.cpp:137] Memory required for data: 2984218624
I0718 22:42:26.969099 23405 layer_factory.hpp:77] Creating layer fc8
I0718 22:42:26.969127 23405 net.cpp:84] Creating Layer fc8
I0718 22:42:26.969136 23405 net.cpp:406] fc8 <- fc7
I0718 22:42:26.969158 23405 net.cpp:380] fc8 -> fc8
I0718 22:42:27.774438 23405 net.cpp:122] Setting up fc8
I0718 22:42:27.774462 23405 net.cpp:129] Top shape: 256 1000 (256000)
I0718 22:42:27.774467 23405 net.cpp:137] Memory required for data: 2985242624
I0718 22:42:27.774485 23405 layer_factory.hpp:77] Creating layer fc8_fc8_0_split
I0718 22:42:27.774505 23405 net.cpp:84] Creating Layer fc8_fc8_0_split
I0718 22:42:27.774518 23405 net.cpp:406] fc8_fc8_0_split <- fc8
I0718 22:42:27.774541 23405 net.cpp:380] fc8_fc8_0_split -> fc8_fc8_0_split_0
I0718 22:42:27.774574 23405 net.cpp:380] fc8_fc8_0_split -> fc8_fc8_0_split_1
I0718 22:42:27.774593 23405 net.cpp:380] fc8_fc8_0_split -> fc8_fc8_0_split_2
I0718 22:42:27.774690 23405 net.cpp:122] Setting up fc8_fc8_0_split
I0718 22:42:27.774706 23405 net.cpp:129] Top shape: 256 1000 (256000)
I0718 22:42:27.774713 23405 net.cpp:129] Top shape: 256 1000 (256000)
I0718 22:42:27.774719 23405 net.cpp:129] Top shape: 256 1000 (256000)
I0718 22:42:27.774724 23405 net.cpp:137] Memory required for data: 2988314624
I0718 22:42:27.774731 23405 layer_factory.hpp:77] Creating layer loss
I0718 22:42:27.774757 23405 net.cpp:84] Creating Layer loss
I0718 22:42:27.774767 23405 net.cpp:406] loss <- fc8_fc8_0_split_0
I0718 22:42:27.774785 23405 net.cpp:406] loss <- label_data_1_split_0
I0718 22:42:27.774801 23405 net.cpp:380] loss -> loss
…
I0718 22:42:27.777302 23405 net.cpp:294] The NetState phase (1) differed from the phase (0) specified by a rule in layer data
I0718 22:42:27.777549 23405 net.cpp:51] Initializing net from parameters: 
name: "AlexNet-BN"
state {
  phase: TEST
}
layer {
  name: "data"
  type: "Data"
  top: "data"
  top: "label"
  include {
    phase: TEST
  }
  transform_param {
    mirror: false
    crop_size: 224
    mean_file: "data/imagenet_mean.binaryproto"
  }
  data_param {
    source: "/home/zhengzhe/Data/ilsvrc12/ilsvrc12_val_lmdb"
    batch_size: 50
    backend: LMDB
  }
}
layer {
  name: "conv1"
  type: "BinaryConvolution"
  bottom: "data"
  top: "conv1"
  param {
    lr_mult: 1
    decay_mult: 1
  }
  convolution_param {
    num_output: 96
    bias_term: false
    pad: 2
    kernel_size: 11
    stride: 4
    weight_filler {
      type: "msra"
    }
  }
}
layer {
  name: "bn1"
  type: "BatchNorm"
  bottom: "conv1"
  top: "conv1"
}
layer {
  name: "scale1"
  type: "Scale"
  bottom: "conv1"
  top: "conv1"
  scale_param {
    bias_term: true
  }
}
layer {
  name: "relu1"
  type: "ReLU"
  bottom: "conv1"
  top: "conv1"
}
layer {
  name: "pool1"
  type: "Pooling"
  bottom: "conv1"
  top: "pool1"
  pooling_param {
    pool: MAX
    kernel_size: 3
    stride: 2
  }
}
layer {
  name: "conv2"
  type: "BinaryConvolution"
  bottom: "pool1"
  top: "conv2"
  param {
    lr_mult: 1
    decay_mult: 1
  }
  convolution_param {
    num_output: 256
    bias_term: false
    pad: 2
    kernel_size: 5
    weight_filler {
      type: "msra"
    }
  }
}
layer {
  name: "bn2"
  type: "BatchNorm"
  bottom: "conv2"
  top: "conv2"
}
layer {
  name: "scale2"
  type: "Scale"
  bottom: "conv2"
  top: "conv2"
  scale_param {
    bias_term: true
  }
}
layer {
  name: "relu2"
  type: "ReLU"
  bottom: "conv2"
  top: "conv2"
}
layer {
  name: "pool2"
  type: "Pooling"
  bottom: "conv2"
  top: "pool2"
  pooling_param {
    pool: MAX
    kernel_size: 3
    stride: 2
  }
}
layer {
  name: "conv3"
  type: "BinaryConvolution"
  bottom: "pool2"
  top: "conv3"
  param {
    lr_mult: 1
    decay_mult: 1
  }
  convolution_param {
    num_output: 384
    bias_term: false
    pad: 1
    kernel_size: 3
    weight_filler {
      type: "msra"
    }
  }
}
layer {
  name: "bn3"
  type: "BatchNorm"
  bottom: "conv3"
  top: "conv3"
}
layer {
  name: "scale3"
  type: "Scale"
  bottom: "conv3"
  top: "conv3"
  scale_param {
    bias_term: true
  }
}
layer {
  name: "relu3"
  type: "ReLU"
  bottom: "conv3"
  top: "conv3"
}
layer {
  name: "conv4"
  type: "BinaryConvolution"
  bottom: "conv3"
  top: "conv4"
  param {
    lr_mult: 1
    decay_mult: 1
  }
  convolution_param {
    num_output: 384
    bias_term: false
    pad: 1
    kernel_size: 3
    weight_filler {
      type: "msra"
    }
  }
}
layer {
  name: "bn4"
  type: "BatchNorm"
  bottom: "conv4"
  top: "conv4"
}
layer {
  name: "scale4"
  type: "Scale"
  bottom: "conv4"
  top: "conv4"
  scale_param {
    bias_term: true
  }
}
layer {
  name: "relu4"
  type: "ReLU"
  bottom: "conv4"
  top: "conv4"
}
layer {
  name: "conv5"
  type: "BinaryConvolution"
  bottom: "conv4"
  top: "conv5"
  param {
    lr_mult: 1
    decay_mult: 1
  }
  convolution_param {
    num_output: 256
    bias_term: false
    pad: 1
    kernel_size: 3
    weight_filler {
      type: "msra"
    }
  }
}
layer {
  name: "bn5"
  type: "BatchNorm"
  bottom: "conv5"
  top: "conv5"
}
layer {
  name: "scale5"
  type: "Scale"
  bottom: "conv5"
  top: "conv5"
  scale_param {
    bias_term: true
  }
}
layer {
  name: "relu5"
  type: "ReLU"
  bottom: "conv5"
  top: "conv5"
}
layer {
  name: "pool5"
  type: "Pooling"
  bottom: "conv5"
  top: "pool5"
  pooling_param {
    pool: MAX
    kernel_size: 3
    stride: 2
  }
}
layer {
  name: "fc6"
  type: "BinaryInnerProduct"
  bottom: "pool5"
  top: "fc6"
  param {
    lr_mult: 1
    decay_mult: 1
  }
  inner_product_param {
    num_output: 4096
    bias_term: false
    weight_filler {
      type: "msra"
    }
  }
}
layer {
  name: "bn6"
  type: "BatchNorm"
  bottom: "fc6"
  top: "fc6"
}
layer {
  name: "scale6"
  type: "Scale"
  bottom: "fc6"
  top: "fc6"
  scale_param {
    bias_term: true
  }
}
layer {
  name: "relu6"
  type: "ReLU"
  bottom: "fc6"
  top: "fc6"
}
layer {
  name: "drop6"
  type: "Dropout"
  bottom: "fc6"
  top: "fc6"
  dropout_param {
    dropout_ratio: 0.5
  }
}
layer {
  name: "fc7"
  type: "BinaryInnerProduct"
  bottom: "fc6"
  top: "fc7"
  param {
    lr_mult: 1
    decay_mult: 1
  }
  inner_product_param {
    num_output: 4096
    bias_term: false
    weight_filler {
      type: "msra"
    }
  }
}
layer {
  name: "bn7"
  type: "BatchNorm"
  bottom: "fc7"
  top: "fc7"
}
layer {
  name: "scale7"
  type: "Scale"
  bottom: "fc7"
  top: "fc7"
  scale_param {
    bias_term: true
  }
}
layer {
  name: "relu7"
  type: "ReLU"
  bottom: "fc7"
  top: "fc7"
}
layer {
  name: "drop7"
  type: "Dropout"
  bottom: "fc7"
  top: "fc7"
  dropout_param {
    dropout_ratio: 0.5
  }
}
layer {
  name: "fc8"
  type: "BinaryInnerProduct"
  bottom: "fc7"
  top: "fc8"
  param {
    lr_mult: 1
    decay_mult: 1
  }
  param {
    lr_mult: 2
    decay_mult: 0
  }
  inner_product_param {
    num_output: 1000
    weight_filler {
      type: "msra"
    }
    bias_filler {
      type: "constant"
      value: 0
    }
  }
}
layer {
  name: "loss"
  type: "SoftmaxWithLoss"
  bottom: "fc8"
  bottom: "label"
  top: "loss"
}
layer {
  name: "accuracy"
  type: "Accuracy"
  bottom: "fc8"
  bottom: "label"
  top: "accuracy"
}
layer {
  name: "accuracy_5"
  type: "Accuracy"
  bottom: "fc8"
  bottom: "label"
  top: "accuracy_5"
  accuracy_param {
    top_k: 5
  }
}
I0718 22:42:27.777999 23405 layer_factory.hpp:77] Creating layer data
I0718 22:42:27.778116 23405 db_lmdb.cpp:35] Opened lmdb /home/zhengzhe/Data/ilsvrc12/ilsvrc12_val_lmdb
I0718 22:42:27.778147 23405 net.cpp:84] Creating Layer data
I0718 22:42:27.778167 23405 net.cpp:380] data -> data
I0718 22:42:27.778203 23405 net.cpp:380] data -> label
I0718 22:42:27.778226 23405 data_transformer.cpp:25] Loading mean file from: data/imagenet_mean.binaryproto
I0718 22:42:27.788133 23405 data_layer.cpp:45] output data size: 50,3,224,224
I0718 22:42:27.865669 23405 base_data_layer.cpp:72] Initializing prefetch
I0718 22:42:27.866183 23405 base_data_layer.cpp:75] Prefetch initialized.
I0718 22:42:27.866195 23405 net.cpp:122] Setting up data
I0718 22:42:27.866219 23405 net.cpp:129] Top shape: 50 3 224 224 (7526400)
I0718 22:42:27.866226 23405 net.cpp:129] Top shape: 50 (50)
I0718 22:42:27.866230 23405 net.cpp:137] Memory required for data: 30105800
I0718 22:42:27.866258 23405 layer_factory.hpp:77] Creating layer label_data_1_split
I0718 22:42:27.866323 23405 net.cpp:84] Creating Layer label_data_1_split
I0718 22:42:27.866340 23405 net.cpp:406] label_data_1_split <- label
I0718 22:42:27.866375 23405 net.cpp:380] label_data_1_split -> label_data_1_split_0
I0718 22:42:27.866413 23405 net.cpp:380] label_data_1_split -> label_data_1_split_1
I0718 22:42:27.866432 23405 net.cpp:380] label_data_1_split -> label_data_1_split_2
I0718 22:42:27.866528 23405 net.cpp:122] Setting up label_data_1_split
I0718 22:42:27.866542 23405 net.cpp:129] Top shape: 50 (50)
I0718 22:42:27.866550 23405 net.cpp:129] Top shape: 50 (50)
I0718 22:42:27.866559 23405 net.cpp:129] Top shape: 50 (50)
I0718 22:42:27.866561 23405 net.cpp:137] Memory required for data: 30106400
I0718 22:42:27.866569 23405 layer_factory.hpp:77] Creating layer conv1
I0718 22:42:27.866603 23405 net.cpp:84] Creating Layer conv1
I0718 22:42:27.866616 23405 net.cpp:406] conv1 <- data
I0718 22:42:27.866641 23405 net.cpp:380] conv1 -> conv1
I0718 22:42:27.873896 23405 net.cpp:122] Setting up conv1
I0718 22:42:27.873915 23405 net.cpp:129] Top shape: 50 96 55 55 (14520000)
I0718 22:42:27.873922 23405 net.cpp:137] Memory required for data: 88186400
I0718 22:42:27.873951 23405 layer_factory.hpp:77] Creating layer bn1
I0718 22:42:27.873972 23405 net.cpp:84] Creating Layer bn1
I0718 22:42:27.873982 23405 net.cpp:406] bn1 <- conv1
I0718 22:42:27.874001 23405 net.cpp:367] bn1 -> conv1 (in-place)
I0718 22:42:27.874253 23405 net.cpp:122] Setting up bn1
I0718 22:42:27.874264 23405 net.cpp:129] Top shape: 50 96 55 55 (14520000)
I0718 22:42:27.874270 23405 net.cpp:137] Memory required for data: 146266400
I0718 22:42:27.874308 23405 layer_factory.hpp:77] Creating layer scale1
I0718 22:42:27.874334 23405 net.cpp:84] Creating Layer scale1
I0718 22:42:27.874344 23405 net.cpp:406] scale1 <- conv1
I0718 22:42:27.874363 23405 net.cpp:367] scale1 -> conv1 (in-place)
I0718 22:42:27.874439 23405 layer_factory.hpp:77] Creating layer scale1
I0718 22:42:27.874647 23405 net.cpp:122] Setting up scale1
I0718 22:42:27.874661 23405 net.cpp:129] Top shape: 50 96 55 55 (14520000)
I0718 22:42:27.874666 23405 net.cpp:137] Memory required for data: 204346400
I0718 22:42:27.874694 23405 layer_factory.hpp:77] Creating layer relu1
I0718 22:42:27.874712 23405 net.cpp:84] Creating Layer relu1
I0718 22:42:27.874722 23405 net.cpp:406] relu1 <- conv1
I0718 22:42:27.874740 23405 net.cpp:367] relu1 -> conv1 (in-place)
I0718 22:42:27.874759 23405 net.cpp:122] Setting up relu1
I0718 22:42:27.874768 23405 net.cpp:129] Top shape: 50 96 55 55 (14520000)
I0718 22:42:27.874773 23405 net.cpp:137] Memory required for data: 262426400
I0718 22:42:27.874778 23405 layer_factory.hpp:77] Creating layer pool1
I0718 22:42:27.874799 23405 net.cpp:84] Creating Layer pool1
I0718 22:42:27.874806 23405 net.cpp:406] pool1 <- conv1
I0718 22:42:27.874822 23405 net.cpp:380] pool1 -> pool1
I0718 22:42:27.874889 23405 net.cpp:122] Setting up pool1
I0718 22:42:27.874903 23405 net.cpp:129] Top shape: 50 96 27 27 (3499200)
I0718 22:42:27.874909 23405 net.cpp:137] Memory required for data: 276423200
I0718 22:42:27.874915 23405 layer_factory.hpp:77] Creating layer conv2
I0718 22:42:27.874938 23405 net.cpp:84] Creating Layer conv2
I0718 22:42:27.874949 23405 net.cpp:406] conv2 <- pool1
I0718 22:42:27.874972 23405 net.cpp:380] conv2 -> conv2
I0718 22:42:27.996476 23405 net.cpp:122] Setting up conv2
I0718 22:42:27.996521 23405 net.cpp:129] Top shape: 50 256 27 27 (9331200)
I0718 22:42:27.996527 23405 net.cpp:137] Memory required for data: 313748000
I0718 22:42:27.996551 23405 layer_factory.hpp:77] Creating layer bn2
I0718 22:42:27.996596 23405 net.cpp:84] Creating Layer bn2
I0718 22:42:27.996613 23405 net.cpp:406] bn2 <- conv2
I0718 22:42:27.996642 23405 net.cpp:367] bn2 -> conv2 (in-place)
I0718 22:42:27.996893 23405 net.cpp:122] Setting up bn2
I0718 22:42:27.996906 23405 net.cpp:129] Top shape: 50 256 27 27 (9331200)
I0718 22:42:27.996909 23405 net.cpp:137] Memory required for data: 351072800
I0718 22:42:27.996946 23405 layer_factory.hpp:77] Creating layer scale2
I0718 22:42:27.996989 23405 net.cpp:84] Creating Layer scale2
I0718 22:42:27.996999 23405 net.cpp:406] scale2 <- conv2
I0718 22:42:27.997017 23405 net.cpp:367] scale2 -> conv2 (in-place)
I0718 22:42:27.997099 23405 layer_factory.hpp:77] Creating layer scale2
I0718 22:42:27.997323 23405 net.cpp:122] Setting up scale2
I0718 22:42:27.997337 23405 net.cpp:129] Top shape: 50 256 27 27 (9331200)
I0718 22:42:27.997344 23405 net.cpp:137] Memory required for data: 388397600
I0718 22:42:27.997359 23405 layer_factory.hpp:77] Creating layer relu2
I0718 22:42:27.997375 23405 net.cpp:84] Creating Layer relu2
I0718 22:42:27.997385 23405 net.cpp:406] relu2 <- conv2
I0718 22:42:27.997403 23405 net.cpp:367] relu2 -> conv2 (in-place)
I0718 22:42:27.997422 23405 net.cpp:122] Setting up relu2
I0718 22:42:27.997431 23405 net.cpp:129] Top shape: 50 256 27 27 (9331200)
I0718 22:42:27.997436 23405 net.cpp:137] Memory required for data: 425722400
I0718 22:42:27.997440 23405 layer_factory.hpp:77] Creating layer pool2
I0718 22:42:27.997459 23405 net.cpp:84] Creating Layer pool2
I0718 22:42:27.997467 23405 net.cpp:406] pool2 <- conv2
I0718 22:42:27.997485 23405 net.cpp:380] pool2 -> pool2
I0718 22:42:27.997560 23405 net.cpp:122] Setting up pool2
I0718 22:42:27.997575 23405 net.cpp:129] Top shape: 50 256 13 13 (2163200)
I0718 22:42:27.997581 23405 net.cpp:137] Memory required for data: 434375200
I0718 22:42:27.997587 23405 layer_factory.hpp:77] Creating layer conv3
I0718 22:42:27.997612 23405 net.cpp:84] Creating Layer conv3
I0718 22:42:27.997623 23405 net.cpp:406] conv3 <- pool2
I0718 22:42:27.997647 23405 net.cpp:380] conv3 -> conv3
I0718 22:42:28.172523 23405 net.cpp:122] Setting up conv3
I0718 22:42:28.172564 23405 net.cpp:129] Top shape: 50 384 13 13 (3244800)
I0718 22:42:28.172569 23405 net.cpp:137] Memory required for data: 447354400
I0718 22:42:28.172595 23405 layer_factory.hpp:77] Creating layer bn3
I0718 22:42:28.172627 23405 net.cpp:84] Creating Layer bn3
I0718 22:42:28.172643 23405 net.cpp:406] bn3 <- conv3
I0718 22:42:28.172673 23405 net.cpp:367] bn3 -> conv3 (in-place)
I0718 22:42:28.172924 23405 net.cpp:122] Setting up bn3
I0718 22:42:28.172936 23405 net.cpp:129] Top shape: 50 384 13 13 (3244800)
I0718 22:42:28.172940 23405 net.cpp:137] Memory required for data: 460333600
I0718 22:42:28.172963 23405 layer_factory.hpp:77] Creating layer scale3
I0718 22:42:28.172983 23405 net.cpp:84] Creating Layer scale3
I0718 22:42:28.172993 23405 net.cpp:406] scale3 <- conv3
I0718 22:42:28.173010 23405 net.cpp:367] scale3 -> conv3 (in-place)
I0718 22:42:28.173087 23405 layer_factory.hpp:77] Creating layer scale3
I0718 22:42:28.173264 23405 net.cpp:122] Setting up scale3
I0718 22:42:28.173277 23405 net.cpp:129] Top shape: 50 384 13 13 (3244800)
I0718 22:42:28.173282 23405 net.cpp:137] Memory required for data: 473312800
I0718 22:42:28.173316 23405 layer_factory.hpp:77] Creating layer relu3
I0718 22:42:28.173334 23405 net.cpp:84] Creating Layer relu3
I0718 22:42:28.173344 23405 net.cpp:406] relu3 <- conv3
I0718 22:42:28.173362 23405 net.cpp:367] relu3 -> conv3 (in-place)
I0718 22:42:28.173382 23405 net.cpp:122] Setting up relu3
I0718 22:42:28.173390 23405 net.cpp:129] Top shape: 50 384 13 13 (3244800)
I0718 22:42:28.173394 23405 net.cpp:137] Memory required for data: 486292000
I0718 22:42:28.173400 23405 layer_factory.hpp:77] Creating layer conv4
I0718 22:42:28.173434 23405 net.cpp:84] Creating Layer conv4
I0718 22:42:28.173444 23405 net.cpp:406] conv4 <- conv3
I0718 22:42:28.173467 23405 net.cpp:380] conv4 -> conv4
I0718 22:42:28.434909 23405 net.cpp:122] Setting up conv4
I0718 22:42:28.434931 23405 net.cpp:129] Top shape: 50 384 13 13 (3244800)
I0718 22:42:28.434937 23405 net.cpp:137] Memory required for data: 499271200
I0718 22:42:28.434950 23405 layer_factory.hpp:77] Creating layer bn4
I0718 22:42:28.434968 23405 net.cpp:84] Creating Layer bn4
I0718 22:42:28.434981 23405 net.cpp:406] bn4 <- conv4
I0718 22:42:28.435003 23405 net.cpp:367] bn4 -> conv4 (in-place)
I0718 22:42:28.435237 23405 net.cpp:122] Setting up bn4
I0718 22:42:28.435250 23405 net.cpp:129] Top shape: 50 384 13 13 (3244800)
I0718 22:42:28.435274 23405 net.cpp:137] Memory required for data: 512250400
I0718 22:42:28.435297 23405 layer_factory.hpp:77] Creating layer scale4
I0718 22:42:28.435317 23405 net.cpp:84] Creating Layer scale4
I0718 22:42:28.435328 23405 net.cpp:406] scale4 <- conv4
I0718 22:42:28.435348 23405 net.cpp:367] scale4 -> conv4 (in-place)
I0718 22:42:28.435418 23405 layer_factory.hpp:77] Creating layer scale4
I0718 22:42:28.435592 23405 net.cpp:122] Setting up scale4
I0718 22:42:28.435606 23405 net.cpp:129] Top shape: 50 384 13 13 (3244800)
I0718 22:42:28.435611 23405 net.cpp:137] Memory required for data: 525229600
I0718 22:42:28.435626 23405 layer_factory.hpp:77] Creating layer relu4
I0718 22:42:28.435642 23405 net.cpp:84] Creating Layer relu4
I0718 22:42:28.435652 23405 net.cpp:406] relu4 <- conv4
I0718 22:42:28.435672 23405 net.cpp:367] relu4 -> conv4 (in-place)
I0718 22:42:28.435689 23405 net.cpp:122] Setting up relu4
I0718 22:42:28.435698 23405 net.cpp:129] Top shape: 50 384 13 13 (3244800)
I0718 22:42:28.435701 23405 net.cpp:137] Memory required for data: 538208800
I0718 22:42:28.435708 23405 layer_factory.hpp:77] Creating layer conv5
I0718 22:42:28.435729 23405 net.cpp:84] Creating Layer conv5
I0718 22:42:28.435739 23405 net.cpp:406] conv5 <- conv4
I0718 22:42:28.435758 23405 net.cpp:380] conv5 -> conv5
I0718 22:42:28.610191 23405 net.cpp:122] Setting up conv5
I0718 22:42:28.610213 23405 net.cpp:129] Top shape: 50 256 13 13 (2163200)
I0718 22:42:28.610219 23405 net.cpp:137] Memory required for data: 546861600
I0718 22:42:28.610232 23405 layer_factory.hpp:77] Creating layer bn5
I0718 22:42:28.610251 23405 net.cpp:84] Creating Layer bn5
I0718 22:42:28.610262 23405 net.cpp:406] bn5 <- conv5
I0718 22:42:28.610282 23405 net.cpp:367] bn5 -> conv5 (in-place)
I0718 22:42:28.610520 23405 net.cpp:122] Setting up bn5
I0718 22:42:28.610533 23405 net.cpp:129] Top shape: 50 256 13 13 (2163200)
I0718 22:42:28.610538 23405 net.cpp:137] Memory required for data: 555514400
I0718 22:42:28.610559 23405 layer_factory.hpp:77] Creating layer scale5
I0718 22:42:28.610577 23405 net.cpp:84] Creating Layer scale5
I0718 22:42:28.610587 23405 net.cpp:406] scale5 <- conv5
I0718 22:42:28.610605 23405 net.cpp:367] scale5 -> conv5 (in-place)
I0718 22:42:28.610678 23405 layer_factory.hpp:77] Creating layer scale5
I0718 22:42:28.610847 23405 net.cpp:122] Setting up scale5
I0718 22:42:28.610862 23405 net.cpp:129] Top shape: 50 256 13 13 (2163200)
I0718 22:42:28.610865 23405 net.cpp:137] Memory required for data: 564167200
I0718 22:42:28.610879 23405 layer_factory.hpp:77] Creating layer relu5
I0718 22:42:28.610895 23405 net.cpp:84] Creating Layer relu5
I0718 22:42:28.610905 23405 net.cpp:406] relu5 <- conv5
I0718 22:42:28.610924 23405 net.cpp:367] relu5 -> conv5 (in-place)
I0718 22:42:28.610942 23405 net.cpp:122] Setting up relu5
I0718 22:42:28.610950 23405 net.cpp:129] Top shape: 50 256 13 13 (2163200)
I0718 22:42:28.610957 23405 net.cpp:137] Memory required for data: 572820000
I0718 22:42:28.610963 23405 layer_factory.hpp:77] Creating layer pool5
I0718 22:42:28.610980 23405 net.cpp:84] Creating Layer pool5
I0718 22:42:28.610990 23405 net.cpp:406] pool5 <- conv5
I0718 22:42:28.611009 23405 net.cpp:380] pool5 -> pool5
I0718 22:42:28.611078 23405 net.cpp:122] Setting up pool5
I0718 22:42:28.611093 23405 net.cpp:129] Top shape: 50 256 6 6 (460800)
I0718 22:42:28.611097 23405 net.cpp:137] Memory required for data: 574663200
I0718 22:42:28.611105 23405 layer_factory.hpp:77] Creating layer fc6
I0718 22:42:28.611129 23405 net.cpp:84] Creating Layer fc6
I0718 22:42:28.611138 23405 net.cpp:406] fc6 <- pool5
I0718 22:42:28.611160 23405 net.cpp:380] fc6 -> fc6
I0718 22:42:36.050485 23405 net.cpp:122] Setting up fc6
I0718 22:42:36.050542 23405 net.cpp:129] Top shape: 50 4096 (204800)
I0718 22:42:36.050549 23405 net.cpp:137] Memory required for data: 575482400
I0718 22:42:36.050583 23405 layer_factory.hpp:77] Creating layer bn6
I0718 22:42:36.050626 23405 net.cpp:84] Creating Layer bn6
I0718 22:42:36.050643 23405 net.cpp:406] bn6 <- fc6
I0718 22:42:36.050699 23405 net.cpp:367] bn6 -> fc6 (in-place)
I0718 22:42:36.050994 23405 net.cpp:122] Setting up bn6
I0718 22:42:36.051007 23405 net.cpp:129] Top shape: 50 4096 (204800)
I0718 22:42:36.051012 23405 net.cpp:137] Memory required for data: 576301600
I0718 22:42:36.051070 23405 layer_factory.hpp:77] Creating layer scale6
I0718 22:42:36.051095 23405 net.cpp:84] Creating Layer scale6
I0718 22:42:36.051107 23405 net.cpp:406] scale6 <- fc6
I0718 22:42:36.051126 23405 net.cpp:367] scale6 -> fc6 (in-place)
I0718 22:42:36.051234 23405 layer_factory.hpp:77] Creating layer scale6
I0718 22:42:36.051430 23405 net.cpp:122] Setting up scale6
I0718 22:42:36.051443 23405 net.cpp:129] Top shape: 50 4096 (204800)
I0718 22:42:36.051450 23405 net.cpp:137] Memory required for data: 577120800
I0718 22:42:36.051465 23405 layer_factory.hpp:77] Creating layer relu6
I0718 22:42:36.051483 23405 net.cpp:84] Creating Layer relu6
I0718 22:42:36.051494 23405 net.cpp:406] relu6 <- fc6
I0718 22:42:36.051515 23405 net.cpp:367] relu6 -> fc6 (in-place)
I0718 22:42:36.051534 23405 net.cpp:122] Setting up relu6
I0718 22:42:36.051542 23405 net.cpp:129] Top shape: 50 4096 (204800)
I0718 22:42:36.051548 23405 net.cpp:137] Memory required for data: 577940000
I0718 22:42:36.051554 23405 layer_factory.hpp:77] Creating layer drop6
I0718 22:42:36.051571 23405 net.cpp:84] Creating Layer drop6
I0718 22:42:36.051579 23405 net.cpp:406] drop6 <- fc6
I0718 22:42:36.051597 23405 net.cpp:367] drop6 -> fc6 (in-place)
I0718 22:42:36.051640 23405 net.cpp:122] Setting up drop6
I0718 22:42:36.051651 23405 net.cpp:129] Top shape: 50 4096 (204800)
I0718 22:42:36.051654 23405 net.cpp:137] Memory required for data: 578759200
I0718 22:42:36.051663 23405 layer_factory.hpp:77] Creating layer fc7
I0718 22:42:36.051690 23405 net.cpp:84] Creating Layer fc7
I0718 22:42:36.051700 23405 net.cpp:406] fc7 <- fc6
I0718 22:42:36.051722 23405 net.cpp:380] fc7 -> fc7
I0718 22:42:39.358098 23405 net.cpp:122] Setting up fc7
I0718 22:42:39.358146 23405 net.cpp:129] Top shape: 50 4096 (204800)
I0718 22:42:39.358151 23405 net.cpp:137] Memory required for data: 579578400
I0718 22:42:39.358180 23405 layer_factory.hpp:77] Creating layer bn7
I0718 22:42:39.358216 23405 net.cpp:84] Creating Layer bn7
I0718 22:42:39.358232 23405 net.cpp:406] bn7 <- fc7
I0718 22:42:39.358264 23405 net.cpp:367] bn7 -> fc7 (in-place)
I0718 22:42:39.358530 23405 net.cpp:122] Setting up bn7
I0718 22:42:39.358542 23405 net.cpp:129] Top shape: 50 4096 (204800)
I0718 22:42:39.358546 23405 net.cpp:137] Memory required for data: 580397600
I0718 22:42:39.358568 23405 layer_factory.hpp:77] Creating layer scale7
I0718 22:42:39.358608 23405 net.cpp:84] Creating Layer scale7
I0718 22:42:39.358619 23405 net.cpp:406] scale7 <- fc7
I0718 22:42:39.358639 23405 net.cpp:367] scale7 -> fc7 (in-place)
I0718 22:42:39.358732 23405 layer_factory.hpp:77] Creating layer scale7
I0718 22:42:39.358928 23405 net.cpp:122] Setting up scale7
I0718 22:42:39.358942 23405 net.cpp:129] Top shape: 50 4096 (204800)
I0718 22:42:39.358947 23405 net.cpp:137] Memory required for data: 581216800
I0718 22:42:39.358961 23405 layer_factory.hpp:77] Creating layer relu7
I0718 22:42:39.358979 23405 net.cpp:84] Creating Layer relu7
I0718 22:42:39.358989 23405 net.cpp:406] relu7 <- fc7
I0718 22:42:39.359009 23405 net.cpp:367] relu7 -> fc7 (in-place)
I0718 22:42:39.359027 23405 net.cpp:122] Setting up relu7
I0718 22:42:39.359035 23405 net.cpp:129] Top shape: 50 4096 (204800)
I0718 22:42:39.359042 23405 net.cpp:137] Memory required for data: 582036000
I0718 22:42:39.359048 23405 layer_factory.hpp:77] Creating layer drop7
I0718 22:42:39.359063 23405 net.cpp:84] Creating Layer drop7
I0718 22:42:39.359071 23405 net.cpp:406] drop7 <- fc7
I0718 22:42:39.359089 23405 net.cpp:367] drop7 -> fc7 (in-place)
I0718 22:42:39.359130 23405 net.cpp:122] Setting up drop7
I0718 22:42:39.359140 23405 net.cpp:129] Top shape: 50 4096 (204800)
I0718 22:42:39.359144 23405 net.cpp:137] Memory required for data: 582855200
I0718 22:42:39.359153 23405 layer_factory.hpp:77] Creating layer fc8
I0718 22:42:39.359195 23405 net.cpp:84] Creating Layer fc8
I0718 22:42:39.359206 23405 net.cpp:406] fc8 <- fc7
I0718 22:42:39.359231 23405 net.cpp:380] fc8 -> fc8
I0718 22:42:40.164824 23405 net.cpp:122] Setting up fc8
I0718 22:42:40.164846 23405 net.cpp:129] Top shape: 50 1000 (50000)
I0718 22:42:40.164851 23405 net.cpp:137] Memory required for data: 583055200
I0718 22:42:40.164868 23405 layer_factory.hpp:77] Creating layer fc8_fc8_0_split
I0718 22:42:40.164889 23405 net.cpp:84] Creating Layer fc8_fc8_0_split
I0718 22:42:40.164901 23405 net.cpp:406] fc8_fc8_0_split <- fc8
I0718 22:42:40.164921 23405 net.cpp:380] fc8_fc8_0_split -> fc8_fc8_0_split_0
I0718 22:42:40.164952 23405 net.cpp:380] fc8_fc8_0_split -> fc8_fc8_0_split_1
I0718 22:42:40.164971 23405 net.cpp:380] fc8_fc8_0_split -> fc8_fc8_0_split_2
I0718 22:42:40.165045 23405 net.cpp:122] Setting up fc8_fc8_0_split
I0718 22:42:40.165060 23405 net.cpp:129] Top shape: 50 1000 (50000)
I0718 22:42:40.165067 23405 net.cpp:129] Top shape: 50 1000 (50000)
I0718 22:42:40.165073 23405 net.cpp:129] Top shape: 50 1000 (50000)
I0718 22:42:40.165076 23405 net.cpp:137] Memory required for data: 583655200
I0718 22:42:40.165084 23405 layer_factory.hpp:77] Creating layer loss
I0718 22:42:40.165102 23405 net.cpp:84] Creating Layer loss
I0718 22:42:40.165113 23405 net.cpp:406] loss <- fc8_fc8_0_split_0
I0718 22:42:40.165129 23405 net.cpp:406] loss <- label_data_1_split_0
I0718 22:42:40.165143 23405 net.cpp:380] loss -> loss
…
