…
I0819 20:35:50.798684 13691 net.cpp:294] The NetState phase (0) differed from the phase (1) specified by a rule in layer data
I0819 20:35:50.798957 13691 net.cpp:51] Initializing net from parameters: 
name: "AlexNet-BN"
state {
  phase: TRAIN
  level: 0
  stage: ""
}
layer {
  name: "data"
  type: "Data"
  top: "data"
  top: "label"
  include {
    phase: TRAIN
  }
  transform_param {
    mirror: true
    crop_size: 224
    mean_file: "data/imagenet_mean.binaryproto"
  }
  data_param {
    source: "/home/zhengzhe/Data/ilsvrc12/ilsvrc12_train_lmdb"
    batch_size: 128
    backend: LMDB
  }
}
layer {
  name: "conv1"
  type: "BinaryConvolution"
  bottom: "data"
  top: "conv1"
  param {
    lr_mult: 1
    decay_mult: 1
  }
  convolution_param {
    num_output: 96
    bias_term: false
    pad: 2
    kernel_size: 11
    stride: 4
    weight_filler {
      type: "msra"
    }
  }
  debug_param {
    xnorno_grad: true
  }
}
layer {
  name: "bn1"
  type: "BatchNorm"
  bottom: "conv1"
  top: "conv1"
}
layer {
  name: "scale1"
  type: "Scale"
  bottom: "conv1"
  top: "conv1"
  scale_param {
    bias_term: true
  }
}
layer {
  name: "relu1"
  type: "ReLU"
  bottom: "conv1"
  top: "conv1"
}
layer {
  name: "pool1"
  type: "Pooling"
  bottom: "conv1"
  top: "pool1"
  pooling_param {
    pool: MAX
    kernel_size: 3
    stride: 2
  }
}
layer {
  name: "conv2"
  type: "BinaryConvolution"
  bottom: "pool1"
  top: "conv2"
  param {
    lr_mult: 1
    decay_mult: 1
  }
  convolution_param {
    num_output: 256
    bias_term: false
    pad: 2
    kernel_size: 5
    weight_filler {
      type: "msra"
    }
  }
  debug_param {
    xnorno_grad: true
  }
}
layer {
  name: "bn2"
  type: "BatchNorm"
  bottom: "conv2"
  top: "conv2"
}
layer {
  name: "scale2"
  type: "Scale"
  bottom: "conv2"
  top: "conv2"
  scale_param {
    bias_term: true
  }
}
layer {
  name: "relu2"
  type: "ReLU"
  bottom: "conv2"
  top: "conv2"
}
layer {
  name: "pool2"
  type: "Pooling"
  bottom: "conv2"
  top: "pool2"
  pooling_param {
    pool: MAX
    kernel_size: 3
    stride: 2
  }
}
layer {
  name: "conv3"
  type: "BinaryConvolution"
  bottom: "pool2"
  top: "conv3"
  param {
    lr_mult: 1
    decay_mult: 1
  }
  convolution_param {
    num_output: 384
    bias_term: false
    pad: 1
    kernel_size: 3
    weight_filler {
      type: "msra"
    }
  }
  debug_param {
    xnorno_grad: true
  }
}
layer {
  name: "bn3"
  type: "BatchNorm"
  bottom: "conv3"
  top: "conv3"
}
layer {
  name: "scale3"
  type: "Scale"
  bottom: "conv3"
  top: "conv3"
  scale_param {
    bias_term: true
  }
}
layer {
  name: "relu3"
  type: "ReLU"
  bottom: "conv3"
  top: "conv3"
}
layer {
  name: "conv4"
  type: "BinaryConvolution"
  bottom: "conv3"
  top: "conv4"
  param {
    lr_mult: 1
    decay_mult: 1
  }
  convolution_param {
    num_output: 384
    bias_term: false
    pad: 1
    kernel_size: 3
    weight_filler {
      type: "msra"
    }
  }
  debug_param {
    xnorno_grad: true
  }
}
layer {
  name: "bn4"
  type: "BatchNorm"
  bottom: "conv4"
  top: "conv4"
}
layer {
  name: "scale4"
  type: "Scale"
  bottom: "conv4"
  top: "conv4"
  scale_param {
    bias_term: true
  }
}
layer {
  name: "relu4"
  type: "ReLU"
  bottom: "conv4"
  top: "conv4"
}
layer {
  name: "conv5"
  type: "BinaryConvolution"
  bottom: "conv4"
  top: "conv5"
  param {
    lr_mult: 1
    decay_mult: 1
  }
  convolution_param {
    num_output: 256
    bias_term: false
    pad: 1
    kernel_size: 3
    weight_filler {
      type: "msra"
    }
  }
  debug_param {
    xnorno_grad: true
  }
}
layer {
  name: "bn5"
  type: "BatchNorm"
  bottom: "conv5"
  top: "conv5"
}
layer {
  name: "scale5"
  type: "Scale"
  bottom: "conv5"
  top: "conv5"
  scale_param {
    bias_term: true
  }
}
layer {
  name: "relu5"
  type: "ReLU"
  bottom: "conv5"
  top: "conv5"
}
layer {
  name: "pool5"
  type: "Pooling"
  bottom: "conv5"
  top: "pool5"
  pooling_param {
    pool: MAX
    kernel_size: 3
    stride: 2
  }
}
layer {
  name: "fc6"
  type: "BinaryInnerProduct"
  bottom: "pool5"
  top: "fc6"
  param {
    lr_mult: 1
    decay_mult: 1
  }
  inner_product_param {
    num_output: 4096
    bias_term: false
    weight_filler {
      type: "msra"
    }
  }
  debug_param {
    xnorno_grad: true
  }
}
layer {
  name: "bn6"
  type: "BatchNorm"
  bottom: "fc6"
  top: "fc6"
}
layer {
  name: "scale6"
  type: "Scale"
  bottom: "fc6"
  top: "fc6"
  scale_param {
    bias_term: true
  }
}
layer {
  name: "relu6"
  type: "ReLU"
  bottom: "fc6"
  top: "fc6"
}
layer {
  name: "drop6"
  type: "Dropout"
  bottom: "fc6"
  top: "fc6"
  dropout_param {
    dropout_ratio: 0.5
  }
}
layer {
  name: "fc7"
  type: "BinaryInnerProduct"
  bottom: "fc6"
  top: "fc7"
  param {
    lr_mult: 1
    decay_mult: 1
  }
  inner_product_param {
    num_output: 4096
    bias_term: false
    weight_filler {
      type: "msra"
    }
  }
  debug_param {
    xnorno_grad: true
  }
}
layer {
  name: "bn7"
  type: "BatchNorm"
  bottom: "fc7"
  top: "fc7"
}
layer {
  name: "scale7"
  type: "Scale"
  bottom: "fc7"
  top: "fc7"
  scale_param {
    bias_term: true
  }
}
layer {
  name: "relu7"
  type: "ReLU"
  bottom: "fc7"
  top: "fc7"
}
layer {
  name: "drop7"
  type: "Dropout"
  bottom: "fc7"
  top: "fc7"
  dropout_param {
    dropout_ratio: 0.5
  }
}
layer {
  name: "fc8"
  type: "BinaryInnerProduct"
  bottom: "fc7"
  top: "fc8"
  param {
    lr_mult: 1
    decay_mult: 1
  }
  param {
    lr_mult: 2
    decay_mult: 0
  }
  inner_product_param {
    num_output: 1000
    weight_filler {
      type: "msra"
    }
    bias_filler {
      type: "constant"
      value: 0
    }
  }
  debug_param {
    xnorno_grad: true
  }
}
layer {
  name: "loss"
  type: "SoftmaxWithLoss"
  bottom: "fc8"
  bottom: "label"
  top: "loss"
}
layer {
  name: "accuracy"
  type: "Accuracy"
  bottom: "fc8"
  bottom: "label"
  top: "accuracy"
}
layer {
  name: "accuracy_5"
  type: "Accuracy"
  bottom: "fc8"
  bottom: "label"
  top: "accuracy_5"
  accuracy_param {
    top_k: 5
  }
}
I0819 20:35:50.806753 13691 layer_factory.hpp:77] Creating layer data
I0819 20:35:50.814636 13691 db_lmdb.cpp:35] Opened lmdb /home/zhengzhe/Data/ilsvrc12/ilsvrc12_train_lmdb
I0819 20:35:50.814728 13691 net.cpp:84] Creating Layer data
I0819 20:35:50.814764 13691 net.cpp:380] data -> data
I0819 20:35:50.814925 13691 net.cpp:380] data -> label
I0819 20:35:50.814977 13691 data_transformer.cpp:25] Loading mean file from: data/imagenet_mean.binaryproto
I0819 20:35:50.835572 13691 data_layer.cpp:45] output data size: 128,3,224,224
I0819 20:35:51.058709 13691 base_data_layer.cpp:72] Initializing prefetch
I0819 20:35:51.061892 13691 base_data_layer.cpp:75] Prefetch initialized.
I0819 20:35:51.061909 13691 net.cpp:122] Setting up data
I0819 20:35:51.061972 13691 net.cpp:129] Top shape: 128 3 224 224 (19267584)
I0819 20:35:51.061985 13691 net.cpp:129] Top shape: 128 (128)
I0819 20:35:51.061990 13691 net.cpp:137] Memory required for data: 77070848
I0819 20:35:51.062032 13691 layer_factory.hpp:77] Creating layer label_data_1_split
I0819 20:35:51.062108 13691 net.cpp:84] Creating Layer label_data_1_split
I0819 20:35:51.062146 13691 net.cpp:406] label_data_1_split <- label
I0819 20:35:51.062224 13691 net.cpp:380] label_data_1_split -> label_data_1_split_0
I0819 20:35:51.062288 13691 net.cpp:380] label_data_1_split -> label_data_1_split_1
I0819 20:35:51.062343 13691 net.cpp:380] label_data_1_split -> label_data_1_split_2
I0819 20:35:51.062470 13691 net.cpp:122] Setting up label_data_1_split
I0819 20:35:51.062492 13691 net.cpp:129] Top shape: 128 (128)
I0819 20:35:51.062505 13691 net.cpp:129] Top shape: 128 (128)
I0819 20:35:51.062512 13691 net.cpp:129] Top shape: 128 (128)
I0819 20:35:51.062516 13691 net.cpp:137] Memory required for data: 77072384
I0819 20:35:51.062528 13691 layer_factory.hpp:77] Creating layer conv1
I0819 20:35:51.062592 13691 net.cpp:84] Creating Layer conv1
I0819 20:35:51.062605 13691 net.cpp:406] conv1 <- data
I0819 20:35:51.062652 13691 net.cpp:380] conv1 -> conv1
I0819 20:35:51.076309 13691 net.cpp:122] Setting up conv1
I0819 20:35:51.076335 13691 net.cpp:129] Top shape: 128 96 55 55 (37171200)
I0819 20:35:51.076342 13691 net.cpp:137] Memory required for data: 225757184
I0819 20:35:51.076405 13691 layer_factory.hpp:77] Creating layer bn1
I0819 20:35:51.076436 13691 net.cpp:84] Creating Layer bn1
I0819 20:35:51.076460 13691 net.cpp:406] bn1 <- conv1
I0819 20:35:51.076498 13691 net.cpp:367] bn1 -> conv1 (in-place)
I0819 20:35:51.077862 13691 net.cpp:122] Setting up bn1
I0819 20:35:51.077881 13691 net.cpp:129] Top shape: 128 96 55 55 (37171200)
I0819 20:35:51.077888 13691 net.cpp:137] Memory required for data: 374441984
I0819 20:35:51.077940 13691 layer_factory.hpp:77] Creating layer scale1
I0819 20:35:51.077978 13691 net.cpp:84] Creating Layer scale1
I0819 20:35:51.077992 13691 net.cpp:406] scale1 <- conv1
I0819 20:35:51.078016 13691 net.cpp:367] scale1 -> conv1 (in-place)
I0819 20:35:51.078124 13691 layer_factory.hpp:77] Creating layer scale1
I0819 20:35:51.078377 13691 net.cpp:122] Setting up scale1
I0819 20:35:51.078393 13691 net.cpp:129] Top shape: 128 96 55 55 (37171200)
I0819 20:35:51.078400 13691 net.cpp:137] Memory required for data: 523126784
I0819 20:35:51.078436 13691 layer_factory.hpp:77] Creating layer relu1
I0819 20:35:51.078464 13691 net.cpp:84] Creating Layer relu1
I0819 20:35:51.078480 13691 net.cpp:406] relu1 <- conv1
I0819 20:35:51.078501 13691 net.cpp:367] relu1 -> conv1 (in-place)
I0819 20:35:51.078521 13691 net.cpp:122] Setting up relu1
I0819 20:35:51.078537 13691 net.cpp:129] Top shape: 128 96 55 55 (37171200)
I0819 20:35:51.078543 13691 net.cpp:137] Memory required for data: 671811584
I0819 20:35:51.078552 13691 layer_factory.hpp:77] Creating layer pool1
I0819 20:35:51.078591 13691 net.cpp:84] Creating Layer pool1
I0819 20:35:51.078601 13691 net.cpp:406] pool1 <- conv1
I0819 20:35:51.078639 13691 net.cpp:380] pool1 -> pool1
I0819 20:35:51.078740 13691 net.cpp:122] Setting up pool1
I0819 20:35:51.078755 13691 net.cpp:129] Top shape: 128 96 27 27 (8957952)
I0819 20:35:51.078761 13691 net.cpp:137] Memory required for data: 707643392
I0819 20:35:51.078769 13691 layer_factory.hpp:77] Creating layer conv2
I0819 20:35:51.078802 13691 net.cpp:84] Creating Layer conv2
I0819 20:35:51.078814 13691 net.cpp:406] conv2 <- pool1
I0819 20:35:51.078855 13691 net.cpp:380] conv2 -> conv2
I0819 20:35:51.205411 13691 net.cpp:122] Setting up conv2
I0819 20:35:51.205466 13691 net.cpp:129] Top shape: 128 256 27 27 (23887872)
I0819 20:35:51.205471 13691 net.cpp:137] Memory required for data: 803194880
I0819 20:35:51.205505 13691 layer_factory.hpp:77] Creating layer bn2
I0819 20:35:51.205571 13691 net.cpp:84] Creating Layer bn2
I0819 20:35:51.205590 13691 net.cpp:406] bn2 <- conv2
I0819 20:35:51.205624 13691 net.cpp:367] bn2 -> conv2 (in-place)
I0819 20:35:51.205963 13691 net.cpp:122] Setting up bn2
I0819 20:35:51.205979 13691 net.cpp:129] Top shape: 128 256 27 27 (23887872)
I0819 20:35:51.205984 13691 net.cpp:137] Memory required for data: 898746368
I0819 20:35:51.206024 13691 layer_factory.hpp:77] Creating layer scale2
I0819 20:35:51.206055 13691 net.cpp:84] Creating Layer scale2
I0819 20:35:51.206065 13691 net.cpp:406] scale2 <- conv2
I0819 20:35:51.206086 13691 net.cpp:367] scale2 -> conv2 (in-place)
I0819 20:35:51.206177 13691 layer_factory.hpp:77] Creating layer scale2
I0819 20:35:51.206425 13691 net.cpp:122] Setting up scale2
I0819 20:35:51.206463 13691 net.cpp:129] Top shape: 128 256 27 27 (23887872)
I0819 20:35:51.206471 13691 net.cpp:137] Memory required for data: 994297856
I0819 20:35:51.206488 13691 layer_factory.hpp:77] Creating layer relu2
I0819 20:35:51.206511 13691 net.cpp:84] Creating Layer relu2
I0819 20:35:51.206521 13691 net.cpp:406] relu2 <- conv2
I0819 20:35:51.206542 13691 net.cpp:367] relu2 -> conv2 (in-place)
I0819 20:35:51.206560 13691 net.cpp:122] Setting up relu2
I0819 20:35:51.206571 13691 net.cpp:129] Top shape: 128 256 27 27 (23887872)
I0819 20:35:51.206578 13691 net.cpp:137] Memory required for data: 1089849344
I0819 20:35:51.206593 13691 layer_factory.hpp:77] Creating layer pool2
I0819 20:35:51.206624 13691 net.cpp:84] Creating Layer pool2
I0819 20:35:51.206640 13691 net.cpp:406] pool2 <- conv2
I0819 20:35:51.206662 13691 net.cpp:380] pool2 -> pool2
I0819 20:35:51.206768 13691 net.cpp:122] Setting up pool2
I0819 20:35:51.206790 13691 net.cpp:129] Top shape: 128 256 13 13 (5537792)
I0819 20:35:51.206796 13691 net.cpp:137] Memory required for data: 1112000512
I0819 20:35:51.206804 13691 layer_factory.hpp:77] Creating layer conv3
I0819 20:35:51.206845 13691 net.cpp:84] Creating Layer conv3
I0819 20:35:51.206856 13691 net.cpp:406] conv3 <- pool2
I0819 20:35:51.206892 13691 net.cpp:380] conv3 -> conv3
I0819 20:35:51.384048 13691 net.cpp:122] Setting up conv3
I0819 20:35:51.384095 13691 net.cpp:129] Top shape: 128 384 13 13 (8306688)
I0819 20:35:51.384100 13691 net.cpp:137] Memory required for data: 1145227264
I0819 20:35:51.384129 13691 layer_factory.hpp:77] Creating layer bn3
I0819 20:35:51.384179 13691 net.cpp:84] Creating Layer bn3
I0819 20:35:51.384200 13691 net.cpp:406] bn3 <- conv3
I0819 20:35:51.384241 13691 net.cpp:367] bn3 -> conv3 (in-place)
I0819 20:35:51.384620 13691 net.cpp:122] Setting up bn3
I0819 20:35:51.384634 13691 net.cpp:129] Top shape: 128 384 13 13 (8306688)
I0819 20:35:51.384639 13691 net.cpp:137] Memory required for data: 1178454016
I0819 20:35:51.384671 13691 layer_factory.hpp:77] Creating layer scale3
I0819 20:35:51.384708 13691 net.cpp:84] Creating Layer scale3
I0819 20:35:51.384727 13691 net.cpp:406] scale3 <- conv3
I0819 20:35:51.384749 13691 net.cpp:367] scale3 -> conv3 (in-place)
I0819 20:35:51.384841 13691 layer_factory.hpp:77] Creating layer scale3
I0819 20:35:51.385062 13691 net.cpp:122] Setting up scale3
I0819 20:35:51.385084 13691 net.cpp:129] Top shape: 128 384 13 13 (8306688)
I0819 20:35:51.385092 13691 net.cpp:137] Memory required for data: 1211680768
I0819 20:35:51.385131 13691 layer_factory.hpp:77] Creating layer relu3
I0819 20:35:51.385170 13691 net.cpp:84] Creating Layer relu3
I0819 20:35:51.385184 13691 net.cpp:406] relu3 <- conv3
I0819 20:35:51.385210 13691 net.cpp:367] relu3 -> conv3 (in-place)
I0819 20:35:51.385231 13691 net.cpp:122] Setting up relu3
I0819 20:35:51.385260 13691 net.cpp:129] Top shape: 128 384 13 13 (8306688)
I0819 20:35:51.385267 13691 net.cpp:137] Memory required for data: 1244907520
I0819 20:35:51.385275 13691 layer_factory.hpp:77] Creating layer conv4
I0819 20:35:51.385329 13691 net.cpp:84] Creating Layer conv4
I0819 20:35:51.385341 13691 net.cpp:406] conv4 <- conv3
I0819 20:35:51.385378 13691 net.cpp:380] conv4 -> conv4
I0819 20:35:51.650179 13691 net.cpp:122] Setting up conv4
I0819 20:35:51.650225 13691 net.cpp:129] Top shape: 128 384 13 13 (8306688)
I0819 20:35:51.650230 13691 net.cpp:137] Memory required for data: 1278134272
I0819 20:35:51.650260 13691 layer_factory.hpp:77] Creating layer bn4
I0819 20:35:51.650306 13691 net.cpp:84] Creating Layer bn4
I0819 20:35:51.650326 13691 net.cpp:406] bn4 <- conv4
I0819 20:35:51.650372 13691 net.cpp:367] bn4 -> conv4 (in-place)
I0819 20:35:51.650722 13691 net.cpp:122] Setting up bn4
I0819 20:35:51.650737 13691 net.cpp:129] Top shape: 128 384 13 13 (8306688)
I0819 20:35:51.650741 13691 net.cpp:137] Memory required for data: 1311361024
I0819 20:35:51.650774 13691 layer_factory.hpp:77] Creating layer scale4
I0819 20:35:51.650807 13691 net.cpp:84] Creating Layer scale4
I0819 20:35:51.650820 13691 net.cpp:406] scale4 <- conv4
I0819 20:35:51.650866 13691 net.cpp:367] scale4 -> conv4 (in-place)
I0819 20:35:51.650985 13691 layer_factory.hpp:77] Creating layer scale4
I0819 20:35:51.651208 13691 net.cpp:122] Setting up scale4
I0819 20:35:51.651223 13691 net.cpp:129] Top shape: 128 384 13 13 (8306688)
I0819 20:35:51.651229 13691 net.cpp:137] Memory required for data: 1344587776
I0819 20:35:51.651245 13691 layer_factory.hpp:77] Creating layer relu4
I0819 20:35:51.651271 13691 net.cpp:84] Creating Layer relu4
I0819 20:35:51.651283 13691 net.cpp:406] relu4 <- conv4
I0819 20:35:51.651324 13691 net.cpp:367] relu4 -> conv4 (in-place)
I0819 20:35:51.651353 13691 net.cpp:122] Setting up relu4
I0819 20:35:51.651362 13691 net.cpp:129] Top shape: 128 384 13 13 (8306688)
I0819 20:35:51.651368 13691 net.cpp:137] Memory required for data: 1377814528
I0819 20:35:51.651376 13691 layer_factory.hpp:77] Creating layer conv5
I0819 20:35:51.651427 13691 net.cpp:84] Creating Layer conv5
I0819 20:35:51.651439 13691 net.cpp:406] conv5 <- conv4
I0819 20:35:51.651476 13691 net.cpp:380] conv5 -> conv5
I0819 20:35:51.828339 13691 net.cpp:122] Setting up conv5
I0819 20:35:51.828379 13691 net.cpp:129] Top shape: 128 256 13 13 (5537792)
I0819 20:35:51.828384 13691 net.cpp:137] Memory required for data: 1399965696
I0819 20:35:51.828411 13691 layer_factory.hpp:77] Creating layer bn5
I0819 20:35:51.828456 13691 net.cpp:84] Creating Layer bn5
I0819 20:35:51.828474 13691 net.cpp:406] bn5 <- conv5
I0819 20:35:51.828512 13691 net.cpp:367] bn5 -> conv5 (in-place)
I0819 20:35:51.828831 13691 net.cpp:122] Setting up bn5
I0819 20:35:51.828845 13691 net.cpp:129] Top shape: 128 256 13 13 (5537792)
I0819 20:35:51.828850 13691 net.cpp:137] Memory required for data: 1422116864
I0819 20:35:51.828881 13691 layer_factory.hpp:77] Creating layer scale5
I0819 20:35:51.828912 13691 net.cpp:84] Creating Layer scale5
I0819 20:35:51.828924 13691 net.cpp:406] scale5 <- conv5
I0819 20:35:51.828943 13691 net.cpp:367] scale5 -> conv5 (in-place)
I0819 20:35:51.829031 13691 layer_factory.hpp:77] Creating layer scale5
I0819 20:35:51.829262 13691 net.cpp:122] Setting up scale5
I0819 20:35:51.829278 13691 net.cpp:129] Top shape: 128 256 13 13 (5537792)
I0819 20:35:51.829283 13691 net.cpp:137] Memory required for data: 1444268032
I0819 20:35:51.829299 13691 layer_factory.hpp:77] Creating layer relu5
I0819 20:35:51.829324 13691 net.cpp:84] Creating Layer relu5
I0819 20:35:51.829336 13691 net.cpp:406] relu5 <- conv5
I0819 20:35:51.829370 13691 net.cpp:367] relu5 -> conv5 (in-place)
I0819 20:35:51.829391 13691 net.cpp:122] Setting up relu5
I0819 20:35:51.829401 13691 net.cpp:129] Top shape: 128 256 13 13 (5537792)
I0819 20:35:51.829416 13691 net.cpp:137] Memory required for data: 1466419200
I0819 20:35:51.829425 13691 layer_factory.hpp:77] Creating layer pool5
I0819 20:35:51.829445 13691 net.cpp:84] Creating Layer pool5
I0819 20:35:51.829459 13691 net.cpp:406] pool5 <- conv5
I0819 20:35:51.829491 13691 net.cpp:380] pool5 -> pool5
I0819 20:35:51.829593 13691 net.cpp:122] Setting up pool5
I0819 20:35:51.829617 13691 net.cpp:129] Top shape: 128 256 6 6 (1179648)
I0819 20:35:51.829623 13691 net.cpp:137] Memory required for data: 1471137792
I0819 20:35:51.829632 13691 layer_factory.hpp:77] Creating layer fc6
I0819 20:35:51.829733 13691 net.cpp:84] Creating Layer fc6
I0819 20:35:51.829746 13691 net.cpp:406] fc6 <- pool5
I0819 20:35:51.829782 13691 net.cpp:380] fc6 -> fc6
I0819 20:35:59.363562 13691 net.cpp:122] Setting up fc6
I0819 20:35:59.363620 13691 net.cpp:129] Top shape: 128 4096 (524288)
I0819 20:35:59.363626 13691 net.cpp:137] Memory required for data: 1473234944
I0819 20:35:59.363670 13691 layer_factory.hpp:77] Creating layer bn6
I0819 20:35:59.363723 13691 net.cpp:84] Creating Layer bn6
I0819 20:35:59.363742 13691 net.cpp:406] bn6 <- fc6
I0819 20:35:59.363780 13691 net.cpp:367] bn6 -> fc6 (in-place)
I0819 20:35:59.364065 13691 net.cpp:122] Setting up bn6
I0819 20:35:59.364080 13691 net.cpp:129] Top shape: 128 4096 (524288)
I0819 20:35:59.364085 13691 net.cpp:137] Memory required for data: 1475332096
I0819 20:35:59.364179 13691 layer_factory.hpp:77] Creating layer scale6
I0819 20:35:59.364212 13691 net.cpp:84] Creating Layer scale6
I0819 20:35:59.364225 13691 net.cpp:406] scale6 <- fc6
I0819 20:35:59.364249 13691 net.cpp:367] scale6 -> fc6 (in-place)
I0819 20:35:59.364347 13691 layer_factory.hpp:77] Creating layer scale6
I0819 20:35:59.364563 13691 net.cpp:122] Setting up scale6
I0819 20:35:59.364580 13691 net.cpp:129] Top shape: 128 4096 (524288)
I0819 20:35:59.364588 13691 net.cpp:137] Memory required for data: 1477429248
I0819 20:35:59.364606 13691 layer_factory.hpp:77] Creating layer relu6
I0819 20:35:59.364627 13691 net.cpp:84] Creating Layer relu6
I0819 20:35:59.364639 13691 net.cpp:406] relu6 <- fc6
I0819 20:35:59.364661 13691 net.cpp:367] relu6 -> fc6 (in-place)
I0819 20:35:59.364686 13691 net.cpp:122] Setting up relu6
I0819 20:35:59.364696 13691 net.cpp:129] Top shape: 128 4096 (524288)
I0819 20:35:59.364702 13691 net.cpp:137] Memory required for data: 1479526400
I0819 20:35:59.364711 13691 layer_factory.hpp:77] Creating layer drop6
I0819 20:35:59.364749 13691 net.cpp:84] Creating Layer drop6
I0819 20:35:59.364760 13691 net.cpp:406] drop6 <- fc6
I0819 20:35:59.364781 13691 net.cpp:367] drop6 -> fc6 (in-place)
I0819 20:35:59.364828 13691 net.cpp:122] Setting up drop6
I0819 20:35:59.364843 13691 net.cpp:129] Top shape: 128 4096 (524288)
I0819 20:35:59.364850 13691 net.cpp:137] Memory required for data: 1481623552
I0819 20:35:59.364859 13691 layer_factory.hpp:77] Creating layer fc7
I0819 20:35:59.364892 13691 net.cpp:84] Creating Layer fc7
I0819 20:35:59.364904 13691 net.cpp:406] fc7 <- fc6
I0819 20:35:59.364931 13691 net.cpp:380] fc7 -> fc7
I0819 20:36:02.707353 13691 net.cpp:122] Setting up fc7
I0819 20:36:02.707419 13691 net.cpp:129] Top shape: 128 4096 (524288)
I0819 20:36:02.707425 13691 net.cpp:137] Memory required for data: 1483720704
I0819 20:36:02.707466 13691 layer_factory.hpp:77] Creating layer bn7
I0819 20:36:02.707520 13691 net.cpp:84] Creating Layer bn7
I0819 20:36:02.707540 13691 net.cpp:406] bn7 <- fc7
I0819 20:36:02.707576 13691 net.cpp:367] bn7 -> fc7 (in-place)
I0819 20:36:02.707866 13691 net.cpp:122] Setting up bn7
I0819 20:36:02.707881 13691 net.cpp:129] Top shape: 128 4096 (524288)
I0819 20:36:02.707887 13691 net.cpp:137] Memory required for data: 1485817856
I0819 20:36:02.707914 13691 layer_factory.hpp:77] Creating layer scale7
I0819 20:36:02.707970 13691 net.cpp:84] Creating Layer scale7
I0819 20:36:02.707985 13691 net.cpp:406] scale7 <- fc7
I0819 20:36:02.708010 13691 net.cpp:367] scale7 -> fc7 (in-place)
I0819 20:36:02.708107 13691 layer_factory.hpp:77] Creating layer scale7
I0819 20:36:02.708323 13691 net.cpp:122] Setting up scale7
I0819 20:36:02.708339 13691 net.cpp:129] Top shape: 128 4096 (524288)
I0819 20:36:02.708345 13691 net.cpp:137] Memory required for data: 1487915008
I0819 20:36:02.708366 13691 layer_factory.hpp:77] Creating layer relu7
I0819 20:36:02.708389 13691 net.cpp:84] Creating Layer relu7
I0819 20:36:02.708402 13691 net.cpp:406] relu7 <- fc7
I0819 20:36:02.708425 13691 net.cpp:367] relu7 -> fc7 (in-place)
I0819 20:36:02.708447 13691 net.cpp:122] Setting up relu7
I0819 20:36:02.708457 13691 net.cpp:129] Top shape: 128 4096 (524288)
I0819 20:36:02.708464 13691 net.cpp:137] Memory required for data: 1490012160
I0819 20:36:02.708473 13691 layer_factory.hpp:77] Creating layer drop7
I0819 20:36:02.708494 13691 net.cpp:84] Creating Layer drop7
I0819 20:36:02.708505 13691 net.cpp:406] drop7 <- fc7
I0819 20:36:02.708528 13691 net.cpp:367] drop7 -> fc7 (in-place)
I0819 20:36:02.708570 13691 net.cpp:122] Setting up drop7
I0819 20:36:02.708581 13691 net.cpp:129] Top shape: 128 4096 (524288)
I0819 20:36:02.708587 13691 net.cpp:137] Memory required for data: 1492109312
I0819 20:36:02.708596 13691 layer_factory.hpp:77] Creating layer fc8
I0819 20:36:02.708639 13691 net.cpp:84] Creating Layer fc8
I0819 20:36:02.708652 13691 net.cpp:406] fc8 <- fc7
I0819 20:36:02.708680 13691 net.cpp:380] fc8 -> fc8
I0819 20:36:03.525094 13691 net.cpp:122] Setting up fc8
I0819 20:36:03.525144 13691 net.cpp:129] Top shape: 128 1000 (128000)
I0819 20:36:03.525192 13691 net.cpp:137] Memory required for data: 1492621312
I0819 20:36:03.525226 13691 layer_factory.hpp:77] Creating layer fc8_fc8_0_split
I0819 20:36:03.525269 13691 net.cpp:84] Creating Layer fc8_fc8_0_split
I0819 20:36:03.525287 13691 net.cpp:406] fc8_fc8_0_split <- fc8
I0819 20:36:03.525326 13691 net.cpp:380] fc8_fc8_0_split -> fc8_fc8_0_split_0
I0819 20:36:03.525377 13691 net.cpp:380] fc8_fc8_0_split -> fc8_fc8_0_split_1
I0819 20:36:03.525401 13691 net.cpp:380] fc8_fc8_0_split -> fc8_fc8_0_split_2
I0819 20:36:03.525496 13691 net.cpp:122] Setting up fc8_fc8_0_split
I0819 20:36:03.525513 13691 net.cpp:129] Top shape: 128 1000 (128000)
I0819 20:36:03.525523 13691 net.cpp:129] Top shape: 128 1000 (128000)
I0819 20:36:03.525532 13691 net.cpp:129] Top shape: 128 1000 (128000)
I0819 20:36:03.525539 13691 net.cpp:137] Memory required for data: 1494157312
I0819 20:36:03.525548 13691 layer_factory.hpp:77] Creating layer loss
I0819 20:36:03.525578 13691 net.cpp:84] Creating Layer loss
I0819 20:36:03.525590 13691 net.cpp:406] loss <- fc8_fc8_0_split_0
I0819 20:36:03.525610 13691 net.cpp:406] loss <- label_data_1_split_0
I0819 20:36:03.525629 13691 net.cpp:380] loss -> loss
…
I0819 20:36:18.629739 13691 net.cpp:294] The NetState phase (1) differed from the phase (0) specified by a rule in layer data
I0819 20:36:18.630010 13691 net.cpp:51] Initializing net from parameters: 
name: "AlexNet-BN"
state {
  phase: TEST
}
layer {
  name: "data"
  type: "Data"
  top: "data"
  top: "label"
  include {
    phase: TEST
  }
  transform_param {
    mirror: false
    crop_size: 224
    mean_file: "data/imagenet_mean.binaryproto"
  }
  data_param {
    source: "/home/zhengzhe/Data/ilsvrc12/ilsvrc12_val_lmdb"
    batch_size: 50
    backend: LMDB
  }
}
layer {
  name: "conv1"
  type: "BinaryConvolution"
  bottom: "data"
  top: "conv1"
  param {
    lr_mult: 1
    decay_mult: 1
  }
  convolution_param {
    num_output: 96
    bias_term: false
    pad: 2
    kernel_size: 11
    stride: 4
    weight_filler {
      type: "msra"
    }
  }
  debug_param {
    xnorno_grad: true
  }
}
layer {
  name: "bn1"
  type: "BatchNorm"
  bottom: "conv1"
  top: "conv1"
}
layer {
  name: "scale1"
  type: "Scale"
  bottom: "conv1"
  top: "conv1"
  scale_param {
    bias_term: true
  }
}
layer {
  name: "relu1"
  type: "ReLU"
  bottom: "conv1"
  top: "conv1"
}
layer {
  name: "pool1"
  type: "Pooling"
  bottom: "conv1"
  top: "pool1"
  pooling_param {
    pool: MAX
    kernel_size: 3
    stride: 2
  }
}
layer {
  name: "conv2"
  type: "BinaryConvolution"
  bottom: "pool1"
  top: "conv2"
  param {
    lr_mult: 1
    decay_mult: 1
  }
  convolution_param {
    num_output: 256
    bias_term: false
    pad: 2
    kernel_size: 5
    weight_filler {
      type: "msra"
    }
  }
  debug_param {
    xnorno_grad: true
  }
}
layer {
  name: "bn2"
  type: "BatchNorm"
  bottom: "conv2"
  top: "conv2"
}
layer {
  name: "scale2"
  type: "Scale"
  bottom: "conv2"
  top: "conv2"
  scale_param {
    bias_term: true
  }
}
layer {
  name: "relu2"
  type: "ReLU"
  bottom: "conv2"
  top: "conv2"
}
layer {
  name: "pool2"
  type: "Pooling"
  bottom: "conv2"
  top: "pool2"
  pooling_param {
    pool: MAX
    kernel_size: 3
    stride: 2
  }
}
layer {
  name: "conv3"
  type: "BinaryConvolution"
  bottom: "pool2"
  top: "conv3"
  param {
    lr_mult: 1
    decay_mult: 1
  }
  convolution_param {
    num_output: 384
    bias_term: false
    pad: 1
    kernel_size: 3
    weight_filler {
      type: "msra"
    }
  }
  debug_param {
    xnorno_grad: true
  }
}
layer {
  name: "bn3"
  type: "BatchNorm"
  bottom: "conv3"
  top: "conv3"
}
layer {
  name: "scale3"
  type: "Scale"
  bottom: "conv3"
  top: "conv3"
  scale_param {
    bias_term: true
  }
}
layer {
  name: "relu3"
  type: "ReLU"
  bottom: "conv3"
  top: "conv3"
}
layer {
  name: "conv4"
  type: "BinaryConvolution"
  bottom: "conv3"
  top: "conv4"
  param {
    lr_mult: 1
    decay_mult: 1
  }
  convolution_param {
    num_output: 384
    bias_term: false
    pad: 1
    kernel_size: 3
    weight_filler {
      type: "msra"
    }
  }
  debug_param {
    xnorno_grad: true
  }
}
layer {
  name: "bn4"
  type: "BatchNorm"
  bottom: "conv4"
  top: "conv4"
}
layer {
  name: "scale4"
  type: "Scale"
  bottom: "conv4"
  top: "conv4"
  scale_param {
    bias_term: true
  }
}
layer {
  name: "relu4"
  type: "ReLU"
  bottom: "conv4"
  top: "conv4"
}
layer {
  name: "conv5"
  type: "BinaryConvolution"
  bottom: "conv4"
  top: "conv5"
  param {
    lr_mult: 1
    decay_mult: 1
  }
  convolution_param {
    num_output: 256
    bias_term: false
    pad: 1
    kernel_size: 3
    weight_filler {
      type: "msra"
    }
  }
  debug_param {
    xnorno_grad: true
  }
}
layer {
  name: "bn5"
  type: "BatchNorm"
  bottom: "conv5"
  top: "conv5"
}
layer {
  name: "scale5"
  type: "Scale"
  bottom: "conv5"
  top: "conv5"
  scale_param {
    bias_term: true
  }
}
layer {
  name: "relu5"
  type: "ReLU"
  bottom: "conv5"
  top: "conv5"
}
layer {
  name: "pool5"
  type: "Pooling"
  bottom: "conv5"
  top: "pool5"
  pooling_param {
    pool: MAX
    kernel_size: 3
    stride: 2
  }
}
layer {
  name: "fc6"
  type: "BinaryInnerProduct"
  bottom: "pool5"
  top: "fc6"
  param {
    lr_mult: 1
    decay_mult: 1
  }
  inner_product_param {
    num_output: 4096
    bias_term: false
    weight_filler {
      type: "msra"
    }
  }
  debug_param {
    xnorno_grad: true
  }
}
layer {
  name: "bn6"
  type: "BatchNorm"
  bottom: "fc6"
  top: "fc6"
}
layer {
  name: "scale6"
  type: "Scale"
  bottom: "fc6"
  top: "fc6"
  scale_param {
    bias_term: true
  }
}
layer {
  name: "relu6"
  type: "ReLU"
  bottom: "fc6"
  top: "fc6"
}
layer {
  name: "drop6"
  type: "Dropout"
  bottom: "fc6"
  top: "fc6"
  dropout_param {
    dropout_ratio: 0.5
  }
}
layer {
  name: "fc7"
  type: "BinaryInnerProduct"
  bottom: "fc6"
  top: "fc7"
  param {
    lr_mult: 1
    decay_mult: 1
  }
  inner_product_param {
    num_output: 4096
    bias_term: false
    weight_filler {
      type: "msra"
    }
  }
  debug_param {
    xnorno_grad: true
  }
}
layer {
  name: "bn7"
  type: "BatchNorm"
  bottom: "fc7"
  top: "fc7"
}
layer {
  name: "scale7"
  type: "Scale"
  bottom: "fc7"
  top: "fc7"
  scale_param {
    bias_term: true
  }
}
layer {
  name: "relu7"
  type: "ReLU"
  bottom: "fc7"
  top: "fc7"
}
layer {
  name: "drop7"
  type: "Dropout"
  bottom: "fc7"
  top: "fc7"
  dropout_param {
    dropout_ratio: 0.5
  }
}
layer {
  name: "fc8"
  type: "BinaryInnerProduct"
  bottom: "fc7"
  top: "fc8"
  param {
    lr_mult: 1
    decay_mult: 1
  }
  param {
    lr_mult: 2
    decay_mult: 0
  }
  inner_product_param {
    num_output: 1000
    weight_filler {
      type: "msra"
    }
    bias_filler {
      type: "constant"
      value: 0
    }
  }
  debug_param {
    xnorno_grad: true
  }
}
layer {
  name: "loss"
  type: "SoftmaxWithLoss"
  bottom: "fc8"
  bottom: "label"
  top: "loss"
}
layer {
  name: "accuracy"
  type: "Accuracy"
  bottom: "fc8"
  bottom: "label"
  top: "accuracy"
}
layer {
  name: "accuracy_5"
  type: "Accuracy"
  bottom: "fc8"
  bottom: "label"
  top: "accuracy_5"
  accuracy_param {
    top_k: 5
  }
}
I0819 20:36:18.630517 13691 layer_factory.hpp:77] Creating layer data
I0819 20:36:18.645864 13691 db_lmdb.cpp:35] Opened lmdb /home/zhengzhe/Data/ilsvrc12/ilsvrc12_val_lmdb
I0819 20:36:18.645910 13691 net.cpp:84] Creating Layer data
I0819 20:36:18.645934 13691 net.cpp:380] data -> data
I0819 20:36:18.645982 13691 net.cpp:380] data -> label
I0819 20:36:18.646009 13691 data_transformer.cpp:25] Loading mean file from: data/imagenet_mean.binaryproto
I0819 20:36:18.655094 13691 data_layer.cpp:45] output data size: 50,3,224,224
I0819 20:36:18.737198 13691 base_data_layer.cpp:72] Initializing prefetch
I0819 20:36:18.737339 13691 base_data_layer.cpp:75] Prefetch initialized.
I0819 20:36:18.737350 13691 net.cpp:122] Setting up data
I0819 20:36:18.737387 13691 net.cpp:129] Top shape: 50 3 224 224 (7526400)
I0819 20:36:18.737397 13691 net.cpp:129] Top shape: 50 (50)
I0819 20:36:18.737401 13691 net.cpp:137] Memory required for data: 30105800
I0819 20:36:18.737435 13691 layer_factory.hpp:77] Creating layer label_data_1_split
I0819 20:36:18.737499 13691 net.cpp:84] Creating Layer label_data_1_split
I0819 20:36:18.737538 13691 net.cpp:406] label_data_1_split <- label
I0819 20:36:18.737581 13691 net.cpp:380] label_data_1_split -> label_data_1_split_0
I0819 20:36:18.737624 13691 net.cpp:380] label_data_1_split -> label_data_1_split_1
I0819 20:36:18.737648 13691 net.cpp:380] label_data_1_split -> label_data_1_split_2
I0819 20:36:18.737912 13691 net.cpp:122] Setting up label_data_1_split
I0819 20:36:18.737960 13691 net.cpp:129] Top shape: 50 (50)
I0819 20:36:18.737972 13691 net.cpp:129] Top shape: 50 (50)
I0819 20:36:18.737982 13691 net.cpp:129] Top shape: 50 (50)
I0819 20:36:18.737987 13691 net.cpp:137] Memory required for data: 30106400
I0819 20:36:18.738004 13691 layer_factory.hpp:77] Creating layer conv1
I0819 20:36:18.738085 13691 net.cpp:84] Creating Layer conv1
I0819 20:36:18.738103 13691 net.cpp:406] conv1 <- data
I0819 20:36:18.738152 13691 net.cpp:380] conv1 -> conv1
I0819 20:36:18.745808 13691 net.cpp:122] Setting up conv1
I0819 20:36:18.745831 13691 net.cpp:129] Top shape: 50 96 55 55 (14520000)
I0819 20:36:18.745836 13691 net.cpp:137] Memory required for data: 88186400
I0819 20:36:18.745870 13691 layer_factory.hpp:77] Creating layer bn1
I0819 20:36:18.745898 13691 net.cpp:84] Creating Layer bn1
I0819 20:36:18.745908 13691 net.cpp:406] bn1 <- conv1
I0819 20:36:18.745929 13691 net.cpp:367] bn1 -> conv1 (in-place)
I0819 20:36:18.746197 13691 net.cpp:122] Setting up bn1
I0819 20:36:18.746210 13691 net.cpp:129] Top shape: 50 96 55 55 (14520000)
I0819 20:36:18.746217 13691 net.cpp:137] Memory required for data: 146266400
I0819 20:36:18.746254 13691 layer_factory.hpp:77] Creating layer scale1
I0819 20:36:18.746284 13691 net.cpp:84] Creating Layer scale1
I0819 20:36:18.746295 13691 net.cpp:406] scale1 <- conv1
I0819 20:36:18.746315 13691 net.cpp:367] scale1 -> conv1 (in-place)
I0819 20:36:18.746394 13691 layer_factory.hpp:77] Creating layer scale1
I0819 20:36:18.746634 13691 net.cpp:122] Setting up scale1
I0819 20:36:18.746649 13691 net.cpp:129] Top shape: 50 96 55 55 (14520000)
I0819 20:36:18.746654 13691 net.cpp:137] Memory required for data: 204346400
I0819 20:36:18.746683 13691 layer_factory.hpp:77] Creating layer relu1
I0819 20:36:18.746707 13691 net.cpp:84] Creating Layer relu1
I0819 20:36:18.746717 13691 net.cpp:406] relu1 <- conv1
I0819 20:36:18.746737 13691 net.cpp:367] relu1 -> conv1 (in-place)
I0819 20:36:18.746757 13691 net.cpp:122] Setting up relu1
I0819 20:36:18.746765 13691 net.cpp:129] Top shape: 50 96 55 55 (14520000)
I0819 20:36:18.746769 13691 net.cpp:137] Memory required for data: 262426400
I0819 20:36:18.746775 13691 layer_factory.hpp:77] Creating layer pool1
I0819 20:36:18.746795 13691 net.cpp:84] Creating Layer pool1
I0819 20:36:18.746803 13691 net.cpp:406] pool1 <- conv1
I0819 20:36:18.746820 13691 net.cpp:380] pool1 -> pool1
I0819 20:36:18.746891 13691 net.cpp:122] Setting up pool1
I0819 20:36:18.746906 13691 net.cpp:129] Top shape: 50 96 27 27 (3499200)
I0819 20:36:18.746912 13691 net.cpp:137] Memory required for data: 276423200
I0819 20:36:18.746918 13691 layer_factory.hpp:77] Creating layer conv2
I0819 20:36:18.746942 13691 net.cpp:84] Creating Layer conv2
I0819 20:36:18.746953 13691 net.cpp:406] conv2 <- pool1
I0819 20:36:18.746978 13691 net.cpp:380] conv2 -> conv2
I0819 20:36:18.870074 13691 net.cpp:122] Setting up conv2
I0819 20:36:18.870116 13691 net.cpp:129] Top shape: 50 256 27 27 (9331200)
I0819 20:36:18.870122 13691 net.cpp:137] Memory required for data: 313748000
I0819 20:36:18.870152 13691 layer_factory.hpp:77] Creating layer bn2
I0819 20:36:18.870203 13691 net.cpp:84] Creating Layer bn2
I0819 20:36:18.870220 13691 net.cpp:406] bn2 <- conv2
I0819 20:36:18.870254 13691 net.cpp:367] bn2 -> conv2 (in-place)
I0819 20:36:18.870522 13691 net.cpp:122] Setting up bn2
I0819 20:36:18.870534 13691 net.cpp:129] Top shape: 50 256 27 27 (9331200)
I0819 20:36:18.870539 13691 net.cpp:137] Memory required for data: 351072800
I0819 20:36:18.870579 13691 layer_factory.hpp:77] Creating layer scale2
I0819 20:36:18.870604 13691 net.cpp:84] Creating Layer scale2
I0819 20:36:18.870622 13691 net.cpp:406] scale2 <- conv2
I0819 20:36:18.870667 13691 net.cpp:367] scale2 -> conv2 (in-place)
I0819 20:36:18.870764 13691 layer_factory.hpp:77] Creating layer scale2
I0819 20:36:18.871106 13691 net.cpp:122] Setting up scale2
I0819 20:36:18.871132 13691 net.cpp:129] Top shape: 50 256 27 27 (9331200)
I0819 20:36:18.871140 13691 net.cpp:137] Memory required for data: 388397600
I0819 20:36:18.871166 13691 layer_factory.hpp:77] Creating layer relu2
I0819 20:36:18.871193 13691 net.cpp:84] Creating Layer relu2
I0819 20:36:18.871208 13691 net.cpp:406] relu2 <- conv2
I0819 20:36:18.871234 13691 net.cpp:367] relu2 -> conv2 (in-place)
I0819 20:36:18.871259 13691 net.cpp:122] Setting up relu2
I0819 20:36:18.871270 13691 net.cpp:129] Top shape: 50 256 27 27 (9331200)
I0819 20:36:18.871275 13691 net.cpp:137] Memory required for data: 425722400
I0819 20:36:18.871282 13691 layer_factory.hpp:77] Creating layer pool2
I0819 20:36:18.871309 13691 net.cpp:84] Creating Layer pool2
I0819 20:36:18.871320 13691 net.cpp:406] pool2 <- conv2
I0819 20:36:18.871342 13691 net.cpp:380] pool2 -> pool2
I0819 20:36:18.871431 13691 net.cpp:122] Setting up pool2
I0819 20:36:18.871449 13691 net.cpp:129] Top shape: 50 256 13 13 (2163200)
I0819 20:36:18.871456 13691 net.cpp:137] Memory required for data: 434375200
I0819 20:36:18.871465 13691 layer_factory.hpp:77] Creating layer conv3
I0819 20:36:18.871502 13691 net.cpp:84] Creating Layer conv3
I0819 20:36:18.871516 13691 net.cpp:406] conv3 <- pool2
I0819 20:36:18.871546 13691 net.cpp:380] conv3 -> conv3
I0819 20:36:19.048120 13691 net.cpp:122] Setting up conv3
I0819 20:36:19.048167 13691 net.cpp:129] Top shape: 50 384 13 13 (3244800)
I0819 20:36:19.048174 13691 net.cpp:137] Memory required for data: 447354400
I0819 20:36:19.048202 13691 layer_factory.hpp:77] Creating layer bn3
I0819 20:36:19.048240 13691 net.cpp:84] Creating Layer bn3
I0819 20:36:19.048257 13691 net.cpp:406] bn3 <- conv3
I0819 20:36:19.048290 13691 net.cpp:367] bn3 -> conv3 (in-place)
I0819 20:36:19.048568 13691 net.cpp:122] Setting up bn3
I0819 20:36:19.048583 13691 net.cpp:129] Top shape: 50 384 13 13 (3244800)
I0819 20:36:19.048588 13691 net.cpp:137] Memory required for data: 460333600
I0819 20:36:19.048615 13691 layer_factory.hpp:77] Creating layer scale3
I0819 20:36:19.048641 13691 net.cpp:84] Creating Layer scale3
I0819 20:36:19.048653 13691 net.cpp:406] scale3 <- conv3
I0819 20:36:19.048676 13691 net.cpp:367] scale3 -> conv3 (in-place)
I0819 20:36:19.048763 13691 layer_factory.hpp:77] Creating layer scale3
I0819 20:36:19.048959 13691 net.cpp:122] Setting up scale3
I0819 20:36:19.048974 13691 net.cpp:129] Top shape: 50 384 13 13 (3244800)
I0819 20:36:19.048981 13691 net.cpp:137] Memory required for data: 473312800
I0819 20:36:19.049018 13691 layer_factory.hpp:77] Creating layer relu3
I0819 20:36:19.049041 13691 net.cpp:84] Creating Layer relu3
I0819 20:36:19.049053 13691 net.cpp:406] relu3 <- conv3
I0819 20:36:19.049074 13691 net.cpp:367] relu3 -> conv3 (in-place)
I0819 20:36:19.049098 13691 net.cpp:122] Setting up relu3
I0819 20:36:19.049108 13691 net.cpp:129] Top shape: 50 384 13 13 (3244800)
I0819 20:36:19.049113 13691 net.cpp:137] Memory required for data: 486292000
I0819 20:36:19.049120 13691 layer_factory.hpp:77] Creating layer conv4
I0819 20:36:19.049160 13691 net.cpp:84] Creating Layer conv4
I0819 20:36:19.049172 13691 net.cpp:406] conv4 <- conv3
I0819 20:36:19.049199 13691 net.cpp:380] conv4 -> conv4
I0819 20:36:19.314561 13691 net.cpp:122] Setting up conv4
I0819 20:36:19.314625 13691 net.cpp:129] Top shape: 50 384 13 13 (3244800)
I0819 20:36:19.314630 13691 net.cpp:137] Memory required for data: 499271200
I0819 20:36:19.314663 13691 layer_factory.hpp:77] Creating layer bn4
I0819 20:36:19.314707 13691 net.cpp:84] Creating Layer bn4
I0819 20:36:19.314726 13691 net.cpp:406] bn4 <- conv4
I0819 20:36:19.314761 13691 net.cpp:367] bn4 -> conv4 (in-place)
I0819 20:36:19.315043 13691 net.cpp:122] Setting up bn4
I0819 20:36:19.315059 13691 net.cpp:129] Top shape: 50 384 13 13 (3244800)
I0819 20:36:19.315064 13691 net.cpp:137] Memory required for data: 512250400
I0819 20:36:19.315115 13691 layer_factory.hpp:77] Creating layer scale4
I0819 20:36:19.315143 13691 net.cpp:84] Creating Layer scale4
I0819 20:36:19.315155 13691 net.cpp:406] scale4 <- conv4
I0819 20:36:19.315179 13691 net.cpp:367] scale4 -> conv4 (in-place)
I0819 20:36:19.315268 13691 layer_factory.hpp:77] Creating layer scale4
I0819 20:36:19.315466 13691 net.cpp:122] Setting up scale4
I0819 20:36:19.315481 13691 net.cpp:129] Top shape: 50 384 13 13 (3244800)
I0819 20:36:19.315488 13691 net.cpp:137] Memory required for data: 525229600
I0819 20:36:19.315506 13691 layer_factory.hpp:77] Creating layer relu4
I0819 20:36:19.315527 13691 net.cpp:84] Creating Layer relu4
I0819 20:36:19.315539 13691 net.cpp:406] relu4 <- conv4
I0819 20:36:19.315562 13691 net.cpp:367] relu4 -> conv4 (in-place)
I0819 20:36:19.315584 13691 net.cpp:122] Setting up relu4
I0819 20:36:19.315594 13691 net.cpp:129] Top shape: 50 384 13 13 (3244800)
I0819 20:36:19.315601 13691 net.cpp:137] Memory required for data: 538208800
I0819 20:36:19.315609 13691 layer_factory.hpp:77] Creating layer conv5
I0819 20:36:19.315639 13691 net.cpp:84] Creating Layer conv5
I0819 20:36:19.315650 13691 net.cpp:406] conv5 <- conv4
I0819 20:36:19.315678 13691 net.cpp:380] conv5 -> conv5
I0819 20:36:19.492852 13691 net.cpp:122] Setting up conv5
I0819 20:36:19.492905 13691 net.cpp:129] Top shape: 50 256 13 13 (2163200)
I0819 20:36:19.492911 13691 net.cpp:137] Memory required for data: 546861600
I0819 20:36:19.492944 13691 layer_factory.hpp:77] Creating layer bn5
I0819 20:36:19.492987 13691 net.cpp:84] Creating Layer bn5
I0819 20:36:19.493007 13691 net.cpp:406] bn5 <- conv5
I0819 20:36:19.493042 13691 net.cpp:367] bn5 -> conv5 (in-place)
I0819 20:36:19.493331 13691 net.cpp:122] Setting up bn5
I0819 20:36:19.493346 13691 net.cpp:129] Top shape: 50 256 13 13 (2163200)
I0819 20:36:19.493351 13691 net.cpp:137] Memory required for data: 555514400
I0819 20:36:19.493377 13691 layer_factory.hpp:77] Creating layer scale5
I0819 20:36:19.493403 13691 net.cpp:84] Creating Layer scale5
I0819 20:36:19.493417 13691 net.cpp:406] scale5 <- conv5
I0819 20:36:19.493438 13691 net.cpp:367] scale5 -> conv5 (in-place)
I0819 20:36:19.493528 13691 layer_factory.hpp:77] Creating layer scale5
I0819 20:36:19.493718 13691 net.cpp:122] Setting up scale5
I0819 20:36:19.493734 13691 net.cpp:129] Top shape: 50 256 13 13 (2163200)
I0819 20:36:19.493741 13691 net.cpp:137] Memory required for data: 564167200
I0819 20:36:19.493759 13691 layer_factory.hpp:77] Creating layer relu5
I0819 20:36:19.493779 13691 net.cpp:84] Creating Layer relu5
I0819 20:36:19.493793 13691 net.cpp:406] relu5 <- conv5
I0819 20:36:19.493814 13691 net.cpp:367] relu5 -> conv5 (in-place)
I0819 20:36:19.493836 13691 net.cpp:122] Setting up relu5
I0819 20:36:19.493846 13691 net.cpp:129] Top shape: 50 256 13 13 (2163200)
I0819 20:36:19.493854 13691 net.cpp:137] Memory required for data: 572820000
I0819 20:36:19.493860 13691 layer_factory.hpp:77] Creating layer pool5
I0819 20:36:19.493883 13691 net.cpp:84] Creating Layer pool5
I0819 20:36:19.493894 13691 net.cpp:406] pool5 <- conv5
I0819 20:36:19.493917 13691 net.cpp:380] pool5 -> pool5
I0819 20:36:19.493997 13691 net.cpp:122] Setting up pool5
I0819 20:36:19.494204 13691 net.cpp:129] Top shape: 50 256 6 6 (460800)
I0819 20:36:19.494221 13691 net.cpp:137] Memory required for data: 574663200
I0819 20:36:19.494247 13691 layer_factory.hpp:77] Creating layer fc6
I0819 20:36:19.494313 13691 net.cpp:84] Creating Layer fc6
I0819 20:36:19.494331 13691 net.cpp:406] fc6 <- pool5
I0819 20:36:19.494381 13691 net.cpp:380] fc6 -> fc6
I0819 20:36:27.014817 13691 net.cpp:122] Setting up fc6
I0819 20:36:27.014870 13691 net.cpp:129] Top shape: 50 4096 (204800)
I0819 20:36:27.014876 13691 net.cpp:137] Memory required for data: 575482400
I0819 20:36:27.014911 13691 layer_factory.hpp:77] Creating layer bn6
I0819 20:36:27.014959 13691 net.cpp:84] Creating Layer bn6
I0819 20:36:27.014978 13691 net.cpp:406] bn6 <- fc6
I0819 20:36:27.015013 13691 net.cpp:367] bn6 -> fc6 (in-place)
I0819 20:36:27.015295 13691 net.cpp:122] Setting up bn6
I0819 20:36:27.015310 13691 net.cpp:129] Top shape: 50 4096 (204800)
I0819 20:36:27.015314 13691 net.cpp:137] Memory required for data: 576301600
I0819 20:36:27.015364 13691 layer_factory.hpp:77] Creating layer scale6
I0819 20:36:27.015391 13691 net.cpp:84] Creating Layer scale6
I0819 20:36:27.015405 13691 net.cpp:406] scale6 <- fc6
I0819 20:36:27.015429 13691 net.cpp:367] scale6 -> fc6 (in-place)
I0819 20:36:27.015534 13691 layer_factory.hpp:77] Creating layer scale6
I0819 20:36:27.015744 13691 net.cpp:122] Setting up scale6
I0819 20:36:27.015759 13691 net.cpp:129] Top shape: 50 4096 (204800)
I0819 20:36:27.015766 13691 net.cpp:137] Memory required for data: 577120800
I0819 20:36:27.015784 13691 layer_factory.hpp:77] Creating layer relu6
I0819 20:36:27.015805 13691 net.cpp:84] Creating Layer relu6
I0819 20:36:27.015818 13691 net.cpp:406] relu6 <- fc6
I0819 20:36:27.015841 13691 net.cpp:367] relu6 -> fc6 (in-place)
I0819 20:36:27.015862 13691 net.cpp:122] Setting up relu6
I0819 20:36:27.015872 13691 net.cpp:129] Top shape: 50 4096 (204800)
I0819 20:36:27.015879 13691 net.cpp:137] Memory required for data: 577940000
I0819 20:36:27.015887 13691 layer_factory.hpp:77] Creating layer drop6
I0819 20:36:27.015907 13691 net.cpp:84] Creating Layer drop6
I0819 20:36:27.015916 13691 net.cpp:406] drop6 <- fc6
I0819 20:36:27.015938 13691 net.cpp:367] drop6 -> fc6 (in-place)
I0819 20:36:27.015985 13691 net.cpp:122] Setting up drop6
I0819 20:36:27.015996 13691 net.cpp:129] Top shape: 50 4096 (204800)
I0819 20:36:27.016002 13691 net.cpp:137] Memory required for data: 578759200
I0819 20:36:27.016011 13691 layer_factory.hpp:77] Creating layer fc7
I0819 20:36:27.016042 13691 net.cpp:84] Creating Layer fc7
I0819 20:36:27.016054 13691 net.cpp:406] fc7 <- fc6
I0819 20:36:27.016080 13691 net.cpp:380] fc7 -> fc7
I0819 20:36:30.358225 13691 net.cpp:122] Setting up fc7
I0819 20:36:30.358276 13691 net.cpp:129] Top shape: 50 4096 (204800)
I0819 20:36:30.358283 13691 net.cpp:137] Memory required for data: 579578400
I0819 20:36:30.358312 13691 layer_factory.hpp:77] Creating layer bn7
I0819 20:36:30.358355 13691 net.cpp:84] Creating Layer bn7
I0819 20:36:30.358374 13691 net.cpp:406] bn7 <- fc7
I0819 20:36:30.358407 13691 net.cpp:367] bn7 -> fc7 (in-place)
I0819 20:36:30.358693 13691 net.cpp:122] Setting up bn7
I0819 20:36:30.358707 13691 net.cpp:129] Top shape: 50 4096 (204800)
I0819 20:36:30.358711 13691 net.cpp:137] Memory required for data: 580397600
I0819 20:36:30.358734 13691 layer_factory.hpp:77] Creating layer scale7
I0819 20:36:30.358773 13691 net.cpp:84] Creating Layer scale7
I0819 20:36:30.358785 13691 net.cpp:406] scale7 <- fc7
I0819 20:36:30.358804 13691 net.cpp:367] scale7 -> fc7 (in-place)
I0819 20:36:30.358911 13691 layer_factory.hpp:77] Creating layer scale7
I0819 20:36:30.359108 13691 net.cpp:122] Setting up scale7
I0819 20:36:30.359122 13691 net.cpp:129] Top shape: 50 4096 (204800)
I0819 20:36:30.359128 13691 net.cpp:137] Memory required for data: 581216800
I0819 20:36:30.359143 13691 layer_factory.hpp:77] Creating layer relu7
I0819 20:36:30.359163 13691 net.cpp:84] Creating Layer relu7
I0819 20:36:30.359174 13691 net.cpp:406] relu7 <- fc7
I0819 20:36:30.359194 13691 net.cpp:367] relu7 -> fc7 (in-place)
I0819 20:36:30.359243 13691 net.cpp:122] Setting up relu7
I0819 20:36:30.359253 13691 net.cpp:129] Top shape: 50 4096 (204800)
I0819 20:36:30.359259 13691 net.cpp:137] Memory required for data: 582036000
I0819 20:36:30.359266 13691 layer_factory.hpp:77] Creating layer drop7
I0819 20:36:30.359283 13691 net.cpp:84] Creating Layer drop7
I0819 20:36:30.359292 13691 net.cpp:406] drop7 <- fc7
I0819 20:36:30.359309 13691 net.cpp:367] drop7 -> fc7 (in-place)
I0819 20:36:30.359355 13691 net.cpp:122] Setting up drop7
I0819 20:36:30.359365 13691 net.cpp:129] Top shape: 50 4096 (204800)
I0819 20:36:30.359369 13691 net.cpp:137] Memory required for data: 582855200
I0819 20:36:30.359376 13691 layer_factory.hpp:77] Creating layer fc8
I0819 20:36:30.359405 13691 net.cpp:84] Creating Layer fc8
I0819 20:36:30.359414 13691 net.cpp:406] fc8 <- fc7
I0819 20:36:30.359436 13691 net.cpp:380] fc8 -> fc8
I0819 20:36:31.174736 13691 net.cpp:122] Setting up fc8
I0819 20:36:31.174782 13691 net.cpp:129] Top shape: 50 1000 (50000)
I0819 20:36:31.174787 13691 net.cpp:137] Memory required for data: 583055200
I0819 20:36:31.174816 13691 layer_factory.hpp:77] Creating layer fc8_fc8_0_split
I0819 20:36:31.174855 13691 net.cpp:84] Creating Layer fc8_fc8_0_split
I0819 20:36:31.174873 13691 net.cpp:406] fc8_fc8_0_split <- fc8
I0819 20:36:31.174907 13691 net.cpp:380] fc8_fc8_0_split -> fc8_fc8_0_split_0
I0819 20:36:31.174950 13691 net.cpp:380] fc8_fc8_0_split -> fc8_fc8_0_split_1
I0819 20:36:31.174973 13691 net.cpp:380] fc8_fc8_0_split -> fc8_fc8_0_split_2
I0819 20:36:31.175060 13691 net.cpp:122] Setting up fc8_fc8_0_split
I0819 20:36:31.175076 13691 net.cpp:129] Top shape: 50 1000 (50000)
I0819 20:36:31.175082 13691 net.cpp:129] Top shape: 50 1000 (50000)
I0819 20:36:31.175088 13691 net.cpp:129] Top shape: 50 1000 (50000)
I0819 20:36:31.175091 13691 net.cpp:137] Memory required for data: 583655200
I0819 20:36:31.175098 13691 layer_factory.hpp:77] Creating layer loss
I0819 20:36:31.175117 13691 net.cpp:84] Creating Layer loss
I0819 20:36:31.175127 13691 net.cpp:406] loss <- fc8_fc8_0_split_0
I0819 20:36:31.175143 13691 net.cpp:406] loss <- label_data_1_split_0
I0819 20:36:31.175158 13691 net.cpp:380] loss -> loss
…
