…
I0727 15:42:56.573652 12094 net.cpp:294] The NetState phase (0) differed from the phase (1) specified by a rule in layer data
I0727 15:42:56.573909 12094 net.cpp:51] Initializing net from parameters: 
name: "AlexNet-BN"
state {
  phase: TRAIN
  level: 0
  stage: ""
}
layer {
  name: "data"
  type: "Data"
  top: "data"
  top: "label"
  include {
    phase: TRAIN
  }
  transform_param {
    mirror: true
    crop_size: 224
    mean_file: "data/imagenet_mean.binaryproto"
  }
  data_param {
    source: "/home/zhengzhe/Data/ilsvrc12/ilsvrc12_train_lmdb"
    batch_size: 128
    backend: LMDB
  }
}
layer {
  name: "conv1"
  type: "BinaryConvolution"
  bottom: "data"
  top: "conv1"
  param {
    lr_mult: 1
    decay_mult: 1
  }
  convolution_param {
    num_output: 96
    bias_term: false
    pad: 2
    kernel_size: 11
    stride: 4
    weight_filler {
      type: "msra"
    }
  }
  debug_param {
    xnorno_grad: true
  }
}
layer {
  name: "bn1"
  type: "BatchNorm"
  bottom: "conv1"
  top: "conv1"
}
layer {
  name: "scale1"
  type: "Scale"
  bottom: "conv1"
  top: "conv1"
  scale_param {
    bias_term: true
  }
}
layer {
  name: "relu1"
  type: "ReLU"
  bottom: "conv1"
  top: "conv1"
}
layer {
  name: "pool1"
  type: "Pooling"
  bottom: "conv1"
  top: "pool1"
  pooling_param {
    pool: MAX
    kernel_size: 3
    stride: 2
  }
}
layer {
  name: "conv2"
  type: "BinaryConvolution"
  bottom: "pool1"
  top: "conv2"
  param {
    lr_mult: 1
    decay_mult: 1
  }
  convolution_param {
    num_output: 256
    bias_term: false
    pad: 2
    kernel_size: 5
    weight_filler {
      type: "msra"
    }
  }
  debug_param {
    xnorno_grad: true
  }
}
layer {
  name: "bn2"
  type: "BatchNorm"
  bottom: "conv2"
  top: "conv2"
}
layer {
  name: "scale2"
  type: "Scale"
  bottom: "conv2"
  top: "conv2"
  scale_param {
    bias_term: true
  }
}
layer {
  name: "relu2"
  type: "ReLU"
  bottom: "conv2"
  top: "conv2"
}
layer {
  name: "pool2"
  type: "Pooling"
  bottom: "conv2"
  top: "pool2"
  pooling_param {
    pool: MAX
    kernel_size: 3
    stride: 2
  }
}
layer {
  name: "conv3"
  type: "BinaryConvolution"
  bottom: "pool2"
  top: "conv3"
  param {
    lr_mult: 1
    decay_mult: 1
  }
  convolution_param {
    num_output: 384
    bias_term: false
    pad: 1
    kernel_size: 3
    weight_filler {
      type: "msra"
    }
  }
  debug_param {
    xnorno_grad: true
  }
}
layer {
  name: "bn3"
  type: "BatchNorm"
  bottom: "conv3"
  top: "conv3"
}
layer {
  name: "scale3"
  type: "Scale"
  bottom: "conv3"
  top: "conv3"
  scale_param {
    bias_term: true
  }
}
layer {
  name: "relu3"
  type: "ReLU"
  bottom: "conv3"
  top: "conv3"
}
layer {
  name: "conv4"
  type: "BinaryConvolution"
  bottom: "conv3"
  top: "conv4"
  param {
    lr_mult: 1
    decay_mult: 1
  }
  convolution_param {
    num_output: 384
    bias_term: false
    pad: 1
    kernel_size: 3
    weight_filler {
      type: "msra"
    }
  }
  debug_param {
    xnorno_grad: true
  }
}
layer {
  name: "bn4"
  type: "BatchNorm"
  bottom: "conv4"
  top: "conv4"
}
layer {
  name: "scale4"
  type: "Scale"
  bottom: "conv4"
  top: "conv4"
  scale_param {
    bias_term: true
  }
}
layer {
  name: "relu4"
  type: "ReLU"
  bottom: "conv4"
  top: "conv4"
}
layer {
  name: "conv5"
  type: "BinaryConvolution"
  bottom: "conv4"
  top: "conv5"
  param {
    lr_mult: 1
    decay_mult: 1
  }
  convolution_param {
    num_output: 256
    bias_term: false
    pad: 1
    kernel_size: 3
    weight_filler {
      type: "msra"
    }
  }
  debug_param {
    xnorno_grad: true
  }
}
layer {
  name: "bn5"
  type: "BatchNorm"
  bottom: "conv5"
  top: "conv5"
}
layer {
  name: "scale5"
  type: "Scale"
  bottom: "conv5"
  top: "conv5"
  scale_param {
    bias_term: true
  }
}
layer {
  name: "relu5"
  type: "ReLU"
  bottom: "conv5"
  top: "conv5"
}
layer {
  name: "pool5"
  type: "Pooling"
  bottom: "conv5"
  top: "pool5"
  pooling_param {
    pool: MAX
    kernel_size: 3
    stride: 2
  }
}
layer {
  name: "fc6"
  type: "BinaryInnerProduct"
  bottom: "pool5"
  top: "fc6"
  param {
    lr_mult: 1
    decay_mult: 1
  }
  inner_product_param {
    num_output: 4096
    bias_term: false
    weight_filler {
      type: "msra"
    }
  }
  debug_param {
    xnorno_grad: true
  }
}
layer {
  name: "bn6"
  type: "BatchNorm"
  bottom: "fc6"
  top: "fc6"
}
layer {
  name: "scale6"
  type: "Scale"
  bottom: "fc6"
  top: "fc6"
  scale_param {
    bias_term: true
  }
}
layer {
  name: "relu6"
  type: "ReLU"
  bottom: "fc6"
  top: "fc6"
}
layer {
  name: "drop6"
  type: "Dropout"
  bottom: "fc6"
  top: "fc6"
  dropout_param {
    dropout_ratio: 0.5
  }
}
layer {
  name: "fc7"
  type: "BinaryInnerProduct"
  bottom: "fc6"
  top: "fc7"
  param {
    lr_mult: 1
    decay_mult: 1
  }
  inner_product_param {
    num_output: 4096
    bias_term: false
    weight_filler {
      type: "msra"
    }
  }
  debug_param {
    xnorno_grad: true
  }
}
layer {
  name: "bn7"
  type: "BatchNorm"
  bottom: "fc7"
  top: "fc7"
}
layer {
  name: "scale7"
  type: "Scale"
  bottom: "fc7"
  top: "fc7"
  scale_param {
    bias_term: true
  }
}
layer {
  name: "relu7"
  type: "ReLU"
  bottom: "fc7"
  top: "fc7"
}
layer {
  name: "drop7"
  type: "Dropout"
  bottom: "fc7"
  top: "fc7"
  dropout_param {
    dropout_ratio: 0.5
  }
}
layer {
  name: "fc8"
  type: "BinaryInnerProduct"
  bottom: "fc7"
  top: "fc8"
  param {
    lr_mult: 1
    decay_mult: 1
  }
  param {
    lr_mult: 2
    decay_mult: 0
  }
  inner_product_param {
    num_output: 1000
    weight_filler {
      type: "msra"
    }
    bias_filler {
      type: "constant"
      value: 0
    }
  }
  debug_param {
    xnorno_grad: true
  }
}
layer {
  name: "loss"
  type: "SoftmaxWithLoss"
  bottom: "fc8"
  bottom: "label"
  top: "loss"
}
layer {
  name: "accuracy"
  type: "Accuracy"
  bottom: "fc8"
  bottom: "label"
  top: "accuracy"
}
layer {
  name: "accuracy_5"
  type: "Accuracy"
  bottom: "fc8"
  bottom: "label"
  top: "accuracy_5"
  accuracy_param {
    top_k: 5
  }
}
I0727 15:42:56.574753 12094 layer_factory.hpp:77] Creating layer data
I0727 15:42:56.575007 12094 db_lmdb.cpp:35] Opened lmdb /home/zhengzhe/Data/ilsvrc12/ilsvrc12_train_lmdb
I0727 15:42:56.575083 12094 net.cpp:84] Creating Layer data
I0727 15:42:56.575114 12094 net.cpp:380] data -> data
I0727 15:42:56.575248 12094 net.cpp:380] data -> label
I0727 15:42:56.575294 12094 data_transformer.cpp:25] Loading mean file from: data/imagenet_mean.binaryproto
I0727 15:42:56.586974 12094 data_layer.cpp:45] output data size: 128,3,224,224
I0727 15:42:56.786284 12094 base_data_layer.cpp:72] Initializing prefetch
I0727 15:42:56.786885 12094 base_data_layer.cpp:75] Prefetch initialized.
I0727 15:42:56.786900 12094 net.cpp:122] Setting up data
I0727 15:42:56.786945 12094 net.cpp:129] Top shape: 128 3 224 224 (19267584)
I0727 15:42:56.786957 12094 net.cpp:129] Top shape: 128 (128)
I0727 15:42:56.786962 12094 net.cpp:137] Memory required for data: 77070848
I0727 15:42:56.786995 12094 layer_factory.hpp:77] Creating layer label_data_1_split
I0727 15:42:56.787048 12094 net.cpp:84] Creating Layer label_data_1_split
I0727 15:42:56.787075 12094 net.cpp:406] label_data_1_split <- label
I0727 15:42:56.787130 12094 net.cpp:380] label_data_1_split -> label_data_1_split_0
I0727 15:42:56.787171 12094 net.cpp:380] label_data_1_split -> label_data_1_split_1
I0727 15:42:56.787197 12094 net.cpp:380] label_data_1_split -> label_data_1_split_2
I0727 15:42:56.787307 12094 net.cpp:122] Setting up label_data_1_split
I0727 15:42:56.787343 12094 net.cpp:129] Top shape: 128 (128)
I0727 15:42:56.787354 12094 net.cpp:129] Top shape: 128 (128)
I0727 15:42:56.787364 12094 net.cpp:129] Top shape: 128 (128)
I0727 15:42:56.787369 12094 net.cpp:137] Memory required for data: 77072384
I0727 15:42:56.787377 12094 layer_factory.hpp:77] Creating layer conv1
I0727 15:42:56.787430 12094 net.cpp:84] Creating Layer conv1
I0727 15:42:56.787441 12094 net.cpp:406] conv1 <- data
I0727 15:42:56.787474 12094 net.cpp:380] conv1 -> conv1
I0727 15:42:56.796973 12094 net.cpp:122] Setting up conv1
I0727 15:42:56.796999 12094 net.cpp:129] Top shape: 128 96 55 55 (37171200)
I0727 15:42:56.797005 12094 net.cpp:137] Memory required for data: 225757184
I0727 15:42:56.797070 12094 layer_factory.hpp:77] Creating layer bn1
I0727 15:42:56.797099 12094 net.cpp:84] Creating Layer bn1
I0727 15:42:56.797111 12094 net.cpp:406] bn1 <- conv1
I0727 15:42:56.797134 12094 net.cpp:367] bn1 -> conv1 (in-place)
I0727 15:42:56.798499 12094 net.cpp:122] Setting up bn1
I0727 15:42:56.798516 12094 net.cpp:129] Top shape: 128 96 55 55 (37171200)
I0727 15:42:56.798523 12094 net.cpp:137] Memory required for data: 374441984
I0727 15:42:56.798571 12094 layer_factory.hpp:77] Creating layer scale1
I0727 15:42:56.798606 12094 net.cpp:84] Creating Layer scale1
I0727 15:42:56.798617 12094 net.cpp:406] scale1 <- conv1
I0727 15:42:56.798638 12094 net.cpp:367] scale1 -> conv1 (in-place)
I0727 15:42:56.798723 12094 layer_factory.hpp:77] Creating layer scale1
I0727 15:42:56.798938 12094 net.cpp:122] Setting up scale1
I0727 15:42:56.798951 12094 net.cpp:129] Top shape: 128 96 55 55 (37171200)
I0727 15:42:56.798957 12094 net.cpp:137] Memory required for data: 523126784
I0727 15:42:56.798985 12094 layer_factory.hpp:77] Creating layer relu1
I0727 15:42:56.799008 12094 net.cpp:84] Creating Layer relu1
I0727 15:42:56.799018 12094 net.cpp:406] relu1 <- conv1
I0727 15:42:56.799037 12094 net.cpp:367] relu1 -> conv1 (in-place)
I0727 15:42:56.799057 12094 net.cpp:122] Setting up relu1
I0727 15:42:56.799064 12094 net.cpp:129] Top shape: 128 96 55 55 (37171200)
I0727 15:42:56.799069 12094 net.cpp:137] Memory required for data: 671811584
I0727 15:42:56.799077 12094 layer_factory.hpp:77] Creating layer pool1
I0727 15:42:56.799098 12094 net.cpp:84] Creating Layer pool1
I0727 15:42:56.799108 12094 net.cpp:406] pool1 <- conv1
I0727 15:42:56.799125 12094 net.cpp:380] pool1 -> pool1
I0727 15:42:56.799203 12094 net.cpp:122] Setting up pool1
I0727 15:42:56.799218 12094 net.cpp:129] Top shape: 128 96 27 27 (8957952)
I0727 15:42:56.799223 12094 net.cpp:137] Memory required for data: 707643392
I0727 15:42:56.799230 12094 layer_factory.hpp:77] Creating layer conv2
I0727 15:42:56.799257 12094 net.cpp:84] Creating Layer conv2
I0727 15:42:56.799268 12094 net.cpp:406] conv2 <- pool1
I0727 15:42:56.799293 12094 net.cpp:380] conv2 -> conv2
I0727 15:42:56.920783 12094 net.cpp:122] Setting up conv2
I0727 15:42:56.920804 12094 net.cpp:129] Top shape: 128 256 27 27 (23887872)
I0727 15:42:56.920809 12094 net.cpp:137] Memory required for data: 803194880
I0727 15:42:56.920822 12094 layer_factory.hpp:77] Creating layer bn2
I0727 15:42:56.920847 12094 net.cpp:84] Creating Layer bn2
I0727 15:42:56.920858 12094 net.cpp:406] bn2 <- conv2
I0727 15:42:56.920878 12094 net.cpp:367] bn2 -> conv2 (in-place)
I0727 15:42:56.921113 12094 net.cpp:122] Setting up bn2
I0727 15:42:56.921126 12094 net.cpp:129] Top shape: 128 256 27 27 (23887872)
I0727 15:42:56.921131 12094 net.cpp:137] Memory required for data: 898746368
I0727 15:42:56.921167 12094 layer_factory.hpp:77] Creating layer scale2
I0727 15:42:56.921188 12094 net.cpp:84] Creating Layer scale2
I0727 15:42:56.921198 12094 net.cpp:406] scale2 <- conv2
I0727 15:42:56.921217 12094 net.cpp:367] scale2 -> conv2 (in-place)
I0727 15:42:56.921284 12094 layer_factory.hpp:77] Creating layer scale2
I0727 15:42:56.921453 12094 net.cpp:122] Setting up scale2
I0727 15:42:56.921465 12094 net.cpp:129] Top shape: 128 256 27 27 (23887872)
I0727 15:42:56.921470 12094 net.cpp:137] Memory required for data: 994297856
I0727 15:42:56.921501 12094 layer_factory.hpp:77] Creating layer relu2
I0727 15:42:56.921519 12094 net.cpp:84] Creating Layer relu2
I0727 15:42:56.921528 12094 net.cpp:406] relu2 <- conv2
I0727 15:42:56.921547 12094 net.cpp:367] relu2 -> conv2 (in-place)
I0727 15:42:56.921566 12094 net.cpp:122] Setting up relu2
I0727 15:42:56.921573 12094 net.cpp:129] Top shape: 128 256 27 27 (23887872)
I0727 15:42:56.921577 12094 net.cpp:137] Memory required for data: 1089849344
I0727 15:42:56.921586 12094 layer_factory.hpp:77] Creating layer pool2
I0727 15:42:56.921602 12094 net.cpp:84] Creating Layer pool2
I0727 15:42:56.921609 12094 net.cpp:406] pool2 <- conv2
I0727 15:42:56.921625 12094 net.cpp:380] pool2 -> pool2
I0727 15:42:56.921696 12094 net.cpp:122] Setting up pool2
I0727 15:42:56.921711 12094 net.cpp:129] Top shape: 128 256 13 13 (5537792)
I0727 15:42:56.921717 12094 net.cpp:137] Memory required for data: 1112000512
I0727 15:42:56.921725 12094 layer_factory.hpp:77] Creating layer conv3
I0727 15:42:56.921748 12094 net.cpp:84] Creating Layer conv3
I0727 15:42:56.921758 12094 net.cpp:406] conv3 <- pool2
I0727 15:42:56.921782 12094 net.cpp:380] conv3 -> conv3
I0727 15:42:57.096545 12094 net.cpp:122] Setting up conv3
I0727 15:42:57.096568 12094 net.cpp:129] Top shape: 128 384 13 13 (8306688)
I0727 15:42:57.096573 12094 net.cpp:137] Memory required for data: 1145227264
I0727 15:42:57.096588 12094 layer_factory.hpp:77] Creating layer bn3
I0727 15:42:57.096607 12094 net.cpp:84] Creating Layer bn3
I0727 15:42:57.096619 12094 net.cpp:406] bn3 <- conv3
I0727 15:42:57.096639 12094 net.cpp:367] bn3 -> conv3 (in-place)
I0727 15:42:57.096861 12094 net.cpp:122] Setting up bn3
I0727 15:42:57.096873 12094 net.cpp:129] Top shape: 128 384 13 13 (8306688)
I0727 15:42:57.096879 12094 net.cpp:137] Memory required for data: 1178454016
I0727 15:42:57.096900 12094 layer_factory.hpp:77] Creating layer scale3
I0727 15:42:57.096920 12094 net.cpp:84] Creating Layer scale3
I0727 15:42:57.096930 12094 net.cpp:406] scale3 <- conv3
I0727 15:42:57.096949 12094 net.cpp:367] scale3 -> conv3 (in-place)
I0727 15:42:57.097015 12094 layer_factory.hpp:77] Creating layer scale3
I0727 15:42:57.097193 12094 net.cpp:122] Setting up scale3
I0727 15:42:57.097206 12094 net.cpp:129] Top shape: 128 384 13 13 (8306688)
I0727 15:42:57.097213 12094 net.cpp:137] Memory required for data: 1211680768
I0727 15:42:57.097241 12094 layer_factory.hpp:77] Creating layer relu3
I0727 15:42:57.097259 12094 net.cpp:84] Creating Layer relu3
I0727 15:42:57.097268 12094 net.cpp:406] relu3 <- conv3
I0727 15:42:57.097287 12094 net.cpp:367] relu3 -> conv3 (in-place)
I0727 15:42:57.097306 12094 net.cpp:122] Setting up relu3
I0727 15:42:57.097313 12094 net.cpp:129] Top shape: 128 384 13 13 (8306688)
I0727 15:42:57.097317 12094 net.cpp:137] Memory required for data: 1244907520
I0727 15:42:57.097324 12094 layer_factory.hpp:77] Creating layer conv4
I0727 15:42:57.097352 12094 net.cpp:84] Creating Layer conv4
I0727 15:42:57.097362 12094 net.cpp:406] conv4 <- conv3
I0727 15:42:57.097384 12094 net.cpp:380] conv4 -> conv4
I0727 15:42:57.358965 12094 net.cpp:122] Setting up conv4
I0727 15:42:57.358986 12094 net.cpp:129] Top shape: 128 384 13 13 (8306688)
I0727 15:42:57.358991 12094 net.cpp:137] Memory required for data: 1278134272
I0727 15:42:57.359005 12094 layer_factory.hpp:77] Creating layer bn4
I0727 15:42:57.359025 12094 net.cpp:84] Creating Layer bn4
I0727 15:42:57.359035 12094 net.cpp:406] bn4 <- conv4
I0727 15:42:57.359055 12094 net.cpp:367] bn4 -> conv4 (in-place)
I0727 15:42:57.359273 12094 net.cpp:122] Setting up bn4
I0727 15:42:57.359287 12094 net.cpp:129] Top shape: 128 384 13 13 (8306688)
I0727 15:42:57.359290 12094 net.cpp:137] Memory required for data: 1311361024
I0727 15:42:57.359311 12094 layer_factory.hpp:77] Creating layer scale4
I0727 15:42:57.359329 12094 net.cpp:84] Creating Layer scale4
I0727 15:42:57.359340 12094 net.cpp:406] scale4 <- conv4
I0727 15:42:57.359356 12094 net.cpp:367] scale4 -> conv4 (in-place)
I0727 15:42:57.359417 12094 layer_factory.hpp:77] Creating layer scale4
I0727 15:42:57.359601 12094 net.cpp:122] Setting up scale4
I0727 15:42:57.359614 12094 net.cpp:129] Top shape: 128 384 13 13 (8306688)
I0727 15:42:57.359618 12094 net.cpp:137] Memory required for data: 1344587776
I0727 15:42:57.359633 12094 layer_factory.hpp:77] Creating layer relu4
I0727 15:42:57.359648 12094 net.cpp:84] Creating Layer relu4
I0727 15:42:57.359659 12094 net.cpp:406] relu4 <- conv4
I0727 15:42:57.359678 12094 net.cpp:367] relu4 -> conv4 (in-place)
I0727 15:42:57.359694 12094 net.cpp:122] Setting up relu4
I0727 15:42:57.359702 12094 net.cpp:129] Top shape: 128 384 13 13 (8306688)
I0727 15:42:57.359709 12094 net.cpp:137] Memory required for data: 1377814528
I0727 15:42:57.359714 12094 layer_factory.hpp:77] Creating layer conv5
I0727 15:42:57.359735 12094 net.cpp:84] Creating Layer conv5
I0727 15:42:57.359747 12094 net.cpp:406] conv5 <- conv4
I0727 15:42:57.359769 12094 net.cpp:380] conv5 -> conv5
I0727 15:42:57.537423 12094 net.cpp:122] Setting up conv5
I0727 15:42:57.537451 12094 net.cpp:129] Top shape: 128 256 13 13 (5537792)
I0727 15:42:57.537456 12094 net.cpp:137] Memory required for data: 1399965696
I0727 15:42:57.537475 12094 layer_factory.hpp:77] Creating layer bn5
I0727 15:42:57.537500 12094 net.cpp:84] Creating Layer bn5
I0727 15:42:57.537514 12094 net.cpp:406] bn5 <- conv5
I0727 15:42:57.537535 12094 net.cpp:367] bn5 -> conv5 (in-place)
I0727 15:42:57.537781 12094 net.cpp:122] Setting up bn5
I0727 15:42:57.537792 12094 net.cpp:129] Top shape: 128 256 13 13 (5537792)
I0727 15:42:57.537796 12094 net.cpp:137] Memory required for data: 1422116864
I0727 15:42:57.537819 12094 layer_factory.hpp:77] Creating layer scale5
I0727 15:42:57.537842 12094 net.cpp:84] Creating Layer scale5
I0727 15:42:57.537853 12094 net.cpp:406] scale5 <- conv5
I0727 15:42:57.537868 12094 net.cpp:367] scale5 -> conv5 (in-place)
I0727 15:42:57.537938 12094 layer_factory.hpp:77] Creating layer scale5
I0727 15:42:57.538107 12094 net.cpp:122] Setting up scale5
I0727 15:42:57.538120 12094 net.cpp:129] Top shape: 128 256 13 13 (5537792)
I0727 15:42:57.538126 12094 net.cpp:137] Memory required for data: 1444268032
I0727 15:42:57.538141 12094 layer_factory.hpp:77] Creating layer relu5
I0727 15:42:57.538158 12094 net.cpp:84] Creating Layer relu5
I0727 15:42:57.538168 12094 net.cpp:406] relu5 <- conv5
I0727 15:42:57.538187 12094 net.cpp:367] relu5 -> conv5 (in-place)
I0727 15:42:57.538204 12094 net.cpp:122] Setting up relu5
I0727 15:42:57.538213 12094 net.cpp:129] Top shape: 128 256 13 13 (5537792)
I0727 15:42:57.538218 12094 net.cpp:137] Memory required for data: 1466419200
I0727 15:42:57.538223 12094 layer_factory.hpp:77] Creating layer pool5
I0727 15:42:57.538239 12094 net.cpp:84] Creating Layer pool5
I0727 15:42:57.538249 12094 net.cpp:406] pool5 <- conv5
I0727 15:42:57.538265 12094 net.cpp:380] pool5 -> pool5
I0727 15:42:57.538333 12094 net.cpp:122] Setting up pool5
I0727 15:42:57.538347 12094 net.cpp:129] Top shape: 128 256 6 6 (1179648)
I0727 15:42:57.538352 12094 net.cpp:137] Memory required for data: 1471137792
I0727 15:42:57.538359 12094 layer_factory.hpp:77] Creating layer fc6
I0727 15:42:57.538396 12094 net.cpp:84] Creating Layer fc6
I0727 15:42:57.538408 12094 net.cpp:406] fc6 <- pool5
I0727 15:42:57.538432 12094 net.cpp:380] fc6 -> fc6
I0727 15:43:04.989408 12094 net.cpp:122] Setting up fc6
I0727 15:43:04.989466 12094 net.cpp:129] Top shape: 128 4096 (524288)
I0727 15:43:04.989471 12094 net.cpp:137] Memory required for data: 1473234944
I0727 15:43:04.989508 12094 layer_factory.hpp:77] Creating layer bn6
I0727 15:43:04.989549 12094 net.cpp:84] Creating Layer bn6
I0727 15:43:04.989568 12094 net.cpp:406] bn6 <- fc6
I0727 15:43:04.989601 12094 net.cpp:367] bn6 -> fc6 (in-place)
I0727 15:43:04.989858 12094 net.cpp:122] Setting up bn6
I0727 15:43:04.989871 12094 net.cpp:129] Top shape: 128 4096 (524288)
I0727 15:43:04.989874 12094 net.cpp:137] Memory required for data: 1475332096
I0727 15:43:04.989930 12094 layer_factory.hpp:77] Creating layer scale6
I0727 15:43:04.989958 12094 net.cpp:84] Creating Layer scale6
I0727 15:43:04.989989 12094 net.cpp:406] scale6 <- fc6
I0727 15:43:04.990012 12094 net.cpp:367] scale6 -> fc6 (in-place)
I0727 15:43:04.990103 12094 layer_factory.hpp:77] Creating layer scale6
I0727 15:43:04.990294 12094 net.cpp:122] Setting up scale6
I0727 15:43:04.990308 12094 net.cpp:129] Top shape: 128 4096 (524288)
I0727 15:43:04.990312 12094 net.cpp:137] Memory required for data: 1477429248
I0727 15:43:04.990329 12094 layer_factory.hpp:77] Creating layer relu6
I0727 15:43:04.990347 12094 net.cpp:84] Creating Layer relu6
I0727 15:43:04.990356 12094 net.cpp:406] relu6 <- fc6
I0727 15:43:04.990375 12094 net.cpp:367] relu6 -> fc6 (in-place)
I0727 15:43:04.990396 12094 net.cpp:122] Setting up relu6
I0727 15:43:04.990406 12094 net.cpp:129] Top shape: 128 4096 (524288)
I0727 15:43:04.990409 12094 net.cpp:137] Memory required for data: 1479526400
I0727 15:43:04.990415 12094 layer_factory.hpp:77] Creating layer drop6
I0727 15:43:04.990447 12094 net.cpp:84] Creating Layer drop6
I0727 15:43:04.990455 12094 net.cpp:406] drop6 <- fc6
I0727 15:43:04.990474 12094 net.cpp:367] drop6 -> fc6 (in-place)
I0727 15:43:04.990514 12094 net.cpp:122] Setting up drop6
I0727 15:43:04.990525 12094 net.cpp:129] Top shape: 128 4096 (524288)
I0727 15:43:04.990530 12094 net.cpp:137] Memory required for data: 1481623552
I0727 15:43:04.990537 12094 layer_factory.hpp:77] Creating layer fc7
I0727 15:43:04.990564 12094 net.cpp:84] Creating Layer fc7
I0727 15:43:04.990573 12094 net.cpp:406] fc7 <- fc6
I0727 15:43:04.990597 12094 net.cpp:380] fc7 -> fc7
I0727 15:43:08.312217 12094 net.cpp:122] Setting up fc7
I0727 15:43:08.312297 12094 net.cpp:129] Top shape: 128 4096 (524288)
I0727 15:43:08.312302 12094 net.cpp:137] Memory required for data: 1483720704
I0727 15:43:08.312338 12094 layer_factory.hpp:77] Creating layer bn7
I0727 15:43:08.312382 12094 net.cpp:84] Creating Layer bn7
I0727 15:43:08.312400 12094 net.cpp:406] bn7 <- fc7
I0727 15:43:08.312431 12094 net.cpp:367] bn7 -> fc7 (in-place)
I0727 15:43:08.312690 12094 net.cpp:122] Setting up bn7
I0727 15:43:08.312701 12094 net.cpp:129] Top shape: 128 4096 (524288)
I0727 15:43:08.312705 12094 net.cpp:137] Memory required for data: 1485817856
I0727 15:43:08.312729 12094 layer_factory.hpp:77] Creating layer scale7
I0727 15:43:08.312777 12094 net.cpp:84] Creating Layer scale7
I0727 15:43:08.312788 12094 net.cpp:406] scale7 <- fc7
I0727 15:43:08.312805 12094 net.cpp:367] scale7 -> fc7 (in-place)
I0727 15:43:08.312892 12094 layer_factory.hpp:77] Creating layer scale7
I0727 15:43:08.313091 12094 net.cpp:122] Setting up scale7
I0727 15:43:08.313103 12094 net.cpp:129] Top shape: 128 4096 (524288)
I0727 15:43:08.313107 12094 net.cpp:137] Memory required for data: 1487915008
I0727 15:43:08.313123 12094 layer_factory.hpp:77] Creating layer relu7
I0727 15:43:08.313143 12094 net.cpp:84] Creating Layer relu7
I0727 15:43:08.313153 12094 net.cpp:406] relu7 <- fc7
I0727 15:43:08.313170 12094 net.cpp:367] relu7 -> fc7 (in-place)
I0727 15:43:08.313189 12094 net.cpp:122] Setting up relu7
I0727 15:43:08.313199 12094 net.cpp:129] Top shape: 128 4096 (524288)
I0727 15:43:08.313202 12094 net.cpp:137] Memory required for data: 1490012160
I0727 15:43:08.313208 12094 layer_factory.hpp:77] Creating layer drop7
I0727 15:43:08.313226 12094 net.cpp:84] Creating Layer drop7
I0727 15:43:08.313238 12094 net.cpp:406] drop7 <- fc7
I0727 15:43:08.313254 12094 net.cpp:367] drop7 -> fc7 (in-place)
I0727 15:43:08.313289 12094 net.cpp:122] Setting up drop7
I0727 15:43:08.313299 12094 net.cpp:129] Top shape: 128 4096 (524288)
I0727 15:43:08.313305 12094 net.cpp:137] Memory required for data: 1492109312
I0727 15:43:08.313313 12094 layer_factory.hpp:77] Creating layer fc8
I0727 15:43:08.313339 12094 net.cpp:84] Creating Layer fc8
I0727 15:43:08.313349 12094 net.cpp:406] fc8 <- fc7
I0727 15:43:08.313372 12094 net.cpp:380] fc8 -> fc8
I0727 15:43:09.121711 12094 net.cpp:122] Setting up fc8
I0727 15:43:09.121740 12094 net.cpp:129] Top shape: 128 1000 (128000)
I0727 15:43:09.121745 12094 net.cpp:137] Memory required for data: 1492621312
I0727 15:43:09.121765 12094 layer_factory.hpp:77] Creating layer fc8_fc8_0_split
I0727 15:43:09.121806 12094 net.cpp:84] Creating Layer fc8_fc8_0_split
I0727 15:43:09.121819 12094 net.cpp:406] fc8_fc8_0_split <- fc8
I0727 15:43:09.121843 12094 net.cpp:380] fc8_fc8_0_split -> fc8_fc8_0_split_0
I0727 15:43:09.121879 12094 net.cpp:380] fc8_fc8_0_split -> fc8_fc8_0_split_1
I0727 15:43:09.121897 12094 net.cpp:380] fc8_fc8_0_split -> fc8_fc8_0_split_2
I0727 15:43:09.121978 12094 net.cpp:122] Setting up fc8_fc8_0_split
I0727 15:43:09.121994 12094 net.cpp:129] Top shape: 128 1000 (128000)
I0727 15:43:09.122002 12094 net.cpp:129] Top shape: 128 1000 (128000)
I0727 15:43:09.122007 12094 net.cpp:129] Top shape: 128 1000 (128000)
I0727 15:43:09.122011 12094 net.cpp:137] Memory required for data: 1494157312
I0727 15:43:09.122020 12094 layer_factory.hpp:77] Creating layer loss
I0727 15:43:09.122045 12094 net.cpp:84] Creating Layer loss
I0727 15:43:09.122054 12094 net.cpp:406] loss <- fc8_fc8_0_split_0
I0727 15:43:09.122071 12094 net.cpp:406] loss <- label_data_1_split_0
I0727 15:43:09.122084 12094 net.cpp:380] loss -> loss
…
I0727 15:43:09.124131 12094 net.cpp:294] The NetState phase (1) differed from the phase (0) specified by a rule in layer data
I0727 15:43:09.124392 12094 net.cpp:51] Initializing net from parameters: 
name: "AlexNet-BN"
state {
  phase: TEST
}
layer {
  name: "data"
  type: "Data"
  top: "data"
  top: "label"
  include {
    phase: TEST
  }
  transform_param {
    mirror: false
    crop_size: 224
    mean_file: "data/imagenet_mean.binaryproto"
  }
  data_param {
    source: "/home/zhengzhe/Data/ilsvrc12/ilsvrc12_val_lmdb"
    batch_size: 50
    backend: LMDB
  }
}
layer {
  name: "conv1"
  type: "BinaryConvolution"
  bottom: "data"
  top: "conv1"
  param {
    lr_mult: 1
    decay_mult: 1
  }
  convolution_param {
    num_output: 96
    bias_term: false
    pad: 2
    kernel_size: 11
    stride: 4
    weight_filler {
      type: "msra"
    }
  }
  debug_param {
    xnorno_grad: true
  }
}
layer {
  name: "bn1"
  type: "BatchNorm"
  bottom: "conv1"
  top: "conv1"
}
layer {
  name: "scale1"
  type: "Scale"
  bottom: "conv1"
  top: "conv1"
  scale_param {
    bias_term: true
  }
}
layer {
  name: "relu1"
  type: "ReLU"
  bottom: "conv1"
  top: "conv1"
}
layer {
  name: "pool1"
  type: "Pooling"
  bottom: "conv1"
  top: "pool1"
  pooling_param {
    pool: MAX
    kernel_size: 3
    stride: 2
  }
}
layer {
  name: "conv2"
  type: "BinaryConvolution"
  bottom: "pool1"
  top: "conv2"
  param {
    lr_mult: 1
    decay_mult: 1
  }
  convolution_param {
    num_output: 256
    bias_term: false
    pad: 2
    kernel_size: 5
    weight_filler {
      type: "msra"
    }
  }
  debug_param {
    xnorno_grad: true
  }
}
layer {
  name: "bn2"
  type: "BatchNorm"
  bottom: "conv2"
  top: "conv2"
}
layer {
  name: "scale2"
  type: "Scale"
  bottom: "conv2"
  top: "conv2"
  scale_param {
    bias_term: true
  }
}
layer {
  name: "relu2"
  type: "ReLU"
  bottom: "conv2"
  top: "conv2"
}
layer {
  name: "pool2"
  type: "Pooling"
  bottom: "conv2"
  top: "pool2"
  pooling_param {
    pool: MAX
    kernel_size: 3
    stride: 2
  }
}
layer {
  name: "conv3"
  type: "BinaryConvolution"
  bottom: "pool2"
  top: "conv3"
  param {
    lr_mult: 1
    decay_mult: 1
  }
  convolution_param {
    num_output: 384
    bias_term: false
    pad: 1
    kernel_size: 3
    weight_filler {
      type: "msra"
    }
  }
  debug_param {
    xnorno_grad: true
  }
}
layer {
  name: "bn3"
  type: "BatchNorm"
  bottom: "conv3"
  top: "conv3"
}
layer {
  name: "scale3"
  type: "Scale"
  bottom: "conv3"
  top: "conv3"
  scale_param {
    bias_term: true
  }
}
layer {
  name: "relu3"
  type: "ReLU"
  bottom: "conv3"
  top: "conv3"
}
layer {
  name: "conv4"
  type: "BinaryConvolution"
  bottom: "conv3"
  top: "conv4"
  param {
    lr_mult: 1
    decay_mult: 1
  }
  convolution_param {
    num_output: 384
    bias_term: false
    pad: 1
    kernel_size: 3
    weight_filler {
      type: "msra"
    }
  }
  debug_param {
    xnorno_grad: true
  }
}
layer {
  name: "bn4"
  type: "BatchNorm"
  bottom: "conv4"
  top: "conv4"
}
layer {
  name: "scale4"
  type: "Scale"
  bottom: "conv4"
  top: "conv4"
  scale_param {
    bias_term: true
  }
}
layer {
  name: "relu4"
  type: "ReLU"
  bottom: "conv4"
  top: "conv4"
}
layer {
  name: "conv5"
  type: "BinaryConvolution"
  bottom: "conv4"
  top: "conv5"
  param {
    lr_mult: 1
    decay_mult: 1
  }
  convolution_param {
    num_output: 256
    bias_term: false
    pad: 1
    kernel_size: 3
    weight_filler {
      type: "msra"
    }
  }
  debug_param {
    xnorno_grad: true
  }
}
layer {
  name: "bn5"
  type: "BatchNorm"
  bottom: "conv5"
  top: "conv5"
}
layer {
  name: "scale5"
  type: "Scale"
  bottom: "conv5"
  top: "conv5"
  scale_param {
    bias_term: true
  }
}
layer {
  name: "relu5"
  type: "ReLU"
  bottom: "conv5"
  top: "conv5"
}
layer {
  name: "pool5"
  type: "Pooling"
  bottom: "conv5"
  top: "pool5"
  pooling_param {
    pool: MAX
    kernel_size: 3
    stride: 2
  }
}
layer {
  name: "fc6"
  type: "BinaryInnerProduct"
  bottom: "pool5"
  top: "fc6"
  param {
    lr_mult: 1
    decay_mult: 1
  }
  inner_product_param {
    num_output: 4096
    bias_term: false
    weight_filler {
      type: "msra"
    }
  }
  debug_param {
    xnorno_grad: true
  }
}
layer {
  name: "bn6"
  type: "BatchNorm"
  bottom: "fc6"
  top: "fc6"
}
layer {
  name: "scale6"
  type: "Scale"
  bottom: "fc6"
  top: "fc6"
  scale_param {
    bias_term: true
  }
}
layer {
  name: "relu6"
  type: "ReLU"
  bottom: "fc6"
  top: "fc6"
}
layer {
  name: "drop6"
  type: "Dropout"
  bottom: "fc6"
  top: "fc6"
  dropout_param {
    dropout_ratio: 0.5
  }
}
layer {
  name: "fc7"
  type: "BinaryInnerProduct"
  bottom: "fc6"
  top: "fc7"
  param {
    lr_mult: 1
    decay_mult: 1
  }
  inner_product_param {
    num_output: 4096
    bias_term: false
    weight_filler {
      type: "msra"
    }
  }
  debug_param {
    xnorno_grad: true
  }
}
layer {
  name: "bn7"
  type: "BatchNorm"
  bottom: "fc7"
  top: "fc7"
}
layer {
  name: "scale7"
  type: "Scale"
  bottom: "fc7"
  top: "fc7"
  scale_param {
    bias_term: true
  }
}
layer {
  name: "relu7"
  type: "ReLU"
  bottom: "fc7"
  top: "fc7"
}
layer {
  name: "drop7"
  type: "Dropout"
  bottom: "fc7"
  top: "fc7"
  dropout_param {
    dropout_ratio: 0.5
  }
}
layer {
  name: "fc8"
  type: "BinaryInnerProduct"
  bottom: "fc7"
  top: "fc8"
  param {
    lr_mult: 1
    decay_mult: 1
  }
  param {
    lr_mult: 2
    decay_mult: 0
  }
  inner_product_param {
    num_output: 1000
    weight_filler {
      type: "msra"
    }
    bias_filler {
      type: "constant"
      value: 0
    }
  }
  debug_param {
    xnorno_grad: true
  }
}
layer {
  name: "loss"
  type: "SoftmaxWithLoss"
  bottom: "fc8"
  bottom: "label"
  top: "loss"
}
layer {
  name: "accuracy"
  type: "Accuracy"
  bottom: "fc8"
  bottom: "label"
  top: "accuracy"
}
layer {
  name: "accuracy_5"
  type: "Accuracy"
  bottom: "fc8"
  bottom: "label"
  top: "accuracy_5"
  accuracy_param {
    top_k: 5
  }
}
I0727 15:43:09.124863 12094 layer_factory.hpp:77] Creating layer data
I0727 15:43:09.124989 12094 db_lmdb.cpp:35] Opened lmdb /home/zhengzhe/Data/ilsvrc12/ilsvrc12_val_lmdb
I0727 15:43:09.125036 12094 net.cpp:84] Creating Layer data
I0727 15:43:09.125056 12094 net.cpp:380] data -> data
I0727 15:43:09.125092 12094 net.cpp:380] data -> label
I0727 15:43:09.125133 12094 data_transformer.cpp:25] Loading mean file from: data/imagenet_mean.binaryproto
I0727 15:43:09.134238 12094 data_layer.cpp:45] output data size: 50,3,224,224
I0727 15:43:09.226155 12094 base_data_layer.cpp:72] Initializing prefetch
I0727 15:43:09.228768 12094 base_data_layer.cpp:75] Prefetch initialized.
I0727 15:43:09.228785 12094 net.cpp:122] Setting up data
I0727 15:43:09.228809 12094 net.cpp:129] Top shape: 50 3 224 224 (7526400)
I0727 15:43:09.228817 12094 net.cpp:129] Top shape: 50 (50)
I0727 15:43:09.228822 12094 net.cpp:137] Memory required for data: 30105800
I0727 15:43:09.228850 12094 layer_factory.hpp:77] Creating layer label_data_1_split
I0727 15:43:09.228899 12094 net.cpp:84] Creating Layer label_data_1_split
I0727 15:43:09.228917 12094 net.cpp:406] label_data_1_split <- label
I0727 15:43:09.228952 12094 net.cpp:380] label_data_1_split -> label_data_1_split_0
I0727 15:43:09.228988 12094 net.cpp:380] label_data_1_split -> label_data_1_split_1
I0727 15:43:09.229005 12094 net.cpp:380] label_data_1_split -> label_data_1_split_2
I0727 15:43:09.229349 12094 net.cpp:122] Setting up label_data_1_split
I0727 15:43:09.229388 12094 net.cpp:129] Top shape: 50 (50)
I0727 15:43:09.229398 12094 net.cpp:129] Top shape: 50 (50)
I0727 15:43:09.229404 12094 net.cpp:129] Top shape: 50 (50)
I0727 15:43:09.229408 12094 net.cpp:137] Memory required for data: 30106400
I0727 15:43:09.229425 12094 layer_factory.hpp:77] Creating layer conv1
I0727 15:43:09.229493 12094 net.cpp:84] Creating Layer conv1
I0727 15:43:09.229509 12094 net.cpp:406] conv1 <- data
I0727 15:43:09.229550 12094 net.cpp:380] conv1 -> conv1
I0727 15:43:09.236856 12094 net.cpp:122] Setting up conv1
I0727 15:43:09.236873 12094 net.cpp:129] Top shape: 50 96 55 55 (14520000)
I0727 15:43:09.236879 12094 net.cpp:137] Memory required for data: 88186400
I0727 15:43:09.236908 12094 layer_factory.hpp:77] Creating layer bn1
I0727 15:43:09.236930 12094 net.cpp:84] Creating Layer bn1
I0727 15:43:09.236941 12094 net.cpp:406] bn1 <- conv1
I0727 15:43:09.236959 12094 net.cpp:367] bn1 -> conv1 (in-place)
I0727 15:43:09.237232 12094 net.cpp:122] Setting up bn1
I0727 15:43:09.237246 12094 net.cpp:129] Top shape: 50 96 55 55 (14520000)
I0727 15:43:09.237251 12094 net.cpp:137] Memory required for data: 146266400
I0727 15:43:09.237288 12094 layer_factory.hpp:77] Creating layer scale1
I0727 15:43:09.237318 12094 net.cpp:84] Creating Layer scale1
I0727 15:43:09.237329 12094 net.cpp:406] scale1 <- conv1
I0727 15:43:09.237346 12094 net.cpp:367] scale1 -> conv1 (in-place)
I0727 15:43:09.237423 12094 layer_factory.hpp:77] Creating layer scale1
I0727 15:43:09.237643 12094 net.cpp:122] Setting up scale1
I0727 15:43:09.237658 12094 net.cpp:129] Top shape: 50 96 55 55 (14520000)
I0727 15:43:09.237663 12094 net.cpp:137] Memory required for data: 204346400
I0727 15:43:09.237689 12094 layer_factory.hpp:77] Creating layer relu1
I0727 15:43:09.237709 12094 net.cpp:84] Creating Layer relu1
I0727 15:43:09.237720 12094 net.cpp:406] relu1 <- conv1
I0727 15:43:09.237736 12094 net.cpp:367] relu1 -> conv1 (in-place)
I0727 15:43:09.237754 12094 net.cpp:122] Setting up relu1
I0727 15:43:09.237763 12094 net.cpp:129] Top shape: 50 96 55 55 (14520000)
I0727 15:43:09.237768 12094 net.cpp:137] Memory required for data: 262426400
I0727 15:43:09.237774 12094 layer_factory.hpp:77] Creating layer pool1
I0727 15:43:09.237794 12094 net.cpp:84] Creating Layer pool1
I0727 15:43:09.237802 12094 net.cpp:406] pool1 <- conv1
I0727 15:43:09.237820 12094 net.cpp:380] pool1 -> pool1
I0727 15:43:09.237890 12094 net.cpp:122] Setting up pool1
I0727 15:43:09.237902 12094 net.cpp:129] Top shape: 50 96 27 27 (3499200)
I0727 15:43:09.237908 12094 net.cpp:137] Memory required for data: 276423200
I0727 15:43:09.237916 12094 layer_factory.hpp:77] Creating layer conv2
I0727 15:43:09.237939 12094 net.cpp:84] Creating Layer conv2
I0727 15:43:09.237949 12094 net.cpp:406] conv2 <- pool1
I0727 15:43:09.237972 12094 net.cpp:380] conv2 -> conv2
I0727 15:43:09.359978 12094 net.cpp:122] Setting up conv2
I0727 15:43:09.360024 12094 net.cpp:129] Top shape: 50 256 27 27 (9331200)
I0727 15:43:09.360030 12094 net.cpp:137] Memory required for data: 313748000
I0727 15:43:09.360049 12094 layer_factory.hpp:77] Creating layer bn2
I0727 15:43:09.360076 12094 net.cpp:84] Creating Layer bn2
I0727 15:43:09.360088 12094 net.cpp:406] bn2 <- conv2
I0727 15:43:09.360111 12094 net.cpp:367] bn2 -> conv2 (in-place)
I0727 15:43:09.360365 12094 net.cpp:122] Setting up bn2
I0727 15:43:09.360378 12094 net.cpp:129] Top shape: 50 256 27 27 (9331200)
I0727 15:43:09.360383 12094 net.cpp:137] Memory required for data: 351072800
I0727 15:43:09.360420 12094 layer_factory.hpp:77] Creating layer scale2
I0727 15:43:09.360443 12094 net.cpp:84] Creating Layer scale2
I0727 15:43:09.360453 12094 net.cpp:406] scale2 <- conv2
I0727 15:43:09.360473 12094 net.cpp:367] scale2 -> conv2 (in-place)
I0727 15:43:09.360556 12094 layer_factory.hpp:77] Creating layer scale2
I0727 15:43:09.360754 12094 net.cpp:122] Setting up scale2
I0727 15:43:09.360769 12094 net.cpp:129] Top shape: 50 256 27 27 (9331200)
I0727 15:43:09.360772 12094 net.cpp:137] Memory required for data: 388397600
I0727 15:43:09.360787 12094 layer_factory.hpp:77] Creating layer relu2
I0727 15:43:09.360805 12094 net.cpp:84] Creating Layer relu2
I0727 15:43:09.360816 12094 net.cpp:406] relu2 <- conv2
I0727 15:43:09.360833 12094 net.cpp:367] relu2 -> conv2 (in-place)
I0727 15:43:09.360853 12094 net.cpp:122] Setting up relu2
I0727 15:43:09.360862 12094 net.cpp:129] Top shape: 50 256 27 27 (9331200)
I0727 15:43:09.360868 12094 net.cpp:137] Memory required for data: 425722400
I0727 15:43:09.360873 12094 layer_factory.hpp:77] Creating layer pool2
I0727 15:43:09.360891 12094 net.cpp:84] Creating Layer pool2
I0727 15:43:09.360899 12094 net.cpp:406] pool2 <- conv2
I0727 15:43:09.360918 12094 net.cpp:380] pool2 -> pool2
I0727 15:43:09.360992 12094 net.cpp:122] Setting up pool2
I0727 15:43:09.361007 12094 net.cpp:129] Top shape: 50 256 13 13 (2163200)
I0727 15:43:09.361012 12094 net.cpp:137] Memory required for data: 434375200
I0727 15:43:09.361026 12094 layer_factory.hpp:77] Creating layer conv3
I0727 15:43:09.361053 12094 net.cpp:84] Creating Layer conv3
I0727 15:43:09.361064 12094 net.cpp:406] conv3 <- pool2
I0727 15:43:09.361088 12094 net.cpp:380] conv3 -> conv3
I0727 15:43:09.536579 12094 net.cpp:122] Setting up conv3
I0727 15:43:09.536602 12094 net.cpp:129] Top shape: 50 384 13 13 (3244800)
I0727 15:43:09.536607 12094 net.cpp:137] Memory required for data: 447354400
I0727 15:43:09.536622 12094 layer_factory.hpp:77] Creating layer bn3
I0727 15:43:09.536640 12094 net.cpp:84] Creating Layer bn3
I0727 15:43:09.536653 12094 net.cpp:406] bn3 <- conv3
I0727 15:43:09.536672 12094 net.cpp:367] bn3 -> conv3 (in-place)
I0727 15:43:09.536921 12094 net.cpp:122] Setting up bn3
I0727 15:43:09.536933 12094 net.cpp:129] Top shape: 50 384 13 13 (3244800)
I0727 15:43:09.536938 12094 net.cpp:137] Memory required for data: 460333600
I0727 15:43:09.536960 12094 layer_factory.hpp:77] Creating layer scale3
I0727 15:43:09.536979 12094 net.cpp:84] Creating Layer scale3
I0727 15:43:09.536989 12094 net.cpp:406] scale3 <- conv3
I0727 15:43:09.537006 12094 net.cpp:367] scale3 -> conv3 (in-place)
I0727 15:43:09.537087 12094 layer_factory.hpp:77] Creating layer scale3
I0727 15:43:09.537266 12094 net.cpp:122] Setting up scale3
I0727 15:43:09.537281 12094 net.cpp:129] Top shape: 50 384 13 13 (3244800)
I0727 15:43:09.537284 12094 net.cpp:137] Memory required for data: 473312800
I0727 15:43:09.537312 12094 layer_factory.hpp:77] Creating layer relu3
I0727 15:43:09.537330 12094 net.cpp:84] Creating Layer relu3
I0727 15:43:09.537341 12094 net.cpp:406] relu3 <- conv3
I0727 15:43:09.537359 12094 net.cpp:367] relu3 -> conv3 (in-place)
I0727 15:43:09.537379 12094 net.cpp:122] Setting up relu3
I0727 15:43:09.537387 12094 net.cpp:129] Top shape: 50 384 13 13 (3244800)
I0727 15:43:09.537394 12094 net.cpp:137] Memory required for data: 486292000
I0727 15:43:09.537400 12094 layer_factory.hpp:77] Creating layer conv4
I0727 15:43:09.537428 12094 net.cpp:84] Creating Layer conv4
I0727 15:43:09.537452 12094 net.cpp:406] conv4 <- conv3
I0727 15:43:09.537483 12094 net.cpp:380] conv4 -> conv4
I0727 15:43:09.799324 12094 net.cpp:122] Setting up conv4
I0727 15:43:09.799345 12094 net.cpp:129] Top shape: 50 384 13 13 (3244800)
I0727 15:43:09.799350 12094 net.cpp:137] Memory required for data: 499271200
I0727 15:43:09.799365 12094 layer_factory.hpp:77] Creating layer bn4
I0727 15:43:09.799384 12094 net.cpp:84] Creating Layer bn4
I0727 15:43:09.799396 12094 net.cpp:406] bn4 <- conv4
I0727 15:43:09.799415 12094 net.cpp:367] bn4 -> conv4 (in-place)
I0727 15:43:09.799659 12094 net.cpp:122] Setting up bn4
I0727 15:43:09.799670 12094 net.cpp:129] Top shape: 50 384 13 13 (3244800)
I0727 15:43:09.799674 12094 net.cpp:137] Memory required for data: 512250400
I0727 15:43:09.799696 12094 layer_factory.hpp:77] Creating layer scale4
I0727 15:43:09.799717 12094 net.cpp:84] Creating Layer scale4
I0727 15:43:09.799726 12094 net.cpp:406] scale4 <- conv4
I0727 15:43:09.799743 12094 net.cpp:367] scale4 -> conv4 (in-place)
I0727 15:43:09.799819 12094 layer_factory.hpp:77] Creating layer scale4
I0727 15:43:09.799996 12094 net.cpp:122] Setting up scale4
I0727 15:43:09.800009 12094 net.cpp:129] Top shape: 50 384 13 13 (3244800)
I0727 15:43:09.800014 12094 net.cpp:137] Memory required for data: 525229600
I0727 15:43:09.800029 12094 layer_factory.hpp:77] Creating layer relu4
I0727 15:43:09.800045 12094 net.cpp:84] Creating Layer relu4
I0727 15:43:09.800055 12094 net.cpp:406] relu4 <- conv4
I0727 15:43:09.800072 12094 net.cpp:367] relu4 -> conv4 (in-place)
I0727 15:43:09.800091 12094 net.cpp:122] Setting up relu4
I0727 15:43:09.800101 12094 net.cpp:129] Top shape: 50 384 13 13 (3244800)
I0727 15:43:09.800107 12094 net.cpp:137] Memory required for data: 538208800
I0727 15:43:09.800112 12094 layer_factory.hpp:77] Creating layer conv5
I0727 15:43:09.800132 12094 net.cpp:84] Creating Layer conv5
I0727 15:43:09.800143 12094 net.cpp:406] conv5 <- conv4
I0727 15:43:09.800164 12094 net.cpp:380] conv5 -> conv5
I0727 15:43:09.975093 12094 net.cpp:122] Setting up conv5
I0727 15:43:09.975114 12094 net.cpp:129] Top shape: 50 256 13 13 (2163200)
I0727 15:43:09.975119 12094 net.cpp:137] Memory required for data: 546861600
I0727 15:43:09.975134 12094 layer_factory.hpp:77] Creating layer bn5
I0727 15:43:09.975152 12094 net.cpp:84] Creating Layer bn5
I0727 15:43:09.975163 12094 net.cpp:406] bn5 <- conv5
I0727 15:43:09.975184 12094 net.cpp:367] bn5 -> conv5 (in-place)
I0727 15:43:09.975427 12094 net.cpp:122] Setting up bn5
I0727 15:43:09.975440 12094 net.cpp:129] Top shape: 50 256 13 13 (2163200)
I0727 15:43:09.975443 12094 net.cpp:137] Memory required for data: 555514400
I0727 15:43:09.975466 12094 layer_factory.hpp:77] Creating layer scale5
I0727 15:43:09.975484 12094 net.cpp:84] Creating Layer scale5
I0727 15:43:09.975493 12094 net.cpp:406] scale5 <- conv5
I0727 15:43:09.975510 12094 net.cpp:367] scale5 -> conv5 (in-place)
I0727 15:43:09.975592 12094 layer_factory.hpp:77] Creating layer scale5
I0727 15:43:09.975764 12094 net.cpp:122] Setting up scale5
I0727 15:43:09.975776 12094 net.cpp:129] Top shape: 50 256 13 13 (2163200)
I0727 15:43:09.975780 12094 net.cpp:137] Memory required for data: 564167200
I0727 15:43:09.975796 12094 layer_factory.hpp:77] Creating layer relu5
I0727 15:43:09.975813 12094 net.cpp:84] Creating Layer relu5
I0727 15:43:09.975822 12094 net.cpp:406] relu5 <- conv5
I0727 15:43:09.975841 12094 net.cpp:367] relu5 -> conv5 (in-place)
I0727 15:43:09.975859 12094 net.cpp:122] Setting up relu5
I0727 15:43:09.975867 12094 net.cpp:129] Top shape: 50 256 13 13 (2163200)
I0727 15:43:09.975872 12094 net.cpp:137] Memory required for data: 572820000
I0727 15:43:09.975878 12094 layer_factory.hpp:77] Creating layer pool5
I0727 15:43:09.975895 12094 net.cpp:84] Creating Layer pool5
I0727 15:43:09.975903 12094 net.cpp:406] pool5 <- conv5
I0727 15:43:09.975919 12094 net.cpp:380] pool5 -> pool5
I0727 15:43:09.975989 12094 net.cpp:122] Setting up pool5
I0727 15:43:09.976003 12094 net.cpp:129] Top shape: 50 256 6 6 (460800)
I0727 15:43:09.976024 12094 net.cpp:137] Memory required for data: 574663200
I0727 15:43:09.976032 12094 layer_factory.hpp:77] Creating layer fc6
I0727 15:43:09.976059 12094 net.cpp:84] Creating Layer fc6
I0727 15:43:09.976070 12094 net.cpp:406] fc6 <- pool5
I0727 15:43:09.976094 12094 net.cpp:380] fc6 -> fc6
I0727 15:43:17.511291 12094 net.cpp:122] Setting up fc6
I0727 15:43:17.511356 12094 net.cpp:129] Top shape: 50 4096 (204800)
I0727 15:43:17.511363 12094 net.cpp:137] Memory required for data: 575482400
I0727 15:43:17.511402 12094 layer_factory.hpp:77] Creating layer bn6
I0727 15:43:17.511446 12094 net.cpp:84] Creating Layer bn6
I0727 15:43:17.511466 12094 net.cpp:406] bn6 <- fc6
I0727 15:43:17.511497 12094 net.cpp:367] bn6 -> fc6 (in-place)
I0727 15:43:17.511818 12094 net.cpp:122] Setting up bn6
I0727 15:43:17.511831 12094 net.cpp:129] Top shape: 50 4096 (204800)
I0727 15:43:17.511834 12094 net.cpp:137] Memory required for data: 576301600
I0727 15:43:17.511886 12094 layer_factory.hpp:77] Creating layer scale6
I0727 15:43:17.511914 12094 net.cpp:84] Creating Layer scale6
I0727 15:43:17.511924 12094 net.cpp:406] scale6 <- fc6
I0727 15:43:17.511942 12094 net.cpp:367] scale6 -> fc6 (in-place)
I0727 15:43:17.512053 12094 layer_factory.hpp:77] Creating layer scale6
I0727 15:43:17.512250 12094 net.cpp:122] Setting up scale6
I0727 15:43:17.512264 12094 net.cpp:129] Top shape: 50 4096 (204800)
I0727 15:43:17.512269 12094 net.cpp:137] Memory required for data: 577120800
I0727 15:43:17.512285 12094 layer_factory.hpp:77] Creating layer relu6
I0727 15:43:17.512303 12094 net.cpp:84] Creating Layer relu6
I0727 15:43:17.512312 12094 net.cpp:406] relu6 <- fc6
I0727 15:43:17.512331 12094 net.cpp:367] relu6 -> fc6 (in-place)
I0727 15:43:17.512352 12094 net.cpp:122] Setting up relu6
I0727 15:43:17.512361 12094 net.cpp:129] Top shape: 50 4096 (204800)
I0727 15:43:17.512364 12094 net.cpp:137] Memory required for data: 577940000
I0727 15:43:17.512370 12094 layer_factory.hpp:77] Creating layer drop6
I0727 15:43:17.512389 12094 net.cpp:84] Creating Layer drop6
I0727 15:43:17.512399 12094 net.cpp:406] drop6 <- fc6
I0727 15:43:17.512414 12094 net.cpp:367] drop6 -> fc6 (in-place)
I0727 15:43:17.512454 12094 net.cpp:122] Setting up drop6
I0727 15:43:17.512465 12094 net.cpp:129] Top shape: 50 4096 (204800)
I0727 15:43:17.512470 12094 net.cpp:137] Memory required for data: 578759200
I0727 15:43:17.512475 12094 layer_factory.hpp:77] Creating layer fc7
I0727 15:43:17.512508 12094 net.cpp:84] Creating Layer fc7
I0727 15:43:17.512518 12094 net.cpp:406] fc7 <- fc6
I0727 15:43:17.512542 12094 net.cpp:380] fc7 -> fc7
I0727 15:43:20.848114 12094 net.cpp:122] Setting up fc7
I0727 15:43:20.848178 12094 net.cpp:129] Top shape: 50 4096 (204800)
I0727 15:43:20.848184 12094 net.cpp:137] Memory required for data: 579578400
I0727 15:43:20.848224 12094 layer_factory.hpp:77] Creating layer bn7
I0727 15:43:20.848266 12094 net.cpp:84] Creating Layer bn7
I0727 15:43:20.848284 12094 net.cpp:406] bn7 <- fc7
I0727 15:43:20.848317 12094 net.cpp:367] bn7 -> fc7 (in-place)
I0727 15:43:20.848623 12094 net.cpp:122] Setting up bn7
I0727 15:43:20.848635 12094 net.cpp:129] Top shape: 50 4096 (204800)
I0727 15:43:20.848639 12094 net.cpp:137] Memory required for data: 580397600
I0727 15:43:20.848664 12094 layer_factory.hpp:77] Creating layer scale7
I0727 15:43:20.848711 12094 net.cpp:84] Creating Layer scale7
I0727 15:43:20.848721 12094 net.cpp:406] scale7 <- fc7
I0727 15:43:20.848739 12094 net.cpp:367] scale7 -> fc7 (in-place)
I0727 15:43:20.848850 12094 layer_factory.hpp:77] Creating layer scale7
I0727 15:43:20.849061 12094 net.cpp:122] Setting up scale7
I0727 15:43:20.849074 12094 net.cpp:129] Top shape: 50 4096 (204800)
I0727 15:43:20.849078 12094 net.cpp:137] Memory required for data: 581216800
I0727 15:43:20.849095 12094 layer_factory.hpp:77] Creating layer relu7
I0727 15:43:20.849113 12094 net.cpp:84] Creating Layer relu7
I0727 15:43:20.849123 12094 net.cpp:406] relu7 <- fc7
I0727 15:43:20.849143 12094 net.cpp:367] relu7 -> fc7 (in-place)
I0727 15:43:20.849164 12094 net.cpp:122] Setting up relu7
I0727 15:43:20.849195 12094 net.cpp:129] Top shape: 50 4096 (204800)
I0727 15:43:20.849200 12094 net.cpp:137] Memory required for data: 582036000
I0727 15:43:20.849206 12094 layer_factory.hpp:77] Creating layer drop7
I0727 15:43:20.849228 12094 net.cpp:84] Creating Layer drop7
I0727 15:43:20.849236 12094 net.cpp:406] drop7 <- fc7
I0727 15:43:20.849253 12094 net.cpp:367] drop7 -> fc7 (in-place)
I0727 15:43:20.849299 12094 net.cpp:122] Setting up drop7
I0727 15:43:20.849310 12094 net.cpp:129] Top shape: 50 4096 (204800)
I0727 15:43:20.849314 12094 net.cpp:137] Memory required for data: 582855200
I0727 15:43:20.849321 12094 layer_factory.hpp:77] Creating layer fc8
I0727 15:43:20.849354 12094 net.cpp:84] Creating Layer fc8
I0727 15:43:20.849364 12094 net.cpp:406] fc8 <- fc7
I0727 15:43:20.849388 12094 net.cpp:380] fc8 -> fc8
I0727 15:43:21.657260 12094 net.cpp:122] Setting up fc8
I0727 15:43:21.657287 12094 net.cpp:129] Top shape: 50 1000 (50000)
I0727 15:43:21.657292 12094 net.cpp:137] Memory required for data: 583055200
I0727 15:43:21.657312 12094 layer_factory.hpp:77] Creating layer fc8_fc8_0_split
I0727 15:43:21.657333 12094 net.cpp:84] Creating Layer fc8_fc8_0_split
I0727 15:43:21.657346 12094 net.cpp:406] fc8_fc8_0_split <- fc8
I0727 15:43:21.657368 12094 net.cpp:380] fc8_fc8_0_split -> fc8_fc8_0_split_0
I0727 15:43:21.657407 12094 net.cpp:380] fc8_fc8_0_split -> fc8_fc8_0_split_1
I0727 15:43:21.657424 12094 net.cpp:380] fc8_fc8_0_split -> fc8_fc8_0_split_2
I0727 15:43:21.657502 12094 net.cpp:122] Setting up fc8_fc8_0_split
I0727 15:43:21.657518 12094 net.cpp:129] Top shape: 50 1000 (50000)
I0727 15:43:21.657526 12094 net.cpp:129] Top shape: 50 1000 (50000)
I0727 15:43:21.657531 12094 net.cpp:129] Top shape: 50 1000 (50000)
I0727 15:43:21.657533 12094 net.cpp:137] Memory required for data: 583655200
I0727 15:43:21.657542 12094 layer_factory.hpp:77] Creating layer loss
I0727 15:43:21.657557 12094 net.cpp:84] Creating Layer loss
I0727 15:43:21.657568 12094 net.cpp:406] loss <- fc8_fc8_0_split_0
I0727 15:43:21.657585 12094 net.cpp:406] loss <- label_data_1_split_0
I0727 15:43:21.657603 12094 net.cpp:380] loss -> loss
…
