…
I0911 21:03:27.807237 17520 net.cpp:294] The NetState phase (0) differed from the phase (1) specified by a rule in layer accuracy_5
I0911 21:03:27.807406 17520 net.cpp:51] Initializing net from parameters: 
name: "AlexNet-BN"
state {
  phase: TRAIN
  level: 0
  stage: ""
}
layer {
  name: "data"
  type: "Data"
  top: "data"
  top: "label"
  include {
    phase: TRAIN
  }
  transform_param {
    mirror: true
    crop_size: 224
    mean_value: 103.939
    mean_value: 116.779
    mean_value: 123.68
  }
  data_param {
    source: "/mnt/data/ilsvrc12/origin/ilsvrc12_train_lmdb"
    batch_size: 128
    backend: LMDB
  }
}
layer {
  name: "conv1"
  type: "Convolution"
  bottom: "data"
  top: "conv1"
  param {
    lr_mult: 1
    decay_mult: 1
  }
  param {
    lr_mult: 2
    decay_mult: 0
  }
  convolution_param {
    num_output: 96
    pad: 2
    kernel_size: 11
    stride: 4
    weight_filler {
      type: "gaussian"
      std: 0.01
    }
    bias_filler {
      type: "constant"
      value: 0
    }
  }
}
layer {
  name: "bn1"
  type: "BatchNorm"
  bottom: "conv1"
  top: "conv1"
}
layer {
  name: "scale1"
  type: "Scale"
  bottom: "conv1"
  top: "conv1"
  scale_param {
    bias_term: true
  }
}
layer {
  name: "relu1"
  type: "ReLU"
  bottom: "conv1"
  top: "conv1"
}
layer {
  name: "pool1"
  type: "Pooling"
  bottom: "conv1"
  top: "pool1"
  pooling_param {
    pool: MAX
    kernel_size: 3
    stride: 2
  }
}
layer {
  name: "conv2"
  type: "BinaryConvolution"
  bottom: "pool1"
  top: "conv2"
  param {
    lr_mult: 1
    decay_mult: 1
  }
  param {
    lr_mult: 2
    decay_mult: 0
  }
  convolution_param {
    num_output: 256
    pad: 2
    kernel_size: 5
    weight_filler {
      type: "gaussian"
      std: 0.01
    }
    bias_filler {
      type: "constant"
      value: 0.1
    }
  }
  debug_param {
    xnorno_grad: true
  }
}
layer {
  name: "bn2"
  type: "BatchNorm"
  bottom: "conv2"
  top: "conv2"
}
layer {
  name: "scale2"
  type: "Scale"
  bottom: "conv2"
  top: "conv2"
  scale_param {
    bias_term: true
  }
}
layer {
  name: "relu2"
  type: "ReLU"
  bottom: "conv2"
  top: "conv2"
}
layer {
  name: "pool2"
  type: "Pooling"
  bottom: "conv2"
  top: "pool2"
  pooling_param {
    pool: MAX
    kernel_size: 3
    stride: 2
  }
}
layer {
  name: "conv3"
  type: "BinaryConvolution"
  bottom: "pool2"
  top: "conv3"
  param {
    lr_mult: 1
    decay_mult: 1
  }
  param {
    lr_mult: 2
    decay_mult: 0
  }
  convolution_param {
    num_output: 384
    pad: 1
    kernel_size: 3
    weight_filler {
      type: "gaussian"
      std: 0.01
    }
    bias_filler {
      type: "constant"
      value: 0
    }
  }
  debug_param {
    xnorno_grad: true
  }
}
layer {
  name: "bn3"
  type: "BatchNorm"
  bottom: "conv3"
  top: "conv3"
}
layer {
  name: "scale3"
  type: "Scale"
  bottom: "conv3"
  top: "conv3"
  scale_param {
    bias_term: true
  }
}
layer {
  name: "relu3"
  type: "ReLU"
  bottom: "conv3"
  top: "conv3"
}
layer {
  name: "conv4"
  type: "BinaryConvolution"
  bottom: "conv3"
  top: "conv4"
  param {
    lr_mult: 1
    decay_mult: 1
  }
  param {
    lr_mult: 2
    decay_mult: 0
  }
  convolution_param {
    num_output: 384
    pad: 1
    kernel_size: 3
    weight_filler {
      type: "gaussian"
      std: 0.01
    }
    bias_filler {
      type: "constant"
      value: 0.1
    }
  }
  debug_param {
    xnorno_grad: true
  }
}
layer {
  name: "bn4"
  type: "BatchNorm"
  bottom: "conv4"
  top: "conv4"
}
layer {
  name: "scale4"
  type: "Scale"
  bottom: "conv4"
  top: "conv4"
  scale_param {
    bias_term: true
  }
}
layer {
  name: "relu4"
  type: "ReLU"
  bottom: "conv4"
  top: "conv4"
}
layer {
  name: "conv5"
  type: "BinaryConvolution"
  bottom: "conv4"
  top: "conv5"
  param {
    lr_mult: 1
    decay_mult: 1
  }
  param {
    lr_mult: 2
    decay_mult: 0
  }
  convolution_param {
    num_output: 256
    pad: 1
    kernel_size: 3
    weight_filler {
      type: "gaussian"
      std: 0.01
    }
    bias_filler {
      type: "constant"
      value: 0.1
    }
  }
  debug_param {
    xnorno_grad: true
  }
}
layer {
  name: "bn5"
  type: "BatchNorm"
  bottom: "conv5"
  top: "conv5"
}
layer {
  name: "scale5"
  type: "Scale"
  bottom: "conv5"
  top: "conv5"
  scale_param {
    bias_term: true
  }
}
layer {
  name: "relu5"
  type: "ReLU"
  bottom: "conv5"
  top: "conv5"
}
layer {
  name: "pool5"
  type: "Pooling"
  bottom: "conv5"
  top: "pool5"
  pooling_param {
    pool: MAX
    kernel_size: 3
    stride: 2
  }
}
layer {
  name: "drop6"
  type: "Dropout"
  bottom: "pool5"
  top: "pool5"
  dropout_param {
    dropout_ratio: 0.1
  }
}
layer {
  name: "fc6"
  type: "BinaryInnerProduct"
  bottom: "pool5"
  top: "fc6"
  param {
    lr_mult: 1
    decay_mult: 1
  }
  param {
    lr_mult: 2
    decay_mult: 0
  }
  inner_product_param {
    num_output: 4096
    weight_filler {
      type: "gaussian"
      std: 0.005
    }
    bias_filler {
      type: "constant"
      value: 0.1
    }
  }
  debug_param {
    xnorno_grad: true
  }
}
layer {
  name: "bn6"
  type: "BatchNorm"
  bottom: "fc6"
  top: "fc6"
}
layer {
  name: "scale6"
  type: "Scale"
  bottom: "fc6"
  top: "fc6"
  scale_param {
    bias_term: true
  }
}
layer {
  name: "relu6"
  type: "ReLU"
  bottom: "fc6"
  top: "fc6"
}
layer {
  name: "drop7"
  type: "Dropout"
  bottom: "fc6"
  top: "fc6"
  dropout_param {
    dropout_ratio: 0.1
  }
}
layer {
  name: "fc7"
  type: "BinaryInnerProduct"
  bottom: "fc6"
  top: "fc7"
  param {
    lr_mult: 1
    decay_mult: 1
  }
  param {
    lr_mult: 2
    decay_mult: 0
  }
  inner_product_param {
    num_output: 4096
    weight_filler {
      type: "gaussian"
      std: 0.005
    }
    bias_filler {
      type: "constant"
      value: 0.1
    }
  }
  debug_param {
    xnorno_grad: true
  }
}
layer {
  name: "bn7"
  type: "BatchNorm"
  bottom: "fc7"
  top: "fc7"
}
layer {
  name: "scale7"
  type: "Scale"
  bottom: "fc7"
  top: "fc7"
  scale_param {
    bias_term: true
  }
}
layer {
  name: "relu7"
  type: "ReLU"
  bottom: "fc7"
  top: "fc7"
}
layer {
  name: "fc8"
  type: "InnerProduct"
  bottom: "fc7"
  top: "fc8"
  param {
    lr_mult: 1
    decay_mult: 1
  }
  param {
    lr_mult: 2
    decay_mult: 0
  }
  inner_product_param {
    num_output: 1000
    weight_filler {
      type: "gaussian"
      std: 0.01
    }
    bias_filler {
      type: "constant"
      value: 0
    }
  }
}
layer {
  name: "accuracy_5_TRAIN"
  type: "Accuracy"
  bottom: "fc8"
  bottom: "label"
  top: "accuracy_5_TRAIN"
  include {
    phase: TRAIN
  }
  accuracy_param {
    top_k: 5
  }
}
layer {
  name: "loss"
  type: "SoftmaxWithLoss"
  bottom: "fc8"
  bottom: "label"
  top: "loss"
}
I0911 21:03:27.808045 17520 layer_factory.hpp:77] Creating layer data
I0911 21:03:27.808220 17520 db_lmdb.cpp:35] Opened lmdb /mnt/data/ilsvrc12/origin/ilsvrc12_train_lmdb
I0911 21:03:27.808274 17520 net.cpp:84] Creating Layer data
I0911 21:03:27.808295 17520 net.cpp:380] data -> data
I0911 21:03:27.808408 17520 net.cpp:380] data -> label
I0911 21:03:27.809290 17520 data_layer.cpp:45] output data size: 128,3,224,224
I0911 21:03:27.920941 17520 base_data_layer.cpp:72] Initializing prefetch
I0911 21:03:27.921120 17520 base_data_layer.cpp:75] Prefetch initialized.
I0911 21:03:27.921142 17520 net.cpp:122] Setting up data
I0911 21:03:27.921182 17520 net.cpp:129] Top shape: 128 3 224 224 (19267584)
I0911 21:03:27.921211 17520 net.cpp:129] Top shape: 128 (128)
I0911 21:03:27.921216 17520 net.cpp:137] Memory required for data: 77070848
I0911 21:03:27.921245 17520 layer_factory.hpp:77] Creating layer label_data_1_split
I0911 21:03:27.921339 17520 net.cpp:84] Creating Layer label_data_1_split
I0911 21:03:27.921370 17520 net.cpp:406] label_data_1_split <- label
I0911 21:03:27.921434 17520 net.cpp:380] label_data_1_split -> label_data_1_split_0
I0911 21:03:27.921471 17520 net.cpp:380] label_data_1_split -> label_data_1_split_1
I0911 21:03:27.921532 17520 net.cpp:122] Setting up label_data_1_split
I0911 21:03:27.921545 17520 net.cpp:129] Top shape: 128 (128)
I0911 21:03:27.921556 17520 net.cpp:129] Top shape: 128 (128)
I0911 21:03:27.921561 17520 net.cpp:137] Memory required for data: 77071872
I0911 21:03:27.921566 17520 layer_factory.hpp:77] Creating layer conv1
I0911 21:03:27.921617 17520 net.cpp:84] Creating Layer conv1
I0911 21:03:27.921627 17520 net.cpp:406] conv1 <- data
I0911 21:03:27.921648 17520 net.cpp:380] conv1 -> conv1
I0911 21:03:28.296703 17520 cudnn_conv_layer.cpp:194] Reallocating workspace storage: 127416
I0911 21:03:28.296890 17520 net.cpp:122] Setting up conv1
I0911 21:03:28.296921 17520 net.cpp:129] Top shape: 128 96 55 55 (37171200)
I0911 21:03:28.296926 17520 net.cpp:137] Memory required for data: 225756672
I0911 21:03:28.297030 17520 layer_factory.hpp:77] Creating layer bn1
I0911 21:03:28.297081 17520 net.cpp:84] Creating Layer bn1
I0911 21:03:28.297094 17520 net.cpp:406] bn1 <- conv1
I0911 21:03:28.297117 17520 net.cpp:367] bn1 -> conv1 (in-place)
I0911 21:03:28.297396 17520 net.cpp:122] Setting up bn1
I0911 21:03:28.297415 17520 net.cpp:129] Top shape: 128 96 55 55 (37171200)
I0911 21:03:28.297420 17520 net.cpp:137] Memory required for data: 374441472
I0911 21:03:28.297461 17520 layer_factory.hpp:77] Creating layer scale1
I0911 21:03:28.297508 17520 net.cpp:84] Creating Layer scale1
I0911 21:03:28.297516 17520 net.cpp:406] scale1 <- conv1
I0911 21:03:28.297530 17520 net.cpp:367] scale1 -> conv1 (in-place)
I0911 21:03:28.297617 17520 layer_factory.hpp:77] Creating layer scale1
I0911 21:03:28.297811 17520 net.cpp:122] Setting up scale1
I0911 21:03:28.297821 17520 net.cpp:129] Top shape: 128 96 55 55 (37171200)
I0911 21:03:28.297827 17520 net.cpp:137] Memory required for data: 523126272
I0911 21:03:28.297839 17520 layer_factory.hpp:77] Creating layer relu1
I0911 21:03:28.297857 17520 net.cpp:84] Creating Layer relu1
I0911 21:03:28.297865 17520 net.cpp:406] relu1 <- conv1
I0911 21:03:28.297879 17520 net.cpp:367] relu1 -> conv1 (in-place)
I0911 21:03:28.298326 17520 net.cpp:122] Setting up relu1
I0911 21:03:28.298337 17520 net.cpp:129] Top shape: 128 96 55 55 (37171200)
I0911 21:03:28.298342 17520 net.cpp:137] Memory required for data: 671811072
I0911 21:03:28.298348 17520 layer_factory.hpp:77] Creating layer pool1
I0911 21:03:28.298370 17520 net.cpp:84] Creating Layer pool1
I0911 21:03:28.298378 17520 net.cpp:406] pool1 <- conv1
I0911 21:03:28.298395 17520 net.cpp:380] pool1 -> pool1
I0911 21:03:28.298465 17520 net.cpp:122] Setting up pool1
I0911 21:03:28.298476 17520 net.cpp:129] Top shape: 128 96 27 27 (8957952)
I0911 21:03:28.298481 17520 net.cpp:137] Memory required for data: 707642880
I0911 21:03:28.298487 17520 layer_factory.hpp:77] Creating layer conv2
I0911 21:03:28.298524 17520 net.cpp:84] Creating Layer conv2
I0911 21:03:28.298534 17520 net.cpp:406] conv2 <- pool1
I0911 21:03:28.298554 17520 net.cpp:380] conv2 -> conv2
I0911 21:03:28.379978 17520 net.cpp:122] Setting up conv2
I0911 21:03:28.380017 17520 net.cpp:129] Top shape: 128 256 27 27 (23887872)
I0911 21:03:28.380023 17520 net.cpp:137] Memory required for data: 803194368
I0911 21:03:28.380079 17520 layer_factory.hpp:77] Creating layer bn2
I0911 21:03:28.380162 17520 net.cpp:84] Creating Layer bn2
I0911 21:03:28.380177 17520 net.cpp:406] bn2 <- conv2
I0911 21:03:28.380195 17520 net.cpp:367] bn2 -> conv2 (in-place)
I0911 21:03:28.380408 17520 net.cpp:122] Setting up bn2
I0911 21:03:28.380417 17520 net.cpp:129] Top shape: 128 256 27 27 (23887872)
I0911 21:03:28.380422 17520 net.cpp:137] Memory required for data: 898745856
I0911 21:03:28.380451 17520 layer_factory.hpp:77] Creating layer scale2
I0911 21:03:28.380487 17520 net.cpp:84] Creating Layer scale2
I0911 21:03:28.380494 17520 net.cpp:406] scale2 <- conv2
I0911 21:03:28.380507 17520 net.cpp:367] scale2 -> conv2 (in-place)
I0911 21:03:28.380573 17520 layer_factory.hpp:77] Creating layer scale2
I0911 21:03:28.380744 17520 net.cpp:122] Setting up scale2
I0911 21:03:28.380754 17520 net.cpp:129] Top shape: 128 256 27 27 (23887872)
I0911 21:03:28.380759 17520 net.cpp:137] Memory required for data: 994297344
I0911 21:03:28.380772 17520 layer_factory.hpp:77] Creating layer relu2
I0911 21:03:28.380786 17520 net.cpp:84] Creating Layer relu2
I0911 21:03:28.380794 17520 net.cpp:406] relu2 <- conv2
I0911 21:03:28.380807 17520 net.cpp:367] relu2 -> conv2 (in-place)
I0911 21:03:28.381166 17520 net.cpp:122] Setting up relu2
I0911 21:03:28.381176 17520 net.cpp:129] Top shape: 128 256 27 27 (23887872)
I0911 21:03:28.381181 17520 net.cpp:137] Memory required for data: 1089848832
I0911 21:03:28.381187 17520 layer_factory.hpp:77] Creating layer pool2
I0911 21:03:28.381206 17520 net.cpp:84] Creating Layer pool2
I0911 21:03:28.381214 17520 net.cpp:406] pool2 <- conv2
I0911 21:03:28.381230 17520 net.cpp:380] pool2 -> pool2
I0911 21:03:28.381290 17520 net.cpp:122] Setting up pool2
I0911 21:03:28.381301 17520 net.cpp:129] Top shape: 128 256 13 13 (5537792)
I0911 21:03:28.381306 17520 net.cpp:137] Memory required for data: 1112000000
I0911 21:03:28.381312 17520 layer_factory.hpp:77] Creating layer conv3
I0911 21:03:28.381335 17520 net.cpp:84] Creating Layer conv3
I0911 21:03:28.381345 17520 net.cpp:406] conv3 <- pool2
I0911 21:03:28.381362 17520 net.cpp:380] conv3 -> conv3
I0911 21:03:28.494663 17520 net.cpp:122] Setting up conv3
I0911 21:03:28.494706 17520 net.cpp:129] Top shape: 128 384 13 13 (8306688)
I0911 21:03:28.494711 17520 net.cpp:137] Memory required for data: 1145226752
I0911 21:03:28.494746 17520 layer_factory.hpp:77] Creating layer bn3
I0911 21:03:28.494774 17520 net.cpp:84] Creating Layer bn3
I0911 21:03:28.494807 17520 net.cpp:406] bn3 <- conv3
I0911 21:03:28.494828 17520 net.cpp:367] bn3 -> conv3 (in-place)
I0911 21:03:28.495062 17520 net.cpp:122] Setting up bn3
I0911 21:03:28.495080 17520 net.cpp:129] Top shape: 128 384 13 13 (8306688)
I0911 21:03:28.495085 17520 net.cpp:137] Memory required for data: 1178453504
I0911 21:03:28.495126 17520 layer_factory.hpp:77] Creating layer scale3
I0911 21:03:28.495163 17520 net.cpp:84] Creating Layer scale3
I0911 21:03:28.495170 17520 net.cpp:406] scale3 <- conv3
I0911 21:03:28.495183 17520 net.cpp:367] scale3 -> conv3 (in-place)
I0911 21:03:28.495245 17520 layer_factory.hpp:77] Creating layer scale3
I0911 21:03:28.495409 17520 net.cpp:122] Setting up scale3
I0911 21:03:28.495419 17520 net.cpp:129] Top shape: 128 384 13 13 (8306688)
I0911 21:03:28.495434 17520 net.cpp:137] Memory required for data: 1211680256
I0911 21:03:28.495447 17520 layer_factory.hpp:77] Creating layer relu3
I0911 21:03:28.495461 17520 net.cpp:84] Creating Layer relu3
I0911 21:03:28.495468 17520 net.cpp:406] relu3 <- conv3
I0911 21:03:28.495482 17520 net.cpp:367] relu3 -> conv3 (in-place)
I0911 21:03:28.496107 17520 net.cpp:122] Setting up relu3
I0911 21:03:28.496119 17520 net.cpp:129] Top shape: 128 384 13 13 (8306688)
I0911 21:03:28.496124 17520 net.cpp:137] Memory required for data: 1244907008
I0911 21:03:28.496140 17520 layer_factory.hpp:77] Creating layer conv4
I0911 21:03:28.496172 17520 net.cpp:84] Creating Layer conv4
I0911 21:03:28.496181 17520 net.cpp:406] conv4 <- conv3
I0911 21:03:28.496220 17520 net.cpp:380] conv4 -> conv4
I0911 21:03:28.666630 17520 net.cpp:122] Setting up conv4
I0911 21:03:28.666697 17520 net.cpp:129] Top shape: 128 384 13 13 (8306688)
I0911 21:03:28.666702 17520 net.cpp:137] Memory required for data: 1278133760
I0911 21:03:28.666738 17520 layer_factory.hpp:77] Creating layer bn4
I0911 21:03:28.666769 17520 net.cpp:84] Creating Layer bn4
I0911 21:03:28.666781 17520 net.cpp:406] bn4 <- conv4
I0911 21:03:28.666813 17520 net.cpp:367] bn4 -> conv4 (in-place)
I0911 21:03:28.667060 17520 net.cpp:122] Setting up bn4
I0911 21:03:28.667070 17520 net.cpp:129] Top shape: 128 384 13 13 (8306688)
I0911 21:03:28.667073 17520 net.cpp:137] Memory required for data: 1311360512
I0911 21:03:28.667093 17520 layer_factory.hpp:77] Creating layer scale4
I0911 21:03:28.667119 17520 net.cpp:84] Creating Layer scale4
I0911 21:03:28.667126 17520 net.cpp:406] scale4 <- conv4
I0911 21:03:28.667141 17520 net.cpp:367] scale4 -> conv4 (in-place)
I0911 21:03:28.667203 17520 layer_factory.hpp:77] Creating layer scale4
I0911 21:03:28.667371 17520 net.cpp:122] Setting up scale4
I0911 21:03:28.667383 17520 net.cpp:129] Top shape: 128 384 13 13 (8306688)
I0911 21:03:28.667387 17520 net.cpp:137] Memory required for data: 1344587264
I0911 21:03:28.667399 17520 layer_factory.hpp:77] Creating layer relu4
I0911 21:03:28.667420 17520 net.cpp:84] Creating Layer relu4
I0911 21:03:28.667428 17520 net.cpp:406] relu4 <- conv4
I0911 21:03:28.667443 17520 net.cpp:367] relu4 -> conv4 (in-place)
I0911 21:03:28.667866 17520 net.cpp:122] Setting up relu4
I0911 21:03:28.667876 17520 net.cpp:129] Top shape: 128 384 13 13 (8306688)
I0911 21:03:28.667881 17520 net.cpp:137] Memory required for data: 1377814016
I0911 21:03:28.667886 17520 layer_factory.hpp:77] Creating layer conv5
I0911 21:03:28.667919 17520 net.cpp:84] Creating Layer conv5
I0911 21:03:28.667929 17520 net.cpp:406] conv5 <- conv4
I0911 21:03:28.667949 17520 net.cpp:380] conv5 -> conv5
I0911 21:03:28.781491 17520 net.cpp:122] Setting up conv5
I0911 21:03:28.781530 17520 net.cpp:129] Top shape: 128 256 13 13 (5537792)
I0911 21:03:28.781534 17520 net.cpp:137] Memory required for data: 1399965184
I0911 21:03:28.781569 17520 layer_factory.hpp:77] Creating layer bn5
I0911 21:03:28.781608 17520 net.cpp:84] Creating Layer bn5
I0911 21:03:28.781621 17520 net.cpp:406] bn5 <- conv5
I0911 21:03:28.781652 17520 net.cpp:367] bn5 -> conv5 (in-place)
I0911 21:03:28.781878 17520 net.cpp:122] Setting up bn5
I0911 21:03:28.781896 17520 net.cpp:129] Top shape: 128 256 13 13 (5537792)
I0911 21:03:28.781900 17520 net.cpp:137] Memory required for data: 1422116352
I0911 21:03:28.781944 17520 layer_factory.hpp:77] Creating layer scale5
I0911 21:03:28.781982 17520 net.cpp:84] Creating Layer scale5
I0911 21:03:28.781989 17520 net.cpp:406] scale5 <- conv5
I0911 21:03:28.782003 17520 net.cpp:367] scale5 -> conv5 (in-place)
I0911 21:03:28.782073 17520 layer_factory.hpp:77] Creating layer scale5
I0911 21:03:28.782268 17520 net.cpp:122] Setting up scale5
I0911 21:03:28.782285 17520 net.cpp:129] Top shape: 128 256 13 13 (5537792)
I0911 21:03:28.782289 17520 net.cpp:137] Memory required for data: 1444267520
I0911 21:03:28.782302 17520 layer_factory.hpp:77] Creating layer relu5
I0911 21:03:28.782323 17520 net.cpp:84] Creating Layer relu5
I0911 21:03:28.782331 17520 net.cpp:406] relu5 <- conv5
I0911 21:03:28.782347 17520 net.cpp:367] relu5 -> conv5 (in-place)
I0911 21:03:28.783004 17520 net.cpp:122] Setting up relu5
I0911 21:03:28.783022 17520 net.cpp:129] Top shape: 128 256 13 13 (5537792)
I0911 21:03:28.783027 17520 net.cpp:137] Memory required for data: 1466418688
I0911 21:03:28.783033 17520 layer_factory.hpp:77] Creating layer pool5
I0911 21:03:28.783061 17520 net.cpp:84] Creating Layer pool5
I0911 21:03:28.783076 17520 net.cpp:406] pool5 <- conv5
I0911 21:03:28.783092 17520 net.cpp:380] pool5 -> pool5
I0911 21:03:28.783175 17520 net.cpp:122] Setting up pool5
I0911 21:03:28.783195 17520 net.cpp:129] Top shape: 128 256 6 6 (1179648)
I0911 21:03:28.783198 17520 net.cpp:137] Memory required for data: 1471137280
I0911 21:03:28.783213 17520 layer_factory.hpp:77] Creating layer drop6
I0911 21:03:28.783247 17520 net.cpp:84] Creating Layer drop6
I0911 21:03:28.783255 17520 net.cpp:406] drop6 <- pool5
I0911 21:03:28.783272 17520 net.cpp:367] drop6 -> pool5 (in-place)
I0911 21:03:28.783309 17520 net.cpp:122] Setting up drop6
I0911 21:03:28.783320 17520 net.cpp:129] Top shape: 128 256 6 6 (1179648)
I0911 21:03:28.783324 17520 net.cpp:137] Memory required for data: 1475855872
I0911 21:03:28.783329 17520 layer_factory.hpp:77] Creating layer fc6
I0911 21:03:28.783354 17520 net.cpp:84] Creating Layer fc6
I0911 21:03:28.783363 17520 net.cpp:406] fc6 <- pool5
I0911 21:03:28.783382 17520 net.cpp:380] fc6 -> fc6
I0911 21:03:33.556221 17520 net.cpp:122] Setting up fc6
I0911 21:03:33.556257 17520 net.cpp:129] Top shape: 128 4096 (524288)
I0911 21:03:33.556262 17520 net.cpp:137] Memory required for data: 1477953024
I0911 21:03:33.556294 17520 layer_factory.hpp:77] Creating layer bn6
I0911 21:03:33.556345 17520 net.cpp:84] Creating Layer bn6
I0911 21:03:33.556362 17520 net.cpp:406] bn6 <- fc6
I0911 21:03:33.556391 17520 net.cpp:367] bn6 -> fc6 (in-place)
I0911 21:03:33.556627 17520 net.cpp:122] Setting up bn6
I0911 21:03:33.556638 17520 net.cpp:129] Top shape: 128 4096 (524288)
I0911 21:03:33.556643 17520 net.cpp:137] Memory required for data: 1480050176
I0911 21:03:33.556666 17520 layer_factory.hpp:77] Creating layer scale6
I0911 21:03:33.556694 17520 net.cpp:84] Creating Layer scale6
I0911 21:03:33.556704 17520 net.cpp:406] scale6 <- fc6
I0911 21:03:33.556718 17520 net.cpp:367] scale6 -> fc6 (in-place)
I0911 21:03:33.556787 17520 layer_factory.hpp:77] Creating layer scale6
I0911 21:03:33.556953 17520 net.cpp:122] Setting up scale6
I0911 21:03:33.556964 17520 net.cpp:129] Top shape: 128 4096 (524288)
I0911 21:03:33.556972 17520 net.cpp:137] Memory required for data: 1482147328
I0911 21:03:33.556991 17520 layer_factory.hpp:77] Creating layer relu6
I0911 21:03:33.557005 17520 net.cpp:84] Creating Layer relu6
I0911 21:03:33.557013 17520 net.cpp:406] relu6 <- fc6
I0911 21:03:33.557029 17520 net.cpp:367] relu6 -> fc6 (in-place)
I0911 21:03:33.557626 17520 net.cpp:122] Setting up relu6
I0911 21:03:33.557637 17520 net.cpp:129] Top shape: 128 4096 (524288)
I0911 21:03:33.557657 17520 net.cpp:137] Memory required for data: 1484244480
I0911 21:03:33.557682 17520 layer_factory.hpp:77] Creating layer drop7
I0911 21:03:33.557699 17520 net.cpp:84] Creating Layer drop7
I0911 21:03:33.557709 17520 net.cpp:406] drop7 <- fc6
I0911 21:03:33.557730 17520 net.cpp:367] drop7 -> fc6 (in-place)
I0911 21:03:33.557773 17520 net.cpp:122] Setting up drop7
I0911 21:03:33.557783 17520 net.cpp:129] Top shape: 128 4096 (524288)
I0911 21:03:33.557790 17520 net.cpp:137] Memory required for data: 1486341632
I0911 21:03:33.557801 17520 layer_factory.hpp:77] Creating layer fc7
I0911 21:03:33.557828 17520 net.cpp:84] Creating Layer fc7
I0911 21:03:33.557838 17520 net.cpp:406] fc7 <- fc6
I0911 21:03:33.557863 17520 net.cpp:380] fc7 -> fc7
I0911 21:03:35.681468 17520 net.cpp:122] Setting up fc7
I0911 21:03:35.681517 17520 net.cpp:129] Top shape: 128 4096 (524288)
I0911 21:03:35.681524 17520 net.cpp:137] Memory required for data: 1488438784
I0911 21:03:35.681563 17520 layer_factory.hpp:77] Creating layer bn7
I0911 21:03:35.681627 17520 net.cpp:84] Creating Layer bn7
I0911 21:03:35.681653 17520 net.cpp:406] bn7 <- fc7
I0911 21:03:35.681682 17520 net.cpp:367] bn7 -> fc7 (in-place)
I0911 21:03:35.681949 17520 net.cpp:122] Setting up bn7
I0911 21:03:35.681968 17520 net.cpp:129] Top shape: 128 4096 (524288)
I0911 21:03:35.681972 17520 net.cpp:137] Memory required for data: 1490535936
I0911 21:03:35.682004 17520 layer_factory.hpp:77] Creating layer scale7
I0911 21:03:35.682024 17520 net.cpp:84] Creating Layer scale7
I0911 21:03:35.682032 17520 net.cpp:406] scale7 <- fc7
I0911 21:03:35.682046 17520 net.cpp:367] scale7 -> fc7 (in-place)
I0911 21:03:35.682132 17520 layer_factory.hpp:77] Creating layer scale7
I0911 21:03:35.682307 17520 net.cpp:122] Setting up scale7
I0911 21:03:35.682317 17520 net.cpp:129] Top shape: 128 4096 (524288)
I0911 21:03:35.682330 17520 net.cpp:137] Memory required for data: 1492633088
I0911 21:03:35.682359 17520 layer_factory.hpp:77] Creating layer relu7
I0911 21:03:35.682374 17520 net.cpp:84] Creating Layer relu7
I0911 21:03:35.682382 17520 net.cpp:406] relu7 <- fc7
I0911 21:03:35.682399 17520 net.cpp:367] relu7 -> fc7 (in-place)
I0911 21:03:35.682837 17520 net.cpp:122] Setting up relu7
I0911 21:03:35.682847 17520 net.cpp:129] Top shape: 128 4096 (524288)
I0911 21:03:35.682852 17520 net.cpp:137] Memory required for data: 1494730240
I0911 21:03:35.682858 17520 layer_factory.hpp:77] Creating layer fc8
I0911 21:03:35.682886 17520 net.cpp:84] Creating Layer fc8
I0911 21:03:35.682896 17520 net.cpp:406] fc8 <- fc7
I0911 21:03:35.682917 17520 net.cpp:380] fc8 -> fc8
I0911 21:03:36.201378 17520 net.cpp:122] Setting up fc8
I0911 21:03:36.201411 17520 net.cpp:129] Top shape: 128 1000 (128000)
I0911 21:03:36.201416 17520 net.cpp:137] Memory required for data: 1495242240
I0911 21:03:36.201454 17520 layer_factory.hpp:77] Creating layer fc8_fc8_0_split
I0911 21:03:36.201504 17520 net.cpp:84] Creating Layer fc8_fc8_0_split
I0911 21:03:36.201529 17520 net.cpp:406] fc8_fc8_0_split <- fc8
I0911 21:03:36.201557 17520 net.cpp:380] fc8_fc8_0_split -> fc8_fc8_0_split_0
I0911 21:03:36.201607 17520 net.cpp:380] fc8_fc8_0_split -> fc8_fc8_0_split_1
I0911 21:03:36.201717 17520 net.cpp:122] Setting up fc8_fc8_0_split
I0911 21:03:36.201738 17520 net.cpp:129] Top shape: 128 1000 (128000)
I0911 21:03:36.201755 17520 net.cpp:129] Top shape: 128 1000 (128000)
I0911 21:03:36.201759 17520 net.cpp:137] Memory required for data: 1496266240
I0911 21:03:36.201766 17520 layer_factory.hpp:77] Creating layer accuracy_5_TRAIN
I0911 21:03:36.201792 17520 net.cpp:84] Creating Layer accuracy_5_TRAIN
I0911 21:03:36.201802 17520 net.cpp:406] accuracy_5_TRAIN <- fc8_fc8_0_split_0
I0911 21:03:36.201815 17520 net.cpp:406] accuracy_5_TRAIN <- label_data_1_split_0
…
I0911 21:03:36.204355 17520 net.cpp:294] The NetState phase (1) differed from the phase (0) specified by a rule in layer accuracy_5_TRAIN
I0911 21:03:36.204535 17520 net.cpp:51] Initializing net from parameters: 
name: "AlexNet-BN"
state {
  phase: TEST
}
layer {
  name: "data"
  type: "Data"
  top: "data"
  top: "label"
  include {
    phase: TEST
  }
  transform_param {
    mirror: false
    crop_size: 224
    mean_value: 103.939
    mean_value: 116.779
    mean_value: 123.68
  }
  data_param {
    source: "/mnt/data/ilsvrc12/origin/ilsvrc12_val_lmdb"
    batch_size: 50
    backend: LMDB
  }
}
layer {
  name: "conv1"
  type: "Convolution"
  bottom: "data"
  top: "conv1"
  param {
    lr_mult: 1
    decay_mult: 1
  }
  param {
    lr_mult: 2
    decay_mult: 0
  }
  convolution_param {
    num_output: 96
    pad: 2
    kernel_size: 11
    stride: 4
    weight_filler {
      type: "gaussian"
      std: 0.01
    }
    bias_filler {
      type: "constant"
      value: 0
    }
  }
}
layer {
  name: "bn1"
  type: "BatchNorm"
  bottom: "conv1"
  top: "conv1"
}
layer {
  name: "scale1"
  type: "Scale"
  bottom: "conv1"
  top: "conv1"
  scale_param {
    bias_term: true
  }
}
layer {
  name: "relu1"
  type: "ReLU"
  bottom: "conv1"
  top: "conv1"
}
layer {
  name: "pool1"
  type: "Pooling"
  bottom: "conv1"
  top: "pool1"
  pooling_param {
    pool: MAX
    kernel_size: 3
    stride: 2
  }
}
layer {
  name: "conv2"
  type: "BinaryConvolution"
  bottom: "pool1"
  top: "conv2"
  param {
    lr_mult: 1
    decay_mult: 1
  }
  param {
    lr_mult: 2
    decay_mult: 0
  }
  convolution_param {
    num_output: 256
    pad: 2
    kernel_size: 5
    weight_filler {
      type: "gaussian"
      std: 0.01
    }
    bias_filler {
      type: "constant"
      value: 0.1
    }
  }
  debug_param {
    xnorno_grad: true
  }
}
layer {
  name: "bn2"
  type: "BatchNorm"
  bottom: "conv2"
  top: "conv2"
}
layer {
  name: "scale2"
  type: "Scale"
  bottom: "conv2"
  top: "conv2"
  scale_param {
    bias_term: true
  }
}
layer {
  name: "relu2"
  type: "ReLU"
  bottom: "conv2"
  top: "conv2"
}
layer {
  name: "pool2"
  type: "Pooling"
  bottom: "conv2"
  top: "pool2"
  pooling_param {
    pool: MAX
    kernel_size: 3
    stride: 2
  }
}
layer {
  name: "conv3"
  type: "BinaryConvolution"
  bottom: "pool2"
  top: "conv3"
  param {
    lr_mult: 1
    decay_mult: 1
  }
  param {
    lr_mult: 2
    decay_mult: 0
  }
  convolution_param {
    num_output: 384
    pad: 1
    kernel_size: 3
    weight_filler {
      type: "gaussian"
      std: 0.01
    }
    bias_filler {
      type: "constant"
      value: 0
    }
  }
  debug_param {
    xnorno_grad: true
  }
}
layer {
  name: "bn3"
  type: "BatchNorm"
  bottom: "conv3"
  top: "conv3"
}
layer {
  name: "scale3"
  type: "Scale"
  bottom: "conv3"
  top: "conv3"
  scale_param {
    bias_term: true
  }
}
layer {
  name: "relu3"
  type: "ReLU"
  bottom: "conv3"
  top: "conv3"
}
layer {
  name: "conv4"
  type: "BinaryConvolution"
  bottom: "conv3"
  top: "conv4"
  param {
    lr_mult: 1
    decay_mult: 1
  }
  param {
    lr_mult: 2
    decay_mult: 0
  }
  convolution_param {
    num_output: 384
    pad: 1
    kernel_size: 3
    weight_filler {
      type: "gaussian"
      std: 0.01
    }
    bias_filler {
      type: "constant"
      value: 0.1
    }
  }
  debug_param {
    xnorno_grad: true
  }
}
layer {
  name: "bn4"
  type: "BatchNorm"
  bottom: "conv4"
  top: "conv4"
}
layer {
  name: "scale4"
  type: "Scale"
  bottom: "conv4"
  top: "conv4"
  scale_param {
    bias_term: true
  }
}
layer {
  name: "relu4"
  type: "ReLU"
  bottom: "conv4"
  top: "conv4"
}
layer {
  name: "conv5"
  type: "BinaryConvolution"
  bottom: "conv4"
  top: "conv5"
  param {
    lr_mult: 1
    decay_mult: 1
  }
  param {
    lr_mult: 2
    decay_mult: 0
  }
  convolution_param {
    num_output: 256
    pad: 1
    kernel_size: 3
    weight_filler {
      type: "gaussian"
      std: 0.01
    }
    bias_filler {
      type: "constant"
      value: 0.1
    }
  }
  debug_param {
    xnorno_grad: true
  }
}
layer {
  name: "bn5"
  type: "BatchNorm"
  bottom: "conv5"
  top: "conv5"
}
layer {
  name: "scale5"
  type: "Scale"
  bottom: "conv5"
  top: "conv5"
  scale_param {
    bias_term: true
  }
}
layer {
  name: "relu5"
  type: "ReLU"
  bottom: "conv5"
  top: "conv5"
}
layer {
  name: "pool5"
  type: "Pooling"
  bottom: "conv5"
  top: "pool5"
  pooling_param {
    pool: MAX
    kernel_size: 3
    stride: 2
  }
}
layer {
  name: "drop6"
  type: "Dropout"
  bottom: "pool5"
  top: "pool5"
  dropout_param {
    dropout_ratio: 0.1
  }
}
layer {
  name: "fc6"
  type: "BinaryInnerProduct"
  bottom: "pool5"
  top: "fc6"
  param {
    lr_mult: 1
    decay_mult: 1
  }
  param {
    lr_mult: 2
    decay_mult: 0
  }
  inner_product_param {
    num_output: 4096
    weight_filler {
      type: "gaussian"
      std: 0.005
    }
    bias_filler {
      type: "constant"
      value: 0.1
    }
  }
  debug_param {
    xnorno_grad: true
  }
}
layer {
  name: "bn6"
  type: "BatchNorm"
  bottom: "fc6"
  top: "fc6"
}
layer {
  name: "scale6"
  type: "Scale"
  bottom: "fc6"
  top: "fc6"
  scale_param {
    bias_term: true
  }
}
layer {
  name: "relu6"
  type: "ReLU"
  bottom: "fc6"
  top: "fc6"
}
layer {
  name: "drop7"
  type: "Dropout"
  bottom: "fc6"
  top: "fc6"
  dropout_param {
    dropout_ratio: 0.1
  }
}
layer {
  name: "fc7"
  type: "BinaryInnerProduct"
  bottom: "fc6"
  top: "fc7"
  param {
    lr_mult: 1
    decay_mult: 1
  }
  param {
    lr_mult: 2
    decay_mult: 0
  }
  inner_product_param {
    num_output: 4096
    weight_filler {
      type: "gaussian"
      std: 0.005
    }
    bias_filler {
      type: "constant"
      value: 0.1
    }
  }
  debug_param {
    xnorno_grad: true
  }
}
layer {
  name: "bn7"
  type: "BatchNorm"
  bottom: "fc7"
  top: "fc7"
}
layer {
  name: "scale7"
  type: "Scale"
  bottom: "fc7"
  top: "fc7"
  scale_param {
    bias_term: true
  }
}
layer {
  name: "relu7"
  type: "ReLU"
  bottom: "fc7"
  top: "fc7"
}
layer {
  name: "fc8"
  type: "InnerProduct"
  bottom: "fc7"
  top: "fc8"
  param {
    lr_mult: 1
    decay_mult: 1
  }
  param {
    lr_mult: 2
    decay_mult: 0
  }
  inner_product_param {
    num_output: 1000
    weight_filler {
      type: "gaussian"
      std: 0.01
    }
    bias_filler {
      type: "constant"
      value: 0
    }
  }
}
layer {
  name: "accuracy"
  type: "Accuracy"
  bottom: "fc8"
  bottom: "label"
  top: "accuracy"
  include {
    phase: TEST
  }
}
layer {
  name: "accuracy_5"
  type: "Accuracy"
  bottom: "fc8"
  bottom: "label"
  top: "accuracy_5"
  include {
    phase: TEST
  }
  accuracy_param {
    top_k: 5
  }
}
layer {
  name: "loss"
  type: "SoftmaxWithLoss"
  bottom: "fc8"
  bottom: "label"
  top: "loss"
}
I0911 21:03:36.204926 17520 layer_factory.hpp:77] Creating layer data
I0911 21:03:36.205004 17520 db_lmdb.cpp:35] Opened lmdb /mnt/data/ilsvrc12/origin/ilsvrc12_val_lmdb
I0911 21:03:36.205029 17520 net.cpp:84] Creating Layer data
I0911 21:03:36.205044 17520 net.cpp:380] data -> data
I0911 21:03:36.205070 17520 net.cpp:380] data -> label
I0911 21:03:36.205322 17520 data_layer.cpp:45] output data size: 50,3,224,224
I0911 21:03:36.250636 17520 base_data_layer.cpp:72] Initializing prefetch
I0911 21:03:36.250739 17520 base_data_layer.cpp:75] Prefetch initialized.
I0911 21:03:36.250768 17520 net.cpp:122] Setting up data
I0911 21:03:36.250789 17520 net.cpp:129] Top shape: 50 3 224 224 (7526400)
I0911 21:03:36.250838 17520 net.cpp:129] Top shape: 50 (50)
I0911 21:03:36.250869 17520 net.cpp:137] Memory required for data: 30105800
I0911 21:03:36.250905 17520 layer_factory.hpp:77] Creating layer label_data_1_split
I0911 21:03:36.250953 17520 net.cpp:84] Creating Layer label_data_1_split
I0911 21:03:36.250990 17520 net.cpp:406] label_data_1_split <- label
I0911 21:03:36.251037 17520 net.cpp:380] label_data_1_split -> label_data_1_split_0
I0911 21:03:36.251091 17520 net.cpp:380] label_data_1_split -> label_data_1_split_1
I0911 21:03:36.251132 17520 net.cpp:380] label_data_1_split -> label_data_1_split_2
I0911 21:03:36.251258 17520 net.cpp:122] Setting up label_data_1_split
I0911 21:03:36.251274 17520 net.cpp:129] Top shape: 50 (50)
I0911 21:03:36.251286 17520 net.cpp:129] Top shape: 50 (50)
I0911 21:03:36.251296 17520 net.cpp:129] Top shape: 50 (50)
I0911 21:03:36.251302 17520 net.cpp:137] Memory required for data: 30106400
I0911 21:03:36.251313 17520 layer_factory.hpp:77] Creating layer conv1
I0911 21:03:36.251359 17520 net.cpp:84] Creating Layer conv1
I0911 21:03:36.251371 17520 net.cpp:406] conv1 <- data
I0911 21:03:36.251400 17520 net.cpp:380] conv1 -> conv1
I0911 21:03:36.260921 17520 cudnn_conv_layer.cpp:194] Reallocating workspace storage: 127416
I0911 21:03:36.260958 17520 net.cpp:122] Setting up conv1
I0911 21:03:36.260973 17520 net.cpp:129] Top shape: 50 96 55 55 (14520000)
I0911 21:03:36.260980 17520 net.cpp:137] Memory required for data: 88186400
I0911 21:03:36.261024 17520 layer_factory.hpp:77] Creating layer bn1
I0911 21:03:36.261046 17520 net.cpp:84] Creating Layer bn1
I0911 21:03:36.261059 17520 net.cpp:406] bn1 <- conv1
I0911 21:03:36.261080 17520 net.cpp:367] bn1 -> conv1 (in-place)
I0911 21:03:36.261462 17520 net.cpp:122] Setting up bn1
I0911 21:03:36.261476 17520 net.cpp:129] Top shape: 50 96 55 55 (14520000)
I0911 21:03:36.261482 17520 net.cpp:137] Memory required for data: 146266400
I0911 21:03:36.261538 17520 layer_factory.hpp:77] Creating layer scale1
I0911 21:03:36.261566 17520 net.cpp:84] Creating Layer scale1
I0911 21:03:36.261577 17520 net.cpp:406] scale1 <- conv1
I0911 21:03:36.261596 17520 net.cpp:367] scale1 -> conv1 (in-place)
I0911 21:03:36.261684 17520 layer_factory.hpp:77] Creating layer scale1
I0911 21:03:36.261927 17520 net.cpp:122] Setting up scale1
I0911 21:03:36.261941 17520 net.cpp:129] Top shape: 50 96 55 55 (14520000)
I0911 21:03:36.261947 17520 net.cpp:137] Memory required for data: 204346400
I0911 21:03:36.261965 17520 layer_factory.hpp:77] Creating layer relu1
I0911 21:03:36.261982 17520 net.cpp:84] Creating Layer relu1
I0911 21:03:36.262008 17520 net.cpp:406] relu1 <- conv1
I0911 21:03:36.262029 17520 net.cpp:367] relu1 -> conv1 (in-place)
I0911 21:03:36.262567 17520 net.cpp:122] Setting up relu1
I0911 21:03:36.262581 17520 net.cpp:129] Top shape: 50 96 55 55 (14520000)
I0911 21:03:36.262589 17520 net.cpp:137] Memory required for data: 262426400
I0911 21:03:36.262598 17520 layer_factory.hpp:77] Creating layer pool1
I0911 21:03:36.262619 17520 net.cpp:84] Creating Layer pool1
I0911 21:03:36.262630 17520 net.cpp:406] pool1 <- conv1
I0911 21:03:36.262742 17520 net.cpp:380] pool1 -> pool1
I0911 21:03:36.262832 17520 net.cpp:122] Setting up pool1
I0911 21:03:36.262847 17520 net.cpp:129] Top shape: 50 96 27 27 (3499200)
I0911 21:03:36.262854 17520 net.cpp:137] Memory required for data: 276423200
I0911 21:03:36.262861 17520 layer_factory.hpp:77] Creating layer conv2
I0911 21:03:36.262899 17520 net.cpp:84] Creating Layer conv2
I0911 21:03:36.262918 17520 net.cpp:406] conv2 <- pool1
I0911 21:03:36.262946 17520 net.cpp:380] conv2 -> conv2
I0911 21:03:36.386271 17520 net.cpp:122] Setting up conv2
I0911 21:03:36.386310 17520 net.cpp:129] Top shape: 50 256 27 27 (9331200)
I0911 21:03:36.386317 17520 net.cpp:137] Memory required for data: 313748000
I0911 21:03:36.386389 17520 layer_factory.hpp:77] Creating layer bn2
I0911 21:03:36.386449 17520 net.cpp:84] Creating Layer bn2
I0911 21:03:36.386482 17520 net.cpp:406] bn2 <- conv2
I0911 21:03:36.386519 17520 net.cpp:367] bn2 -> conv2 (in-place)
I0911 21:03:36.386870 17520 net.cpp:122] Setting up bn2
I0911 21:03:36.386883 17520 net.cpp:129] Top shape: 50 256 27 27 (9331200)
I0911 21:03:36.386889 17520 net.cpp:137] Memory required for data: 351072800
I0911 21:03:36.386927 17520 layer_factory.hpp:77] Creating layer scale2
I0911 21:03:36.386953 17520 net.cpp:84] Creating Layer scale2
I0911 21:03:36.386962 17520 net.cpp:406] scale2 <- conv2
I0911 21:03:36.387002 17520 net.cpp:367] scale2 -> conv2 (in-place)
I0911 21:03:36.387137 17520 layer_factory.hpp:77] Creating layer scale2
I0911 21:03:36.387420 17520 net.cpp:122] Setting up scale2
I0911 21:03:36.387441 17520 net.cpp:129] Top shape: 50 256 27 27 (9331200)
I0911 21:03:36.387447 17520 net.cpp:137] Memory required for data: 388397600
I0911 21:03:36.387475 17520 layer_factory.hpp:77] Creating layer relu2
I0911 21:03:36.387493 17520 net.cpp:84] Creating Layer relu2
I0911 21:03:36.387503 17520 net.cpp:406] relu2 <- conv2
I0911 21:03:36.387524 17520 net.cpp:367] relu2 -> conv2 (in-place)
I0911 21:03:36.388396 17520 net.cpp:122] Setting up relu2
I0911 21:03:36.388412 17520 net.cpp:129] Top shape: 50 256 27 27 (9331200)
I0911 21:03:36.388419 17520 net.cpp:137] Memory required for data: 425722400
I0911 21:03:36.388428 17520 layer_factory.hpp:77] Creating layer pool2
I0911 21:03:36.388453 17520 net.cpp:84] Creating Layer pool2
I0911 21:03:36.388464 17520 net.cpp:406] pool2 <- conv2
I0911 21:03:36.388485 17520 net.cpp:380] pool2 -> pool2
I0911 21:03:36.388579 17520 net.cpp:122] Setting up pool2
I0911 21:03:36.388597 17520 net.cpp:129] Top shape: 50 256 13 13 (2163200)
I0911 21:03:36.388602 17520 net.cpp:137] Memory required for data: 434375200
I0911 21:03:36.388610 17520 layer_factory.hpp:77] Creating layer conv3
I0911 21:03:36.388643 17520 net.cpp:84] Creating Layer conv3
I0911 21:03:36.388653 17520 net.cpp:406] conv3 <- pool2
I0911 21:03:36.388679 17520 net.cpp:380] conv3 -> conv3
I0911 21:03:36.507660 17520 net.cpp:122] Setting up conv3
I0911 21:03:36.507697 17520 net.cpp:129] Top shape: 50 384 13 13 (3244800)
I0911 21:03:36.507704 17520 net.cpp:137] Memory required for data: 447354400
I0911 21:03:36.507750 17520 layer_factory.hpp:77] Creating layer bn3
I0911 21:03:36.507808 17520 net.cpp:84] Creating Layer bn3
I0911 21:03:36.507823 17520 net.cpp:406] bn3 <- conv3
I0911 21:03:36.507874 17520 net.cpp:367] bn3 -> conv3 (in-place)
I0911 21:03:36.508179 17520 net.cpp:122] Setting up bn3
I0911 21:03:36.508199 17520 net.cpp:129] Top shape: 50 384 13 13 (3244800)
I0911 21:03:36.508203 17520 net.cpp:137] Memory required for data: 460333600
I0911 21:03:36.508253 17520 layer_factory.hpp:77] Creating layer scale3
I0911 21:03:36.508301 17520 net.cpp:84] Creating Layer scale3
I0911 21:03:36.508317 17520 net.cpp:406] scale3 <- conv3
I0911 21:03:36.508333 17520 net.cpp:367] scale3 -> conv3 (in-place)
I0911 21:03:36.508414 17520 layer_factory.hpp:77] Creating layer scale3
I0911 21:03:36.508608 17520 net.cpp:122] Setting up scale3
I0911 21:03:36.508620 17520 net.cpp:129] Top shape: 50 384 13 13 (3244800)
I0911 21:03:36.508623 17520 net.cpp:137] Memory required for data: 473312800
I0911 21:03:36.508637 17520 layer_factory.hpp:77] Creating layer relu3
I0911 21:03:36.508651 17520 net.cpp:84] Creating Layer relu3
I0911 21:03:36.508657 17520 net.cpp:406] relu3 <- conv3
I0911 21:03:36.508671 17520 net.cpp:367] relu3 -> conv3 (in-place)
I0911 21:03:36.509352 17520 net.cpp:122] Setting up relu3
I0911 21:03:36.509364 17520 net.cpp:129] Top shape: 50 384 13 13 (3244800)
I0911 21:03:36.509368 17520 net.cpp:137] Memory required for data: 486292000
I0911 21:03:36.509376 17520 layer_factory.hpp:77] Creating layer conv4
I0911 21:03:36.509407 17520 net.cpp:84] Creating Layer conv4
I0911 21:03:36.509418 17520 net.cpp:406] conv4 <- conv3
I0911 21:03:36.509438 17520 net.cpp:380] conv4 -> conv4
I0911 21:03:36.677609 17520 net.cpp:122] Setting up conv4
I0911 21:03:36.677642 17520 net.cpp:129] Top shape: 50 384 13 13 (3244800)
I0911 21:03:36.677649 17520 net.cpp:137] Memory required for data: 499271200
I0911 21:03:36.677685 17520 layer_factory.hpp:77] Creating layer bn4
I0911 21:03:36.677716 17520 net.cpp:84] Creating Layer bn4
I0911 21:03:36.677749 17520 net.cpp:406] bn4 <- conv4
I0911 21:03:36.677776 17520 net.cpp:367] bn4 -> conv4 (in-place)
I0911 21:03:36.678031 17520 net.cpp:122] Setting up bn4
I0911 21:03:36.678042 17520 net.cpp:129] Top shape: 50 384 13 13 (3244800)
I0911 21:03:36.678045 17520 net.cpp:137] Memory required for data: 512250400
I0911 21:03:36.678066 17520 layer_factory.hpp:77] Creating layer scale4
I0911 21:03:36.678092 17520 net.cpp:84] Creating Layer scale4
I0911 21:03:36.678100 17520 net.cpp:406] scale4 <- conv4
I0911 21:03:36.678117 17520 net.cpp:367] scale4 -> conv4 (in-place)
I0911 21:03:36.678180 17520 layer_factory.hpp:77] Creating layer scale4
I0911 21:03:36.678371 17520 net.cpp:122] Setting up scale4
I0911 21:03:36.678381 17520 net.cpp:129] Top shape: 50 384 13 13 (3244800)
I0911 21:03:36.678395 17520 net.cpp:137] Memory required for data: 525229600
I0911 21:03:36.678408 17520 layer_factory.hpp:77] Creating layer relu4
I0911 21:03:36.678421 17520 net.cpp:84] Creating Layer relu4
I0911 21:03:36.678429 17520 net.cpp:406] relu4 <- conv4
I0911 21:03:36.678444 17520 net.cpp:367] relu4 -> conv4 (in-place)
I0911 21:03:36.678903 17520 net.cpp:122] Setting up relu4
I0911 21:03:36.678915 17520 net.cpp:129] Top shape: 50 384 13 13 (3244800)
I0911 21:03:36.678918 17520 net.cpp:137] Memory required for data: 538208800
I0911 21:03:36.678925 17520 layer_factory.hpp:77] Creating layer conv5
I0911 21:03:36.678951 17520 net.cpp:84] Creating Layer conv5
I0911 21:03:36.678961 17520 net.cpp:406] conv5 <- conv4
I0911 21:03:36.678979 17520 net.cpp:380] conv5 -> conv5
I0911 21:03:36.791350 17520 net.cpp:122] Setting up conv5
I0911 21:03:36.791379 17520 net.cpp:129] Top shape: 50 256 13 13 (2163200)
I0911 21:03:36.791384 17520 net.cpp:137] Memory required for data: 546861600
I0911 21:03:36.791407 17520 layer_factory.hpp:77] Creating layer bn5
I0911 21:03:36.791445 17520 net.cpp:84] Creating Layer bn5
I0911 21:03:36.791458 17520 net.cpp:406] bn5 <- conv5
I0911 21:03:36.791498 17520 net.cpp:367] bn5 -> conv5 (in-place)
I0911 21:03:36.791735 17520 net.cpp:122] Setting up bn5
I0911 21:03:36.791744 17520 net.cpp:129] Top shape: 50 256 13 13 (2163200)
I0911 21:03:36.791749 17520 net.cpp:137] Memory required for data: 555514400
I0911 21:03:36.791791 17520 layer_factory.hpp:77] Creating layer scale5
I0911 21:03:36.791810 17520 net.cpp:84] Creating Layer scale5
I0911 21:03:36.791817 17520 net.cpp:406] scale5 <- conv5
I0911 21:03:36.791831 17520 net.cpp:367] scale5 -> conv5 (in-place)
I0911 21:03:36.791906 17520 layer_factory.hpp:77] Creating layer scale5
I0911 21:03:36.792093 17520 net.cpp:122] Setting up scale5
I0911 21:03:36.792104 17520 net.cpp:129] Top shape: 50 256 13 13 (2163200)
I0911 21:03:36.792116 17520 net.cpp:137] Memory required for data: 564167200
I0911 21:03:36.792129 17520 layer_factory.hpp:77] Creating layer relu5
I0911 21:03:36.792142 17520 net.cpp:84] Creating Layer relu5
I0911 21:03:36.792160 17520 net.cpp:406] relu5 <- conv5
I0911 21:03:36.792172 17520 net.cpp:367] relu5 -> conv5 (in-place)
I0911 21:03:36.792814 17520 net.cpp:122] Setting up relu5
I0911 21:03:36.792824 17520 net.cpp:129] Top shape: 50 256 13 13 (2163200)
I0911 21:03:36.792838 17520 net.cpp:137] Memory required for data: 572820000
I0911 21:03:36.792845 17520 layer_factory.hpp:77] Creating layer pool5
I0911 21:03:36.792872 17520 net.cpp:84] Creating Layer pool5
I0911 21:03:36.792889 17520 net.cpp:406] pool5 <- conv5
I0911 21:03:36.792917 17520 net.cpp:380] pool5 -> pool5
I0911 21:03:36.792994 17520 net.cpp:122] Setting up pool5
I0911 21:03:36.793005 17520 net.cpp:129] Top shape: 50 256 6 6 (460800)
I0911 21:03:36.793020 17520 net.cpp:137] Memory required for data: 574663200
I0911 21:03:36.793026 17520 layer_factory.hpp:77] Creating layer drop6
I0911 21:03:36.793041 17520 net.cpp:84] Creating Layer drop6
I0911 21:03:36.793049 17520 net.cpp:406] drop6 <- pool5
I0911 21:03:36.793083 17520 net.cpp:367] drop6 -> pool5 (in-place)
I0911 21:03:36.793121 17520 net.cpp:122] Setting up drop6
I0911 21:03:36.793129 17520 net.cpp:129] Top shape: 50 256 6 6 (460800)
I0911 21:03:36.793134 17520 net.cpp:137] Memory required for data: 576506400
I0911 21:03:36.793139 17520 layer_factory.hpp:77] Creating layer fc6
I0911 21:03:36.793164 17520 net.cpp:84] Creating Layer fc6
I0911 21:03:36.793171 17520 net.cpp:406] fc6 <- pool5
I0911 21:03:36.793190 17520 net.cpp:380] fc6 -> fc6
I0911 21:03:41.552531 17520 net.cpp:122] Setting up fc6
I0911 21:03:41.552578 17520 net.cpp:129] Top shape: 50 4096 (204800)
I0911 21:03:41.552583 17520 net.cpp:137] Memory required for data: 577325600
I0911 21:03:41.552621 17520 layer_factory.hpp:77] Creating layer bn6
I0911 21:03:41.552665 17520 net.cpp:84] Creating Layer bn6
I0911 21:03:41.552693 17520 net.cpp:406] bn6 <- fc6
I0911 21:03:41.552723 17520 net.cpp:367] bn6 -> fc6 (in-place)
I0911 21:03:41.552975 17520 net.cpp:122] Setting up bn6
I0911 21:03:41.552984 17520 net.cpp:129] Top shape: 50 4096 (204800)
I0911 21:03:41.552997 17520 net.cpp:137] Memory required for data: 578144800
I0911 21:03:41.553025 17520 layer_factory.hpp:77] Creating layer scale6
I0911 21:03:41.553045 17520 net.cpp:84] Creating Layer scale6
I0911 21:03:41.553052 17520 net.cpp:406] scale6 <- fc6
I0911 21:03:41.553067 17520 net.cpp:367] scale6 -> fc6 (in-place)
I0911 21:03:41.553169 17520 layer_factory.hpp:77] Creating layer scale6
I0911 21:03:41.553360 17520 net.cpp:122] Setting up scale6
I0911 21:03:41.553370 17520 net.cpp:129] Top shape: 50 4096 (204800)
I0911 21:03:41.553375 17520 net.cpp:137] Memory required for data: 578964000
I0911 21:03:41.553388 17520 layer_factory.hpp:77] Creating layer relu6
I0911 21:03:41.553402 17520 net.cpp:84] Creating Layer relu6
I0911 21:03:41.553411 17520 net.cpp:406] relu6 <- fc6
I0911 21:03:41.553426 17520 net.cpp:367] relu6 -> fc6 (in-place)
I0911 21:03:41.553855 17520 net.cpp:122] Setting up relu6
I0911 21:03:41.553867 17520 net.cpp:129] Top shape: 50 4096 (204800)
I0911 21:03:41.553871 17520 net.cpp:137] Memory required for data: 579783200
I0911 21:03:41.553877 17520 layer_factory.hpp:77] Creating layer drop7
I0911 21:03:41.553894 17520 net.cpp:84] Creating Layer drop7
I0911 21:03:41.553901 17520 net.cpp:406] drop7 <- fc6
I0911 21:03:41.553915 17520 net.cpp:367] drop7 -> fc6 (in-place)
I0911 21:03:41.553956 17520 net.cpp:122] Setting up drop7
I0911 21:03:41.553964 17520 net.cpp:129] Top shape: 50 4096 (204800)
I0911 21:03:41.553968 17520 net.cpp:137] Memory required for data: 580602400
I0911 21:03:41.553974 17520 layer_factory.hpp:77] Creating layer fc7
I0911 21:03:41.553997 17520 net.cpp:84] Creating Layer fc7
I0911 21:03:41.554005 17520 net.cpp:406] fc7 <- fc6
I0911 21:03:41.554044 17520 net.cpp:380] fc7 -> fc7
I0911 21:03:43.670132 17520 net.cpp:122] Setting up fc7
I0911 21:03:43.670171 17520 net.cpp:129] Top shape: 50 4096 (204800)
I0911 21:03:43.670174 17520 net.cpp:137] Memory required for data: 581421600
I0911 21:03:43.670212 17520 layer_factory.hpp:77] Creating layer bn7
I0911 21:03:43.670285 17520 net.cpp:84] Creating Layer bn7
I0911 21:03:43.670311 17520 net.cpp:406] bn7 <- fc7
I0911 21:03:43.670341 17520 net.cpp:367] bn7 -> fc7 (in-place)
I0911 21:03:43.670627 17520 net.cpp:122] Setting up bn7
I0911 21:03:43.670637 17520 net.cpp:129] Top shape: 50 4096 (204800)
I0911 21:03:43.670641 17520 net.cpp:137] Memory required for data: 582240800
I0911 21:03:43.670660 17520 layer_factory.hpp:77] Creating layer scale7
I0911 21:03:43.670680 17520 net.cpp:84] Creating Layer scale7
I0911 21:03:43.670687 17520 net.cpp:406] scale7 <- fc7
I0911 21:03:43.670701 17520 net.cpp:367] scale7 -> fc7 (in-place)
I0911 21:03:43.670789 17520 layer_factory.hpp:77] Creating layer scale7
I0911 21:03:43.670960 17520 net.cpp:122] Setting up scale7
I0911 21:03:43.670971 17520 net.cpp:129] Top shape: 50 4096 (204800)
I0911 21:03:43.670975 17520 net.cpp:137] Memory required for data: 583060000
I0911 21:03:43.670987 17520 layer_factory.hpp:77] Creating layer relu7
I0911 21:03:43.671000 17520 net.cpp:84] Creating Layer relu7
I0911 21:03:43.671006 17520 net.cpp:406] relu7 <- fc7
I0911 21:03:43.671021 17520 net.cpp:367] relu7 -> fc7 (in-place)
I0911 21:03:43.671682 17520 net.cpp:122] Setting up relu7
I0911 21:03:43.671694 17520 net.cpp:129] Top shape: 50 4096 (204800)
I0911 21:03:43.671696 17520 net.cpp:137] Memory required for data: 583879200
I0911 21:03:43.671702 17520 layer_factory.hpp:77] Creating layer fc8
I0911 21:03:43.671723 17520 net.cpp:84] Creating Layer fc8
I0911 21:03:43.671732 17520 net.cpp:406] fc8 <- fc7
I0911 21:03:43.671771 17520 net.cpp:380] fc8 -> fc8
I0911 21:03:44.187531 17520 net.cpp:122] Setting up fc8
I0911 21:03:44.187571 17520 net.cpp:129] Top shape: 50 1000 (50000)
I0911 21:03:44.187574 17520 net.cpp:137] Memory required for data: 584079200
I0911 21:03:44.187613 17520 layer_factory.hpp:77] Creating layer fc8_fc8_0_split
I0911 21:03:44.187662 17520 net.cpp:84] Creating Layer fc8_fc8_0_split
I0911 21:03:44.187681 17520 net.cpp:406] fc8_fc8_0_split <- fc8
I0911 21:03:44.187721 17520 net.cpp:380] fc8_fc8_0_split -> fc8_fc8_0_split_0
I0911 21:03:44.187775 17520 net.cpp:380] fc8_fc8_0_split -> fc8_fc8_0_split_1
I0911 21:03:44.187794 17520 net.cpp:380] fc8_fc8_0_split -> fc8_fc8_0_split_2
I0911 21:03:44.187880 17520 net.cpp:122] Setting up fc8_fc8_0_split
I0911 21:03:44.187891 17520 net.cpp:129] Top shape: 50 1000 (50000)
I0911 21:03:44.187896 17520 net.cpp:129] Top shape: 50 1000 (50000)
I0911 21:03:44.187901 17520 net.cpp:129] Top shape: 50 1000 (50000)
I0911 21:03:44.187904 17520 net.cpp:137] Memory required for data: 584679200
I0911 21:03:44.187911 17520 layer_factory.hpp:77] Creating layer accuracy
I0911 21:03:44.187927 17520 net.cpp:84] Creating Layer accuracy
I0911 21:03:44.187937 17520 net.cpp:406] accuracy <- fc8_fc8_0_split_0
I0911 21:03:44.187948 17520 net.cpp:406] accuracy <- label_data_1_split_0
I0911 21:03:44.187961 17520 net.cpp:380] accuracy -> accuracy
…
