…
I0905 21:23:50.284523 14148 net.cpp:294] The NetState phase (0) differed from the phase (1) specified by a rule in layer accuracy_5
I0905 21:23:50.284729 14148 net.cpp:51] Initializing net from parameters: 
name: "AlexNet-BN"
state {
  phase: TRAIN
  level: 0
  stage: ""
}
layer {
  name: "data"
  type: "Data"
  top: "data"
  top: "label"
  include {
    phase: TRAIN
  }
  transform_param {
    mirror: true
    crop_size: 224
    mean_value: 103.939
    mean_value: 116.779
    mean_value: 123.68
  }
  data_param {
    source: "/mnt/data/ilsvrc12/keep/ilsvrc12_train_lmdb"
    batch_size: 128
    backend: LMDB
  }
}
layer {
  name: "conv1"
  type: "BinaryConvolution"
  bottom: "data"
  top: "conv1"
  param {
    lr_mult: 1
    decay_mult: 1
  }
  param {
    lr_mult: 2
    decay_mult: 0
  }
  convolution_param {
    num_output: 96
    pad: 2
    kernel_size: 11
    stride: 4
    weight_filler {
      type: "gaussian"
      std: 0.01
    }
    bias_filler {
      type: "constant"
      value: 0
    }
  }
  debug_param {
    xnorno_grad: true
  }
}
layer {
  name: "bn1"
  type: "BatchNorm"
  bottom: "conv1"
  top: "conv1"
}
layer {
  name: "scale1"
  type: "Scale"
  bottom: "conv1"
  top: "conv1"
  scale_param {
    bias_term: true
  }
}
layer {
  name: "relu1"
  type: "ReLU"
  bottom: "conv1"
  top: "conv1"
}
layer {
  name: "pool1"
  type: "Pooling"
  bottom: "conv1"
  top: "pool1"
  pooling_param {
    pool: MAX
    kernel_size: 3
    stride: 2
  }
}
layer {
  name: "conv2"
  type: "BinaryConvolution"
  bottom: "pool1"
  top: "conv2"
  param {
    lr_mult: 1
    decay_mult: 1
  }
  param {
    lr_mult: 2
    decay_mult: 0
  }
  convolution_param {
    num_output: 256
    pad: 2
    kernel_size: 5
    weight_filler {
      type: "gaussian"
      std: 0.01
    }
    bias_filler {
      type: "constant"
      value: 0.1
    }
  }
  debug_param {
    xnorno_grad: true
  }
}
layer {
  name: "bn2"
  type: "BatchNorm"
  bottom: "conv2"
  top: "conv2"
}
layer {
  name: "scale2"
  type: "Scale"
  bottom: "conv2"
  top: "conv2"
  scale_param {
    bias_term: true
  }
}
layer {
  name: "relu2"
  type: "ReLU"
  bottom: "conv2"
  top: "conv2"
}
layer {
  name: "pool2"
  type: "Pooling"
  bottom: "conv2"
  top: "pool2"
  pooling_param {
    pool: MAX
    kernel_size: 3
    stride: 2
  }
}
layer {
  name: "conv3"
  type: "BinaryConvolution"
  bottom: "pool2"
  top: "conv3"
  param {
    lr_mult: 1
    decay_mult: 1
  }
  param {
    lr_mult: 2
    decay_mult: 0
  }
  convolution_param {
    num_output: 384
    pad: 1
    kernel_size: 3
    weight_filler {
      type: "gaussian"
      std: 0.01
    }
    bias_filler {
      type: "constant"
      value: 0
    }
  }
  debug_param {
    xnorno_grad: true
  }
}
layer {
  name: "bn3"
  type: "BatchNorm"
  bottom: "conv3"
  top: "conv3"
}
layer {
  name: "scale3"
  type: "Scale"
  bottom: "conv3"
  top: "conv3"
  scale_param {
    bias_term: true
  }
}
layer {
  name: "relu3"
  type: "ReLU"
  bottom: "conv3"
  top: "conv3"
}
layer {
  name: "conv4"
  type: "BinaryConvolution"
  bottom: "conv3"
  top: "conv4"
  param {
    lr_mult: 1
    decay_mult: 1
  }
  param {
    lr_mult: 2
    decay_mult: 0
  }
  convolution_param {
    num_output: 384
    pad: 1
    kernel_size: 3
    weight_filler {
      type: "gaussian"
      std: 0.01
    }
    bias_filler {
      type: "constant"
      value: 0.1
    }
  }
  debug_param {
    xnorno_grad: true
  }
}
layer {
  name: "bn4"
  type: "BatchNorm"
  bottom: "conv4"
  top: "conv4"
}
layer {
  name: "scale4"
  type: "Scale"
  bottom: "conv4"
  top: "conv4"
  scale_param {
    bias_term: true
  }
}
layer {
  name: "relu4"
  type: "ReLU"
  bottom: "conv4"
  top: "conv4"
}
layer {
  name: "conv5"
  type: "BinaryConvolution"
  bottom: "conv4"
  top: "conv5"
  param {
    lr_mult: 1
    decay_mult: 1
  }
  param {
    lr_mult: 2
    decay_mult: 0
  }
  convolution_param {
    num_output: 256
    pad: 1
    kernel_size: 3
    weight_filler {
      type: "gaussian"
      std: 0.01
    }
    bias_filler {
      type: "constant"
      value: 0.1
    }
  }
  debug_param {
    xnorno_grad: true
  }
}
layer {
  name: "bn5"
  type: "BatchNorm"
  bottom: "conv5"
  top: "conv5"
}
layer {
  name: "scale5"
  type: "Scale"
  bottom: "conv5"
  top: "conv5"
  scale_param {
    bias_term: true
  }
}
layer {
  name: "relu5"
  type: "ReLU"
  bottom: "conv5"
  top: "conv5"
}
layer {
  name: "pool5"
  type: "Pooling"
  bottom: "conv5"
  top: "pool5"
  pooling_param {
    pool: MAX
    kernel_size: 3
    stride: 2
  }
}
layer {
  name: "drop6"
  type: "Dropout"
  bottom: "pool5"
  top: "pool5"
  dropout_param {
    dropout_ratio: 0.1
  }
}
layer {
  name: "fc6"
  type: "BinaryInnerProduct"
  bottom: "pool5"
  top: "fc6"
  param {
    lr_mult: 1
    decay_mult: 1
  }
  param {
    lr_mult: 2
    decay_mult: 0
  }
  inner_product_param {
    num_output: 4096
    weight_filler {
      type: "gaussian"
      std: 0.005
    }
    bias_filler {
      type: "constant"
      value: 0.1
    }
  }
  debug_param {
    xnorno_grad: true
  }
}
layer {
  name: "bn6"
  type: "BatchNorm"
  bottom: "fc6"
  top: "fc6"
}
layer {
  name: "scale6"
  type: "Scale"
  bottom: "fc6"
  top: "fc6"
  scale_param {
    bias_term: true
  }
}
layer {
  name: "relu6"
  type: "ReLU"
  bottom: "fc6"
  top: "fc6"
}
layer {
  name: "drop7"
  type: "Dropout"
  bottom: "fc6"
  top: "fc6"
  dropout_param {
    dropout_ratio: 0.1
  }
}
layer {
  name: "fc7"
  type: "BinaryInnerProduct"
  bottom: "fc6"
  top: "fc7"
  param {
    lr_mult: 1
    decay_mult: 1
  }
  param {
    lr_mult: 2
    decay_mult: 0
  }
  inner_product_param {
    num_output: 4096
    weight_filler {
      type: "gaussian"
      std: 0.005
    }
    bias_filler {
      type: "constant"
      value: 0.1
    }
  }
  debug_param {
    xnorno_grad: true
  }
}
layer {
  name: "bn7"
  type: "BatchNorm"
  bottom: "fc7"
  top: "fc7"
}
layer {
  name: "scale7"
  type: "Scale"
  bottom: "fc7"
  top: "fc7"
  scale_param {
    bias_term: true
  }
}
layer {
  name: "relu7"
  type: "ReLU"
  bottom: "fc7"
  top: "fc7"
}
layer {
  name: "fc8"
  type: "BinaryInnerProduct"
  bottom: "fc7"
  top: "fc8"
  param {
    lr_mult: 1
    decay_mult: 1
  }
  param {
    lr_mult: 2
    decay_mult: 0
  }
  inner_product_param {
    num_output: 1000
    weight_filler {
      type: "gaussian"
      std: 0.01
    }
    bias_filler {
      type: "constant"
      value: 0
    }
  }
  debug_param {
    xnorno_grad: true
  }
}
layer {
  name: "accuracy_5_TRAIN"
  type: "Accuracy"
  bottom: "fc8"
  bottom: "label"
  top: "accuracy_5_TRAIN"
  include {
    phase: TRAIN
  }
  accuracy_param {
    top_k: 5
  }
}
layer {
  name: "loss"
  type: "SoftmaxWithLoss"
  bottom: "fc8"
  bottom: "label"
  top: "loss"
}
I0905 21:23:50.285331 14148 layer_factory.hpp:77] Creating layer data
I0905 21:23:50.285511 14148 db_lmdb.cpp:35] Opened lmdb /mnt/data/ilsvrc12/keep/ilsvrc12_train_lmdb
I0905 21:23:50.285565 14148 net.cpp:84] Creating Layer data
I0905 21:23:50.285598 14148 net.cpp:380] data -> data
I0905 21:23:50.285751 14148 net.cpp:380] data -> label
I0905 21:23:50.286665 14148 data_layer.cpp:45] output data size: 128,3,224,224
I0905 21:23:50.404139 14148 base_data_layer.cpp:72] Initializing prefetch
I0905 21:23:50.404319 14148 base_data_layer.cpp:75] Prefetch initialized.
I0905 21:23:50.404340 14148 net.cpp:122] Setting up data
I0905 21:23:50.404381 14148 net.cpp:129] Top shape: 128 3 224 224 (19267584)
I0905 21:23:50.404392 14148 net.cpp:129] Top shape: 128 (128)
I0905 21:23:50.404395 14148 net.cpp:137] Memory required for data: 77070848
I0905 21:23:50.404424 14148 layer_factory.hpp:77] Creating layer label_data_1_split
I0905 21:23:50.404472 14148 net.cpp:84] Creating Layer label_data_1_split
I0905 21:23:50.404520 14148 net.cpp:406] label_data_1_split <- label
I0905 21:23:50.404585 14148 net.cpp:380] label_data_1_split -> label_data_1_split_0
I0905 21:23:50.404650 14148 net.cpp:380] label_data_1_split -> label_data_1_split_1
I0905 21:23:50.404706 14148 net.cpp:122] Setting up label_data_1_split
I0905 21:23:50.404728 14148 net.cpp:129] Top shape: 128 (128)
I0905 21:23:50.404752 14148 net.cpp:129] Top shape: 128 (128)
I0905 21:23:50.404757 14148 net.cpp:137] Memory required for data: 77071872
I0905 21:23:50.404767 14148 layer_factory.hpp:77] Creating layer conv1
I0905 21:23:50.404816 14148 net.cpp:84] Creating Layer conv1
I0905 21:23:50.404827 14148 net.cpp:406] conv1 <- data
I0905 21:23:50.404860 14148 net.cpp:380] conv1 -> conv1
I0905 21:23:50.412613 14148 net.cpp:122] Setting up conv1
I0905 21:23:50.412638 14148 net.cpp:129] Top shape: 128 96 55 55 (37171200)
I0905 21:23:50.412647 14148 net.cpp:137] Memory required for data: 225756672
I0905 21:23:50.412711 14148 layer_factory.hpp:77] Creating layer bn1
I0905 21:23:50.412737 14148 net.cpp:84] Creating Layer bn1
I0905 21:23:50.412750 14148 net.cpp:406] bn1 <- conv1
I0905 21:23:50.412775 14148 net.cpp:367] bn1 -> conv1 (in-place)
I0905 21:23:50.412961 14148 net.cpp:122] Setting up bn1
I0905 21:23:50.412971 14148 net.cpp:129] Top shape: 128 96 55 55 (37171200)
I0905 21:23:50.412978 14148 net.cpp:137] Memory required for data: 374441472
I0905 21:23:50.413017 14148 layer_factory.hpp:77] Creating layer scale1
I0905 21:23:50.413046 14148 net.cpp:84] Creating Layer scale1
I0905 21:23:50.413058 14148 net.cpp:406] scale1 <- conv1
I0905 21:23:50.413077 14148 net.cpp:367] scale1 -> conv1 (in-place)
I0905 21:23:50.413141 14148 layer_factory.hpp:77] Creating layer scale1
I0905 21:23:50.413321 14148 net.cpp:122] Setting up scale1
I0905 21:23:50.413331 14148 net.cpp:129] Top shape: 128 96 55 55 (37171200)
I0905 21:23:50.413339 14148 net.cpp:137] Memory required for data: 523126272
I0905 21:23:50.413358 14148 layer_factory.hpp:77] Creating layer relu1
I0905 21:23:50.413380 14148 net.cpp:84] Creating Layer relu1
I0905 21:23:50.413389 14148 net.cpp:406] relu1 <- conv1
I0905 21:23:50.413408 14148 net.cpp:367] relu1 -> conv1 (in-place)
I0905 21:23:50.795981 14148 net.cpp:122] Setting up relu1
I0905 21:23:50.796018 14148 net.cpp:129] Top shape: 128 96 55 55 (37171200)
I0905 21:23:50.796023 14148 net.cpp:137] Memory required for data: 671811072
I0905 21:23:50.796047 14148 layer_factory.hpp:77] Creating layer pool1
I0905 21:23:50.796097 14148 net.cpp:84] Creating Layer pool1
I0905 21:23:50.796113 14148 net.cpp:406] pool1 <- conv1
I0905 21:23:50.796170 14148 net.cpp:380] pool1 -> pool1
I0905 21:23:50.796298 14148 net.cpp:122] Setting up pool1
I0905 21:23:50.796321 14148 net.cpp:129] Top shape: 128 96 27 27 (8957952)
I0905 21:23:50.796325 14148 net.cpp:137] Memory required for data: 707642880
I0905 21:23:50.796332 14148 layer_factory.hpp:77] Creating layer conv2
I0905 21:23:50.796381 14148 net.cpp:84] Creating Layer conv2
I0905 21:23:50.796398 14148 net.cpp:406] conv2 <- pool1
I0905 21:23:50.796437 14148 net.cpp:380] conv2 -> conv2
I0905 21:23:50.876163 14148 net.cpp:122] Setting up conv2
I0905 21:23:50.876197 14148 net.cpp:129] Top shape: 128 256 27 27 (23887872)
I0905 21:23:50.876202 14148 net.cpp:137] Memory required for data: 803194368
I0905 21:23:50.876256 14148 layer_factory.hpp:77] Creating layer bn2
I0905 21:23:50.876324 14148 net.cpp:84] Creating Layer bn2
I0905 21:23:50.876338 14148 net.cpp:406] bn2 <- conv2
I0905 21:23:50.876358 14148 net.cpp:367] bn2 -> conv2 (in-place)
I0905 21:23:50.876569 14148 net.cpp:122] Setting up bn2
I0905 21:23:50.876586 14148 net.cpp:129] Top shape: 128 256 27 27 (23887872)
I0905 21:23:50.876590 14148 net.cpp:137] Memory required for data: 898745856
I0905 21:23:50.876610 14148 layer_factory.hpp:77] Creating layer scale2
I0905 21:23:50.876629 14148 net.cpp:84] Creating Layer scale2
I0905 21:23:50.876638 14148 net.cpp:406] scale2 <- conv2
I0905 21:23:50.876652 14148 net.cpp:367] scale2 -> conv2 (in-place)
I0905 21:23:50.876735 14148 layer_factory.hpp:77] Creating layer scale2
I0905 21:23:50.876899 14148 net.cpp:122] Setting up scale2
I0905 21:23:50.876909 14148 net.cpp:129] Top shape: 128 256 27 27 (23887872)
I0905 21:23:50.876914 14148 net.cpp:137] Memory required for data: 994297344
I0905 21:23:50.876925 14148 layer_factory.hpp:77] Creating layer relu2
I0905 21:23:50.876946 14148 net.cpp:84] Creating Layer relu2
I0905 21:23:50.876955 14148 net.cpp:406] relu2 <- conv2
I0905 21:23:50.876968 14148 net.cpp:367] relu2 -> conv2 (in-place)
I0905 21:23:50.877351 14148 net.cpp:122] Setting up relu2
I0905 21:23:50.877362 14148 net.cpp:129] Top shape: 128 256 27 27 (23887872)
I0905 21:23:50.877374 14148 net.cpp:137] Memory required for data: 1089848832
I0905 21:23:50.877380 14148 layer_factory.hpp:77] Creating layer pool2
I0905 21:23:50.877398 14148 net.cpp:84] Creating Layer pool2
I0905 21:23:50.877405 14148 net.cpp:406] pool2 <- conv2
I0905 21:23:50.877423 14148 net.cpp:380] pool2 -> pool2
I0905 21:23:50.877483 14148 net.cpp:122] Setting up pool2
I0905 21:23:50.877494 14148 net.cpp:129] Top shape: 128 256 13 13 (5537792)
I0905 21:23:50.877499 14148 net.cpp:137] Memory required for data: 1112000000
I0905 21:23:50.877504 14148 layer_factory.hpp:77] Creating layer conv3
I0905 21:23:50.877528 14148 net.cpp:84] Creating Layer conv3
I0905 21:23:50.877537 14148 net.cpp:406] conv3 <- pool2
I0905 21:23:50.877554 14148 net.cpp:380] conv3 -> conv3
I0905 21:23:50.991528 14148 net.cpp:122] Setting up conv3
I0905 21:23:50.991569 14148 net.cpp:129] Top shape: 128 384 13 13 (8306688)
I0905 21:23:50.991574 14148 net.cpp:137] Memory required for data: 1145226752
I0905 21:23:50.991608 14148 layer_factory.hpp:77] Creating layer bn3
I0905 21:23:50.991637 14148 net.cpp:84] Creating Layer bn3
I0905 21:23:50.991652 14148 net.cpp:406] bn3 <- conv3
I0905 21:23:50.991673 14148 net.cpp:367] bn3 -> conv3 (in-place)
I0905 21:23:50.991910 14148 net.cpp:122] Setting up bn3
I0905 21:23:50.991920 14148 net.cpp:129] Top shape: 128 384 13 13 (8306688)
I0905 21:23:50.991924 14148 net.cpp:137] Memory required for data: 1178453504
I0905 21:23:50.991964 14148 layer_factory.hpp:77] Creating layer scale3
I0905 21:23:50.992002 14148 net.cpp:84] Creating Layer scale3
I0905 21:23:50.992009 14148 net.cpp:406] scale3 <- conv3
I0905 21:23:50.992022 14148 net.cpp:367] scale3 -> conv3 (in-place)
I0905 21:23:50.992086 14148 layer_factory.hpp:77] Creating layer scale3
I0905 21:23:50.992254 14148 net.cpp:122] Setting up scale3
I0905 21:23:50.992264 14148 net.cpp:129] Top shape: 128 384 13 13 (8306688)
I0905 21:23:50.992269 14148 net.cpp:137] Memory required for data: 1211680256
I0905 21:23:50.992290 14148 layer_factory.hpp:77] Creating layer relu3
I0905 21:23:50.992303 14148 net.cpp:84] Creating Layer relu3
I0905 21:23:50.992311 14148 net.cpp:406] relu3 <- conv3
I0905 21:23:50.992324 14148 net.cpp:367] relu3 -> conv3 (in-place)
I0905 21:23:50.992935 14148 net.cpp:122] Setting up relu3
I0905 21:23:50.992946 14148 net.cpp:129] Top shape: 128 384 13 13 (8306688)
I0905 21:23:50.992950 14148 net.cpp:137] Memory required for data: 1244907008
I0905 21:23:50.992965 14148 layer_factory.hpp:77] Creating layer conv4
I0905 21:23:50.992996 14148 net.cpp:84] Creating Layer conv4
I0905 21:23:50.993005 14148 net.cpp:406] conv4 <- conv3
I0905 21:23:50.993027 14148 net.cpp:380] conv4 -> conv4
I0905 21:23:51.162957 14148 net.cpp:122] Setting up conv4
I0905 21:23:51.163017 14148 net.cpp:129] Top shape: 128 384 13 13 (8306688)
I0905 21:23:51.163022 14148 net.cpp:137] Memory required for data: 1278133760
I0905 21:23:51.163058 14148 layer_factory.hpp:77] Creating layer bn4
I0905 21:23:51.163087 14148 net.cpp:84] Creating Layer bn4
I0905 21:23:51.163101 14148 net.cpp:406] bn4 <- conv4
I0905 21:23:51.163125 14148 net.cpp:367] bn4 -> conv4 (in-place)
I0905 21:23:51.163343 14148 net.cpp:122] Setting up bn4
I0905 21:23:51.163362 14148 net.cpp:129] Top shape: 128 384 13 13 (8306688)
I0905 21:23:51.163365 14148 net.cpp:137] Memory required for data: 1311360512
I0905 21:23:51.163394 14148 layer_factory.hpp:77] Creating layer scale4
I0905 21:23:51.163413 14148 net.cpp:84] Creating Layer scale4
I0905 21:23:51.163420 14148 net.cpp:406] scale4 <- conv4
I0905 21:23:51.163434 14148 net.cpp:367] scale4 -> conv4 (in-place)
I0905 21:23:51.163506 14148 layer_factory.hpp:77] Creating layer scale4
I0905 21:23:51.163687 14148 net.cpp:122] Setting up scale4
I0905 21:23:51.163705 14148 net.cpp:129] Top shape: 128 384 13 13 (8306688)
I0905 21:23:51.163710 14148 net.cpp:137] Memory required for data: 1344587264
I0905 21:23:51.163722 14148 layer_factory.hpp:77] Creating layer relu4
I0905 21:23:51.163745 14148 net.cpp:84] Creating Layer relu4
I0905 21:23:51.163753 14148 net.cpp:406] relu4 <- conv4
I0905 21:23:51.163766 14148 net.cpp:367] relu4 -> conv4 (in-place)
I0905 21:23:51.164134 14148 net.cpp:122] Setting up relu4
I0905 21:23:51.164155 14148 net.cpp:129] Top shape: 128 384 13 13 (8306688)
I0905 21:23:51.164160 14148 net.cpp:137] Memory required for data: 1377814016
I0905 21:23:51.164165 14148 layer_factory.hpp:77] Creating layer conv5
I0905 21:23:51.164188 14148 net.cpp:84] Creating Layer conv5
I0905 21:23:51.164197 14148 net.cpp:406] conv5 <- conv4
I0905 21:23:51.164216 14148 net.cpp:380] conv5 -> conv5
I0905 21:23:51.277986 14148 net.cpp:122] Setting up conv5
I0905 21:23:51.278026 14148 net.cpp:129] Top shape: 128 256 13 13 (5537792)
I0905 21:23:51.278031 14148 net.cpp:137] Memory required for data: 1399965184
I0905 21:23:51.278069 14148 layer_factory.hpp:77] Creating layer bn5
I0905 21:23:51.278100 14148 net.cpp:84] Creating Layer bn5
I0905 21:23:51.278131 14148 net.cpp:406] bn5 <- conv5
I0905 21:23:51.278183 14148 net.cpp:367] bn5 -> conv5 (in-place)
I0905 21:23:51.278419 14148 net.cpp:122] Setting up bn5
I0905 21:23:51.278437 14148 net.cpp:129] Top shape: 128 256 13 13 (5537792)
I0905 21:23:51.278441 14148 net.cpp:137] Memory required for data: 1422116352
I0905 21:23:51.278484 14148 layer_factory.hpp:77] Creating layer scale5
I0905 21:23:51.278523 14148 net.cpp:84] Creating Layer scale5
I0905 21:23:51.278532 14148 net.cpp:406] scale5 <- conv5
I0905 21:23:51.278544 14148 net.cpp:367] scale5 -> conv5 (in-place)
I0905 21:23:51.278621 14148 layer_factory.hpp:77] Creating layer scale5
I0905 21:23:51.278790 14148 net.cpp:122] Setting up scale5
I0905 21:23:51.278808 14148 net.cpp:129] Top shape: 128 256 13 13 (5537792)
I0905 21:23:51.278813 14148 net.cpp:137] Memory required for data: 1444267520
I0905 21:23:51.278825 14148 layer_factory.hpp:77] Creating layer relu5
I0905 21:23:51.278848 14148 net.cpp:84] Creating Layer relu5
I0905 21:23:51.278856 14148 net.cpp:406] relu5 <- conv5
I0905 21:23:51.278870 14148 net.cpp:367] relu5 -> conv5 (in-place)
I0905 21:23:51.279470 14148 net.cpp:122] Setting up relu5
I0905 21:23:51.279482 14148 net.cpp:129] Top shape: 128 256 13 13 (5537792)
I0905 21:23:51.279487 14148 net.cpp:137] Memory required for data: 1466418688
I0905 21:23:51.279494 14148 layer_factory.hpp:77] Creating layer pool5
I0905 21:23:51.279515 14148 net.cpp:84] Creating Layer pool5
I0905 21:23:51.279522 14148 net.cpp:406] pool5 <- conv5
I0905 21:23:51.279539 14148 net.cpp:380] pool5 -> pool5
I0905 21:23:51.279603 14148 net.cpp:122] Setting up pool5
I0905 21:23:51.279615 14148 net.cpp:129] Top shape: 128 256 6 6 (1179648)
I0905 21:23:51.279619 14148 net.cpp:137] Memory required for data: 1471137280
I0905 21:23:51.279624 14148 layer_factory.hpp:77] Creating layer drop6
I0905 21:23:51.279659 14148 net.cpp:84] Creating Layer drop6
I0905 21:23:51.279669 14148 net.cpp:406] drop6 <- pool5
I0905 21:23:51.279685 14148 net.cpp:367] drop6 -> pool5 (in-place)
I0905 21:23:51.279722 14148 net.cpp:122] Setting up drop6
I0905 21:23:51.279734 14148 net.cpp:129] Top shape: 128 256 6 6 (1179648)
I0905 21:23:51.279739 14148 net.cpp:137] Memory required for data: 1475855872
I0905 21:23:51.279745 14148 layer_factory.hpp:77] Creating layer fc6
I0905 21:23:51.279770 14148 net.cpp:84] Creating Layer fc6
I0905 21:23:51.279778 14148 net.cpp:406] fc6 <- pool5
I0905 21:23:51.279798 14148 net.cpp:380] fc6 -> fc6
I0905 21:23:56.082480 14148 net.cpp:122] Setting up fc6
I0905 21:23:56.082514 14148 net.cpp:129] Top shape: 128 4096 (524288)
I0905 21:23:56.082518 14148 net.cpp:137] Memory required for data: 1477953024
I0905 21:23:56.082551 14148 layer_factory.hpp:77] Creating layer bn6
I0905 21:23:56.082605 14148 net.cpp:84] Creating Layer bn6
I0905 21:23:56.082623 14148 net.cpp:406] bn6 <- fc6
I0905 21:23:56.082665 14148 net.cpp:367] bn6 -> fc6 (in-place)
I0905 21:23:56.082916 14148 net.cpp:122] Setting up bn6
I0905 21:23:56.082926 14148 net.cpp:129] Top shape: 128 4096 (524288)
I0905 21:23:56.082928 14148 net.cpp:137] Memory required for data: 1480050176
I0905 21:23:56.082948 14148 layer_factory.hpp:77] Creating layer scale6
I0905 21:23:56.082971 14148 net.cpp:84] Creating Layer scale6
I0905 21:23:56.082981 14148 net.cpp:406] scale6 <- fc6
I0905 21:23:56.082999 14148 net.cpp:367] scale6 -> fc6 (in-place)
I0905 21:23:56.083068 14148 layer_factory.hpp:77] Creating layer scale6
I0905 21:23:56.083231 14148 net.cpp:122] Setting up scale6
I0905 21:23:56.083240 14148 net.cpp:129] Top shape: 128 4096 (524288)
I0905 21:23:56.083245 14148 net.cpp:137] Memory required for data: 1482147328
I0905 21:23:56.083257 14148 layer_factory.hpp:77] Creating layer relu6
I0905 21:23:56.083273 14148 net.cpp:84] Creating Layer relu6
I0905 21:23:56.083283 14148 net.cpp:406] relu6 <- fc6
I0905 21:23:56.083303 14148 net.cpp:367] relu6 -> fc6 (in-place)
I0905 21:23:56.083863 14148 net.cpp:122] Setting up relu6
I0905 21:23:56.083875 14148 net.cpp:129] Top shape: 128 4096 (524288)
I0905 21:23:56.083884 14148 net.cpp:137] Memory required for data: 1484244480
I0905 21:23:56.083894 14148 layer_factory.hpp:77] Creating layer drop7
I0905 21:23:56.083914 14148 net.cpp:84] Creating Layer drop7
I0905 21:23:56.083922 14148 net.cpp:406] drop7 <- fc6
I0905 21:23:56.083943 14148 net.cpp:367] drop7 -> fc6 (in-place)
I0905 21:23:56.083987 14148 net.cpp:122] Setting up drop7
I0905 21:23:56.083997 14148 net.cpp:129] Top shape: 128 4096 (524288)
I0905 21:23:56.084003 14148 net.cpp:137] Memory required for data: 1486341632
I0905 21:23:56.084012 14148 layer_factory.hpp:77] Creating layer fc7
I0905 21:23:56.084040 14148 net.cpp:84] Creating Layer fc7
I0905 21:23:56.084050 14148 net.cpp:406] fc7 <- fc6
I0905 21:23:56.084075 14148 net.cpp:380] fc7 -> fc7
I0905 21:23:58.212376 14148 net.cpp:122] Setting up fc7
I0905 21:23:58.212421 14148 net.cpp:129] Top shape: 128 4096 (524288)
I0905 21:23:58.212426 14148 net.cpp:137] Memory required for data: 1488438784
I0905 21:23:58.212467 14148 layer_factory.hpp:77] Creating layer bn7
I0905 21:23:58.212525 14148 net.cpp:84] Creating Layer bn7
I0905 21:23:58.212546 14148 net.cpp:406] bn7 <- fc7
I0905 21:23:58.212591 14148 net.cpp:367] bn7 -> fc7 (in-place)
I0905 21:23:58.212838 14148 net.cpp:122] Setting up bn7
I0905 21:23:58.212852 14148 net.cpp:129] Top shape: 128 4096 (524288)
I0905 21:23:58.212869 14148 net.cpp:137] Memory required for data: 1490535936
I0905 21:23:58.212908 14148 layer_factory.hpp:77] Creating layer scale7
I0905 21:23:58.212944 14148 net.cpp:84] Creating Layer scale7
I0905 21:23:58.212963 14148 net.cpp:406] scale7 <- fc7
I0905 21:23:58.212994 14148 net.cpp:367] scale7 -> fc7 (in-place)
I0905 21:23:58.213073 14148 layer_factory.hpp:77] Creating layer scale7
I0905 21:23:58.213248 14148 net.cpp:122] Setting up scale7
I0905 21:23:58.213259 14148 net.cpp:129] Top shape: 128 4096 (524288)
I0905 21:23:58.213274 14148 net.cpp:137] Memory required for data: 1492633088
I0905 21:23:58.213332 14148 layer_factory.hpp:77] Creating layer relu7
I0905 21:23:58.213368 14148 net.cpp:84] Creating Layer relu7
I0905 21:23:58.213382 14148 net.cpp:406] relu7 <- fc7
I0905 21:23:58.213403 14148 net.cpp:367] relu7 -> fc7 (in-place)
I0905 21:23:58.213827 14148 net.cpp:122] Setting up relu7
I0905 21:23:58.213842 14148 net.cpp:129] Top shape: 128 4096 (524288)
I0905 21:23:58.213850 14148 net.cpp:137] Memory required for data: 1494730240
I0905 21:23:58.213878 14148 layer_factory.hpp:77] Creating layer fc8
I0905 21:23:58.213909 14148 net.cpp:84] Creating Layer fc8
I0905 21:23:58.213920 14148 net.cpp:406] fc8 <- fc7
I0905 21:23:58.213958 14148 net.cpp:380] fc8 -> fc8
I0905 21:23:58.733302 14148 net.cpp:122] Setting up fc8
I0905 21:23:58.733342 14148 net.cpp:129] Top shape: 128 1000 (128000)
I0905 21:23:58.733350 14148 net.cpp:137] Memory required for data: 1495242240
I0905 21:23:58.733400 14148 layer_factory.hpp:77] Creating layer fc8_fc8_0_split
I0905 21:23:58.733436 14148 net.cpp:84] Creating Layer fc8_fc8_0_split
I0905 21:23:58.733464 14148 net.cpp:406] fc8_fc8_0_split <- fc8
I0905 21:23:58.733511 14148 net.cpp:380] fc8_fc8_0_split -> fc8_fc8_0_split_0
I0905 21:23:58.733572 14148 net.cpp:380] fc8_fc8_0_split -> fc8_fc8_0_split_1
I0905 21:23:58.733670 14148 net.cpp:122] Setting up fc8_fc8_0_split
I0905 21:23:58.733685 14148 net.cpp:129] Top shape: 128 1000 (128000)
I0905 21:23:58.733700 14148 net.cpp:129] Top shape: 128 1000 (128000)
I0905 21:23:58.733706 14148 net.cpp:137] Memory required for data: 1496266240
I0905 21:23:58.733716 14148 layer_factory.hpp:77] Creating layer accuracy_5_TRAIN
I0905 21:23:58.733750 14148 net.cpp:84] Creating Layer accuracy_5_TRAIN
I0905 21:23:58.733762 14148 net.cpp:406] accuracy_5_TRAIN <- fc8_fc8_0_split_0
I0905 21:23:58.733781 14148 net.cpp:406] accuracy_5_TRAIN <- label_data_1_split_0
…
I0905 21:23:58.736490 14148 net.cpp:294] The NetState phase (1) differed from the phase (0) specified by a rule in layer accuracy_5_TRAIN
I0905 21:23:58.736670 14148 net.cpp:51] Initializing net from parameters: 
name: "AlexNet-BN"
state {
  phase: TEST
}
layer {
  name: "data"
  type: "Data"
  top: "data"
  top: "label"
  include {
    phase: TEST
  }
  transform_param {
    mirror: false
    crop_size: 224
    mean_value: 103.939
    mean_value: 116.779
    mean_value: 123.68
  }
  data_param {
    source: "/mnt/data/ilsvrc12/keep/ilsvrc12_val_lmdb"
    batch_size: 50
    backend: LMDB
  }
}
layer {
  name: "conv1"
  type: "BinaryConvolution"
  bottom: "data"
  top: "conv1"
  param {
    lr_mult: 1
    decay_mult: 1
  }
  param {
    lr_mult: 2
    decay_mult: 0
  }
  convolution_param {
    num_output: 96
    pad: 2
    kernel_size: 11
    stride: 4
    weight_filler {
      type: "gaussian"
      std: 0.01
    }
    bias_filler {
      type: "constant"
      value: 0
    }
  }
  debug_param {
    xnorno_grad: true
  }
}
layer {
  name: "bn1"
  type: "BatchNorm"
  bottom: "conv1"
  top: "conv1"
}
layer {
  name: "scale1"
  type: "Scale"
  bottom: "conv1"
  top: "conv1"
  scale_param {
    bias_term: true
  }
}
layer {
  name: "relu1"
  type: "ReLU"
  bottom: "conv1"
  top: "conv1"
}
layer {
  name: "pool1"
  type: "Pooling"
  bottom: "conv1"
  top: "pool1"
  pooling_param {
    pool: MAX
    kernel_size: 3
    stride: 2
  }
}
layer {
  name: "conv2"
  type: "BinaryConvolution"
  bottom: "pool1"
  top: "conv2"
  param {
    lr_mult: 1
    decay_mult: 1
  }
  param {
    lr_mult: 2
    decay_mult: 0
  }
  convolution_param {
    num_output: 256
    pad: 2
    kernel_size: 5
    weight_filler {
      type: "gaussian"
      std: 0.01
    }
    bias_filler {
      type: "constant"
      value: 0.1
    }
  }
  debug_param {
    xnorno_grad: true
  }
}
layer {
  name: "bn2"
  type: "BatchNorm"
  bottom: "conv2"
  top: "conv2"
}
layer {
  name: "scale2"
  type: "Scale"
  bottom: "conv2"
  top: "conv2"
  scale_param {
    bias_term: true
  }
}
layer {
  name: "relu2"
  type: "ReLU"
  bottom: "conv2"
  top: "conv2"
}
layer {
  name: "pool2"
  type: "Pooling"
  bottom: "conv2"
  top: "pool2"
  pooling_param {
    pool: MAX
    kernel_size: 3
    stride: 2
  }
}
layer {
  name: "conv3"
  type: "BinaryConvolution"
  bottom: "pool2"
  top: "conv3"
  param {
    lr_mult: 1
    decay_mult: 1
  }
  param {
    lr_mult: 2
    decay_mult: 0
  }
  convolution_param {
    num_output: 384
    pad: 1
    kernel_size: 3
    weight_filler {
      type: "gaussian"
      std: 0.01
    }
    bias_filler {
      type: "constant"
      value: 0
    }
  }
  debug_param {
    xnorno_grad: true
  }
}
layer {
  name: "bn3"
  type: "BatchNorm"
  bottom: "conv3"
  top: "conv3"
}
layer {
  name: "scale3"
  type: "Scale"
  bottom: "conv3"
  top: "conv3"
  scale_param {
    bias_term: true
  }
}
layer {
  name: "relu3"
  type: "ReLU"
  bottom: "conv3"
  top: "conv3"
}
layer {
  name: "conv4"
  type: "BinaryConvolution"
  bottom: "conv3"
  top: "conv4"
  param {
    lr_mult: 1
    decay_mult: 1
  }
  param {
    lr_mult: 2
    decay_mult: 0
  }
  convolution_param {
    num_output: 384
    pad: 1
    kernel_size: 3
    weight_filler {
      type: "gaussian"
      std: 0.01
    }
    bias_filler {
      type: "constant"
      value: 0.1
    }
  }
  debug_param {
    xnorno_grad: true
  }
}
layer {
  name: "bn4"
  type: "BatchNorm"
  bottom: "conv4"
  top: "conv4"
}
layer {
  name: "scale4"
  type: "Scale"
  bottom: "conv4"
  top: "conv4"
  scale_param {
    bias_term: true
  }
}
layer {
  name: "relu4"
  type: "ReLU"
  bottom: "conv4"
  top: "conv4"
}
layer {
  name: "conv5"
  type: "BinaryConvolution"
  bottom: "conv4"
  top: "conv5"
  param {
    lr_mult: 1
    decay_mult: 1
  }
  param {
    lr_mult: 2
    decay_mult: 0
  }
  convolution_param {
    num_output: 256
    pad: 1
    kernel_size: 3
    weight_filler {
      type: "gaussian"
      std: 0.01
    }
    bias_filler {
      type: "constant"
      value: 0.1
    }
  }
  debug_param {
    xnorno_grad: true
  }
}
layer {
  name: "bn5"
  type: "BatchNorm"
  bottom: "conv5"
  top: "conv5"
}
layer {
  name: "scale5"
  type: "Scale"
  bottom: "conv5"
  top: "conv5"
  scale_param {
    bias_term: true
  }
}
layer {
  name: "relu5"
  type: "ReLU"
  bottom: "conv5"
  top: "conv5"
}
layer {
  name: "pool5"
  type: "Pooling"
  bottom: "conv5"
  top: "pool5"
  pooling_param {
    pool: MAX
    kernel_size: 3
    stride: 2
  }
}
layer {
  name: "drop6"
  type: "Dropout"
  bottom: "pool5"
  top: "pool5"
  dropout_param {
    dropout_ratio: 0.1
  }
}
layer {
  name: "fc6"
  type: "BinaryInnerProduct"
  bottom: "pool5"
  top: "fc6"
  param {
    lr_mult: 1
    decay_mult: 1
  }
  param {
    lr_mult: 2
    decay_mult: 0
  }
  inner_product_param {
    num_output: 4096
    weight_filler {
      type: "gaussian"
      std: 0.005
    }
    bias_filler {
      type: "constant"
      value: 0.1
    }
  }
  debug_param {
    xnorno_grad: true
  }
}
layer {
  name: "bn6"
  type: "BatchNorm"
  bottom: "fc6"
  top: "fc6"
}
layer {
  name: "scale6"
  type: "Scale"
  bottom: "fc6"
  top: "fc6"
  scale_param {
    bias_term: true
  }
}
layer {
  name: "relu6"
  type: "ReLU"
  bottom: "fc6"
  top: "fc6"
}
layer {
  name: "drop7"
  type: "Dropout"
  bottom: "fc6"
  top: "fc6"
  dropout_param {
    dropout_ratio: 0.1
  }
}
layer {
  name: "fc7"
  type: "BinaryInnerProduct"
  bottom: "fc6"
  top: "fc7"
  param {
    lr_mult: 1
    decay_mult: 1
  }
  param {
    lr_mult: 2
    decay_mult: 0
  }
  inner_product_param {
    num_output: 4096
    weight_filler {
      type: "gaussian"
      std: 0.005
    }
    bias_filler {
      type: "constant"
      value: 0.1
    }
  }
  debug_param {
    xnorno_grad: true
  }
}
layer {
  name: "bn7"
  type: "BatchNorm"
  bottom: "fc7"
  top: "fc7"
}
layer {
  name: "scale7"
  type: "Scale"
  bottom: "fc7"
  top: "fc7"
  scale_param {
    bias_term: true
  }
}
layer {
  name: "relu7"
  type: "ReLU"
  bottom: "fc7"
  top: "fc7"
}
layer {
  name: "fc8"
  type: "BinaryInnerProduct"
  bottom: "fc7"
  top: "fc8"
  param {
    lr_mult: 1
    decay_mult: 1
  }
  param {
    lr_mult: 2
    decay_mult: 0
  }
  inner_product_param {
    num_output: 1000
    weight_filler {
      type: "gaussian"
      std: 0.01
    }
    bias_filler {
      type: "constant"
      value: 0
    }
  }
  debug_param {
    xnorno_grad: true
  }
}
layer {
  name: "accuracy"
  type: "Accuracy"
  bottom: "fc8"
  bottom: "label"
  top: "accuracy"
  include {
    phase: TEST
  }
}
layer {
  name: "accuracy_5"
  type: "Accuracy"
  bottom: "fc8"
  bottom: "label"
  top: "accuracy_5"
  include {
    phase: TEST
  }
  accuracy_param {
    top_k: 5
  }
}
layer {
  name: "loss"
  type: "SoftmaxWithLoss"
  bottom: "fc8"
  bottom: "label"
  top: "loss"
}
I0905 21:23:58.737211 14148 layer_factory.hpp:77] Creating layer data
I0905 21:23:58.752087 14148 db_lmdb.cpp:35] Opened lmdb /mnt/data/ilsvrc12/keep/ilsvrc12_val_lmdb
I0905 21:23:58.776346 14148 net.cpp:84] Creating Layer data
I0905 21:23:58.776412 14148 net.cpp:380] data -> data
I0905 21:23:58.776485 14148 net.cpp:380] data -> label
I0905 21:23:58.778856 14148 data_layer.cpp:45] output data size: 50,3,224,224
I0905 21:23:58.832120 14148 base_data_layer.cpp:72] Initializing prefetch
I0905 21:23:58.832219 14148 base_data_layer.cpp:75] Prefetch initialized.
I0905 21:23:58.832229 14148 net.cpp:122] Setting up data
I0905 21:23:58.832249 14148 net.cpp:129] Top shape: 50 3 224 224 (7526400)
I0905 21:23:58.832258 14148 net.cpp:129] Top shape: 50 (50)
I0905 21:23:58.832262 14148 net.cpp:137] Memory required for data: 30105800
I0905 21:23:58.832286 14148 layer_factory.hpp:77] Creating layer label_data_1_split
I0905 21:23:58.832329 14148 net.cpp:84] Creating Layer label_data_1_split
I0905 21:23:58.832345 14148 net.cpp:406] label_data_1_split <- label
I0905 21:23:58.832375 14148 net.cpp:380] label_data_1_split -> label_data_1_split_0
I0905 21:23:58.832412 14148 net.cpp:380] label_data_1_split -> label_data_1_split_1
I0905 21:23:58.832432 14148 net.cpp:380] label_data_1_split -> label_data_1_split_2
I0905 21:23:58.832522 14148 net.cpp:122] Setting up label_data_1_split
I0905 21:23:58.832535 14148 net.cpp:129] Top shape: 50 (50)
I0905 21:23:58.832543 14148 net.cpp:129] Top shape: 50 (50)
I0905 21:23:58.832551 14148 net.cpp:129] Top shape: 50 (50)
I0905 21:23:58.832556 14148 net.cpp:137] Memory required for data: 30106400
I0905 21:23:58.832562 14148 layer_factory.hpp:77] Creating layer conv1
I0905 21:23:58.832597 14148 net.cpp:84] Creating Layer conv1
I0905 21:23:58.832607 14148 net.cpp:406] conv1 <- data
I0905 21:23:58.832630 14148 net.cpp:380] conv1 -> conv1
I0905 21:23:58.838469 14148 net.cpp:122] Setting up conv1
I0905 21:23:58.838485 14148 net.cpp:129] Top shape: 50 96 55 55 (14520000)
I0905 21:23:58.838490 14148 net.cpp:137] Memory required for data: 88186400
I0905 21:23:58.838551 14148 layer_factory.hpp:77] Creating layer bn1
I0905 21:23:58.838568 14148 net.cpp:84] Creating Layer bn1
I0905 21:23:58.838578 14148 net.cpp:406] bn1 <- conv1
I0905 21:23:58.838604 14148 net.cpp:367] bn1 -> conv1 (in-place)
I0905 21:23:58.838871 14148 net.cpp:122] Setting up bn1
I0905 21:23:58.838882 14148 net.cpp:129] Top shape: 50 96 55 55 (14520000)
I0905 21:23:58.838886 14148 net.cpp:137] Memory required for data: 146266400
I0905 21:23:58.838920 14148 layer_factory.hpp:77] Creating layer scale1
I0905 21:23:58.838943 14148 net.cpp:84] Creating Layer scale1
I0905 21:23:58.838953 14148 net.cpp:406] scale1 <- conv1
I0905 21:23:58.838968 14148 net.cpp:367] scale1 -> conv1 (in-place)
I0905 21:23:58.839038 14148 layer_factory.hpp:77] Creating layer scale1
I0905 21:23:58.839229 14148 net.cpp:122] Setting up scale1
I0905 21:23:58.839241 14148 net.cpp:129] Top shape: 50 96 55 55 (14520000)
I0905 21:23:58.839246 14148 net.cpp:137] Memory required for data: 204346400
I0905 21:23:58.839260 14148 layer_factory.hpp:77] Creating layer relu1
I0905 21:23:58.839275 14148 net.cpp:84] Creating Layer relu1
I0905 21:23:58.839298 14148 net.cpp:406] relu1 <- conv1
I0905 21:23:58.839315 14148 net.cpp:367] relu1 -> conv1 (in-place)
I0905 21:23:58.839687 14148 net.cpp:122] Setting up relu1
I0905 21:23:58.839699 14148 net.cpp:129] Top shape: 50 96 55 55 (14520000)
I0905 21:23:58.839704 14148 net.cpp:137] Memory required for data: 262426400
I0905 21:23:58.839710 14148 layer_factory.hpp:77] Creating layer pool1
I0905 21:23:58.839730 14148 net.cpp:84] Creating Layer pool1
I0905 21:23:58.839738 14148 net.cpp:406] pool1 <- conv1
I0905 21:23:58.839756 14148 net.cpp:380] pool1 -> pool1
I0905 21:23:58.839823 14148 net.cpp:122] Setting up pool1
I0905 21:23:58.839835 14148 net.cpp:129] Top shape: 50 96 27 27 (3499200)
I0905 21:23:58.839840 14148 net.cpp:137] Memory required for data: 276423200
I0905 21:23:58.839846 14148 layer_factory.hpp:77] Creating layer conv2
I0905 21:23:58.839866 14148 net.cpp:84] Creating Layer conv2
I0905 21:23:58.839876 14148 net.cpp:406] conv2 <- pool1
I0905 21:23:58.839897 14148 net.cpp:380] conv2 -> conv2
I0905 21:23:58.923351 14148 net.cpp:122] Setting up conv2
I0905 21:23:58.923382 14148 net.cpp:129] Top shape: 50 256 27 27 (9331200)
I0905 21:23:58.923394 14148 net.cpp:137] Memory required for data: 313748000
I0905 21:23:58.923440 14148 layer_factory.hpp:77] Creating layer bn2
I0905 21:23:58.923475 14148 net.cpp:84] Creating Layer bn2
I0905 21:23:58.923488 14148 net.cpp:406] bn2 <- conv2
I0905 21:23:58.923508 14148 net.cpp:367] bn2 -> conv2 (in-place)
I0905 21:23:58.923739 14148 net.cpp:122] Setting up bn2
I0905 21:23:58.923749 14148 net.cpp:129] Top shape: 50 256 27 27 (9331200)
I0905 21:23:58.923753 14148 net.cpp:137] Memory required for data: 351072800
I0905 21:23:58.923781 14148 layer_factory.hpp:77] Creating layer scale2
I0905 21:23:58.923799 14148 net.cpp:84] Creating Layer scale2
I0905 21:23:58.923807 14148 net.cpp:406] scale2 <- conv2
I0905 21:23:58.923821 14148 net.cpp:367] scale2 -> conv2 (in-place)
I0905 21:23:58.923887 14148 layer_factory.hpp:77] Creating layer scale2
I0905 21:23:58.924044 14148 net.cpp:122] Setting up scale2
I0905 21:23:58.924054 14148 net.cpp:129] Top shape: 50 256 27 27 (9331200)
I0905 21:23:58.924058 14148 net.cpp:137] Memory required for data: 388397600
I0905 21:23:58.924072 14148 layer_factory.hpp:77] Creating layer relu2
I0905 21:23:58.924085 14148 net.cpp:84] Creating Layer relu2
I0905 21:23:58.924093 14148 net.cpp:406] relu2 <- conv2
I0905 21:23:58.924106 14148 net.cpp:367] relu2 -> conv2 (in-place)
I0905 21:23:58.924727 14148 net.cpp:122] Setting up relu2
I0905 21:23:58.924738 14148 net.cpp:129] Top shape: 50 256 27 27 (9331200)
I0905 21:23:58.924742 14148 net.cpp:137] Memory required for data: 425722400
I0905 21:23:58.924748 14148 layer_factory.hpp:77] Creating layer pool2
I0905 21:23:58.924768 14148 net.cpp:84] Creating Layer pool2
I0905 21:23:58.924777 14148 net.cpp:406] pool2 <- conv2
I0905 21:23:58.924794 14148 net.cpp:380] pool2 -> pool2
I0905 21:23:58.924865 14148 net.cpp:122] Setting up pool2
I0905 21:23:58.924876 14148 net.cpp:129] Top shape: 50 256 13 13 (2163200)
I0905 21:23:58.924881 14148 net.cpp:137] Memory required for data: 434375200
I0905 21:23:58.924886 14148 layer_factory.hpp:77] Creating layer conv3
I0905 21:23:58.924914 14148 net.cpp:84] Creating Layer conv3
I0905 21:23:58.924923 14148 net.cpp:406] conv3 <- pool2
I0905 21:23:58.924943 14148 net.cpp:380] conv3 -> conv3
I0905 21:23:59.040979 14148 net.cpp:122] Setting up conv3
I0905 21:23:59.041018 14148 net.cpp:129] Top shape: 50 384 13 13 (3244800)
I0905 21:23:59.041023 14148 net.cpp:137] Memory required for data: 447354400
I0905 21:23:59.041059 14148 layer_factory.hpp:77] Creating layer bn3
I0905 21:23:59.041100 14148 net.cpp:84] Creating Layer bn3
I0905 21:23:59.041113 14148 net.cpp:406] bn3 <- conv3
I0905 21:23:59.041138 14148 net.cpp:367] bn3 -> conv3 (in-place)
I0905 21:23:59.041399 14148 net.cpp:122] Setting up bn3
I0905 21:23:59.041419 14148 net.cpp:129] Top shape: 50 384 13 13 (3244800)
I0905 21:23:59.041422 14148 net.cpp:137] Memory required for data: 460333600
I0905 21:23:59.041482 14148 layer_factory.hpp:77] Creating layer scale3
I0905 21:23:59.041535 14148 net.cpp:84] Creating Layer scale3
I0905 21:23:59.041544 14148 net.cpp:406] scale3 <- conv3
I0905 21:23:59.041559 14148 net.cpp:367] scale3 -> conv3 (in-place)
I0905 21:23:59.041627 14148 layer_factory.hpp:77] Creating layer scale3
I0905 21:23:59.041807 14148 net.cpp:122] Setting up scale3
I0905 21:23:59.041818 14148 net.cpp:129] Top shape: 50 384 13 13 (3244800)
I0905 21:23:59.041831 14148 net.cpp:137] Memory required for data: 473312800
I0905 21:23:59.041846 14148 layer_factory.hpp:77] Creating layer relu3
I0905 21:23:59.041859 14148 net.cpp:84] Creating Layer relu3
I0905 21:23:59.041867 14148 net.cpp:406] relu3 <- conv3
I0905 21:23:59.041882 14148 net.cpp:367] relu3 -> conv3 (in-place)
I0905 21:23:59.042528 14148 net.cpp:122] Setting up relu3
I0905 21:23:59.042541 14148 net.cpp:129] Top shape: 50 384 13 13 (3244800)
I0905 21:23:59.042544 14148 net.cpp:137] Memory required for data: 486292000
I0905 21:23:59.042551 14148 layer_factory.hpp:77] Creating layer conv4
I0905 21:23:59.042582 14148 net.cpp:84] Creating Layer conv4
I0905 21:23:59.042596 14148 net.cpp:406] conv4 <- conv3
I0905 21:23:59.042618 14148 net.cpp:380] conv4 -> conv4
I0905 21:23:59.216356 14148 net.cpp:122] Setting up conv4
I0905 21:23:59.216385 14148 net.cpp:129] Top shape: 50 384 13 13 (3244800)
I0905 21:23:59.216398 14148 net.cpp:137] Memory required for data: 499271200
I0905 21:23:59.216434 14148 layer_factory.hpp:77] Creating layer bn4
I0905 21:23:59.216478 14148 net.cpp:84] Creating Layer bn4
I0905 21:23:59.216495 14148 net.cpp:406] bn4 <- conv4
I0905 21:23:59.216527 14148 net.cpp:367] bn4 -> conv4 (in-place)
I0905 21:23:59.216791 14148 net.cpp:122] Setting up bn4
I0905 21:23:59.216802 14148 net.cpp:129] Top shape: 50 384 13 13 (3244800)
I0905 21:23:59.216817 14148 net.cpp:137] Memory required for data: 512250400
I0905 21:23:59.216845 14148 layer_factory.hpp:77] Creating layer scale4
I0905 21:23:59.216869 14148 net.cpp:84] Creating Layer scale4
I0905 21:23:59.216881 14148 net.cpp:406] scale4 <- conv4
I0905 21:23:59.216904 14148 net.cpp:367] scale4 -> conv4 (in-place)
I0905 21:23:59.216984 14148 layer_factory.hpp:77] Creating layer scale4
I0905 21:23:59.217170 14148 net.cpp:122] Setting up scale4
I0905 21:23:59.217181 14148 net.cpp:129] Top shape: 50 384 13 13 (3244800)
I0905 21:23:59.217196 14148 net.cpp:137] Memory required for data: 525229600
I0905 21:23:59.217218 14148 layer_factory.hpp:77] Creating layer relu4
I0905 21:23:59.217237 14148 net.cpp:84] Creating Layer relu4
I0905 21:23:59.217248 14148 net.cpp:406] relu4 <- conv4
I0905 21:23:59.217272 14148 net.cpp:367] relu4 -> conv4 (in-place)
I0905 21:23:59.217705 14148 net.cpp:122] Setting up relu4
I0905 21:23:59.217717 14148 net.cpp:129] Top shape: 50 384 13 13 (3244800)
I0905 21:23:59.217725 14148 net.cpp:137] Memory required for data: 538208800
I0905 21:23:59.217736 14148 layer_factory.hpp:77] Creating layer conv5
I0905 21:23:59.217768 14148 net.cpp:84] Creating Layer conv5
I0905 21:23:59.217788 14148 net.cpp:406] conv5 <- conv4
I0905 21:23:59.217826 14148 net.cpp:380] conv5 -> conv5
I0905 21:23:59.330999 14148 net.cpp:122] Setting up conv5
I0905 21:23:59.331032 14148 net.cpp:129] Top shape: 50 256 13 13 (2163200)
I0905 21:23:59.331040 14148 net.cpp:137] Memory required for data: 546861600
I0905 21:23:59.331089 14148 layer_factory.hpp:77] Creating layer bn5
I0905 21:23:59.331173 14148 net.cpp:84] Creating Layer bn5
I0905 21:23:59.331199 14148 net.cpp:406] bn5 <- conv5
I0905 21:23:59.331254 14148 net.cpp:367] bn5 -> conv5 (in-place)
I0905 21:23:59.331526 14148 net.cpp:122] Setting up bn5
I0905 21:23:59.331537 14148 net.cpp:129] Top shape: 50 256 13 13 (2163200)
I0905 21:23:59.331545 14148 net.cpp:137] Memory required for data: 555514400
I0905 21:23:59.331607 14148 layer_factory.hpp:77] Creating layer scale5
I0905 21:23:59.331630 14148 net.cpp:84] Creating Layer scale5
I0905 21:23:59.331651 14148 net.cpp:406] scale5 <- conv5
I0905 21:23:59.331689 14148 net.cpp:367] scale5 -> conv5 (in-place)
I0905 21:23:59.331809 14148 layer_factory.hpp:77] Creating layer scale5
I0905 21:23:59.331995 14148 net.cpp:122] Setting up scale5
I0905 21:23:59.332007 14148 net.cpp:129] Top shape: 50 256 13 13 (2163200)
I0905 21:23:59.332015 14148 net.cpp:137] Memory required for data: 564167200
I0905 21:23:59.332053 14148 layer_factory.hpp:77] Creating layer relu5
I0905 21:23:59.332072 14148 net.cpp:84] Creating Layer relu5
I0905 21:23:59.332092 14148 net.cpp:406] relu5 <- conv5
I0905 21:23:59.332123 14148 net.cpp:367] relu5 -> conv5 (in-place)
I0905 21:23:59.332739 14148 net.cpp:122] Setting up relu5
I0905 21:23:59.332752 14148 net.cpp:129] Top shape: 50 256 13 13 (2163200)
I0905 21:23:59.332759 14148 net.cpp:137] Memory required for data: 572820000
I0905 21:23:59.332770 14148 layer_factory.hpp:77] Creating layer pool5
I0905 21:23:59.332795 14148 net.cpp:84] Creating Layer pool5
I0905 21:23:59.332806 14148 net.cpp:406] pool5 <- conv5
I0905 21:23:59.332834 14148 net.cpp:380] pool5 -> pool5
I0905 21:23:59.332904 14148 net.cpp:122] Setting up pool5
I0905 21:23:59.332918 14148 net.cpp:129] Top shape: 50 256 6 6 (460800)
I0905 21:23:59.332927 14148 net.cpp:137] Memory required for data: 574663200
I0905 21:23:59.332937 14148 layer_factory.hpp:77] Creating layer drop6
I0905 21:23:59.332960 14148 net.cpp:84] Creating Layer drop6
I0905 21:23:59.332971 14148 net.cpp:406] drop6 <- pool5
I0905 21:23:59.332993 14148 net.cpp:367] drop6 -> pool5 (in-place)
I0905 21:23:59.333039 14148 net.cpp:122] Setting up drop6
I0905 21:23:59.333050 14148 net.cpp:129] Top shape: 50 256 6 6 (460800)
I0905 21:23:59.333057 14148 net.cpp:137] Memory required for data: 576506400
I0905 21:23:59.333068 14148 layer_factory.hpp:77] Creating layer fc6
I0905 21:23:59.333098 14148 net.cpp:84] Creating Layer fc6
I0905 21:23:59.333111 14148 net.cpp:406] fc6 <- pool5
I0905 21:23:59.333138 14148 net.cpp:380] fc6 -> fc6
I0905 21:24:04.358801 14148 net.cpp:122] Setting up fc6
I0905 21:24:04.358842 14148 net.cpp:129] Top shape: 50 4096 (204800)
I0905 21:24:04.358850 14148 net.cpp:137] Memory required for data: 577325600
I0905 21:24:04.358906 14148 layer_factory.hpp:77] Creating layer bn6
I0905 21:24:04.358942 14148 net.cpp:84] Creating Layer bn6
I0905 21:24:04.358961 14148 net.cpp:406] bn6 <- fc6
I0905 21:24:04.358997 14148 net.cpp:367] bn6 -> fc6 (in-place)
I0905 21:24:04.359282 14148 net.cpp:122] Setting up bn6
I0905 21:24:04.359293 14148 net.cpp:129] Top shape: 50 4096 (204800)
I0905 21:24:04.359308 14148 net.cpp:137] Memory required for data: 578144800
I0905 21:24:04.359339 14148 layer_factory.hpp:77] Creating layer scale6
I0905 21:24:04.359388 14148 net.cpp:84] Creating Layer scale6
I0905 21:24:04.359411 14148 net.cpp:406] scale6 <- fc6
I0905 21:24:04.359432 14148 net.cpp:367] scale6 -> fc6 (in-place)
I0905 21:24:04.359532 14148 layer_factory.hpp:77] Creating layer scale6
I0905 21:24:04.359735 14148 net.cpp:122] Setting up scale6
I0905 21:24:04.359750 14148 net.cpp:129] Top shape: 50 4096 (204800)
I0905 21:24:04.359758 14148 net.cpp:137] Memory required for data: 578964000
I0905 21:24:04.359781 14148 layer_factory.hpp:77] Creating layer relu6
I0905 21:24:04.359799 14148 net.cpp:84] Creating Layer relu6
I0905 21:24:04.359819 14148 net.cpp:406] relu6 <- fc6
I0905 21:24:04.359850 14148 net.cpp:367] relu6 -> fc6 (in-place)
I0905 21:24:04.360298 14148 net.cpp:122] Setting up relu6
I0905 21:24:04.360311 14148 net.cpp:129] Top shape: 50 4096 (204800)
I0905 21:24:04.360317 14148 net.cpp:137] Memory required for data: 579783200
I0905 21:24:04.360329 14148 layer_factory.hpp:77] Creating layer drop7
I0905 21:24:04.360353 14148 net.cpp:84] Creating Layer drop7
I0905 21:24:04.360365 14148 net.cpp:406] drop7 <- fc6
I0905 21:24:04.360389 14148 net.cpp:367] drop7 -> fc6 (in-place)
I0905 21:24:04.360437 14148 net.cpp:122] Setting up drop7
I0905 21:24:04.360450 14148 net.cpp:129] Top shape: 50 4096 (204800)
I0905 21:24:04.360456 14148 net.cpp:137] Memory required for data: 580602400
I0905 21:24:04.360467 14148 layer_factory.hpp:77] Creating layer fc7
I0905 21:24:04.360499 14148 net.cpp:84] Creating Layer fc7
I0905 21:24:04.360512 14148 net.cpp:406] fc7 <- fc6
I0905 21:24:04.360553 14148 net.cpp:380] fc7 -> fc7
I0905 21:24:06.483873 14148 net.cpp:122] Setting up fc7
I0905 21:24:06.483912 14148 net.cpp:129] Top shape: 50 4096 (204800)
I0905 21:24:06.483920 14148 net.cpp:137] Memory required for data: 581421600
I0905 21:24:06.483978 14148 layer_factory.hpp:77] Creating layer bn7
I0905 21:24:06.484030 14148 net.cpp:84] Creating Layer bn7
I0905 21:24:06.484067 14148 net.cpp:406] bn7 <- fc7
I0905 21:24:06.484118 14148 net.cpp:367] bn7 -> fc7 (in-place)
I0905 21:24:06.484367 14148 net.cpp:122] Setting up bn7
I0905 21:24:06.484378 14148 net.cpp:129] Top shape: 50 4096 (204800)
I0905 21:24:06.484385 14148 net.cpp:137] Memory required for data: 582240800
I0905 21:24:06.484413 14148 layer_factory.hpp:77] Creating layer scale7
I0905 21:24:06.484437 14148 net.cpp:84] Creating Layer scale7
I0905 21:24:06.484448 14148 net.cpp:406] scale7 <- fc7
I0905 21:24:06.484472 14148 net.cpp:367] scale7 -> fc7 (in-place)
I0905 21:24:06.484549 14148 layer_factory.hpp:77] Creating layer scale7
I0905 21:24:06.484721 14148 net.cpp:122] Setting up scale7
I0905 21:24:06.484733 14148 net.cpp:129] Top shape: 50 4096 (204800)
I0905 21:24:06.484740 14148 net.cpp:137] Memory required for data: 583060000
I0905 21:24:06.484760 14148 layer_factory.hpp:77] Creating layer relu7
I0905 21:24:06.484778 14148 net.cpp:84] Creating Layer relu7
I0905 21:24:06.484791 14148 net.cpp:406] relu7 <- fc7
I0905 21:24:06.484812 14148 net.cpp:367] relu7 -> fc7 (in-place)
I0905 21:24:06.485435 14148 net.cpp:122] Setting up relu7
I0905 21:24:06.485447 14148 net.cpp:129] Top shape: 50 4096 (204800)
I0905 21:24:06.485455 14148 net.cpp:137] Memory required for data: 583879200
I0905 21:24:06.485464 14148 layer_factory.hpp:77] Creating layer fc8
I0905 21:24:06.485493 14148 net.cpp:84] Creating Layer fc8
I0905 21:24:06.485505 14148 net.cpp:406] fc8 <- fc7
I0905 21:24:06.485533 14148 net.cpp:380] fc8 -> fc8
I0905 21:24:07.003649 14148 net.cpp:122] Setting up fc8
I0905 21:24:07.003691 14148 net.cpp:129] Top shape: 50 1000 (50000)
I0905 21:24:07.003698 14148 net.cpp:137] Memory required for data: 584079200
I0905 21:24:07.003746 14148 layer_factory.hpp:77] Creating layer fc8_fc8_0_split
I0905 21:24:07.003790 14148 net.cpp:84] Creating Layer fc8_fc8_0_split
I0905 21:24:07.003809 14148 net.cpp:406] fc8_fc8_0_split <- fc8
I0905 21:24:07.003840 14148 net.cpp:380] fc8_fc8_0_split -> fc8_fc8_0_split_0
I0905 21:24:07.003881 14148 net.cpp:380] fc8_fc8_0_split -> fc8_fc8_0_split_1
I0905 21:24:07.003908 14148 net.cpp:380] fc8_fc8_0_split -> fc8_fc8_0_split_2
I0905 21:24:07.003990 14148 net.cpp:122] Setting up fc8_fc8_0_split
I0905 21:24:07.004006 14148 net.cpp:129] Top shape: 50 1000 (50000)
I0905 21:24:07.004019 14148 net.cpp:129] Top shape: 50 1000 (50000)
I0905 21:24:07.004030 14148 net.cpp:129] Top shape: 50 1000 (50000)
I0905 21:24:07.004037 14148 net.cpp:137] Memory required for data: 584679200
I0905 21:24:07.004047 14148 layer_factory.hpp:77] Creating layer accuracy
I0905 21:24:07.004070 14148 net.cpp:84] Creating Layer accuracy
I0905 21:24:07.004081 14148 net.cpp:406] accuracy <- fc8_fc8_0_split_0
I0905 21:24:07.004101 14148 net.cpp:406] accuracy <- label_data_1_split_0
I0905 21:24:07.004124 14148 net.cpp:380] accuracy -> accuracy
…
