…
I0122 09:04:35.621246  8862 net.cpp:294] The NetState phase (0) differed from the phase (1) specified by a rule in layer data
I0122 09:04:35.621747  8862 net.cpp:51] Initializing net from parameters: 
name: "AlexNet-BN"
state {
  phase: TRAIN
  level: 0
  stage: ""
}
layer {
  name: "data"
  type: "Data"
  top: "data"
  top: "label"
  include {
    phase: TRAIN
  }
  transform_param {
    mirror: true
    crop_size: 224
    mean_value: 104
    mean_value: 117
    mean_value: 123
  }
  data_param {
    source: "/home/zhengzhe/Data/imagenet_shrt256/ilsvrc12_train_lmdb"
    batch_size: 256
    backend: LMDB
  }
}
layer {
  name: "conv1"
  type: "Convolution"
  bottom: "data"
  top: "conv1"
  param {
    lr_mult: 1
    decay_mult: 1
  }
  convolution_param {
    num_output: 96
    bias_term: false
    pad: 2
    kernel_size: 11
    stride: 4
    weight_filler {
      type: "msra"
    }
  }
}
layer {
  name: "bn1"
  type: "BatchNorm"
  bottom: "conv1"
  top: "conv1"
}
layer {
  name: "scale1"
  type: "Scale"
  bottom: "conv1"
  top: "conv1"
  scale_param {
    bias_term: true
  }
}
layer {
  name: "relu1"
  type: "ReLU"
  bottom: "conv1"
  top: "conv1"
}
layer {
  name: "pool1"
  type: "Pooling"
  bottom: "conv1"
  top: "pool1"
  pooling_param {
    pool: MAX
    kernel_size: 3
    stride: 2
  }
}
layer {
  name: "bn2"
  type: "BatchNorm"
  bottom: "pool1"
  top: "pool1"
}
layer {
  name: "scale2"
  type: "Scale"
  bottom: "pool1"
  top: "pool1"
  scale_param {
    bias_term: true
  }
}
layer {
  name: "binactive1"
  type: "BinActive"
  bottom: "pool1"
  top: "binactive1"
}
layer {
  name: "conv2"
  type: "BinaryConvolution"
  bottom: "binactive1"
  top: "conv2"
  param {
    lr_mult: 1
    decay_mult: 1
  }
  convolution_param {
    num_output: 256
    bias_term: false
    pad: 2
    kernel_size: 5
    weight_filler {
      type: "msra"
    }
  }
  debug_param {
    xnorno_grad: true
  }
}
layer {
  name: "pool2"
  type: "Pooling"
  bottom: "conv2"
  top: "pool2"
  pooling_param {
    pool: MAX
    kernel_size: 3
    stride: 2
  }
}
layer {
  name: "bn3"
  type: "BatchNorm"
  bottom: "pool2"
  top: "pool2"
}
layer {
  name: "scale3"
  type: "Scale"
  bottom: "pool2"
  top: "pool2"
  scale_param {
    bias_term: true
  }
}
layer {
  name: "binactive2"
  type: "BinActive"
  bottom: "pool2"
  top: "binactive2"
}
layer {
  name: "conv3"
  type: "BinaryConvolution"
  bottom: "binactive2"
  top: "conv3"
  param {
    lr_mult: 1
    decay_mult: 1
  }
  convolution_param {
    num_output: 384
    bias_term: false
    pad: 1
    kernel_size: 3
    weight_filler {
      type: "msra"
    }
  }
  debug_param {
    xnorno_grad: true
  }
}
layer {
  name: "bn4"
  type: "BatchNorm"
  bottom: "conv3"
  top: "conv3"
}
layer {
  name: "scale4"
  type: "Scale"
  bottom: "conv3"
  top: "conv3"
  scale_param {
    bias_term: true
  }
}
layer {
  name: "binactive3"
  type: "BinActive"
  bottom: "conv3"
  top: "binactive3"
}
layer {
  name: "conv4"
  type: "BinaryConvolution"
  bottom: "binactive3"
  top: "conv4"
  param {
    lr_mult: 1
    decay_mult: 1
  }
  convolution_param {
    num_output: 384
    bias_term: false
    pad: 1
    kernel_size: 3
    weight_filler {
      type: "msra"
    }
  }
  debug_param {
    xnorno_grad: true
  }
}
layer {
  name: "bn5"
  type: "BatchNorm"
  bottom: "conv4"
  top: "conv4"
}
layer {
  name: "scale5"
  type: "Scale"
  bottom: "conv4"
  top: "conv4"
  scale_param {
    bias_term: true
  }
}
layer {
  name: "binactive4"
  type: "BinActive"
  bottom: "conv4"
  top: "binactive4"
}
layer {
  name: "conv5"
  type: "BinaryConvolution"
  bottom: "binactive4"
  top: "conv5"
  param {
    lr_mult: 1
    decay_mult: 1
  }
  convolution_param {
    num_output: 256
    bias_term: false
    pad: 1
    kernel_size: 3
    weight_filler {
      type: "msra"
    }
  }
  debug_param {
    xnorno_grad: true
  }
}
layer {
  name: "pool5"
  type: "Pooling"
  bottom: "conv5"
  top: "pool5"
  pooling_param {
    pool: MAX
    kernel_size: 3
    stride: 2
  }
}
layer {
  name: "bn6"
  type: "BatchNorm"
  bottom: "pool5"
  top: "pool5"
}
layer {
  name: "scale6"
  type: "Scale"
  bottom: "pool5"
  top: "pool5"
  scale_param {
    bias_term: true
  }
}
layer {
  name: "binactive5"
  type: "BinActive"
  bottom: "pool5"
  top: "binactive5"
}
layer {
  name: "fc6"
  type: "BinaryInnerProduct"
  bottom: "binactive5"
  top: "fc6"
  param {
    lr_mult: 1
    decay_mult: 1
  }
  inner_product_param {
    num_output: 4096
    bias_term: false
    weight_filler {
      type: "msra"
    }
  }
  debug_param {
    xnorno_grad: true
  }
}
layer {
  name: "bn7"
  type: "BatchNorm"
  bottom: "fc6"
  top: "fc6"
}
layer {
  name: "scale7"
  type: "Scale"
  bottom: "fc6"
  top: "fc6"
  scale_param {
    bias_term: true
  }
}
layer {
  name: "binactive6"
  type: "BinActive"
  bottom: "fc6"
  top: "binactive6"
}
layer {
  name: "fc7"
  type: "BinaryInnerProduct"
  bottom: "binactive6"
  top: "fc7"
  param {
    lr_mult: 1
    decay_mult: 1
  }
  inner_product_param {
    num_output: 4096
    bias_term: false
    weight_filler {
      type: "msra"
    }
  }
  debug_param {
    xnorno_grad: true
  }
}
layer {
  name: "bn8"
  type: "BatchNorm"
  bottom: "fc7"
  top: "fc7"
}
layer {
  name: "scale8"
  type: "Scale"
  bottom: "fc7"
  top: "fc7"
  scale_param {
    bias_term: true
  }
}
layer {
  name: "relu7"
  type: "ReLU"
  bottom: "fc7"
  top: "fc7"
}
layer {
  name: "fc8"
  type: "InnerProduct"
  bottom: "fc7"
  top: "fc8"
  param {
    lr_mult: 1
    decay_mult: 1
  }
  param {
    lr_mult: 2
    decay_mult: 0
  }
  inner_product_param {
    num_output: 1000
    weight_filler {
      type: "msra"
    }
    bias_filler {
      type: "constant"
      value: 0
    }
  }
}
layer {
  name: "loss"
  type: "SoftmaxWithLoss"
  bottom: "fc8"
  bottom: "label"
  top: "loss"
}
layer {
  name: "accuracy"
  type: "Accuracy"
  bottom: "fc8"
  bottom: "label"
  top: "accuracy"
}
layer {
  name: "accuracy_5"
  type: "Accuracy"
  bottom: "fc8"
  bottom: "label"
  top: "accuracy_5"
  accuracy_param {
    top_k: 5
  }
}
I0122 09:04:35.623162  8862 layer_factory.hpp:78] Creating layer data
I0122 09:04:35.623734  8862 db_lmdb.cpp:35] Opened lmdb /home/zhengzhe/Data/imagenet_shrt256/ilsvrc12_train_lmdb
I0122 09:04:35.623886  8862 net.cpp:84] Creating Layer data
I0122 09:04:35.623951  8862 net.cpp:380] data -> data
I0122 09:04:35.624227  8862 net.cpp:380] data -> label
I0122 09:04:35.646519  8862 data_layer.cpp:45] output data size: 256,3,224,224
I0122 09:04:36.421754  8862 base_data_layer.cpp:72] Initializing prefetch
I0122 09:04:37.056229  8862 base_data_layer.cpp:75] Prefetch initialized.
I0122 09:04:37.056275  8862 net.cpp:122] Setting up data
I0122 09:04:37.056321  8862 net.cpp:129] Top shape: 256 3 224 224 (38535168)
I0122 09:04:37.056331  8862 net.cpp:129] Top shape: 256 (256)
I0122 09:04:37.056335  8862 net.cpp:137] Memory required for data: 154141696
I0122 09:04:37.056382  8862 layer_factory.hpp:78] Creating layer label_data_1_split
I0122 09:04:37.056450  8862 net.cpp:84] Creating Layer label_data_1_split
I0122 09:04:37.056476  8862 net.cpp:406] label_data_1_split <- label
I0122 09:04:37.056540  8862 net.cpp:380] label_data_1_split -> label_data_1_split_0
I0122 09:04:37.056591  8862 net.cpp:380] label_data_1_split -> label_data_1_split_1
I0122 09:04:37.056612  8862 net.cpp:380] label_data_1_split -> label_data_1_split_2
I0122 09:04:37.056752  8862 net.cpp:122] Setting up label_data_1_split
I0122 09:04:37.056769  8862 net.cpp:129] Top shape: 256 (256)
I0122 09:04:37.056783  8862 net.cpp:129] Top shape: 256 (256)
I0122 09:04:37.056789  8862 net.cpp:129] Top shape: 256 (256)
I0122 09:04:37.056793  8862 net.cpp:137] Memory required for data: 154144768
I0122 09:04:37.056800  8862 layer_factory.hpp:78] Creating layer conv1
I0122 09:04:37.056872  8862 net.cpp:84] Creating Layer conv1
I0122 09:04:37.056885  8862 net.cpp:406] conv1 <- data
I0122 09:04:37.056910  8862 net.cpp:380] conv1 -> conv1
I0122 09:04:42.157032  8862 cudnn_conv_layer.cpp:194] Reallocating workspace storage: 127416
I0122 09:04:42.157480  8862 net.cpp:122] Setting up conv1
I0122 09:04:42.157522  8862 net.cpp:129] Top shape: 256 96 55 55 (74342400)
I0122 09:04:42.157529  8862 net.cpp:137] Memory required for data: 451514368
I0122 09:04:42.157667  8862 layer_factory.hpp:78] Creating layer bn1
I0122 09:04:42.157752  8862 net.cpp:84] Creating Layer bn1
I0122 09:04:42.157774  8862 net.cpp:406] bn1 <- conv1
I0122 09:04:42.157819  8862 net.cpp:367] bn1 -> conv1 (in-place)
I0122 09:04:42.160253  8862 net.cpp:122] Setting up bn1
I0122 09:04:42.160275  8862 net.cpp:129] Top shape: 256 96 55 55 (74342400)
I0122 09:04:42.160281  8862 net.cpp:137] Memory required for data: 748883968
I0122 09:04:42.160353  8862 layer_factory.hpp:78] Creating layer scale1
I0122 09:04:42.160410  8862 net.cpp:84] Creating Layer scale1
I0122 09:04:42.160424  8862 net.cpp:406] scale1 <- conv1
I0122 09:04:42.160449  8862 net.cpp:367] scale1 -> conv1 (in-place)
I0122 09:04:42.160578  8862 layer_factory.hpp:78] Creating layer scale1
I0122 09:04:42.160889  8862 net.cpp:122] Setting up scale1
I0122 09:04:42.160907  8862 net.cpp:129] Top shape: 256 96 55 55 (74342400)
I0122 09:04:42.160912  8862 net.cpp:137] Memory required for data: 1046253568
I0122 09:04:42.160944  8862 layer_factory.hpp:78] Creating layer relu1
I0122 09:04:42.160985  8862 net.cpp:84] Creating Layer relu1
I0122 09:04:42.160998  8862 net.cpp:406] relu1 <- conv1
I0122 09:04:42.161018  8862 net.cpp:367] relu1 -> conv1 (in-place)
I0122 09:04:42.161700  8862 net.cpp:122] Setting up relu1
I0122 09:04:42.161718  8862 net.cpp:129] Top shape: 256 96 55 55 (74342400)
I0122 09:04:42.161725  8862 net.cpp:137] Memory required for data: 1343623168
I0122 09:04:42.161732  8862 layer_factory.hpp:78] Creating layer pool1
I0122 09:04:42.161772  8862 net.cpp:84] Creating Layer pool1
I0122 09:04:42.161784  8862 net.cpp:406] pool1 <- conv1
I0122 09:04:42.161809  8862 net.cpp:380] pool1 -> pool1
I0122 09:04:42.161921  8862 net.cpp:122] Setting up pool1
I0122 09:04:42.161939  8862 net.cpp:129] Top shape: 256 96 27 27 (17915904)
I0122 09:04:42.161943  8862 net.cpp:137] Memory required for data: 1415286784
I0122 09:04:42.161953  8862 layer_factory.hpp:78] Creating layer bn2
I0122 09:04:42.161974  8862 net.cpp:84] Creating Layer bn2
I0122 09:04:42.161984  8862 net.cpp:406] bn2 <- pool1
I0122 09:04:42.162004  8862 net.cpp:367] bn2 -> pool1 (in-place)
I0122 09:04:42.165395  8862 net.cpp:122] Setting up bn2
I0122 09:04:42.165444  8862 net.cpp:129] Top shape: 256 96 27 27 (17915904)
I0122 09:04:42.165450  8862 net.cpp:137] Memory required for data: 1486950400
I0122 09:04:42.165493  8862 layer_factory.hpp:78] Creating layer scale2
I0122 09:04:42.165529  8862 net.cpp:84] Creating Layer scale2
I0122 09:04:42.165542  8862 net.cpp:406] scale2 <- pool1
I0122 09:04:42.165565  8862 net.cpp:367] scale2 -> pool1 (in-place)
I0122 09:04:42.165649  8862 layer_factory.hpp:78] Creating layer scale2
I0122 09:04:42.165896  8862 net.cpp:122] Setting up scale2
I0122 09:04:42.165912  8862 net.cpp:129] Top shape: 256 96 27 27 (17915904)
I0122 09:04:42.165917  8862 net.cpp:137] Memory required for data: 1558614016
I0122 09:04:42.165935  8862 layer_factory.hpp:78] Creating layer binactive1
I0122 09:04:42.165962  8862 net.cpp:84] Creating Layer binactive1
I0122 09:04:42.165972  8862 net.cpp:406] binactive1 <- pool1
I0122 09:04:42.165992  8862 net.cpp:380] binactive1 -> binactive1
I0122 09:04:42.166081  8862 net.cpp:122] Setting up binactive1
I0122 09:04:42.166097  8862 net.cpp:129] Top shape: 256 96 27 27 (17915904)
I0122 09:04:42.166105  8862 net.cpp:137] Memory required for data: 1630277632
I0122 09:04:42.166111  8862 layer_factory.hpp:78] Creating layer conv2
I0122 09:04:42.166157  8862 net.cpp:84] Creating Layer conv2
I0122 09:04:42.166168  8862 net.cpp:406] conv2 <- binactive1
I0122 09:04:42.166194  8862 net.cpp:380] conv2 -> conv2
I0122 09:04:42.234485  8862 cudnn_binary_conv_layer.cpp:194] Reallocating workspace storage: 19668
I0122 09:04:42.234529  8862 net.cpp:122] Setting up conv2
I0122 09:04:42.234544  8862 net.cpp:129] Top shape: 256 256 27 27 (47775744)
I0122 09:04:42.234549  8862 net.cpp:137] Memory required for data: 1821380608
I0122 09:04:42.234571  8862 layer_factory.hpp:78] Creating layer pool2
I0122 09:04:42.234602  8862 net.cpp:84] Creating Layer pool2
I0122 09:04:42.234614  8862 net.cpp:406] pool2 <- conv2
I0122 09:04:42.234637  8862 net.cpp:380] pool2 -> pool2
I0122 09:04:42.234709  8862 net.cpp:122] Setting up pool2
I0122 09:04:42.234722  8862 net.cpp:129] Top shape: 256 256 13 13 (11075584)
I0122 09:04:42.234727  8862 net.cpp:137] Memory required for data: 1865682944
I0122 09:04:42.234732  8862 layer_factory.hpp:78] Creating layer bn3
I0122 09:04:42.234748  8862 net.cpp:84] Creating Layer bn3
I0122 09:04:42.234756  8862 net.cpp:406] bn3 <- pool2
I0122 09:04:42.234771  8862 net.cpp:367] bn3 -> pool2 (in-place)
I0122 09:04:42.234984  8862 net.cpp:122] Setting up bn3
I0122 09:04:42.234995  8862 net.cpp:129] Top shape: 256 256 13 13 (11075584)
I0122 09:04:42.234999  8862 net.cpp:137] Memory required for data: 1909985280
I0122 09:04:42.235020  8862 layer_factory.hpp:78] Creating layer scale3
I0122 09:04:42.235040  8862 net.cpp:84] Creating Layer scale3
I0122 09:04:42.235047  8862 net.cpp:406] scale3 <- pool2
I0122 09:04:42.235062  8862 net.cpp:367] scale3 -> pool2 (in-place)
I0122 09:04:42.235129  8862 layer_factory.hpp:78] Creating layer scale3
I0122 09:04:42.235286  8862 net.cpp:122] Setting up scale3
I0122 09:04:42.235299  8862 net.cpp:129] Top shape: 256 256 13 13 (11075584)
I0122 09:04:42.235302  8862 net.cpp:137] Memory required for data: 1954287616
I0122 09:04:42.235328  8862 layer_factory.hpp:78] Creating layer binactive2
I0122 09:04:42.235352  8862 net.cpp:84] Creating Layer binactive2
I0122 09:04:42.235360  8862 net.cpp:406] binactive2 <- pool2
I0122 09:04:42.235375  8862 net.cpp:380] binactive2 -> binactive2
I0122 09:04:42.235415  8862 net.cpp:122] Setting up binactive2
I0122 09:04:42.235427  8862 net.cpp:129] Top shape: 256 256 13 13 (11075584)
I0122 09:04:42.235431  8862 net.cpp:137] Memory required for data: 1998589952
I0122 09:04:42.235440  8862 layer_factory.hpp:78] Creating layer conv3
I0122 09:04:42.235471  8862 net.cpp:84] Creating Layer conv3
I0122 09:04:42.235479  8862 net.cpp:406] conv3 <- binactive2
I0122 09:04:42.235497  8862 net.cpp:380] conv3 -> conv3
I0122 09:04:42.313683  8862 cudnn_binary_conv_layer.cpp:194] Reallocating workspace storage: 18874368
I0122 09:04:42.314640  8862 net.cpp:122] Setting up conv3
I0122 09:04:42.314666  8862 net.cpp:129] Top shape: 256 384 13 13 (16613376)
I0122 09:04:42.314671  8862 net.cpp:137] Memory required for data: 2065043456
I0122 09:04:42.314692  8862 layer_factory.hpp:78] Creating layer bn4
I0122 09:04:42.314726  8862 net.cpp:84] Creating Layer bn4
I0122 09:04:42.314738  8862 net.cpp:406] bn4 <- conv3
I0122 09:04:42.314760  8862 net.cpp:367] bn4 -> conv3 (in-place)
I0122 09:04:42.315249  8862 net.cpp:122] Setting up bn4
I0122 09:04:42.315274  8862 net.cpp:129] Top shape: 256 384 13 13 (16613376)
I0122 09:04:42.315281  8862 net.cpp:137] Memory required for data: 2131496960
I0122 09:04:42.315322  8862 layer_factory.hpp:78] Creating layer scale4
I0122 09:04:42.315380  8862 net.cpp:84] Creating Layer scale4
I0122 09:04:42.315397  8862 net.cpp:406] scale4 <- conv3
I0122 09:04:42.315434  8862 net.cpp:367] scale4 -> conv3 (in-place)
I0122 09:04:42.315558  8862 layer_factory.hpp:78] Creating layer scale4
I0122 09:04:42.315938  8862 net.cpp:122] Setting up scale4
I0122 09:04:42.315964  8862 net.cpp:129] Top shape: 256 384 13 13 (16613376)
I0122 09:04:42.315973  8862 net.cpp:137] Memory required for data: 2197950464
I0122 09:04:42.316002  8862 layer_factory.hpp:78] Creating layer binactive3
I0122 09:04:42.316036  8862 net.cpp:84] Creating Layer binactive3
I0122 09:04:42.316053  8862 net.cpp:406] binactive3 <- conv3
I0122 09:04:42.316084  8862 net.cpp:380] binactive3 -> binactive3
I0122 09:04:42.316164  8862 net.cpp:122] Setting up binactive3
I0122 09:04:42.316187  8862 net.cpp:129] Top shape: 256 384 13 13 (16613376)
I0122 09:04:42.316195  8862 net.cpp:137] Memory required for data: 2264403968
I0122 09:04:42.316210  8862 layer_factory.hpp:78] Creating layer conv4
I0122 09:04:42.316258  8862 net.cpp:84] Creating Layer conv4
I0122 09:04:42.316275  8862 net.cpp:406] conv4 <- binactive3
I0122 09:04:42.316314  8862 net.cpp:380] conv4 -> conv4
I0122 09:04:42.492409  8862 cudnn_binary_conv_layer.cpp:194] Reallocating workspace storage: 9840
I0122 09:04:42.492458  8862 net.cpp:122] Setting up conv4
I0122 09:04:42.492477  8862 net.cpp:129] Top shape: 256 384 13 13 (16613376)
I0122 09:04:42.492481  8862 net.cpp:137] Memory required for data: 2330857472
I0122 09:04:42.492511  8862 layer_factory.hpp:78] Creating layer bn5
I0122 09:04:42.492547  8862 net.cpp:84] Creating Layer bn5
I0122 09:04:42.492561  8862 net.cpp:406] bn5 <- conv4
I0122 09:04:42.492588  8862 net.cpp:367] bn5 -> conv4 (in-place)
I0122 09:04:42.492871  8862 net.cpp:122] Setting up bn5
I0122 09:04:42.492887  8862 net.cpp:129] Top shape: 256 384 13 13 (16613376)
I0122 09:04:42.492890  8862 net.cpp:137] Memory required for data: 2397310976
I0122 09:04:42.492914  8862 layer_factory.hpp:78] Creating layer scale5
I0122 09:04:42.492941  8862 net.cpp:84] Creating Layer scale5
I0122 09:04:42.492950  8862 net.cpp:406] scale5 <- conv4
I0122 09:04:42.492969  8862 net.cpp:367] scale5 -> conv4 (in-place)
I0122 09:04:42.493047  8862 layer_factory.hpp:78] Creating layer scale5
I0122 09:04:42.493240  8862 net.cpp:122] Setting up scale5
I0122 09:04:42.493257  8862 net.cpp:129] Top shape: 256 384 13 13 (16613376)
I0122 09:04:42.493261  8862 net.cpp:137] Memory required for data: 2463764480
I0122 09:04:42.493278  8862 layer_factory.hpp:78] Creating layer binactive4
I0122 09:04:42.493294  8862 net.cpp:84] Creating Layer binactive4
I0122 09:04:42.493304  8862 net.cpp:406] binactive4 <- conv4
I0122 09:04:42.493321  8862 net.cpp:380] binactive4 -> binactive4
I0122 09:04:42.493371  8862 net.cpp:122] Setting up binactive4
I0122 09:04:42.493386  8862 net.cpp:129] Top shape: 256 384 13 13 (16613376)
I0122 09:04:42.493391  8862 net.cpp:137] Memory required for data: 2530217984
I0122 09:04:42.493397  8862 layer_factory.hpp:78] Creating layer conv5
I0122 09:04:42.493435  8862 net.cpp:84] Creating Layer conv5
I0122 09:04:42.493445  8862 net.cpp:406] conv5 <- binactive4
I0122 09:04:42.493465  8862 net.cpp:380] conv5 -> conv5
I0122 09:04:42.594593  8862 cudnn_binary_conv_layer.cpp:194] Reallocating workspace storage: 18874368
I0122 09:04:42.595608  8862 net.cpp:122] Setting up conv5
I0122 09:04:42.595672  8862 net.cpp:129] Top shape: 256 256 13 13 (11075584)
I0122 09:04:42.595682  8862 net.cpp:137] Memory required for data: 2574520320
I0122 09:04:42.595737  8862 layer_factory.hpp:78] Creating layer pool5
I0122 09:04:42.595808  8862 net.cpp:84] Creating Layer pool5
I0122 09:04:42.595831  8862 net.cpp:406] pool5 <- conv5
I0122 09:04:42.595897  8862 net.cpp:380] pool5 -> pool5
I0122 09:04:42.596125  8862 net.cpp:122] Setting up pool5
I0122 09:04:42.596160  8862 net.cpp:129] Top shape: 256 256 6 6 (2359296)
I0122 09:04:42.596169  8862 net.cpp:137] Memory required for data: 2583957504
I0122 09:04:42.596182  8862 layer_factory.hpp:78] Creating layer bn6
I0122 09:04:42.596217  8862 net.cpp:84] Creating Layer bn6
I0122 09:04:42.596235  8862 net.cpp:406] bn6 <- pool5
I0122 09:04:42.596267  8862 net.cpp:367] bn6 -> pool5 (in-place)
I0122 09:04:42.596923  8862 net.cpp:122] Setting up bn6
I0122 09:04:42.596948  8862 net.cpp:129] Top shape: 256 256 6 6 (2359296)
I0122 09:04:42.596990  8862 net.cpp:137] Memory required for data: 2593394688
I0122 09:04:42.597072  8862 layer_factory.hpp:78] Creating layer scale6
I0122 09:04:42.597121  8862 net.cpp:84] Creating Layer scale6
I0122 09:04:42.597139  8862 net.cpp:406] scale6 <- pool5
I0122 09:04:42.597172  8862 net.cpp:367] scale6 -> pool5 (in-place)
I0122 09:04:42.597317  8862 layer_factory.hpp:78] Creating layer scale6
I0122 09:04:42.597674  8862 net.cpp:122] Setting up scale6
I0122 09:04:42.597700  8862 net.cpp:129] Top shape: 256 256 6 6 (2359296)
I0122 09:04:42.597708  8862 net.cpp:137] Memory required for data: 2602831872
I0122 09:04:42.597739  8862 layer_factory.hpp:78] Creating layer binactive5
I0122 09:04:42.597770  8862 net.cpp:84] Creating Layer binactive5
I0122 09:04:42.597786  8862 net.cpp:406] binactive5 <- pool5
I0122 09:04:42.597820  8862 net.cpp:380] binactive5 -> binactive5
I0122 09:04:42.597903  8862 net.cpp:122] Setting up binactive5
I0122 09:04:42.597929  8862 net.cpp:129] Top shape: 256 256 6 6 (2359296)
I0122 09:04:42.597936  8862 net.cpp:137] Memory required for data: 2612269056
I0122 09:04:42.597949  8862 layer_factory.hpp:78] Creating layer fc6
I0122 09:04:42.598003  8862 net.cpp:84] Creating Layer fc6
I0122 09:04:42.598021  8862 net.cpp:406] fc6 <- binactive5
I0122 09:04:42.598060  8862 net.cpp:380] fc6 -> fc6
I0122 09:04:45.868621  8862 net.cpp:122] Setting up fc6
I0122 09:04:45.868688  8862 net.cpp:129] Top shape: 256 4096 (1048576)
I0122 09:04:45.868693  8862 net.cpp:137] Memory required for data: 2616463360
I0122 09:04:45.868736  8862 layer_factory.hpp:78] Creating layer bn7
I0122 09:04:45.868803  8862 net.cpp:84] Creating Layer bn7
I0122 09:04:45.868830  8862 net.cpp:406] bn7 <- fc6
I0122 09:04:45.868870  8862 net.cpp:367] bn7 -> fc6 (in-place)
I0122 09:04:45.869174  8862 net.cpp:122] Setting up bn7
I0122 09:04:45.869187  8862 net.cpp:129] Top shape: 256 4096 (1048576)
I0122 09:04:45.869190  8862 net.cpp:137] Memory required for data: 2620657664
I0122 09:04:45.869210  8862 layer_factory.hpp:78] Creating layer scale7
I0122 09:04:45.869277  8862 net.cpp:84] Creating Layer scale7
I0122 09:04:45.869285  8862 net.cpp:406] scale7 <- fc6
I0122 09:04:45.869302  8862 net.cpp:367] scale7 -> fc6 (in-place)
I0122 09:04:45.869386  8862 layer_factory.hpp:78] Creating layer scale7
I0122 09:04:45.869577  8862 net.cpp:122] Setting up scale7
I0122 09:04:45.869590  8862 net.cpp:129] Top shape: 256 4096 (1048576)
I0122 09:04:45.869593  8862 net.cpp:137] Memory required for data: 2624851968
I0122 09:04:45.869609  8862 layer_factory.hpp:78] Creating layer binactive6
I0122 09:04:45.869637  8862 net.cpp:84] Creating Layer binactive6
I0122 09:04:45.869643  8862 net.cpp:406] binactive6 <- fc6
I0122 09:04:45.869665  8862 net.cpp:380] binactive6 -> binactive6
I0122 09:04:45.869719  8862 net.cpp:122] Setting up binactive6
I0122 09:04:45.869731  8862 net.cpp:129] Top shape: 256 4096 (1048576)
I0122 09:04:45.869735  8862 net.cpp:137] Memory required for data: 2629046272
I0122 09:04:45.869747  8862 layer_factory.hpp:78] Creating layer fc7
I0122 09:04:45.869782  8862 net.cpp:84] Creating Layer fc7
I0122 09:04:45.869791  8862 net.cpp:406] fc7 <- binactive6
I0122 09:04:45.869812  8862 net.cpp:380] fc7 -> fc7
I0122 09:04:47.224777  8862 net.cpp:122] Setting up fc7
I0122 09:04:47.224817  8862 net.cpp:129] Top shape: 256 4096 (1048576)
I0122 09:04:47.224822  8862 net.cpp:137] Memory required for data: 2633240576
I0122 09:04:47.224851  8862 layer_factory.hpp:78] Creating layer bn8
I0122 09:04:47.224916  8862 net.cpp:84] Creating Layer bn8
I0122 09:04:47.224932  8862 net.cpp:406] bn8 <- fc7
I0122 09:04:47.224961  8862 net.cpp:367] bn8 -> fc7 (in-place)
I0122 09:04:47.225208  8862 net.cpp:122] Setting up bn8
I0122 09:04:47.225219  8862 net.cpp:129] Top shape: 256 4096 (1048576)
I0122 09:04:47.225221  8862 net.cpp:137] Memory required for data: 2637434880
I0122 09:04:47.225241  8862 layer_factory.hpp:78] Creating layer scale8
I0122 09:04:47.225265  8862 net.cpp:84] Creating Layer scale8
I0122 09:04:47.225294  8862 net.cpp:406] scale8 <- fc7
I0122 09:04:47.225312  8862 net.cpp:367] scale8 -> fc7 (in-place)
I0122 09:04:47.225414  8862 layer_factory.hpp:78] Creating layer scale8
I0122 09:04:47.225594  8862 net.cpp:122] Setting up scale8
I0122 09:04:47.225606  8862 net.cpp:129] Top shape: 256 4096 (1048576)
I0122 09:04:47.225610  8862 net.cpp:137] Memory required for data: 2641629184
I0122 09:04:47.225625  8862 layer_factory.hpp:78] Creating layer relu7
I0122 09:04:47.225641  8862 net.cpp:84] Creating Layer relu7
I0122 09:04:47.225649  8862 net.cpp:406] relu7 <- fc7
I0122 09:04:47.225666  8862 net.cpp:367] relu7 -> fc7 (in-place)
I0122 09:04:47.226722  8862 net.cpp:122] Setting up relu7
I0122 09:04:47.226735  8862 net.cpp:129] Top shape: 256 4096 (1048576)
I0122 09:04:47.226738  8862 net.cpp:137] Memory required for data: 2645823488
I0122 09:04:47.226744  8862 layer_factory.hpp:78] Creating layer fc8
I0122 09:04:47.226776  8862 net.cpp:84] Creating Layer fc8
I0122 09:04:47.226800  8862 net.cpp:406] fc8 <- fc7
I0122 09:04:47.226824  8862 net.cpp:380] fc8 -> fc8
I0122 09:04:47.693287  8862 net.cpp:122] Setting up fc8
I0122 09:04:47.693361  8862 net.cpp:129] Top shape: 256 1000 (256000)
I0122 09:04:47.693367  8862 net.cpp:137] Memory required for data: 2646847488
I0122 09:04:47.693413  8862 layer_factory.hpp:78] Creating layer fc8_fc8_0_split
I0122 09:04:47.693460  8862 net.cpp:84] Creating Layer fc8_fc8_0_split
I0122 09:04:47.693482  8862 net.cpp:406] fc8_fc8_0_split <- fc8
I0122 09:04:47.693521  8862 net.cpp:380] fc8_fc8_0_split -> fc8_fc8_0_split_0
I0122 09:04:47.693559  8862 net.cpp:380] fc8_fc8_0_split -> fc8_fc8_0_split_1
I0122 09:04:47.693583  8862 net.cpp:380] fc8_fc8_0_split -> fc8_fc8_0_split_2
I0122 09:04:47.693675  8862 net.cpp:122] Setting up fc8_fc8_0_split
I0122 09:04:47.693691  8862 net.cpp:129] Top shape: 256 1000 (256000)
I0122 09:04:47.693697  8862 net.cpp:129] Top shape: 256 1000 (256000)
I0122 09:04:47.693702  8862 net.cpp:129] Top shape: 256 1000 (256000)
I0122 09:04:47.693706  8862 net.cpp:137] Memory required for data: 2649919488
I0122 09:04:47.693712  8862 layer_factory.hpp:78] Creating layer loss
I0122 09:04:47.693748  8862 net.cpp:84] Creating Layer loss
I0122 09:04:47.693759  8862 net.cpp:406] loss <- fc8_fc8_0_split_0
I0122 09:04:47.693775  8862 net.cpp:406] loss <- label_data_1_split_0
I0122 09:04:47.693799  8862 net.cpp:380] loss -> loss
…
I0122 09:04:47.700259  8862 net.cpp:294] The NetState phase (1) differed from the phase (0) specified by a rule in layer data
I0122 09:04:47.700543  8862 net.cpp:51] Initializing net from parameters: 
name: "AlexNet-BN"
state {
  phase: TEST
}
layer {
  name: "data"
  type: "Data"
  top: "data"
  top: "label"
  include {
    phase: TEST
  }
  transform_param {
    mirror: false
    crop_size: 224
    mean_value: 104
    mean_value: 117
    mean_value: 123
  }
  data_param {
    source: "/home/zhengzhe/Data/imagenet_shrt256/ilsvrc12_val_lmdb"
    batch_size: 50
    backend: LMDB
  }
}
layer {
  name: "conv1"
  type: "Convolution"
  bottom: "data"
  top: "conv1"
  param {
    lr_mult: 1
    decay_mult: 1
  }
  convolution_param {
    num_output: 96
    bias_term: false
    pad: 2
    kernel_size: 11
    stride: 4
    weight_filler {
      type: "msra"
    }
  }
}
layer {
  name: "bn1"
  type: "BatchNorm"
  bottom: "conv1"
  top: "conv1"
}
layer {
  name: "scale1"
  type: "Scale"
  bottom: "conv1"
  top: "conv1"
  scale_param {
    bias_term: true
  }
}
layer {
  name: "relu1"
  type: "ReLU"
  bottom: "conv1"
  top: "conv1"
}
layer {
  name: "pool1"
  type: "Pooling"
  bottom: "conv1"
  top: "pool1"
  pooling_param {
    pool: MAX
    kernel_size: 3
    stride: 2
  }
}
layer {
  name: "bn2"
  type: "BatchNorm"
  bottom: "pool1"
  top: "pool1"
}
layer {
  name: "scale2"
  type: "Scale"
  bottom: "pool1"
  top: "pool1"
  scale_param {
    bias_term: true
  }
}
layer {
  name: "binactive1"
  type: "BinActive"
  bottom: "pool1"
  top: "binactive1"
}
layer {
  name: "conv2"
  type: "BinaryConvolution"
  bottom: "binactive1"
  top: "conv2"
  param {
    lr_mult: 1
    decay_mult: 1
  }
  convolution_param {
    num_output: 256
    bias_term: false
    pad: 2
    kernel_size: 5
    weight_filler {
      type: "msra"
    }
  }
  debug_param {
    xnorno_grad: true
  }
}
layer {
  name: "pool2"
  type: "Pooling"
  bottom: "conv2"
  top: "pool2"
  pooling_param {
    pool: MAX
    kernel_size: 3
    stride: 2
  }
}
layer {
  name: "bn3"
  type: "BatchNorm"
  bottom: "pool2"
  top: "pool2"
}
layer {
  name: "scale3"
  type: "Scale"
  bottom: "pool2"
  top: "pool2"
  scale_param {
    bias_term: true
  }
}
layer {
  name: "binactive2"
  type: "BinActive"
  bottom: "pool2"
  top: "binactive2"
}
layer {
  name: "conv3"
  type: "BinaryConvolution"
  bottom: "binactive2"
  top: "conv3"
  param {
    lr_mult: 1
    decay_mult: 1
  }
  convolution_param {
    num_output: 384
    bias_term: false
    pad: 1
    kernel_size: 3
    weight_filler {
      type: "msra"
    }
  }
  debug_param {
    xnorno_grad: true
  }
}
layer {
  name: "bn4"
  type: "BatchNorm"
  bottom: "conv3"
  top: "conv3"
}
layer {
  name: "scale4"
  type: "Scale"
  bottom: "conv3"
  top: "conv3"
  scale_param {
    bias_term: true
  }
}
layer {
  name: "binactive3"
  type: "BinActive"
  bottom: "conv3"
  top: "binactive3"
}
layer {
  name: "conv4"
  type: "BinaryConvolution"
  bottom: "binactive3"
  top: "conv4"
  param {
    lr_mult: 1
    decay_mult: 1
  }
  convolution_param {
    num_output: 384
    bias_term: false
    pad: 1
    kernel_size: 3
    weight_filler {
      type: "msra"
    }
  }
  debug_param {
    xnorno_grad: true
  }
}
layer {
  name: "bn5"
  type: "BatchNorm"
  bottom: "conv4"
  top: "conv4"
}
layer {
  name: "scale5"
  type: "Scale"
  bottom: "conv4"
  top: "conv4"
  scale_param {
    bias_term: true
  }
}
layer {
  name: "binactive4"
  type: "BinActive"
  bottom: "conv4"
  top: "binactive4"
}
layer {
  name: "conv5"
  type: "BinaryConvolution"
  bottom: "binactive4"
  top: "conv5"
  param {
    lr_mult: 1
    decay_mult: 1
  }
  convolution_param {
    num_output: 256
    bias_term: false
    pad: 1
    kernel_size: 3
    weight_filler {
      type: "msra"
    }
  }
  debug_param {
    xnorno_grad: true
  }
}
layer {
  name: "pool5"
  type: "Pooling"
  bottom: "conv5"
  top: "pool5"
  pooling_param {
    pool: MAX
    kernel_size: 3
    stride: 2
  }
}
layer {
  name: "bn6"
  type: "BatchNorm"
  bottom: "pool5"
  top: "pool5"
}
layer {
  name: "scale6"
  type: "Scale"
  bottom: "pool5"
  top: "pool5"
  scale_param {
    bias_term: true
  }
}
layer {
  name: "binactive5"
  type: "BinActive"
  bottom: "pool5"
  top: "binactive5"
}
layer {
  name: "fc6"
  type: "BinaryInnerProduct"
  bottom: "binactive5"
  top: "fc6"
  param {
    lr_mult: 1
    decay_mult: 1
  }
  inner_product_param {
    num_output: 4096
    bias_term: false
    weight_filler {
      type: "msra"
    }
  }
  debug_param {
    xnorno_grad: true
  }
}
layer {
  name: "bn7"
  type: "BatchNorm"
  bottom: "fc6"
  top: "fc6"
}
layer {
  name: "scale7"
  type: "Scale"
  bottom: "fc6"
  top: "fc6"
  scale_param {
    bias_term: true
  }
}
layer {
  name: "binactive6"
  type: "BinActive"
  bottom: "fc6"
  top: "binactive6"
}
layer {
  name: "fc7"
  type: "BinaryInnerProduct"
  bottom: "binactive6"
  top: "fc7"
  param {
    lr_mult: 1
    decay_mult: 1
  }
  inner_product_param {
    num_output: 4096
    bias_term: false
    weight_filler {
      type: "msra"
    }
  }
  debug_param {
    xnorno_grad: true
  }
}
layer {
  name: "bn8"
  type: "BatchNorm"
  bottom: "fc7"
  top: "fc7"
}
layer {
  name: "scale8"
  type: "Scale"
  bottom: "fc7"
  top: "fc7"
  scale_param {
    bias_term: true
  }
}
layer {
  name: "relu7"
  type: "ReLU"
  bottom: "fc7"
  top: "fc7"
}
layer {
  name: "fc8"
  type: "InnerProduct"
  bottom: "fc7"
  top: "fc8"
  param {
    lr_mult: 1
    decay_mult: 1
  }
  param {
    lr_mult: 2
    decay_mult: 0
  }
  inner_product_param {
    num_output: 1000
    weight_filler {
      type: "msra"
    }
    bias_filler {
      type: "constant"
      value: 0
    }
  }
}
layer {
  name: "loss"
  type: "SoftmaxWithLoss"
  bottom: "fc8"
  bottom: "label"
  top: "loss"
}
layer {
  name: "accuracy"
  type: "Accuracy"
  bottom: "fc8"
  bottom: "label"
  top: "accuracy"
}
layer {
  name: "accuracy_5"
  type: "Accuracy"
  bottom: "fc8"
  bottom: "label"
  top: "accuracy_5"
  accuracy_param {
    top_k: 5
  }
}
I0122 09:04:47.701016  8862 layer_factory.hpp:78] Creating layer data
I0122 09:04:47.733736  8862 db_lmdb.cpp:35] Opened lmdb /home/zhengzhe/Data/imagenet_shrt256/ilsvrc12_val_lmdb
I0122 09:04:47.733826  8862 net.cpp:84] Creating Layer data
I0122 09:04:47.733868  8862 net.cpp:380] data -> data
I0122 09:04:47.733938  8862 net.cpp:380] data -> label
I0122 09:04:47.734678  8862 data_layer.cpp:45] output data size: 50,3,224,224
I0122 09:04:48.330408  8862 base_data_layer.cpp:72] Initializing prefetch
I0122 09:04:48.853513  8862 base_data_layer.cpp:75] Prefetch initialized.
I0122 09:04:48.853605  8862 net.cpp:122] Setting up data
I0122 09:04:48.853636  8862 net.cpp:129] Top shape: 50 3 224 224 (7526400)
I0122 09:04:48.853644  8862 net.cpp:129] Top shape: 50 (50)
I0122 09:04:48.853647  8862 net.cpp:137] Memory required for data: 30105800
I0122 09:04:48.853694  8862 layer_factory.hpp:78] Creating layer label_data_1_split
I0122 09:04:48.853770  8862 net.cpp:84] Creating Layer label_data_1_split
I0122 09:04:48.853790  8862 net.cpp:406] label_data_1_split <- label
I0122 09:04:48.853826  8862 net.cpp:380] label_data_1_split -> label_data_1_split_0
I0122 09:04:48.853878  8862 net.cpp:380] label_data_1_split -> label_data_1_split_1
I0122 09:04:48.853902  8862 net.cpp:380] label_data_1_split -> label_data_1_split_2
I0122 09:04:48.854918  8862 net.cpp:122] Setting up label_data_1_split
I0122 09:04:48.854954  8862 net.cpp:129] Top shape: 50 (50)
I0122 09:04:48.854962  8862 net.cpp:129] Top shape: 50 (50)
I0122 09:04:48.854966  8862 net.cpp:129] Top shape: 50 (50)
I0122 09:04:48.854969  8862 net.cpp:137] Memory required for data: 30106400
I0122 09:04:48.854975  8862 layer_factory.hpp:78] Creating layer conv1
I0122 09:04:48.855038  8862 net.cpp:84] Creating Layer conv1
I0122 09:04:48.855051  8862 net.cpp:406] conv1 <- data
I0122 09:04:48.855079  8862 net.cpp:380] conv1 -> conv1
I0122 09:04:48.865619  8862 cudnn_conv_layer.cpp:194] Reallocating workspace storage: 127416
I0122 09:04:48.865747  8862 net.cpp:122] Setting up conv1
I0122 09:04:48.865761  8862 net.cpp:129] Top shape: 50 96 55 55 (14520000)
I0122 09:04:48.865766  8862 net.cpp:137] Memory required for data: 88186400
I0122 09:04:48.865797  8862 layer_factory.hpp:78] Creating layer bn1
I0122 09:04:48.865828  8862 net.cpp:84] Creating Layer bn1
I0122 09:04:48.865837  8862 net.cpp:406] bn1 <- conv1
I0122 09:04:48.865852  8862 net.cpp:367] bn1 -> conv1 (in-place)
I0122 09:04:48.866212  8862 net.cpp:122] Setting up bn1
I0122 09:04:48.866242  8862 net.cpp:129] Top shape: 50 96 55 55 (14520000)
I0122 09:04:48.866245  8862 net.cpp:137] Memory required for data: 146266400
I0122 09:04:48.866286  8862 layer_factory.hpp:78] Creating layer scale1
I0122 09:04:48.866324  8862 net.cpp:84] Creating Layer scale1
I0122 09:04:48.866334  8862 net.cpp:406] scale1 <- conv1
I0122 09:04:48.866372  8862 net.cpp:367] scale1 -> conv1 (in-place)
I0122 09:04:48.866461  8862 layer_factory.hpp:78] Creating layer scale1
I0122 09:04:48.866736  8862 net.cpp:122] Setting up scale1
I0122 09:04:48.866750  8862 net.cpp:129] Top shape: 50 96 55 55 (14520000)
I0122 09:04:48.866753  8862 net.cpp:137] Memory required for data: 204346400
I0122 09:04:48.866786  8862 layer_factory.hpp:78] Creating layer relu1
I0122 09:04:48.866806  8862 net.cpp:84] Creating Layer relu1
I0122 09:04:48.866814  8862 net.cpp:406] relu1 <- conv1
I0122 09:04:48.866829  8862 net.cpp:367] relu1 -> conv1 (in-place)
I0122 09:04:48.867465  8862 net.cpp:122] Setting up relu1
I0122 09:04:48.867480  8862 net.cpp:129] Top shape: 50 96 55 55 (14520000)
I0122 09:04:48.867483  8862 net.cpp:137] Memory required for data: 262426400
I0122 09:04:48.867489  8862 layer_factory.hpp:78] Creating layer pool1
I0122 09:04:48.867511  8862 net.cpp:84] Creating Layer pool1
I0122 09:04:48.867519  8862 net.cpp:406] pool1 <- conv1
I0122 09:04:48.867537  8862 net.cpp:380] pool1 -> pool1
I0122 09:04:48.867612  8862 net.cpp:122] Setting up pool1
I0122 09:04:48.867626  8862 net.cpp:129] Top shape: 50 96 27 27 (3499200)
I0122 09:04:48.867630  8862 net.cpp:137] Memory required for data: 276423200
I0122 09:04:48.867635  8862 layer_factory.hpp:78] Creating layer bn2
I0122 09:04:48.867651  8862 net.cpp:84] Creating Layer bn2
I0122 09:04:48.867660  8862 net.cpp:406] bn2 <- pool1
I0122 09:04:48.867673  8862 net.cpp:367] bn2 -> pool1 (in-place)
I0122 09:04:48.867982  8862 net.cpp:122] Setting up bn2
I0122 09:04:48.867996  8862 net.cpp:129] Top shape: 50 96 27 27 (3499200)
I0122 09:04:48.868000  8862 net.cpp:137] Memory required for data: 290420000
I0122 09:04:48.868031  8862 layer_factory.hpp:78] Creating layer scale2
I0122 09:04:48.868063  8862 net.cpp:84] Creating Layer scale2
I0122 09:04:48.868073  8862 net.cpp:406] scale2 <- pool1
I0122 09:04:48.868088  8862 net.cpp:367] scale2 -> pool1 (in-place)
I0122 09:04:48.868162  8862 layer_factory.hpp:78] Creating layer scale2
I0122 09:04:48.868424  8862 net.cpp:122] Setting up scale2
I0122 09:04:48.868438  8862 net.cpp:129] Top shape: 50 96 27 27 (3499200)
I0122 09:04:48.868440  8862 net.cpp:137] Memory required for data: 304416800
I0122 09:04:48.868455  8862 layer_factory.hpp:78] Creating layer binactive1
I0122 09:04:48.868472  8862 net.cpp:84] Creating Layer binactive1
I0122 09:04:48.868480  8862 net.cpp:406] binactive1 <- pool1
I0122 09:04:48.868499  8862 net.cpp:380] binactive1 -> binactive1
I0122 09:04:48.868542  8862 net.cpp:122] Setting up binactive1
I0122 09:04:48.868554  8862 net.cpp:129] Top shape: 50 96 27 27 (3499200)
I0122 09:04:48.868558  8862 net.cpp:137] Memory required for data: 318413600
I0122 09:04:48.868572  8862 layer_factory.hpp:78] Creating layer conv2
I0122 09:04:48.868602  8862 net.cpp:84] Creating Layer conv2
I0122 09:04:48.868610  8862 net.cpp:406] conv2 <- binactive1
I0122 09:04:48.868629  8862 net.cpp:380] conv2 -> conv2
I0122 09:04:48.935312  8862 cudnn_binary_conv_layer.cpp:194] Reallocating workspace storage: 19668
I0122 09:04:48.935374  8862 net.cpp:122] Setting up conv2
I0122 09:04:48.935391  8862 net.cpp:129] Top shape: 50 256 27 27 (9331200)
I0122 09:04:48.935397  8862 net.cpp:137] Memory required for data: 355738400
I0122 09:04:48.935416  8862 layer_factory.hpp:78] Creating layer pool2
I0122 09:04:48.935446  8862 net.cpp:84] Creating Layer pool2
I0122 09:04:48.935457  8862 net.cpp:406] pool2 <- conv2
I0122 09:04:48.935483  8862 net.cpp:380] pool2 -> pool2
I0122 09:04:48.935580  8862 net.cpp:122] Setting up pool2
I0122 09:04:48.935597  8862 net.cpp:129] Top shape: 50 256 13 13 (2163200)
I0122 09:04:48.935606  8862 net.cpp:137] Memory required for data: 364391200
I0122 09:04:48.935612  8862 layer_factory.hpp:78] Creating layer bn3
I0122 09:04:48.935634  8862 net.cpp:84] Creating Layer bn3
I0122 09:04:48.935645  8862 net.cpp:406] bn3 <- pool2
I0122 09:04:48.935665  8862 net.cpp:367] bn3 -> pool2 (in-place)
I0122 09:04:48.936038  8862 net.cpp:122] Setting up bn3
I0122 09:04:48.936054  8862 net.cpp:129] Top shape: 50 256 13 13 (2163200)
I0122 09:04:48.936060  8862 net.cpp:137] Memory required for data: 373044000
I0122 09:04:48.936112  8862 layer_factory.hpp:78] Creating layer scale3
I0122 09:04:48.936139  8862 net.cpp:84] Creating Layer scale3
I0122 09:04:48.936149  8862 net.cpp:406] scale3 <- pool2
I0122 09:04:48.936173  8862 net.cpp:367] scale3 -> pool2 (in-place)
I0122 09:04:48.936272  8862 layer_factory.hpp:78] Creating layer scale3
I0122 09:04:48.936511  8862 net.cpp:122] Setting up scale3
I0122 09:04:48.936527  8862 net.cpp:129] Top shape: 50 256 13 13 (2163200)
I0122 09:04:48.936532  8862 net.cpp:137] Memory required for data: 381696800
I0122 09:04:48.936573  8862 layer_factory.hpp:78] Creating layer binactive2
I0122 09:04:48.936595  8862 net.cpp:84] Creating Layer binactive2
I0122 09:04:48.936609  8862 net.cpp:406] binactive2 <- pool2
I0122 09:04:48.936632  8862 net.cpp:380] binactive2 -> binactive2
I0122 09:04:48.936688  8862 net.cpp:122] Setting up binactive2
I0122 09:04:48.936705  8862 net.cpp:129] Top shape: 50 256 13 13 (2163200)
I0122 09:04:48.936710  8862 net.cpp:137] Memory required for data: 390349600
I0122 09:04:48.936718  8862 layer_factory.hpp:78] Creating layer conv3
I0122 09:04:48.936758  8862 net.cpp:84] Creating Layer conv3
I0122 09:04:48.936770  8862 net.cpp:406] conv3 <- binactive2
I0122 09:04:48.936796  8862 net.cpp:380] conv3 -> conv3
I0122 09:04:49.036202  8862 cudnn_binary_conv_layer.cpp:194] Reallocating workspace storage: 18874368
I0122 09:04:49.036667  8862 net.cpp:122] Setting up conv3
I0122 09:04:49.036695  8862 net.cpp:129] Top shape: 50 384 13 13 (3244800)
I0122 09:04:49.036700  8862 net.cpp:137] Memory required for data: 403328800
I0122 09:04:49.036716  8862 layer_factory.hpp:78] Creating layer bn4
I0122 09:04:49.036742  8862 net.cpp:84] Creating Layer bn4
I0122 09:04:49.036751  8862 net.cpp:406] bn4 <- conv3
I0122 09:04:49.036769  8862 net.cpp:367] bn4 -> conv3 (in-place)
I0122 09:04:49.037029  8862 net.cpp:122] Setting up bn4
I0122 09:04:49.037041  8862 net.cpp:129] Top shape: 50 384 13 13 (3244800)
I0122 09:04:49.037045  8862 net.cpp:137] Memory required for data: 416308000
I0122 09:04:49.037065  8862 layer_factory.hpp:78] Creating layer scale4
I0122 09:04:49.037084  8862 net.cpp:84] Creating Layer scale4
I0122 09:04:49.037092  8862 net.cpp:406] scale4 <- conv3
I0122 09:04:49.037107  8862 net.cpp:367] scale4 -> conv3 (in-place)
I0122 09:04:49.037180  8862 layer_factory.hpp:78] Creating layer scale4
I0122 09:04:49.037365  8862 net.cpp:122] Setting up scale4
I0122 09:04:49.037377  8862 net.cpp:129] Top shape: 50 384 13 13 (3244800)
I0122 09:04:49.037381  8862 net.cpp:137] Memory required for data: 429287200
I0122 09:04:49.037408  8862 layer_factory.hpp:78] Creating layer binactive3
I0122 09:04:49.037425  8862 net.cpp:84] Creating Layer binactive3
I0122 09:04:49.037433  8862 net.cpp:406] binactive3 <- conv3
I0122 09:04:49.037449  8862 net.cpp:380] binactive3 -> binactive3
I0122 09:04:49.037498  8862 net.cpp:122] Setting up binactive3
I0122 09:04:49.037510  8862 net.cpp:129] Top shape: 50 384 13 13 (3244800)
I0122 09:04:49.037514  8862 net.cpp:137] Memory required for data: 442266400
I0122 09:04:49.037519  8862 layer_factory.hpp:78] Creating layer conv4
I0122 09:04:49.037544  8862 net.cpp:84] Creating Layer conv4
I0122 09:04:49.037552  8862 net.cpp:406] conv4 <- binactive3
I0122 09:04:49.037573  8862 net.cpp:380] conv4 -> conv4
I0122 09:04:49.157660  8862 cudnn_binary_conv_layer.cpp:194] Reallocating workspace storage: 9840
I0122 09:04:49.157703  8862 net.cpp:122] Setting up conv4
I0122 09:04:49.157721  8862 net.cpp:129] Top shape: 50 384 13 13 (3244800)
I0122 09:04:49.157727  8862 net.cpp:137] Memory required for data: 455245600
I0122 09:04:49.157752  8862 layer_factory.hpp:78] Creating layer bn5
I0122 09:04:49.157785  8862 net.cpp:84] Creating Layer bn5
I0122 09:04:49.157800  8862 net.cpp:406] bn5 <- conv4
I0122 09:04:49.157824  8862 net.cpp:367] bn5 -> conv4 (in-place)
I0122 09:04:49.158098  8862 net.cpp:122] Setting up bn5
I0122 09:04:49.158110  8862 net.cpp:129] Top shape: 50 384 13 13 (3244800)
I0122 09:04:49.158113  8862 net.cpp:137] Memory required for data: 468224800
I0122 09:04:49.158159  8862 layer_factory.hpp:78] Creating layer scale5
I0122 09:04:49.158191  8862 net.cpp:84] Creating Layer scale5
I0122 09:04:49.158200  8862 net.cpp:406] scale5 <- conv4
I0122 09:04:49.158215  8862 net.cpp:367] scale5 -> conv4 (in-place)
I0122 09:04:49.158291  8862 layer_factory.hpp:78] Creating layer scale5
I0122 09:04:49.158485  8862 net.cpp:122] Setting up scale5
I0122 09:04:49.158505  8862 net.cpp:129] Top shape: 50 384 13 13 (3244800)
I0122 09:04:49.158509  8862 net.cpp:137] Memory required for data: 481204000
I0122 09:04:49.158529  8862 layer_factory.hpp:78] Creating layer binactive4
I0122 09:04:49.158542  8862 net.cpp:84] Creating Layer binactive4
I0122 09:04:49.158550  8862 net.cpp:406] binactive4 <- conv4
I0122 09:04:49.158567  8862 net.cpp:380] binactive4 -> binactive4
I0122 09:04:49.158613  8862 net.cpp:122] Setting up binactive4
I0122 09:04:49.158625  8862 net.cpp:129] Top shape: 50 384 13 13 (3244800)
I0122 09:04:49.158629  8862 net.cpp:137] Memory required for data: 494183200
I0122 09:04:49.158634  8862 layer_factory.hpp:78] Creating layer conv5
I0122 09:04:49.158668  8862 net.cpp:84] Creating Layer conv5
I0122 09:04:49.158677  8862 net.cpp:406] conv5 <- binactive4
I0122 09:04:49.158696  8862 net.cpp:380] conv5 -> conv5
I0122 09:04:49.239558  8862 cudnn_binary_conv_layer.cpp:194] Reallocating workspace storage: 18874368
I0122 09:04:49.239936  8862 net.cpp:122] Setting up conv5
I0122 09:04:49.239962  8862 net.cpp:129] Top shape: 50 256 13 13 (2163200)
I0122 09:04:49.239966  8862 net.cpp:137] Memory required for data: 502836000
I0122 09:04:49.239995  8862 layer_factory.hpp:78] Creating layer pool5
I0122 09:04:49.240043  8862 net.cpp:84] Creating Layer pool5
I0122 09:04:49.240058  8862 net.cpp:406] pool5 <- conv5
I0122 09:04:49.240087  8862 net.cpp:380] pool5 -> pool5
I0122 09:04:49.240183  8862 net.cpp:122] Setting up pool5
I0122 09:04:49.240198  8862 net.cpp:129] Top shape: 50 256 6 6 (460800)
I0122 09:04:49.240202  8862 net.cpp:137] Memory required for data: 504679200
I0122 09:04:49.240208  8862 layer_factory.hpp:78] Creating layer bn6
I0122 09:04:49.240223  8862 net.cpp:84] Creating Layer bn6
I0122 09:04:49.240229  8862 net.cpp:406] bn6 <- pool5
I0122 09:04:49.240244  8862 net.cpp:367] bn6 -> pool5 (in-place)
I0122 09:04:49.240536  8862 net.cpp:122] Setting up bn6
I0122 09:04:49.240548  8862 net.cpp:129] Top shape: 50 256 6 6 (460800)
I0122 09:04:49.240552  8862 net.cpp:137] Memory required for data: 506522400
I0122 09:04:49.240593  8862 layer_factory.hpp:78] Creating layer scale6
I0122 09:04:49.240624  8862 net.cpp:84] Creating Layer scale6
I0122 09:04:49.240635  8862 net.cpp:406] scale6 <- pool5
I0122 09:04:49.240651  8862 net.cpp:367] scale6 -> pool5 (in-place)
I0122 09:04:49.240737  8862 layer_factory.hpp:78] Creating layer scale6
I0122 09:04:49.240924  8862 net.cpp:122] Setting up scale6
I0122 09:04:49.240941  8862 net.cpp:129] Top shape: 50 256 6 6 (460800)
I0122 09:04:49.240943  8862 net.cpp:137] Memory required for data: 508365600
I0122 09:04:49.240958  8862 layer_factory.hpp:78] Creating layer binactive5
I0122 09:04:49.240973  8862 net.cpp:84] Creating Layer binactive5
I0122 09:04:49.240980  8862 net.cpp:406] binactive5 <- pool5
I0122 09:04:49.240995  8862 net.cpp:380] binactive5 -> binactive5
I0122 09:04:49.241039  8862 net.cpp:122] Setting up binactive5
I0122 09:04:49.241052  8862 net.cpp:129] Top shape: 50 256 6 6 (460800)
I0122 09:04:49.241055  8862 net.cpp:137] Memory required for data: 510208800
I0122 09:04:49.241060  8862 layer_factory.hpp:78] Creating layer fc6
I0122 09:04:49.241088  8862 net.cpp:84] Creating Layer fc6
I0122 09:04:49.241096  8862 net.cpp:406] fc6 <- binactive5
I0122 09:04:49.241114  8862 net.cpp:380] fc6 -> fc6
I0122 09:04:52.606765  8862 net.cpp:122] Setting up fc6
I0122 09:04:52.606830  8862 net.cpp:129] Top shape: 50 4096 (204800)
I0122 09:04:52.606835  8862 net.cpp:137] Memory required for data: 511028000
I0122 09:04:52.606873  8862 layer_factory.hpp:78] Creating layer bn7
I0122 09:04:52.606916  8862 net.cpp:84] Creating Layer bn7
I0122 09:04:52.606973  8862 net.cpp:406] bn7 <- fc6
I0122 09:04:52.607020  8862 net.cpp:367] bn7 -> fc6 (in-place)
I0122 09:04:52.607389  8862 net.cpp:122] Setting up bn7
I0122 09:04:52.607401  8862 net.cpp:129] Top shape: 50 4096 (204800)
I0122 09:04:52.607420  8862 net.cpp:137] Memory required for data: 511847200
I0122 09:04:52.607441  8862 layer_factory.hpp:78] Creating layer scale7
I0122 09:04:52.607468  8862 net.cpp:84] Creating Layer scale7
I0122 09:04:52.607475  8862 net.cpp:406] scale7 <- fc6
I0122 09:04:52.607491  8862 net.cpp:367] scale7 -> fc6 (in-place)
I0122 09:04:52.607635  8862 layer_factory.hpp:78] Creating layer scale7
I0122 09:04:52.607842  8862 net.cpp:122] Setting up scale7
I0122 09:04:52.607854  8862 net.cpp:129] Top shape: 50 4096 (204800)
I0122 09:04:52.607858  8862 net.cpp:137] Memory required for data: 512666400
I0122 09:04:52.607874  8862 layer_factory.hpp:78] Creating layer binactive6
I0122 09:04:52.607889  8862 net.cpp:84] Creating Layer binactive6
I0122 09:04:52.607897  8862 net.cpp:406] binactive6 <- fc6
I0122 09:04:52.607919  8862 net.cpp:380] binactive6 -> binactive6
I0122 09:04:52.607967  8862 net.cpp:122] Setting up binactive6
I0122 09:04:52.607980  8862 net.cpp:129] Top shape: 50 4096 (204800)
I0122 09:04:52.607983  8862 net.cpp:137] Memory required for data: 513485600
I0122 09:04:52.607988  8862 layer_factory.hpp:78] Creating layer fc7
I0122 09:04:52.608027  8862 net.cpp:84] Creating Layer fc7
I0122 09:04:52.608037  8862 net.cpp:406] fc7 <- binactive6
I0122 09:04:52.608057  8862 net.cpp:380] fc7 -> fc7
I0122 09:04:53.952124  8862 net.cpp:122] Setting up fc7
I0122 09:04:53.952181  8862 net.cpp:129] Top shape: 50 4096 (204800)
I0122 09:04:53.952185  8862 net.cpp:137] Memory required for data: 514304800
I0122 09:04:53.952217  8862 layer_factory.hpp:78] Creating layer bn8
I0122 09:04:53.952275  8862 net.cpp:84] Creating Layer bn8
I0122 09:04:53.952291  8862 net.cpp:406] bn8 <- fc7
I0122 09:04:53.952334  8862 net.cpp:367] bn8 -> fc7 (in-place)
I0122 09:04:53.952675  8862 net.cpp:122] Setting up bn8
I0122 09:04:53.952688  8862 net.cpp:129] Top shape: 50 4096 (204800)
I0122 09:04:53.952692  8862 net.cpp:137] Memory required for data: 515124000
I0122 09:04:53.952714  8862 layer_factory.hpp:78] Creating layer scale8
I0122 09:04:53.952755  8862 net.cpp:84] Creating Layer scale8
I0122 09:04:53.952764  8862 net.cpp:406] scale8 <- fc7
I0122 09:04:53.952778  8862 net.cpp:367] scale8 -> fc7 (in-place)
I0122 09:04:53.952878  8862 layer_factory.hpp:78] Creating layer scale8
I0122 09:04:53.953105  8862 net.cpp:122] Setting up scale8
I0122 09:04:53.953117  8862 net.cpp:129] Top shape: 50 4096 (204800)
I0122 09:04:53.953120  8862 net.cpp:137] Memory required for data: 515943200
I0122 09:04:53.953135  8862 layer_factory.hpp:78] Creating layer relu7
I0122 09:04:53.953171  8862 net.cpp:84] Creating Layer relu7
I0122 09:04:53.953178  8862 net.cpp:406] relu7 <- fc7
I0122 09:04:53.953193  8862 net.cpp:367] relu7 -> fc7 (in-place)
I0122 09:04:53.954527  8862 net.cpp:122] Setting up relu7
I0122 09:04:53.954557  8862 net.cpp:129] Top shape: 50 4096 (204800)
I0122 09:04:53.954561  8862 net.cpp:137] Memory required for data: 516762400
I0122 09:04:53.954568  8862 layer_factory.hpp:78] Creating layer fc8
I0122 09:04:53.954593  8862 net.cpp:84] Creating Layer fc8
I0122 09:04:53.954602  8862 net.cpp:406] fc8 <- fc7
I0122 09:04:53.954620  8862 net.cpp:380] fc8 -> fc8
I0122 09:04:54.277129  8862 net.cpp:122] Setting up fc8
I0122 09:04:54.277191  8862 net.cpp:129] Top shape: 50 1000 (50000)
I0122 09:04:54.277196  8862 net.cpp:137] Memory required for data: 516962400
I0122 09:04:54.277225  8862 layer_factory.hpp:78] Creating layer fc8_fc8_0_split
I0122 09:04:54.277252  8862 net.cpp:84] Creating Layer fc8_fc8_0_split
I0122 09:04:54.277299  8862 net.cpp:406] fc8_fc8_0_split <- fc8
I0122 09:04:54.277323  8862 net.cpp:380] fc8_fc8_0_split -> fc8_fc8_0_split_0
I0122 09:04:54.277359  8862 net.cpp:380] fc8_fc8_0_split -> fc8_fc8_0_split_1
I0122 09:04:54.277376  8862 net.cpp:380] fc8_fc8_0_split -> fc8_fc8_0_split_2
I0122 09:04:54.277485  8862 net.cpp:122] Setting up fc8_fc8_0_split
I0122 09:04:54.277518  8862 net.cpp:129] Top shape: 50 1000 (50000)
I0122 09:04:54.277524  8862 net.cpp:129] Top shape: 50 1000 (50000)
I0122 09:04:54.277529  8862 net.cpp:129] Top shape: 50 1000 (50000)
I0122 09:04:54.277531  8862 net.cpp:137] Memory required for data: 517562400
I0122 09:04:54.277539  8862 layer_factory.hpp:78] Creating layer loss
I0122 09:04:54.277570  8862 net.cpp:84] Creating Layer loss
I0122 09:04:54.277580  8862 net.cpp:406] loss <- fc8_fc8_0_split_0
I0122 09:04:54.277608  8862 net.cpp:406] loss <- label_data_1_split_0
I0122 09:04:54.277622  8862 net.cpp:380] loss -> loss
…
