…
I0108 17:24:30.512094 12164 net.cpp:294] The NetState phase (0) differed from the phase (1) specified by a rule in layer data
I0108 17:24:30.512374 12164 net.cpp:51] Initializing net from parameters: 
name: "AlexNet-BN"
state {
  phase: TRAIN
  level: 0
  stage: ""
}
layer {
  name: "data"
  type: "Data"
  top: "data"
  top: "label"
  include {
    phase: TRAIN
  }
  transform_param {
    mirror: true
    crop_size: 224
    mean_value: 104
    mean_value: 117
    mean_value: 123
  }
  data_param {
    source: "/home/zhengzhe/Data/imagenet_shrt256/ilsvrc12_train_lmdb"
    batch_size: 256
    backend: LMDB
  }
}
layer {
  name: "conv1"
  type: "Convolution"
  bottom: "data"
  top: "conv1"
  param {
    lr_mult: 1
    decay_mult: 1
  }
  convolution_param {
    num_output: 96
    bias_term: false
    pad: 2
    kernel_size: 11
    stride: 4
    weight_filler {
      type: "msra"
    }
  }
}
layer {
  name: "bn1"
  type: "BatchNorm"
  bottom: "conv1"
  top: "conv1"
}
layer {
  name: "scale1"
  type: "Scale"
  bottom: "conv1"
  top: "conv1"
  scale_param {
    bias_term: true
  }
}
layer {
  name: "relu1"
  type: "ReLU"
  bottom: "conv1"
  top: "conv1"
}
layer {
  name: "pool1"
  type: "Pooling"
  bottom: "conv1"
  top: "pool1"
  pooling_param {
    pool: MAX
    kernel_size: 3
    stride: 2
  }
}
layer {
  name: "conv2"
  type: "BinaryConvolution"
  bottom: "pool1"
  top: "conv2"
  param {
    lr_mult: 1
    decay_mult: 1
  }
  convolution_param {
    num_output: 256
    bias_term: false
    pad: 2
    kernel_size: 5
    weight_filler {
      type: "msra"
    }
  }
  debug_param {
    xnorno_grad: true
  }
}
layer {
  name: "bn2"
  type: "BatchNorm"
  bottom: "conv2"
  top: "conv2"
}
layer {
  name: "scale2"
  type: "Scale"
  bottom: "conv2"
  top: "conv2"
  scale_param {
    bias_term: true
  }
}
layer {
  name: "relu2"
  type: "ReLU"
  bottom: "conv2"
  top: "conv2"
}
layer {
  name: "pool2"
  type: "Pooling"
  bottom: "conv2"
  top: "pool2"
  pooling_param {
    pool: MAX
    kernel_size: 3
    stride: 2
  }
}
layer {
  name: "conv3"
  type: "BinaryConvolution"
  bottom: "pool2"
  top: "conv3"
  param {
    lr_mult: 1
    decay_mult: 1
  }
  convolution_param {
    num_output: 384
    bias_term: false
    pad: 1
    kernel_size: 3
    weight_filler {
      type: "msra"
    }
  }
  debug_param {
    xnorno_grad: true
  }
}
layer {
  name: "bn3"
  type: "BatchNorm"
  bottom: "conv3"
  top: "conv3"
}
layer {
  name: "scale3"
  type: "Scale"
  bottom: "conv3"
  top: "conv3"
  scale_param {
    bias_term: true
  }
}
layer {
  name: "relu3"
  type: "ReLU"
  bottom: "conv3"
  top: "conv3"
}
layer {
  name: "conv4"
  type: "BinaryConvolution"
  bottom: "conv3"
  top: "conv4"
  param {
    lr_mult: 1
    decay_mult: 1
  }
  convolution_param {
    num_output: 384
    bias_term: false
    pad: 1
    kernel_size: 3
    weight_filler {
      type: "msra"
    }
  }
  debug_param {
    xnorno_grad: true
  }
}
layer {
  name: "bn4"
  type: "BatchNorm"
  bottom: "conv4"
  top: "conv4"
}
layer {
  name: "scale4"
  type: "Scale"
  bottom: "conv4"
  top: "conv4"
  scale_param {
    bias_term: true
  }
}
layer {
  name: "relu4"
  type: "ReLU"
  bottom: "conv4"
  top: "conv4"
}
layer {
  name: "conv5"
  type: "BinaryConvolution"
  bottom: "conv4"
  top: "conv5"
  param {
    lr_mult: 1
    decay_mult: 1
  }
  convolution_param {
    num_output: 256
    bias_term: false
    pad: 1
    kernel_size: 3
    weight_filler {
      type: "msra"
    }
  }
  debug_param {
    xnorno_grad: true
  }
}
layer {
  name: "bn5"
  type: "BatchNorm"
  bottom: "conv5"
  top: "conv5"
}
layer {
  name: "scale5"
  type: "Scale"
  bottom: "conv5"
  top: "conv5"
  scale_param {
    bias_term: true
  }
}
layer {
  name: "relu5"
  type: "ReLU"
  bottom: "conv5"
  top: "conv5"
}
layer {
  name: "pool5"
  type: "Pooling"
  bottom: "conv5"
  top: "pool5"
  pooling_param {
    pool: MAX
    kernel_size: 3
    stride: 2
  }
}
layer {
  name: "fc6"
  type: "BinaryInnerProduct"
  bottom: "pool5"
  top: "fc6"
  param {
    lr_mult: 1
    decay_mult: 1
  }
  inner_product_param {
    num_output: 4096
    bias_term: false
    weight_filler {
      type: "msra"
    }
  }
  debug_param {
    xnorno_grad: true
  }
}
layer {
  name: "bn6"
  type: "BatchNorm"
  bottom: "fc6"
  top: "fc6"
}
layer {
  name: "scale6"
  type: "Scale"
  bottom: "fc6"
  top: "fc6"
  scale_param {
    bias_term: true
  }
}
layer {
  name: "relu6"
  type: "ReLU"
  bottom: "fc6"
  top: "fc6"
}
layer {
  name: "drop6"
  type: "Dropout"
  bottom: "fc6"
  top: "fc6"
  dropout_param {
    dropout_ratio: 0.1
  }
}
layer {
  name: "fc7"
  type: "BinaryInnerProduct"
  bottom: "fc6"
  top: "fc7"
  param {
    lr_mult: 1
    decay_mult: 1
  }
  inner_product_param {
    num_output: 4096
    bias_term: false
    weight_filler {
      type: "msra"
    }
  }
  debug_param {
    xnorno_grad: true
  }
}
layer {
  name: "bn7"
  type: "BatchNorm"
  bottom: "fc7"
  top: "fc7"
}
layer {
  name: "scale7"
  type: "Scale"
  bottom: "fc7"
  top: "fc7"
  scale_param {
    bias_term: true
  }
}
layer {
  name: "relu7"
  type: "ReLU"
  bottom: "fc7"
  top: "fc7"
}
layer {
  name: "drop7"
  type: "Dropout"
  bottom: "fc7"
  top: "fc7"
  dropout_param {
    dropout_ratio: 0.1
  }
}
layer {
  name: "fc8"
  type: "InnerProduct"
  bottom: "fc7"
  top: "fc8"
  param {
    lr_mult: 1
    decay_mult: 1
  }
  param {
    lr_mult: 2
    decay_mult: 0
  }
  inner_product_param {
    num_output: 1000
    weight_filler {
      type: "msra"
    }
    bias_filler {
      type: "constant"
      value: 0
    }
  }
}
layer {
  name: "loss"
  type: "SoftmaxWithLoss"
  bottom: "fc8"
  bottom: "label"
  top: "loss"
}
layer {
  name: "accuracy"
  type: "Accuracy"
  bottom: "fc8"
  bottom: "label"
  top: "accuracy"
}
layer {
  name: "accuracy_5"
  type: "Accuracy"
  bottom: "fc8"
  bottom: "label"
  top: "accuracy_5"
  accuracy_param {
    top_k: 5
  }
}
I0108 17:24:30.513080 12164 layer_factory.hpp:78] Creating layer data
I0108 17:24:30.513293 12164 db_lmdb.cpp:35] Opened lmdb /home/zhengzhe/Data/imagenet_shrt256/ilsvrc12_train_lmdb
I0108 17:24:30.513371 12164 net.cpp:84] Creating Layer data
I0108 17:24:30.513404 12164 net.cpp:380] data -> data
I0108 17:24:30.513548 12164 net.cpp:380] data -> label
I0108 17:24:30.516000 12164 data_layer.cpp:45] output data size: 256,3,224,224
I0108 17:24:30.960052 12164 base_data_layer.cpp:72] Initializing prefetch
I0108 17:24:30.960813 12164 base_data_layer.cpp:75] Prefetch initialized.
I0108 17:24:30.960829 12164 net.cpp:122] Setting up data
I0108 17:24:30.960891 12164 net.cpp:129] Top shape: 256 3 224 224 (38535168)
I0108 17:24:30.960906 12164 net.cpp:129] Top shape: 256 (256)
I0108 17:24:30.960911 12164 net.cpp:137] Memory required for data: 154141696
I0108 17:24:30.960958 12164 layer_factory.hpp:78] Creating layer label_data_1_split
I0108 17:24:30.961028 12164 net.cpp:84] Creating Layer label_data_1_split
I0108 17:24:30.961057 12164 net.cpp:406] label_data_1_split <- label
I0108 17:24:30.961128 12164 net.cpp:380] label_data_1_split -> label_data_1_split_0
I0108 17:24:30.961177 12164 net.cpp:380] label_data_1_split -> label_data_1_split_1
I0108 17:24:30.961197 12164 net.cpp:380] label_data_1_split -> label_data_1_split_2
I0108 17:24:30.961320 12164 net.cpp:122] Setting up label_data_1_split
I0108 17:24:30.961335 12164 net.cpp:129] Top shape: 256 (256)
I0108 17:24:30.961402 12164 net.cpp:129] Top shape: 256 (256)
I0108 17:24:30.961411 12164 net.cpp:129] Top shape: 256 (256)
I0108 17:24:30.961416 12164 net.cpp:137] Memory required for data: 154144768
I0108 17:24:30.961422 12164 layer_factory.hpp:78] Creating layer conv1
I0108 17:24:30.961514 12164 net.cpp:84] Creating Layer conv1
I0108 17:24:30.961527 12164 net.cpp:406] conv1 <- data
I0108 17:24:30.961550 12164 net.cpp:380] conv1 -> conv1
I0108 17:24:31.887679 12164 cudnn_conv_layer.cpp:194] Reallocating workspace storage: 127416
I0108 17:24:31.888499 12164 net.cpp:122] Setting up conv1
I0108 17:24:31.888562 12164 net.cpp:129] Top shape: 256 96 55 55 (74342400)
I0108 17:24:31.888571 12164 net.cpp:137] Memory required for data: 451514368
I0108 17:24:31.888721 12164 layer_factory.hpp:78] Creating layer bn1
I0108 17:24:31.888797 12164 net.cpp:84] Creating Layer bn1
I0108 17:24:31.888818 12164 net.cpp:406] bn1 <- conv1
I0108 17:24:31.888892 12164 net.cpp:367] bn1 -> conv1 (in-place)
I0108 17:24:31.891523 12164 net.cpp:122] Setting up bn1
I0108 17:24:31.891554 12164 net.cpp:129] Top shape: 256 96 55 55 (74342400)
I0108 17:24:31.891562 12164 net.cpp:137] Memory required for data: 748883968
I0108 17:24:31.891645 12164 layer_factory.hpp:78] Creating layer scale1
I0108 17:24:31.891706 12164 net.cpp:84] Creating Layer scale1
I0108 17:24:31.891722 12164 net.cpp:406] scale1 <- conv1
I0108 17:24:31.891767 12164 net.cpp:367] scale1 -> conv1 (in-place)
I0108 17:24:31.891930 12164 layer_factory.hpp:78] Creating layer scale1
I0108 17:24:31.892366 12164 net.cpp:122] Setting up scale1
I0108 17:24:31.892390 12164 net.cpp:129] Top shape: 256 96 55 55 (74342400)
I0108 17:24:31.892396 12164 net.cpp:137] Memory required for data: 1046253568
I0108 17:24:31.892446 12164 layer_factory.hpp:78] Creating layer relu1
I0108 17:24:31.892498 12164 net.cpp:84] Creating Layer relu1
I0108 17:24:31.892513 12164 net.cpp:406] relu1 <- conv1
I0108 17:24:31.892540 12164 net.cpp:367] relu1 -> conv1 (in-place)
I0108 17:24:31.893823 12164 net.cpp:122] Setting up relu1
I0108 17:24:31.893849 12164 net.cpp:129] Top shape: 256 96 55 55 (74342400)
I0108 17:24:31.893857 12164 net.cpp:137] Memory required for data: 1343623168
I0108 17:24:31.893869 12164 layer_factory.hpp:78] Creating layer pool1
I0108 17:24:31.893915 12164 net.cpp:84] Creating Layer pool1
I0108 17:24:31.893932 12164 net.cpp:406] pool1 <- conv1
I0108 17:24:31.893965 12164 net.cpp:380] pool1 -> pool1
I0108 17:24:31.894125 12164 net.cpp:122] Setting up pool1
I0108 17:24:31.894151 12164 net.cpp:129] Top shape: 256 96 27 27 (17915904)
I0108 17:24:31.894160 12164 net.cpp:137] Memory required for data: 1415286784
I0108 17:24:31.894171 12164 layer_factory.hpp:78] Creating layer conv2
I0108 17:24:31.894229 12164 net.cpp:84] Creating Layer conv2
I0108 17:24:31.894245 12164 net.cpp:406] conv2 <- pool1
I0108 17:24:31.894289 12164 net.cpp:380] conv2 -> conv2
I0108 17:24:31.983561 12164 cudnn_binary_conv_layer.cpp:194] Reallocating workspace storage: 19668
I0108 17:24:31.983614 12164 net.cpp:122] Setting up conv2
I0108 17:24:31.983633 12164 net.cpp:129] Top shape: 256 256 27 27 (47775744)
I0108 17:24:31.983639 12164 net.cpp:137] Memory required for data: 1606389760
I0108 17:24:31.983669 12164 layer_factory.hpp:78] Creating layer bn2
I0108 17:24:31.983711 12164 net.cpp:84] Creating Layer bn2
I0108 17:24:31.983726 12164 net.cpp:406] bn2 <- conv2
I0108 17:24:31.983752 12164 net.cpp:367] bn2 -> conv2 (in-place)
I0108 17:24:31.989557 12164 net.cpp:122] Setting up bn2
I0108 17:24:31.989594 12164 net.cpp:129] Top shape: 256 256 27 27 (47775744)
I0108 17:24:31.989603 12164 net.cpp:137] Memory required for data: 1797492736
I0108 17:24:31.989684 12164 layer_factory.hpp:78] Creating layer scale2
I0108 17:24:31.989732 12164 net.cpp:84] Creating Layer scale2
I0108 17:24:31.989750 12164 net.cpp:406] scale2 <- conv2
I0108 17:24:31.989785 12164 net.cpp:367] scale2 -> conv2 (in-place)
I0108 17:24:31.989941 12164 layer_factory.hpp:78] Creating layer scale2
I0108 17:24:31.990314 12164 net.cpp:122] Setting up scale2
I0108 17:24:31.990384 12164 net.cpp:129] Top shape: 256 256 27 27 (47775744)
I0108 17:24:31.990393 12164 net.cpp:137] Memory required for data: 1988595712
I0108 17:24:31.990425 12164 layer_factory.hpp:78] Creating layer relu2
I0108 17:24:31.990459 12164 net.cpp:84] Creating Layer relu2
I0108 17:24:31.990473 12164 net.cpp:406] relu2 <- conv2
I0108 17:24:31.990504 12164 net.cpp:367] relu2 -> conv2 (in-place)
I0108 17:24:31.992039 12164 net.cpp:122] Setting up relu2
I0108 17:24:31.992072 12164 net.cpp:129] Top shape: 256 256 27 27 (47775744)
I0108 17:24:31.992081 12164 net.cpp:137] Memory required for data: 2179698688
I0108 17:24:31.992094 12164 layer_factory.hpp:78] Creating layer pool2
I0108 17:24:31.992130 12164 net.cpp:84] Creating Layer pool2
I0108 17:24:31.992148 12164 net.cpp:406] pool2 <- conv2
I0108 17:24:31.992185 12164 net.cpp:380] pool2 -> pool2
I0108 17:24:31.992352 12164 net.cpp:122] Setting up pool2
I0108 17:24:31.992381 12164 net.cpp:129] Top shape: 256 256 13 13 (11075584)
I0108 17:24:31.992393 12164 net.cpp:137] Memory required for data: 2224001024
I0108 17:24:31.992404 12164 layer_factory.hpp:78] Creating layer conv3
I0108 17:24:31.992460 12164 net.cpp:84] Creating Layer conv3
I0108 17:24:31.992478 12164 net.cpp:406] conv3 <- pool2
I0108 17:24:31.992519 12164 net.cpp:380] conv3 -> conv3
I0108 17:24:32.107043 12164 cudnn_binary_conv_layer.cpp:194] Reallocating workspace storage: 18874368
I0108 17:24:32.111199 12164 net.cpp:122] Setting up conv3
I0108 17:24:32.111253 12164 net.cpp:129] Top shape: 256 384 13 13 (16613376)
I0108 17:24:32.111260 12164 net.cpp:137] Memory required for data: 2290454528
I0108 17:24:32.111302 12164 layer_factory.hpp:78] Creating layer bn3
I0108 17:24:32.111351 12164 net.cpp:84] Creating Layer bn3
I0108 17:24:32.111371 12164 net.cpp:406] bn3 <- conv3
I0108 17:24:32.111407 12164 net.cpp:367] bn3 -> conv3 (in-place)
I0108 17:24:32.111867 12164 net.cpp:122] Setting up bn3
I0108 17:24:32.111884 12164 net.cpp:129] Top shape: 256 384 13 13 (16613376)
I0108 17:24:32.111891 12164 net.cpp:137] Memory required for data: 2356908032
I0108 17:24:32.111925 12164 layer_factory.hpp:78] Creating layer scale3
I0108 17:24:32.111956 12164 net.cpp:84] Creating Layer scale3
I0108 17:24:32.111966 12164 net.cpp:406] scale3 <- conv3
I0108 17:24:32.111989 12164 net.cpp:367] scale3 -> conv3 (in-place)
I0108 17:24:32.112093 12164 layer_factory.hpp:78] Creating layer scale3
I0108 17:24:32.112370 12164 net.cpp:122] Setting up scale3
I0108 17:24:32.112390 12164 net.cpp:129] Top shape: 256 384 13 13 (16613376)
I0108 17:24:32.112396 12164 net.cpp:137] Memory required for data: 2423361536
I0108 17:24:32.112438 12164 layer_factory.hpp:78] Creating layer relu3
I0108 17:24:32.112463 12164 net.cpp:84] Creating Layer relu3
I0108 17:24:32.112475 12164 net.cpp:406] relu3 <- conv3
I0108 17:24:32.112498 12164 net.cpp:367] relu3 -> conv3 (in-place)
I0108 17:24:32.115258 12164 net.cpp:122] Setting up relu3
I0108 17:24:32.115281 12164 net.cpp:129] Top shape: 256 384 13 13 (16613376)
I0108 17:24:32.115289 12164 net.cpp:137] Memory required for data: 2489815040
I0108 17:24:32.115299 12164 layer_factory.hpp:78] Creating layer conv4
I0108 17:24:32.115361 12164 net.cpp:84] Creating Layer conv4
I0108 17:24:32.115378 12164 net.cpp:406] conv4 <- conv3
I0108 17:24:32.115412 12164 net.cpp:380] conv4 -> conv4
I0108 17:24:32.288805 12164 cudnn_binary_conv_layer.cpp:194] Reallocating workspace storage: 9840
I0108 17:24:32.288854 12164 net.cpp:122] Setting up conv4
I0108 17:24:32.288877 12164 net.cpp:129] Top shape: 256 384 13 13 (16613376)
I0108 17:24:32.288883 12164 net.cpp:137] Memory required for data: 2556268544
I0108 17:24:32.288913 12164 layer_factory.hpp:78] Creating layer bn4
I0108 17:24:32.288945 12164 net.cpp:84] Creating Layer bn4
I0108 17:24:32.288959 12164 net.cpp:406] bn4 <- conv4
I0108 17:24:32.288986 12164 net.cpp:367] bn4 -> conv4 (in-place)
I0108 17:24:32.289269 12164 net.cpp:122] Setting up bn4
I0108 17:24:32.289285 12164 net.cpp:129] Top shape: 256 384 13 13 (16613376)
I0108 17:24:32.289289 12164 net.cpp:137] Memory required for data: 2622722048
I0108 17:24:32.289338 12164 layer_factory.hpp:78] Creating layer scale4
I0108 17:24:32.289371 12164 net.cpp:84] Creating Layer scale4
I0108 17:24:32.289381 12164 net.cpp:406] scale4 <- conv4
I0108 17:24:32.289398 12164 net.cpp:367] scale4 -> conv4 (in-place)
I0108 17:24:32.289479 12164 layer_factory.hpp:78] Creating layer scale4
I0108 17:24:32.289675 12164 net.cpp:122] Setting up scale4
I0108 17:24:32.289692 12164 net.cpp:129] Top shape: 256 384 13 13 (16613376)
I0108 17:24:32.289697 12164 net.cpp:137] Memory required for data: 2689175552
I0108 17:24:32.289714 12164 layer_factory.hpp:78] Creating layer relu4
I0108 17:24:32.289732 12164 net.cpp:84] Creating Layer relu4
I0108 17:24:32.289741 12164 net.cpp:406] relu4 <- conv4
I0108 17:24:32.289757 12164 net.cpp:367] relu4 -> conv4 (in-place)
I0108 17:24:32.291813 12164 net.cpp:122] Setting up relu4
I0108 17:24:32.291882 12164 net.cpp:129] Top shape: 256 384 13 13 (16613376)
I0108 17:24:32.291893 12164 net.cpp:137] Memory required for data: 2755629056
I0108 17:24:32.291915 12164 layer_factory.hpp:78] Creating layer conv5
I0108 17:24:32.292002 12164 net.cpp:84] Creating Layer conv5
I0108 17:24:32.292026 12164 net.cpp:406] conv5 <- conv4
I0108 17:24:32.292095 12164 net.cpp:380] conv5 -> conv5
I0108 17:24:32.429551 12164 cudnn_binary_conv_layer.cpp:194] Reallocating workspace storage: 18874368
I0108 17:24:32.429915 12164 net.cpp:122] Setting up conv5
I0108 17:24:32.429942 12164 net.cpp:129] Top shape: 256 256 13 13 (11075584)
I0108 17:24:32.429949 12164 net.cpp:137] Memory required for data: 2799931392
I0108 17:24:32.429980 12164 layer_factory.hpp:78] Creating layer bn5
I0108 17:24:32.430013 12164 net.cpp:84] Creating Layer bn5
I0108 17:24:32.430028 12164 net.cpp:406] bn5 <- conv5
I0108 17:24:32.430064 12164 net.cpp:367] bn5 -> conv5 (in-place)
I0108 17:24:32.430358 12164 net.cpp:122] Setting up bn5
I0108 17:24:32.430372 12164 net.cpp:129] Top shape: 256 256 13 13 (11075584)
I0108 17:24:32.430377 12164 net.cpp:137] Memory required for data: 2844233728
I0108 17:24:32.430400 12164 layer_factory.hpp:78] Creating layer scale5
I0108 17:24:32.430423 12164 net.cpp:84] Creating Layer scale5
I0108 17:24:32.430431 12164 net.cpp:406] scale5 <- conv5
I0108 17:24:32.430450 12164 net.cpp:367] scale5 -> conv5 (in-place)
I0108 17:24:32.430528 12164 layer_factory.hpp:78] Creating layer scale5
I0108 17:24:32.430721 12164 net.cpp:122] Setting up scale5
I0108 17:24:32.430734 12164 net.cpp:129] Top shape: 256 256 13 13 (11075584)
I0108 17:24:32.430737 12164 net.cpp:137] Memory required for data: 2888536064
I0108 17:24:32.430754 12164 layer_factory.hpp:78] Creating layer relu5
I0108 17:24:32.430773 12164 net.cpp:84] Creating Layer relu5
I0108 17:24:32.430781 12164 net.cpp:406] relu5 <- conv5
I0108 17:24:32.430796 12164 net.cpp:367] relu5 -> conv5 (in-place)
I0108 17:24:32.431538 12164 net.cpp:122] Setting up relu5
I0108 17:24:32.431555 12164 net.cpp:129] Top shape: 256 256 13 13 (11075584)
I0108 17:24:32.431558 12164 net.cpp:137] Memory required for data: 2932838400
I0108 17:24:32.431565 12164 layer_factory.hpp:78] Creating layer pool5
I0108 17:24:32.431591 12164 net.cpp:84] Creating Layer pool5
I0108 17:24:32.431599 12164 net.cpp:406] pool5 <- conv5
I0108 17:24:32.431618 12164 net.cpp:380] pool5 -> pool5
I0108 17:24:32.431702 12164 net.cpp:122] Setting up pool5
I0108 17:24:32.431717 12164 net.cpp:129] Top shape: 256 256 6 6 (2359296)
I0108 17:24:32.431723 12164 net.cpp:137] Memory required for data: 2942275584
I0108 17:24:32.431730 12164 layer_factory.hpp:78] Creating layer fc6
I0108 17:24:32.431762 12164 net.cpp:84] Creating Layer fc6
I0108 17:24:32.431772 12164 net.cpp:406] fc6 <- pool5
I0108 17:24:32.431792 12164 net.cpp:380] fc6 -> fc6
I0108 17:24:35.896175 12164 net.cpp:122] Setting up fc6
I0108 17:24:35.896229 12164 net.cpp:129] Top shape: 256 4096 (1048576)
I0108 17:24:35.896234 12164 net.cpp:137] Memory required for data: 2946469888
I0108 17:24:35.896268 12164 layer_factory.hpp:78] Creating layer bn6
I0108 17:24:35.896308 12164 net.cpp:84] Creating Layer bn6
I0108 17:24:35.896349 12164 net.cpp:406] bn6 <- fc6
I0108 17:24:35.896379 12164 net.cpp:367] bn6 -> fc6 (in-place)
I0108 17:24:35.896651 12164 net.cpp:122] Setting up bn6
I0108 17:24:35.896661 12164 net.cpp:129] Top shape: 256 4096 (1048576)
I0108 17:24:35.896665 12164 net.cpp:137] Memory required for data: 2950664192
I0108 17:24:35.896705 12164 layer_factory.hpp:78] Creating layer scale6
I0108 17:24:35.896731 12164 net.cpp:84] Creating Layer scale6
I0108 17:24:35.896739 12164 net.cpp:406] scale6 <- fc6
I0108 17:24:35.896754 12164 net.cpp:367] scale6 -> fc6 (in-place)
I0108 17:24:35.896834 12164 layer_factory.hpp:78] Creating layer scale6
I0108 17:24:35.897017 12164 net.cpp:122] Setting up scale6
I0108 17:24:35.897029 12164 net.cpp:129] Top shape: 256 4096 (1048576)
I0108 17:24:35.897032 12164 net.cpp:137] Memory required for data: 2954858496
I0108 17:24:35.897047 12164 layer_factory.hpp:78] Creating layer relu6
I0108 17:24:35.897063 12164 net.cpp:84] Creating Layer relu6
I0108 17:24:35.897071 12164 net.cpp:406] relu6 <- fc6
I0108 17:24:35.897084 12164 net.cpp:367] relu6 -> fc6 (in-place)
I0108 17:24:35.899623 12164 net.cpp:122] Setting up relu6
I0108 17:24:35.899639 12164 net.cpp:129] Top shape: 256 4096 (1048576)
I0108 17:24:35.899643 12164 net.cpp:137] Memory required for data: 2959052800
I0108 17:24:35.899649 12164 layer_factory.hpp:78] Creating layer drop6
I0108 17:24:35.899672 12164 net.cpp:84] Creating Layer drop6
I0108 17:24:35.899679 12164 net.cpp:406] drop6 <- fc6
I0108 17:24:35.899699 12164 net.cpp:367] drop6 -> fc6 (in-place)
I0108 17:24:35.899755 12164 net.cpp:122] Setting up drop6
I0108 17:24:35.899766 12164 net.cpp:129] Top shape: 256 4096 (1048576)
I0108 17:24:35.899770 12164 net.cpp:137] Memory required for data: 2963247104
I0108 17:24:35.899775 12164 layer_factory.hpp:78] Creating layer fc7
I0108 17:24:35.899801 12164 net.cpp:84] Creating Layer fc7
I0108 17:24:35.899809 12164 net.cpp:406] fc7 <- fc6
I0108 17:24:35.899827 12164 net.cpp:380] fc7 -> fc7
I0108 17:24:37.404283 12164 net.cpp:122] Setting up fc7
I0108 17:24:37.404358 12164 net.cpp:129] Top shape: 256 4096 (1048576)
I0108 17:24:37.404363 12164 net.cpp:137] Memory required for data: 2967441408
I0108 17:24:37.404398 12164 layer_factory.hpp:78] Creating layer bn7
I0108 17:24:37.404438 12164 net.cpp:84] Creating Layer bn7
I0108 17:24:37.404453 12164 net.cpp:406] bn7 <- fc7
I0108 17:24:37.404481 12164 net.cpp:367] bn7 -> fc7 (in-place)
I0108 17:24:37.404767 12164 net.cpp:122] Setting up bn7
I0108 17:24:37.404779 12164 net.cpp:129] Top shape: 256 4096 (1048576)
I0108 17:24:37.404783 12164 net.cpp:137] Memory required for data: 2971635712
I0108 17:24:37.404803 12164 layer_factory.hpp:78] Creating layer scale7
I0108 17:24:37.404835 12164 net.cpp:84] Creating Layer scale7
I0108 17:24:37.404844 12164 net.cpp:406] scale7 <- fc7
I0108 17:24:37.404861 12164 net.cpp:367] scale7 -> fc7 (in-place)
I0108 17:24:37.404938 12164 layer_factory.hpp:78] Creating layer scale7
I0108 17:24:37.405129 12164 net.cpp:122] Setting up scale7
I0108 17:24:37.405143 12164 net.cpp:129] Top shape: 256 4096 (1048576)
I0108 17:24:37.405145 12164 net.cpp:137] Memory required for data: 2975830016
I0108 17:24:37.405160 12164 layer_factory.hpp:78] Creating layer relu7
I0108 17:24:37.405177 12164 net.cpp:84] Creating Layer relu7
I0108 17:24:37.405185 12164 net.cpp:406] relu7 <- fc7
I0108 17:24:37.405200 12164 net.cpp:367] relu7 -> fc7 (in-place)
I0108 17:24:37.406365 12164 net.cpp:122] Setting up relu7
I0108 17:24:37.406380 12164 net.cpp:129] Top shape: 256 4096 (1048576)
I0108 17:24:37.406383 12164 net.cpp:137] Memory required for data: 2980024320
I0108 17:24:37.406390 12164 layer_factory.hpp:78] Creating layer drop7
I0108 17:24:37.406409 12164 net.cpp:84] Creating Layer drop7
I0108 17:24:37.406416 12164 net.cpp:406] drop7 <- fc7
I0108 17:24:37.406433 12164 net.cpp:367] drop7 -> fc7 (in-place)
I0108 17:24:37.406478 12164 net.cpp:122] Setting up drop7
I0108 17:24:37.406493 12164 net.cpp:129] Top shape: 256 4096 (1048576)
I0108 17:24:37.406497 12164 net.cpp:137] Memory required for data: 2984218624
I0108 17:24:37.406522 12164 layer_factory.hpp:78] Creating layer fc8
I0108 17:24:37.406556 12164 net.cpp:84] Creating Layer fc8
I0108 17:24:37.406566 12164 net.cpp:406] fc8 <- fc7
I0108 17:24:37.406584 12164 net.cpp:380] fc8 -> fc8
I0108 17:24:37.889796 12164 net.cpp:122] Setting up fc8
I0108 17:24:37.889845 12164 net.cpp:129] Top shape: 256 1000 (256000)
I0108 17:24:37.889852 12164 net.cpp:137] Memory required for data: 2985242624
I0108 17:24:37.889884 12164 layer_factory.hpp:78] Creating layer fc8_fc8_0_split
I0108 17:24:37.889921 12164 net.cpp:84] Creating Layer fc8_fc8_0_split
I0108 17:24:37.889935 12164 net.cpp:406] fc8_fc8_0_split <- fc8
I0108 17:24:37.889962 12164 net.cpp:380] fc8_fc8_0_split -> fc8_fc8_0_split_0
I0108 17:24:37.890002 12164 net.cpp:380] fc8_fc8_0_split -> fc8_fc8_0_split_1
I0108 17:24:37.890019 12164 net.cpp:380] fc8_fc8_0_split -> fc8_fc8_0_split_2
I0108 17:24:37.890106 12164 net.cpp:122] Setting up fc8_fc8_0_split
I0108 17:24:37.890125 12164 net.cpp:129] Top shape: 256 1000 (256000)
I0108 17:24:37.890133 12164 net.cpp:129] Top shape: 256 1000 (256000)
I0108 17:24:37.890138 12164 net.cpp:129] Top shape: 256 1000 (256000)
I0108 17:24:37.890141 12164 net.cpp:137] Memory required for data: 2988314624
I0108 17:24:37.890148 12164 layer_factory.hpp:78] Creating layer loss
I0108 17:24:37.890174 12164 net.cpp:84] Creating Layer loss
I0108 17:24:37.890182 12164 net.cpp:406] loss <- fc8_fc8_0_split_0
I0108 17:24:37.890197 12164 net.cpp:406] loss <- label_data_1_split_0
I0108 17:24:37.890211 12164 net.cpp:380] loss -> loss
…
I0108 17:24:37.895438 12164 net.cpp:294] The NetState phase (1) differed from the phase (0) specified by a rule in layer data
I0108 17:24:37.895686 12164 net.cpp:51] Initializing net from parameters: 
name: "AlexNet-BN"
state {
  phase: TEST
}
layer {
  name: "data"
  type: "Data"
  top: "data"
  top: "label"
  include {
    phase: TEST
  }
  transform_param {
    mirror: false
    crop_size: 224
    mean_value: 104
    mean_value: 117
    mean_value: 123
  }
  data_param {
    source: "/home/zhengzhe/Data/imagenet_shrt256/ilsvrc12_val_lmdb"
    batch_size: 50
    backend: LMDB
  }
}
layer {
  name: "conv1"
  type: "Convolution"
  bottom: "data"
  top: "conv1"
  param {
    lr_mult: 1
    decay_mult: 1
  }
  convolution_param {
    num_output: 96
    bias_term: false
    pad: 2
    kernel_size: 11
    stride: 4
    weight_filler {
      type: "msra"
    }
  }
}
layer {
  name: "bn1"
  type: "BatchNorm"
  bottom: "conv1"
  top: "conv1"
}
layer {
  name: "scale1"
  type: "Scale"
  bottom: "conv1"
  top: "conv1"
  scale_param {
    bias_term: true
  }
}
layer {
  name: "relu1"
  type: "ReLU"
  bottom: "conv1"
  top: "conv1"
}
layer {
  name: "pool1"
  type: "Pooling"
  bottom: "conv1"
  top: "pool1"
  pooling_param {
    pool: MAX
    kernel_size: 3
    stride: 2
  }
}
layer {
  name: "conv2"
  type: "BinaryConvolution"
  bottom: "pool1"
  top: "conv2"
  param {
    lr_mult: 1
    decay_mult: 1
  }
  convolution_param {
    num_output: 256
    bias_term: false
    pad: 2
    kernel_size: 5
    weight_filler {
      type: "msra"
    }
  }
  debug_param {
    xnorno_grad: true
  }
}
layer {
  name: "bn2"
  type: "BatchNorm"
  bottom: "conv2"
  top: "conv2"
}
layer {
  name: "scale2"
  type: "Scale"
  bottom: "conv2"
  top: "conv2"
  scale_param {
    bias_term: true
  }
}
layer {
  name: "relu2"
  type: "ReLU"
  bottom: "conv2"
  top: "conv2"
}
layer {
  name: "pool2"
  type: "Pooling"
  bottom: "conv2"
  top: "pool2"
  pooling_param {
    pool: MAX
    kernel_size: 3
    stride: 2
  }
}
layer {
  name: "conv3"
  type: "BinaryConvolution"
  bottom: "pool2"
  top: "conv3"
  param {
    lr_mult: 1
    decay_mult: 1
  }
  convolution_param {
    num_output: 384
    bias_term: false
    pad: 1
    kernel_size: 3
    weight_filler {
      type: "msra"
    }
  }
  debug_param {
    xnorno_grad: true
  }
}
layer {
  name: "bn3"
  type: "BatchNorm"
  bottom: "conv3"
  top: "conv3"
}
layer {
  name: "scale3"
  type: "Scale"
  bottom: "conv3"
  top: "conv3"
  scale_param {
    bias_term: true
  }
}
layer {
  name: "relu3"
  type: "ReLU"
  bottom: "conv3"
  top: "conv3"
}
layer {
  name: "conv4"
  type: "BinaryConvolution"
  bottom: "conv3"
  top: "conv4"
  param {
    lr_mult: 1
    decay_mult: 1
  }
  convolution_param {
    num_output: 384
    bias_term: false
    pad: 1
    kernel_size: 3
    weight_filler {
      type: "msra"
    }
  }
  debug_param {
    xnorno_grad: true
  }
}
layer {
  name: "bn4"
  type: "BatchNorm"
  bottom: "conv4"
  top: "conv4"
}
layer {
  name: "scale4"
  type: "Scale"
  bottom: "conv4"
  top: "conv4"
  scale_param {
    bias_term: true
  }
}
layer {
  name: "relu4"
  type: "ReLU"
  bottom: "conv4"
  top: "conv4"
}
layer {
  name: "conv5"
  type: "BinaryConvolution"
  bottom: "conv4"
  top: "conv5"
  param {
    lr_mult: 1
    decay_mult: 1
  }
  convolution_param {
    num_output: 256
    bias_term: false
    pad: 1
    kernel_size: 3
    weight_filler {
      type: "msra"
    }
  }
  debug_param {
    xnorno_grad: true
  }
}
layer {
  name: "bn5"
  type: "BatchNorm"
  bottom: "conv5"
  top: "conv5"
}
layer {
  name: "scale5"
  type: "Scale"
  bottom: "conv5"
  top: "conv5"
  scale_param {
    bias_term: true
  }
}
layer {
  name: "relu5"
  type: "ReLU"
  bottom: "conv5"
  top: "conv5"
}
layer {
  name: "pool5"
  type: "Pooling"
  bottom: "conv5"
  top: "pool5"
  pooling_param {
    pool: MAX
    kernel_size: 3
    stride: 2
  }
}
layer {
  name: "fc6"
  type: "BinaryInnerProduct"
  bottom: "pool5"
  top: "fc6"
  param {
    lr_mult: 1
    decay_mult: 1
  }
  inner_product_param {
    num_output: 4096
    bias_term: false
    weight_filler {
      type: "msra"
    }
  }
  debug_param {
    xnorno_grad: true
  }
}
layer {
  name: "bn6"
  type: "BatchNorm"
  bottom: "fc6"
  top: "fc6"
}
layer {
  name: "scale6"
  type: "Scale"
  bottom: "fc6"
  top: "fc6"
  scale_param {
    bias_term: true
  }
}
layer {
  name: "relu6"
  type: "ReLU"
  bottom: "fc6"
  top: "fc6"
}
layer {
  name: "drop6"
  type: "Dropout"
  bottom: "fc6"
  top: "fc6"
  dropout_param {
    dropout_ratio: 0.1
  }
}
layer {
  name: "fc7"
  type: "BinaryInnerProduct"
  bottom: "fc6"
  top: "fc7"
  param {
    lr_mult: 1
    decay_mult: 1
  }
  inner_product_param {
    num_output: 4096
    bias_term: false
    weight_filler {
      type: "msra"
    }
  }
  debug_param {
    xnorno_grad: true
  }
}
layer {
  name: "bn7"
  type: "BatchNorm"
  bottom: "fc7"
  top: "fc7"
}
layer {
  name: "scale7"
  type: "Scale"
  bottom: "fc7"
  top: "fc7"
  scale_param {
    bias_term: true
  }
}
layer {
  name: "relu7"
  type: "ReLU"
  bottom: "fc7"
  top: "fc7"
}
layer {
  name: "drop7"
  type: "Dropout"
  bottom: "fc7"
  top: "fc7"
  dropout_param {
    dropout_ratio: 0.1
  }
}
layer {
  name: "fc8"
  type: "InnerProduct"
  bottom: "fc7"
  top: "fc8"
  param {
    lr_mult: 1
    decay_mult: 1
  }
  param {
    lr_mult: 2
    decay_mult: 0
  }
  inner_product_param {
    num_output: 1000
    weight_filler {
      type: "msra"
    }
    bias_filler {
      type: "constant"
      value: 0
    }
  }
}
layer {
  name: "loss"
  type: "SoftmaxWithLoss"
  bottom: "fc8"
  bottom: "label"
  top: "loss"
}
layer {
  name: "accuracy"
  type: "Accuracy"
  bottom: "fc8"
  bottom: "label"
  top: "accuracy"
}
layer {
  name: "accuracy_5"
  type: "Accuracy"
  bottom: "fc8"
  bottom: "label"
  top: "accuracy_5"
  accuracy_param {
    top_k: 5
  }
}
I0108 17:24:37.896111 12164 layer_factory.hpp:78] Creating layer data
I0108 17:24:37.896215 12164 db_lmdb.cpp:35] Opened lmdb /home/zhengzhe/Data/imagenet_shrt256/ilsvrc12_val_lmdb
I0108 17:24:37.896245 12164 net.cpp:84] Creating Layer data
I0108 17:24:37.896263 12164 net.cpp:380] data -> data
I0108 17:24:37.896297 12164 net.cpp:380] data -> label
I0108 17:24:37.896944 12164 data_layer.cpp:45] output data size: 50,3,224,224
I0108 17:24:37.984010 12164 base_data_layer.cpp:72] Initializing prefetch
I0108 17:24:37.984597 12164 base_data_layer.cpp:75] Prefetch initialized.
I0108 17:24:37.984611 12164 net.cpp:122] Setting up data
I0108 17:24:37.984633 12164 net.cpp:129] Top shape: 50 3 224 224 (7526400)
I0108 17:24:37.984642 12164 net.cpp:129] Top shape: 50 (50)
I0108 17:24:37.984647 12164 net.cpp:137] Memory required for data: 30105800
I0108 17:24:37.984673 12164 layer_factory.hpp:78] Creating layer label_data_1_split
I0108 17:24:37.984719 12164 net.cpp:84] Creating Layer label_data_1_split
I0108 17:24:37.984733 12164 net.cpp:406] label_data_1_split <- label
I0108 17:24:37.984766 12164 net.cpp:380] label_data_1_split -> label_data_1_split_0
I0108 17:24:37.984804 12164 net.cpp:380] label_data_1_split -> label_data_1_split_1
I0108 17:24:37.984819 12164 net.cpp:380] label_data_1_split -> label_data_1_split_2
I0108 17:24:37.985026 12164 net.cpp:122] Setting up label_data_1_split
I0108 17:24:37.985043 12164 net.cpp:129] Top shape: 50 (50)
I0108 17:24:37.985049 12164 net.cpp:129] Top shape: 50 (50)
I0108 17:24:37.985055 12164 net.cpp:129] Top shape: 50 (50)
I0108 17:24:37.985059 12164 net.cpp:137] Memory required for data: 30106400
I0108 17:24:37.985065 12164 layer_factory.hpp:78] Creating layer conv1
I0108 17:24:37.985107 12164 net.cpp:84] Creating Layer conv1
I0108 17:24:37.985118 12164 net.cpp:406] conv1 <- data
I0108 17:24:37.985141 12164 net.cpp:380] conv1 -> conv1
I0108 17:24:37.999439 12164 cudnn_conv_layer.cpp:194] Reallocating workspace storage: 127416
I0108 17:24:37.999547 12164 net.cpp:122] Setting up conv1
I0108 17:24:37.999581 12164 net.cpp:129] Top shape: 50 96 55 55 (14520000)
I0108 17:24:37.999590 12164 net.cpp:137] Memory required for data: 88186400
I0108 17:24:37.999678 12164 layer_factory.hpp:78] Creating layer bn1
I0108 17:24:37.999739 12164 net.cpp:84] Creating Layer bn1
I0108 17:24:37.999763 12164 net.cpp:406] bn1 <- conv1
I0108 17:24:37.999801 12164 net.cpp:367] bn1 -> conv1 (in-place)
I0108 17:24:38.000452 12164 net.cpp:122] Setting up bn1
I0108 17:24:38.000476 12164 net.cpp:129] Top shape: 50 96 55 55 (14520000)
I0108 17:24:38.000484 12164 net.cpp:137] Memory required for data: 146266400
I0108 17:24:38.000555 12164 layer_factory.hpp:78] Creating layer scale1
I0108 17:24:38.000607 12164 net.cpp:84] Creating Layer scale1
I0108 17:24:38.000624 12164 net.cpp:406] scale1 <- conv1
I0108 17:24:38.000658 12164 net.cpp:367] scale1 -> conv1 (in-place)
I0108 17:24:38.000818 12164 layer_factory.hpp:78] Creating layer scale1
I0108 17:24:38.001269 12164 net.cpp:122] Setting up scale1
I0108 17:24:38.001294 12164 net.cpp:129] Top shape: 50 96 55 55 (14520000)
I0108 17:24:38.001302 12164 net.cpp:137] Memory required for data: 204346400
I0108 17:24:38.001361 12164 layer_factory.hpp:78] Creating layer relu1
I0108 17:24:38.001399 12164 net.cpp:84] Creating Layer relu1
I0108 17:24:38.001412 12164 net.cpp:406] relu1 <- conv1
I0108 17:24:38.001441 12164 net.cpp:367] relu1 -> conv1 (in-place)
I0108 17:24:38.002864 12164 net.cpp:122] Setting up relu1
I0108 17:24:38.002892 12164 net.cpp:129] Top shape: 50 96 55 55 (14520000)
I0108 17:24:38.002900 12164 net.cpp:137] Memory required for data: 262426400
I0108 17:24:38.002913 12164 layer_factory.hpp:78] Creating layer pool1
I0108 17:24:38.002951 12164 net.cpp:84] Creating Layer pool1
I0108 17:24:38.002969 12164 net.cpp:406] pool1 <- conv1
I0108 17:24:38.003011 12164 net.cpp:380] pool1 -> pool1
I0108 17:24:38.003161 12164 net.cpp:122] Setting up pool1
I0108 17:24:38.003187 12164 net.cpp:129] Top shape: 50 96 27 27 (3499200)
I0108 17:24:38.003229 12164 net.cpp:137] Memory required for data: 276423200
I0108 17:24:38.003247 12164 layer_factory.hpp:78] Creating layer conv2
I0108 17:24:38.003307 12164 net.cpp:84] Creating Layer conv2
I0108 17:24:38.003326 12164 net.cpp:406] conv2 <- pool1
I0108 17:24:38.003394 12164 net.cpp:380] conv2 -> conv2
I0108 17:24:38.092155 12164 cudnn_binary_conv_layer.cpp:194] Reallocating workspace storage: 19668
I0108 17:24:38.092206 12164 net.cpp:122] Setting up conv2
I0108 17:24:38.092223 12164 net.cpp:129] Top shape: 50 256 27 27 (9331200)
I0108 17:24:38.092228 12164 net.cpp:137] Memory required for data: 313748000
I0108 17:24:38.092255 12164 layer_factory.hpp:78] Creating layer bn2
I0108 17:24:38.092288 12164 net.cpp:84] Creating Layer bn2
I0108 17:24:38.092303 12164 net.cpp:406] bn2 <- conv2
I0108 17:24:38.092331 12164 net.cpp:367] bn2 -> conv2 (in-place)
I0108 17:24:38.092664 12164 net.cpp:122] Setting up bn2
I0108 17:24:38.092679 12164 net.cpp:129] Top shape: 50 256 27 27 (9331200)
I0108 17:24:38.092684 12164 net.cpp:137] Memory required for data: 351072800
I0108 17:24:38.092722 12164 layer_factory.hpp:78] Creating layer scale2
I0108 17:24:38.092753 12164 net.cpp:84] Creating Layer scale2
I0108 17:24:38.092763 12164 net.cpp:406] scale2 <- conv2
I0108 17:24:38.092780 12164 net.cpp:367] scale2 -> conv2 (in-place)
I0108 17:24:38.092900 12164 layer_factory.hpp:78] Creating layer scale2
I0108 17:24:38.093232 12164 net.cpp:122] Setting up scale2
I0108 17:24:38.093248 12164 net.cpp:129] Top shape: 50 256 27 27 (9331200)
I0108 17:24:38.093252 12164 net.cpp:137] Memory required for data: 388397600
I0108 17:24:38.093271 12164 layer_factory.hpp:78] Creating layer relu2
I0108 17:24:38.093289 12164 net.cpp:84] Creating Layer relu2
I0108 17:24:38.093299 12164 net.cpp:406] relu2 <- conv2
I0108 17:24:38.093319 12164 net.cpp:367] relu2 -> conv2 (in-place)
I0108 17:24:38.094422 12164 net.cpp:122] Setting up relu2
I0108 17:24:38.094441 12164 net.cpp:129] Top shape: 50 256 27 27 (9331200)
I0108 17:24:38.094445 12164 net.cpp:137] Memory required for data: 425722400
I0108 17:24:38.094453 12164 layer_factory.hpp:78] Creating layer pool2
I0108 17:24:38.094477 12164 net.cpp:84] Creating Layer pool2
I0108 17:24:38.094485 12164 net.cpp:406] pool2 <- conv2
I0108 17:24:38.094506 12164 net.cpp:380] pool2 -> pool2
I0108 17:24:38.094604 12164 net.cpp:122] Setting up pool2
I0108 17:24:38.094620 12164 net.cpp:129] Top shape: 50 256 13 13 (2163200)
I0108 17:24:38.094626 12164 net.cpp:137] Memory required for data: 434375200
I0108 17:24:38.094633 12164 layer_factory.hpp:78] Creating layer conv3
I0108 17:24:38.094667 12164 net.cpp:84] Creating Layer conv3
I0108 17:24:38.094678 12164 net.cpp:406] conv3 <- pool2
I0108 17:24:38.094699 12164 net.cpp:380] conv3 -> conv3
I0108 17:24:38.195135 12164 cudnn_binary_conv_layer.cpp:194] Reallocating workspace storage: 18874368
I0108 17:24:38.195520 12164 net.cpp:122] Setting up conv3
I0108 17:24:38.195555 12164 net.cpp:129] Top shape: 50 384 13 13 (3244800)
I0108 17:24:38.195560 12164 net.cpp:137] Memory required for data: 447354400
I0108 17:24:38.195596 12164 layer_factory.hpp:78] Creating layer bn3
I0108 17:24:38.195629 12164 net.cpp:84] Creating Layer bn3
I0108 17:24:38.195642 12164 net.cpp:406] bn3 <- conv3
I0108 17:24:38.195670 12164 net.cpp:367] bn3 -> conv3 (in-place)
I0108 17:24:38.196024 12164 net.cpp:122] Setting up bn3
I0108 17:24:38.196038 12164 net.cpp:129] Top shape: 50 384 13 13 (3244800)
I0108 17:24:38.196043 12164 net.cpp:137] Memory required for data: 460333600
I0108 17:24:38.196069 12164 layer_factory.hpp:78] Creating layer scale3
I0108 17:24:38.196091 12164 net.cpp:84] Creating Layer scale3
I0108 17:24:38.196100 12164 net.cpp:406] scale3 <- conv3
I0108 17:24:38.196118 12164 net.cpp:367] scale3 -> conv3 (in-place)
I0108 17:24:38.196223 12164 layer_factory.hpp:78] Creating layer scale3
I0108 17:24:38.196467 12164 net.cpp:122] Setting up scale3
I0108 17:24:38.196482 12164 net.cpp:129] Top shape: 50 384 13 13 (3244800)
I0108 17:24:38.196487 12164 net.cpp:137] Memory required for data: 473312800
I0108 17:24:38.196542 12164 layer_factory.hpp:78] Creating layer relu3
I0108 17:24:38.196564 12164 net.cpp:84] Creating Layer relu3
I0108 17:24:38.196574 12164 net.cpp:406] relu3 <- conv3
I0108 17:24:38.196593 12164 net.cpp:367] relu3 -> conv3 (in-place)
I0108 17:24:38.197713 12164 net.cpp:122] Setting up relu3
I0108 17:24:38.197736 12164 net.cpp:129] Top shape: 50 384 13 13 (3244800)
I0108 17:24:38.197741 12164 net.cpp:137] Memory required for data: 486292000
I0108 17:24:38.197747 12164 layer_factory.hpp:78] Creating layer conv4
I0108 17:24:38.197789 12164 net.cpp:84] Creating Layer conv4
I0108 17:24:38.197801 12164 net.cpp:406] conv4 <- conv3
I0108 17:24:38.197831 12164 net.cpp:380] conv4 -> conv4
I0108 17:24:38.320399 12164 cudnn_binary_conv_layer.cpp:194] Reallocating workspace storage: 9840
I0108 17:24:38.320451 12164 net.cpp:122] Setting up conv4
I0108 17:24:38.320464 12164 net.cpp:129] Top shape: 50 384 13 13 (3244800)
I0108 17:24:38.320468 12164 net.cpp:137] Memory required for data: 499271200
I0108 17:24:38.320485 12164 layer_factory.hpp:78] Creating layer bn4
I0108 17:24:38.320502 12164 net.cpp:84] Creating Layer bn4
I0108 17:24:38.320513 12164 net.cpp:406] bn4 <- conv4
I0108 17:24:38.320529 12164 net.cpp:367] bn4 -> conv4 (in-place)
I0108 17:24:38.320785 12164 net.cpp:122] Setting up bn4
I0108 17:24:38.320797 12164 net.cpp:129] Top shape: 50 384 13 13 (3244800)
I0108 17:24:38.320802 12164 net.cpp:137] Memory required for data: 512250400
I0108 17:24:38.320823 12164 layer_factory.hpp:78] Creating layer scale4
I0108 17:24:38.320840 12164 net.cpp:84] Creating Layer scale4
I0108 17:24:38.320847 12164 net.cpp:406] scale4 <- conv4
I0108 17:24:38.320860 12164 net.cpp:367] scale4 -> conv4 (in-place)
I0108 17:24:38.320940 12164 layer_factory.hpp:78] Creating layer scale4
I0108 17:24:38.321126 12164 net.cpp:122] Setting up scale4
I0108 17:24:38.321139 12164 net.cpp:129] Top shape: 50 384 13 13 (3244800)
I0108 17:24:38.321143 12164 net.cpp:137] Memory required for data: 525229600
I0108 17:24:38.321158 12164 layer_factory.hpp:78] Creating layer relu4
I0108 17:24:38.321190 12164 net.cpp:84] Creating Layer relu4
I0108 17:24:38.321199 12164 net.cpp:406] relu4 <- conv4
I0108 17:24:38.321214 12164 net.cpp:367] relu4 -> conv4 (in-place)
I0108 17:24:38.321897 12164 net.cpp:122] Setting up relu4
I0108 17:24:38.321911 12164 net.cpp:129] Top shape: 50 384 13 13 (3244800)
I0108 17:24:38.321930 12164 net.cpp:137] Memory required for data: 538208800
I0108 17:24:38.321938 12164 layer_factory.hpp:78] Creating layer conv5
I0108 17:24:38.321964 12164 net.cpp:84] Creating Layer conv5
I0108 17:24:38.321972 12164 net.cpp:406] conv5 <- conv4
I0108 17:24:38.321995 12164 net.cpp:380] conv5 -> conv5
I0108 17:24:38.412011 12164 cudnn_binary_conv_layer.cpp:194] Reallocating workspace storage: 18874368
I0108 17:24:38.413712 12164 net.cpp:122] Setting up conv5
I0108 17:24:38.413785 12164 net.cpp:129] Top shape: 50 256 13 13 (2163200)
I0108 17:24:38.413794 12164 net.cpp:137] Memory required for data: 546861600
I0108 17:24:38.413851 12164 layer_factory.hpp:78] Creating layer bn5
I0108 17:24:38.413942 12164 net.cpp:84] Creating Layer bn5
I0108 17:24:38.413969 12164 net.cpp:406] bn5 <- conv5
I0108 17:24:38.414022 12164 net.cpp:367] bn5 -> conv5 (in-place)
I0108 17:24:38.414733 12164 net.cpp:122] Setting up bn5
I0108 17:24:38.414757 12164 net.cpp:129] Top shape: 50 256 13 13 (2163200)
I0108 17:24:38.414765 12164 net.cpp:137] Memory required for data: 555514400
I0108 17:24:38.414815 12164 layer_factory.hpp:78] Creating layer scale5
I0108 17:24:38.414868 12164 net.cpp:84] Creating Layer scale5
I0108 17:24:38.414885 12164 net.cpp:406] scale5 <- conv5
I0108 17:24:38.414916 12164 net.cpp:367] scale5 -> conv5 (in-place)
I0108 17:24:38.415087 12164 layer_factory.hpp:78] Creating layer scale5
I0108 17:24:38.415494 12164 net.cpp:122] Setting up scale5
I0108 17:24:38.415524 12164 net.cpp:129] Top shape: 50 256 13 13 (2163200)
I0108 17:24:38.415532 12164 net.cpp:137] Memory required for data: 564167200
I0108 17:24:38.415562 12164 layer_factory.hpp:78] Creating layer relu5
I0108 17:24:38.415637 12164 net.cpp:84] Creating Layer relu5
I0108 17:24:38.415655 12164 net.cpp:406] relu5 <- conv5
I0108 17:24:38.415685 12164 net.cpp:367] relu5 -> conv5 (in-place)
I0108 17:24:38.417170 12164 net.cpp:122] Setting up relu5
I0108 17:24:38.417198 12164 net.cpp:129] Top shape: 50 256 13 13 (2163200)
I0108 17:24:38.417206 12164 net.cpp:137] Memory required for data: 572820000
I0108 17:24:38.417219 12164 layer_factory.hpp:78] Creating layer pool5
I0108 17:24:38.417261 12164 net.cpp:84] Creating Layer pool5
I0108 17:24:38.417279 12164 net.cpp:406] pool5 <- conv5
I0108 17:24:38.417313 12164 net.cpp:380] pool5 -> pool5
I0108 17:24:38.417490 12164 net.cpp:122] Setting up pool5
I0108 17:24:38.417517 12164 net.cpp:129] Top shape: 50 256 6 6 (460800)
I0108 17:24:38.417524 12164 net.cpp:137] Memory required for data: 574663200
I0108 17:24:38.417537 12164 layer_factory.hpp:78] Creating layer fc6
I0108 17:24:38.417584 12164 net.cpp:84] Creating Layer fc6
I0108 17:24:38.417601 12164 net.cpp:406] fc6 <- pool5
I0108 17:24:38.417639 12164 net.cpp:380] fc6 -> fc6
I0108 17:24:41.955840 12164 net.cpp:122] Setting up fc6
I0108 17:24:41.955902 12164 net.cpp:129] Top shape: 50 4096 (204800)
I0108 17:24:41.955907 12164 net.cpp:137] Memory required for data: 575482400
I0108 17:24:41.955945 12164 layer_factory.hpp:78] Creating layer bn6
I0108 17:24:41.955984 12164 net.cpp:84] Creating Layer bn6
I0108 17:24:41.956003 12164 net.cpp:406] bn6 <- fc6
I0108 17:24:41.956030 12164 net.cpp:367] bn6 -> fc6 (in-place)
I0108 17:24:41.956364 12164 net.cpp:122] Setting up bn6
I0108 17:24:41.956377 12164 net.cpp:129] Top shape: 50 4096 (204800)
I0108 17:24:41.956380 12164 net.cpp:137] Memory required for data: 576301600
I0108 17:24:41.956423 12164 layer_factory.hpp:78] Creating layer scale6
I0108 17:24:41.956450 12164 net.cpp:84] Creating Layer scale6
I0108 17:24:41.956460 12164 net.cpp:406] scale6 <- fc6
I0108 17:24:41.956475 12164 net.cpp:367] scale6 -> fc6 (in-place)
I0108 17:24:41.956599 12164 layer_factory.hpp:78] Creating layer scale6
I0108 17:24:41.956799 12164 net.cpp:122] Setting up scale6
I0108 17:24:41.956820 12164 net.cpp:129] Top shape: 50 4096 (204800)
I0108 17:24:41.956823 12164 net.cpp:137] Memory required for data: 577120800
I0108 17:24:41.956838 12164 layer_factory.hpp:78] Creating layer relu6
I0108 17:24:41.956857 12164 net.cpp:84] Creating Layer relu6
I0108 17:24:41.956866 12164 net.cpp:406] relu6 <- fc6
I0108 17:24:41.956881 12164 net.cpp:367] relu6 -> fc6 (in-place)
I0108 17:24:41.958149 12164 net.cpp:122] Setting up relu6
I0108 17:24:41.958164 12164 net.cpp:129] Top shape: 50 4096 (204800)
I0108 17:24:41.958185 12164 net.cpp:137] Memory required for data: 577940000
I0108 17:24:41.958191 12164 layer_factory.hpp:78] Creating layer drop6
I0108 17:24:41.958212 12164 net.cpp:84] Creating Layer drop6
I0108 17:24:41.958221 12164 net.cpp:406] drop6 <- fc6
I0108 17:24:41.958238 12164 net.cpp:367] drop6 -> fc6 (in-place)
I0108 17:24:41.958287 12164 net.cpp:122] Setting up drop6
I0108 17:24:41.958297 12164 net.cpp:129] Top shape: 50 4096 (204800)
I0108 17:24:41.958299 12164 net.cpp:137] Memory required for data: 578759200
I0108 17:24:41.958305 12164 layer_factory.hpp:78] Creating layer fc7
I0108 17:24:41.958335 12164 net.cpp:84] Creating Layer fc7
I0108 17:24:41.958350 12164 net.cpp:406] fc7 <- fc6
I0108 17:24:41.958370 12164 net.cpp:380] fc7 -> fc7
I0108 17:24:43.456347 12164 net.cpp:122] Setting up fc7
I0108 17:24:43.456401 12164 net.cpp:129] Top shape: 50 4096 (204800)
I0108 17:24:43.456405 12164 net.cpp:137] Memory required for data: 579578400
I0108 17:24:43.456444 12164 layer_factory.hpp:78] Creating layer bn7
I0108 17:24:43.456482 12164 net.cpp:84] Creating Layer bn7
I0108 17:24:43.456499 12164 net.cpp:406] bn7 <- fc7
I0108 17:24:43.456527 12164 net.cpp:367] bn7 -> fc7 (in-place)
I0108 17:24:43.456830 12164 net.cpp:122] Setting up bn7
I0108 17:24:43.456840 12164 net.cpp:129] Top shape: 50 4096 (204800)
I0108 17:24:43.456845 12164 net.cpp:137] Memory required for data: 580397600
I0108 17:24:43.456895 12164 layer_factory.hpp:78] Creating layer scale7
I0108 17:24:43.456931 12164 net.cpp:84] Creating Layer scale7
I0108 17:24:43.456940 12164 net.cpp:406] scale7 <- fc7
I0108 17:24:43.456957 12164 net.cpp:367] scale7 -> fc7 (in-place)
I0108 17:24:43.457068 12164 layer_factory.hpp:78] Creating layer scale7
I0108 17:24:43.457267 12164 net.cpp:122] Setting up scale7
I0108 17:24:43.457278 12164 net.cpp:129] Top shape: 50 4096 (204800)
I0108 17:24:43.457283 12164 net.cpp:137] Memory required for data: 581216800
I0108 17:24:43.457298 12164 layer_factory.hpp:78] Creating layer relu7
I0108 17:24:43.457317 12164 net.cpp:84] Creating Layer relu7
I0108 17:24:43.457325 12164 net.cpp:406] relu7 <- fc7
I0108 17:24:43.457345 12164 net.cpp:367] relu7 -> fc7 (in-place)
I0108 17:24:43.459419 12164 net.cpp:122] Setting up relu7
I0108 17:24:43.459439 12164 net.cpp:129] Top shape: 50 4096 (204800)
I0108 17:24:43.459444 12164 net.cpp:137] Memory required for data: 582036000
I0108 17:24:43.459450 12164 layer_factory.hpp:78] Creating layer drop7
I0108 17:24:43.459470 12164 net.cpp:84] Creating Layer drop7
I0108 17:24:43.459480 12164 net.cpp:406] drop7 <- fc7
I0108 17:24:43.459497 12164 net.cpp:367] drop7 -> fc7 (in-place)
I0108 17:24:43.459551 12164 net.cpp:122] Setting up drop7
I0108 17:24:43.459561 12164 net.cpp:129] Top shape: 50 4096 (204800)
I0108 17:24:43.459564 12164 net.cpp:137] Memory required for data: 582855200
I0108 17:24:43.459571 12164 layer_factory.hpp:78] Creating layer fc8
I0108 17:24:43.459594 12164 net.cpp:84] Creating Layer fc8
I0108 17:24:43.459602 12164 net.cpp:406] fc8 <- fc7
I0108 17:24:43.459619 12164 net.cpp:380] fc8 -> fc8
I0108 17:24:43.824244 12164 net.cpp:122] Setting up fc8
I0108 17:24:43.824287 12164 net.cpp:129] Top shape: 50 1000 (50000)
I0108 17:24:43.824291 12164 net.cpp:137] Memory required for data: 583055200
I0108 17:24:43.824322 12164 layer_factory.hpp:78] Creating layer fc8_fc8_0_split
I0108 17:24:43.824362 12164 net.cpp:84] Creating Layer fc8_fc8_0_split
I0108 17:24:43.824375 12164 net.cpp:406] fc8_fc8_0_split <- fc8
I0108 17:24:43.824403 12164 net.cpp:380] fc8_fc8_0_split -> fc8_fc8_0_split_0
I0108 17:24:43.824439 12164 net.cpp:380] fc8_fc8_0_split -> fc8_fc8_0_split_1
I0108 17:24:43.824452 12164 net.cpp:380] fc8_fc8_0_split -> fc8_fc8_0_split_2
I0108 17:24:43.824542 12164 net.cpp:122] Setting up fc8_fc8_0_split
I0108 17:24:43.824555 12164 net.cpp:129] Top shape: 50 1000 (50000)
I0108 17:24:43.824561 12164 net.cpp:129] Top shape: 50 1000 (50000)
I0108 17:24:43.824568 12164 net.cpp:129] Top shape: 50 1000 (50000)
I0108 17:24:43.824571 12164 net.cpp:137] Memory required for data: 583655200
I0108 17:24:43.824576 12164 layer_factory.hpp:78] Creating layer loss
I0108 17:24:43.824594 12164 net.cpp:84] Creating Layer loss
I0108 17:24:43.824600 12164 net.cpp:406] loss <- fc8_fc8_0_split_0
I0108 17:24:43.824612 12164 net.cpp:406] loss <- label_data_1_split_0
I0108 17:24:43.824622 12164 net.cpp:380] loss -> loss
…
