…
I0110 14:18:17.548866  7557 net.cpp:294] The NetState phase (0) differed from the phase (1) specified by a rule in layer data
I0110 14:18:17.549216  7557 net.cpp:51] Initializing net from parameters: 
name: "AlexNet-BN"
state {
  phase: TRAIN
  level: 0
  stage: ""
}
layer {
  name: "data"
  type: "Data"
  top: "data"
  top: "label"
  include {
    phase: TRAIN
  }
  transform_param {
    mirror: true
    crop_size: 224
    mean_value: 104
    mean_value: 117
    mean_value: 123
  }
  data_param {
    source: "/home/zhengzhe/Data/imagenet_shrt256/ilsvrc12_train_lmdb"
    batch_size: 256
    backend: LMDB
  }
}
layer {
  name: "conv1"
  type: "Convolution"
  bottom: "data"
  top: "conv1"
  param {
    lr_mult: 1
    decay_mult: 1
  }
  convolution_param {
    num_output: 96
    bias_term: false
    pad: 2
    kernel_size: 11
    stride: 4
    weight_filler {
      type: "msra"
    }
  }
}
layer {
  name: "bn1"
  type: "BatchNorm"
  bottom: "conv1"
  top: "conv1"
}
layer {
  name: "scale1"
  type: "Scale"
  bottom: "conv1"
  top: "conv1"
  scale_param {
    bias_term: true
  }
}
layer {
  name: "relu1"
  type: "ReLU"
  bottom: "conv1"
  top: "conv1"
}
layer {
  name: "pool1"
  type: "Pooling"
  bottom: "conv1"
  top: "pool1"
  pooling_param {
    pool: MAX
    kernel_size: 3
    stride: 2
  }
}
layer {
  name: "conv2"
  type: "BinaryConvolution"
  bottom: "pool1"
  top: "conv2"
  param {
    lr_mult: 1
    decay_mult: 1
  }
  convolution_param {
    num_output: 256
    bias_term: false
    pad: 2
    kernel_size: 5
    weight_filler {
      type: "msra"
    }
  }
  debug_param {
    xnorno_grad: true
  }
}
layer {
  name: "bn2"
  type: "BatchNorm"
  bottom: "conv2"
  top: "conv2"
}
layer {
  name: "scale2"
  type: "Scale"
  bottom: "conv2"
  top: "conv2"
  scale_param {
    bias_term: true
  }
}
layer {
  name: "relu2"
  type: "ReLU"
  bottom: "conv2"
  top: "conv2"
}
layer {
  name: "pool2"
  type: "Pooling"
  bottom: "conv2"
  top: "pool2"
  pooling_param {
    pool: MAX
    kernel_size: 3
    stride: 2
  }
}
layer {
  name: "conv3"
  type: "BinaryConvolution"
  bottom: "pool2"
  top: "conv3"
  param {
    lr_mult: 1
    decay_mult: 1
  }
  convolution_param {
    num_output: 384
    bias_term: false
    pad: 1
    kernel_size: 3
    weight_filler {
      type: "msra"
    }
  }
  debug_param {
    xnorno_grad: true
  }
}
layer {
  name: "bn3"
  type: "BatchNorm"
  bottom: "conv3"
  top: "conv3"
}
layer {
  name: "scale3"
  type: "Scale"
  bottom: "conv3"
  top: "conv3"
  scale_param {
    bias_term: true
  }
}
layer {
  name: "relu3"
  type: "ReLU"
  bottom: "conv3"
  top: "conv3"
}
layer {
  name: "conv4"
  type: "BinaryConvolution"
  bottom: "conv3"
  top: "conv4"
  param {
    lr_mult: 1
    decay_mult: 1
  }
  convolution_param {
    num_output: 384
    bias_term: false
    pad: 1
    kernel_size: 3
    weight_filler {
      type: "msra"
    }
  }
  debug_param {
    xnorno_grad: true
  }
}
layer {
  name: "bn4"
  type: "BatchNorm"
  bottom: "conv4"
  top: "conv4"
}
layer {
  name: "scale4"
  type: "Scale"
  bottom: "conv4"
  top: "conv4"
  scale_param {
    bias_term: true
  }
}
layer {
  name: "relu4"
  type: "ReLU"
  bottom: "conv4"
  top: "conv4"
}
layer {
  name: "conv5"
  type: "BinaryConvolution"
  bottom: "conv4"
  top: "conv5"
  param {
    lr_mult: 1
    decay_mult: 1
  }
  convolution_param {
    num_output: 256
    bias_term: false
    pad: 1
    kernel_size: 3
    weight_filler {
      type: "msra"
    }
  }
  debug_param {
    xnorno_grad: true
  }
}
layer {
  name: "bn5"
  type: "BatchNorm"
  bottom: "conv5"
  top: "conv5"
}
layer {
  name: "scale5"
  type: "Scale"
  bottom: "conv5"
  top: "conv5"
  scale_param {
    bias_term: true
  }
}
layer {
  name: "relu5"
  type: "ReLU"
  bottom: "conv5"
  top: "conv5"
}
layer {
  name: "pool5"
  type: "Pooling"
  bottom: "conv5"
  top: "pool5"
  pooling_param {
    pool: MAX
    kernel_size: 3
    stride: 2
  }
}
layer {
  name: "fc6"
  type: "BinaryInnerProduct"
  bottom: "pool5"
  top: "fc6"
  param {
    lr_mult: 1
    decay_mult: 1
  }
  inner_product_param {
    num_output: 4096
    bias_term: false
    weight_filler {
      type: "msra"
    }
  }
  debug_param {
    xnorno_grad: true
  }
}
layer {
  name: "bn6"
  type: "BatchNorm"
  bottom: "fc6"
  top: "fc6"
}
layer {
  name: "scale6"
  type: "Scale"
  bottom: "fc6"
  top: "fc6"
  scale_param {
    bias_term: true
  }
}
layer {
  name: "relu6"
  type: "ReLU"
  bottom: "fc6"
  top: "fc6"
}
layer {
  name: "drop6"
  type: "Dropout"
  bottom: "fc6"
  top: "fc6"
  dropout_param {
    dropout_ratio: 0.1
  }
}
layer {
  name: "fc7"
  type: "BinaryInnerProduct"
  bottom: "fc6"
  top: "fc7"
  param {
    lr_mult: 1
    decay_mult: 1
  }
  inner_product_param {
    num_output: 4096
    bias_term: false
    weight_filler {
      type: "msra"
    }
  }
  debug_param {
    xnorno_grad: true
  }
}
layer {
  name: "bn7"
  type: "BatchNorm"
  bottom: "fc7"
  top: "fc7"
}
layer {
  name: "scale7"
  type: "Scale"
  bottom: "fc7"
  top: "fc7"
  scale_param {
    bias_term: true
  }
}
layer {
  name: "relu7"
  type: "ReLU"
  bottom: "fc7"
  top: "fc7"
}
layer {
  name: "drop7"
  type: "Dropout"
  bottom: "fc7"
  top: "fc7"
  dropout_param {
    dropout_ratio: 0.1
  }
}
layer {
  name: "fc8"
  type: "InnerProduct"
  bottom: "fc7"
  top: "fc8"
  param {
    lr_mult: 1
    decay_mult: 1
  }
  param {
    lr_mult: 2
    decay_mult: 0
  }
  inner_product_param {
    num_output: 1000
    weight_filler {
      type: "msra"
    }
    bias_filler {
      type: "constant"
      value: 0
    }
  }
}
layer {
  name: "loss"
  type: "SoftmaxWithLoss"
  bottom: "fc8"
  bottom: "label"
  top: "loss"
}
layer {
  name: "accuracy"
  type: "Accuracy"
  bottom: "fc8"
  bottom: "label"
  top: "accuracy"
}
layer {
  name: "accuracy_5"
  type: "Accuracy"
  bottom: "fc8"
  bottom: "label"
  top: "accuracy_5"
  accuracy_param {
    top_k: 5
  }
}
I0110 14:18:17.550143  7557 layer_factory.hpp:78] Creating layer data
I0110 14:18:17.550402  7557 db_lmdb.cpp:35] Opened lmdb /home/zhengzhe/Data/imagenet_shrt256/ilsvrc12_train_lmdb
I0110 14:18:17.550498  7557 net.cpp:84] Creating Layer data
I0110 14:18:17.550537  7557 net.cpp:380] data -> data
I0110 14:18:17.550712  7557 net.cpp:380] data -> label
I0110 14:18:17.553603  7557 data_layer.cpp:45] output data size: 256,3,224,224
I0110 14:18:18.029384  7557 base_data_layer.cpp:72] Initializing prefetch
I0110 14:18:18.031929  7557 base_data_layer.cpp:75] Prefetch initialized.
I0110 14:18:18.031975  7557 net.cpp:122] Setting up data
I0110 14:18:18.032042  7557 net.cpp:129] Top shape: 256 3 224 224 (38535168)
I0110 14:18:18.032074  7557 net.cpp:129] Top shape: 256 (256)
I0110 14:18:18.032095  7557 net.cpp:137] Memory required for data: 154141696
I0110 14:18:18.032148  7557 layer_factory.hpp:78] Creating layer label_data_1_split
I0110 14:18:18.032232  7557 net.cpp:84] Creating Layer label_data_1_split
I0110 14:18:18.032279  7557 net.cpp:406] label_data_1_split <- label
I0110 14:18:18.032375  7557 net.cpp:380] label_data_1_split -> label_data_1_split_0
I0110 14:18:18.032444  7557 net.cpp:380] label_data_1_split -> label_data_1_split_1
I0110 14:18:18.032490  7557 net.cpp:380] label_data_1_split -> label_data_1_split_2
I0110 14:18:18.032644  7557 net.cpp:122] Setting up label_data_1_split
I0110 14:18:18.032682  7557 net.cpp:129] Top shape: 256 (256)
I0110 14:18:18.032737  7557 net.cpp:129] Top shape: 256 (256)
I0110 14:18:18.032764  7557 net.cpp:129] Top shape: 256 (256)
I0110 14:18:18.032784  7557 net.cpp:137] Memory required for data: 154144768
I0110 14:18:18.032809  7557 layer_factory.hpp:78] Creating layer conv1
I0110 14:18:18.032904  7557 net.cpp:84] Creating Layer conv1
I0110 14:18:18.032936  7557 net.cpp:406] conv1 <- data
I0110 14:18:18.032984  7557 net.cpp:380] conv1 -> conv1
I0110 14:18:18.940413  7557 cudnn_conv_layer.cpp:194] Reallocating workspace storage: 127416
I0110 14:18:18.941171  7557 net.cpp:122] Setting up conv1
I0110 14:18:18.941287  7557 net.cpp:129] Top shape: 256 96 55 55 (74342400)
I0110 14:18:18.941385  7557 net.cpp:137] Memory required for data: 451514368
I0110 14:18:18.941565  7557 layer_factory.hpp:78] Creating layer bn1
I0110 14:18:18.941707  7557 net.cpp:84] Creating Layer bn1
I0110 14:18:18.941792  7557 net.cpp:406] bn1 <- conv1
I0110 14:18:18.941926  7557 net.cpp:367] bn1 -> conv1 (in-place)
I0110 14:18:18.944362  7557 net.cpp:122] Setting up bn1
I0110 14:18:18.944469  7557 net.cpp:129] Top shape: 256 96 55 55 (74342400)
I0110 14:18:18.944546  7557 net.cpp:137] Memory required for data: 748883968
I0110 14:18:18.944686  7557 layer_factory.hpp:78] Creating layer scale1
I0110 14:18:18.944811  7557 net.cpp:84] Creating Layer scale1
I0110 14:18:18.944856  7557 net.cpp:406] scale1 <- conv1
I0110 14:18:18.944983  7557 net.cpp:367] scale1 -> conv1 (in-place)
I0110 14:18:18.945192  7557 layer_factory.hpp:78] Creating layer scale1
I0110 14:18:18.945590  7557 net.cpp:122] Setting up scale1
I0110 14:18:18.945683  7557 net.cpp:129] Top shape: 256 96 55 55 (74342400)
I0110 14:18:18.945761  7557 net.cpp:137] Memory required for data: 1046253568
I0110 14:18:18.945875  7557 layer_factory.hpp:78] Creating layer relu1
I0110 14:18:18.945945  7557 net.cpp:84] Creating Layer relu1
I0110 14:18:18.945981  7557 net.cpp:406] relu1 <- conv1
I0110 14:18:18.946032  7557 net.cpp:367] relu1 -> conv1 (in-place)
I0110 14:18:18.946861  7557 net.cpp:122] Setting up relu1
I0110 14:18:18.946964  7557 net.cpp:129] Top shape: 256 96 55 55 (74342400)
I0110 14:18:18.947049  7557 net.cpp:137] Memory required for data: 1343623168
I0110 14:18:18.947149  7557 layer_factory.hpp:78] Creating layer pool1
I0110 14:18:18.947258  7557 net.cpp:84] Creating Layer pool1
I0110 14:18:18.947351  7557 net.cpp:406] pool1 <- conv1
I0110 14:18:18.947458  7557 net.cpp:380] pool1 -> pool1
I0110 14:18:18.947666  7557 net.cpp:122] Setting up pool1
I0110 14:18:18.947762  7557 net.cpp:129] Top shape: 256 96 27 27 (17915904)
I0110 14:18:18.947845  7557 net.cpp:137] Memory required for data: 1415286784
I0110 14:18:18.947932  7557 layer_factory.hpp:78] Creating layer conv2
I0110 14:18:18.948058  7557 net.cpp:84] Creating Layer conv2
I0110 14:18:18.948148  7557 net.cpp:406] conv2 <- pool1
I0110 14:18:18.948287  7557 net.cpp:380] conv2 -> conv2
I0110 14:18:19.036947  7557 cudnn_binary_conv_layer.cpp:194] Reallocating workspace storage: 19668
I0110 14:18:19.037092  7557 net.cpp:122] Setting up conv2
I0110 14:18:19.037211  7557 net.cpp:129] Top shape: 256 256 27 27 (47775744)
I0110 14:18:19.037231  7557 net.cpp:137] Memory required for data: 1606389760
I0110 14:18:19.037295  7557 layer_factory.hpp:78] Creating layer bn2
I0110 14:18:19.037372  7557 net.cpp:84] Creating Layer bn2
I0110 14:18:19.037406  7557 net.cpp:406] bn2 <- conv2
I0110 14:18:19.037456  7557 net.cpp:367] bn2 -> conv2 (in-place)
I0110 14:18:19.039577  7557 net.cpp:122] Setting up bn2
I0110 14:18:19.039629  7557 net.cpp:129] Top shape: 256 256 27 27 (47775744)
I0110 14:18:19.039711  7557 net.cpp:137] Memory required for data: 1797492736
I0110 14:18:19.039798  7557 layer_factory.hpp:78] Creating layer scale2
I0110 14:18:19.039853  7557 net.cpp:84] Creating Layer scale2
I0110 14:18:19.039880  7557 net.cpp:406] scale2 <- conv2
I0110 14:18:19.039919  7557 net.cpp:367] scale2 -> conv2 (in-place)
I0110 14:18:19.040062  7557 layer_factory.hpp:78] Creating layer scale2
I0110 14:18:19.040343  7557 net.cpp:122] Setting up scale2
I0110 14:18:19.040405  7557 net.cpp:129] Top shape: 256 256 27 27 (47775744)
I0110 14:18:19.040426  7557 net.cpp:137] Memory required for data: 1988595712
I0110 14:18:19.040462  7557 layer_factory.hpp:78] Creating layer relu2
I0110 14:18:19.040500  7557 net.cpp:84] Creating Layer relu2
I0110 14:18:19.040525  7557 net.cpp:406] relu2 <- conv2
I0110 14:18:19.040562  7557 net.cpp:367] relu2 -> conv2 (in-place)
I0110 14:18:19.041504  7557 net.cpp:122] Setting up relu2
I0110 14:18:19.041548  7557 net.cpp:129] Top shape: 256 256 27 27 (47775744)
I0110 14:18:19.041568  7557 net.cpp:137] Memory required for data: 2179698688
I0110 14:18:19.041591  7557 layer_factory.hpp:78] Creating layer pool2
I0110 14:18:19.041635  7557 net.cpp:84] Creating Layer pool2
I0110 14:18:19.041661  7557 net.cpp:406] pool2 <- conv2
I0110 14:18:19.041702  7557 net.cpp:380] pool2 -> pool2
I0110 14:18:19.041831  7557 net.cpp:122] Setting up pool2
I0110 14:18:19.041869  7557 net.cpp:129] Top shape: 256 256 13 13 (11075584)
I0110 14:18:19.041889  7557 net.cpp:137] Memory required for data: 2224001024
I0110 14:18:19.041911  7557 layer_factory.hpp:78] Creating layer conv3
I0110 14:18:19.041971  7557 net.cpp:84] Creating Layer conv3
I0110 14:18:19.042001  7557 net.cpp:406] conv3 <- pool2
I0110 14:18:19.042045  7557 net.cpp:380] conv3 -> conv3
I0110 14:18:19.139863  7557 cudnn_binary_conv_layer.cpp:194] Reallocating workspace storage: 18874368
I0110 14:18:19.140224  7557 net.cpp:122] Setting up conv3
I0110 14:18:19.140262  7557 net.cpp:129] Top shape: 256 384 13 13 (16613376)
I0110 14:18:19.140267  7557 net.cpp:137] Memory required for data: 2290454528
I0110 14:18:19.140318  7557 layer_factory.hpp:78] Creating layer bn3
I0110 14:18:19.140393  7557 net.cpp:84] Creating Layer bn3
I0110 14:18:19.140417  7557 net.cpp:406] bn3 <- conv3
I0110 14:18:19.140449  7557 net.cpp:367] bn3 -> conv3 (in-place)
I0110 14:18:19.140705  7557 net.cpp:122] Setting up bn3
I0110 14:18:19.140717  7557 net.cpp:129] Top shape: 256 384 13 13 (16613376)
I0110 14:18:19.140720  7557 net.cpp:137] Memory required for data: 2356908032
I0110 14:18:19.140741  7557 layer_factory.hpp:78] Creating layer scale3
I0110 14:18:19.140767  7557 net.cpp:84] Creating Layer scale3
I0110 14:18:19.140775  7557 net.cpp:406] scale3 <- conv3
I0110 14:18:19.140791  7557 net.cpp:367] scale3 -> conv3 (in-place)
I0110 14:18:19.140877  7557 layer_factory.hpp:78] Creating layer scale3
I0110 14:18:19.141057  7557 net.cpp:122] Setting up scale3
I0110 14:18:19.141068  7557 net.cpp:129] Top shape: 256 384 13 13 (16613376)
I0110 14:18:19.141072  7557 net.cpp:137] Memory required for data: 2423361536
I0110 14:18:19.141101  7557 layer_factory.hpp:78] Creating layer relu3
I0110 14:18:19.141135  7557 net.cpp:84] Creating Layer relu3
I0110 14:18:19.141155  7557 net.cpp:406] relu3 <- conv3
I0110 14:18:19.141170  7557 net.cpp:367] relu3 -> conv3 (in-place)
I0110 14:18:19.142082  7557 net.cpp:122] Setting up relu3
I0110 14:18:19.142098  7557 net.cpp:129] Top shape: 256 384 13 13 (16613376)
I0110 14:18:19.142103  7557 net.cpp:137] Memory required for data: 2489815040
I0110 14:18:19.142112  7557 layer_factory.hpp:78] Creating layer conv4
I0110 14:18:19.142155  7557 net.cpp:84] Creating Layer conv4
I0110 14:18:19.142166  7557 net.cpp:406] conv4 <- conv3
I0110 14:18:19.142189  7557 net.cpp:380] conv4 -> conv4
I0110 14:18:19.304401  7557 cudnn_binary_conv_layer.cpp:194] Reallocating workspace storage: 9840
I0110 14:18:19.304538  7557 net.cpp:122] Setting up conv4
I0110 14:18:19.304591  7557 net.cpp:129] Top shape: 256 384 13 13 (16613376)
I0110 14:18:19.304615  7557 net.cpp:137] Memory required for data: 2556268544
I0110 14:18:19.304678  7557 layer_factory.hpp:78] Creating layer bn4
I0110 14:18:19.304746  7557 net.cpp:84] Creating Layer bn4
I0110 14:18:19.304782  7557 net.cpp:406] bn4 <- conv4
I0110 14:18:19.304839  7557 net.cpp:367] bn4 -> conv4 (in-place)
I0110 14:18:19.305220  7557 net.cpp:122] Setting up bn4
I0110 14:18:19.305270  7557 net.cpp:129] Top shape: 256 384 13 13 (16613376)
I0110 14:18:19.305292  7557 net.cpp:137] Memory required for data: 2622722048
I0110 14:18:19.305364  7557 layer_factory.hpp:78] Creating layer scale4
I0110 14:18:19.305434  7557 net.cpp:84] Creating Layer scale4
I0110 14:18:19.305464  7557 net.cpp:406] scale4 <- conv4
I0110 14:18:19.305502  7557 net.cpp:367] scale4 -> conv4 (in-place)
I0110 14:18:19.305624  7557 layer_factory.hpp:78] Creating layer scale4
I0110 14:18:19.305900  7557 net.cpp:122] Setting up scale4
I0110 14:18:19.305940  7557 net.cpp:129] Top shape: 256 384 13 13 (16613376)
I0110 14:18:19.305963  7557 net.cpp:137] Memory required for data: 2689175552
I0110 14:18:19.306000  7557 layer_factory.hpp:78] Creating layer relu4
I0110 14:18:19.306051  7557 net.cpp:84] Creating Layer relu4
I0110 14:18:19.306078  7557 net.cpp:406] relu4 <- conv4
I0110 14:18:19.306115  7557 net.cpp:367] relu4 -> conv4 (in-place)
I0110 14:18:19.307379  7557 net.cpp:122] Setting up relu4
I0110 14:18:19.307423  7557 net.cpp:129] Top shape: 256 384 13 13 (16613376)
I0110 14:18:19.307446  7557 net.cpp:137] Memory required for data: 2755629056
I0110 14:18:19.307471  7557 layer_factory.hpp:78] Creating layer conv5
I0110 14:18:19.307529  7557 net.cpp:84] Creating Layer conv5
I0110 14:18:19.307559  7557 net.cpp:406] conv5 <- conv4
I0110 14:18:19.307610  7557 net.cpp:380] conv5 -> conv5
I0110 14:18:19.401831  7557 cudnn_binary_conv_layer.cpp:194] Reallocating workspace storage: 18874368
I0110 14:18:19.402184  7557 net.cpp:122] Setting up conv5
I0110 14:18:19.402230  7557 net.cpp:129] Top shape: 256 256 13 13 (11075584)
I0110 14:18:19.402235  7557 net.cpp:137] Memory required for data: 2799931392
I0110 14:18:19.402271  7557 layer_factory.hpp:78] Creating layer bn5
I0110 14:18:19.402313  7557 net.cpp:84] Creating Layer bn5
I0110 14:18:19.402328  7557 net.cpp:406] bn5 <- conv5
I0110 14:18:19.402375  7557 net.cpp:367] bn5 -> conv5 (in-place)
I0110 14:18:19.402674  7557 net.cpp:122] Setting up bn5
I0110 14:18:19.402685  7557 net.cpp:129] Top shape: 256 256 13 13 (11075584)
I0110 14:18:19.402705  7557 net.cpp:137] Memory required for data: 2844233728
I0110 14:18:19.402726  7557 layer_factory.hpp:78] Creating layer scale5
I0110 14:18:19.402756  7557 net.cpp:84] Creating Layer scale5
I0110 14:18:19.402765  7557 net.cpp:406] scale5 <- conv5
I0110 14:18:19.402786  7557 net.cpp:367] scale5 -> conv5 (in-place)
I0110 14:18:19.402927  7557 layer_factory.hpp:78] Creating layer scale5
I0110 14:18:19.403239  7557 net.cpp:122] Setting up scale5
I0110 14:18:19.403252  7557 net.cpp:129] Top shape: 256 256 13 13 (11075584)
I0110 14:18:19.403255  7557 net.cpp:137] Memory required for data: 2888536064
I0110 14:18:19.403271  7557 layer_factory.hpp:78] Creating layer relu5
I0110 14:18:19.403298  7557 net.cpp:84] Creating Layer relu5
I0110 14:18:19.403306  7557 net.cpp:406] relu5 <- conv5
I0110 14:18:19.403321  7557 net.cpp:367] relu5 -> conv5 (in-place)
I0110 14:18:19.403972  7557 net.cpp:122] Setting up relu5
I0110 14:18:19.403986  7557 net.cpp:129] Top shape: 256 256 13 13 (11075584)
I0110 14:18:19.403990  7557 net.cpp:137] Memory required for data: 2932838400
I0110 14:18:19.403996  7557 layer_factory.hpp:78] Creating layer pool5
I0110 14:18:19.404019  7557 net.cpp:84] Creating Layer pool5
I0110 14:18:19.404027  7557 net.cpp:406] pool5 <- conv5
I0110 14:18:19.404045  7557 net.cpp:380] pool5 -> pool5
I0110 14:18:19.404121  7557 net.cpp:122] Setting up pool5
I0110 14:18:19.404134  7557 net.cpp:129] Top shape: 256 256 6 6 (2359296)
I0110 14:18:19.404139  7557 net.cpp:137] Memory required for data: 2942275584
I0110 14:18:19.404145  7557 layer_factory.hpp:78] Creating layer fc6
I0110 14:18:19.404201  7557 net.cpp:84] Creating Layer fc6
I0110 14:18:19.404211  7557 net.cpp:406] fc6 <- pool5
I0110 14:18:19.404229  7557 net.cpp:380] fc6 -> fc6
I0110 14:18:23.534317  7557 net.cpp:122] Setting up fc6
I0110 14:18:23.534389  7557 net.cpp:129] Top shape: 256 4096 (1048576)
I0110 14:18:23.534395  7557 net.cpp:137] Memory required for data: 2946469888
I0110 14:18:23.534443  7557 layer_factory.hpp:78] Creating layer bn6
I0110 14:18:23.534533  7557 net.cpp:84] Creating Layer bn6
I0110 14:18:23.534592  7557 net.cpp:406] bn6 <- fc6
I0110 14:18:23.534638  7557 net.cpp:367] bn6 -> fc6 (in-place)
I0110 14:18:23.534999  7557 net.cpp:122] Setting up bn6
I0110 14:18:23.535017  7557 net.cpp:129] Top shape: 256 4096 (1048576)
I0110 14:18:23.535023  7557 net.cpp:137] Memory required for data: 2950664192
I0110 14:18:23.535085  7557 layer_factory.hpp:78] Creating layer scale6
I0110 14:18:23.535135  7557 net.cpp:84] Creating Layer scale6
I0110 14:18:23.535149  7557 net.cpp:406] scale6 <- fc6
I0110 14:18:23.535205  7557 net.cpp:367] scale6 -> fc6 (in-place)
I0110 14:18:23.535343  7557 layer_factory.hpp:78] Creating layer scale6
I0110 14:18:23.535610  7557 net.cpp:122] Setting up scale6
I0110 14:18:23.535629  7557 net.cpp:129] Top shape: 256 4096 (1048576)
I0110 14:18:23.535635  7557 net.cpp:137] Memory required for data: 2954858496
I0110 14:18:23.535670  7557 layer_factory.hpp:78] Creating layer relu6
I0110 14:18:23.535701  7557 net.cpp:84] Creating Layer relu6
I0110 14:18:23.535714  7557 net.cpp:406] relu6 <- fc6
I0110 14:18:23.535742  7557 net.cpp:367] relu6 -> fc6 (in-place)
I0110 14:18:23.537314  7557 net.cpp:122] Setting up relu6
I0110 14:18:23.537336  7557 net.cpp:129] Top shape: 256 4096 (1048576)
I0110 14:18:23.537351  7557 net.cpp:137] Memory required for data: 2959052800
I0110 14:18:23.537364  7557 layer_factory.hpp:78] Creating layer drop6
I0110 14:18:23.537428  7557 net.cpp:84] Creating Layer drop6
I0110 14:18:23.537444  7557 net.cpp:406] drop6 <- fc6
I0110 14:18:23.537528  7557 net.cpp:367] drop6 -> fc6 (in-place)
I0110 14:18:23.537611  7557 net.cpp:122] Setting up drop6
I0110 14:18:23.537626  7557 net.cpp:129] Top shape: 256 4096 (1048576)
I0110 14:18:23.537633  7557 net.cpp:137] Memory required for data: 2963247104
I0110 14:18:23.537660  7557 layer_factory.hpp:78] Creating layer fc7
I0110 14:18:23.537699  7557 net.cpp:84] Creating Layer fc7
I0110 14:18:23.537712  7557 net.cpp:406] fc7 <- fc6
I0110 14:18:23.537755  7557 net.cpp:380] fc7 -> fc7
I0110 14:18:25.255722  7557 net.cpp:122] Setting up fc7
I0110 14:18:25.255798  7557 net.cpp:129] Top shape: 256 4096 (1048576)
I0110 14:18:25.255805  7557 net.cpp:137] Memory required for data: 2967441408
I0110 14:18:25.255867  7557 layer_factory.hpp:78] Creating layer bn7
I0110 14:18:25.255921  7557 net.cpp:84] Creating Layer bn7
I0110 14:18:25.255941  7557 net.cpp:406] bn7 <- fc7
I0110 14:18:25.255976  7557 net.cpp:367] bn7 -> fc7 (in-place)
I0110 14:18:25.256285  7557 net.cpp:122] Setting up bn7
I0110 14:18:25.256299  7557 net.cpp:129] Top shape: 256 4096 (1048576)
I0110 14:18:25.256304  7557 net.cpp:137] Memory required for data: 2971635712
I0110 14:18:25.256366  7557 layer_factory.hpp:78] Creating layer scale7
I0110 14:18:25.256412  7557 net.cpp:84] Creating Layer scale7
I0110 14:18:25.256422  7557 net.cpp:406] scale7 <- fc7
I0110 14:18:25.256446  7557 net.cpp:367] scale7 -> fc7 (in-place)
I0110 14:18:25.256537  7557 layer_factory.hpp:78] Creating layer scale7
I0110 14:18:25.256739  7557 net.cpp:122] Setting up scale7
I0110 14:18:25.256752  7557 net.cpp:129] Top shape: 256 4096 (1048576)
I0110 14:18:25.256758  7557 net.cpp:137] Memory required for data: 2975830016
I0110 14:18:25.256779  7557 layer_factory.hpp:78] Creating layer relu7
I0110 14:18:25.256799  7557 net.cpp:84] Creating Layer relu7
I0110 14:18:25.256809  7557 net.cpp:406] relu7 <- fc7
I0110 14:18:25.256829  7557 net.cpp:367] relu7 -> fc7 (in-place)
I0110 14:18:25.257901  7557 net.cpp:122] Setting up relu7
I0110 14:18:25.257916  7557 net.cpp:129] Top shape: 256 4096 (1048576)
I0110 14:18:25.257920  7557 net.cpp:137] Memory required for data: 2980024320
I0110 14:18:25.257926  7557 layer_factory.hpp:78] Creating layer drop7
I0110 14:18:25.257943  7557 net.cpp:84] Creating Layer drop7
I0110 14:18:25.257951  7557 net.cpp:406] drop7 <- fc7
I0110 14:18:25.257966  7557 net.cpp:367] drop7 -> fc7 (in-place)
I0110 14:18:25.258013  7557 net.cpp:122] Setting up drop7
I0110 14:18:25.258024  7557 net.cpp:129] Top shape: 256 4096 (1048576)
I0110 14:18:25.258028  7557 net.cpp:137] Memory required for data: 2984218624
I0110 14:18:25.258054  7557 layer_factory.hpp:78] Creating layer fc8
I0110 14:18:25.258103  7557 net.cpp:84] Creating Layer fc8
I0110 14:18:25.258112  7557 net.cpp:406] fc8 <- fc7
I0110 14:18:25.258131  7557 net.cpp:380] fc8 -> fc8
I0110 14:18:25.702955  7557 net.cpp:122] Setting up fc8
I0110 14:18:25.703079  7557 net.cpp:129] Top shape: 256 1000 (256000)
I0110 14:18:25.703128  7557 net.cpp:137] Memory required for data: 2985242624
I0110 14:18:25.703192  7557 layer_factory.hpp:78] Creating layer fc8_fc8_0_split
I0110 14:18:25.703254  7557 net.cpp:84] Creating Layer fc8_fc8_0_split
I0110 14:18:25.703289  7557 net.cpp:406] fc8_fc8_0_split <- fc8
I0110 14:18:25.703344  7557 net.cpp:380] fc8_fc8_0_split -> fc8_fc8_0_split_0
I0110 14:18:25.703418  7557 net.cpp:380] fc8_fc8_0_split -> fc8_fc8_0_split_1
I0110 14:18:25.703459  7557 net.cpp:380] fc8_fc8_0_split -> fc8_fc8_0_split_2
I0110 14:18:25.703588  7557 net.cpp:122] Setting up fc8_fc8_0_split
I0110 14:18:25.703627  7557 net.cpp:129] Top shape: 256 1000 (256000)
I0110 14:18:25.703650  7557 net.cpp:129] Top shape: 256 1000 (256000)
I0110 14:18:25.703672  7557 net.cpp:129] Top shape: 256 1000 (256000)
I0110 14:18:25.703691  7557 net.cpp:137] Memory required for data: 2988314624
I0110 14:18:25.703712  7557 layer_factory.hpp:78] Creating layer loss
I0110 14:18:25.703763  7557 net.cpp:84] Creating Layer loss
I0110 14:18:25.703789  7557 net.cpp:406] loss <- fc8_fc8_0_split_0
I0110 14:18:25.703821  7557 net.cpp:406] loss <- label_data_1_split_0
I0110 14:18:25.703855  7557 net.cpp:380] loss -> loss
…
I0110 14:18:25.711280  7557 net.cpp:294] The NetState phase (1) differed from the phase (0) specified by a rule in layer data
I0110 14:18:25.711649  7557 net.cpp:51] Initializing net from parameters: 
name: "AlexNet-BN"
state {
  phase: TEST
}
layer {
  name: "data"
  type: "Data"
  top: "data"
  top: "label"
  include {
    phase: TEST
  }
  transform_param {
    mirror: false
    crop_size: 224
    mean_value: 104
    mean_value: 117
    mean_value: 123
  }
  data_param {
    source: "/home/zhengzhe/Data/imagenet_shrt256/ilsvrc12_val_lmdb"
    batch_size: 50
    backend: LMDB
  }
}
layer {
  name: "conv1"
  type: "Convolution"
  bottom: "data"
  top: "conv1"
  param {
    lr_mult: 1
    decay_mult: 1
  }
  convolution_param {
    num_output: 96
    bias_term: false
    pad: 2
    kernel_size: 11
    stride: 4
    weight_filler {
      type: "msra"
    }
  }
}
layer {
  name: "bn1"
  type: "BatchNorm"
  bottom: "conv1"
  top: "conv1"
}
layer {
  name: "scale1"
  type: "Scale"
  bottom: "conv1"
  top: "conv1"
  scale_param {
    bias_term: true
  }
}
layer {
  name: "relu1"
  type: "ReLU"
  bottom: "conv1"
  top: "conv1"
}
layer {
  name: "pool1"
  type: "Pooling"
  bottom: "conv1"
  top: "pool1"
  pooling_param {
    pool: MAX
    kernel_size: 3
    stride: 2
  }
}
layer {
  name: "conv2"
  type: "BinaryConvolution"
  bottom: "pool1"
  top: "conv2"
  param {
    lr_mult: 1
    decay_mult: 1
  }
  convolution_param {
    num_output: 256
    bias_term: false
    pad: 2
    kernel_size: 5
    weight_filler {
      type: "msra"
    }
  }
  debug_param {
    xnorno_grad: true
  }
}
layer {
  name: "bn2"
  type: "BatchNorm"
  bottom: "conv2"
  top: "conv2"
}
layer {
  name: "scale2"
  type: "Scale"
  bottom: "conv2"
  top: "conv2"
  scale_param {
    bias_term: true
  }
}
layer {
  name: "relu2"
  type: "ReLU"
  bottom: "conv2"
  top: "conv2"
}
layer {
  name: "pool2"
  type: "Pooling"
  bottom: "conv2"
  top: "pool2"
  pooling_param {
    pool: MAX
    kernel_size: 3
    stride: 2
  }
}
layer {
  name: "conv3"
  type: "BinaryConvolution"
  bottom: "pool2"
  top: "conv3"
  param {
    lr_mult: 1
    decay_mult: 1
  }
  convolution_param {
    num_output: 384
    bias_term: false
    pad: 1
    kernel_size: 3
    weight_filler {
      type: "msra"
    }
  }
  debug_param {
    xnorno_grad: true
  }
}
layer {
  name: "bn3"
  type: "BatchNorm"
  bottom: "conv3"
  top: "conv3"
}
layer {
  name: "scale3"
  type: "Scale"
  bottom: "conv3"
  top: "conv3"
  scale_param {
    bias_term: true
  }
}
layer {
  name: "relu3"
  type: "ReLU"
  bottom: "conv3"
  top: "conv3"
}
layer {
  name: "conv4"
  type: "BinaryConvolution"
  bottom: "conv3"
  top: "conv4"
  param {
    lr_mult: 1
    decay_mult: 1
  }
  convolution_param {
    num_output: 384
    bias_term: false
    pad: 1
    kernel_size: 3
    weight_filler {
      type: "msra"
    }
  }
  debug_param {
    xnorno_grad: true
  }
}
layer {
  name: "bn4"
  type: "BatchNorm"
  bottom: "conv4"
  top: "conv4"
}
layer {
  name: "scale4"
  type: "Scale"
  bottom: "conv4"
  top: "conv4"
  scale_param {
    bias_term: true
  }
}
layer {
  name: "relu4"
  type: "ReLU"
  bottom: "conv4"
  top: "conv4"
}
layer {
  name: "conv5"
  type: "BinaryConvolution"
  bottom: "conv4"
  top: "conv5"
  param {
    lr_mult: 1
    decay_mult: 1
  }
  convolution_param {
    num_output: 256
    bias_term: false
    pad: 1
    kernel_size: 3
    weight_filler {
      type: "msra"
    }
  }
  debug_param {
    xnorno_grad: true
  }
}
layer {
  name: "bn5"
  type: "BatchNorm"
  bottom: "conv5"
  top: "conv5"
}
layer {
  name: "scale5"
  type: "Scale"
  bottom: "conv5"
  top: "conv5"
  scale_param {
    bias_term: true
  }
}
layer {
  name: "relu5"
  type: "ReLU"
  bottom: "conv5"
  top: "conv5"
}
layer {
  name: "pool5"
  type: "Pooling"
  bottom: "conv5"
  top: "pool5"
  pooling_param {
    pool: MAX
    kernel_size: 3
    stride: 2
  }
}
layer {
  name: "fc6"
  type: "BinaryInnerProduct"
  bottom: "pool5"
  top: "fc6"
  param {
    lr_mult: 1
    decay_mult: 1
  }
  inner_product_param {
    num_output: 4096
    bias_term: false
    weight_filler {
      type: "msra"
    }
  }
  debug_param {
    xnorno_grad: true
  }
}
layer {
  name: "bn6"
  type: "BatchNorm"
  bottom: "fc6"
  top: "fc6"
}
layer {
  name: "scale6"
  type: "Scale"
  bottom: "fc6"
  top: "fc6"
  scale_param {
    bias_term: true
  }
}
layer {
  name: "relu6"
  type: "ReLU"
  bottom: "fc6"
  top: "fc6"
}
layer {
  name: "drop6"
  type: "Dropout"
  bottom: "fc6"
  top: "fc6"
  dropout_param {
    dropout_ratio: 0.1
  }
}
layer {
  name: "fc7"
  type: "BinaryInnerProduct"
  bottom: "fc6"
  top: "fc7"
  param {
    lr_mult: 1
    decay_mult: 1
  }
  inner_product_param {
    num_output: 4096
    bias_term: false
    weight_filler {
      type: "msra"
    }
  }
  debug_param {
    xnorno_grad: true
  }
}
layer {
  name: "bn7"
  type: "BatchNorm"
  bottom: "fc7"
  top: "fc7"
}
layer {
  name: "scale7"
  type: "Scale"
  bottom: "fc7"
  top: "fc7"
  scale_param {
    bias_term: true
  }
}
layer {
  name: "relu7"
  type: "ReLU"
  bottom: "fc7"
  top: "fc7"
}
layer {
  name: "drop7"
  type: "Dropout"
  bottom: "fc7"
  top: "fc7"
  dropout_param {
    dropout_ratio: 0.1
  }
}
layer {
  name: "fc8"
  type: "InnerProduct"
  bottom: "fc7"
  top: "fc8"
  param {
    lr_mult: 1
    decay_mult: 1
  }
  param {
    lr_mult: 2
    decay_mult: 0
  }
  inner_product_param {
    num_output: 1000
    weight_filler {
      type: "msra"
    }
    bias_filler {
      type: "constant"
      value: 0
    }
  }
}
layer {
  name: "loss"
  type: "SoftmaxWithLoss"
  bottom: "fc8"
  bottom: "label"
  top: "loss"
}
layer {
  name: "accuracy"
  type: "Accuracy"
  bottom: "fc8"
  bottom: "label"
  top: "accuracy"
}
layer {
  name: "accuracy_5"
  type: "Accuracy"
  bottom: "fc8"
  bottom: "label"
  top: "accuracy_5"
  accuracy_param {
    top_k: 5
  }
}
I0110 14:18:25.712543  7557 layer_factory.hpp:78] Creating layer data
I0110 14:18:25.712695  7557 db_lmdb.cpp:35] Opened lmdb /home/zhengzhe/Data/imagenet_shrt256/ilsvrc12_val_lmdb
I0110 14:18:25.712749  7557 net.cpp:84] Creating Layer data
I0110 14:18:25.712785  7557 net.cpp:380] data -> data
I0110 14:18:25.712842  7557 net.cpp:380] data -> label
I0110 14:18:25.713583  7557 data_layer.cpp:45] output data size: 50,3,224,224
I0110 14:18:25.820973  7557 base_data_layer.cpp:72] Initializing prefetch
I0110 14:18:25.821576  7557 base_data_layer.cpp:75] Prefetch initialized.
I0110 14:18:25.821588  7557 net.cpp:122] Setting up data
I0110 14:18:25.821629  7557 net.cpp:129] Top shape: 50 3 224 224 (7526400)
I0110 14:18:25.821636  7557 net.cpp:129] Top shape: 50 (50)
I0110 14:18:25.821640  7557 net.cpp:137] Memory required for data: 30105800
I0110 14:18:25.821666  7557 layer_factory.hpp:78] Creating layer label_data_1_split
I0110 14:18:25.821717  7557 net.cpp:84] Creating Layer label_data_1_split
I0110 14:18:25.821733  7557 net.cpp:406] label_data_1_split <- label
I0110 14:18:25.821765  7557 net.cpp:380] label_data_1_split -> label_data_1_split_0
I0110 14:18:25.821801  7557 net.cpp:380] label_data_1_split -> label_data_1_split_1
I0110 14:18:25.821816  7557 net.cpp:380] label_data_1_split -> label_data_1_split_2
I0110 14:18:25.822091  7557 net.cpp:122] Setting up label_data_1_split
I0110 14:18:25.822106  7557 net.cpp:129] Top shape: 50 (50)
I0110 14:18:25.822113  7557 net.cpp:129] Top shape: 50 (50)
I0110 14:18:25.822119  7557 net.cpp:129] Top shape: 50 (50)
I0110 14:18:25.822124  7557 net.cpp:137] Memory required for data: 30106400
I0110 14:18:25.822145  7557 layer_factory.hpp:78] Creating layer conv1
I0110 14:18:25.822192  7557 net.cpp:84] Creating Layer conv1
I0110 14:18:25.822201  7557 net.cpp:406] conv1 <- data
I0110 14:18:25.822223  7557 net.cpp:380] conv1 -> conv1
I0110 14:18:25.830623  7557 cudnn_conv_layer.cpp:194] Reallocating workspace storage: 127416
I0110 14:18:25.830708  7557 net.cpp:122] Setting up conv1
I0110 14:18:25.830723  7557 net.cpp:129] Top shape: 50 96 55 55 (14520000)
I0110 14:18:25.830727  7557 net.cpp:137] Memory required for data: 88186400
I0110 14:18:25.830756  7557 layer_factory.hpp:78] Creating layer bn1
I0110 14:18:25.830780  7557 net.cpp:84] Creating Layer bn1
I0110 14:18:25.830787  7557 net.cpp:406] bn1 <- conv1
I0110 14:18:25.830803  7557 net.cpp:367] bn1 -> conv1 (in-place)
I0110 14:18:25.831087  7557 net.cpp:122] Setting up bn1
I0110 14:18:25.831099  7557 net.cpp:129] Top shape: 50 96 55 55 (14520000)
I0110 14:18:25.831104  7557 net.cpp:137] Memory required for data: 146266400
I0110 14:18:25.831136  7557 layer_factory.hpp:78] Creating layer scale1
I0110 14:18:25.831161  7557 net.cpp:84] Creating Layer scale1
I0110 14:18:25.831169  7557 net.cpp:406] scale1 <- conv1
I0110 14:18:25.831183  7557 net.cpp:367] scale1 -> conv1 (in-place)
I0110 14:18:25.831261  7557 layer_factory.hpp:78] Creating layer scale1
I0110 14:18:25.831507  7557 net.cpp:122] Setting up scale1
I0110 14:18:25.831521  7557 net.cpp:129] Top shape: 50 96 55 55 (14520000)
I0110 14:18:25.831526  7557 net.cpp:137] Memory required for data: 204346400
I0110 14:18:25.831549  7557 layer_factory.hpp:78] Creating layer relu1
I0110 14:18:25.831568  7557 net.cpp:84] Creating Layer relu1
I0110 14:18:25.831576  7557 net.cpp:406] relu1 <- conv1
I0110 14:18:25.831591  7557 net.cpp:367] relu1 -> conv1 (in-place)
I0110 14:18:25.832262  7557 net.cpp:122] Setting up relu1
I0110 14:18:25.832274  7557 net.cpp:129] Top shape: 50 96 55 55 (14520000)
I0110 14:18:25.832294  7557 net.cpp:137] Memory required for data: 262426400
I0110 14:18:25.832300  7557 layer_factory.hpp:78] Creating layer pool1
I0110 14:18:25.832321  7557 net.cpp:84] Creating Layer pool1
I0110 14:18:25.832330  7557 net.cpp:406] pool1 <- conv1
I0110 14:18:25.832355  7557 net.cpp:380] pool1 -> pool1
I0110 14:18:25.832433  7557 net.cpp:122] Setting up pool1
I0110 14:18:25.832446  7557 net.cpp:129] Top shape: 50 96 27 27 (3499200)
I0110 14:18:25.832471  7557 net.cpp:137] Memory required for data: 276423200
I0110 14:18:25.832479  7557 layer_factory.hpp:78] Creating layer conv2
I0110 14:18:25.832509  7557 net.cpp:84] Creating Layer conv2
I0110 14:18:25.832518  7557 net.cpp:406] conv2 <- pool1
I0110 14:18:25.832538  7557 net.cpp:380] conv2 -> conv2
I0110 14:18:25.890416  7557 cudnn_binary_conv_layer.cpp:194] Reallocating workspace storage: 19668
I0110 14:18:25.890480  7557 net.cpp:122] Setting up conv2
I0110 14:18:25.890504  7557 net.cpp:129] Top shape: 50 256 27 27 (9331200)
I0110 14:18:25.890542  7557 net.cpp:137] Memory required for data: 313748000
I0110 14:18:25.890581  7557 layer_factory.hpp:78] Creating layer bn2
I0110 14:18:25.890630  7557 net.cpp:84] Creating Layer bn2
I0110 14:18:25.890648  7557 net.cpp:406] bn2 <- conv2
I0110 14:18:25.890697  7557 net.cpp:367] bn2 -> conv2 (in-place)
I0110 14:18:25.890995  7557 net.cpp:122] Setting up bn2
I0110 14:18:25.891010  7557 net.cpp:129] Top shape: 50 256 27 27 (9331200)
I0110 14:18:25.891016  7557 net.cpp:137] Memory required for data: 351072800
I0110 14:18:25.891058  7557 layer_factory.hpp:78] Creating layer scale2
I0110 14:18:25.891091  7557 net.cpp:84] Creating Layer scale2
I0110 14:18:25.891103  7557 net.cpp:406] scale2 <- conv2
I0110 14:18:25.891132  7557 net.cpp:367] scale2 -> conv2 (in-place)
I0110 14:18:25.891225  7557 layer_factory.hpp:78] Creating layer scale2
I0110 14:18:25.891451  7557 net.cpp:122] Setting up scale2
I0110 14:18:25.891468  7557 net.cpp:129] Top shape: 50 256 27 27 (9331200)
I0110 14:18:25.891472  7557 net.cpp:137] Memory required for data: 388397600
I0110 14:18:25.891494  7557 layer_factory.hpp:78] Creating layer relu2
I0110 14:18:25.891515  7557 net.cpp:84] Creating Layer relu2
I0110 14:18:25.891525  7557 net.cpp:406] relu2 <- conv2
I0110 14:18:25.891551  7557 net.cpp:367] relu2 -> conv2 (in-place)
I0110 14:18:25.892491  7557 net.cpp:122] Setting up relu2
I0110 14:18:25.892509  7557 net.cpp:129] Top shape: 50 256 27 27 (9331200)
I0110 14:18:25.892515  7557 net.cpp:137] Memory required for data: 425722400
I0110 14:18:25.892525  7557 layer_factory.hpp:78] Creating layer pool2
I0110 14:18:25.892555  7557 net.cpp:84] Creating Layer pool2
I0110 14:18:25.892566  7557 net.cpp:406] pool2 <- conv2
I0110 14:18:25.892591  7557 net.cpp:380] pool2 -> pool2
I0110 14:18:25.892684  7557 net.cpp:122] Setting up pool2
I0110 14:18:25.892701  7557 net.cpp:129] Top shape: 50 256 13 13 (2163200)
I0110 14:18:25.892729  7557 net.cpp:137] Memory required for data: 434375200
I0110 14:18:25.892740  7557 layer_factory.hpp:78] Creating layer conv3
I0110 14:18:25.892779  7557 net.cpp:84] Creating Layer conv3
I0110 14:18:25.892791  7557 net.cpp:406] conv3 <- pool2
I0110 14:18:25.892817  7557 net.cpp:380] conv3 -> conv3
I0110 14:18:25.974375  7557 cudnn_binary_conv_layer.cpp:194] Reallocating workspace storage: 18874368
I0110 14:18:25.980096  7557 net.cpp:122] Setting up conv3
I0110 14:18:25.980120  7557 net.cpp:129] Top shape: 50 384 13 13 (3244800)
I0110 14:18:25.980127  7557 net.cpp:137] Memory required for data: 447354400
I0110 14:18:25.980149  7557 layer_factory.hpp:78] Creating layer bn3
I0110 14:18:25.980172  7557 net.cpp:84] Creating Layer bn3
I0110 14:18:25.980185  7557 net.cpp:406] bn3 <- conv3
I0110 14:18:25.980226  7557 net.cpp:367] bn3 -> conv3 (in-place)
I0110 14:18:25.980537  7557 net.cpp:122] Setting up bn3
I0110 14:18:25.980554  7557 net.cpp:129] Top shape: 50 384 13 13 (3244800)
I0110 14:18:25.980561  7557 net.cpp:137] Memory required for data: 460333600
I0110 14:18:25.980590  7557 layer_factory.hpp:78] Creating layer scale3
I0110 14:18:25.980613  7557 net.cpp:84] Creating Layer scale3
I0110 14:18:25.980643  7557 net.cpp:406] scale3 <- conv3
I0110 14:18:25.980670  7557 net.cpp:367] scale3 -> conv3 (in-place)
I0110 14:18:25.980758  7557 layer_factory.hpp:78] Creating layer scale3
I0110 14:18:25.980952  7557 net.cpp:122] Setting up scale3
I0110 14:18:25.980967  7557 net.cpp:129] Top shape: 50 384 13 13 (3244800)
I0110 14:18:25.980971  7557 net.cpp:137] Memory required for data: 473312800
I0110 14:18:25.981034  7557 layer_factory.hpp:78] Creating layer relu3
I0110 14:18:25.981060  7557 net.cpp:84] Creating Layer relu3
I0110 14:18:25.981070  7557 net.cpp:406] relu3 <- conv3
I0110 14:18:25.981107  7557 net.cpp:367] relu3 -> conv3 (in-place)
I0110 14:18:25.982050  7557 net.cpp:122] Setting up relu3
I0110 14:18:25.982069  7557 net.cpp:129] Top shape: 50 384 13 13 (3244800)
I0110 14:18:25.982075  7557 net.cpp:137] Memory required for data: 486292000
I0110 14:18:25.982085  7557 layer_factory.hpp:78] Creating layer conv4
I0110 14:18:25.982139  7557 net.cpp:84] Creating Layer conv4
I0110 14:18:25.982154  7557 net.cpp:406] conv4 <- conv3
I0110 14:18:25.982187  7557 net.cpp:380] conv4 -> conv4
I0110 14:18:26.100313  7557 cudnn_binary_conv_layer.cpp:194] Reallocating workspace storage: 9840
I0110 14:18:26.100373  7557 net.cpp:122] Setting up conv4
I0110 14:18:26.100425  7557 net.cpp:129] Top shape: 50 384 13 13 (3244800)
I0110 14:18:26.100430  7557 net.cpp:137] Memory required for data: 499271200
I0110 14:18:26.100456  7557 layer_factory.hpp:78] Creating layer bn4
I0110 14:18:26.100486  7557 net.cpp:84] Creating Layer bn4
I0110 14:18:26.100502  7557 net.cpp:406] bn4 <- conv4
I0110 14:18:26.100524  7557 net.cpp:367] bn4 -> conv4 (in-place)
I0110 14:18:26.100808  7557 net.cpp:122] Setting up bn4
I0110 14:18:26.100819  7557 net.cpp:129] Top shape: 50 384 13 13 (3244800)
I0110 14:18:26.100824  7557 net.cpp:137] Memory required for data: 512250400
I0110 14:18:26.100860  7557 layer_factory.hpp:78] Creating layer scale4
I0110 14:18:26.100880  7557 net.cpp:84] Creating Layer scale4
I0110 14:18:26.100888  7557 net.cpp:406] scale4 <- conv4
I0110 14:18:26.100903  7557 net.cpp:367] scale4 -> conv4 (in-place)
I0110 14:18:26.100980  7557 layer_factory.hpp:78] Creating layer scale4
I0110 14:18:26.101178  7557 net.cpp:122] Setting up scale4
I0110 14:18:26.101191  7557 net.cpp:129] Top shape: 50 384 13 13 (3244800)
I0110 14:18:26.101194  7557 net.cpp:137] Memory required for data: 525229600
I0110 14:18:26.101225  7557 layer_factory.hpp:78] Creating layer relu4
I0110 14:18:26.101240  7557 net.cpp:84] Creating Layer relu4
I0110 14:18:26.101248  7557 net.cpp:406] relu4 <- conv4
I0110 14:18:26.101260  7557 net.cpp:367] relu4 -> conv4 (in-place)
I0110 14:18:26.101922  7557 net.cpp:122] Setting up relu4
I0110 14:18:26.101935  7557 net.cpp:129] Top shape: 50 384 13 13 (3244800)
I0110 14:18:26.101955  7557 net.cpp:137] Memory required for data: 538208800
I0110 14:18:26.101961  7557 layer_factory.hpp:78] Creating layer conv5
I0110 14:18:26.101989  7557 net.cpp:84] Creating Layer conv5
I0110 14:18:26.101999  7557 net.cpp:406] conv5 <- conv4
I0110 14:18:26.102022  7557 net.cpp:380] conv5 -> conv5
I0110 14:18:26.199944  7557 cudnn_binary_conv_layer.cpp:194] Reallocating workspace storage: 18874368
I0110 14:18:26.200445  7557 net.cpp:122] Setting up conv5
I0110 14:18:26.200506  7557 net.cpp:129] Top shape: 50 256 13 13 (2163200)
I0110 14:18:26.200538  7557 net.cpp:137] Memory required for data: 546861600
I0110 14:18:26.200614  7557 layer_factory.hpp:78] Creating layer bn5
I0110 14:18:26.200700  7557 net.cpp:84] Creating Layer bn5
I0110 14:18:26.200753  7557 net.cpp:406] bn5 <- conv5
I0110 14:18:26.200829  7557 net.cpp:367] bn5 -> conv5 (in-place)
I0110 14:18:26.201401  7557 net.cpp:122] Setting up bn5
I0110 14:18:26.201442  7557 net.cpp:129] Top shape: 50 256 13 13 (2163200)
I0110 14:18:26.201469  7557 net.cpp:137] Memory required for data: 555514400
I0110 14:18:26.201514  7557 layer_factory.hpp:78] Creating layer scale5
I0110 14:18:26.201562  7557 net.cpp:84] Creating Layer scale5
I0110 14:18:26.201591  7557 net.cpp:406] scale5 <- conv5
I0110 14:18:26.201629  7557 net.cpp:367] scale5 -> conv5 (in-place)
I0110 14:18:26.201767  7557 layer_factory.hpp:78] Creating layer scale5
I0110 14:18:26.202054  7557 net.cpp:122] Setting up scale5
I0110 14:18:26.202091  7557 net.cpp:129] Top shape: 50 256 13 13 (2163200)
I0110 14:18:26.202133  7557 net.cpp:137] Memory required for data: 564167200
I0110 14:18:26.202175  7557 layer_factory.hpp:78] Creating layer relu5
I0110 14:18:26.202239  7557 net.cpp:84] Creating Layer relu5
I0110 14:18:26.202267  7557 net.cpp:406] relu5 <- conv5
I0110 14:18:26.202304  7557 net.cpp:367] relu5 -> conv5 (in-place)
I0110 14:18:26.203361  7557 net.cpp:122] Setting up relu5
I0110 14:18:26.203411  7557 net.cpp:129] Top shape: 50 256 13 13 (2163200)
I0110 14:18:26.203433  7557 net.cpp:137] Memory required for data: 572820000
I0110 14:18:26.203461  7557 layer_factory.hpp:78] Creating layer pool5
I0110 14:18:26.203510  7557 net.cpp:84] Creating Layer pool5
I0110 14:18:26.203541  7557 net.cpp:406] pool5 <- conv5
I0110 14:18:26.203606  7557 net.cpp:380] pool5 -> pool5
I0110 14:18:26.203764  7557 net.cpp:122] Setting up pool5
I0110 14:18:26.203807  7557 net.cpp:129] Top shape: 50 256 6 6 (460800)
I0110 14:18:26.203831  7557 net.cpp:137] Memory required for data: 574663200
I0110 14:18:26.203855  7557 layer_factory.hpp:78] Creating layer fc6
I0110 14:18:26.203908  7557 net.cpp:84] Creating Layer fc6
I0110 14:18:26.203940  7557 net.cpp:406] fc6 <- pool5
I0110 14:18:26.203992  7557 net.cpp:380] fc6 -> fc6
I0110 14:18:30.446728  7557 net.cpp:122] Setting up fc6
I0110 14:18:30.446805  7557 net.cpp:129] Top shape: 50 4096 (204800)
I0110 14:18:30.446812  7557 net.cpp:137] Memory required for data: 575482400
I0110 14:18:30.446867  7557 layer_factory.hpp:78] Creating layer bn6
I0110 14:18:30.446913  7557 net.cpp:84] Creating Layer bn6
I0110 14:18:30.446941  7557 net.cpp:406] bn6 <- fc6
I0110 14:18:30.446974  7557 net.cpp:367] bn6 -> fc6 (in-place)
I0110 14:18:30.447361  7557 net.cpp:122] Setting up bn6
I0110 14:18:30.447381  7557 net.cpp:129] Top shape: 50 4096 (204800)
I0110 14:18:30.447425  7557 net.cpp:137] Memory required for data: 576301600
I0110 14:18:30.447492  7557 layer_factory.hpp:78] Creating layer scale6
I0110 14:18:30.447536  7557 net.cpp:84] Creating Layer scale6
I0110 14:18:30.447549  7557 net.cpp:406] scale6 <- fc6
I0110 14:18:30.447577  7557 net.cpp:367] scale6 -> fc6 (in-place)
I0110 14:18:30.447754  7557 layer_factory.hpp:78] Creating layer scale6
I0110 14:18:30.447996  7557 net.cpp:122] Setting up scale6
I0110 14:18:30.448012  7557 net.cpp:129] Top shape: 50 4096 (204800)
I0110 14:18:30.448017  7557 net.cpp:137] Memory required for data: 577120800
I0110 14:18:30.448041  7557 layer_factory.hpp:78] Creating layer relu6
I0110 14:18:30.448066  7557 net.cpp:84] Creating Layer relu6
I0110 14:18:30.448076  7557 net.cpp:406] relu6 <- fc6
I0110 14:18:30.448093  7557 net.cpp:367] relu6 -> fc6 (in-place)
I0110 14:18:30.450584  7557 net.cpp:122] Setting up relu6
I0110 14:18:30.450614  7557 net.cpp:129] Top shape: 50 4096 (204800)
I0110 14:18:30.450628  7557 net.cpp:137] Memory required for data: 577940000
I0110 14:18:30.450640  7557 layer_factory.hpp:78] Creating layer drop6
I0110 14:18:30.450677  7557 net.cpp:84] Creating Layer drop6
I0110 14:18:30.450693  7557 net.cpp:406] drop6 <- fc6
I0110 14:18:30.450726  7557 net.cpp:367] drop6 -> fc6 (in-place)
I0110 14:18:30.450809  7557 net.cpp:122] Setting up drop6
I0110 14:18:30.450826  7557 net.cpp:129] Top shape: 50 4096 (204800)
I0110 14:18:30.450840  7557 net.cpp:137] Memory required for data: 578759200
I0110 14:18:30.450853  7557 layer_factory.hpp:78] Creating layer fc7
I0110 14:18:30.450884  7557 net.cpp:84] Creating Layer fc7
I0110 14:18:30.450897  7557 net.cpp:406] fc7 <- fc6
I0110 14:18:30.450928  7557 net.cpp:380] fc7 -> fc7
I0110 14:18:32.434108  7557 net.cpp:122] Setting up fc7
I0110 14:18:32.434178  7557 net.cpp:129] Top shape: 50 4096 (204800)
I0110 14:18:32.434185  7557 net.cpp:137] Memory required for data: 579578400
I0110 14:18:32.434231  7557 layer_factory.hpp:78] Creating layer bn7
I0110 14:18:32.434280  7557 net.cpp:84] Creating Layer bn7
I0110 14:18:32.434303  7557 net.cpp:406] bn7 <- fc7
I0110 14:18:32.434337  7557 net.cpp:367] bn7 -> fc7 (in-place)
I0110 14:18:32.434681  7557 net.cpp:122] Setting up bn7
I0110 14:18:32.434693  7557 net.cpp:129] Top shape: 50 4096 (204800)
I0110 14:18:32.434698  7557 net.cpp:137] Memory required for data: 580397600
I0110 14:18:32.434753  7557 layer_factory.hpp:78] Creating layer scale7
I0110 14:18:32.434790  7557 net.cpp:84] Creating Layer scale7
I0110 14:18:32.434798  7557 net.cpp:406] scale7 <- fc7
I0110 14:18:32.434813  7557 net.cpp:367] scale7 -> fc7 (in-place)
I0110 14:18:32.434933  7557 layer_factory.hpp:78] Creating layer scale7
I0110 14:18:32.435137  7557 net.cpp:122] Setting up scale7
I0110 14:18:32.435149  7557 net.cpp:129] Top shape: 50 4096 (204800)
I0110 14:18:32.435153  7557 net.cpp:137] Memory required for data: 581216800
I0110 14:18:32.435169  7557 layer_factory.hpp:78] Creating layer relu7
I0110 14:18:32.435184  7557 net.cpp:84] Creating Layer relu7
I0110 14:18:32.435191  7557 net.cpp:406] relu7 <- fc7
I0110 14:18:32.435204  7557 net.cpp:367] relu7 -> fc7 (in-place)
I0110 14:18:32.436657  7557 net.cpp:122] Setting up relu7
I0110 14:18:32.436674  7557 net.cpp:129] Top shape: 50 4096 (204800)
I0110 14:18:32.436678  7557 net.cpp:137] Memory required for data: 582036000
I0110 14:18:32.436691  7557 layer_factory.hpp:78] Creating layer drop7
I0110 14:18:32.436712  7557 net.cpp:84] Creating Layer drop7
I0110 14:18:32.436722  7557 net.cpp:406] drop7 <- fc7
I0110 14:18:32.436738  7557 net.cpp:367] drop7 -> fc7 (in-place)
I0110 14:18:32.436791  7557 net.cpp:122] Setting up drop7
I0110 14:18:32.436803  7557 net.cpp:129] Top shape: 50 4096 (204800)
I0110 14:18:32.436806  7557 net.cpp:137] Memory required for data: 582855200
I0110 14:18:32.436811  7557 layer_factory.hpp:78] Creating layer fc8
I0110 14:18:32.436836  7557 net.cpp:84] Creating Layer fc8
I0110 14:18:32.436842  7557 net.cpp:406] fc8 <- fc7
I0110 14:18:32.436858  7557 net.cpp:380] fc8 -> fc8
I0110 14:18:32.930934  7557 net.cpp:122] Setting up fc8
I0110 14:18:32.931063  7557 net.cpp:129] Top shape: 50 1000 (50000)
I0110 14:18:32.931087  7557 net.cpp:137] Memory required for data: 583055200
I0110 14:18:32.931149  7557 layer_factory.hpp:78] Creating layer fc8_fc8_0_split
I0110 14:18:32.931210  7557 net.cpp:84] Creating Layer fc8_fc8_0_split
I0110 14:18:32.931241  7557 net.cpp:406] fc8_fc8_0_split <- fc8
I0110 14:18:32.931293  7557 net.cpp:380] fc8_fc8_0_split -> fc8_fc8_0_split_0
I0110 14:18:32.931365  7557 net.cpp:380] fc8_fc8_0_split -> fc8_fc8_0_split_1
I0110 14:18:32.931411  7557 net.cpp:380] fc8_fc8_0_split -> fc8_fc8_0_split_2
I0110 14:18:32.931550  7557 net.cpp:122] Setting up fc8_fc8_0_split
I0110 14:18:32.931583  7557 net.cpp:129] Top shape: 50 1000 (50000)
I0110 14:18:32.931605  7557 net.cpp:129] Top shape: 50 1000 (50000)
I0110 14:18:32.931625  7557 net.cpp:129] Top shape: 50 1000 (50000)
I0110 14:18:32.931643  7557 net.cpp:137] Memory required for data: 583655200
I0110 14:18:32.931664  7557 layer_factory.hpp:78] Creating layer loss
I0110 14:18:32.931712  7557 net.cpp:84] Creating Layer loss
I0110 14:18:32.931737  7557 net.cpp:406] loss <- fc8_fc8_0_split_0
I0110 14:18:32.931769  7557 net.cpp:406] loss <- label_data_1_split_0
I0110 14:18:32.931800  7557 net.cpp:380] loss -> loss
…
