…
I0113 22:40:20.003859 19390 net.cpp:294] The NetState phase (0) differed from the phase (1) specified by a rule in layer data
I0113 22:40:20.004381 19390 net.cpp:51] Initializing net from parameters: 
name: "AlexNet-BN"
state {
  phase: TRAIN
  level: 0
  stage: ""
}
layer {
  name: "data"
  type: "Data"
  top: "data"
  top: "label"
  include {
    phase: TRAIN
  }
  transform_param {
    mirror: true
    crop_size: 224
    mean_value: 104
    mean_value: 117
    mean_value: 123
  }
  data_param {
    source: "/home/zhengzhe/Data/imagenet_shrt256/ilsvrc12_train_lmdb"
    batch_size: 256
    backend: LMDB
  }
}
layer {
  name: "conv1"
  type: "Convolution"
  bottom: "data"
  top: "conv1"
  param {
    lr_mult: 1
    decay_mult: 1
  }
  convolution_param {
    num_output: 96
    bias_term: false
    pad: 2
    kernel_size: 11
    stride: 4
    weight_filler {
      type: "msra"
    }
  }
}
layer {
  name: "bn1"
  type: "BatchNorm"
  bottom: "conv1"
  top: "conv1"
}
layer {
  name: "scale1"
  type: "Scale"
  bottom: "conv1"
  top: "conv1"
  scale_param {
    bias_term: true
  }
}
layer {
  name: "relu1"
  type: "ReLU"
  bottom: "conv1"
  top: "conv1"
}
layer {
  name: "pool1"
  type: "Pooling"
  bottom: "conv1"
  top: "pool1"
  pooling_param {
    pool: MAX
    kernel_size: 3
    stride: 2
  }
}
layer {
  name: "conv2"
  type: "BinaryConvolution"
  bottom: "pool1"
  top: "conv2"
  param {
    lr_mult: 1
    decay_mult: 1
  }
  convolution_param {
    num_output: 256
    bias_term: false
    pad: 2
    kernel_size: 5
    weight_filler {
      type: "msra"
    }
  }
  debug_param {
    xnorno_grad: false
  }
}
layer {
  name: "bn2"
  type: "BatchNorm"
  bottom: "conv2"
  top: "conv2"
}
layer {
  name: "scale2"
  type: "Scale"
  bottom: "conv2"
  top: "conv2"
  scale_param {
    bias_term: true
  }
}
layer {
  name: "relu2"
  type: "ReLU"
  bottom: "conv2"
  top: "conv2"
}
layer {
  name: "pool2"
  type: "Pooling"
  bottom: "conv2"
  top: "pool2"
  pooling_param {
    pool: MAX
    kernel_size: 3
    stride: 2
  }
}
layer {
  name: "conv3"
  type: "BinaryConvolution"
  bottom: "pool2"
  top: "conv3"
  param {
    lr_mult: 1
    decay_mult: 1
  }
  convolution_param {
    num_output: 384
    bias_term: false
    pad: 1
    kernel_size: 3
    weight_filler {
      type: "msra"
    }
  }
  debug_param {
    xnorno_grad: false
  }
}
layer {
  name: "bn3"
  type: "BatchNorm"
  bottom: "conv3"
  top: "conv3"
}
layer {
  name: "scale3"
  type: "Scale"
  bottom: "conv3"
  top: "conv3"
  scale_param {
    bias_term: true
  }
}
layer {
  name: "relu3"
  type: "ReLU"
  bottom: "conv3"
  top: "conv3"
}
layer {
  name: "conv4"
  type: "BinaryConvolution"
  bottom: "conv3"
  top: "conv4"
  param {
    lr_mult: 1
    decay_mult: 1
  }
  convolution_param {
    num_output: 384
    bias_term: false
    pad: 1
    kernel_size: 3
    weight_filler {
      type: "msra"
    }
  }
  debug_param {
    xnorno_grad: false
  }
}
layer {
  name: "bn4"
  type: "BatchNorm"
  bottom: "conv4"
  top: "conv4"
}
layer {
  name: "scale4"
  type: "Scale"
  bottom: "conv4"
  top: "conv4"
  scale_param {
    bias_term: true
  }
}
layer {
  name: "relu4"
  type: "ReLU"
  bottom: "conv4"
  top: "conv4"
}
layer {
  name: "conv5"
  type: "BinaryConvolution"
  bottom: "conv4"
  top: "conv5"
  param {
    lr_mult: 1
    decay_mult: 1
  }
  convolution_param {
    num_output: 256
    bias_term: false
    pad: 1
    kernel_size: 3
    weight_filler {
      type: "msra"
    }
  }
  debug_param {
    xnorno_grad: false
  }
}
layer {
  name: "bn5"
  type: "BatchNorm"
  bottom: "conv5"
  top: "conv5"
}
layer {
  name: "scale5"
  type: "Scale"
  bottom: "conv5"
  top: "conv5"
  scale_param {
    bias_term: true
  }
}
layer {
  name: "relu5"
  type: "ReLU"
  bottom: "conv5"
  top: "conv5"
}
layer {
  name: "pool5"
  type: "Pooling"
  bottom: "conv5"
  top: "pool5"
  pooling_param {
    pool: MAX
    kernel_size: 3
    stride: 2
  }
}
layer {
  name: "fc6"
  type: "BinaryInnerProduct"
  bottom: "pool5"
  top: "fc6"
  param {
    lr_mult: 1
    decay_mult: 1
  }
  inner_product_param {
    num_output: 4096
    bias_term: false
    weight_filler {
      type: "msra"
    }
  }
  debug_param {
    xnorno_grad: false
  }
}
layer {
  name: "bn6"
  type: "BatchNorm"
  bottom: "fc6"
  top: "fc6"
}
layer {
  name: "scale6"
  type: "Scale"
  bottom: "fc6"
  top: "fc6"
  scale_param {
    bias_term: true
  }
}
layer {
  name: "relu6"
  type: "ReLU"
  bottom: "fc6"
  top: "fc6"
}
layer {
  name: "drop6"
  type: "Dropout"
  bottom: "fc6"
  top: "fc6"
  dropout_param {
    dropout_ratio: 0.1
  }
}
layer {
  name: "fc7"
  type: "BinaryInnerProduct"
  bottom: "fc6"
  top: "fc7"
  param {
    lr_mult: 1
    decay_mult: 1
  }
  inner_product_param {
    num_output: 4096
    bias_term: false
    weight_filler {
      type: "msra"
    }
  }
  debug_param {
    xnorno_grad: false
  }
}
layer {
  name: "bn7"
  type: "BatchNorm"
  bottom: "fc7"
  top: "fc7"
}
layer {
  name: "scale7"
  type: "Scale"
  bottom: "fc7"
  top: "fc7"
  scale_param {
    bias_term: true
  }
}
layer {
  name: "relu7"
  type: "ReLU"
  bottom: "fc7"
  top: "fc7"
}
layer {
  name: "drop7"
  type: "Dropout"
  bottom: "fc7"
  top: "fc7"
  dropout_param {
    dropout_ratio: 0.1
  }
}
layer {
  name: "fc8"
  type: "InnerProduct"
  bottom: "fc7"
  top: "fc8"
  param {
    lr_mult: 1
    decay_mult: 1
  }
  param {
    lr_mult: 2
    decay_mult: 0
  }
  inner_product_param {
    num_output: 1000
    weight_filler {
      type: "msra"
    }
    bias_filler {
      type: "constant"
      value: 0
    }
  }
}
layer {
  name: "loss"
  type: "SoftmaxWithLoss"
  bottom: "fc8"
  bottom: "label"
  top: "loss"
}
layer {
  name: "accuracy"
  type: "Accuracy"
  bottom: "fc8"
  bottom: "label"
  top: "accuracy"
}
layer {
  name: "accuracy_5"
  type: "Accuracy"
  bottom: "fc8"
  bottom: "label"
  top: "accuracy_5"
  accuracy_param {
    top_k: 5
  }
}
I0113 22:40:20.005743 19390 layer_factory.hpp:78] Creating layer data
I0113 22:40:20.015540 19390 db_lmdb.cpp:35] Opened lmdb /home/zhengzhe/Data/imagenet_shrt256/ilsvrc12_train_lmdb
I0113 22:40:20.015661 19390 net.cpp:84] Creating Layer data
I0113 22:40:20.015702 19390 net.cpp:380] data -> data
I0113 22:40:20.015892 19390 net.cpp:380] data -> label
I0113 22:40:20.019789 19390 data_layer.cpp:45] output data size: 256,3,224,224
I0113 22:40:20.599097 19390 base_data_layer.cpp:72] Initializing prefetch
I0113 22:40:20.599974 19390 base_data_layer.cpp:75] Prefetch initialized.
I0113 22:40:20.600108 19390 net.cpp:122] Setting up data
I0113 22:40:20.600153 19390 net.cpp:129] Top shape: 256 3 224 224 (38535168)
I0113 22:40:20.600165 19390 net.cpp:129] Top shape: 256 (256)
I0113 22:40:20.600169 19390 net.cpp:137] Memory required for data: 154141696
I0113 22:40:20.600203 19390 layer_factory.hpp:78] Creating layer label_data_1_split
I0113 22:40:20.600267 19390 net.cpp:84] Creating Layer label_data_1_split
I0113 22:40:20.600294 19390 net.cpp:406] label_data_1_split <- label
I0113 22:40:20.600363 19390 net.cpp:380] label_data_1_split -> label_data_1_split_0
I0113 22:40:20.600404 19390 net.cpp:380] label_data_1_split -> label_data_1_split_1
I0113 22:40:20.600455 19390 net.cpp:380] label_data_1_split -> label_data_1_split_2
I0113 22:40:20.600559 19390 net.cpp:122] Setting up label_data_1_split
I0113 22:40:20.600574 19390 net.cpp:129] Top shape: 256 (256)
I0113 22:40:20.600586 19390 net.cpp:129] Top shape: 256 (256)
I0113 22:40:20.600594 19390 net.cpp:129] Top shape: 256 (256)
I0113 22:40:20.600596 19390 net.cpp:137] Memory required for data: 154144768
I0113 22:40:20.600602 19390 layer_factory.hpp:78] Creating layer conv1
I0113 22:40:20.600680 19390 net.cpp:84] Creating Layer conv1
I0113 22:40:20.600692 19390 net.cpp:406] conv1 <- data
I0113 22:40:20.600715 19390 net.cpp:380] conv1 -> conv1
I0113 22:40:27.842278 19390 cudnn_conv_layer.cpp:194] Reallocating workspace storage: 127416
I0113 22:40:27.842686 19390 net.cpp:122] Setting up conv1
I0113 22:40:27.842752 19390 net.cpp:129] Top shape: 256 96 55 55 (74342400)
I0113 22:40:27.842772 19390 net.cpp:137] Memory required for data: 451514368
I0113 22:40:27.842891 19390 layer_factory.hpp:78] Creating layer bn1
I0113 22:40:27.842957 19390 net.cpp:84] Creating Layer bn1
I0113 22:40:27.842974 19390 net.cpp:406] bn1 <- conv1
I0113 22:40:27.843010 19390 net.cpp:367] bn1 -> conv1 (in-place)
I0113 22:40:27.844736 19390 net.cpp:122] Setting up bn1
I0113 22:40:27.844758 19390 net.cpp:129] Top shape: 256 96 55 55 (74342400)
I0113 22:40:27.844763 19390 net.cpp:137] Memory required for data: 748883968
I0113 22:40:27.844822 19390 layer_factory.hpp:78] Creating layer scale1
I0113 22:40:27.844890 19390 net.cpp:84] Creating Layer scale1
I0113 22:40:27.844903 19390 net.cpp:406] scale1 <- conv1
I0113 22:40:27.844928 19390 net.cpp:367] scale1 -> conv1 (in-place)
I0113 22:40:27.845038 19390 layer_factory.hpp:78] Creating layer scale1
I0113 22:40:27.845283 19390 net.cpp:122] Setting up scale1
I0113 22:40:27.845299 19390 net.cpp:129] Top shape: 256 96 55 55 (74342400)
I0113 22:40:27.845304 19390 net.cpp:137] Memory required for data: 1046253568
I0113 22:40:27.845331 19390 layer_factory.hpp:78] Creating layer relu1
I0113 22:40:27.845371 19390 net.cpp:84] Creating Layer relu1
I0113 22:40:27.845381 19390 net.cpp:406] relu1 <- conv1
I0113 22:40:27.845397 19390 net.cpp:367] relu1 -> conv1 (in-place)
I0113 22:40:27.846063 19390 net.cpp:122] Setting up relu1
I0113 22:40:27.846081 19390 net.cpp:129] Top shape: 256 96 55 55 (74342400)
I0113 22:40:27.846084 19390 net.cpp:137] Memory required for data: 1343623168
I0113 22:40:27.846091 19390 layer_factory.hpp:78] Creating layer pool1
I0113 22:40:27.846120 19390 net.cpp:84] Creating Layer pool1
I0113 22:40:27.846129 19390 net.cpp:406] pool1 <- conv1
I0113 22:40:27.846149 19390 net.cpp:380] pool1 -> pool1
I0113 22:40:27.846247 19390 net.cpp:122] Setting up pool1
I0113 22:40:27.846263 19390 net.cpp:129] Top shape: 256 96 27 27 (17915904)
I0113 22:40:27.846267 19390 net.cpp:137] Memory required for data: 1415286784
I0113 22:40:27.846287 19390 layer_factory.hpp:78] Creating layer conv2
I0113 22:40:27.846348 19390 net.cpp:84] Creating Layer conv2
I0113 22:40:27.846359 19390 net.cpp:406] conv2 <- pool1
I0113 22:40:27.846381 19390 net.cpp:380] conv2 -> conv2
I0113 22:40:27.905299 19390 cudnn_binary_conv_layer.cpp:194] Reallocating workspace storage: 19668
I0113 22:40:27.905367 19390 net.cpp:122] Setting up conv2
I0113 22:40:27.905390 19390 net.cpp:129] Top shape: 256 256 27 27 (47775744)
I0113 22:40:27.905395 19390 net.cpp:137] Memory required for data: 1606389760
I0113 22:40:27.905434 19390 layer_factory.hpp:78] Creating layer bn2
I0113 22:40:27.905488 19390 net.cpp:84] Creating Layer bn2
I0113 22:40:27.905503 19390 net.cpp:406] bn2 <- conv2
I0113 22:40:27.905542 19390 net.cpp:367] bn2 -> conv2 (in-place)
I0113 22:40:27.907310 19390 net.cpp:122] Setting up bn2
I0113 22:40:27.907338 19390 net.cpp:129] Top shape: 256 256 27 27 (47775744)
I0113 22:40:27.907349 19390 net.cpp:137] Memory required for data: 1797492736
I0113 22:40:27.907414 19390 layer_factory.hpp:78] Creating layer scale2
I0113 22:40:27.907456 19390 net.cpp:84] Creating Layer scale2
I0113 22:40:27.907469 19390 net.cpp:406] scale2 <- conv2
I0113 22:40:27.907517 19390 net.cpp:367] scale2 -> conv2 (in-place)
I0113 22:40:27.907613 19390 layer_factory.hpp:78] Creating layer scale2
I0113 22:40:27.907811 19390 net.cpp:122] Setting up scale2
I0113 22:40:27.907824 19390 net.cpp:129] Top shape: 256 256 27 27 (47775744)
I0113 22:40:27.907830 19390 net.cpp:137] Memory required for data: 1988595712
I0113 22:40:27.907846 19390 layer_factory.hpp:78] Creating layer relu2
I0113 22:40:27.907862 19390 net.cpp:84] Creating Layer relu2
I0113 22:40:27.907869 19390 net.cpp:406] relu2 <- conv2
I0113 22:40:27.907883 19390 net.cpp:367] relu2 -> conv2 (in-place)
I0113 22:40:27.908542 19390 net.cpp:122] Setting up relu2
I0113 22:40:27.908557 19390 net.cpp:129] Top shape: 256 256 27 27 (47775744)
I0113 22:40:27.908560 19390 net.cpp:137] Memory required for data: 2179698688
I0113 22:40:27.908581 19390 layer_factory.hpp:78] Creating layer pool2
I0113 22:40:27.908615 19390 net.cpp:84] Creating Layer pool2
I0113 22:40:27.908625 19390 net.cpp:406] pool2 <- conv2
I0113 22:40:27.908646 19390 net.cpp:380] pool2 -> pool2
I0113 22:40:27.908732 19390 net.cpp:122] Setting up pool2
I0113 22:40:27.908748 19390 net.cpp:129] Top shape: 256 256 13 13 (11075584)
I0113 22:40:27.908752 19390 net.cpp:137] Memory required for data: 2224001024
I0113 22:40:27.908758 19390 layer_factory.hpp:78] Creating layer conv3
I0113 22:40:27.908799 19390 net.cpp:84] Creating Layer conv3
I0113 22:40:27.908809 19390 net.cpp:406] conv3 <- pool2
I0113 22:40:27.908833 19390 net.cpp:380] conv3 -> conv3
I0113 22:40:27.991086 19390 cudnn_binary_conv_layer.cpp:194] Reallocating workspace storage: 18874368
I0113 22:40:27.991541 19390 net.cpp:122] Setting up conv3
I0113 22:40:27.991569 19390 net.cpp:129] Top shape: 256 384 13 13 (16613376)
I0113 22:40:27.991575 19390 net.cpp:137] Memory required for data: 2290454528
I0113 22:40:27.991612 19390 layer_factory.hpp:78] Creating layer bn3
I0113 22:40:27.991655 19390 net.cpp:84] Creating Layer bn3
I0113 22:40:27.991672 19390 net.cpp:406] bn3 <- conv3
I0113 22:40:27.991705 19390 net.cpp:367] bn3 -> conv3 (in-place)
I0113 22:40:27.991961 19390 net.cpp:122] Setting up bn3
I0113 22:40:27.991972 19390 net.cpp:129] Top shape: 256 384 13 13 (16613376)
I0113 22:40:27.991977 19390 net.cpp:137] Memory required for data: 2356908032
I0113 22:40:27.992002 19390 layer_factory.hpp:78] Creating layer scale3
I0113 22:40:27.992039 19390 net.cpp:84] Creating Layer scale3
I0113 22:40:27.992050 19390 net.cpp:406] scale3 <- conv3
I0113 22:40:27.992069 19390 net.cpp:367] scale3 -> conv3 (in-place)
I0113 22:40:27.992141 19390 layer_factory.hpp:78] Creating layer scale3
I0113 22:40:27.992322 19390 net.cpp:122] Setting up scale3
I0113 22:40:27.992336 19390 net.cpp:129] Top shape: 256 384 13 13 (16613376)
I0113 22:40:27.992347 19390 net.cpp:137] Memory required for data: 2423361536
I0113 22:40:27.992389 19390 layer_factory.hpp:78] Creating layer relu3
I0113 22:40:27.992410 19390 net.cpp:84] Creating Layer relu3
I0113 22:40:27.992419 19390 net.cpp:406] relu3 <- conv3
I0113 22:40:27.992441 19390 net.cpp:367] relu3 -> conv3 (in-place)
I0113 22:40:27.993373 19390 net.cpp:122] Setting up relu3
I0113 22:40:27.993391 19390 net.cpp:129] Top shape: 256 384 13 13 (16613376)
I0113 22:40:27.993394 19390 net.cpp:137] Memory required for data: 2489815040
I0113 22:40:27.993402 19390 layer_factory.hpp:78] Creating layer conv4
I0113 22:40:27.993458 19390 net.cpp:84] Creating Layer conv4
I0113 22:40:27.993470 19390 net.cpp:406] conv4 <- conv3
I0113 22:40:27.993495 19390 net.cpp:380] conv4 -> conv4
I0113 22:40:28.433923 19390 cudnn_binary_conv_layer.cpp:194] Reallocating workspace storage: 9840
I0113 22:40:28.434016 19390 net.cpp:122] Setting up conv4
I0113 22:40:28.434051 19390 net.cpp:129] Top shape: 256 384 13 13 (16613376)
I0113 22:40:28.434057 19390 net.cpp:137] Memory required for data: 2556268544
I0113 22:40:28.434110 19390 layer_factory.hpp:78] Creating layer bn4
I0113 22:40:28.434162 19390 net.cpp:84] Creating Layer bn4
I0113 22:40:28.434182 19390 net.cpp:406] bn4 <- conv4
I0113 22:40:28.434231 19390 net.cpp:367] bn4 -> conv4 (in-place)
I0113 22:40:28.434670 19390 net.cpp:122] Setting up bn4
I0113 22:40:28.434691 19390 net.cpp:129] Top shape: 256 384 13 13 (16613376)
I0113 22:40:28.434697 19390 net.cpp:137] Memory required for data: 2622722048
I0113 22:40:28.434736 19390 layer_factory.hpp:78] Creating layer scale4
I0113 22:40:28.434795 19390 net.cpp:84] Creating Layer scale4
I0113 22:40:28.434808 19390 net.cpp:406] scale4 <- conv4
I0113 22:40:28.434834 19390 net.cpp:367] scale4 -> conv4 (in-place)
I0113 22:40:28.434942 19390 layer_factory.hpp:78] Creating layer scale4
I0113 22:40:28.435330 19390 net.cpp:122] Setting up scale4
I0113 22:40:28.435358 19390 net.cpp:129] Top shape: 256 384 13 13 (16613376)
I0113 22:40:28.435364 19390 net.cpp:137] Memory required for data: 2689175552
I0113 22:40:28.435401 19390 layer_factory.hpp:78] Creating layer relu4
I0113 22:40:28.435426 19390 net.cpp:84] Creating Layer relu4
I0113 22:40:28.435436 19390 net.cpp:406] relu4 <- conv4
I0113 22:40:28.435457 19390 net.cpp:367] relu4 -> conv4 (in-place)
I0113 22:40:28.436998 19390 net.cpp:122] Setting up relu4
I0113 22:40:28.437036 19390 net.cpp:129] Top shape: 256 384 13 13 (16613376)
I0113 22:40:28.437041 19390 net.cpp:137] Memory required for data: 2755629056
I0113 22:40:28.437053 19390 layer_factory.hpp:78] Creating layer conv5
I0113 22:40:28.437125 19390 net.cpp:84] Creating Layer conv5
I0113 22:40:28.437141 19390 net.cpp:406] conv5 <- conv4
I0113 22:40:28.437177 19390 net.cpp:380] conv5 -> conv5
I0113 22:40:28.636400 19390 cudnn_binary_conv_layer.cpp:194] Reallocating workspace storage: 18874368
I0113 22:40:28.637099 19390 net.cpp:122] Setting up conv5
I0113 22:40:28.637159 19390 net.cpp:129] Top shape: 256 256 13 13 (11075584)
I0113 22:40:28.637174 19390 net.cpp:137] Memory required for data: 2799931392
I0113 22:40:28.637254 19390 layer_factory.hpp:78] Creating layer bn5
I0113 22:40:28.637364 19390 net.cpp:84] Creating Layer bn5
I0113 22:40:28.637400 19390 net.cpp:406] bn5 <- conv5
I0113 22:40:28.637482 19390 net.cpp:367] bn5 -> conv5 (in-place)
I0113 22:40:28.638026 19390 net.cpp:122] Setting up bn5
I0113 22:40:28.638047 19390 net.cpp:129] Top shape: 256 256 13 13 (11075584)
I0113 22:40:28.638056 19390 net.cpp:137] Memory required for data: 2844233728
I0113 22:40:28.638115 19390 layer_factory.hpp:78] Creating layer scale5
I0113 22:40:28.638172 19390 net.cpp:84] Creating Layer scale5
I0113 22:40:28.638191 19390 net.cpp:406] scale5 <- conv5
I0113 22:40:28.638231 19390 net.cpp:367] scale5 -> conv5 (in-place)
I0113 22:40:28.638392 19390 layer_factory.hpp:78] Creating layer scale5
I0113 22:40:28.638756 19390 net.cpp:122] Setting up scale5
I0113 22:40:28.638782 19390 net.cpp:129] Top shape: 256 256 13 13 (11075584)
I0113 22:40:28.638790 19390 net.cpp:137] Memory required for data: 2888536064
I0113 22:40:28.638845 19390 layer_factory.hpp:78] Creating layer relu5
I0113 22:40:28.638881 19390 net.cpp:84] Creating Layer relu5
I0113 22:40:28.638900 19390 net.cpp:406] relu5 <- conv5
I0113 22:40:28.638936 19390 net.cpp:367] relu5 -> conv5 (in-place)
I0113 22:40:28.640138 19390 net.cpp:122] Setting up relu5
I0113 22:40:28.640172 19390 net.cpp:129] Top shape: 256 256 13 13 (11075584)
I0113 22:40:28.640177 19390 net.cpp:137] Memory required for data: 2932838400
I0113 22:40:28.640190 19390 layer_factory.hpp:78] Creating layer pool5
I0113 22:40:28.640254 19390 net.cpp:84] Creating Layer pool5
I0113 22:40:28.640267 19390 net.cpp:406] pool5 <- conv5
I0113 22:40:28.640301 19390 net.cpp:380] pool5 -> pool5
I0113 22:40:28.640451 19390 net.cpp:122] Setting up pool5
I0113 22:40:28.640475 19390 net.cpp:129] Top shape: 256 256 6 6 (2359296)
I0113 22:40:28.640482 19390 net.cpp:137] Memory required for data: 2942275584
I0113 22:40:28.640491 19390 layer_factory.hpp:78] Creating layer fc6
I0113 22:40:28.640552 19390 net.cpp:84] Creating Layer fc6
I0113 22:40:28.640566 19390 net.cpp:406] fc6 <- pool5
I0113 22:40:28.640597 19390 net.cpp:380] fc6 -> fc6
I0113 22:40:32.622303 19390 net.cpp:122] Setting up fc6
I0113 22:40:32.622406 19390 net.cpp:129] Top shape: 256 4096 (1048576)
I0113 22:40:32.622464 19390 net.cpp:137] Memory required for data: 2946469888
I0113 22:40:32.622524 19390 layer_factory.hpp:78] Creating layer bn6
I0113 22:40:32.622592 19390 net.cpp:84] Creating Layer bn6
I0113 22:40:32.622622 19390 net.cpp:406] bn6 <- fc6
I0113 22:40:32.622669 19390 net.cpp:367] bn6 -> fc6 (in-place)
I0113 22:40:32.623116 19390 net.cpp:122] Setting up bn6
I0113 22:40:32.623132 19390 net.cpp:129] Top shape: 256 4096 (1048576)
I0113 22:40:32.623138 19390 net.cpp:137] Memory required for data: 2950664192
I0113 22:40:32.623201 19390 layer_factory.hpp:78] Creating layer scale6
I0113 22:40:32.623244 19390 net.cpp:84] Creating Layer scale6
I0113 22:40:32.623255 19390 net.cpp:406] scale6 <- fc6
I0113 22:40:32.623280 19390 net.cpp:367] scale6 -> fc6 (in-place)
I0113 22:40:32.623389 19390 layer_factory.hpp:78] Creating layer scale6
I0113 22:40:32.623638 19390 net.cpp:122] Setting up scale6
I0113 22:40:32.623654 19390 net.cpp:129] Top shape: 256 4096 (1048576)
I0113 22:40:32.623661 19390 net.cpp:137] Memory required for data: 2954858496
I0113 22:40:32.623679 19390 layer_factory.hpp:78] Creating layer relu6
I0113 22:40:32.623700 19390 net.cpp:84] Creating Layer relu6
I0113 22:40:32.623711 19390 net.cpp:406] relu6 <- fc6
I0113 22:40:32.623730 19390 net.cpp:367] relu6 -> fc6 (in-place)
I0113 22:40:32.625329 19390 net.cpp:122] Setting up relu6
I0113 22:40:32.625353 19390 net.cpp:129] Top shape: 256 4096 (1048576)
I0113 22:40:32.625360 19390 net.cpp:137] Memory required for data: 2959052800
I0113 22:40:32.625368 19390 layer_factory.hpp:78] Creating layer drop6
I0113 22:40:32.625401 19390 net.cpp:84] Creating Layer drop6
I0113 22:40:32.625413 19390 net.cpp:406] drop6 <- fc6
I0113 22:40:32.625445 19390 net.cpp:367] drop6 -> fc6 (in-place)
I0113 22:40:32.625514 19390 net.cpp:122] Setting up drop6
I0113 22:40:32.625527 19390 net.cpp:129] Top shape: 256 4096 (1048576)
I0113 22:40:32.625532 19390 net.cpp:137] Memory required for data: 2963247104
I0113 22:40:32.625540 19390 layer_factory.hpp:78] Creating layer fc7
I0113 22:40:32.625579 19390 net.cpp:84] Creating Layer fc7
I0113 22:40:32.625591 19390 net.cpp:406] fc7 <- fc6
I0113 22:40:32.625622 19390 net.cpp:380] fc7 -> fc7
I0113 22:40:34.250483 19390 net.cpp:122] Setting up fc7
I0113 22:40:34.250649 19390 net.cpp:129] Top shape: 256 4096 (1048576)
I0113 22:40:34.250685 19390 net.cpp:137] Memory required for data: 2967441408
I0113 22:40:34.250756 19390 layer_factory.hpp:78] Creating layer bn7
I0113 22:40:34.250859 19390 net.cpp:84] Creating Layer bn7
I0113 22:40:34.250910 19390 net.cpp:406] bn7 <- fc7
I0113 22:40:34.250983 19390 net.cpp:367] bn7 -> fc7 (in-place)
I0113 22:40:34.251411 19390 net.cpp:122] Setting up bn7
I0113 22:40:34.251461 19390 net.cpp:129] Top shape: 256 4096 (1048576)
I0113 22:40:34.251492 19390 net.cpp:137] Memory required for data: 2971635712
I0113 22:40:34.251549 19390 layer_factory.hpp:78] Creating layer scale7
I0113 22:40:34.251629 19390 net.cpp:84] Creating Layer scale7
I0113 22:40:34.251672 19390 net.cpp:406] scale7 <- fc7
I0113 22:40:34.251722 19390 net.cpp:367] scale7 -> fc7 (in-place)
I0113 22:40:34.251868 19390 layer_factory.hpp:78] Creating layer scale7
I0113 22:40:34.252171 19390 net.cpp:122] Setting up scale7
I0113 22:40:34.252220 19390 net.cpp:129] Top shape: 256 4096 (1048576)
I0113 22:40:34.252252 19390 net.cpp:137] Memory required for data: 2975830016
I0113 22:40:34.252300 19390 layer_factory.hpp:78] Creating layer relu7
I0113 22:40:34.252359 19390 net.cpp:84] Creating Layer relu7
I0113 22:40:34.252400 19390 net.cpp:406] relu7 <- fc7
I0113 22:40:34.252447 19390 net.cpp:367] relu7 -> fc7 (in-place)
I0113 22:40:34.253443 19390 net.cpp:122] Setting up relu7
I0113 22:40:34.253496 19390 net.cpp:129] Top shape: 256 4096 (1048576)
I0113 22:40:34.253528 19390 net.cpp:137] Memory required for data: 2980024320
I0113 22:40:34.253562 19390 layer_factory.hpp:78] Creating layer drop7
I0113 22:40:34.253625 19390 net.cpp:84] Creating Layer drop7
I0113 22:40:34.253686 19390 net.cpp:406] drop7 <- fc7
I0113 22:40:34.253738 19390 net.cpp:367] drop7 -> fc7 (in-place)
I0113 22:40:34.253859 19390 net.cpp:122] Setting up drop7
I0113 22:40:34.253903 19390 net.cpp:129] Top shape: 256 4096 (1048576)
I0113 22:40:34.253934 19390 net.cpp:137] Memory required for data: 2984218624
I0113 22:40:34.253968 19390 layer_factory.hpp:78] Creating layer fc8
I0113 22:40:34.254045 19390 net.cpp:84] Creating Layer fc8
I0113 22:40:34.254086 19390 net.cpp:406] fc8 <- fc7
I0113 22:40:34.254139 19390 net.cpp:380] fc8 -> fc8
I0113 22:40:34.823458 19390 net.cpp:122] Setting up fc8
I0113 22:40:34.823509 19390 net.cpp:129] Top shape: 256 1000 (256000)
I0113 22:40:34.823516 19390 net.cpp:137] Memory required for data: 2985242624
I0113 22:40:34.823554 19390 layer_factory.hpp:78] Creating layer fc8_fc8_0_split
I0113 22:40:34.823597 19390 net.cpp:84] Creating Layer fc8_fc8_0_split
I0113 22:40:34.823614 19390 net.cpp:406] fc8_fc8_0_split <- fc8
I0113 22:40:34.823645 19390 net.cpp:380] fc8_fc8_0_split -> fc8_fc8_0_split_0
I0113 22:40:34.823685 19390 net.cpp:380] fc8_fc8_0_split -> fc8_fc8_0_split_1
I0113 22:40:34.823701 19390 net.cpp:380] fc8_fc8_0_split -> fc8_fc8_0_split_2
I0113 22:40:34.823776 19390 net.cpp:122] Setting up fc8_fc8_0_split
I0113 22:40:34.823789 19390 net.cpp:129] Top shape: 256 1000 (256000)
I0113 22:40:34.823796 19390 net.cpp:129] Top shape: 256 1000 (256000)
I0113 22:40:34.823799 19390 net.cpp:129] Top shape: 256 1000 (256000)
I0113 22:40:34.823804 19390 net.cpp:137] Memory required for data: 2988314624
I0113 22:40:34.823810 19390 layer_factory.hpp:78] Creating layer loss
I0113 22:40:34.823839 19390 net.cpp:84] Creating Layer loss
I0113 22:40:34.823848 19390 net.cpp:406] loss <- fc8_fc8_0_split_0
I0113 22:40:34.823861 19390 net.cpp:406] loss <- label_data_1_split_0
I0113 22:40:34.823874 19390 net.cpp:380] loss -> loss
…
I0113 22:40:34.829099 19390 net.cpp:294] The NetState phase (1) differed from the phase (0) specified by a rule in layer data
I0113 22:40:34.829336 19390 net.cpp:51] Initializing net from parameters: 
name: "AlexNet-BN"
state {
  phase: TEST
}
layer {
  name: "data"
  type: "Data"
  top: "data"
  top: "label"
  include {
    phase: TEST
  }
  transform_param {
    mirror: false
    crop_size: 224
    mean_value: 104
    mean_value: 117
    mean_value: 123
  }
  data_param {
    source: "/home/zhengzhe/Data/imagenet_shrt256/ilsvrc12_val_lmdb"
    batch_size: 50
    backend: LMDB
  }
}
layer {
  name: "conv1"
  type: "Convolution"
  bottom: "data"
  top: "conv1"
  param {
    lr_mult: 1
    decay_mult: 1
  }
  convolution_param {
    num_output: 96
    bias_term: false
    pad: 2
    kernel_size: 11
    stride: 4
    weight_filler {
      type: "msra"
    }
  }
}
layer {
  name: "bn1"
  type: "BatchNorm"
  bottom: "conv1"
  top: "conv1"
}
layer {
  name: "scale1"
  type: "Scale"
  bottom: "conv1"
  top: "conv1"
  scale_param {
    bias_term: true
  }
}
layer {
  name: "relu1"
  type: "ReLU"
  bottom: "conv1"
  top: "conv1"
}
layer {
  name: "pool1"
  type: "Pooling"
  bottom: "conv1"
  top: "pool1"
  pooling_param {
    pool: MAX
    kernel_size: 3
    stride: 2
  }
}
layer {
  name: "conv2"
  type: "BinaryConvolution"
  bottom: "pool1"
  top: "conv2"
  param {
    lr_mult: 1
    decay_mult: 1
  }
  convolution_param {
    num_output: 256
    bias_term: false
    pad: 2
    kernel_size: 5
    weight_filler {
      type: "msra"
    }
  }
  debug_param {
    xnorno_grad: false
  }
}
layer {
  name: "bn2"
  type: "BatchNorm"
  bottom: "conv2"
  top: "conv2"
}
layer {
  name: "scale2"
  type: "Scale"
  bottom: "conv2"
  top: "conv2"
  scale_param {
    bias_term: true
  }
}
layer {
  name: "relu2"
  type: "ReLU"
  bottom: "conv2"
  top: "conv2"
}
layer {
  name: "pool2"
  type: "Pooling"
  bottom: "conv2"
  top: "pool2"
  pooling_param {
    pool: MAX
    kernel_size: 3
    stride: 2
  }
}
layer {
  name: "conv3"
  type: "BinaryConvolution"
  bottom: "pool2"
  top: "conv3"
  param {
    lr_mult: 1
    decay_mult: 1
  }
  convolution_param {
    num_output: 384
    bias_term: false
    pad: 1
    kernel_size: 3
    weight_filler {
      type: "msra"
    }
  }
  debug_param {
    xnorno_grad: false
  }
}
layer {
  name: "bn3"
  type: "BatchNorm"
  bottom: "conv3"
  top: "conv3"
}
layer {
  name: "scale3"
  type: "Scale"
  bottom: "conv3"
  top: "conv3"
  scale_param {
    bias_term: true
  }
}
layer {
  name: "relu3"
  type: "ReLU"
  bottom: "conv3"
  top: "conv3"
}
layer {
  name: "conv4"
  type: "BinaryConvolution"
  bottom: "conv3"
  top: "conv4"
  param {
    lr_mult: 1
    decay_mult: 1
  }
  convolution_param {
    num_output: 384
    bias_term: false
    pad: 1
    kernel_size: 3
    weight_filler {
      type: "msra"
    }
  }
  debug_param {
    xnorno_grad: false
  }
}
layer {
  name: "bn4"
  type: "BatchNorm"
  bottom: "conv4"
  top: "conv4"
}
layer {
  name: "scale4"
  type: "Scale"
  bottom: "conv4"
  top: "conv4"
  scale_param {
    bias_term: true
  }
}
layer {
  name: "relu4"
  type: "ReLU"
  bottom: "conv4"
  top: "conv4"
}
layer {
  name: "conv5"
  type: "BinaryConvolution"
  bottom: "conv4"
  top: "conv5"
  param {
    lr_mult: 1
    decay_mult: 1
  }
  convolution_param {
    num_output: 256
    bias_term: false
    pad: 1
    kernel_size: 3
    weight_filler {
      type: "msra"
    }
  }
  debug_param {
    xnorno_grad: false
  }
}
layer {
  name: "bn5"
  type: "BatchNorm"
  bottom: "conv5"
  top: "conv5"
}
layer {
  name: "scale5"
  type: "Scale"
  bottom: "conv5"
  top: "conv5"
  scale_param {
    bias_term: true
  }
}
layer {
  name: "relu5"
  type: "ReLU"
  bottom: "conv5"
  top: "conv5"
}
layer {
  name: "pool5"
  type: "Pooling"
  bottom: "conv5"
  top: "pool5"
  pooling_param {
    pool: MAX
    kernel_size: 3
    stride: 2
  }
}
layer {
  name: "fc6"
  type: "BinaryInnerProduct"
  bottom: "pool5"
  top: "fc6"
  param {
    lr_mult: 1
    decay_mult: 1
  }
  inner_product_param {
    num_output: 4096
    bias_term: false
    weight_filler {
      type: "msra"
    }
  }
  debug_param {
    xnorno_grad: false
  }
}
layer {
  name: "bn6"
  type: "BatchNorm"
  bottom: "fc6"
  top: "fc6"
}
layer {
  name: "scale6"
  type: "Scale"
  bottom: "fc6"
  top: "fc6"
  scale_param {
    bias_term: true
  }
}
layer {
  name: "relu6"
  type: "ReLU"
  bottom: "fc6"
  top: "fc6"
}
layer {
  name: "drop6"
  type: "Dropout"
  bottom: "fc6"
  top: "fc6"
  dropout_param {
    dropout_ratio: 0.1
  }
}
layer {
  name: "fc7"
  type: "BinaryInnerProduct"
  bottom: "fc6"
  top: "fc7"
  param {
    lr_mult: 1
    decay_mult: 1
  }
  inner_product_param {
    num_output: 4096
    bias_term: false
    weight_filler {
      type: "msra"
    }
  }
  debug_param {
    xnorno_grad: false
  }
}
layer {
  name: "bn7"
  type: "BatchNorm"
  bottom: "fc7"
  top: "fc7"
}
layer {
  name: "scale7"
  type: "Scale"
  bottom: "fc7"
  top: "fc7"
  scale_param {
    bias_term: true
  }
}
layer {
  name: "relu7"
  type: "ReLU"
  bottom: "fc7"
  top: "fc7"
}
layer {
  name: "drop7"
  type: "Dropout"
  bottom: "fc7"
  top: "fc7"
  dropout_param {
    dropout_ratio: 0.1
  }
}
layer {
  name: "fc8"
  type: "InnerProduct"
  bottom: "fc7"
  top: "fc8"
  param {
    lr_mult: 1
    decay_mult: 1
  }
  param {
    lr_mult: 2
    decay_mult: 0
  }
  inner_product_param {
    num_output: 1000
    weight_filler {
      type: "msra"
    }
    bias_filler {
      type: "constant"
      value: 0
    }
  }
}
layer {
  name: "loss"
  type: "SoftmaxWithLoss"
  bottom: "fc8"
  bottom: "label"
  top: "loss"
}
layer {
  name: "accuracy"
  type: "Accuracy"
  bottom: "fc8"
  bottom: "label"
  top: "accuracy"
}
layer {
  name: "accuracy_5"
  type: "Accuracy"
  bottom: "fc8"
  bottom: "label"
  top: "accuracy_5"
  accuracy_param {
    top_k: 5
  }
}
I0113 22:40:34.829761 19390 layer_factory.hpp:78] Creating layer data
I0113 22:40:34.829885 19390 db_lmdb.cpp:35] Opened lmdb /home/zhengzhe/Data/imagenet_shrt256/ilsvrc12_val_lmdb
I0113 22:40:34.829926 19390 net.cpp:84] Creating Layer data
I0113 22:40:34.829943 19390 net.cpp:380] data -> data
I0113 22:40:34.829983 19390 net.cpp:380] data -> label
I0113 22:40:34.830634 19390 data_layer.cpp:45] output data size: 50,3,224,224
I0113 22:40:34.953755 19390 base_data_layer.cpp:72] Initializing prefetch
I0113 22:40:35.435470 19390 base_data_layer.cpp:75] Prefetch initialized.
I0113 22:40:35.435509 19390 net.cpp:122] Setting up data
I0113 22:40:35.435534 19390 net.cpp:129] Top shape: 50 3 224 224 (7526400)
I0113 22:40:35.435541 19390 net.cpp:129] Top shape: 50 (50)
I0113 22:40:35.435544 19390 net.cpp:137] Memory required for data: 30105800
I0113 22:40:35.435572 19390 layer_factory.hpp:78] Creating layer label_data_1_split
I0113 22:40:35.435622 19390 net.cpp:84] Creating Layer label_data_1_split
I0113 22:40:35.435638 19390 net.cpp:406] label_data_1_split <- label
I0113 22:40:35.435668 19390 net.cpp:380] label_data_1_split -> label_data_1_split_0
I0113 22:40:35.435708 19390 net.cpp:380] label_data_1_split -> label_data_1_split_1
I0113 22:40:35.435724 19390 net.cpp:380] label_data_1_split -> label_data_1_split_2
I0113 22:40:35.435905 19390 net.cpp:122] Setting up label_data_1_split
I0113 22:40:35.435920 19390 net.cpp:129] Top shape: 50 (50)
I0113 22:40:35.435926 19390 net.cpp:129] Top shape: 50 (50)
I0113 22:40:35.435932 19390 net.cpp:129] Top shape: 50 (50)
I0113 22:40:35.435935 19390 net.cpp:137] Memory required for data: 30106400
I0113 22:40:35.435941 19390 layer_factory.hpp:78] Creating layer conv1
I0113 22:40:35.435984 19390 net.cpp:84] Creating Layer conv1
I0113 22:40:35.435993 19390 net.cpp:406] conv1 <- data
I0113 22:40:35.436015 19390 net.cpp:380] conv1 -> conv1
I0113 22:40:35.444046 19390 cudnn_conv_layer.cpp:194] Reallocating workspace storage: 127416
I0113 22:40:35.444149 19390 net.cpp:122] Setting up conv1
I0113 22:40:35.444186 19390 net.cpp:129] Top shape: 50 96 55 55 (14520000)
I0113 22:40:35.444207 19390 net.cpp:137] Memory required for data: 88186400
I0113 22:40:35.444268 19390 layer_factory.hpp:78] Creating layer bn1
I0113 22:40:35.444316 19390 net.cpp:84] Creating Layer bn1
I0113 22:40:35.444348 19390 net.cpp:406] bn1 <- conv1
I0113 22:40:35.444388 19390 net.cpp:367] bn1 -> conv1 (in-place)
I0113 22:40:35.444828 19390 net.cpp:122] Setting up bn1
I0113 22:40:35.444864 19390 net.cpp:129] Top shape: 50 96 55 55 (14520000)
I0113 22:40:35.444882 19390 net.cpp:137] Memory required for data: 146266400
I0113 22:40:35.444944 19390 layer_factory.hpp:78] Creating layer scale1
I0113 22:40:35.445001 19390 net.cpp:84] Creating Layer scale1
I0113 22:40:35.445029 19390 net.cpp:406] scale1 <- conv1
I0113 22:40:35.445067 19390 net.cpp:367] scale1 -> conv1 (in-place)
I0113 22:40:35.445197 19390 layer_factory.hpp:78] Creating layer scale1
I0113 22:40:35.445533 19390 net.cpp:122] Setting up scale1
I0113 22:40:35.445572 19390 net.cpp:129] Top shape: 50 96 55 55 (14520000)
I0113 22:40:35.445591 19390 net.cpp:137] Memory required for data: 204346400
I0113 22:40:35.445639 19390 layer_factory.hpp:78] Creating layer relu1
I0113 22:40:35.445684 19390 net.cpp:84] Creating Layer relu1
I0113 22:40:35.445711 19390 net.cpp:406] relu1 <- conv1
I0113 22:40:35.445747 19390 net.cpp:367] relu1 -> conv1 (in-place)
I0113 22:40:35.446645 19390 net.cpp:122] Setting up relu1
I0113 22:40:35.446686 19390 net.cpp:129] Top shape: 50 96 55 55 (14520000)
I0113 22:40:35.446704 19390 net.cpp:137] Memory required for data: 262426400
I0113 22:40:35.446748 19390 layer_factory.hpp:78] Creating layer pool1
I0113 22:40:35.446796 19390 net.cpp:84] Creating Layer pool1
I0113 22:40:35.446842 19390 net.cpp:406] pool1 <- conv1
I0113 22:40:35.446884 19390 net.cpp:380] pool1 -> pool1
I0113 22:40:35.447010 19390 net.cpp:122] Setting up pool1
I0113 22:40:35.447048 19390 net.cpp:129] Top shape: 50 96 27 27 (3499200)
I0113 22:40:35.447068 19390 net.cpp:137] Memory required for data: 276423200
I0113 22:40:35.447091 19390 layer_factory.hpp:78] Creating layer conv2
I0113 22:40:35.447149 19390 net.cpp:84] Creating Layer conv2
I0113 22:40:35.447180 19390 net.cpp:406] conv2 <- pool1
I0113 22:40:35.447228 19390 net.cpp:380] conv2 -> conv2
I0113 22:40:35.529206 19390 cudnn_binary_conv_layer.cpp:194] Reallocating workspace storage: 19668
I0113 22:40:35.529373 19390 net.cpp:122] Setting up conv2
I0113 22:40:35.529430 19390 net.cpp:129] Top shape: 50 256 27 27 (9331200)
I0113 22:40:35.529464 19390 net.cpp:137] Memory required for data: 313748000
I0113 22:40:35.529528 19390 layer_factory.hpp:78] Creating layer bn2
I0113 22:40:35.529618 19390 net.cpp:84] Creating Layer bn2
I0113 22:40:35.529665 19390 net.cpp:406] bn2 <- conv2
I0113 22:40:35.529727 19390 net.cpp:367] bn2 -> conv2 (in-place)
I0113 22:40:35.530159 19390 net.cpp:122] Setting up bn2
I0113 22:40:35.530210 19390 net.cpp:129] Top shape: 50 256 27 27 (9331200)
I0113 22:40:35.530243 19390 net.cpp:137] Memory required for data: 351072800
I0113 22:40:35.530323 19390 layer_factory.hpp:78] Creating layer scale2
I0113 22:40:35.530390 19390 net.cpp:84] Creating Layer scale2
I0113 22:40:35.530431 19390 net.cpp:406] scale2 <- conv2
I0113 22:40:35.530480 19390 net.cpp:367] scale2 -> conv2 (in-place)
I0113 22:40:35.530630 19390 layer_factory.hpp:78] Creating layer scale2
I0113 22:40:35.530952 19390 net.cpp:122] Setting up scale2
I0113 22:40:35.531004 19390 net.cpp:129] Top shape: 50 256 27 27 (9331200)
I0113 22:40:35.531038 19390 net.cpp:137] Memory required for data: 388397600
I0113 22:40:35.531086 19390 layer_factory.hpp:78] Creating layer relu2
I0113 22:40:35.531138 19390 net.cpp:84] Creating Layer relu2
I0113 22:40:35.531177 19390 net.cpp:406] relu2 <- conv2
I0113 22:40:35.531224 19390 net.cpp:367] relu2 -> conv2 (in-place)
I0113 22:40:35.534119 19390 net.cpp:122] Setting up relu2
I0113 22:40:35.534181 19390 net.cpp:129] Top shape: 50 256 27 27 (9331200)
I0113 22:40:35.534214 19390 net.cpp:137] Memory required for data: 425722400
I0113 22:40:35.534250 19390 layer_factory.hpp:78] Creating layer pool2
I0113 22:40:35.534310 19390 net.cpp:84] Creating Layer pool2
I0113 22:40:35.534355 19390 net.cpp:406] pool2 <- conv2
I0113 22:40:35.534418 19390 net.cpp:380] pool2 -> pool2
I0113 22:40:35.534565 19390 net.cpp:122] Setting up pool2
I0113 22:40:35.534621 19390 net.cpp:129] Top shape: 50 256 13 13 (2163200)
I0113 22:40:35.534654 19390 net.cpp:137] Memory required for data: 434375200
I0113 22:40:35.534689 19390 layer_factory.hpp:78] Creating layer conv3
I0113 22:40:35.534763 19390 net.cpp:84] Creating Layer conv3
I0113 22:40:35.534806 19390 net.cpp:406] conv3 <- pool2
I0113 22:40:35.534863 19390 net.cpp:380] conv3 -> conv3
I0113 22:40:35.681612 19390 cudnn_binary_conv_layer.cpp:194] Reallocating workspace storage: 18874368
I0113 22:40:35.682581 19390 net.cpp:122] Setting up conv3
I0113 22:40:35.682651 19390 net.cpp:129] Top shape: 50 384 13 13 (3244800)
I0113 22:40:35.682685 19390 net.cpp:137] Memory required for data: 447354400
I0113 22:40:35.682757 19390 layer_factory.hpp:78] Creating layer bn3
I0113 22:40:35.682832 19390 net.cpp:84] Creating Layer bn3
I0113 22:40:35.682879 19390 net.cpp:406] bn3 <- conv3
I0113 22:40:35.682951 19390 net.cpp:367] bn3 -> conv3 (in-place)
I0113 22:40:35.683390 19390 net.cpp:122] Setting up bn3
I0113 22:40:35.683440 19390 net.cpp:129] Top shape: 50 384 13 13 (3244800)
I0113 22:40:35.683472 19390 net.cpp:137] Memory required for data: 460333600
I0113 22:40:35.683531 19390 layer_factory.hpp:78] Creating layer scale3
I0113 22:40:35.683598 19390 net.cpp:84] Creating Layer scale3
I0113 22:40:35.683637 19390 net.cpp:406] scale3 <- conv3
I0113 22:40:35.683708 19390 net.cpp:367] scale3 -> conv3 (in-place)
I0113 22:40:35.683852 19390 layer_factory.hpp:78] Creating layer scale3
I0113 22:40:35.684172 19390 net.cpp:122] Setting up scale3
I0113 22:40:35.684221 19390 net.cpp:129] Top shape: 50 384 13 13 (3244800)
I0113 22:40:35.684253 19390 net.cpp:137] Memory required for data: 473312800
I0113 22:40:35.684324 19390 layer_factory.hpp:78] Creating layer relu3
I0113 22:40:35.684384 19390 net.cpp:84] Creating Layer relu3
I0113 22:40:35.684425 19390 net.cpp:406] relu3 <- conv3
I0113 22:40:35.684473 19390 net.cpp:367] relu3 -> conv3 (in-place)
I0113 22:40:35.685820 19390 net.cpp:122] Setting up relu3
I0113 22:40:35.685879 19390 net.cpp:129] Top shape: 50 384 13 13 (3244800)
I0113 22:40:35.685912 19390 net.cpp:137] Memory required for data: 486292000
I0113 22:40:35.685947 19390 layer_factory.hpp:78] Creating layer conv4
I0113 22:40:35.686033 19390 net.cpp:84] Creating Layer conv4
I0113 22:40:35.686079 19390 net.cpp:406] conv4 <- conv3
I0113 22:40:35.686136 19390 net.cpp:380] conv4 -> conv4
I0113 22:40:35.819685 19390 cudnn_binary_conv_layer.cpp:194] Reallocating workspace storage: 9840
I0113 22:40:35.819746 19390 net.cpp:122] Setting up conv4
I0113 22:40:35.819768 19390 net.cpp:129] Top shape: 50 384 13 13 (3244800)
I0113 22:40:35.819774 19390 net.cpp:137] Memory required for data: 499271200
I0113 22:40:35.819811 19390 layer_factory.hpp:78] Creating layer bn4
I0113 22:40:35.819851 19390 net.cpp:84] Creating Layer bn4
I0113 22:40:35.819866 19390 net.cpp:406] bn4 <- conv4
I0113 22:40:35.819898 19390 net.cpp:367] bn4 -> conv4 (in-place)
I0113 22:40:35.820180 19390 net.cpp:122] Setting up bn4
I0113 22:40:35.820192 19390 net.cpp:129] Top shape: 50 384 13 13 (3244800)
I0113 22:40:35.820195 19390 net.cpp:137] Memory required for data: 512250400
I0113 22:40:35.820219 19390 layer_factory.hpp:78] Creating layer scale4
I0113 22:40:35.820242 19390 net.cpp:84] Creating Layer scale4
I0113 22:40:35.820251 19390 net.cpp:406] scale4 <- conv4
I0113 22:40:35.820268 19390 net.cpp:367] scale4 -> conv4 (in-place)
I0113 22:40:35.820355 19390 layer_factory.hpp:78] Creating layer scale4
I0113 22:40:35.820546 19390 net.cpp:122] Setting up scale4
I0113 22:40:35.820559 19390 net.cpp:129] Top shape: 50 384 13 13 (3244800)
I0113 22:40:35.820564 19390 net.cpp:137] Memory required for data: 525229600
I0113 22:40:35.820578 19390 layer_factory.hpp:78] Creating layer relu4
I0113 22:40:35.820596 19390 net.cpp:84] Creating Layer relu4
I0113 22:40:35.820605 19390 net.cpp:406] relu4 <- conv4
I0113 22:40:35.820619 19390 net.cpp:367] relu4 -> conv4 (in-place)
I0113 22:40:35.821295 19390 net.cpp:122] Setting up relu4
I0113 22:40:35.821310 19390 net.cpp:129] Top shape: 50 384 13 13 (3244800)
I0113 22:40:35.821312 19390 net.cpp:137] Memory required for data: 538208800
I0113 22:40:35.821319 19390 layer_factory.hpp:78] Creating layer conv5
I0113 22:40:35.821362 19390 net.cpp:84] Creating Layer conv5
I0113 22:40:35.821373 19390 net.cpp:406] conv5 <- conv4
I0113 22:40:35.821398 19390 net.cpp:380] conv5 -> conv5
I0113 22:40:35.904224 19390 cudnn_binary_conv_layer.cpp:194] Reallocating workspace storage: 18874368
I0113 22:40:35.905453 19390 net.cpp:122] Setting up conv5
I0113 22:40:35.905519 19390 net.cpp:129] Top shape: 50 256 13 13 (2163200)
I0113 22:40:35.905526 19390 net.cpp:137] Memory required for data: 546861600
I0113 22:40:35.905575 19390 layer_factory.hpp:78] Creating layer bn5
I0113 22:40:35.905629 19390 net.cpp:84] Creating Layer bn5
I0113 22:40:35.905650 19390 net.cpp:406] bn5 <- conv5
I0113 22:40:35.905690 19390 net.cpp:367] bn5 -> conv5 (in-place)
I0113 22:40:35.906249 19390 net.cpp:122] Setting up bn5
I0113 22:40:35.906267 19390 net.cpp:129] Top shape: 50 256 13 13 (2163200)
I0113 22:40:35.906273 19390 net.cpp:137] Memory required for data: 555514400
I0113 22:40:35.906311 19390 layer_factory.hpp:78] Creating layer scale5
I0113 22:40:35.906366 19390 net.cpp:84] Creating Layer scale5
I0113 22:40:35.906380 19390 net.cpp:406] scale5 <- conv5
I0113 22:40:35.906406 19390 net.cpp:367] scale5 -> conv5 (in-place)
I0113 22:40:35.906548 19390 layer_factory.hpp:78] Creating layer scale5
I0113 22:40:35.906859 19390 net.cpp:122] Setting up scale5
I0113 22:40:35.906908 19390 net.cpp:129] Top shape: 50 256 13 13 (2163200)
I0113 22:40:35.906916 19390 net.cpp:137] Memory required for data: 564167200
I0113 22:40:35.906944 19390 layer_factory.hpp:78] Creating layer relu5
I0113 22:40:35.906970 19390 net.cpp:84] Creating Layer relu5
I0113 22:40:35.906983 19390 net.cpp:406] relu5 <- conv5
I0113 22:40:35.907007 19390 net.cpp:367] relu5 -> conv5 (in-place)
I0113 22:40:35.908269 19390 net.cpp:122] Setting up relu5
I0113 22:40:35.908293 19390 net.cpp:129] Top shape: 50 256 13 13 (2163200)
I0113 22:40:35.908300 19390 net.cpp:137] Memory required for data: 572820000
I0113 22:40:35.908313 19390 layer_factory.hpp:78] Creating layer pool5
I0113 22:40:35.908354 19390 net.cpp:84] Creating Layer pool5
I0113 22:40:35.908367 19390 net.cpp:406] pool5 <- conv5
I0113 22:40:35.908401 19390 net.cpp:380] pool5 -> pool5
I0113 22:40:35.908535 19390 net.cpp:122] Setting up pool5
I0113 22:40:35.908556 19390 net.cpp:129] Top shape: 50 256 6 6 (460800)
I0113 22:40:35.908562 19390 net.cpp:137] Memory required for data: 574663200
I0113 22:40:35.908572 19390 layer_factory.hpp:78] Creating layer fc6
I0113 22:40:35.908614 19390 net.cpp:84] Creating Layer fc6
I0113 22:40:35.908629 19390 net.cpp:406] fc6 <- pool5
I0113 22:40:35.908665 19390 net.cpp:380] fc6 -> fc6
I0113 22:40:40.338840 19390 net.cpp:122] Setting up fc6
I0113 22:40:40.338903 19390 net.cpp:129] Top shape: 50 4096 (204800)
I0113 22:40:40.338907 19390 net.cpp:137] Memory required for data: 575482400
I0113 22:40:40.338948 19390 layer_factory.hpp:78] Creating layer bn6
I0113 22:40:40.338994 19390 net.cpp:84] Creating Layer bn6
I0113 22:40:40.339016 19390 net.cpp:406] bn6 <- fc6
I0113 22:40:40.339045 19390 net.cpp:367] bn6 -> fc6 (in-place)
I0113 22:40:40.339387 19390 net.cpp:122] Setting up bn6
I0113 22:40:40.339399 19390 net.cpp:129] Top shape: 50 4096 (204800)
I0113 22:40:40.339402 19390 net.cpp:137] Memory required for data: 576301600
I0113 22:40:40.339445 19390 layer_factory.hpp:78] Creating layer scale6
I0113 22:40:40.339473 19390 net.cpp:84] Creating Layer scale6
I0113 22:40:40.339483 19390 net.cpp:406] scale6 <- fc6
I0113 22:40:40.339498 19390 net.cpp:367] scale6 -> fc6 (in-place)
I0113 22:40:40.339648 19390 layer_factory.hpp:78] Creating layer scale6
I0113 22:40:40.339866 19390 net.cpp:122] Setting up scale6
I0113 22:40:40.339879 19390 net.cpp:129] Top shape: 50 4096 (204800)
I0113 22:40:40.339884 19390 net.cpp:137] Memory required for data: 577120800
I0113 22:40:40.339898 19390 layer_factory.hpp:78] Creating layer relu6
I0113 22:40:40.339920 19390 net.cpp:84] Creating Layer relu6
I0113 22:40:40.339926 19390 net.cpp:406] relu6 <- fc6
I0113 22:40:40.339941 19390 net.cpp:367] relu6 -> fc6 (in-place)
I0113 22:40:40.341291 19390 net.cpp:122] Setting up relu6
I0113 22:40:40.341306 19390 net.cpp:129] Top shape: 50 4096 (204800)
I0113 22:40:40.341310 19390 net.cpp:137] Memory required for data: 577940000
I0113 22:40:40.341318 19390 layer_factory.hpp:78] Creating layer drop6
I0113 22:40:40.341337 19390 net.cpp:84] Creating Layer drop6
I0113 22:40:40.341349 19390 net.cpp:406] drop6 <- fc6
I0113 22:40:40.341367 19390 net.cpp:367] drop6 -> fc6 (in-place)
I0113 22:40:40.341429 19390 net.cpp:122] Setting up drop6
I0113 22:40:40.341440 19390 net.cpp:129] Top shape: 50 4096 (204800)
I0113 22:40:40.341444 19390 net.cpp:137] Memory required for data: 578759200
I0113 22:40:40.341449 19390 layer_factory.hpp:78] Creating layer fc7
I0113 22:40:40.341476 19390 net.cpp:84] Creating Layer fc7
I0113 22:40:40.341485 19390 net.cpp:406] fc7 <- fc6
I0113 22:40:40.341502 19390 net.cpp:380] fc7 -> fc7
I0113 22:40:42.563522 19390 net.cpp:122] Setting up fc7
I0113 22:40:42.563589 19390 net.cpp:129] Top shape: 50 4096 (204800)
I0113 22:40:42.563596 19390 net.cpp:137] Memory required for data: 579578400
I0113 22:40:42.563638 19390 layer_factory.hpp:78] Creating layer bn7
I0113 22:40:42.563688 19390 net.cpp:84] Creating Layer bn7
I0113 22:40:42.563709 19390 net.cpp:406] bn7 <- fc7
I0113 22:40:42.563737 19390 net.cpp:367] bn7 -> fc7 (in-place)
I0113 22:40:42.564115 19390 net.cpp:122] Setting up bn7
I0113 22:40:42.564127 19390 net.cpp:129] Top shape: 50 4096 (204800)
I0113 22:40:42.564146 19390 net.cpp:137] Memory required for data: 580397600
I0113 22:40:42.564168 19390 layer_factory.hpp:78] Creating layer scale7
I0113 22:40:42.564208 19390 net.cpp:84] Creating Layer scale7
I0113 22:40:42.564218 19390 net.cpp:406] scale7 <- fc7
I0113 22:40:42.564234 19390 net.cpp:367] scale7 -> fc7 (in-place)
I0113 22:40:42.564355 19390 layer_factory.hpp:78] Creating layer scale7
I0113 22:40:42.564561 19390 net.cpp:122] Setting up scale7
I0113 22:40:42.564574 19390 net.cpp:129] Top shape: 50 4096 (204800)
I0113 22:40:42.564579 19390 net.cpp:137] Memory required for data: 581216800
I0113 22:40:42.564604 19390 layer_factory.hpp:78] Creating layer relu7
I0113 22:40:42.564625 19390 net.cpp:84] Creating Layer relu7
I0113 22:40:42.564633 19390 net.cpp:406] relu7 <- fc7
I0113 22:40:42.564648 19390 net.cpp:367] relu7 -> fc7 (in-place)
I0113 22:40:42.566157 19390 net.cpp:122] Setting up relu7
I0113 22:40:42.566174 19390 net.cpp:129] Top shape: 50 4096 (204800)
I0113 22:40:42.566193 19390 net.cpp:137] Memory required for data: 582036000
I0113 22:40:42.566200 19390 layer_factory.hpp:78] Creating layer drop7
I0113 22:40:42.566221 19390 net.cpp:84] Creating Layer drop7
I0113 22:40:42.566231 19390 net.cpp:406] drop7 <- fc7
I0113 22:40:42.566249 19390 net.cpp:367] drop7 -> fc7 (in-place)
I0113 22:40:42.566299 19390 net.cpp:122] Setting up drop7
I0113 22:40:42.566310 19390 net.cpp:129] Top shape: 50 4096 (204800)
I0113 22:40:42.566313 19390 net.cpp:137] Memory required for data: 582855200
I0113 22:40:42.566320 19390 layer_factory.hpp:78] Creating layer fc8
I0113 22:40:42.566360 19390 net.cpp:84] Creating Layer fc8
I0113 22:40:42.566371 19390 net.cpp:406] fc8 <- fc7
I0113 22:40:42.566395 19390 net.cpp:380] fc8 -> fc8
I0113 22:40:42.939416 19390 net.cpp:122] Setting up fc8
I0113 22:40:42.939468 19390 net.cpp:129] Top shape: 50 1000 (50000)
I0113 22:40:42.939473 19390 net.cpp:137] Memory required for data: 583055200
I0113 22:40:42.939509 19390 layer_factory.hpp:78] Creating layer fc8_fc8_0_split
I0113 22:40:42.939548 19390 net.cpp:84] Creating Layer fc8_fc8_0_split
I0113 22:40:42.939563 19390 net.cpp:406] fc8_fc8_0_split <- fc8
I0113 22:40:42.939599 19390 net.cpp:380] fc8_fc8_0_split -> fc8_fc8_0_split_0
I0113 22:40:42.939640 19390 net.cpp:380] fc8_fc8_0_split -> fc8_fc8_0_split_1
I0113 22:40:42.939657 19390 net.cpp:380] fc8_fc8_0_split -> fc8_fc8_0_split_2
I0113 22:40:42.939743 19390 net.cpp:122] Setting up fc8_fc8_0_split
I0113 22:40:42.939756 19390 net.cpp:129] Top shape: 50 1000 (50000)
I0113 22:40:42.939762 19390 net.cpp:129] Top shape: 50 1000 (50000)
I0113 22:40:42.939766 19390 net.cpp:129] Top shape: 50 1000 (50000)
I0113 22:40:42.939769 19390 net.cpp:137] Memory required for data: 583655200
I0113 22:40:42.939775 19390 layer_factory.hpp:78] Creating layer loss
I0113 22:40:42.939795 19390 net.cpp:84] Creating Layer loss
I0113 22:40:42.939803 19390 net.cpp:406] loss <- fc8_fc8_0_split_0
I0113 22:40:42.939826 19390 net.cpp:406] loss <- label_data_1_split_0
I0113 22:40:42.939839 19390 net.cpp:380] loss -> loss
…
