…
I0125 17:19:29.791797 14695 net.cpp:294] The NetState phase (0) differed from the phase (1) specified by a rule in layer data
I0125 17:19:29.792105 14695 net.cpp:51] Initializing net from parameters: 
name: "AlexNet-BN"
state {
  phase: TRAIN
  level: 0
  stage: ""
}
layer {
  name: "data"
  type: "Data"
  top: "data"
  top: "label"
  include {
    phase: TRAIN
  }
  transform_param {
    mirror: true
    crop_size: 224
    mean_value: 104
    mean_value: 117
    mean_value: 123
  }
  data_param {
    source: "/home/zhengzhe/Data/imagenet_shrt256/ilsvrc12_train_lmdb"
    batch_size: 256
    backend: LMDB
  }
}
layer {
  name: "conv1"
  type: "Convolution"
  bottom: "data"
  top: "conv1"
  param {
    lr_mult: 1
    decay_mult: 1
  }
  convolution_param {
    num_output: 96
    bias_term: false
    pad: 2
    kernel_size: 11
    stride: 4
    weight_filler {
      type: "msra"
    }
  }
}
layer {
  name: "bn1"
  type: "BatchNorm"
  bottom: "conv1"
  top: "conv1"
}
layer {
  name: "scale1"
  type: "Scale"
  bottom: "conv1"
  top: "conv1"
  scale_param {
    bias_term: true
  }
}
layer {
  name: "relu1"
  type: "ReLU"
  bottom: "conv1"
  top: "conv1"
}
layer {
  name: "pool1"
  type: "Pooling"
  bottom: "conv1"
  top: "pool1"
  pooling_param {
    pool: MAX
    kernel_size: 3
    stride: 2
  }
}
layer {
  name: "conv2"
  type: "BinaryConvolution"
  bottom: "pool1"
  top: "conv2"
  param {
    lr_mult: 1
    decay_mult: 1
  }
  convolution_param {
    num_output: 256
    bias_term: false
    pad: 2
    kernel_size: 5
    weight_filler {
      type: "msra"
    }
  }
  debug_param {
    xnorno_grad: false
    binary_relax: true
    update_lamda: 2500
    phase1_iter: 300000
  }
}
layer {
  name: "bn2"
  type: "BatchNorm"
  bottom: "conv2"
  top: "conv2"
}
layer {
  name: "scale2"
  type: "Scale"
  bottom: "conv2"
  top: "conv2"
  scale_param {
    bias_term: true
  }
}
layer {
  name: "relu2"
  type: "ReLU"
  bottom: "conv2"
  top: "conv2"
}
layer {
  name: "pool2"
  type: "Pooling"
  bottom: "conv2"
  top: "pool2"
  pooling_param {
    pool: MAX
    kernel_size: 3
    stride: 2
  }
}
layer {
  name: "conv3"
  type: "BinaryConvolution"
  bottom: "pool2"
  top: "conv3"
  param {
    lr_mult: 1
    decay_mult: 1
  }
  convolution_param {
    num_output: 384
    bias_term: false
    pad: 1
    kernel_size: 3
    weight_filler {
      type: "msra"
    }
  }
  debug_param {
    xnorno_grad: false
    binary_relax: true
    update_lamda: 2500
    phase1_iter: 300000
  }
}
layer {
  name: "bn3"
  type: "BatchNorm"
  bottom: "conv3"
  top: "conv3"
}
layer {
  name: "scale3"
  type: "Scale"
  bottom: "conv3"
  top: "conv3"
  scale_param {
    bias_term: true
  }
}
layer {
  name: "relu3"
  type: "ReLU"
  bottom: "conv3"
  top: "conv3"
}
layer {
  name: "conv4"
  type: "BinaryConvolution"
  bottom: "conv3"
  top: "conv4"
  param {
    lr_mult: 1
    decay_mult: 1
  }
  convolution_param {
    num_output: 384
    bias_term: false
    pad: 1
    kernel_size: 3
    weight_filler {
      type: "msra"
    }
  }
  debug_param {
    xnorno_grad: false
    binary_relax: true
    update_lamda: 2500
    phase1_iter: 300000
  }
}
layer {
  name: "bn4"
  type: "BatchNorm"
  bottom: "conv4"
  top: "conv4"
}
layer {
  name: "scale4"
  type: "Scale"
  bottom: "conv4"
  top: "conv4"
  scale_param {
    bias_term: true
  }
}
layer {
  name: "relu4"
  type: "ReLU"
  bottom: "conv4"
  top: "conv4"
}
layer {
  name: "conv5"
  type: "BinaryConvolution"
  bottom: "conv4"
  top: "conv5"
  param {
    lr_mult: 1
    decay_mult: 1
  }
  convolution_param {
    num_output: 256
    bias_term: false
    pad: 1
    kernel_size: 3
    weight_filler {
      type: "msra"
    }
  }
  debug_param {
    xnorno_grad: false
    binary_relax: true
    update_lamda: 2500
    phase1_iter: 300000
  }
}
layer {
  name: "bn5"
  type: "BatchNorm"
  bottom: "conv5"
  top: "conv5"
}
layer {
  name: "scale5"
  type: "Scale"
  bottom: "conv5"
  top: "conv5"
  scale_param {
    bias_term: true
  }
}
layer {
  name: "relu5"
  type: "ReLU"
  bottom: "conv5"
  top: "conv5"
}
layer {
  name: "pool5"
  type: "Pooling"
  bottom: "conv5"
  top: "pool5"
  pooling_param {
    pool: MAX
    kernel_size: 3
    stride: 2
  }
}
layer {
  name: "fc6"
  type: "BinaryInnerProduct"
  bottom: "pool5"
  top: "fc6"
  param {
    lr_mult: 1
    decay_mult: 1
  }
  inner_product_param {
    num_output: 4096
    bias_term: false
    weight_filler {
      type: "msra"
    }
  }
  debug_param {
    xnorno_grad: false
    binary_relax: true
    update_lamda: 2500
    phase1_iter: 300000
  }
}
layer {
  name: "bn6"
  type: "BatchNorm"
  bottom: "fc6"
  top: "fc6"
}
layer {
  name: "scale6"
  type: "Scale"
  bottom: "fc6"
  top: "fc6"
  scale_param {
    bias_term: true
  }
}
layer {
  name: "relu6"
  type: "ReLU"
  bottom: "fc6"
  top: "fc6"
}
layer {
  name: "drop6"
  type: "Dropout"
  bottom: "fc6"
  top: "fc6"
  dropout_param {
    dropout_ratio: 0.1
  }
}
layer {
  name: "fc7"
  type: "BinaryInnerProduct"
  bottom: "fc6"
  top: "fc7"
  param {
    lr_mult: 1
    decay_mult: 1
  }
  inner_product_param {
    num_output: 4096
    bias_term: false
    weight_filler {
      type: "msra"
    }
  }
  debug_param {
    xnorno_grad: false
    binary_relax: true
    update_lamda: 2500
    phase1_iter: 300000
  }
}
layer {
  name: "bn7"
  type: "BatchNorm"
  bottom: "fc7"
  top: "fc7"
}
layer {
  name: "scale7"
  type: "Scale"
  bottom: "fc7"
  top: "fc7"
  scale_param {
    bias_term: true
  }
}
layer {
  name: "relu7"
  type: "ReLU"
  bottom: "fc7"
  top: "fc7"
}
layer {
  name: "drop7"
  type: "Dropout"
  bottom: "fc7"
  top: "fc7"
  dropout_param {
    dropout_ratio: 0.1
  }
}
layer {
  name: "fc8"
  type: "InnerProduct"
  bottom: "fc7"
  top: "fc8"
  param {
    lr_mult: 1
    decay_mult: 1
  }
  param {
    lr_mult: 2
    decay_mult: 0
  }
  inner_product_param {
    num_output: 1000
    weight_filler {
      type: "msra"
    }
    bias_filler {
      type: "constant"
      value: 0
    }
  }
}
layer {
  name: "loss"
  type: "SoftmaxWithLoss"
  bottom: "fc8"
  bottom: "label"
  top: "loss"
}
layer {
  name: "accuracy"
  type: "Accuracy"
  bottom: "fc8"
  bottom: "label"
  top: "accuracy"
}
layer {
  name: "accuracy_5"
  type: "Accuracy"
  bottom: "fc8"
  bottom: "label"
  top: "accuracy_5"
  accuracy_param {
    top_k: 5
  }
}
I0125 17:19:29.793061 14695 layer_factory.hpp:78] Creating layer data
I0125 17:19:29.793380 14695 db_lmdb.cpp:35] Opened lmdb /home/zhengzhe/Data/imagenet_shrt256/ilsvrc12_train_lmdb
I0125 17:19:29.793484 14695 net.cpp:84] Creating Layer data
I0125 17:19:29.793524 14695 net.cpp:380] data -> data
I0125 17:19:29.793742 14695 net.cpp:380] data -> label
I0125 17:19:29.796383 14695 data_layer.cpp:45] output data size: 256,3,224,224
I0125 17:19:30.246395 14695 base_data_layer.cpp:72] Initializing prefetch
I0125 17:19:30.247037 14695 base_data_layer.cpp:75] Prefetch initialized.
I0125 17:19:30.247051 14695 net.cpp:122] Setting up data
I0125 17:19:30.247102 14695 net.cpp:129] Top shape: 256 3 224 224 (38535168)
I0125 17:19:30.247119 14695 net.cpp:129] Top shape: 256 (256)
I0125 17:19:30.247123 14695 net.cpp:137] Memory required for data: 154141696
I0125 17:19:30.247156 14695 layer_factory.hpp:78] Creating layer label_data_1_split
I0125 17:19:30.247215 14695 net.cpp:84] Creating Layer label_data_1_split
I0125 17:19:30.247261 14695 net.cpp:406] label_data_1_split <- label
I0125 17:19:30.247318 14695 net.cpp:380] label_data_1_split -> label_data_1_split_0
I0125 17:19:30.247375 14695 net.cpp:380] label_data_1_split -> label_data_1_split_1
I0125 17:19:30.247396 14695 net.cpp:380] label_data_1_split -> label_data_1_split_2
I0125 17:19:30.247478 14695 net.cpp:122] Setting up label_data_1_split
I0125 17:19:30.247490 14695 net.cpp:129] Top shape: 256 (256)
I0125 17:19:30.247500 14695 net.cpp:129] Top shape: 256 (256)
I0125 17:19:30.247508 14695 net.cpp:129] Top shape: 256 (256)
I0125 17:19:30.247510 14695 net.cpp:137] Memory required for data: 154144768
I0125 17:19:30.247515 14695 layer_factory.hpp:78] Creating layer conv1
I0125 17:19:30.247591 14695 net.cpp:84] Creating Layer conv1
I0125 17:19:30.247601 14695 net.cpp:406] conv1 <- data
I0125 17:19:30.247622 14695 net.cpp:380] conv1 -> conv1
I0125 17:19:31.095841 14695 cudnn_conv_layer.cpp:194] Reallocating workspace storage: 127416
I0125 17:19:31.096282 14695 net.cpp:122] Setting up conv1
I0125 17:19:31.096321 14695 net.cpp:129] Top shape: 256 96 55 55 (74342400)
I0125 17:19:31.096331 14695 net.cpp:137] Memory required for data: 451514368
I0125 17:19:31.096478 14695 layer_factory.hpp:78] Creating layer bn1
I0125 17:19:31.096540 14695 net.cpp:84] Creating Layer bn1
I0125 17:19:31.096560 14695 net.cpp:406] bn1 <- conv1
I0125 17:19:31.096606 14695 net.cpp:367] bn1 -> conv1 (in-place)
I0125 17:19:31.098860 14695 net.cpp:122] Setting up bn1
I0125 17:19:31.098886 14695 net.cpp:129] Top shape: 256 96 55 55 (74342400)
I0125 17:19:31.098894 14695 net.cpp:137] Memory required for data: 748883968
I0125 17:19:31.098968 14695 layer_factory.hpp:78] Creating layer scale1
I0125 17:19:31.099023 14695 net.cpp:84] Creating Layer scale1
I0125 17:19:31.099038 14695 net.cpp:406] scale1 <- conv1
I0125 17:19:31.099063 14695 net.cpp:367] scale1 -> conv1 (in-place)
I0125 17:19:31.099210 14695 layer_factory.hpp:78] Creating layer scale1
I0125 17:19:31.099584 14695 net.cpp:122] Setting up scale1
I0125 17:19:31.099606 14695 net.cpp:129] Top shape: 256 96 55 55 (74342400)
I0125 17:19:31.099612 14695 net.cpp:137] Memory required for data: 1046253568
I0125 17:19:31.099653 14695 layer_factory.hpp:78] Creating layer relu1
I0125 17:19:31.099697 14695 net.cpp:84] Creating Layer relu1
I0125 17:19:31.099711 14695 net.cpp:406] relu1 <- conv1
I0125 17:19:31.099735 14695 net.cpp:367] relu1 -> conv1 (in-place)
I0125 17:19:31.100600 14695 net.cpp:122] Setting up relu1
I0125 17:19:31.100622 14695 net.cpp:129] Top shape: 256 96 55 55 (74342400)
I0125 17:19:31.100628 14695 net.cpp:137] Memory required for data: 1343623168
I0125 17:19:31.100638 14695 layer_factory.hpp:78] Creating layer pool1
I0125 17:19:31.100679 14695 net.cpp:84] Creating Layer pool1
I0125 17:19:31.100694 14695 net.cpp:406] pool1 <- conv1
I0125 17:19:31.100723 14695 net.cpp:380] pool1 -> pool1
I0125 17:19:31.100855 14695 net.cpp:122] Setting up pool1
I0125 17:19:31.100877 14695 net.cpp:129] Top shape: 256 96 27 27 (17915904)
I0125 17:19:31.100884 14695 net.cpp:137] Memory required for data: 1415286784
I0125 17:19:31.100894 14695 layer_factory.hpp:78] Creating layer conv2
I0125 17:19:31.100951 14695 net.cpp:84] Creating Layer conv2
I0125 17:19:31.100965 14695 net.cpp:406] conv2 <- pool1
I0125 17:19:31.100998 14695 net.cpp:380] conv2 -> conv2
I0125 17:19:31.184607 14695 cudnn_binary_conv_layer.cpp:194] Reallocating workspace storage: 19668
I0125 17:19:31.184662 14695 net.cpp:122] Setting up conv2
I0125 17:19:31.184685 14695 net.cpp:129] Top shape: 256 256 27 27 (47775744)
I0125 17:19:31.184689 14695 net.cpp:137] Memory required for data: 1606389760
I0125 17:19:31.184725 14695 layer_factory.hpp:78] Creating layer bn2
I0125 17:19:31.184775 14695 net.cpp:84] Creating Layer bn2
I0125 17:19:31.184792 14695 net.cpp:406] bn2 <- conv2
I0125 17:19:31.184823 14695 net.cpp:367] bn2 -> conv2 (in-place)
I0125 17:19:31.186625 14695 net.cpp:122] Setting up bn2
I0125 17:19:31.186645 14695 net.cpp:129] Top shape: 256 256 27 27 (47775744)
I0125 17:19:31.186648 14695 net.cpp:137] Memory required for data: 1797492736
I0125 17:19:31.186715 14695 layer_factory.hpp:78] Creating layer scale2
I0125 17:19:31.186745 14695 net.cpp:84] Creating Layer scale2
I0125 17:19:31.186756 14695 net.cpp:406] scale2 <- conv2
I0125 17:19:31.186774 14695 net.cpp:367] scale2 -> conv2 (in-place)
I0125 17:19:31.186867 14695 layer_factory.hpp:78] Creating layer scale2
I0125 17:19:31.187063 14695 net.cpp:122] Setting up scale2
I0125 17:19:31.187077 14695 net.cpp:129] Top shape: 256 256 27 27 (47775744)
I0125 17:19:31.187081 14695 net.cpp:137] Memory required for data: 1988595712
I0125 17:19:31.187099 14695 layer_factory.hpp:78] Creating layer relu2
I0125 17:19:31.187119 14695 net.cpp:84] Creating Layer relu2
I0125 17:19:31.187127 14695 net.cpp:406] relu2 <- conv2
I0125 17:19:31.187144 14695 net.cpp:367] relu2 -> conv2 (in-place)
I0125 17:19:31.187734 14695 net.cpp:122] Setting up relu2
I0125 17:19:31.187749 14695 net.cpp:129] Top shape: 256 256 27 27 (47775744)
I0125 17:19:31.187753 14695 net.cpp:137] Memory required for data: 2179698688
I0125 17:19:31.187760 14695 layer_factory.hpp:78] Creating layer pool2
I0125 17:19:31.187784 14695 net.cpp:84] Creating Layer pool2
I0125 17:19:31.187793 14695 net.cpp:406] pool2 <- conv2
I0125 17:19:31.187811 14695 net.cpp:380] pool2 -> pool2
I0125 17:19:31.187901 14695 net.cpp:122] Setting up pool2
I0125 17:19:31.187916 14695 net.cpp:129] Top shape: 256 256 13 13 (11075584)
I0125 17:19:31.187921 14695 net.cpp:137] Memory required for data: 2224001024
I0125 17:19:31.187927 14695 layer_factory.hpp:78] Creating layer conv3
I0125 17:19:31.187963 14695 net.cpp:84] Creating Layer conv3
I0125 17:19:31.187973 14695 net.cpp:406] conv3 <- pool2
I0125 17:19:31.187996 14695 net.cpp:380] conv3 -> conv3
I0125 17:19:31.287891 14695 cudnn_binary_conv_layer.cpp:194] Reallocating workspace storage: 18874368
I0125 17:19:31.288288 14695 net.cpp:122] Setting up conv3
I0125 17:19:31.288328 14695 net.cpp:129] Top shape: 256 384 13 13 (16613376)
I0125 17:19:31.288333 14695 net.cpp:137] Memory required for data: 2290454528
I0125 17:19:31.288373 14695 layer_factory.hpp:78] Creating layer bn3
I0125 17:19:31.288429 14695 net.cpp:84] Creating Layer bn3
I0125 17:19:31.288444 14695 net.cpp:406] bn3 <- conv3
I0125 17:19:31.288473 14695 net.cpp:367] bn3 -> conv3 (in-place)
I0125 17:19:31.288743 14695 net.cpp:122] Setting up bn3
I0125 17:19:31.288758 14695 net.cpp:129] Top shape: 256 384 13 13 (16613376)
I0125 17:19:31.288763 14695 net.cpp:137] Memory required for data: 2356908032
I0125 17:19:31.288787 14695 layer_factory.hpp:78] Creating layer scale3
I0125 17:19:31.288813 14695 net.cpp:84] Creating Layer scale3
I0125 17:19:31.288822 14695 net.cpp:406] scale3 <- conv3
I0125 17:19:31.288838 14695 net.cpp:367] scale3 -> conv3 (in-place)
I0125 17:19:31.288915 14695 layer_factory.hpp:78] Creating layer scale3
I0125 17:19:31.289104 14695 net.cpp:122] Setting up scale3
I0125 17:19:31.289119 14695 net.cpp:129] Top shape: 256 384 13 13 (16613376)
I0125 17:19:31.289122 14695 net.cpp:137] Memory required for data: 2423361536
I0125 17:19:31.289155 14695 layer_factory.hpp:78] Creating layer relu3
I0125 17:19:31.289175 14695 net.cpp:84] Creating Layer relu3
I0125 17:19:31.289186 14695 net.cpp:406] relu3 <- conv3
I0125 17:19:31.289201 14695 net.cpp:367] relu3 -> conv3 (in-place)
I0125 17:19:31.290107 14695 net.cpp:122] Setting up relu3
I0125 17:19:31.290125 14695 net.cpp:129] Top shape: 256 384 13 13 (16613376)
I0125 17:19:31.290129 14695 net.cpp:137] Memory required for data: 2489815040
I0125 17:19:31.290145 14695 layer_factory.hpp:78] Creating layer conv4
I0125 17:19:31.290190 14695 net.cpp:84] Creating Layer conv4
I0125 17:19:31.290202 14695 net.cpp:406] conv4 <- conv3
I0125 17:19:31.290238 14695 net.cpp:380] conv4 -> conv4
I0125 17:19:31.437403 14695 cudnn_binary_conv_layer.cpp:194] Reallocating workspace storage: 9840
I0125 17:19:31.437474 14695 net.cpp:122] Setting up conv4
I0125 17:19:31.437500 14695 net.cpp:129] Top shape: 256 384 13 13 (16613376)
I0125 17:19:31.437505 14695 net.cpp:137] Memory required for data: 2556268544
I0125 17:19:31.437568 14695 layer_factory.hpp:78] Creating layer bn4
I0125 17:19:31.437623 14695 net.cpp:84] Creating Layer bn4
I0125 17:19:31.437638 14695 net.cpp:406] bn4 <- conv4
I0125 17:19:31.437669 14695 net.cpp:367] bn4 -> conv4 (in-place)
I0125 17:19:31.437948 14695 net.cpp:122] Setting up bn4
I0125 17:19:31.437963 14695 net.cpp:129] Top shape: 256 384 13 13 (16613376)
I0125 17:19:31.437966 14695 net.cpp:137] Memory required for data: 2622722048
I0125 17:19:31.437991 14695 layer_factory.hpp:78] Creating layer scale4
I0125 17:19:31.438016 14695 net.cpp:84] Creating Layer scale4
I0125 17:19:31.438025 14695 net.cpp:406] scale4 <- conv4
I0125 17:19:31.438041 14695 net.cpp:367] scale4 -> conv4 (in-place)
I0125 17:19:31.438119 14695 layer_factory.hpp:78] Creating layer scale4
I0125 17:19:31.438310 14695 net.cpp:122] Setting up scale4
I0125 17:19:31.438324 14695 net.cpp:129] Top shape: 256 384 13 13 (16613376)
I0125 17:19:31.438328 14695 net.cpp:137] Memory required for data: 2689175552
I0125 17:19:31.438352 14695 layer_factory.hpp:78] Creating layer relu4
I0125 17:19:31.438374 14695 net.cpp:84] Creating Layer relu4
I0125 17:19:31.438381 14695 net.cpp:406] relu4 <- conv4
I0125 17:19:31.438396 14695 net.cpp:367] relu4 -> conv4 (in-place)
I0125 17:19:31.439322 14695 net.cpp:122] Setting up relu4
I0125 17:19:31.439340 14695 net.cpp:129] Top shape: 256 384 13 13 (16613376)
I0125 17:19:31.439362 14695 net.cpp:137] Memory required for data: 2755629056
I0125 17:19:31.439369 14695 layer_factory.hpp:78] Creating layer conv5
I0125 17:19:31.439410 14695 net.cpp:84] Creating Layer conv5
I0125 17:19:31.439422 14695 net.cpp:406] conv5 <- conv4
I0125 17:19:31.439447 14695 net.cpp:380] conv5 -> conv5
I0125 17:19:31.538915 14695 cudnn_binary_conv_layer.cpp:194] Reallocating workspace storage: 18874368
I0125 17:19:31.539288 14695 net.cpp:122] Setting up conv5
I0125 17:19:31.539319 14695 net.cpp:129] Top shape: 256 256 13 13 (11075584)
I0125 17:19:31.539324 14695 net.cpp:137] Memory required for data: 2799931392
I0125 17:19:31.539366 14695 layer_factory.hpp:78] Creating layer bn5
I0125 17:19:31.539407 14695 net.cpp:84] Creating Layer bn5
I0125 17:19:31.539422 14695 net.cpp:406] bn5 <- conv5
I0125 17:19:31.539451 14695 net.cpp:367] bn5 -> conv5 (in-place)
I0125 17:19:31.539721 14695 net.cpp:122] Setting up bn5
I0125 17:19:31.539736 14695 net.cpp:129] Top shape: 256 256 13 13 (11075584)
I0125 17:19:31.539739 14695 net.cpp:137] Memory required for data: 2844233728
I0125 17:19:31.539764 14695 layer_factory.hpp:78] Creating layer scale5
I0125 17:19:31.539790 14695 net.cpp:84] Creating Layer scale5
I0125 17:19:31.539798 14695 net.cpp:406] scale5 <- conv5
I0125 17:19:31.539814 14695 net.cpp:367] scale5 -> conv5 (in-place)
I0125 17:19:31.539893 14695 layer_factory.hpp:78] Creating layer scale5
I0125 17:19:31.540074 14695 net.cpp:122] Setting up scale5
I0125 17:19:31.540089 14695 net.cpp:129] Top shape: 256 256 13 13 (11075584)
I0125 17:19:31.540093 14695 net.cpp:137] Memory required for data: 2888536064
I0125 17:19:31.540110 14695 layer_factory.hpp:78] Creating layer relu5
I0125 17:19:31.540130 14695 net.cpp:84] Creating Layer relu5
I0125 17:19:31.540138 14695 net.cpp:406] relu5 <- conv5
I0125 17:19:31.540153 14695 net.cpp:367] relu5 -> conv5 (in-place)
I0125 17:19:31.540766 14695 net.cpp:122] Setting up relu5
I0125 17:19:31.540791 14695 net.cpp:129] Top shape: 256 256 13 13 (11075584)
I0125 17:19:31.540794 14695 net.cpp:137] Memory required for data: 2932838400
I0125 17:19:31.540809 14695 layer_factory.hpp:78] Creating layer pool5
I0125 17:19:31.540832 14695 net.cpp:84] Creating Layer pool5
I0125 17:19:31.540841 14695 net.cpp:406] pool5 <- conv5
I0125 17:19:31.540860 14695 net.cpp:380] pool5 -> pool5
I0125 17:19:31.540941 14695 net.cpp:122] Setting up pool5
I0125 17:19:31.540956 14695 net.cpp:129] Top shape: 256 256 6 6 (2359296)
I0125 17:19:31.540961 14695 net.cpp:137] Memory required for data: 2942275584
I0125 17:19:31.540967 14695 layer_factory.hpp:78] Creating layer fc6
I0125 17:19:31.541004 14695 net.cpp:84] Creating Layer fc6
I0125 17:19:31.541035 14695 net.cpp:406] fc6 <- pool5
I0125 17:19:31.541060 14695 net.cpp:380] fc6 -> fc6
I0125 17:19:34.811492 14695 net.cpp:122] Setting up fc6
I0125 17:19:34.811558 14695 net.cpp:129] Top shape: 256 4096 (1048576)
I0125 17:19:34.811563 14695 net.cpp:137] Memory required for data: 2946469888
I0125 17:19:34.811625 14695 layer_factory.hpp:78] Creating layer bn6
I0125 17:19:34.811691 14695 net.cpp:84] Creating Layer bn6
I0125 17:19:34.811727 14695 net.cpp:406] bn6 <- fc6
I0125 17:19:34.811763 14695 net.cpp:367] bn6 -> fc6 (in-place)
I0125 17:19:34.812033 14695 net.cpp:122] Setting up bn6
I0125 17:19:34.812047 14695 net.cpp:129] Top shape: 256 4096 (1048576)
I0125 17:19:34.812052 14695 net.cpp:137] Memory required for data: 2950664192
I0125 17:19:34.812098 14695 layer_factory.hpp:78] Creating layer scale6
I0125 17:19:34.812125 14695 net.cpp:84] Creating Layer scale6
I0125 17:19:34.812135 14695 net.cpp:406] scale6 <- fc6
I0125 17:19:34.812155 14695 net.cpp:367] scale6 -> fc6 (in-place)
I0125 17:19:34.812252 14695 layer_factory.hpp:78] Creating layer scale6
I0125 17:19:34.812458 14695 net.cpp:122] Setting up scale6
I0125 17:19:34.812474 14695 net.cpp:129] Top shape: 256 4096 (1048576)
I0125 17:19:34.812477 14695 net.cpp:137] Memory required for data: 2954858496
I0125 17:19:34.812497 14695 layer_factory.hpp:78] Creating layer relu6
I0125 17:19:34.812531 14695 net.cpp:84] Creating Layer relu6
I0125 17:19:34.812541 14695 net.cpp:406] relu6 <- fc6
I0125 17:19:34.812559 14695 net.cpp:367] relu6 -> fc6 (in-place)
I0125 17:19:34.813799 14695 net.cpp:122] Setting up relu6
I0125 17:19:34.813817 14695 net.cpp:129] Top shape: 256 4096 (1048576)
I0125 17:19:34.813823 14695 net.cpp:137] Memory required for data: 2959052800
I0125 17:19:34.813840 14695 layer_factory.hpp:78] Creating layer drop6
I0125 17:19:34.813868 14695 net.cpp:84] Creating Layer drop6
I0125 17:19:34.813877 14695 net.cpp:406] drop6 <- fc6
I0125 17:19:34.813896 14695 net.cpp:367] drop6 -> fc6 (in-place)
I0125 17:19:34.813952 14695 net.cpp:122] Setting up drop6
I0125 17:19:34.813966 14695 net.cpp:129] Top shape: 256 4096 (1048576)
I0125 17:19:34.813968 14695 net.cpp:137] Memory required for data: 2963247104
I0125 17:19:34.813975 14695 layer_factory.hpp:78] Creating layer fc7
I0125 17:19:34.814004 14695 net.cpp:84] Creating Layer fc7
I0125 17:19:34.814014 14695 net.cpp:406] fc7 <- fc6
I0125 17:19:34.814038 14695 net.cpp:380] fc7 -> fc7
I0125 17:19:36.266043 14695 net.cpp:122] Setting up fc7
I0125 17:19:36.266134 14695 net.cpp:129] Top shape: 256 4096 (1048576)
I0125 17:19:36.266140 14695 net.cpp:137] Memory required for data: 2967441408
I0125 17:19:36.266178 14695 layer_factory.hpp:78] Creating layer bn7
I0125 17:19:36.266258 14695 net.cpp:84] Creating Layer bn7
I0125 17:19:36.266278 14695 net.cpp:406] bn7 <- fc7
I0125 17:19:36.266304 14695 net.cpp:367] bn7 -> fc7 (in-place)
I0125 17:19:36.266564 14695 net.cpp:122] Setting up bn7
I0125 17:19:36.266578 14695 net.cpp:129] Top shape: 256 4096 (1048576)
I0125 17:19:36.266582 14695 net.cpp:137] Memory required for data: 2971635712
I0125 17:19:36.266607 14695 layer_factory.hpp:78] Creating layer scale7
I0125 17:19:36.266693 14695 net.cpp:84] Creating Layer scale7
I0125 17:19:36.266705 14695 net.cpp:406] scale7 <- fc7
I0125 17:19:36.266742 14695 net.cpp:367] scale7 -> fc7 (in-place)
I0125 17:19:36.266829 14695 layer_factory.hpp:78] Creating layer scale7
I0125 17:19:36.267022 14695 net.cpp:122] Setting up scale7
I0125 17:19:36.267036 14695 net.cpp:129] Top shape: 256 4096 (1048576)
I0125 17:19:36.267040 14695 net.cpp:137] Memory required for data: 2975830016
I0125 17:19:36.267066 14695 layer_factory.hpp:78] Creating layer relu7
I0125 17:19:36.267086 14695 net.cpp:84] Creating Layer relu7
I0125 17:19:36.267096 14695 net.cpp:406] relu7 <- fc7
I0125 17:19:36.267112 14695 net.cpp:367] relu7 -> fc7 (in-place)
I0125 17:19:36.268110 14695 net.cpp:122] Setting up relu7
I0125 17:19:36.268126 14695 net.cpp:129] Top shape: 256 4096 (1048576)
I0125 17:19:36.268141 14695 net.cpp:137] Memory required for data: 2980024320
I0125 17:19:36.268175 14695 layer_factory.hpp:78] Creating layer drop7
I0125 17:19:36.268213 14695 net.cpp:84] Creating Layer drop7
I0125 17:19:36.268223 14695 net.cpp:406] drop7 <- fc7
I0125 17:19:36.268241 14695 net.cpp:367] drop7 -> fc7 (in-place)
I0125 17:19:36.268290 14695 net.cpp:122] Setting up drop7
I0125 17:19:36.268301 14695 net.cpp:129] Top shape: 256 4096 (1048576)
I0125 17:19:36.268306 14695 net.cpp:137] Memory required for data: 2984218624
I0125 17:19:36.268311 14695 layer_factory.hpp:78] Creating layer fc8
I0125 17:19:36.268373 14695 net.cpp:84] Creating Layer fc8
I0125 17:19:36.268384 14695 net.cpp:406] fc8 <- fc7
I0125 17:19:36.268405 14695 net.cpp:380] fc8 -> fc8
I0125 17:19:36.596909 14695 net.cpp:122] Setting up fc8
I0125 17:19:36.596935 14695 net.cpp:129] Top shape: 256 1000 (256000)
I0125 17:19:36.596938 14695 net.cpp:137] Memory required for data: 2985242624
I0125 17:19:36.596961 14695 layer_factory.hpp:78] Creating layer fc8_fc8_0_split
I0125 17:19:36.597002 14695 net.cpp:84] Creating Layer fc8_fc8_0_split
I0125 17:19:36.597014 14695 net.cpp:406] fc8_fc8_0_split <- fc8
I0125 17:19:36.597054 14695 net.cpp:380] fc8_fc8_0_split -> fc8_fc8_0_split_0
I0125 17:19:36.597084 14695 net.cpp:380] fc8_fc8_0_split -> fc8_fc8_0_split_1
I0125 17:19:36.597101 14695 net.cpp:380] fc8_fc8_0_split -> fc8_fc8_0_split_2
I0125 17:19:36.597172 14695 net.cpp:122] Setting up fc8_fc8_0_split
I0125 17:19:36.597187 14695 net.cpp:129] Top shape: 256 1000 (256000)
I0125 17:19:36.597194 14695 net.cpp:129] Top shape: 256 1000 (256000)
I0125 17:19:36.597199 14695 net.cpp:129] Top shape: 256 1000 (256000)
I0125 17:19:36.597203 14695 net.cpp:137] Memory required for data: 2988314624
I0125 17:19:36.597209 14695 layer_factory.hpp:78] Creating layer loss
I0125 17:19:36.597259 14695 net.cpp:84] Creating Layer loss
I0125 17:19:36.597268 14695 net.cpp:406] loss <- fc8_fc8_0_split_0
I0125 17:19:36.597282 14695 net.cpp:406] loss <- label_data_1_split_0
I0125 17:19:36.597306 14695 net.cpp:380] loss -> loss
…
I0125 17:19:36.601773 14695 net.cpp:294] The NetState phase (1) differed from the phase (0) specified by a rule in layer data
I0125 17:19:36.602013 14695 net.cpp:51] Initializing net from parameters: 
name: "AlexNet-BN"
state {
  phase: TEST
}
layer {
  name: "data"
  type: "Data"
  top: "data"
  top: "label"
  include {
    phase: TEST
  }
  transform_param {
    mirror: false
    crop_size: 224
    mean_value: 104
    mean_value: 117
    mean_value: 123
  }
  data_param {
    source: "/home/zhengzhe/Data/imagenet_shrt256/ilsvrc12_val_lmdb"
    batch_size: 50
    backend: LMDB
  }
}
layer {
  name: "conv1"
  type: "Convolution"
  bottom: "data"
  top: "conv1"
  param {
    lr_mult: 1
    decay_mult: 1
  }
  convolution_param {
    num_output: 96
    bias_term: false
    pad: 2
    kernel_size: 11
    stride: 4
    weight_filler {
      type: "msra"
    }
  }
}
layer {
  name: "bn1"
  type: "BatchNorm"
  bottom: "conv1"
  top: "conv1"
}
layer {
  name: "scale1"
  type: "Scale"
  bottom: "conv1"
  top: "conv1"
  scale_param {
    bias_term: true
  }
}
layer {
  name: "relu1"
  type: "ReLU"
  bottom: "conv1"
  top: "conv1"
}
layer {
  name: "pool1"
  type: "Pooling"
  bottom: "conv1"
  top: "pool1"
  pooling_param {
    pool: MAX
    kernel_size: 3
    stride: 2
  }
}
layer {
  name: "conv2"
  type: "BinaryConvolution"
  bottom: "pool1"
  top: "conv2"
  param {
    lr_mult: 1
    decay_mult: 1
  }
  convolution_param {
    num_output: 256
    bias_term: false
    pad: 2
    kernel_size: 5
    weight_filler {
      type: "msra"
    }
  }
  debug_param {
    xnorno_grad: false
    binary_relax: true
    update_lamda: 2500
    phase1_iter: 300000
  }
}
layer {
  name: "bn2"
  type: "BatchNorm"
  bottom: "conv2"
  top: "conv2"
}
layer {
  name: "scale2"
  type: "Scale"
  bottom: "conv2"
  top: "conv2"
  scale_param {
    bias_term: true
  }
}
layer {
  name: "relu2"
  type: "ReLU"
  bottom: "conv2"
  top: "conv2"
}
layer {
  name: "pool2"
  type: "Pooling"
  bottom: "conv2"
  top: "pool2"
  pooling_param {
    pool: MAX
    kernel_size: 3
    stride: 2
  }
}
layer {
  name: "conv3"
  type: "BinaryConvolution"
  bottom: "pool2"
  top: "conv3"
  param {
    lr_mult: 1
    decay_mult: 1
  }
  convolution_param {
    num_output: 384
    bias_term: false
    pad: 1
    kernel_size: 3
    weight_filler {
      type: "msra"
    }
  }
  debug_param {
    xnorno_grad: false
    binary_relax: true
    update_lamda: 2500
    phase1_iter: 300000
  }
}
layer {
  name: "bn3"
  type: "BatchNorm"
  bottom: "conv3"
  top: "conv3"
}
layer {
  name: "scale3"
  type: "Scale"
  bottom: "conv3"
  top: "conv3"
  scale_param {
    bias_term: true
  }
}
layer {
  name: "relu3"
  type: "ReLU"
  bottom: "conv3"
  top: "conv3"
}
layer {
  name: "conv4"
  type: "BinaryConvolution"
  bottom: "conv3"
  top: "conv4"
  param {
    lr_mult: 1
    decay_mult: 1
  }
  convolution_param {
    num_output: 384
    bias_term: false
    pad: 1
    kernel_size: 3
    weight_filler {
      type: "msra"
    }
  }
  debug_param {
    xnorno_grad: false
    binary_relax: true
    update_lamda: 2500
    phase1_iter: 300000
  }
}
layer {
  name: "bn4"
  type: "BatchNorm"
  bottom: "conv4"
  top: "conv4"
}
layer {
  name: "scale4"
  type: "Scale"
  bottom: "conv4"
  top: "conv4"
  scale_param {
    bias_term: true
  }
}
layer {
  name: "relu4"
  type: "ReLU"
  bottom: "conv4"
  top: "conv4"
}
layer {
  name: "conv5"
  type: "BinaryConvolution"
  bottom: "conv4"
  top: "conv5"
  param {
    lr_mult: 1
    decay_mult: 1
  }
  convolution_param {
    num_output: 256
    bias_term: false
    pad: 1
    kernel_size: 3
    weight_filler {
      type: "msra"
    }
  }
  debug_param {
    xnorno_grad: false
    binary_relax: true
    update_lamda: 2500
    phase1_iter: 300000
  }
}
layer {
  name: "bn5"
  type: "BatchNorm"
  bottom: "conv5"
  top: "conv5"
}
layer {
  name: "scale5"
  type: "Scale"
  bottom: "conv5"
  top: "conv5"
  scale_param {
    bias_term: true
  }
}
layer {
  name: "relu5"
  type: "ReLU"
  bottom: "conv5"
  top: "conv5"
}
layer {
  name: "pool5"
  type: "Pooling"
  bottom: "conv5"
  top: "pool5"
  pooling_param {
    pool: MAX
    kernel_size: 3
    stride: 2
  }
}
layer {
  name: "fc6"
  type: "BinaryInnerProduct"
  bottom: "pool5"
  top: "fc6"
  param {
    lr_mult: 1
    decay_mult: 1
  }
  inner_product_param {
    num_output: 4096
    bias_term: false
    weight_filler {
      type: "msra"
    }
  }
  debug_param {
    xnorno_grad: false
    binary_relax: true
    update_lamda: 2500
    phase1_iter: 300000
  }
}
layer {
  name: "bn6"
  type: "BatchNorm"
  bottom: "fc6"
  top: "fc6"
}
layer {
  name: "scale6"
  type: "Scale"
  bottom: "fc6"
  top: "fc6"
  scale_param {
    bias_term: true
  }
}
layer {
  name: "relu6"
  type: "ReLU"
  bottom: "fc6"
  top: "fc6"
}
layer {
  name: "drop6"
  type: "Dropout"
  bottom: "fc6"
  top: "fc6"
  dropout_param {
    dropout_ratio: 0.1
  }
}
layer {
  name: "fc7"
  type: "BinaryInnerProduct"
  bottom: "fc6"
  top: "fc7"
  param {
    lr_mult: 1
    decay_mult: 1
  }
  inner_product_param {
    num_output: 4096
    bias_term: false
    weight_filler {
      type: "msra"
    }
  }
  debug_param {
    xnorno_grad: false
    binary_relax: true
    update_lamda: 2500
    phase1_iter: 300000
  }
}
layer {
  name: "bn7"
  type: "BatchNorm"
  bottom: "fc7"
  top: "fc7"
}
layer {
  name: "scale7"
  type: "Scale"
  bottom: "fc7"
  top: "fc7"
  scale_param {
    bias_term: true
  }
}
layer {
  name: "relu7"
  type: "ReLU"
  bottom: "fc7"
  top: "fc7"
}
layer {
  name: "drop7"
  type: "Dropout"
  bottom: "fc7"
  top: "fc7"
  dropout_param {
    dropout_ratio: 0.1
  }
}
layer {
  name: "fc8"
  type: "InnerProduct"
  bottom: "fc7"
  top: "fc8"
  param {
    lr_mult: 1
    decay_mult: 1
  }
  param {
    lr_mult: 2
    decay_mult: 0
  }
  inner_product_param {
    num_output: 1000
    weight_filler {
      type: "msra"
    }
    bias_filler {
      type: "constant"
      value: 0
    }
  }
}
layer {
  name: "loss"
  type: "SoftmaxWithLoss"
  bottom: "fc8"
  bottom: "label"
  top: "loss"
}
layer {
  name: "accuracy"
  type: "Accuracy"
  bottom: "fc8"
  bottom: "label"
  top: "accuracy"
}
layer {
  name: "accuracy_5"
  type: "Accuracy"
  bottom: "fc8"
  bottom: "label"
  top: "accuracy_5"
  accuracy_param {
    top_k: 5
  }
}
I0125 17:19:36.602396 14695 layer_factory.hpp:78] Creating layer data
I0125 17:19:36.602481 14695 db_lmdb.cpp:35] Opened lmdb /home/zhengzhe/Data/imagenet_shrt256/ilsvrc12_val_lmdb
I0125 17:19:36.602507 14695 net.cpp:84] Creating Layer data
I0125 17:19:36.602522 14695 net.cpp:380] data -> data
I0125 17:19:36.602583 14695 net.cpp:380] data -> label
I0125 17:19:36.603103 14695 data_layer.cpp:45] output data size: 50,3,224,224
I0125 17:19:36.675266 14695 base_data_layer.cpp:72] Initializing prefetch
I0125 17:19:36.675858 14695 base_data_layer.cpp:75] Prefetch initialized.
I0125 17:19:36.675873 14695 net.cpp:122] Setting up data
I0125 17:19:36.675895 14695 net.cpp:129] Top shape: 50 3 224 224 (7526400)
I0125 17:19:36.675920 14695 net.cpp:129] Top shape: 50 (50)
I0125 17:19:36.675923 14695 net.cpp:137] Memory required for data: 30105800
I0125 17:19:36.675949 14695 layer_factory.hpp:78] Creating layer label_data_1_split
I0125 17:19:36.675997 14695 net.cpp:84] Creating Layer label_data_1_split
I0125 17:19:36.676009 14695 net.cpp:406] label_data_1_split <- label
I0125 17:19:36.676039 14695 net.cpp:380] label_data_1_split -> label_data_1_split_0
I0125 17:19:36.676074 14695 net.cpp:380] label_data_1_split -> label_data_1_split_1
I0125 17:19:36.676091 14695 net.cpp:380] label_data_1_split -> label_data_1_split_2
I0125 17:19:36.676275 14695 net.cpp:122] Setting up label_data_1_split
I0125 17:19:36.676290 14695 net.cpp:129] Top shape: 50 (50)
I0125 17:19:36.676297 14695 net.cpp:129] Top shape: 50 (50)
I0125 17:19:36.676303 14695 net.cpp:129] Top shape: 50 (50)
I0125 17:19:36.676306 14695 net.cpp:137] Memory required for data: 30106400
I0125 17:19:36.676312 14695 layer_factory.hpp:78] Creating layer conv1
I0125 17:19:36.676360 14695 net.cpp:84] Creating Layer conv1
I0125 17:19:36.676371 14695 net.cpp:406] conv1 <- data
I0125 17:19:36.676395 14695 net.cpp:380] conv1 -> conv1
I0125 17:19:36.684759 14695 cudnn_conv_layer.cpp:194] Reallocating workspace storage: 127416
I0125 17:19:36.684844 14695 net.cpp:122] Setting up conv1
I0125 17:19:36.684860 14695 net.cpp:129] Top shape: 50 96 55 55 (14520000)
I0125 17:19:36.684864 14695 net.cpp:137] Memory required for data: 88186400
I0125 17:19:36.684900 14695 layer_factory.hpp:78] Creating layer bn1
I0125 17:19:36.684922 14695 net.cpp:84] Creating Layer bn1
I0125 17:19:36.684931 14695 net.cpp:406] bn1 <- conv1
I0125 17:19:36.684948 14695 net.cpp:367] bn1 -> conv1 (in-place)
I0125 17:19:36.685354 14695 net.cpp:122] Setting up bn1
I0125 17:19:36.685384 14695 net.cpp:129] Top shape: 50 96 55 55 (14520000)
I0125 17:19:36.685389 14695 net.cpp:137] Memory required for data: 146266400
I0125 17:19:36.685444 14695 layer_factory.hpp:78] Creating layer scale1
I0125 17:19:36.685482 14695 net.cpp:84] Creating Layer scale1
I0125 17:19:36.685505 14695 net.cpp:406] scale1 <- conv1
I0125 17:19:36.685524 14695 net.cpp:367] scale1 -> conv1 (in-place)
I0125 17:19:36.685611 14695 layer_factory.hpp:78] Creating layer scale1
I0125 17:19:36.685943 14695 net.cpp:122] Setting up scale1
I0125 17:19:36.685972 14695 net.cpp:129] Top shape: 50 96 55 55 (14520000)
I0125 17:19:36.685977 14695 net.cpp:137] Memory required for data: 204346400
I0125 17:19:36.686059 14695 layer_factory.hpp:78] Creating layer relu1
I0125 17:19:36.686084 14695 net.cpp:84] Creating Layer relu1
I0125 17:19:36.686091 14695 net.cpp:406] relu1 <- conv1
I0125 17:19:36.686108 14695 net.cpp:367] relu1 -> conv1 (in-place)
I0125 17:19:36.686975 14695 net.cpp:122] Setting up relu1
I0125 17:19:36.686990 14695 net.cpp:129] Top shape: 50 96 55 55 (14520000)
I0125 17:19:36.686995 14695 net.cpp:137] Memory required for data: 262426400
I0125 17:19:36.687002 14695 layer_factory.hpp:78] Creating layer pool1
I0125 17:19:36.687047 14695 net.cpp:84] Creating Layer pool1
I0125 17:19:36.687057 14695 net.cpp:406] pool1 <- conv1
I0125 17:19:36.687077 14695 net.cpp:380] pool1 -> pool1
I0125 17:19:36.687165 14695 net.cpp:122] Setting up pool1
I0125 17:19:36.687180 14695 net.cpp:129] Top shape: 50 96 27 27 (3499200)
I0125 17:19:36.687186 14695 net.cpp:137] Memory required for data: 276423200
I0125 17:19:36.687191 14695 layer_factory.hpp:78] Creating layer conv2
I0125 17:19:36.687225 14695 net.cpp:84] Creating Layer conv2
I0125 17:19:36.687234 14695 net.cpp:406] conv2 <- pool1
I0125 17:19:36.687270 14695 net.cpp:380] conv2 -> conv2
I0125 17:19:36.745903 14695 cudnn_binary_conv_layer.cpp:194] Reallocating workspace storage: 19668
I0125 17:19:36.745951 14695 net.cpp:122] Setting up conv2
I0125 17:19:36.745980 14695 net.cpp:129] Top shape: 50 256 27 27 (9331200)
I0125 17:19:36.745985 14695 net.cpp:137] Memory required for data: 313748000
I0125 17:19:36.746002 14695 layer_factory.hpp:78] Creating layer bn2
I0125 17:19:36.746026 14695 net.cpp:84] Creating Layer bn2
I0125 17:19:36.746035 14695 net.cpp:406] bn2 <- conv2
I0125 17:19:36.746054 14695 net.cpp:367] bn2 -> conv2 (in-place)
I0125 17:19:36.746311 14695 net.cpp:122] Setting up bn2
I0125 17:19:36.746325 14695 net.cpp:129] Top shape: 50 256 27 27 (9331200)
I0125 17:19:36.746330 14695 net.cpp:137] Memory required for data: 351072800
I0125 17:19:36.746387 14695 layer_factory.hpp:78] Creating layer scale2
I0125 17:19:36.746410 14695 net.cpp:84] Creating Layer scale2
I0125 17:19:36.746418 14695 net.cpp:406] scale2 <- conv2
I0125 17:19:36.746435 14695 net.cpp:367] scale2 -> conv2 (in-place)
I0125 17:19:36.746537 14695 layer_factory.hpp:78] Creating layer scale2
I0125 17:19:36.746834 14695 net.cpp:122] Setting up scale2
I0125 17:19:36.746860 14695 net.cpp:129] Top shape: 50 256 27 27 (9331200)
I0125 17:19:36.746865 14695 net.cpp:137] Memory required for data: 388397600
I0125 17:19:36.746923 14695 layer_factory.hpp:78] Creating layer relu2
I0125 17:19:36.746948 14695 net.cpp:84] Creating Layer relu2
I0125 17:19:36.746956 14695 net.cpp:406] relu2 <- conv2
I0125 17:19:36.746973 14695 net.cpp:367] relu2 -> conv2 (in-place)
I0125 17:19:36.747859 14695 net.cpp:122] Setting up relu2
I0125 17:19:36.747885 14695 net.cpp:129] Top shape: 50 256 27 27 (9331200)
I0125 17:19:36.747890 14695 net.cpp:137] Memory required for data: 425722400
I0125 17:19:36.747898 14695 layer_factory.hpp:78] Creating layer pool2
I0125 17:19:36.747937 14695 net.cpp:84] Creating Layer pool2
I0125 17:19:36.747946 14695 net.cpp:406] pool2 <- conv2
I0125 17:19:36.747967 14695 net.cpp:380] pool2 -> pool2
I0125 17:19:36.748049 14695 net.cpp:122] Setting up pool2
I0125 17:19:36.748064 14695 net.cpp:129] Top shape: 50 256 13 13 (2163200)
I0125 17:19:36.748069 14695 net.cpp:137] Memory required for data: 434375200
I0125 17:19:36.748075 14695 layer_factory.hpp:78] Creating layer conv3
I0125 17:19:36.748106 14695 net.cpp:84] Creating Layer conv3
I0125 17:19:36.748117 14695 net.cpp:406] conv3 <- pool2
I0125 17:19:36.748140 14695 net.cpp:380] conv3 -> conv3
I0125 17:19:36.826455 14695 cudnn_binary_conv_layer.cpp:194] Reallocating workspace storage: 18874368
I0125 17:19:36.826877 14695 net.cpp:122] Setting up conv3
I0125 17:19:36.826908 14695 net.cpp:129] Top shape: 50 384 13 13 (3244800)
I0125 17:19:36.826913 14695 net.cpp:137] Memory required for data: 447354400
I0125 17:19:36.826954 14695 layer_factory.hpp:78] Creating layer bn3
I0125 17:19:36.827006 14695 net.cpp:84] Creating Layer bn3
I0125 17:19:36.827042 14695 net.cpp:406] bn3 <- conv3
I0125 17:19:36.827080 14695 net.cpp:367] bn3 -> conv3 (in-place)
I0125 17:19:36.827371 14695 net.cpp:122] Setting up bn3
I0125 17:19:36.827386 14695 net.cpp:129] Top shape: 50 384 13 13 (3244800)
I0125 17:19:36.827390 14695 net.cpp:137] Memory required for data: 460333600
I0125 17:19:36.827414 14695 layer_factory.hpp:78] Creating layer scale3
I0125 17:19:36.827438 14695 net.cpp:84] Creating Layer scale3
I0125 17:19:36.827445 14695 net.cpp:406] scale3 <- conv3
I0125 17:19:36.827461 14695 net.cpp:367] scale3 -> conv3 (in-place)
I0125 17:19:36.827545 14695 layer_factory.hpp:78] Creating layer scale3
I0125 17:19:36.827744 14695 net.cpp:122] Setting up scale3
I0125 17:19:36.827760 14695 net.cpp:129] Top shape: 50 384 13 13 (3244800)
I0125 17:19:36.827764 14695 net.cpp:137] Memory required for data: 473312800
I0125 17:19:36.827795 14695 layer_factory.hpp:78] Creating layer relu3
I0125 17:19:36.827811 14695 net.cpp:84] Creating Layer relu3
I0125 17:19:36.827819 14695 net.cpp:406] relu3 <- conv3
I0125 17:19:36.827833 14695 net.cpp:367] relu3 -> conv3 (in-place)
I0125 17:19:36.828763 14695 net.cpp:122] Setting up relu3
I0125 17:19:36.828778 14695 net.cpp:129] Top shape: 50 384 13 13 (3244800)
I0125 17:19:36.828783 14695 net.cpp:137] Memory required for data: 486292000
I0125 17:19:36.828789 14695 layer_factory.hpp:78] Creating layer conv4
I0125 17:19:36.828835 14695 net.cpp:84] Creating Layer conv4
I0125 17:19:36.828846 14695 net.cpp:406] conv4 <- conv3
I0125 17:19:36.828868 14695 net.cpp:380] conv4 -> conv4
I0125 17:19:36.949317 14695 cudnn_binary_conv_layer.cpp:194] Reallocating workspace storage: 9840
I0125 17:19:36.949381 14695 net.cpp:122] Setting up conv4
I0125 17:19:36.949399 14695 net.cpp:129] Top shape: 50 384 13 13 (3244800)
I0125 17:19:36.949403 14695 net.cpp:137] Memory required for data: 499271200
I0125 17:19:36.949426 14695 layer_factory.hpp:78] Creating layer bn4
I0125 17:19:36.949457 14695 net.cpp:84] Creating Layer bn4
I0125 17:19:36.949470 14695 net.cpp:406] bn4 <- conv4
I0125 17:19:36.949491 14695 net.cpp:367] bn4 -> conv4 (in-place)
I0125 17:19:36.949800 14695 net.cpp:122] Setting up bn4
I0125 17:19:36.949812 14695 net.cpp:129] Top shape: 50 384 13 13 (3244800)
I0125 17:19:36.949815 14695 net.cpp:137] Memory required for data: 512250400
I0125 17:19:36.949837 14695 layer_factory.hpp:78] Creating layer scale4
I0125 17:19:36.949867 14695 net.cpp:84] Creating Layer scale4
I0125 17:19:36.949874 14695 net.cpp:406] scale4 <- conv4
I0125 17:19:36.949888 14695 net.cpp:367] scale4 -> conv4 (in-place)
I0125 17:19:36.949965 14695 layer_factory.hpp:78] Creating layer scale4
I0125 17:19:36.950151 14695 net.cpp:122] Setting up scale4
I0125 17:19:36.950165 14695 net.cpp:129] Top shape: 50 384 13 13 (3244800)
I0125 17:19:36.950168 14695 net.cpp:137] Memory required for data: 525229600
I0125 17:19:36.950183 14695 layer_factory.hpp:78] Creating layer relu4
I0125 17:19:36.950201 14695 net.cpp:84] Creating Layer relu4
I0125 17:19:36.950208 14695 net.cpp:406] relu4 <- conv4
I0125 17:19:36.950225 14695 net.cpp:367] relu4 -> conv4 (in-place)
I0125 17:19:36.950872 14695 net.cpp:122] Setting up relu4
I0125 17:19:36.950886 14695 net.cpp:129] Top shape: 50 384 13 13 (3244800)
I0125 17:19:36.950906 14695 net.cpp:137] Memory required for data: 538208800
I0125 17:19:36.950912 14695 layer_factory.hpp:78] Creating layer conv5
I0125 17:19:36.950947 14695 net.cpp:84] Creating Layer conv5
I0125 17:19:36.950956 14695 net.cpp:406] conv5 <- conv4
I0125 17:19:36.950978 14695 net.cpp:380] conv5 -> conv5
I0125 17:19:37.033826 14695 cudnn_binary_conv_layer.cpp:194] Reallocating workspace storage: 18874368
I0125 17:19:37.034183 14695 net.cpp:122] Setting up conv5
I0125 17:19:37.034214 14695 net.cpp:129] Top shape: 50 256 13 13 (2163200)
I0125 17:19:37.034219 14695 net.cpp:137] Memory required for data: 546861600
I0125 17:19:37.034265 14695 layer_factory.hpp:78] Creating layer bn5
I0125 17:19:37.034322 14695 net.cpp:84] Creating Layer bn5
I0125 17:19:37.034337 14695 net.cpp:406] bn5 <- conv5
I0125 17:19:37.034482 14695 net.cpp:367] bn5 -> conv5 (in-place)
I0125 17:19:37.034770 14695 net.cpp:122] Setting up bn5
I0125 17:19:37.034781 14695 net.cpp:129] Top shape: 50 256 13 13 (2163200)
I0125 17:19:37.034785 14695 net.cpp:137] Memory required for data: 555514400
I0125 17:19:37.034808 14695 layer_factory.hpp:78] Creating layer scale5
I0125 17:19:37.034832 14695 net.cpp:84] Creating Layer scale5
I0125 17:19:37.034840 14695 net.cpp:406] scale5 <- conv5
I0125 17:19:37.034857 14695 net.cpp:367] scale5 -> conv5 (in-place)
I0125 17:19:37.034946 14695 layer_factory.hpp:78] Creating layer scale5
I0125 17:19:37.035125 14695 net.cpp:122] Setting up scale5
I0125 17:19:37.035138 14695 net.cpp:129] Top shape: 50 256 13 13 (2163200)
I0125 17:19:37.035142 14695 net.cpp:137] Memory required for data: 564167200
I0125 17:19:37.035157 14695 layer_factory.hpp:78] Creating layer relu5
I0125 17:19:37.035176 14695 net.cpp:84] Creating Layer relu5
I0125 17:19:37.035182 14695 net.cpp:406] relu5 <- conv5
I0125 17:19:37.035199 14695 net.cpp:367] relu5 -> conv5 (in-place)
I0125 17:19:37.035841 14695 net.cpp:122] Setting up relu5
I0125 17:19:37.035856 14695 net.cpp:129] Top shape: 50 256 13 13 (2163200)
I0125 17:19:37.035858 14695 net.cpp:137] Memory required for data: 572820000
I0125 17:19:37.035866 14695 layer_factory.hpp:78] Creating layer pool5
I0125 17:19:37.035887 14695 net.cpp:84] Creating Layer pool5
I0125 17:19:37.035894 14695 net.cpp:406] pool5 <- conv5
I0125 17:19:37.035915 14695 net.cpp:380] pool5 -> pool5
I0125 17:19:37.035993 14695 net.cpp:122] Setting up pool5
I0125 17:19:37.036010 14695 net.cpp:129] Top shape: 50 256 6 6 (460800)
I0125 17:19:37.036013 14695 net.cpp:137] Memory required for data: 574663200
I0125 17:19:37.036020 14695 layer_factory.hpp:78] Creating layer fc6
I0125 17:19:37.036046 14695 net.cpp:84] Creating Layer fc6
I0125 17:19:37.036054 14695 net.cpp:406] fc6 <- pool5
I0125 17:19:37.036072 14695 net.cpp:380] fc6 -> fc6
I0125 17:19:40.185111 14695 net.cpp:122] Setting up fc6
I0125 17:19:40.185173 14695 net.cpp:129] Top shape: 50 4096 (204800)
I0125 17:19:40.185178 14695 net.cpp:137] Memory required for data: 575482400
I0125 17:19:40.185242 14695 layer_factory.hpp:78] Creating layer bn6
I0125 17:19:40.185289 14695 net.cpp:84] Creating Layer bn6
I0125 17:19:40.185305 14695 net.cpp:406] bn6 <- fc6
I0125 17:19:40.185359 14695 net.cpp:367] bn6 -> fc6 (in-place)
I0125 17:19:40.185721 14695 net.cpp:122] Setting up bn6
I0125 17:19:40.185737 14695 net.cpp:129] Top shape: 50 4096 (204800)
I0125 17:19:40.185742 14695 net.cpp:137] Memory required for data: 576301600
I0125 17:19:40.185793 14695 layer_factory.hpp:78] Creating layer scale6
I0125 17:19:40.185823 14695 net.cpp:84] Creating Layer scale6
I0125 17:19:40.185834 14695 net.cpp:406] scale6 <- fc6
I0125 17:19:40.185854 14695 net.cpp:367] scale6 -> fc6 (in-place)
I0125 17:19:40.186008 14695 layer_factory.hpp:78] Creating layer scale6
I0125 17:19:40.186237 14695 net.cpp:122] Setting up scale6
I0125 17:19:40.186251 14695 net.cpp:129] Top shape: 50 4096 (204800)
I0125 17:19:40.186257 14695 net.cpp:137] Memory required for data: 577120800
I0125 17:19:40.186293 14695 layer_factory.hpp:78] Creating layer relu6
I0125 17:19:40.186311 14695 net.cpp:84] Creating Layer relu6
I0125 17:19:40.186319 14695 net.cpp:406] relu6 <- fc6
I0125 17:19:40.186341 14695 net.cpp:367] relu6 -> fc6 (in-place)
I0125 17:19:40.187865 14695 net.cpp:122] Setting up relu6
I0125 17:19:40.187881 14695 net.cpp:129] Top shape: 50 4096 (204800)
I0125 17:19:40.187887 14695 net.cpp:137] Memory required for data: 577940000
I0125 17:19:40.187911 14695 layer_factory.hpp:78] Creating layer drop6
I0125 17:19:40.187949 14695 net.cpp:84] Creating Layer drop6
I0125 17:19:40.187958 14695 net.cpp:406] drop6 <- fc6
I0125 17:19:40.187980 14695 net.cpp:367] drop6 -> fc6 (in-place)
I0125 17:19:40.188035 14695 net.cpp:122] Setting up drop6
I0125 17:19:40.188046 14695 net.cpp:129] Top shape: 50 4096 (204800)
I0125 17:19:40.188050 14695 net.cpp:137] Memory required for data: 578759200
I0125 17:19:40.188057 14695 layer_factory.hpp:78] Creating layer fc7
I0125 17:19:40.188110 14695 net.cpp:84] Creating Layer fc7
I0125 17:19:40.188122 14695 net.cpp:406] fc7 <- fc6
I0125 17:19:40.188149 14695 net.cpp:380] fc7 -> fc7
I0125 17:19:41.574420 14695 net.cpp:122] Setting up fc7
I0125 17:19:41.574482 14695 net.cpp:129] Top shape: 50 4096 (204800)
I0125 17:19:41.574488 14695 net.cpp:137] Memory required for data: 579578400
I0125 17:19:41.574522 14695 layer_factory.hpp:78] Creating layer bn7
I0125 17:19:41.574582 14695 net.cpp:84] Creating Layer bn7
I0125 17:19:41.574600 14695 net.cpp:406] bn7 <- fc7
I0125 17:19:41.574646 14695 net.cpp:367] bn7 -> fc7 (in-place)
I0125 17:19:41.574975 14695 net.cpp:122] Setting up bn7
I0125 17:19:41.574987 14695 net.cpp:129] Top shape: 50 4096 (204800)
I0125 17:19:41.575007 14695 net.cpp:137] Memory required for data: 580397600
I0125 17:19:41.575048 14695 layer_factory.hpp:78] Creating layer scale7
I0125 17:19:41.575100 14695 net.cpp:84] Creating Layer scale7
I0125 17:19:41.575111 14695 net.cpp:406] scale7 <- fc7
I0125 17:19:41.575130 14695 net.cpp:367] scale7 -> fc7 (in-place)
I0125 17:19:41.575250 14695 layer_factory.hpp:78] Creating layer scale7
I0125 17:19:41.575472 14695 net.cpp:122] Setting up scale7
I0125 17:19:41.575502 14695 net.cpp:129] Top shape: 50 4096 (204800)
I0125 17:19:41.575506 14695 net.cpp:137] Memory required for data: 581216800
I0125 17:19:41.575525 14695 layer_factory.hpp:78] Creating layer relu7
I0125 17:19:41.575562 14695 net.cpp:84] Creating Layer relu7
I0125 17:19:41.575570 14695 net.cpp:406] relu7 <- fc7
I0125 17:19:41.575589 14695 net.cpp:367] relu7 -> fc7 (in-place)
I0125 17:19:41.578222 14695 net.cpp:122] Setting up relu7
I0125 17:19:41.578256 14695 net.cpp:129] Top shape: 50 4096 (204800)
I0125 17:19:41.578261 14695 net.cpp:137] Memory required for data: 582036000
I0125 17:19:41.578269 14695 layer_factory.hpp:78] Creating layer drop7
I0125 17:19:41.578291 14695 net.cpp:84] Creating Layer drop7
I0125 17:19:41.578300 14695 net.cpp:406] drop7 <- fc7
I0125 17:19:41.578320 14695 net.cpp:367] drop7 -> fc7 (in-place)
I0125 17:19:41.578413 14695 net.cpp:122] Setting up drop7
I0125 17:19:41.578426 14695 net.cpp:129] Top shape: 50 4096 (204800)
I0125 17:19:41.578429 14695 net.cpp:137] Memory required for data: 582855200
I0125 17:19:41.578436 14695 layer_factory.hpp:78] Creating layer fc8
I0125 17:19:41.578464 14695 net.cpp:84] Creating Layer fc8
I0125 17:19:41.578474 14695 net.cpp:406] fc8 <- fc7
I0125 17:19:41.578496 14695 net.cpp:380] fc8 -> fc8
I0125 17:19:41.910573 14695 net.cpp:122] Setting up fc8
I0125 17:19:41.910636 14695 net.cpp:129] Top shape: 50 1000 (50000)
I0125 17:19:41.910642 14695 net.cpp:137] Memory required for data: 583055200
I0125 17:19:41.910677 14695 layer_factory.hpp:78] Creating layer fc8_fc8_0_split
I0125 17:19:41.910732 14695 net.cpp:84] Creating Layer fc8_fc8_0_split
I0125 17:19:41.910748 14695 net.cpp:406] fc8_fc8_0_split <- fc8
I0125 17:19:41.910778 14695 net.cpp:380] fc8_fc8_0_split -> fc8_fc8_0_split_0
I0125 17:19:41.910815 14695 net.cpp:380] fc8_fc8_0_split -> fc8_fc8_0_split_1
I0125 17:19:41.910835 14695 net.cpp:380] fc8_fc8_0_split -> fc8_fc8_0_split_2
I0125 17:19:41.910925 14695 net.cpp:122] Setting up fc8_fc8_0_split
I0125 17:19:41.910943 14695 net.cpp:129] Top shape: 50 1000 (50000)
I0125 17:19:41.910950 14695 net.cpp:129] Top shape: 50 1000 (50000)
I0125 17:19:41.910956 14695 net.cpp:129] Top shape: 50 1000 (50000)
I0125 17:19:41.910959 14695 net.cpp:137] Memory required for data: 583655200
I0125 17:19:41.910967 14695 layer_factory.hpp:78] Creating layer loss
I0125 17:19:41.910984 14695 net.cpp:84] Creating Layer loss
I0125 17:19:41.910993 14695 net.cpp:406] loss <- fc8_fc8_0_split_0
I0125 17:19:41.911010 14695 net.cpp:406] loss <- label_data_1_split_0
I0125 17:19:41.911026 14695 net.cpp:380] loss -> loss
…
