…
I0125 18:19:59.439831 48777 net.cpp:294] The NetState phase (0) differed from the phase (1) specified by a rule in layer data
I0125 18:19:59.440129 48777 net.cpp:51] Initializing net from parameters: 
name: "AlexNet-BN"
state {
  phase: TRAIN
  level: 0
  stage: ""
}
layer {
  name: "data"
  type: "Data"
  top: "data"
  top: "label"
  include {
    phase: TRAIN
  }
  transform_param {
    mirror: true
    crop_size: 224
    mean_value: 104
    mean_value: 117
    mean_value: 123
  }
  data_param {
    source: "/home/zhengzhe/Data/imagenet_shrt256/ilsvrc12_train_lmdb"
    batch_size: 256
    backend: LMDB
  }
}
layer {
  name: "conv1"
  type: "Convolution"
  bottom: "data"
  top: "conv1"
  param {
    lr_mult: 1
    decay_mult: 1
  }
  convolution_param {
    num_output: 96
    bias_term: false
    pad: 2
    kernel_size: 11
    stride: 4
    weight_filler {
      type: "msra"
    }
  }
}
layer {
  name: "bn1"
  type: "BatchNorm"
  bottom: "conv1"
  top: "conv1"
}
layer {
  name: "scale1"
  type: "Scale"
  bottom: "conv1"
  top: "conv1"
  scale_param {
    bias_term: true
  }
}
layer {
  name: "relu1"
  type: "ReLU"
  bottom: "conv1"
  top: "conv1"
}
layer {
  name: "pool1"
  type: "Pooling"
  bottom: "conv1"
  top: "pool1"
  pooling_param {
    pool: MAX
    kernel_size: 3
    stride: 2
  }
}
layer {
  name: "conv2"
  type: "BinaryConvolution"
  bottom: "pool1"
  top: "conv2"
  param {
    lr_mult: 1
    decay_mult: 1
  }
  convolution_param {
    num_output: 256
    bias_term: false
    pad: 2
    kernel_size: 5
    weight_filler {
      type: "msra"
    }
  }
  debug_param {
    xnorno_grad: false
    binary_relax: true
    update_lamda: 2500
    phase1_iter: 300000
  }
}
layer {
  name: "bn2"
  type: "BatchNorm"
  bottom: "conv2"
  top: "conv2"
}
layer {
  name: "scale2"
  type: "Scale"
  bottom: "conv2"
  top: "conv2"
  scale_param {
    bias_term: true
  }
}
layer {
  name: "relu2"
  type: "ReLU"
  bottom: "conv2"
  top: "conv2"
}
layer {
  name: "pool2"
  type: "Pooling"
  bottom: "conv2"
  top: "pool2"
  pooling_param {
    pool: MAX
    kernel_size: 3
    stride: 2
  }
}
layer {
  name: "conv3"
  type: "BinaryConvolution"
  bottom: "pool2"
  top: "conv3"
  param {
    lr_mult: 1
    decay_mult: 1
  }
  convolution_param {
    num_output: 384
    bias_term: false
    pad: 1
    kernel_size: 3
    weight_filler {
      type: "msra"
    }
  }
  debug_param {
    xnorno_grad: false
    binary_relax: true
    update_lamda: 2500
    phase1_iter: 300000
  }
}
layer {
  name: "bn3"
  type: "BatchNorm"
  bottom: "conv3"
  top: "conv3"
}
layer {
  name: "scale3"
  type: "Scale"
  bottom: "conv3"
  top: "conv3"
  scale_param {
    bias_term: true
  }
}
layer {
  name: "relu3"
  type: "ReLU"
  bottom: "conv3"
  top: "conv3"
}
layer {
  name: "conv4"
  type: "BinaryConvolution"
  bottom: "conv3"
  top: "conv4"
  param {
    lr_mult: 1
    decay_mult: 1
  }
  convolution_param {
    num_output: 384
    bias_term: false
    pad: 1
    kernel_size: 3
    weight_filler {
      type: "msra"
    }
  }
  debug_param {
    xnorno_grad: false
    binary_relax: true
    update_lamda: 2500
    phase1_iter: 300000
  }
}
layer {
  name: "bn4"
  type: "BatchNorm"
  bottom: "conv4"
  top: "conv4"
}
layer {
  name: "scale4"
  type: "Scale"
  bottom: "conv4"
  top: "conv4"
  scale_param {
    bias_term: true
  }
}
layer {
  name: "relu4"
  type: "ReLU"
  bottom: "conv4"
  top: "conv4"
}
layer {
  name: "conv5"
  type: "BinaryConvolution"
  bottom: "conv4"
  top: "conv5"
  param {
    lr_mult: 1
    decay_mult: 1
  }
  convolution_param {
    num_output: 256
    bias_term: false
    pad: 1
    kernel_size: 3
    weight_filler {
      type: "msra"
    }
  }
  debug_param {
    xnorno_grad: false
    binary_relax: true
    update_lamda: 2500
    phase1_iter: 300000
  }
}
layer {
  name: "bn5"
  type: "BatchNorm"
  bottom: "conv5"
  top: "conv5"
}
layer {
  name: "scale5"
  type: "Scale"
  bottom: "conv5"
  top: "conv5"
  scale_param {
    bias_term: true
  }
}
layer {
  name: "relu5"
  type: "ReLU"
  bottom: "conv5"
  top: "conv5"
}
layer {
  name: "pool5"
  type: "Pooling"
  bottom: "conv5"
  top: "pool5"
  pooling_param {
    pool: MAX
    kernel_size: 3
    stride: 2
  }
}
layer {
  name: "fc6"
  type: "BinaryInnerProduct"
  bottom: "pool5"
  top: "fc6"
  param {
    lr_mult: 1
    decay_mult: 1
  }
  inner_product_param {
    num_output: 4096
    bias_term: false
    weight_filler {
      type: "msra"
    }
  }
  debug_param {
    xnorno_grad: false
    binary_relax: true
    update_lamda: 2500
    phase1_iter: 300000
  }
}
layer {
  name: "bn6"
  type: "BatchNorm"
  bottom: "fc6"
  top: "fc6"
}
layer {
  name: "scale6"
  type: "Scale"
  bottom: "fc6"
  top: "fc6"
  scale_param {
    bias_term: true
  }
}
layer {
  name: "relu6"
  type: "ReLU"
  bottom: "fc6"
  top: "fc6"
}
layer {
  name: "drop6"
  type: "Dropout"
  bottom: "fc6"
  top: "fc6"
  dropout_param {
    dropout_ratio: 0.1
  }
}
layer {
  name: "fc7"
  type: "BinaryInnerProduct"
  bottom: "fc6"
  top: "fc7"
  param {
    lr_mult: 1
    decay_mult: 1
  }
  inner_product_param {
    num_output: 4096
    bias_term: false
    weight_filler {
      type: "msra"
    }
  }
  debug_param {
    xnorno_grad: false
    binary_relax: true
    update_lamda: 2500
    phase1_iter: 300000
  }
}
layer {
  name: "bn7"
  type: "BatchNorm"
  bottom: "fc7"
  top: "fc7"
}
layer {
  name: "scale7"
  type: "Scale"
  bottom: "fc7"
  top: "fc7"
  scale_param {
    bias_term: true
  }
}
layer {
  name: "relu7"
  type: "ReLU"
  bottom: "fc7"
  top: "fc7"
}
layer {
  name: "drop7"
  type: "Dropout"
  bottom: "fc7"
  top: "fc7"
  dropout_param {
    dropout_ratio: 0.1
  }
}
layer {
  name: "fc8"
  type: "InnerProduct"
  bottom: "fc7"
  top: "fc8"
  param {
    lr_mult: 1
    decay_mult: 1
  }
  param {
    lr_mult: 2
    decay_mult: 0
  }
  inner_product_param {
    num_output: 1000
    weight_filler {
      type: "msra"
    }
    bias_filler {
      type: "constant"
      value: 0
    }
  }
}
layer {
  name: "loss"
  type: "SoftmaxWithLoss"
  bottom: "fc8"
  bottom: "label"
  top: "loss"
}
layer {
  name: "accuracy"
  type: "Accuracy"
  bottom: "fc8"
  bottom: "label"
  top: "accuracy"
}
layer {
  name: "accuracy_5"
  type: "Accuracy"
  bottom: "fc8"
  bottom: "label"
  top: "accuracy_5"
  accuracy_param {
    top_k: 5
  }
}
I0125 18:19:59.441061 48777 layer_factory.hpp:78] Creating layer data
I0125 18:19:59.441339 48777 db_lmdb.cpp:35] Opened lmdb /home/zhengzhe/Data/imagenet_shrt256/ilsvrc12_train_lmdb
I0125 18:19:59.441473 48777 net.cpp:84] Creating Layer data
I0125 18:19:59.441514 48777 net.cpp:380] data -> data
I0125 18:19:59.441768 48777 net.cpp:380] data -> label
I0125 18:19:59.444718 48777 data_layer.cpp:45] output data size: 256,3,224,224
I0125 18:19:59.943943 48777 base_data_layer.cpp:72] Initializing prefetch
I0125 18:19:59.944360 48777 base_data_layer.cpp:75] Prefetch initialized.
I0125 18:19:59.944373 48777 net.cpp:122] Setting up data
I0125 18:19:59.944440 48777 net.cpp:129] Top shape: 256 3 224 224 (38535168)
I0125 18:19:59.944452 48777 net.cpp:129] Top shape: 256 (256)
I0125 18:19:59.944455 48777 net.cpp:137] Memory required for data: 154141696
I0125 18:19:59.944506 48777 layer_factory.hpp:78] Creating layer label_data_1_split
I0125 18:19:59.944572 48777 net.cpp:84] Creating Layer label_data_1_split
I0125 18:19:59.944600 48777 net.cpp:406] label_data_1_split <- label
I0125 18:19:59.944660 48777 net.cpp:380] label_data_1_split -> label_data_1_split_0
I0125 18:19:59.944696 48777 net.cpp:380] label_data_1_split -> label_data_1_split_1
I0125 18:19:59.944715 48777 net.cpp:380] label_data_1_split -> label_data_1_split_2
I0125 18:19:59.944815 48777 net.cpp:122] Setting up label_data_1_split
I0125 18:19:59.944828 48777 net.cpp:129] Top shape: 256 (256)
I0125 18:19:59.944842 48777 net.cpp:129] Top shape: 256 (256)
I0125 18:19:59.944849 48777 net.cpp:129] Top shape: 256 (256)
I0125 18:19:59.944854 48777 net.cpp:137] Memory required for data: 154144768
I0125 18:19:59.944860 48777 layer_factory.hpp:78] Creating layer conv1
I0125 18:19:59.944937 48777 net.cpp:84] Creating Layer conv1
I0125 18:19:59.944948 48777 net.cpp:406] conv1 <- data
I0125 18:19:59.944972 48777 net.cpp:380] conv1 -> conv1
I0125 18:20:01.111588 48777 cudnn_conv_layer.cpp:194] Reallocating workspace storage: 127416
I0125 18:20:01.111938 48777 net.cpp:122] Setting up conv1
I0125 18:20:01.111970 48777 net.cpp:129] Top shape: 256 96 55 55 (74342400)
I0125 18:20:01.111975 48777 net.cpp:137] Memory required for data: 451514368
I0125 18:20:01.112097 48777 layer_factory.hpp:78] Creating layer bn1
I0125 18:20:01.112146 48777 net.cpp:84] Creating Layer bn1
I0125 18:20:01.112159 48777 net.cpp:406] bn1 <- conv1
I0125 18:20:01.112191 48777 net.cpp:367] bn1 -> conv1 (in-place)
I0125 18:20:01.116567 48777 net.cpp:122] Setting up bn1
I0125 18:20:01.116588 48777 net.cpp:129] Top shape: 256 96 55 55 (74342400)
I0125 18:20:01.116592 48777 net.cpp:137] Memory required for data: 748883968
I0125 18:20:01.116642 48777 layer_factory.hpp:78] Creating layer scale1
I0125 18:20:01.116691 48777 net.cpp:84] Creating Layer scale1
I0125 18:20:01.116701 48777 net.cpp:406] scale1 <- conv1
I0125 18:20:01.116719 48777 net.cpp:367] scale1 -> conv1 (in-place)
I0125 18:20:01.116828 48777 layer_factory.hpp:78] Creating layer scale1
I0125 18:20:01.117084 48777 net.cpp:122] Setting up scale1
I0125 18:20:01.117099 48777 net.cpp:129] Top shape: 256 96 55 55 (74342400)
I0125 18:20:01.117102 48777 net.cpp:137] Memory required for data: 1046253568
I0125 18:20:01.117151 48777 layer_factory.hpp:78] Creating layer relu1
I0125 18:20:01.117182 48777 net.cpp:84] Creating Layer relu1
I0125 18:20:01.117192 48777 net.cpp:406] relu1 <- conv1
I0125 18:20:01.117208 48777 net.cpp:367] relu1 -> conv1 (in-place)
I0125 18:20:01.117933 48777 net.cpp:122] Setting up relu1
I0125 18:20:01.117947 48777 net.cpp:129] Top shape: 256 96 55 55 (74342400)
I0125 18:20:01.117951 48777 net.cpp:137] Memory required for data: 1343623168
I0125 18:20:01.117957 48777 layer_factory.hpp:78] Creating layer pool1
I0125 18:20:01.117987 48777 net.cpp:84] Creating Layer pool1
I0125 18:20:01.117996 48777 net.cpp:406] pool1 <- conv1
I0125 18:20:01.118013 48777 net.cpp:380] pool1 -> pool1
I0125 18:20:01.118101 48777 net.cpp:122] Setting up pool1
I0125 18:20:01.118114 48777 net.cpp:129] Top shape: 256 96 27 27 (17915904)
I0125 18:20:01.118119 48777 net.cpp:137] Memory required for data: 1415286784
I0125 18:20:01.118124 48777 layer_factory.hpp:78] Creating layer conv2
I0125 18:20:01.118170 48777 net.cpp:84] Creating Layer conv2
I0125 18:20:01.118180 48777 net.cpp:406] conv2 <- pool1
I0125 18:20:01.118202 48777 net.cpp:380] conv2 -> conv2
I0125 18:20:01.187939 48777 cudnn_binary_conv_layer.cpp:194] Reallocating workspace storage: 19668
I0125 18:20:01.188009 48777 net.cpp:122] Setting up conv2
I0125 18:20:01.188033 48777 net.cpp:129] Top shape: 256 256 27 27 (47775744)
I0125 18:20:01.188042 48777 net.cpp:137] Memory required for data: 1606389760
I0125 18:20:01.188091 48777 layer_factory.hpp:78] Creating layer bn2
I0125 18:20:01.188134 48777 net.cpp:84] Creating Layer bn2
I0125 18:20:01.188148 48777 net.cpp:406] bn2 <- conv2
I0125 18:20:01.188182 48777 net.cpp:367] bn2 -> conv2 (in-place)
I0125 18:20:01.190376 48777 net.cpp:122] Setting up bn2
I0125 18:20:01.190400 48777 net.cpp:129] Top shape: 256 256 27 27 (47775744)
I0125 18:20:01.190407 48777 net.cpp:137] Memory required for data: 1797492736
I0125 18:20:01.190459 48777 layer_factory.hpp:78] Creating layer scale2
I0125 18:20:01.190491 48777 net.cpp:84] Creating Layer scale2
I0125 18:20:01.190500 48777 net.cpp:406] scale2 <- conv2
I0125 18:20:01.190517 48777 net.cpp:367] scale2 -> conv2 (in-place)
I0125 18:20:01.190614 48777 layer_factory.hpp:78] Creating layer scale2
I0125 18:20:01.190945 48777 net.cpp:122] Setting up scale2
I0125 18:20:01.190981 48777 net.cpp:129] Top shape: 256 256 27 27 (47775744)
I0125 18:20:01.190986 48777 net.cpp:137] Memory required for data: 1988595712
I0125 18:20:01.191001 48777 layer_factory.hpp:78] Creating layer relu2
I0125 18:20:01.191016 48777 net.cpp:84] Creating Layer relu2
I0125 18:20:01.191026 48777 net.cpp:406] relu2 <- conv2
I0125 18:20:01.191047 48777 net.cpp:367] relu2 -> conv2 (in-place)
I0125 18:20:01.191906 48777 net.cpp:122] Setting up relu2
I0125 18:20:01.191941 48777 net.cpp:129] Top shape: 256 256 27 27 (47775744)
I0125 18:20:01.191947 48777 net.cpp:137] Memory required for data: 2179698688
I0125 18:20:01.191954 48777 layer_factory.hpp:78] Creating layer pool2
I0125 18:20:01.192003 48777 net.cpp:84] Creating Layer pool2
I0125 18:20:01.192016 48777 net.cpp:406] pool2 <- conv2
I0125 18:20:01.192046 48777 net.cpp:380] pool2 -> pool2
I0125 18:20:01.192140 48777 net.cpp:122] Setting up pool2
I0125 18:20:01.192163 48777 net.cpp:129] Top shape: 256 256 13 13 (11075584)
I0125 18:20:01.192168 48777 net.cpp:137] Memory required for data: 2224001024
I0125 18:20:01.192188 48777 layer_factory.hpp:78] Creating layer conv3
I0125 18:20:01.192235 48777 net.cpp:84] Creating Layer conv3
I0125 18:20:01.192248 48777 net.cpp:406] conv3 <- pool2
I0125 18:20:01.192282 48777 net.cpp:380] conv3 -> conv3
I0125 18:20:01.283731 48777 cudnn_binary_conv_layer.cpp:194] Reallocating workspace storage: 18874368
I0125 18:20:01.284072 48777 net.cpp:122] Setting up conv3
I0125 18:20:01.284096 48777 net.cpp:129] Top shape: 256 384 13 13 (16613376)
I0125 18:20:01.284102 48777 net.cpp:137] Memory required for data: 2290454528
I0125 18:20:01.284132 48777 layer_factory.hpp:78] Creating layer bn3
I0125 18:20:01.284169 48777 net.cpp:84] Creating Layer bn3
I0125 18:20:01.284183 48777 net.cpp:406] bn3 <- conv3
I0125 18:20:01.284209 48777 net.cpp:367] bn3 -> conv3 (in-place)
I0125 18:20:01.284484 48777 net.cpp:122] Setting up bn3
I0125 18:20:01.284495 48777 net.cpp:129] Top shape: 256 384 13 13 (16613376)
I0125 18:20:01.284499 48777 net.cpp:137] Memory required for data: 2356908032
I0125 18:20:01.284523 48777 layer_factory.hpp:78] Creating layer scale3
I0125 18:20:01.284552 48777 net.cpp:84] Creating Layer scale3
I0125 18:20:01.284560 48777 net.cpp:406] scale3 <- conv3
I0125 18:20:01.284574 48777 net.cpp:367] scale3 -> conv3 (in-place)
I0125 18:20:01.284641 48777 layer_factory.hpp:78] Creating layer scale3
I0125 18:20:01.284812 48777 net.cpp:122] Setting up scale3
I0125 18:20:01.284824 48777 net.cpp:129] Top shape: 256 384 13 13 (16613376)
I0125 18:20:01.284828 48777 net.cpp:137] Memory required for data: 2423361536
I0125 18:20:01.284858 48777 layer_factory.hpp:78] Creating layer relu3
I0125 18:20:01.284876 48777 net.cpp:84] Creating Layer relu3
I0125 18:20:01.284886 48777 net.cpp:406] relu3 <- conv3
I0125 18:20:01.284906 48777 net.cpp:367] relu3 -> conv3 (in-place)
I0125 18:20:01.285826 48777 net.cpp:122] Setting up relu3
I0125 18:20:01.285842 48777 net.cpp:129] Top shape: 256 384 13 13 (16613376)
I0125 18:20:01.285847 48777 net.cpp:137] Memory required for data: 2489815040
I0125 18:20:01.285863 48777 layer_factory.hpp:78] Creating layer conv4
I0125 18:20:01.285907 48777 net.cpp:84] Creating Layer conv4
I0125 18:20:01.285917 48777 net.cpp:406] conv4 <- conv3
I0125 18:20:01.285939 48777 net.cpp:380] conv4 -> conv4
I0125 18:20:01.414798 48777 cudnn_binary_conv_layer.cpp:194] Reallocating workspace storage: 9840
I0125 18:20:01.414877 48777 net.cpp:122] Setting up conv4
I0125 18:20:01.414932 48777 net.cpp:129] Top shape: 256 384 13 13 (16613376)
I0125 18:20:01.414937 48777 net.cpp:137] Memory required for data: 2556268544
I0125 18:20:01.414964 48777 layer_factory.hpp:78] Creating layer bn4
I0125 18:20:01.415004 48777 net.cpp:84] Creating Layer bn4
I0125 18:20:01.415020 48777 net.cpp:406] bn4 <- conv4
I0125 18:20:01.415048 48777 net.cpp:367] bn4 -> conv4 (in-place)
I0125 18:20:01.415295 48777 net.cpp:122] Setting up bn4
I0125 18:20:01.415305 48777 net.cpp:129] Top shape: 256 384 13 13 (16613376)
I0125 18:20:01.415310 48777 net.cpp:137] Memory required for data: 2622722048
I0125 18:20:01.415333 48777 layer_factory.hpp:78] Creating layer scale4
I0125 18:20:01.415370 48777 net.cpp:84] Creating Layer scale4
I0125 18:20:01.415380 48777 net.cpp:406] scale4 <- conv4
I0125 18:20:01.415400 48777 net.cpp:367] scale4 -> conv4 (in-place)
I0125 18:20:01.415464 48777 layer_factory.hpp:78] Creating layer scale4
I0125 18:20:01.415642 48777 net.cpp:122] Setting up scale4
I0125 18:20:01.415653 48777 net.cpp:129] Top shape: 256 384 13 13 (16613376)
I0125 18:20:01.415657 48777 net.cpp:137] Memory required for data: 2689175552
I0125 18:20:01.415670 48777 layer_factory.hpp:78] Creating layer relu4
I0125 18:20:01.415686 48777 net.cpp:84] Creating Layer relu4
I0125 18:20:01.415694 48777 net.cpp:406] relu4 <- conv4
I0125 18:20:01.415707 48777 net.cpp:367] relu4 -> conv4 (in-place)
I0125 18:20:01.416630 48777 net.cpp:122] Setting up relu4
I0125 18:20:01.416656 48777 net.cpp:129] Top shape: 256 384 13 13 (16613376)
I0125 18:20:01.416661 48777 net.cpp:137] Memory required for data: 2755629056
I0125 18:20:01.416684 48777 layer_factory.hpp:78] Creating layer conv5
I0125 18:20:01.416733 48777 net.cpp:84] Creating Layer conv5
I0125 18:20:01.416743 48777 net.cpp:406] conv5 <- conv4
I0125 18:20:01.416764 48777 net.cpp:380] conv5 -> conv5
I0125 18:20:01.501863 48777 cudnn_binary_conv_layer.cpp:194] Reallocating workspace storage: 18874368
I0125 18:20:01.502257 48777 net.cpp:122] Setting up conv5
I0125 18:20:01.502291 48777 net.cpp:129] Top shape: 256 256 13 13 (11075584)
I0125 18:20:01.502296 48777 net.cpp:137] Memory required for data: 2799931392
I0125 18:20:01.502326 48777 layer_factory.hpp:78] Creating layer bn5
I0125 18:20:01.502388 48777 net.cpp:84] Creating Layer bn5
I0125 18:20:01.502404 48777 net.cpp:406] bn5 <- conv5
I0125 18:20:01.502430 48777 net.cpp:367] bn5 -> conv5 (in-place)
I0125 18:20:01.502722 48777 net.cpp:122] Setting up bn5
I0125 18:20:01.502732 48777 net.cpp:129] Top shape: 256 256 13 13 (11075584)
I0125 18:20:01.502734 48777 net.cpp:137] Memory required for data: 2844233728
I0125 18:20:01.502756 48777 layer_factory.hpp:78] Creating layer scale5
I0125 18:20:01.502776 48777 net.cpp:84] Creating Layer scale5
I0125 18:20:01.502784 48777 net.cpp:406] scale5 <- conv5
I0125 18:20:01.502796 48777 net.cpp:367] scale5 -> conv5 (in-place)
I0125 18:20:01.502869 48777 layer_factory.hpp:78] Creating layer scale5
I0125 18:20:01.503070 48777 net.cpp:122] Setting up scale5
I0125 18:20:01.503082 48777 net.cpp:129] Top shape: 256 256 13 13 (11075584)
I0125 18:20:01.503085 48777 net.cpp:137] Memory required for data: 2888536064
I0125 18:20:01.503100 48777 layer_factory.hpp:78] Creating layer relu5
I0125 18:20:01.503116 48777 net.cpp:84] Creating Layer relu5
I0125 18:20:01.503123 48777 net.cpp:406] relu5 <- conv5
I0125 18:20:01.503136 48777 net.cpp:367] relu5 -> conv5 (in-place)
I0125 18:20:01.503813 48777 net.cpp:122] Setting up relu5
I0125 18:20:01.503826 48777 net.cpp:129] Top shape: 256 256 13 13 (11075584)
I0125 18:20:01.503846 48777 net.cpp:137] Memory required for data: 2932838400
I0125 18:20:01.503852 48777 layer_factory.hpp:78] Creating layer pool5
I0125 18:20:01.503890 48777 net.cpp:84] Creating Layer pool5
I0125 18:20:01.503901 48777 net.cpp:406] pool5 <- conv5
I0125 18:20:01.503919 48777 net.cpp:380] pool5 -> pool5
I0125 18:20:01.503993 48777 net.cpp:122] Setting up pool5
I0125 18:20:01.504007 48777 net.cpp:129] Top shape: 256 256 6 6 (2359296)
I0125 18:20:01.504011 48777 net.cpp:137] Memory required for data: 2942275584
I0125 18:20:01.504038 48777 layer_factory.hpp:78] Creating layer fc6
I0125 18:20:01.504082 48777 net.cpp:84] Creating Layer fc6
I0125 18:20:01.504096 48777 net.cpp:406] fc6 <- pool5
I0125 18:20:01.504123 48777 net.cpp:380] fc6 -> fc6
I0125 18:20:05.043290 48777 net.cpp:122] Setting up fc6
I0125 18:20:05.043376 48777 net.cpp:129] Top shape: 256 4096 (1048576)
I0125 18:20:05.043381 48777 net.cpp:137] Memory required for data: 2946469888
I0125 18:20:05.043419 48777 layer_factory.hpp:78] Creating layer bn6
I0125 18:20:05.043464 48777 net.cpp:84] Creating Layer bn6
I0125 18:20:05.043488 48777 net.cpp:406] bn6 <- fc6
I0125 18:20:05.043516 48777 net.cpp:367] bn6 -> fc6 (in-place)
I0125 18:20:05.043840 48777 net.cpp:122] Setting up bn6
I0125 18:20:05.043850 48777 net.cpp:129] Top shape: 256 4096 (1048576)
I0125 18:20:05.043869 48777 net.cpp:137] Memory required for data: 2950664192
I0125 18:20:05.043910 48777 layer_factory.hpp:78] Creating layer scale6
I0125 18:20:05.043968 48777 net.cpp:84] Creating Layer scale6
I0125 18:20:05.043975 48777 net.cpp:406] scale6 <- fc6
I0125 18:20:05.043989 48777 net.cpp:367] scale6 -> fc6 (in-place)
I0125 18:20:05.044085 48777 layer_factory.hpp:78] Creating layer scale6
I0125 18:20:05.044296 48777 net.cpp:122] Setting up scale6
I0125 18:20:05.044308 48777 net.cpp:129] Top shape: 256 4096 (1048576)
I0125 18:20:05.044312 48777 net.cpp:137] Memory required for data: 2954858496
I0125 18:20:05.044348 48777 layer_factory.hpp:78] Creating layer relu6
I0125 18:20:05.044384 48777 net.cpp:84] Creating Layer relu6
I0125 18:20:05.044391 48777 net.cpp:406] relu6 <- fc6
I0125 18:20:05.044404 48777 net.cpp:367] relu6 -> fc6 (in-place)
I0125 18:20:05.045691 48777 net.cpp:122] Setting up relu6
I0125 18:20:05.045706 48777 net.cpp:129] Top shape: 256 4096 (1048576)
I0125 18:20:05.045724 48777 net.cpp:137] Memory required for data: 2959052800
I0125 18:20:05.045732 48777 layer_factory.hpp:78] Creating layer drop6
I0125 18:20:05.045758 48777 net.cpp:84] Creating Layer drop6
I0125 18:20:05.045765 48777 net.cpp:406] drop6 <- fc6
I0125 18:20:05.045781 48777 net.cpp:367] drop6 -> fc6 (in-place)
I0125 18:20:05.045866 48777 net.cpp:122] Setting up drop6
I0125 18:20:05.045879 48777 net.cpp:129] Top shape: 256 4096 (1048576)
I0125 18:20:05.045882 48777 net.cpp:137] Memory required for data: 2963247104
I0125 18:20:05.045888 48777 layer_factory.hpp:78] Creating layer fc7
I0125 18:20:05.045915 48777 net.cpp:84] Creating Layer fc7
I0125 18:20:05.045923 48777 net.cpp:406] fc7 <- fc6
I0125 18:20:05.045941 48777 net.cpp:380] fc7 -> fc7
I0125 18:20:06.567158 48777 net.cpp:122] Setting up fc7
I0125 18:20:06.567231 48777 net.cpp:129] Top shape: 256 4096 (1048576)
I0125 18:20:06.567236 48777 net.cpp:137] Memory required for data: 2967441408
I0125 18:20:06.567271 48777 layer_factory.hpp:78] Creating layer bn7
I0125 18:20:06.567323 48777 net.cpp:84] Creating Layer bn7
I0125 18:20:06.567338 48777 net.cpp:406] bn7 <- fc7
I0125 18:20:06.567368 48777 net.cpp:367] bn7 -> fc7 (in-place)
I0125 18:20:06.567636 48777 net.cpp:122] Setting up bn7
I0125 18:20:06.567649 48777 net.cpp:129] Top shape: 256 4096 (1048576)
I0125 18:20:06.567652 48777 net.cpp:137] Memory required for data: 2971635712
I0125 18:20:06.567673 48777 layer_factory.hpp:78] Creating layer scale7
I0125 18:20:06.567706 48777 net.cpp:84] Creating Layer scale7
I0125 18:20:06.567714 48777 net.cpp:406] scale7 <- fc7
I0125 18:20:06.567728 48777 net.cpp:367] scale7 -> fc7 (in-place)
I0125 18:20:06.567807 48777 layer_factory.hpp:78] Creating layer scale7
I0125 18:20:06.567993 48777 net.cpp:122] Setting up scale7
I0125 18:20:06.568006 48777 net.cpp:129] Top shape: 256 4096 (1048576)
I0125 18:20:06.568008 48777 net.cpp:137] Memory required for data: 2975830016
I0125 18:20:06.568024 48777 layer_factory.hpp:78] Creating layer relu7
I0125 18:20:06.568042 48777 net.cpp:84] Creating Layer relu7
I0125 18:20:06.568048 48777 net.cpp:406] relu7 <- fc7
I0125 18:20:06.568061 48777 net.cpp:367] relu7 -> fc7 (in-place)
I0125 18:20:06.568986 48777 net.cpp:122] Setting up relu7
I0125 18:20:06.569039 48777 net.cpp:129] Top shape: 256 4096 (1048576)
I0125 18:20:06.569043 48777 net.cpp:137] Memory required for data: 2980024320
I0125 18:20:06.569051 48777 layer_factory.hpp:78] Creating layer drop7
I0125 18:20:06.569068 48777 net.cpp:84] Creating Layer drop7
I0125 18:20:06.569077 48777 net.cpp:406] drop7 <- fc7
I0125 18:20:06.569092 48777 net.cpp:367] drop7 -> fc7 (in-place)
I0125 18:20:06.569154 48777 net.cpp:122] Setting up drop7
I0125 18:20:06.569162 48777 net.cpp:129] Top shape: 256 4096 (1048576)
I0125 18:20:06.569165 48777 net.cpp:137] Memory required for data: 2984218624
I0125 18:20:06.569170 48777 layer_factory.hpp:78] Creating layer fc8
I0125 18:20:06.569209 48777 net.cpp:84] Creating Layer fc8
I0125 18:20:06.569219 48777 net.cpp:406] fc8 <- fc7
I0125 18:20:06.569236 48777 net.cpp:380] fc8 -> fc8
I0125 18:20:06.952791 48777 net.cpp:122] Setting up fc8
I0125 18:20:06.952844 48777 net.cpp:129] Top shape: 256 1000 (256000)
I0125 18:20:06.952848 48777 net.cpp:137] Memory required for data: 2985242624
I0125 18:20:06.952880 48777 layer_factory.hpp:78] Creating layer fc8_fc8_0_split
I0125 18:20:06.952935 48777 net.cpp:84] Creating Layer fc8_fc8_0_split
I0125 18:20:06.952950 48777 net.cpp:406] fc8_fc8_0_split <- fc8
I0125 18:20:06.952975 48777 net.cpp:380] fc8_fc8_0_split -> fc8_fc8_0_split_0
I0125 18:20:06.953025 48777 net.cpp:380] fc8_fc8_0_split -> fc8_fc8_0_split_1
I0125 18:20:06.953038 48777 net.cpp:380] fc8_fc8_0_split -> fc8_fc8_0_split_2
I0125 18:20:06.953114 48777 net.cpp:122] Setting up fc8_fc8_0_split
I0125 18:20:06.953125 48777 net.cpp:129] Top shape: 256 1000 (256000)
I0125 18:20:06.953131 48777 net.cpp:129] Top shape: 256 1000 (256000)
I0125 18:20:06.953135 48777 net.cpp:129] Top shape: 256 1000 (256000)
I0125 18:20:06.953138 48777 net.cpp:137] Memory required for data: 2988314624
I0125 18:20:06.953145 48777 layer_factory.hpp:78] Creating layer loss
I0125 18:20:06.953174 48777 net.cpp:84] Creating Layer loss
I0125 18:20:06.953182 48777 net.cpp:406] loss <- fc8_fc8_0_split_0
I0125 18:20:06.953194 48777 net.cpp:406] loss <- label_data_1_split_0
I0125 18:20:06.953207 48777 net.cpp:380] loss -> loss
…
I0125 18:20:06.959267 48777 net.cpp:294] The NetState phase (1) differed from the phase (0) specified by a rule in layer data
I0125 18:20:06.959489 48777 net.cpp:51] Initializing net from parameters: 
name: "AlexNet-BN"
state {
  phase: TEST
}
layer {
  name: "data"
  type: "Data"
  top: "data"
  top: "label"
  include {
    phase: TEST
  }
  transform_param {
    mirror: false
    crop_size: 224
    mean_value: 104
    mean_value: 117
    mean_value: 123
  }
  data_param {
    source: "/home/zhengzhe/Data/imagenet_shrt256/ilsvrc12_val_lmdb"
    batch_size: 50
    backend: LMDB
  }
}
layer {
  name: "conv1"
  type: "Convolution"
  bottom: "data"
  top: "conv1"
  param {
    lr_mult: 1
    decay_mult: 1
  }
  convolution_param {
    num_output: 96
    bias_term: false
    pad: 2
    kernel_size: 11
    stride: 4
    weight_filler {
      type: "msra"
    }
  }
}
layer {
  name: "bn1"
  type: "BatchNorm"
  bottom: "conv1"
  top: "conv1"
}
layer {
  name: "scale1"
  type: "Scale"
  bottom: "conv1"
  top: "conv1"
  scale_param {
    bias_term: true
  }
}
layer {
  name: "relu1"
  type: "ReLU"
  bottom: "conv1"
  top: "conv1"
}
layer {
  name: "pool1"
  type: "Pooling"
  bottom: "conv1"
  top: "pool1"
  pooling_param {
    pool: MAX
    kernel_size: 3
    stride: 2
  }
}
layer {
  name: "conv2"
  type: "BinaryConvolution"
  bottom: "pool1"
  top: "conv2"
  param {
    lr_mult: 1
    decay_mult: 1
  }
  convolution_param {
    num_output: 256
    bias_term: false
    pad: 2
    kernel_size: 5
    weight_filler {
      type: "msra"
    }
  }
  debug_param {
    xnorno_grad: false
    binary_relax: true
    update_lamda: 2500
    phase1_iter: 300000
  }
}
layer {
  name: "bn2"
  type: "BatchNorm"
  bottom: "conv2"
  top: "conv2"
}
layer {
  name: "scale2"
  type: "Scale"
  bottom: "conv2"
  top: "conv2"
  scale_param {
    bias_term: true
  }
}
layer {
  name: "relu2"
  type: "ReLU"
  bottom: "conv2"
  top: "conv2"
}
layer {
  name: "pool2"
  type: "Pooling"
  bottom: "conv2"
  top: "pool2"
  pooling_param {
    pool: MAX
    kernel_size: 3
    stride: 2
  }
}
layer {
  name: "conv3"
  type: "BinaryConvolution"
  bottom: "pool2"
  top: "conv3"
  param {
    lr_mult: 1
    decay_mult: 1
  }
  convolution_param {
    num_output: 384
    bias_term: false
    pad: 1
    kernel_size: 3
    weight_filler {
      type: "msra"
    }
  }
  debug_param {
    xnorno_grad: false
    binary_relax: true
    update_lamda: 2500
    phase1_iter: 300000
  }
}
layer {
  name: "bn3"
  type: "BatchNorm"
  bottom: "conv3"
  top: "conv3"
}
layer {
  name: "scale3"
  type: "Scale"
  bottom: "conv3"
  top: "conv3"
  scale_param {
    bias_term: true
  }
}
layer {
  name: "relu3"
  type: "ReLU"
  bottom: "conv3"
  top: "conv3"
}
layer {
  name: "conv4"
  type: "BinaryConvolution"
  bottom: "conv3"
  top: "conv4"
  param {
    lr_mult: 1
    decay_mult: 1
  }
  convolution_param {
    num_output: 384
    bias_term: false
    pad: 1
    kernel_size: 3
    weight_filler {
      type: "msra"
    }
  }
  debug_param {
    xnorno_grad: false
    binary_relax: true
    update_lamda: 2500
    phase1_iter: 300000
  }
}
layer {
  name: "bn4"
  type: "BatchNorm"
  bottom: "conv4"
  top: "conv4"
}
layer {
  name: "scale4"
  type: "Scale"
  bottom: "conv4"
  top: "conv4"
  scale_param {
    bias_term: true
  }
}
layer {
  name: "relu4"
  type: "ReLU"
  bottom: "conv4"
  top: "conv4"
}
layer {
  name: "conv5"
  type: "BinaryConvolution"
  bottom: "conv4"
  top: "conv5"
  param {
    lr_mult: 1
    decay_mult: 1
  }
  convolution_param {
    num_output: 256
    bias_term: false
    pad: 1
    kernel_size: 3
    weight_filler {
      type: "msra"
    }
  }
  debug_param {
    xnorno_grad: false
    binary_relax: true
    update_lamda: 2500
    phase1_iter: 300000
  }
}
layer {
  name: "bn5"
  type: "BatchNorm"
  bottom: "conv5"
  top: "conv5"
}
layer {
  name: "scale5"
  type: "Scale"
  bottom: "conv5"
  top: "conv5"
  scale_param {
    bias_term: true
  }
}
layer {
  name: "relu5"
  type: "ReLU"
  bottom: "conv5"
  top: "conv5"
}
layer {
  name: "pool5"
  type: "Pooling"
  bottom: "conv5"
  top: "pool5"
  pooling_param {
    pool: MAX
    kernel_size: 3
    stride: 2
  }
}
layer {
  name: "fc6"
  type: "BinaryInnerProduct"
  bottom: "pool5"
  top: "fc6"
  param {
    lr_mult: 1
    decay_mult: 1
  }
  inner_product_param {
    num_output: 4096
    bias_term: false
    weight_filler {
      type: "msra"
    }
  }
  debug_param {
    xnorno_grad: false
    binary_relax: true
    update_lamda: 2500
    phase1_iter: 300000
  }
}
layer {
  name: "bn6"
  type: "BatchNorm"
  bottom: "fc6"
  top: "fc6"
}
layer {
  name: "scale6"
  type: "Scale"
  bottom: "fc6"
  top: "fc6"
  scale_param {
    bias_term: true
  }
}
layer {
  name: "relu6"
  type: "ReLU"
  bottom: "fc6"
  top: "fc6"
}
layer {
  name: "drop6"
  type: "Dropout"
  bottom: "fc6"
  top: "fc6"
  dropout_param {
    dropout_ratio: 0.1
  }
}
layer {
  name: "fc7"
  type: "BinaryInnerProduct"
  bottom: "fc6"
  top: "fc7"
  param {
    lr_mult: 1
    decay_mult: 1
  }
  inner_product_param {
    num_output: 4096
    bias_term: false
    weight_filler {
      type: "msra"
    }
  }
  debug_param {
    xnorno_grad: false
    binary_relax: true
    update_lamda: 2500
    phase1_iter: 300000
  }
}
layer {
  name: "bn7"
  type: "BatchNorm"
  bottom: "fc7"
  top: "fc7"
}
layer {
  name: "scale7"
  type: "Scale"
  bottom: "fc7"
  top: "fc7"
  scale_param {
    bias_term: true
  }
}
layer {
  name: "relu7"
  type: "ReLU"
  bottom: "fc7"
  top: "fc7"
}
layer {
  name: "drop7"
  type: "Dropout"
  bottom: "fc7"
  top: "fc7"
  dropout_param {
    dropout_ratio: 0.1
  }
}
layer {
  name: "fc8"
  type: "InnerProduct"
  bottom: "fc7"
  top: "fc8"
  param {
    lr_mult: 1
    decay_mult: 1
  }
  param {
    lr_mult: 2
    decay_mult: 0
  }
  inner_product_param {
    num_output: 1000
    weight_filler {
      type: "msra"
    }
    bias_filler {
      type: "constant"
      value: 0
    }
  }
}
layer {
  name: "loss"
  type: "SoftmaxWithLoss"
  bottom: "fc8"
  bottom: "label"
  top: "loss"
}
layer {
  name: "accuracy"
  type: "Accuracy"
  bottom: "fc8"
  bottom: "label"
  top: "accuracy"
}
layer {
  name: "accuracy_5"
  type: "Accuracy"
  bottom: "fc8"
  bottom: "label"
  top: "accuracy_5"
  accuracy_param {
    top_k: 5
  }
}
I0125 18:20:06.959861 48777 layer_factory.hpp:78] Creating layer data
I0125 18:20:06.959947 48777 db_lmdb.cpp:35] Opened lmdb /home/zhengzhe/Data/imagenet_shrt256/ilsvrc12_val_lmdb
I0125 18:20:06.959982 48777 net.cpp:84] Creating Layer data
I0125 18:20:06.959998 48777 net.cpp:380] data -> data
I0125 18:20:06.960027 48777 net.cpp:380] data -> label
I0125 18:20:06.960566 48777 data_layer.cpp:45] output data size: 50,3,224,224
I0125 18:20:07.062168 48777 base_data_layer.cpp:72] Initializing prefetch
I0125 18:20:07.062366 48777 base_data_layer.cpp:75] Prefetch initialized.
I0125 18:20:07.062397 48777 net.cpp:122] Setting up data
I0125 18:20:07.062433 48777 net.cpp:129] Top shape: 50 3 224 224 (7526400)
I0125 18:20:07.062443 48777 net.cpp:129] Top shape: 50 (50)
I0125 18:20:07.062445 48777 net.cpp:137] Memory required for data: 30105800
I0125 18:20:07.062472 48777 layer_factory.hpp:78] Creating layer label_data_1_split
I0125 18:20:07.062541 48777 net.cpp:84] Creating Layer label_data_1_split
I0125 18:20:07.062556 48777 net.cpp:406] label_data_1_split <- label
I0125 18:20:07.062587 48777 net.cpp:380] label_data_1_split -> label_data_1_split_0
I0125 18:20:07.062621 48777 net.cpp:380] label_data_1_split -> label_data_1_split_1
I0125 18:20:07.062634 48777 net.cpp:380] label_data_1_split -> label_data_1_split_2
I0125 18:20:07.062769 48777 net.cpp:122] Setting up label_data_1_split
I0125 18:20:07.062783 48777 net.cpp:129] Top shape: 50 (50)
I0125 18:20:07.062788 48777 net.cpp:129] Top shape: 50 (50)
I0125 18:20:07.062793 48777 net.cpp:129] Top shape: 50 (50)
I0125 18:20:07.062796 48777 net.cpp:137] Memory required for data: 30106400
I0125 18:20:07.062803 48777 layer_factory.hpp:78] Creating layer conv1
I0125 18:20:07.062847 48777 net.cpp:84] Creating Layer conv1
I0125 18:20:07.062856 48777 net.cpp:406] conv1 <- data
I0125 18:20:07.062875 48777 net.cpp:380] conv1 -> conv1
I0125 18:20:07.070260 48777 cudnn_conv_layer.cpp:194] Reallocating workspace storage: 127416
I0125 18:20:07.070319 48777 net.cpp:122] Setting up conv1
I0125 18:20:07.070329 48777 net.cpp:129] Top shape: 50 96 55 55 (14520000)
I0125 18:20:07.070333 48777 net.cpp:137] Memory required for data: 88186400
I0125 18:20:07.070394 48777 layer_factory.hpp:78] Creating layer bn1
I0125 18:20:07.070423 48777 net.cpp:84] Creating Layer bn1
I0125 18:20:07.070433 48777 net.cpp:406] bn1 <- conv1
I0125 18:20:07.070451 48777 net.cpp:367] bn1 -> conv1 (in-place)
I0125 18:20:07.070745 48777 net.cpp:122] Setting up bn1
I0125 18:20:07.070756 48777 net.cpp:129] Top shape: 50 96 55 55 (14520000)
I0125 18:20:07.070760 48777 net.cpp:137] Memory required for data: 146266400
I0125 18:20:07.070794 48777 layer_factory.hpp:78] Creating layer scale1
I0125 18:20:07.070828 48777 net.cpp:84] Creating Layer scale1
I0125 18:20:07.070838 48777 net.cpp:406] scale1 <- conv1
I0125 18:20:07.070852 48777 net.cpp:367] scale1 -> conv1 (in-place)
I0125 18:20:07.070930 48777 layer_factory.hpp:78] Creating layer scale1
I0125 18:20:07.071166 48777 net.cpp:122] Setting up scale1
I0125 18:20:07.071198 48777 net.cpp:129] Top shape: 50 96 55 55 (14520000)
I0125 18:20:07.071202 48777 net.cpp:137] Memory required for data: 204346400
I0125 18:20:07.071228 48777 layer_factory.hpp:78] Creating layer relu1
I0125 18:20:07.071254 48777 net.cpp:84] Creating Layer relu1
I0125 18:20:07.071262 48777 net.cpp:406] relu1 <- conv1
I0125 18:20:07.071276 48777 net.cpp:367] relu1 -> conv1 (in-place)
I0125 18:20:07.071918 48777 net.cpp:122] Setting up relu1
I0125 18:20:07.071931 48777 net.cpp:129] Top shape: 50 96 55 55 (14520000)
I0125 18:20:07.071950 48777 net.cpp:137] Memory required for data: 262426400
I0125 18:20:07.071956 48777 layer_factory.hpp:78] Creating layer pool1
I0125 18:20:07.071987 48777 net.cpp:84] Creating Layer pool1
I0125 18:20:07.071996 48777 net.cpp:406] pool1 <- conv1
I0125 18:20:07.072013 48777 net.cpp:380] pool1 -> pool1
I0125 18:20:07.072089 48777 net.cpp:122] Setting up pool1
I0125 18:20:07.072103 48777 net.cpp:129] Top shape: 50 96 27 27 (3499200)
I0125 18:20:07.072106 48777 net.cpp:137] Memory required for data: 276423200
I0125 18:20:07.072113 48777 layer_factory.hpp:78] Creating layer conv2
I0125 18:20:07.072142 48777 net.cpp:84] Creating Layer conv2
I0125 18:20:07.072151 48777 net.cpp:406] conv2 <- pool1
I0125 18:20:07.072170 48777 net.cpp:380] conv2 -> conv2
I0125 18:20:07.128849 48777 cudnn_binary_conv_layer.cpp:194] Reallocating workspace storage: 19668
I0125 18:20:07.128907 48777 net.cpp:122] Setting up conv2
I0125 18:20:07.128922 48777 net.cpp:129] Top shape: 50 256 27 27 (9331200)
I0125 18:20:07.128926 48777 net.cpp:137] Memory required for data: 313748000
I0125 18:20:07.128949 48777 layer_factory.hpp:78] Creating layer bn2
I0125 18:20:07.128985 48777 net.cpp:84] Creating Layer bn2
I0125 18:20:07.128998 48777 net.cpp:406] bn2 <- conv2
I0125 18:20:07.129017 48777 net.cpp:367] bn2 -> conv2 (in-place)
I0125 18:20:07.129287 48777 net.cpp:122] Setting up bn2
I0125 18:20:07.129298 48777 net.cpp:129] Top shape: 50 256 27 27 (9331200)
I0125 18:20:07.129302 48777 net.cpp:137] Memory required for data: 351072800
I0125 18:20:07.129333 48777 layer_factory.hpp:78] Creating layer scale2
I0125 18:20:07.129391 48777 net.cpp:84] Creating Layer scale2
I0125 18:20:07.129400 48777 net.cpp:406] scale2 <- conv2
I0125 18:20:07.129416 48777 net.cpp:367] scale2 -> conv2 (in-place)
I0125 18:20:07.129492 48777 layer_factory.hpp:78] Creating layer scale2
I0125 18:20:07.129688 48777 net.cpp:122] Setting up scale2
I0125 18:20:07.129700 48777 net.cpp:129] Top shape: 50 256 27 27 (9331200)
I0125 18:20:07.129703 48777 net.cpp:137] Memory required for data: 388397600
I0125 18:20:07.129717 48777 layer_factory.hpp:78] Creating layer relu2
I0125 18:20:07.129735 48777 net.cpp:84] Creating Layer relu2
I0125 18:20:07.129742 48777 net.cpp:406] relu2 <- conv2
I0125 18:20:07.129755 48777 net.cpp:367] relu2 -> conv2 (in-place)
I0125 18:20:07.130652 48777 net.cpp:122] Setting up relu2
I0125 18:20:07.130684 48777 net.cpp:129] Top shape: 50 256 27 27 (9331200)
I0125 18:20:07.130687 48777 net.cpp:137] Memory required for data: 425722400
I0125 18:20:07.130694 48777 layer_factory.hpp:78] Creating layer pool2
I0125 18:20:07.130715 48777 net.cpp:84] Creating Layer pool2
I0125 18:20:07.130723 48777 net.cpp:406] pool2 <- conv2
I0125 18:20:07.130740 48777 net.cpp:380] pool2 -> pool2
I0125 18:20:07.130838 48777 net.cpp:122] Setting up pool2
I0125 18:20:07.130852 48777 net.cpp:129] Top shape: 50 256 13 13 (2163200)
I0125 18:20:07.130856 48777 net.cpp:137] Memory required for data: 434375200
I0125 18:20:07.130863 48777 layer_factory.hpp:78] Creating layer conv3
I0125 18:20:07.130906 48777 net.cpp:84] Creating Layer conv3
I0125 18:20:07.130916 48777 net.cpp:406] conv3 <- pool2
I0125 18:20:07.130935 48777 net.cpp:380] conv3 -> conv3
I0125 18:20:07.211657 48777 cudnn_binary_conv_layer.cpp:194] Reallocating workspace storage: 18874368
I0125 18:20:07.212052 48777 net.cpp:122] Setting up conv3
I0125 18:20:07.212077 48777 net.cpp:129] Top shape: 50 384 13 13 (3244800)
I0125 18:20:07.212081 48777 net.cpp:137] Memory required for data: 447354400
I0125 18:20:07.212159 48777 layer_factory.hpp:78] Creating layer bn3
I0125 18:20:07.212194 48777 net.cpp:84] Creating Layer bn3
I0125 18:20:07.212208 48777 net.cpp:406] bn3 <- conv3
I0125 18:20:07.212234 48777 net.cpp:367] bn3 -> conv3 (in-place)
I0125 18:20:07.212527 48777 net.cpp:122] Setting up bn3
I0125 18:20:07.212539 48777 net.cpp:129] Top shape: 50 384 13 13 (3244800)
I0125 18:20:07.212543 48777 net.cpp:137] Memory required for data: 460333600
I0125 18:20:07.212563 48777 layer_factory.hpp:78] Creating layer scale3
I0125 18:20:07.212585 48777 net.cpp:84] Creating Layer scale3
I0125 18:20:07.212592 48777 net.cpp:406] scale3 <- conv3
I0125 18:20:07.212605 48777 net.cpp:367] scale3 -> conv3 (in-place)
I0125 18:20:07.212682 48777 layer_factory.hpp:78] Creating layer scale3
I0125 18:20:07.212867 48777 net.cpp:122] Setting up scale3
I0125 18:20:07.212879 48777 net.cpp:129] Top shape: 50 384 13 13 (3244800)
I0125 18:20:07.212883 48777 net.cpp:137] Memory required for data: 473312800
I0125 18:20:07.212910 48777 layer_factory.hpp:78] Creating layer relu3
I0125 18:20:07.212927 48777 net.cpp:84] Creating Layer relu3
I0125 18:20:07.212936 48777 net.cpp:406] relu3 <- conv3
I0125 18:20:07.212951 48777 net.cpp:367] relu3 -> conv3 (in-place)
I0125 18:20:07.213855 48777 net.cpp:122] Setting up relu3
I0125 18:20:07.213871 48777 net.cpp:129] Top shape: 50 384 13 13 (3244800)
I0125 18:20:07.213876 48777 net.cpp:137] Memory required for data: 486292000
I0125 18:20:07.213882 48777 layer_factory.hpp:78] Creating layer conv4
I0125 18:20:07.213939 48777 net.cpp:84] Creating Layer conv4
I0125 18:20:07.213950 48777 net.cpp:406] conv4 <- conv3
I0125 18:20:07.213974 48777 net.cpp:380] conv4 -> conv4
I0125 18:20:07.335726 48777 cudnn_binary_conv_layer.cpp:194] Reallocating workspace storage: 9840
I0125 18:20:07.335791 48777 net.cpp:122] Setting up conv4
I0125 18:20:07.335813 48777 net.cpp:129] Top shape: 50 384 13 13 (3244800)
I0125 18:20:07.335817 48777 net.cpp:137] Memory required for data: 499271200
I0125 18:20:07.335846 48777 layer_factory.hpp:78] Creating layer bn4
I0125 18:20:07.335898 48777 net.cpp:84] Creating Layer bn4
I0125 18:20:07.335911 48777 net.cpp:406] bn4 <- conv4
I0125 18:20:07.335942 48777 net.cpp:367] bn4 -> conv4 (in-place)
I0125 18:20:07.336220 48777 net.cpp:122] Setting up bn4
I0125 18:20:07.336233 48777 net.cpp:129] Top shape: 50 384 13 13 (3244800)
I0125 18:20:07.336236 48777 net.cpp:137] Memory required for data: 512250400
I0125 18:20:07.336257 48777 layer_factory.hpp:78] Creating layer scale4
I0125 18:20:07.336279 48777 net.cpp:84] Creating Layer scale4
I0125 18:20:07.336287 48777 net.cpp:406] scale4 <- conv4
I0125 18:20:07.336299 48777 net.cpp:367] scale4 -> conv4 (in-place)
I0125 18:20:07.336382 48777 layer_factory.hpp:78] Creating layer scale4
I0125 18:20:07.336570 48777 net.cpp:122] Setting up scale4
I0125 18:20:07.336582 48777 net.cpp:129] Top shape: 50 384 13 13 (3244800)
I0125 18:20:07.336586 48777 net.cpp:137] Memory required for data: 525229600
I0125 18:20:07.336601 48777 layer_factory.hpp:78] Creating layer relu4
I0125 18:20:07.336618 48777 net.cpp:84] Creating Layer relu4
I0125 18:20:07.336624 48777 net.cpp:406] relu4 <- conv4
I0125 18:20:07.336637 48777 net.cpp:367] relu4 -> conv4 (in-place)
I0125 18:20:07.337378 48777 net.cpp:122] Setting up relu4
I0125 18:20:07.337393 48777 net.cpp:129] Top shape: 50 384 13 13 (3244800)
I0125 18:20:07.337412 48777 net.cpp:137] Memory required for data: 538208800
I0125 18:20:07.337420 48777 layer_factory.hpp:78] Creating layer conv5
I0125 18:20:07.337452 48777 net.cpp:84] Creating Layer conv5
I0125 18:20:07.337460 48777 net.cpp:406] conv5 <- conv4
I0125 18:20:07.337482 48777 net.cpp:380] conv5 -> conv5
I0125 18:20:07.424412 48777 cudnn_binary_conv_layer.cpp:194] Reallocating workspace storage: 18874368
I0125 18:20:07.424801 48777 net.cpp:122] Setting up conv5
I0125 18:20:07.424839 48777 net.cpp:129] Top shape: 50 256 13 13 (2163200)
I0125 18:20:07.424860 48777 net.cpp:137] Memory required for data: 546861600
I0125 18:20:07.424901 48777 layer_factory.hpp:78] Creating layer bn5
I0125 18:20:07.424975 48777 net.cpp:84] Creating Layer bn5
I0125 18:20:07.424991 48777 net.cpp:406] bn5 <- conv5
I0125 18:20:07.425015 48777 net.cpp:367] bn5 -> conv5 (in-place)
I0125 18:20:07.425300 48777 net.cpp:122] Setting up bn5
I0125 18:20:07.425312 48777 net.cpp:129] Top shape: 50 256 13 13 (2163200)
I0125 18:20:07.425314 48777 net.cpp:137] Memory required for data: 555514400
I0125 18:20:07.425338 48777 layer_factory.hpp:78] Creating layer scale5
I0125 18:20:07.425372 48777 net.cpp:84] Creating Layer scale5
I0125 18:20:07.425379 48777 net.cpp:406] scale5 <- conv5
I0125 18:20:07.425393 48777 net.cpp:367] scale5 -> conv5 (in-place)
I0125 18:20:07.425477 48777 layer_factory.hpp:78] Creating layer scale5
I0125 18:20:07.425657 48777 net.cpp:122] Setting up scale5
I0125 18:20:07.425675 48777 net.cpp:129] Top shape: 50 256 13 13 (2163200)
I0125 18:20:07.425680 48777 net.cpp:137] Memory required for data: 564167200
I0125 18:20:07.425694 48777 layer_factory.hpp:78] Creating layer relu5
I0125 18:20:07.425710 48777 net.cpp:84] Creating Layer relu5
I0125 18:20:07.425717 48777 net.cpp:406] relu5 <- conv5
I0125 18:20:07.425729 48777 net.cpp:367] relu5 -> conv5 (in-place)
I0125 18:20:07.426357 48777 net.cpp:122] Setting up relu5
I0125 18:20:07.426368 48777 net.cpp:129] Top shape: 50 256 13 13 (2163200)
I0125 18:20:07.426388 48777 net.cpp:137] Memory required for data: 572820000
I0125 18:20:07.426395 48777 layer_factory.hpp:78] Creating layer pool5
I0125 18:20:07.426417 48777 net.cpp:84] Creating Layer pool5
I0125 18:20:07.426425 48777 net.cpp:406] pool5 <- conv5
I0125 18:20:07.426441 48777 net.cpp:380] pool5 -> pool5
I0125 18:20:07.426537 48777 net.cpp:122] Setting up pool5
I0125 18:20:07.426549 48777 net.cpp:129] Top shape: 50 256 6 6 (460800)
I0125 18:20:07.426553 48777 net.cpp:137] Memory required for data: 574663200
I0125 18:20:07.426559 48777 layer_factory.hpp:78] Creating layer fc6
I0125 18:20:07.426597 48777 net.cpp:84] Creating Layer fc6
I0125 18:20:07.426612 48777 net.cpp:406] fc6 <- pool5
I0125 18:20:07.426638 48777 net.cpp:380] fc6 -> fc6
I0125 18:20:10.791105 48777 net.cpp:122] Setting up fc6
I0125 18:20:10.791183 48777 net.cpp:129] Top shape: 50 4096 (204800)
I0125 18:20:10.791188 48777 net.cpp:137] Memory required for data: 575482400
I0125 18:20:10.791224 48777 layer_factory.hpp:78] Creating layer bn6
I0125 18:20:10.791265 48777 net.cpp:84] Creating Layer bn6
I0125 18:20:10.791290 48777 net.cpp:406] bn6 <- fc6
I0125 18:20:10.791316 48777 net.cpp:367] bn6 -> fc6 (in-place)
I0125 18:20:10.791656 48777 net.cpp:122] Setting up bn6
I0125 18:20:10.791668 48777 net.cpp:129] Top shape: 50 4096 (204800)
I0125 18:20:10.791671 48777 net.cpp:137] Memory required for data: 576301600
I0125 18:20:10.791710 48777 layer_factory.hpp:78] Creating layer scale6
I0125 18:20:10.791734 48777 net.cpp:84] Creating Layer scale6
I0125 18:20:10.791743 48777 net.cpp:406] scale6 <- fc6
I0125 18:20:10.791757 48777 net.cpp:367] scale6 -> fc6 (in-place)
I0125 18:20:10.791867 48777 layer_factory.hpp:78] Creating layer scale6
I0125 18:20:10.792066 48777 net.cpp:122] Setting up scale6
I0125 18:20:10.792078 48777 net.cpp:129] Top shape: 50 4096 (204800)
I0125 18:20:10.792081 48777 net.cpp:137] Memory required for data: 577120800
I0125 18:20:10.792102 48777 layer_factory.hpp:78] Creating layer relu6
I0125 18:20:10.792121 48777 net.cpp:84] Creating Layer relu6
I0125 18:20:10.792129 48777 net.cpp:406] relu6 <- fc6
I0125 18:20:10.792143 48777 net.cpp:367] relu6 -> fc6 (in-place)
I0125 18:20:10.793383 48777 net.cpp:122] Setting up relu6
I0125 18:20:10.793397 48777 net.cpp:129] Top shape: 50 4096 (204800)
I0125 18:20:10.793401 48777 net.cpp:137] Memory required for data: 577940000
I0125 18:20:10.793407 48777 layer_factory.hpp:78] Creating layer drop6
I0125 18:20:10.793432 48777 net.cpp:84] Creating Layer drop6
I0125 18:20:10.793442 48777 net.cpp:406] drop6 <- fc6
I0125 18:20:10.793457 48777 net.cpp:367] drop6 -> fc6 (in-place)
I0125 18:20:10.793504 48777 net.cpp:122] Setting up drop6
I0125 18:20:10.793512 48777 net.cpp:129] Top shape: 50 4096 (204800)
I0125 18:20:10.793536 48777 net.cpp:137] Memory required for data: 578759200
I0125 18:20:10.793542 48777 layer_factory.hpp:78] Creating layer fc7
I0125 18:20:10.793571 48777 net.cpp:84] Creating Layer fc7
I0125 18:20:10.793579 48777 net.cpp:406] fc7 <- fc6
I0125 18:20:10.793597 48777 net.cpp:380] fc7 -> fc7
I0125 18:20:12.370311 48777 net.cpp:122] Setting up fc7
I0125 18:20:12.370398 48777 net.cpp:129] Top shape: 50 4096 (204800)
I0125 18:20:12.370402 48777 net.cpp:137] Memory required for data: 579578400
I0125 18:20:12.370431 48777 layer_factory.hpp:78] Creating layer bn7
I0125 18:20:12.370468 48777 net.cpp:84] Creating Layer bn7
I0125 18:20:12.370482 48777 net.cpp:406] bn7 <- fc7
I0125 18:20:12.370507 48777 net.cpp:367] bn7 -> fc7 (in-place)
I0125 18:20:12.370803 48777 net.cpp:122] Setting up bn7
I0125 18:20:12.370815 48777 net.cpp:129] Top shape: 50 4096 (204800)
I0125 18:20:12.370818 48777 net.cpp:137] Memory required for data: 580397600
I0125 18:20:12.370879 48777 layer_factory.hpp:78] Creating layer scale7
I0125 18:20:12.370911 48777 net.cpp:84] Creating Layer scale7
I0125 18:20:12.370919 48777 net.cpp:406] scale7 <- fc7
I0125 18:20:12.370934 48777 net.cpp:367] scale7 -> fc7 (in-place)
I0125 18:20:12.371028 48777 layer_factory.hpp:78] Creating layer scale7
I0125 18:20:12.371222 48777 net.cpp:122] Setting up scale7
I0125 18:20:12.371235 48777 net.cpp:129] Top shape: 50 4096 (204800)
I0125 18:20:12.371240 48777 net.cpp:137] Memory required for data: 581216800
I0125 18:20:12.371255 48777 layer_factory.hpp:78] Creating layer relu7
I0125 18:20:12.371273 48777 net.cpp:84] Creating Layer relu7
I0125 18:20:12.371279 48777 net.cpp:406] relu7 <- fc7
I0125 18:20:12.371291 48777 net.cpp:367] relu7 -> fc7 (in-place)
I0125 18:20:12.372478 48777 net.cpp:122] Setting up relu7
I0125 18:20:12.372493 48777 net.cpp:129] Top shape: 50 4096 (204800)
I0125 18:20:12.372495 48777 net.cpp:137] Memory required for data: 582036000
I0125 18:20:12.372503 48777 layer_factory.hpp:78] Creating layer drop7
I0125 18:20:12.372520 48777 net.cpp:84] Creating Layer drop7
I0125 18:20:12.372529 48777 net.cpp:406] drop7 <- fc7
I0125 18:20:12.372545 48777 net.cpp:367] drop7 -> fc7 (in-place)
I0125 18:20:12.372593 48777 net.cpp:122] Setting up drop7
I0125 18:20:12.372603 48777 net.cpp:129] Top shape: 50 4096 (204800)
I0125 18:20:12.372606 48777 net.cpp:137] Memory required for data: 582855200
I0125 18:20:12.372611 48777 layer_factory.hpp:78] Creating layer fc8
I0125 18:20:12.372632 48777 net.cpp:84] Creating Layer fc8
I0125 18:20:12.372640 48777 net.cpp:406] fc8 <- fc7
I0125 18:20:12.372656 48777 net.cpp:380] fc8 -> fc8
I0125 18:20:12.755929 48777 net.cpp:122] Setting up fc8
I0125 18:20:12.755978 48777 net.cpp:129] Top shape: 50 1000 (50000)
I0125 18:20:12.755982 48777 net.cpp:137] Memory required for data: 583055200
I0125 18:20:12.756021 48777 layer_factory.hpp:78] Creating layer fc8_fc8_0_split
I0125 18:20:12.756059 48777 net.cpp:84] Creating Layer fc8_fc8_0_split
I0125 18:20:12.756074 48777 net.cpp:406] fc8_fc8_0_split <- fc8
I0125 18:20:12.756101 48777 net.cpp:380] fc8_fc8_0_split -> fc8_fc8_0_split_0
I0125 18:20:12.756137 48777 net.cpp:380] fc8_fc8_0_split -> fc8_fc8_0_split_1
I0125 18:20:12.756151 48777 net.cpp:380] fc8_fc8_0_split -> fc8_fc8_0_split_2
I0125 18:20:12.756255 48777 net.cpp:122] Setting up fc8_fc8_0_split
I0125 18:20:12.756268 48777 net.cpp:129] Top shape: 50 1000 (50000)
I0125 18:20:12.756274 48777 net.cpp:129] Top shape: 50 1000 (50000)
I0125 18:20:12.756278 48777 net.cpp:129] Top shape: 50 1000 (50000)
I0125 18:20:12.756281 48777 net.cpp:137] Memory required for data: 583655200
I0125 18:20:12.756287 48777 layer_factory.hpp:78] Creating layer loss
I0125 18:20:12.756302 48777 net.cpp:84] Creating Layer loss
I0125 18:20:12.756310 48777 net.cpp:406] loss <- fc8_fc8_0_split_0
I0125 18:20:12.756322 48777 net.cpp:406] loss <- label_data_1_split_0
I0125 18:20:12.756333 48777 net.cpp:380] loss -> loss
…
