…
I0128 16:57:32.961616 46007 net.cpp:294] The NetState phase (0) differed from the phase (1) specified by a rule in layer data
I0128 16:57:32.961858 46007 net.cpp:51] Initializing net from parameters: 
name: "AlexNet-BN"
state {
  phase: TRAIN
  level: 0
  stage: ""
}
layer {
  name: "data"
  type: "Data"
  top: "data"
  top: "label"
  include {
    phase: TRAIN
  }
  transform_param {
    mirror: true
    crop_size: 224
    mean_value: 104
    mean_value: 117
    mean_value: 123
  }
  data_param {
    source: "/home/zhengzhe/Data/imagenet_shrt256/ilsvrc12_train_lmdb"
    batch_size: 256
    backend: LMDB
  }
}
layer {
  name: "conv1"
  type: "Convolution"
  bottom: "data"
  top: "conv1"
  param {
    lr_mult: 1
    decay_mult: 1
  }
  convolution_param {
    num_output: 96
    bias_term: false
    pad: 2
    kernel_size: 11
    stride: 4
    weight_filler {
      type: "msra"
    }
  }
}
layer {
  name: "bn1"
  type: "BatchNorm"
  bottom: "conv1"
  top: "conv1"
}
layer {
  name: "scale1"
  type: "Scale"
  bottom: "conv1"
  top: "conv1"
  scale_param {
    bias_term: true
  }
}
layer {
  name: "relu1"
  type: "ReLU"
  bottom: "conv1"
  top: "conv1"
}
layer {
  name: "pool1"
  type: "Pooling"
  bottom: "conv1"
  top: "pool1"
  pooling_param {
    pool: MAX
    kernel_size: 3
    stride: 2
  }
}
layer {
  name: "bn2"
  type: "BatchNorm"
  bottom: "pool1"
  top: "pool1"
}
layer {
  name: "scale2"
  type: "Scale"
  bottom: "pool1"
  top: "pool1"
  scale_param {
    bias_term: true
  }
}
layer {
  name: "binactive1"
  type: "BinActive"
  bottom: "pool1"
  top: "binactive1"
}
layer {
  name: "conv2"
  type: "BinaryConvolution"
  bottom: "binactive1"
  top: "conv2"
  param {
    lr_mult: 1
    decay_mult: 1
  }
  convolution_param {
    num_output: 256
    bias_term: false
    pad: 2
    kernel_size: 5
    weight_filler {
      type: "msra"
    }
  }
  debug_param {
    xnorno_grad: false
    binary_relax: true
    update_lamda: 2500
    phase1_iter: 300000
  }
}
layer {
  name: "pool2"
  type: "Pooling"
  bottom: "conv2"
  top: "pool2"
  pooling_param {
    pool: MAX
    kernel_size: 3
    stride: 2
  }
}
layer {
  name: "bn3"
  type: "BatchNorm"
  bottom: "pool2"
  top: "pool2"
}
layer {
  name: "scale3"
  type: "Scale"
  bottom: "pool2"
  top: "pool2"
  scale_param {
    bias_term: true
  }
}
layer {
  name: "binactive2"
  type: "BinActive"
  bottom: "pool2"
  top: "binactive2"
}
layer {
  name: "conv3"
  type: "BinaryConvolution"
  bottom: "binactive2"
  top: "conv3"
  param {
    lr_mult: 1
    decay_mult: 1
  }
  convolution_param {
    num_output: 384
    bias_term: false
    pad: 1
    kernel_size: 3
    weight_filler {
      type: "msra"
    }
  }
  debug_param {
    xnorno_grad: false
    binary_relax: true
    update_lamda: 2500
    phase1_iter: 300000
  }
}
layer {
  name: "bn4"
  type: "BatchNorm"
  bottom: "conv3"
  top: "conv3"
}
layer {
  name: "scale4"
  type: "Scale"
  bottom: "conv3"
  top: "conv3"
  scale_param {
    bias_term: true
  }
}
layer {
  name: "binactive3"
  type: "BinActive"
  bottom: "conv3"
  top: "binactive3"
}
layer {
  name: "conv4"
  type: "BinaryConvolution"
  bottom: "binactive3"
  top: "conv4"
  param {
    lr_mult: 1
    decay_mult: 1
  }
  convolution_param {
    num_output: 384
    bias_term: false
    pad: 1
    kernel_size: 3
    weight_filler {
      type: "msra"
    }
  }
  debug_param {
    xnorno_grad: false
    binary_relax: true
    update_lamda: 2500
    phase1_iter: 300000
  }
}
layer {
  name: "bn5"
  type: "BatchNorm"
  bottom: "conv4"
  top: "conv4"
}
layer {
  name: "scale5"
  type: "Scale"
  bottom: "conv4"
  top: "conv4"
  scale_param {
    bias_term: true
  }
}
layer {
  name: "binactive4"
  type: "BinActive"
  bottom: "conv4"
  top: "binactive4"
}
layer {
  name: "conv5"
  type: "BinaryConvolution"
  bottom: "binactive4"
  top: "conv5"
  param {
    lr_mult: 1
    decay_mult: 1
  }
  convolution_param {
    num_output: 256
    bias_term: false
    pad: 1
    kernel_size: 3
    weight_filler {
      type: "msra"
    }
  }
  debug_param {
    xnorno_grad: false
    binary_relax: true
    update_lamda: 2500
    phase1_iter: 300000
  }
}
layer {
  name: "pool5"
  type: "Pooling"
  bottom: "conv5"
  top: "pool5"
  pooling_param {
    pool: MAX
    kernel_size: 3
    stride: 2
  }
}
layer {
  name: "bn6"
  type: "BatchNorm"
  bottom: "pool5"
  top: "pool5"
}
layer {
  name: "scale6"
  type: "Scale"
  bottom: "pool5"
  top: "pool5"
  scale_param {
    bias_term: true
  }
}
layer {
  name: "binactive5"
  type: "BinActive"
  bottom: "pool5"
  top: "binactive5"
}
layer {
  name: "fc6"
  type: "BinaryInnerProduct"
  bottom: "binactive5"
  top: "fc6"
  param {
    lr_mult: 1
    decay_mult: 1
  }
  inner_product_param {
    num_output: 4096
    bias_term: false
    weight_filler {
      type: "msra"
    }
  }
  debug_param {
    xnorno_grad: false
    binary_relax: true
    update_lamda: 2500
    phase1_iter: 300000
  }
}
layer {
  name: "bn7"
  type: "BatchNorm"
  bottom: "fc6"
  top: "fc6"
}
layer {
  name: "scale7"
  type: "Scale"
  bottom: "fc6"
  top: "fc6"
  scale_param {
    bias_term: true
  }
}
layer {
  name: "binactive6"
  type: "BinActive"
  bottom: "fc6"
  top: "binactive6"
}
layer {
  name: "fc7"
  type: "BinaryInnerProduct"
  bottom: "binactive6"
  top: "fc7"
  param {
    lr_mult: 1
    decay_mult: 1
  }
  inner_product_param {
    num_output: 4096
    bias_term: false
    weight_filler {
      type: "msra"
    }
  }
  debug_param {
    xnorno_grad: false
    binary_relax: true
    update_lamda: 2500
    phase1_iter: 300000
  }
}
layer {
  name: "bn8"
  type: "BatchNorm"
  bottom: "fc7"
  top: "fc7"
}
layer {
  name: "scale8"
  type: "Scale"
  bottom: "fc7"
  top: "fc7"
  scale_param {
    bias_term: true
  }
}
layer {
  name: "relu7"
  type: "ReLU"
  bottom: "fc7"
  top: "fc7"
}
layer {
  name: "fc8"
  type: "InnerProduct"
  bottom: "fc7"
  top: "fc8"
  param {
    lr_mult: 1
    decay_mult: 1
  }
  param {
    lr_mult: 2
    decay_mult: 0
  }
  inner_product_param {
    num_output: 1000
    weight_filler {
      type: "msra"
    }
    bias_filler {
      type: "constant"
      value: 0
    }
  }
}
layer {
  name: "loss"
  type: "SoftmaxWithLoss"
  bottom: "fc8"
  bottom: "label"
  top: "loss"
}
layer {
  name: "accuracy"
  type: "Accuracy"
  bottom: "fc8"
  bottom: "label"
  top: "accuracy"
}
layer {
  name: "accuracy_5"
  type: "Accuracy"
  bottom: "fc8"
  bottom: "label"
  top: "accuracy_5"
  accuracy_param {
    top_k: 5
  }
}
I0128 16:57:32.962568 46007 layer_factory.hpp:78] Creating layer data
I0128 16:57:32.963028 46007 db_lmdb.cpp:35] Opened lmdb /home/zhengzhe/Data/imagenet_shrt256/ilsvrc12_train_lmdb
I0128 16:57:32.976205 46007 net.cpp:84] Creating Layer data
I0128 16:57:32.976246 46007 net.cpp:380] data -> data
I0128 16:57:32.976426 46007 net.cpp:380] data -> label
I0128 16:57:32.983953 46007 data_layer.cpp:45] output data size: 256,3,224,224
I0128 16:57:34.170974 46007 base_data_layer.cpp:72] Initializing prefetch
I0128 16:57:34.171762 46007 base_data_layer.cpp:75] Prefetch initialized.
I0128 16:57:34.171813 46007 net.cpp:122] Setting up data
I0128 16:57:34.171869 46007 net.cpp:129] Top shape: 256 3 224 224 (38535168)
I0128 16:57:34.171885 46007 net.cpp:129] Top shape: 256 (256)
I0128 16:57:34.171890 46007 net.cpp:137] Memory required for data: 154141696
I0128 16:57:34.171953 46007 layer_factory.hpp:78] Creating layer label_data_1_split
I0128 16:57:34.172022 46007 net.cpp:84] Creating Layer label_data_1_split
I0128 16:57:34.172053 46007 net.cpp:406] label_data_1_split <- label
I0128 16:57:34.172118 46007 net.cpp:380] label_data_1_split -> label_data_1_split_0
I0128 16:57:34.172168 46007 net.cpp:380] label_data_1_split -> label_data_1_split_1
I0128 16:57:34.172188 46007 net.cpp:380] label_data_1_split -> label_data_1_split_2
I0128 16:57:34.172297 46007 net.cpp:122] Setting up label_data_1_split
I0128 16:57:34.172314 46007 net.cpp:129] Top shape: 256 (256)
I0128 16:57:34.172329 46007 net.cpp:129] Top shape: 256 (256)
I0128 16:57:34.172354 46007 net.cpp:129] Top shape: 256 (256)
I0128 16:57:34.172360 46007 net.cpp:137] Memory required for data: 154144768
I0128 16:57:34.172367 46007 layer_factory.hpp:78] Creating layer conv1
I0128 16:57:34.179158 46007 net.cpp:84] Creating Layer conv1
I0128 16:57:34.179180 46007 net.cpp:406] conv1 <- data
I0128 16:57:34.179215 46007 net.cpp:380] conv1 -> conv1
I0128 16:57:41.073526 46007 cudnn_conv_layer.cpp:194] Reallocating workspace storage: 127416
I0128 16:57:41.074038 46007 net.cpp:122] Setting up conv1
I0128 16:57:41.074086 46007 net.cpp:129] Top shape: 256 96 55 55 (74342400)
I0128 16:57:41.074095 46007 net.cpp:137] Memory required for data: 451514368
I0128 16:57:41.074232 46007 layer_factory.hpp:78] Creating layer bn1
I0128 16:57:41.074299 46007 net.cpp:84] Creating Layer bn1
I0128 16:57:41.074322 46007 net.cpp:406] bn1 <- conv1
I0128 16:57:41.074385 46007 net.cpp:367] bn1 -> conv1 (in-place)
I0128 16:57:41.078542 46007 net.cpp:122] Setting up bn1
I0128 16:57:41.078596 46007 net.cpp:129] Top shape: 256 96 55 55 (74342400)
I0128 16:57:41.078604 46007 net.cpp:137] Memory required for data: 748883968
I0128 16:57:41.078727 46007 layer_factory.hpp:78] Creating layer scale1
I0128 16:57:41.078810 46007 net.cpp:84] Creating Layer scale1
I0128 16:57:41.078843 46007 net.cpp:406] scale1 <- conv1
I0128 16:57:41.078884 46007 net.cpp:367] scale1 -> conv1 (in-place)
I0128 16:57:41.079083 46007 layer_factory.hpp:78] Creating layer scale1
I0128 16:57:41.079591 46007 net.cpp:122] Setting up scale1
I0128 16:57:41.079618 46007 net.cpp:129] Top shape: 256 96 55 55 (74342400)
I0128 16:57:41.079627 46007 net.cpp:137] Memory required for data: 1046253568
I0128 16:57:41.079677 46007 layer_factory.hpp:78] Creating layer relu1
I0128 16:57:41.079730 46007 net.cpp:84] Creating Layer relu1
I0128 16:57:41.079747 46007 net.cpp:406] relu1 <- conv1
I0128 16:57:41.079783 46007 net.cpp:367] relu1 -> conv1 (in-place)
I0128 16:57:41.081157 46007 net.cpp:122] Setting up relu1
I0128 16:57:41.081185 46007 net.cpp:129] Top shape: 256 96 55 55 (74342400)
I0128 16:57:41.081193 46007 net.cpp:137] Memory required for data: 1343623168
I0128 16:57:41.081209 46007 layer_factory.hpp:78] Creating layer pool1
I0128 16:57:41.081274 46007 net.cpp:84] Creating Layer pool1
I0128 16:57:41.081290 46007 net.cpp:406] pool1 <- conv1
I0128 16:57:41.081329 46007 net.cpp:380] pool1 -> pool1
I0128 16:57:41.081527 46007 net.cpp:122] Setting up pool1
I0128 16:57:41.081557 46007 net.cpp:129] Top shape: 256 96 27 27 (17915904)
I0128 16:57:41.081567 46007 net.cpp:137] Memory required for data: 1415286784
I0128 16:57:41.081581 46007 layer_factory.hpp:78] Creating layer bn2
I0128 16:57:41.081612 46007 net.cpp:84] Creating Layer bn2
I0128 16:57:41.081626 46007 net.cpp:406] bn2 <- pool1
I0128 16:57:41.081656 46007 net.cpp:367] bn2 -> pool1 (in-place)
I0128 16:57:41.084337 46007 net.cpp:122] Setting up bn2
I0128 16:57:41.084379 46007 net.cpp:129] Top shape: 256 96 27 27 (17915904)
I0128 16:57:41.084389 46007 net.cpp:137] Memory required for data: 1486950400
I0128 16:57:41.084466 46007 layer_factory.hpp:78] Creating layer scale2
I0128 16:57:41.084519 46007 net.cpp:84] Creating Layer scale2
I0128 16:57:41.084538 46007 net.cpp:406] scale2 <- pool1
I0128 16:57:41.084573 46007 net.cpp:367] scale2 -> pool1 (in-place)
I0128 16:57:41.084715 46007 layer_factory.hpp:78] Creating layer scale2
I0128 16:57:41.085135 46007 net.cpp:122] Setting up scale2
I0128 16:57:41.085162 46007 net.cpp:129] Top shape: 256 96 27 27 (17915904)
I0128 16:57:41.085170 46007 net.cpp:137] Memory required for data: 1558614016
I0128 16:57:41.085203 46007 layer_factory.hpp:78] Creating layer binactive1
I0128 16:57:41.085240 46007 net.cpp:84] Creating Layer binactive1
I0128 16:57:41.085256 46007 net.cpp:406] binactive1 <- pool1
I0128 16:57:41.085289 46007 net.cpp:380] binactive1 -> binactive1
I0128 16:57:41.085399 46007 net.cpp:122] Setting up binactive1
I0128 16:57:41.085425 46007 net.cpp:129] Top shape: 256 96 27 27 (17915904)
I0128 16:57:41.085435 46007 net.cpp:137] Memory required for data: 1630277632
I0128 16:57:41.085448 46007 layer_factory.hpp:78] Creating layer conv2
I0128 16:57:41.085520 46007 net.cpp:84] Creating Layer conv2
I0128 16:57:41.085539 46007 net.cpp:406] conv2 <- binactive1
I0128 16:57:41.085585 46007 net.cpp:380] conv2 -> conv2
I0128 16:57:41.187023 46007 cudnn_binary_conv_layer.cpp:194] Reallocating workspace storage: 19668
I0128 16:57:41.187083 46007 net.cpp:122] Setting up conv2
I0128 16:57:41.187110 46007 net.cpp:129] Top shape: 256 256 27 27 (47775744)
I0128 16:57:41.187115 46007 net.cpp:137] Memory required for data: 1821380608
I0128 16:57:41.187155 46007 layer_factory.hpp:78] Creating layer pool2
I0128 16:57:41.187213 46007 net.cpp:84] Creating Layer pool2
I0128 16:57:41.187234 46007 net.cpp:406] pool2 <- conv2
I0128 16:57:41.187271 46007 net.cpp:380] pool2 -> pool2
I0128 16:57:41.187379 46007 net.cpp:122] Setting up pool2
I0128 16:57:41.187397 46007 net.cpp:129] Top shape: 256 256 13 13 (11075584)
I0128 16:57:41.187403 46007 net.cpp:137] Memory required for data: 1865682944
I0128 16:57:41.187412 46007 layer_factory.hpp:78] Creating layer bn3
I0128 16:57:41.187431 46007 net.cpp:84] Creating Layer bn3
I0128 16:57:41.187439 46007 net.cpp:406] bn3 <- pool2
I0128 16:57:41.187460 46007 net.cpp:367] bn3 -> pool2 (in-place)
I0128 16:57:41.187765 46007 net.cpp:122] Setting up bn3
I0128 16:57:41.187779 46007 net.cpp:129] Top shape: 256 256 13 13 (11075584)
I0128 16:57:41.187783 46007 net.cpp:137] Memory required for data: 1909985280
I0128 16:57:41.187811 46007 layer_factory.hpp:78] Creating layer scale3
I0128 16:57:41.187841 46007 net.cpp:84] Creating Layer scale3
I0128 16:57:41.187850 46007 net.cpp:406] scale3 <- pool2
I0128 16:57:41.187868 46007 net.cpp:367] scale3 -> pool2 (in-place)
I0128 16:57:41.187953 46007 layer_factory.hpp:78] Creating layer scale3
I0128 16:57:41.188163 46007 net.cpp:122] Setting up scale3
I0128 16:57:41.188184 46007 net.cpp:129] Top shape: 256 256 13 13 (11075584)
I0128 16:57:41.188189 46007 net.cpp:137] Memory required for data: 1954287616
I0128 16:57:41.188223 46007 layer_factory.hpp:78] Creating layer binactive2
I0128 16:57:41.188246 46007 net.cpp:84] Creating Layer binactive2
I0128 16:57:41.188256 46007 net.cpp:406] binactive2 <- pool2
I0128 16:57:41.188274 46007 net.cpp:380] binactive2 -> binactive2
I0128 16:57:41.188321 46007 net.cpp:122] Setting up binactive2
I0128 16:57:41.188336 46007 net.cpp:129] Top shape: 256 256 13 13 (11075584)
I0128 16:57:41.188352 46007 net.cpp:137] Memory required for data: 1998589952
I0128 16:57:41.188359 46007 layer_factory.hpp:78] Creating layer conv3
I0128 16:57:41.188403 46007 net.cpp:84] Creating Layer conv3
I0128 16:57:41.188413 46007 net.cpp:406] conv3 <- binactive2
I0128 16:57:41.188436 46007 net.cpp:380] conv3 -> conv3
I0128 16:57:41.291766 46007 cudnn_binary_conv_layer.cpp:194] Reallocating workspace storage: 18874368
I0128 16:57:41.293021 46007 net.cpp:122] Setting up conv3
I0128 16:57:41.293083 46007 net.cpp:129] Top shape: 256 384 13 13 (16613376)
I0128 16:57:41.293093 46007 net.cpp:137] Memory required for data: 2065043456
I0128 16:57:41.293141 46007 layer_factory.hpp:78] Creating layer bn4
I0128 16:57:41.293207 46007 net.cpp:84] Creating Layer bn4
I0128 16:57:41.293231 46007 net.cpp:406] bn4 <- conv3
I0128 16:57:41.293275 46007 net.cpp:367] bn4 -> conv3 (in-place)
I0128 16:57:41.293844 46007 net.cpp:122] Setting up bn4
I0128 16:57:41.293901 46007 net.cpp:129] Top shape: 256 384 13 13 (16613376)
I0128 16:57:41.293910 46007 net.cpp:137] Memory required for data: 2131496960
I0128 16:57:41.293980 46007 layer_factory.hpp:78] Creating layer scale4
I0128 16:57:41.294034 46007 net.cpp:84] Creating Layer scale4
I0128 16:57:41.294050 46007 net.cpp:406] scale4 <- conv3
I0128 16:57:41.294095 46007 net.cpp:367] scale4 -> conv3 (in-place)
I0128 16:57:41.294234 46007 layer_factory.hpp:78] Creating layer scale4
I0128 16:57:41.294612 46007 net.cpp:122] Setting up scale4
I0128 16:57:41.294639 46007 net.cpp:129] Top shape: 256 384 13 13 (16613376)
I0128 16:57:41.294647 46007 net.cpp:137] Memory required for data: 2197950464
I0128 16:57:41.294678 46007 layer_factory.hpp:78] Creating layer binactive3
I0128 16:57:41.294708 46007 net.cpp:84] Creating Layer binactive3
I0128 16:57:41.294724 46007 net.cpp:406] binactive3 <- conv3
I0128 16:57:41.294755 46007 net.cpp:380] binactive3 -> binactive3
I0128 16:57:41.294833 46007 net.cpp:122] Setting up binactive3
I0128 16:57:41.294862 46007 net.cpp:129] Top shape: 256 384 13 13 (16613376)
I0128 16:57:41.294870 46007 net.cpp:137] Memory required for data: 2264403968
I0128 16:57:41.294883 46007 layer_factory.hpp:78] Creating layer conv4
I0128 16:57:41.294948 46007 net.cpp:84] Creating Layer conv4
I0128 16:57:41.294966 46007 net.cpp:406] conv4 <- binactive3
I0128 16:57:41.295011 46007 net.cpp:380] conv4 -> conv4
I0128 16:57:41.475028 46007 cudnn_binary_conv_layer.cpp:194] Reallocating workspace storage: 9840
I0128 16:57:41.475113 46007 net.cpp:122] Setting up conv4
I0128 16:57:41.475143 46007 net.cpp:129] Top shape: 256 384 13 13 (16613376)
I0128 16:57:41.475149 46007 net.cpp:137] Memory required for data: 2330857472
I0128 16:57:41.475199 46007 layer_factory.hpp:78] Creating layer bn5
I0128 16:57:41.475247 46007 net.cpp:84] Creating Layer bn5
I0128 16:57:41.475267 46007 net.cpp:406] bn5 <- conv4
I0128 16:57:41.475317 46007 net.cpp:367] bn5 -> conv4 (in-place)
I0128 16:57:41.475728 46007 net.cpp:122] Setting up bn5
I0128 16:57:41.475754 46007 net.cpp:129] Top shape: 256 384 13 13 (16613376)
I0128 16:57:41.475760 46007 net.cpp:137] Memory required for data: 2397310976
I0128 16:57:41.475797 46007 layer_factory.hpp:78] Creating layer scale5
I0128 16:57:41.475833 46007 net.cpp:84] Creating Layer scale5
I0128 16:57:41.475845 46007 net.cpp:406] scale5 <- conv4
I0128 16:57:41.475868 46007 net.cpp:367] scale5 -> conv4 (in-place)
I0128 16:57:41.475975 46007 layer_factory.hpp:78] Creating layer scale5
I0128 16:57:41.476243 46007 net.cpp:122] Setting up scale5
I0128 16:57:41.476266 46007 net.cpp:129] Top shape: 256 384 13 13 (16613376)
I0128 16:57:41.476274 46007 net.cpp:137] Memory required for data: 2463764480
I0128 16:57:41.476297 46007 layer_factory.hpp:78] Creating layer binactive4
I0128 16:57:41.476318 46007 net.cpp:84] Creating Layer binactive4
I0128 16:57:41.476330 46007 net.cpp:406] binactive4 <- conv4
I0128 16:57:41.476361 46007 net.cpp:380] binactive4 -> binactive4
I0128 16:57:41.476424 46007 net.cpp:122] Setting up binactive4
I0128 16:57:41.476442 46007 net.cpp:129] Top shape: 256 384 13 13 (16613376)
I0128 16:57:41.476449 46007 net.cpp:137] Memory required for data: 2530217984
I0128 16:57:41.476459 46007 layer_factory.hpp:78] Creating layer conv5
I0128 16:57:41.476508 46007 net.cpp:84] Creating Layer conv5
I0128 16:57:41.476521 46007 net.cpp:406] conv5 <- binactive4
I0128 16:57:41.476550 46007 net.cpp:380] conv5 -> conv5
I0128 16:57:41.582090 46007 cudnn_binary_conv_layer.cpp:194] Reallocating workspace storage: 18874368
I0128 16:57:41.582471 46007 net.cpp:122] Setting up conv5
I0128 16:57:41.582499 46007 net.cpp:129] Top shape: 256 256 13 13 (11075584)
I0128 16:57:41.582504 46007 net.cpp:137] Memory required for data: 2574520320
I0128 16:57:41.582535 46007 layer_factory.hpp:78] Creating layer pool5
I0128 16:57:41.582584 46007 net.cpp:84] Creating Layer pool5
I0128 16:57:41.582602 46007 net.cpp:406] pool5 <- conv5
I0128 16:57:41.582633 46007 net.cpp:380] pool5 -> pool5
I0128 16:57:41.582726 46007 net.cpp:122] Setting up pool5
I0128 16:57:41.582763 46007 net.cpp:129] Top shape: 256 256 6 6 (2359296)
I0128 16:57:41.582768 46007 net.cpp:137] Memory required for data: 2583957504
I0128 16:57:41.582777 46007 layer_factory.hpp:78] Creating layer bn6
I0128 16:57:41.582792 46007 net.cpp:84] Creating Layer bn6
I0128 16:57:41.582801 46007 net.cpp:406] bn6 <- pool5
I0128 16:57:41.582816 46007 net.cpp:367] bn6 -> pool5 (in-place)
I0128 16:57:41.583075 46007 net.cpp:122] Setting up bn6
I0128 16:57:41.583086 46007 net.cpp:129] Top shape: 256 256 6 6 (2359296)
I0128 16:57:41.583089 46007 net.cpp:137] Memory required for data: 2593394688
I0128 16:57:41.583127 46007 layer_factory.hpp:78] Creating layer scale6
I0128 16:57:41.583153 46007 net.cpp:84] Creating Layer scale6
I0128 16:57:41.583161 46007 net.cpp:406] scale6 <- pool5
I0128 16:57:41.583176 46007 net.cpp:367] scale6 -> pool5 (in-place)
I0128 16:57:41.583248 46007 layer_factory.hpp:78] Creating layer scale6
I0128 16:57:41.583431 46007 net.cpp:122] Setting up scale6
I0128 16:57:41.583444 46007 net.cpp:129] Top shape: 256 256 6 6 (2359296)
I0128 16:57:41.583448 46007 net.cpp:137] Memory required for data: 2602831872
I0128 16:57:41.583463 46007 layer_factory.hpp:78] Creating layer binactive5
I0128 16:57:41.583478 46007 net.cpp:84] Creating Layer binactive5
I0128 16:57:41.583487 46007 net.cpp:406] binactive5 <- pool5
I0128 16:57:41.583505 46007 net.cpp:380] binactive5 -> binactive5
I0128 16:57:41.583545 46007 net.cpp:122] Setting up binactive5
I0128 16:57:41.583555 46007 net.cpp:129] Top shape: 256 256 6 6 (2359296)
I0128 16:57:41.583562 46007 net.cpp:137] Memory required for data: 2612269056
I0128 16:57:41.583567 46007 layer_factory.hpp:78] Creating layer fc6
I0128 16:57:41.583603 46007 net.cpp:84] Creating Layer fc6
I0128 16:57:41.583612 46007 net.cpp:406] fc6 <- binactive5
I0128 16:57:41.583634 46007 net.cpp:380] fc6 -> fc6
I0128 16:57:45.505950 46007 net.cpp:122] Setting up fc6
I0128 16:57:45.506032 46007 net.cpp:129] Top shape: 256 4096 (1048576)
I0128 16:57:45.506038 46007 net.cpp:137] Memory required for data: 2616463360
I0128 16:57:45.506079 46007 layer_factory.hpp:78] Creating layer bn7
I0128 16:57:45.506124 46007 net.cpp:84] Creating Layer bn7
I0128 16:57:45.506145 46007 net.cpp:406] bn7 <- fc6
I0128 16:57:45.506188 46007 net.cpp:367] bn7 -> fc6 (in-place)
I0128 16:57:45.506484 46007 net.cpp:122] Setting up bn7
I0128 16:57:45.506500 46007 net.cpp:129] Top shape: 256 4096 (1048576)
I0128 16:57:45.506502 46007 net.cpp:137] Memory required for data: 2620657664
I0128 16:57:45.506525 46007 layer_factory.hpp:78] Creating layer scale7
I0128 16:57:45.506551 46007 net.cpp:84] Creating Layer scale7
I0128 16:57:45.506559 46007 net.cpp:406] scale7 <- fc6
I0128 16:57:45.506574 46007 net.cpp:367] scale7 -> fc6 (in-place)
I0128 16:57:45.506670 46007 layer_factory.hpp:78] Creating layer scale7
I0128 16:57:45.506860 46007 net.cpp:122] Setting up scale7
I0128 16:57:45.506875 46007 net.cpp:129] Top shape: 256 4096 (1048576)
I0128 16:57:45.506878 46007 net.cpp:137] Memory required for data: 2624851968
I0128 16:57:45.506894 46007 layer_factory.hpp:78] Creating layer binactive6
I0128 16:57:45.506912 46007 net.cpp:84] Creating Layer binactive6
I0128 16:57:45.506919 46007 net.cpp:406] binactive6 <- fc6
I0128 16:57:45.506937 46007 net.cpp:380] binactive6 -> binactive6
I0128 16:57:45.506980 46007 net.cpp:122] Setting up binactive6
I0128 16:57:45.506992 46007 net.cpp:129] Top shape: 256 4096 (1048576)
I0128 16:57:45.506996 46007 net.cpp:137] Memory required for data: 2629046272
I0128 16:57:45.507002 46007 layer_factory.hpp:78] Creating layer fc7
I0128 16:57:45.507040 46007 net.cpp:84] Creating Layer fc7
I0128 16:57:45.507050 46007 net.cpp:406] fc7 <- binactive6
I0128 16:57:45.507069 46007 net.cpp:380] fc7 -> fc7
I0128 16:57:47.353384 46007 net.cpp:122] Setting up fc7
I0128 16:57:47.353451 46007 net.cpp:129] Top shape: 256 4096 (1048576)
I0128 16:57:47.353456 46007 net.cpp:137] Memory required for data: 2633240576
I0128 16:57:47.353492 46007 layer_factory.hpp:78] Creating layer bn8
I0128 16:57:47.353536 46007 net.cpp:84] Creating Layer bn8
I0128 16:57:47.353579 46007 net.cpp:406] bn8 <- fc7
I0128 16:57:47.353610 46007 net.cpp:367] bn8 -> fc7 (in-place)
I0128 16:57:47.353935 46007 net.cpp:122] Setting up bn8
I0128 16:57:47.353963 46007 net.cpp:129] Top shape: 256 4096 (1048576)
I0128 16:57:47.353982 46007 net.cpp:137] Memory required for data: 2637434880
I0128 16:57:47.354008 46007 layer_factory.hpp:78] Creating layer scale8
I0128 16:57:47.354038 46007 net.cpp:84] Creating Layer scale8
I0128 16:57:47.354044 46007 net.cpp:406] scale8 <- fc7
I0128 16:57:47.354059 46007 net.cpp:367] scale8 -> fc7 (in-place)
I0128 16:57:47.354141 46007 layer_factory.hpp:78] Creating layer scale8
I0128 16:57:47.354393 46007 net.cpp:122] Setting up scale8
I0128 16:57:47.354408 46007 net.cpp:129] Top shape: 256 4096 (1048576)
I0128 16:57:47.354411 46007 net.cpp:137] Memory required for data: 2641629184
I0128 16:57:47.354426 46007 layer_factory.hpp:78] Creating layer relu7
I0128 16:57:47.354449 46007 net.cpp:84] Creating Layer relu7
I0128 16:57:47.354456 46007 net.cpp:406] relu7 <- fc7
I0128 16:57:47.354471 46007 net.cpp:367] relu7 -> fc7 (in-place)
I0128 16:57:47.355497 46007 net.cpp:122] Setting up relu7
I0128 16:57:47.355512 46007 net.cpp:129] Top shape: 256 4096 (1048576)
I0128 16:57:47.355531 46007 net.cpp:137] Memory required for data: 2645823488
I0128 16:57:47.355538 46007 layer_factory.hpp:78] Creating layer fc8
I0128 16:57:47.355577 46007 net.cpp:84] Creating Layer fc8
I0128 16:57:47.355587 46007 net.cpp:406] fc8 <- fc7
I0128 16:57:47.355610 46007 net.cpp:380] fc8 -> fc8
I0128 16:57:47.833254 46007 net.cpp:122] Setting up fc8
I0128 16:57:47.833324 46007 net.cpp:129] Top shape: 256 1000 (256000)
I0128 16:57:47.833330 46007 net.cpp:137] Memory required for data: 2646847488
I0128 16:57:47.833380 46007 layer_factory.hpp:78] Creating layer fc8_fc8_0_split
I0128 16:57:47.833431 46007 net.cpp:84] Creating Layer fc8_fc8_0_split
I0128 16:57:47.833451 46007 net.cpp:406] fc8_fc8_0_split <- fc8
I0128 16:57:47.833487 46007 net.cpp:380] fc8_fc8_0_split -> fc8_fc8_0_split_0
I0128 16:57:47.833521 46007 net.cpp:380] fc8_fc8_0_split -> fc8_fc8_0_split_1
I0128 16:57:47.833539 46007 net.cpp:380] fc8_fc8_0_split -> fc8_fc8_0_split_2
I0128 16:57:47.833631 46007 net.cpp:122] Setting up fc8_fc8_0_split
I0128 16:57:47.833645 46007 net.cpp:129] Top shape: 256 1000 (256000)
I0128 16:57:47.833652 46007 net.cpp:129] Top shape: 256 1000 (256000)
I0128 16:57:47.833658 46007 net.cpp:129] Top shape: 256 1000 (256000)
I0128 16:57:47.833662 46007 net.cpp:137] Memory required for data: 2649919488
I0128 16:57:47.833670 46007 layer_factory.hpp:78] Creating layer loss
I0128 16:57:47.833701 46007 net.cpp:84] Creating Layer loss
I0128 16:57:47.833710 46007 net.cpp:406] loss <- fc8_fc8_0_split_0
I0128 16:57:47.833724 46007 net.cpp:406] loss <- label_data_1_split_0
I0128 16:57:47.833740 46007 net.cpp:380] loss -> loss
…
I0128 16:57:47.839623 46007 net.cpp:294] The NetState phase (1) differed from the phase (0) specified by a rule in layer data
I0128 16:57:47.839884 46007 net.cpp:51] Initializing net from parameters: 
name: "AlexNet-BN"
state {
  phase: TEST
}
layer {
  name: "data"
  type: "Data"
  top: "data"
  top: "label"
  include {
    phase: TEST
  }
  transform_param {
    mirror: false
    crop_size: 224
    mean_value: 104
    mean_value: 117
    mean_value: 123
  }
  data_param {
    source: "/home/zhengzhe/Data/imagenet_shrt256/ilsvrc12_val_lmdb"
    batch_size: 50
    backend: LMDB
  }
}
layer {
  name: "conv1"
  type: "Convolution"
  bottom: "data"
  top: "conv1"
  param {
    lr_mult: 1
    decay_mult: 1
  }
  convolution_param {
    num_output: 96
    bias_term: false
    pad: 2
    kernel_size: 11
    stride: 4
    weight_filler {
      type: "msra"
    }
  }
}
layer {
  name: "bn1"
  type: "BatchNorm"
  bottom: "conv1"
  top: "conv1"
}
layer {
  name: "scale1"
  type: "Scale"
  bottom: "conv1"
  top: "conv1"
  scale_param {
    bias_term: true
  }
}
layer {
  name: "relu1"
  type: "ReLU"
  bottom: "conv1"
  top: "conv1"
}
layer {
  name: "pool1"
  type: "Pooling"
  bottom: "conv1"
  top: "pool1"
  pooling_param {
    pool: MAX
    kernel_size: 3
    stride: 2
  }
}
layer {
  name: "bn2"
  type: "BatchNorm"
  bottom: "pool1"
  top: "pool1"
}
layer {
  name: "scale2"
  type: "Scale"
  bottom: "pool1"
  top: "pool1"
  scale_param {
    bias_term: true
  }
}
layer {
  name: "binactive1"
  type: "BinActive"
  bottom: "pool1"
  top: "binactive1"
}
layer {
  name: "conv2"
  type: "BinaryConvolution"
  bottom: "binactive1"
  top: "conv2"
  param {
    lr_mult: 1
    decay_mult: 1
  }
  convolution_param {
    num_output: 256
    bias_term: false
    pad: 2
    kernel_size: 5
    weight_filler {
      type: "msra"
    }
  }
  debug_param {
    xnorno_grad: false
    binary_relax: true
    update_lamda: 2500
    phase1_iter: 300000
  }
}
layer {
  name: "pool2"
  type: "Pooling"
  bottom: "conv2"
  top: "pool2"
  pooling_param {
    pool: MAX
    kernel_size: 3
    stride: 2
  }
}
layer {
  name: "bn3"
  type: "BatchNorm"
  bottom: "pool2"
  top: "pool2"
}
layer {
  name: "scale3"
  type: "Scale"
  bottom: "pool2"
  top: "pool2"
  scale_param {
    bias_term: true
  }
}
layer {
  name: "binactive2"
  type: "BinActive"
  bottom: "pool2"
  top: "binactive2"
}
layer {
  name: "conv3"
  type: "BinaryConvolution"
  bottom: "binactive2"
  top: "conv3"
  param {
    lr_mult: 1
    decay_mult: 1
  }
  convolution_param {
    num_output: 384
    bias_term: false
    pad: 1
    kernel_size: 3
    weight_filler {
      type: "msra"
    }
  }
  debug_param {
    xnorno_grad: false
    binary_relax: true
    update_lamda: 2500
    phase1_iter: 300000
  }
}
layer {
  name: "bn4"
  type: "BatchNorm"
  bottom: "conv3"
  top: "conv3"
}
layer {
  name: "scale4"
  type: "Scale"
  bottom: "conv3"
  top: "conv3"
  scale_param {
    bias_term: true
  }
}
layer {
  name: "binactive3"
  type: "BinActive"
  bottom: "conv3"
  top: "binactive3"
}
layer {
  name: "conv4"
  type: "BinaryConvolution"
  bottom: "binactive3"
  top: "conv4"
  param {
    lr_mult: 1
    decay_mult: 1
  }
  convolution_param {
    num_output: 384
    bias_term: false
    pad: 1
    kernel_size: 3
    weight_filler {
      type: "msra"
    }
  }
  debug_param {
    xnorno_grad: false
    binary_relax: true
    update_lamda: 2500
    phase1_iter: 300000
  }
}
layer {
  name: "bn5"
  type: "BatchNorm"
  bottom: "conv4"
  top: "conv4"
}
layer {
  name: "scale5"
  type: "Scale"
  bottom: "conv4"
  top: "conv4"
  scale_param {
    bias_term: true
  }
}
layer {
  name: "binactive4"
  type: "BinActive"
  bottom: "conv4"
  top: "binactive4"
}
layer {
  name: "conv5"
  type: "BinaryConvolution"
  bottom: "binactive4"
  top: "conv5"
  param {
    lr_mult: 1
    decay_mult: 1
  }
  convolution_param {
    num_output: 256
    bias_term: false
    pad: 1
    kernel_size: 3
    weight_filler {
      type: "msra"
    }
  }
  debug_param {
    xnorno_grad: false
    binary_relax: true
    update_lamda: 2500
    phase1_iter: 300000
  }
}
layer {
  name: "pool5"
  type: "Pooling"
  bottom: "conv5"
  top: "pool5"
  pooling_param {
    pool: MAX
    kernel_size: 3
    stride: 2
  }
}
layer {
  name: "bn6"
  type: "BatchNorm"
  bottom: "pool5"
  top: "pool5"
}
layer {
  name: "scale6"
  type: "Scale"
  bottom: "pool5"
  top: "pool5"
  scale_param {
    bias_term: true
  }
}
layer {
  name: "binactive5"
  type: "BinActive"
  bottom: "pool5"
  top: "binactive5"
}
layer {
  name: "fc6"
  type: "BinaryInnerProduct"
  bottom: "binactive5"
  top: "fc6"
  param {
    lr_mult: 1
    decay_mult: 1
  }
  inner_product_param {
    num_output: 4096
    bias_term: false
    weight_filler {
      type: "msra"
    }
  }
  debug_param {
    xnorno_grad: false
    binary_relax: true
    update_lamda: 2500
    phase1_iter: 300000
  }
}
layer {
  name: "bn7"
  type: "BatchNorm"
  bottom: "fc6"
  top: "fc6"
}
layer {
  name: "scale7"
  type: "Scale"
  bottom: "fc6"
  top: "fc6"
  scale_param {
    bias_term: true
  }
}
layer {
  name: "binactive6"
  type: "BinActive"
  bottom: "fc6"
  top: "binactive6"
}
layer {
  name: "fc7"
  type: "BinaryInnerProduct"
  bottom: "binactive6"
  top: "fc7"
  param {
    lr_mult: 1
    decay_mult: 1
  }
  inner_product_param {
    num_output: 4096
    bias_term: false
    weight_filler {
      type: "msra"
    }
  }
  debug_param {
    xnorno_grad: false
    binary_relax: true
    update_lamda: 2500
    phase1_iter: 300000
  }
}
layer {
  name: "bn8"
  type: "BatchNorm"
  bottom: "fc7"
  top: "fc7"
}
layer {
  name: "scale8"
  type: "Scale"
  bottom: "fc7"
  top: "fc7"
  scale_param {
    bias_term: true
  }
}
layer {
  name: "relu7"
  type: "ReLU"
  bottom: "fc7"
  top: "fc7"
}
layer {
  name: "fc8"
  type: "InnerProduct"
  bottom: "fc7"
  top: "fc8"
  param {
    lr_mult: 1
    decay_mult: 1
  }
  param {
    lr_mult: 2
    decay_mult: 0
  }
  inner_product_param {
    num_output: 1000
    weight_filler {
      type: "msra"
    }
    bias_filler {
      type: "constant"
      value: 0
    }
  }
}
layer {
  name: "loss"
  type: "SoftmaxWithLoss"
  bottom: "fc8"
  bottom: "label"
  top: "loss"
}
layer {
  name: "accuracy"
  type: "Accuracy"
  bottom: "fc8"
  bottom: "label"
  top: "accuracy"
}
layer {
  name: "accuracy_5"
  type: "Accuracy"
  bottom: "fc8"
  bottom: "label"
  top: "accuracy_5"
  accuracy_param {
    top_k: 5
  }
}
I0128 16:57:47.840337 46007 layer_factory.hpp:78] Creating layer data
I0128 16:57:47.840446 46007 db_lmdb.cpp:35] Opened lmdb /home/zhengzhe/Data/imagenet_shrt256/ilsvrc12_val_lmdb
I0128 16:57:47.840492 46007 net.cpp:84] Creating Layer data
I0128 16:57:47.840512 46007 net.cpp:380] data -> data
I0128 16:57:47.840548 46007 net.cpp:380] data -> label
I0128 16:57:47.841331 46007 data_layer.cpp:45] output data size: 50,3,224,224
I0128 16:57:48.277482 46007 base_data_layer.cpp:72] Initializing prefetch
I0128 16:57:48.277705 46007 base_data_layer.cpp:75] Prefetch initialized.
I0128 16:57:48.277720 46007 net.cpp:122] Setting up data
I0128 16:57:48.277788 46007 net.cpp:129] Top shape: 50 3 224 224 (7526400)
I0128 16:57:48.277801 46007 net.cpp:129] Top shape: 50 (50)
I0128 16:57:48.277807 46007 net.cpp:137] Memory required for data: 30105800
I0128 16:57:48.277840 46007 layer_factory.hpp:78] Creating layer label_data_1_split
I0128 16:57:48.277909 46007 net.cpp:84] Creating Layer label_data_1_split
I0128 16:57:48.277928 46007 net.cpp:406] label_data_1_split <- label
I0128 16:57:48.277971 46007 net.cpp:380] label_data_1_split -> label_data_1_split_0
I0128 16:57:48.278014 46007 net.cpp:380] label_data_1_split -> label_data_1_split_1
I0128 16:57:48.278031 46007 net.cpp:380] label_data_1_split -> label_data_1_split_2
I0128 16:57:48.278417 46007 net.cpp:122] Setting up label_data_1_split
I0128 16:57:48.278435 46007 net.cpp:129] Top shape: 50 (50)
I0128 16:57:48.278442 46007 net.cpp:129] Top shape: 50 (50)
I0128 16:57:48.278448 46007 net.cpp:129] Top shape: 50 (50)
I0128 16:57:48.278452 46007 net.cpp:137] Memory required for data: 30106400
I0128 16:57:48.278460 46007 layer_factory.hpp:78] Creating layer conv1
I0128 16:57:48.278511 46007 net.cpp:84] Creating Layer conv1
I0128 16:57:48.278520 46007 net.cpp:406] conv1 <- data
I0128 16:57:48.278553 46007 net.cpp:380] conv1 -> conv1
I0128 16:57:48.288403 46007 cudnn_conv_layer.cpp:194] Reallocating workspace storage: 127416
I0128 16:57:48.288491 46007 net.cpp:122] Setting up conv1
I0128 16:57:48.288527 46007 net.cpp:129] Top shape: 50 96 55 55 (14520000)
I0128 16:57:48.288534 46007 net.cpp:137] Memory required for data: 88186400
I0128 16:57:48.288568 46007 layer_factory.hpp:78] Creating layer bn1
I0128 16:57:48.288597 46007 net.cpp:84] Creating Layer bn1
I0128 16:57:48.288607 46007 net.cpp:406] bn1 <- conv1
I0128 16:57:48.288626 46007 net.cpp:367] bn1 -> conv1 (in-place)
I0128 16:57:48.289046 46007 net.cpp:122] Setting up bn1
I0128 16:57:48.289060 46007 net.cpp:129] Top shape: 50 96 55 55 (14520000)
I0128 16:57:48.289065 46007 net.cpp:137] Memory required for data: 146266400
I0128 16:57:48.289104 46007 layer_factory.hpp:78] Creating layer scale1
I0128 16:57:48.289137 46007 net.cpp:84] Creating Layer scale1
I0128 16:57:48.289147 46007 net.cpp:406] scale1 <- conv1
I0128 16:57:48.289165 46007 net.cpp:367] scale1 -> conv1 (in-place)
I0128 16:57:48.289255 46007 layer_factory.hpp:78] Creating layer scale1
I0128 16:57:48.289579 46007 net.cpp:122] Setting up scale1
I0128 16:57:48.289595 46007 net.cpp:129] Top shape: 50 96 55 55 (14520000)
I0128 16:57:48.289599 46007 net.cpp:137] Memory required for data: 204346400
I0128 16:57:48.289629 46007 layer_factory.hpp:78] Creating layer relu1
I0128 16:57:48.289650 46007 net.cpp:84] Creating Layer relu1
I0128 16:57:48.289659 46007 net.cpp:406] relu1 <- conv1
I0128 16:57:48.289680 46007 net.cpp:367] relu1 -> conv1 (in-place)
I0128 16:57:48.290412 46007 net.cpp:122] Setting up relu1
I0128 16:57:48.290427 46007 net.cpp:129] Top shape: 50 96 55 55 (14520000)
I0128 16:57:48.290433 46007 net.cpp:137] Memory required for data: 262426400
I0128 16:57:48.290441 46007 layer_factory.hpp:78] Creating layer pool1
I0128 16:57:48.290464 46007 net.cpp:84] Creating Layer pool1
I0128 16:57:48.290488 46007 net.cpp:406] pool1 <- conv1
I0128 16:57:48.290513 46007 net.cpp:380] pool1 -> pool1
I0128 16:57:48.290606 46007 net.cpp:122] Setting up pool1
I0128 16:57:48.290621 46007 net.cpp:129] Top shape: 50 96 27 27 (3499200)
I0128 16:57:48.290627 46007 net.cpp:137] Memory required for data: 276423200
I0128 16:57:48.290632 46007 layer_factory.hpp:78] Creating layer bn2
I0128 16:57:48.290654 46007 net.cpp:84] Creating Layer bn2
I0128 16:57:48.290663 46007 net.cpp:406] bn2 <- pool1
I0128 16:57:48.290680 46007 net.cpp:367] bn2 -> pool1 (in-place)
I0128 16:57:48.291062 46007 net.cpp:122] Setting up bn2
I0128 16:57:48.291076 46007 net.cpp:129] Top shape: 50 96 27 27 (3499200)
I0128 16:57:48.291080 46007 net.cpp:137] Memory required for data: 290420000
I0128 16:57:48.291126 46007 layer_factory.hpp:78] Creating layer scale2
I0128 16:57:48.291152 46007 net.cpp:84] Creating Layer scale2
I0128 16:57:48.291162 46007 net.cpp:406] scale2 <- pool1
I0128 16:57:48.291182 46007 net.cpp:367] scale2 -> pool1 (in-place)
I0128 16:57:48.291276 46007 layer_factory.hpp:78] Creating layer scale2
I0128 16:57:48.291541 46007 net.cpp:122] Setting up scale2
I0128 16:57:48.291556 46007 net.cpp:129] Top shape: 50 96 27 27 (3499200)
I0128 16:57:48.291561 46007 net.cpp:137] Memory required for data: 304416800
I0128 16:57:48.291580 46007 layer_factory.hpp:78] Creating layer binactive1
I0128 16:57:48.291601 46007 net.cpp:84] Creating Layer binactive1
I0128 16:57:48.291610 46007 net.cpp:406] binactive1 <- pool1
I0128 16:57:48.291628 46007 net.cpp:380] binactive1 -> binactive1
I0128 16:57:48.291678 46007 net.cpp:122] Setting up binactive1
I0128 16:57:48.291692 46007 net.cpp:129] Top shape: 50 96 27 27 (3499200)
I0128 16:57:48.291697 46007 net.cpp:137] Memory required for data: 318413600
I0128 16:57:48.291703 46007 layer_factory.hpp:78] Creating layer conv2
I0128 16:57:48.291736 46007 net.cpp:84] Creating Layer conv2
I0128 16:57:48.291746 46007 net.cpp:406] conv2 <- binactive1
I0128 16:57:48.291769 46007 net.cpp:380] conv2 -> conv2
I0128 16:57:48.356747 46007 cudnn_binary_conv_layer.cpp:194] Reallocating workspace storage: 19668
I0128 16:57:48.356806 46007 net.cpp:122] Setting up conv2
I0128 16:57:48.356825 46007 net.cpp:129] Top shape: 50 256 27 27 (9331200)
I0128 16:57:48.356829 46007 net.cpp:137] Memory required for data: 355738400
I0128 16:57:48.356875 46007 layer_factory.hpp:78] Creating layer pool2
I0128 16:57:48.356921 46007 net.cpp:84] Creating Layer pool2
I0128 16:57:48.356936 46007 net.cpp:406] pool2 <- conv2
I0128 16:57:48.356966 46007 net.cpp:380] pool2 -> pool2
I0128 16:57:48.357045 46007 net.cpp:122] Setting up pool2
I0128 16:57:48.357061 46007 net.cpp:129] Top shape: 50 256 13 13 (2163200)
I0128 16:57:48.357066 46007 net.cpp:137] Memory required for data: 364391200
I0128 16:57:48.357072 46007 layer_factory.hpp:78] Creating layer bn3
I0128 16:57:48.357087 46007 net.cpp:84] Creating Layer bn3
I0128 16:57:48.357095 46007 net.cpp:406] bn3 <- pool2
I0128 16:57:48.357110 46007 net.cpp:367] bn3 -> pool2 (in-place)
I0128 16:57:48.357405 46007 net.cpp:122] Setting up bn3
I0128 16:57:48.357420 46007 net.cpp:129] Top shape: 50 256 13 13 (2163200)
I0128 16:57:48.357424 46007 net.cpp:137] Memory required for data: 373044000
I0128 16:57:48.357446 46007 layer_factory.hpp:78] Creating layer scale3
I0128 16:57:48.357467 46007 net.cpp:84] Creating Layer scale3
I0128 16:57:48.357475 46007 net.cpp:406] scale3 <- pool2
I0128 16:57:48.357491 46007 net.cpp:367] scale3 -> pool2 (in-place)
I0128 16:57:48.357575 46007 layer_factory.hpp:78] Creating layer scale3
I0128 16:57:48.357753 46007 net.cpp:122] Setting up scale3
I0128 16:57:48.357769 46007 net.cpp:129] Top shape: 50 256 13 13 (2163200)
I0128 16:57:48.357772 46007 net.cpp:137] Memory required for data: 381696800
I0128 16:57:48.357800 46007 layer_factory.hpp:78] Creating layer binactive2
I0128 16:57:48.357816 46007 net.cpp:84] Creating Layer binactive2
I0128 16:57:48.357825 46007 net.cpp:406] binactive2 <- pool2
I0128 16:57:48.357841 46007 net.cpp:380] binactive2 -> binactive2
I0128 16:57:48.357887 46007 net.cpp:122] Setting up binactive2
I0128 16:57:48.357899 46007 net.cpp:129] Top shape: 50 256 13 13 (2163200)
I0128 16:57:48.357903 46007 net.cpp:137] Memory required for data: 390349600
I0128 16:57:48.357908 46007 layer_factory.hpp:78] Creating layer conv3
I0128 16:57:48.357940 46007 net.cpp:84] Creating Layer conv3
I0128 16:57:48.357949 46007 net.cpp:406] conv3 <- binactive2
I0128 16:57:48.357973 46007 net.cpp:380] conv3 -> conv3
I0128 16:57:48.443645 46007 cudnn_binary_conv_layer.cpp:194] Reallocating workspace storage: 18874368
I0128 16:57:48.444237 46007 net.cpp:122] Setting up conv3
I0128 16:57:48.444281 46007 net.cpp:129] Top shape: 50 384 13 13 (3244800)
I0128 16:57:48.444303 46007 net.cpp:137] Memory required for data: 403328800
I0128 16:57:48.444361 46007 layer_factory.hpp:78] Creating layer bn4
I0128 16:57:48.444449 46007 net.cpp:84] Creating Layer bn4
I0128 16:57:48.444473 46007 net.cpp:406] bn4 <- conv3
I0128 16:57:48.444526 46007 net.cpp:367] bn4 -> conv3 (in-place)
I0128 16:57:48.445143 46007 net.cpp:122] Setting up bn4
I0128 16:57:48.445166 46007 net.cpp:129] Top shape: 50 384 13 13 (3244800)
I0128 16:57:48.445174 46007 net.cpp:137] Memory required for data: 416308000
I0128 16:57:48.445225 46007 layer_factory.hpp:78] Creating layer scale4
I0128 16:57:48.445274 46007 net.cpp:84] Creating Layer scale4
I0128 16:57:48.445291 46007 net.cpp:406] scale4 <- conv3
I0128 16:57:48.445340 46007 net.cpp:367] scale4 -> conv3 (in-place)
I0128 16:57:48.445505 46007 layer_factory.hpp:78] Creating layer scale4
I0128 16:57:48.445904 46007 net.cpp:122] Setting up scale4
I0128 16:57:48.445928 46007 net.cpp:129] Top shape: 50 384 13 13 (3244800)
I0128 16:57:48.445936 46007 net.cpp:137] Memory required for data: 429287200
I0128 16:57:48.445966 46007 layer_factory.hpp:78] Creating layer binactive3
I0128 16:57:48.446003 46007 net.cpp:84] Creating Layer binactive3
I0128 16:57:48.446020 46007 net.cpp:406] binactive3 <- conv3
I0128 16:57:48.446059 46007 net.cpp:380] binactive3 -> binactive3
I0128 16:57:48.446156 46007 net.cpp:122] Setting up binactive3
I0128 16:57:48.446180 46007 net.cpp:129] Top shape: 50 384 13 13 (3244800)
I0128 16:57:48.446189 46007 net.cpp:137] Memory required for data: 442266400
I0128 16:57:48.446202 46007 layer_factory.hpp:78] Creating layer conv4
I0128 16:57:48.446265 46007 net.cpp:84] Creating Layer conv4
I0128 16:57:48.446317 46007 net.cpp:406] conv4 <- binactive3
I0128 16:57:48.446400 46007 net.cpp:380] conv4 -> conv4
I0128 16:57:48.624553 46007 cudnn_binary_conv_layer.cpp:194] Reallocating workspace storage: 9840
I0128 16:57:48.624604 46007 net.cpp:122] Setting up conv4
I0128 16:57:48.624631 46007 net.cpp:129] Top shape: 50 384 13 13 (3244800)
I0128 16:57:48.624636 46007 net.cpp:137] Memory required for data: 455245600
I0128 16:57:48.624670 46007 layer_factory.hpp:78] Creating layer bn5
I0128 16:57:48.624708 46007 net.cpp:84] Creating Layer bn5
I0128 16:57:48.624722 46007 net.cpp:406] bn5 <- conv4
I0128 16:57:48.624750 46007 net.cpp:367] bn5 -> conv4 (in-place)
I0128 16:57:48.625090 46007 net.cpp:122] Setting up bn5
I0128 16:57:48.625115 46007 net.cpp:129] Top shape: 50 384 13 13 (3244800)
I0128 16:57:48.625120 46007 net.cpp:137] Memory required for data: 468224800
I0128 16:57:48.625146 46007 layer_factory.hpp:78] Creating layer scale5
I0128 16:57:48.625171 46007 net.cpp:84] Creating Layer scale5
I0128 16:57:48.625182 46007 net.cpp:406] scale5 <- conv4
I0128 16:57:48.625200 46007 net.cpp:367] scale5 -> conv4 (in-place)
I0128 16:57:48.625291 46007 layer_factory.hpp:78] Creating layer scale5
I0128 16:57:48.625525 46007 net.cpp:122] Setting up scale5
I0128 16:57:48.625540 46007 net.cpp:129] Top shape: 50 384 13 13 (3244800)
I0128 16:57:48.625545 46007 net.cpp:137] Memory required for data: 481204000
I0128 16:57:48.625562 46007 layer_factory.hpp:78] Creating layer binactive4
I0128 16:57:48.625579 46007 net.cpp:84] Creating Layer binactive4
I0128 16:57:48.625587 46007 net.cpp:406] binactive4 <- conv4
I0128 16:57:48.625622 46007 net.cpp:380] binactive4 -> binactive4
I0128 16:57:48.625676 46007 net.cpp:122] Setting up binactive4
I0128 16:57:48.625694 46007 net.cpp:129] Top shape: 50 384 13 13 (3244800)
I0128 16:57:48.625699 46007 net.cpp:137] Memory required for data: 494183200
I0128 16:57:48.625705 46007 layer_factory.hpp:78] Creating layer conv5
I0128 16:57:48.625761 46007 net.cpp:84] Creating Layer conv5
I0128 16:57:48.625771 46007 net.cpp:406] conv5 <- binactive4
I0128 16:57:48.625792 46007 net.cpp:380] conv5 -> conv5
I0128 16:57:48.729179 46007 cudnn_binary_conv_layer.cpp:194] Reallocating workspace storage: 18874368
I0128 16:57:48.729585 46007 net.cpp:122] Setting up conv5
I0128 16:57:48.729625 46007 net.cpp:129] Top shape: 50 256 13 13 (2163200)
I0128 16:57:48.729631 46007 net.cpp:137] Memory required for data: 502836000
I0128 16:57:48.729673 46007 layer_factory.hpp:78] Creating layer pool5
I0128 16:57:48.729732 46007 net.cpp:84] Creating Layer pool5
I0128 16:57:48.729750 46007 net.cpp:406] pool5 <- conv5
I0128 16:57:48.729792 46007 net.cpp:380] pool5 -> pool5
I0128 16:57:48.729907 46007 net.cpp:122] Setting up pool5
I0128 16:57:48.729926 46007 net.cpp:129] Top shape: 50 256 6 6 (460800)
I0128 16:57:48.729931 46007 net.cpp:137] Memory required for data: 504679200
I0128 16:57:48.729940 46007 layer_factory.hpp:78] Creating layer bn6
I0128 16:57:48.729962 46007 net.cpp:84] Creating Layer bn6
I0128 16:57:48.729971 46007 net.cpp:406] bn6 <- pool5
I0128 16:57:48.729990 46007 net.cpp:367] bn6 -> pool5 (in-place)
I0128 16:57:48.730410 46007 net.cpp:122] Setting up bn6
I0128 16:57:48.730425 46007 net.cpp:129] Top shape: 50 256 6 6 (460800)
I0128 16:57:48.730429 46007 net.cpp:137] Memory required for data: 506522400
I0128 16:57:48.730474 46007 layer_factory.hpp:78] Creating layer scale6
I0128 16:57:48.730501 46007 net.cpp:84] Creating Layer scale6
I0128 16:57:48.730511 46007 net.cpp:406] scale6 <- pool5
I0128 16:57:48.730530 46007 net.cpp:367] scale6 -> pool5 (in-place)
I0128 16:57:48.730630 46007 layer_factory.hpp:78] Creating layer scale6
I0128 16:57:48.730844 46007 net.cpp:122] Setting up scale6
I0128 16:57:48.730859 46007 net.cpp:129] Top shape: 50 256 6 6 (460800)
I0128 16:57:48.730864 46007 net.cpp:137] Memory required for data: 508365600
I0128 16:57:48.730880 46007 layer_factory.hpp:78] Creating layer binactive5
I0128 16:57:48.730898 46007 net.cpp:84] Creating Layer binactive5
I0128 16:57:48.730933 46007 net.cpp:406] binactive5 <- pool5
I0128 16:57:48.730976 46007 net.cpp:380] binactive5 -> binactive5
I0128 16:57:48.731037 46007 net.cpp:122] Setting up binactive5
I0128 16:57:48.731051 46007 net.cpp:129] Top shape: 50 256 6 6 (460800)
I0128 16:57:48.731058 46007 net.cpp:137] Memory required for data: 510208800
I0128 16:57:48.731065 46007 layer_factory.hpp:78] Creating layer fc6
I0128 16:57:48.731094 46007 net.cpp:84] Creating Layer fc6
I0128 16:57:48.731102 46007 net.cpp:406] fc6 <- binactive5
I0128 16:57:48.731125 46007 net.cpp:380] fc6 -> fc6
I0128 16:57:52.568923 46007 net.cpp:122] Setting up fc6
I0128 16:57:52.568990 46007 net.cpp:129] Top shape: 50 4096 (204800)
I0128 16:57:52.568996 46007 net.cpp:137] Memory required for data: 511028000
I0128 16:57:52.569041 46007 layer_factory.hpp:78] Creating layer bn7
I0128 16:57:52.569094 46007 net.cpp:84] Creating Layer bn7
I0128 16:57:52.569113 46007 net.cpp:406] bn7 <- fc6
I0128 16:57:52.569154 46007 net.cpp:367] bn7 -> fc6 (in-place)
I0128 16:57:52.569525 46007 net.cpp:122] Setting up bn7
I0128 16:57:52.569540 46007 net.cpp:129] Top shape: 50 4096 (204800)
I0128 16:57:52.569543 46007 net.cpp:137] Memory required for data: 511847200
I0128 16:57:52.569568 46007 layer_factory.hpp:78] Creating layer scale7
I0128 16:57:52.569597 46007 net.cpp:84] Creating Layer scale7
I0128 16:57:52.569607 46007 net.cpp:406] scale7 <- fc6
I0128 16:57:52.569624 46007 net.cpp:367] scale7 -> fc6 (in-place)
I0128 16:57:52.569763 46007 layer_factory.hpp:78] Creating layer scale7
I0128 16:57:52.570000 46007 net.cpp:122] Setting up scale7
I0128 16:57:52.570016 46007 net.cpp:129] Top shape: 50 4096 (204800)
I0128 16:57:52.570020 46007 net.cpp:137] Memory required for data: 512666400
I0128 16:57:52.570039 46007 layer_factory.hpp:78] Creating layer binactive6
I0128 16:57:52.570058 46007 net.cpp:84] Creating Layer binactive6
I0128 16:57:52.570067 46007 net.cpp:406] binactive6 <- fc6
I0128 16:57:52.570089 46007 net.cpp:380] binactive6 -> binactive6
I0128 16:57:52.570143 46007 net.cpp:122] Setting up binactive6
I0128 16:57:52.570161 46007 net.cpp:129] Top shape: 50 4096 (204800)
I0128 16:57:52.570165 46007 net.cpp:137] Memory required for data: 513485600
I0128 16:57:52.570173 46007 layer_factory.hpp:78] Creating layer fc7
I0128 16:57:52.570210 46007 net.cpp:84] Creating Layer fc7
I0128 16:57:52.570220 46007 net.cpp:406] fc7 <- binactive6
I0128 16:57:52.570241 46007 net.cpp:380] fc7 -> fc7
I0128 16:57:54.345037 46007 net.cpp:122] Setting up fc7
I0128 16:57:54.345103 46007 net.cpp:129] Top shape: 50 4096 (204800)
I0128 16:57:54.345108 46007 net.cpp:137] Memory required for data: 514304800
I0128 16:57:54.345178 46007 layer_factory.hpp:78] Creating layer bn8
I0128 16:57:54.345224 46007 net.cpp:84] Creating Layer bn8
I0128 16:57:54.345242 46007 net.cpp:406] bn8 <- fc7
I0128 16:57:54.345275 46007 net.cpp:367] bn8 -> fc7 (in-place)
I0128 16:57:54.345675 46007 net.cpp:122] Setting up bn8
I0128 16:57:54.345688 46007 net.cpp:129] Top shape: 50 4096 (204800)
I0128 16:57:54.345691 46007 net.cpp:137] Memory required for data: 515124000
I0128 16:57:54.345715 46007 layer_factory.hpp:78] Creating layer scale8
I0128 16:57:54.345739 46007 net.cpp:84] Creating Layer scale8
I0128 16:57:54.345747 46007 net.cpp:406] scale8 <- fc7
I0128 16:57:54.345762 46007 net.cpp:367] scale8 -> fc7 (in-place)
I0128 16:57:54.345942 46007 layer_factory.hpp:78] Creating layer scale8
I0128 16:57:54.346145 46007 net.cpp:122] Setting up scale8
I0128 16:57:54.346158 46007 net.cpp:129] Top shape: 50 4096 (204800)
I0128 16:57:54.346163 46007 net.cpp:137] Memory required for data: 515943200
I0128 16:57:54.346177 46007 layer_factory.hpp:78] Creating layer relu7
I0128 16:57:54.346196 46007 net.cpp:84] Creating Layer relu7
I0128 16:57:54.346204 46007 net.cpp:406] relu7 <- fc7
I0128 16:57:54.346218 46007 net.cpp:367] relu7 -> fc7 (in-place)
I0128 16:57:54.347769 46007 net.cpp:122] Setting up relu7
I0128 16:57:54.347785 46007 net.cpp:129] Top shape: 50 4096 (204800)
I0128 16:57:54.347790 46007 net.cpp:137] Memory required for data: 516762400
I0128 16:57:54.347820 46007 layer_factory.hpp:78] Creating layer fc8
I0128 16:57:54.347848 46007 net.cpp:84] Creating Layer fc8
I0128 16:57:54.347856 46007 net.cpp:406] fc8 <- fc7
I0128 16:57:54.347880 46007 net.cpp:380] fc8 -> fc8
I0128 16:57:54.800134 46007 net.cpp:122] Setting up fc8
I0128 16:57:54.800181 46007 net.cpp:129] Top shape: 50 1000 (50000)
I0128 16:57:54.800186 46007 net.cpp:137] Memory required for data: 516962400
I0128 16:57:54.800218 46007 layer_factory.hpp:78] Creating layer fc8_fc8_0_split
I0128 16:57:54.800261 46007 net.cpp:84] Creating Layer fc8_fc8_0_split
I0128 16:57:54.800277 46007 net.cpp:406] fc8_fc8_0_split <- fc8
I0128 16:57:54.800305 46007 net.cpp:380] fc8_fc8_0_split -> fc8_fc8_0_split_0
I0128 16:57:54.800333 46007 net.cpp:380] fc8_fc8_0_split -> fc8_fc8_0_split_1
I0128 16:57:54.800352 46007 net.cpp:380] fc8_fc8_0_split -> fc8_fc8_0_split_2
I0128 16:57:54.800451 46007 net.cpp:122] Setting up fc8_fc8_0_split
I0128 16:57:54.800464 46007 net.cpp:129] Top shape: 50 1000 (50000)
I0128 16:57:54.800470 46007 net.cpp:129] Top shape: 50 1000 (50000)
I0128 16:57:54.800475 46007 net.cpp:129] Top shape: 50 1000 (50000)
I0128 16:57:54.800478 46007 net.cpp:137] Memory required for data: 517562400
I0128 16:57:54.800485 46007 layer_factory.hpp:78] Creating layer loss
I0128 16:57:54.800503 46007 net.cpp:84] Creating Layer loss
I0128 16:57:54.800510 46007 net.cpp:406] loss <- fc8_fc8_0_split_0
I0128 16:57:54.800523 46007 net.cpp:406] loss <- label_data_1_split_0
I0128 16:57:54.800541 46007 net.cpp:380] loss -> loss
…
