…
I0125 20:25:57.218977 55322 net.cpp:294] The NetState phase (0) differed from the phase (1) specified by a rule in layer data
I0125 20:25:57.219512 55322 net.cpp:51] Initializing net from parameters: 
name: "AlexNet-BN"
state {
  phase: TRAIN
  level: 0
  stage: ""
}
layer {
  name: "data"
  type: "Data"
  top: "data"
  top: "label"
  include {
    phase: TRAIN
  }
  transform_param {
    mirror: true
    crop_size: 224
    mean_value: 104
    mean_value: 117
    mean_value: 123
  }
  data_param {
    source: "/home/zhengzhe/Data/imagenet_shrt256/ilsvrc12_train_lmdb"
    batch_size: 256
    backend: LMDB
  }
}
layer {
  name: "conv1"
  type: "Convolution"
  bottom: "data"
  top: "conv1"
  param {
    lr_mult: 1
    decay_mult: 1
  }
  convolution_param {
    num_output: 96
    bias_term: false
    pad: 2
    kernel_size: 11
    stride: 4
    weight_filler {
      type: "msra"
    }
  }
}
layer {
  name: "bn1"
  type: "BatchNorm"
  bottom: "conv1"
  top: "conv1"
}
layer {
  name: "scale1"
  type: "Scale"
  bottom: "conv1"
  top: "conv1"
  scale_param {
    bias_term: true
  }
}
layer {
  name: "relu1"
  type: "ReLU"
  bottom: "conv1"
  top: "conv1"
}
layer {
  name: "pool1"
  type: "Pooling"
  bottom: "conv1"
  top: "pool1"
  pooling_param {
    pool: MAX
    kernel_size: 3
    stride: 2
  }
}
layer {
  name: "bn2"
  type: "BatchNorm"
  bottom: "pool1"
  top: "pool1"
}
layer {
  name: "scale2"
  type: "Scale"
  bottom: "pool1"
  top: "pool1"
  scale_param {
    bias_term: true
  }
}
layer {
  name: "binactive1"
  type: "BinActive"
  bottom: "pool1"
  top: "binactive1"
}
layer {
  name: "conv2"
  type: "BinaryConvolution"
  bottom: "binactive1"
  top: "conv2"
  param {
    lr_mult: 1
    decay_mult: 1
  }
  convolution_param {
    num_output: 256
    bias_term: false
    pad: 2
    kernel_size: 5
    weight_filler {
      type: "msra"
    }
  }
  debug_param {
    xnorno_grad: false
    binary_relax: true
    update_lamda: 2500
    phase1_iter: 300000
  }
}
layer {
  name: "pool2"
  type: "Pooling"
  bottom: "conv2"
  top: "pool2"
  pooling_param {
    pool: MAX
    kernel_size: 3
    stride: 2
  }
}
layer {
  name: "bn3"
  type: "BatchNorm"
  bottom: "pool2"
  top: "pool2"
}
layer {
  name: "scale3"
  type: "Scale"
  bottom: "pool2"
  top: "pool2"
  scale_param {
    bias_term: true
  }
}
layer {
  name: "binactive2"
  type: "BinActive"
  bottom: "pool2"
  top: "binactive2"
}
layer {
  name: "conv3"
  type: "BinaryConvolution"
  bottom: "binactive2"
  top: "conv3"
  param {
    lr_mult: 1
    decay_mult: 1
  }
  convolution_param {
    num_output: 384
    bias_term: false
    pad: 1
    kernel_size: 3
    weight_filler {
      type: "msra"
    }
  }
  debug_param {
    xnorno_grad: false
    binary_relax: true
    update_lamda: 2500
    phase1_iter: 300000
  }
}
layer {
  name: "bn4"
  type: "BatchNorm"
  bottom: "conv3"
  top: "conv3"
}
layer {
  name: "scale4"
  type: "Scale"
  bottom: "conv3"
  top: "conv3"
  scale_param {
    bias_term: true
  }
}
layer {
  name: "binactive3"
  type: "BinActive"
  bottom: "conv3"
  top: "binactive3"
}
layer {
  name: "conv4"
  type: "BinaryConvolution"
  bottom: "binactive3"
  top: "conv4"
  param {
    lr_mult: 1
    decay_mult: 1
  }
  convolution_param {
    num_output: 384
    bias_term: false
    pad: 1
    kernel_size: 3
    weight_filler {
      type: "msra"
    }
  }
  debug_param {
    xnorno_grad: false
    binary_relax: true
    update_lamda: 2500
    phase1_iter: 300000
  }
}
layer {
  name: "bn5"
  type: "BatchNorm"
  bottom: "conv4"
  top: "conv4"
}
layer {
  name: "scale5"
  type: "Scale"
  bottom: "conv4"
  top: "conv4"
  scale_param {
    bias_term: true
  }
}
layer {
  name: "binactive4"
  type: "BinActive"
  bottom: "conv4"
  top: "binactive4"
}
layer {
  name: "conv5"
  type: "BinaryConvolution"
  bottom: "binactive4"
  top: "conv5"
  param {
    lr_mult: 1
    decay_mult: 1
  }
  convolution_param {
    num_output: 256
    bias_term: false
    pad: 1
    kernel_size: 3
    weight_filler {
      type: "msra"
    }
  }
  debug_param {
    xnorno_grad: false
    binary_relax: true
    update_lamda: 2500
    phase1_iter: 300000
  }
}
layer {
  name: "pool5"
  type: "Pooling"
  bottom: "conv5"
  top: "pool5"
  pooling_param {
    pool: MAX
    kernel_size: 3
    stride: 2
  }
}
layer {
  name: "bn6"
  type: "BatchNorm"
  bottom: "pool5"
  top: "pool5"
}
layer {
  name: "scale6"
  type: "Scale"
  bottom: "pool5"
  top: "pool5"
  scale_param {
    bias_term: true
  }
}
layer {
  name: "binactive5"
  type: "BinActive"
  bottom: "pool5"
  top: "binactive5"
}
layer {
  name: "fc6"
  type: "BinaryInnerProduct"
  bottom: "binactive5"
  top: "fc6"
  param {
    lr_mult: 1
    decay_mult: 1
  }
  inner_product_param {
    num_output: 4096
    bias_term: false
    weight_filler {
      type: "msra"
    }
  }
  debug_param {
    xnorno_grad: false
    binary_relax: true
    update_lamda: 2500
    phase1_iter: 300000
  }
}
layer {
  name: "bn7"
  type: "BatchNorm"
  bottom: "fc6"
  top: "fc6"
}
layer {
  name: "scale7"
  type: "Scale"
  bottom: "fc6"
  top: "fc6"
  scale_param {
    bias_term: true
  }
}
layer {
  name: "binactive6"
  type: "BinActive"
  bottom: "fc6"
  top: "binactive6"
}
layer {
  name: "fc7"
  type: "BinaryInnerProduct"
  bottom: "binactive6"
  top: "fc7"
  param {
    lr_mult: 1
    decay_mult: 1
  }
  inner_product_param {
    num_output: 4096
    bias_term: false
    weight_filler {
      type: "msra"
    }
  }
  debug_param {
    xnorno_grad: false
    binary_relax: true
    update_lamda: 2500
    phase1_iter: 300000
  }
}
layer {
  name: "bn8"
  type: "BatchNorm"
  bottom: "fc7"
  top: "fc7"
}
layer {
  name: "scale8"
  type: "Scale"
  bottom: "fc7"
  top: "fc7"
  scale_param {
    bias_term: true
  }
}
layer {
  name: "relu7"
  type: "ReLU"
  bottom: "fc7"
  top: "fc7"
}
layer {
  name: "fc8"
  type: "InnerProduct"
  bottom: "fc7"
  top: "fc8"
  param {
    lr_mult: 1
    decay_mult: 1
  }
  param {
    lr_mult: 2
    decay_mult: 0
  }
  inner_product_param {
    num_output: 1000
    weight_filler {
      type: "msra"
    }
    bias_filler {
      type: "constant"
      value: 0
    }
  }
}
layer {
  name: "loss"
  type: "SoftmaxWithLoss"
  bottom: "fc8"
  bottom: "label"
  top: "loss"
}
layer {
  name: "accuracy"
  type: "Accuracy"
  bottom: "fc8"
  bottom: "label"
  top: "accuracy"
}
layer {
  name: "accuracy_5"
  type: "Accuracy"
  bottom: "fc8"
  bottom: "label"
  top: "accuracy_5"
  accuracy_param {
    top_k: 5
  }
}
I0125 20:25:57.220963 55322 layer_factory.hpp:78] Creating layer data
I0125 20:25:57.240762 55322 db_lmdb.cpp:35] Opened lmdb /home/zhengzhe/Data/imagenet_shrt256/ilsvrc12_train_lmdb
I0125 20:25:57.246171 55322 net.cpp:84] Creating Layer data
I0125 20:25:57.246250 55322 net.cpp:380] data -> data
I0125 20:25:57.246605 55322 net.cpp:380] data -> label
I0125 20:25:57.250838 55322 data_layer.cpp:45] output data size: 256,3,224,224
I0125 20:25:58.383070 55322 base_data_layer.cpp:72] Initializing prefetch
I0125 20:25:58.624608 55322 base_data_layer.cpp:75] Prefetch initialized.
I0125 20:25:58.624670 55322 net.cpp:122] Setting up data
I0125 20:25:58.624723 55322 net.cpp:129] Top shape: 256 3 224 224 (38535168)
I0125 20:25:58.624739 55322 net.cpp:129] Top shape: 256 (256)
I0125 20:25:58.624743 55322 net.cpp:137] Memory required for data: 154141696
I0125 20:25:58.624792 55322 layer_factory.hpp:78] Creating layer label_data_1_split
I0125 20:25:58.624895 55322 net.cpp:84] Creating Layer label_data_1_split
I0125 20:25:58.624927 55322 net.cpp:406] label_data_1_split <- label
I0125 20:25:58.624990 55322 net.cpp:380] label_data_1_split -> label_data_1_split_0
I0125 20:25:58.625032 55322 net.cpp:380] label_data_1_split -> label_data_1_split_1
I0125 20:25:58.625051 55322 net.cpp:380] label_data_1_split -> label_data_1_split_2
I0125 20:25:58.625247 55322 net.cpp:122] Setting up label_data_1_split
I0125 20:25:58.625263 55322 net.cpp:129] Top shape: 256 (256)
I0125 20:25:58.625277 55322 net.cpp:129] Top shape: 256 (256)
I0125 20:25:58.625283 55322 net.cpp:129] Top shape: 256 (256)
I0125 20:25:58.625288 55322 net.cpp:137] Memory required for data: 154144768
I0125 20:25:58.625294 55322 layer_factory.hpp:78] Creating layer conv1
I0125 20:25:58.629333 55322 net.cpp:84] Creating Layer conv1
I0125 20:25:58.629380 55322 net.cpp:406] conv1 <- data
I0125 20:25:58.629416 55322 net.cpp:380] conv1 -> conv1
I0125 20:26:06.030876 55322 cudnn_conv_layer.cpp:194] Reallocating workspace storage: 127416
I0125 20:26:06.031381 55322 net.cpp:122] Setting up conv1
I0125 20:26:06.031425 55322 net.cpp:129] Top shape: 256 96 55 55 (74342400)
I0125 20:26:06.031435 55322 net.cpp:137] Memory required for data: 451514368
I0125 20:26:06.031564 55322 layer_factory.hpp:78] Creating layer bn1
I0125 20:26:06.031630 55322 net.cpp:84] Creating Layer bn1
I0125 20:26:06.031656 55322 net.cpp:406] bn1 <- conv1
I0125 20:26:06.031702 55322 net.cpp:367] bn1 -> conv1 (in-place)
I0125 20:26:06.034878 55322 net.cpp:122] Setting up bn1
I0125 20:26:06.034916 55322 net.cpp:129] Top shape: 256 96 55 55 (74342400)
I0125 20:26:06.034924 55322 net.cpp:137] Memory required for data: 748883968
I0125 20:26:06.034996 55322 layer_factory.hpp:78] Creating layer scale1
I0125 20:26:06.035055 55322 net.cpp:84] Creating Layer scale1
I0125 20:26:06.035069 55322 net.cpp:406] scale1 <- conv1
I0125 20:26:06.035094 55322 net.cpp:367] scale1 -> conv1 (in-place)
I0125 20:26:06.035240 55322 layer_factory.hpp:78] Creating layer scale1
I0125 20:26:06.035614 55322 net.cpp:122] Setting up scale1
I0125 20:26:06.035632 55322 net.cpp:129] Top shape: 256 96 55 55 (74342400)
I0125 20:26:06.035639 55322 net.cpp:137] Memory required for data: 1046253568
I0125 20:26:06.035678 55322 layer_factory.hpp:78] Creating layer relu1
I0125 20:26:06.035720 55322 net.cpp:84] Creating Layer relu1
I0125 20:26:06.035737 55322 net.cpp:406] relu1 <- conv1
I0125 20:26:06.035759 55322 net.cpp:367] relu1 -> conv1 (in-place)
I0125 20:26:06.036638 55322 net.cpp:122] Setting up relu1
I0125 20:26:06.036660 55322 net.cpp:129] Top shape: 256 96 55 55 (74342400)
I0125 20:26:06.036666 55322 net.cpp:137] Memory required for data: 1343623168
I0125 20:26:06.036679 55322 layer_factory.hpp:78] Creating layer pool1
I0125 20:26:06.036720 55322 net.cpp:84] Creating Layer pool1
I0125 20:26:06.036736 55322 net.cpp:406] pool1 <- conv1
I0125 20:26:06.036767 55322 net.cpp:380] pool1 -> pool1
I0125 20:26:06.036900 55322 net.cpp:122] Setting up pool1
I0125 20:26:06.036921 55322 net.cpp:129] Top shape: 256 96 27 27 (17915904)
I0125 20:26:06.036928 55322 net.cpp:137] Memory required for data: 1415286784
I0125 20:26:06.036938 55322 layer_factory.hpp:78] Creating layer bn2
I0125 20:26:06.036967 55322 net.cpp:84] Creating Layer bn2
I0125 20:26:06.036978 55322 net.cpp:406] bn2 <- pool1
I0125 20:26:06.037003 55322 net.cpp:367] bn2 -> pool1 (in-place)
I0125 20:26:06.141480 55322 net.cpp:122] Setting up bn2
I0125 20:26:06.141551 55322 net.cpp:129] Top shape: 256 96 27 27 (17915904)
I0125 20:26:06.141562 55322 net.cpp:137] Memory required for data: 1486950400
I0125 20:26:06.141650 55322 layer_factory.hpp:78] Creating layer scale2
I0125 20:26:06.141733 55322 net.cpp:84] Creating Layer scale2
I0125 20:26:06.141759 55322 net.cpp:406] scale2 <- pool1
I0125 20:26:06.141788 55322 net.cpp:367] scale2 -> pool1 (in-place)
I0125 20:26:06.141891 55322 layer_factory.hpp:78] Creating layer scale2
I0125 20:26:06.142175 55322 net.cpp:122] Setting up scale2
I0125 20:26:06.142217 55322 net.cpp:129] Top shape: 256 96 27 27 (17915904)
I0125 20:26:06.142222 55322 net.cpp:137] Memory required for data: 1558614016
I0125 20:26:06.142241 55322 layer_factory.hpp:78] Creating layer binactive1
I0125 20:26:06.142266 55322 net.cpp:84] Creating Layer binactive1
I0125 20:26:06.142276 55322 net.cpp:406] binactive1 <- pool1
I0125 20:26:06.142308 55322 net.cpp:380] binactive1 -> binactive1
I0125 20:26:06.142366 55322 net.cpp:122] Setting up binactive1
I0125 20:26:06.142382 55322 net.cpp:129] Top shape: 256 96 27 27 (17915904)
I0125 20:26:06.142387 55322 net.cpp:137] Memory required for data: 1630277632
I0125 20:26:06.142395 55322 layer_factory.hpp:78] Creating layer conv2
I0125 20:26:06.142442 55322 net.cpp:84] Creating Layer conv2
I0125 20:26:06.142452 55322 net.cpp:406] conv2 <- binactive1
I0125 20:26:06.142472 55322 net.cpp:380] conv2 -> conv2
I0125 20:26:06.212966 55322 cudnn_binary_conv_layer.cpp:194] Reallocating workspace storage: 19668
I0125 20:26:06.213006 55322 net.cpp:122] Setting up conv2
I0125 20:26:06.213021 55322 net.cpp:129] Top shape: 256 256 27 27 (47775744)
I0125 20:26:06.213026 55322 net.cpp:137] Memory required for data: 1821380608
I0125 20:26:06.213044 55322 layer_factory.hpp:78] Creating layer pool2
I0125 20:26:06.213076 55322 net.cpp:84] Creating Layer pool2
I0125 20:26:06.213090 55322 net.cpp:406] pool2 <- conv2
I0125 20:26:06.213114 55322 net.cpp:380] pool2 -> pool2
I0125 20:26:06.213189 55322 net.cpp:122] Setting up pool2
I0125 20:26:06.213203 55322 net.cpp:129] Top shape: 256 256 13 13 (11075584)
I0125 20:26:06.213209 55322 net.cpp:137] Memory required for data: 1865682944
I0125 20:26:06.213217 55322 layer_factory.hpp:78] Creating layer bn3
I0125 20:26:06.213244 55322 net.cpp:84] Creating Layer bn3
I0125 20:26:06.213253 55322 net.cpp:406] bn3 <- pool2
I0125 20:26:06.213270 55322 net.cpp:367] bn3 -> pool2 (in-place)
I0125 20:26:06.213526 55322 net.cpp:122] Setting up bn3
I0125 20:26:06.213539 55322 net.cpp:129] Top shape: 256 256 13 13 (11075584)
I0125 20:26:06.213543 55322 net.cpp:137] Memory required for data: 1909985280
I0125 20:26:06.213568 55322 layer_factory.hpp:78] Creating layer scale3
I0125 20:26:06.213589 55322 net.cpp:84] Creating Layer scale3
I0125 20:26:06.213598 55322 net.cpp:406] scale3 <- pool2
I0125 20:26:06.213615 55322 net.cpp:367] scale3 -> pool2 (in-place)
I0125 20:26:06.213686 55322 layer_factory.hpp:78] Creating layer scale3
I0125 20:26:06.213871 55322 net.cpp:122] Setting up scale3
I0125 20:26:06.213883 55322 net.cpp:129] Top shape: 256 256 13 13 (11075584)
I0125 20:26:06.213887 55322 net.cpp:137] Memory required for data: 1954287616
I0125 20:26:06.213918 55322 layer_factory.hpp:78] Creating layer binactive2
I0125 20:26:06.213935 55322 net.cpp:84] Creating Layer binactive2
I0125 20:26:06.213945 55322 net.cpp:406] binactive2 <- pool2
I0125 20:26:06.213960 55322 net.cpp:380] binactive2 -> binactive2
I0125 20:26:06.214000 55322 net.cpp:122] Setting up binactive2
I0125 20:26:06.214013 55322 net.cpp:129] Top shape: 256 256 13 13 (11075584)
I0125 20:26:06.214018 55322 net.cpp:137] Memory required for data: 1998589952
I0125 20:26:06.214025 55322 layer_factory.hpp:78] Creating layer conv3
I0125 20:26:06.214057 55322 net.cpp:84] Creating Layer conv3
I0125 20:26:06.214067 55322 net.cpp:406] conv3 <- binactive2
I0125 20:26:06.214088 55322 net.cpp:380] conv3 -> conv3
I0125 20:26:06.313859 55322 cudnn_binary_conv_layer.cpp:194] Reallocating workspace storage: 18874368
I0125 20:26:06.318696 55322 net.cpp:122] Setting up conv3
I0125 20:26:06.318724 55322 net.cpp:129] Top shape: 256 384 13 13 (16613376)
I0125 20:26:06.318729 55322 net.cpp:137] Memory required for data: 2065043456
I0125 20:26:06.318758 55322 layer_factory.hpp:78] Creating layer bn4
I0125 20:26:06.318805 55322 net.cpp:84] Creating Layer bn4
I0125 20:26:06.318821 55322 net.cpp:406] bn4 <- conv3
I0125 20:26:06.318850 55322 net.cpp:367] bn4 -> conv3 (in-place)
I0125 20:26:06.319130 55322 net.cpp:122] Setting up bn4
I0125 20:26:06.319146 55322 net.cpp:129] Top shape: 256 384 13 13 (16613376)
I0125 20:26:06.319173 55322 net.cpp:137] Memory required for data: 2131496960
I0125 20:26:06.319200 55322 layer_factory.hpp:78] Creating layer scale4
I0125 20:26:06.319224 55322 net.cpp:84] Creating Layer scale4
I0125 20:26:06.319233 55322 net.cpp:406] scale4 <- conv3
I0125 20:26:06.319249 55322 net.cpp:367] scale4 -> conv3 (in-place)
I0125 20:26:06.319324 55322 layer_factory.hpp:78] Creating layer scale4
I0125 20:26:06.319521 55322 net.cpp:122] Setting up scale4
I0125 20:26:06.319540 55322 net.cpp:129] Top shape: 256 384 13 13 (16613376)
I0125 20:26:06.319546 55322 net.cpp:137] Memory required for data: 2197950464
I0125 20:26:06.319563 55322 layer_factory.hpp:78] Creating layer binactive3
I0125 20:26:06.319579 55322 net.cpp:84] Creating Layer binactive3
I0125 20:26:06.319586 55322 net.cpp:406] binactive3 <- conv3
I0125 20:26:06.319602 55322 net.cpp:380] binactive3 -> binactive3
I0125 20:26:06.319648 55322 net.cpp:122] Setting up binactive3
I0125 20:26:06.319660 55322 net.cpp:129] Top shape: 256 384 13 13 (16613376)
I0125 20:26:06.319664 55322 net.cpp:137] Memory required for data: 2264403968
I0125 20:26:06.319670 55322 layer_factory.hpp:78] Creating layer conv4
I0125 20:26:06.319710 55322 net.cpp:84] Creating Layer conv4
I0125 20:26:06.319720 55322 net.cpp:406] conv4 <- binactive3
I0125 20:26:06.319741 55322 net.cpp:380] conv4 -> conv4
I0125 20:26:06.470507 55322 cudnn_binary_conv_layer.cpp:194] Reallocating workspace storage: 9840
I0125 20:26:06.470572 55322 net.cpp:122] Setting up conv4
I0125 20:26:06.470594 55322 net.cpp:129] Top shape: 256 384 13 13 (16613376)
I0125 20:26:06.470598 55322 net.cpp:137] Memory required for data: 2330857472
I0125 20:26:06.470630 55322 layer_factory.hpp:78] Creating layer bn5
I0125 20:26:06.470669 55322 net.cpp:84] Creating Layer bn5
I0125 20:26:06.470683 55322 net.cpp:406] bn5 <- conv4
I0125 20:26:06.470715 55322 net.cpp:367] bn5 -> conv4 (in-place)
I0125 20:26:06.471261 55322 net.cpp:122] Setting up bn5
I0125 20:26:06.471278 55322 net.cpp:129] Top shape: 256 384 13 13 (16613376)
I0125 20:26:06.471282 55322 net.cpp:137] Memory required for data: 2397310976
I0125 20:26:06.471307 55322 layer_factory.hpp:78] Creating layer scale5
I0125 20:26:06.471330 55322 net.cpp:84] Creating Layer scale5
I0125 20:26:06.471339 55322 net.cpp:406] scale5 <- conv4
I0125 20:26:06.471364 55322 net.cpp:367] scale5 -> conv4 (in-place)
I0125 20:26:06.471451 55322 layer_factory.hpp:78] Creating layer scale5
I0125 20:26:06.471647 55322 net.cpp:122] Setting up scale5
I0125 20:26:06.471660 55322 net.cpp:129] Top shape: 256 384 13 13 (16613376)
I0125 20:26:06.471663 55322 net.cpp:137] Memory required for data: 2463764480
I0125 20:26:06.471680 55322 layer_factory.hpp:78] Creating layer binactive4
I0125 20:26:06.471700 55322 net.cpp:84] Creating Layer binactive4
I0125 20:26:06.471709 55322 net.cpp:406] binactive4 <- conv4
I0125 20:26:06.471725 55322 net.cpp:380] binactive4 -> binactive4
I0125 20:26:06.471771 55322 net.cpp:122] Setting up binactive4
I0125 20:26:06.471784 55322 net.cpp:129] Top shape: 256 384 13 13 (16613376)
I0125 20:26:06.471788 55322 net.cpp:137] Memory required for data: 2530217984
I0125 20:26:06.471796 55322 layer_factory.hpp:78] Creating layer conv5
I0125 20:26:06.471830 55322 net.cpp:84] Creating Layer conv5
I0125 20:26:06.471840 55322 net.cpp:406] conv5 <- binactive4
I0125 20:26:06.471865 55322 net.cpp:380] conv5 -> conv5
I0125 20:26:06.550317 55322 cudnn_binary_conv_layer.cpp:194] Reallocating workspace storage: 18874368
I0125 20:26:06.550660 55322 net.cpp:122] Setting up conv5
I0125 20:26:06.550679 55322 net.cpp:129] Top shape: 256 256 13 13 (11075584)
I0125 20:26:06.550683 55322 net.cpp:137] Memory required for data: 2574520320
I0125 20:26:06.550699 55322 layer_factory.hpp:78] Creating layer pool5
I0125 20:26:06.550724 55322 net.cpp:84] Creating Layer pool5
I0125 20:26:06.550734 55322 net.cpp:406] pool5 <- conv5
I0125 20:26:06.550752 55322 net.cpp:380] pool5 -> pool5
I0125 20:26:06.550830 55322 net.cpp:122] Setting up pool5
I0125 20:26:06.550845 55322 net.cpp:129] Top shape: 256 256 6 6 (2359296)
I0125 20:26:06.550868 55322 net.cpp:137] Memory required for data: 2583957504
I0125 20:26:06.550875 55322 layer_factory.hpp:78] Creating layer bn6
I0125 20:26:06.550892 55322 net.cpp:84] Creating Layer bn6
I0125 20:26:06.550899 55322 net.cpp:406] bn6 <- pool5
I0125 20:26:06.550912 55322 net.cpp:367] bn6 -> pool5 (in-place)
I0125 20:26:06.551168 55322 net.cpp:122] Setting up bn6
I0125 20:26:06.551180 55322 net.cpp:129] Top shape: 256 256 6 6 (2359296)
I0125 20:26:06.551184 55322 net.cpp:137] Memory required for data: 2593394688
I0125 20:26:06.551224 55322 layer_factory.hpp:78] Creating layer scale6
I0125 20:26:06.551244 55322 net.cpp:84] Creating Layer scale6
I0125 20:26:06.551254 55322 net.cpp:406] scale6 <- pool5
I0125 20:26:06.551267 55322 net.cpp:367] scale6 -> pool5 (in-place)
I0125 20:26:06.551337 55322 layer_factory.hpp:78] Creating layer scale6
I0125 20:26:06.551501 55322 net.cpp:122] Setting up scale6
I0125 20:26:06.551512 55322 net.cpp:129] Top shape: 256 256 6 6 (2359296)
I0125 20:26:06.551515 55322 net.cpp:137] Memory required for data: 2602831872
I0125 20:26:06.551530 55322 layer_factory.hpp:78] Creating layer binactive5
I0125 20:26:06.551544 55322 net.cpp:84] Creating Layer binactive5
I0125 20:26:06.551550 55322 net.cpp:406] binactive5 <- pool5
I0125 20:26:06.551564 55322 net.cpp:380] binactive5 -> binactive5
I0125 20:26:06.551604 55322 net.cpp:122] Setting up binactive5
I0125 20:26:06.551615 55322 net.cpp:129] Top shape: 256 256 6 6 (2359296)
I0125 20:26:06.551618 55322 net.cpp:137] Memory required for data: 2612269056
I0125 20:26:06.551625 55322 layer_factory.hpp:78] Creating layer fc6
I0125 20:26:06.551659 55322 net.cpp:84] Creating Layer fc6
I0125 20:26:06.551668 55322 net.cpp:406] fc6 <- binactive5
I0125 20:26:06.551686 55322 net.cpp:380] fc6 -> fc6
I0125 20:26:10.338351 55322 net.cpp:122] Setting up fc6
I0125 20:26:10.338410 55322 net.cpp:129] Top shape: 256 4096 (1048576)
I0125 20:26:10.338416 55322 net.cpp:137] Memory required for data: 2616463360
I0125 20:26:10.338461 55322 layer_factory.hpp:78] Creating layer bn7
I0125 20:26:10.338506 55322 net.cpp:84] Creating Layer bn7
I0125 20:26:10.338531 55322 net.cpp:406] bn7 <- fc6
I0125 20:26:10.338564 55322 net.cpp:367] bn7 -> fc6 (in-place)
I0125 20:26:10.338834 55322 net.cpp:122] Setting up bn7
I0125 20:26:10.338845 55322 net.cpp:129] Top shape: 256 4096 (1048576)
I0125 20:26:10.338848 55322 net.cpp:137] Memory required for data: 2620657664
I0125 20:26:10.338870 55322 layer_factory.hpp:78] Creating layer scale7
I0125 20:26:10.338891 55322 net.cpp:84] Creating Layer scale7
I0125 20:26:10.338901 55322 net.cpp:406] scale7 <- fc6
I0125 20:26:10.338917 55322 net.cpp:367] scale7 -> fc6 (in-place)
I0125 20:26:10.338994 55322 layer_factory.hpp:78] Creating layer scale7
I0125 20:26:10.339180 55322 net.cpp:122] Setting up scale7
I0125 20:26:10.339192 55322 net.cpp:129] Top shape: 256 4096 (1048576)
I0125 20:26:10.339195 55322 net.cpp:137] Memory required for data: 2624851968
I0125 20:26:10.339210 55322 layer_factory.hpp:78] Creating layer binactive6
I0125 20:26:10.339226 55322 net.cpp:84] Creating Layer binactive6
I0125 20:26:10.339232 55322 net.cpp:406] binactive6 <- fc6
I0125 20:26:10.339254 55322 net.cpp:380] binactive6 -> binactive6
I0125 20:26:10.339298 55322 net.cpp:122] Setting up binactive6
I0125 20:26:10.339310 55322 net.cpp:129] Top shape: 256 4096 (1048576)
I0125 20:26:10.339313 55322 net.cpp:137] Memory required for data: 2629046272
I0125 20:26:10.339321 55322 layer_factory.hpp:78] Creating layer fc7
I0125 20:26:10.339362 55322 net.cpp:84] Creating Layer fc7
I0125 20:26:10.339373 55322 net.cpp:406] fc7 <- binactive6
I0125 20:26:10.339401 55322 net.cpp:380] fc7 -> fc7
I0125 20:26:12.465322 55322 net.cpp:122] Setting up fc7
I0125 20:26:12.465378 55322 net.cpp:129] Top shape: 256 4096 (1048576)
I0125 20:26:12.465384 55322 net.cpp:137] Memory required for data: 2633240576
I0125 20:26:12.465418 55322 layer_factory.hpp:78] Creating layer bn8
I0125 20:26:12.465458 55322 net.cpp:84] Creating Layer bn8
I0125 20:26:12.465476 55322 net.cpp:406] bn8 <- fc7
I0125 20:26:12.465528 55322 net.cpp:367] bn8 -> fc7 (in-place)
I0125 20:26:12.465806 55322 net.cpp:122] Setting up bn8
I0125 20:26:12.465818 55322 net.cpp:129] Top shape: 256 4096 (1048576)
I0125 20:26:12.465821 55322 net.cpp:137] Memory required for data: 2637434880
I0125 20:26:12.465843 55322 layer_factory.hpp:78] Creating layer scale8
I0125 20:26:12.465868 55322 net.cpp:84] Creating Layer scale8
I0125 20:26:12.465876 55322 net.cpp:406] scale8 <- fc7
I0125 20:26:12.465893 55322 net.cpp:367] scale8 -> fc7 (in-place)
I0125 20:26:12.465970 55322 layer_factory.hpp:78] Creating layer scale8
I0125 20:26:12.466163 55322 net.cpp:122] Setting up scale8
I0125 20:26:12.466176 55322 net.cpp:129] Top shape: 256 4096 (1048576)
I0125 20:26:12.466178 55322 net.cpp:137] Memory required for data: 2641629184
I0125 20:26:12.466193 55322 layer_factory.hpp:78] Creating layer relu7
I0125 20:26:12.466209 55322 net.cpp:84] Creating Layer relu7
I0125 20:26:12.466217 55322 net.cpp:406] relu7 <- fc7
I0125 20:26:12.466228 55322 net.cpp:367] relu7 -> fc7 (in-place)
I0125 20:26:12.467177 55322 net.cpp:122] Setting up relu7
I0125 20:26:12.467191 55322 net.cpp:129] Top shape: 256 4096 (1048576)
I0125 20:26:12.467195 55322 net.cpp:137] Memory required for data: 2645823488
I0125 20:26:12.467202 55322 layer_factory.hpp:78] Creating layer fc8
I0125 20:26:12.467238 55322 net.cpp:84] Creating Layer fc8
I0125 20:26:12.467247 55322 net.cpp:406] fc8 <- fc7
I0125 20:26:12.467267 55322 net.cpp:380] fc8 -> fc8
I0125 20:26:12.839985 55322 net.cpp:122] Setting up fc8
I0125 20:26:12.840030 55322 net.cpp:129] Top shape: 256 1000 (256000)
I0125 20:26:12.840035 55322 net.cpp:137] Memory required for data: 2646847488
I0125 20:26:12.840077 55322 layer_factory.hpp:78] Creating layer fc8_fc8_0_split
I0125 20:26:12.840119 55322 net.cpp:84] Creating Layer fc8_fc8_0_split
I0125 20:26:12.840152 55322 net.cpp:406] fc8_fc8_0_split <- fc8
I0125 20:26:12.840181 55322 net.cpp:380] fc8_fc8_0_split -> fc8_fc8_0_split_0
I0125 20:26:12.840211 55322 net.cpp:380] fc8_fc8_0_split -> fc8_fc8_0_split_1
I0125 20:26:12.840226 55322 net.cpp:380] fc8_fc8_0_split -> fc8_fc8_0_split_2
I0125 20:26:12.840296 55322 net.cpp:122] Setting up fc8_fc8_0_split
I0125 20:26:12.840310 55322 net.cpp:129] Top shape: 256 1000 (256000)
I0125 20:26:12.840317 55322 net.cpp:129] Top shape: 256 1000 (256000)
I0125 20:26:12.840320 55322 net.cpp:129] Top shape: 256 1000 (256000)
I0125 20:26:12.840323 55322 net.cpp:137] Memory required for data: 2649919488
I0125 20:26:12.840329 55322 layer_factory.hpp:78] Creating layer loss
I0125 20:26:12.840374 55322 net.cpp:84] Creating Layer loss
I0125 20:26:12.840384 55322 net.cpp:406] loss <- fc8_fc8_0_split_0
I0125 20:26:12.840409 55322 net.cpp:406] loss <- label_data_1_split_0
I0125 20:26:12.840431 55322 net.cpp:380] loss -> loss
…
I0125 20:26:12.847585 55322 net.cpp:294] The NetState phase (1) differed from the phase (0) specified by a rule in layer data
I0125 20:26:12.847813 55322 net.cpp:51] Initializing net from parameters: 
name: "AlexNet-BN"
state {
  phase: TEST
}
layer {
  name: "data"
  type: "Data"
  top: "data"
  top: "label"
  include {
    phase: TEST
  }
  transform_param {
    mirror: false
    crop_size: 224
    mean_value: 104
    mean_value: 117
    mean_value: 123
  }
  data_param {
    source: "/home/zhengzhe/Data/imagenet_shrt256/ilsvrc12_val_lmdb"
    batch_size: 50
    backend: LMDB
  }
}
layer {
  name: "conv1"
  type: "Convolution"
  bottom: "data"
  top: "conv1"
  param {
    lr_mult: 1
    decay_mult: 1
  }
  convolution_param {
    num_output: 96
    bias_term: false
    pad: 2
    kernel_size: 11
    stride: 4
    weight_filler {
      type: "msra"
    }
  }
}
layer {
  name: "bn1"
  type: "BatchNorm"
  bottom: "conv1"
  top: "conv1"
}
layer {
  name: "scale1"
  type: "Scale"
  bottom: "conv1"
  top: "conv1"
  scale_param {
    bias_term: true
  }
}
layer {
  name: "relu1"
  type: "ReLU"
  bottom: "conv1"
  top: "conv1"
}
layer {
  name: "pool1"
  type: "Pooling"
  bottom: "conv1"
  top: "pool1"
  pooling_param {
    pool: MAX
    kernel_size: 3
    stride: 2
  }
}
layer {
  name: "bn2"
  type: "BatchNorm"
  bottom: "pool1"
  top: "pool1"
}
layer {
  name: "scale2"
  type: "Scale"
  bottom: "pool1"
  top: "pool1"
  scale_param {
    bias_term: true
  }
}
layer {
  name: "binactive1"
  type: "BinActive"
  bottom: "pool1"
  top: "binactive1"
}
layer {
  name: "conv2"
  type: "BinaryConvolution"
  bottom: "binactive1"
  top: "conv2"
  param {
    lr_mult: 1
    decay_mult: 1
  }
  convolution_param {
    num_output: 256
    bias_term: false
    pad: 2
    kernel_size: 5
    weight_filler {
      type: "msra"
    }
  }
  debug_param {
    xnorno_grad: false
    binary_relax: true
    update_lamda: 2500
    phase1_iter: 300000
  }
}
layer {
  name: "pool2"
  type: "Pooling"
  bottom: "conv2"
  top: "pool2"
  pooling_param {
    pool: MAX
    kernel_size: 3
    stride: 2
  }
}
layer {
  name: "bn3"
  type: "BatchNorm"
  bottom: "pool2"
  top: "pool2"
}
layer {
  name: "scale3"
  type: "Scale"
  bottom: "pool2"
  top: "pool2"
  scale_param {
    bias_term: true
  }
}
layer {
  name: "binactive2"
  type: "BinActive"
  bottom: "pool2"
  top: "binactive2"
}
layer {
  name: "conv3"
  type: "BinaryConvolution"
  bottom: "binactive2"
  top: "conv3"
  param {
    lr_mult: 1
    decay_mult: 1
  }
  convolution_param {
    num_output: 384
    bias_term: false
    pad: 1
    kernel_size: 3
    weight_filler {
      type: "msra"
    }
  }
  debug_param {
    xnorno_grad: false
    binary_relax: true
    update_lamda: 2500
    phase1_iter: 300000
  }
}
layer {
  name: "bn4"
  type: "BatchNorm"
  bottom: "conv3"
  top: "conv3"
}
layer {
  name: "scale4"
  type: "Scale"
  bottom: "conv3"
  top: "conv3"
  scale_param {
    bias_term: true
  }
}
layer {
  name: "binactive3"
  type: "BinActive"
  bottom: "conv3"
  top: "binactive3"
}
layer {
  name: "conv4"
  type: "BinaryConvolution"
  bottom: "binactive3"
  top: "conv4"
  param {
    lr_mult: 1
    decay_mult: 1
  }
  convolution_param {
    num_output: 384
    bias_term: false
    pad: 1
    kernel_size: 3
    weight_filler {
      type: "msra"
    }
  }
  debug_param {
    xnorno_grad: false
    binary_relax: true
    update_lamda: 2500
    phase1_iter: 300000
  }
}
layer {
  name: "bn5"
  type: "BatchNorm"
  bottom: "conv4"
  top: "conv4"
}
layer {
  name: "scale5"
  type: "Scale"
  bottom: "conv4"
  top: "conv4"
  scale_param {
    bias_term: true
  }
}
layer {
  name: "binactive4"
  type: "BinActive"
  bottom: "conv4"
  top: "binactive4"
}
layer {
  name: "conv5"
  type: "BinaryConvolution"
  bottom: "binactive4"
  top: "conv5"
  param {
    lr_mult: 1
    decay_mult: 1
  }
  convolution_param {
    num_output: 256
    bias_term: false
    pad: 1
    kernel_size: 3
    weight_filler {
      type: "msra"
    }
  }
  debug_param {
    xnorno_grad: false
    binary_relax: true
    update_lamda: 2500
    phase1_iter: 300000
  }
}
layer {
  name: "pool5"
  type: "Pooling"
  bottom: "conv5"
  top: "pool5"
  pooling_param {
    pool: MAX
    kernel_size: 3
    stride: 2
  }
}
layer {
  name: "bn6"
  type: "BatchNorm"
  bottom: "pool5"
  top: "pool5"
}
layer {
  name: "scale6"
  type: "Scale"
  bottom: "pool5"
  top: "pool5"
  scale_param {
    bias_term: true
  }
}
layer {
  name: "binactive5"
  type: "BinActive"
  bottom: "pool5"
  top: "binactive5"
}
layer {
  name: "fc6"
  type: "BinaryInnerProduct"
  bottom: "binactive5"
  top: "fc6"
  param {
    lr_mult: 1
    decay_mult: 1
  }
  inner_product_param {
    num_output: 4096
    bias_term: false
    weight_filler {
      type: "msra"
    }
  }
  debug_param {
    xnorno_grad: false
    binary_relax: true
    update_lamda: 2500
    phase1_iter: 300000
  }
}
layer {
  name: "bn7"
  type: "BatchNorm"
  bottom: "fc6"
  top: "fc6"
}
layer {
  name: "scale7"
  type: "Scale"
  bottom: "fc6"
  top: "fc6"
  scale_param {
    bias_term: true
  }
}
layer {
  name: "binactive6"
  type: "BinActive"
  bottom: "fc6"
  top: "binactive6"
}
layer {
  name: "fc7"
  type: "BinaryInnerProduct"
  bottom: "binactive6"
  top: "fc7"
  param {
    lr_mult: 1
    decay_mult: 1
  }
  inner_product_param {
    num_output: 4096
    bias_term: false
    weight_filler {
      type: "msra"
    }
  }
  debug_param {
    xnorno_grad: false
    binary_relax: true
    update_lamda: 2500
    phase1_iter: 300000
  }
}
layer {
  name: "bn8"
  type: "BatchNorm"
  bottom: "fc7"
  top: "fc7"
}
layer {
  name: "scale8"
  type: "Scale"
  bottom: "fc7"
  top: "fc7"
  scale_param {
    bias_term: true
  }
}
layer {
  name: "relu7"
  type: "ReLU"
  bottom: "fc7"
  top: "fc7"
}
layer {
  name: "fc8"
  type: "InnerProduct"
  bottom: "fc7"
  top: "fc8"
  param {
    lr_mult: 1
    decay_mult: 1
  }
  param {
    lr_mult: 2
    decay_mult: 0
  }
  inner_product_param {
    num_output: 1000
    weight_filler {
      type: "msra"
    }
    bias_filler {
      type: "constant"
      value: 0
    }
  }
}
layer {
  name: "loss"
  type: "SoftmaxWithLoss"
  bottom: "fc8"
  bottom: "label"
  top: "loss"
}
layer {
  name: "accuracy"
  type: "Accuracy"
  bottom: "fc8"
  bottom: "label"
  top: "accuracy"
}
layer {
  name: "accuracy_5"
  type: "Accuracy"
  bottom: "fc8"
  bottom: "label"
  top: "accuracy_5"
  accuracy_param {
    top_k: 5
  }
}
I0125 20:26:12.848191 55322 layer_factory.hpp:78] Creating layer data
I0125 20:26:12.876118 55322 db_lmdb.cpp:35] Opened lmdb /home/zhengzhe/Data/imagenet_shrt256/ilsvrc12_val_lmdb
I0125 20:26:12.876170 55322 net.cpp:84] Creating Layer data
I0125 20:26:12.876190 55322 net.cpp:380] data -> data
I0125 20:26:12.876224 55322 net.cpp:380] data -> label
I0125 20:26:12.876792 55322 data_layer.cpp:45] output data size: 50,3,224,224
I0125 20:26:13.632854 55322 base_data_layer.cpp:72] Initializing prefetch
I0125 20:26:13.931308 55322 base_data_layer.cpp:75] Prefetch initialized.
I0125 20:26:13.931363 55322 net.cpp:122] Setting up data
I0125 20:26:13.931388 55322 net.cpp:129] Top shape: 50 3 224 224 (7526400)
I0125 20:26:13.931396 55322 net.cpp:129] Top shape: 50 (50)
I0125 20:26:13.931398 55322 net.cpp:137] Memory required for data: 30105800
I0125 20:26:13.931424 55322 layer_factory.hpp:78] Creating layer label_data_1_split
I0125 20:26:13.931474 55322 net.cpp:84] Creating Layer label_data_1_split
I0125 20:26:13.931489 55322 net.cpp:406] label_data_1_split <- label
I0125 20:26:13.931521 55322 net.cpp:380] label_data_1_split -> label_data_1_split_0
I0125 20:26:13.931557 55322 net.cpp:380] label_data_1_split -> label_data_1_split_1
I0125 20:26:13.931571 55322 net.cpp:380] label_data_1_split -> label_data_1_split_2
I0125 20:26:13.931911 55322 net.cpp:122] Setting up label_data_1_split
I0125 20:26:13.931926 55322 net.cpp:129] Top shape: 50 (50)
I0125 20:26:13.931933 55322 net.cpp:129] Top shape: 50 (50)
I0125 20:26:13.931938 55322 net.cpp:129] Top shape: 50 (50)
I0125 20:26:13.931941 55322 net.cpp:137] Memory required for data: 30106400
I0125 20:26:13.931946 55322 layer_factory.hpp:78] Creating layer conv1
I0125 20:26:13.931999 55322 net.cpp:84] Creating Layer conv1
I0125 20:26:13.932008 55322 net.cpp:406] conv1 <- data
I0125 20:26:13.932025 55322 net.cpp:380] conv1 -> conv1
I0125 20:26:13.940795 55322 cudnn_conv_layer.cpp:194] Reallocating workspace storage: 127416
I0125 20:26:13.940855 55322 net.cpp:122] Setting up conv1
I0125 20:26:13.940865 55322 net.cpp:129] Top shape: 50 96 55 55 (14520000)
I0125 20:26:13.940897 55322 net.cpp:137] Memory required for data: 88186400
I0125 20:26:13.940927 55322 layer_factory.hpp:78] Creating layer bn1
I0125 20:26:13.940946 55322 net.cpp:84] Creating Layer bn1
I0125 20:26:13.940954 55322 net.cpp:406] bn1 <- conv1
I0125 20:26:13.940973 55322 net.cpp:367] bn1 -> conv1 (in-place)
I0125 20:26:13.941277 55322 net.cpp:122] Setting up bn1
I0125 20:26:13.941287 55322 net.cpp:129] Top shape: 50 96 55 55 (14520000)
I0125 20:26:13.941292 55322 net.cpp:137] Memory required for data: 146266400
I0125 20:26:13.941323 55322 layer_factory.hpp:78] Creating layer scale1
I0125 20:26:13.941354 55322 net.cpp:84] Creating Layer scale1
I0125 20:26:13.941363 55322 net.cpp:406] scale1 <- conv1
I0125 20:26:13.941377 55322 net.cpp:367] scale1 -> conv1 (in-place)
I0125 20:26:13.941457 55322 layer_factory.hpp:78] Creating layer scale1
I0125 20:26:13.941737 55322 net.cpp:122] Setting up scale1
I0125 20:26:13.941751 55322 net.cpp:129] Top shape: 50 96 55 55 (14520000)
I0125 20:26:13.941753 55322 net.cpp:137] Memory required for data: 204346400
I0125 20:26:13.941777 55322 layer_factory.hpp:78] Creating layer relu1
I0125 20:26:13.941795 55322 net.cpp:84] Creating Layer relu1
I0125 20:26:13.941802 55322 net.cpp:406] relu1 <- conv1
I0125 20:26:13.941814 55322 net.cpp:367] relu1 -> conv1 (in-place)
I0125 20:26:13.942436 55322 net.cpp:122] Setting up relu1
I0125 20:26:13.942451 55322 net.cpp:129] Top shape: 50 96 55 55 (14520000)
I0125 20:26:13.942454 55322 net.cpp:137] Memory required for data: 262426400
I0125 20:26:13.942461 55322 layer_factory.hpp:78] Creating layer pool1
I0125 20:26:13.942481 55322 net.cpp:84] Creating Layer pool1
I0125 20:26:13.942488 55322 net.cpp:406] pool1 <- conv1
I0125 20:26:13.942507 55322 net.cpp:380] pool1 -> pool1
I0125 20:26:13.942581 55322 net.cpp:122] Setting up pool1
I0125 20:26:13.942595 55322 net.cpp:129] Top shape: 50 96 27 27 (3499200)
I0125 20:26:13.942600 55322 net.cpp:137] Memory required for data: 276423200
I0125 20:26:13.942605 55322 layer_factory.hpp:78] Creating layer bn2
I0125 20:26:13.942617 55322 net.cpp:84] Creating Layer bn2
I0125 20:26:13.942625 55322 net.cpp:406] bn2 <- pool1
I0125 20:26:13.942641 55322 net.cpp:367] bn2 -> pool1 (in-place)
I0125 20:26:13.942898 55322 net.cpp:122] Setting up bn2
I0125 20:26:13.942908 55322 net.cpp:129] Top shape: 50 96 27 27 (3499200)
I0125 20:26:13.942911 55322 net.cpp:137] Memory required for data: 290420000
I0125 20:26:13.942943 55322 layer_factory.hpp:78] Creating layer scale2
I0125 20:26:13.942965 55322 net.cpp:84] Creating Layer scale2
I0125 20:26:13.942973 55322 net.cpp:406] scale2 <- pool1
I0125 20:26:13.942986 55322 net.cpp:367] scale2 -> pool1 (in-place)
I0125 20:26:13.943059 55322 layer_factory.hpp:78] Creating layer scale2
I0125 20:26:13.943256 55322 net.cpp:122] Setting up scale2
I0125 20:26:13.943269 55322 net.cpp:129] Top shape: 50 96 27 27 (3499200)
I0125 20:26:13.943271 55322 net.cpp:137] Memory required for data: 304416800
I0125 20:26:13.943285 55322 layer_factory.hpp:78] Creating layer binactive1
I0125 20:26:13.943298 55322 net.cpp:84] Creating Layer binactive1
I0125 20:26:13.943306 55322 net.cpp:406] binactive1 <- pool1
I0125 20:26:13.943320 55322 net.cpp:380] binactive1 -> binactive1
I0125 20:26:13.943368 55322 net.cpp:122] Setting up binactive1
I0125 20:26:13.943379 55322 net.cpp:129] Top shape: 50 96 27 27 (3499200)
I0125 20:26:13.943382 55322 net.cpp:137] Memory required for data: 318413600
I0125 20:26:13.943387 55322 layer_factory.hpp:78] Creating layer conv2
I0125 20:26:13.943413 55322 net.cpp:84] Creating Layer conv2
I0125 20:26:13.943421 55322 net.cpp:406] conv2 <- binactive1
I0125 20:26:13.943442 55322 net.cpp:380] conv2 -> conv2
I0125 20:26:14.391774 55322 cudnn_binary_conv_layer.cpp:194] Reallocating workspace storage: 19668
I0125 20:26:14.391827 55322 net.cpp:122] Setting up conv2
I0125 20:26:14.391851 55322 net.cpp:129] Top shape: 50 256 27 27 (9331200)
I0125 20:26:14.391857 55322 net.cpp:137] Memory required for data: 355738400
I0125 20:26:14.391893 55322 layer_factory.hpp:78] Creating layer pool2
I0125 20:26:14.391973 55322 net.cpp:84] Creating Layer pool2
I0125 20:26:14.391990 55322 net.cpp:406] pool2 <- conv2
I0125 20:26:14.392022 55322 net.cpp:380] pool2 -> pool2
I0125 20:26:14.392105 55322 net.cpp:122] Setting up pool2
I0125 20:26:14.392119 55322 net.cpp:129] Top shape: 50 256 13 13 (2163200)
I0125 20:26:14.392122 55322 net.cpp:137] Memory required for data: 364391200
I0125 20:26:14.392128 55322 layer_factory.hpp:78] Creating layer bn3
I0125 20:26:14.392143 55322 net.cpp:84] Creating Layer bn3
I0125 20:26:14.392150 55322 net.cpp:406] bn3 <- pool2
I0125 20:26:14.392168 55322 net.cpp:367] bn3 -> pool2 (in-place)
I0125 20:26:14.392436 55322 net.cpp:122] Setting up bn3
I0125 20:26:14.392446 55322 net.cpp:129] Top shape: 50 256 13 13 (2163200)
I0125 20:26:14.392451 55322 net.cpp:137] Memory required for data: 373044000
I0125 20:26:14.392472 55322 layer_factory.hpp:78] Creating layer scale3
I0125 20:26:14.392493 55322 net.cpp:84] Creating Layer scale3
I0125 20:26:14.392500 55322 net.cpp:406] scale3 <- pool2
I0125 20:26:14.392518 55322 net.cpp:367] scale3 -> pool2 (in-place)
I0125 20:26:14.392593 55322 layer_factory.hpp:78] Creating layer scale3
I0125 20:26:14.392771 55322 net.cpp:122] Setting up scale3
I0125 20:26:14.392782 55322 net.cpp:129] Top shape: 50 256 13 13 (2163200)
I0125 20:26:14.392786 55322 net.cpp:137] Memory required for data: 381696800
I0125 20:26:14.392812 55322 layer_factory.hpp:78] Creating layer binactive2
I0125 20:26:14.392830 55322 net.cpp:84] Creating Layer binactive2
I0125 20:26:14.392838 55322 net.cpp:406] binactive2 <- pool2
I0125 20:26:14.392853 55322 net.cpp:380] binactive2 -> binactive2
I0125 20:26:14.392895 55322 net.cpp:122] Setting up binactive2
I0125 20:26:14.392905 55322 net.cpp:129] Top shape: 50 256 13 13 (2163200)
I0125 20:26:14.392908 55322 net.cpp:137] Memory required for data: 390349600
I0125 20:26:14.392915 55322 layer_factory.hpp:78] Creating layer conv3
I0125 20:26:14.392949 55322 net.cpp:84] Creating Layer conv3
I0125 20:26:14.392959 55322 net.cpp:406] conv3 <- binactive2
I0125 20:26:14.392976 55322 net.cpp:380] conv3 -> conv3
I0125 20:26:14.624538 55322 cudnn_binary_conv_layer.cpp:194] Reallocating workspace storage: 18874368
I0125 20:26:14.624879 55322 net.cpp:122] Setting up conv3
I0125 20:26:14.624907 55322 net.cpp:129] Top shape: 50 384 13 13 (3244800)
I0125 20:26:14.624912 55322 net.cpp:137] Memory required for data: 403328800
I0125 20:26:14.624938 55322 layer_factory.hpp:78] Creating layer bn4
I0125 20:26:14.624975 55322 net.cpp:84] Creating Layer bn4
I0125 20:26:14.624987 55322 net.cpp:406] bn4 <- conv3
I0125 20:26:14.625012 55322 net.cpp:367] bn4 -> conv3 (in-place)
I0125 20:26:14.625288 55322 net.cpp:122] Setting up bn4
I0125 20:26:14.625299 55322 net.cpp:129] Top shape: 50 384 13 13 (3244800)
I0125 20:26:14.625303 55322 net.cpp:137] Memory required for data: 416308000
I0125 20:26:14.625324 55322 layer_factory.hpp:78] Creating layer scale4
I0125 20:26:14.625349 55322 net.cpp:84] Creating Layer scale4
I0125 20:26:14.625356 55322 net.cpp:406] scale4 <- conv3
I0125 20:26:14.625370 55322 net.cpp:367] scale4 -> conv3 (in-place)
I0125 20:26:14.625447 55322 layer_factory.hpp:78] Creating layer scale4
I0125 20:26:14.625630 55322 net.cpp:122] Setting up scale4
I0125 20:26:14.625643 55322 net.cpp:129] Top shape: 50 384 13 13 (3244800)
I0125 20:26:14.625645 55322 net.cpp:137] Memory required for data: 429287200
I0125 20:26:14.625660 55322 layer_factory.hpp:78] Creating layer binactive3
I0125 20:26:14.625675 55322 net.cpp:84] Creating Layer binactive3
I0125 20:26:14.625682 55322 net.cpp:406] binactive3 <- conv3
I0125 20:26:14.625696 55322 net.cpp:380] binactive3 -> binactive3
I0125 20:26:14.625739 55322 net.cpp:122] Setting up binactive3
I0125 20:26:14.625754 55322 net.cpp:129] Top shape: 50 384 13 13 (3244800)
I0125 20:26:14.625759 55322 net.cpp:137] Memory required for data: 442266400
I0125 20:26:14.625766 55322 layer_factory.hpp:78] Creating layer conv4
I0125 20:26:14.625797 55322 net.cpp:84] Creating Layer conv4
I0125 20:26:14.625808 55322 net.cpp:406] conv4 <- binactive3
I0125 20:26:14.625854 55322 net.cpp:380] conv4 -> conv4
I0125 20:26:14.914618 55322 cudnn_binary_conv_layer.cpp:194] Reallocating workspace storage: 9840
I0125 20:26:14.914674 55322 net.cpp:122] Setting up conv4
I0125 20:26:14.914695 55322 net.cpp:129] Top shape: 50 384 13 13 (3244800)
I0125 20:26:14.914697 55322 net.cpp:137] Memory required for data: 455245600
I0125 20:26:14.914729 55322 layer_factory.hpp:78] Creating layer bn5
I0125 20:26:14.914783 55322 net.cpp:84] Creating Layer bn5
I0125 20:26:14.914796 55322 net.cpp:406] bn5 <- conv4
I0125 20:26:14.914821 55322 net.cpp:367] bn5 -> conv4 (in-place)
I0125 20:26:14.915107 55322 net.cpp:122] Setting up bn5
I0125 20:26:14.915119 55322 net.cpp:129] Top shape: 50 384 13 13 (3244800)
I0125 20:26:14.915122 55322 net.cpp:137] Memory required for data: 468224800
I0125 20:26:14.915143 55322 layer_factory.hpp:78] Creating layer scale5
I0125 20:26:14.915169 55322 net.cpp:84] Creating Layer scale5
I0125 20:26:14.915179 55322 net.cpp:406] scale5 <- conv4
I0125 20:26:14.915192 55322 net.cpp:367] scale5 -> conv4 (in-place)
I0125 20:26:14.915268 55322 layer_factory.hpp:78] Creating layer scale5
I0125 20:26:14.915457 55322 net.cpp:122] Setting up scale5
I0125 20:26:14.915469 55322 net.cpp:129] Top shape: 50 384 13 13 (3244800)
I0125 20:26:14.915473 55322 net.cpp:137] Memory required for data: 481204000
I0125 20:26:14.915488 55322 layer_factory.hpp:78] Creating layer binactive4
I0125 20:26:14.915503 55322 net.cpp:84] Creating Layer binactive4
I0125 20:26:14.915509 55322 net.cpp:406] binactive4 <- conv4
I0125 20:26:14.915526 55322 net.cpp:380] binactive4 -> binactive4
I0125 20:26:14.915571 55322 net.cpp:122] Setting up binactive4
I0125 20:26:14.915582 55322 net.cpp:129] Top shape: 50 384 13 13 (3244800)
I0125 20:26:14.915585 55322 net.cpp:137] Memory required for data: 494183200
I0125 20:26:14.915591 55322 layer_factory.hpp:78] Creating layer conv5
I0125 20:26:14.915628 55322 net.cpp:84] Creating Layer conv5
I0125 20:26:14.915637 55322 net.cpp:406] conv5 <- binactive4
I0125 20:26:14.915654 55322 net.cpp:380] conv5 -> conv5
I0125 20:26:14.998525 55322 cudnn_binary_conv_layer.cpp:194] Reallocating workspace storage: 18874368
I0125 20:26:14.998858 55322 net.cpp:122] Setting up conv5
I0125 20:26:14.998878 55322 net.cpp:129] Top shape: 50 256 13 13 (2163200)
I0125 20:26:14.998883 55322 net.cpp:137] Memory required for data: 502836000
I0125 20:26:14.998903 55322 layer_factory.hpp:78] Creating layer pool5
I0125 20:26:14.998944 55322 net.cpp:84] Creating Layer pool5
I0125 20:26:14.998956 55322 net.cpp:406] pool5 <- conv5
I0125 20:26:14.998980 55322 net.cpp:380] pool5 -> pool5
I0125 20:26:14.999068 55322 net.cpp:122] Setting up pool5
I0125 20:26:14.999089 55322 net.cpp:129] Top shape: 50 256 6 6 (460800)
I0125 20:26:14.999092 55322 net.cpp:137] Memory required for data: 504679200
I0125 20:26:14.999099 55322 layer_factory.hpp:78] Creating layer bn6
I0125 20:26:14.999112 55322 net.cpp:84] Creating Layer bn6
I0125 20:26:14.999120 55322 net.cpp:406] bn6 <- pool5
I0125 20:26:14.999135 55322 net.cpp:367] bn6 -> pool5 (in-place)
I0125 20:26:14.999414 55322 net.cpp:122] Setting up bn6
I0125 20:26:14.999425 55322 net.cpp:129] Top shape: 50 256 6 6 (460800)
I0125 20:26:14.999430 55322 net.cpp:137] Memory required for data: 506522400
I0125 20:26:14.999465 55322 layer_factory.hpp:78] Creating layer scale6
I0125 20:26:14.999488 55322 net.cpp:84] Creating Layer scale6
I0125 20:26:14.999495 55322 net.cpp:406] scale6 <- pool5
I0125 20:26:14.999508 55322 net.cpp:367] scale6 -> pool5 (in-place)
I0125 20:26:14.999588 55322 layer_factory.hpp:78] Creating layer scale6
I0125 20:26:14.999768 55322 net.cpp:122] Setting up scale6
I0125 20:26:14.999778 55322 net.cpp:129] Top shape: 50 256 6 6 (460800)
I0125 20:26:14.999783 55322 net.cpp:137] Memory required for data: 508365600
I0125 20:26:14.999800 55322 layer_factory.hpp:78] Creating layer binactive5
I0125 20:26:14.999814 55322 net.cpp:84] Creating Layer binactive5
I0125 20:26:14.999822 55322 net.cpp:406] binactive5 <- pool5
I0125 20:26:14.999861 55322 net.cpp:380] binactive5 -> binactive5
I0125 20:26:14.999909 55322 net.cpp:122] Setting up binactive5
I0125 20:26:14.999920 55322 net.cpp:129] Top shape: 50 256 6 6 (460800)
I0125 20:26:14.999924 55322 net.cpp:137] Memory required for data: 510208800
I0125 20:26:14.999929 55322 layer_factory.hpp:78] Creating layer fc6
I0125 20:26:14.999958 55322 net.cpp:84] Creating Layer fc6
I0125 20:26:14.999966 55322 net.cpp:406] fc6 <- binactive5
I0125 20:26:14.999984 55322 net.cpp:380] fc6 -> fc6
I0125 20:26:20.505470 55322 net.cpp:122] Setting up fc6
I0125 20:26:20.505537 55322 net.cpp:129] Top shape: 50 4096 (204800)
I0125 20:26:20.505542 55322 net.cpp:137] Memory required for data: 511028000
I0125 20:26:20.505581 55322 layer_factory.hpp:78] Creating layer bn7
I0125 20:26:20.505632 55322 net.cpp:84] Creating Layer bn7
I0125 20:26:20.505653 55322 net.cpp:406] bn7 <- fc6
I0125 20:26:20.505681 55322 net.cpp:367] bn7 -> fc6 (in-place)
I0125 20:26:20.506009 55322 net.cpp:122] Setting up bn7
I0125 20:26:20.506021 55322 net.cpp:129] Top shape: 50 4096 (204800)
I0125 20:26:20.506024 55322 net.cpp:137] Memory required for data: 511847200
I0125 20:26:20.506045 55322 layer_factory.hpp:78] Creating layer scale7
I0125 20:26:20.506072 55322 net.cpp:84] Creating Layer scale7
I0125 20:26:20.506080 55322 net.cpp:406] scale7 <- fc6
I0125 20:26:20.506094 55322 net.cpp:367] scale7 -> fc6 (in-place)
I0125 20:26:20.506218 55322 layer_factory.hpp:78] Creating layer scale7
I0125 20:26:20.506436 55322 net.cpp:122] Setting up scale7
I0125 20:26:20.506449 55322 net.cpp:129] Top shape: 50 4096 (204800)
I0125 20:26:20.506453 55322 net.cpp:137] Memory required for data: 512666400
I0125 20:26:20.506469 55322 layer_factory.hpp:78] Creating layer binactive6
I0125 20:26:20.506487 55322 net.cpp:84] Creating Layer binactive6
I0125 20:26:20.506495 55322 net.cpp:406] binactive6 <- fc6
I0125 20:26:20.506513 55322 net.cpp:380] binactive6 -> binactive6
I0125 20:26:20.506569 55322 net.cpp:122] Setting up binactive6
I0125 20:26:20.506580 55322 net.cpp:129] Top shape: 50 4096 (204800)
I0125 20:26:20.506585 55322 net.cpp:137] Memory required for data: 513485600
I0125 20:26:20.506592 55322 layer_factory.hpp:78] Creating layer fc7
I0125 20:26:20.506626 55322 net.cpp:84] Creating Layer fc7
I0125 20:26:20.506636 55322 net.cpp:406] fc7 <- binactive6
I0125 20:26:20.506654 55322 net.cpp:380] fc7 -> fc7
I0125 20:26:22.034612 55322 net.cpp:122] Setting up fc7
I0125 20:26:22.034698 55322 net.cpp:129] Top shape: 50 4096 (204800)
I0125 20:26:22.034703 55322 net.cpp:137] Memory required for data: 514304800
I0125 20:26:22.034744 55322 layer_factory.hpp:78] Creating layer bn8
I0125 20:26:22.034806 55322 net.cpp:84] Creating Layer bn8
I0125 20:26:22.034823 55322 net.cpp:406] bn8 <- fc7
I0125 20:26:22.034853 55322 net.cpp:367] bn8 -> fc7 (in-place)
I0125 20:26:22.035142 55322 net.cpp:122] Setting up bn8
I0125 20:26:22.035154 55322 net.cpp:129] Top shape: 50 4096 (204800)
I0125 20:26:22.035171 55322 net.cpp:137] Memory required for data: 515124000
I0125 20:26:22.035209 55322 layer_factory.hpp:78] Creating layer scale8
I0125 20:26:22.035230 55322 net.cpp:84] Creating Layer scale8
I0125 20:26:22.035238 55322 net.cpp:406] scale8 <- fc7
I0125 20:26:22.035250 55322 net.cpp:367] scale8 -> fc7 (in-place)
I0125 20:26:22.035362 55322 layer_factory.hpp:78] Creating layer scale8
I0125 20:26:22.035560 55322 net.cpp:122] Setting up scale8
I0125 20:26:22.035575 55322 net.cpp:129] Top shape: 50 4096 (204800)
I0125 20:26:22.035580 55322 net.cpp:137] Memory required for data: 515943200
I0125 20:26:22.035595 55322 layer_factory.hpp:78] Creating layer relu7
I0125 20:26:22.035611 55322 net.cpp:84] Creating Layer relu7
I0125 20:26:22.035619 55322 net.cpp:406] relu7 <- fc7
I0125 20:26:22.035631 55322 net.cpp:367] relu7 -> fc7 (in-place)
I0125 20:26:22.037348 55322 net.cpp:122] Setting up relu7
I0125 20:26:22.037380 55322 net.cpp:129] Top shape: 50 4096 (204800)
I0125 20:26:22.037384 55322 net.cpp:137] Memory required for data: 516762400
I0125 20:26:22.037391 55322 layer_factory.hpp:78] Creating layer fc8
I0125 20:26:22.037443 55322 net.cpp:84] Creating Layer fc8
I0125 20:26:22.037453 55322 net.cpp:406] fc8 <- fc7
I0125 20:26:22.037473 55322 net.cpp:380] fc8 -> fc8
I0125 20:26:22.397413 55322 net.cpp:122] Setting up fc8
I0125 20:26:22.397457 55322 net.cpp:129] Top shape: 50 1000 (50000)
I0125 20:26:22.397462 55322 net.cpp:137] Memory required for data: 516962400
I0125 20:26:22.397495 55322 layer_factory.hpp:78] Creating layer fc8_fc8_0_split
I0125 20:26:22.397545 55322 net.cpp:84] Creating Layer fc8_fc8_0_split
I0125 20:26:22.397567 55322 net.cpp:406] fc8_fc8_0_split <- fc8
I0125 20:26:22.397593 55322 net.cpp:380] fc8_fc8_0_split -> fc8_fc8_0_split_0
I0125 20:26:22.397620 55322 net.cpp:380] fc8_fc8_0_split -> fc8_fc8_0_split_1
I0125 20:26:22.397635 55322 net.cpp:380] fc8_fc8_0_split -> fc8_fc8_0_split_2
I0125 20:26:22.397716 55322 net.cpp:122] Setting up fc8_fc8_0_split
I0125 20:26:22.397728 55322 net.cpp:129] Top shape: 50 1000 (50000)
I0125 20:26:22.397732 55322 net.cpp:129] Top shape: 50 1000 (50000)
I0125 20:26:22.397737 55322 net.cpp:129] Top shape: 50 1000 (50000)
I0125 20:26:22.397739 55322 net.cpp:137] Memory required for data: 517562400
I0125 20:26:22.397745 55322 layer_factory.hpp:78] Creating layer loss
I0125 20:26:22.397761 55322 net.cpp:84] Creating Layer loss
I0125 20:26:22.397770 55322 net.cpp:406] loss <- fc8_fc8_0_split_0
I0125 20:26:22.397783 55322 net.cpp:406] loss <- label_data_1_split_0
I0125 20:26:22.397801 55322 net.cpp:380] loss -> loss
…
