…
I0829 20:21:30.958855 24607 net.cpp:294] The NetState phase (0) differed from the phase (1) specified by a rule in layer accuracy
I0829 20:21:30.959043 24607 net.cpp:51] Initializing net from parameters: 
name: "CIFAR10_vgg"
state {
  phase: TRAIN
  level: 0
  stage: ""
}
layer {
  name: "cifar"
  type: "Data"
  top: "data"
  top: "label"
  include {
    phase: TRAIN
  }
  transform_param {
    mirror: true
    crop_size: 32
    mean_file: "examples/cifar10/mean.binaryproto"
  }
  data_param {
    source: "examples/cifar10/cifar10_train_lmdb"
    batch_size: 100
    backend: LMDB
  }
}
layer {
  name: "conv1"
  type: "BinaryConvolution"
  bottom: "data"
  top: "conv1"
  param {
    lr_mult: 1
    decay_mult: 1
  }
  convolution_param {
    num_output: 64
    bias_term: false
    pad: 1
    kernel_size: 3
    stride: 1
    weight_filler {
      type: "gaussian"
      std: 0.01
    }
  }
  debug_param {
    xnorno_grad: false
    binary_relax: true
  }
}
layer {
  name: "bn1_bn"
  type: "BatchNorm"
  bottom: "conv1"
  top: "conv1_bn"
}
layer {
  name: "bn1_scal"
  type: "Scale"
  bottom: "conv1_bn"
  top: "conv1_sc"
  scale_param {
    bias_term: true
  }
}
layer {
  name: "relu1"
  type: "ReLU"
  bottom: "conv1_sc"
  top: "conv1_sc"
}
layer {
  name: "conv2"
  type: "BinaryConvolution"
  bottom: "conv1_sc"
  top: "conv2"
  param {
    lr_mult: 1
    decay_mult: 1
  }
  convolution_param {
    num_output: 64
    bias_term: false
    pad: 1
    kernel_size: 3
    stride: 1
    weight_filler {
      type: "gaussian"
      std: 0.01
    }
  }
  debug_param {
    xnorno_grad: false
    binary_relax: true
  }
}
layer {
  name: "bn2_bn"
  type: "BatchNorm"
  bottom: "conv2"
  top: "conv2_bn"
}
layer {
  name: "bn2_scal"
  type: "Scale"
  bottom: "conv2_bn"
  top: "conv2_sc"
  scale_param {
    bias_term: true
  }
}
layer {
  name: "relu2"
  type: "ReLU"
  bottom: "conv2_sc"
  top: "conv2_sc"
}
layer {
  name: "pool1"
  type: "Pooling"
  bottom: "conv2_sc"
  top: "pool1"
  pooling_param {
    pool: MAX
    kernel_size: 2
    stride: 2
  }
}
layer {
  name: "drop1"
  type: "Dropout"
  bottom: "pool1"
  top: "pool1"
  dropout_param {
    dropout_ratio: 0.25
  }
}
layer {
  name: "conv3"
  type: "BinaryConvolution"
  bottom: "pool1"
  top: "conv3"
  param {
    lr_mult: 1
    decay_mult: 1
  }
  convolution_param {
    num_output: 128
    bias_term: false
    pad: 1
    kernel_size: 3
    stride: 1
    weight_filler {
      type: "gaussian"
      std: 0.01
    }
  }
  debug_param {
    xnorno_grad: false
    binary_relax: true
  }
}
layer {
  name: "bn3_bn"
  type: "BatchNorm"
  bottom: "conv3"
  top: "conv3_bn"
}
layer {
  name: "bn3_scal"
  type: "Scale"
  bottom: "conv3_bn"
  top: "conv3_sc"
  scale_param {
    bias_term: true
  }
}
layer {
  name: "relu3"
  type: "ReLU"
  bottom: "conv3_sc"
  top: "conv3_sc"
}
layer {
  name: "conv4"
  type: "BinaryConvolution"
  bottom: "conv3_sc"
  top: "conv4"
  param {
    lr_mult: 1
    decay_mult: 1
  }
  convolution_param {
    num_output: 128
    bias_term: false
    pad: 1
    kernel_size: 3
    stride: 1
    weight_filler {
      type: "gaussian"
      std: 0.01
    }
  }
  debug_param {
    xnorno_grad: false
    binary_relax: true
  }
}
layer {
  name: "bn4_bn"
  type: "BatchNorm"
  bottom: "conv4"
  top: "conv4_bn"
}
layer {
  name: "bn4_scal"
  type: "Scale"
  bottom: "conv4_bn"
  top: "conv4_sc"
  scale_param {
    bias_term: true
  }
}
layer {
  name: "relu4"
  type: "ReLU"
  bottom: "conv4_sc"
  top: "conv4_sc"
}
layer {
  name: "pool2"
  type: "Pooling"
  bottom: "conv4_sc"
  top: "pool2"
  pooling_param {
    pool: MAX
    kernel_size: 2
    stride: 2
  }
}
layer {
  name: "drop2"
  type: "Dropout"
  bottom: "pool2"
  top: "pool2"
  dropout_param {
    dropout_ratio: 0.25
  }
}
layer {
  name: "conv5"
  type: "BinaryConvolution"
  bottom: "pool2"
  top: "conv5"
  param {
    lr_mult: 1
    decay_mult: 1
  }
  convolution_param {
    num_output: 256
    bias_term: false
    pad: 1
    kernel_size: 3
    stride: 1
    weight_filler {
      type: "gaussian"
      std: 0.01
    }
  }
  debug_param {
    xnorno_grad: false
    binary_relax: true
  }
}
layer {
  name: "bn5_bn"
  type: "BatchNorm"
  bottom: "conv5"
  top: "conv5_bn"
}
layer {
  name: "bn5_scal"
  type: "Scale"
  bottom: "conv5_bn"
  top: "conv5_sc"
  scale_param {
    bias_term: true
  }
}
layer {
  name: "relu5"
  type: "ReLU"
  bottom: "conv5_sc"
  top: "conv5_sc"
}
layer {
  name: "conv6"
  type: "BinaryConvolution"
  bottom: "conv5_sc"
  top: "conv6"
  param {
    lr_mult: 1
    decay_mult: 1
  }
  convolution_param {
    num_output: 256
    bias_term: false
    pad: 1
    kernel_size: 3
    stride: 1
    weight_filler {
      type: "gaussian"
      std: 0.01
    }
  }
  debug_param {
    xnorno_grad: false
    binary_relax: true
  }
}
layer {
  name: "bn6_bn"
  type: "BatchNorm"
  bottom: "conv6"
  top: "conv6_bn"
}
layer {
  name: "bn6_scal"
  type: "Scale"
  bottom: "conv6_bn"
  top: "conv6_sc"
  scale_param {
    bias_term: true
  }
}
layer {
  name: "relu6"
  type: "ReLU"
  bottom: "conv6_sc"
  top: "conv6_sc"
}
layer {
  name: "pool3"
  type: "Pooling"
  bottom: "conv6_sc"
  top: "pool3"
  pooling_param {
    pool: MAX
    kernel_size: 2
    stride: 2
  }
}
layer {
  name: "drop3"
  type: "Dropout"
  bottom: "pool3"
  top: "pool3"
  dropout_param {
    dropout_ratio: 0.25
  }
}
layer {
  name: "fc7"
  type: "BinaryInnerProduct"
  bottom: "pool3"
  top: "fc7"
  param {
    lr_mult: 1
    decay_mult: 1
  }
  inner_product_param {
    num_output: 512
    bias_term: false
    weight_filler {
      type: "gaussian"
      std: 0.01
    }
  }
  debug_param {
    xnorno_grad: false
    binary_relax: true
  }
}
layer {
  name: "bn7_bn"
  type: "BatchNorm"
  bottom: "fc7"
  top: "fc7_bn"
}
layer {
  name: "bn7_scal"
  type: "Scale"
  bottom: "fc7_bn"
  top: "fc7_sc"
  scale_param {
    bias_term: true
  }
}
layer {
  name: "relu7"
  type: "ReLU"
  bottom: "fc7_sc"
  top: "fc7_sc"
}
layer {
  name: "drop7"
  type: "Dropout"
  bottom: "fc7_sc"
  top: "fc7_sc"
  dropout_param {
    dropout_ratio: 0.5
  }
}
layer {
  name: "fc8"
  type: "BinaryInnerProduct"
  bottom: "fc7_sc"
  top: "fc8"
  param {
    lr_mult: 1
    decay_mult: 1
  }
  inner_product_param {
    num_output: 512
    bias_term: false
    weight_filler {
      type: "gaussian"
      std: 0.01
    }
  }
  debug_param {
    xnorno_grad: false
    binary_relax: true
  }
}
layer {
  name: "bn8_bn"
  type: "BatchNorm"
  bottom: "fc8"
  top: "fc8_bn"
}
layer {
  name: "bn8_scal"
  type: "Scale"
  bottom: "fc8_bn"
  top: "fc8_sc"
  scale_param {
    bias_term: true
  }
}
layer {
  name: "relu8"
  type: "ReLU"
  bottom: "fc8_sc"
  top: "fc8_sc"
}
layer {
  name: "drop8"
  type: "Dropout"
  bottom: "fc8_sc"
  top: "fc8_sc"
  dropout_param {
    dropout_ratio: 0.5
  }
}
layer {
  name: "fc9"
  type: "BinaryInnerProduct"
  bottom: "fc8_sc"
  top: "fc9"
  param {
    lr_mult: 1
    decay_mult: 1
  }
  param {
    lr_mult: 2
    decay_mult: 0
  }
  inner_product_param {
    num_output: 10
    weight_filler {
      type: "gaussian"
      std: 0.01
    }
    bias_filler {
      type: "constant"
      value: 0.01
    }
  }
  debug_param {
    xnorno_grad: false
    binary_relax: true
  }
}
layer {
  name: "loss"
  type: "SoftmaxWithLoss"
  bottom: "fc9"
  bottom: "label"
  top: "loss"
}
I0829 20:21:30.959640 24607 layer_factory.hpp:77] Creating layer cifar
I0829 20:21:30.959833 24607 db_lmdb.cpp:35] Opened lmdb examples/cifar10/cifar10_train_lmdb
I0829 20:21:30.959902 24607 net.cpp:84] Creating Layer cifar
I0829 20:21:30.959934 24607 net.cpp:380] cifar -> data
I0829 20:21:30.960060 24607 net.cpp:380] cifar -> label
I0829 20:21:30.960108 24607 data_transformer.cpp:25] Loading mean file from: examples/cifar10/mean.binaryproto
I0829 20:21:30.961302 24607 data_layer.cpp:45] output data size: 100,3,32,32
I0829 20:21:30.964022 24607 base_data_layer.cpp:72] Initializing prefetch
I0829 20:21:30.964133 24607 base_data_layer.cpp:75] Prefetch initialized.
I0829 20:21:30.964143 24607 net.cpp:122] Setting up cifar
I0829 20:21:30.964174 24607 net.cpp:129] Top shape: 100 3 32 32 (307200)
I0829 20:21:30.964184 24607 net.cpp:129] Top shape: 100 (100)
I0829 20:21:30.964187 24607 net.cpp:137] Memory required for data: 1229200
I0829 20:21:30.964208 24607 layer_factory.hpp:77] Creating layer conv1
I0829 20:21:30.964258 24607 net.cpp:84] Creating Layer conv1
I0829 20:21:30.964279 24607 net.cpp:406] conv1 <- data
I0829 20:21:30.964323 24607 net.cpp:380] conv1 -> conv1
I0829 20:21:30.964884 24607 net.cpp:122] Setting up conv1
I0829 20:21:30.964896 24607 net.cpp:129] Top shape: 100 64 32 32 (6553600)
I0829 20:21:30.964901 24607 net.cpp:137] Memory required for data: 27443600
I0829 20:21:30.964942 24607 layer_factory.hpp:77] Creating layer bn1_bn
I0829 20:21:30.964964 24607 net.cpp:84] Creating Layer bn1_bn
I0829 20:21:30.964972 24607 net.cpp:406] bn1_bn <- conv1
I0829 20:21:30.964999 24607 net.cpp:380] bn1_bn -> conv1_bn
I0829 20:21:30.965631 24607 net.cpp:122] Setting up bn1_bn
I0829 20:21:30.965648 24607 net.cpp:129] Top shape: 100 64 32 32 (6553600)
I0829 20:21:30.965653 24607 net.cpp:137] Memory required for data: 53658000
I0829 20:21:30.965689 24607 layer_factory.hpp:77] Creating layer bn1_scal
I0829 20:21:30.965713 24607 net.cpp:84] Creating Layer bn1_scal
I0829 20:21:30.965720 24607 net.cpp:406] bn1_scal <- conv1_bn
I0829 20:21:30.965740 24607 net.cpp:380] bn1_scal -> conv1_sc
I0829 20:21:30.965814 24607 layer_factory.hpp:77] Creating layer bn1_scal
I0829 20:21:30.965951 24607 net.cpp:122] Setting up bn1_scal
I0829 20:21:30.965963 24607 net.cpp:129] Top shape: 100 64 32 32 (6553600)
I0829 20:21:30.965968 24607 net.cpp:137] Memory required for data: 79872400
I0829 20:21:30.965987 24607 layer_factory.hpp:77] Creating layer relu1
I0829 20:21:30.966011 24607 net.cpp:84] Creating Layer relu1
I0829 20:21:30.966018 24607 net.cpp:406] relu1 <- conv1_sc
I0829 20:21:30.966032 24607 net.cpp:367] relu1 -> conv1_sc (in-place)
I0829 20:21:31.313650 24607 net.cpp:122] Setting up relu1
I0829 20:21:31.313686 24607 net.cpp:129] Top shape: 100 64 32 32 (6553600)
I0829 20:21:31.313691 24607 net.cpp:137] Memory required for data: 106086800
I0829 20:21:31.313707 24607 layer_factory.hpp:77] Creating layer conv2
I0829 20:21:31.313791 24607 net.cpp:84] Creating Layer conv2
I0829 20:21:31.313815 24607 net.cpp:406] conv2 <- conv1_sc
I0829 20:21:31.313863 24607 net.cpp:380] conv2 -> conv2
I0829 20:21:31.319169 24607 net.cpp:122] Setting up conv2
I0829 20:21:31.319186 24607 net.cpp:129] Top shape: 100 64 32 32 (6553600)
I0829 20:21:31.319190 24607 net.cpp:137] Memory required for data: 132301200
I0829 20:21:31.319203 24607 layer_factory.hpp:77] Creating layer bn2_bn
I0829 20:21:31.319226 24607 net.cpp:84] Creating Layer bn2_bn
I0829 20:21:31.319245 24607 net.cpp:406] bn2_bn <- conv2
I0829 20:21:31.319259 24607 net.cpp:380] bn2_bn -> conv2_bn
I0829 20:21:31.319489 24607 net.cpp:122] Setting up bn2_bn
I0829 20:21:31.319499 24607 net.cpp:129] Top shape: 100 64 32 32 (6553600)
I0829 20:21:31.319504 24607 net.cpp:137] Memory required for data: 158515600
I0829 20:21:31.319542 24607 layer_factory.hpp:77] Creating layer bn2_scal
I0829 20:21:31.319571 24607 net.cpp:84] Creating Layer bn2_scal
I0829 20:21:31.319607 24607 net.cpp:406] bn2_scal <- conv2_bn
I0829 20:21:31.319624 24607 net.cpp:380] bn2_scal -> conv2_sc
I0829 20:21:31.319707 24607 layer_factory.hpp:77] Creating layer bn2_scal
I0829 20:21:31.319887 24607 net.cpp:122] Setting up bn2_scal
I0829 20:21:31.319898 24607 net.cpp:129] Top shape: 100 64 32 32 (6553600)
I0829 20:21:31.319912 24607 net.cpp:137] Memory required for data: 184730000
I0829 20:21:31.319947 24607 layer_factory.hpp:77] Creating layer relu2
I0829 20:21:31.319983 24607 net.cpp:84] Creating Layer relu2
I0829 20:21:31.319990 24607 net.cpp:406] relu2 <- conv2_sc
I0829 20:21:31.320013 24607 net.cpp:367] relu2 -> conv2_sc (in-place)
I0829 20:21:31.320323 24607 net.cpp:122] Setting up relu2
I0829 20:21:31.320333 24607 net.cpp:129] Top shape: 100 64 32 32 (6553600)
I0829 20:21:31.320338 24607 net.cpp:137] Memory required for data: 210944400
I0829 20:21:31.320343 24607 layer_factory.hpp:77] Creating layer pool1
I0829 20:21:31.320364 24607 net.cpp:84] Creating Layer pool1
I0829 20:21:31.320374 24607 net.cpp:406] pool1 <- conv2_sc
I0829 20:21:31.320389 24607 net.cpp:380] pool1 -> pool1
I0829 20:21:31.320456 24607 net.cpp:122] Setting up pool1
I0829 20:21:31.320468 24607 net.cpp:129] Top shape: 100 64 16 16 (1638400)
I0829 20:21:31.320473 24607 net.cpp:137] Memory required for data: 217498000
I0829 20:21:31.320478 24607 layer_factory.hpp:77] Creating layer drop1
I0829 20:21:31.320497 24607 net.cpp:84] Creating Layer drop1
I0829 20:21:31.320505 24607 net.cpp:406] drop1 <- pool1
I0829 20:21:31.320520 24607 net.cpp:367] drop1 -> pool1 (in-place)
I0829 20:21:31.320556 24607 net.cpp:122] Setting up drop1
I0829 20:21:31.320564 24607 net.cpp:129] Top shape: 100 64 16 16 (1638400)
I0829 20:21:31.320569 24607 net.cpp:137] Memory required for data: 224051600
I0829 20:21:31.320575 24607 layer_factory.hpp:77] Creating layer conv3
I0829 20:21:31.320593 24607 net.cpp:84] Creating Layer conv3
I0829 20:21:31.320601 24607 net.cpp:406] conv3 <- pool1
I0829 20:21:31.320619 24607 net.cpp:380] conv3 -> conv3
I0829 20:21:31.330824 24607 net.cpp:122] Setting up conv3
I0829 20:21:31.330849 24607 net.cpp:129] Top shape: 100 128 16 16 (3276800)
I0829 20:21:31.330853 24607 net.cpp:137] Memory required for data: 237158800
I0829 20:21:31.330869 24607 layer_factory.hpp:77] Creating layer bn3_bn
I0829 20:21:31.330889 24607 net.cpp:84] Creating Layer bn3_bn
I0829 20:21:31.330917 24607 net.cpp:406] bn3_bn <- conv3
I0829 20:21:31.330935 24607 net.cpp:380] bn3_bn -> conv3_bn
I0829 20:21:31.331166 24607 net.cpp:122] Setting up bn3_bn
I0829 20:21:31.331176 24607 net.cpp:129] Top shape: 100 128 16 16 (3276800)
I0829 20:21:31.331181 24607 net.cpp:137] Memory required for data: 250266000
I0829 20:21:31.331198 24607 layer_factory.hpp:77] Creating layer bn3_scal
I0829 20:21:31.331223 24607 net.cpp:84] Creating Layer bn3_scal
I0829 20:21:31.331231 24607 net.cpp:406] bn3_scal <- conv3_bn
I0829 20:21:31.331245 24607 net.cpp:380] bn3_scal -> conv3_sc
I0829 20:21:31.331316 24607 layer_factory.hpp:77] Creating layer bn3_scal
I0829 20:21:31.331470 24607 net.cpp:122] Setting up bn3_scal
I0829 20:21:31.331481 24607 net.cpp:129] Top shape: 100 128 16 16 (3276800)
I0829 20:21:31.331485 24607 net.cpp:137] Memory required for data: 263373200
I0829 20:21:31.331507 24607 layer_factory.hpp:77] Creating layer relu3
I0829 20:21:31.331552 24607 net.cpp:84] Creating Layer relu3
I0829 20:21:31.331559 24607 net.cpp:406] relu3 <- conv3_sc
I0829 20:21:31.331580 24607 net.cpp:367] relu3 -> conv3_sc (in-place)
I0829 20:21:31.332129 24607 net.cpp:122] Setting up relu3
I0829 20:21:31.332141 24607 net.cpp:129] Top shape: 100 128 16 16 (3276800)
I0829 20:21:31.332155 24607 net.cpp:137] Memory required for data: 276480400
I0829 20:21:31.332162 24607 layer_factory.hpp:77] Creating layer conv4
I0829 20:21:31.332206 24607 net.cpp:84] Creating Layer conv4
I0829 20:21:31.332231 24607 net.cpp:406] conv4 <- conv3_sc
I0829 20:21:31.332260 24607 net.cpp:380] conv4 -> conv4
I0829 20:21:31.351164 24607 net.cpp:122] Setting up conv4
I0829 20:21:31.351186 24607 net.cpp:129] Top shape: 100 128 16 16 (3276800)
I0829 20:21:31.351219 24607 net.cpp:137] Memory required for data: 289587600
I0829 20:21:31.351236 24607 layer_factory.hpp:77] Creating layer bn4_bn
I0829 20:21:31.351264 24607 net.cpp:84] Creating Layer bn4_bn
I0829 20:21:31.351274 24607 net.cpp:406] bn4_bn <- conv4
I0829 20:21:31.351312 24607 net.cpp:380] bn4_bn -> conv4_bn
I0829 20:21:31.351541 24607 net.cpp:122] Setting up bn4_bn
I0829 20:21:31.351552 24607 net.cpp:129] Top shape: 100 128 16 16 (3276800)
I0829 20:21:31.351567 24607 net.cpp:137] Memory required for data: 302694800
I0829 20:21:31.351594 24607 layer_factory.hpp:77] Creating layer bn4_scal
I0829 20:21:31.351630 24607 net.cpp:84] Creating Layer bn4_scal
I0829 20:21:31.351639 24607 net.cpp:406] bn4_scal <- conv4_bn
I0829 20:21:31.351653 24607 net.cpp:380] bn4_scal -> conv4_sc
I0829 20:21:31.351740 24607 layer_factory.hpp:77] Creating layer bn4_scal
I0829 20:21:31.351920 24607 net.cpp:122] Setting up bn4_scal
I0829 20:21:31.351932 24607 net.cpp:129] Top shape: 100 128 16 16 (3276800)
I0829 20:21:31.351945 24607 net.cpp:137] Memory required for data: 315802000
I0829 20:21:31.351969 24607 layer_factory.hpp:77] Creating layer relu4
I0829 20:21:31.351981 24607 net.cpp:84] Creating Layer relu4
I0829 20:21:31.351997 24607 net.cpp:406] relu4 <- conv4_sc
I0829 20:21:31.352011 24607 net.cpp:367] relu4 -> conv4_sc (in-place)
I0829 20:21:31.352401 24607 net.cpp:122] Setting up relu4
I0829 20:21:31.352412 24607 net.cpp:129] Top shape: 100 128 16 16 (3276800)
I0829 20:21:31.352416 24607 net.cpp:137] Memory required for data: 328909200
I0829 20:21:31.352423 24607 layer_factory.hpp:77] Creating layer pool2
I0829 20:21:31.352442 24607 net.cpp:84] Creating Layer pool2
I0829 20:21:31.352449 24607 net.cpp:406] pool2 <- conv4_sc
I0829 20:21:31.352465 24607 net.cpp:380] pool2 -> pool2
I0829 20:21:31.352524 24607 net.cpp:122] Setting up pool2
I0829 20:21:31.352535 24607 net.cpp:129] Top shape: 100 128 8 8 (819200)
I0829 20:21:31.352540 24607 net.cpp:137] Memory required for data: 332186000
I0829 20:21:31.352545 24607 layer_factory.hpp:77] Creating layer drop2
I0829 20:21:31.352560 24607 net.cpp:84] Creating Layer drop2
I0829 20:21:31.352566 24607 net.cpp:406] drop2 <- pool2
I0829 20:21:31.352582 24607 net.cpp:367] drop2 -> pool2 (in-place)
I0829 20:21:31.352617 24607 net.cpp:122] Setting up drop2
I0829 20:21:31.352625 24607 net.cpp:129] Top shape: 100 128 8 8 (819200)
I0829 20:21:31.352628 24607 net.cpp:137] Memory required for data: 335462800
I0829 20:21:31.352633 24607 layer_factory.hpp:77] Creating layer conv5
I0829 20:21:31.352655 24607 net.cpp:84] Creating Layer conv5
I0829 20:21:31.352663 24607 net.cpp:406] conv5 <- pool2
I0829 20:21:31.352684 24607 net.cpp:380] conv5 -> conv5
I0829 20:21:31.390719 24607 net.cpp:122] Setting up conv5
I0829 20:21:31.390756 24607 net.cpp:129] Top shape: 100 256 8 8 (1638400)
I0829 20:21:31.390761 24607 net.cpp:137] Memory required for data: 342016400
I0829 20:21:31.390795 24607 layer_factory.hpp:77] Creating layer bn5_bn
I0829 20:21:31.390835 24607 net.cpp:84] Creating Layer bn5_bn
I0829 20:21:31.390866 24607 net.cpp:406] bn5_bn <- conv5
I0829 20:21:31.390900 24607 net.cpp:380] bn5_bn -> conv5_bn
I0829 20:21:31.391149 24607 net.cpp:122] Setting up bn5_bn
I0829 20:21:31.391161 24607 net.cpp:129] Top shape: 100 256 8 8 (1638400)
I0829 20:21:31.391165 24607 net.cpp:137] Memory required for data: 348570000
I0829 20:21:31.391182 24607 layer_factory.hpp:77] Creating layer bn5_scal
I0829 20:21:31.391208 24607 net.cpp:84] Creating Layer bn5_scal
I0829 20:21:31.391234 24607 net.cpp:406] bn5_scal <- conv5_bn
I0829 20:21:31.391250 24607 net.cpp:380] bn5_scal -> conv5_sc
I0829 20:21:31.391341 24607 layer_factory.hpp:77] Creating layer bn5_scal
I0829 20:21:31.391510 24607 net.cpp:122] Setting up bn5_scal
I0829 20:21:31.391530 24607 net.cpp:129] Top shape: 100 256 8 8 (1638400)
I0829 20:21:31.391533 24607 net.cpp:137] Memory required for data: 355123600
I0829 20:21:31.391546 24607 layer_factory.hpp:77] Creating layer relu5
I0829 20:21:31.391580 24607 net.cpp:84] Creating Layer relu5
I0829 20:21:31.391609 24607 net.cpp:406] relu5 <- conv5_sc
I0829 20:21:31.391635 24607 net.cpp:367] relu5 -> conv5_sc (in-place)
I0829 20:21:31.392253 24607 net.cpp:122] Setting up relu5
I0829 20:21:31.392266 24607 net.cpp:129] Top shape: 100 256 8 8 (1638400)
I0829 20:21:31.392271 24607 net.cpp:137] Memory required for data: 361677200
I0829 20:21:31.392277 24607 layer_factory.hpp:77] Creating layer conv6
I0829 20:21:31.392303 24607 net.cpp:84] Creating Layer conv6
I0829 20:21:31.392311 24607 net.cpp:406] conv6 <- conv5_sc
I0829 20:21:31.392333 24607 net.cpp:380] conv6 -> conv6
I0829 20:21:31.465832 24607 net.cpp:122] Setting up conv6
I0829 20:21:31.465862 24607 net.cpp:129] Top shape: 100 256 8 8 (1638400)
I0829 20:21:31.465867 24607 net.cpp:137] Memory required for data: 368230800
I0829 20:21:31.465896 24607 layer_factory.hpp:77] Creating layer bn6_bn
I0829 20:21:31.465932 24607 net.cpp:84] Creating Layer bn6_bn
I0829 20:21:31.465962 24607 net.cpp:406] bn6_bn <- conv6
I0829 20:21:31.466003 24607 net.cpp:380] bn6_bn -> conv6_bn
I0829 20:21:31.466254 24607 net.cpp:122] Setting up bn6_bn
I0829 20:21:31.466264 24607 net.cpp:129] Top shape: 100 256 8 8 (1638400)
I0829 20:21:31.466269 24607 net.cpp:137] Memory required for data: 374784400
I0829 20:21:31.466325 24607 layer_factory.hpp:77] Creating layer bn6_scal
I0829 20:21:31.466361 24607 net.cpp:84] Creating Layer bn6_scal
I0829 20:21:31.466369 24607 net.cpp:406] bn6_scal <- conv6_bn
I0829 20:21:31.466393 24607 net.cpp:380] bn6_scal -> conv6_sc
I0829 20:21:31.466492 24607 layer_factory.hpp:77] Creating layer bn6_scal
I0829 20:21:31.466660 24607 net.cpp:122] Setting up bn6_scal
I0829 20:21:31.466672 24607 net.cpp:129] Top shape: 100 256 8 8 (1638400)
I0829 20:21:31.466675 24607 net.cpp:137] Memory required for data: 381338000
I0829 20:21:31.466688 24607 layer_factory.hpp:77] Creating layer relu6
I0829 20:21:31.466703 24607 net.cpp:84] Creating Layer relu6
I0829 20:21:31.466711 24607 net.cpp:406] relu6 <- conv6_sc
I0829 20:21:31.466725 24607 net.cpp:367] relu6 -> conv6_sc (in-place)
I0829 20:21:31.467317 24607 net.cpp:122] Setting up relu6
I0829 20:21:31.467329 24607 net.cpp:129] Top shape: 100 256 8 8 (1638400)
I0829 20:21:31.467334 24607 net.cpp:137] Memory required for data: 387891600
I0829 20:21:31.467340 24607 layer_factory.hpp:77] Creating layer pool3
I0829 20:21:31.467360 24607 net.cpp:84] Creating Layer pool3
I0829 20:21:31.467367 24607 net.cpp:406] pool3 <- conv6_sc
I0829 20:21:31.467386 24607 net.cpp:380] pool3 -> pool3
I0829 20:21:31.467447 24607 net.cpp:122] Setting up pool3
I0829 20:21:31.467458 24607 net.cpp:129] Top shape: 100 256 4 4 (409600)
I0829 20:21:31.467463 24607 net.cpp:137] Memory required for data: 389530000
I0829 20:21:31.467468 24607 layer_factory.hpp:77] Creating layer drop3
I0829 20:21:31.467483 24607 net.cpp:84] Creating Layer drop3
I0829 20:21:31.467490 24607 net.cpp:406] drop3 <- pool3
I0829 20:21:31.467507 24607 net.cpp:367] drop3 -> pool3 (in-place)
I0829 20:21:31.467543 24607 net.cpp:122] Setting up drop3
I0829 20:21:31.467552 24607 net.cpp:129] Top shape: 100 256 4 4 (409600)
I0829 20:21:31.467556 24607 net.cpp:137] Memory required for data: 391168400
I0829 20:21:31.467561 24607 layer_factory.hpp:77] Creating layer fc7
I0829 20:21:31.467591 24607 net.cpp:84] Creating Layer fc7
I0829 20:21:31.467599 24607 net.cpp:406] fc7 <- pool3
I0829 20:21:31.467618 24607 net.cpp:380] fc7 -> fc7
I0829 20:21:31.725368 24607 net.cpp:122] Setting up fc7
I0829 20:21:31.725404 24607 net.cpp:129] Top shape: 100 512 (51200)
I0829 20:21:31.725409 24607 net.cpp:137] Memory required for data: 391373200
I0829 20:21:31.725445 24607 layer_factory.hpp:77] Creating layer bn7_bn
I0829 20:21:31.725515 24607 net.cpp:84] Creating Layer bn7_bn
I0829 20:21:31.725539 24607 net.cpp:406] bn7_bn <- fc7
I0829 20:21:31.725581 24607 net.cpp:380] bn7_bn -> fc7_bn
I0829 20:21:31.725832 24607 net.cpp:122] Setting up bn7_bn
I0829 20:21:31.725842 24607 net.cpp:129] Top shape: 100 512 (51200)
I0829 20:21:31.725847 24607 net.cpp:137] Memory required for data: 391578000
I0829 20:21:31.725889 24607 layer_factory.hpp:77] Creating layer bn7_scal
I0829 20:21:31.725920 24607 net.cpp:84] Creating Layer bn7_scal
I0829 20:21:31.725929 24607 net.cpp:406] bn7_scal <- fc7_bn
I0829 20:21:31.725952 24607 net.cpp:380] bn7_scal -> fc7_sc
I0829 20:21:31.726065 24607 layer_factory.hpp:77] Creating layer bn7_scal
I0829 20:21:31.726236 24607 net.cpp:122] Setting up bn7_scal
I0829 20:21:31.726248 24607 net.cpp:129] Top shape: 100 512 (51200)
I0829 20:21:31.726250 24607 net.cpp:137] Memory required for data: 391782800
I0829 20:21:31.726263 24607 layer_factory.hpp:77] Creating layer relu7
I0829 20:21:31.726284 24607 net.cpp:84] Creating Layer relu7
I0829 20:21:31.726291 24607 net.cpp:406] relu7 <- fc7_sc
I0829 20:21:31.726315 24607 net.cpp:367] relu7 -> fc7_sc (in-place)
I0829 20:21:31.726773 24607 net.cpp:122] Setting up relu7
I0829 20:21:31.726783 24607 net.cpp:129] Top shape: 100 512 (51200)
I0829 20:21:31.726797 24607 net.cpp:137] Memory required for data: 391987600
I0829 20:21:31.726804 24607 layer_factory.hpp:77] Creating layer drop7
I0829 20:21:31.726820 24607 net.cpp:84] Creating Layer drop7
I0829 20:21:31.726828 24607 net.cpp:406] drop7 <- fc7_sc
I0829 20:21:31.726843 24607 net.cpp:367] drop7 -> fc7_sc (in-place)
I0829 20:21:31.726882 24607 net.cpp:122] Setting up drop7
I0829 20:21:31.726891 24607 net.cpp:129] Top shape: 100 512 (51200)
I0829 20:21:31.726896 24607 net.cpp:137] Memory required for data: 392192400
I0829 20:21:31.726900 24607 layer_factory.hpp:77] Creating layer fc8
I0829 20:21:31.726924 24607 net.cpp:84] Creating Layer fc8
I0829 20:21:31.726933 24607 net.cpp:406] fc8 <- fc7_sc
I0829 20:21:31.726953 24607 net.cpp:380] fc8 -> fc8
I0829 20:21:31.760790 24607 net.cpp:122] Setting up fc8
I0829 20:21:31.760816 24607 net.cpp:129] Top shape: 100 512 (51200)
I0829 20:21:31.760820 24607 net.cpp:137] Memory required for data: 392397200
I0829 20:21:31.760848 24607 layer_factory.hpp:77] Creating layer bn8_bn
I0829 20:21:31.760890 24607 net.cpp:84] Creating Layer bn8_bn
I0829 20:21:31.760902 24607 net.cpp:406] bn8_bn <- fc8
I0829 20:21:31.760921 24607 net.cpp:380] bn8_bn -> fc8_bn
I0829 20:21:31.761173 24607 net.cpp:122] Setting up bn8_bn
I0829 20:21:31.761183 24607 net.cpp:129] Top shape: 100 512 (51200)
I0829 20:21:31.761198 24607 net.cpp:137] Memory required for data: 392602000
I0829 20:21:31.761225 24607 layer_factory.hpp:77] Creating layer bn8_scal
I0829 20:21:31.761263 24607 net.cpp:84] Creating Layer bn8_scal
I0829 20:21:31.761281 24607 net.cpp:406] bn8_scal <- fc8_bn
I0829 20:21:31.761306 24607 net.cpp:380] bn8_scal -> fc8_sc
I0829 20:21:31.761374 24607 layer_factory.hpp:77] Creating layer bn8_scal
I0829 20:21:31.761528 24607 net.cpp:122] Setting up bn8_scal
I0829 20:21:31.761539 24607 net.cpp:129] Top shape: 100 512 (51200)
I0829 20:21:31.761544 24607 net.cpp:137] Memory required for data: 392806800
I0829 20:21:31.761557 24607 layer_factory.hpp:77] Creating layer relu8
I0829 20:21:31.761572 24607 net.cpp:84] Creating Layer relu8
I0829 20:21:31.761580 24607 net.cpp:406] relu8 <- fc8_sc
I0829 20:21:31.761595 24607 net.cpp:367] relu8 -> fc8_sc (in-place)
I0829 20:21:31.762174 24607 net.cpp:122] Setting up relu8
I0829 20:21:31.762187 24607 net.cpp:129] Top shape: 100 512 (51200)
I0829 20:21:31.762190 24607 net.cpp:137] Memory required for data: 393011600
I0829 20:21:31.762197 24607 layer_factory.hpp:77] Creating layer drop8
I0829 20:21:31.762213 24607 net.cpp:84] Creating Layer drop8
I0829 20:21:31.762223 24607 net.cpp:406] drop8 <- fc8_sc
I0829 20:21:31.762238 24607 net.cpp:367] drop8 -> fc8_sc (in-place)
I0829 20:21:31.762277 24607 net.cpp:122] Setting up drop8
I0829 20:21:31.762286 24607 net.cpp:129] Top shape: 100 512 (51200)
I0829 20:21:31.762290 24607 net.cpp:137] Memory required for data: 393216400
I0829 20:21:31.762295 24607 layer_factory.hpp:77] Creating layer fc9
I0829 20:21:31.762318 24607 net.cpp:84] Creating Layer fc9
I0829 20:21:31.762327 24607 net.cpp:406] fc9 <- fc8_sc
I0829 20:21:31.762344 24607 net.cpp:380] fc9 -> fc9
I0829 20:21:31.763592 24607 net.cpp:122] Setting up fc9
I0829 20:21:31.763617 24607 net.cpp:129] Top shape: 100 10 (1000)
I0829 20:21:31.763622 24607 net.cpp:137] Memory required for data: 393220400
I0829 20:21:31.763635 24607 layer_factory.hpp:77] Creating layer loss
I0829 20:21:31.763658 24607 net.cpp:84] Creating Layer loss
I0829 20:21:31.763665 24607 net.cpp:406] loss <- fc9
I0829 20:21:31.763679 24607 net.cpp:406] loss <- label
I0829 20:21:31.763694 24607 net.cpp:380] loss -> loss
I0829 20:21:31.763713 24607 layer_factory.hpp:77] Creating layer loss
…
I0829 20:21:31.834831 24607 net.cpp:294] The NetState phase (1) differed from the phase (0) specified by a rule in layer cifar
I0829 20:21:31.835095 24607 net.cpp:51] Initializing net from parameters: 
name: "CIFAR10_vgg"
state {
  phase: TEST
}
layer {
  name: "cifar"
  type: "Data"
  top: "data"
  top: "label"
  include {
    phase: TEST
  }
  transform_param {
    mirror: false
    crop_size: 32
    mean_file: "examples/cifar10/mean.binaryproto"
  }
  data_param {
    source: "examples/cifar10/cifar10_test_lmdb"
    batch_size: 100
    backend: LMDB
  }
}
layer {
  name: "conv1"
  type: "BinaryConvolution"
  bottom: "data"
  top: "conv1"
  param {
    lr_mult: 1
    decay_mult: 1
  }
  convolution_param {
    num_output: 64
    bias_term: false
    pad: 1
    kernel_size: 3
    stride: 1
    weight_filler {
      type: "gaussian"
      std: 0.01
    }
  }
  debug_param {
    xnorno_grad: false
    binary_relax: true
  }
}
layer {
  name: "bn1_bn"
  type: "BatchNorm"
  bottom: "conv1"
  top: "conv1_bn"
}
layer {
  name: "bn1_scal"
  type: "Scale"
  bottom: "conv1_bn"
  top: "conv1_sc"
  scale_param {
    bias_term: true
  }
}
layer {
  name: "relu1"
  type: "ReLU"
  bottom: "conv1_sc"
  top: "conv1_sc"
}
layer {
  name: "conv2"
  type: "BinaryConvolution"
  bottom: "conv1_sc"
  top: "conv2"
  param {
    lr_mult: 1
    decay_mult: 1
  }
  convolution_param {
    num_output: 64
    bias_term: false
    pad: 1
    kernel_size: 3
    stride: 1
    weight_filler {
      type: "gaussian"
      std: 0.01
    }
  }
  debug_param {
    xnorno_grad: false
    binary_relax: true
  }
}
layer {
  name: "bn2_bn"
  type: "BatchNorm"
  bottom: "conv2"
  top: "conv2_bn"
}
layer {
  name: "bn2_scal"
  type: "Scale"
  bottom: "conv2_bn"
  top: "conv2_sc"
  scale_param {
    bias_term: true
  }
}
layer {
  name: "relu2"
  type: "ReLU"
  bottom: "conv2_sc"
  top: "conv2_sc"
}
layer {
  name: "pool1"
  type: "Pooling"
  bottom: "conv2_sc"
  top: "pool1"
  pooling_param {
    pool: MAX
    kernel_size: 2
    stride: 2
  }
}
layer {
  name: "drop1"
  type: "Dropout"
  bottom: "pool1"
  top: "pool1"
  dropout_param {
    dropout_ratio: 0.25
  }
}
layer {
  name: "conv3"
  type: "BinaryConvolution"
  bottom: "pool1"
  top: "conv3"
  param {
    lr_mult: 1
    decay_mult: 1
  }
  convolution_param {
    num_output: 128
    bias_term: false
    pad: 1
    kernel_size: 3
    stride: 1
    weight_filler {
      type: "gaussian"
      std: 0.01
    }
  }
  debug_param {
    xnorno_grad: false
    binary_relax: true
  }
}
layer {
  name: "bn3_bn"
  type: "BatchNorm"
  bottom: "conv3"
  top: "conv3_bn"
}
layer {
  name: "bn3_scal"
  type: "Scale"
  bottom: "conv3_bn"
  top: "conv3_sc"
  scale_param {
    bias_term: true
  }
}
layer {
  name: "relu3"
  type: "ReLU"
  bottom: "conv3_sc"
  top: "conv3_sc"
}
layer {
  name: "conv4"
  type: "BinaryConvolution"
  bottom: "conv3_sc"
  top: "conv4"
  param {
    lr_mult: 1
    decay_mult: 1
  }
  convolution_param {
    num_output: 128
    bias_term: false
    pad: 1
    kernel_size: 3
    stride: 1
    weight_filler {
      type: "gaussian"
      std: 0.01
    }
  }
  debug_param {
    xnorno_grad: false
    binary_relax: true
  }
}
layer {
  name: "bn4_bn"
  type: "BatchNorm"
  bottom: "conv4"
  top: "conv4_bn"
}
layer {
  name: "bn4_scal"
  type: "Scale"
  bottom: "conv4_bn"
  top: "conv4_sc"
  scale_param {
    bias_term: true
  }
}
layer {
  name: "relu4"
  type: "ReLU"
  bottom: "conv4_sc"
  top: "conv4_sc"
}
layer {
  name: "pool2"
  type: "Pooling"
  bottom: "conv4_sc"
  top: "pool2"
  pooling_param {
    pool: MAX
    kernel_size: 2
    stride: 2
  }
}
layer {
  name: "drop2"
  type: "Dropout"
  bottom: "pool2"
  top: "pool2"
  dropout_param {
    dropout_ratio: 0.25
  }
}
layer {
  name: "conv5"
  type: "BinaryConvolution"
  bottom: "pool2"
  top: "conv5"
  param {
    lr_mult: 1
    decay_mult: 1
  }
  convolution_param {
    num_output: 256
    bias_term: false
    pad: 1
    kernel_size: 3
    stride: 1
    weight_filler {
      type: "gaussian"
      std: 0.01
    }
  }
  debug_param {
    xnorno_grad: false
    binary_relax: true
  }
}
layer {
  name: "bn5_bn"
  type: "BatchNorm"
  bottom: "conv5"
  top: "conv5_bn"
}
layer {
  name: "bn5_scal"
  type: "Scale"
  bottom: "conv5_bn"
  top: "conv5_sc"
  scale_param {
    bias_term: true
  }
}
layer {
  name: "relu5"
  type: "ReLU"
  bottom: "conv5_sc"
  top: "conv5_sc"
}
layer {
  name: "conv6"
  type: "BinaryConvolution"
  bottom: "conv5_sc"
  top: "conv6"
  param {
    lr_mult: 1
    decay_mult: 1
  }
  convolution_param {
    num_output: 256
    bias_term: false
    pad: 1
    kernel_size: 3
    stride: 1
    weight_filler {
      type: "gaussian"
      std: 0.01
    }
  }
  debug_param {
    xnorno_grad: false
    binary_relax: true
  }
}
layer {
  name: "bn6_bn"
  type: "BatchNorm"
  bottom: "conv6"
  top: "conv6_bn"
}
layer {
  name: "bn6_scal"
  type: "Scale"
  bottom: "conv6_bn"
  top: "conv6_sc"
  scale_param {
    bias_term: true
  }
}
layer {
  name: "relu6"
  type: "ReLU"
  bottom: "conv6_sc"
  top: "conv6_sc"
}
layer {
  name: "pool3"
  type: "Pooling"
  bottom: "conv6_sc"
  top: "pool3"
  pooling_param {
    pool: MAX
    kernel_size: 2
    stride: 2
  }
}
layer {
  name: "drop3"
  type: "Dropout"
  bottom: "pool3"
  top: "pool3"
  dropout_param {
    dropout_ratio: 0.25
  }
}
layer {
  name: "fc7"
  type: "BinaryInnerProduct"
  bottom: "pool3"
  top: "fc7"
  param {
    lr_mult: 1
    decay_mult: 1
  }
  inner_product_param {
    num_output: 512
    bias_term: false
    weight_filler {
      type: "gaussian"
      std: 0.01
    }
  }
  debug_param {
    xnorno_grad: false
    binary_relax: true
  }
}
layer {
  name: "bn7_bn"
  type: "BatchNorm"
  bottom: "fc7"
  top: "fc7_bn"
}
layer {
  name: "bn7_scal"
  type: "Scale"
  bottom: "fc7_bn"
  top: "fc7_sc"
  scale_param {
    bias_term: true
  }
}
layer {
  name: "relu7"
  type: "ReLU"
  bottom: "fc7_sc"
  top: "fc7_sc"
}
layer {
  name: "drop7"
  type: "Dropout"
  bottom: "fc7_sc"
  top: "fc7_sc"
  dropout_param {
    dropout_ratio: 0.5
  }
}
layer {
  name: "fc8"
  type: "BinaryInnerProduct"
  bottom: "fc7_sc"
  top: "fc8"
  param {
    lr_mult: 1
    decay_mult: 1
  }
  inner_product_param {
    num_output: 512
    bias_term: false
    weight_filler {
      type: "gaussian"
      std: 0.01
    }
  }
  debug_param {
    xnorno_grad: false
    binary_relax: true
  }
}
layer {
  name: "bn8_bn"
  type: "BatchNorm"
  bottom: "fc8"
  top: "fc8_bn"
}
layer {
  name: "bn8_scal"
  type: "Scale"
  bottom: "fc8_bn"
  top: "fc8_sc"
  scale_param {
    bias_term: true
  }
}
layer {
  name: "relu8"
  type: "ReLU"
  bottom: "fc8_sc"
  top: "fc8_sc"
}
layer {
  name: "drop8"
  type: "Dropout"
  bottom: "fc8_sc"
  top: "fc8_sc"
  dropout_param {
    dropout_ratio: 0.5
  }
}
layer {
  name: "fc9"
  type: "BinaryInnerProduct"
  bottom: "fc8_sc"
  top: "fc9"
  param {
    lr_mult: 1
    decay_mult: 1
  }
  param {
    lr_mult: 2
    decay_mult: 0
  }
  inner_product_param {
    num_output: 10
    weight_filler {
      type: "gaussian"
      std: 0.01
    }
    bias_filler {
      type: "constant"
      value: 0.01
    }
  }
  debug_param {
    xnorno_grad: false
    binary_relax: true
  }
}
layer {
  name: "accuracy"
  type: "Accuracy"
  bottom: "fc9"
  bottom: "label"
  top: "accuracy"
  include {
    phase: TEST
  }
}
layer {
  name: "loss"
  type: "SoftmaxWithLoss"
  bottom: "fc9"
  bottom: "label"
  top: "loss"
}
I0829 20:21:31.835613 24607 layer_factory.hpp:77] Creating layer cifar
I0829 20:21:31.835700 24607 db_lmdb.cpp:35] Opened lmdb examples/cifar10/cifar10_test_lmdb
I0829 20:21:31.835722 24607 net.cpp:84] Creating Layer cifar
I0829 20:21:31.835736 24607 net.cpp:380] cifar -> data
I0829 20:21:31.835772 24607 net.cpp:380] cifar -> label
I0829 20:21:31.835794 24607 data_transformer.cpp:25] Loading mean file from: examples/cifar10/mean.binaryproto
I0829 20:21:31.836056 24607 data_layer.cpp:45] output data size: 100,3,32,32
I0829 20:21:31.838991 24607 base_data_layer.cpp:72] Initializing prefetch
I0829 20:21:31.839160 24607 base_data_layer.cpp:75] Prefetch initialized.
I0829 20:21:31.839169 24607 net.cpp:122] Setting up cifar
I0829 20:21:31.839186 24607 net.cpp:129] Top shape: 100 3 32 32 (307200)
I0829 20:21:31.839195 24607 net.cpp:129] Top shape: 100 (100)
I0829 20:21:31.839206 24607 net.cpp:137] Memory required for data: 1229200
I0829 20:21:31.839228 24607 layer_factory.hpp:77] Creating layer label_cifar_1_split
I0829 20:21:31.839288 24607 net.cpp:84] Creating Layer label_cifar_1_split
I0829 20:21:31.839313 24607 net.cpp:406] label_cifar_1_split <- label
I0829 20:21:31.839349 24607 net.cpp:380] label_cifar_1_split -> label_cifar_1_split_0
I0829 20:21:31.839429 24607 net.cpp:380] label_cifar_1_split -> label_cifar_1_split_1
I0829 20:21:31.839496 24607 net.cpp:122] Setting up label_cifar_1_split
I0829 20:21:31.839507 24607 net.cpp:129] Top shape: 100 (100)
I0829 20:21:31.839515 24607 net.cpp:129] Top shape: 100 (100)
I0829 20:21:31.839519 24607 net.cpp:137] Memory required for data: 1230000
I0829 20:21:31.839524 24607 layer_factory.hpp:77] Creating layer conv1
I0829 20:21:31.839557 24607 net.cpp:84] Creating Layer conv1
I0829 20:21:31.839566 24607 net.cpp:406] conv1 <- data
I0829 20:21:31.839584 24607 net.cpp:380] conv1 -> conv1
I0829 20:21:31.840339 24607 net.cpp:122] Setting up conv1
I0829 20:21:31.840351 24607 net.cpp:129] Top shape: 100 64 32 32 (6553600)
I0829 20:21:31.840356 24607 net.cpp:137] Memory required for data: 27444400
I0829 20:21:31.840379 24607 layer_factory.hpp:77] Creating layer bn1_bn
I0829 20:21:31.840394 24607 net.cpp:84] Creating Layer bn1_bn
I0829 20:21:31.840404 24607 net.cpp:406] bn1_bn <- conv1
I0829 20:21:31.840417 24607 net.cpp:380] bn1_bn -> conv1_bn
I0829 20:21:31.840654 24607 net.cpp:122] Setting up bn1_bn
I0829 20:21:31.840665 24607 net.cpp:129] Top shape: 100 64 32 32 (6553600)
I0829 20:21:31.840669 24607 net.cpp:137] Memory required for data: 53658800
I0829 20:21:31.840698 24607 layer_factory.hpp:77] Creating layer bn1_scal
I0829 20:21:31.840720 24607 net.cpp:84] Creating Layer bn1_scal
I0829 20:21:31.840728 24607 net.cpp:406] bn1_scal <- conv1_bn
I0829 20:21:31.840745 24607 net.cpp:380] bn1_scal -> conv1_sc
I0829 20:21:31.840811 24607 layer_factory.hpp:77] Creating layer bn1_scal
I0829 20:21:31.840965 24607 net.cpp:122] Setting up bn1_scal
I0829 20:21:31.840976 24607 net.cpp:129] Top shape: 100 64 32 32 (6553600)
I0829 20:21:31.840982 24607 net.cpp:137] Memory required for data: 79873200
I0829 20:21:31.841002 24607 layer_factory.hpp:77] Creating layer relu1
I0829 20:21:31.841017 24607 net.cpp:84] Creating Layer relu1
I0829 20:21:31.841025 24607 net.cpp:406] relu1 <- conv1_sc
I0829 20:21:31.841038 24607 net.cpp:367] relu1 -> conv1_sc (in-place)
I0829 20:21:31.841504 24607 net.cpp:122] Setting up relu1
I0829 20:21:31.841516 24607 net.cpp:129] Top shape: 100 64 32 32 (6553600)
I0829 20:21:31.841521 24607 net.cpp:137] Memory required for data: 106087600
I0829 20:21:31.841527 24607 layer_factory.hpp:77] Creating layer conv2
I0829 20:21:31.841547 24607 net.cpp:84] Creating Layer conv2
I0829 20:21:31.841554 24607 net.cpp:406] conv2 <- conv1_sc
I0829 20:21:31.841573 24607 net.cpp:380] conv2 -> conv2
I0829 20:21:31.846642 24607 net.cpp:122] Setting up conv2
I0829 20:21:31.846655 24607 net.cpp:129] Top shape: 100 64 32 32 (6553600)
I0829 20:21:31.846660 24607 net.cpp:137] Memory required for data: 132302000
I0829 20:21:31.846673 24607 layer_factory.hpp:77] Creating layer bn2_bn
I0829 20:21:31.846686 24607 net.cpp:84] Creating Layer bn2_bn
I0829 20:21:31.846694 24607 net.cpp:406] bn2_bn <- conv2
I0829 20:21:31.846711 24607 net.cpp:380] bn2_bn -> conv2_bn
I0829 20:21:31.846951 24607 net.cpp:122] Setting up bn2_bn
I0829 20:21:31.846964 24607 net.cpp:129] Top shape: 100 64 32 32 (6553600)
I0829 20:21:31.846968 24607 net.cpp:137] Memory required for data: 158516400
I0829 20:21:31.846995 24607 layer_factory.hpp:77] Creating layer bn2_scal
I0829 20:21:31.847013 24607 net.cpp:84] Creating Layer bn2_scal
I0829 20:21:31.847021 24607 net.cpp:406] bn2_scal <- conv2_bn
I0829 20:21:31.847038 24607 net.cpp:380] bn2_scal -> conv2_sc
I0829 20:21:31.847102 24607 layer_factory.hpp:77] Creating layer bn2_scal
I0829 20:21:31.847259 24607 net.cpp:122] Setting up bn2_scal
I0829 20:21:31.847270 24607 net.cpp:129] Top shape: 100 64 32 32 (6553600)
I0829 20:21:31.847275 24607 net.cpp:137] Memory required for data: 184730800
I0829 20:21:31.847287 24607 layer_factory.hpp:77] Creating layer relu2
I0829 20:21:31.847301 24607 net.cpp:84] Creating Layer relu2
I0829 20:21:31.847307 24607 net.cpp:406] relu2 <- conv2_sc
I0829 20:21:31.847321 24607 net.cpp:367] relu2 -> conv2_sc (in-place)
I0829 20:21:31.847826 24607 net.cpp:122] Setting up relu2
I0829 20:21:31.847837 24607 net.cpp:129] Top shape: 100 64 32 32 (6553600)
I0829 20:21:31.847842 24607 net.cpp:137] Memory required for data: 210945200
I0829 20:21:31.847848 24607 layer_factory.hpp:77] Creating layer pool1
I0829 20:21:31.847867 24607 net.cpp:84] Creating Layer pool1
I0829 20:21:31.847875 24607 net.cpp:406] pool1 <- conv2_sc
I0829 20:21:31.847892 24607 net.cpp:380] pool1 -> pool1
I0829 20:21:31.847952 24607 net.cpp:122] Setting up pool1
I0829 20:21:31.847965 24607 net.cpp:129] Top shape: 100 64 16 16 (1638400)
I0829 20:21:31.847968 24607 net.cpp:137] Memory required for data: 217498800
I0829 20:21:31.847975 24607 layer_factory.hpp:77] Creating layer drop1
I0829 20:21:31.847990 24607 net.cpp:84] Creating Layer drop1
I0829 20:21:31.847996 24607 net.cpp:406] drop1 <- pool1
I0829 20:21:31.848011 24607 net.cpp:367] drop1 -> pool1 (in-place)
I0829 20:21:31.848050 24607 net.cpp:122] Setting up drop1
I0829 20:21:31.848060 24607 net.cpp:129] Top shape: 100 64 16 16 (1638400)
I0829 20:21:31.848064 24607 net.cpp:137] Memory required for data: 224052400
I0829 20:21:31.848070 24607 layer_factory.hpp:77] Creating layer conv3
I0829 20:21:31.848088 24607 net.cpp:84] Creating Layer conv3
I0829 20:21:31.848098 24607 net.cpp:406] conv3 <- pool1
I0829 20:21:31.848116 24607 net.cpp:380] conv3 -> conv3
I0829 20:21:31.858382 24607 net.cpp:122] Setting up conv3
I0829 20:21:31.858409 24607 net.cpp:129] Top shape: 100 128 16 16 (3276800)
I0829 20:21:31.858413 24607 net.cpp:137] Memory required for data: 237159600
I0829 20:21:31.858441 24607 layer_factory.hpp:77] Creating layer bn3_bn
I0829 20:21:31.858467 24607 net.cpp:84] Creating Layer bn3_bn
I0829 20:21:31.858479 24607 net.cpp:406] bn3_bn <- conv3
I0829 20:21:31.858510 24607 net.cpp:380] bn3_bn -> conv3_bn
I0829 20:21:31.858757 24607 net.cpp:122] Setting up bn3_bn
I0829 20:21:31.858767 24607 net.cpp:129] Top shape: 100 128 16 16 (3276800)
I0829 20:21:31.858772 24607 net.cpp:137] Memory required for data: 250266800
I0829 20:21:31.858799 24607 layer_factory.hpp:77] Creating layer bn3_scal
I0829 20:21:31.858817 24607 net.cpp:84] Creating Layer bn3_scal
I0829 20:21:31.858825 24607 net.cpp:406] bn3_scal <- conv3_bn
I0829 20:21:31.858839 24607 net.cpp:380] bn3_scal -> conv3_sc
I0829 20:21:31.858917 24607 layer_factory.hpp:77] Creating layer bn3_scal
I0829 20:21:31.859086 24607 net.cpp:122] Setting up bn3_scal
I0829 20:21:31.859097 24607 net.cpp:129] Top shape: 100 128 16 16 (3276800)
I0829 20:21:31.859100 24607 net.cpp:137] Memory required for data: 263374000
I0829 20:21:31.859133 24607 layer_factory.hpp:77] Creating layer relu3
I0829 20:21:31.859148 24607 net.cpp:84] Creating Layer relu3
I0829 20:21:31.859155 24607 net.cpp:406] relu3 <- conv3_sc
I0829 20:21:31.859169 24607 net.cpp:367] relu3 -> conv3_sc (in-place)
I0829 20:21:31.859558 24607 net.cpp:122] Setting up relu3
I0829 20:21:31.859570 24607 net.cpp:129] Top shape: 100 128 16 16 (3276800)
I0829 20:21:31.859575 24607 net.cpp:137] Memory required for data: 276481200
I0829 20:21:31.859581 24607 layer_factory.hpp:77] Creating layer conv4
I0829 20:21:31.859611 24607 net.cpp:84] Creating Layer conv4
I0829 20:21:31.859618 24607 net.cpp:406] conv4 <- conv3_sc
I0829 20:21:31.859637 24607 net.cpp:380] conv4 -> conv4
I0829 20:21:31.878154 24607 net.cpp:122] Setting up conv4
I0829 20:21:31.878165 24607 net.cpp:129] Top shape: 100 128 16 16 (3276800)
I0829 20:21:31.878180 24607 net.cpp:137] Memory required for data: 289588400
I0829 20:21:31.878199 24607 layer_factory.hpp:77] Creating layer bn4_bn
I0829 20:21:31.878213 24607 net.cpp:84] Creating Layer bn4_bn
I0829 20:21:31.878221 24607 net.cpp:406] bn4_bn <- conv4
I0829 20:21:31.878237 24607 net.cpp:380] bn4_bn -> conv4_bn
I0829 20:21:31.878487 24607 net.cpp:122] Setting up bn4_bn
I0829 20:21:31.878499 24607 net.cpp:129] Top shape: 100 128 16 16 (3276800)
I0829 20:21:31.878511 24607 net.cpp:137] Memory required for data: 302695600
I0829 20:21:31.878540 24607 layer_factory.hpp:77] Creating layer bn4_scal
I0829 20:21:31.878573 24607 net.cpp:84] Creating Layer bn4_scal
I0829 20:21:31.878607 24607 net.cpp:406] bn4_scal <- conv4_bn
I0829 20:21:31.878634 24607 net.cpp:380] bn4_scal -> conv4_sc
I0829 20:21:31.878710 24607 layer_factory.hpp:77] Creating layer bn4_scal
I0829 20:21:31.878891 24607 net.cpp:122] Setting up bn4_scal
I0829 20:21:31.878912 24607 net.cpp:129] Top shape: 100 128 16 16 (3276800)
I0829 20:21:31.878917 24607 net.cpp:137] Memory required for data: 315802800
I0829 20:21:31.878931 24607 layer_factory.hpp:77] Creating layer relu4
I0829 20:21:31.878943 24607 net.cpp:84] Creating Layer relu4
I0829 20:21:31.878952 24607 net.cpp:406] relu4 <- conv4_sc
I0829 20:21:31.878965 24607 net.cpp:367] relu4 -> conv4_sc (in-place)
I0829 20:21:31.879472 24607 net.cpp:122] Setting up relu4
I0829 20:21:31.879484 24607 net.cpp:129] Top shape: 100 128 16 16 (3276800)
I0829 20:21:31.879488 24607 net.cpp:137] Memory required for data: 328910000
I0829 20:21:31.879495 24607 layer_factory.hpp:77] Creating layer pool2
I0829 20:21:31.879513 24607 net.cpp:84] Creating Layer pool2
I0829 20:21:31.879523 24607 net.cpp:406] pool2 <- conv4_sc
I0829 20:21:31.879539 24607 net.cpp:380] pool2 -> pool2
I0829 20:21:31.879601 24607 net.cpp:122] Setting up pool2
I0829 20:21:31.879612 24607 net.cpp:129] Top shape: 100 128 8 8 (819200)
I0829 20:21:31.879616 24607 net.cpp:137] Memory required for data: 332186800
I0829 20:21:31.879622 24607 layer_factory.hpp:77] Creating layer drop2
I0829 20:21:31.879637 24607 net.cpp:84] Creating Layer drop2
I0829 20:21:31.879644 24607 net.cpp:406] drop2 <- pool2
I0829 20:21:31.879659 24607 net.cpp:367] drop2 -> pool2 (in-place)
I0829 20:21:31.879695 24607 net.cpp:122] Setting up drop2
I0829 20:21:31.879704 24607 net.cpp:129] Top shape: 100 128 8 8 (819200)
I0829 20:21:31.879709 24607 net.cpp:137] Memory required for data: 335463600
I0829 20:21:31.879714 24607 layer_factory.hpp:77] Creating layer conv5
I0829 20:21:31.879731 24607 net.cpp:84] Creating Layer conv5
I0829 20:21:31.879739 24607 net.cpp:406] conv5 <- pool2
I0829 20:21:31.879758 24607 net.cpp:380] conv5 -> conv5
I0829 20:21:31.917502 24607 net.cpp:122] Setting up conv5
I0829 20:21:31.917538 24607 net.cpp:129] Top shape: 100 256 8 8 (1638400)
I0829 20:21:31.917542 24607 net.cpp:137] Memory required for data: 342017200
I0829 20:21:31.917583 24607 layer_factory.hpp:77] Creating layer bn5_bn
I0829 20:21:31.917614 24607 net.cpp:84] Creating Layer bn5_bn
I0829 20:21:31.917636 24607 net.cpp:406] bn5_bn <- conv5
I0829 20:21:31.917656 24607 net.cpp:380] bn5_bn -> conv5_bn
I0829 20:21:31.917917 24607 net.cpp:122] Setting up bn5_bn
I0829 20:21:31.917927 24607 net.cpp:129] Top shape: 100 256 8 8 (1638400)
I0829 20:21:31.917932 24607 net.cpp:137] Memory required for data: 348570800
I0829 20:21:31.917949 24607 layer_factory.hpp:77] Creating layer bn5_scal
I0829 20:21:31.917974 24607 net.cpp:84] Creating Layer bn5_scal
I0829 20:21:31.918001 24607 net.cpp:406] bn5_scal <- conv5_bn
I0829 20:21:31.918015 24607 net.cpp:380] bn5_scal -> conv5_sc
I0829 20:21:31.918112 24607 layer_factory.hpp:77] Creating layer bn5_scal
I0829 20:21:31.918280 24607 net.cpp:122] Setting up bn5_scal
I0829 20:21:31.918292 24607 net.cpp:129] Top shape: 100 256 8 8 (1638400)
I0829 20:21:31.918295 24607 net.cpp:137] Memory required for data: 355124400
I0829 20:21:31.918308 24607 layer_factory.hpp:77] Creating layer relu5
I0829 20:21:31.918329 24607 net.cpp:84] Creating Layer relu5
I0829 20:21:31.918335 24607 net.cpp:406] relu5 <- conv5_sc
I0829 20:21:31.918359 24607 net.cpp:367] relu5 -> conv5_sc (in-place)
I0829 20:21:31.918731 24607 net.cpp:122] Setting up relu5
I0829 20:21:31.918742 24607 net.cpp:129] Top shape: 100 256 8 8 (1638400)
I0829 20:21:31.918746 24607 net.cpp:137] Memory required for data: 361678000
I0829 20:21:31.918752 24607 layer_factory.hpp:77] Creating layer conv6
I0829 20:21:31.918776 24607 net.cpp:84] Creating Layer conv6
I0829 20:21:31.918784 24607 net.cpp:406] conv6 <- conv5_sc
I0829 20:21:31.918804 24607 net.cpp:380] conv6 -> conv6
I0829 20:21:31.992481 24607 net.cpp:122] Setting up conv6
I0829 20:21:31.992516 24607 net.cpp:129] Top shape: 100 256 8 8 (1638400)
I0829 20:21:31.992549 24607 net.cpp:137] Memory required for data: 368231600
I0829 20:21:31.992584 24607 layer_factory.hpp:77] Creating layer bn6_bn
I0829 20:21:31.992624 24607 net.cpp:84] Creating Layer bn6_bn
I0829 20:21:31.992656 24607 net.cpp:406] bn6_bn <- conv6
I0829 20:21:31.992698 24607 net.cpp:380] bn6_bn -> conv6_bn
I0829 20:21:31.992962 24607 net.cpp:122] Setting up bn6_bn
I0829 20:21:31.992974 24607 net.cpp:129] Top shape: 100 256 8 8 (1638400)
I0829 20:21:31.992976 24607 net.cpp:137] Memory required for data: 374785200
I0829 20:21:31.993018 24607 layer_factory.hpp:77] Creating layer bn6_scal
I0829 20:21:31.993038 24607 net.cpp:84] Creating Layer bn6_scal
I0829 20:21:31.993046 24607 net.cpp:406] bn6_scal <- conv6_bn
I0829 20:21:31.993069 24607 net.cpp:380] bn6_scal -> conv6_sc
I0829 20:21:31.993177 24607 layer_factory.hpp:77] Creating layer bn6_scal
I0829 20:21:31.993366 24607 net.cpp:122] Setting up bn6_scal
I0829 20:21:31.993377 24607 net.cpp:129] Top shape: 100 256 8 8 (1638400)
I0829 20:21:31.993381 24607 net.cpp:137] Memory required for data: 381338800
I0829 20:21:31.993393 24607 layer_factory.hpp:77] Creating layer relu6
I0829 20:21:31.993414 24607 net.cpp:84] Creating Layer relu6
I0829 20:21:31.993422 24607 net.cpp:406] relu6 <- conv6_sc
I0829 20:21:31.993444 24607 net.cpp:367] relu6 -> conv6_sc (in-place)
I0829 20:21:31.994029 24607 net.cpp:122] Setting up relu6
I0829 20:21:31.994040 24607 net.cpp:129] Top shape: 100 256 8 8 (1638400)
I0829 20:21:31.994045 24607 net.cpp:137] Memory required for data: 387892400
I0829 20:21:31.994050 24607 layer_factory.hpp:77] Creating layer pool3
I0829 20:21:31.994071 24607 net.cpp:84] Creating Layer pool3
I0829 20:21:31.994078 24607 net.cpp:406] pool3 <- conv6_sc
I0829 20:21:31.994096 24607 net.cpp:380] pool3 -> pool3
I0829 20:21:31.994158 24607 net.cpp:122] Setting up pool3
I0829 20:21:31.994169 24607 net.cpp:129] Top shape: 100 256 4 4 (409600)
I0829 20:21:31.994174 24607 net.cpp:137] Memory required for data: 389530800
I0829 20:21:31.994179 24607 layer_factory.hpp:77] Creating layer drop3
I0829 20:21:31.994194 24607 net.cpp:84] Creating Layer drop3
I0829 20:21:31.994202 24607 net.cpp:406] drop3 <- pool3
I0829 20:21:31.994216 24607 net.cpp:367] drop3 -> pool3 (in-place)
I0829 20:21:31.994253 24607 net.cpp:122] Setting up drop3
I0829 20:21:31.994262 24607 net.cpp:129] Top shape: 100 256 4 4 (409600)
I0829 20:21:31.994266 24607 net.cpp:137] Memory required for data: 391169200
I0829 20:21:31.994272 24607 layer_factory.hpp:77] Creating layer fc7
I0829 20:21:31.994302 24607 net.cpp:84] Creating Layer fc7
I0829 20:21:31.994310 24607 net.cpp:406] fc7 <- pool3
I0829 20:21:31.994328 24607 net.cpp:380] fc7 -> fc7
I0829 20:21:32.253578 24607 net.cpp:122] Setting up fc7
I0829 20:21:32.253615 24607 net.cpp:129] Top shape: 100 512 (51200)
I0829 20:21:32.253619 24607 net.cpp:137] Memory required for data: 391374000
I0829 20:21:32.253655 24607 layer_factory.hpp:77] Creating layer bn7_bn
I0829 20:21:32.253705 24607 net.cpp:84] Creating Layer bn7_bn
I0829 20:21:32.253728 24607 net.cpp:406] bn7_bn <- fc7
I0829 20:21:32.253762 24607 net.cpp:380] bn7_bn -> fc7_bn
I0829 20:21:32.254029 24607 net.cpp:122] Setting up bn7_bn
I0829 20:21:32.254040 24607 net.cpp:129] Top shape: 100 512 (51200)
I0829 20:21:32.254043 24607 net.cpp:137] Memory required for data: 391578800
I0829 20:21:32.254061 24607 layer_factory.hpp:77] Creating layer bn7_scal
I0829 20:21:32.254088 24607 net.cpp:84] Creating Layer bn7_scal
I0829 20:21:32.254114 24607 net.cpp:406] bn7_scal <- fc7_bn
I0829 20:21:32.254128 24607 net.cpp:380] bn7_scal -> fc7_sc
I0829 20:21:32.254225 24607 layer_factory.hpp:77] Creating layer bn7_scal
I0829 20:21:32.254401 24607 net.cpp:122] Setting up bn7_scal
I0829 20:21:32.254411 24607 net.cpp:129] Top shape: 100 512 (51200)
I0829 20:21:32.254415 24607 net.cpp:137] Memory required for data: 391783600
I0829 20:21:32.254427 24607 layer_factory.hpp:77] Creating layer relu7
I0829 20:21:32.254448 24607 net.cpp:84] Creating Layer relu7
I0829 20:21:32.254465 24607 net.cpp:406] relu7 <- fc7_sc
I0829 20:21:32.254492 24607 net.cpp:367] relu7 -> fc7_sc (in-place)
I0829 20:21:32.255085 24607 net.cpp:122] Setting up relu7
I0829 20:21:32.255096 24607 net.cpp:129] Top shape: 100 512 (51200)
I0829 20:21:32.255100 24607 net.cpp:137] Memory required for data: 391988400
I0829 20:21:32.255107 24607 layer_factory.hpp:77] Creating layer drop7
I0829 20:21:32.255123 24607 net.cpp:84] Creating Layer drop7
I0829 20:21:32.255131 24607 net.cpp:406] drop7 <- fc7_sc
I0829 20:21:32.255146 24607 net.cpp:367] drop7 -> fc7_sc (in-place)
I0829 20:21:32.255184 24607 net.cpp:122] Setting up drop7
I0829 20:21:32.255193 24607 net.cpp:129] Top shape: 100 512 (51200)
I0829 20:21:32.255197 24607 net.cpp:137] Memory required for data: 392193200
I0829 20:21:32.255203 24607 layer_factory.hpp:77] Creating layer fc8
I0829 20:21:32.255226 24607 net.cpp:84] Creating Layer fc8
I0829 20:21:32.255235 24607 net.cpp:406] fc8 <- fc7_sc
I0829 20:21:32.255252 24607 net.cpp:380] fc8 -> fc8
I0829 20:21:32.288931 24607 net.cpp:122] Setting up fc8
I0829 20:21:32.288962 24607 net.cpp:129] Top shape: 100 512 (51200)
I0829 20:21:32.288975 24607 net.cpp:137] Memory required for data: 392398000
I0829 20:21:32.289005 24607 layer_factory.hpp:77] Creating layer bn8_bn
I0829 20:21:32.289050 24607 net.cpp:84] Creating Layer bn8_bn
I0829 20:21:32.289063 24607 net.cpp:406] bn8_bn <- fc8
I0829 20:21:32.289084 24607 net.cpp:380] bn8_bn -> fc8_bn
I0829 20:21:32.289340 24607 net.cpp:122] Setting up bn8_bn
I0829 20:21:32.289351 24607 net.cpp:129] Top shape: 100 512 (51200)
I0829 20:21:32.289366 24607 net.cpp:137] Memory required for data: 392602800
I0829 20:21:32.289394 24607 layer_factory.hpp:77] Creating layer bn8_scal
I0829 20:21:32.289430 24607 net.cpp:84] Creating Layer bn8_scal
I0829 20:21:32.289438 24607 net.cpp:406] bn8_scal <- fc8_bn
I0829 20:21:32.289454 24607 net.cpp:380] bn8_scal -> fc8_sc
I0829 20:21:32.289532 24607 layer_factory.hpp:77] Creating layer bn8_scal
I0829 20:21:32.289700 24607 net.cpp:122] Setting up bn8_scal
I0829 20:21:32.289712 24607 net.cpp:129] Top shape: 100 512 (51200)
I0829 20:21:32.289716 24607 net.cpp:137] Memory required for data: 392807600
I0829 20:21:32.289729 24607 layer_factory.hpp:77] Creating layer relu8
I0829 20:21:32.289743 24607 net.cpp:84] Creating Layer relu8
I0829 20:21:32.289752 24607 net.cpp:406] relu8 <- fc8_sc
I0829 20:21:32.289765 24607 net.cpp:367] relu8 -> fc8_sc (in-place)
I0829 20:21:32.290138 24607 net.cpp:122] Setting up relu8
I0829 20:21:32.290148 24607 net.cpp:129] Top shape: 100 512 (51200)
I0829 20:21:32.290163 24607 net.cpp:137] Memory required for data: 393012400
I0829 20:21:32.290169 24607 layer_factory.hpp:77] Creating layer drop8
I0829 20:21:32.290184 24607 net.cpp:84] Creating Layer drop8
I0829 20:21:32.290192 24607 net.cpp:406] drop8 <- fc8_sc
I0829 20:21:32.290207 24607 net.cpp:367] drop8 -> fc8_sc (in-place)
I0829 20:21:32.290246 24607 net.cpp:122] Setting up drop8
I0829 20:21:32.290254 24607 net.cpp:129] Top shape: 100 512 (51200)
I0829 20:21:32.290258 24607 net.cpp:137] Memory required for data: 393217200
I0829 20:21:32.290263 24607 layer_factory.hpp:77] Creating layer fc9
I0829 20:21:32.290285 24607 net.cpp:84] Creating Layer fc9
I0829 20:21:32.290293 24607 net.cpp:406] fc9 <- fc8_sc
I0829 20:21:32.290311 24607 net.cpp:380] fc9 -> fc9
I0829 20:21:32.291209 24607 net.cpp:122] Setting up fc9
I0829 20:21:32.291221 24607 net.cpp:129] Top shape: 100 10 (1000)
I0829 20:21:32.291226 24607 net.cpp:137] Memory required for data: 393221200
I0829 20:21:32.291239 24607 layer_factory.hpp:77] Creating layer fc9_fc9_0_split
I0829 20:21:32.291254 24607 net.cpp:84] Creating Layer fc9_fc9_0_split
I0829 20:21:32.291261 24607 net.cpp:406] fc9_fc9_0_split <- fc9
I0829 20:21:32.291276 24607 net.cpp:380] fc9_fc9_0_split -> fc9_fc9_0_split_0
I0829 20:21:32.291301 24607 net.cpp:380] fc9_fc9_0_split -> fc9_fc9_0_split_1
I0829 20:21:32.291352 24607 net.cpp:122] Setting up fc9_fc9_0_split
I0829 20:21:32.291363 24607 net.cpp:129] Top shape: 100 10 (1000)
I0829 20:21:32.291369 24607 net.cpp:129] Top shape: 100 10 (1000)
I0829 20:21:32.291385 24607 net.cpp:137] Memory required for data: 393229200
I0829 20:21:32.291393 24607 layer_factory.hpp:77] Creating layer accuracy
I0829 20:21:32.291414 24607 net.cpp:84] Creating Layer accuracy
I0829 20:21:32.291422 24607 net.cpp:406] accuracy <- fc9_fc9_0_split_0
I0829 20:21:32.291436 24607 net.cpp:406] accuracy <- label_cifar_1_split_0
I0829 20:21:32.291450 24607 net.cpp:380] accuracy -> accuracy
…
