…
I0919 21:20:19.924557 30693 net.cpp:294] The NetState phase (0) differed from the phase (1) specified by a rule in layer accuracy
I0919 21:20:19.924892 30693 net.cpp:51] Initializing net from parameters: 
name: "CIFAR10_vgg"
state {
  phase: TRAIN
  level: 0
  stage: ""
}
layer {
  name: "cifar"
  type: "Data"
  top: "data"
  top: "label"
  include {
    phase: TRAIN
  }
  transform_param {
    mirror: true
    crop_size: 32
    mean_file: "examples/cifar10/mean.binaryproto"
  }
  data_param {
    source: "examples/cifar10/cifar10_train_lmdb"
    batch_size: 100
    backend: LMDB
  }
}
layer {
  name: "conv1"
  type: "BinaryConvolution"
  bottom: "data"
  top: "conv1"
  param {
    lr_mult: 1
    decay_mult: 1
  }
  convolution_param {
    num_output: 64
    bias_term: false
    pad: 1
    kernel_size: 3
    stride: 1
    weight_filler {
      type: "gaussian"
      std: 0.01
    }
  }
  debug_param {
    xnorno_grad: false
    binary_relax: true
  }
}
layer {
  name: "bn1_bn"
  type: "BatchNorm"
  bottom: "conv1"
  top: "conv1_bn"
}
layer {
  name: "bn1_scal"
  type: "Scale"
  bottom: "conv1_bn"
  top: "conv1_sc"
  scale_param {
    bias_term: true
  }
}
layer {
  name: "relu1"
  type: "ReLU"
  bottom: "conv1_sc"
  top: "conv1_sc"
}
layer {
  name: "conv2"
  type: "BinaryConvolution"
  bottom: "conv1_sc"
  top: "conv2"
  param {
    lr_mult: 1
    decay_mult: 1
  }
  convolution_param {
    num_output: 64
    bias_term: false
    pad: 1
    kernel_size: 3
    stride: 1
    weight_filler {
      type: "gaussian"
      std: 0.01
    }
  }
  debug_param {
    xnorno_grad: false
    binary_relax: true
  }
}
layer {
  name: "bn2_bn"
  type: "BatchNorm"
  bottom: "conv2"
  top: "conv2_bn"
}
layer {
  name: "bn2_scal"
  type: "Scale"
  bottom: "conv2_bn"
  top: "conv2_sc"
  scale_param {
    bias_term: true
  }
}
layer {
  name: "relu2"
  type: "ReLU"
  bottom: "conv2_sc"
  top: "conv2_sc"
}
layer {
  name: "pool1"
  type: "Pooling"
  bottom: "conv2_sc"
  top: "pool1"
  pooling_param {
    pool: MAX
    kernel_size: 2
    stride: 2
  }
}
layer {
  name: "drop1"
  type: "Dropout"
  bottom: "pool1"
  top: "pool1"
  dropout_param {
    dropout_ratio: 0.25
  }
}
layer {
  name: "conv3"
  type: "BinaryConvolution"
  bottom: "pool1"
  top: "conv3"
  param {
    lr_mult: 1
    decay_mult: 1
  }
  convolution_param {
    num_output: 128
    bias_term: false
    pad: 1
    kernel_size: 3
    stride: 1
    weight_filler {
      type: "gaussian"
      std: 0.01
    }
  }
  debug_param {
    xnorno_grad: false
    binary_relax: true
  }
}
layer {
  name: "bn3_bn"
  type: "BatchNorm"
  bottom: "conv3"
  top: "conv3_bn"
}
layer {
  name: "bn3_scal"
  type: "Scale"
  bottom: "conv3_bn"
  top: "conv3_sc"
  scale_param {
    bias_term: true
  }
}
layer {
  name: "relu3"
  type: "ReLU"
  bottom: "conv3_sc"
  top: "conv3_sc"
}
layer {
  name: "conv4"
  type: "BinaryConvolution"
  bottom: "conv3_sc"
  top: "conv4"
  param {
    lr_mult: 1
    decay_mult: 1
  }
  convolution_param {
    num_output: 128
    bias_term: false
    pad: 1
    kernel_size: 3
    stride: 1
    weight_filler {
      type: "gaussian"
      std: 0.01
    }
  }
  debug_param {
    xnorno_grad: false
    binary_relax: true
  }
}
layer {
  name: "bn4_bn"
  type: "BatchNorm"
  bottom: "conv4"
  top: "conv4_bn"
}
layer {
  name: "bn4_scal"
  type: "Scale"
  bottom: "conv4_bn"
  top: "conv4_sc"
  scale_param {
    bias_term: true
  }
}
layer {
  name: "relu4"
  type: "ReLU"
  bottom: "conv4_sc"
  top: "conv4_sc"
}
layer {
  name: "pool2"
  type: "Pooling"
  bottom: "conv4_sc"
  top: "pool2"
  pooling_param {
    pool: MAX
    kernel_size: 2
    stride: 2
  }
}
layer {
  name: "drop2"
  type: "Dropout"
  bottom: "pool2"
  top: "pool2"
  dropout_param {
    dropout_ratio: 0.25
  }
}
layer {
  name: "conv5"
  type: "BinaryConvolution"
  bottom: "pool2"
  top: "conv5"
  param {
    lr_mult: 1
    decay_mult: 1
  }
  convolution_param {
    num_output: 256
    bias_term: false
    pad: 1
    kernel_size: 3
    stride: 1
    weight_filler {
      type: "gaussian"
      std: 0.01
    }
  }
  debug_param {
    xnorno_grad: false
    binary_relax: true
  }
}
layer {
  name: "bn5_bn"
  type: "BatchNorm"
  bottom: "conv5"
  top: "conv5_bn"
}
layer {
  name: "bn5_scal"
  type: "Scale"
  bottom: "conv5_bn"
  top: "conv5_sc"
  scale_param {
    bias_term: true
  }
}
layer {
  name: "relu5"
  type: "ReLU"
  bottom: "conv5_sc"
  top: "conv5_sc"
}
layer {
  name: "conv6"
  type: "BinaryConvolution"
  bottom: "conv5_sc"
  top: "conv6"
  param {
    lr_mult: 1
    decay_mult: 1
  }
  convolution_param {
    num_output: 256
    bias_term: false
    pad: 1
    kernel_size: 3
    stride: 1
    weight_filler {
      type: "gaussian"
      std: 0.01
    }
  }
  debug_param {
    xnorno_grad: false
    binary_relax: true
  }
}
layer {
  name: "bn6_bn"
  type: "BatchNorm"
  bottom: "conv6"
  top: "conv6_bn"
}
layer {
  name: "bn6_scal"
  type: "Scale"
  bottom: "conv6_bn"
  top: "conv6_sc"
  scale_param {
    bias_term: true
  }
}
layer {
  name: "relu6"
  type: "ReLU"
  bottom: "conv6_sc"
  top: "conv6_sc"
}
layer {
  name: "pool3"
  type: "Pooling"
  bottom: "conv6_sc"
  top: "pool3"
  pooling_param {
    pool: MAX
    kernel_size: 2
    stride: 2
  }
}
layer {
  name: "drop3"
  type: "Dropout"
  bottom: "pool3"
  top: "pool3"
  dropout_param {
    dropout_ratio: 0.25
  }
}
layer {
  name: "fc7"
  type: "BinaryInnerProduct"
  bottom: "pool3"
  top: "fc7"
  param {
    lr_mult: 1
    decay_mult: 1
  }
  inner_product_param {
    num_output: 512
    bias_term: false
    weight_filler {
      type: "gaussian"
      std: 0.01
    }
  }
  debug_param {
    xnorno_grad: false
    binary_relax: true
  }
}
layer {
  name: "bn7_bn"
  type: "BatchNorm"
  bottom: "fc7"
  top: "fc7_bn"
}
layer {
  name: "bn7_scal"
  type: "Scale"
  bottom: "fc7_bn"
  top: "fc7_sc"
  scale_param {
    bias_term: true
  }
}
layer {
  name: "relu7"
  type: "ReLU"
  bottom: "fc7_sc"
  top: "fc7_sc"
}
layer {
  name: "drop7"
  type: "Dropout"
  bottom: "fc7_sc"
  top: "fc7_sc"
  dropout_param {
    dropout_ratio: 0.5
  }
}
layer {
  name: "fc8"
  type: "BinaryInnerProduct"
  bottom: "fc7_sc"
  top: "fc8"
  param {
    lr_mult: 1
    decay_mult: 1
  }
  inner_product_param {
    num_output: 512
    bias_term: false
    weight_filler {
      type: "gaussian"
      std: 0.01
    }
  }
  debug_param {
    xnorno_grad: false
    binary_relax: true
  }
}
layer {
  name: "bn8_bn"
  type: "BatchNorm"
  bottom: "fc8"
  top: "fc8_bn"
}
layer {
  name: "bn8_scal"
  type: "Scale"
  bottom: "fc8_bn"
  top: "fc8_sc"
  scale_param {
    bias_term: true
  }
}
layer {
  name: "relu8"
  type: "ReLU"
  bottom: "fc8_sc"
  top: "fc8_sc"
}
layer {
  name: "drop8"
  type: "Dropout"
  bottom: "fc8_sc"
  top: "fc8_sc"
  dropout_param {
    dropout_ratio: 0.5
  }
}
layer {
  name: "fc9"
  type: "BinaryInnerProduct"
  bottom: "fc8_sc"
  top: "fc9"
  param {
    lr_mult: 1
    decay_mult: 1
  }
  param {
    lr_mult: 2
    decay_mult: 0
  }
  inner_product_param {
    num_output: 10
    weight_filler {
      type: "gaussian"
      std: 0.01
    }
    bias_filler {
      type: "constant"
      value: 0.01
    }
  }
  debug_param {
    xnorno_grad: false
    binary_relax: true
  }
}
layer {
  name: "loss"
  type: "SoftmaxWithLoss"
  bottom: "fc9"
  bottom: "label"
  top: "loss"
}
I0919 21:20:19.925565 30693 layer_factory.hpp:77] Creating layer cifar
I0919 21:20:19.925763 30693 db_lmdb.cpp:35] Opened lmdb examples/cifar10/cifar10_train_lmdb
I0919 21:20:19.925833 30693 net.cpp:84] Creating Layer cifar
I0919 21:20:19.925865 30693 net.cpp:380] cifar -> data
I0919 21:20:19.925992 30693 net.cpp:380] cifar -> label
I0919 21:20:19.926048 30693 data_transformer.cpp:25] Loading mean file from: examples/cifar10/mean.binaryproto
I0919 21:20:19.927800 30693 data_layer.cpp:45] output data size: 100,3,32,32
I0919 21:20:19.931289 30693 base_data_layer.cpp:72] Initializing prefetch
I0919 21:20:19.931432 30693 base_data_layer.cpp:75] Prefetch initialized.
I0919 21:20:19.931452 30693 net.cpp:122] Setting up cifar
I0919 21:20:19.931504 30693 net.cpp:129] Top shape: 100 3 32 32 (307200)
I0919 21:20:19.931514 30693 net.cpp:129] Top shape: 100 (100)
I0919 21:20:19.931529 30693 net.cpp:137] Memory required for data: 1229200
I0919 21:20:19.931561 30693 layer_factory.hpp:77] Creating layer conv1
I0919 21:20:19.931651 30693 net.cpp:84] Creating Layer conv1
I0919 21:20:19.931676 30693 net.cpp:406] conv1 <- data
I0919 21:20:19.931731 30693 net.cpp:380] conv1 -> conv1
I0919 21:20:19.932572 30693 net.cpp:122] Setting up conv1
I0919 21:20:19.932596 30693 net.cpp:129] Top shape: 100 64 32 32 (6553600)
I0919 21:20:19.932612 30693 net.cpp:137] Memory required for data: 27443600
I0919 21:20:19.932677 30693 layer_factory.hpp:77] Creating layer bn1_bn
I0919 21:20:19.932700 30693 net.cpp:84] Creating Layer bn1_bn
I0919 21:20:19.932709 30693 net.cpp:406] bn1_bn <- conv1
I0919 21:20:19.932724 30693 net.cpp:380] bn1_bn -> conv1_bn
I0919 21:20:19.933465 30693 net.cpp:122] Setting up bn1_bn
I0919 21:20:19.933486 30693 net.cpp:129] Top shape: 100 64 32 32 (6553600)
I0919 21:20:19.933493 30693 net.cpp:137] Memory required for data: 53658000
I0919 21:20:19.933540 30693 layer_factory.hpp:77] Creating layer bn1_scal
I0919 21:20:19.933568 30693 net.cpp:84] Creating Layer bn1_scal
I0919 21:20:19.933585 30693 net.cpp:406] bn1_scal <- conv1_bn
I0919 21:20:19.933607 30693 net.cpp:380] bn1_scal -> conv1_sc
I0919 21:20:19.933681 30693 layer_factory.hpp:77] Creating layer bn1_scal
I0919 21:20:19.933868 30693 net.cpp:122] Setting up bn1_scal
I0919 21:20:19.933884 30693 net.cpp:129] Top shape: 100 64 32 32 (6553600)
I0919 21:20:19.933892 30693 net.cpp:137] Memory required for data: 79872400
I0919 21:20:19.933925 30693 layer_factory.hpp:77] Creating layer relu1
I0919 21:20:19.933961 30693 net.cpp:84] Creating Layer relu1
I0919 21:20:19.933971 30693 net.cpp:406] relu1 <- conv1_sc
I0919 21:20:19.933986 30693 net.cpp:367] relu1 -> conv1_sc (in-place)
I0919 21:20:20.297163 30693 net.cpp:122] Setting up relu1
I0919 21:20:20.297195 30693 net.cpp:129] Top shape: 100 64 32 32 (6553600)
I0919 21:20:20.297200 30693 net.cpp:137] Memory required for data: 106086800
I0919 21:20:20.297215 30693 layer_factory.hpp:77] Creating layer conv2
I0919 21:20:20.297288 30693 net.cpp:84] Creating Layer conv2
I0919 21:20:20.297313 30693 net.cpp:406] conv2 <- conv1_sc
I0919 21:20:20.297363 30693 net.cpp:380] conv2 -> conv2
I0919 21:20:20.302773 30693 net.cpp:122] Setting up conv2
I0919 21:20:20.302790 30693 net.cpp:129] Top shape: 100 64 32 32 (6553600)
I0919 21:20:20.302794 30693 net.cpp:137] Memory required for data: 132301200
I0919 21:20:20.302809 30693 layer_factory.hpp:77] Creating layer bn2_bn
I0919 21:20:20.302831 30693 net.cpp:84] Creating Layer bn2_bn
I0919 21:20:20.302840 30693 net.cpp:406] bn2_bn <- conv2
I0919 21:20:20.302856 30693 net.cpp:380] bn2_bn -> conv2_bn
I0919 21:20:20.303071 30693 net.cpp:122] Setting up bn2_bn
I0919 21:20:20.303082 30693 net.cpp:129] Top shape: 100 64 32 32 (6553600)
I0919 21:20:20.303086 30693 net.cpp:137] Memory required for data: 158515600
I0919 21:20:20.303149 30693 layer_factory.hpp:77] Creating layer bn2_scal
I0919 21:20:20.303187 30693 net.cpp:84] Creating Layer bn2_scal
I0919 21:20:20.303205 30693 net.cpp:406] bn2_scal <- conv2_bn
I0919 21:20:20.303218 30693 net.cpp:380] bn2_scal -> conv2_sc
I0919 21:20:20.303283 30693 layer_factory.hpp:77] Creating layer bn2_scal
I0919 21:20:20.303427 30693 net.cpp:122] Setting up bn2_scal
I0919 21:20:20.303438 30693 net.cpp:129] Top shape: 100 64 32 32 (6553600)
I0919 21:20:20.303443 30693 net.cpp:137] Memory required for data: 184730000
I0919 21:20:20.303457 30693 layer_factory.hpp:77] Creating layer relu2
I0919 21:20:20.303475 30693 net.cpp:84] Creating Layer relu2
I0919 21:20:20.303483 30693 net.cpp:406] relu2 <- conv2_sc
I0919 21:20:20.303498 30693 net.cpp:367] relu2 -> conv2_sc (in-place)
I0919 21:20:20.303808 30693 net.cpp:122] Setting up relu2
I0919 21:20:20.303819 30693 net.cpp:129] Top shape: 100 64 32 32 (6553600)
I0919 21:20:20.303824 30693 net.cpp:137] Memory required for data: 210944400
I0919 21:20:20.303830 30693 layer_factory.hpp:77] Creating layer pool1
I0919 21:20:20.303853 30693 net.cpp:84] Creating Layer pool1
I0919 21:20:20.303861 30693 net.cpp:406] pool1 <- conv2_sc
I0919 21:20:20.303879 30693 net.cpp:380] pool1 -> pool1
I0919 21:20:20.303948 30693 net.cpp:122] Setting up pool1
I0919 21:20:20.303961 30693 net.cpp:129] Top shape: 100 64 16 16 (1638400)
I0919 21:20:20.303966 30693 net.cpp:137] Memory required for data: 217498000
I0919 21:20:20.303972 30693 layer_factory.hpp:77] Creating layer drop1
I0919 21:20:20.304002 30693 net.cpp:84] Creating Layer drop1
I0919 21:20:20.304009 30693 net.cpp:406] drop1 <- pool1
I0919 21:20:20.304042 30693 net.cpp:367] drop1 -> pool1 (in-place)
I0919 21:20:20.304081 30693 net.cpp:122] Setting up drop1
I0919 21:20:20.304090 30693 net.cpp:129] Top shape: 100 64 16 16 (1638400)
I0919 21:20:20.304095 30693 net.cpp:137] Memory required for data: 224051600
I0919 21:20:20.304100 30693 layer_factory.hpp:77] Creating layer conv3
I0919 21:20:20.304121 30693 net.cpp:84] Creating Layer conv3
I0919 21:20:20.304138 30693 net.cpp:406] conv3 <- pool1
I0919 21:20:20.304167 30693 net.cpp:380] conv3 -> conv3
I0919 21:20:20.314502 30693 net.cpp:122] Setting up conv3
I0919 21:20:20.314529 30693 net.cpp:129] Top shape: 100 128 16 16 (3276800)
I0919 21:20:20.314534 30693 net.cpp:137] Memory required for data: 237158800
I0919 21:20:20.314550 30693 layer_factory.hpp:77] Creating layer bn3_bn
I0919 21:20:20.314580 30693 net.cpp:84] Creating Layer bn3_bn
I0919 21:20:20.314590 30693 net.cpp:406] bn3_bn <- conv3
I0919 21:20:20.314610 30693 net.cpp:380] bn3_bn -> conv3_bn
I0919 21:20:20.314847 30693 net.cpp:122] Setting up bn3_bn
I0919 21:20:20.314858 30693 net.cpp:129] Top shape: 100 128 16 16 (3276800)
I0919 21:20:20.314872 30693 net.cpp:137] Memory required for data: 250266000
I0919 21:20:20.314903 30693 layer_factory.hpp:77] Creating layer bn3_scal
I0919 21:20:20.314931 30693 net.cpp:84] Creating Layer bn3_scal
I0919 21:20:20.314939 30693 net.cpp:406] bn3_scal <- conv3_bn
I0919 21:20:20.314954 30693 net.cpp:380] bn3_scal -> conv3_sc
I0919 21:20:20.315042 30693 layer_factory.hpp:77] Creating layer bn3_scal
I0919 21:20:20.315213 30693 net.cpp:122] Setting up bn3_scal
I0919 21:20:20.315225 30693 net.cpp:129] Top shape: 100 128 16 16 (3276800)
I0919 21:20:20.315239 30693 net.cpp:137] Memory required for data: 263373200
I0919 21:20:20.315274 30693 layer_factory.hpp:77] Creating layer relu3
I0919 21:20:20.315289 30693 net.cpp:84] Creating Layer relu3
I0919 21:20:20.315297 30693 net.cpp:406] relu3 <- conv3_sc
I0919 21:20:20.315312 30693 net.cpp:367] relu3 -> conv3_sc (in-place)
I0919 21:20:20.315827 30693 net.cpp:122] Setting up relu3
I0919 21:20:20.315838 30693 net.cpp:129] Top shape: 100 128 16 16 (3276800)
I0919 21:20:20.315843 30693 net.cpp:137] Memory required for data: 276480400
I0919 21:20:20.315850 30693 layer_factory.hpp:77] Creating layer conv4
I0919 21:20:20.315871 30693 net.cpp:84] Creating Layer conv4
I0919 21:20:20.315881 30693 net.cpp:406] conv4 <- conv3_sc
I0919 21:20:20.315912 30693 net.cpp:380] conv4 -> conv4
I0919 21:20:20.335361 30693 net.cpp:122] Setting up conv4
I0919 21:20:20.335381 30693 net.cpp:129] Top shape: 100 128 16 16 (3276800)
I0919 21:20:20.335386 30693 net.cpp:137] Memory required for data: 289587600
I0919 21:20:20.335409 30693 layer_factory.hpp:77] Creating layer bn4_bn
I0919 21:20:20.335435 30693 net.cpp:84] Creating Layer bn4_bn
I0919 21:20:20.335445 30693 net.cpp:406] bn4_bn <- conv4
I0919 21:20:20.335463 30693 net.cpp:380] bn4_bn -> conv4_bn
I0919 21:20:20.335677 30693 net.cpp:122] Setting up bn4_bn
I0919 21:20:20.335688 30693 net.cpp:129] Top shape: 100 128 16 16 (3276800)
I0919 21:20:20.335702 30693 net.cpp:137] Memory required for data: 302694800
I0919 21:20:20.335721 30693 layer_factory.hpp:77] Creating layer bn4_scal
I0919 21:20:20.335737 30693 net.cpp:84] Creating Layer bn4_scal
I0919 21:20:20.335745 30693 net.cpp:406] bn4_scal <- conv4_bn
I0919 21:20:20.335769 30693 net.cpp:380] bn4_scal -> conv4_sc
I0919 21:20:20.335851 30693 layer_factory.hpp:77] Creating layer bn4_scal
I0919 21:20:20.336026 30693 net.cpp:122] Setting up bn4_scal
I0919 21:20:20.336038 30693 net.cpp:129] Top shape: 100 128 16 16 (3276800)
I0919 21:20:20.336053 30693 net.cpp:137] Memory required for data: 315802000
I0919 21:20:20.336076 30693 layer_factory.hpp:77] Creating layer relu4
I0919 21:20:20.336098 30693 net.cpp:84] Creating Layer relu4
I0919 21:20:20.336107 30693 net.cpp:406] relu4 <- conv4_sc
I0919 21:20:20.336120 30693 net.cpp:367] relu4 -> conv4_sc (in-place)
I0919 21:20:20.336448 30693 net.cpp:122] Setting up relu4
I0919 21:20:20.336458 30693 net.cpp:129] Top shape: 100 128 16 16 (3276800)
I0919 21:20:20.336472 30693 net.cpp:137] Memory required for data: 328909200
I0919 21:20:20.336477 30693 layer_factory.hpp:77] Creating layer pool2
I0919 21:20:20.336495 30693 net.cpp:84] Creating Layer pool2
I0919 21:20:20.336503 30693 net.cpp:406] pool2 <- conv4_sc
I0919 21:20:20.336519 30693 net.cpp:380] pool2 -> pool2
I0919 21:20:20.336585 30693 net.cpp:122] Setting up pool2
I0919 21:20:20.336596 30693 net.cpp:129] Top shape: 100 128 8 8 (819200)
I0919 21:20:20.336609 30693 net.cpp:137] Memory required for data: 332186000
I0919 21:20:20.336616 30693 layer_factory.hpp:77] Creating layer drop2
I0919 21:20:20.336629 30693 net.cpp:84] Creating Layer drop2
I0919 21:20:20.336637 30693 net.cpp:406] drop2 <- pool2
I0919 21:20:20.336652 30693 net.cpp:367] drop2 -> pool2 (in-place)
I0919 21:20:20.336685 30693 net.cpp:122] Setting up drop2
I0919 21:20:20.336704 30693 net.cpp:129] Top shape: 100 128 8 8 (819200)
I0919 21:20:20.336716 30693 net.cpp:137] Memory required for data: 335462800
I0919 21:20:20.336722 30693 layer_factory.hpp:77] Creating layer conv5
I0919 21:20:20.336741 30693 net.cpp:84] Creating Layer conv5
I0919 21:20:20.336750 30693 net.cpp:406] conv5 <- pool2
I0919 21:20:20.336767 30693 net.cpp:380] conv5 -> conv5
I0919 21:20:20.375480 30693 net.cpp:122] Setting up conv5
I0919 21:20:20.375509 30693 net.cpp:129] Top shape: 100 256 8 8 (1638400)
I0919 21:20:20.375514 30693 net.cpp:137] Memory required for data: 342016400
I0919 21:20:20.375543 30693 layer_factory.hpp:77] Creating layer bn5_bn
I0919 21:20:20.375577 30693 net.cpp:84] Creating Layer bn5_bn
I0919 21:20:20.375589 30693 net.cpp:406] bn5_bn <- conv5
I0919 21:20:20.375632 30693 net.cpp:380] bn5_bn -> conv5_bn
I0919 21:20:20.375907 30693 net.cpp:122] Setting up bn5_bn
I0919 21:20:20.375928 30693 net.cpp:129] Top shape: 100 256 8 8 (1638400)
I0919 21:20:20.375932 30693 net.cpp:137] Memory required for data: 348570000
I0919 21:20:20.375962 30693 layer_factory.hpp:77] Creating layer bn5_scal
I0919 21:20:20.375998 30693 net.cpp:84] Creating Layer bn5_scal
I0919 21:20:20.376008 30693 net.cpp:406] bn5_scal <- conv5_bn
I0919 21:20:20.376022 30693 net.cpp:380] bn5_scal -> conv5_sc
I0919 21:20:20.376108 30693 layer_factory.hpp:77] Creating layer bn5_scal
I0919 21:20:20.376273 30693 net.cpp:122] Setting up bn5_scal
I0919 21:20:20.376286 30693 net.cpp:129] Top shape: 100 256 8 8 (1638400)
I0919 21:20:20.376302 30693 net.cpp:137] Memory required for data: 355123600
I0919 21:20:20.376317 30693 layer_factory.hpp:77] Creating layer relu5
I0919 21:20:20.376348 30693 net.cpp:84] Creating Layer relu5
I0919 21:20:20.376356 30693 net.cpp:406] relu5 <- conv5_sc
I0919 21:20:20.376370 30693 net.cpp:367] relu5 -> conv5_sc (in-place)
I0919 21:20:20.376885 30693 net.cpp:122] Setting up relu5
I0919 21:20:20.376896 30693 net.cpp:129] Top shape: 100 256 8 8 (1638400)
I0919 21:20:20.376901 30693 net.cpp:137] Memory required for data: 361677200
I0919 21:20:20.376907 30693 layer_factory.hpp:77] Creating layer conv6
I0919 21:20:20.376931 30693 net.cpp:84] Creating Layer conv6
I0919 21:20:20.376940 30693 net.cpp:406] conv6 <- conv5_sc
I0919 21:20:20.376960 30693 net.cpp:380] conv6 -> conv6
I0919 21:20:20.453109 30693 net.cpp:122] Setting up conv6
I0919 21:20:20.453138 30693 net.cpp:129] Top shape: 100 256 8 8 (1638400)
I0919 21:20:20.453142 30693 net.cpp:137] Memory required for data: 368230800
I0919 21:20:20.453174 30693 layer_factory.hpp:77] Creating layer bn6_bn
I0919 21:20:20.453202 30693 net.cpp:84] Creating Layer bn6_bn
I0919 21:20:20.453215 30693 net.cpp:406] bn6_bn <- conv6
I0919 21:20:20.453238 30693 net.cpp:380] bn6_bn -> conv6_bn
I0919 21:20:20.453472 30693 net.cpp:122] Setting up bn6_bn
I0919 21:20:20.453483 30693 net.cpp:129] Top shape: 100 256 8 8 (1638400)
I0919 21:20:20.453497 30693 net.cpp:137] Memory required for data: 374784400
I0919 21:20:20.453531 30693 layer_factory.hpp:77] Creating layer bn6_scal
I0919 21:20:20.453550 30693 net.cpp:84] Creating Layer bn6_scal
I0919 21:20:20.453558 30693 net.cpp:406] bn6_scal <- conv6_bn
I0919 21:20:20.453573 30693 net.cpp:380] bn6_scal -> conv6_sc
I0919 21:20:20.453641 30693 layer_factory.hpp:77] Creating layer bn6_scal
I0919 21:20:20.453789 30693 net.cpp:122] Setting up bn6_scal
I0919 21:20:20.453800 30693 net.cpp:129] Top shape: 100 256 8 8 (1638400)
I0919 21:20:20.453806 30693 net.cpp:137] Memory required for data: 381338000
I0919 21:20:20.453820 30693 layer_factory.hpp:77] Creating layer relu6
I0919 21:20:20.453833 30693 net.cpp:84] Creating Layer relu6
I0919 21:20:20.453841 30693 net.cpp:406] relu6 <- conv6_sc
I0919 21:20:20.453855 30693 net.cpp:367] relu6 -> conv6_sc (in-place)
I0919 21:20:20.454388 30693 net.cpp:122] Setting up relu6
I0919 21:20:20.454399 30693 net.cpp:129] Top shape: 100 256 8 8 (1638400)
I0919 21:20:20.454403 30693 net.cpp:137] Memory required for data: 387891600
I0919 21:20:20.454411 30693 layer_factory.hpp:77] Creating layer pool3
I0919 21:20:20.454428 30693 net.cpp:84] Creating Layer pool3
I0919 21:20:20.454437 30693 net.cpp:406] pool3 <- conv6_sc
I0919 21:20:20.454453 30693 net.cpp:380] pool3 -> pool3
I0919 21:20:20.454519 30693 net.cpp:122] Setting up pool3
I0919 21:20:20.454530 30693 net.cpp:129] Top shape: 100 256 4 4 (409600)
I0919 21:20:20.454535 30693 net.cpp:137] Memory required for data: 389530000
I0919 21:20:20.454540 30693 layer_factory.hpp:77] Creating layer drop3
I0919 21:20:20.454555 30693 net.cpp:84] Creating Layer drop3
I0919 21:20:20.454562 30693 net.cpp:406] drop3 <- pool3
I0919 21:20:20.454586 30693 net.cpp:367] drop3 -> pool3 (in-place)
I0919 21:20:20.454632 30693 net.cpp:122] Setting up drop3
I0919 21:20:20.454641 30693 net.cpp:129] Top shape: 100 256 4 4 (409600)
I0919 21:20:20.454655 30693 net.cpp:137] Memory required for data: 391168400
I0919 21:20:20.454661 30693 layer_factory.hpp:77] Creating layer fc7
I0919 21:20:20.454699 30693 net.cpp:84] Creating Layer fc7
I0919 21:20:20.454706 30693 net.cpp:406] fc7 <- pool3
I0919 21:20:20.454733 30693 net.cpp:380] fc7 -> fc7
I0919 21:20:20.720973 30693 net.cpp:122] Setting up fc7
I0919 21:20:20.721011 30693 net.cpp:129] Top shape: 100 512 (51200)
I0919 21:20:20.721015 30693 net.cpp:137] Memory required for data: 391373200
I0919 21:20:20.721052 30693 layer_factory.hpp:77] Creating layer bn7_bn
I0919 21:20:20.721112 30693 net.cpp:84] Creating Layer bn7_bn
I0919 21:20:20.721134 30693 net.cpp:406] bn7_bn <- fc7
I0919 21:20:20.721177 30693 net.cpp:380] bn7_bn -> fc7_bn
I0919 21:20:20.721432 30693 net.cpp:122] Setting up bn7_bn
I0919 21:20:20.721455 30693 net.cpp:129] Top shape: 100 512 (51200)
I0919 21:20:20.721459 30693 net.cpp:137] Memory required for data: 391578000
I0919 21:20:20.721478 30693 layer_factory.hpp:77] Creating layer bn7_scal
I0919 21:20:20.721505 30693 net.cpp:84] Creating Layer bn7_scal
I0919 21:20:20.721513 30693 net.cpp:406] bn7_scal <- fc7_bn
I0919 21:20:20.721529 30693 net.cpp:380] bn7_scal -> fc7_sc
I0919 21:20:20.721606 30693 layer_factory.hpp:77] Creating layer bn7_scal
I0919 21:20:20.721771 30693 net.cpp:122] Setting up bn7_scal
I0919 21:20:20.721782 30693 net.cpp:129] Top shape: 100 512 (51200)
I0919 21:20:20.721786 30693 net.cpp:137] Memory required for data: 391782800
I0919 21:20:20.721799 30693 layer_factory.hpp:77] Creating layer relu7
I0919 21:20:20.721812 30693 net.cpp:84] Creating Layer relu7
I0919 21:20:20.721827 30693 net.cpp:406] relu7 <- fc7_sc
I0919 21:20:20.721841 30693 net.cpp:367] relu7 -> fc7_sc (in-place)
I0919 21:20:20.722210 30693 net.cpp:122] Setting up relu7
I0919 21:20:20.722219 30693 net.cpp:129] Top shape: 100 512 (51200)
I0919 21:20:20.722223 30693 net.cpp:137] Memory required for data: 391987600
I0919 21:20:20.722237 30693 layer_factory.hpp:77] Creating layer drop7
I0919 21:20:20.722254 30693 net.cpp:84] Creating Layer drop7
I0919 21:20:20.722261 30693 net.cpp:406] drop7 <- fc7_sc
I0919 21:20:20.722276 30693 net.cpp:367] drop7 -> fc7_sc (in-place)
I0919 21:20:20.722313 30693 net.cpp:122] Setting up drop7
I0919 21:20:20.722321 30693 net.cpp:129] Top shape: 100 512 (51200)
I0919 21:20:20.722326 30693 net.cpp:137] Memory required for data: 392192400
I0919 21:20:20.722332 30693 layer_factory.hpp:77] Creating layer fc8
I0919 21:20:20.722353 30693 net.cpp:84] Creating Layer fc8
I0919 21:20:20.722362 30693 net.cpp:406] fc8 <- fc7_sc
I0919 21:20:20.722378 30693 net.cpp:380] fc8 -> fc8
I0919 21:20:20.756508 30693 net.cpp:122] Setting up fc8
I0919 21:20:20.756532 30693 net.cpp:129] Top shape: 100 512 (51200)
I0919 21:20:20.756536 30693 net.cpp:137] Memory required for data: 392397200
I0919 21:20:20.756564 30693 layer_factory.hpp:77] Creating layer bn8_bn
I0919 21:20:20.756587 30693 net.cpp:84] Creating Layer bn8_bn
I0919 21:20:20.756599 30693 net.cpp:406] bn8_bn <- fc8
I0919 21:20:20.756618 30693 net.cpp:380] bn8_bn -> fc8_bn
I0919 21:20:20.756842 30693 net.cpp:122] Setting up bn8_bn
I0919 21:20:20.756853 30693 net.cpp:129] Top shape: 100 512 (51200)
I0919 21:20:20.756866 30693 net.cpp:137] Memory required for data: 392602000
I0919 21:20:20.756886 30693 layer_factory.hpp:77] Creating layer bn8_scal
I0919 21:20:20.756902 30693 net.cpp:84] Creating Layer bn8_scal
I0919 21:20:20.756911 30693 net.cpp:406] bn8_scal <- fc8_bn
I0919 21:20:20.756927 30693 net.cpp:380] bn8_scal -> fc8_sc
I0919 21:20:20.756989 30693 layer_factory.hpp:77] Creating layer bn8_scal
I0919 21:20:20.757161 30693 net.cpp:122] Setting up bn8_scal
I0919 21:20:20.757174 30693 net.cpp:129] Top shape: 100 512 (51200)
I0919 21:20:20.757186 30693 net.cpp:137] Memory required for data: 392806800
I0919 21:20:20.757200 30693 layer_factory.hpp:77] Creating layer relu8
I0919 21:20:20.757213 30693 net.cpp:84] Creating Layer relu8
I0919 21:20:20.757220 30693 net.cpp:406] relu8 <- fc8_sc
I0919 21:20:20.757234 30693 net.cpp:367] relu8 -> fc8_sc (in-place)
I0919 21:20:20.757776 30693 net.cpp:122] Setting up relu8
I0919 21:20:20.757786 30693 net.cpp:129] Top shape: 100 512 (51200)
I0919 21:20:20.757791 30693 net.cpp:137] Memory required for data: 393011600
I0919 21:20:20.757804 30693 layer_factory.hpp:77] Creating layer drop8
I0919 21:20:20.757820 30693 net.cpp:84] Creating Layer drop8
I0919 21:20:20.757828 30693 net.cpp:406] drop8 <- fc8_sc
I0919 21:20:20.757843 30693 net.cpp:367] drop8 -> fc8_sc (in-place)
I0919 21:20:20.757881 30693 net.cpp:122] Setting up drop8
I0919 21:20:20.757899 30693 net.cpp:129] Top shape: 100 512 (51200)
I0919 21:20:20.757912 30693 net.cpp:137] Memory required for data: 393216400
I0919 21:20:20.757918 30693 layer_factory.hpp:77] Creating layer fc9
I0919 21:20:20.757937 30693 net.cpp:84] Creating Layer fc9
I0919 21:20:20.757957 30693 net.cpp:406] fc9 <- fc8_sc
I0919 21:20:20.757977 30693 net.cpp:380] fc9 -> fc9
I0919 21:20:20.759253 30693 net.cpp:122] Setting up fc9
I0919 21:20:20.759265 30693 net.cpp:129] Top shape: 100 10 (1000)
I0919 21:20:20.759270 30693 net.cpp:137] Memory required for data: 393220400
I0919 21:20:20.759284 30693 layer_factory.hpp:77] Creating layer loss
I0919 21:20:20.759305 30693 net.cpp:84] Creating Layer loss
I0919 21:20:20.759315 30693 net.cpp:406] loss <- fc9
I0919 21:20:20.759326 30693 net.cpp:406] loss <- label
I0919 21:20:20.759342 30693 net.cpp:380] loss -> loss
I0919 21:20:20.759362 30693 layer_factory.hpp:77] Creating layer loss
…
I0919 21:20:21.032901 30693 net.cpp:294] The NetState phase (1) differed from the phase (0) specified by a rule in layer cifar
I0919 21:20:21.033273 30693 net.cpp:51] Initializing net from parameters: 
name: "CIFAR10_vgg"
state {
  phase: TEST
}
layer {
  name: "cifar"
  type: "Data"
  top: "data"
  top: "label"
  include {
    phase: TEST
  }
  transform_param {
    mirror: false
    crop_size: 32
    mean_file: "examples/cifar10/mean.binaryproto"
  }
  data_param {
    source: "examples/cifar10/cifar10_test_lmdb"
    batch_size: 100
    backend: LMDB
  }
}
layer {
  name: "conv1"
  type: "BinaryConvolution"
  bottom: "data"
  top: "conv1"
  param {
    lr_mult: 1
    decay_mult: 1
  }
  convolution_param {
    num_output: 64
    bias_term: false
    pad: 1
    kernel_size: 3
    stride: 1
    weight_filler {
      type: "gaussian"
      std: 0.01
    }
  }
  debug_param {
    xnorno_grad: false
    binary_relax: true
  }
}
layer {
  name: "bn1_bn"
  type: "BatchNorm"
  bottom: "conv1"
  top: "conv1_bn"
}
layer {
  name: "bn1_scal"
  type: "Scale"
  bottom: "conv1_bn"
  top: "conv1_sc"
  scale_param {
    bias_term: true
  }
}
layer {
  name: "relu1"
  type: "ReLU"
  bottom: "conv1_sc"
  top: "conv1_sc"
}
layer {
  name: "conv2"
  type: "BinaryConvolution"
  bottom: "conv1_sc"
  top: "conv2"
  param {
    lr_mult: 1
    decay_mult: 1
  }
  convolution_param {
    num_output: 64
    bias_term: false
    pad: 1
    kernel_size: 3
    stride: 1
    weight_filler {
      type: "gaussian"
      std: 0.01
    }
  }
  debug_param {
    xnorno_grad: false
    binary_relax: true
  }
}
layer {
  name: "bn2_bn"
  type: "BatchNorm"
  bottom: "conv2"
  top: "conv2_bn"
}
layer {
  name: "bn2_scal"
  type: "Scale"
  bottom: "conv2_bn"
  top: "conv2_sc"
  scale_param {
    bias_term: true
  }
}
layer {
  name: "relu2"
  type: "ReLU"
  bottom: "conv2_sc"
  top: "conv2_sc"
}
layer {
  name: "pool1"
  type: "Pooling"
  bottom: "conv2_sc"
  top: "pool1"
  pooling_param {
    pool: MAX
    kernel_size: 2
    stride: 2
  }
}
layer {
  name: "drop1"
  type: "Dropout"
  bottom: "pool1"
  top: "pool1"
  dropout_param {
    dropout_ratio: 0.25
  }
}
layer {
  name: "conv3"
  type: "BinaryConvolution"
  bottom: "pool1"
  top: "conv3"
  param {
    lr_mult: 1
    decay_mult: 1
  }
  convolution_param {
    num_output: 128
    bias_term: false
    pad: 1
    kernel_size: 3
    stride: 1
    weight_filler {
      type: "gaussian"
      std: 0.01
    }
  }
  debug_param {
    xnorno_grad: false
    binary_relax: true
  }
}
layer {
  name: "bn3_bn"
  type: "BatchNorm"
  bottom: "conv3"
  top: "conv3_bn"
}
layer {
  name: "bn3_scal"
  type: "Scale"
  bottom: "conv3_bn"
  top: "conv3_sc"
  scale_param {
    bias_term: true
  }
}
layer {
  name: "relu3"
  type: "ReLU"
  bottom: "conv3_sc"
  top: "conv3_sc"
}
layer {
  name: "conv4"
  type: "BinaryConvolution"
  bottom: "conv3_sc"
  top: "conv4"
  param {
    lr_mult: 1
    decay_mult: 1
  }
  convolution_param {
    num_output: 128
    bias_term: false
    pad: 1
    kernel_size: 3
    stride: 1
    weight_filler {
      type: "gaussian"
      std: 0.01
    }
  }
  debug_param {
    xnorno_grad: false
    binary_relax: true
  }
}
layer {
  name: "bn4_bn"
  type: "BatchNorm"
  bottom: "conv4"
  top: "conv4_bn"
}
layer {
  name: "bn4_scal"
  type: "Scale"
  bottom: "conv4_bn"
  top: "conv4_sc"
  scale_param {
    bias_term: true
  }
}
layer {
  name: "relu4"
  type: "ReLU"
  bottom: "conv4_sc"
  top: "conv4_sc"
}
layer {
  name: "pool2"
  type: "Pooling"
  bottom: "conv4_sc"
  top: "pool2"
  pooling_param {
    pool: MAX
    kernel_size: 2
    stride: 2
  }
}
layer {
  name: "drop2"
  type: "Dropout"
  bottom: "pool2"
  top: "pool2"
  dropout_param {
    dropout_ratio: 0.25
  }
}
layer {
  name: "conv5"
  type: "BinaryConvolution"
  bottom: "pool2"
  top: "conv5"
  param {
    lr_mult: 1
    decay_mult: 1
  }
  convolution_param {
    num_output: 256
    bias_term: false
    pad: 1
    kernel_size: 3
    stride: 1
    weight_filler {
      type: "gaussian"
      std: 0.01
    }
  }
  debug_param {
    xnorno_grad: false
    binary_relax: true
  }
}
layer {
  name: "bn5_bn"
  type: "BatchNorm"
  bottom: "conv5"
  top: "conv5_bn"
}
layer {
  name: "bn5_scal"
  type: "Scale"
  bottom: "conv5_bn"
  top: "conv5_sc"
  scale_param {
    bias_term: true
  }
}
layer {
  name: "relu5"
  type: "ReLU"
  bottom: "conv5_sc"
  top: "conv5_sc"
}
layer {
  name: "conv6"
  type: "BinaryConvolution"
  bottom: "conv5_sc"
  top: "conv6"
  param {
    lr_mult: 1
    decay_mult: 1
  }
  convolution_param {
    num_output: 256
    bias_term: false
    pad: 1
    kernel_size: 3
    stride: 1
    weight_filler {
      type: "gaussian"
      std: 0.01
    }
  }
  debug_param {
    xnorno_grad: false
    binary_relax: true
  }
}
layer {
  name: "bn6_bn"
  type: "BatchNorm"
  bottom: "conv6"
  top: "conv6_bn"
}
layer {
  name: "bn6_scal"
  type: "Scale"
  bottom: "conv6_bn"
  top: "conv6_sc"
  scale_param {
    bias_term: true
  }
}
layer {
  name: "relu6"
  type: "ReLU"
  bottom: "conv6_sc"
  top: "conv6_sc"
}
layer {
  name: "pool3"
  type: "Pooling"
  bottom: "conv6_sc"
  top: "pool3"
  pooling_param {
    pool: MAX
    kernel_size: 2
    stride: 2
  }
}
layer {
  name: "drop3"
  type: "Dropout"
  bottom: "pool3"
  top: "pool3"
  dropout_param {
    dropout_ratio: 0.25
  }
}
layer {
  name: "fc7"
  type: "BinaryInnerProduct"
  bottom: "pool3"
  top: "fc7"
  param {
    lr_mult: 1
    decay_mult: 1
  }
  inner_product_param {
    num_output: 512
    bias_term: false
    weight_filler {
      type: "gaussian"
      std: 0.01
    }
  }
  debug_param {
    xnorno_grad: false
    binary_relax: true
  }
}
layer {
  name: "bn7_bn"
  type: "BatchNorm"
  bottom: "fc7"
  top: "fc7_bn"
}
layer {
  name: "bn7_scal"
  type: "Scale"
  bottom: "fc7_bn"
  top: "fc7_sc"
  scale_param {
    bias_term: true
  }
}
layer {
  name: "relu7"
  type: "ReLU"
  bottom: "fc7_sc"
  top: "fc7_sc"
}
layer {
  name: "drop7"
  type: "Dropout"
  bottom: "fc7_sc"
  top: "fc7_sc"
  dropout_param {
    dropout_ratio: 0.5
  }
}
layer {
  name: "fc8"
  type: "BinaryInnerProduct"
  bottom: "fc7_sc"
  top: "fc8"
  param {
    lr_mult: 1
    decay_mult: 1
  }
  inner_product_param {
    num_output: 512
    bias_term: false
    weight_filler {
      type: "gaussian"
      std: 0.01
    }
  }
  debug_param {
    xnorno_grad: false
    binary_relax: true
  }
}
layer {
  name: "bn8_bn"
  type: "BatchNorm"
  bottom: "fc8"
  top: "fc8_bn"
}
layer {
  name: "bn8_scal"
  type: "Scale"
  bottom: "fc8_bn"
  top: "fc8_sc"
  scale_param {
    bias_term: true
  }
}
layer {
  name: "relu8"
  type: "ReLU"
  bottom: "fc8_sc"
  top: "fc8_sc"
}
layer {
  name: "drop8"
  type: "Dropout"
  bottom: "fc8_sc"
  top: "fc8_sc"
  dropout_param {
    dropout_ratio: 0.5
  }
}
layer {
  name: "fc9"
  type: "BinaryInnerProduct"
  bottom: "fc8_sc"
  top: "fc9"
  param {
    lr_mult: 1
    decay_mult: 1
  }
  param {
    lr_mult: 2
    decay_mult: 0
  }
  inner_product_param {
    num_output: 10
    weight_filler {
      type: "gaussian"
      std: 0.01
    }
    bias_filler {
      type: "constant"
      value: 0.01
    }
  }
  debug_param {
    xnorno_grad: false
    binary_relax: true
  }
}
layer {
  name: "accuracy"
  type: "Accuracy"
  bottom: "fc9"
  bottom: "label"
  top: "accuracy"
  include {
    phase: TEST
  }
}
layer {
  name: "loss"
  type: "SoftmaxWithLoss"
  bottom: "fc9"
  bottom: "label"
  top: "loss"
}
I0919 21:20:21.033830 30693 layer_factory.hpp:77] Creating layer cifar
I0919 21:20:21.033943 30693 db_lmdb.cpp:35] Opened lmdb examples/cifar10/cifar10_test_lmdb
I0919 21:20:21.033974 30693 net.cpp:84] Creating Layer cifar
I0919 21:20:21.033995 30693 net.cpp:380] cifar -> data
I0919 21:20:21.034060 30693 net.cpp:380] cifar -> label
I0919 21:20:21.034092 30693 data_transformer.cpp:25] Loading mean file from: examples/cifar10/mean.binaryproto
I0919 21:20:21.034468 30693 data_layer.cpp:45] output data size: 100,3,32,32
I0919 21:20:21.038287 30693 base_data_layer.cpp:72] Initializing prefetch
I0919 21:20:21.038372 30693 base_data_layer.cpp:75] Prefetch initialized.
I0919 21:20:21.038384 30693 net.cpp:122] Setting up cifar
I0919 21:20:21.038413 30693 net.cpp:129] Top shape: 100 3 32 32 (307200)
I0919 21:20:21.038420 30693 net.cpp:129] Top shape: 100 (100)
I0919 21:20:21.038425 30693 net.cpp:137] Memory required for data: 1229200
I0919 21:20:21.038446 30693 layer_factory.hpp:77] Creating layer label_cifar_1_split
I0919 21:20:21.038498 30693 net.cpp:84] Creating Layer label_cifar_1_split
I0919 21:20:21.038549 30693 net.cpp:406] label_cifar_1_split <- label
I0919 21:20:21.038589 30693 net.cpp:380] label_cifar_1_split -> label_cifar_1_split_0
I0919 21:20:21.038630 30693 net.cpp:380] label_cifar_1_split -> label_cifar_1_split_1
I0919 21:20:21.038720 30693 net.cpp:122] Setting up label_cifar_1_split
I0919 21:20:21.038736 30693 net.cpp:129] Top shape: 100 (100)
I0919 21:20:21.038748 30693 net.cpp:129] Top shape: 100 (100)
I0919 21:20:21.038753 30693 net.cpp:137] Memory required for data: 1230000
I0919 21:20:21.038761 30693 layer_factory.hpp:77] Creating layer conv1
I0919 21:20:21.038799 30693 net.cpp:84] Creating Layer conv1
I0919 21:20:21.038810 30693 net.cpp:406] conv1 <- data
I0919 21:20:21.038836 30693 net.cpp:380] conv1 -> conv1
I0919 21:20:21.039785 30693 net.cpp:122] Setting up conv1
I0919 21:20:21.039803 30693 net.cpp:129] Top shape: 100 64 32 32 (6553600)
I0919 21:20:21.039810 30693 net.cpp:137] Memory required for data: 27444400
I0919 21:20:21.039844 30693 layer_factory.hpp:77] Creating layer bn1_bn
I0919 21:20:21.039865 30693 net.cpp:84] Creating Layer bn1_bn
I0919 21:20:21.039876 30693 net.cpp:406] bn1_bn <- conv1
I0919 21:20:21.039896 30693 net.cpp:380] bn1_bn -> conv1_bn
I0919 21:20:21.040235 30693 net.cpp:122] Setting up bn1_bn
I0919 21:20:21.040251 30693 net.cpp:129] Top shape: 100 64 32 32 (6553600)
I0919 21:20:21.040258 30693 net.cpp:137] Memory required for data: 53658800
I0919 21:20:21.040302 30693 layer_factory.hpp:77] Creating layer bn1_scal
I0919 21:20:21.040328 30693 net.cpp:84] Creating Layer bn1_scal
I0919 21:20:21.040339 30693 net.cpp:406] bn1_scal <- conv1_bn
I0919 21:20:21.040361 30693 net.cpp:380] bn1_scal -> conv1_sc
I0919 21:20:21.040452 30693 layer_factory.hpp:77] Creating layer bn1_scal
I0919 21:20:21.040673 30693 net.cpp:122] Setting up bn1_scal
I0919 21:20:21.040689 30693 net.cpp:129] Top shape: 100 64 32 32 (6553600)
I0919 21:20:21.040696 30693 net.cpp:137] Memory required for data: 79873200
I0919 21:20:21.040725 30693 layer_factory.hpp:77] Creating layer relu1
I0919 21:20:21.040745 30693 net.cpp:84] Creating Layer relu1
I0919 21:20:21.040756 30693 net.cpp:406] relu1 <- conv1_sc
I0919 21:20:21.040776 30693 net.cpp:367] relu1 -> conv1_sc (in-place)
I0919 21:20:21.041386 30693 net.cpp:122] Setting up relu1
I0919 21:20:21.041402 30693 net.cpp:129] Top shape: 100 64 32 32 (6553600)
I0919 21:20:21.041409 30693 net.cpp:137] Memory required for data: 106087600
I0919 21:20:21.041419 30693 layer_factory.hpp:77] Creating layer conv2
I0919 21:20:21.041443 30693 net.cpp:84] Creating Layer conv2
I0919 21:20:21.041456 30693 net.cpp:406] conv2 <- conv1_sc
I0919 21:20:21.041483 30693 net.cpp:380] conv2 -> conv2
I0919 21:20:21.048538 30693 net.cpp:122] Setting up conv2
I0919 21:20:21.048557 30693 net.cpp:129] Top shape: 100 64 32 32 (6553600)
I0919 21:20:21.048563 30693 net.cpp:137] Memory required for data: 132302000
I0919 21:20:21.048578 30693 layer_factory.hpp:77] Creating layer bn2_bn
I0919 21:20:21.048597 30693 net.cpp:84] Creating Layer bn2_bn
I0919 21:20:21.048609 30693 net.cpp:406] bn2_bn <- conv2
I0919 21:20:21.048629 30693 net.cpp:380] bn2_bn -> conv2_bn
I0919 21:20:21.048948 30693 net.cpp:122] Setting up bn2_bn
I0919 21:20:21.048964 30693 net.cpp:129] Top shape: 100 64 32 32 (6553600)
I0919 21:20:21.048969 30693 net.cpp:137] Memory required for data: 158516400
I0919 21:20:21.049005 30693 layer_factory.hpp:77] Creating layer bn2_scal
I0919 21:20:21.049028 30693 net.cpp:84] Creating Layer bn2_scal
I0919 21:20:21.049037 30693 net.cpp:406] bn2_scal <- conv2_bn
I0919 21:20:21.049059 30693 net.cpp:380] bn2_scal -> conv2_sc
I0919 21:20:21.049146 30693 layer_factory.hpp:77] Creating layer bn2_scal
I0919 21:20:21.049355 30693 net.cpp:122] Setting up bn2_scal
I0919 21:20:21.049371 30693 net.cpp:129] Top shape: 100 64 32 32 (6553600)
I0919 21:20:21.049377 30693 net.cpp:137] Memory required for data: 184730800
I0919 21:20:21.049396 30693 layer_factory.hpp:77] Creating layer relu2
I0919 21:20:21.049425 30693 net.cpp:84] Creating Layer relu2
I0919 21:20:21.049437 30693 net.cpp:406] relu2 <- conv2_sc
I0919 21:20:21.049456 30693 net.cpp:367] relu2 -> conv2_sc (in-place)
I0919 21:20:21.050215 30693 net.cpp:122] Setting up relu2
I0919 21:20:21.050230 30693 net.cpp:129] Top shape: 100 64 32 32 (6553600)
I0919 21:20:21.050236 30693 net.cpp:137] Memory required for data: 210945200
I0919 21:20:21.050245 30693 layer_factory.hpp:77] Creating layer pool1
I0919 21:20:21.050267 30693 net.cpp:84] Creating Layer pool1
I0919 21:20:21.050278 30693 net.cpp:406] pool1 <- conv2_sc
I0919 21:20:21.050300 30693 net.cpp:380] pool1 -> pool1
I0919 21:20:21.050382 30693 net.cpp:122] Setting up pool1
I0919 21:20:21.050398 30693 net.cpp:129] Top shape: 100 64 16 16 (1638400)
I0919 21:20:21.050405 30693 net.cpp:137] Memory required for data: 217498800
I0919 21:20:21.050411 30693 layer_factory.hpp:77] Creating layer drop1
I0919 21:20:21.050431 30693 net.cpp:84] Creating Layer drop1
I0919 21:20:21.050441 30693 net.cpp:406] drop1 <- pool1
I0919 21:20:21.050462 30693 net.cpp:367] drop1 -> pool1 (in-place)
I0919 21:20:21.050525 30693 net.cpp:122] Setting up drop1
I0919 21:20:21.050539 30693 net.cpp:129] Top shape: 100 64 16 16 (1638400)
I0919 21:20:21.050544 30693 net.cpp:137] Memory required for data: 224052400
I0919 21:20:21.050550 30693 layer_factory.hpp:77] Creating layer conv3
I0919 21:20:21.050575 30693 net.cpp:84] Creating Layer conv3
I0919 21:20:21.050588 30693 net.cpp:406] conv3 <- pool1
I0919 21:20:21.050613 30693 net.cpp:380] conv3 -> conv3
I0919 21:20:21.064188 30693 net.cpp:122] Setting up conv3
I0919 21:20:21.064213 30693 net.cpp:129] Top shape: 100 128 16 16 (3276800)
I0919 21:20:21.064218 30693 net.cpp:137] Memory required for data: 237159600
I0919 21:20:21.064236 30693 layer_factory.hpp:77] Creating layer bn3_bn
I0919 21:20:21.064260 30693 net.cpp:84] Creating Layer bn3_bn
I0919 21:20:21.064272 30693 net.cpp:406] bn3_bn <- conv3
I0919 21:20:21.064294 30693 net.cpp:380] bn3_bn -> conv3_bn
I0919 21:20:21.064582 30693 net.cpp:122] Setting up bn3_bn
I0919 21:20:21.064597 30693 net.cpp:129] Top shape: 100 128 16 16 (3276800)
I0919 21:20:21.064604 30693 net.cpp:137] Memory required for data: 250266800
I0919 21:20:21.064627 30693 layer_factory.hpp:77] Creating layer bn3_scal
I0919 21:20:21.064647 30693 net.cpp:84] Creating Layer bn3_scal
I0919 21:20:21.064657 30693 net.cpp:406] bn3_scal <- conv3_bn
I0919 21:20:21.064677 30693 net.cpp:380] bn3_scal -> conv3_sc
I0919 21:20:21.064800 30693 layer_factory.hpp:77] Creating layer bn3_scal
I0919 21:20:21.064987 30693 net.cpp:122] Setting up bn3_scal
I0919 21:20:21.065003 30693 net.cpp:129] Top shape: 100 128 16 16 (3276800)
I0919 21:20:21.065009 30693 net.cpp:137] Memory required for data: 263374000
I0919 21:20:21.065048 30693 layer_factory.hpp:77] Creating layer relu3
I0919 21:20:21.065065 30693 net.cpp:84] Creating Layer relu3
I0919 21:20:21.065074 30693 net.cpp:406] relu3 <- conv3_sc
I0919 21:20:21.065091 30693 net.cpp:367] relu3 -> conv3_sc (in-place)
I0919 21:20:21.065526 30693 net.cpp:122] Setting up relu3
I0919 21:20:21.065541 30693 net.cpp:129] Top shape: 100 128 16 16 (3276800)
I0919 21:20:21.065546 30693 net.cpp:137] Memory required for data: 276481200
I0919 21:20:21.065554 30693 layer_factory.hpp:77] Creating layer conv4
I0919 21:20:21.065585 30693 net.cpp:84] Creating Layer conv4
I0919 21:20:21.065598 30693 net.cpp:406] conv4 <- conv3_sc
I0919 21:20:21.065623 30693 net.cpp:380] conv4 -> conv4
I0919 21:20:21.090001 30693 net.cpp:122] Setting up conv4
I0919 21:20:21.090023 30693 net.cpp:129] Top shape: 100 128 16 16 (3276800)
I0919 21:20:21.090029 30693 net.cpp:137] Memory required for data: 289588400
I0919 21:20:21.090045 30693 layer_factory.hpp:77] Creating layer bn4_bn
I0919 21:20:21.090065 30693 net.cpp:84] Creating Layer bn4_bn
I0919 21:20:21.090076 30693 net.cpp:406] bn4_bn <- conv4
I0919 21:20:21.090095 30693 net.cpp:380] bn4_bn -> conv4_bn
I0919 21:20:21.090363 30693 net.cpp:122] Setting up bn4_bn
I0919 21:20:21.090376 30693 net.cpp:129] Top shape: 100 128 16 16 (3276800)
I0919 21:20:21.090394 30693 net.cpp:137] Memory required for data: 302695600
I0919 21:20:21.090420 30693 layer_factory.hpp:77] Creating layer bn4_scal
I0919 21:20:21.090438 30693 net.cpp:84] Creating Layer bn4_scal
I0919 21:20:21.090447 30693 net.cpp:406] bn4_scal <- conv4_bn
I0919 21:20:21.090464 30693 net.cpp:380] bn4_scal -> conv4_sc
I0919 21:20:21.090556 30693 layer_factory.hpp:77] Creating layer bn4_scal
I0919 21:20:21.090732 30693 net.cpp:122] Setting up bn4_scal
I0919 21:20:21.090747 30693 net.cpp:129] Top shape: 100 128 16 16 (3276800)
I0919 21:20:21.090754 30693 net.cpp:137] Memory required for data: 315802800
I0919 21:20:21.090770 30693 layer_factory.hpp:77] Creating layer relu4
I0919 21:20:21.090785 30693 net.cpp:84] Creating Layer relu4
I0919 21:20:21.090795 30693 net.cpp:406] relu4 <- conv4_sc
I0919 21:20:21.090809 30693 net.cpp:367] relu4 -> conv4_sc (in-place)
I0919 21:20:21.091403 30693 net.cpp:122] Setting up relu4
I0919 21:20:21.091418 30693 net.cpp:129] Top shape: 100 128 16 16 (3276800)
I0919 21:20:21.091423 30693 net.cpp:137] Memory required for data: 328910000
I0919 21:20:21.091429 30693 layer_factory.hpp:77] Creating layer pool2
I0919 21:20:21.091451 30693 net.cpp:84] Creating Layer pool2
I0919 21:20:21.091461 30693 net.cpp:406] pool2 <- conv4_sc
I0919 21:20:21.091481 30693 net.cpp:380] pool2 -> pool2
I0919 21:20:21.091554 30693 net.cpp:122] Setting up pool2
I0919 21:20:21.091568 30693 net.cpp:129] Top shape: 100 128 8 8 (819200)
I0919 21:20:21.091574 30693 net.cpp:137] Memory required for data: 332186800
I0919 21:20:21.091581 30693 layer_factory.hpp:77] Creating layer drop2
I0919 21:20:21.091598 30693 net.cpp:84] Creating Layer drop2
I0919 21:20:21.091608 30693 net.cpp:406] drop2 <- pool2
I0919 21:20:21.091625 30693 net.cpp:367] drop2 -> pool2 (in-place)
I0919 21:20:21.091670 30693 net.cpp:122] Setting up drop2
I0919 21:20:21.091681 30693 net.cpp:129] Top shape: 100 128 8 8 (819200)
I0919 21:20:21.091686 30693 net.cpp:137] Memory required for data: 335463600
I0919 21:20:21.091692 30693 layer_factory.hpp:77] Creating layer conv5
I0919 21:20:21.091717 30693 net.cpp:84] Creating Layer conv5
I0919 21:20:21.091727 30693 net.cpp:406] conv5 <- pool2
I0919 21:20:21.091748 30693 net.cpp:380] conv5 -> conv5
I0919 21:20:21.135905 30693 net.cpp:122] Setting up conv5
I0919 21:20:21.135927 30693 net.cpp:129] Top shape: 100 256 8 8 (1638400)
I0919 21:20:21.135932 30693 net.cpp:137] Memory required for data: 342017200
I0919 21:20:21.135949 30693 layer_factory.hpp:77] Creating layer bn5_bn
I0919 21:20:21.135972 30693 net.cpp:84] Creating Layer bn5_bn
I0919 21:20:21.135982 30693 net.cpp:406] bn5_bn <- conv5
I0919 21:20:21.136000 30693 net.cpp:380] bn5_bn -> conv5_bn
I0919 21:20:21.136250 30693 net.cpp:122] Setting up bn5_bn
I0919 21:20:21.136262 30693 net.cpp:129] Top shape: 100 256 8 8 (1638400)
I0919 21:20:21.136266 30693 net.cpp:137] Memory required for data: 348570800
I0919 21:20:21.136287 30693 layer_factory.hpp:77] Creating layer bn5_scal
I0919 21:20:21.136303 30693 net.cpp:84] Creating Layer bn5_scal
I0919 21:20:21.136312 30693 net.cpp:406] bn5_scal <- conv5_bn
I0919 21:20:21.136327 30693 net.cpp:380] bn5_scal -> conv5_sc
I0919 21:20:21.136399 30693 layer_factory.hpp:77] Creating layer bn5_scal
I0919 21:20:21.136560 30693 net.cpp:122] Setting up bn5_scal
I0919 21:20:21.136574 30693 net.cpp:129] Top shape: 100 256 8 8 (1638400)
I0919 21:20:21.136579 30693 net.cpp:137] Memory required for data: 355124400
I0919 21:20:21.136592 30693 layer_factory.hpp:77] Creating layer relu5
I0919 21:20:21.136606 30693 net.cpp:84] Creating Layer relu5
I0919 21:20:21.136615 30693 net.cpp:406] relu5 <- conv5_sc
I0919 21:20:21.136629 30693 net.cpp:367] relu5 -> conv5_sc (in-place)
I0919 21:20:21.137002 30693 net.cpp:122] Setting up relu5
I0919 21:20:21.137014 30693 net.cpp:129] Top shape: 100 256 8 8 (1638400)
I0919 21:20:21.137019 30693 net.cpp:137] Memory required for data: 361678000
I0919 21:20:21.137025 30693 layer_factory.hpp:77] Creating layer conv6
I0919 21:20:21.137046 30693 net.cpp:84] Creating Layer conv6
I0919 21:20:21.137068 30693 net.cpp:406] conv6 <- conv5_sc
I0919 21:20:21.137090 30693 net.cpp:380] conv6 -> conv6
I0919 21:20:21.214081 30693 net.cpp:122] Setting up conv6
I0919 21:20:21.214113 30693 net.cpp:129] Top shape: 100 256 8 8 (1638400)
I0919 21:20:21.214118 30693 net.cpp:137] Memory required for data: 368231600
I0919 21:20:21.214140 30693 layer_factory.hpp:77] Creating layer bn6_bn
I0919 21:20:21.214179 30693 net.cpp:84] Creating Layer bn6_bn
I0919 21:20:21.214210 30693 net.cpp:406] bn6_bn <- conv6
I0919 21:20:21.214251 30693 net.cpp:380] bn6_bn -> conv6_bn
I0919 21:20:21.214495 30693 net.cpp:122] Setting up bn6_bn
I0919 21:20:21.214510 30693 net.cpp:129] Top shape: 100 256 8 8 (1638400)
I0919 21:20:21.214515 30693 net.cpp:137] Memory required for data: 374785200
I0919 21:20:21.214558 30693 layer_factory.hpp:77] Creating layer bn6_scal
I0919 21:20:21.214577 30693 net.cpp:84] Creating Layer bn6_scal
I0919 21:20:21.214584 30693 net.cpp:406] bn6_scal <- conv6_bn
I0919 21:20:21.214598 30693 net.cpp:380] bn6_scal -> conv6_sc
I0919 21:20:21.214679 30693 layer_factory.hpp:77] Creating layer bn6_scal
I0919 21:20:21.214845 30693 net.cpp:122] Setting up bn6_scal
I0919 21:20:21.214856 30693 net.cpp:129] Top shape: 100 256 8 8 (1638400)
I0919 21:20:21.214860 30693 net.cpp:137] Memory required for data: 381338800
I0919 21:20:21.214874 30693 layer_factory.hpp:77] Creating layer relu6
I0919 21:20:21.214886 30693 net.cpp:84] Creating Layer relu6
I0919 21:20:21.214902 30693 net.cpp:406] relu6 <- conv6_sc
I0919 21:20:21.214915 30693 net.cpp:367] relu6 -> conv6_sc (in-place)
I0919 21:20:21.215468 30693 net.cpp:122] Setting up relu6
I0919 21:20:21.215481 30693 net.cpp:129] Top shape: 100 256 8 8 (1638400)
I0919 21:20:21.215484 30693 net.cpp:137] Memory required for data: 387892400
I0919 21:20:21.215490 30693 layer_factory.hpp:77] Creating layer pool3
I0919 21:20:21.215509 30693 net.cpp:84] Creating Layer pool3
I0919 21:20:21.215517 30693 net.cpp:406] pool3 <- conv6_sc
I0919 21:20:21.215534 30693 net.cpp:380] pool3 -> pool3
I0919 21:20:21.215595 30693 net.cpp:122] Setting up pool3
I0919 21:20:21.215606 30693 net.cpp:129] Top shape: 100 256 4 4 (409600)
I0919 21:20:21.215611 30693 net.cpp:137] Memory required for data: 389530800
I0919 21:20:21.215616 30693 layer_factory.hpp:77] Creating layer drop3
I0919 21:20:21.215631 30693 net.cpp:84] Creating Layer drop3
I0919 21:20:21.215638 30693 net.cpp:406] drop3 <- pool3
I0919 21:20:21.215653 30693 net.cpp:367] drop3 -> pool3 (in-place)
I0919 21:20:21.215689 30693 net.cpp:122] Setting up drop3
I0919 21:20:21.215698 30693 net.cpp:129] Top shape: 100 256 4 4 (409600)
I0919 21:20:21.215703 30693 net.cpp:137] Memory required for data: 391169200
I0919 21:20:21.215708 30693 layer_factory.hpp:77] Creating layer fc7
I0919 21:20:21.215736 30693 net.cpp:84] Creating Layer fc7
I0919 21:20:21.215744 30693 net.cpp:406] fc7 <- pool3
I0919 21:20:21.215761 30693 net.cpp:380] fc7 -> fc7
I0919 21:20:21.484614 30693 net.cpp:122] Setting up fc7
I0919 21:20:21.484663 30693 net.cpp:129] Top shape: 100 512 (51200)
I0919 21:20:21.484666 30693 net.cpp:137] Memory required for data: 391374000
I0919 21:20:21.484704 30693 layer_factory.hpp:77] Creating layer bn7_bn
I0919 21:20:21.484745 30693 net.cpp:84] Creating Layer bn7_bn
I0919 21:20:21.484768 30693 net.cpp:406] bn7_bn <- fc7
I0919 21:20:21.484812 30693 net.cpp:380] bn7_bn -> fc7_bn
I0919 21:20:21.485069 30693 net.cpp:122] Setting up bn7_bn
I0919 21:20:21.485088 30693 net.cpp:129] Top shape: 100 512 (51200)
I0919 21:20:21.485092 30693 net.cpp:137] Memory required for data: 391578800
I0919 21:20:21.485121 30693 layer_factory.hpp:77] Creating layer bn7_scal
I0919 21:20:21.485141 30693 net.cpp:84] Creating Layer bn7_scal
I0919 21:20:21.485148 30693 net.cpp:406] bn7_scal <- fc7_bn
I0919 21:20:21.485163 30693 net.cpp:380] bn7_scal -> fc7_sc
I0919 21:20:21.485244 30693 layer_factory.hpp:77] Creating layer bn7_scal
I0919 21:20:21.485421 30693 net.cpp:122] Setting up bn7_scal
I0919 21:20:21.485433 30693 net.cpp:129] Top shape: 100 512 (51200)
I0919 21:20:21.485448 30693 net.cpp:137] Memory required for data: 391783600
I0919 21:20:21.485477 30693 layer_factory.hpp:77] Creating layer relu7
I0919 21:20:21.485491 30693 net.cpp:84] Creating Layer relu7
I0919 21:20:21.485498 30693 net.cpp:406] relu7 <- fc7_sc
I0919 21:20:21.485512 30693 net.cpp:367] relu7 -> fc7_sc (in-place)
I0919 21:20:21.486130 30693 net.cpp:122] Setting up relu7
I0919 21:20:21.486141 30693 net.cpp:129] Top shape: 100 512 (51200)
I0919 21:20:21.486145 30693 net.cpp:137] Memory required for data: 391988400
I0919 21:20:21.486151 30693 layer_factory.hpp:77] Creating layer drop7
I0919 21:20:21.486166 30693 net.cpp:84] Creating Layer drop7
I0919 21:20:21.486174 30693 net.cpp:406] drop7 <- fc7_sc
I0919 21:20:21.486191 30693 net.cpp:367] drop7 -> fc7_sc (in-place)
I0919 21:20:21.486230 30693 net.cpp:122] Setting up drop7
I0919 21:20:21.486239 30693 net.cpp:129] Top shape: 100 512 (51200)
I0919 21:20:21.486243 30693 net.cpp:137] Memory required for data: 392193200
I0919 21:20:21.486249 30693 layer_factory.hpp:77] Creating layer fc8
I0919 21:20:21.486272 30693 net.cpp:84] Creating Layer fc8
I0919 21:20:21.486281 30693 net.cpp:406] fc8 <- fc7_sc
I0919 21:20:21.486299 30693 net.cpp:380] fc8 -> fc8
I0919 21:20:21.520717 30693 net.cpp:122] Setting up fc8
I0919 21:20:21.520745 30693 net.cpp:129] Top shape: 100 512 (51200)
I0919 21:20:21.520750 30693 net.cpp:137] Memory required for data: 392398000
I0919 21:20:21.520771 30693 layer_factory.hpp:77] Creating layer bn8_bn
I0919 21:20:21.520805 30693 net.cpp:84] Creating Layer bn8_bn
I0919 21:20:21.520817 30693 net.cpp:406] bn8_bn <- fc8
I0919 21:20:21.520846 30693 net.cpp:380] bn8_bn -> fc8_bn
I0919 21:20:21.521100 30693 net.cpp:122] Setting up bn8_bn
I0919 21:20:21.521111 30693 net.cpp:129] Top shape: 100 512 (51200)
I0919 21:20:21.521113 30693 net.cpp:137] Memory required for data: 392602800
I0919 21:20:21.521132 30693 layer_factory.hpp:77] Creating layer bn8_scal
I0919 21:20:21.521157 30693 net.cpp:84] Creating Layer bn8_scal
I0919 21:20:21.521165 30693 net.cpp:406] bn8_scal <- fc8_bn
I0919 21:20:21.521180 30693 net.cpp:380] bn8_scal -> fc8_sc
I0919 21:20:21.521256 30693 layer_factory.hpp:77] Creating layer bn8_scal
I0919 21:20:21.521427 30693 net.cpp:122] Setting up bn8_scal
I0919 21:20:21.521438 30693 net.cpp:129] Top shape: 100 512 (51200)
I0919 21:20:21.521452 30693 net.cpp:137] Memory required for data: 392807600
I0919 21:20:21.521466 30693 layer_factory.hpp:77] Creating layer relu8
I0919 21:20:21.521479 30693 net.cpp:84] Creating Layer relu8
I0919 21:20:21.521486 30693 net.cpp:406] relu8 <- fc8_sc
I0919 21:20:21.521500 30693 net.cpp:367] relu8 -> fc8_sc (in-place)
I0919 21:20:21.521862 30693 net.cpp:122] Setting up relu8
I0919 21:20:21.521872 30693 net.cpp:129] Top shape: 100 512 (51200)
I0919 21:20:21.521886 30693 net.cpp:137] Memory required for data: 393012400
I0919 21:20:21.521893 30693 layer_factory.hpp:77] Creating layer drop8
I0919 21:20:21.521908 30693 net.cpp:84] Creating Layer drop8
I0919 21:20:21.521916 30693 net.cpp:406] drop8 <- fc8_sc
I0919 21:20:21.521930 30693 net.cpp:367] drop8 -> fc8_sc (in-place)
I0919 21:20:21.521968 30693 net.cpp:122] Setting up drop8
I0919 21:20:21.521977 30693 net.cpp:129] Top shape: 100 512 (51200)
I0919 21:20:21.521981 30693 net.cpp:137] Memory required for data: 393217200
I0919 21:20:21.521986 30693 layer_factory.hpp:77] Creating layer fc9
I0919 21:20:21.522007 30693 net.cpp:84] Creating Layer fc9
I0919 21:20:21.522016 30693 net.cpp:406] fc9 <- fc8_sc
I0919 21:20:21.522032 30693 net.cpp:380] fc9 -> fc9
I0919 21:20:21.522927 30693 net.cpp:122] Setting up fc9
I0919 21:20:21.522938 30693 net.cpp:129] Top shape: 100 10 (1000)
I0919 21:20:21.522943 30693 net.cpp:137] Memory required for data: 393221200
I0919 21:20:21.522956 30693 layer_factory.hpp:77] Creating layer fc9_fc9_0_split
I0919 21:20:21.522970 30693 net.cpp:84] Creating Layer fc9_fc9_0_split
I0919 21:20:21.522979 30693 net.cpp:406] fc9_fc9_0_split <- fc9
I0919 21:20:21.522994 30693 net.cpp:380] fc9_fc9_0_split -> fc9_fc9_0_split_0
I0919 21:20:21.523016 30693 net.cpp:380] fc9_fc9_0_split -> fc9_fc9_0_split_1
I0919 21:20:21.523082 30693 net.cpp:122] Setting up fc9_fc9_0_split
I0919 21:20:21.523094 30693 net.cpp:129] Top shape: 100 10 (1000)
I0919 21:20:21.523102 30693 net.cpp:129] Top shape: 100 10 (1000)
I0919 21:20:21.523105 30693 net.cpp:137] Memory required for data: 393229200
I0919 21:20:21.523111 30693 layer_factory.hpp:77] Creating layer accuracy
I0919 21:20:21.523131 30693 net.cpp:84] Creating Layer accuracy
I0919 21:20:21.523139 30693 net.cpp:406] accuracy <- fc9_fc9_0_split_0
I0919 21:20:21.523152 30693 net.cpp:406] accuracy <- label_cifar_1_split_0
I0919 21:20:21.523166 30693 net.cpp:380] accuracy -> accuracy
…
