…
I0903 22:07:08.809940  7962 net.cpp:294] The NetState phase (0) differed from the phase (1) specified by a rule in layer accuracy
I0903 22:07:08.810204  7962 net.cpp:51] Initializing net from parameters: 
name: "CIFAR10_vgg"
state {
  phase: TRAIN
  level: 0
  stage: ""
}
layer {
  name: "cifar"
  type: "Data"
  top: "data"
  top: "label"
  include {
    phase: TRAIN
  }
  transform_param {
    mirror: true
    crop_size: 32
    mean_file: "examples/cifar10/mean.binaryproto"
  }
  data_param {
    source: "examples/cifar10/cifar10_train_lmdb"
    batch_size: 100
    backend: LMDB
  }
}
layer {
  name: "conv1"
  type: "BinaryConvolution"
  bottom: "data"
  top: "conv1"
  param {
    lr_mult: 1
    decay_mult: 1
  }
  convolution_param {
    num_output: 64
    bias_term: false
    pad: 1
    kernel_size: 3
    stride: 1
    weight_filler {
      type: "gaussian"
      std: 0.01
    }
  }
  debug_param {
    xnorno_grad: false
    binary_relax: true
  }
}
layer {
  name: "bn1_bn"
  type: "BatchNorm"
  bottom: "conv1"
  top: "conv1_bn"
}
layer {
  name: "bn1_scal"
  type: "Scale"
  bottom: "conv1_bn"
  top: "conv1_sc"
  scale_param {
    bias_term: true
  }
}
layer {
  name: "relu1"
  type: "ReLU"
  bottom: "conv1_sc"
  top: "conv1_sc"
}
layer {
  name: "conv2"
  type: "BinaryConvolution"
  bottom: "conv1_sc"
  top: "conv2"
  param {
    lr_mult: 1
    decay_mult: 1
  }
  convolution_param {
    num_output: 64
    bias_term: false
    pad: 1
    kernel_size: 3
    stride: 1
    weight_filler {
      type: "gaussian"
      std: 0.01
    }
  }
  debug_param {
    xnorno_grad: false
    binary_relax: true
  }
}
layer {
  name: "bn2_bn"
  type: "BatchNorm"
  bottom: "conv2"
  top: "conv2_bn"
}
layer {
  name: "bn2_scal"
  type: "Scale"
  bottom: "conv2_bn"
  top: "conv2_sc"
  scale_param {
    bias_term: true
  }
}
layer {
  name: "relu2"
  type: "ReLU"
  bottom: "conv2_sc"
  top: "conv2_sc"
}
layer {
  name: "pool1"
  type: "Pooling"
  bottom: "conv2_sc"
  top: "pool1"
  pooling_param {
    pool: MAX
    kernel_size: 2
    stride: 2
  }
}
layer {
  name: "drop1"
  type: "Dropout"
  bottom: "pool1"
  top: "pool1"
  dropout_param {
    dropout_ratio: 0.25
  }
}
layer {
  name: "conv3"
  type: "BinaryConvolution"
  bottom: "pool1"
  top: "conv3"
  param {
    lr_mult: 1
    decay_mult: 1
  }
  convolution_param {
    num_output: 128
    bias_term: false
    pad: 1
    kernel_size: 3
    stride: 1
    weight_filler {
      type: "gaussian"
      std: 0.01
    }
  }
  debug_param {
    xnorno_grad: false
    binary_relax: true
  }
}
layer {
  name: "bn3_bn"
  type: "BatchNorm"
  bottom: "conv3"
  top: "conv3_bn"
}
layer {
  name: "bn3_scal"
  type: "Scale"
  bottom: "conv3_bn"
  top: "conv3_sc"
  scale_param {
    bias_term: true
  }
}
layer {
  name: "relu3"
  type: "ReLU"
  bottom: "conv3_sc"
  top: "conv3_sc"
}
layer {
  name: "conv4"
  type: "BinaryConvolution"
  bottom: "conv3_sc"
  top: "conv4"
  param {
    lr_mult: 1
    decay_mult: 1
  }
  convolution_param {
    num_output: 128
    bias_term: false
    pad: 1
    kernel_size: 3
    stride: 1
    weight_filler {
      type: "gaussian"
      std: 0.01
    }
  }
  debug_param {
    xnorno_grad: false
    binary_relax: true
  }
}
layer {
  name: "bn4_bn"
  type: "BatchNorm"
  bottom: "conv4"
  top: "conv4_bn"
}
layer {
  name: "bn4_scal"
  type: "Scale"
  bottom: "conv4_bn"
  top: "conv4_sc"
  scale_param {
    bias_term: true
  }
}
layer {
  name: "relu4"
  type: "ReLU"
  bottom: "conv4_sc"
  top: "conv4_sc"
}
layer {
  name: "pool2"
  type: "Pooling"
  bottom: "conv4_sc"
  top: "pool2"
  pooling_param {
    pool: MAX
    kernel_size: 2
    stride: 2
  }
}
layer {
  name: "drop2"
  type: "Dropout"
  bottom: "pool2"
  top: "pool2"
  dropout_param {
    dropout_ratio: 0.25
  }
}
layer {
  name: "conv5"
  type: "BinaryConvolution"
  bottom: "pool2"
  top: "conv5"
  param {
    lr_mult: 1
    decay_mult: 1
  }
  convolution_param {
    num_output: 256
    bias_term: false
    pad: 1
    kernel_size: 3
    stride: 1
    weight_filler {
      type: "gaussian"
      std: 0.01
    }
  }
  debug_param {
    xnorno_grad: false
    binary_relax: true
  }
}
layer {
  name: "bn5_bn"
  type: "BatchNorm"
  bottom: "conv5"
  top: "conv5_bn"
}
layer {
  name: "bn5_scal"
  type: "Scale"
  bottom: "conv5_bn"
  top: "conv5_sc"
  scale_param {
    bias_term: true
  }
}
layer {
  name: "relu5"
  type: "ReLU"
  bottom: "conv5_sc"
  top: "conv5_sc"
}
layer {
  name: "conv6"
  type: "BinaryConvolution"
  bottom: "conv5_sc"
  top: "conv6"
  param {
    lr_mult: 1
    decay_mult: 1
  }
  convolution_param {
    num_output: 256
    bias_term: false
    pad: 1
    kernel_size: 3
    stride: 1
    weight_filler {
      type: "gaussian"
      std: 0.01
    }
  }
  debug_param {
    xnorno_grad: false
    binary_relax: true
  }
}
layer {
  name: "bn6_bn"
  type: "BatchNorm"
  bottom: "conv6"
  top: "conv6_bn"
}
layer {
  name: "bn6_scal"
  type: "Scale"
  bottom: "conv6_bn"
  top: "conv6_sc"
  scale_param {
    bias_term: true
  }
}
layer {
  name: "relu6"
  type: "ReLU"
  bottom: "conv6_sc"
  top: "conv6_sc"
}
layer {
  name: "pool3"
  type: "Pooling"
  bottom: "conv6_sc"
  top: "pool3"
  pooling_param {
    pool: MAX
    kernel_size: 2
    stride: 2
  }
}
layer {
  name: "drop3"
  type: "Dropout"
  bottom: "pool3"
  top: "pool3"
  dropout_param {
    dropout_ratio: 0.25
  }
}
layer {
  name: "fc7"
  type: "BinaryInnerProduct"
  bottom: "pool3"
  top: "fc7"
  param {
    lr_mult: 1
    decay_mult: 1
  }
  inner_product_param {
    num_output: 512
    bias_term: false
    weight_filler {
      type: "gaussian"
      std: 0.01
    }
  }
  debug_param {
    xnorno_grad: false
    binary_relax: true
  }
}
layer {
  name: "bn7_bn"
  type: "BatchNorm"
  bottom: "fc7"
  top: "fc7_bn"
}
layer {
  name: "bn7_scal"
  type: "Scale"
  bottom: "fc7_bn"
  top: "fc7_sc"
  scale_param {
    bias_term: true
  }
}
layer {
  name: "relu7"
  type: "ReLU"
  bottom: "fc7_sc"
  top: "fc7_sc"
}
layer {
  name: "drop7"
  type: "Dropout"
  bottom: "fc7_sc"
  top: "fc7_sc"
  dropout_param {
    dropout_ratio: 0.5
  }
}
layer {
  name: "fc8"
  type: "BinaryInnerProduct"
  bottom: "fc7_sc"
  top: "fc8"
  param {
    lr_mult: 1
    decay_mult: 1
  }
  inner_product_param {
    num_output: 512
    bias_term: false
    weight_filler {
      type: "gaussian"
      std: 0.01
    }
  }
  debug_param {
    xnorno_grad: false
    binary_relax: true
  }
}
layer {
  name: "bn8_bn"
  type: "BatchNorm"
  bottom: "fc8"
  top: "fc8_bn"
}
layer {
  name: "bn8_scal"
  type: "Scale"
  bottom: "fc8_bn"
  top: "fc8_sc"
  scale_param {
    bias_term: true
  }
}
layer {
  name: "relu8"
  type: "ReLU"
  bottom: "fc8_sc"
  top: "fc8_sc"
}
layer {
  name: "drop8"
  type: "Dropout"
  bottom: "fc8_sc"
  top: "fc8_sc"
  dropout_param {
    dropout_ratio: 0.5
  }
}
layer {
  name: "fc9"
  type: "BinaryInnerProduct"
  bottom: "fc8_sc"
  top: "fc9"
  param {
    lr_mult: 1
    decay_mult: 1
  }
  param {
    lr_mult: 2
    decay_mult: 0
  }
  inner_product_param {
    num_output: 10
    weight_filler {
      type: "gaussian"
      std: 0.01
    }
    bias_filler {
      type: "constant"
      value: 0.01
    }
  }
  debug_param {
    xnorno_grad: false
    binary_relax: true
  }
}
layer {
  name: "loss"
  type: "SoftmaxWithLoss"
  bottom: "fc9"
  bottom: "label"
  top: "loss"
}
I0903 22:07:08.810845  7962 layer_factory.hpp:77] Creating layer cifar
I0903 22:07:08.811019  7962 db_lmdb.cpp:35] Opened lmdb examples/cifar10/cifar10_train_lmdb
I0903 22:07:08.811069  7962 net.cpp:84] Creating Layer cifar
I0903 22:07:08.811094  7962 net.cpp:380] cifar -> data
I0903 22:07:08.811211  7962 net.cpp:380] cifar -> label
I0903 22:07:08.811250  7962 data_transformer.cpp:25] Loading mean file from: examples/cifar10/mean.binaryproto
I0903 22:07:08.812472  7962 data_layer.cpp:45] output data size: 100,3,32,32
I0903 22:07:08.815275  7962 base_data_layer.cpp:72] Initializing prefetch
I0903 22:07:08.815387  7962 base_data_layer.cpp:75] Prefetch initialized.
I0903 22:07:08.815397  7962 net.cpp:122] Setting up cifar
I0903 22:07:08.815429  7962 net.cpp:129] Top shape: 100 3 32 32 (307200)
I0903 22:07:08.815438  7962 net.cpp:129] Top shape: 100 (100)
I0903 22:07:08.815443  7962 net.cpp:137] Memory required for data: 1229200
I0903 22:07:08.815465  7962 layer_factory.hpp:77] Creating layer conv1
I0903 22:07:08.815521  7962 net.cpp:84] Creating Layer conv1
I0903 22:07:08.815541  7962 net.cpp:406] conv1 <- data
I0903 22:07:08.815591  7962 net.cpp:380] conv1 -> conv1
I0903 22:07:08.816203  7962 net.cpp:122] Setting up conv1
I0903 22:07:08.816218  7962 net.cpp:129] Top shape: 100 64 32 32 (6553600)
I0903 22:07:08.816223  7962 net.cpp:137] Memory required for data: 27443600
I0903 22:07:08.816272  7962 layer_factory.hpp:77] Creating layer bn1_bn
I0903 22:07:08.816296  7962 net.cpp:84] Creating Layer bn1_bn
I0903 22:07:08.816305  7962 net.cpp:406] bn1_bn <- conv1
I0903 22:07:08.816323  7962 net.cpp:380] bn1_bn -> conv1_bn
I0903 22:07:08.816895  7962 net.cpp:122] Setting up bn1_bn
I0903 22:07:08.816915  7962 net.cpp:129] Top shape: 100 64 32 32 (6553600)
I0903 22:07:08.816920  7962 net.cpp:137] Memory required for data: 53658000
I0903 22:07:08.816960  7962 layer_factory.hpp:77] Creating layer bn1_scal
I0903 22:07:08.816985  7962 net.cpp:84] Creating Layer bn1_scal
I0903 22:07:08.816995  7962 net.cpp:406] bn1_scal <- conv1_bn
I0903 22:07:08.817018  7962 net.cpp:380] bn1_scal -> conv1_sc
I0903 22:07:08.817098  7962 layer_factory.hpp:77] Creating layer bn1_scal
I0903 22:07:08.817248  7962 net.cpp:122] Setting up bn1_scal
I0903 22:07:08.817263  7962 net.cpp:129] Top shape: 100 64 32 32 (6553600)
I0903 22:07:08.817273  7962 net.cpp:137] Memory required for data: 79872400
I0903 22:07:08.817297  7962 layer_factory.hpp:77] Creating layer relu1
I0903 22:07:08.817323  7962 net.cpp:84] Creating Layer relu1
I0903 22:07:08.817332  7962 net.cpp:406] relu1 <- conv1_sc
I0903 22:07:08.817349  7962 net.cpp:367] relu1 -> conv1_sc (in-place)
I0903 22:07:09.175062  7962 net.cpp:122] Setting up relu1
I0903 22:07:09.175097  7962 net.cpp:129] Top shape: 100 64 32 32 (6553600)
I0903 22:07:09.175102  7962 net.cpp:137] Memory required for data: 106086800
I0903 22:07:09.175119  7962 layer_factory.hpp:77] Creating layer conv2
I0903 22:07:09.175202  7962 net.cpp:84] Creating Layer conv2
I0903 22:07:09.175227  7962 net.cpp:406] conv2 <- conv1_sc
I0903 22:07:09.175274  7962 net.cpp:380] conv2 -> conv2
I0903 22:07:09.180474  7962 net.cpp:122] Setting up conv2
I0903 22:07:09.180500  7962 net.cpp:129] Top shape: 100 64 32 32 (6553600)
I0903 22:07:09.180505  7962 net.cpp:137] Memory required for data: 132301200
I0903 22:07:09.180519  7962 layer_factory.hpp:77] Creating layer bn2_bn
I0903 22:07:09.180552  7962 net.cpp:84] Creating Layer bn2_bn
I0903 22:07:09.180559  7962 net.cpp:406] bn2_bn <- conv2
I0903 22:07:09.180591  7962 net.cpp:380] bn2_bn -> conv2_bn
I0903 22:07:09.180827  7962 net.cpp:122] Setting up bn2_bn
I0903 22:07:09.180838  7962 net.cpp:129] Top shape: 100 64 32 32 (6553600)
I0903 22:07:09.180842  7962 net.cpp:137] Memory required for data: 158515600
I0903 22:07:09.180881  7962 layer_factory.hpp:77] Creating layer bn2_scal
I0903 22:07:09.180902  7962 net.cpp:84] Creating Layer bn2_scal
I0903 22:07:09.180929  7962 net.cpp:406] bn2_scal <- conv2_bn
I0903 22:07:09.180945  7962 net.cpp:380] bn2_scal -> conv2_sc
I0903 22:07:09.181026  7962 layer_factory.hpp:77] Creating layer bn2_scal
I0903 22:07:09.181188  7962 net.cpp:122] Setting up bn2_scal
I0903 22:07:09.181200  7962 net.cpp:129] Top shape: 100 64 32 32 (6553600)
I0903 22:07:09.181215  7962 net.cpp:137] Memory required for data: 184730000
I0903 22:07:09.181237  7962 layer_factory.hpp:77] Creating layer relu2
I0903 22:07:09.181257  7962 net.cpp:84] Creating Layer relu2
I0903 22:07:09.181265  7962 net.cpp:406] relu2 <- conv2_sc
I0903 22:07:09.181288  7962 net.cpp:367] relu2 -> conv2_sc (in-place)
I0903 22:07:09.181604  7962 net.cpp:122] Setting up relu2
I0903 22:07:09.181614  7962 net.cpp:129] Top shape: 100 64 32 32 (6553600)
I0903 22:07:09.181627  7962 net.cpp:137] Memory required for data: 210944400
I0903 22:07:09.181634  7962 layer_factory.hpp:77] Creating layer pool1
I0903 22:07:09.181658  7962 net.cpp:84] Creating Layer pool1
I0903 22:07:09.181675  7962 net.cpp:406] pool1 <- conv2_sc
I0903 22:07:09.181691  7962 net.cpp:380] pool1 -> pool1
I0903 22:07:09.181780  7962 net.cpp:122] Setting up pool1
I0903 22:07:09.181792  7962 net.cpp:129] Top shape: 100 64 16 16 (1638400)
I0903 22:07:09.181797  7962 net.cpp:137] Memory required for data: 217498000
I0903 22:07:09.181803  7962 layer_factory.hpp:77] Creating layer drop1
I0903 22:07:09.181823  7962 net.cpp:84] Creating Layer drop1
I0903 22:07:09.181830  7962 net.cpp:406] drop1 <- pool1
I0903 22:07:09.181844  7962 net.cpp:367] drop1 -> pool1 (in-place)
I0903 22:07:09.181900  7962 net.cpp:122] Setting up drop1
I0903 22:07:09.181908  7962 net.cpp:129] Top shape: 100 64 16 16 (1638400)
I0903 22:07:09.181921  7962 net.cpp:137] Memory required for data: 224051600
I0903 22:07:09.181928  7962 layer_factory.hpp:77] Creating layer conv3
I0903 22:07:09.181946  7962 net.cpp:84] Creating Layer conv3
I0903 22:07:09.181954  7962 net.cpp:406] conv3 <- pool1
I0903 22:07:09.181972  7962 net.cpp:380] conv3 -> conv3
I0903 22:07:09.192194  7962 net.cpp:122] Setting up conv3
I0903 22:07:09.192219  7962 net.cpp:129] Top shape: 100 128 16 16 (3276800)
I0903 22:07:09.192224  7962 net.cpp:137] Memory required for data: 237158800
I0903 22:07:09.192241  7962 layer_factory.hpp:77] Creating layer bn3_bn
I0903 22:07:09.192263  7962 net.cpp:84] Creating Layer bn3_bn
I0903 22:07:09.192273  7962 net.cpp:406] bn3_bn <- conv3
I0903 22:07:09.192293  7962 net.cpp:380] bn3_bn -> conv3_bn
I0903 22:07:09.192524  7962 net.cpp:122] Setting up bn3_bn
I0903 22:07:09.192535  7962 net.cpp:129] Top shape: 100 128 16 16 (3276800)
I0903 22:07:09.192539  7962 net.cpp:137] Memory required for data: 250266000
I0903 22:07:09.192559  7962 layer_factory.hpp:77] Creating layer bn3_scal
I0903 22:07:09.192574  7962 net.cpp:84] Creating Layer bn3_scal
I0903 22:07:09.192584  7962 net.cpp:406] bn3_scal <- conv3_bn
I0903 22:07:09.192597  7962 net.cpp:380] bn3_scal -> conv3_sc
I0903 22:07:09.192664  7962 layer_factory.hpp:77] Creating layer bn3_scal
I0903 22:07:09.192814  7962 net.cpp:122] Setting up bn3_scal
I0903 22:07:09.192826  7962 net.cpp:129] Top shape: 100 128 16 16 (3276800)
I0903 22:07:09.192831  7962 net.cpp:137] Memory required for data: 263373200
I0903 22:07:09.192855  7962 layer_factory.hpp:77] Creating layer relu3
I0903 22:07:09.192870  7962 net.cpp:84] Creating Layer relu3
I0903 22:07:09.192878  7962 net.cpp:406] relu3 <- conv3_sc
I0903 22:07:09.192893  7962 net.cpp:367] relu3 -> conv3_sc (in-place)
I0903 22:07:09.193437  7962 net.cpp:122] Setting up relu3
I0903 22:07:09.193449  7962 net.cpp:129] Top shape: 100 128 16 16 (3276800)
I0903 22:07:09.193454  7962 net.cpp:137] Memory required for data: 276480400
I0903 22:07:09.193459  7962 layer_factory.hpp:77] Creating layer conv4
I0903 22:07:09.193485  7962 net.cpp:84] Creating Layer conv4
I0903 22:07:09.193493  7962 net.cpp:406] conv4 <- conv3_sc
I0903 22:07:09.193512  7962 net.cpp:380] conv4 -> conv4
I0903 22:07:09.212715  7962 net.cpp:122] Setting up conv4
I0903 22:07:09.212738  7962 net.cpp:129] Top shape: 100 128 16 16 (3276800)
I0903 22:07:09.212754  7962 net.cpp:137] Memory required for data: 289587600
I0903 22:07:09.212780  7962 layer_factory.hpp:77] Creating layer bn4_bn
I0903 22:07:09.212833  7962 net.cpp:84] Creating Layer bn4_bn
I0903 22:07:09.212844  7962 net.cpp:406] bn4_bn <- conv4
I0903 22:07:09.212862  7962 net.cpp:380] bn4_bn -> conv4_bn
I0903 22:07:09.213088  7962 net.cpp:122] Setting up bn4_bn
I0903 22:07:09.213099  7962 net.cpp:129] Top shape: 100 128 16 16 (3276800)
I0903 22:07:09.213104  7962 net.cpp:137] Memory required for data: 302694800
I0903 22:07:09.213121  7962 layer_factory.hpp:77] Creating layer bn4_scal
I0903 22:07:09.213145  7962 net.cpp:84] Creating Layer bn4_scal
I0903 22:07:09.213153  7962 net.cpp:406] bn4_scal <- conv4_bn
I0903 22:07:09.213167  7962 net.cpp:380] bn4_scal -> conv4_sc
I0903 22:07:09.213259  7962 layer_factory.hpp:77] Creating layer bn4_scal
I0903 22:07:09.213419  7962 net.cpp:122] Setting up bn4_scal
I0903 22:07:09.213430  7962 net.cpp:129] Top shape: 100 128 16 16 (3276800)
I0903 22:07:09.213433  7962 net.cpp:137] Memory required for data: 315802000
I0903 22:07:09.213446  7962 layer_factory.hpp:77] Creating layer relu4
I0903 22:07:09.213457  7962 net.cpp:84] Creating Layer relu4
I0903 22:07:09.213474  7962 net.cpp:406] relu4 <- conv4_sc
I0903 22:07:09.213487  7962 net.cpp:367] relu4 -> conv4_sc (in-place)
I0903 22:07:09.213902  7962 net.cpp:122] Setting up relu4
I0903 22:07:09.213913  7962 net.cpp:129] Top shape: 100 128 16 16 (3276800)
I0903 22:07:09.213917  7962 net.cpp:137] Memory required for data: 328909200
I0903 22:07:09.213923  7962 layer_factory.hpp:77] Creating layer pool2
I0903 22:07:09.213941  7962 net.cpp:84] Creating Layer pool2
I0903 22:07:09.213949  7962 net.cpp:406] pool2 <- conv4_sc
I0903 22:07:09.213966  7962 net.cpp:380] pool2 -> pool2
I0903 22:07:09.214023  7962 net.cpp:122] Setting up pool2
I0903 22:07:09.214036  7962 net.cpp:129] Top shape: 100 128 8 8 (819200)
I0903 22:07:09.214041  7962 net.cpp:137] Memory required for data: 332186000
I0903 22:07:09.214046  7962 layer_factory.hpp:77] Creating layer drop2
I0903 22:07:09.214061  7962 net.cpp:84] Creating Layer drop2
I0903 22:07:09.214068  7962 net.cpp:406] drop2 <- pool2
I0903 22:07:09.214082  7962 net.cpp:367] drop2 -> pool2 (in-place)
I0903 22:07:09.214118  7962 net.cpp:122] Setting up drop2
I0903 22:07:09.214128  7962 net.cpp:129] Top shape: 100 128 8 8 (819200)
I0903 22:07:09.214131  7962 net.cpp:137] Memory required for data: 335462800
I0903 22:07:09.214138  7962 layer_factory.hpp:77] Creating layer conv5
I0903 22:07:09.214169  7962 net.cpp:84] Creating Layer conv5
I0903 22:07:09.214177  7962 net.cpp:406] conv5 <- pool2
I0903 22:07:09.214196  7962 net.cpp:380] conv5 -> conv5
I0903 22:07:09.251803  7962 net.cpp:122] Setting up conv5
I0903 22:07:09.251829  7962 net.cpp:129] Top shape: 100 256 8 8 (1638400)
I0903 22:07:09.251842  7962 net.cpp:137] Memory required for data: 342016400
I0903 22:07:09.251871  7962 layer_factory.hpp:77] Creating layer bn5_bn
I0903 22:07:09.251904  7962 net.cpp:84] Creating Layer bn5_bn
I0903 22:07:09.251916  7962 net.cpp:406] bn5_bn <- conv5
I0903 22:07:09.251937  7962 net.cpp:380] bn5_bn -> conv5_bn
I0903 22:07:09.252169  7962 net.cpp:122] Setting up bn5_bn
I0903 22:07:09.252182  7962 net.cpp:129] Top shape: 100 256 8 8 (1638400)
I0903 22:07:09.252194  7962 net.cpp:137] Memory required for data: 348570000
I0903 22:07:09.252213  7962 layer_factory.hpp:77] Creating layer bn5_scal
I0903 22:07:09.252231  7962 net.cpp:84] Creating Layer bn5_scal
I0903 22:07:09.252239  7962 net.cpp:406] bn5_scal <- conv5_bn
I0903 22:07:09.252254  7962 net.cpp:380] bn5_scal -> conv5_sc
I0903 22:07:09.252329  7962 layer_factory.hpp:77] Creating layer bn5_scal
I0903 22:07:09.252496  7962 net.cpp:122] Setting up bn5_scal
I0903 22:07:09.252506  7962 net.cpp:129] Top shape: 100 256 8 8 (1638400)
I0903 22:07:09.252521  7962 net.cpp:137] Memory required for data: 355123600
I0903 22:07:09.252534  7962 layer_factory.hpp:77] Creating layer relu5
I0903 22:07:09.252547  7962 net.cpp:84] Creating Layer relu5
I0903 22:07:09.252566  7962 net.cpp:406] relu5 <- conv5_sc
I0903 22:07:09.252583  7962 net.cpp:367] relu5 -> conv5_sc (in-place)
I0903 22:07:09.253137  7962 net.cpp:122] Setting up relu5
I0903 22:07:09.253149  7962 net.cpp:129] Top shape: 100 256 8 8 (1638400)
I0903 22:07:09.253154  7962 net.cpp:137] Memory required for data: 361677200
I0903 22:07:09.253159  7962 layer_factory.hpp:77] Creating layer conv6
I0903 22:07:09.253185  7962 net.cpp:84] Creating Layer conv6
I0903 22:07:09.253201  7962 net.cpp:406] conv6 <- conv5_sc
I0903 22:07:09.253232  7962 net.cpp:380] conv6 -> conv6
I0903 22:07:09.326719  7962 net.cpp:122] Setting up conv6
I0903 22:07:09.326752  7962 net.cpp:129] Top shape: 100 256 8 8 (1638400)
I0903 22:07:09.326766  7962 net.cpp:137] Memory required for data: 368230800
I0903 22:07:09.326788  7962 layer_factory.hpp:77] Creating layer bn6_bn
I0903 22:07:09.326817  7962 net.cpp:84] Creating Layer bn6_bn
I0903 22:07:09.326848  7962 net.cpp:406] bn6_bn <- conv6
I0903 22:07:09.326871  7962 net.cpp:380] bn6_bn -> conv6_bn
I0903 22:07:09.327116  7962 net.cpp:122] Setting up bn6_bn
I0903 22:07:09.327126  7962 net.cpp:129] Top shape: 100 256 8 8 (1638400)
I0903 22:07:09.327139  7962 net.cpp:137] Memory required for data: 374784400
I0903 22:07:09.327173  7962 layer_factory.hpp:77] Creating layer bn6_scal
I0903 22:07:09.327213  7962 net.cpp:84] Creating Layer bn6_scal
I0903 22:07:09.327220  7962 net.cpp:406] bn6_scal <- conv6_bn
I0903 22:07:09.327245  7962 net.cpp:380] bn6_scal -> conv6_sc
I0903 22:07:09.327356  7962 layer_factory.hpp:77] Creating layer bn6_scal
I0903 22:07:09.327548  7962 net.cpp:122] Setting up bn6_scal
I0903 22:07:09.327558  7962 net.cpp:129] Top shape: 100 256 8 8 (1638400)
I0903 22:07:09.327572  7962 net.cpp:137] Memory required for data: 381338000
I0903 22:07:09.327595  7962 layer_factory.hpp:77] Creating layer relu6
I0903 22:07:09.327610  7962 net.cpp:84] Creating Layer relu6
I0903 22:07:09.327620  7962 net.cpp:406] relu6 <- conv6_sc
I0903 22:07:09.327632  7962 net.cpp:367] relu6 -> conv6_sc (in-place)
I0903 22:07:09.328241  7962 net.cpp:122] Setting up relu6
I0903 22:07:09.328253  7962 net.cpp:129] Top shape: 100 256 8 8 (1638400)
I0903 22:07:09.328258  7962 net.cpp:137] Memory required for data: 387891600
I0903 22:07:09.328263  7962 layer_factory.hpp:77] Creating layer pool3
I0903 22:07:09.328284  7962 net.cpp:84] Creating Layer pool3
I0903 22:07:09.328294  7962 net.cpp:406] pool3 <- conv6_sc
I0903 22:07:09.328310  7962 net.cpp:380] pool3 -> pool3
I0903 22:07:09.328374  7962 net.cpp:122] Setting up pool3
I0903 22:07:09.328387  7962 net.cpp:129] Top shape: 100 256 4 4 (409600)
I0903 22:07:09.328392  7962 net.cpp:137] Memory required for data: 389530000
I0903 22:07:09.328397  7962 layer_factory.hpp:77] Creating layer drop3
I0903 22:07:09.328413  7962 net.cpp:84] Creating Layer drop3
I0903 22:07:09.328420  7962 net.cpp:406] drop3 <- pool3
I0903 22:07:09.328436  7962 net.cpp:367] drop3 -> pool3 (in-place)
I0903 22:07:09.328474  7962 net.cpp:122] Setting up drop3
I0903 22:07:09.328483  7962 net.cpp:129] Top shape: 100 256 4 4 (409600)
I0903 22:07:09.328488  7962 net.cpp:137] Memory required for data: 391168400
I0903 22:07:09.328493  7962 layer_factory.hpp:77] Creating layer fc7
I0903 22:07:09.328522  7962 net.cpp:84] Creating Layer fc7
I0903 22:07:09.328531  7962 net.cpp:406] fc7 <- pool3
I0903 22:07:09.328549  7962 net.cpp:380] fc7 -> fc7
I0903 22:07:09.587615  7962 net.cpp:122] Setting up fc7
I0903 22:07:09.587659  7962 net.cpp:129] Top shape: 100 512 (51200)
I0903 22:07:09.587664  7962 net.cpp:137] Memory required for data: 391373200
I0903 22:07:09.587709  7962 layer_factory.hpp:77] Creating layer bn7_bn
I0903 22:07:09.587754  7962 net.cpp:84] Creating Layer bn7_bn
I0903 22:07:09.587787  7962 net.cpp:406] bn7_bn <- fc7
I0903 22:07:09.587812  7962 net.cpp:380] bn7_bn -> fc7_bn
I0903 22:07:09.588052  7962 net.cpp:122] Setting up bn7_bn
I0903 22:07:09.588064  7962 net.cpp:129] Top shape: 100 512 (51200)
I0903 22:07:09.588076  7962 net.cpp:137] Memory required for data: 391578000
I0903 22:07:09.588119  7962 layer_factory.hpp:77] Creating layer bn7_scal
I0903 22:07:09.588138  7962 net.cpp:84] Creating Layer bn7_scal
I0903 22:07:09.588156  7962 net.cpp:406] bn7_scal <- fc7_bn
I0903 22:07:09.588184  7962 net.cpp:380] bn7_scal -> fc7_sc
I0903 22:07:09.588275  7962 layer_factory.hpp:77] Creating layer bn7_scal
I0903 22:07:09.588469  7962 net.cpp:122] Setting up bn7_scal
I0903 22:07:09.588479  7962 net.cpp:129] Top shape: 100 512 (51200)
I0903 22:07:09.588493  7962 net.cpp:137] Memory required for data: 391782800
I0903 22:07:09.588516  7962 layer_factory.hpp:77] Creating layer relu7
I0903 22:07:09.588531  7962 net.cpp:84] Creating Layer relu7
I0903 22:07:09.588538  7962 net.cpp:406] relu7 <- fc7_sc
I0903 22:07:09.588551  7962 net.cpp:367] relu7 -> fc7_sc (in-place)
I0903 22:07:09.588968  7962 net.cpp:122] Setting up relu7
I0903 22:07:09.588977  7962 net.cpp:129] Top shape: 100 512 (51200)
I0903 22:07:09.588982  7962 net.cpp:137] Memory required for data: 391987600
I0903 22:07:09.588989  7962 layer_factory.hpp:77] Creating layer drop7
I0903 22:07:09.589006  7962 net.cpp:84] Creating Layer drop7
I0903 22:07:09.589015  7962 net.cpp:406] drop7 <- fc7_sc
I0903 22:07:09.589030  7962 net.cpp:367] drop7 -> fc7_sc (in-place)
I0903 22:07:09.589071  7962 net.cpp:122] Setting up drop7
I0903 22:07:09.589079  7962 net.cpp:129] Top shape: 100 512 (51200)
I0903 22:07:09.589084  7962 net.cpp:137] Memory required for data: 392192400
I0903 22:07:09.589090  7962 layer_factory.hpp:77] Creating layer fc8
I0903 22:07:09.589114  7962 net.cpp:84] Creating Layer fc8
I0903 22:07:09.589123  7962 net.cpp:406] fc8 <- fc7_sc
I0903 22:07:09.589143  7962 net.cpp:380] fc8 -> fc8
I0903 22:07:09.623178  7962 net.cpp:122] Setting up fc8
I0903 22:07:09.623204  7962 net.cpp:129] Top shape: 100 512 (51200)
I0903 22:07:09.623209  7962 net.cpp:137] Memory required for data: 392397200
I0903 22:07:09.623227  7962 layer_factory.hpp:77] Creating layer bn8_bn
I0903 22:07:09.623250  7962 net.cpp:84] Creating Layer bn8_bn
I0903 22:07:09.623261  7962 net.cpp:406] bn8_bn <- fc8
I0903 22:07:09.623283  7962 net.cpp:380] bn8_bn -> fc8_bn
I0903 22:07:09.623510  7962 net.cpp:122] Setting up bn8_bn
I0903 22:07:09.623522  7962 net.cpp:129] Top shape: 100 512 (51200)
I0903 22:07:09.623525  7962 net.cpp:137] Memory required for data: 392602000
I0903 22:07:09.623554  7962 layer_factory.hpp:77] Creating layer bn8_scal
I0903 22:07:09.623572  7962 net.cpp:84] Creating Layer bn8_scal
I0903 22:07:09.623580  7962 net.cpp:406] bn8_scal <- fc8_bn
I0903 22:07:09.623597  7962 net.cpp:380] bn8_scal -> fc8_sc
I0903 22:07:09.623697  7962 layer_factory.hpp:77] Creating layer bn8_scal
I0903 22:07:09.623868  7962 net.cpp:122] Setting up bn8_scal
I0903 22:07:09.623880  7962 net.cpp:129] Top shape: 100 512 (51200)
I0903 22:07:09.623895  7962 net.cpp:137] Memory required for data: 392806800
I0903 22:07:09.623908  7962 layer_factory.hpp:77] Creating layer relu8
I0903 22:07:09.623924  7962 net.cpp:84] Creating Layer relu8
I0903 22:07:09.623931  7962 net.cpp:406] relu8 <- fc8_sc
I0903 22:07:09.623945  7962 net.cpp:367] relu8 -> fc8_sc (in-place)
I0903 22:07:09.624523  7962 net.cpp:122] Setting up relu8
I0903 22:07:09.624536  7962 net.cpp:129] Top shape: 100 512 (51200)
I0903 22:07:09.624539  7962 net.cpp:137] Memory required for data: 393011600
I0903 22:07:09.624545  7962 layer_factory.hpp:77] Creating layer drop8
I0903 22:07:09.624572  7962 net.cpp:84] Creating Layer drop8
I0903 22:07:09.624581  7962 net.cpp:406] drop8 <- fc8_sc
I0903 22:07:09.624614  7962 net.cpp:367] drop8 -> fc8_sc (in-place)
I0903 22:07:09.624655  7962 net.cpp:122] Setting up drop8
I0903 22:07:09.624665  7962 net.cpp:129] Top shape: 100 512 (51200)
I0903 22:07:09.624668  7962 net.cpp:137] Memory required for data: 393216400
I0903 22:07:09.624675  7962 layer_factory.hpp:77] Creating layer fc9
I0903 22:07:09.624698  7962 net.cpp:84] Creating Layer fc9
I0903 22:07:09.624707  7962 net.cpp:406] fc9 <- fc8_sc
I0903 22:07:09.624727  7962 net.cpp:380] fc9 -> fc9
I0903 22:07:09.625970  7962 net.cpp:122] Setting up fc9
I0903 22:07:09.625995  7962 net.cpp:129] Top shape: 100 10 (1000)
I0903 22:07:09.626001  7962 net.cpp:137] Memory required for data: 393220400
I0903 22:07:09.626015  7962 layer_factory.hpp:77] Creating layer loss
I0903 22:07:09.626036  7962 net.cpp:84] Creating Layer loss
I0903 22:07:09.626045  7962 net.cpp:406] loss <- fc9
I0903 22:07:09.626058  7962 net.cpp:406] loss <- label
I0903 22:07:09.626075  7962 net.cpp:380] loss -> loss
I0903 22:07:09.626097  7962 layer_factory.hpp:77] Creating layer loss
…
I0903 22:07:09.697223  7962 net.cpp:294] The NetState phase (1) differed from the phase (0) specified by a rule in layer cifar
I0903 22:07:09.697456  7962 net.cpp:51] Initializing net from parameters: 
name: "CIFAR10_vgg"
state {
  phase: TEST
}
layer {
  name: "cifar"
  type: "Data"
  top: "data"
  top: "label"
  include {
    phase: TEST
  }
  transform_param {
    mirror: false
    crop_size: 32
    mean_file: "examples/cifar10/mean.binaryproto"
  }
  data_param {
    source: "examples/cifar10/cifar10_test_lmdb"
    batch_size: 100
    backend: LMDB
  }
}
layer {
  name: "conv1"
  type: "BinaryConvolution"
  bottom: "data"
  top: "conv1"
  param {
    lr_mult: 1
    decay_mult: 1
  }
  convolution_param {
    num_output: 64
    bias_term: false
    pad: 1
    kernel_size: 3
    stride: 1
    weight_filler {
      type: "gaussian"
      std: 0.01
    }
  }
  debug_param {
    xnorno_grad: false
    binary_relax: true
  }
}
layer {
  name: "bn1_bn"
  type: "BatchNorm"
  bottom: "conv1"
  top: "conv1_bn"
}
layer {
  name: "bn1_scal"
  type: "Scale"
  bottom: "conv1_bn"
  top: "conv1_sc"
  scale_param {
    bias_term: true
  }
}
layer {
  name: "relu1"
  type: "ReLU"
  bottom: "conv1_sc"
  top: "conv1_sc"
}
layer {
  name: "conv2"
  type: "BinaryConvolution"
  bottom: "conv1_sc"
  top: "conv2"
  param {
    lr_mult: 1
    decay_mult: 1
  }
  convolution_param {
    num_output: 64
    bias_term: false
    pad: 1
    kernel_size: 3
    stride: 1
    weight_filler {
      type: "gaussian"
      std: 0.01
    }
  }
  debug_param {
    xnorno_grad: false
    binary_relax: true
  }
}
layer {
  name: "bn2_bn"
  type: "BatchNorm"
  bottom: "conv2"
  top: "conv2_bn"
}
layer {
  name: "bn2_scal"
  type: "Scale"
  bottom: "conv2_bn"
  top: "conv2_sc"
  scale_param {
    bias_term: true
  }
}
layer {
  name: "relu2"
  type: "ReLU"
  bottom: "conv2_sc"
  top: "conv2_sc"
}
layer {
  name: "pool1"
  type: "Pooling"
  bottom: "conv2_sc"
  top: "pool1"
  pooling_param {
    pool: MAX
    kernel_size: 2
    stride: 2
  }
}
layer {
  name: "drop1"
  type: "Dropout"
  bottom: "pool1"
  top: "pool1"
  dropout_param {
    dropout_ratio: 0.25
  }
}
layer {
  name: "conv3"
  type: "BinaryConvolution"
  bottom: "pool1"
  top: "conv3"
  param {
    lr_mult: 1
    decay_mult: 1
  }
  convolution_param {
    num_output: 128
    bias_term: false
    pad: 1
    kernel_size: 3
    stride: 1
    weight_filler {
      type: "gaussian"
      std: 0.01
    }
  }
  debug_param {
    xnorno_grad: false
    binary_relax: true
  }
}
layer {
  name: "bn3_bn"
  type: "BatchNorm"
  bottom: "conv3"
  top: "conv3_bn"
}
layer {
  name: "bn3_scal"
  type: "Scale"
  bottom: "conv3_bn"
  top: "conv3_sc"
  scale_param {
    bias_term: true
  }
}
layer {
  name: "relu3"
  type: "ReLU"
  bottom: "conv3_sc"
  top: "conv3_sc"
}
layer {
  name: "conv4"
  type: "BinaryConvolution"
  bottom: "conv3_sc"
  top: "conv4"
  param {
    lr_mult: 1
    decay_mult: 1
  }
  convolution_param {
    num_output: 128
    bias_term: false
    pad: 1
    kernel_size: 3
    stride: 1
    weight_filler {
      type: "gaussian"
      std: 0.01
    }
  }
  debug_param {
    xnorno_grad: false
    binary_relax: true
  }
}
layer {
  name: "bn4_bn"
  type: "BatchNorm"
  bottom: "conv4"
  top: "conv4_bn"
}
layer {
  name: "bn4_scal"
  type: "Scale"
  bottom: "conv4_bn"
  top: "conv4_sc"
  scale_param {
    bias_term: true
  }
}
layer {
  name: "relu4"
  type: "ReLU"
  bottom: "conv4_sc"
  top: "conv4_sc"
}
layer {
  name: "pool2"
  type: "Pooling"
  bottom: "conv4_sc"
  top: "pool2"
  pooling_param {
    pool: MAX
    kernel_size: 2
    stride: 2
  }
}
layer {
  name: "drop2"
  type: "Dropout"
  bottom: "pool2"
  top: "pool2"
  dropout_param {
    dropout_ratio: 0.25
  }
}
layer {
  name: "conv5"
  type: "BinaryConvolution"
  bottom: "pool2"
  top: "conv5"
  param {
    lr_mult: 1
    decay_mult: 1
  }
  convolution_param {
    num_output: 256
    bias_term: false
    pad: 1
    kernel_size: 3
    stride: 1
    weight_filler {
      type: "gaussian"
      std: 0.01
    }
  }
  debug_param {
    xnorno_grad: false
    binary_relax: true
  }
}
layer {
  name: "bn5_bn"
  type: "BatchNorm"
  bottom: "conv5"
  top: "conv5_bn"
}
layer {
  name: "bn5_scal"
  type: "Scale"
  bottom: "conv5_bn"
  top: "conv5_sc"
  scale_param {
    bias_term: true
  }
}
layer {
  name: "relu5"
  type: "ReLU"
  bottom: "conv5_sc"
  top: "conv5_sc"
}
layer {
  name: "conv6"
  type: "BinaryConvolution"
  bottom: "conv5_sc"
  top: "conv6"
  param {
    lr_mult: 1
    decay_mult: 1
  }
  convolution_param {
    num_output: 256
    bias_term: false
    pad: 1
    kernel_size: 3
    stride: 1
    weight_filler {
      type: "gaussian"
      std: 0.01
    }
  }
  debug_param {
    xnorno_grad: false
    binary_relax: true
  }
}
layer {
  name: "bn6_bn"
  type: "BatchNorm"
  bottom: "conv6"
  top: "conv6_bn"
}
layer {
  name: "bn6_scal"
  type: "Scale"
  bottom: "conv6_bn"
  top: "conv6_sc"
  scale_param {
    bias_term: true
  }
}
layer {
  name: "relu6"
  type: "ReLU"
  bottom: "conv6_sc"
  top: "conv6_sc"
}
layer {
  name: "pool3"
  type: "Pooling"
  bottom: "conv6_sc"
  top: "pool3"
  pooling_param {
    pool: MAX
    kernel_size: 2
    stride: 2
  }
}
layer {
  name: "drop3"
  type: "Dropout"
  bottom: "pool3"
  top: "pool3"
  dropout_param {
    dropout_ratio: 0.25
  }
}
layer {
  name: "fc7"
  type: "BinaryInnerProduct"
  bottom: "pool3"
  top: "fc7"
  param {
    lr_mult: 1
    decay_mult: 1
  }
  inner_product_param {
    num_output: 512
    bias_term: false
    weight_filler {
      type: "gaussian"
      std: 0.01
    }
  }
  debug_param {
    xnorno_grad: false
    binary_relax: true
  }
}
layer {
  name: "bn7_bn"
  type: "BatchNorm"
  bottom: "fc7"
  top: "fc7_bn"
}
layer {
  name: "bn7_scal"
  type: "Scale"
  bottom: "fc7_bn"
  top: "fc7_sc"
  scale_param {
    bias_term: true
  }
}
layer {
  name: "relu7"
  type: "ReLU"
  bottom: "fc7_sc"
  top: "fc7_sc"
}
layer {
  name: "drop7"
  type: "Dropout"
  bottom: "fc7_sc"
  top: "fc7_sc"
  dropout_param {
    dropout_ratio: 0.5
  }
}
layer {
  name: "fc8"
  type: "BinaryInnerProduct"
  bottom: "fc7_sc"
  top: "fc8"
  param {
    lr_mult: 1
    decay_mult: 1
  }
  inner_product_param {
    num_output: 512
    bias_term: false
    weight_filler {
      type: "gaussian"
      std: 0.01
    }
  }
  debug_param {
    xnorno_grad: false
    binary_relax: true
  }
}
layer {
  name: "bn8_bn"
  type: "BatchNorm"
  bottom: "fc8"
  top: "fc8_bn"
}
layer {
  name: "bn8_scal"
  type: "Scale"
  bottom: "fc8_bn"
  top: "fc8_sc"
  scale_param {
    bias_term: true
  }
}
layer {
  name: "relu8"
  type: "ReLU"
  bottom: "fc8_sc"
  top: "fc8_sc"
}
layer {
  name: "drop8"
  type: "Dropout"
  bottom: "fc8_sc"
  top: "fc8_sc"
  dropout_param {
    dropout_ratio: 0.5
  }
}
layer {
  name: "fc9"
  type: "BinaryInnerProduct"
  bottom: "fc8_sc"
  top: "fc9"
  param {
    lr_mult: 1
    decay_mult: 1
  }
  param {
    lr_mult: 2
    decay_mult: 0
  }
  inner_product_param {
    num_output: 10
    weight_filler {
      type: "gaussian"
      std: 0.01
    }
    bias_filler {
      type: "constant"
      value: 0.01
    }
  }
  debug_param {
    xnorno_grad: false
    binary_relax: true
  }
}
layer {
  name: "accuracy"
  type: "Accuracy"
  bottom: "fc9"
  bottom: "label"
  top: "accuracy"
  include {
    phase: TEST
  }
}
layer {
  name: "loss"
  type: "SoftmaxWithLoss"
  bottom: "fc9"
  bottom: "label"
  top: "loss"
}
I0903 22:07:09.697974  7962 layer_factory.hpp:77] Creating layer cifar
I0903 22:07:09.698063  7962 db_lmdb.cpp:35] Opened lmdb examples/cifar10/cifar10_test_lmdb
I0903 22:07:09.698086  7962 net.cpp:84] Creating Layer cifar
I0903 22:07:09.698101  7962 net.cpp:380] cifar -> data
I0903 22:07:09.698137  7962 net.cpp:380] cifar -> label
I0903 22:07:09.698159  7962 data_transformer.cpp:25] Loading mean file from: examples/cifar10/mean.binaryproto
I0903 22:07:09.698426  7962 data_layer.cpp:45] output data size: 100,3,32,32
I0903 22:07:09.701301  7962 base_data_layer.cpp:72] Initializing prefetch
I0903 22:07:09.701373  7962 base_data_layer.cpp:75] Prefetch initialized.
I0903 22:07:09.701381  7962 net.cpp:122] Setting up cifar
I0903 22:07:09.701395  7962 net.cpp:129] Top shape: 100 3 32 32 (307200)
I0903 22:07:09.701414  7962 net.cpp:129] Top shape: 100 (100)
I0903 22:07:09.701417  7962 net.cpp:137] Memory required for data: 1229200
I0903 22:07:09.701434  7962 layer_factory.hpp:77] Creating layer label_cifar_1_split
I0903 22:07:09.701467  7962 net.cpp:84] Creating Layer label_cifar_1_split
I0903 22:07:09.701479  7962 net.cpp:406] label_cifar_1_split <- label
I0903 22:07:09.701501  7962 net.cpp:380] label_cifar_1_split -> label_cifar_1_split_0
I0903 22:07:09.701541  7962 net.cpp:380] label_cifar_1_split -> label_cifar_1_split_1
I0903 22:07:09.701606  7962 net.cpp:122] Setting up label_cifar_1_split
I0903 22:07:09.701618  7962 net.cpp:129] Top shape: 100 (100)
I0903 22:07:09.701625  7962 net.cpp:129] Top shape: 100 (100)
I0903 22:07:09.701630  7962 net.cpp:137] Memory required for data: 1230000
I0903 22:07:09.701635  7962 layer_factory.hpp:77] Creating layer conv1
I0903 22:07:09.701664  7962 net.cpp:84] Creating Layer conv1
I0903 22:07:09.701673  7962 net.cpp:406] conv1 <- data
I0903 22:07:09.701691  7962 net.cpp:380] conv1 -> conv1
I0903 22:07:09.702314  7962 net.cpp:122] Setting up conv1
I0903 22:07:09.702327  7962 net.cpp:129] Top shape: 100 64 32 32 (6553600)
I0903 22:07:09.702332  7962 net.cpp:137] Memory required for data: 27444400
I0903 22:07:09.702353  7962 layer_factory.hpp:77] Creating layer bn1_bn
I0903 22:07:09.702368  7962 net.cpp:84] Creating Layer bn1_bn
I0903 22:07:09.702376  7962 net.cpp:406] bn1_bn <- conv1
I0903 22:07:09.702390  7962 net.cpp:380] bn1_bn -> conv1_bn
I0903 22:07:09.702682  7962 net.cpp:122] Setting up bn1_bn
I0903 22:07:09.702694  7962 net.cpp:129] Top shape: 100 64 32 32 (6553600)
I0903 22:07:09.702698  7962 net.cpp:137] Memory required for data: 53658800
I0903 22:07:09.702728  7962 layer_factory.hpp:77] Creating layer bn1_scal
I0903 22:07:09.702749  7962 net.cpp:84] Creating Layer bn1_scal
I0903 22:07:09.702759  7962 net.cpp:406] bn1_scal <- conv1_bn
I0903 22:07:09.702774  7962 net.cpp:380] bn1_scal -> conv1_sc
I0903 22:07:09.702839  7962 layer_factory.hpp:77] Creating layer bn1_scal
I0903 22:07:09.702997  7962 net.cpp:122] Setting up bn1_scal
I0903 22:07:09.703009  7962 net.cpp:129] Top shape: 100 64 32 32 (6553600)
I0903 22:07:09.703016  7962 net.cpp:137] Memory required for data: 79873200
I0903 22:07:09.703035  7962 layer_factory.hpp:77] Creating layer relu1
I0903 22:07:09.703050  7962 net.cpp:84] Creating Layer relu1
I0903 22:07:09.703058  7962 net.cpp:406] relu1 <- conv1_sc
I0903 22:07:09.703071  7962 net.cpp:367] relu1 -> conv1_sc (in-place)
I0903 22:07:09.703529  7962 net.cpp:122] Setting up relu1
I0903 22:07:09.703541  7962 net.cpp:129] Top shape: 100 64 32 32 (6553600)
I0903 22:07:09.703546  7962 net.cpp:137] Memory required for data: 106087600
I0903 22:07:09.703552  7962 layer_factory.hpp:77] Creating layer conv2
I0903 22:07:09.703569  7962 net.cpp:84] Creating Layer conv2
I0903 22:07:09.703578  7962 net.cpp:406] conv2 <- conv1_sc
I0903 22:07:09.703598  7962 net.cpp:380] conv2 -> conv2
I0903 22:07:09.708639  7962 net.cpp:122] Setting up conv2
I0903 22:07:09.708652  7962 net.cpp:129] Top shape: 100 64 32 32 (6553600)
I0903 22:07:09.708657  7962 net.cpp:137] Memory required for data: 132302000
I0903 22:07:09.708668  7962 layer_factory.hpp:77] Creating layer bn2_bn
I0903 22:07:09.708683  7962 net.cpp:84] Creating Layer bn2_bn
I0903 22:07:09.708690  7962 net.cpp:406] bn2_bn <- conv2
I0903 22:07:09.708705  7962 net.cpp:380] bn2_bn -> conv2_bn
I0903 22:07:09.708951  7962 net.cpp:122] Setting up bn2_bn
I0903 22:07:09.708963  7962 net.cpp:129] Top shape: 100 64 32 32 (6553600)
I0903 22:07:09.708967  7962 net.cpp:137] Memory required for data: 158516400
I0903 22:07:09.708994  7962 layer_factory.hpp:77] Creating layer bn2_scal
I0903 22:07:09.709013  7962 net.cpp:84] Creating Layer bn2_scal
I0903 22:07:09.709022  7962 net.cpp:406] bn2_scal <- conv2_bn
I0903 22:07:09.709036  7962 net.cpp:380] bn2_scal -> conv2_sc
I0903 22:07:09.709100  7962 layer_factory.hpp:77] Creating layer bn2_scal
I0903 22:07:09.709260  7962 net.cpp:122] Setting up bn2_scal
I0903 22:07:09.709272  7962 net.cpp:129] Top shape: 100 64 32 32 (6553600)
I0903 22:07:09.709277  7962 net.cpp:137] Memory required for data: 184730800
I0903 22:07:09.709290  7962 layer_factory.hpp:77] Creating layer relu2
I0903 22:07:09.709303  7962 net.cpp:84] Creating Layer relu2
I0903 22:07:09.709311  7962 net.cpp:406] relu2 <- conv2_sc
I0903 22:07:09.709324  7962 net.cpp:367] relu2 -> conv2_sc (in-place)
I0903 22:07:09.709797  7962 net.cpp:122] Setting up relu2
I0903 22:07:09.709808  7962 net.cpp:129] Top shape: 100 64 32 32 (6553600)
I0903 22:07:09.709812  7962 net.cpp:137] Memory required for data: 210945200
I0903 22:07:09.709818  7962 layer_factory.hpp:77] Creating layer pool1
I0903 22:07:09.709837  7962 net.cpp:84] Creating Layer pool1
I0903 22:07:09.709846  7962 net.cpp:406] pool1 <- conv2_sc
I0903 22:07:09.709861  7962 net.cpp:380] pool1 -> pool1
I0903 22:07:09.709928  7962 net.cpp:122] Setting up pool1
I0903 22:07:09.709939  7962 net.cpp:129] Top shape: 100 64 16 16 (1638400)
I0903 22:07:09.709944  7962 net.cpp:137] Memory required for data: 217498800
I0903 22:07:09.709949  7962 layer_factory.hpp:77] Creating layer drop1
I0903 22:07:09.709967  7962 net.cpp:84] Creating Layer drop1
I0903 22:07:09.709975  7962 net.cpp:406] drop1 <- pool1
I0903 22:07:09.709990  7962 net.cpp:367] drop1 -> pool1 (in-place)
I0903 22:07:09.710029  7962 net.cpp:122] Setting up drop1
I0903 22:07:09.710038  7962 net.cpp:129] Top shape: 100 64 16 16 (1638400)
I0903 22:07:09.710041  7962 net.cpp:137] Memory required for data: 224052400
I0903 22:07:09.710054  7962 layer_factory.hpp:77] Creating layer conv3
I0903 22:07:09.710077  7962 net.cpp:84] Creating Layer conv3
I0903 22:07:09.710085  7962 net.cpp:406] conv3 <- pool1
I0903 22:07:09.710103  7962 net.cpp:380] conv3 -> conv3
I0903 22:07:09.720504  7962 net.cpp:122] Setting up conv3
I0903 22:07:09.720532  7962 net.cpp:129] Top shape: 100 128 16 16 (3276800)
I0903 22:07:09.720537  7962 net.cpp:137] Memory required for data: 237159600
I0903 22:07:09.720558  7962 layer_factory.hpp:77] Creating layer bn3_bn
I0903 22:07:09.720584  7962 net.cpp:84] Creating Layer bn3_bn
I0903 22:07:09.720597  7962 net.cpp:406] bn3_bn <- conv3
I0903 22:07:09.720618  7962 net.cpp:380] bn3_bn -> conv3_bn
I0903 22:07:09.720882  7962 net.cpp:122] Setting up bn3_bn
I0903 22:07:09.720894  7962 net.cpp:129] Top shape: 100 128 16 16 (3276800)
I0903 22:07:09.720899  7962 net.cpp:137] Memory required for data: 250266800
I0903 22:07:09.720928  7962 layer_factory.hpp:77] Creating layer bn3_scal
I0903 22:07:09.720947  7962 net.cpp:84] Creating Layer bn3_scal
I0903 22:07:09.720954  7962 net.cpp:406] bn3_scal <- conv3_bn
I0903 22:07:09.720970  7962 net.cpp:380] bn3_scal -> conv3_sc
I0903 22:07:09.721041  7962 layer_factory.hpp:77] Creating layer bn3_scal
I0903 22:07:09.721194  7962 net.cpp:122] Setting up bn3_scal
I0903 22:07:09.721205  7962 net.cpp:129] Top shape: 100 128 16 16 (3276800)
I0903 22:07:09.721210  7962 net.cpp:137] Memory required for data: 263374000
I0903 22:07:09.721235  7962 layer_factory.hpp:77] Creating layer relu3
I0903 22:07:09.721249  7962 net.cpp:84] Creating Layer relu3
I0903 22:07:09.721257  7962 net.cpp:406] relu3 <- conv3_sc
I0903 22:07:09.721271  7962 net.cpp:367] relu3 -> conv3_sc (in-place)
I0903 22:07:09.721639  7962 net.cpp:122] Setting up relu3
I0903 22:07:09.721649  7962 net.cpp:129] Top shape: 100 128 16 16 (3276800)
I0903 22:07:09.721654  7962 net.cpp:137] Memory required for data: 276481200
I0903 22:07:09.721659  7962 layer_factory.hpp:77] Creating layer conv4
I0903 22:07:09.721688  7962 net.cpp:84] Creating Layer conv4
I0903 22:07:09.721698  7962 net.cpp:406] conv4 <- conv3_sc
I0903 22:07:09.721716  7962 net.cpp:380] conv4 -> conv4
I0903 22:07:09.740566  7962 net.cpp:122] Setting up conv4
I0903 22:07:09.740578  7962 net.cpp:129] Top shape: 100 128 16 16 (3276800)
I0903 22:07:09.740583  7962 net.cpp:137] Memory required for data: 289588400
I0903 22:07:09.740603  7962 layer_factory.hpp:77] Creating layer bn4_bn
I0903 22:07:09.740617  7962 net.cpp:84] Creating Layer bn4_bn
I0903 22:07:09.740625  7962 net.cpp:406] bn4_bn <- conv4
I0903 22:07:09.740641  7962 net.cpp:380] bn4_bn -> conv4_bn
I0903 22:07:09.740871  7962 net.cpp:122] Setting up bn4_bn
I0903 22:07:09.740882  7962 net.cpp:129] Top shape: 100 128 16 16 (3276800)
I0903 22:07:09.740896  7962 net.cpp:137] Memory required for data: 302695600
I0903 22:07:09.740917  7962 layer_factory.hpp:77] Creating layer bn4_scal
I0903 22:07:09.740941  7962 net.cpp:84] Creating Layer bn4_scal
I0903 22:07:09.740960  7962 net.cpp:406] bn4_scal <- conv4_bn
I0903 22:07:09.740978  7962 net.cpp:380] bn4_scal -> conv4_sc
I0903 22:07:09.741044  7962 layer_factory.hpp:77] Creating layer bn4_scal
I0903 22:07:09.741189  7962 net.cpp:122] Setting up bn4_scal
I0903 22:07:09.741200  7962 net.cpp:129] Top shape: 100 128 16 16 (3276800)
I0903 22:07:09.741205  7962 net.cpp:137] Memory required for data: 315802800
I0903 22:07:09.741227  7962 layer_factory.hpp:77] Creating layer relu4
I0903 22:07:09.741240  7962 net.cpp:84] Creating Layer relu4
I0903 22:07:09.741250  7962 net.cpp:406] relu4 <- conv4_sc
I0903 22:07:09.741264  7962 net.cpp:367] relu4 -> conv4_sc (in-place)
I0903 22:07:09.741770  7962 net.cpp:122] Setting up relu4
I0903 22:07:09.741780  7962 net.cpp:129] Top shape: 100 128 16 16 (3276800)
I0903 22:07:09.741786  7962 net.cpp:137] Memory required for data: 328910000
I0903 22:07:09.741792  7962 layer_factory.hpp:77] Creating layer pool2
I0903 22:07:09.741811  7962 net.cpp:84] Creating Layer pool2
I0903 22:07:09.741819  7962 net.cpp:406] pool2 <- conv4_sc
I0903 22:07:09.741837  7962 net.cpp:380] pool2 -> pool2
I0903 22:07:09.741899  7962 net.cpp:122] Setting up pool2
I0903 22:07:09.741911  7962 net.cpp:129] Top shape: 100 128 8 8 (819200)
I0903 22:07:09.741916  7962 net.cpp:137] Memory required for data: 332186800
I0903 22:07:09.741922  7962 layer_factory.hpp:77] Creating layer drop2
I0903 22:07:09.741936  7962 net.cpp:84] Creating Layer drop2
I0903 22:07:09.741945  7962 net.cpp:406] drop2 <- pool2
I0903 22:07:09.741960  7962 net.cpp:367] drop2 -> pool2 (in-place)
I0903 22:07:09.741997  7962 net.cpp:122] Setting up drop2
I0903 22:07:09.742007  7962 net.cpp:129] Top shape: 100 128 8 8 (819200)
I0903 22:07:09.742010  7962 net.cpp:137] Memory required for data: 335463600
I0903 22:07:09.742017  7962 layer_factory.hpp:77] Creating layer conv5
I0903 22:07:09.742033  7962 net.cpp:84] Creating Layer conv5
I0903 22:07:09.742043  7962 net.cpp:406] conv5 <- pool2
I0903 22:07:09.742060  7962 net.cpp:380] conv5 -> conv5
I0903 22:07:09.780129  7962 net.cpp:122] Setting up conv5
I0903 22:07:09.780166  7962 net.cpp:129] Top shape: 100 256 8 8 (1638400)
I0903 22:07:09.780171  7962 net.cpp:137] Memory required for data: 342017200
I0903 22:07:09.780191  7962 layer_factory.hpp:77] Creating layer bn5_bn
I0903 22:07:09.780223  7962 net.cpp:84] Creating Layer bn5_bn
I0903 22:07:09.780236  7962 net.cpp:406] bn5_bn <- conv5
I0903 22:07:09.780256  7962 net.cpp:380] bn5_bn -> conv5_bn
I0903 22:07:09.780493  7962 net.cpp:122] Setting up bn5_bn
I0903 22:07:09.780504  7962 net.cpp:129] Top shape: 100 256 8 8 (1638400)
I0903 22:07:09.780509  7962 net.cpp:137] Memory required for data: 348570800
I0903 22:07:09.780529  7962 layer_factory.hpp:77] Creating layer bn5_scal
I0903 22:07:09.780545  7962 net.cpp:84] Creating Layer bn5_scal
I0903 22:07:09.780553  7962 net.cpp:406] bn5_scal <- conv5_bn
I0903 22:07:09.780568  7962 net.cpp:380] bn5_scal -> conv5_sc
I0903 22:07:09.780639  7962 layer_factory.hpp:77] Creating layer bn5_scal
I0903 22:07:09.780793  7962 net.cpp:122] Setting up bn5_scal
I0903 22:07:09.780805  7962 net.cpp:129] Top shape: 100 256 8 8 (1638400)
I0903 22:07:09.780809  7962 net.cpp:137] Memory required for data: 355124400
I0903 22:07:09.780833  7962 layer_factory.hpp:77] Creating layer relu5
I0903 22:07:09.780846  7962 net.cpp:84] Creating Layer relu5
I0903 22:07:09.780854  7962 net.cpp:406] relu5 <- conv5_sc
I0903 22:07:09.780869  7962 net.cpp:367] relu5 -> conv5_sc (in-place)
I0903 22:07:09.781234  7962 net.cpp:122] Setting up relu5
I0903 22:07:09.781244  7962 net.cpp:129] Top shape: 100 256 8 8 (1638400)
I0903 22:07:09.781249  7962 net.cpp:137] Memory required for data: 361678000
I0903 22:07:09.781255  7962 layer_factory.hpp:77] Creating layer conv6
I0903 22:07:09.781280  7962 net.cpp:84] Creating Layer conv6
I0903 22:07:09.781297  7962 net.cpp:406] conv6 <- conv5_sc
I0903 22:07:09.781325  7962 net.cpp:380] conv6 -> conv6
I0903 22:07:09.856585  7962 net.cpp:122] Setting up conv6
I0903 22:07:09.856631  7962 net.cpp:129] Top shape: 100 256 8 8 (1638400)
I0903 22:07:09.856652  7962 net.cpp:137] Memory required for data: 368231600
I0903 22:07:09.856679  7962 layer_factory.hpp:77] Creating layer bn6_bn
I0903 22:07:09.856729  7962 net.cpp:84] Creating Layer bn6_bn
I0903 22:07:09.856760  7962 net.cpp:406] bn6_bn <- conv6
I0903 22:07:09.856786  7962 net.cpp:380] bn6_bn -> conv6_bn
I0903 22:07:09.857064  7962 net.cpp:122] Setting up bn6_bn
I0903 22:07:09.857075  7962 net.cpp:129] Top shape: 100 256 8 8 (1638400)
I0903 22:07:09.857089  7962 net.cpp:137] Memory required for data: 374785200
I0903 22:07:09.857134  7962 layer_factory.hpp:77] Creating layer bn6_scal
I0903 22:07:09.857164  7962 net.cpp:84] Creating Layer bn6_scal
I0903 22:07:09.857172  7962 net.cpp:406] bn6_scal <- conv6_bn
I0903 22:07:09.857188  7962 net.cpp:380] bn6_scal -> conv6_sc
I0903 22:07:09.857264  7962 layer_factory.hpp:77] Creating layer bn6_scal
I0903 22:07:09.857425  7962 net.cpp:122] Setting up bn6_scal
I0903 22:07:09.857437  7962 net.cpp:129] Top shape: 100 256 8 8 (1638400)
I0903 22:07:09.857442  7962 net.cpp:137] Memory required for data: 381338800
I0903 22:07:09.857456  7962 layer_factory.hpp:77] Creating layer relu6
I0903 22:07:09.857470  7962 net.cpp:84] Creating Layer relu6
I0903 22:07:09.857478  7962 net.cpp:406] relu6 <- conv6_sc
I0903 22:07:09.857492  7962 net.cpp:367] relu6 -> conv6_sc (in-place)
I0903 22:07:09.858073  7962 net.cpp:122] Setting up relu6
I0903 22:07:09.858085  7962 net.cpp:129] Top shape: 100 256 8 8 (1638400)
I0903 22:07:09.858090  7962 net.cpp:137] Memory required for data: 387892400
I0903 22:07:09.858096  7962 layer_factory.hpp:77] Creating layer pool3
I0903 22:07:09.858116  7962 net.cpp:84] Creating Layer pool3
I0903 22:07:09.858125  7962 net.cpp:406] pool3 <- conv6_sc
I0903 22:07:09.858142  7962 net.cpp:380] pool3 -> pool3
I0903 22:07:09.858206  7962 net.cpp:122] Setting up pool3
I0903 22:07:09.858218  7962 net.cpp:129] Top shape: 100 256 4 4 (409600)
I0903 22:07:09.858223  7962 net.cpp:137] Memory required for data: 389530800
I0903 22:07:09.858229  7962 layer_factory.hpp:77] Creating layer drop3
I0903 22:07:09.858244  7962 net.cpp:84] Creating Layer drop3
I0903 22:07:09.858253  7962 net.cpp:406] drop3 <- pool3
I0903 22:07:09.858268  7962 net.cpp:367] drop3 -> pool3 (in-place)
I0903 22:07:09.858305  7962 net.cpp:122] Setting up drop3
I0903 22:07:09.858314  7962 net.cpp:129] Top shape: 100 256 4 4 (409600)
I0903 22:07:09.858319  7962 net.cpp:137] Memory required for data: 391169200
I0903 22:07:09.858325  7962 layer_factory.hpp:77] Creating layer fc7
I0903 22:07:09.858356  7962 net.cpp:84] Creating Layer fc7
I0903 22:07:09.858364  7962 net.cpp:406] fc7 <- pool3
I0903 22:07:09.858382  7962 net.cpp:380] fc7 -> fc7
I0903 22:07:10.123291  7962 net.cpp:122] Setting up fc7
I0903 22:07:10.123332  7962 net.cpp:129] Top shape: 100 512 (51200)
I0903 22:07:10.123337  7962 net.cpp:137] Memory required for data: 391374000
I0903 22:07:10.123365  7962 layer_factory.hpp:77] Creating layer bn7_bn
I0903 22:07:10.123399  7962 net.cpp:84] Creating Layer bn7_bn
I0903 22:07:10.123412  7962 net.cpp:406] bn7_bn <- fc7
I0903 22:07:10.123437  7962 net.cpp:380] bn7_bn -> fc7_bn
I0903 22:07:10.123687  7962 net.cpp:122] Setting up bn7_bn
I0903 22:07:10.123697  7962 net.cpp:129] Top shape: 100 512 (51200)
I0903 22:07:10.123702  7962 net.cpp:137] Memory required for data: 391578800
I0903 22:07:10.123731  7962 layer_factory.hpp:77] Creating layer bn7_scal
I0903 22:07:10.123751  7962 net.cpp:84] Creating Layer bn7_scal
I0903 22:07:10.123759  7962 net.cpp:406] bn7_scal <- fc7_bn
I0903 22:07:10.123775  7962 net.cpp:380] bn7_scal -> fc7_sc
I0903 22:07:10.123857  7962 layer_factory.hpp:77] Creating layer bn7_scal
I0903 22:07:10.124017  7962 net.cpp:122] Setting up bn7_scal
I0903 22:07:10.124028  7962 net.cpp:129] Top shape: 100 512 (51200)
I0903 22:07:10.124033  7962 net.cpp:137] Memory required for data: 391783600
I0903 22:07:10.124058  7962 layer_factory.hpp:77] Creating layer relu7
I0903 22:07:10.124071  7962 net.cpp:84] Creating Layer relu7
I0903 22:07:10.124089  7962 net.cpp:406] relu7 <- fc7_sc
I0903 22:07:10.124125  7962 net.cpp:367] relu7 -> fc7_sc (in-place)
I0903 22:07:10.124729  7962 net.cpp:122] Setting up relu7
I0903 22:07:10.124740  7962 net.cpp:129] Top shape: 100 512 (51200)
I0903 22:07:10.124754  7962 net.cpp:137] Memory required for data: 391988400
I0903 22:07:10.124763  7962 layer_factory.hpp:77] Creating layer drop7
I0903 22:07:10.124778  7962 net.cpp:84] Creating Layer drop7
I0903 22:07:10.124796  7962 net.cpp:406] drop7 <- fc7_sc
I0903 22:07:10.124821  7962 net.cpp:367] drop7 -> fc7_sc (in-place)
I0903 22:07:10.124861  7962 net.cpp:122] Setting up drop7
I0903 22:07:10.124879  7962 net.cpp:129] Top shape: 100 512 (51200)
I0903 22:07:10.124892  7962 net.cpp:137] Memory required for data: 392193200
I0903 22:07:10.124900  7962 layer_factory.hpp:77] Creating layer fc8
I0903 22:07:10.124923  7962 net.cpp:84] Creating Layer fc8
I0903 22:07:10.124931  7962 net.cpp:406] fc8 <- fc7_sc
I0903 22:07:10.124949  7962 net.cpp:380] fc8 -> fc8
I0903 22:07:10.158368  7962 net.cpp:122] Setting up fc8
I0903 22:07:10.158396  7962 net.cpp:129] Top shape: 100 512 (51200)
I0903 22:07:10.158409  7962 net.cpp:137] Memory required for data: 392398000
I0903 22:07:10.158439  7962 layer_factory.hpp:77] Creating layer bn8_bn
I0903 22:07:10.158483  7962 net.cpp:84] Creating Layer bn8_bn
I0903 22:07:10.158494  7962 net.cpp:406] bn8_bn <- fc8
I0903 22:07:10.158516  7962 net.cpp:380] bn8_bn -> fc8_bn
I0903 22:07:10.158779  7962 net.cpp:122] Setting up bn8_bn
I0903 22:07:10.158792  7962 net.cpp:129] Top shape: 100 512 (51200)
I0903 22:07:10.158804  7962 net.cpp:137] Memory required for data: 392602800
I0903 22:07:10.158824  7962 layer_factory.hpp:77] Creating layer bn8_scal
I0903 22:07:10.158843  7962 net.cpp:84] Creating Layer bn8_scal
I0903 22:07:10.158851  7962 net.cpp:406] bn8_scal <- fc8_bn
I0903 22:07:10.158866  7962 net.cpp:380] bn8_scal -> fc8_sc
I0903 22:07:10.158937  7962 layer_factory.hpp:77] Creating layer bn8_scal
I0903 22:07:10.159101  7962 net.cpp:122] Setting up bn8_scal
I0903 22:07:10.159113  7962 net.cpp:129] Top shape: 100 512 (51200)
I0903 22:07:10.159118  7962 net.cpp:137] Memory required for data: 392807600
I0903 22:07:10.159132  7962 layer_factory.hpp:77] Creating layer relu8
I0903 22:07:10.159145  7962 net.cpp:84] Creating Layer relu8
I0903 22:07:10.159153  7962 net.cpp:406] relu8 <- fc8_sc
I0903 22:07:10.159168  7962 net.cpp:367] relu8 -> fc8_sc (in-place)
I0903 22:07:10.159538  7962 net.cpp:122] Setting up relu8
I0903 22:07:10.159549  7962 net.cpp:129] Top shape: 100 512 (51200)
I0903 22:07:10.159554  7962 net.cpp:137] Memory required for data: 393012400
I0903 22:07:10.159559  7962 layer_factory.hpp:77] Creating layer drop8
I0903 22:07:10.159574  7962 net.cpp:84] Creating Layer drop8
I0903 22:07:10.159582  7962 net.cpp:406] drop8 <- fc8_sc
I0903 22:07:10.159597  7962 net.cpp:367] drop8 -> fc8_sc (in-place)
I0903 22:07:10.159637  7962 net.cpp:122] Setting up drop8
I0903 22:07:10.159646  7962 net.cpp:129] Top shape: 100 512 (51200)
I0903 22:07:10.159651  7962 net.cpp:137] Memory required for data: 393217200
I0903 22:07:10.159656  7962 layer_factory.hpp:77] Creating layer fc9
I0903 22:07:10.159678  7962 net.cpp:84] Creating Layer fc9
I0903 22:07:10.159687  7962 net.cpp:406] fc9 <- fc8_sc
I0903 22:07:10.159704  7962 net.cpp:380] fc9 -> fc9
I0903 22:07:10.160606  7962 net.cpp:122] Setting up fc9
I0903 22:07:10.160619  7962 net.cpp:129] Top shape: 100 10 (1000)
I0903 22:07:10.160624  7962 net.cpp:137] Memory required for data: 393221200
I0903 22:07:10.160637  7962 layer_factory.hpp:77] Creating layer fc9_fc9_0_split
I0903 22:07:10.160651  7962 net.cpp:84] Creating Layer fc9_fc9_0_split
I0903 22:07:10.160660  7962 net.cpp:406] fc9_fc9_0_split <- fc9
I0903 22:07:10.160675  7962 net.cpp:380] fc9_fc9_0_split -> fc9_fc9_0_split_0
I0903 22:07:10.160698  7962 net.cpp:380] fc9_fc9_0_split -> fc9_fc9_0_split_1
I0903 22:07:10.160753  7962 net.cpp:122] Setting up fc9_fc9_0_split
I0903 22:07:10.160764  7962 net.cpp:129] Top shape: 100 10 (1000)
I0903 22:07:10.160769  7962 net.cpp:129] Top shape: 100 10 (1000)
I0903 22:07:10.160786  7962 net.cpp:137] Memory required for data: 393229200
I0903 22:07:10.160794  7962 layer_factory.hpp:77] Creating layer accuracy
I0903 22:07:10.160814  7962 net.cpp:84] Creating Layer accuracy
I0903 22:07:10.160822  7962 net.cpp:406] accuracy <- fc9_fc9_0_split_0
I0903 22:07:10.160835  7962 net.cpp:406] accuracy <- label_cifar_1_split_0
I0903 22:07:10.160850  7962 net.cpp:380] accuracy -> accuracy
…
