…
I0913 10:26:31.328245 21619 net.cpp:294] The NetState phase (0) differed from the phase (1) specified by a rule in layer accuracy
I0913 10:26:31.328459 21619 net.cpp:51] Initializing net from parameters: 
name: "CIFAR10_vgg"
state {
  phase: TRAIN
  level: 0
  stage: ""
}
layer {
  name: "cifar"
  type: "Data"
  top: "data"
  top: "label"
  include {
    phase: TRAIN
  }
  transform_param {
    mirror: true
    crop_size: 32
    mean_file: "examples/cifar10/mean.binaryproto"
  }
  data_param {
    source: "examples/cifar10/cifar10_train_lmdb"
    batch_size: 100
    backend: LMDB
  }
}
layer {
  name: "conv1"
  type: "BinaryConvolution"
  bottom: "data"
  top: "conv1"
  param {
    lr_mult: 1
    decay_mult: 1
  }
  convolution_param {
    num_output: 64
    bias_term: false
    pad: 1
    kernel_size: 3
    stride: 1
    weight_filler {
      type: "gaussian"
      std: 0.01
    }
  }
  debug_param {
    xnorno_grad: false
    binary_relax: true
  }
}
layer {
  name: "bn1_bn"
  type: "BatchNorm"
  bottom: "conv1"
  top: "conv1_bn"
}
layer {
  name: "bn1_scal"
  type: "Scale"
  bottom: "conv1_bn"
  top: "conv1_sc"
  scale_param {
    bias_term: true
  }
}
layer {
  name: "relu1"
  type: "ReLU"
  bottom: "conv1_sc"
  top: "conv1_sc"
}
layer {
  name: "conv2"
  type: "BinaryConvolution"
  bottom: "conv1_sc"
  top: "conv2"
  param {
    lr_mult: 1
    decay_mult: 1
  }
  convolution_param {
    num_output: 64
    bias_term: false
    pad: 1
    kernel_size: 3
    stride: 1
    weight_filler {
      type: "gaussian"
      std: 0.01
    }
  }
  debug_param {
    xnorno_grad: false
    binary_relax: true
  }
}
layer {
  name: "bn2_bn"
  type: "BatchNorm"
  bottom: "conv2"
  top: "conv2_bn"
}
layer {
  name: "bn2_scal"
  type: "Scale"
  bottom: "conv2_bn"
  top: "conv2_sc"
  scale_param {
    bias_term: true
  }
}
layer {
  name: "relu2"
  type: "ReLU"
  bottom: "conv2_sc"
  top: "conv2_sc"
}
layer {
  name: "pool1"
  type: "Pooling"
  bottom: "conv2_sc"
  top: "pool1"
  pooling_param {
    pool: MAX
    kernel_size: 2
    stride: 2
  }
}
layer {
  name: "drop1"
  type: "Dropout"
  bottom: "pool1"
  top: "pool1"
  dropout_param {
    dropout_ratio: 0.25
  }
}
layer {
  name: "conv3"
  type: "BinaryConvolution"
  bottom: "pool1"
  top: "conv3"
  param {
    lr_mult: 1
    decay_mult: 1
  }
  convolution_param {
    num_output: 128
    bias_term: false
    pad: 1
    kernel_size: 3
    stride: 1
    weight_filler {
      type: "gaussian"
      std: 0.01
    }
  }
  debug_param {
    xnorno_grad: false
    binary_relax: true
  }
}
layer {
  name: "bn3_bn"
  type: "BatchNorm"
  bottom: "conv3"
  top: "conv3_bn"
}
layer {
  name: "bn3_scal"
  type: "Scale"
  bottom: "conv3_bn"
  top: "conv3_sc"
  scale_param {
    bias_term: true
  }
}
layer {
  name: "relu3"
  type: "ReLU"
  bottom: "conv3_sc"
  top: "conv3_sc"
}
layer {
  name: "conv4"
  type: "BinaryConvolution"
  bottom: "conv3_sc"
  top: "conv4"
  param {
    lr_mult: 1
    decay_mult: 1
  }
  convolution_param {
    num_output: 128
    bias_term: false
    pad: 1
    kernel_size: 3
    stride: 1
    weight_filler {
      type: "gaussian"
      std: 0.01
    }
  }
  debug_param {
    xnorno_grad: false
    binary_relax: true
  }
}
layer {
  name: "bn4_bn"
  type: "BatchNorm"
  bottom: "conv4"
  top: "conv4_bn"
}
layer {
  name: "bn4_scal"
  type: "Scale"
  bottom: "conv4_bn"
  top: "conv4_sc"
  scale_param {
    bias_term: true
  }
}
layer {
  name: "relu4"
  type: "ReLU"
  bottom: "conv4_sc"
  top: "conv4_sc"
}
layer {
  name: "pool2"
  type: "Pooling"
  bottom: "conv4_sc"
  top: "pool2"
  pooling_param {
    pool: MAX
    kernel_size: 2
    stride: 2
  }
}
layer {
  name: "drop2"
  type: "Dropout"
  bottom: "pool2"
  top: "pool2"
  dropout_param {
    dropout_ratio: 0.25
  }
}
layer {
  name: "conv5"
  type: "BinaryConvolution"
  bottom: "pool2"
  top: "conv5"
  param {
    lr_mult: 1
    decay_mult: 1
  }
  convolution_param {
    num_output: 256
    bias_term: false
    pad: 1
    kernel_size: 3
    stride: 1
    weight_filler {
      type: "gaussian"
      std: 0.01
    }
  }
  debug_param {
    xnorno_grad: false
    binary_relax: true
  }
}
layer {
  name: "bn5_bn"
  type: "BatchNorm"
  bottom: "conv5"
  top: "conv5_bn"
}
layer {
  name: "bn5_scal"
  type: "Scale"
  bottom: "conv5_bn"
  top: "conv5_sc"
  scale_param {
    bias_term: true
  }
}
layer {
  name: "relu5"
  type: "ReLU"
  bottom: "conv5_sc"
  top: "conv5_sc"
}
layer {
  name: "conv6"
  type: "BinaryConvolution"
  bottom: "conv5_sc"
  top: "conv6"
  param {
    lr_mult: 1
    decay_mult: 1
  }
  convolution_param {
    num_output: 256
    bias_term: false
    pad: 1
    kernel_size: 3
    stride: 1
    weight_filler {
      type: "gaussian"
      std: 0.01
    }
  }
  debug_param {
    xnorno_grad: false
    binary_relax: true
  }
}
layer {
  name: "bn6_bn"
  type: "BatchNorm"
  bottom: "conv6"
  top: "conv6_bn"
}
layer {
  name: "bn6_scal"
  type: "Scale"
  bottom: "conv6_bn"
  top: "conv6_sc"
  scale_param {
    bias_term: true
  }
}
layer {
  name: "relu6"
  type: "ReLU"
  bottom: "conv6_sc"
  top: "conv6_sc"
}
layer {
  name: "pool3"
  type: "Pooling"
  bottom: "conv6_sc"
  top: "pool3"
  pooling_param {
    pool: MAX
    kernel_size: 2
    stride: 2
  }
}
layer {
  name: "drop3"
  type: "Dropout"
  bottom: "pool3"
  top: "pool3"
  dropout_param {
    dropout_ratio: 0.25
  }
}
layer {
  name: "fc7"
  type: "BinaryInnerProduct"
  bottom: "pool3"
  top: "fc7"
  param {
    lr_mult: 1
    decay_mult: 1
  }
  inner_product_param {
    num_output: 512
    bias_term: false
    weight_filler {
      type: "gaussian"
      std: 0.01
    }
  }
  debug_param {
    xnorno_grad: false
    binary_relax: true
  }
}
layer {
  name: "bn7_bn"
  type: "BatchNorm"
  bottom: "fc7"
  top: "fc7_bn"
}
layer {
  name: "bn7_scal"
  type: "Scale"
  bottom: "fc7_bn"
  top: "fc7_sc"
  scale_param {
    bias_term: true
  }
}
layer {
  name: "relu7"
  type: "ReLU"
  bottom: "fc7_sc"
  top: "fc7_sc"
}
layer {
  name: "drop7"
  type: "Dropout"
  bottom: "fc7_sc"
  top: "fc7_sc"
  dropout_param {
    dropout_ratio: 0.5
  }
}
layer {
  name: "fc8"
  type: "BinaryInnerProduct"
  bottom: "fc7_sc"
  top: "fc8"
  param {
    lr_mult: 1
    decay_mult: 1
  }
  inner_product_param {
    num_output: 512
    bias_term: false
    weight_filler {
      type: "gaussian"
      std: 0.01
    }
  }
  debug_param {
    xnorno_grad: false
    binary_relax: true
  }
}
layer {
  name: "bn8_bn"
  type: "BatchNorm"
  bottom: "fc8"
  top: "fc8_bn"
}
layer {
  name: "bn8_scal"
  type: "Scale"
  bottom: "fc8_bn"
  top: "fc8_sc"
  scale_param {
    bias_term: true
  }
}
layer {
  name: "relu8"
  type: "ReLU"
  bottom: "fc8_sc"
  top: "fc8_sc"
}
layer {
  name: "drop8"
  type: "Dropout"
  bottom: "fc8_sc"
  top: "fc8_sc"
  dropout_param {
    dropout_ratio: 0.5
  }
}
layer {
  name: "fc9"
  type: "BinaryInnerProduct"
  bottom: "fc8_sc"
  top: "fc9"
  param {
    lr_mult: 1
    decay_mult: 1
  }
  param {
    lr_mult: 2
    decay_mult: 0
  }
  inner_product_param {
    num_output: 10
    weight_filler {
      type: "gaussian"
      std: 0.01
    }
    bias_filler {
      type: "constant"
      value: 0.01
    }
  }
  debug_param {
    xnorno_grad: false
    binary_relax: true
  }
}
layer {
  name: "loss"
  type: "SoftmaxWithLoss"
  bottom: "fc9"
  bottom: "label"
  top: "loss"
}
I0913 10:26:31.329138 21619 layer_factory.hpp:77] Creating layer cifar
I0913 10:26:31.329329 21619 db_lmdb.cpp:35] Opened lmdb examples/cifar10/cifar10_train_lmdb
I0913 10:26:31.329401 21619 net.cpp:84] Creating Layer cifar
I0913 10:26:31.329435 21619 net.cpp:380] cifar -> data
I0913 10:26:31.329562 21619 net.cpp:380] cifar -> label
I0913 10:26:31.329612 21619 data_transformer.cpp:25] Loading mean file from: examples/cifar10/mean.binaryproto
I0913 10:26:31.330790 21619 data_layer.cpp:45] output data size: 100,3,32,32
I0913 10:26:31.333495 21619 base_data_layer.cpp:72] Initializing prefetch
I0913 10:26:31.333654 21619 base_data_layer.cpp:75] Prefetch initialized.
I0913 10:26:31.333665 21619 net.cpp:122] Setting up cifar
I0913 10:26:31.333719 21619 net.cpp:129] Top shape: 100 3 32 32 (307200)
I0913 10:26:31.333731 21619 net.cpp:129] Top shape: 100 (100)
I0913 10:26:31.333745 21619 net.cpp:137] Memory required for data: 1229200
I0913 10:26:31.333771 21619 layer_factory.hpp:77] Creating layer conv1
I0913 10:26:31.333879 21619 net.cpp:84] Creating Layer conv1
I0913 10:26:31.333905 21619 net.cpp:406] conv1 <- data
I0913 10:26:31.333961 21619 net.cpp:380] conv1 -> conv1
I0913 10:26:31.334619 21619 net.cpp:122] Setting up conv1
I0913 10:26:31.334632 21619 net.cpp:129] Top shape: 100 64 32 32 (6553600)
I0913 10:26:31.334638 21619 net.cpp:137] Memory required for data: 27443600
I0913 10:26:31.334692 21619 layer_factory.hpp:77] Creating layer bn1_bn
I0913 10:26:31.334719 21619 net.cpp:84] Creating Layer bn1_bn
I0913 10:26:31.334733 21619 net.cpp:406] bn1_bn <- conv1
I0913 10:26:31.334759 21619 net.cpp:380] bn1_bn -> conv1_bn
I0913 10:26:31.335289 21619 net.cpp:122] Setting up bn1_bn
I0913 10:26:31.335307 21619 net.cpp:129] Top shape: 100 64 32 32 (6553600)
I0913 10:26:31.335315 21619 net.cpp:137] Memory required for data: 53658000
I0913 10:26:31.335366 21619 layer_factory.hpp:77] Creating layer bn1_scal
I0913 10:26:31.335397 21619 net.cpp:84] Creating Layer bn1_scal
I0913 10:26:31.335410 21619 net.cpp:406] bn1_scal <- conv1_bn
I0913 10:26:31.335441 21619 net.cpp:380] bn1_scal -> conv1_sc
I0913 10:26:31.335521 21619 layer_factory.hpp:77] Creating layer bn1_scal
I0913 10:26:31.335672 21619 net.cpp:122] Setting up bn1_scal
I0913 10:26:31.335685 21619 net.cpp:129] Top shape: 100 64 32 32 (6553600)
I0913 10:26:31.335693 21619 net.cpp:137] Memory required for data: 79872400
I0913 10:26:31.335726 21619 layer_factory.hpp:77] Creating layer relu1
I0913 10:26:31.335754 21619 net.cpp:84] Creating Layer relu1
I0913 10:26:31.335767 21619 net.cpp:406] relu1 <- conv1_sc
I0913 10:26:31.335791 21619 net.cpp:367] relu1 -> conv1_sc (in-place)
I0913 10:26:31.680341 21619 net.cpp:122] Setting up relu1
I0913 10:26:31.680371 21619 net.cpp:129] Top shape: 100 64 32 32 (6553600)
I0913 10:26:31.680375 21619 net.cpp:137] Memory required for data: 106086800
I0913 10:26:31.680392 21619 layer_factory.hpp:77] Creating layer conv2
I0913 10:26:31.680471 21619 net.cpp:84] Creating Layer conv2
I0913 10:26:31.680492 21619 net.cpp:406] conv2 <- conv1_sc
I0913 10:26:31.680557 21619 net.cpp:380] conv2 -> conv2
I0913 10:26:31.685896 21619 net.cpp:122] Setting up conv2
I0913 10:26:31.685914 21619 net.cpp:129] Top shape: 100 64 32 32 (6553600)
I0913 10:26:31.685917 21619 net.cpp:137] Memory required for data: 132301200
I0913 10:26:31.685931 21619 layer_factory.hpp:77] Creating layer bn2_bn
I0913 10:26:31.685956 21619 net.cpp:84] Creating Layer bn2_bn
I0913 10:26:31.685976 21619 net.cpp:406] bn2_bn <- conv2
I0913 10:26:31.686007 21619 net.cpp:380] bn2_bn -> conv2_bn
I0913 10:26:31.686269 21619 net.cpp:122] Setting up bn2_bn
I0913 10:26:31.686281 21619 net.cpp:129] Top shape: 100 64 32 32 (6553600)
I0913 10:26:31.686296 21619 net.cpp:137] Memory required for data: 158515600
I0913 10:26:31.686368 21619 layer_factory.hpp:77] Creating layer bn2_scal
I0913 10:26:31.686398 21619 net.cpp:84] Creating Layer bn2_scal
I0913 10:26:31.686410 21619 net.cpp:406] bn2_scal <- conv2_bn
I0913 10:26:31.686434 21619 net.cpp:380] bn2_scal -> conv2_sc
I0913 10:26:31.686524 21619 layer_factory.hpp:77] Creating layer bn2_scal
I0913 10:26:31.686714 21619 net.cpp:122] Setting up bn2_scal
I0913 10:26:31.686736 21619 net.cpp:129] Top shape: 100 64 32 32 (6553600)
I0913 10:26:31.686741 21619 net.cpp:137] Memory required for data: 184730000
I0913 10:26:31.686771 21619 layer_factory.hpp:77] Creating layer relu2
I0913 10:26:31.686805 21619 net.cpp:84] Creating Layer relu2
I0913 10:26:31.686813 21619 net.cpp:406] relu2 <- conv2_sc
I0913 10:26:31.686843 21619 net.cpp:367] relu2 -> conv2_sc (in-place)
I0913 10:26:31.687211 21619 net.cpp:122] Setting up relu2
I0913 10:26:31.687222 21619 net.cpp:129] Top shape: 100 64 32 32 (6553600)
I0913 10:26:31.687227 21619 net.cpp:137] Memory required for data: 210944400
I0913 10:26:31.687232 21619 layer_factory.hpp:77] Creating layer pool1
I0913 10:26:31.687259 21619 net.cpp:84] Creating Layer pool1
I0913 10:26:31.687273 21619 net.cpp:406] pool1 <- conv2_sc
I0913 10:26:31.687290 21619 net.cpp:380] pool1 -> pool1
I0913 10:26:31.687372 21619 net.cpp:122] Setting up pool1
I0913 10:26:31.687384 21619 net.cpp:129] Top shape: 100 64 16 16 (1638400)
I0913 10:26:31.687388 21619 net.cpp:137] Memory required for data: 217498000
I0913 10:26:31.687394 21619 layer_factory.hpp:77] Creating layer drop1
I0913 10:26:31.687417 21619 net.cpp:84] Creating Layer drop1
I0913 10:26:31.687431 21619 net.cpp:406] drop1 <- pool1
I0913 10:26:31.687455 21619 net.cpp:367] drop1 -> pool1 (in-place)
I0913 10:26:31.687505 21619 net.cpp:122] Setting up drop1
I0913 10:26:31.687515 21619 net.cpp:129] Top shape: 100 64 16 16 (1638400)
I0913 10:26:31.687521 21619 net.cpp:137] Memory required for data: 224051600
I0913 10:26:31.687531 21619 layer_factory.hpp:77] Creating layer conv3
I0913 10:26:31.687559 21619 net.cpp:84] Creating Layer conv3
I0913 10:26:31.687571 21619 net.cpp:406] conv3 <- pool1
I0913 10:26:31.687600 21619 net.cpp:380] conv3 -> conv3
I0913 10:26:31.698230 21619 net.cpp:122] Setting up conv3
I0913 10:26:31.698248 21619 net.cpp:129] Top shape: 100 128 16 16 (3276800)
I0913 10:26:31.698252 21619 net.cpp:137] Memory required for data: 237158800
I0913 10:26:31.698266 21619 layer_factory.hpp:77] Creating layer bn3_bn
I0913 10:26:31.698293 21619 net.cpp:84] Creating Layer bn3_bn
I0913 10:26:31.698307 21619 net.cpp:406] bn3_bn <- conv3
I0913 10:26:31.698338 21619 net.cpp:380] bn3_bn -> conv3_bn
I0913 10:26:31.698586 21619 net.cpp:122] Setting up bn3_bn
I0913 10:26:31.698598 21619 net.cpp:129] Top shape: 100 128 16 16 (3276800)
I0913 10:26:31.698602 21619 net.cpp:137] Memory required for data: 250266000
I0913 10:26:31.698621 21619 layer_factory.hpp:77] Creating layer bn3_scal
I0913 10:26:31.698644 21619 net.cpp:84] Creating Layer bn3_scal
I0913 10:26:31.698664 21619 net.cpp:406] bn3_scal <- conv3_bn
I0913 10:26:31.698695 21619 net.cpp:380] bn3_scal -> conv3_sc
I0913 10:26:31.698778 21619 layer_factory.hpp:77] Creating layer bn3_scal
I0913 10:26:31.698932 21619 net.cpp:122] Setting up bn3_scal
I0913 10:26:31.698945 21619 net.cpp:129] Top shape: 100 128 16 16 (3276800)
I0913 10:26:31.698952 21619 net.cpp:137] Memory required for data: 263373200
I0913 10:26:31.698987 21619 layer_factory.hpp:77] Creating layer relu3
I0913 10:26:31.699005 21619 net.cpp:84] Creating Layer relu3
I0913 10:26:31.699018 21619 net.cpp:406] relu3 <- conv3_sc
I0913 10:26:31.699043 21619 net.cpp:367] relu3 -> conv3_sc (in-place)
I0913 10:26:31.699570 21619 net.cpp:122] Setting up relu3
I0913 10:26:31.699582 21619 net.cpp:129] Top shape: 100 128 16 16 (3276800)
I0913 10:26:31.699591 21619 net.cpp:137] Memory required for data: 276480400
I0913 10:26:31.699602 21619 layer_factory.hpp:77] Creating layer conv4
I0913 10:26:31.699633 21619 net.cpp:84] Creating Layer conv4
I0913 10:26:31.699656 21619 net.cpp:406] conv4 <- conv3_sc
I0913 10:26:31.699687 21619 net.cpp:380] conv4 -> conv4
I0913 10:26:31.719666 21619 net.cpp:122] Setting up conv4
I0913 10:26:31.719693 21619 net.cpp:129] Top shape: 100 128 16 16 (3276800)
I0913 10:26:31.719697 21619 net.cpp:137] Memory required for data: 289587600
I0913 10:26:31.719720 21619 layer_factory.hpp:77] Creating layer bn4_bn
I0913 10:26:31.719758 21619 net.cpp:84] Creating Layer bn4_bn
I0913 10:26:31.719780 21619 net.cpp:406] bn4_bn <- conv4
I0913 10:26:31.719801 21619 net.cpp:380] bn4_bn -> conv4_bn
I0913 10:26:31.720036 21619 net.cpp:122] Setting up bn4_bn
I0913 10:26:31.720055 21619 net.cpp:129] Top shape: 100 128 16 16 (3276800)
I0913 10:26:31.720059 21619 net.cpp:137] Memory required for data: 302694800
I0913 10:26:31.720088 21619 layer_factory.hpp:77] Creating layer bn4_scal
I0913 10:26:31.720125 21619 net.cpp:84] Creating Layer bn4_scal
I0913 10:26:31.720134 21619 net.cpp:406] bn4_scal <- conv4_bn
I0913 10:26:31.720160 21619 net.cpp:380] bn4_scal -> conv4_sc
I0913 10:26:31.720264 21619 layer_factory.hpp:77] Creating layer bn4_scal
I0913 10:26:31.720436 21619 net.cpp:122] Setting up bn4_scal
I0913 10:26:31.720456 21619 net.cpp:129] Top shape: 100 128 16 16 (3276800)
I0913 10:26:31.720460 21619 net.cpp:137] Memory required for data: 315802000
I0913 10:26:31.720477 21619 layer_factory.hpp:77] Creating layer relu4
I0913 10:26:31.720499 21619 net.cpp:84] Creating Layer relu4
I0913 10:26:31.720527 21619 net.cpp:406] relu4 <- conv4_sc
I0913 10:26:31.720542 21619 net.cpp:367] relu4 -> conv4_sc (in-place)
I0913 10:26:31.720927 21619 net.cpp:122] Setting up relu4
I0913 10:26:31.720937 21619 net.cpp:129] Top shape: 100 128 16 16 (3276800)
I0913 10:26:31.720942 21619 net.cpp:137] Memory required for data: 328909200
I0913 10:26:31.720947 21619 layer_factory.hpp:77] Creating layer pool2
I0913 10:26:31.720975 21619 net.cpp:84] Creating Layer pool2
I0913 10:26:31.720999 21619 net.cpp:406] pool2 <- conv4_sc
I0913 10:26:31.721025 21619 net.cpp:380] pool2 -> pool2
I0913 10:26:31.721108 21619 net.cpp:122] Setting up pool2
I0913 10:26:31.721119 21619 net.cpp:129] Top shape: 100 128 8 8 (819200)
I0913 10:26:31.721123 21619 net.cpp:137] Memory required for data: 332186000
I0913 10:26:31.721128 21619 layer_factory.hpp:77] Creating layer drop2
I0913 10:26:31.721153 21619 net.cpp:84] Creating Layer drop2
I0913 10:26:31.721173 21619 net.cpp:406] drop2 <- pool2
I0913 10:26:31.721216 21619 net.cpp:367] drop2 -> pool2 (in-place)
I0913 10:26:31.721282 21619 net.cpp:122] Setting up drop2
I0913 10:26:31.721302 21619 net.cpp:129] Top shape: 100 128 8 8 (819200)
I0913 10:26:31.721307 21619 net.cpp:137] Memory required for data: 335462800
I0913 10:26:31.721313 21619 layer_factory.hpp:77] Creating layer conv5
I0913 10:26:31.721343 21619 net.cpp:84] Creating Layer conv5
I0913 10:26:31.721354 21619 net.cpp:406] conv5 <- pool2
I0913 10:26:31.721382 21619 net.cpp:380] conv5 -> conv5
I0913 10:26:31.760259 21619 net.cpp:122] Setting up conv5
I0913 10:26:31.760290 21619 net.cpp:129] Top shape: 100 256 8 8 (1638400)
I0913 10:26:31.760295 21619 net.cpp:137] Memory required for data: 342016400
I0913 10:26:31.760324 21619 layer_factory.hpp:77] Creating layer bn5_bn
I0913 10:26:31.760362 21619 net.cpp:84] Creating Layer bn5_bn
I0913 10:26:31.760382 21619 net.cpp:406] bn5_bn <- conv5
I0913 10:26:31.760411 21619 net.cpp:380] bn5_bn -> conv5_bn
I0913 10:26:31.760668 21619 net.cpp:122] Setting up bn5_bn
I0913 10:26:31.760689 21619 net.cpp:129] Top shape: 100 256 8 8 (1638400)
I0913 10:26:31.760694 21619 net.cpp:137] Memory required for data: 348570000
I0913 10:26:31.760721 21619 layer_factory.hpp:77] Creating layer bn5_scal
I0913 10:26:31.760759 21619 net.cpp:84] Creating Layer bn5_scal
I0913 10:26:31.760768 21619 net.cpp:406] bn5_scal <- conv5_bn
I0913 10:26:31.760794 21619 net.cpp:380] bn5_scal -> conv5_sc
I0913 10:26:31.760876 21619 layer_factory.hpp:77] Creating layer bn5_scal
I0913 10:26:31.761040 21619 net.cpp:122] Setting up bn5_scal
I0913 10:26:31.761052 21619 net.cpp:129] Top shape: 100 256 8 8 (1638400)
I0913 10:26:31.761067 21619 net.cpp:137] Memory required for data: 355123600
I0913 10:26:31.761085 21619 layer_factory.hpp:77] Creating layer relu5
I0913 10:26:31.761106 21619 net.cpp:84] Creating Layer relu5
I0913 10:26:31.761121 21619 net.cpp:406] relu5 <- conv5_sc
I0913 10:26:31.761143 21619 net.cpp:367] relu5 -> conv5_sc (in-place)
I0913 10:26:31.761683 21619 net.cpp:122] Setting up relu5
I0913 10:26:31.761695 21619 net.cpp:129] Top shape: 100 256 8 8 (1638400)
I0913 10:26:31.761703 21619 net.cpp:137] Memory required for data: 361677200
I0913 10:26:31.761713 21619 layer_factory.hpp:77] Creating layer conv6
I0913 10:26:31.761745 21619 net.cpp:84] Creating Layer conv6
I0913 10:26:31.761756 21619 net.cpp:406] conv6 <- conv5_sc
I0913 10:26:31.761787 21619 net.cpp:380] conv6 -> conv6
I0913 10:26:31.838419 21619 net.cpp:122] Setting up conv6
I0913 10:26:31.838454 21619 net.cpp:129] Top shape: 100 256 8 8 (1638400)
I0913 10:26:31.838459 21619 net.cpp:137] Memory required for data: 368230800
I0913 10:26:31.838491 21619 layer_factory.hpp:77] Creating layer bn6_bn
I0913 10:26:31.838538 21619 net.cpp:84] Creating Layer bn6_bn
I0913 10:26:31.838558 21619 net.cpp:406] bn6_bn <- conv6
I0913 10:26:31.838595 21619 net.cpp:380] bn6_bn -> conv6_bn
I0913 10:26:31.838871 21619 net.cpp:122] Setting up bn6_bn
I0913 10:26:31.838883 21619 net.cpp:129] Top shape: 100 256 8 8 (1638400)
I0913 10:26:31.838886 21619 net.cpp:137] Memory required for data: 374784400
I0913 10:26:31.838929 21619 layer_factory.hpp:77] Creating layer bn6_scal
I0913 10:26:31.838968 21619 net.cpp:84] Creating Layer bn6_scal
I0913 10:26:31.838986 21619 net.cpp:406] bn6_scal <- conv6_bn
I0913 10:26:31.839010 21619 net.cpp:380] bn6_scal -> conv6_sc
I0913 10:26:31.839118 21619 layer_factory.hpp:77] Creating layer bn6_scal
I0913 10:26:31.839282 21619 net.cpp:122] Setting up bn6_scal
I0913 10:26:31.839293 21619 net.cpp:129] Top shape: 100 256 8 8 (1638400)
I0913 10:26:31.839301 21619 net.cpp:137] Memory required for data: 381338000
I0913 10:26:31.839325 21619 layer_factory.hpp:77] Creating layer relu6
I0913 10:26:31.839345 21619 net.cpp:84] Creating Layer relu6
I0913 10:26:31.839359 21619 net.cpp:406] relu6 <- conv6_sc
I0913 10:26:31.839382 21619 net.cpp:367] relu6 -> conv6_sc (in-place)
I0913 10:26:31.839985 21619 net.cpp:122] Setting up relu6
I0913 10:26:31.839996 21619 net.cpp:129] Top shape: 100 256 8 8 (1638400)
I0913 10:26:31.840003 21619 net.cpp:137] Memory required for data: 387891600
I0913 10:26:31.840013 21619 layer_factory.hpp:77] Creating layer pool3
I0913 10:26:31.840051 21619 net.cpp:84] Creating Layer pool3
I0913 10:26:31.840070 21619 net.cpp:406] pool3 <- conv6_sc
I0913 10:26:31.840099 21619 net.cpp:380] pool3 -> pool3
I0913 10:26:31.840204 21619 net.cpp:122] Setting up pool3
I0913 10:26:31.840224 21619 net.cpp:129] Top shape: 100 256 4 4 (409600)
I0913 10:26:31.840230 21619 net.cpp:137] Memory required for data: 389530000
I0913 10:26:31.840237 21619 layer_factory.hpp:77] Creating layer drop3
I0913 10:26:31.840257 21619 net.cpp:84] Creating Layer drop3
I0913 10:26:31.840267 21619 net.cpp:406] drop3 <- pool3
I0913 10:26:31.840302 21619 net.cpp:367] drop3 -> pool3 (in-place)
I0913 10:26:31.840351 21619 net.cpp:122] Setting up drop3
I0913 10:26:31.840360 21619 net.cpp:129] Top shape: 100 256 4 4 (409600)
I0913 10:26:31.840368 21619 net.cpp:137] Memory required for data: 391168400
I0913 10:26:31.840378 21619 layer_factory.hpp:77] Creating layer fc7
I0913 10:26:31.840423 21619 net.cpp:84] Creating Layer fc7
I0913 10:26:31.840442 21619 net.cpp:406] fc7 <- pool3
I0913 10:26:31.840477 21619 net.cpp:380] fc7 -> fc7
I0913 10:26:32.105268 21619 net.cpp:122] Setting up fc7
I0913 10:26:32.105305 21619 net.cpp:129] Top shape: 100 512 (51200)
I0913 10:26:32.105309 21619 net.cpp:137] Memory required for data: 391373200
I0913 10:26:32.105345 21619 layer_factory.hpp:77] Creating layer bn7_bn
I0913 10:26:32.105401 21619 net.cpp:84] Creating Layer bn7_bn
I0913 10:26:32.105417 21619 net.cpp:406] bn7_bn <- fc7
I0913 10:26:32.105453 21619 net.cpp:380] bn7_bn -> fc7_bn
I0913 10:26:32.105744 21619 net.cpp:122] Setting up bn7_bn
I0913 10:26:32.105756 21619 net.cpp:129] Top shape: 100 512 (51200)
I0913 10:26:32.105759 21619 net.cpp:137] Memory required for data: 391578000
I0913 10:26:32.105778 21619 layer_factory.hpp:77] Creating layer bn7_scal
I0913 10:26:32.105806 21619 net.cpp:84] Creating Layer bn7_scal
I0913 10:26:32.105826 21619 net.cpp:406] bn7_scal <- fc7_bn
I0913 10:26:32.105861 21619 net.cpp:380] bn7_scal -> fc7_sc
I0913 10:26:32.105976 21619 layer_factory.hpp:77] Creating layer bn7_scal
I0913 10:26:32.106164 21619 net.cpp:122] Setting up bn7_scal
I0913 10:26:32.106176 21619 net.cpp:129] Top shape: 100 512 (51200)
I0913 10:26:32.106179 21619 net.cpp:137] Memory required for data: 391782800
I0913 10:26:32.106192 21619 layer_factory.hpp:77] Creating layer relu7
I0913 10:26:32.106214 21619 net.cpp:84] Creating Layer relu7
I0913 10:26:32.106220 21619 net.cpp:406] relu7 <- fc7_sc
I0913 10:26:32.106241 21619 net.cpp:367] relu7 -> fc7_sc (in-place)
I0913 10:26:32.106676 21619 net.cpp:122] Setting up relu7
I0913 10:26:32.106688 21619 net.cpp:129] Top shape: 100 512 (51200)
I0913 10:26:32.106700 21619 net.cpp:137] Memory required for data: 391987600
I0913 10:26:32.106707 21619 layer_factory.hpp:77] Creating layer drop7
I0913 10:26:32.106729 21619 net.cpp:84] Creating Layer drop7
I0913 10:26:32.106756 21619 net.cpp:406] drop7 <- fc7_sc
I0913 10:26:32.106781 21619 net.cpp:367] drop7 -> fc7_sc (in-place)
I0913 10:26:32.106858 21619 net.cpp:122] Setting up drop7
I0913 10:26:32.106868 21619 net.cpp:129] Top shape: 100 512 (51200)
I0913 10:26:32.106881 21619 net.cpp:137] Memory required for data: 392192400
I0913 10:26:32.106887 21619 layer_factory.hpp:77] Creating layer fc8
I0913 10:26:32.106926 21619 net.cpp:84] Creating Layer fc8
I0913 10:26:32.106936 21619 net.cpp:406] fc8 <- fc7_sc
I0913 10:26:32.106971 21619 net.cpp:380] fc8 -> fc8
I0913 10:26:32.141818 21619 net.cpp:122] Setting up fc8
I0913 10:26:32.141844 21619 net.cpp:129] Top shape: 100 512 (51200)
I0913 10:26:32.141847 21619 net.cpp:137] Memory required for data: 392397200
I0913 10:26:32.141865 21619 layer_factory.hpp:77] Creating layer bn8_bn
I0913 10:26:32.141908 21619 net.cpp:84] Creating Layer bn8_bn
I0913 10:26:32.141933 21619 net.cpp:406] bn8_bn <- fc8
I0913 10:26:32.141965 21619 net.cpp:380] bn8_bn -> fc8_bn
I0913 10:26:32.142231 21619 net.cpp:122] Setting up bn8_bn
I0913 10:26:32.142243 21619 net.cpp:129] Top shape: 100 512 (51200)
I0913 10:26:32.142246 21619 net.cpp:137] Memory required for data: 392602000
I0913 10:26:32.142266 21619 layer_factory.hpp:77] Creating layer bn8_scal
I0913 10:26:32.142289 21619 net.cpp:84] Creating Layer bn8_scal
I0913 10:26:32.142302 21619 net.cpp:406] bn8_scal <- fc8_bn
I0913 10:26:32.142343 21619 net.cpp:380] bn8_scal -> fc8_sc
I0913 10:26:32.142431 21619 layer_factory.hpp:77] Creating layer bn8_scal
I0913 10:26:32.142624 21619 net.cpp:122] Setting up bn8_scal
I0913 10:26:32.142637 21619 net.cpp:129] Top shape: 100 512 (51200)
I0913 10:26:32.142639 21619 net.cpp:137] Memory required for data: 392806800
I0913 10:26:32.142652 21619 layer_factory.hpp:77] Creating layer relu8
I0913 10:26:32.142673 21619 net.cpp:84] Creating Layer relu8
I0913 10:26:32.142681 21619 net.cpp:406] relu8 <- fc8_sc
I0913 10:26:32.142701 21619 net.cpp:367] relu8 -> fc8_sc (in-place)
I0913 10:26:32.143298 21619 net.cpp:122] Setting up relu8
I0913 10:26:32.143309 21619 net.cpp:129] Top shape: 100 512 (51200)
I0913 10:26:32.143322 21619 net.cpp:137] Memory required for data: 393011600
I0913 10:26:32.143330 21619 layer_factory.hpp:77] Creating layer drop8
I0913 10:26:32.143354 21619 net.cpp:84] Creating Layer drop8
I0913 10:26:32.143365 21619 net.cpp:406] drop8 <- fc8_sc
I0913 10:26:32.143389 21619 net.cpp:367] drop8 -> fc8_sc (in-place)
I0913 10:26:32.143440 21619 net.cpp:122] Setting up drop8
I0913 10:26:32.143450 21619 net.cpp:129] Top shape: 100 512 (51200)
I0913 10:26:32.143462 21619 net.cpp:137] Memory required for data: 393216400
I0913 10:26:32.143468 21619 layer_factory.hpp:77] Creating layer fc9
I0913 10:26:32.143512 21619 net.cpp:84] Creating Layer fc9
I0913 10:26:32.143543 21619 net.cpp:406] fc9 <- fc8_sc
I0913 10:26:32.143581 21619 net.cpp:380] fc9 -> fc9
I0913 10:26:32.144873 21619 net.cpp:122] Setting up fc9
I0913 10:26:32.144886 21619 net.cpp:129] Top shape: 100 10 (1000)
I0913 10:26:32.144891 21619 net.cpp:137] Memory required for data: 393220400
I0913 10:26:32.144906 21619 layer_factory.hpp:77] Creating layer loss
I0913 10:26:32.144937 21619 net.cpp:84] Creating Layer loss
I0913 10:26:32.144948 21619 net.cpp:406] loss <- fc9
I0913 10:26:32.144969 21619 net.cpp:406] loss <- label
I0913 10:26:32.144994 21619 net.cpp:380] loss -> loss
I0913 10:26:32.145026 21619 layer_factory.hpp:77] Creating layer loss
…
I0913 10:26:32.219794 21619 net.cpp:294] The NetState phase (1) differed from the phase (0) specified by a rule in layer cifar
I0913 10:26:32.220053 21619 net.cpp:51] Initializing net from parameters: 
name: "CIFAR10_vgg"
state {
  phase: TEST
}
layer {
  name: "cifar"
  type: "Data"
  top: "data"
  top: "label"
  include {
    phase: TEST
  }
  transform_param {
    mirror: false
    crop_size: 32
    mean_file: "examples/cifar10/mean.binaryproto"
  }
  data_param {
    source: "examples/cifar10/cifar10_test_lmdb"
    batch_size: 100
    backend: LMDB
  }
}
layer {
  name: "conv1"
  type: "BinaryConvolution"
  bottom: "data"
  top: "conv1"
  param {
    lr_mult: 1
    decay_mult: 1
  }
  convolution_param {
    num_output: 64
    bias_term: false
    pad: 1
    kernel_size: 3
    stride: 1
    weight_filler {
      type: "gaussian"
      std: 0.01
    }
  }
  debug_param {
    xnorno_grad: false
    binary_relax: true
  }
}
layer {
  name: "bn1_bn"
  type: "BatchNorm"
  bottom: "conv1"
  top: "conv1_bn"
}
layer {
  name: "bn1_scal"
  type: "Scale"
  bottom: "conv1_bn"
  top: "conv1_sc"
  scale_param {
    bias_term: true
  }
}
layer {
  name: "relu1"
  type: "ReLU"
  bottom: "conv1_sc"
  top: "conv1_sc"
}
layer {
  name: "conv2"
  type: "BinaryConvolution"
  bottom: "conv1_sc"
  top: "conv2"
  param {
    lr_mult: 1
    decay_mult: 1
  }
  convolution_param {
    num_output: 64
    bias_term: false
    pad: 1
    kernel_size: 3
    stride: 1
    weight_filler {
      type: "gaussian"
      std: 0.01
    }
  }
  debug_param {
    xnorno_grad: false
    binary_relax: true
  }
}
layer {
  name: "bn2_bn"
  type: "BatchNorm"
  bottom: "conv2"
  top: "conv2_bn"
}
layer {
  name: "bn2_scal"
  type: "Scale"
  bottom: "conv2_bn"
  top: "conv2_sc"
  scale_param {
    bias_term: true
  }
}
layer {
  name: "relu2"
  type: "ReLU"
  bottom: "conv2_sc"
  top: "conv2_sc"
}
layer {
  name: "pool1"
  type: "Pooling"
  bottom: "conv2_sc"
  top: "pool1"
  pooling_param {
    pool: MAX
    kernel_size: 2
    stride: 2
  }
}
layer {
  name: "drop1"
  type: "Dropout"
  bottom: "pool1"
  top: "pool1"
  dropout_param {
    dropout_ratio: 0.25
  }
}
layer {
  name: "conv3"
  type: "BinaryConvolution"
  bottom: "pool1"
  top: "conv3"
  param {
    lr_mult: 1
    decay_mult: 1
  }
  convolution_param {
    num_output: 128
    bias_term: false
    pad: 1
    kernel_size: 3
    stride: 1
    weight_filler {
      type: "gaussian"
      std: 0.01
    }
  }
  debug_param {
    xnorno_grad: false
    binary_relax: true
  }
}
layer {
  name: "bn3_bn"
  type: "BatchNorm"
  bottom: "conv3"
  top: "conv3_bn"
}
layer {
  name: "bn3_scal"
  type: "Scale"
  bottom: "conv3_bn"
  top: "conv3_sc"
  scale_param {
    bias_term: true
  }
}
layer {
  name: "relu3"
  type: "ReLU"
  bottom: "conv3_sc"
  top: "conv3_sc"
}
layer {
  name: "conv4"
  type: "BinaryConvolution"
  bottom: "conv3_sc"
  top: "conv4"
  param {
    lr_mult: 1
    decay_mult: 1
  }
  convolution_param {
    num_output: 128
    bias_term: false
    pad: 1
    kernel_size: 3
    stride: 1
    weight_filler {
      type: "gaussian"
      std: 0.01
    }
  }
  debug_param {
    xnorno_grad: false
    binary_relax: true
  }
}
layer {
  name: "bn4_bn"
  type: "BatchNorm"
  bottom: "conv4"
  top: "conv4_bn"
}
layer {
  name: "bn4_scal"
  type: "Scale"
  bottom: "conv4_bn"
  top: "conv4_sc"
  scale_param {
    bias_term: true
  }
}
layer {
  name: "relu4"
  type: "ReLU"
  bottom: "conv4_sc"
  top: "conv4_sc"
}
layer {
  name: "pool2"
  type: "Pooling"
  bottom: "conv4_sc"
  top: "pool2"
  pooling_param {
    pool: MAX
    kernel_size: 2
    stride: 2
  }
}
layer {
  name: "drop2"
  type: "Dropout"
  bottom: "pool2"
  top: "pool2"
  dropout_param {
    dropout_ratio: 0.25
  }
}
layer {
  name: "conv5"
  type: "BinaryConvolution"
  bottom: "pool2"
  top: "conv5"
  param {
    lr_mult: 1
    decay_mult: 1
  }
  convolution_param {
    num_output: 256
    bias_term: false
    pad: 1
    kernel_size: 3
    stride: 1
    weight_filler {
      type: "gaussian"
      std: 0.01
    }
  }
  debug_param {
    xnorno_grad: false
    binary_relax: true
  }
}
layer {
  name: "bn5_bn"
  type: "BatchNorm"
  bottom: "conv5"
  top: "conv5_bn"
}
layer {
  name: "bn5_scal"
  type: "Scale"
  bottom: "conv5_bn"
  top: "conv5_sc"
  scale_param {
    bias_term: true
  }
}
layer {
  name: "relu5"
  type: "ReLU"
  bottom: "conv5_sc"
  top: "conv5_sc"
}
layer {
  name: "conv6"
  type: "BinaryConvolution"
  bottom: "conv5_sc"
  top: "conv6"
  param {
    lr_mult: 1
    decay_mult: 1
  }
  convolution_param {
    num_output: 256
    bias_term: false
    pad: 1
    kernel_size: 3
    stride: 1
    weight_filler {
      type: "gaussian"
      std: 0.01
    }
  }
  debug_param {
    xnorno_grad: false
    binary_relax: true
  }
}
layer {
  name: "bn6_bn"
  type: "BatchNorm"
  bottom: "conv6"
  top: "conv6_bn"
}
layer {
  name: "bn6_scal"
  type: "Scale"
  bottom: "conv6_bn"
  top: "conv6_sc"
  scale_param {
    bias_term: true
  }
}
layer {
  name: "relu6"
  type: "ReLU"
  bottom: "conv6_sc"
  top: "conv6_sc"
}
layer {
  name: "pool3"
  type: "Pooling"
  bottom: "conv6_sc"
  top: "pool3"
  pooling_param {
    pool: MAX
    kernel_size: 2
    stride: 2
  }
}
layer {
  name: "drop3"
  type: "Dropout"
  bottom: "pool3"
  top: "pool3"
  dropout_param {
    dropout_ratio: 0.25
  }
}
layer {
  name: "fc7"
  type: "BinaryInnerProduct"
  bottom: "pool3"
  top: "fc7"
  param {
    lr_mult: 1
    decay_mult: 1
  }
  inner_product_param {
    num_output: 512
    bias_term: false
    weight_filler {
      type: "gaussian"
      std: 0.01
    }
  }
  debug_param {
    xnorno_grad: false
    binary_relax: true
  }
}
layer {
  name: "bn7_bn"
  type: "BatchNorm"
  bottom: "fc7"
  top: "fc7_bn"
}
layer {
  name: "bn7_scal"
  type: "Scale"
  bottom: "fc7_bn"
  top: "fc7_sc"
  scale_param {
    bias_term: true
  }
}
layer {
  name: "relu7"
  type: "ReLU"
  bottom: "fc7_sc"
  top: "fc7_sc"
}
layer {
  name: "drop7"
  type: "Dropout"
  bottom: "fc7_sc"
  top: "fc7_sc"
  dropout_param {
    dropout_ratio: 0.5
  }
}
layer {
  name: "fc8"
  type: "BinaryInnerProduct"
  bottom: "fc7_sc"
  top: "fc8"
  param {
    lr_mult: 1
    decay_mult: 1
  }
  inner_product_param {
    num_output: 512
    bias_term: false
    weight_filler {
      type: "gaussian"
      std: 0.01
    }
  }
  debug_param {
    xnorno_grad: false
    binary_relax: true
  }
}
layer {
  name: "bn8_bn"
  type: "BatchNorm"
  bottom: "fc8"
  top: "fc8_bn"
}
layer {
  name: "bn8_scal"
  type: "Scale"
  bottom: "fc8_bn"
  top: "fc8_sc"
  scale_param {
    bias_term: true
  }
}
layer {
  name: "relu8"
  type: "ReLU"
  bottom: "fc8_sc"
  top: "fc8_sc"
}
layer {
  name: "drop8"
  type: "Dropout"
  bottom: "fc8_sc"
  top: "fc8_sc"
  dropout_param {
    dropout_ratio: 0.5
  }
}
layer {
  name: "fc9"
  type: "BinaryInnerProduct"
  bottom: "fc8_sc"
  top: "fc9"
  param {
    lr_mult: 1
    decay_mult: 1
  }
  param {
    lr_mult: 2
    decay_mult: 0
  }
  inner_product_param {
    num_output: 10
    weight_filler {
      type: "gaussian"
      std: 0.01
    }
    bias_filler {
      type: "constant"
      value: 0.01
    }
  }
  debug_param {
    xnorno_grad: false
    binary_relax: true
  }
}
layer {
  name: "accuracy"
  type: "Accuracy"
  bottom: "fc9"
  bottom: "label"
  top: "accuracy"
  include {
    phase: TEST
  }
}
layer {
  name: "loss"
  type: "SoftmaxWithLoss"
  bottom: "fc9"
  bottom: "label"
  top: "loss"
}
I0913 10:26:32.220607 21619 layer_factory.hpp:77] Creating layer cifar
I0913 10:26:32.220697 21619 db_lmdb.cpp:35] Opened lmdb examples/cifar10/cifar10_test_lmdb
I0913 10:26:32.220719 21619 net.cpp:84] Creating Layer cifar
I0913 10:26:32.220733 21619 net.cpp:380] cifar -> data
I0913 10:26:32.220772 21619 net.cpp:380] cifar -> label
I0913 10:26:32.220799 21619 data_transformer.cpp:25] Loading mean file from: examples/cifar10/mean.binaryproto
I0913 10:26:32.221068 21619 data_layer.cpp:45] output data size: 100,3,32,32
I0913 10:26:32.224083 21619 base_data_layer.cpp:72] Initializing prefetch
I0913 10:26:32.224151 21619 base_data_layer.cpp:75] Prefetch initialized.
I0913 10:26:32.224162 21619 net.cpp:122] Setting up cifar
I0913 10:26:32.224181 21619 net.cpp:129] Top shape: 100 3 32 32 (307200)
I0913 10:26:32.224189 21619 net.cpp:129] Top shape: 100 (100)
I0913 10:26:32.224201 21619 net.cpp:137] Memory required for data: 1229200
I0913 10:26:32.224221 21619 layer_factory.hpp:77] Creating layer label_cifar_1_split
I0913 10:26:32.224313 21619 net.cpp:84] Creating Layer label_cifar_1_split
I0913 10:26:32.224339 21619 net.cpp:406] label_cifar_1_split <- label
I0913 10:26:32.224372 21619 net.cpp:380] label_cifar_1_split -> label_cifar_1_split_0
I0913 10:26:32.224431 21619 net.cpp:380] label_cifar_1_split -> label_cifar_1_split_1
I0913 10:26:32.224529 21619 net.cpp:122] Setting up label_cifar_1_split
I0913 10:26:32.224542 21619 net.cpp:129] Top shape: 100 (100)
I0913 10:26:32.224555 21619 net.cpp:129] Top shape: 100 (100)
I0913 10:26:32.224563 21619 net.cpp:137] Memory required for data: 1230000
I0913 10:26:32.224575 21619 layer_factory.hpp:77] Creating layer conv1
I0913 10:26:32.224615 21619 net.cpp:84] Creating Layer conv1
I0913 10:26:32.224625 21619 net.cpp:406] conv1 <- data
I0913 10:26:32.224656 21619 net.cpp:380] conv1 -> conv1
I0913 10:26:32.225394 21619 net.cpp:122] Setting up conv1
I0913 10:26:32.225412 21619 net.cpp:129] Top shape: 100 64 32 32 (6553600)
I0913 10:26:32.225420 21619 net.cpp:137] Memory required for data: 27444400
I0913 10:26:32.225455 21619 layer_factory.hpp:77] Creating layer bn1_bn
I0913 10:26:32.225474 21619 net.cpp:84] Creating Layer bn1_bn
I0913 10:26:32.225489 21619 net.cpp:406] bn1_bn <- conv1
I0913 10:26:32.225515 21619 net.cpp:380] bn1_bn -> conv1_bn
I0913 10:26:32.225767 21619 net.cpp:122] Setting up bn1_bn
I0913 10:26:32.225780 21619 net.cpp:129] Top shape: 100 64 32 32 (6553600)
I0913 10:26:32.225788 21619 net.cpp:137] Memory required for data: 53658800
I0913 10:26:32.225831 21619 layer_factory.hpp:77] Creating layer bn1_scal
I0913 10:26:32.225859 21619 net.cpp:84] Creating Layer bn1_scal
I0913 10:26:32.225872 21619 net.cpp:406] bn1_scal <- conv1_bn
I0913 10:26:32.225899 21619 net.cpp:380] bn1_scal -> conv1_sc
I0913 10:26:32.225977 21619 layer_factory.hpp:77] Creating layer bn1_scal
I0913 10:26:32.226155 21619 net.cpp:122] Setting up bn1_scal
I0913 10:26:32.226169 21619 net.cpp:129] Top shape: 100 64 32 32 (6553600)
I0913 10:26:32.226178 21619 net.cpp:137] Memory required for data: 79873200
I0913 10:26:32.226212 21619 layer_factory.hpp:77] Creating layer relu1
I0913 10:26:32.226230 21619 net.cpp:84] Creating Layer relu1
I0913 10:26:32.226244 21619 net.cpp:406] relu1 <- conv1_sc
I0913 10:26:32.226269 21619 net.cpp:367] relu1 -> conv1_sc (in-place)
I0913 10:26:32.226760 21619 net.cpp:122] Setting up relu1
I0913 10:26:32.226773 21619 net.cpp:129] Top shape: 100 64 32 32 (6553600)
I0913 10:26:32.226781 21619 net.cpp:137] Memory required for data: 106087600
I0913 10:26:32.226794 21619 layer_factory.hpp:77] Creating layer conv2
I0913 10:26:32.226821 21619 net.cpp:84] Creating Layer conv2
I0913 10:26:32.226832 21619 net.cpp:406] conv2 <- conv1_sc
I0913 10:26:32.226863 21619 net.cpp:380] conv2 -> conv2
I0913 10:26:32.232106 21619 net.cpp:122] Setting up conv2
I0913 10:26:32.232120 21619 net.cpp:129] Top shape: 100 64 32 32 (6553600)
I0913 10:26:32.232134 21619 net.cpp:137] Memory required for data: 132302000
I0913 10:26:32.232154 21619 layer_factory.hpp:77] Creating layer bn2_bn
I0913 10:26:32.232179 21619 net.cpp:84] Creating Layer bn2_bn
I0913 10:26:32.232193 21619 net.cpp:406] bn2_bn <- conv2
I0913 10:26:32.232219 21619 net.cpp:380] bn2_bn -> conv2_bn
I0913 10:26:32.232478 21619 net.cpp:122] Setting up bn2_bn
I0913 10:26:32.232492 21619 net.cpp:129] Top shape: 100 64 32 32 (6553600)
I0913 10:26:32.232501 21619 net.cpp:137] Memory required for data: 158516400
I0913 10:26:32.232543 21619 layer_factory.hpp:77] Creating layer bn2_scal
I0913 10:26:32.232569 21619 net.cpp:84] Creating Layer bn2_scal
I0913 10:26:32.232584 21619 net.cpp:406] bn2_scal <- conv2_bn
I0913 10:26:32.232610 21619 net.cpp:380] bn2_scal -> conv2_sc
I0913 10:26:32.232691 21619 layer_factory.hpp:77] Creating layer bn2_scal
I0913 10:26:32.232867 21619 net.cpp:122] Setting up bn2_scal
I0913 10:26:32.232880 21619 net.cpp:129] Top shape: 100 64 32 32 (6553600)
I0913 10:26:32.232888 21619 net.cpp:137] Memory required for data: 184730800
I0913 10:26:32.232913 21619 layer_factory.hpp:77] Creating layer relu2
I0913 10:26:32.232944 21619 net.cpp:84] Creating Layer relu2
I0913 10:26:32.232957 21619 net.cpp:406] relu2 <- conv2_sc
I0913 10:26:32.232981 21619 net.cpp:367] relu2 -> conv2_sc (in-place)
I0913 10:26:32.233474 21619 net.cpp:122] Setting up relu2
I0913 10:26:32.233486 21619 net.cpp:129] Top shape: 100 64 32 32 (6553600)
I0913 10:26:32.233494 21619 net.cpp:137] Memory required for data: 210945200
I0913 10:26:32.233505 21619 layer_factory.hpp:77] Creating layer pool1
I0913 10:26:32.233530 21619 net.cpp:84] Creating Layer pool1
I0913 10:26:32.233541 21619 net.cpp:406] pool1 <- conv2_sc
I0913 10:26:32.233566 21619 net.cpp:380] pool1 -> pool1
I0913 10:26:32.233639 21619 net.cpp:122] Setting up pool1
I0913 10:26:32.233652 21619 net.cpp:129] Top shape: 100 64 16 16 (1638400)
I0913 10:26:32.233660 21619 net.cpp:137] Memory required for data: 217498800
I0913 10:26:32.233671 21619 layer_factory.hpp:77] Creating layer drop1
I0913 10:26:32.233695 21619 net.cpp:84] Creating Layer drop1
I0913 10:26:32.233706 21619 net.cpp:406] drop1 <- pool1
I0913 10:26:32.233731 21619 net.cpp:367] drop1 -> pool1 (in-place)
I0913 10:26:32.233779 21619 net.cpp:122] Setting up drop1
I0913 10:26:32.233788 21619 net.cpp:129] Top shape: 100 64 16 16 (1638400)
I0913 10:26:32.233795 21619 net.cpp:137] Memory required for data: 224052400
I0913 10:26:32.233805 21619 layer_factory.hpp:77] Creating layer conv3
I0913 10:26:32.233841 21619 net.cpp:84] Creating Layer conv3
I0913 10:26:32.233852 21619 net.cpp:406] conv3 <- pool1
I0913 10:26:32.233881 21619 net.cpp:380] conv3 -> conv3
I0913 10:26:32.245723 21619 net.cpp:122] Setting up conv3
I0913 10:26:32.245750 21619 net.cpp:129] Top shape: 100 128 16 16 (3276800)
I0913 10:26:32.245754 21619 net.cpp:137] Memory required for data: 237159600
I0913 10:26:32.245775 21619 layer_factory.hpp:77] Creating layer bn3_bn
I0913 10:26:32.245805 21619 net.cpp:84] Creating Layer bn3_bn
I0913 10:26:32.245820 21619 net.cpp:406] bn3_bn <- conv3
I0913 10:26:32.245839 21619 net.cpp:380] bn3_bn -> conv3_bn
I0913 10:26:32.246122 21619 net.cpp:122] Setting up bn3_bn
I0913 10:26:32.246135 21619 net.cpp:129] Top shape: 100 128 16 16 (3276800)
I0913 10:26:32.246143 21619 net.cpp:137] Memory required for data: 250266800
I0913 10:26:32.246176 21619 layer_factory.hpp:77] Creating layer bn3_scal
I0913 10:26:32.246198 21619 net.cpp:84] Creating Layer bn3_scal
I0913 10:26:32.246212 21619 net.cpp:406] bn3_scal <- conv3_bn
I0913 10:26:32.246248 21619 net.cpp:380] bn3_scal -> conv3_sc
I0913 10:26:32.246359 21619 layer_factory.hpp:77] Creating layer bn3_scal
I0913 10:26:32.246544 21619 net.cpp:122] Setting up bn3_scal
I0913 10:26:32.246556 21619 net.cpp:129] Top shape: 100 128 16 16 (3276800)
I0913 10:26:32.246572 21619 net.cpp:137] Memory required for data: 263374000
I0913 10:26:32.246619 21619 layer_factory.hpp:77] Creating layer relu3
I0913 10:26:32.246646 21619 net.cpp:84] Creating Layer relu3
I0913 10:26:32.246668 21619 net.cpp:406] relu3 <- conv3_sc
I0913 10:26:32.246700 21619 net.cpp:367] relu3 -> conv3_sc (in-place)
I0913 10:26:32.247076 21619 net.cpp:122] Setting up relu3
I0913 10:26:32.247087 21619 net.cpp:129] Top shape: 100 128 16 16 (3276800)
I0913 10:26:32.247094 21619 net.cpp:137] Memory required for data: 276481200
I0913 10:26:32.247104 21619 layer_factory.hpp:77] Creating layer conv4
I0913 10:26:32.247143 21619 net.cpp:84] Creating Layer conv4
I0913 10:26:32.247154 21619 net.cpp:406] conv4 <- conv3_sc
I0913 10:26:32.247184 21619 net.cpp:380] conv4 -> conv4
I0913 10:26:32.267040 21619 net.cpp:122] Setting up conv4
I0913 10:26:32.267055 21619 net.cpp:129] Top shape: 100 128 16 16 (3276800)
I0913 10:26:32.267061 21619 net.cpp:137] Memory required for data: 289588400
I0913 10:26:32.267081 21619 layer_factory.hpp:77] Creating layer bn4_bn
I0913 10:26:32.267118 21619 net.cpp:84] Creating Layer bn4_bn
I0913 10:26:32.267129 21619 net.cpp:406] bn4_bn <- conv4
I0913 10:26:32.267153 21619 net.cpp:380] bn4_bn -> conv4_bn
I0913 10:26:32.267402 21619 net.cpp:122] Setting up bn4_bn
I0913 10:26:32.267422 21619 net.cpp:129] Top shape: 100 128 16 16 (3276800)
I0913 10:26:32.267443 21619 net.cpp:137] Memory required for data: 302695600
I0913 10:26:32.267474 21619 layer_factory.hpp:77] Creating layer bn4_scal
I0913 10:26:32.267513 21619 net.cpp:84] Creating Layer bn4_scal
I0913 10:26:32.267524 21619 net.cpp:406] bn4_scal <- conv4_bn
I0913 10:26:32.267552 21619 net.cpp:380] bn4_scal -> conv4_sc
I0913 10:26:32.267632 21619 layer_factory.hpp:77] Creating layer bn4_scal
I0913 10:26:32.267791 21619 net.cpp:122] Setting up bn4_scal
I0913 10:26:32.267807 21619 net.cpp:129] Top shape: 100 128 16 16 (3276800)
I0913 10:26:32.267814 21619 net.cpp:137] Memory required for data: 315802800
I0913 10:26:32.267839 21619 layer_factory.hpp:77] Creating layer relu4
I0913 10:26:32.267858 21619 net.cpp:84] Creating Layer relu4
I0913 10:26:32.267870 21619 net.cpp:406] relu4 <- conv4_sc
I0913 10:26:32.267894 21619 net.cpp:367] relu4 -> conv4_sc (in-place)
I0913 10:26:32.268409 21619 net.cpp:122] Setting up relu4
I0913 10:26:32.268420 21619 net.cpp:129] Top shape: 100 128 16 16 (3276800)
I0913 10:26:32.268427 21619 net.cpp:137] Memory required for data: 328910000
I0913 10:26:32.268440 21619 layer_factory.hpp:77] Creating layer pool2
I0913 10:26:32.268465 21619 net.cpp:84] Creating Layer pool2
I0913 10:26:32.268476 21619 net.cpp:406] pool2 <- conv4_sc
I0913 10:26:32.268503 21619 net.cpp:380] pool2 -> pool2
I0913 10:26:32.268576 21619 net.cpp:122] Setting up pool2
I0913 10:26:32.268589 21619 net.cpp:129] Top shape: 100 128 8 8 (819200)
I0913 10:26:32.268597 21619 net.cpp:137] Memory required for data: 332186800
I0913 10:26:32.268609 21619 layer_factory.hpp:77] Creating layer drop2
I0913 10:26:32.268631 21619 net.cpp:84] Creating Layer drop2
I0913 10:26:32.268643 21619 net.cpp:406] drop2 <- pool2
I0913 10:26:32.268667 21619 net.cpp:367] drop2 -> pool2 (in-place)
I0913 10:26:32.268716 21619 net.cpp:122] Setting up drop2
I0913 10:26:32.268725 21619 net.cpp:129] Top shape: 100 128 8 8 (819200)
I0913 10:26:32.268733 21619 net.cpp:137] Memory required for data: 335463600
I0913 10:26:32.268743 21619 layer_factory.hpp:77] Creating layer conv5
I0913 10:26:32.268771 21619 net.cpp:84] Creating Layer conv5
I0913 10:26:32.268782 21619 net.cpp:406] conv5 <- pool2
I0913 10:26:32.268810 21619 net.cpp:380] conv5 -> conv5
I0913 10:26:32.307934 21619 net.cpp:122] Setting up conv5
I0913 10:26:32.307966 21619 net.cpp:129] Top shape: 100 256 8 8 (1638400)
I0913 10:26:32.307971 21619 net.cpp:137] Memory required for data: 342017200
I0913 10:26:32.307993 21619 layer_factory.hpp:77] Creating layer bn5_bn
I0913 10:26:32.308022 21619 net.cpp:84] Creating Layer bn5_bn
I0913 10:26:32.308038 21619 net.cpp:406] bn5_bn <- conv5
I0913 10:26:32.308068 21619 net.cpp:380] bn5_bn -> conv5_bn
I0913 10:26:32.308315 21619 net.cpp:122] Setting up bn5_bn
I0913 10:26:32.308327 21619 net.cpp:129] Top shape: 100 256 8 8 (1638400)
I0913 10:26:32.308336 21619 net.cpp:137] Memory required for data: 348570800
I0913 10:26:32.308367 21619 layer_factory.hpp:77] Creating layer bn5_scal
I0913 10:26:32.308388 21619 net.cpp:84] Creating Layer bn5_scal
I0913 10:26:32.308403 21619 net.cpp:406] bn5_scal <- conv5_bn
I0913 10:26:32.308428 21619 net.cpp:380] bn5_scal -> conv5_sc
I0913 10:26:32.308506 21619 layer_factory.hpp:77] Creating layer bn5_scal
I0913 10:26:32.308671 21619 net.cpp:122] Setting up bn5_scal
I0913 10:26:32.308684 21619 net.cpp:129] Top shape: 100 256 8 8 (1638400)
I0913 10:26:32.308692 21619 net.cpp:137] Memory required for data: 355124400
I0913 10:26:32.308717 21619 layer_factory.hpp:77] Creating layer relu5
I0913 10:26:32.308734 21619 net.cpp:84] Creating Layer relu5
I0913 10:26:32.308748 21619 net.cpp:406] relu5 <- conv5_sc
I0913 10:26:32.308771 21619 net.cpp:367] relu5 -> conv5_sc (in-place)
I0913 10:26:32.309131 21619 net.cpp:122] Setting up relu5
I0913 10:26:32.309142 21619 net.cpp:129] Top shape: 100 256 8 8 (1638400)
I0913 10:26:32.309149 21619 net.cpp:137] Memory required for data: 361678000
I0913 10:26:32.309160 21619 layer_factory.hpp:77] Creating layer conv6
I0913 10:26:32.309188 21619 net.cpp:84] Creating Layer conv6
I0913 10:26:32.309211 21619 net.cpp:406] conv6 <- conv5_sc
I0913 10:26:32.309242 21619 net.cpp:380] conv6 -> conv6
I0913 10:26:32.385517 21619 net.cpp:122] Setting up conv6
I0913 10:26:32.385557 21619 net.cpp:129] Top shape: 100 256 8 8 (1638400)
I0913 10:26:32.385562 21619 net.cpp:137] Memory required for data: 368231600
I0913 10:26:32.385594 21619 layer_factory.hpp:77] Creating layer bn6_bn
I0913 10:26:32.385632 21619 net.cpp:84] Creating Layer bn6_bn
I0913 10:26:32.385663 21619 net.cpp:406] bn6_bn <- conv6
I0913 10:26:32.385694 21619 net.cpp:380] bn6_bn -> conv6_bn
I0913 10:26:32.385949 21619 net.cpp:122] Setting up bn6_bn
I0913 10:26:32.385969 21619 net.cpp:129] Top shape: 100 256 8 8 (1638400)
I0913 10:26:32.385973 21619 net.cpp:137] Memory required for data: 374785200
I0913 10:26:32.386025 21619 layer_factory.hpp:77] Creating layer bn6_scal
I0913 10:26:32.386054 21619 net.cpp:84] Creating Layer bn6_scal
I0913 10:26:32.386070 21619 net.cpp:406] bn6_scal <- conv6_bn
I0913 10:26:32.386095 21619 net.cpp:380] bn6_scal -> conv6_sc
I0913 10:26:32.386175 21619 layer_factory.hpp:77] Creating layer bn6_scal
I0913 10:26:32.386340 21619 net.cpp:122] Setting up bn6_scal
I0913 10:26:32.386353 21619 net.cpp:129] Top shape: 100 256 8 8 (1638400)
I0913 10:26:32.386356 21619 net.cpp:137] Memory required for data: 381338800
I0913 10:26:32.386369 21619 layer_factory.hpp:77] Creating layer relu6
I0913 10:26:32.386382 21619 net.cpp:84] Creating Layer relu6
I0913 10:26:32.386391 21619 net.cpp:406] relu6 <- conv6_sc
I0913 10:26:32.386405 21619 net.cpp:367] relu6 -> conv6_sc (in-place)
I0913 10:26:32.386973 21619 net.cpp:122] Setting up relu6
I0913 10:26:32.386984 21619 net.cpp:129] Top shape: 100 256 8 8 (1638400)
I0913 10:26:32.386988 21619 net.cpp:137] Memory required for data: 387892400
I0913 10:26:32.386996 21619 layer_factory.hpp:77] Creating layer pool3
I0913 10:26:32.387013 21619 net.cpp:84] Creating Layer pool3
I0913 10:26:32.387022 21619 net.cpp:406] pool3 <- conv6_sc
I0913 10:26:32.387037 21619 net.cpp:380] pool3 -> pool3
I0913 10:26:32.387101 21619 net.cpp:122] Setting up pool3
I0913 10:26:32.387112 21619 net.cpp:129] Top shape: 100 256 4 4 (409600)
I0913 10:26:32.387116 21619 net.cpp:137] Memory required for data: 389530800
I0913 10:26:32.387121 21619 layer_factory.hpp:77] Creating layer drop3
I0913 10:26:32.387136 21619 net.cpp:84] Creating Layer drop3
I0913 10:26:32.387143 21619 net.cpp:406] drop3 <- pool3
I0913 10:26:32.387157 21619 net.cpp:367] drop3 -> pool3 (in-place)
I0913 10:26:32.387194 21619 net.cpp:122] Setting up drop3
I0913 10:26:32.387203 21619 net.cpp:129] Top shape: 100 256 4 4 (409600)
I0913 10:26:32.387207 21619 net.cpp:137] Memory required for data: 391169200
I0913 10:26:32.387212 21619 layer_factory.hpp:77] Creating layer fc7
I0913 10:26:32.387243 21619 net.cpp:84] Creating Layer fc7
I0913 10:26:32.387251 21619 net.cpp:406] fc7 <- pool3
I0913 10:26:32.387269 21619 net.cpp:380] fc7 -> fc7
I0913 10:26:32.652019 21619 net.cpp:122] Setting up fc7
I0913 10:26:32.652055 21619 net.cpp:129] Top shape: 100 512 (51200)
I0913 10:26:32.652060 21619 net.cpp:137] Memory required for data: 391374000
I0913 10:26:32.652094 21619 layer_factory.hpp:77] Creating layer bn7_bn
I0913 10:26:32.652143 21619 net.cpp:84] Creating Layer bn7_bn
I0913 10:26:32.652166 21619 net.cpp:406] bn7_bn <- fc7
I0913 10:26:32.652200 21619 net.cpp:380] bn7_bn -> fc7_bn
I0913 10:26:32.652472 21619 net.cpp:122] Setting up bn7_bn
I0913 10:26:32.652483 21619 net.cpp:129] Top shape: 100 512 (51200)
I0913 10:26:32.652487 21619 net.cpp:137] Memory required for data: 391578800
I0913 10:26:32.652505 21619 layer_factory.hpp:77] Creating layer bn7_scal
I0913 10:26:32.652532 21619 net.cpp:84] Creating Layer bn7_scal
I0913 10:26:32.652559 21619 net.cpp:406] bn7_scal <- fc7_bn
I0913 10:26:32.652573 21619 net.cpp:380] bn7_scal -> fc7_sc
I0913 10:26:32.652673 21619 layer_factory.hpp:77] Creating layer bn7_scal
I0913 10:26:32.652871 21619 net.cpp:122] Setting up bn7_scal
I0913 10:26:32.652884 21619 net.cpp:129] Top shape: 100 512 (51200)
I0913 10:26:32.652900 21619 net.cpp:137] Memory required for data: 391783600
I0913 10:26:32.652915 21619 layer_factory.hpp:77] Creating layer relu7
I0913 10:26:32.652930 21619 net.cpp:84] Creating Layer relu7
I0913 10:26:32.652938 21619 net.cpp:406] relu7 <- fc7_sc
I0913 10:26:32.652951 21619 net.cpp:367] relu7 -> fc7_sc (in-place)
I0913 10:26:32.653532 21619 net.cpp:122] Setting up relu7
I0913 10:26:32.653543 21619 net.cpp:129] Top shape: 100 512 (51200)
I0913 10:26:32.653548 21619 net.cpp:137] Memory required for data: 391988400
I0913 10:26:32.653554 21619 layer_factory.hpp:77] Creating layer drop7
I0913 10:26:32.653570 21619 net.cpp:84] Creating Layer drop7
I0913 10:26:32.653578 21619 net.cpp:406] drop7 <- fc7_sc
I0913 10:26:32.653594 21619 net.cpp:367] drop7 -> fc7_sc (in-place)
I0913 10:26:32.653632 21619 net.cpp:122] Setting up drop7
I0913 10:26:32.653641 21619 net.cpp:129] Top shape: 100 512 (51200)
I0913 10:26:32.653645 21619 net.cpp:137] Memory required for data: 392193200
I0913 10:26:32.653651 21619 layer_factory.hpp:77] Creating layer fc8
I0913 10:26:32.653676 21619 net.cpp:84] Creating Layer fc8
I0913 10:26:32.653683 21619 net.cpp:406] fc8 <- fc7_sc
I0913 10:26:32.653702 21619 net.cpp:380] fc8 -> fc8
I0913 10:26:32.688091 21619 net.cpp:122] Setting up fc8
I0913 10:26:32.688112 21619 net.cpp:129] Top shape: 100 512 (51200)
I0913 10:26:32.688117 21619 net.cpp:137] Memory required for data: 392398000
I0913 10:26:32.688133 21619 layer_factory.hpp:77] Creating layer bn8_bn
I0913 10:26:32.688161 21619 net.cpp:84] Creating Layer bn8_bn
I0913 10:26:32.688182 21619 net.cpp:406] bn8_bn <- fc8
I0913 10:26:32.688210 21619 net.cpp:380] bn8_bn -> fc8_bn
I0913 10:26:32.688450 21619 net.cpp:122] Setting up bn8_bn
I0913 10:26:32.688462 21619 net.cpp:129] Top shape: 100 512 (51200)
I0913 10:26:32.688465 21619 net.cpp:137] Memory required for data: 392602800
I0913 10:26:32.688483 21619 layer_factory.hpp:77] Creating layer bn8_scal
I0913 10:26:32.688508 21619 net.cpp:84] Creating Layer bn8_scal
I0913 10:26:32.688534 21619 net.cpp:406] bn8_scal <- fc8_bn
I0913 10:26:32.688549 21619 net.cpp:380] bn8_scal -> fc8_sc
I0913 10:26:32.688642 21619 layer_factory.hpp:77] Creating layer bn8_scal
I0913 10:26:32.688832 21619 net.cpp:122] Setting up bn8_scal
I0913 10:26:32.688851 21619 net.cpp:129] Top shape: 100 512 (51200)
I0913 10:26:32.688855 21619 net.cpp:137] Memory required for data: 392807600
I0913 10:26:32.688877 21619 layer_factory.hpp:77] Creating layer relu8
I0913 10:26:32.688890 21619 net.cpp:84] Creating Layer relu8
I0913 10:26:32.688899 21619 net.cpp:406] relu8 <- fc8_sc
I0913 10:26:32.688911 21619 net.cpp:367] relu8 -> fc8_sc (in-place)
I0913 10:26:32.689272 21619 net.cpp:122] Setting up relu8
I0913 10:26:32.689283 21619 net.cpp:129] Top shape: 100 512 (51200)
I0913 10:26:32.689287 21619 net.cpp:137] Memory required for data: 393012400
I0913 10:26:32.689292 21619 layer_factory.hpp:77] Creating layer drop8
I0913 10:26:32.689306 21619 net.cpp:84] Creating Layer drop8
I0913 10:26:32.689313 21619 net.cpp:406] drop8 <- fc8_sc
I0913 10:26:32.689327 21619 net.cpp:367] drop8 -> fc8_sc (in-place)
I0913 10:26:32.689366 21619 net.cpp:122] Setting up drop8
I0913 10:26:32.689374 21619 net.cpp:129] Top shape: 100 512 (51200)
I0913 10:26:32.689378 21619 net.cpp:137] Memory required for data: 393217200
I0913 10:26:32.689383 21619 layer_factory.hpp:77] Creating layer fc9
I0913 10:26:32.689404 21619 net.cpp:84] Creating Layer fc9
I0913 10:26:32.689411 21619 net.cpp:406] fc9 <- fc8_sc
I0913 10:26:32.689429 21619 net.cpp:380] fc9 -> fc9
I0913 10:26:32.690345 21619 net.cpp:122] Setting up fc9
I0913 10:26:32.690356 21619 net.cpp:129] Top shape: 100 10 (1000)
I0913 10:26:32.690359 21619 net.cpp:137] Memory required for data: 393221200
I0913 10:26:32.690373 21619 layer_factory.hpp:77] Creating layer fc9_fc9_0_split
I0913 10:26:32.690387 21619 net.cpp:84] Creating Layer fc9_fc9_0_split
I0913 10:26:32.690394 21619 net.cpp:406] fc9_fc9_0_split <- fc9
I0913 10:26:32.690408 21619 net.cpp:380] fc9_fc9_0_split -> fc9_fc9_0_split_0
I0913 10:26:32.690431 21619 net.cpp:380] fc9_fc9_0_split -> fc9_fc9_0_split_1
I0913 10:26:32.690497 21619 net.cpp:122] Setting up fc9_fc9_0_split
I0913 10:26:32.690515 21619 net.cpp:129] Top shape: 100 10 (1000)
I0913 10:26:32.690521 21619 net.cpp:129] Top shape: 100 10 (1000)
I0913 10:26:32.690527 21619 net.cpp:137] Memory required for data: 393229200
I0913 10:26:32.690536 21619 layer_factory.hpp:77] Creating layer accuracy
I0913 10:26:32.690559 21619 net.cpp:84] Creating Layer accuracy
I0913 10:26:32.690568 21619 net.cpp:406] accuracy <- fc9_fc9_0_split_0
I0913 10:26:32.690583 21619 net.cpp:406] accuracy <- label_cifar_1_split_0
I0913 10:26:32.690599 21619 net.cpp:380] accuracy -> accuracy
…
