…
I0828 17:31:20.650122  4394 net.cpp:294] The NetState phase (0) differed from the phase (1) specified by a rule in layer accuracy
I0828 17:31:20.650301  4394 net.cpp:51] Initializing net from parameters: 
name: "CIFAR10_vgg"
state {
  phase: TRAIN
  level: 0
  stage: ""
}
layer {
  name: "cifar"
  type: "Data"
  top: "data"
  top: "label"
  include {
    phase: TRAIN
  }
  transform_param {
    mirror: true
    crop_size: 32
    mean_file: "examples/cifar10/mean.binaryproto"
  }
  data_param {
    source: "examples/cifar10/cifar10_train_lmdb"
    batch_size: 100
    backend: LMDB
  }
}
layer {
  name: "conv1"
  type: "BinaryConvolution"
  bottom: "data"
  top: "conv1"
  param {
    lr_mult: 1
    decay_mult: 1
  }
  convolution_param {
    num_output: 64
    bias_term: false
    pad: 1
    kernel_size: 3
    stride: 1
    weight_filler {
      type: "gaussian"
      std: 0.01
    }
  }
  debug_param {
    xnorno_grad: false
    binary_relax: true
  }
}
layer {
  name: "bn1_bn"
  type: "BatchNorm"
  bottom: "conv1"
  top: "conv1_bn"
}
layer {
  name: "bn1_scal"
  type: "Scale"
  bottom: "conv1_bn"
  top: "conv1_sc"
  scale_param {
    bias_term: true
  }
}
layer {
  name: "relu1"
  type: "ReLU"
  bottom: "conv1_sc"
  top: "conv1_sc"
}
layer {
  name: "conv2"
  type: "BinaryConvolution"
  bottom: "conv1_sc"
  top: "conv2"
  param {
    lr_mult: 1
    decay_mult: 1
  }
  convolution_param {
    num_output: 64
    bias_term: false
    pad: 1
    kernel_size: 3
    stride: 1
    weight_filler {
      type: "gaussian"
      std: 0.01
    }
  }
  debug_param {
    xnorno_grad: false
    binary_relax: true
  }
}
layer {
  name: "bn2_bn"
  type: "BatchNorm"
  bottom: "conv2"
  top: "conv2_bn"
}
layer {
  name: "bn2_scal"
  type: "Scale"
  bottom: "conv2_bn"
  top: "conv2_sc"
  scale_param {
    bias_term: true
  }
}
layer {
  name: "relu2"
  type: "ReLU"
  bottom: "conv2_sc"
  top: "conv2_sc"
}
layer {
  name: "pool1"
  type: "Pooling"
  bottom: "conv2_sc"
  top: "pool1"
  pooling_param {
    pool: MAX
    kernel_size: 2
    stride: 2
  }
}
layer {
  name: "drop1"
  type: "Dropout"
  bottom: "pool1"
  top: "pool1"
  dropout_param {
    dropout_ratio: 0.25
  }
}
layer {
  name: "conv3"
  type: "BinaryConvolution"
  bottom: "pool1"
  top: "conv3"
  param {
    lr_mult: 1
    decay_mult: 1
  }
  convolution_param {
    num_output: 128
    bias_term: false
    pad: 1
    kernel_size: 3
    stride: 1
    weight_filler {
      type: "gaussian"
      std: 0.01
    }
  }
  debug_param {
    xnorno_grad: false
    binary_relax: true
  }
}
layer {
  name: "bn3_bn"
  type: "BatchNorm"
  bottom: "conv3"
  top: "conv3_bn"
}
layer {
  name: "bn3_scal"
  type: "Scale"
  bottom: "conv3_bn"
  top: "conv3_sc"
  scale_param {
    bias_term: true
  }
}
layer {
  name: "relu3"
  type: "ReLU"
  bottom: "conv3_sc"
  top: "conv3_sc"
}
layer {
  name: "conv4"
  type: "BinaryConvolution"
  bottom: "conv3_sc"
  top: "conv4"
  param {
    lr_mult: 1
    decay_mult: 1
  }
  convolution_param {
    num_output: 128
    bias_term: false
    pad: 1
    kernel_size: 3
    stride: 1
    weight_filler {
      type: "gaussian"
      std: 0.01
    }
  }
  debug_param {
    xnorno_grad: false
    binary_relax: true
  }
}
layer {
  name: "bn4_bn"
  type: "BatchNorm"
  bottom: "conv4"
  top: "conv4_bn"
}
layer {
  name: "bn4_scal"
  type: "Scale"
  bottom: "conv4_bn"
  top: "conv4_sc"
  scale_param {
    bias_term: true
  }
}
layer {
  name: "relu4"
  type: "ReLU"
  bottom: "conv4_sc"
  top: "conv4_sc"
}
layer {
  name: "pool2"
  type: "Pooling"
  bottom: "conv4_sc"
  top: "pool2"
  pooling_param {
    pool: MAX
    kernel_size: 2
    stride: 2
  }
}
layer {
  name: "drop2"
  type: "Dropout"
  bottom: "pool2"
  top: "pool2"
  dropout_param {
    dropout_ratio: 0.25
  }
}
layer {
  name: "conv5"
  type: "BinaryConvolution"
  bottom: "pool2"
  top: "conv5"
  param {
    lr_mult: 1
    decay_mult: 1
  }
  convolution_param {
    num_output: 256
    bias_term: false
    pad: 1
    kernel_size: 3
    stride: 1
    weight_filler {
      type: "gaussian"
      std: 0.01
    }
  }
  debug_param {
    xnorno_grad: false
    binary_relax: true
  }
}
layer {
  name: "bn5_bn"
  type: "BatchNorm"
  bottom: "conv5"
  top: "conv5_bn"
}
layer {
  name: "bn5_scal"
  type: "Scale"
  bottom: "conv5_bn"
  top: "conv5_sc"
  scale_param {
    bias_term: true
  }
}
layer {
  name: "relu5"
  type: "ReLU"
  bottom: "conv5_sc"
  top: "conv5_sc"
}
layer {
  name: "conv6"
  type: "BinaryConvolution"
  bottom: "conv5_sc"
  top: "conv6"
  param {
    lr_mult: 1
    decay_mult: 1
  }
  convolution_param {
    num_output: 256
    bias_term: false
    pad: 1
    kernel_size: 3
    stride: 1
    weight_filler {
      type: "gaussian"
      std: 0.01
    }
  }
  debug_param {
    xnorno_grad: false
    binary_relax: true
  }
}
layer {
  name: "bn6_bn"
  type: "BatchNorm"
  bottom: "conv6"
  top: "conv6_bn"
}
layer {
  name: "bn6_scal"
  type: "Scale"
  bottom: "conv6_bn"
  top: "conv6_sc"
  scale_param {
    bias_term: true
  }
}
layer {
  name: "relu6"
  type: "ReLU"
  bottom: "conv6_sc"
  top: "conv6_sc"
}
layer {
  name: "pool3"
  type: "Pooling"
  bottom: "conv6_sc"
  top: "pool3"
  pooling_param {
    pool: MAX
    kernel_size: 2
    stride: 2
  }
}
layer {
  name: "drop3"
  type: "Dropout"
  bottom: "pool3"
  top: "pool3"
  dropout_param {
    dropout_ratio: 0.25
  }
}
layer {
  name: "fc7"
  type: "BinaryInnerProduct"
  bottom: "pool3"
  top: "fc7"
  param {
    lr_mult: 1
    decay_mult: 1
  }
  inner_product_param {
    num_output: 512
    bias_term: false
    weight_filler {
      type: "gaussian"
      std: 0.01
    }
  }
  debug_param {
    xnorno_grad: false
    binary_relax: true
  }
}
layer {
  name: "bn7_bn"
  type: "BatchNorm"
  bottom: "fc7"
  top: "fc7_bn"
}
layer {
  name: "bn7_scal"
  type: "Scale"
  bottom: "fc7_bn"
  top: "fc7_sc"
  scale_param {
    bias_term: true
  }
}
layer {
  name: "relu7"
  type: "ReLU"
  bottom: "fc7_sc"
  top: "fc7_sc"
}
layer {
  name: "drop7"
  type: "Dropout"
  bottom: "fc7_sc"
  top: "fc7_sc"
  dropout_param {
    dropout_ratio: 0.5
  }
}
layer {
  name: "fc8"
  type: "BinaryInnerProduct"
  bottom: "fc7_sc"
  top: "fc8"
  param {
    lr_mult: 1
    decay_mult: 1
  }
  inner_product_param {
    num_output: 512
    bias_term: false
    weight_filler {
      type: "gaussian"
      std: 0.01
    }
  }
  debug_param {
    xnorno_grad: false
    binary_relax: true
  }
}
layer {
  name: "bn8_bn"
  type: "BatchNorm"
  bottom: "fc8"
  top: "fc8_bn"
}
layer {
  name: "bn8_scal"
  type: "Scale"
  bottom: "fc8_bn"
  top: "fc8_sc"
  scale_param {
    bias_term: true
  }
}
layer {
  name: "relu8"
  type: "ReLU"
  bottom: "fc8_sc"
  top: "fc8_sc"
}
layer {
  name: "drop8"
  type: "Dropout"
  bottom: "fc8_sc"
  top: "fc8_sc"
  dropout_param {
    dropout_ratio: 0.5
  }
}
layer {
  name: "fc9"
  type: "BinaryInnerProduct"
  bottom: "fc8_sc"
  top: "fc9"
  param {
    lr_mult: 1
    decay_mult: 1
  }
  param {
    lr_mult: 2
    decay_mult: 0
  }
  inner_product_param {
    num_output: 10
    weight_filler {
      type: "gaussian"
      std: 0.01
    }
    bias_filler {
      type: "constant"
      value: 0.01
    }
  }
  debug_param {
    xnorno_grad: false
    binary_relax: true
  }
}
layer {
  name: "loss"
  type: "SoftmaxWithLoss"
  bottom: "fc9"
  bottom: "label"
  top: "loss"
}
I0828 17:31:20.650966  4394 layer_factory.hpp:77] Creating layer cifar
I0828 17:31:20.651147  4394 db_lmdb.cpp:35] Opened lmdb examples/cifar10/cifar10_train_lmdb
I0828 17:31:20.651201  4394 net.cpp:84] Creating Layer cifar
I0828 17:31:20.651223  4394 net.cpp:380] cifar -> data
I0828 17:31:20.651341  4394 net.cpp:380] cifar -> label
I0828 17:31:20.651378  4394 data_transformer.cpp:25] Loading mean file from: examples/cifar10/mean.binaryproto
I0828 17:31:20.652580  4394 data_layer.cpp:45] output data size: 100,3,32,32
I0828 17:31:20.655274  4394 base_data_layer.cpp:72] Initializing prefetch
I0828 17:31:20.655474  4394 base_data_layer.cpp:75] Prefetch initialized.
I0828 17:31:20.655486  4394 net.cpp:122] Setting up cifar
I0828 17:31:20.655521  4394 net.cpp:129] Top shape: 100 3 32 32 (307200)
I0828 17:31:20.655531  4394 net.cpp:129] Top shape: 100 (100)
I0828 17:31:20.655539  4394 net.cpp:137] Memory required for data: 1229200
I0828 17:31:20.655568  4394 layer_factory.hpp:77] Creating layer conv1
I0828 17:31:20.655630  4394 net.cpp:84] Creating Layer conv1
I0828 17:31:20.655653  4394 net.cpp:406] conv1 <- data
I0828 17:31:20.655704  4394 net.cpp:380] conv1 -> conv1
I0828 17:31:20.656386  4394 net.cpp:122] Setting up conv1
I0828 17:31:20.656399  4394 net.cpp:129] Top shape: 100 64 32 32 (6553600)
I0828 17:31:20.656406  4394 net.cpp:137] Memory required for data: 27443600
I0828 17:31:20.656455  4394 layer_factory.hpp:77] Creating layer bn1_bn
I0828 17:31:20.656478  4394 net.cpp:84] Creating Layer bn1_bn
I0828 17:31:20.656487  4394 net.cpp:406] bn1_bn <- conv1
I0828 17:31:20.656507  4394 net.cpp:380] bn1_bn -> conv1_bn
I0828 17:31:20.657097  4394 net.cpp:122] Setting up bn1_bn
I0828 17:31:20.657115  4394 net.cpp:129] Top shape: 100 64 32 32 (6553600)
I0828 17:31:20.657119  4394 net.cpp:137] Memory required for data: 53658000
I0828 17:31:20.657157  4394 layer_factory.hpp:77] Creating layer bn1_scal
I0828 17:31:20.657182  4394 net.cpp:84] Creating Layer bn1_scal
I0828 17:31:20.657196  4394 net.cpp:406] bn1_scal <- conv1_bn
I0828 17:31:20.657220  4394 net.cpp:380] bn1_scal -> conv1_sc
I0828 17:31:20.657294  4394 layer_factory.hpp:77] Creating layer bn1_scal
I0828 17:31:20.657446  4394 net.cpp:122] Setting up bn1_scal
I0828 17:31:20.657459  4394 net.cpp:129] Top shape: 100 64 32 32 (6553600)
I0828 17:31:20.657464  4394 net.cpp:137] Memory required for data: 79872400
I0828 17:31:20.657490  4394 layer_factory.hpp:77] Creating layer relu1
I0828 17:31:20.657526  4394 net.cpp:84] Creating Layer relu1
I0828 17:31:20.657537  4394 net.cpp:406] relu1 <- conv1_sc
I0828 17:31:20.657567  4394 net.cpp:367] relu1 -> conv1_sc (in-place)
I0828 17:31:21.009861  4394 net.cpp:122] Setting up relu1
I0828 17:31:21.009892  4394 net.cpp:129] Top shape: 100 64 32 32 (6553600)
I0828 17:31:21.009897  4394 net.cpp:137] Memory required for data: 106086800
I0828 17:31:21.009914  4394 layer_factory.hpp:77] Creating layer conv2
I0828 17:31:21.009992  4394 net.cpp:84] Creating Layer conv2
I0828 17:31:21.010018  4394 net.cpp:406] conv2 <- conv1_sc
I0828 17:31:21.010087  4394 net.cpp:380] conv2 -> conv2
I0828 17:31:21.015215  4394 net.cpp:122] Setting up conv2
I0828 17:31:21.015231  4394 net.cpp:129] Top shape: 100 64 32 32 (6553600)
I0828 17:31:21.015235  4394 net.cpp:137] Memory required for data: 132301200
I0828 17:31:21.015250  4394 layer_factory.hpp:77] Creating layer bn2_bn
I0828 17:31:21.015280  4394 net.cpp:84] Creating Layer bn2_bn
I0828 17:31:21.015306  4394 net.cpp:406] bn2_bn <- conv2
I0828 17:31:21.015323  4394 net.cpp:380] bn2_bn -> conv2_bn
I0828 17:31:21.015570  4394 net.cpp:122] Setting up bn2_bn
I0828 17:31:21.015583  4394 net.cpp:129] Top shape: 100 64 32 32 (6553600)
I0828 17:31:21.015585  4394 net.cpp:137] Memory required for data: 158515600
I0828 17:31:21.015630  4394 layer_factory.hpp:77] Creating layer bn2_scal
I0828 17:31:21.015671  4394 net.cpp:84] Creating Layer bn2_scal
I0828 17:31:21.015719  4394 net.cpp:406] bn2_scal <- conv2_bn
I0828 17:31:21.015748  4394 net.cpp:380] bn2_scal -> conv2_sc
I0828 17:31:21.015830  4394 layer_factory.hpp:77] Creating layer bn2_scal
I0828 17:31:21.016000  4394 net.cpp:122] Setting up bn2_scal
I0828 17:31:21.016021  4394 net.cpp:129] Top shape: 100 64 32 32 (6553600)
I0828 17:31:21.016026  4394 net.cpp:137] Memory required for data: 184730000
I0828 17:31:21.016043  4394 layer_factory.hpp:77] Creating layer relu2
I0828 17:31:21.016094  4394 net.cpp:84] Creating Layer relu2
I0828 17:31:21.016103  4394 net.cpp:406] relu2 <- conv2_sc
I0828 17:31:21.016129  4394 net.cpp:367] relu2 -> conv2_sc (in-place)
I0828 17:31:21.016510  4394 net.cpp:122] Setting up relu2
I0828 17:31:21.016520  4394 net.cpp:129] Top shape: 100 64 32 32 (6553600)
I0828 17:31:21.016527  4394 net.cpp:137] Memory required for data: 210944400
I0828 17:31:21.016538  4394 layer_factory.hpp:77] Creating layer pool1
I0828 17:31:21.016575  4394 net.cpp:84] Creating Layer pool1
I0828 17:31:21.016594  4394 net.cpp:406] pool1 <- conv2_sc
I0828 17:31:21.016609  4394 net.cpp:380] pool1 -> pool1
I0828 17:31:21.016680  4394 net.cpp:122] Setting up pool1
I0828 17:31:21.016691  4394 net.cpp:129] Top shape: 100 64 16 16 (1638400)
I0828 17:31:21.016695  4394 net.cpp:137] Memory required for data: 217498000
I0828 17:31:21.016700  4394 layer_factory.hpp:77] Creating layer drop1
I0828 17:31:21.016718  4394 net.cpp:84] Creating Layer drop1
I0828 17:31:21.016726  4394 net.cpp:406] drop1 <- pool1
I0828 17:31:21.016741  4394 net.cpp:367] drop1 -> pool1 (in-place)
I0828 17:31:21.016788  4394 net.cpp:122] Setting up drop1
I0828 17:31:21.016798  4394 net.cpp:129] Top shape: 100 64 16 16 (1638400)
I0828 17:31:21.016819  4394 net.cpp:137] Memory required for data: 224051600
I0828 17:31:21.016825  4394 layer_factory.hpp:77] Creating layer conv3
I0828 17:31:21.016847  4394 net.cpp:84] Creating Layer conv3
I0828 17:31:21.016857  4394 net.cpp:406] conv3 <- pool1
I0828 17:31:21.016885  4394 net.cpp:380] conv3 -> conv3
I0828 17:31:21.027086  4394 net.cpp:122] Setting up conv3
I0828 17:31:21.027127  4394 net.cpp:129] Top shape: 100 128 16 16 (3276800)
I0828 17:31:21.027132  4394 net.cpp:137] Memory required for data: 237158800
I0828 17:31:21.027165  4394 layer_factory.hpp:77] Creating layer bn3_bn
I0828 17:31:21.027205  4394 net.cpp:84] Creating Layer bn3_bn
I0828 17:31:21.027220  4394 net.cpp:406] bn3_bn <- conv3
I0828 17:31:21.027251  4394 net.cpp:380] bn3_bn -> conv3_bn
I0828 17:31:21.027518  4394 net.cpp:122] Setting up bn3_bn
I0828 17:31:21.027529  4394 net.cpp:129] Top shape: 100 128 16 16 (3276800)
I0828 17:31:21.027534  4394 net.cpp:137] Memory required for data: 250266000
I0828 17:31:21.027552  4394 layer_factory.hpp:77] Creating layer bn3_scal
I0828 17:31:21.027570  4394 net.cpp:84] Creating Layer bn3_scal
I0828 17:31:21.027577  4394 net.cpp:406] bn3_scal <- conv3_bn
I0828 17:31:21.027591  4394 net.cpp:380] bn3_scal -> conv3_sc
I0828 17:31:21.027664  4394 layer_factory.hpp:77] Creating layer bn3_scal
I0828 17:31:21.027817  4394 net.cpp:122] Setting up bn3_scal
I0828 17:31:21.027828  4394 net.cpp:129] Top shape: 100 128 16 16 (3276800)
I0828 17:31:21.027832  4394 net.cpp:137] Memory required for data: 263373200
I0828 17:31:21.027859  4394 layer_factory.hpp:77] Creating layer relu3
I0828 17:31:21.027874  4394 net.cpp:84] Creating Layer relu3
I0828 17:31:21.027884  4394 net.cpp:406] relu3 <- conv3_sc
I0828 17:31:21.027907  4394 net.cpp:367] relu3 -> conv3_sc (in-place)
I0828 17:31:21.028538  4394 net.cpp:122] Setting up relu3
I0828 17:31:21.028551  4394 net.cpp:129] Top shape: 100 128 16 16 (3276800)
I0828 17:31:21.028558  4394 net.cpp:137] Memory required for data: 276480400
I0828 17:31:21.028570  4394 layer_factory.hpp:77] Creating layer conv4
I0828 17:31:21.028605  4394 net.cpp:84] Creating Layer conv4
I0828 17:31:21.028618  4394 net.cpp:406] conv4 <- conv3_sc
I0828 17:31:21.028648  4394 net.cpp:380] conv4 -> conv4
I0828 17:31:21.047821  4394 net.cpp:122] Setting up conv4
I0828 17:31:21.047859  4394 net.cpp:129] Top shape: 100 128 16 16 (3276800)
I0828 17:31:21.047891  4394 net.cpp:137] Memory required for data: 289587600
I0828 17:31:21.047943  4394 layer_factory.hpp:77] Creating layer bn4_bn
I0828 17:31:21.048024  4394 net.cpp:84] Creating Layer bn4_bn
I0828 17:31:21.048050  4394 net.cpp:406] bn4_bn <- conv4
I0828 17:31:21.048089  4394 net.cpp:380] bn4_bn -> conv4_bn
I0828 17:31:21.048331  4394 net.cpp:122] Setting up bn4_bn
I0828 17:31:21.048344  4394 net.cpp:129] Top shape: 100 128 16 16 (3276800)
I0828 17:31:21.048360  4394 net.cpp:137] Memory required for data: 302694800
I0828 17:31:21.048395  4394 layer_factory.hpp:77] Creating layer bn4_scal
I0828 17:31:21.048418  4394 net.cpp:84] Creating Layer bn4_scal
I0828 17:31:21.048429  4394 net.cpp:406] bn4_scal <- conv4_bn
I0828 17:31:21.048460  4394 net.cpp:380] bn4_scal -> conv4_sc
I0828 17:31:21.048547  4394 layer_factory.hpp:77] Creating layer bn4_scal
I0828 17:31:21.048708  4394 net.cpp:122] Setting up bn4_scal
I0828 17:31:21.048723  4394 net.cpp:129] Top shape: 100 128 16 16 (3276800)
I0828 17:31:21.048732  4394 net.cpp:137] Memory required for data: 315802000
I0828 17:31:21.048753  4394 layer_factory.hpp:77] Creating layer relu4
I0828 17:31:21.048772  4394 net.cpp:84] Creating Layer relu4
I0828 17:31:21.048784  4394 net.cpp:406] relu4 <- conv4_sc
I0828 17:31:21.048805  4394 net.cpp:367] relu4 -> conv4_sc (in-place)
I0828 17:31:21.049209  4394 net.cpp:122] Setting up relu4
I0828 17:31:21.049223  4394 net.cpp:129] Top shape: 100 128 16 16 (3276800)
I0828 17:31:21.049232  4394 net.cpp:137] Memory required for data: 328909200
I0828 17:31:21.049243  4394 layer_factory.hpp:77] Creating layer pool2
I0828 17:31:21.049268  4394 net.cpp:84] Creating Layer pool2
I0828 17:31:21.049280  4394 net.cpp:406] pool2 <- conv4_sc
I0828 17:31:21.049305  4394 net.cpp:380] pool2 -> pool2
I0828 17:31:21.049371  4394 net.cpp:122] Setting up pool2
I0828 17:31:21.049387  4394 net.cpp:129] Top shape: 100 128 8 8 (819200)
I0828 17:31:21.049396  4394 net.cpp:137] Memory required for data: 332186000
I0828 17:31:21.049407  4394 layer_factory.hpp:77] Creating layer drop2
I0828 17:31:21.049427  4394 net.cpp:84] Creating Layer drop2
I0828 17:31:21.049438  4394 net.cpp:406] drop2 <- pool2
I0828 17:31:21.049460  4394 net.cpp:367] drop2 -> pool2 (in-place)
I0828 17:31:21.049504  4394 net.cpp:122] Setting up drop2
I0828 17:31:21.049515  4394 net.cpp:129] Top shape: 100 128 8 8 (819200)
I0828 17:31:21.049522  4394 net.cpp:137] Memory required for data: 335462800
I0828 17:31:21.049533  4394 layer_factory.hpp:77] Creating layer conv5
I0828 17:31:21.049563  4394 net.cpp:84] Creating Layer conv5
I0828 17:31:21.049576  4394 net.cpp:406] conv5 <- pool2
I0828 17:31:21.049602  4394 net.cpp:380] conv5 -> conv5
I0828 17:31:21.087215  4394 net.cpp:122] Setting up conv5
I0828 17:31:21.087261  4394 net.cpp:129] Top shape: 100 256 8 8 (1638400)
I0828 17:31:21.087270  4394 net.cpp:137] Memory required for data: 342016400
I0828 17:31:21.087301  4394 layer_factory.hpp:77] Creating layer bn5_bn
I0828 17:31:21.087338  4394 net.cpp:84] Creating Layer bn5_bn
I0828 17:31:21.087357  4394 net.cpp:406] bn5_bn <- conv5
I0828 17:31:21.087391  4394 net.cpp:380] bn5_bn -> conv5_bn
I0828 17:31:21.087636  4394 net.cpp:122] Setting up bn5_bn
I0828 17:31:21.087652  4394 net.cpp:129] Top shape: 100 256 8 8 (1638400)
I0828 17:31:21.087661  4394 net.cpp:137] Memory required for data: 348570000
I0828 17:31:21.087687  4394 layer_factory.hpp:77] Creating layer bn5_scal
I0828 17:31:21.087712  4394 net.cpp:84] Creating Layer bn5_scal
I0828 17:31:21.087723  4394 net.cpp:406] bn5_scal <- conv5_bn
I0828 17:31:21.087747  4394 net.cpp:380] bn5_scal -> conv5_sc
I0828 17:31:21.087827  4394 layer_factory.hpp:77] Creating layer bn5_scal
I0828 17:31:21.087988  4394 net.cpp:122] Setting up bn5_scal
I0828 17:31:21.088003  4394 net.cpp:129] Top shape: 100 256 8 8 (1638400)
I0828 17:31:21.088013  4394 net.cpp:137] Memory required for data: 355123600
I0828 17:31:21.088037  4394 layer_factory.hpp:77] Creating layer relu5
I0828 17:31:21.088055  4394 net.cpp:84] Creating Layer relu5
I0828 17:31:21.088078  4394 net.cpp:406] relu5 <- conv5_sc
I0828 17:31:21.088101  4394 net.cpp:367] relu5 -> conv5_sc (in-place)
I0828 17:31:21.088732  4394 net.cpp:122] Setting up relu5
I0828 17:31:21.088747  4394 net.cpp:129] Top shape: 100 256 8 8 (1638400)
I0828 17:31:21.088757  4394 net.cpp:137] Memory required for data: 361677200
I0828 17:31:21.088768  4394 layer_factory.hpp:77] Creating layer conv6
I0828 17:31:21.088802  4394 net.cpp:84] Creating Layer conv6
I0828 17:31:21.088814  4394 net.cpp:406] conv6 <- conv5_sc
I0828 17:31:21.088843  4394 net.cpp:380] conv6 -> conv6
I0828 17:31:21.161799  4394 net.cpp:122] Setting up conv6
I0828 17:31:21.161840  4394 net.cpp:129] Top shape: 100 256 8 8 (1638400)
I0828 17:31:21.161849  4394 net.cpp:137] Memory required for data: 368230800
I0828 17:31:21.161895  4394 layer_factory.hpp:77] Creating layer bn6_bn
I0828 17:31:21.161939  4394 net.cpp:84] Creating Layer bn6_bn
I0828 17:31:21.161974  4394 net.cpp:406] bn6_bn <- conv6
I0828 17:31:21.162015  4394 net.cpp:380] bn6_bn -> conv6_bn
I0828 17:31:21.162308  4394 net.cpp:122] Setting up bn6_bn
I0828 17:31:21.162323  4394 net.cpp:129] Top shape: 100 256 8 8 (1638400)
I0828 17:31:21.162331  4394 net.cpp:137] Memory required for data: 374784400
I0828 17:31:21.162394  4394 layer_factory.hpp:77] Creating layer bn6_scal
I0828 17:31:21.162428  4394 net.cpp:84] Creating Layer bn6_scal
I0828 17:31:21.162441  4394 net.cpp:406] bn6_scal <- conv6_bn
I0828 17:31:21.162472  4394 net.cpp:380] bn6_scal -> conv6_sc
I0828 17:31:21.162601  4394 layer_factory.hpp:77] Creating layer bn6_scal
I0828 17:31:21.162777  4394 net.cpp:122] Setting up bn6_scal
I0828 17:31:21.162792  4394 net.cpp:129] Top shape: 100 256 8 8 (1638400)
I0828 17:31:21.162801  4394 net.cpp:137] Memory required for data: 381338000
I0828 17:31:21.162828  4394 layer_factory.hpp:77] Creating layer relu6
I0828 17:31:21.162847  4394 net.cpp:84] Creating Layer relu6
I0828 17:31:21.162858  4394 net.cpp:406] relu6 <- conv6_sc
I0828 17:31:21.162881  4394 net.cpp:367] relu6 -> conv6_sc (in-place)
I0828 17:31:21.163509  4394 net.cpp:122] Setting up relu6
I0828 17:31:21.163523  4394 net.cpp:129] Top shape: 100 256 8 8 (1638400)
I0828 17:31:21.163530  4394 net.cpp:137] Memory required for data: 387891600
I0828 17:31:21.163542  4394 layer_factory.hpp:77] Creating layer pool3
I0828 17:31:21.163566  4394 net.cpp:84] Creating Layer pool3
I0828 17:31:21.163580  4394 net.cpp:406] pool3 <- conv6_sc
I0828 17:31:21.163604  4394 net.cpp:380] pool3 -> pool3
I0828 17:31:21.163674  4394 net.cpp:122] Setting up pool3
I0828 17:31:21.163688  4394 net.cpp:129] Top shape: 100 256 4 4 (409600)
I0828 17:31:21.163697  4394 net.cpp:137] Memory required for data: 389530000
I0828 17:31:21.163707  4394 layer_factory.hpp:77] Creating layer drop3
I0828 17:31:21.163729  4394 net.cpp:84] Creating Layer drop3
I0828 17:31:21.163740  4394 net.cpp:406] drop3 <- pool3
I0828 17:31:21.163764  4394 net.cpp:367] drop3 -> pool3 (in-place)
I0828 17:31:21.163807  4394 net.cpp:122] Setting up drop3
I0828 17:31:21.163821  4394 net.cpp:129] Top shape: 100 256 4 4 (409600)
I0828 17:31:21.163830  4394 net.cpp:137] Memory required for data: 391168400
I0828 17:31:21.163841  4394 layer_factory.hpp:77] Creating layer fc7
I0828 17:31:21.163874  4394 net.cpp:84] Creating Layer fc7
I0828 17:31:21.163887  4394 net.cpp:406] fc7 <- pool3
I0828 17:31:21.163913  4394 net.cpp:380] fc7 -> fc7
I0828 17:31:21.423220  4394 net.cpp:122] Setting up fc7
I0828 17:31:21.423261  4394 net.cpp:129] Top shape: 100 512 (51200)
I0828 17:31:21.423269  4394 net.cpp:137] Memory required for data: 391373200
I0828 17:31:21.423317  4394 layer_factory.hpp:77] Creating layer bn7_bn
I0828 17:31:21.423398  4394 net.cpp:84] Creating Layer bn7_bn
I0828 17:31:21.423424  4394 net.cpp:406] bn7_bn <- fc7
I0828 17:31:21.423481  4394 net.cpp:380] bn7_bn -> fc7_bn
I0828 17:31:21.423743  4394 net.cpp:122] Setting up bn7_bn
I0828 17:31:21.423756  4394 net.cpp:129] Top shape: 100 512 (51200)
I0828 17:31:21.423763  4394 net.cpp:137] Memory required for data: 391578000
I0828 17:31:21.423804  4394 layer_factory.hpp:77] Creating layer bn7_scal
I0828 17:31:21.423827  4394 net.cpp:84] Creating Layer bn7_scal
I0828 17:31:21.423838  4394 net.cpp:406] bn7_scal <- fc7_bn
I0828 17:31:21.423861  4394 net.cpp:380] bn7_scal -> fc7_sc
I0828 17:31:21.423940  4394 layer_factory.hpp:77] Creating layer bn7_scal
I0828 17:31:21.424103  4394 net.cpp:122] Setting up bn7_scal
I0828 17:31:21.424118  4394 net.cpp:129] Top shape: 100 512 (51200)
I0828 17:31:21.424129  4394 net.cpp:137] Memory required for data: 391782800
I0828 17:31:21.424149  4394 layer_factory.hpp:77] Creating layer relu7
I0828 17:31:21.424166  4394 net.cpp:84] Creating Layer relu7
I0828 17:31:21.424186  4394 net.cpp:406] relu7 <- fc7_sc
I0828 17:31:21.424207  4394 net.cpp:367] relu7 -> fc7_sc (in-place)
I0828 17:31:21.424643  4394 net.cpp:122] Setting up relu7
I0828 17:31:21.424655  4394 net.cpp:129] Top shape: 100 512 (51200)
I0828 17:31:21.424662  4394 net.cpp:137] Memory required for data: 391987600
I0828 17:31:21.424674  4394 layer_factory.hpp:77] Creating layer drop7
I0828 17:31:21.424700  4394 net.cpp:84] Creating Layer drop7
I0828 17:31:21.424711  4394 net.cpp:406] drop7 <- fc7_sc
I0828 17:31:21.424733  4394 net.cpp:367] drop7 -> fc7_sc (in-place)
I0828 17:31:21.424789  4394 net.cpp:122] Setting up drop7
I0828 17:31:21.424800  4394 net.cpp:129] Top shape: 100 512 (51200)
I0828 17:31:21.424816  4394 net.cpp:137] Memory required for data: 392192400
I0828 17:31:21.424827  4394 layer_factory.hpp:77] Creating layer fc8
I0828 17:31:21.424859  4394 net.cpp:84] Creating Layer fc8
I0828 17:31:21.424870  4394 net.cpp:406] fc8 <- fc7_sc
I0828 17:31:21.424897  4394 net.cpp:380] fc8 -> fc8
I0828 17:31:21.457974  4394 net.cpp:122] Setting up fc8
I0828 17:31:21.458021  4394 net.cpp:129] Top shape: 100 512 (51200)
I0828 17:31:21.458029  4394 net.cpp:137] Memory required for data: 392397200
I0828 17:31:21.458067  4394 layer_factory.hpp:77] Creating layer bn8_bn
I0828 17:31:21.458120  4394 net.cpp:84] Creating Layer bn8_bn
I0828 17:31:21.458137  4394 net.cpp:406] bn8_bn <- fc8
I0828 17:31:21.458169  4394 net.cpp:380] bn8_bn -> fc8_bn
I0828 17:31:21.458463  4394 net.cpp:122] Setting up bn8_bn
I0828 17:31:21.458477  4394 net.cpp:129] Top shape: 100 512 (51200)
I0828 17:31:21.458494  4394 net.cpp:137] Memory required for data: 392602000
I0828 17:31:21.458530  4394 layer_factory.hpp:77] Creating layer bn8_scal
I0828 17:31:21.458554  4394 net.cpp:84] Creating Layer bn8_scal
I0828 17:31:21.458566  4394 net.cpp:406] bn8_scal <- fc8_bn
I0828 17:31:21.458613  4394 net.cpp:380] bn8_scal -> fc8_sc
I0828 17:31:21.458701  4394 layer_factory.hpp:77] Creating layer bn8_scal
I0828 17:31:21.458870  4394 net.cpp:122] Setting up bn8_scal
I0828 17:31:21.458885  4394 net.cpp:129] Top shape: 100 512 (51200)
I0828 17:31:21.458894  4394 net.cpp:137] Memory required for data: 392806800
I0828 17:31:21.458914  4394 layer_factory.hpp:77] Creating layer relu8
I0828 17:31:21.458942  4394 net.cpp:84] Creating Layer relu8
I0828 17:31:21.458953  4394 net.cpp:406] relu8 <- fc8_sc
I0828 17:31:21.458983  4394 net.cpp:367] relu8 -> fc8_sc (in-place)
I0828 17:31:21.459630  4394 net.cpp:122] Setting up relu8
I0828 17:31:21.459645  4394 net.cpp:129] Top shape: 100 512 (51200)
I0828 17:31:21.459651  4394 net.cpp:137] Memory required for data: 393011600
I0828 17:31:21.459662  4394 layer_factory.hpp:77] Creating layer drop8
I0828 17:31:21.459687  4394 net.cpp:84] Creating Layer drop8
I0828 17:31:21.459699  4394 net.cpp:406] drop8 <- fc8_sc
I0828 17:31:21.459722  4394 net.cpp:367] drop8 -> fc8_sc (in-place)
I0828 17:31:21.459771  4394 net.cpp:122] Setting up drop8
I0828 17:31:21.459782  4394 net.cpp:129] Top shape: 100 512 (51200)
I0828 17:31:21.459790  4394 net.cpp:137] Memory required for data: 393216400
I0828 17:31:21.459801  4394 layer_factory.hpp:77] Creating layer fc9
I0828 17:31:21.459834  4394 net.cpp:84] Creating Layer fc9
I0828 17:31:21.459846  4394 net.cpp:406] fc9 <- fc8_sc
I0828 17:31:21.459875  4394 net.cpp:380] fc9 -> fc9
I0828 17:31:21.461149  4394 net.cpp:122] Setting up fc9
I0828 17:31:21.461179  4394 net.cpp:129] Top shape: 100 10 (1000)
I0828 17:31:21.461186  4394 net.cpp:137] Memory required for data: 393220400
I0828 17:31:21.461210  4394 layer_factory.hpp:77] Creating layer loss
I0828 17:31:21.461236  4394 net.cpp:84] Creating Layer loss
I0828 17:31:21.461247  4394 net.cpp:406] loss <- fc9
I0828 17:31:21.461267  4394 net.cpp:406] loss <- label
I0828 17:31:21.461292  4394 net.cpp:380] loss -> loss
I0828 17:31:21.461320  4394 layer_factory.hpp:77] Creating layer loss
…
I0828 17:31:21.536664  4394 net.cpp:294] The NetState phase (1) differed from the phase (0) specified by a rule in layer cifar
I0828 17:31:21.536923  4394 net.cpp:51] Initializing net from parameters: 
name: "CIFAR10_vgg"
state {
  phase: TEST
}
layer {
  name: "cifar"
  type: "Data"
  top: "data"
  top: "label"
  include {
    phase: TEST
  }
  transform_param {
    mirror: false
    crop_size: 32
    mean_file: "examples/cifar10/mean.binaryproto"
  }
  data_param {
    source: "examples/cifar10/cifar10_test_lmdb"
    batch_size: 100
    backend: LMDB
  }
}
layer {
  name: "conv1"
  type: "BinaryConvolution"
  bottom: "data"
  top: "conv1"
  param {
    lr_mult: 1
    decay_mult: 1
  }
  convolution_param {
    num_output: 64
    bias_term: false
    pad: 1
    kernel_size: 3
    stride: 1
    weight_filler {
      type: "gaussian"
      std: 0.01
    }
  }
  debug_param {
    xnorno_grad: false
    binary_relax: true
  }
}
layer {
  name: "bn1_bn"
  type: "BatchNorm"
  bottom: "conv1"
  top: "conv1_bn"
}
layer {
  name: "bn1_scal"
  type: "Scale"
  bottom: "conv1_bn"
  top: "conv1_sc"
  scale_param {
    bias_term: true
  }
}
layer {
  name: "relu1"
  type: "ReLU"
  bottom: "conv1_sc"
  top: "conv1_sc"
}
layer {
  name: "conv2"
  type: "BinaryConvolution"
  bottom: "conv1_sc"
  top: "conv2"
  param {
    lr_mult: 1
    decay_mult: 1
  }
  convolution_param {
    num_output: 64
    bias_term: false
    pad: 1
    kernel_size: 3
    stride: 1
    weight_filler {
      type: "gaussian"
      std: 0.01
    }
  }
  debug_param {
    xnorno_grad: false
    binary_relax: true
  }
}
layer {
  name: "bn2_bn"
  type: "BatchNorm"
  bottom: "conv2"
  top: "conv2_bn"
}
layer {
  name: "bn2_scal"
  type: "Scale"
  bottom: "conv2_bn"
  top: "conv2_sc"
  scale_param {
    bias_term: true
  }
}
layer {
  name: "relu2"
  type: "ReLU"
  bottom: "conv2_sc"
  top: "conv2_sc"
}
layer {
  name: "pool1"
  type: "Pooling"
  bottom: "conv2_sc"
  top: "pool1"
  pooling_param {
    pool: MAX
    kernel_size: 2
    stride: 2
  }
}
layer {
  name: "drop1"
  type: "Dropout"
  bottom: "pool1"
  top: "pool1"
  dropout_param {
    dropout_ratio: 0.25
  }
}
layer {
  name: "conv3"
  type: "BinaryConvolution"
  bottom: "pool1"
  top: "conv3"
  param {
    lr_mult: 1
    decay_mult: 1
  }
  convolution_param {
    num_output: 128
    bias_term: false
    pad: 1
    kernel_size: 3
    stride: 1
    weight_filler {
      type: "gaussian"
      std: 0.01
    }
  }
  debug_param {
    xnorno_grad: false
    binary_relax: true
  }
}
layer {
  name: "bn3_bn"
  type: "BatchNorm"
  bottom: "conv3"
  top: "conv3_bn"
}
layer {
  name: "bn3_scal"
  type: "Scale"
  bottom: "conv3_bn"
  top: "conv3_sc"
  scale_param {
    bias_term: true
  }
}
layer {
  name: "relu3"
  type: "ReLU"
  bottom: "conv3_sc"
  top: "conv3_sc"
}
layer {
  name: "conv4"
  type: "BinaryConvolution"
  bottom: "conv3_sc"
  top: "conv4"
  param {
    lr_mult: 1
    decay_mult: 1
  }
  convolution_param {
    num_output: 128
    bias_term: false
    pad: 1
    kernel_size: 3
    stride: 1
    weight_filler {
      type: "gaussian"
      std: 0.01
    }
  }
  debug_param {
    xnorno_grad: false
    binary_relax: true
  }
}
layer {
  name: "bn4_bn"
  type: "BatchNorm"
  bottom: "conv4"
  top: "conv4_bn"
}
layer {
  name: "bn4_scal"
  type: "Scale"
  bottom: "conv4_bn"
  top: "conv4_sc"
  scale_param {
    bias_term: true
  }
}
layer {
  name: "relu4"
  type: "ReLU"
  bottom: "conv4_sc"
  top: "conv4_sc"
}
layer {
  name: "pool2"
  type: "Pooling"
  bottom: "conv4_sc"
  top: "pool2"
  pooling_param {
    pool: MAX
    kernel_size: 2
    stride: 2
  }
}
layer {
  name: "drop2"
  type: "Dropout"
  bottom: "pool2"
  top: "pool2"
  dropout_param {
    dropout_ratio: 0.25
  }
}
layer {
  name: "conv5"
  type: "BinaryConvolution"
  bottom: "pool2"
  top: "conv5"
  param {
    lr_mult: 1
    decay_mult: 1
  }
  convolution_param {
    num_output: 256
    bias_term: false
    pad: 1
    kernel_size: 3
    stride: 1
    weight_filler {
      type: "gaussian"
      std: 0.01
    }
  }
  debug_param {
    xnorno_grad: false
    binary_relax: true
  }
}
layer {
  name: "bn5_bn"
  type: "BatchNorm"
  bottom: "conv5"
  top: "conv5_bn"
}
layer {
  name: "bn5_scal"
  type: "Scale"
  bottom: "conv5_bn"
  top: "conv5_sc"
  scale_param {
    bias_term: true
  }
}
layer {
  name: "relu5"
  type: "ReLU"
  bottom: "conv5_sc"
  top: "conv5_sc"
}
layer {
  name: "conv6"
  type: "BinaryConvolution"
  bottom: "conv5_sc"
  top: "conv6"
  param {
    lr_mult: 1
    decay_mult: 1
  }
  convolution_param {
    num_output: 256
    bias_term: false
    pad: 1
    kernel_size: 3
    stride: 1
    weight_filler {
      type: "gaussian"
      std: 0.01
    }
  }
  debug_param {
    xnorno_grad: false
    binary_relax: true
  }
}
layer {
  name: "bn6_bn"
  type: "BatchNorm"
  bottom: "conv6"
  top: "conv6_bn"
}
layer {
  name: "bn6_scal"
  type: "Scale"
  bottom: "conv6_bn"
  top: "conv6_sc"
  scale_param {
    bias_term: true
  }
}
layer {
  name: "relu6"
  type: "ReLU"
  bottom: "conv6_sc"
  top: "conv6_sc"
}
layer {
  name: "pool3"
  type: "Pooling"
  bottom: "conv6_sc"
  top: "pool3"
  pooling_param {
    pool: MAX
    kernel_size: 2
    stride: 2
  }
}
layer {
  name: "drop3"
  type: "Dropout"
  bottom: "pool3"
  top: "pool3"
  dropout_param {
    dropout_ratio: 0.25
  }
}
layer {
  name: "fc7"
  type: "BinaryInnerProduct"
  bottom: "pool3"
  top: "fc7"
  param {
    lr_mult: 1
    decay_mult: 1
  }
  inner_product_param {
    num_output: 512
    bias_term: false
    weight_filler {
      type: "gaussian"
      std: 0.01
    }
  }
  debug_param {
    xnorno_grad: false
    binary_relax: true
  }
}
layer {
  name: "bn7_bn"
  type: "BatchNorm"
  bottom: "fc7"
  top: "fc7_bn"
}
layer {
  name: "bn7_scal"
  type: "Scale"
  bottom: "fc7_bn"
  top: "fc7_sc"
  scale_param {
    bias_term: true
  }
}
layer {
  name: "relu7"
  type: "ReLU"
  bottom: "fc7_sc"
  top: "fc7_sc"
}
layer {
  name: "drop7"
  type: "Dropout"
  bottom: "fc7_sc"
  top: "fc7_sc"
  dropout_param {
    dropout_ratio: 0.5
  }
}
layer {
  name: "fc8"
  type: "BinaryInnerProduct"
  bottom: "fc7_sc"
  top: "fc8"
  param {
    lr_mult: 1
    decay_mult: 1
  }
  inner_product_param {
    num_output: 512
    bias_term: false
    weight_filler {
      type: "gaussian"
      std: 0.01
    }
  }
  debug_param {
    xnorno_grad: false
    binary_relax: true
  }
}
layer {
  name: "bn8_bn"
  type: "BatchNorm"
  bottom: "fc8"
  top: "fc8_bn"
}
layer {
  name: "bn8_scal"
  type: "Scale"
  bottom: "fc8_bn"
  top: "fc8_sc"
  scale_param {
    bias_term: true
  }
}
layer {
  name: "relu8"
  type: "ReLU"
  bottom: "fc8_sc"
  top: "fc8_sc"
}
layer {
  name: "drop8"
  type: "Dropout"
  bottom: "fc8_sc"
  top: "fc8_sc"
  dropout_param {
    dropout_ratio: 0.5
  }
}
layer {
  name: "fc9"
  type: "BinaryInnerProduct"
  bottom: "fc8_sc"
  top: "fc9"
  param {
    lr_mult: 1
    decay_mult: 1
  }
  param {
    lr_mult: 2
    decay_mult: 0
  }
  inner_product_param {
    num_output: 10
    weight_filler {
      type: "gaussian"
      std: 0.01
    }
    bias_filler {
      type: "constant"
      value: 0.01
    }
  }
  debug_param {
    xnorno_grad: false
    binary_relax: true
  }
}
layer {
  name: "accuracy"
  type: "Accuracy"
  bottom: "fc9"
  bottom: "label"
  top: "accuracy"
  include {
    phase: TEST
  }
}
layer {
  name: "loss"
  type: "SoftmaxWithLoss"
  bottom: "fc9"
  bottom: "label"
  top: "loss"
}
I0828 17:31:21.537608  4394 layer_factory.hpp:77] Creating layer cifar
I0828 17:31:21.537703  4394 db_lmdb.cpp:35] Opened lmdb examples/cifar10/cifar10_test_lmdb
I0828 17:31:21.537730  4394 net.cpp:84] Creating Layer cifar
I0828 17:31:21.537751  4394 net.cpp:380] cifar -> data
I0828 17:31:21.537796  4394 net.cpp:380] cifar -> label
I0828 17:31:21.537824  4394 data_transformer.cpp:25] Loading mean file from: examples/cifar10/mean.binaryproto
I0828 17:31:21.538094  4394 data_layer.cpp:45] output data size: 100,3,32,32
I0828 17:31:21.541249  4394 base_data_layer.cpp:72] Initializing prefetch
I0828 17:31:21.541337  4394 base_data_layer.cpp:75] Prefetch initialized.
I0828 17:31:21.541347  4394 net.cpp:122] Setting up cifar
I0828 17:31:21.541369  4394 net.cpp:129] Top shape: 100 3 32 32 (307200)
I0828 17:31:21.541383  4394 net.cpp:129] Top shape: 100 (100)
I0828 17:31:21.541390  4394 net.cpp:137] Memory required for data: 1229200
I0828 17:31:21.541417  4394 layer_factory.hpp:77] Creating layer label_cifar_1_split
I0828 17:31:21.541462  4394 net.cpp:84] Creating Layer label_cifar_1_split
I0828 17:31:21.541479  4394 net.cpp:406] label_cifar_1_split <- label
I0828 17:31:21.541509  4394 net.cpp:380] label_cifar_1_split -> label_cifar_1_split_0
I0828 17:31:21.541558  4394 net.cpp:380] label_cifar_1_split -> label_cifar_1_split_1
I0828 17:31:21.541631  4394 net.cpp:122] Setting up label_cifar_1_split
I0828 17:31:21.541646  4394 net.cpp:129] Top shape: 100 (100)
I0828 17:31:21.541661  4394 net.cpp:129] Top shape: 100 (100)
I0828 17:31:21.541667  4394 net.cpp:137] Memory required for data: 1230000
I0828 17:31:21.541677  4394 layer_factory.hpp:77] Creating layer conv1
I0828 17:31:21.541723  4394 net.cpp:84] Creating Layer conv1
I0828 17:31:21.541735  4394 net.cpp:406] conv1 <- data
I0828 17:31:21.541771  4394 net.cpp:380] conv1 -> conv1
I0828 17:31:21.542527  4394 net.cpp:122] Setting up conv1
I0828 17:31:21.542544  4394 net.cpp:129] Top shape: 100 64 32 32 (6553600)
I0828 17:31:21.542553  4394 net.cpp:137] Memory required for data: 27444400
I0828 17:31:21.542584  4394 layer_factory.hpp:77] Creating layer bn1_bn
I0828 17:31:21.542624  4394 net.cpp:84] Creating Layer bn1_bn
I0828 17:31:21.542637  4394 net.cpp:406] bn1_bn <- conv1
I0828 17:31:21.542662  4394 net.cpp:380] bn1_bn -> conv1_bn
I0828 17:31:21.542909  4394 net.cpp:122] Setting up bn1_bn
I0828 17:31:21.542924  4394 net.cpp:129] Top shape: 100 64 32 32 (6553600)
I0828 17:31:21.542933  4394 net.cpp:137] Memory required for data: 53658800
I0828 17:31:21.542969  4394 layer_factory.hpp:77] Creating layer bn1_scal
I0828 17:31:21.542997  4394 net.cpp:84] Creating Layer bn1_scal
I0828 17:31:21.543009  4394 net.cpp:406] bn1_scal <- conv1_bn
I0828 17:31:21.543032  4394 net.cpp:380] bn1_scal -> conv1_sc
I0828 17:31:21.543107  4394 layer_factory.hpp:77] Creating layer bn1_scal
I0828 17:31:21.543274  4394 net.cpp:122] Setting up bn1_scal
I0828 17:31:21.543289  4394 net.cpp:129] Top shape: 100 64 32 32 (6553600)
I0828 17:31:21.543298  4394 net.cpp:137] Memory required for data: 79873200
I0828 17:31:21.543328  4394 layer_factory.hpp:77] Creating layer relu1
I0828 17:31:21.543346  4394 net.cpp:84] Creating Layer relu1
I0828 17:31:21.543359  4394 net.cpp:406] relu1 <- conv1_sc
I0828 17:31:21.543380  4394 net.cpp:367] relu1 -> conv1_sc (in-place)
I0828 17:31:21.543902  4394 net.cpp:122] Setting up relu1
I0828 17:31:21.543916  4394 net.cpp:129] Top shape: 100 64 32 32 (6553600)
I0828 17:31:21.543923  4394 net.cpp:137] Memory required for data: 106087600
I0828 17:31:21.543936  4394 layer_factory.hpp:77] Creating layer conv2
I0828 17:31:21.543962  4394 net.cpp:84] Creating Layer conv2
I0828 17:31:21.543974  4394 net.cpp:406] conv2 <- conv1_sc
I0828 17:31:21.544001  4394 net.cpp:380] conv2 -> conv2
I0828 17:31:21.548997  4394 net.cpp:122] Setting up conv2
I0828 17:31:21.549015  4394 net.cpp:129] Top shape: 100 64 32 32 (6553600)
I0828 17:31:21.549023  4394 net.cpp:137] Memory required for data: 132302000
I0828 17:31:21.549043  4394 layer_factory.hpp:77] Creating layer bn2_bn
I0828 17:31:21.549062  4394 net.cpp:84] Creating Layer bn2_bn
I0828 17:31:21.549074  4394 net.cpp:406] bn2_bn <- conv2
I0828 17:31:21.549098  4394 net.cpp:380] bn2_bn -> conv2_bn
I0828 17:31:21.549357  4394 net.cpp:122] Setting up bn2_bn
I0828 17:31:21.549372  4394 net.cpp:129] Top shape: 100 64 32 32 (6553600)
I0828 17:31:21.549381  4394 net.cpp:137] Memory required for data: 158516400
I0828 17:31:21.549417  4394 layer_factory.hpp:77] Creating layer bn2_scal
I0828 17:31:21.549443  4394 net.cpp:84] Creating Layer bn2_scal
I0828 17:31:21.549453  4394 net.cpp:406] bn2_scal <- conv2_bn
I0828 17:31:21.549477  4394 net.cpp:380] bn2_scal -> conv2_sc
I0828 17:31:21.549553  4394 layer_factory.hpp:77] Creating layer bn2_scal
I0828 17:31:21.549715  4394 net.cpp:122] Setting up bn2_scal
I0828 17:31:21.549731  4394 net.cpp:129] Top shape: 100 64 32 32 (6553600)
I0828 17:31:21.549739  4394 net.cpp:137] Memory required for data: 184730800
I0828 17:31:21.549768  4394 layer_factory.hpp:77] Creating layer relu2
I0828 17:31:21.549785  4394 net.cpp:84] Creating Layer relu2
I0828 17:31:21.549798  4394 net.cpp:406] relu2 <- conv2_sc
I0828 17:31:21.549818  4394 net.cpp:367] relu2 -> conv2_sc (in-place)
I0828 17:31:21.550340  4394 net.cpp:122] Setting up relu2
I0828 17:31:21.550354  4394 net.cpp:129] Top shape: 100 64 32 32 (6553600)
I0828 17:31:21.550361  4394 net.cpp:137] Memory required for data: 210945200
I0828 17:31:21.550374  4394 layer_factory.hpp:77] Creating layer pool1
I0828 17:31:21.550405  4394 net.cpp:84] Creating Layer pool1
I0828 17:31:21.550418  4394 net.cpp:406] pool1 <- conv2_sc
I0828 17:31:21.550442  4394 net.cpp:380] pool1 -> pool1
I0828 17:31:21.550609  4394 net.cpp:122] Setting up pool1
I0828 17:31:21.550624  4394 net.cpp:129] Top shape: 100 64 16 16 (1638400)
I0828 17:31:21.550633  4394 net.cpp:137] Memory required for data: 217498800
I0828 17:31:21.550645  4394 layer_factory.hpp:77] Creating layer drop1
I0828 17:31:21.550667  4394 net.cpp:84] Creating Layer drop1
I0828 17:31:21.550679  4394 net.cpp:406] drop1 <- pool1
I0828 17:31:21.550703  4394 net.cpp:367] drop1 -> pool1 (in-place)
I0828 17:31:21.550747  4394 net.cpp:122] Setting up drop1
I0828 17:31:21.550760  4394 net.cpp:129] Top shape: 100 64 16 16 (1638400)
I0828 17:31:21.550767  4394 net.cpp:137] Memory required for data: 224052400
I0828 17:31:21.550779  4394 layer_factory.hpp:77] Creating layer conv3
I0828 17:31:21.550806  4394 net.cpp:84] Creating Layer conv3
I0828 17:31:21.550817  4394 net.cpp:406] conv3 <- pool1
I0828 17:31:21.550844  4394 net.cpp:380] conv3 -> conv3
I0828 17:31:21.561070  4394 net.cpp:122] Setting up conv3
I0828 17:31:21.561103  4394 net.cpp:129] Top shape: 100 128 16 16 (3276800)
I0828 17:31:21.561111  4394 net.cpp:137] Memory required for data: 237159600
I0828 17:31:21.561138  4394 layer_factory.hpp:77] Creating layer bn3_bn
I0828 17:31:21.561172  4394 net.cpp:84] Creating Layer bn3_bn
I0828 17:31:21.561189  4394 net.cpp:406] bn3_bn <- conv3
I0828 17:31:21.561218  4394 net.cpp:380] bn3_bn -> conv3_bn
I0828 17:31:21.561457  4394 net.cpp:122] Setting up bn3_bn
I0828 17:31:21.561471  4394 net.cpp:129] Top shape: 100 128 16 16 (3276800)
I0828 17:31:21.561480  4394 net.cpp:137] Memory required for data: 250266800
I0828 17:31:21.561507  4394 layer_factory.hpp:77] Creating layer bn3_scal
I0828 17:31:21.561532  4394 net.cpp:84] Creating Layer bn3_scal
I0828 17:31:21.561542  4394 net.cpp:406] bn3_scal <- conv3_bn
I0828 17:31:21.561565  4394 net.cpp:380] bn3_scal -> conv3_sc
I0828 17:31:21.561645  4394 layer_factory.hpp:77] Creating layer bn3_scal
I0828 17:31:21.561802  4394 net.cpp:122] Setting up bn3_scal
I0828 17:31:21.561818  4394 net.cpp:129] Top shape: 100 128 16 16 (3276800)
I0828 17:31:21.561826  4394 net.cpp:137] Memory required for data: 263374000
I0828 17:31:21.561858  4394 layer_factory.hpp:77] Creating layer relu3
I0828 17:31:21.561877  4394 net.cpp:84] Creating Layer relu3
I0828 17:31:21.561889  4394 net.cpp:406] relu3 <- conv3_sc
I0828 17:31:21.561910  4394 net.cpp:367] relu3 -> conv3_sc (in-place)
I0828 17:31:21.562288  4394 net.cpp:122] Setting up relu3
I0828 17:31:21.562301  4394 net.cpp:129] Top shape: 100 128 16 16 (3276800)
I0828 17:31:21.562311  4394 net.cpp:137] Memory required for data: 276481200
I0828 17:31:21.562324  4394 layer_factory.hpp:77] Creating layer conv4
I0828 17:31:21.562360  4394 net.cpp:84] Creating Layer conv4
I0828 17:31:21.562371  4394 net.cpp:406] conv4 <- conv3_sc
I0828 17:31:21.562399  4394 net.cpp:380] conv4 -> conv4
I0828 17:31:21.581101  4394 net.cpp:122] Setting up conv4
I0828 17:31:21.581125  4394 net.cpp:129] Top shape: 100 128 16 16 (3276800)
I0828 17:31:21.581132  4394 net.cpp:137] Memory required for data: 289588400
I0828 17:31:21.581166  4394 layer_factory.hpp:77] Creating layer bn4_bn
I0828 17:31:21.581207  4394 net.cpp:84] Creating Layer bn4_bn
I0828 17:31:21.581236  4394 net.cpp:406] bn4_bn <- conv4
I0828 17:31:21.581261  4394 net.cpp:380] bn4_bn -> conv4_bn
I0828 17:31:21.581506  4394 net.cpp:122] Setting up bn4_bn
I0828 17:31:21.581519  4394 net.cpp:129] Top shape: 100 128 16 16 (3276800)
I0828 17:31:21.581528  4394 net.cpp:137] Memory required for data: 302695600
I0828 17:31:21.581575  4394 layer_factory.hpp:77] Creating layer bn4_scal
I0828 17:31:21.581614  4394 net.cpp:84] Creating Layer bn4_scal
I0828 17:31:21.581645  4394 net.cpp:406] bn4_scal <- conv4_bn
I0828 17:31:21.581670  4394 net.cpp:380] bn4_scal -> conv4_sc
I0828 17:31:21.581748  4394 layer_factory.hpp:77] Creating layer bn4_scal
I0828 17:31:21.581902  4394 net.cpp:122] Setting up bn4_scal
I0828 17:31:21.581918  4394 net.cpp:129] Top shape: 100 128 16 16 (3276800)
I0828 17:31:21.581925  4394 net.cpp:137] Memory required for data: 315802800
I0828 17:31:21.581944  4394 layer_factory.hpp:77] Creating layer relu4
I0828 17:31:21.581962  4394 net.cpp:84] Creating Layer relu4
I0828 17:31:21.581974  4394 net.cpp:406] relu4 <- conv4_sc
I0828 17:31:21.581995  4394 net.cpp:367] relu4 -> conv4_sc (in-place)
I0828 17:31:21.582541  4394 net.cpp:122] Setting up relu4
I0828 17:31:21.582554  4394 net.cpp:129] Top shape: 100 128 16 16 (3276800)
I0828 17:31:21.582564  4394 net.cpp:137] Memory required for data: 328910000
I0828 17:31:21.582576  4394 layer_factory.hpp:77] Creating layer pool2
I0828 17:31:21.582621  4394 net.cpp:84] Creating Layer pool2
I0828 17:31:21.582634  4394 net.cpp:406] pool2 <- conv4_sc
I0828 17:31:21.582659  4394 net.cpp:380] pool2 -> pool2
I0828 17:31:21.582726  4394 net.cpp:122] Setting up pool2
I0828 17:31:21.582741  4394 net.cpp:129] Top shape: 100 128 8 8 (819200)
I0828 17:31:21.582749  4394 net.cpp:137] Memory required for data: 332186800
I0828 17:31:21.582761  4394 layer_factory.hpp:77] Creating layer drop2
I0828 17:31:21.582782  4394 net.cpp:84] Creating Layer drop2
I0828 17:31:21.582792  4394 net.cpp:406] drop2 <- pool2
I0828 17:31:21.582813  4394 net.cpp:367] drop2 -> pool2 (in-place)
I0828 17:31:21.582856  4394 net.cpp:122] Setting up drop2
I0828 17:31:21.582868  4394 net.cpp:129] Top shape: 100 128 8 8 (819200)
I0828 17:31:21.582876  4394 net.cpp:137] Memory required for data: 335463600
I0828 17:31:21.582887  4394 layer_factory.hpp:77] Creating layer conv5
I0828 17:31:21.582914  4394 net.cpp:84] Creating Layer conv5
I0828 17:31:21.582926  4394 net.cpp:406] conv5 <- pool2
I0828 17:31:21.582952  4394 net.cpp:380] conv5 -> conv5
I0828 17:31:21.619781  4394 net.cpp:122] Setting up conv5
I0828 17:31:21.619817  4394 net.cpp:129] Top shape: 100 256 8 8 (1638400)
I0828 17:31:21.619824  4394 net.cpp:137] Memory required for data: 342017200
I0828 17:31:21.619853  4394 layer_factory.hpp:77] Creating layer bn5_bn
I0828 17:31:21.619884  4394 net.cpp:84] Creating Layer bn5_bn
I0828 17:31:21.619901  4394 net.cpp:406] bn5_bn <- conv5
I0828 17:31:21.619930  4394 net.cpp:380] bn5_bn -> conv5_bn
I0828 17:31:21.620167  4394 net.cpp:122] Setting up bn5_bn
I0828 17:31:21.620182  4394 net.cpp:129] Top shape: 100 256 8 8 (1638400)
I0828 17:31:21.620188  4394 net.cpp:137] Memory required for data: 348570800
I0828 17:31:21.620215  4394 layer_factory.hpp:77] Creating layer bn5_scal
I0828 17:31:21.620239  4394 net.cpp:84] Creating Layer bn5_scal
I0828 17:31:21.620249  4394 net.cpp:406] bn5_scal <- conv5_bn
I0828 17:31:21.620272  4394 net.cpp:380] bn5_scal -> conv5_sc
I0828 17:31:21.620348  4394 layer_factory.hpp:77] Creating layer bn5_scal
I0828 17:31:21.620504  4394 net.cpp:122] Setting up bn5_scal
I0828 17:31:21.620519  4394 net.cpp:129] Top shape: 100 256 8 8 (1638400)
I0828 17:31:21.620528  4394 net.cpp:137] Memory required for data: 355124400
I0828 17:31:21.620546  4394 layer_factory.hpp:77] Creating layer relu5
I0828 17:31:21.620564  4394 net.cpp:84] Creating Layer relu5
I0828 17:31:21.620575  4394 net.cpp:406] relu5 <- conv5_sc
I0828 17:31:21.620595  4394 net.cpp:367] relu5 -> conv5_sc (in-place)
I0828 17:31:21.620965  4394 net.cpp:122] Setting up relu5
I0828 17:31:21.620976  4394 net.cpp:129] Top shape: 100 256 8 8 (1638400)
I0828 17:31:21.620985  4394 net.cpp:137] Memory required for data: 361678000
I0828 17:31:21.620996  4394 layer_factory.hpp:77] Creating layer conv6
I0828 17:31:21.621026  4394 net.cpp:84] Creating Layer conv6
I0828 17:31:21.621037  4394 net.cpp:406] conv6 <- conv5_sc
I0828 17:31:21.621065  4394 net.cpp:380] conv6 -> conv6
I0828 17:31:21.695003  4394 net.cpp:122] Setting up conv6
I0828 17:31:21.695044  4394 net.cpp:129] Top shape: 100 256 8 8 (1638400)
I0828 17:31:21.695070  4394 net.cpp:137] Memory required for data: 368231600
I0828 17:31:21.695104  4394 layer_factory.hpp:77] Creating layer bn6_bn
I0828 17:31:21.695140  4394 net.cpp:84] Creating Layer bn6_bn
I0828 17:31:21.695158  4394 net.cpp:406] bn6_bn <- conv6
I0828 17:31:21.695189  4394 net.cpp:380] bn6_bn -> conv6_bn
I0828 17:31:21.695443  4394 net.cpp:122] Setting up bn6_bn
I0828 17:31:21.695466  4394 net.cpp:129] Top shape: 100 256 8 8 (1638400)
I0828 17:31:21.695474  4394 net.cpp:137] Memory required for data: 374785200
I0828 17:31:21.695514  4394 layer_factory.hpp:77] Creating layer bn6_scal
I0828 17:31:21.695539  4394 net.cpp:84] Creating Layer bn6_scal
I0828 17:31:21.695551  4394 net.cpp:406] bn6_scal <- conv6_bn
I0828 17:31:21.695574  4394 net.cpp:380] bn6_scal -> conv6_sc
I0828 17:31:21.695654  4394 layer_factory.hpp:77] Creating layer bn6_scal
I0828 17:31:21.695816  4394 net.cpp:122] Setting up bn6_scal
I0828 17:31:21.695829  4394 net.cpp:129] Top shape: 100 256 8 8 (1638400)
I0828 17:31:21.695837  4394 net.cpp:137] Memory required for data: 381338800
I0828 17:31:21.695858  4394 layer_factory.hpp:77] Creating layer relu6
I0828 17:31:21.695875  4394 net.cpp:84] Creating Layer relu6
I0828 17:31:21.695888  4394 net.cpp:406] relu6 <- conv6_sc
I0828 17:31:21.695907  4394 net.cpp:367] relu6 -> conv6_sc (in-place)
I0828 17:31:21.696478  4394 net.cpp:122] Setting up relu6
I0828 17:31:21.696492  4394 net.cpp:129] Top shape: 100 256 8 8 (1638400)
I0828 17:31:21.696499  4394 net.cpp:137] Memory required for data: 387892400
I0828 17:31:21.696511  4394 layer_factory.hpp:77] Creating layer pool3
I0828 17:31:21.696537  4394 net.cpp:84] Creating Layer pool3
I0828 17:31:21.696547  4394 net.cpp:406] pool3 <- conv6_sc
I0828 17:31:21.696571  4394 net.cpp:380] pool3 -> pool3
I0828 17:31:21.696640  4394 net.cpp:122] Setting up pool3
I0828 17:31:21.696655  4394 net.cpp:129] Top shape: 100 256 4 4 (409600)
I0828 17:31:21.696662  4394 net.cpp:137] Memory required for data: 389530800
I0828 17:31:21.696673  4394 layer_factory.hpp:77] Creating layer drop3
I0828 17:31:21.696694  4394 net.cpp:84] Creating Layer drop3
I0828 17:31:21.696705  4394 net.cpp:406] drop3 <- pool3
I0828 17:31:21.696727  4394 net.cpp:367] drop3 -> pool3 (in-place)
I0828 17:31:21.696770  4394 net.cpp:122] Setting up drop3
I0828 17:31:21.696781  4394 net.cpp:129] Top shape: 100 256 4 4 (409600)
I0828 17:31:21.696789  4394 net.cpp:137] Memory required for data: 391169200
I0828 17:31:21.696800  4394 layer_factory.hpp:77] Creating layer fc7
I0828 17:31:21.696835  4394 net.cpp:84] Creating Layer fc7
I0828 17:31:21.696847  4394 net.cpp:406] fc7 <- pool3
I0828 17:31:21.696872  4394 net.cpp:380] fc7 -> fc7
I0828 17:31:21.956676  4394 net.cpp:122] Setting up fc7
I0828 17:31:21.956717  4394 net.cpp:129] Top shape: 100 512 (51200)
I0828 17:31:21.956725  4394 net.cpp:137] Memory required for data: 391374000
I0828 17:31:21.956779  4394 layer_factory.hpp:77] Creating layer bn7_bn
I0828 17:31:21.956815  4394 net.cpp:84] Creating Layer bn7_bn
I0828 17:31:21.956832  4394 net.cpp:406] bn7_bn <- fc7
I0828 17:31:21.956861  4394 net.cpp:380] bn7_bn -> fc7_bn
I0828 17:31:21.957104  4394 net.cpp:122] Setting up bn7_bn
I0828 17:31:21.957118  4394 net.cpp:129] Top shape: 100 512 (51200)
I0828 17:31:21.957129  4394 net.cpp:137] Memory required for data: 391578800
I0828 17:31:21.957154  4394 layer_factory.hpp:77] Creating layer bn7_scal
I0828 17:31:21.957178  4394 net.cpp:84] Creating Layer bn7_scal
I0828 17:31:21.957190  4394 net.cpp:406] bn7_scal <- fc7_bn
I0828 17:31:21.957221  4394 net.cpp:380] bn7_scal -> fc7_sc
I0828 17:31:21.957301  4394 layer_factory.hpp:77] Creating layer bn7_scal
I0828 17:31:21.957465  4394 net.cpp:122] Setting up bn7_scal
I0828 17:31:21.957480  4394 net.cpp:129] Top shape: 100 512 (51200)
I0828 17:31:21.957489  4394 net.cpp:137] Memory required for data: 391783600
I0828 17:31:21.957510  4394 layer_factory.hpp:77] Creating layer relu7
I0828 17:31:21.957530  4394 net.cpp:84] Creating Layer relu7
I0828 17:31:21.957541  4394 net.cpp:406] relu7 <- fc7_sc
I0828 17:31:21.957581  4394 net.cpp:367] relu7 -> fc7_sc (in-place)
I0828 17:31:21.958191  4394 net.cpp:122] Setting up relu7
I0828 17:31:21.958204  4394 net.cpp:129] Top shape: 100 512 (51200)
I0828 17:31:21.958210  4394 net.cpp:137] Memory required for data: 391988400
I0828 17:31:21.958221  4394 layer_factory.hpp:77] Creating layer drop7
I0828 17:31:21.958261  4394 net.cpp:84] Creating Layer drop7
I0828 17:31:21.958272  4394 net.cpp:406] drop7 <- fc7_sc
I0828 17:31:21.958310  4394 net.cpp:367] drop7 -> fc7_sc (in-place)
I0828 17:31:21.958382  4394 net.cpp:122] Setting up drop7
I0828 17:31:21.958392  4394 net.cpp:129] Top shape: 100 512 (51200)
I0828 17:31:21.958408  4394 net.cpp:137] Memory required for data: 392193200
I0828 17:31:21.958420  4394 layer_factory.hpp:77] Creating layer fc8
I0828 17:31:21.958464  4394 net.cpp:84] Creating Layer fc8
I0828 17:31:21.958477  4394 net.cpp:406] fc8 <- fc7_sc
I0828 17:31:21.958501  4394 net.cpp:380] fc8 -> fc8
I0828 17:31:21.991287  4394 net.cpp:122] Setting up fc8
I0828 17:31:21.991318  4394 net.cpp:129] Top shape: 100 512 (51200)
I0828 17:31:21.991325  4394 net.cpp:137] Memory required for data: 392398000
I0828 17:31:21.991364  4394 layer_factory.hpp:77] Creating layer bn8_bn
I0828 17:31:21.991410  4394 net.cpp:84] Creating Layer bn8_bn
I0828 17:31:21.991425  4394 net.cpp:406] bn8_bn <- fc8
I0828 17:31:21.991451  4394 net.cpp:380] bn8_bn -> fc8_bn
I0828 17:31:21.991704  4394 net.cpp:122] Setting up bn8_bn
I0828 17:31:21.991719  4394 net.cpp:129] Top shape: 100 512 (51200)
I0828 17:31:21.991727  4394 net.cpp:137] Memory required for data: 392602800
I0828 17:31:21.991753  4394 layer_factory.hpp:77] Creating layer bn8_scal
I0828 17:31:21.991777  4394 net.cpp:84] Creating Layer bn8_scal
I0828 17:31:21.991789  4394 net.cpp:406] bn8_scal <- fc8_bn
I0828 17:31:21.991811  4394 net.cpp:380] bn8_scal -> fc8_sc
I0828 17:31:21.991888  4394 layer_factory.hpp:77] Creating layer bn8_scal
I0828 17:31:21.992050  4394 net.cpp:122] Setting up bn8_scal
I0828 17:31:21.992065  4394 net.cpp:129] Top shape: 100 512 (51200)
I0828 17:31:21.992075  4394 net.cpp:137] Memory required for data: 392807600
I0828 17:31:21.992095  4394 layer_factory.hpp:77] Creating layer relu8
I0828 17:31:21.992112  4394 net.cpp:84] Creating Layer relu8
I0828 17:31:21.992125  4394 net.cpp:406] relu8 <- fc8_sc
I0828 17:31:21.992146  4394 net.cpp:367] relu8 -> fc8_sc (in-place)
I0828 17:31:21.992509  4394 net.cpp:122] Setting up relu8
I0828 17:31:21.992522  4394 net.cpp:129] Top shape: 100 512 (51200)
I0828 17:31:21.992529  4394 net.cpp:137] Memory required for data: 393012400
I0828 17:31:21.992539  4394 layer_factory.hpp:77] Creating layer drop8
I0828 17:31:21.992563  4394 net.cpp:84] Creating Layer drop8
I0828 17:31:21.992573  4394 net.cpp:406] drop8 <- fc8_sc
I0828 17:31:21.992595  4394 net.cpp:367] drop8 -> fc8_sc (in-place)
I0828 17:31:21.992640  4394 net.cpp:122] Setting up drop8
I0828 17:31:21.992651  4394 net.cpp:129] Top shape: 100 512 (51200)
I0828 17:31:21.992660  4394 net.cpp:137] Memory required for data: 393217200
I0828 17:31:21.992671  4394 layer_factory.hpp:77] Creating layer fc9
I0828 17:31:21.992698  4394 net.cpp:84] Creating Layer fc9
I0828 17:31:21.992709  4394 net.cpp:406] fc9 <- fc8_sc
I0828 17:31:21.992735  4394 net.cpp:380] fc9 -> fc9
I0828 17:31:21.993607  4394 net.cpp:122] Setting up fc9
I0828 17:31:21.993623  4394 net.cpp:129] Top shape: 100 10 (1000)
I0828 17:31:21.993630  4394 net.cpp:137] Memory required for data: 393221200
I0828 17:31:21.993652  4394 layer_factory.hpp:77] Creating layer fc9_fc9_0_split
I0828 17:31:21.993670  4394 net.cpp:84] Creating Layer fc9_fc9_0_split
I0828 17:31:21.993681  4394 net.cpp:406] fc9_fc9_0_split <- fc9
I0828 17:31:21.993705  4394 net.cpp:380] fc9_fc9_0_split -> fc9_fc9_0_split_0
I0828 17:31:21.993734  4394 net.cpp:380] fc9_fc9_0_split -> fc9_fc9_0_split_1
I0828 17:31:21.993793  4394 net.cpp:122] Setting up fc9_fc9_0_split
I0828 17:31:21.993808  4394 net.cpp:129] Top shape: 100 10 (1000)
I0828 17:31:21.993819  4394 net.cpp:129] Top shape: 100 10 (1000)
I0828 17:31:21.993837  4394 net.cpp:137] Memory required for data: 393229200
I0828 17:31:21.993849  4394 layer_factory.hpp:77] Creating layer accuracy
I0828 17:31:21.993876  4394 net.cpp:84] Creating Layer accuracy
I0828 17:31:21.993888  4394 net.cpp:406] accuracy <- fc9_fc9_0_split_0
I0828 17:31:21.993908  4394 net.cpp:406] accuracy <- label_cifar_1_split_0
I0828 17:31:21.993928  4394 net.cpp:380] accuracy -> accuracy
…
