…
I0830 12:46:56.889415 16446 net.cpp:294] The NetState phase (0) differed from the phase (1) specified by a rule in layer accuracy
I0830 12:46:56.889616 16446 net.cpp:51] Initializing net from parameters: 
name: "CIFAR10_vgg"
state {
  phase: TRAIN
  level: 0
  stage: ""
}
layer {
  name: "cifar"
  type: "Data"
  top: "data"
  top: "label"
  include {
    phase: TRAIN
  }
  transform_param {
    mirror: true
    crop_size: 32
    mean_file: "examples/cifar10/mean.binaryproto"
  }
  data_param {
    source: "examples/cifar10/cifar10_train_lmdb"
    batch_size: 100
    backend: LMDB
  }
}
layer {
  name: "conv1"
  type: "BinaryConvolution"
  bottom: "data"
  top: "conv1"
  param {
    lr_mult: 1
    decay_mult: 1
  }
  convolution_param {
    num_output: 64
    bias_term: false
    pad: 1
    kernel_size: 3
    stride: 1
    weight_filler {
      type: "gaussian"
      std: 0.01
    }
  }
  debug_param {
    xnorno_grad: false
    binary_relax: true
  }
}
layer {
  name: "bn1_bn"
  type: "BatchNorm"
  bottom: "conv1"
  top: "conv1_bn"
}
layer {
  name: "bn1_scal"
  type: "Scale"
  bottom: "conv1_bn"
  top: "conv1_sc"
  scale_param {
    bias_term: true
  }
}
layer {
  name: "relu1"
  type: "ReLU"
  bottom: "conv1_sc"
  top: "conv1_sc"
}
layer {
  name: "conv2"
  type: "BinaryConvolution"
  bottom: "conv1_sc"
  top: "conv2"
  param {
    lr_mult: 1
    decay_mult: 1
  }
  convolution_param {
    num_output: 64
    bias_term: false
    pad: 1
    kernel_size: 3
    stride: 1
    weight_filler {
      type: "gaussian"
      std: 0.01
    }
  }
  debug_param {
    xnorno_grad: false
    binary_relax: true
  }
}
layer {
  name: "bn2_bn"
  type: "BatchNorm"
  bottom: "conv2"
  top: "conv2_bn"
}
layer {
  name: "bn2_scal"
  type: "Scale"
  bottom: "conv2_bn"
  top: "conv2_sc"
  scale_param {
    bias_term: true
  }
}
layer {
  name: "relu2"
  type: "ReLU"
  bottom: "conv2_sc"
  top: "conv2_sc"
}
layer {
  name: "pool1"
  type: "Pooling"
  bottom: "conv2_sc"
  top: "pool1"
  pooling_param {
    pool: MAX
    kernel_size: 2
    stride: 2
  }
}
layer {
  name: "drop1"
  type: "Dropout"
  bottom: "pool1"
  top: "pool1"
  dropout_param {
    dropout_ratio: 0.25
  }
}
layer {
  name: "conv3"
  type: "BinaryConvolution"
  bottom: "pool1"
  top: "conv3"
  param {
    lr_mult: 1
    decay_mult: 1
  }
  convolution_param {
    num_output: 128
    bias_term: false
    pad: 1
    kernel_size: 3
    stride: 1
    weight_filler {
      type: "gaussian"
      std: 0.01
    }
  }
  debug_param {
    xnorno_grad: false
    binary_relax: true
  }
}
layer {
  name: "bn3_bn"
  type: "BatchNorm"
  bottom: "conv3"
  top: "conv3_bn"
}
layer {
  name: "bn3_scal"
  type: "Scale"
  bottom: "conv3_bn"
  top: "conv3_sc"
  scale_param {
    bias_term: true
  }
}
layer {
  name: "relu3"
  type: "ReLU"
  bottom: "conv3_sc"
  top: "conv3_sc"
}
layer {
  name: "conv4"
  type: "BinaryConvolution"
  bottom: "conv3_sc"
  top: "conv4"
  param {
    lr_mult: 1
    decay_mult: 1
  }
  convolution_param {
    num_output: 128
    bias_term: false
    pad: 1
    kernel_size: 3
    stride: 1
    weight_filler {
      type: "gaussian"
      std: 0.01
    }
  }
  debug_param {
    xnorno_grad: false
    binary_relax: true
  }
}
layer {
  name: "bn4_bn"
  type: "BatchNorm"
  bottom: "conv4"
  top: "conv4_bn"
}
layer {
  name: "bn4_scal"
  type: "Scale"
  bottom: "conv4_bn"
  top: "conv4_sc"
  scale_param {
    bias_term: true
  }
}
layer {
  name: "relu4"
  type: "ReLU"
  bottom: "conv4_sc"
  top: "conv4_sc"
}
layer {
  name: "pool2"
  type: "Pooling"
  bottom: "conv4_sc"
  top: "pool2"
  pooling_param {
    pool: MAX
    kernel_size: 2
    stride: 2
  }
}
layer {
  name: "drop2"
  type: "Dropout"
  bottom: "pool2"
  top: "pool2"
  dropout_param {
    dropout_ratio: 0.25
  }
}
layer {
  name: "conv5"
  type: "BinaryConvolution"
  bottom: "pool2"
  top: "conv5"
  param {
    lr_mult: 1
    decay_mult: 1
  }
  convolution_param {
    num_output: 256
    bias_term: false
    pad: 1
    kernel_size: 3
    stride: 1
    weight_filler {
      type: "gaussian"
      std: 0.01
    }
  }
  debug_param {
    xnorno_grad: false
    binary_relax: true
  }
}
layer {
  name: "bn5_bn"
  type: "BatchNorm"
  bottom: "conv5"
  top: "conv5_bn"
}
layer {
  name: "bn5_scal"
  type: "Scale"
  bottom: "conv5_bn"
  top: "conv5_sc"
  scale_param {
    bias_term: true
  }
}
layer {
  name: "relu5"
  type: "ReLU"
  bottom: "conv5_sc"
  top: "conv5_sc"
}
layer {
  name: "conv6"
  type: "BinaryConvolution"
  bottom: "conv5_sc"
  top: "conv6"
  param {
    lr_mult: 1
    decay_mult: 1
  }
  convolution_param {
    num_output: 256
    bias_term: false
    pad: 1
    kernel_size: 3
    stride: 1
    weight_filler {
      type: "gaussian"
      std: 0.01
    }
  }
  debug_param {
    xnorno_grad: false
    binary_relax: true
  }
}
layer {
  name: "bn6_bn"
  type: "BatchNorm"
  bottom: "conv6"
  top: "conv6_bn"
}
layer {
  name: "bn6_scal"
  type: "Scale"
  bottom: "conv6_bn"
  top: "conv6_sc"
  scale_param {
    bias_term: true
  }
}
layer {
  name: "relu6"
  type: "ReLU"
  bottom: "conv6_sc"
  top: "conv6_sc"
}
layer {
  name: "pool3"
  type: "Pooling"
  bottom: "conv6_sc"
  top: "pool3"
  pooling_param {
    pool: MAX
    kernel_size: 2
    stride: 2
  }
}
layer {
  name: "drop3"
  type: "Dropout"
  bottom: "pool3"
  top: "pool3"
  dropout_param {
    dropout_ratio: 0.25
  }
}
layer {
  name: "fc7"
  type: "BinaryInnerProduct"
  bottom: "pool3"
  top: "fc7"
  param {
    lr_mult: 1
    decay_mult: 1
  }
  inner_product_param {
    num_output: 512
    bias_term: false
    weight_filler {
      type: "gaussian"
      std: 0.01
    }
  }
  debug_param {
    xnorno_grad: false
    binary_relax: true
  }
}
layer {
  name: "bn7_bn"
  type: "BatchNorm"
  bottom: "fc7"
  top: "fc7_bn"
}
layer {
  name: "bn7_scal"
  type: "Scale"
  bottom: "fc7_bn"
  top: "fc7_sc"
  scale_param {
    bias_term: true
  }
}
layer {
  name: "relu7"
  type: "ReLU"
  bottom: "fc7_sc"
  top: "fc7_sc"
}
layer {
  name: "drop7"
  type: "Dropout"
  bottom: "fc7_sc"
  top: "fc7_sc"
  dropout_param {
    dropout_ratio: 0.5
  }
}
layer {
  name: "fc8"
  type: "BinaryInnerProduct"
  bottom: "fc7_sc"
  top: "fc8"
  param {
    lr_mult: 1
    decay_mult: 1
  }
  inner_product_param {
    num_output: 512
    bias_term: false
    weight_filler {
      type: "gaussian"
      std: 0.01
    }
  }
  debug_param {
    xnorno_grad: false
    binary_relax: true
  }
}
layer {
  name: "bn8_bn"
  type: "BatchNorm"
  bottom: "fc8"
  top: "fc8_bn"
}
layer {
  name: "bn8_scal"
  type: "Scale"
  bottom: "fc8_bn"
  top: "fc8_sc"
  scale_param {
    bias_term: true
  }
}
layer {
  name: "relu8"
  type: "ReLU"
  bottom: "fc8_sc"
  top: "fc8_sc"
}
layer {
  name: "drop8"
  type: "Dropout"
  bottom: "fc8_sc"
  top: "fc8_sc"
  dropout_param {
    dropout_ratio: 0.5
  }
}
layer {
  name: "fc9"
  type: "BinaryInnerProduct"
  bottom: "fc8_sc"
  top: "fc9"
  param {
    lr_mult: 1
    decay_mult: 1
  }
  param {
    lr_mult: 2
    decay_mult: 0
  }
  inner_product_param {
    num_output: 10
    weight_filler {
      type: "gaussian"
      std: 0.01
    }
    bias_filler {
      type: "constant"
      value: 0.01
    }
  }
  debug_param {
    xnorno_grad: false
    binary_relax: true
  }
}
layer {
  name: "loss"
  type: "SoftmaxWithLoss"
  bottom: "fc9"
  bottom: "label"
  top: "loss"
}
I0830 12:46:56.890269 16446 layer_factory.hpp:77] Creating layer cifar
I0830 12:46:56.890463 16446 db_lmdb.cpp:35] Opened lmdb examples/cifar10/cifar10_train_lmdb
I0830 12:46:56.890530 16446 net.cpp:84] Creating Layer cifar
I0830 12:46:56.890573 16446 net.cpp:380] cifar -> data
I0830 12:46:56.890708 16446 net.cpp:380] cifar -> label
I0830 12:46:56.890748 16446 data_transformer.cpp:25] Loading mean file from: examples/cifar10/mean.binaryproto
I0830 12:46:56.891971 16446 data_layer.cpp:45] output data size: 100,3,32,32
I0830 12:46:56.894747 16446 base_data_layer.cpp:72] Initializing prefetch
I0830 12:46:56.894886 16446 base_data_layer.cpp:75] Prefetch initialized.
I0830 12:46:56.894897 16446 net.cpp:122] Setting up cifar
I0830 12:46:56.894938 16446 net.cpp:129] Top shape: 100 3 32 32 (307200)
I0830 12:46:56.894958 16446 net.cpp:129] Top shape: 100 (100)
I0830 12:46:56.894961 16446 net.cpp:137] Memory required for data: 1229200
I0830 12:46:56.894994 16446 layer_factory.hpp:77] Creating layer conv1
I0830 12:46:56.895074 16446 net.cpp:84] Creating Layer conv1
I0830 12:46:56.895095 16446 net.cpp:406] conv1 <- data
I0830 12:46:56.895144 16446 net.cpp:380] conv1 -> conv1
I0830 12:46:56.895817 16446 net.cpp:122] Setting up conv1
I0830 12:46:56.895833 16446 net.cpp:129] Top shape: 100 64 32 32 (6553600)
I0830 12:46:56.895838 16446 net.cpp:137] Memory required for data: 27443600
I0830 12:46:56.895884 16446 layer_factory.hpp:77] Creating layer bn1_bn
I0830 12:46:56.895906 16446 net.cpp:84] Creating Layer bn1_bn
I0830 12:46:56.895915 16446 net.cpp:406] bn1_bn <- conv1
I0830 12:46:56.895931 16446 net.cpp:380] bn1_bn -> conv1_bn
I0830 12:46:56.896503 16446 net.cpp:122] Setting up bn1_bn
I0830 12:46:56.896520 16446 net.cpp:129] Top shape: 100 64 32 32 (6553600)
I0830 12:46:56.896525 16446 net.cpp:137] Memory required for data: 53658000
I0830 12:46:56.896562 16446 layer_factory.hpp:77] Creating layer bn1_scal
I0830 12:46:56.896585 16446 net.cpp:84] Creating Layer bn1_scal
I0830 12:46:56.896594 16446 net.cpp:406] bn1_scal <- conv1_bn
I0830 12:46:56.896615 16446 net.cpp:380] bn1_scal -> conv1_sc
I0830 12:46:56.896692 16446 layer_factory.hpp:77] Creating layer bn1_scal
I0830 12:46:56.896837 16446 net.cpp:122] Setting up bn1_scal
I0830 12:46:56.896850 16446 net.cpp:129] Top shape: 100 64 32 32 (6553600)
I0830 12:46:56.896857 16446 net.cpp:137] Memory required for data: 79872400
I0830 12:46:56.896878 16446 layer_factory.hpp:77] Creating layer relu1
I0830 12:46:56.896900 16446 net.cpp:84] Creating Layer relu1
I0830 12:46:56.896910 16446 net.cpp:406] relu1 <- conv1_sc
I0830 12:46:56.896924 16446 net.cpp:367] relu1 -> conv1_sc (in-place)
I0830 12:46:57.260133 16446 net.cpp:122] Setting up relu1
I0830 12:46:57.260174 16446 net.cpp:129] Top shape: 100 64 32 32 (6553600)
I0830 12:46:57.260179 16446 net.cpp:137] Memory required for data: 106086800
I0830 12:46:57.260205 16446 layer_factory.hpp:77] Creating layer conv2
I0830 12:46:57.260273 16446 net.cpp:84] Creating Layer conv2
I0830 12:46:57.260306 16446 net.cpp:406] conv2 <- conv1_sc
I0830 12:46:57.260363 16446 net.cpp:380] conv2 -> conv2
I0830 12:46:57.266381 16446 net.cpp:122] Setting up conv2
I0830 12:46:57.266419 16446 net.cpp:129] Top shape: 100 64 32 32 (6553600)
I0830 12:46:57.266423 16446 net.cpp:137] Memory required for data: 132301200
I0830 12:46:57.266449 16446 layer_factory.hpp:77] Creating layer bn2_bn
I0830 12:46:57.266480 16446 net.cpp:84] Creating Layer bn2_bn
I0830 12:46:57.266494 16446 net.cpp:406] bn2_bn <- conv2
I0830 12:46:57.266518 16446 net.cpp:380] bn2_bn -> conv2_bn
I0830 12:46:57.266753 16446 net.cpp:122] Setting up bn2_bn
I0830 12:46:57.266765 16446 net.cpp:129] Top shape: 100 64 32 32 (6553600)
I0830 12:46:57.266770 16446 net.cpp:137] Memory required for data: 158515600
I0830 12:46:57.266803 16446 layer_factory.hpp:77] Creating layer bn2_scal
I0830 12:46:57.266824 16446 net.cpp:84] Creating Layer bn2_scal
I0830 12:46:57.266845 16446 net.cpp:406] bn2_scal <- conv2_bn
I0830 12:46:57.266863 16446 net.cpp:380] bn2_scal -> conv2_sc
I0830 12:46:57.266934 16446 layer_factory.hpp:77] Creating layer bn2_scal
I0830 12:46:57.267084 16446 net.cpp:122] Setting up bn2_scal
I0830 12:46:57.267096 16446 net.cpp:129] Top shape: 100 64 32 32 (6553600)
I0830 12:46:57.267101 16446 net.cpp:137] Memory required for data: 184730000
I0830 12:46:57.267114 16446 layer_factory.hpp:77] Creating layer relu2
I0830 12:46:57.267134 16446 net.cpp:84] Creating Layer relu2
I0830 12:46:57.267143 16446 net.cpp:406] relu2 <- conv2_sc
I0830 12:46:57.267156 16446 net.cpp:367] relu2 -> conv2_sc (in-place)
I0830 12:46:57.267519 16446 net.cpp:122] Setting up relu2
I0830 12:46:57.267530 16446 net.cpp:129] Top shape: 100 64 32 32 (6553600)
I0830 12:46:57.267535 16446 net.cpp:137] Memory required for data: 210944400
I0830 12:46:57.267541 16446 layer_factory.hpp:77] Creating layer pool1
I0830 12:46:57.267565 16446 net.cpp:84] Creating Layer pool1
I0830 12:46:57.267575 16446 net.cpp:406] pool1 <- conv2_sc
I0830 12:46:57.267590 16446 net.cpp:380] pool1 -> pool1
I0830 12:46:57.267663 16446 net.cpp:122] Setting up pool1
I0830 12:46:57.267674 16446 net.cpp:129] Top shape: 100 64 16 16 (1638400)
I0830 12:46:57.267679 16446 net.cpp:137] Memory required for data: 217498000
I0830 12:46:57.267684 16446 layer_factory.hpp:77] Creating layer drop1
I0830 12:46:57.267704 16446 net.cpp:84] Creating Layer drop1
I0830 12:46:57.267711 16446 net.cpp:406] drop1 <- pool1
I0830 12:46:57.267726 16446 net.cpp:367] drop1 -> pool1 (in-place)
I0830 12:46:57.267763 16446 net.cpp:122] Setting up drop1
I0830 12:46:57.267772 16446 net.cpp:129] Top shape: 100 64 16 16 (1638400)
I0830 12:46:57.267776 16446 net.cpp:137] Memory required for data: 224051600
I0830 12:46:57.267782 16446 layer_factory.hpp:77] Creating layer conv3
I0830 12:46:57.267807 16446 net.cpp:84] Creating Layer conv3
I0830 12:46:57.267814 16446 net.cpp:406] conv3 <- pool1
I0830 12:46:57.267832 16446 net.cpp:380] conv3 -> conv3
I0830 12:46:57.278398 16446 net.cpp:122] Setting up conv3
I0830 12:46:57.278430 16446 net.cpp:129] Top shape: 100 128 16 16 (3276800)
I0830 12:46:57.278436 16446 net.cpp:137] Memory required for data: 237158800
I0830 12:46:57.278470 16446 layer_factory.hpp:77] Creating layer bn3_bn
I0830 12:46:57.278508 16446 net.cpp:84] Creating Layer bn3_bn
I0830 12:46:57.278527 16446 net.cpp:406] bn3_bn <- conv3
I0830 12:46:57.278563 16446 net.cpp:380] bn3_bn -> conv3_bn
I0830 12:46:57.278934 16446 net.cpp:122] Setting up bn3_bn
I0830 12:46:57.278947 16446 net.cpp:129] Top shape: 100 128 16 16 (3276800)
I0830 12:46:57.278951 16446 net.cpp:137] Memory required for data: 250266000
I0830 12:46:57.278972 16446 layer_factory.hpp:77] Creating layer bn3_scal
I0830 12:46:57.278990 16446 net.cpp:84] Creating Layer bn3_scal
I0830 12:46:57.278998 16446 net.cpp:406] bn3_scal <- conv3_bn
I0830 12:46:57.279013 16446 net.cpp:380] bn3_scal -> conv3_sc
I0830 12:46:57.279081 16446 layer_factory.hpp:77] Creating layer bn3_scal
I0830 12:46:57.279222 16446 net.cpp:122] Setting up bn3_scal
I0830 12:46:57.279233 16446 net.cpp:129] Top shape: 100 128 16 16 (3276800)
I0830 12:46:57.279237 16446 net.cpp:137] Memory required for data: 263373200
I0830 12:46:57.279263 16446 layer_factory.hpp:77] Creating layer relu3
I0830 12:46:57.279276 16446 net.cpp:84] Creating Layer relu3
I0830 12:46:57.279284 16446 net.cpp:406] relu3 <- conv3_sc
I0830 12:46:57.279297 16446 net.cpp:367] relu3 -> conv3_sc (in-place)
I0830 12:46:57.279846 16446 net.cpp:122] Setting up relu3
I0830 12:46:57.279858 16446 net.cpp:129] Top shape: 100 128 16 16 (3276800)
I0830 12:46:57.279862 16446 net.cpp:137] Memory required for data: 276480400
I0830 12:46:57.279868 16446 layer_factory.hpp:77] Creating layer conv4
I0830 12:46:57.279893 16446 net.cpp:84] Creating Layer conv4
I0830 12:46:57.279902 16446 net.cpp:406] conv4 <- conv3_sc
I0830 12:46:57.279922 16446 net.cpp:380] conv4 -> conv4
I0830 12:46:57.299377 16446 net.cpp:122] Setting up conv4
I0830 12:46:57.299407 16446 net.cpp:129] Top shape: 100 128 16 16 (3276800)
I0830 12:46:57.299430 16446 net.cpp:137] Memory required for data: 289587600
I0830 12:46:57.299461 16446 layer_factory.hpp:77] Creating layer bn4_bn
I0830 12:46:57.299531 16446 net.cpp:84] Creating Layer bn4_bn
I0830 12:46:57.299561 16446 net.cpp:406] bn4_bn <- conv4
I0830 12:46:57.299582 16446 net.cpp:380] bn4_bn -> conv4_bn
I0830 12:46:57.299834 16446 net.cpp:122] Setting up bn4_bn
I0830 12:46:57.299845 16446 net.cpp:129] Top shape: 100 128 16 16 (3276800)
I0830 12:46:57.299849 16446 net.cpp:137] Memory required for data: 302694800
I0830 12:46:57.299867 16446 layer_factory.hpp:77] Creating layer bn4_scal
I0830 12:46:57.299895 16446 net.cpp:84] Creating Layer bn4_scal
I0830 12:46:57.299911 16446 net.cpp:406] bn4_scal <- conv4_bn
I0830 12:46:57.299934 16446 net.cpp:380] bn4_scal -> conv4_sc
I0830 12:46:57.300026 16446 layer_factory.hpp:77] Creating layer bn4_scal
I0830 12:46:57.300181 16446 net.cpp:122] Setting up bn4_scal
I0830 12:46:57.300192 16446 net.cpp:129] Top shape: 100 128 16 16 (3276800)
I0830 12:46:57.300206 16446 net.cpp:137] Memory required for data: 315802000
I0830 12:46:57.300220 16446 layer_factory.hpp:77] Creating layer relu4
I0830 12:46:57.300233 16446 net.cpp:84] Creating Layer relu4
I0830 12:46:57.300240 16446 net.cpp:406] relu4 <- conv4_sc
I0830 12:46:57.300254 16446 net.cpp:367] relu4 -> conv4_sc (in-place)
I0830 12:46:57.300602 16446 net.cpp:122] Setting up relu4
I0830 12:46:57.300612 16446 net.cpp:129] Top shape: 100 128 16 16 (3276800)
I0830 12:46:57.300617 16446 net.cpp:137] Memory required for data: 328909200
I0830 12:46:57.300622 16446 layer_factory.hpp:77] Creating layer pool2
I0830 12:46:57.300640 16446 net.cpp:84] Creating Layer pool2
I0830 12:46:57.300648 16446 net.cpp:406] pool2 <- conv4_sc
I0830 12:46:57.300663 16446 net.cpp:380] pool2 -> pool2
I0830 12:46:57.300721 16446 net.cpp:122] Setting up pool2
I0830 12:46:57.300732 16446 net.cpp:129] Top shape: 100 128 8 8 (819200)
I0830 12:46:57.300736 16446 net.cpp:137] Memory required for data: 332186000
I0830 12:46:57.300741 16446 layer_factory.hpp:77] Creating layer drop2
I0830 12:46:57.300757 16446 net.cpp:84] Creating Layer drop2
I0830 12:46:57.300765 16446 net.cpp:406] drop2 <- pool2
I0830 12:46:57.300779 16446 net.cpp:367] drop2 -> pool2 (in-place)
I0830 12:46:57.300813 16446 net.cpp:122] Setting up drop2
I0830 12:46:57.300822 16446 net.cpp:129] Top shape: 100 128 8 8 (819200)
I0830 12:46:57.300825 16446 net.cpp:137] Memory required for data: 335462800
I0830 12:46:57.300830 16446 layer_factory.hpp:77] Creating layer conv5
I0830 12:46:57.300853 16446 net.cpp:84] Creating Layer conv5
I0830 12:46:57.300861 16446 net.cpp:406] conv5 <- pool2
I0830 12:46:57.300879 16446 net.cpp:380] conv5 -> conv5
I0830 12:46:57.339164 16446 net.cpp:122] Setting up conv5
I0830 12:46:57.339201 16446 net.cpp:129] Top shape: 100 256 8 8 (1638400)
I0830 12:46:57.339205 16446 net.cpp:137] Memory required for data: 342016400
I0830 12:46:57.339241 16446 layer_factory.hpp:77] Creating layer bn5_bn
I0830 12:46:57.339280 16446 net.cpp:84] Creating Layer bn5_bn
I0830 12:46:57.339303 16446 net.cpp:406] bn5_bn <- conv5
I0830 12:46:57.339345 16446 net.cpp:380] bn5_bn -> conv5_bn
I0830 12:46:57.339606 16446 net.cpp:122] Setting up bn5_bn
I0830 12:46:57.339617 16446 net.cpp:129] Top shape: 100 256 8 8 (1638400)
I0830 12:46:57.339622 16446 net.cpp:137] Memory required for data: 348570000
I0830 12:46:57.339639 16446 layer_factory.hpp:77] Creating layer bn5_scal
I0830 12:46:57.339666 16446 net.cpp:84] Creating Layer bn5_scal
I0830 12:46:57.339684 16446 net.cpp:406] bn5_scal <- conv5_bn
I0830 12:46:57.339707 16446 net.cpp:380] bn5_scal -> conv5_sc
I0830 12:46:57.339793 16446 layer_factory.hpp:77] Creating layer bn5_scal
I0830 12:46:57.339937 16446 net.cpp:122] Setting up bn5_scal
I0830 12:46:57.339949 16446 net.cpp:129] Top shape: 100 256 8 8 (1638400)
I0830 12:46:57.339953 16446 net.cpp:137] Memory required for data: 355123600
I0830 12:46:57.339967 16446 layer_factory.hpp:77] Creating layer relu5
I0830 12:46:57.339978 16446 net.cpp:84] Creating Layer relu5
I0830 12:46:57.339998 16446 net.cpp:406] relu5 <- conv5_sc
I0830 12:46:57.340013 16446 net.cpp:367] relu5 -> conv5_sc (in-place)
I0830 12:46:57.340562 16446 net.cpp:122] Setting up relu5
I0830 12:46:57.340574 16446 net.cpp:129] Top shape: 100 256 8 8 (1638400)
I0830 12:46:57.340579 16446 net.cpp:137] Memory required for data: 361677200
I0830 12:46:57.340584 16446 layer_factory.hpp:77] Creating layer conv6
I0830 12:46:57.340610 16446 net.cpp:84] Creating Layer conv6
I0830 12:46:57.340617 16446 net.cpp:406] conv6 <- conv5_sc
I0830 12:46:57.340636 16446 net.cpp:380] conv6 -> conv6
I0830 12:46:57.415922 16446 net.cpp:122] Setting up conv6
I0830 12:46:57.415959 16446 net.cpp:129] Top shape: 100 256 8 8 (1638400)
I0830 12:46:57.415964 16446 net.cpp:137] Memory required for data: 368230800
I0830 12:46:57.415997 16446 layer_factory.hpp:77] Creating layer bn6_bn
I0830 12:46:57.416038 16446 net.cpp:84] Creating Layer bn6_bn
I0830 12:46:57.416061 16446 net.cpp:406] bn6_bn <- conv6
I0830 12:46:57.416103 16446 net.cpp:380] bn6_bn -> conv6_bn
I0830 12:46:57.416369 16446 net.cpp:122] Setting up bn6_bn
I0830 12:46:57.416380 16446 net.cpp:129] Top shape: 100 256 8 8 (1638400)
I0830 12:46:57.416384 16446 net.cpp:137] Memory required for data: 374784400
I0830 12:46:57.416427 16446 layer_factory.hpp:77] Creating layer bn6_scal
I0830 12:46:57.416465 16446 net.cpp:84] Creating Layer bn6_scal
I0830 12:46:57.416471 16446 net.cpp:406] bn6_scal <- conv6_bn
I0830 12:46:57.416486 16446 net.cpp:380] bn6_scal -> conv6_sc
I0830 12:46:57.416565 16446 layer_factory.hpp:77] Creating layer bn6_scal
I0830 12:46:57.416721 16446 net.cpp:122] Setting up bn6_scal
I0830 12:46:57.416733 16446 net.cpp:129] Top shape: 100 256 8 8 (1638400)
I0830 12:46:57.416738 16446 net.cpp:137] Memory required for data: 381338000
I0830 12:46:57.416751 16446 layer_factory.hpp:77] Creating layer relu6
I0830 12:46:57.416764 16446 net.cpp:84] Creating Layer relu6
I0830 12:46:57.416772 16446 net.cpp:406] relu6 <- conv6_sc
I0830 12:46:57.416785 16446 net.cpp:367] relu6 -> conv6_sc (in-place)
I0830 12:46:57.417352 16446 net.cpp:122] Setting up relu6
I0830 12:46:57.417363 16446 net.cpp:129] Top shape: 100 256 8 8 (1638400)
I0830 12:46:57.417368 16446 net.cpp:137] Memory required for data: 387891600
I0830 12:46:57.417374 16446 layer_factory.hpp:77] Creating layer pool3
I0830 12:46:57.417393 16446 net.cpp:84] Creating Layer pool3
I0830 12:46:57.417402 16446 net.cpp:406] pool3 <- conv6_sc
I0830 12:46:57.417418 16446 net.cpp:380] pool3 -> pool3
I0830 12:46:57.417476 16446 net.cpp:122] Setting up pool3
I0830 12:46:57.417487 16446 net.cpp:129] Top shape: 100 256 4 4 (409600)
I0830 12:46:57.417492 16446 net.cpp:137] Memory required for data: 389530000
I0830 12:46:57.417497 16446 layer_factory.hpp:77] Creating layer drop3
I0830 12:46:57.417512 16446 net.cpp:84] Creating Layer drop3
I0830 12:46:57.417520 16446 net.cpp:406] drop3 <- pool3
I0830 12:46:57.417534 16446 net.cpp:367] drop3 -> pool3 (in-place)
I0830 12:46:57.417569 16446 net.cpp:122] Setting up drop3
I0830 12:46:57.417577 16446 net.cpp:129] Top shape: 100 256 4 4 (409600)
I0830 12:46:57.417582 16446 net.cpp:137] Memory required for data: 391168400
I0830 12:46:57.417587 16446 layer_factory.hpp:77] Creating layer fc7
I0830 12:46:57.417614 16446 net.cpp:84] Creating Layer fc7
I0830 12:46:57.417623 16446 net.cpp:406] fc7 <- pool3
I0830 12:46:57.417639 16446 net.cpp:380] fc7 -> fc7
I0830 12:46:57.709031 16446 net.cpp:122] Setting up fc7
I0830 12:46:57.709069 16446 net.cpp:129] Top shape: 100 512 (51200)
I0830 12:46:57.709072 16446 net.cpp:137] Memory required for data: 391373200
I0830 12:46:57.709107 16446 layer_factory.hpp:77] Creating layer bn7_bn
I0830 12:46:57.709159 16446 net.cpp:84] Creating Layer bn7_bn
I0830 12:46:57.709182 16446 net.cpp:406] bn7_bn <- fc7
I0830 12:46:57.709225 16446 net.cpp:380] bn7_bn -> fc7_bn
I0830 12:46:57.709463 16446 net.cpp:122] Setting up bn7_bn
I0830 12:46:57.709475 16446 net.cpp:129] Top shape: 100 512 (51200)
I0830 12:46:57.709477 16446 net.cpp:137] Memory required for data: 391578000
I0830 12:46:57.709522 16446 layer_factory.hpp:77] Creating layer bn7_scal
I0830 12:46:57.709543 16446 net.cpp:84] Creating Layer bn7_scal
I0830 12:46:57.709552 16446 net.cpp:406] bn7_scal <- fc7_bn
I0830 12:46:57.709568 16446 net.cpp:380] bn7_scal -> fc7_sc
I0830 12:46:57.709666 16446 layer_factory.hpp:77] Creating layer bn7_scal
I0830 12:46:57.709856 16446 net.cpp:122] Setting up bn7_scal
I0830 12:46:57.709867 16446 net.cpp:129] Top shape: 100 512 (51200)
I0830 12:46:57.709872 16446 net.cpp:137] Memory required for data: 391782800
I0830 12:46:57.709895 16446 layer_factory.hpp:77] Creating layer relu7
I0830 12:46:57.709909 16446 net.cpp:84] Creating Layer relu7
I0830 12:46:57.709916 16446 net.cpp:406] relu7 <- fc7_sc
I0830 12:46:57.709939 16446 net.cpp:367] relu7 -> fc7_sc (in-place)
I0830 12:46:57.710363 16446 net.cpp:122] Setting up relu7
I0830 12:46:57.710382 16446 net.cpp:129] Top shape: 100 512 (51200)
I0830 12:46:57.710386 16446 net.cpp:137] Memory required for data: 391987600
I0830 12:46:57.710391 16446 layer_factory.hpp:77] Creating layer drop7
I0830 12:46:57.710407 16446 net.cpp:84] Creating Layer drop7
I0830 12:46:57.710414 16446 net.cpp:406] drop7 <- fc7_sc
I0830 12:46:57.710438 16446 net.cpp:367] drop7 -> fc7_sc (in-place)
I0830 12:46:57.710484 16446 net.cpp:122] Setting up drop7
I0830 12:46:57.710491 16446 net.cpp:129] Top shape: 100 512 (51200)
I0830 12:46:57.710495 16446 net.cpp:137] Memory required for data: 392192400
I0830 12:46:57.710500 16446 layer_factory.hpp:77] Creating layer fc8
I0830 12:46:57.710523 16446 net.cpp:84] Creating Layer fc8
I0830 12:46:57.710531 16446 net.cpp:406] fc8 <- fc7_sc
I0830 12:46:57.710551 16446 net.cpp:380] fc8 -> fc8
I0830 12:46:57.744026 16446 net.cpp:122] Setting up fc8
I0830 12:46:57.744060 16446 net.cpp:129] Top shape: 100 512 (51200)
I0830 12:46:57.744063 16446 net.cpp:137] Memory required for data: 392397200
I0830 12:46:57.744097 16446 layer_factory.hpp:77] Creating layer bn8_bn
I0830 12:46:57.744128 16446 net.cpp:84] Creating Layer bn8_bn
I0830 12:46:57.744160 16446 net.cpp:406] bn8_bn <- fc8
I0830 12:46:57.744184 16446 net.cpp:380] bn8_bn -> fc8_bn
I0830 12:46:57.744442 16446 net.cpp:122] Setting up bn8_bn
I0830 12:46:57.744453 16446 net.cpp:129] Top shape: 100 512 (51200)
I0830 12:46:57.744467 16446 net.cpp:137] Memory required for data: 392602000
I0830 12:46:57.744487 16446 layer_factory.hpp:77] Creating layer bn8_scal
I0830 12:46:57.744504 16446 net.cpp:84] Creating Layer bn8_scal
I0830 12:46:57.744513 16446 net.cpp:406] bn8_scal <- fc8_bn
I0830 12:46:57.744549 16446 net.cpp:380] bn8_scal -> fc8_sc
I0830 12:46:57.744668 16446 layer_factory.hpp:77] Creating layer bn8_scal
I0830 12:46:57.744828 16446 net.cpp:122] Setting up bn8_scal
I0830 12:46:57.744840 16446 net.cpp:129] Top shape: 100 512 (51200)
I0830 12:46:57.744844 16446 net.cpp:137] Memory required for data: 392806800
I0830 12:46:57.744859 16446 layer_factory.hpp:77] Creating layer relu8
I0830 12:46:57.744874 16446 net.cpp:84] Creating Layer relu8
I0830 12:46:57.744880 16446 net.cpp:406] relu8 <- fc8_sc
I0830 12:46:57.744894 16446 net.cpp:367] relu8 -> fc8_sc (in-place)
I0830 12:46:57.745512 16446 net.cpp:122] Setting up relu8
I0830 12:46:57.745524 16446 net.cpp:129] Top shape: 100 512 (51200)
I0830 12:46:57.745528 16446 net.cpp:137] Memory required for data: 393011600
I0830 12:46:57.745535 16446 layer_factory.hpp:77] Creating layer drop8
I0830 12:46:57.745553 16446 net.cpp:84] Creating Layer drop8
I0830 12:46:57.745561 16446 net.cpp:406] drop8 <- fc8_sc
I0830 12:46:57.745579 16446 net.cpp:367] drop8 -> fc8_sc (in-place)
I0830 12:46:57.745616 16446 net.cpp:122] Setting up drop8
I0830 12:46:57.745625 16446 net.cpp:129] Top shape: 100 512 (51200)
I0830 12:46:57.745630 16446 net.cpp:137] Memory required for data: 393216400
I0830 12:46:57.745635 16446 layer_factory.hpp:77] Creating layer fc9
I0830 12:46:57.745661 16446 net.cpp:84] Creating Layer fc9
I0830 12:46:57.745668 16446 net.cpp:406] fc9 <- fc8_sc
I0830 12:46:57.745688 16446 net.cpp:380] fc9 -> fc9
I0830 12:46:57.746958 16446 net.cpp:122] Setting up fc9
I0830 12:46:57.746982 16446 net.cpp:129] Top shape: 100 10 (1000)
I0830 12:46:57.746987 16446 net.cpp:137] Memory required for data: 393220400
I0830 12:46:57.747001 16446 layer_factory.hpp:77] Creating layer loss
I0830 12:46:57.747025 16446 net.cpp:84] Creating Layer loss
I0830 12:46:57.747035 16446 net.cpp:406] loss <- fc9
I0830 12:46:57.747046 16446 net.cpp:406] loss <- label
I0830 12:46:57.747062 16446 net.cpp:380] loss -> loss
I0830 12:46:57.747082 16446 layer_factory.hpp:77] Creating layer loss
…
I0830 12:46:57.818079 16446 net.cpp:294] The NetState phase (1) differed from the phase (0) specified by a rule in layer cifar
I0830 12:46:57.818321 16446 net.cpp:51] Initializing net from parameters: 
name: "CIFAR10_vgg"
state {
  phase: TEST
}
layer {
  name: "cifar"
  type: "Data"
  top: "data"
  top: "label"
  include {
    phase: TEST
  }
  transform_param {
    mirror: false
    crop_size: 32
    mean_file: "examples/cifar10/mean.binaryproto"
  }
  data_param {
    source: "examples/cifar10/cifar10_test_lmdb"
    batch_size: 100
    backend: LMDB
  }
}
layer {
  name: "conv1"
  type: "BinaryConvolution"
  bottom: "data"
  top: "conv1"
  param {
    lr_mult: 1
    decay_mult: 1
  }
  convolution_param {
    num_output: 64
    bias_term: false
    pad: 1
    kernel_size: 3
    stride: 1
    weight_filler {
      type: "gaussian"
      std: 0.01
    }
  }
  debug_param {
    xnorno_grad: false
    binary_relax: true
  }
}
layer {
  name: "bn1_bn"
  type: "BatchNorm"
  bottom: "conv1"
  top: "conv1_bn"
}
layer {
  name: "bn1_scal"
  type: "Scale"
  bottom: "conv1_bn"
  top: "conv1_sc"
  scale_param {
    bias_term: true
  }
}
layer {
  name: "relu1"
  type: "ReLU"
  bottom: "conv1_sc"
  top: "conv1_sc"
}
layer {
  name: "conv2"
  type: "BinaryConvolution"
  bottom: "conv1_sc"
  top: "conv2"
  param {
    lr_mult: 1
    decay_mult: 1
  }
  convolution_param {
    num_output: 64
    bias_term: false
    pad: 1
    kernel_size: 3
    stride: 1
    weight_filler {
      type: "gaussian"
      std: 0.01
    }
  }
  debug_param {
    xnorno_grad: false
    binary_relax: true
  }
}
layer {
  name: "bn2_bn"
  type: "BatchNorm"
  bottom: "conv2"
  top: "conv2_bn"
}
layer {
  name: "bn2_scal"
  type: "Scale"
  bottom: "conv2_bn"
  top: "conv2_sc"
  scale_param {
    bias_term: true
  }
}
layer {
  name: "relu2"
  type: "ReLU"
  bottom: "conv2_sc"
  top: "conv2_sc"
}
layer {
  name: "pool1"
  type: "Pooling"
  bottom: "conv2_sc"
  top: "pool1"
  pooling_param {
    pool: MAX
    kernel_size: 2
    stride: 2
  }
}
layer {
  name: "drop1"
  type: "Dropout"
  bottom: "pool1"
  top: "pool1"
  dropout_param {
    dropout_ratio: 0.25
  }
}
layer {
  name: "conv3"
  type: "BinaryConvolution"
  bottom: "pool1"
  top: "conv3"
  param {
    lr_mult: 1
    decay_mult: 1
  }
  convolution_param {
    num_output: 128
    bias_term: false
    pad: 1
    kernel_size: 3
    stride: 1
    weight_filler {
      type: "gaussian"
      std: 0.01
    }
  }
  debug_param {
    xnorno_grad: false
    binary_relax: true
  }
}
layer {
  name: "bn3_bn"
  type: "BatchNorm"
  bottom: "conv3"
  top: "conv3_bn"
}
layer {
  name: "bn3_scal"
  type: "Scale"
  bottom: "conv3_bn"
  top: "conv3_sc"
  scale_param {
    bias_term: true
  }
}
layer {
  name: "relu3"
  type: "ReLU"
  bottom: "conv3_sc"
  top: "conv3_sc"
}
layer {
  name: "conv4"
  type: "BinaryConvolution"
  bottom: "conv3_sc"
  top: "conv4"
  param {
    lr_mult: 1
    decay_mult: 1
  }
  convolution_param {
    num_output: 128
    bias_term: false
    pad: 1
    kernel_size: 3
    stride: 1
    weight_filler {
      type: "gaussian"
      std: 0.01
    }
  }
  debug_param {
    xnorno_grad: false
    binary_relax: true
  }
}
layer {
  name: "bn4_bn"
  type: "BatchNorm"
  bottom: "conv4"
  top: "conv4_bn"
}
layer {
  name: "bn4_scal"
  type: "Scale"
  bottom: "conv4_bn"
  top: "conv4_sc"
  scale_param {
    bias_term: true
  }
}
layer {
  name: "relu4"
  type: "ReLU"
  bottom: "conv4_sc"
  top: "conv4_sc"
}
layer {
  name: "pool2"
  type: "Pooling"
  bottom: "conv4_sc"
  top: "pool2"
  pooling_param {
    pool: MAX
    kernel_size: 2
    stride: 2
  }
}
layer {
  name: "drop2"
  type: "Dropout"
  bottom: "pool2"
  top: "pool2"
  dropout_param {
    dropout_ratio: 0.25
  }
}
layer {
  name: "conv5"
  type: "BinaryConvolution"
  bottom: "pool2"
  top: "conv5"
  param {
    lr_mult: 1
    decay_mult: 1
  }
  convolution_param {
    num_output: 256
    bias_term: false
    pad: 1
    kernel_size: 3
    stride: 1
    weight_filler {
      type: "gaussian"
      std: 0.01
    }
  }
  debug_param {
    xnorno_grad: false
    binary_relax: true
  }
}
layer {
  name: "bn5_bn"
  type: "BatchNorm"
  bottom: "conv5"
  top: "conv5_bn"
}
layer {
  name: "bn5_scal"
  type: "Scale"
  bottom: "conv5_bn"
  top: "conv5_sc"
  scale_param {
    bias_term: true
  }
}
layer {
  name: "relu5"
  type: "ReLU"
  bottom: "conv5_sc"
  top: "conv5_sc"
}
layer {
  name: "conv6"
  type: "BinaryConvolution"
  bottom: "conv5_sc"
  top: "conv6"
  param {
    lr_mult: 1
    decay_mult: 1
  }
  convolution_param {
    num_output: 256
    bias_term: false
    pad: 1
    kernel_size: 3
    stride: 1
    weight_filler {
      type: "gaussian"
      std: 0.01
    }
  }
  debug_param {
    xnorno_grad: false
    binary_relax: true
  }
}
layer {
  name: "bn6_bn"
  type: "BatchNorm"
  bottom: "conv6"
  top: "conv6_bn"
}
layer {
  name: "bn6_scal"
  type: "Scale"
  bottom: "conv6_bn"
  top: "conv6_sc"
  scale_param {
    bias_term: true
  }
}
layer {
  name: "relu6"
  type: "ReLU"
  bottom: "conv6_sc"
  top: "conv6_sc"
}
layer {
  name: "pool3"
  type: "Pooling"
  bottom: "conv6_sc"
  top: "pool3"
  pooling_param {
    pool: MAX
    kernel_size: 2
    stride: 2
  }
}
layer {
  name: "drop3"
  type: "Dropout"
  bottom: "pool3"
  top: "pool3"
  dropout_param {
    dropout_ratio: 0.25
  }
}
layer {
  name: "fc7"
  type: "BinaryInnerProduct"
  bottom: "pool3"
  top: "fc7"
  param {
    lr_mult: 1
    decay_mult: 1
  }
  inner_product_param {
    num_output: 512
    bias_term: false
    weight_filler {
      type: "gaussian"
      std: 0.01
    }
  }
  debug_param {
    xnorno_grad: false
    binary_relax: true
  }
}
layer {
  name: "bn7_bn"
  type: "BatchNorm"
  bottom: "fc7"
  top: "fc7_bn"
}
layer {
  name: "bn7_scal"
  type: "Scale"
  bottom: "fc7_bn"
  top: "fc7_sc"
  scale_param {
    bias_term: true
  }
}
layer {
  name: "relu7"
  type: "ReLU"
  bottom: "fc7_sc"
  top: "fc7_sc"
}
layer {
  name: "drop7"
  type: "Dropout"
  bottom: "fc7_sc"
  top: "fc7_sc"
  dropout_param {
    dropout_ratio: 0.5
  }
}
layer {
  name: "fc8"
  type: "BinaryInnerProduct"
  bottom: "fc7_sc"
  top: "fc8"
  param {
    lr_mult: 1
    decay_mult: 1
  }
  inner_product_param {
    num_output: 512
    bias_term: false
    weight_filler {
      type: "gaussian"
      std: 0.01
    }
  }
  debug_param {
    xnorno_grad: false
    binary_relax: true
  }
}
layer {
  name: "bn8_bn"
  type: "BatchNorm"
  bottom: "fc8"
  top: "fc8_bn"
}
layer {
  name: "bn8_scal"
  type: "Scale"
  bottom: "fc8_bn"
  top: "fc8_sc"
  scale_param {
    bias_term: true
  }
}
layer {
  name: "relu8"
  type: "ReLU"
  bottom: "fc8_sc"
  top: "fc8_sc"
}
layer {
  name: "drop8"
  type: "Dropout"
  bottom: "fc8_sc"
  top: "fc8_sc"
  dropout_param {
    dropout_ratio: 0.5
  }
}
layer {
  name: "fc9"
  type: "BinaryInnerProduct"
  bottom: "fc8_sc"
  top: "fc9"
  param {
    lr_mult: 1
    decay_mult: 1
  }
  param {
    lr_mult: 2
    decay_mult: 0
  }
  inner_product_param {
    num_output: 10
    weight_filler {
      type: "gaussian"
      std: 0.01
    }
    bias_filler {
      type: "constant"
      value: 0.01
    }
  }
  debug_param {
    xnorno_grad: false
    binary_relax: true
  }
}
layer {
  name: "accuracy"
  type: "Accuracy"
  bottom: "fc9"
  bottom: "label"
  top: "accuracy"
  include {
    phase: TEST
  }
}
layer {
  name: "loss"
  type: "SoftmaxWithLoss"
  bottom: "fc9"
  bottom: "label"
  top: "loss"
}
I0830 12:46:57.818841 16446 layer_factory.hpp:77] Creating layer cifar
I0830 12:46:57.818943 16446 db_lmdb.cpp:35] Opened lmdb examples/cifar10/cifar10_test_lmdb
I0830 12:46:57.818974 16446 net.cpp:84] Creating Layer cifar
I0830 12:46:57.818989 16446 net.cpp:380] cifar -> data
I0830 12:46:57.819033 16446 net.cpp:380] cifar -> label
I0830 12:46:57.819066 16446 data_transformer.cpp:25] Loading mean file from: examples/cifar10/mean.binaryproto
I0830 12:46:57.819350 16446 data_layer.cpp:45] output data size: 100,3,32,32
I0830 12:46:57.822249 16446 base_data_layer.cpp:72] Initializing prefetch
I0830 12:46:57.822327 16446 base_data_layer.cpp:75] Prefetch initialized.
I0830 12:46:57.822335 16446 net.cpp:122] Setting up cifar
I0830 12:46:57.822360 16446 net.cpp:129] Top shape: 100 3 32 32 (307200)
I0830 12:46:57.822366 16446 net.cpp:129] Top shape: 100 (100)
I0830 12:46:57.822369 16446 net.cpp:137] Memory required for data: 1229200
I0830 12:46:57.822386 16446 layer_factory.hpp:77] Creating layer label_cifar_1_split
I0830 12:46:57.822424 16446 net.cpp:84] Creating Layer label_cifar_1_split
I0830 12:46:57.822455 16446 net.cpp:406] label_cifar_1_split <- label
I0830 12:46:57.822477 16446 net.cpp:380] label_cifar_1_split -> label_cifar_1_split_0
I0830 12:46:57.822518 16446 net.cpp:380] label_cifar_1_split -> label_cifar_1_split_1
I0830 12:46:57.822583 16446 net.cpp:122] Setting up label_cifar_1_split
I0830 12:46:57.822602 16446 net.cpp:129] Top shape: 100 (100)
I0830 12:46:57.822612 16446 net.cpp:129] Top shape: 100 (100)
I0830 12:46:57.822615 16446 net.cpp:137] Memory required for data: 1230000
I0830 12:46:57.822620 16446 layer_factory.hpp:77] Creating layer conv1
I0830 12:46:57.822652 16446 net.cpp:84] Creating Layer conv1
I0830 12:46:57.822660 16446 net.cpp:406] conv1 <- data
I0830 12:46:57.822679 16446 net.cpp:380] conv1 -> conv1
I0830 12:46:57.823505 16446 net.cpp:122] Setting up conv1
I0830 12:46:57.823531 16446 net.cpp:129] Top shape: 100 64 32 32 (6553600)
I0830 12:46:57.823537 16446 net.cpp:137] Memory required for data: 27444400
I0830 12:46:57.823561 16446 layer_factory.hpp:77] Creating layer bn1_bn
I0830 12:46:57.823577 16446 net.cpp:84] Creating Layer bn1_bn
I0830 12:46:57.823585 16446 net.cpp:406] bn1_bn <- conv1
I0830 12:46:57.823599 16446 net.cpp:380] bn1_bn -> conv1_bn
I0830 12:46:57.823846 16446 net.cpp:122] Setting up bn1_bn
I0830 12:46:57.823866 16446 net.cpp:129] Top shape: 100 64 32 32 (6553600)
I0830 12:46:57.823871 16446 net.cpp:137] Memory required for data: 53658800
I0830 12:46:57.823901 16446 layer_factory.hpp:77] Creating layer bn1_scal
I0830 12:46:57.823922 16446 net.cpp:84] Creating Layer bn1_scal
I0830 12:46:57.823930 16446 net.cpp:406] bn1_scal <- conv1_bn
I0830 12:46:57.823945 16446 net.cpp:380] bn1_scal -> conv1_sc
I0830 12:46:57.824013 16446 layer_factory.hpp:77] Creating layer bn1_scal
I0830 12:46:57.824175 16446 net.cpp:122] Setting up bn1_scal
I0830 12:46:57.824187 16446 net.cpp:129] Top shape: 100 64 32 32 (6553600)
I0830 12:46:57.824193 16446 net.cpp:137] Memory required for data: 79873200
I0830 12:46:57.824213 16446 layer_factory.hpp:77] Creating layer relu1
I0830 12:46:57.824228 16446 net.cpp:84] Creating Layer relu1
I0830 12:46:57.824235 16446 net.cpp:406] relu1 <- conv1_sc
I0830 12:46:57.824249 16446 net.cpp:367] relu1 -> conv1_sc (in-place)
I0830 12:46:57.824725 16446 net.cpp:122] Setting up relu1
I0830 12:46:57.824738 16446 net.cpp:129] Top shape: 100 64 32 32 (6553600)
I0830 12:46:57.824741 16446 net.cpp:137] Memory required for data: 106087600
I0830 12:46:57.824755 16446 layer_factory.hpp:77] Creating layer conv2
I0830 12:46:57.824775 16446 net.cpp:84] Creating Layer conv2
I0830 12:46:57.824784 16446 net.cpp:406] conv2 <- conv1_sc
I0830 12:46:57.824810 16446 net.cpp:380] conv2 -> conv2
I0830 12:46:57.829887 16446 net.cpp:122] Setting up conv2
I0830 12:46:57.829905 16446 net.cpp:129] Top shape: 100 64 32 32 (6553600)
I0830 12:46:57.829917 16446 net.cpp:137] Memory required for data: 132302000
I0830 12:46:57.829932 16446 layer_factory.hpp:77] Creating layer bn2_bn
I0830 12:46:57.829968 16446 net.cpp:84] Creating Layer bn2_bn
I0830 12:46:57.829977 16446 net.cpp:406] bn2_bn <- conv2
I0830 12:46:57.829993 16446 net.cpp:380] bn2_bn -> conv2_bn
I0830 12:46:57.830236 16446 net.cpp:122] Setting up bn2_bn
I0830 12:46:57.830248 16446 net.cpp:129] Top shape: 100 64 32 32 (6553600)
I0830 12:46:57.830252 16446 net.cpp:137] Memory required for data: 158516400
I0830 12:46:57.830281 16446 layer_factory.hpp:77] Creating layer bn2_scal
I0830 12:46:57.830302 16446 net.cpp:84] Creating Layer bn2_scal
I0830 12:46:57.830310 16446 net.cpp:406] bn2_scal <- conv2_bn
I0830 12:46:57.830325 16446 net.cpp:380] bn2_scal -> conv2_sc
I0830 12:46:57.830394 16446 layer_factory.hpp:77] Creating layer bn2_scal
I0830 12:46:57.830551 16446 net.cpp:122] Setting up bn2_scal
I0830 12:46:57.830564 16446 net.cpp:129] Top shape: 100 64 32 32 (6553600)
I0830 12:46:57.830569 16446 net.cpp:137] Memory required for data: 184730800
I0830 12:46:57.830581 16446 layer_factory.hpp:77] Creating layer relu2
I0830 12:46:57.830600 16446 net.cpp:84] Creating Layer relu2
I0830 12:46:57.830608 16446 net.cpp:406] relu2 <- conv2_sc
I0830 12:46:57.830623 16446 net.cpp:367] relu2 -> conv2_sc (in-place)
I0830 12:46:57.831416 16446 net.cpp:122] Setting up relu2
I0830 12:46:57.831427 16446 net.cpp:129] Top shape: 100 64 32 32 (6553600)
I0830 12:46:57.831432 16446 net.cpp:137] Memory required for data: 210945200
I0830 12:46:57.831439 16446 layer_factory.hpp:77] Creating layer pool1
I0830 12:46:57.831456 16446 net.cpp:84] Creating Layer pool1
I0830 12:46:57.831465 16446 net.cpp:406] pool1 <- conv2_sc
I0830 12:46:57.831481 16446 net.cpp:380] pool1 -> pool1
I0830 12:46:57.831542 16446 net.cpp:122] Setting up pool1
I0830 12:46:57.831555 16446 net.cpp:129] Top shape: 100 64 16 16 (1638400)
I0830 12:46:57.831559 16446 net.cpp:137] Memory required for data: 217498800
I0830 12:46:57.831565 16446 layer_factory.hpp:77] Creating layer drop1
I0830 12:46:57.831579 16446 net.cpp:84] Creating Layer drop1
I0830 12:46:57.831588 16446 net.cpp:406] drop1 <- pool1
I0830 12:46:57.831602 16446 net.cpp:367] drop1 -> pool1 (in-place)
I0830 12:46:57.831638 16446 net.cpp:122] Setting up drop1
I0830 12:46:57.831647 16446 net.cpp:129] Top shape: 100 64 16 16 (1638400)
I0830 12:46:57.831652 16446 net.cpp:137] Memory required for data: 224052400
I0830 12:46:57.831657 16446 layer_factory.hpp:77] Creating layer conv3
I0830 12:46:57.831677 16446 net.cpp:84] Creating Layer conv3
I0830 12:46:57.831686 16446 net.cpp:406] conv3 <- pool1
I0830 12:46:57.831703 16446 net.cpp:380] conv3 -> conv3
I0830 12:46:57.841847 16446 net.cpp:122] Setting up conv3
I0830 12:46:57.841881 16446 net.cpp:129] Top shape: 100 128 16 16 (3276800)
I0830 12:46:57.841886 16446 net.cpp:137] Memory required for data: 237159600
I0830 12:46:57.841915 16446 layer_factory.hpp:77] Creating layer bn3_bn
I0830 12:46:57.841939 16446 net.cpp:84] Creating Layer bn3_bn
I0830 12:46:57.841969 16446 net.cpp:406] bn3_bn <- conv3
I0830 12:46:57.841990 16446 net.cpp:380] bn3_bn -> conv3_bn
I0830 12:46:57.842229 16446 net.cpp:122] Setting up bn3_bn
I0830 12:46:57.842249 16446 net.cpp:129] Top shape: 100 128 16 16 (3276800)
I0830 12:46:57.842254 16446 net.cpp:137] Memory required for data: 250266800
I0830 12:46:57.842273 16446 layer_factory.hpp:77] Creating layer bn3_scal
I0830 12:46:57.842293 16446 net.cpp:84] Creating Layer bn3_scal
I0830 12:46:57.842300 16446 net.cpp:406] bn3_scal <- conv3_bn
I0830 12:46:57.842314 16446 net.cpp:380] bn3_scal -> conv3_sc
I0830 12:46:57.842386 16446 layer_factory.hpp:77] Creating layer bn3_scal
I0830 12:46:57.842536 16446 net.cpp:122] Setting up bn3_scal
I0830 12:46:57.842547 16446 net.cpp:129] Top shape: 100 128 16 16 (3276800)
I0830 12:46:57.842552 16446 net.cpp:137] Memory required for data: 263374000
I0830 12:46:57.842577 16446 layer_factory.hpp:77] Creating layer relu3
I0830 12:46:57.842597 16446 net.cpp:84] Creating Layer relu3
I0830 12:46:57.842605 16446 net.cpp:406] relu3 <- conv3_sc
I0830 12:46:57.842619 16446 net.cpp:367] relu3 -> conv3_sc (in-place)
I0830 12:46:57.842988 16446 net.cpp:122] Setting up relu3
I0830 12:46:57.842998 16446 net.cpp:129] Top shape: 100 128 16 16 (3276800)
I0830 12:46:57.843003 16446 net.cpp:137] Memory required for data: 276481200
I0830 12:46:57.843009 16446 layer_factory.hpp:77] Creating layer conv4
I0830 12:46:57.843039 16446 net.cpp:84] Creating Layer conv4
I0830 12:46:57.843047 16446 net.cpp:406] conv4 <- conv3_sc
I0830 12:46:57.843066 16446 net.cpp:380] conv4 -> conv4
I0830 12:46:57.861937 16446 net.cpp:122] Setting up conv4
I0830 12:46:57.861950 16446 net.cpp:129] Top shape: 100 128 16 16 (3276800)
I0830 12:46:57.861963 16446 net.cpp:137] Memory required for data: 289588400
I0830 12:46:57.861975 16446 layer_factory.hpp:77] Creating layer bn4_bn
I0830 12:46:57.861990 16446 net.cpp:84] Creating Layer bn4_bn
I0830 12:46:57.861999 16446 net.cpp:406] bn4_bn <- conv4
I0830 12:46:57.862015 16446 net.cpp:380] bn4_bn -> conv4_bn
I0830 12:46:57.862258 16446 net.cpp:122] Setting up bn4_bn
I0830 12:46:57.862269 16446 net.cpp:129] Top shape: 100 128 16 16 (3276800)
I0830 12:46:57.862284 16446 net.cpp:137] Memory required for data: 302695600
I0830 12:46:57.862303 16446 layer_factory.hpp:77] Creating layer bn4_scal
I0830 12:46:57.862331 16446 net.cpp:84] Creating Layer bn4_scal
I0830 12:46:57.862352 16446 net.cpp:406] bn4_scal <- conv4_bn
I0830 12:46:57.862378 16446 net.cpp:380] bn4_scal -> conv4_sc
I0830 12:46:57.862458 16446 layer_factory.hpp:77] Creating layer bn4_scal
I0830 12:46:57.862607 16446 net.cpp:122] Setting up bn4_scal
I0830 12:46:57.862620 16446 net.cpp:129] Top shape: 100 128 16 16 (3276800)
I0830 12:46:57.862624 16446 net.cpp:137] Memory required for data: 315802800
I0830 12:46:57.862637 16446 layer_factory.hpp:77] Creating layer relu4
I0830 12:46:57.862649 16446 net.cpp:84] Creating Layer relu4
I0830 12:46:57.862658 16446 net.cpp:406] relu4 <- conv4_sc
I0830 12:46:57.862670 16446 net.cpp:367] relu4 -> conv4_sc (in-place)
I0830 12:46:57.863214 16446 net.cpp:122] Setting up relu4
I0830 12:46:57.863225 16446 net.cpp:129] Top shape: 100 128 16 16 (3276800)
I0830 12:46:57.863230 16446 net.cpp:137] Memory required for data: 328910000
I0830 12:46:57.863236 16446 layer_factory.hpp:77] Creating layer pool2
I0830 12:46:57.863255 16446 net.cpp:84] Creating Layer pool2
I0830 12:46:57.863263 16446 net.cpp:406] pool2 <- conv4_sc
I0830 12:46:57.863281 16446 net.cpp:380] pool2 -> pool2
I0830 12:46:57.863342 16446 net.cpp:122] Setting up pool2
I0830 12:46:57.863353 16446 net.cpp:129] Top shape: 100 128 8 8 (819200)
I0830 12:46:57.863358 16446 net.cpp:137] Memory required for data: 332186800
I0830 12:46:57.863364 16446 layer_factory.hpp:77] Creating layer drop2
I0830 12:46:57.863379 16446 net.cpp:84] Creating Layer drop2
I0830 12:46:57.863387 16446 net.cpp:406] drop2 <- pool2
I0830 12:46:57.863401 16446 net.cpp:367] drop2 -> pool2 (in-place)
I0830 12:46:57.863437 16446 net.cpp:122] Setting up drop2
I0830 12:46:57.863446 16446 net.cpp:129] Top shape: 100 128 8 8 (819200)
I0830 12:46:57.863451 16446 net.cpp:137] Memory required for data: 335463600
I0830 12:46:57.863456 16446 layer_factory.hpp:77] Creating layer conv5
I0830 12:46:57.863474 16446 net.cpp:84] Creating Layer conv5
I0830 12:46:57.863483 16446 net.cpp:406] conv5 <- pool2
I0830 12:46:57.863502 16446 net.cpp:380] conv5 -> conv5
I0830 12:46:57.901252 16446 net.cpp:122] Setting up conv5
I0830 12:46:57.901284 16446 net.cpp:129] Top shape: 100 256 8 8 (1638400)
I0830 12:46:57.901288 16446 net.cpp:137] Memory required for data: 342017200
I0830 12:46:57.901319 16446 layer_factory.hpp:77] Creating layer bn5_bn
I0830 12:46:57.901356 16446 net.cpp:84] Creating Layer bn5_bn
I0830 12:46:57.901379 16446 net.cpp:406] bn5_bn <- conv5
I0830 12:46:57.901419 16446 net.cpp:380] bn5_bn -> conv5_bn
I0830 12:46:57.901682 16446 net.cpp:122] Setting up bn5_bn
I0830 12:46:57.901693 16446 net.cpp:129] Top shape: 100 256 8 8 (1638400)
I0830 12:46:57.901696 16446 net.cpp:137] Memory required for data: 348570800
I0830 12:46:57.901724 16446 layer_factory.hpp:77] Creating layer bn5_scal
I0830 12:46:57.901760 16446 net.cpp:84] Creating Layer bn5_scal
I0830 12:46:57.901769 16446 net.cpp:406] bn5_scal <- conv5_bn
I0830 12:46:57.901783 16446 net.cpp:380] bn5_scal -> conv5_sc
I0830 12:46:57.901863 16446 layer_factory.hpp:77] Creating layer bn5_scal
I0830 12:46:57.902034 16446 net.cpp:122] Setting up bn5_scal
I0830 12:46:57.902045 16446 net.cpp:129] Top shape: 100 256 8 8 (1638400)
I0830 12:46:57.902058 16446 net.cpp:137] Memory required for data: 355124400
I0830 12:46:57.902081 16446 layer_factory.hpp:77] Creating layer relu5
I0830 12:46:57.902094 16446 net.cpp:84] Creating Layer relu5
I0830 12:46:57.902102 16446 net.cpp:406] relu5 <- conv5_sc
I0830 12:46:57.902117 16446 net.cpp:367] relu5 -> conv5_sc (in-place)
I0830 12:46:57.902506 16446 net.cpp:122] Setting up relu5
I0830 12:46:57.902525 16446 net.cpp:129] Top shape: 100 256 8 8 (1638400)
I0830 12:46:57.902529 16446 net.cpp:137] Memory required for data: 361678000
I0830 12:46:57.902535 16446 layer_factory.hpp:77] Creating layer conv6
I0830 12:46:57.902568 16446 net.cpp:84] Creating Layer conv6
I0830 12:46:57.902576 16446 net.cpp:406] conv6 <- conv5_sc
I0830 12:46:57.902617 16446 net.cpp:380] conv6 -> conv6
I0830 12:46:57.976662 16446 net.cpp:122] Setting up conv6
I0830 12:46:57.976716 16446 net.cpp:129] Top shape: 100 256 8 8 (1638400)
I0830 12:46:57.976753 16446 net.cpp:137] Memory required for data: 368231600
I0830 12:46:57.976795 16446 layer_factory.hpp:77] Creating layer bn6_bn
I0830 12:46:57.976838 16446 net.cpp:84] Creating Layer bn6_bn
I0830 12:46:57.976852 16446 net.cpp:406] bn6_bn <- conv6
I0830 12:46:57.976877 16446 net.cpp:380] bn6_bn -> conv6_bn
I0830 12:46:57.977139 16446 net.cpp:122] Setting up bn6_bn
I0830 12:46:57.977151 16446 net.cpp:129] Top shape: 100 256 8 8 (1638400)
I0830 12:46:57.977155 16446 net.cpp:137] Memory required for data: 374785200
I0830 12:46:57.977190 16446 layer_factory.hpp:77] Creating layer bn6_scal
I0830 12:46:57.977221 16446 net.cpp:84] Creating Layer bn6_scal
I0830 12:46:57.977246 16446 net.cpp:406] bn6_scal <- conv6_bn
I0830 12:46:57.977262 16446 net.cpp:380] bn6_scal -> conv6_sc
I0830 12:46:57.977350 16446 layer_factory.hpp:77] Creating layer bn6_scal
I0830 12:46:57.977550 16446 net.cpp:122] Setting up bn6_scal
I0830 12:46:57.977571 16446 net.cpp:129] Top shape: 100 256 8 8 (1638400)
I0830 12:46:57.977574 16446 net.cpp:137] Memory required for data: 381338800
I0830 12:46:57.977588 16446 layer_factory.hpp:77] Creating layer relu6
I0830 12:46:57.977602 16446 net.cpp:84] Creating Layer relu6
I0830 12:46:57.977609 16446 net.cpp:406] relu6 <- conv6_sc
I0830 12:46:57.977622 16446 net.cpp:367] relu6 -> conv6_sc (in-place)
I0830 12:46:57.978211 16446 net.cpp:122] Setting up relu6
I0830 12:46:57.978231 16446 net.cpp:129] Top shape: 100 256 8 8 (1638400)
I0830 12:46:57.978235 16446 net.cpp:137] Memory required for data: 387892400
I0830 12:46:57.978241 16446 layer_factory.hpp:77] Creating layer pool3
I0830 12:46:57.978261 16446 net.cpp:84] Creating Layer pool3
I0830 12:46:57.978271 16446 net.cpp:406] pool3 <- conv6_sc
I0830 12:46:57.978286 16446 net.cpp:380] pool3 -> pool3
I0830 12:46:57.978350 16446 net.cpp:122] Setting up pool3
I0830 12:46:57.978361 16446 net.cpp:129] Top shape: 100 256 4 4 (409600)
I0830 12:46:57.978366 16446 net.cpp:137] Memory required for data: 389530800
I0830 12:46:57.978371 16446 layer_factory.hpp:77] Creating layer drop3
I0830 12:46:57.978386 16446 net.cpp:84] Creating Layer drop3
I0830 12:46:57.978394 16446 net.cpp:406] drop3 <- pool3
I0830 12:46:57.978408 16446 net.cpp:367] drop3 -> pool3 (in-place)
I0830 12:46:57.978456 16446 net.cpp:122] Setting up drop3
I0830 12:46:57.978464 16446 net.cpp:129] Top shape: 100 256 4 4 (409600)
I0830 12:46:57.978477 16446 net.cpp:137] Memory required for data: 391169200
I0830 12:46:57.978484 16446 layer_factory.hpp:77] Creating layer fc7
I0830 12:46:57.978523 16446 net.cpp:84] Creating Layer fc7
I0830 12:46:57.978531 16446 net.cpp:406] fc7 <- pool3
I0830 12:46:57.978559 16446 net.cpp:380] fc7 -> fc7
I0830 12:46:58.239318 16446 net.cpp:122] Setting up fc7
I0830 12:46:58.239356 16446 net.cpp:129] Top shape: 100 512 (51200)
I0830 12:46:58.239361 16446 net.cpp:137] Memory required for data: 391374000
I0830 12:46:58.239398 16446 layer_factory.hpp:77] Creating layer bn7_bn
I0830 12:46:58.239441 16446 net.cpp:84] Creating Layer bn7_bn
I0830 12:46:58.239464 16446 net.cpp:406] bn7_bn <- fc7
I0830 12:46:58.239500 16446 net.cpp:380] bn7_bn -> fc7_bn
I0830 12:46:58.239787 16446 net.cpp:122] Setting up bn7_bn
I0830 12:46:58.239799 16446 net.cpp:129] Top shape: 100 512 (51200)
I0830 12:46:58.239802 16446 net.cpp:137] Memory required for data: 391578800
I0830 12:46:58.239821 16446 layer_factory.hpp:77] Creating layer bn7_scal
I0830 12:46:58.239840 16446 net.cpp:84] Creating Layer bn7_scal
I0830 12:46:58.239847 16446 net.cpp:406] bn7_scal <- fc7_bn
I0830 12:46:58.239871 16446 net.cpp:380] bn7_scal -> fc7_sc
I0830 12:46:58.239971 16446 layer_factory.hpp:77] Creating layer bn7_scal
I0830 12:46:58.240129 16446 net.cpp:122] Setting up bn7_scal
I0830 12:46:58.240140 16446 net.cpp:129] Top shape: 100 512 (51200)
I0830 12:46:58.240144 16446 net.cpp:137] Memory required for data: 391783600
I0830 12:46:58.240157 16446 layer_factory.hpp:77] Creating layer relu7
I0830 12:46:58.240170 16446 net.cpp:84] Creating Layer relu7
I0830 12:46:58.240176 16446 net.cpp:406] relu7 <- fc7_sc
I0830 12:46:58.240203 16446 net.cpp:367] relu7 -> fc7_sc (in-place)
I0830 12:46:58.240810 16446 net.cpp:122] Setting up relu7
I0830 12:46:58.240821 16446 net.cpp:129] Top shape: 100 512 (51200)
I0830 12:46:58.240825 16446 net.cpp:137] Memory required for data: 391988400
I0830 12:46:58.240833 16446 layer_factory.hpp:77] Creating layer drop7
I0830 12:46:58.240849 16446 net.cpp:84] Creating Layer drop7
I0830 12:46:58.240875 16446 net.cpp:406] drop7 <- fc7_sc
I0830 12:46:58.240890 16446 net.cpp:367] drop7 -> fc7_sc (in-place)
I0830 12:46:58.240945 16446 net.cpp:122] Setting up drop7
I0830 12:46:58.240954 16446 net.cpp:129] Top shape: 100 512 (51200)
I0830 12:46:58.240967 16446 net.cpp:137] Memory required for data: 392193200
I0830 12:46:58.240973 16446 layer_factory.hpp:77] Creating layer fc8
I0830 12:46:58.240995 16446 net.cpp:84] Creating Layer fc8
I0830 12:46:58.241003 16446 net.cpp:406] fc8 <- fc7_sc
I0830 12:46:58.241020 16446 net.cpp:380] fc8 -> fc8
I0830 12:46:58.274814 16446 net.cpp:122] Setting up fc8
I0830 12:46:58.274849 16446 net.cpp:129] Top shape: 100 512 (51200)
I0830 12:46:58.274853 16446 net.cpp:137] Memory required for data: 392398000
I0830 12:46:58.274878 16446 layer_factory.hpp:77] Creating layer bn8_bn
I0830 12:46:58.274907 16446 net.cpp:84] Creating Layer bn8_bn
I0830 12:46:58.274921 16446 net.cpp:406] bn8_bn <- fc8
I0830 12:46:58.274955 16446 net.cpp:380] bn8_bn -> fc8_bn
I0830 12:46:58.275215 16446 net.cpp:122] Setting up bn8_bn
I0830 12:46:58.275225 16446 net.cpp:129] Top shape: 100 512 (51200)
I0830 12:46:58.275229 16446 net.cpp:137] Memory required for data: 392602800
I0830 12:46:58.275249 16446 layer_factory.hpp:77] Creating layer bn8_scal
I0830 12:46:58.275274 16446 net.cpp:84] Creating Layer bn8_scal
I0830 12:46:58.275300 16446 net.cpp:406] bn8_scal <- fc8_bn
I0830 12:46:58.275315 16446 net.cpp:380] bn8_scal -> fc8_sc
I0830 12:46:58.275393 16446 layer_factory.hpp:77] Creating layer bn8_scal
I0830 12:46:58.275568 16446 net.cpp:122] Setting up bn8_scal
I0830 12:46:58.275578 16446 net.cpp:129] Top shape: 100 512 (51200)
I0830 12:46:58.275583 16446 net.cpp:137] Memory required for data: 392807600
I0830 12:46:58.275595 16446 layer_factory.hpp:77] Creating layer relu8
I0830 12:46:58.275616 16446 net.cpp:84] Creating Layer relu8
I0830 12:46:58.275625 16446 net.cpp:406] relu8 <- fc8_sc
I0830 12:46:58.275638 16446 net.cpp:367] relu8 -> fc8_sc (in-place)
I0830 12:46:58.276032 16446 net.cpp:122] Setting up relu8
I0830 12:46:58.276042 16446 net.cpp:129] Top shape: 100 512 (51200)
I0830 12:46:58.276047 16446 net.cpp:137] Memory required for data: 393012400
I0830 12:46:58.276053 16446 layer_factory.hpp:77] Creating layer drop8
I0830 12:46:58.276069 16446 net.cpp:84] Creating Layer drop8
I0830 12:46:58.276077 16446 net.cpp:406] drop8 <- fc8_sc
I0830 12:46:58.276091 16446 net.cpp:367] drop8 -> fc8_sc (in-place)
I0830 12:46:58.276130 16446 net.cpp:122] Setting up drop8
I0830 12:46:58.276139 16446 net.cpp:129] Top shape: 100 512 (51200)
I0830 12:46:58.276142 16446 net.cpp:137] Memory required for data: 393217200
I0830 12:46:58.276147 16446 layer_factory.hpp:77] Creating layer fc9
I0830 12:46:58.276170 16446 net.cpp:84] Creating Layer fc9
I0830 12:46:58.276178 16446 net.cpp:406] fc9 <- fc8_sc
I0830 12:46:58.276206 16446 net.cpp:380] fc9 -> fc9
I0830 12:46:58.277113 16446 net.cpp:122] Setting up fc9
I0830 12:46:58.277125 16446 net.cpp:129] Top shape: 100 10 (1000)
I0830 12:46:58.277137 16446 net.cpp:137] Memory required for data: 393221200
I0830 12:46:58.277151 16446 layer_factory.hpp:77] Creating layer fc9_fc9_0_split
I0830 12:46:58.277165 16446 net.cpp:84] Creating Layer fc9_fc9_0_split
I0830 12:46:58.277173 16446 net.cpp:406] fc9_fc9_0_split <- fc9
I0830 12:46:58.277189 16446 net.cpp:380] fc9_fc9_0_split -> fc9_fc9_0_split_0
I0830 12:46:58.277216 16446 net.cpp:380] fc9_fc9_0_split -> fc9_fc9_0_split_1
I0830 12:46:58.277273 16446 net.cpp:122] Setting up fc9_fc9_0_split
I0830 12:46:58.277285 16446 net.cpp:129] Top shape: 100 10 (1000)
I0830 12:46:58.277290 16446 net.cpp:129] Top shape: 100 10 (1000)
I0830 12:46:58.277307 16446 net.cpp:137] Memory required for data: 393229200
I0830 12:46:58.277314 16446 layer_factory.hpp:77] Creating layer accuracy
I0830 12:46:58.277335 16446 net.cpp:84] Creating Layer accuracy
I0830 12:46:58.277344 16446 net.cpp:406] accuracy <- fc9_fc9_0_split_0
I0830 12:46:58.277357 16446 net.cpp:406] accuracy <- label_cifar_1_split_0
I0830 12:46:58.277371 16446 net.cpp:380] accuracy -> accuracy
…
