…
I0901 19:56:11.608861 14920 net.cpp:294] The NetState phase (0) differed from the phase (1) specified by a rule in layer accuracy
I0901 19:56:11.609076 14920 net.cpp:51] Initializing net from parameters: 
name: "CIFAR10_vgg"
state {
  phase: TRAIN
  level: 0
  stage: ""
}
layer {
  name: "cifar"
  type: "Data"
  top: "data"
  top: "label"
  include {
    phase: TRAIN
  }
  transform_param {
    mirror: true
    crop_size: 32
    mean_file: "examples/cifar10/mean.binaryproto"
  }
  data_param {
    source: "examples/cifar10/cifar10_train_lmdb"
    batch_size: 100
    backend: LMDB
  }
}
layer {
  name: "conv1"
  type: "BinaryConvolution"
  bottom: "data"
  top: "conv1"
  param {
    lr_mult: 1
    decay_mult: 1
  }
  convolution_param {
    num_output: 64
    bias_term: false
    pad: 1
    kernel_size: 3
    stride: 1
    weight_filler {
      type: "gaussian"
      std: 0.01
    }
  }
  debug_param {
    xnorno_grad: false
    binary_relax: true
  }
}
layer {
  name: "bn1_bn"
  type: "BatchNorm"
  bottom: "conv1"
  top: "conv1_bn"
}
layer {
  name: "bn1_scal"
  type: "Scale"
  bottom: "conv1_bn"
  top: "conv1_sc"
  scale_param {
    bias_term: true
  }
}
layer {
  name: "relu1"
  type: "ReLU"
  bottom: "conv1_sc"
  top: "conv1_sc"
}
layer {
  name: "conv2"
  type: "BinaryConvolution"
  bottom: "conv1_sc"
  top: "conv2"
  param {
    lr_mult: 1
    decay_mult: 1
  }
  convolution_param {
    num_output: 64
    bias_term: false
    pad: 1
    kernel_size: 3
    stride: 1
    weight_filler {
      type: "gaussian"
      std: 0.01
    }
  }
  debug_param {
    xnorno_grad: false
    binary_relax: true
  }
}
layer {
  name: "bn2_bn"
  type: "BatchNorm"
  bottom: "conv2"
  top: "conv2_bn"
}
layer {
  name: "bn2_scal"
  type: "Scale"
  bottom: "conv2_bn"
  top: "conv2_sc"
  scale_param {
    bias_term: true
  }
}
layer {
  name: "relu2"
  type: "ReLU"
  bottom: "conv2_sc"
  top: "conv2_sc"
}
layer {
  name: "pool1"
  type: "Pooling"
  bottom: "conv2_sc"
  top: "pool1"
  pooling_param {
    pool: MAX
    kernel_size: 2
    stride: 2
  }
}
layer {
  name: "drop1"
  type: "Dropout"
  bottom: "pool1"
  top: "pool1"
  dropout_param {
    dropout_ratio: 0.25
  }
}
layer {
  name: "conv3"
  type: "BinaryConvolution"0.005
  bottom: "pool1"
  top: "conv3"
  param {
    lr_mult: 1
    decay_mult: 1
  }
  convolution_param {
    num_output: 128
    bias_term: false
    pad: 1
    kernel_size: 3
    stride: 1
    weight_filler {
      type: "gaussian"
      std: 0.01
    }
  }
  debug_param {
    xnorno_grad: false
    binary_relax: true
  }
}
layer {
  name: "bn3_bn"
  type: "BatchNorm"
  bottom: "conv3"
  top: "conv3_bn"
}
layer {
  name: "bn3_scal"
  type: "Scale"
  bottom: "conv3_bn"
  top: "conv3_sc"
  scale_param {
    bias_term: true
  }
}
layer {
  name: "relu3"
  type: "ReLU"
  bottom: "conv3_sc"
  top: "conv3_sc"
}
layer {
  name: "conv4"
  type: "BinaryConvolution"
  bottom: "conv3_sc"
  top: "conv4"
  param {
    lr_mult: 1
    decay_mult: 1
  }
  convolution_param {
    num_output: 128
    bias_term: false
    pad: 1
    kernel_size: 3
    stride: 1
    weight_filler {
      type: "gaussian"
      std: 0.01
    }
  }
  debug_param {
    xnorno_grad: false
    binary_relax: true
  }
}
layer {
  name: "bn4_bn"
  type: "BatchNorm"
  bottom: "conv4"
  top: "conv4_bn"
}
layer {
  name: "bn4_scal"
  type: "Scale"
  bottom: "conv4_bn"
  top: "conv4_sc"
  scale_param {
    bias_term: true
  }
}
layer {
  name: "relu4"
  type: "ReLU"
  bottom: "conv4_sc"
  top: "conv4_sc"
}
layer {
  name: "pool2"
  type: "Pooling"
  bottom: "conv4_sc"
  top: "pool2"
  pooling_param {
    pool: MAX
    kernel_size: 2
    stride: 2
  }
}
layer {
  name: "drop2"
  type: "Dropout"
  bottom: "pool2"
  top: "pool2"
  dropout_param {
    dropout_ratio: 0.25
  }
}
layer {
  name: "conv5"
  type: "BinaryConvolution"
  bottom: "pool2"
  top: "conv5"
  param {
    lr_mult: 1
    decay_mult: 1
  }
  convolution_param {
    num_output: 256
    bias_term: false
    pad: 1
    kernel_size: 3
    stride: 1
    weight_filler {
      type: "gaussian"
      std: 0.01
    }
  }
  debug_param {
    xnorno_grad: false
    binary_relax: true
  }
}
layer {
  name: "bn5_bn"
  type: "BatchNorm"
  bottom: "conv5"
  top: "conv5_bn"
}
layer {
  name: "bn5_scal"
  type: "Scale"
  bottom: "conv5_bn"
  top: "conv5_sc"
  scale_param {
    bias_term: true
  }
}
layer {
  name: "relu5"
  type: "ReLU"
  bottom: "conv5_sc"
  top: "conv5_sc"
}
layer {
  name: "conv6"
  type: "BinaryConvolution"
  bottom: "conv5_sc"
  top: "conv6"
  param {
    lr_mult: 1
    decay_mult: 1
  }
  convolution_param {
    num_output: 256
    bias_term: false
    pad: 1
    kernel_size: 3
    stride: 1
    weight_filler {
      type: "gaussian"
      std: 0.01
    }
  }
  debug_param {
    xnorno_grad: false
    binary_relax: true
  }
}
layer {
  name: "bn6_bn"
  type: "BatchNorm"
  bottom: "conv6"
  top: "conv6_bn"
}
layer {
  name: "bn6_scal"
  type: "Scale"
  bottom: "conv6_bn"
  top: "conv6_sc"
  scale_param {
    bias_term: true
  }
}
layer {
  name: "relu6"
  type: "ReLU"
  bottom: "conv6_sc"
  top: "conv6_sc"
}
layer {
  name: "pool3"
  type: "Pooling"
  bottom: "conv6_sc"
  top: "pool3"
  pooling_param {
    pool: MAX
    kernel_size: 2
    stride: 2
  }
}
layer {
  name: "drop3"
  type: "Dropout"
  bottom: "pool3"
  top: "pool3"
  dropout_param {
    dropout_ratio: 0.25
  }
}
layer {
  name: "fc7"
  type: "BinaryInnerProduct"
  bottom: "pool3"
  top: "fc7"
  param {
    lr_mult: 1
    decay_mult: 1
  }
  inner_product_param {
    num_output: 512
    bias_term: false
    weight_filler {
      type: "gaussian"
      std: 0.01
    }
  }
  debug_param {
    xnorno_grad: false
    binary_relax: true
  }
}
layer {
  name: "bn7_bn"
  type: "BatchNorm"
  bottom: "fc7"
  top: "fc7_bn"
}
layer {
  name: "bn7_scal"
  type: "Scale"
  bottom: "fc7_bn"
  top: "fc7_sc"
  scale_param {
    bias_term: true
  }
}
layer {
  name: "relu7"
  type: "ReLU"
  bottom: "fc7_sc"
  top: "fc7_sc"
}
layer {
  name: "drop7"
  type: "Dropout"
  bottom: "fc7_sc"
  top: "fc7_sc"
  dropout_param {
    dropout_ratio: 0.5
  }
}
layer {
  name: "fc8"
  type: "BinaryInnerProduct"
  bottom: "fc7_sc"
  top: "fc8"
  param {
    lr_mult: 1
    decay_mult: 1
  }
  inner_product_param {
    num_output: 512
    bias_term: false
    weight_filler {
      type: "gaussian"
      std: 0.01
    }
  }
  debug_param {
    xnorno_grad: false
    binary_relax: true
  }
}
layer {
  name: "bn8_bn"
  type: "BatchNorm"
  bottom: "fc8"
  top: "fc8_bn"
}
layer {
  name: "bn8_scal"
  type: "Scale"
  bottom: "fc8_bn"
  top: "fc8_sc"
  scale_param {
    bias_term: true
  }
}
layer {
  name: "relu8"
  type: "ReLU"
  bottom: "fc8_sc"
  top: "fc8_sc"
}
layer {
  name: "drop8"
  type: "Dropout"
  bottom: "fc8_sc"
  top: "fc8_sc"
  dropout_param {
    dropout_ratio: 0.5
  }
}
layer {
  name: "fc9"
  type: "BinaryInnerProduct"
  bottom: "fc8_sc"
  top: "fc9"
  param {
    lr_mult: 1
    decay_mult: 1
  }
  param {
    lr_mult: 2
    decay_mult: 0
  }
  inner_product_param {
    num_output: 10
    weight_filler {
      type: "gaussian"
      std: 0.01
    }
    bias_filler {
      type: "constant"
      value: 0.01
    }
  }
  debug_param {
    xnorno_grad: false
    binary_relax: true
  }
}
layer {
  name: "loss"
  type: "SoftmaxWithLoss"
  bottom: "fc9"
  bottom: "label"
  top: "loss"
}
I0901 19:56:11.609722 14920 layer_factory.hpp:77] Creating layer cifar
I0901 19:56:11.609895 14920 db_lmdb.cpp:35] Opened lmdb examples/cifar10/cifar10_train_lmdb
I0901 19:56:11.609944 14920 net.cpp:84] Creating Layer cifar
I0901 19:56:11.609968 14920 net.cpp:380] cifar -> data
I0901 19:56:11.610087 14920 net.cpp:380] cifar -> label
I0901 19:56:11.610123 14920 data_transformer.cpp:25] Loading mean file from: examples/cifar10/mean.binaryproto
I0901 19:56:11.611265 14920 data_layer.cpp:45] output data size: 100,3,32,32
I0901 19:56:11.613895 14920 base_data_layer.cpp:72] Initializing prefetch
I0901 19:56:11.614116 14920 base_data_layer.cpp:75] Prefetch initialized.
I0901 19:56:11.614127 14920 net.cpp:122] Setting up cifar
I0901 19:56:11.614168 14920 net.cpp:129] Top shape: 100 3 32 32 (307200)
I0901 19:56:11.614187 14920 net.cpp:129] Top shape: 100 (100)
I0901 19:56:11.614199 14920 net.cpp:137] Memory required for data: 1229200
I0901 19:56:11.614225 14920 layer_factory.hpp:77] Creating layer conv1
I0901 19:56:11.614311 14920 net.cpp:84] Creating Layer conv1
I0901 19:56:11.614341 14920 net.cpp:406] conv1 <- data
I0901 19:56:11.614401 14920 net.cpp:380] conv1 -> conv1
I0901 19:56:11.614996 14920 net.cpp:122] Setting up conv1
I0901 19:56:11.615010 14920 net.cpp:129] Top shape: 100 64 32 32 (6553600)
I0901 19:56:11.615023 14920 net.cpp:137] Memory required for data: 27443600
I0901 19:56:11.615077 14920 layer_factory.hpp:77] Creating layer bn1_bn
I0901 19:56:11.615106 14920 net.cpp:84] Creating Layer bn1_bn
I0901 19:56:11.615115 14920 net.cpp:406] bn1_bn <- conv1
I0901 19:56:11.615133 14920 net.cpp:380] bn1_bn -> conv1_bn
I0901 19:56:11.615903 14920 net.cpp:122] Setting up bn1_bn
I0901 19:56:11.615923 14920 net.cpp:129] Top shape: 100 64 32 32 (6553600)
I0901 19:56:11.615931 14920 net.cpp:137] Memory required for data: 53658000
I0901 19:56:11.615967 14920 layer_factory.hpp:77] Creating layer bn1_scal
I0901 19:56:11.615993 14920 net.cpp:84] Creating Layer bn1_scal
I0901 19:56:11.616003 14920 net.cpp:406] bn1_scal <- conv1_bn
I0901 19:56:11.616024 14920 net.cpp:380] bn1_scal -> conv1_sc
I0901 19:56:11.616096 14920 layer_factory.hpp:77] Creating layer bn1_scal
I0901 19:56:11.616242 14920 net.cpp:122] Setting up bn1_scal
I0901 19:56:11.616255 14920 net.cpp:129] Top shape: 100 64 32 32 (6553600)
I0901 19:56:11.616261 14920 net.cpp:137] Memory required for data: 79872400
I0901 19:56:11.616281 14920 layer_factory.hpp:77] Creating layer relu1
I0901 19:56:11.616303 14920 net.cpp:84] Creating Layer relu1
I0901 19:56:11.616312 14920 net.cpp:406] relu1 <- conv1_sc
I0901 19:56:11.616327 14920 net.cpp:367] relu1 -> conv1_sc (in-place)
I0901 19:56:12.016950 14920 net.cpp:122] Setting up relu1
I0901 19:56:12.016985 14920 net.cpp:129] Top shape: 100 64 32 32 (6553600)
I0901 19:56:12.016991 14920 net.cpp:137] Memory required for data: 106086800
I0901 19:56:12.017009 14920 layer_factory.hpp:77] Creating layer conv2
I0901 19:56:12.017083 14920 net.cpp:84] Creating Layer conv2
I0901 19:56:12.017110 14920 net.cpp:406] conv2 <- conv1_sc
I0901 19:56:12.017159 14920 net.cpp:380] conv2 -> conv2
I0901 19:56:12.022408 14920 net.cpp:122] Setting up conv2
I0901 19:56:12.022425 14920 net.cpp:129] Top shape: 100 64 32 32 (6553600)
I0901 19:56:12.022429 14920 net.cpp:137] Memory required for data: 132301200
I0901 19:56:12.022444 14920 layer_factory.hpp:77] Creating layer bn2_bn
I0901 19:56:12.022470 14920 net.cpp:84] Creating Layer bn2_bn
I0901 19:56:12.022480 14920 net.cpp:406] bn2_bn <- conv2
I0901 19:56:12.022506 14920 net.cpp:380] bn2_bn -> conv2_bn
I0901 19:56:12.022765 14920 net.cpp:122] Setting up bn2_bn
I0901 19:56:12.022778 14920 net.cpp:129] Top shape: 100 64 32 32 (6553600)
I0901 19:56:12.022783 14920 net.cpp:137] Memory required for data: 158515600
I0901 19:56:12.022835 14920 layer_factory.hpp:77] Creating layer bn2_scal
I0901 19:56:12.022886 14920 net.cpp:84] Creating Layer bn2_scal
I0901 19:56:12.022934 14920 net.cpp:406] bn2_scal <- conv2_bn
I0901 19:56:12.022960 14920 net.cpp:380] bn2_scal -> conv2_sc
I0901 19:56:12.023049 14920 layer_factory.hpp:77] Creating layer bn2_scal
I0901 19:56:12.023233 14920 net.cpp:122] Setting up bn2_scal
I0901 19:56:12.023245 14920 net.cpp:129] Top shape: 100 64 32 32 (6553600)
I0901 19:56:12.023259 14920 net.cpp:137] Memory required for data: 184730000
I0901 19:56:12.023283 14920 layer_factory.hpp:77] Creating layer relu2
I0901 19:56:12.023329 14920 net.cpp:84] Creating Layer relu2
I0901 19:56:12.023336 14920 net.cpp:406] relu2 <- conv2_sc
I0901 19:56:12.023350 14920 net.cpp:367] relu2 -> conv2_sc (in-place)
I0901 19:56:12.023671 14920 net.cpp:122] Setting up relu2
I0901 19:56:12.023690 14920 net.cpp:129] Top shape: 100 64 32 32 (6553600)
I0901 19:56:12.023694 14920 net.cpp:137] Memory required for data: 210944400
I0901 19:56:12.023700 14920 layer_factory.hpp:77] Creating layer pool1
I0901 19:56:12.023723 14920 net.cpp:84] Creating Layer pool1
I0901 19:56:12.023749 14920 net.cpp:406] pool1 <- conv2_sc
I0901 19:56:12.023764 14920 net.cpp:380] pool1 -> pool1
I0901 19:56:12.023833 14920 net.cpp:122] Setting up pool1
I0901 19:56:12.023845 14920 net.cpp:129] Top shape: 100 64 16 16 (1638400)
I0901 19:56:12.023850 14920 net.cpp:137] Memory required for data: 217498000
I0901 19:56:12.023856 14920 layer_factory.hpp:77] Creating layer drop1
I0901 19:56:12.023874 14920 net.cpp:84] Creating Layer drop1
I0901 19:56:12.023900 14920 net.cpp:406] drop1 <- pool1
I0901 19:56:12.023914 14920 net.cpp:367] drop1 -> pool1 (in-place)
I0901 19:56:12.023950 14920 net.cpp:122] Setting up drop1
I0901 19:56:12.023958 14920 net.cpp:129] Top shape: 100 64 16 16 (1638400)
I0901 19:56:12.023963 14920 net.cpp:137] Memory required for data: 224051600
I0901 19:56:12.023969 14920 layer_factory.hpp:77] Creating layer conv3
I0901 19:56:12.023988 14920 net.cpp:84] Creating Layer conv3
I0901 19:56:12.023996 14920 net.cpp:406] conv3 <- pool1
I0901 19:56:12.024024 14920 net.cpp:380] conv3 -> conv3
I0901 19:56:12.034365 14920 net.cpp:122] Setting up conv3
I0901 19:56:12.034387 14920 net.cpp:129] Top shape: 100 128 16 16 (3276800)
I0901 19:56:12.034392 14920 net.cpp:137] Memory required for data: 237158800
I0901 19:56:12.034407 14920 layer_factory.hpp:77] Creating layer bn3_bn
I0901 19:56:12.034427 14920 net.cpp:84] Creating Layer bn3_bn
I0901 19:56:12.034437 14920 net.cpp:406] bn3_bn <- conv3
I0901 19:56:12.034456 14920 net.cpp:380] bn3_bn -> conv3_bn
I0901 19:56:12.034678 14920 net.cpp:122] Setting up bn3_bn
I0901 19:56:12.034690 14920 net.cpp:129] Top shape: 100 128 16 16 (3276800)
I0901 19:56:12.034694 14920 net.cpp:137] Memory required for data: 250266000
I0901 19:56:12.034713 14920 layer_factory.hpp:77] Creating layer bn3_scal
I0901 19:56:12.034729 14920 net.cpp:84] Creating Layer bn3_scal
I0901 19:56:12.034737 14920 net.cpp:406] bn3_scal <- conv3_bn
I0901 19:56:12.034752 14920 net.cpp:380] bn3_scal -> conv3_sc
I0901 19:56:12.034817 14920 layer_factory.hpp:77] Creating layer bn3_scal
I0901 19:56:12.034957 14920 net.cpp:122] Setting up bn3_scal
I0901 19:56:12.034970 14920 net.cpp:129] Top shape: 100 128 16 16 (3276800)
I0901 19:56:12.034973 14920 net.cpp:137] Memory required for data: 263373200
I0901 19:56:12.034999 14920 layer_factory.hpp:77] Creating layer relu3
I0901 19:56:12.035013 14920 net.cpp:84] Creating Layer relu3
I0901 19:56:12.035020 14920 net.cpp:406] relu3 <- conv3_sc
I0901 19:56:12.035033 14920 net.cpp:367] relu3 -> conv3_sc (in-place)
I0901 19:56:12.035538 14920 net.cpp:122] Setting up relu3
I0901 19:56:12.035550 14920 net.cpp:129] Top shape: 100 128 16 16 (3276800)
I0901 19:56:12.035555 14920 net.cpp:137] Memory required for data: 276480400
I0901 19:56:12.035562 14920 layer_factory.hpp:77] Creating layer conv4
I0901 19:56:12.035583 14920 net.cpp:84] Creating Layer conv4
I0901 19:56:12.035593 14920 net.cpp:406] conv4 <- conv3_sc
I0901 19:56:12.035610 14920 net.cpp:380] conv4 -> conv4
I0901 19:56:12.054662 14920 net.cpp:122] Setting up conv4
I0901 19:56:12.054683 14920 net.cpp:129] Top shape: 100 128 16 16 (3276800)
I0901 19:56:12.054703 14920 net.cpp:137] Memory required for data: 289587600
I0901 19:56:12.054729 14920 layer_factory.hpp:77] Creating layer bn4_bn
I0901 19:56:12.054774 14920 net.cpp:84] Creating Layer bn4_bn
I0901 19:56:12.054785 14920 net.cpp:406] bn4_bn <- conv4
I0901 19:56:12.054821 14920 net.cpp:380] bn4_bn -> conv4_bn
I0901 19:56:12.055058 14920 net.cpp:122] Setting up bn4_bn
I0901 19:56:12.055069 14920 net.cpp:129] Top shape: 100 128 16 16 (3276800)
I0901 19:56:12.055073 14920 net.cpp:137] Memory required for data: 302694800
I0901 19:56:12.055102 14920 layer_factory.hpp:77] Creating layer bn4_scal
I0901 19:56:12.055119 14920 net.cpp:84] Creating Layer bn4_scal
I0901 19:56:12.055126 14920 net.cpp:406] bn4_scal <- conv4_bn
I0901 19:56:12.055141 14920 net.cpp:380] bn4_scal -> conv4_sc
I0901 19:56:12.055204 14920 layer_factory.hpp:77] Creating layer bn4_scal
I0901 19:56:12.055343 14920 net.cpp:122] Setting up bn4_scal
I0901 19:56:12.055356 14920 net.cpp:129] Top shape: 100 128 16 16 (3276800)
I0901 19:56:12.055361 14920 net.cpp:137] Memory required for data: 315802000
I0901 19:56:12.055382 14920 layer_factory.hpp:77] Creating layer relu4
I0901 19:56:12.055395 14920 net.cpp:84] Creating Layer relu4
I0901 19:56:12.055403 14920 net.cpp:406] relu4 <- conv4_sc
I0901 19:56:12.055418 14920 net.cpp:367] relu4 -> conv4_sc (in-place)
I0901 19:56:12.055773 14920 net.cpp:122] Setting up relu4
I0901 19:56:12.055784 14920 net.cpp:129] Top shape: 100 128 16 16 (3276800)
I0901 19:56:12.055799 14920 net.cpp:137] Memory required for data: 328909200
I0901 19:56:12.055805 14920 layer_factory.hpp:77] Creating layer pool2
I0901 19:56:12.055824 14920 net.cpp:84] Creating Layer pool2
I0901 19:56:12.055840 14920 net.cpp:406] pool2 <- conv4_sc
I0901 19:56:12.055866 14920 net.cpp:380] pool2 -> pool2
I0901 19:56:12.055927 14920 net.cpp:122] Setting up pool2
I0901 19:56:12.055938 14920 net.cpp:129] Top shape: 100 128 8 8 (819200)
I0901 19:56:12.055943 14920 net.cpp:137] Memory required for data: 332186000
I0901 19:56:12.055948 14920 layer_factory.hpp:77] Creating layer drop2
I0901 19:56:12.055963 14920 net.cpp:84] Creating Layer drop2
I0901 19:56:12.055970 14920 net.cpp:406] drop2 <- pool2
I0901 19:56:12.055987 14920 net.cpp:367] drop2 -> pool2 (in-place)
I0901 19:56:12.056025 14920 net.cpp:122] Setting up drop2
I0901 19:56:12.056035 14920 net.cpp:129] Top shape: 100 128 8 8 (819200)
I0901 19:56:12.056038 14920 net.cpp:137] Memory required for data: 335462800
I0901 19:56:12.056044 14920 layer_factory.hpp:77] Creating layer conv5
I0901 19:56:12.056067 14920 net.cpp:84] Creating Layer conv5
I0901 19:56:12.056075 14920 net.cpp:406] conv5 <- pool2
I0901 19:56:12.056095 14920 net.cpp:380] conv5 -> conv5
I0901 19:56:12.094002 14920 net.cpp:122] Setting up conv5
I0901 19:56:12.094029 14920 net.cpp:129] Top shape: 100 256 8 8 (1638400)
I0901 19:56:12.094033 14920 net.cpp:137] Memory required for data: 342016400
I0901 19:56:12.094051 14920 layer_factory.hpp:77] Creating layer bn5_bn
I0901 19:56:12.094084 14920 net.cpp:84] Creating Layer bn5_bn
I0901 19:56:12.094113 14920 net.cpp:406] bn5_bn <- conv5
I0901 19:56:12.094132 14920 net.cpp:380] bn5_bn -> conv5_bn
I0901 19:56:12.094363 14920 net.cpp:122] Setting up bn5_bn
I0901 19:56:12.094375 14920 net.cpp:129] Top shape: 100 256 8 8 (1638400)
I0901 19:56:12.094378 14920 net.cpp:137] Memory required for data: 348570000
I0901 19:56:12.094396 14920 layer_factory.hpp:77] Creating layer bn5_scal
I0901 19:56:12.094421 14920 net.cpp:84] Creating Layer bn5_scal
I0901 19:56:12.094430 14920 net.cpp:406] bn5_scal <- conv5_bn
I0901 19:56:12.094462 14920 net.cpp:380] bn5_scal -> conv5_sc
I0901 19:56:12.094539 14920 layer_factory.hpp:77] Creating layer bn5_scal
I0901 19:56:12.094732 14920 net.cpp:122] Setting up bn5_scal
I0901 19:56:12.094753 14920 net.cpp:129] Top shape: 100 256 8 8 (1638400)
I0901 19:56:12.094758 14920 net.cpp:137] Memory required for data: 355123600
I0901 19:56:12.094779 14920 layer_factory.hpp:77] Creating layer relu5
I0901 19:56:12.094792 14920 net.cpp:84] Creating Layer relu5
I0901 19:56:12.094811 14920 net.cpp:406] relu5 <- conv5_sc
I0901 19:56:12.094826 14920 net.cpp:367] relu5 -> conv5_sc (in-place)
I0901 19:56:12.095420 14920 net.cpp:122] Setting up relu5
I0901 19:56:12.095440 14920 net.cpp:129] Top shape: 100 256 8 8 (1638400)
I0901 19:56:12.095444 14920 net.cpp:137] Memory required for data: 361677200
I0901 19:56:12.095450 14920 layer_factory.hpp:77] Creating layer conv6
I0901 19:56:12.095485 14920 net.cpp:84] Creating Layer conv6
I0901 19:56:12.095504 14920 net.cpp:406] conv6 <- conv5_sc
I0901 19:56:12.095533 14920 net.cpp:380] conv6 -> conv6
I0901 19:56:12.170023 14920 net.cpp:122] Setting up conv6
I0901 19:56:12.170058 14920 net.cpp:129] Top shape: 100 256 8 8 (1638400)
I0901 19:56:12.170063 14920 net.cpp:137] Memory required for data: 368230800
I0901 19:56:12.170097 14920 layer_factory.hpp:77] Creating layer bn6_bn
I0901 19:56:12.170148 14920 net.cpp:84] Creating Layer bn6_bn
I0901 19:56:12.170171 14920 net.cpp:406] bn6_bn <- conv6
I0901 19:56:12.170222 14920 net.cpp:380] bn6_bn -> conv6_bn
I0901 19:56:12.170506 14920 net.cpp:122] Setting up bn6_bn
I0901 19:56:12.170517 14920 net.cpp:129] Top shape: 100 256 8 8 (1638400)
I0901 19:56:12.170521 14920 net.cpp:137] Memory required for data: 374784400
I0901 19:56:12.170565 14920 layer_factory.hpp:77] Creating layer bn6_scal
I0901 19:56:12.170585 14920 net.cpp:84] Creating Layer bn6_scal
I0901 19:56:12.170606 14920 net.cpp:406] bn6_scal <- conv6_bn
I0901 19:56:12.170625 14920 net.cpp:380] bn6_scal -> conv6_sc
I0901 19:56:12.170724 14920 layer_factory.hpp:77] Creating layer bn6_scal
I0901 19:56:12.170892 14920 net.cpp:122] Setting up bn6_scal
I0901 19:56:12.170902 14920 net.cpp:129] Top shape: 100 256 8 8 (1638400)
I0901 19:56:12.170907 14920 net.cpp:137] Memory required for data: 381338000
I0901 19:56:12.170919 14920 layer_factory.hpp:77] Creating layer relu6
I0901 19:56:12.170933 14920 net.cpp:84] Creating Layer relu6
I0901 19:56:12.170941 14920 net.cpp:406] relu6 <- conv6_sc
I0901 19:56:12.170956 14920 net.cpp:367] relu6 -> conv6_sc (in-place)
I0901 19:56:12.171582 14920 net.cpp:122] Setting up relu6
I0901 19:56:12.171595 14920 net.cpp:129] Top shape: 100 256 8 8 (1638400)
I0901 19:56:12.171599 14920 net.cpp:137] Memory required for data: 387891600
I0901 19:56:12.171605 14920 layer_factory.hpp:77] Creating layer pool3
I0901 19:56:12.171623 14920 net.cpp:84] Creating Layer pool3
I0901 19:56:12.171633 14920 net.cpp:406] pool3 <- conv6_sc
I0901 19:56:12.171658 14920 net.cpp:380] pool3 -> pool3
I0901 19:56:12.171749 14920 net.cpp:122] Setting up pool3
I0901 19:56:12.171761 14920 net.cpp:129] Top shape: 100 256 4 4 (409600)
I0901 19:56:12.171774 14920 net.cpp:137] Memory required for data: 389530000
I0901 19:56:12.171780 14920 layer_factory.hpp:77] Creating layer drop3
I0901 19:56:12.171795 14920 net.cpp:84] Creating Layer drop3
I0901 19:56:12.171813 14920 net.cpp:406] drop3 <- pool3
I0901 19:56:12.171828 14920 net.cpp:367] drop3 -> pool3 (in-place)
I0901 19:56:12.171864 14920 net.cpp:122] Setting up drop3
I0901 19:56:12.171874 14920 net.cpp:129] Top shape: 100 256 4 4 (409600)
I0901 19:56:12.171877 14920 net.cpp:137] Memory required for data: 391168400
I0901 19:56:12.171883 14920 layer_factory.hpp:77] Creating layer fc7
I0901 19:56:12.171931 14920 net.cpp:84] Creating Layer fc7
I0901 19:56:12.171941 14920 net.cpp:406] fc7 <- pool3
I0901 19:56:12.171967 14920 net.cpp:380] fc7 -> fc7
I0901 19:56:12.431516 14920 net.cpp:122] Setting up fc7
I0901 19:56:12.431552 14920 net.cpp:129] Top shape: 100 512 (51200)
I0901 19:56:12.431557 14920 net.cpp:137] Memory required for data: 391373200
I0901 19:56:12.431594 14920 layer_factory.hpp:77] Creating layer bn7_bn
I0901 19:56:12.431646 14920 net.cpp:84] Creating Layer bn7_bn
I0901 19:56:12.431660 14920 net.cpp:406] bn7_bn <- fc7
I0901 19:56:12.431694 14920 net.cpp:380] bn7_bn -> fc7_bn
I0901 19:56:12.431936 14920 net.cpp:122] Setting up bn7_bn
I0901 19:56:12.431947 14920 net.cpp:129] Top shape: 100 512 (51200)
I0901 19:56:12.431951 14920 net.cpp:137] Memory required for data: 391578000
I0901 19:56:12.431994 14920 layer_factory.hpp:77] Creating layer bn7_scal
I0901 19:56:12.432015 14920 net.cpp:84] Creating Layer bn7_scal
I0901 19:56:12.432041 14920 net.cpp:406] bn7_scal <- fc7_bn
I0901 19:56:12.432077 14920 net.cpp:380] bn7_scal -> fc7_sc
I0901 19:56:12.432157 14920 layer_factory.hpp:77] Creating layer bn7_scal
I0901 19:56:12.432332 14920 net.cpp:122] Setting up bn7_scal
I0901 19:56:12.432343 14920 net.cpp:129] Top shape: 100 512 (51200)
I0901 19:56:12.432346 14920 net.cpp:137] Memory required for data: 391782800
I0901 19:56:12.432359 14920 layer_factory.hpp:77] Creating layer relu7
I0901 19:56:12.432380 14920 net.cpp:84] Creating Layer relu7
I0901 19:56:12.432389 14920 net.cpp:406] relu7 <- fc7_sc
I0901 19:56:12.432413 14920 net.cpp:367] relu7 -> fc7_sc (in-place)
I0901 19:56:12.432875 14920 net.cpp:122] Setting up relu7
I0901 19:56:12.432885 14920 net.cpp:129] Top shape: 100 512 (51200)
I0901 19:56:12.432888 14920 net.cpp:137] Memory required for data: 391987600
I0901 19:56:12.432894 14920 layer_factory.hpp:77] Creating layer drop7
I0901 19:56:12.432909 14920 net.cpp:84] Creating Layer drop7
I0901 19:56:12.432924 14920 net.cpp:406] drop7 <- fc7_sc
I0901 19:56:12.432958 14920 net.cpp:367] drop7 -> fc7_sc (in-place)
I0901 19:56:12.433023 14920 net.cpp:122] Setting up drop7
I0901 19:56:12.433032 14920 net.cpp:129] Top shape: 100 512 (51200)
I0901 19:56:12.433045 14920 net.cpp:137] Memory required for data: 392192400
I0901 19:56:12.433050 14920 layer_factory.hpp:77] Creating layer fc8
I0901 19:56:12.433084 14920 net.cpp:84] Creating Layer fc8
I0901 19:56:12.433091 14920 net.cpp:406] fc8 <- fc7_sc
I0901 19:56:12.433111 14920 net.cpp:380] fc8 -> fc8
I0901 19:56:12.467458 14920 net.cpp:122] Setting up fc8
I0901 19:56:12.467486 14920 net.cpp:129] Top shape: 100 512 (51200)
I0901 19:56:12.467490 14920 net.cpp:137] Memory required for data: 392397200
I0901 19:56:12.467519 14920 layer_factory.hpp:77] Creating layer bn8_bn
I0901 19:56:12.467555 14920 net.cpp:84] Creating Layer bn8_bn
I0901 19:56:12.467586 14920 net.cpp:406] bn8_bn <- fc8
I0901 19:56:12.467617 14920 net.cpp:380] bn8_bn -> fc8_bn
I0901 19:56:12.467881 14920 net.cpp:122] Setting up bn8_bn
I0901 19:56:12.467892 14920 net.cpp:129] Top shape: 100 512 (51200)
I0901 19:56:12.467906 14920 net.cpp:137] Memory required for data: 392602000
I0901 19:56:12.467926 14920 layer_factory.hpp:77] Creating layer bn8_scal
I0901 19:56:12.467944 14920 net.cpp:84] Creating Layer bn8_scal
I0901 19:56:12.467952 14920 net.cpp:406] bn8_scal <- fc8_bn
I0901 19:56:12.467979 14920 net.cpp:380] bn8_scal -> fc8_sc
I0901 19:56:12.468068 14920 layer_factory.hpp:77] Creating layer bn8_scal
I0901 19:56:12.468252 14920 net.cpp:122] Setting up bn8_scal
I0901 19:56:12.468263 14920 net.cpp:129] Top shape: 100 512 (51200)
I0901 19:56:12.468268 14920 net.cpp:137] Memory required for data: 392806800
I0901 19:56:12.468281 14920 layer_factory.hpp:77] Creating layer relu8
I0901 19:56:12.468294 14920 net.cpp:84] Creating Layer relu8
I0901 19:56:12.468302 14920 net.cpp:406] relu8 <- fc8_sc
I0901 19:56:12.468317 14920 net.cpp:367] relu8 -> fc8_sc (in-place)
I0901 19:56:12.468919 14920 net.cpp:122] Setting up relu8
I0901 19:56:12.468930 14920 net.cpp:129] Top shape: 100 512 (51200)
I0901 19:56:12.468935 14920 net.cpp:137] Memory required for data: 393011600
I0901 19:56:12.468940 14920 layer_factory.hpp:77] Creating layer drop8
I0901 19:56:12.468968 14920 net.cpp:84] Creating Layer drop8
I0901 19:56:12.468976 14920 net.cpp:406] drop8 <- fc8_sc
I0901 19:56:12.468993 14920 net.cpp:367] drop8 -> fc8_sc (in-place)
I0901 19:56:12.469033 14920 net.cpp:122] Setting up drop8
I0901 19:56:12.469051 14920 net.cpp:129] Top shape: 100 512 (51200)
I0901 19:56:12.469065 14920 net.cpp:137] Memory required for data: 393216400
I0901 19:56:12.469071 14920 layer_factory.hpp:77] Creating layer fc9
I0901 19:56:12.469095 14920 net.cpp:84] Creating Layer fc9
I0901 19:56:12.469113 14920 net.cpp:406] fc9 <- fc8_sc
I0901 19:56:12.469142 14920 net.cpp:380] fc9 -> fc9
I0901 19:56:12.470443 14920 net.cpp:122] Setting up fc9
I0901 19:56:12.470469 14920 net.cpp:129] Top shape: 100 10 (1000)
I0901 19:56:12.470475 14920 net.cpp:137] Memory required for data: 393220400
I0901 19:56:12.470489 14920 layer_factory.hpp:77] Creating layer loss
I0901 19:56:12.470512 14920 net.cpp:84] Creating Layer loss
I0901 19:56:12.470522 14920 net.cpp:406] loss <- fc9
I0901 19:56:12.470535 14920 net.cpp:406] loss <- label
I0901 19:56:12.470551 14920 net.cpp:380] loss -> loss
I0901 19:56:12.470571 14920 layer_factory.hpp:77] Creating layer loss
…
I0901 19:56:12.570050 14920 net.cpp:294] The NetState phase (1) differed from the phase (0) specified by a rule in layer cifar
I0901 19:56:12.570278 14920 net.cpp:51] Initializing net from parameters: 
name: "CIFAR10_vgg"
state {
  phase: TEST
}
layer {
  name: "cifar"
  type: "Data"
  top: "data"
  top: "label"
  include {
    phase: TEST
  }
  transform_param {
    mirror: false
    crop_size: 32
    mean_file: "examples/cifar10/mean.binaryproto"
  }
  data_param {
    source: "examples/cifar10/cifar10_test_lmdb"
    batch_size: 100
    backend: LMDB
  }
}
layer {
  name: "conv1"
  type: "BinaryConvolution"
  bottom: "data"
  top: "conv1"
  param {
    lr_mult: 1
    decay_mult: 1
  }
  convolution_param {
    num_output: 64
    bias_term: false
    pad: 1
    kernel_size: 3
    stride: 1
    weight_filler {
      type: "gaussian"
      std: 0.01
    }
  }
  debug_param {
    xnorno_grad: false
    binary_relax: true
  }
}
layer {
  name: "bn1_bn"
  type: "BatchNorm"
  bottom: "conv1"
  top: "conv1_bn"
}
layer {
  name: "bn1_scal"
  type: "Scale"
  bottom: "conv1_bn"
  top: "conv1_sc"
  scale_param {
    bias_term: true
  }
}
layer {
  name: "relu1"
  type: "ReLU"
  bottom: "conv1_sc"
  top: "conv1_sc"
}
layer {
  name: "conv2"
  type: "BinaryConvolution"
  bottom: "conv1_sc"
  top: "conv2"
  param {
    lr_mult: 1
    decay_mult: 1
  }
  convolution_param {
    num_output: 64
    bias_term: false
    pad: 1
    kernel_size: 3
    stride: 1
    weight_filler {
      type: "gaussian"
      std: 0.01
    }
  }
  debug_param {
    xnorno_grad: false
    binary_relax: true
  }
}
layer {
  name: "bn2_bn"
  type: "BatchNorm"
  bottom: "conv2"
  top: "conv2_bn"
}
layer {
  name: "bn2_scal"
  type: "Scale"
  bottom: "conv2_bn"
  top: "conv2_sc"
  scale_param {
    bias_term: true
  }
}
layer {
  name: "relu2"
  type: "ReLU"
  bottom: "conv2_sc"
  top: "conv2_sc"
}
layer {
  name: "pool1"
  type: "Pooling"
  bottom: "conv2_sc"
  top: "pool1"
  pooling_param {
    pool: MAX
    kernel_size: 2
    stride: 2
  }
}
layer {
  name: "drop1"
  type: "Dropout"
  bottom: "pool1"
  top: "pool1"
  dropout_param {
    dropout_ratio: 0.25
  }
}
layer {
  name: "conv3"
  type: "BinaryConvolution"
  bottom: "pool1"
  top: "conv3"
  param {
    lr_mult: 1
    decay_mult: 1
  }
  convolution_param {
    num_output: 128
    bias_term: false
    pad: 1
    kernel_size: 3
    stride: 1
    weight_filler {
      type: "gaussian"
      std: 0.01
    }
  }
  debug_param {
    xnorno_grad: false
    binary_relax: true
  }
}
layer {
  name: "bn3_bn"
  type: "BatchNorm"
  bottom: "conv3"
  top: "conv3_bn"
}
layer {
  name: "bn3_scal"
  type: "Scale"
  bottom: "conv3_bn"
  top: "conv3_sc"
  scale_param {
    bias_term: true
  }
}
layer {
  name: "relu3"
  type: "ReLU"
  bottom: "conv3_sc"
  top: "conv3_sc"
}
layer {
  name: "conv4"
  type: "BinaryConvolution"
  bottom: "conv3_sc"
  top: "conv4"
  param {
    lr_mult: 1
    decay_mult: 1
  }
  convolution_param {
    num_output: 128
    bias_term: false
    pad: 1
    kernel_size: 3
    stride: 1
    weight_filler {
      type: "gaussian"
      std: 0.01
    }
  }
  debug_param {
    xnorno_grad: false
    binary_relax: true
  }
}
layer {
  name: "bn4_bn"
  type: "BatchNorm"
  bottom: "conv4"
  top: "conv4_bn"
}
layer {
  name: "bn4_scal"
  type: "Scale"
  bottom: "conv4_bn"
  top: "conv4_sc"
  scale_param {
    bias_term: true
  }
}
layer {
  name: "relu4"
  type: "ReLU"
  bottom: "conv4_sc"
  top: "conv4_sc"
}
layer {
  name: "pool2"
  type: "Pooling"
  bottom: "conv4_sc"
  top: "pool2"
  pooling_param {
    pool: MAX
    kernel_size: 2
    stride: 2
  }
}
layer {
  name: "drop2"
  type: "Dropout"
  bottom: "pool2"
  top: "pool2"
  dropout_param {
    dropout_ratio: 0.25
  }
}
layer {
  name: "conv5"
  type: "BinaryConvolution"
  bottom: "pool2"
  top: "conv5"
  param {
    lr_mult: 1
    decay_mult: 1
  }
  convolution_param {
    num_output: 256
    bias_term: false
    pad: 1
    kernel_size: 3
    stride: 1
    weight_filler {
      type: "gaussian"
      std: 0.01
    }
  }
  debug_param {
    xnorno_grad: false
    binary_relax: true
  }
}
layer {
  name: "bn5_bn"
  type: "BatchNorm"
  bottom: "conv5"
  top: "conv5_bn"
}
layer {
  name: "bn5_scal"
  type: "Scale"
  bottom: "conv5_bn"
  top: "conv5_sc"
  scale_param {
    bias_term: true
  }
}
layer {
  name: "relu5"
  type: "ReLU"
  bottom: "conv5_sc"
  top: "conv5_sc"
}
layer {
  name: "conv6"
  type: "BinaryConvolution"
  bottom: "conv5_sc"
  top: "conv6"
  param {
    lr_mult: 1
    decay_mult: 1
  }
  convolution_param {
    num_output: 256
    bias_term: false
    pad: 1
    kernel_size: 3
    stride: 1
    weight_filler {
      type: "gaussian"
      std: 0.01
    }
  }
  debug_param {
    xnorno_grad: false
    binary_relax: true
  }
}
layer {
  name: "bn6_bn"
  type: "BatchNorm"
  bottom: "conv6"
  top: "conv6_bn"
}
layer {
  name: "bn6_scal"
  type: "Scale"
  bottom: "conv6_bn"
  top: "conv6_sc"
  scale_param {
    bias_term: true
  }
}
layer {
  name: "relu6"
  type: "ReLU"
  bottom: "conv6_sc"
  top: "conv6_sc"
}
layer {
  name: "pool3"
  type: "Pooling"
  bottom: "conv6_sc"
  top: "pool3"
  pooling_param {
    pool: MAX
    kernel_size: 2
    stride: 2
  }
}
layer {
  name: "drop3"
  type: "Dropout"
  bottom: "pool3"
  top: "pool3"
  dropout_param {
    dropout_ratio: 0.25
  }
}
layer {
  name: "fc7"
  type: "BinaryInnerProduct"
  bottom: "pool3"
  top: "fc7"
  param {
    lr_mult: 1
    decay_mult: 1
  }
  inner_product_param {
    num_output: 512
    bias_term: false
    weight_filler {
      type: "gaussian"
      std: 0.01
    }
  }
  debug_param {
    xnorno_grad: false
    binary_relax: true
  }
}
layer {
  name: "bn7_bn"
  type: "BatchNorm"
  bottom: "fc7"
  top: "fc7_bn"
}
layer {
  name: "bn7_scal"
  type: "Scale"
  bottom: "fc7_bn"
  top: "fc7_sc"
  scale_param {
    bias_term: true
  }
}
layer {
  name: "relu7"
  type: "ReLU"
  bottom: "fc7_sc"
  top: "fc7_sc"
}
layer {
  name: "drop7"
  type: "Dropout"
  bottom: "fc7_sc"
  top: "fc7_sc"
  dropout_param {
    dropout_ratio: 0.5
  }
}
layer {
  name: "fc8"
  type: "BinaryInnerProduct"
  bottom: "fc7_sc"
  top: "fc8"
  param {
    lr_mult: 1
    decay_mult: 1
  }
  inner_product_param {
    num_output: 512
    bias_term: false
    weight_filler {
      type: "gaussian"
      std: 0.01
    }
  }
  debug_param {
    xnorno_grad: false
    binary_relax: true
  }
}
layer {
  name: "bn8_bn"
  type: "BatchNorm"
  bottom: "fc8"
  top: "fc8_bn"
}
layer {
  name: "bn8_scal"
  type: "Scale"
  bottom: "fc8_bn"
  top: "fc8_sc"
  scale_param {
    bias_term: true
  }
}
layer {
  name: "relu8"
  type: "ReLU"
  bottom: "fc8_sc"
  top: "fc8_sc"
}
layer {
  name: "drop8"
  type: "Dropout"
  bottom: "fc8_sc"
  top: "fc8_sc"
  dropout_param {
    dropout_ratio: 0.5
  }
}
layer {
  name: "fc9"
  type: "BinaryInnerProduct"
  bottom: "fc8_sc"
  top: "fc9"
  param {
    lr_mult: 1
    decay_mult: 1
  }
  param {
    lr_mult: 2
    decay_mult: 0
  }
  inner_product_param {
    num_output: 10
    weight_filler {
      type: "gaussian"
      std: 0.01
    }
    bias_filler {
      type: "constant"
      value: 0.01
    }
  }
  debug_param {
    xnorno_grad: false
    binary_relax: true
  }
}
layer {
  name: "accuracy"
  type: "Accuracy"
  bottom: "fc9"
  bottom: "label"
  top: "accuracy"
  include {
    phase: TEST
  }
}
layer {
  name: "loss"
  type: "SoftmaxWithLoss"
  bottom: "fc9"
  bottom: "label"
  top: "loss"
}
I0901 19:56:12.570832 14920 layer_factory.hpp:77] Creating layer cifar
I0901 19:56:12.570940 14920 db_lmdb.cpp:35] Opened lmdb examples/cifar10/cifar10_test_lmdb
I0901 19:56:12.570963 14920 net.cpp:84] Creating Layer cifar
I0901 19:56:12.570976 14920 net.cpp:380] cifar -> data
I0901 19:56:12.571033 14920 net.cpp:380] cifar -> label
I0901 19:56:12.571064 14920 data_transformer.cpp:25] Loading mean file from: examples/cifar10/mean.binaryproto
I0901 19:56:12.571346 14920 data_layer.cpp:45] output data size: 100,3,32,32
I0901 19:56:12.574651 14920 base_data_layer.cpp:72] Initializing prefetch
I0901 19:56:12.574708 14920 base_data_layer.cpp:75] Prefetch initialized.
I0901 19:56:12.574717 14920 net.cpp:122] Setting up cifar
I0901 19:56:12.574728 14920 net.cpp:129] Top shape: 100 3 32 32 (307200)
I0901 19:56:12.574738 14920 net.cpp:129] Top shape: 100 (100)
I0901 19:56:12.574740 14920 net.cpp:137] Memory required for data: 1229200
I0901 19:56:12.574753 14920 layer_factory.hpp:77] Creating layer label_cifar_1_split
I0901 19:56:12.574784 14920 net.cpp:84] Creating Layer label_cifar_1_split
I0901 19:56:12.574795 14920 net.cpp:406] label_cifar_1_split <- label
I0901 19:56:12.574815 14920 net.cpp:380] label_cifar_1_split -> label_cifar_1_split_0
I0901 19:56:12.574853 14920 net.cpp:380] label_cifar_1_split -> label_cifar_1_split_1
I0901 19:56:12.574916 14920 net.cpp:122] Setting up label_cifar_1_split
I0901 19:56:12.574928 14920 net.cpp:129] Top shape: 100 (100)
I0901 19:56:12.574935 14920 net.cpp:129] Top shape: 100 (100)
I0901 19:56:12.574940 14920 net.cpp:137] Memory required for data: 1230000
I0901 19:56:12.574946 14920 layer_factory.hpp:77] Creating layer conv1
I0901 19:56:12.574971 14920 net.cpp:84] Creating Layer conv1
I0901 19:56:12.574980 14920 net.cpp:406] conv1 <- data
I0901 19:56:12.575000 14920 net.cpp:380] conv1 -> conv1
I0901 19:56:12.575660 14920 net.cpp:122] Setting up conv1
I0901 19:56:12.575677 14920 net.cpp:129] Top shape: 100 64 32 32 (6553600)
I0901 19:56:12.575681 14920 net.cpp:137] Memory required for data: 27444400
I0901 19:56:12.575706 14920 layer_factory.hpp:77] Creating layer bn1_bn
I0901 19:56:12.575721 14920 net.cpp:84] Creating Layer bn1_bn
I0901 19:56:12.575729 14920 net.cpp:406] bn1_bn <- conv1
I0901 19:56:12.575743 14920 net.cpp:380] bn1_bn -> conv1_bn
I0901 19:56:12.576023 14920 net.cpp:122] Setting up bn1_bn
I0901 19:56:12.576036 14920 net.cpp:129] Top shape: 100 64 32 32 (6553600)
I0901 19:56:12.576040 14920 net.cpp:137] Memory required for data: 53658800
I0901 19:56:12.576071 14920 layer_factory.hpp:77] Creating layer bn1_scal
I0901 19:56:12.576092 14920 net.cpp:84] Creating Layer bn1_scal
I0901 19:56:12.576100 14920 net.cpp:406] bn1_scal <- conv1_bn
I0901 19:56:12.576117 14920 net.cpp:380] bn1_scal -> conv1_sc
I0901 19:56:12.576184 14920 layer_factory.hpp:77] Creating layer bn1_scal
I0901 19:56:12.576347 14920 net.cpp:122] Setting up bn1_scal
I0901 19:56:12.576359 14920 net.cpp:129] Top shape: 100 64 32 32 (6553600)
I0901 19:56:12.576362 14920 net.cpp:137] Memory required for data: 79873200
I0901 19:56:12.576382 14920 layer_factory.hpp:77] Creating layer relu1
I0901 19:56:12.576396 14920 net.cpp:84] Creating Layer relu1
I0901 19:56:12.576405 14920 net.cpp:406] relu1 <- conv1_sc
I0901 19:56:12.576418 14920 net.cpp:367] relu1 -> conv1_sc (in-place)
I0901 19:56:12.576972 14920 net.cpp:122] Setting up relu1
I0901 19:56:12.576988 14920 net.cpp:129] Top shape: 100 64 32 32 (6553600)
I0901 19:56:12.576992 14920 net.cpp:137] Memory required for data: 106087600
I0901 19:56:12.576999 14920 layer_factory.hpp:77] Creating layer conv2
I0901 19:56:12.577018 14920 net.cpp:84] Creating Layer conv2
I0901 19:56:12.577031 14920 net.cpp:406] conv2 <- conv1_sc
I0901 19:56:12.577060 14920 net.cpp:380] conv2 -> conv2
I0901 19:56:12.582252 14920 net.cpp:122] Setting up conv2
I0901 19:56:12.582275 14920 net.cpp:129] Top shape: 100 64 32 32 (6553600)
I0901 19:56:12.582283 14920 net.cpp:137] Memory required for data: 132302000
I0901 19:56:12.582314 14920 layer_factory.hpp:77] Creating layer bn2_bn
I0901 19:56:12.582337 14920 net.cpp:84] Creating Layer bn2_bn
I0901 19:56:12.582351 14920 net.cpp:406] bn2_bn <- conv2
I0901 19:56:12.582376 14920 net.cpp:380] bn2_bn -> conv2_bn
I0901 19:56:12.582667 14920 net.cpp:122] Setting up bn2_bn
I0901 19:56:12.582684 14920 net.cpp:129] Top shape: 100 64 32 32 (6553600)
I0901 19:56:12.582701 14920 net.cpp:137] Memory required for data: 158516400
I0901 19:56:12.582746 14920 layer_factory.hpp:77] Creating layer bn2_scal
I0901 19:56:12.582773 14920 net.cpp:84] Creating Layer bn2_scal
I0901 19:56:12.582784 14920 net.cpp:406] bn2_scal <- conv2_bn
I0901 19:56:12.582809 14920 net.cpp:380] bn2_scal -> conv2_sc
I0901 19:56:12.582885 14920 layer_factory.hpp:77] Creating layer bn2_scal
I0901 19:56:12.583046 14920 net.cpp:122] Setting up bn2_scal
I0901 19:56:12.583061 14920 net.cpp:129] Top shape: 100 64 32 32 (6553600)
I0901 19:56:12.583071 14920 net.cpp:137] Memory required for data: 184730800
I0901 19:56:12.583091 14920 layer_factory.hpp:77] Creating layer relu2
I0901 19:56:12.583108 14920 net.cpp:84] Creating Layer relu2
I0901 19:56:12.583119 14920 net.cpp:406] relu2 <- conv2_sc
I0901 19:56:12.583140 14920 net.cpp:367] relu2 -> conv2_sc (in-place)
I0901 19:56:12.583695 14920 net.cpp:122] Setting up relu2
I0901 19:56:12.583709 14920 net.cpp:129] Top shape: 100 64 32 32 (6553600)
I0901 19:56:12.583719 14920 net.cpp:137] Memory required for data: 210945200
I0901 19:56:12.583731 14920 layer_factory.hpp:77] Creating layer pool1
I0901 19:56:12.583755 14920 net.cpp:84] Creating Layer pool1
I0901 19:56:12.583766 14920 net.cpp:406] pool1 <- conv2_sc
I0901 19:56:12.583789 14920 net.cpp:380] pool1 -> pool1
I0901 19:56:12.583859 14920 net.cpp:122] Setting up pool1
I0901 19:56:12.583873 14920 net.cpp:129] Top shape: 100 64 16 16 (1638400)
I0901 19:56:12.583881 14920 net.cpp:137] Memory required for data: 217498800
I0901 19:56:12.583890 14920 layer_factory.hpp:77] Creating layer drop1
I0901 19:56:12.583914 14920 net.cpp:84] Creating Layer drop1
I0901 19:56:12.583923 14920 net.cpp:406] drop1 <- pool1
I0901 19:56:12.583945 14920 net.cpp:367] drop1 -> pool1 (in-place)
I0901 19:56:12.583989 14920 net.cpp:122] Setting up drop1
I0901 19:56:12.584002 14920 net.cpp:129] Top shape: 100 64 16 16 (1638400)
I0901 19:56:12.584009 14920 net.cpp:137] Memory required for data: 224052400
I0901 19:56:12.584028 14920 layer_factory.hpp:77] Creating layer conv3
I0901 19:56:12.584055 14920 net.cpp:84] Creating Layer conv3
I0901 19:56:12.584067 14920 net.cpp:406] conv3 <- pool1
I0901 19:56:12.584094 14920 net.cpp:380] conv3 -> conv3
I0901 19:56:12.594895 14920 net.cpp:122] Setting up conv3
I0901 19:56:12.594934 14920 net.cpp:129] Top shape: 100 128 16 16 (3276800)
I0901 19:56:12.594943 14920 net.cpp:137] Memory required for data: 237159600
I0901 19:56:12.594977 14920 layer_factory.hpp:77] Creating layer bn3_bn
I0901 19:56:12.595002 14920 net.cpp:84] Creating Layer bn3_bn
I0901 19:56:12.595017 14920 net.cpp:406] bn3_bn <- conv3
I0901 19:56:12.595043 14920 net.cpp:380] bn3_bn -> conv3_bn
I0901 19:56:12.595283 14920 net.cpp:122] Setting up bn3_bn
I0901 19:56:12.595297 14920 net.cpp:129] Top shape: 100 128 16 16 (3276800)
I0901 19:56:12.595305 14920 net.cpp:137] Memory required for data: 250266800
I0901 19:56:12.595333 14920 layer_factory.hpp:77] Creating layer bn3_scal
I0901 19:56:12.595355 14920 net.cpp:84] Creating Layer bn3_scal
I0901 19:56:12.595366 14920 net.cpp:406] bn3_scal <- conv3_bn
I0901 19:56:12.595398 14920 net.cpp:380] bn3_scal -> conv3_sc
I0901 19:56:12.595487 14920 layer_factory.hpp:77] Creating layer bn3_scal
I0901 19:56:12.595706 14920 net.cpp:122] Setting up bn3_scal
I0901 19:56:12.595721 14920 net.cpp:129] Top shape: 100 128 16 16 (3276800)
I0901 19:56:12.595738 14920 net.cpp:137] Memory required for data: 263374000
I0901 19:56:12.595772 14920 layer_factory.hpp:77] Creating layer relu3
I0901 19:56:12.595808 14920 net.cpp:84] Creating Layer relu3
I0901 19:56:12.595820 14920 net.cpp:406] relu3 <- conv3_sc
I0901 19:56:12.595841 14920 net.cpp:367] relu3 -> conv3_sc (in-place)
I0901 19:56:12.596263 14920 net.cpp:122] Setting up relu3
I0901 19:56:12.596276 14920 net.cpp:129] Top shape: 100 128 16 16 (3276800)
I0901 19:56:12.596285 14920 net.cpp:137] Memory required for data: 276481200
I0901 19:56:12.596297 14920 layer_factory.hpp:77] Creating layer conv4
I0901 19:56:12.596331 14920 net.cpp:84] Creating Layer conv4
I0901 19:56:12.596343 14920 net.cpp:406] conv4 <- conv3_sc
I0901 19:56:12.596370 14920 net.cpp:380] conv4 -> conv4
I0901 19:56:12.614848 14920 net.cpp:122] Setting up conv4
I0901 19:56:12.614864 14920 net.cpp:129] Top shape: 100 128 16 16 (3276800)
I0901 19:56:12.614881 14920 net.cpp:137] Memory required for data: 289588400
I0901 19:56:12.614899 14920 layer_factory.hpp:77] Creating layer bn4_bn
I0901 19:56:12.614935 14920 net.cpp:84] Creating Layer bn4_bn
I0901 19:56:12.614946 14920 net.cpp:406] bn4_bn <- conv4
I0901 19:56:12.614984 14920 net.cpp:380] bn4_bn -> conv4_bn
I0901 19:56:12.615231 14920 net.cpp:122] Setting up bn4_bn
I0901 19:56:12.615244 14920 net.cpp:129] Top shape: 100 128 16 16 (3276800)
I0901 19:56:12.615262 14920 net.cpp:137] Memory required for data: 302695600
I0901 19:56:12.615299 14920 layer_factory.hpp:77] Creating layer bn4_scal
I0901 19:56:12.615327 14920 net.cpp:84] Creating Layer bn4_scal
I0901 19:56:12.615350 14920 net.cpp:406] bn4_scal <- conv4_bn
I0901 19:56:12.615373 14920 net.cpp:380] bn4_scal -> conv4_sc
I0901 19:56:12.615447 14920 layer_factory.hpp:77] Creating layer bn4_scal
I0901 19:56:12.615598 14920 net.cpp:122] Setting up bn4_scal
I0901 19:56:12.615613 14920 net.cpp:129] Top shape: 100 128 16 16 (3276800)
I0901 19:56:12.615622 14920 net.cpp:137] Memory required for data: 315802800
I0901 19:56:12.615643 14920 layer_factory.hpp:77] Creating layer relu4
I0901 19:56:12.615659 14920 net.cpp:84] Creating Layer relu4
I0901 19:56:12.615670 14920 net.cpp:406] relu4 <- conv4_sc
I0901 19:56:12.615690 14920 net.cpp:367] relu4 -> conv4_sc (in-place)
I0901 19:56:12.616199 14920 net.cpp:122] Setting up relu4
I0901 19:56:12.616212 14920 net.cpp:129] Top shape: 100 128 16 16 (3276800)
I0901 19:56:12.616219 14920 net.cpp:137] Memory required for data: 328910000
I0901 19:56:12.616230 14920 layer_factory.hpp:77] Creating layer pool2
I0901 19:56:12.616255 14920 net.cpp:84] Creating Layer pool2
I0901 19:56:12.616266 14920 net.cpp:406] pool2 <- conv4_sc
I0901 19:56:12.616289 14920 net.cpp:380] pool2 -> pool2
I0901 19:56:12.616356 14920 net.cpp:122] Setting up pool2
I0901 19:56:12.616371 14920 net.cpp:129] Top shape: 100 128 8 8 (819200)
I0901 19:56:12.616379 14920 net.cpp:137] Memory required for data: 332186800
I0901 19:56:12.616390 14920 layer_factory.hpp:77] Creating layer drop2
I0901 19:56:12.616410 14920 net.cpp:84] Creating Layer drop2
I0901 19:56:12.616421 14920 net.cpp:406] drop2 <- pool2
I0901 19:56:12.616442 14920 net.cpp:367] drop2 -> pool2 (in-place)
I0901 19:56:12.616487 14920 net.cpp:122] Setting up drop2
I0901 19:56:12.616497 14920 net.cpp:129] Top shape: 100 128 8 8 (819200)
I0901 19:56:12.616505 14920 net.cpp:137] Memory required for data: 335463600
I0901 19:56:12.616516 14920 layer_factory.hpp:77] Creating layer conv5
I0901 19:56:12.616539 14920 net.cpp:84] Creating Layer conv5
I0901 19:56:12.616551 14920 net.cpp:406] conv5 <- pool2
I0901 19:56:12.616576 14920 net.cpp:380] conv5 -> conv5
I0901 19:56:12.654497 14920 net.cpp:122] Setting up conv5
I0901 19:56:12.654528 14920 net.cpp:129] Top shape: 100 256 8 8 (1638400)
I0901 19:56:12.654536 14920 net.cpp:137] Memory required for data: 342017200
I0901 19:56:12.654561 14920 layer_factory.hpp:77] Creating layer bn5_bn
I0901 19:56:12.654603 14920 net.cpp:84] Creating Layer bn5_bn
I0901 19:56:12.654628 14920 net.cpp:406] bn5_bn <- conv5
I0901 19:56:12.654683 14920 net.cpp:380] bn5_bn -> conv5_bn
I0901 19:56:12.654932 14920 net.cpp:122] Setting up bn5_bn
I0901 19:56:12.654945 14920 net.cpp:129] Top shape: 100 256 8 8 (1638400)
I0901 19:56:12.654953 14920 net.cpp:137] Memory required for data: 348570800
I0901 19:56:12.654978 14920 layer_factory.hpp:77] Creating layer bn5_scal
I0901 19:56:12.655001 14920 net.cpp:84] Creating Layer bn5_scal
I0901 19:56:12.655014 14920 net.cpp:406] bn5_scal <- conv5_bn
I0901 19:56:12.655052 14920 net.cpp:380] bn5_scal -> conv5_sc
I0901 19:56:12.655148 14920 layer_factory.hpp:77] Creating layer bn5_scal
I0901 19:56:12.655305 14920 net.cpp:122] Setting up bn5_scal
I0901 19:56:12.655319 14920 net.cpp:129] Top shape: 100 256 8 8 (1638400)
I0901 19:56:12.655328 14920 net.cpp:137] Memory required for data: 355124400
I0901 19:56:12.655346 14920 layer_factory.hpp:77] Creating layer relu5
I0901 19:56:12.655364 14920 net.cpp:84] Creating Layer relu5
I0901 19:56:12.655375 14920 net.cpp:406] relu5 <- conv5_sc
I0901 19:56:12.655395 14920 net.cpp:367] relu5 -> conv5_sc (in-place)
I0901 19:56:12.655761 14920 net.cpp:122] Setting up relu5
I0901 19:56:12.655773 14920 net.cpp:129] Top shape: 100 256 8 8 (1638400)
I0901 19:56:12.655782 14920 net.cpp:137] Memory required for data: 361678000
I0901 19:56:12.655793 14920 layer_factory.hpp:77] Creating layer conv6
I0901 19:56:12.655839 14920 net.cpp:84] Creating Layer conv6
I0901 19:56:12.655851 14920 net.cpp:406] conv6 <- conv5_sc
I0901 19:56:12.655879 14920 net.cpp:380] conv6 -> conv6
I0901 19:56:12.729701 14920 net.cpp:122] Setting up conv6
I0901 19:56:12.729739 14920 net.cpp:129] Top shape: 100 256 8 8 (1638400)
I0901 19:56:12.729763 14920 net.cpp:137] Memory required for data: 368231600
I0901 19:56:12.729812 14920 layer_factory.hpp:77] Creating layer bn6_bn
I0901 19:56:12.729846 14920 net.cpp:84] Creating Layer bn6_bn
I0901 19:56:12.729861 14920 net.cpp:406] bn6_bn <- conv6
I0901 19:56:12.729890 14920 net.cpp:380] bn6_bn -> conv6_bn
I0901 19:56:12.730134 14920 net.cpp:122] Setting up bn6_bn
I0901 19:56:12.730147 14920 net.cpp:129] Top shape: 100 256 8 8 (1638400)
I0901 19:56:12.730155 14920 net.cpp:137] Memory required for data: 374785200
I0901 19:56:12.730196 14920 layer_factory.hpp:77] Creating layer bn6_scal
I0901 19:56:12.730219 14920 net.cpp:84] Creating Layer bn6_scal
I0901 19:56:12.730232 14920 net.cpp:406] bn6_scal <- conv6_bn
I0901 19:56:12.730253 14920 net.cpp:380] bn6_scal -> conv6_sc
I0901 19:56:12.730331 14920 layer_factory.hpp:77] Creating layer bn6_scal
I0901 19:56:12.730489 14920 net.cpp:122] Setting up bn6_scal
I0901 19:56:12.730502 14920 net.cpp:129] Top shape: 100 256 8 8 (1638400)
I0901 19:56:12.730512 14920 net.cpp:137] Memory required for data: 381338800
I0901 19:56:12.730531 14920 layer_factory.hpp:77] Creating layer relu6
I0901 19:56:12.730548 14920 net.cpp:84] Creating Layer relu6
I0901 19:56:12.730559 14920 net.cpp:406] relu6 <- conv6_sc
I0901 19:56:12.730588 14920 net.cpp:367] relu6 -> conv6_sc (in-place)
I0901 19:56:12.731170 14920 net.cpp:122] Setting up relu6
I0901 19:56:12.731184 14920 net.cpp:129] Top shape: 100 256 8 8 (1638400)
I0901 19:56:12.731190 14920 net.cpp:137] Memory required for data: 387892400
I0901 19:56:12.731201 14920 layer_factory.hpp:77] Creating layer pool3
I0901 19:56:12.731226 14920 net.cpp:84] Creating Layer pool3
I0901 19:56:12.731237 14920 net.cpp:406] pool3 <- conv6_sc
I0901 19:56:12.731261 14920 net.cpp:380] pool3 -> pool3
I0901 19:56:12.731328 14920 net.cpp:122] Setting up pool3
I0901 19:56:12.731341 14920 net.cpp:129] Top shape: 100 256 4 4 (409600)
I0901 19:56:12.731349 14920 net.cpp:137] Memory required for data: 389530800
I0901 19:56:12.731360 14920 layer_factory.hpp:77] Creating layer drop3
I0901 19:56:12.731380 14920 net.cpp:84] Creating Layer drop3
I0901 19:56:12.731390 14920 net.cpp:406] drop3 <- pool3
I0901 19:56:12.731420 14920 net.cpp:367] drop3 -> pool3 (in-place)
I0901 19:56:12.731490 14920 net.cpp:122] Setting up drop3
I0901 19:56:12.731501 14920 net.cpp:129] Top shape: 100 256 4 4 (409600)
I0901 19:56:12.731518 14920 net.cpp:137] Memory required for data: 391169200
I0901 19:56:12.731529 14920 layer_factory.hpp:77] Creating layer fc7
I0901 19:56:12.731590 14920 net.cpp:84] Creating Layer fc7
I0901 19:56:12.731601 14920 net.cpp:406] fc7 <- pool3
I0901 19:56:12.731643 14920 net.cpp:380] fc7 -> fc7
I0901 19:56:12.993363 14920 net.cpp:122] Setting up fc7
I0901 19:56:12.993404 14920 net.cpp:129] Top shape: 100 512 (51200)
I0901 19:56:12.993412 14920 net.cpp:137] Memory required for data: 391374000
I0901 19:56:12.993464 14920 layer_factory.hpp:77] Creating layer bn7_bn
I0901 19:56:12.993520 14920 net.cpp:84] Creating Layer bn7_bn
I0901 19:56:12.993538 14920 net.cpp:406] bn7_bn <- fc7
I0901 19:56:12.993571 14920 net.cpp:380] bn7_bn -> fc7_bn
I0901 19:56:12.993861 14920 net.cpp:122] Setting up bn7_bn
I0901 19:56:12.993877 14920 net.cpp:129] Top shape: 100 512 (51200)
I0901 19:56:12.993887 14920 net.cpp:137] Memory required for data: 391578800
I0901 19:56:12.993914 14920 layer_factory.hpp:77] Creating layer bn7_scal
I0901 19:56:12.993939 14920 net.cpp:84] Creating Layer bn7_scal
I0901 19:56:12.993952 14920 net.cpp:406] bn7_scal <- fc7_bn
I0901 19:56:12.993974 14920 net.cpp:380] bn7_scal -> fc7_sc
I0901 19:56:12.994055 14920 layer_factory.hpp:77] Creating layer bn7_scal
I0901 19:56:12.994222 14920 net.cpp:122] Setting up bn7_scal
I0901 19:56:12.994237 14920 net.cpp:129] Top shape: 100 512 (51200)
I0901 19:56:12.994246 14920 net.cpp:137] Memory required for data: 391783600
I0901 19:56:12.994267 14920 layer_factory.hpp:77] Creating layer relu7
I0901 19:56:12.994285 14920 net.cpp:84] Creating Layer relu7
I0901 19:56:12.994297 14920 net.cpp:406] relu7 <- fc7_sc
I0901 19:56:12.994328 14920 net.cpp:367] relu7 -> fc7_sc (in-place)
I0901 19:56:12.994940 14920 net.cpp:122] Setting up relu7
I0901 19:56:12.994952 14920 net.cpp:129] Top shape: 100 512 (51200)
I0901 19:56:12.994958 14920 net.cpp:137] Memory required for data: 391988400
I0901 19:56:12.994971 14920 layer_factory.hpp:77] Creating layer drop7
I0901 19:56:12.994993 14920 net.cpp:84] Creating Layer drop7
I0901 19:56:12.995004 14920 net.cpp:406] drop7 <- fc7_sc
I0901 19:56:12.995026 14920 net.cpp:367] drop7 -> fc7_sc (in-place)
I0901 19:56:12.995072 14920 net.cpp:122] Setting up drop7
I0901 19:56:12.995084 14920 net.cpp:129] Top shape: 100 512 (51200)
I0901 19:56:12.995091 14920 net.cpp:137] Memory required for data: 392193200
I0901 19:56:12.995110 14920 layer_factory.hpp:77] Creating layer fc8
I0901 19:56:12.995148 14920 net.cpp:84] Creating Layer fc8
I0901 19:56:12.995159 14920 net.cpp:406] fc8 <- fc7_sc
I0901 19:56:12.995201 14920 net.cpp:380] fc8 -> fc8
I0901 19:56:13.028956 14920 net.cpp:122] Setting up fc8
I0901 19:56:13.028981 14920 net.cpp:129] Top shape: 100 512 (51200)
I0901 19:56:13.028988 14920 net.cpp:137] Memory required for data: 392398000
I0901 19:56:13.029021 14920 layer_factory.hpp:77] Creating layer bn8_bn
I0901 19:56:13.029070 14920 net.cpp:84] Creating Layer bn8_bn
I0901 19:56:13.029103 14920 net.cpp:406] bn8_bn <- fc8
I0901 19:56:13.029155 14920 net.cpp:380] bn8_bn -> fc8_bn
I0901 19:56:13.029410 14920 net.cpp:122] Setting up bn8_bn
I0901 19:56:13.029425 14920 net.cpp:129] Top shape: 100 512 (51200)
I0901 19:56:13.029454 14920 net.cpp:137] Memory required for data: 392602800
I0901 19:56:13.029489 14920 layer_factory.hpp:77] Creating layer bn8_scal
I0901 19:56:13.029517 14920 net.cpp:84] Creating Layer bn8_scal
I0901 19:56:13.029530 14920 net.cpp:406] bn8_scal <- fc8_bn
I0901 19:56:13.029561 14920 net.cpp:380] bn8_scal -> fc8_sc
I0901 19:56:13.029646 14920 layer_factory.hpp:77] Creating layer bn8_scal
I0901 19:56:13.029826 14920 net.cpp:122] Setting up bn8_scal
I0901 19:56:13.029840 14920 net.cpp:129] Top shape: 100 512 (51200)
I0901 19:56:13.029870 14920 net.cpp:137] Memory required for data: 392807600
I0901 19:56:13.029896 14920 layer_factory.hpp:77] Creating layer relu8
I0901 19:56:13.029914 14920 net.cpp:84] Creating Layer relu8
I0901 19:56:13.029925 14920 net.cpp:406] relu8 <- fc8_sc
I0901 19:56:13.029945 14920 net.cpp:367] relu8 -> fc8_sc (in-place)
I0901 19:56:13.030319 14920 net.cpp:122] Setting up relu8
I0901 19:56:13.030333 14920 net.cpp:129] Top shape: 100 512 (51200)
I0901 19:56:13.030341 14920 net.cpp:137] Memory required for data: 393012400
I0901 19:56:13.030352 14920 layer_factory.hpp:77] Creating layer drop8
I0901 19:56:13.030372 14920 net.cpp:84] Creating Layer drop8
I0901 19:56:13.030383 14920 net.cpp:406] drop8 <- fc8_sc
I0901 19:56:13.030405 14920 net.cpp:367] drop8 -> fc8_sc (in-place)
I0901 19:56:13.030452 14920 net.cpp:122] Setting up drop8
I0901 19:56:13.030462 14920 net.cpp:129] Top shape: 100 512 (51200)
I0901 19:56:13.030470 14920 net.cpp:137] Memory required for data: 393217200
I0901 19:56:13.030480 14920 layer_factory.hpp:77] Creating layer fc9
I0901 19:56:13.030508 14920 net.cpp:84] Creating Layer fc9
I0901 19:56:13.030519 14920 net.cpp:406] fc9 <- fc8_sc
I0901 19:56:13.030544 14920 net.cpp:380] fc9 -> fc9
I0901 19:56:13.031458 14920 net.cpp:122] Setting up fc9
I0901 19:56:13.031473 14920 net.cpp:129] Top shape: 100 10 (1000)
I0901 19:56:13.031481 14920 net.cpp:137] Memory required for data: 393221200
I0901 19:56:13.031503 14920 layer_factory.hpp:77] Creating layer fc9_fc9_0_split
I0901 19:56:13.031522 14920 net.cpp:84] Creating Layer fc9_fc9_0_split
I0901 19:56:13.031533 14920 net.cpp:406] fc9_fc9_0_split <- fc9
I0901 19:56:13.031554 14920 net.cpp:380] fc9_fc9_0_split -> fc9_fc9_0_split_0
I0901 19:56:13.031585 14920 net.cpp:380] fc9_fc9_0_split -> fc9_fc9_0_split_1
I0901 19:56:13.031647 14920 net.cpp:122] Setting up fc9_fc9_0_split
I0901 19:56:13.031662 14920 net.cpp:129] Top shape: 100 10 (1000)
I0901 19:56:13.031674 14920 net.cpp:129] Top shape: 100 10 (1000)
I0901 19:56:13.031692 14920 net.cpp:137] Memory required for data: 393229200
I0901 19:56:13.031702 14920 layer_factory.hpp:77] Creating layer accuracy
I0901 19:56:13.031728 14920 net.cpp:84] Creating Layer accuracy
I0901 19:56:13.031738 14920 net.cpp:406] accuracy <- fc9_fc9_0_split_0
I0901 19:56:13.031759 14920 net.cpp:406] accuracy <- label_cifar_1_split_0
I0901 19:56:13.031778 14920 net.cpp:380] accuracy -> accuracy
…
