…
I0902 21:08:21.322719 27367 net.cpp:294] The NetState phase (0) differed from the phase (1) specified by a rule in layer accuracy
I0902 21:08:21.322924 27367 net.cpp:51] Initializing net from parameters: 
name: "CIFAR10_vgg"
state {
  phase: TRAIN
  level: 0
  stage: ""
}
layer {
  name: "cifar"
  type: "Data"
  top: "data"
  top: "label"
  include {
    phase: TRAIN
  }
  transform_param {
    mirror: true
    crop_size: 32
    mean_file: "examples/cifar10/mean.binaryproto"
  }
  data_param {
    source: "examples/cifar10/cifar10_train_lmdb"
    batch_size: 100
    backend: LMDB
  }
}
layer {
  name: "conv1"
  type: "BinaryConvolution"
  bottom: "data"
  top: "conv1"
  param {
    lr_mult: 1
    decay_mult: 1
  }
  convolution_param {
    num_output: 64
    bias_term: false
    pad: 1
    kernel_size: 3
    stride: 1
    weight_filler {
      type: "gaussian"
      std: 0.01
    }
  }
  debug_param {
    xnorno_grad: false
    binary_relax: true
  }
}
layer {
  name: "bn1_bn"
  type: "BatchNorm"
  bottom: "conv1"
  top: "conv1_bn"
}
layer {
  name: "bn1_scal"
  type: "Scale"
  bottom: "conv1_bn"
  top: "conv1_sc"
  scale_param {
    bias_term: true
  }
}
layer {
  name: "relu1"
  type: "ReLU"
  bottom: "conv1_sc"
  top: "conv1_sc"
}
layer {
  name: "conv2"
  type: "BinaryConvolution"
  bottom: "conv1_sc"
  top: "conv2"
  param {
    lr_mult: 1
    decay_mult: 1
  }
  convolution_param {
    num_output: 64
    bias_term: false
    pad: 1
    kernel_size: 3
    stride: 1
    weight_filler {
      type: "gaussian"
      std: 0.01
    }
  }
  debug_param {
    xnorno_grad: false
    binary_relax: true
  }
}
layer {
  name: "bn2_bn"
  type: "BatchNorm"
  bottom: "conv2"
  top: "conv2_bn"
}
layer {
  name: "bn2_scal"
  type: "Scale"
  bottom: "conv2_bn"
  top: "conv2_sc"
  scale_param {
    bias_term: true
  }
}
layer {
  name: "relu2"
  type: "ReLU"
  bottom: "conv2_sc"
  top: "conv2_sc"
}
layer {
  name: "pool1"
  type: "Pooling"
  bottom: "conv2_sc"
  top: "pool1"
  pooling_param {
    pool: MAX
    kernel_size: 2
    stride: 2
  }
}
layer {
  name: "drop1"
  type: "Dropout"
  bottom: "pool1"
  top: "pool1"
  dropout_param {
    dropout_ratio: 0.25
  }
}
layer {
  name: "conv3"
  type: "BinaryConvolution"
  bottom: "pool1"
  top: "conv3"
  param {
    lr_mult: 1
    decay_mult: 1
  }
  convolution_param {
    num_output: 128
    bias_term: false
    pad: 1
    kernel_size: 3
    stride: 1
    weight_filler {
      type: "gaussian"
      std: 0.01
    }
  }
  debug_param {
    xnorno_grad: false
    binary_relax: true
  }
}
layer {
  name: "bn3_bn"
  type: "BatchNorm"
  bottom: "conv3"
  top: "conv3_bn"
}
layer {
  name: "bn3_scal"
  type: "Scale"
  bottom: "conv3_bn"
  top: "conv3_sc"
  scale_param {
    bias_term: true
  }
}
layer {
  name: "relu3"
  type: "ReLU"
  bottom: "conv3_sc"
  top: "conv3_sc"
}
layer {
  name: "conv4"
  type: "BinaryConvolution"
  bottom: "conv3_sc"
  top: "conv4"
  param {
    lr_mult: 1
    decay_mult: 1
  }
  convolution_param {
    num_output: 128
    bias_term: false
    pad: 1
    kernel_size: 3
    stride: 1
    weight_filler {
      type: "gaussian"
      std: 0.01
    }
  }
  debug_param {
    xnorno_grad: false
    binary_relax: true
  }
}
layer {
  name: "bn4_bn"
  type: "BatchNorm"
  bottom: "conv4"
  top: "conv4_bn"
}
layer {
  name: "bn4_scal"
  type: "Scale"
  bottom: "conv4_bn"
  top: "conv4_sc"
  scale_param {
    bias_term: true
  }
}
layer {
  name: "relu4"
  type: "ReLU"
  bottom: "conv4_sc"
  top: "conv4_sc"
}
layer {
  name: "pool2"
  type: "Pooling"
  bottom: "conv4_sc"
  top: "pool2"
  pooling_param {
    pool: MAX
    kernel_size: 2
    stride: 2
  }
}
layer {
  name: "drop2"
  type: "Dropout"
  bottom: "pool2"
  top: "pool2"
  dropout_param {
    dropout_ratio: 0.25
  }
}
layer {
  name: "conv5"
  type: "BinaryConvolution"
  bottom: "pool2"
  top: "conv5"
  param {
    lr_mult: 1
    decay_mult: 1
  }
  convolution_param {
    num_output: 256
    bias_term: false
    pad: 1
    kernel_size: 3
    stride: 1
    weight_filler {
      type: "gaussian"
      std: 0.01
    }
  }
  debug_param {
    xnorno_grad: false
    binary_relax: true
  }
}
layer {
  name: "bn5_bn"
  type: "BatchNorm"
  bottom: "conv5"
  top: "conv5_bn"
}
layer {
  name: "bn5_scal"
  type: "Scale"
  bottom: "conv5_bn"
  top: "conv5_sc"
  scale_param {
    bias_term: true
  }
}
layer {
  name: "relu5"
  type: "ReLU"
  bottom: "conv5_sc"
  top: "conv5_sc"
}
layer {
  name: "conv6"
  type: "BinaryConvolution"
  bottom: "conv5_sc"
  top: "conv6"
  param {
    lr_mult: 1
    decay_mult: 1
  }
  convolution_param {
    num_output: 256
    bias_term: false
    pad: 1
    kernel_size: 3
    stride: 1
    weight_filler {
      type: "gaussian"
      std: 0.01
    }
  }
  debug_param {
    xnorno_grad: false
    binary_relax: true
  }
}
layer {
  name: "bn6_bn"
  type: "BatchNorm"
  bottom: "conv6"
  top: "conv6_bn"
}
layer {
  name: "bn6_scal"
  type: "Scale"
  bottom: "conv6_bn"
  top: "conv6_sc"
  scale_param {
    bias_term: true
  }
}
layer {
  name: "relu6"
  type: "ReLU"
  bottom: "conv6_sc"
  top: "conv6_sc"
}
layer {
  name: "pool3"
  type: "Pooling"
  bottom: "conv6_sc"
  top: "pool3"
  pooling_param {
    pool: MAX
    kernel_size: 2
    stride: 2
  }
}
layer {
  name: "drop3"
  type: "Dropout"
  bottom: "pool3"
  top: "pool3"
  dropout_param {
    dropout_ratio: 0.25
  }
}
layer {
  name: "fc7"
  type: "BinaryInnerProduct"
  bottom: "pool3"
  top: "fc7"
  param {
    lr_mult: 1
    decay_mult: 1
  }
  inner_product_param {
    num_output: 512
    bias_term: false
    weight_filler {
      type: "gaussian"
      std: 0.01
    }
  }
  debug_param {
    xnorno_grad: false
    binary_relax: true
  }
}
layer {
  name: "bn7_bn"
  type: "BatchNorm"
  bottom: "fc7"
  top: "fc7_bn"
}
layer {
  name: "bn7_scal"
  type: "Scale"
  bottom: "fc7_bn"
  top: "fc7_sc"
  scale_param {
    bias_term: true
  }
}
layer {
  name: "relu7"
  type: "ReLU"
  bottom: "fc7_sc"
  top: "fc7_sc"
}
layer {
  name: "drop7"
  type: "Dropout"
  bottom: "fc7_sc"
  top: "fc7_sc"
  dropout_param {
    dropout_ratio: 0.5
  }
}
layer {
  name: "fc8"
  type: "BinaryInnerProduct"
  bottom: "fc7_sc"
  top: "fc8"
  param {
    lr_mult: 1
    decay_mult: 1
  }
  inner_product_param {
    num_output: 512
    bias_term: false
    weight_filler {
      type: "gaussian"
      std: 0.01
    }
  }
  debug_param {
    xnorno_grad: false
    binary_relax: true
  }
}
layer {
  name: "bn8_bn"
  type: "BatchNorm"
  bottom: "fc8"
  top: "fc8_bn"
}
layer {
  name: "bn8_scal"
  type: "Scale"
  bottom: "fc8_bn"
  top: "fc8_sc"
  scale_param {
    bias_term: true
  }
}
layer {
  name: "relu8"
  type: "ReLU"
  bottom: "fc8_sc"
  top: "fc8_sc"
}
layer {
  name: "drop8"
  type: "Dropout"
  bottom: "fc8_sc"
  top: "fc8_sc"
  dropout_param {
    dropout_ratio: 0.5
  }
}
layer {
  name: "fc9"
  type: "BinaryInnerProduct"
  bottom: "fc8_sc"
  top: "fc9"
  param {
    lr_mult: 1
    decay_mult: 1
  }
  param {
    lr_mult: 2
    decay_mult: 0
  }
  inner_product_param {
    num_output: 10
    weight_filler {
      type: "gaussian"
      std: 0.01
    }
    bias_filler {
      type: "constant"
      value: 0.01
    }
  }
  debug_param {
    xnorno_grad: false
    binary_relax: true
  }
}
layer {
  name: "loss"
  type: "SoftmaxWithLoss"
  bottom: "fc9"
  bottom: "label"
  top: "loss"
}
I0902 21:08:21.323566 27367 layer_factory.hpp:77] Creating layer cifar
I0902 21:08:21.323753 27367 db_lmdb.cpp:35] Opened lmdb examples/cifar10/cifar10_train_lmdb
I0902 21:08:21.323813 27367 net.cpp:84] Creating Layer cifar
I0902 21:08:21.323844 27367 net.cpp:380] cifar -> data
I0902 21:08:21.323992 27367 net.cpp:380] cifar -> label
I0902 21:08:21.324028 27367 data_transformer.cpp:25] Loading mean file from: examples/cifar10/mean.binaryproto
I0902 21:08:21.325255 27367 data_layer.cpp:45] output data size: 100,3,32,32
I0902 21:08:21.328002 27367 base_data_layer.cpp:72] Initializing prefetch
I0902 21:08:21.328217 27367 base_data_layer.cpp:75] Prefetch initialized.
I0902 21:08:21.328227 27367 net.cpp:122] Setting up cifar
I0902 21:08:21.328279 27367 net.cpp:129] Top shape: 100 3 32 32 (307200)
I0902 21:08:21.328289 27367 net.cpp:129] Top shape: 100 (100)
I0902 21:08:21.328292 27367 net.cpp:137] Memory required for data: 1229200
I0902 21:08:21.328336 27367 layer_factory.hpp:77] Creating layer conv1
I0902 21:08:21.328428 27367 net.cpp:84] Creating Layer conv1
I0902 21:08:21.328459 27367 net.cpp:406] conv1 <- data
I0902 21:08:21.328522 27367 net.cpp:380] conv1 -> conv1
I0902 21:08:21.329233 27367 net.cpp:122] Setting up conv1
I0902 21:08:21.329258 27367 net.cpp:129] Top shape: 100 64 32 32 (6553600)
I0902 21:08:21.329262 27367 net.cpp:137] Memory required for data: 27443600
I0902 21:08:21.329325 27367 layer_factory.hpp:77] Creating layer bn1_bn
I0902 21:08:21.329357 27367 net.cpp:84] Creating Layer bn1_bn
I0902 21:08:21.329375 27367 net.cpp:406] bn1_bn <- conv1
I0902 21:08:21.329390 27367 net.cpp:380] bn1_bn -> conv1_bn
I0902 21:08:21.330205 27367 net.cpp:122] Setting up bn1_bn
I0902 21:08:21.330224 27367 net.cpp:129] Top shape: 100 64 32 32 (6553600)
I0902 21:08:21.330229 27367 net.cpp:137] Memory required for data: 53658000
I0902 21:08:21.330266 27367 layer_factory.hpp:77] Creating layer bn1_scal
I0902 21:08:21.330291 27367 net.cpp:84] Creating Layer bn1_scal
I0902 21:08:21.330299 27367 net.cpp:406] bn1_scal <- conv1_bn
I0902 21:08:21.330318 27367 net.cpp:380] bn1_scal -> conv1_sc
I0902 21:08:21.330390 27367 layer_factory.hpp:77] Creating layer bn1_scal
I0902 21:08:21.330535 27367 net.cpp:122] Setting up bn1_scal
I0902 21:08:21.330549 27367 net.cpp:129] Top shape: 100 64 32 32 (6553600)
I0902 21:08:21.330554 27367 net.cpp:137] Memory required for data: 79872400
I0902 21:08:21.330575 27367 layer_factory.hpp:77] Creating layer relu1
I0902 21:08:21.330615 27367 net.cpp:84] Creating Layer relu1
I0902 21:08:21.330623 27367 net.cpp:406] relu1 <- conv1_sc
I0902 21:08:21.330638 27367 net.cpp:367] relu1 -> conv1_sc (in-place)
I0902 21:08:21.694006 27367 net.cpp:122] Setting up relu1
I0902 21:08:21.694041 27367 net.cpp:129] Top shape: 100 64 32 32 (6553600)
I0902 21:08:21.694046 27367 net.cpp:137] Memory required for data: 106086800
I0902 21:08:21.694062 27367 layer_factory.hpp:77] Creating layer conv2
I0902 21:08:21.694145 27367 net.cpp:84] Creating Layer conv2
I0902 21:08:21.694171 27367 net.cpp:406] conv2 <- conv1_sc
I0902 21:08:21.694234 27367 net.cpp:380] conv2 -> conv2
I0902 21:08:21.699560 27367 net.cpp:122] Setting up conv2
I0902 21:08:21.699576 27367 net.cpp:129] Top shape: 100 64 32 32 (6553600)
I0902 21:08:21.699580 27367 net.cpp:137] Memory required for data: 132301200
I0902 21:08:21.699594 27367 layer_factory.hpp:77] Creating layer bn2_bn
I0902 21:08:21.699617 27367 net.cpp:84] Creating Layer bn2_bn
I0902 21:08:21.699636 27367 net.cpp:406] bn2_bn <- conv2
I0902 21:08:21.699659 27367 net.cpp:380] bn2_bn -> conv2_bn
I0902 21:08:21.699890 27367 net.cpp:122] Setting up bn2_bn
I0902 21:08:21.699901 27367 net.cpp:129] Top shape: 100 64 32 32 (6553600)
I0902 21:08:21.699904 27367 net.cpp:137] Memory required for data: 158515600
I0902 21:08:21.699944 27367 layer_factory.hpp:77] Creating layer bn2_scal
I0902 21:08:21.699976 27367 net.cpp:84] Creating Layer bn2_scal
I0902 21:08:21.699996 27367 net.cpp:406] bn2_scal <- conv2_bn
I0902 21:08:21.700031 27367 net.cpp:380] bn2_scal -> conv2_sc
I0902 21:08:21.700105 27367 layer_factory.hpp:77] Creating layer bn2_scal
I0902 21:08:21.700268 27367 net.cpp:122] Setting up bn2_scal
I0902 21:08:21.700289 27367 net.cpp:129] Top shape: 100 64 32 32 (6553600)
I0902 21:08:21.700292 27367 net.cpp:137] Memory required for data: 184730000
I0902 21:08:21.700318 27367 layer_factory.hpp:77] Creating layer relu2
I0902 21:08:21.700354 27367 net.cpp:84] Creating Layer relu2
I0902 21:08:21.700371 27367 net.cpp:406] relu2 <- conv2_sc
I0902 21:08:21.700384 27367 net.cpp:367] relu2 -> conv2_sc (in-place)
I0902 21:08:21.700708 27367 net.cpp:122] Setting up relu2
I0902 21:08:21.700719 27367 net.cpp:129] Top shape: 100 64 32 32 (6553600)
I0902 21:08:21.700723 27367 net.cpp:137] Memory required for data: 210944400
I0902 21:08:21.700728 27367 layer_factory.hpp:77] Creating layer pool1
I0902 21:08:21.700750 27367 net.cpp:84] Creating Layer pool1
I0902 21:08:21.700759 27367 net.cpp:406] pool1 <- conv2_sc
I0902 21:08:21.700774 27367 net.cpp:380] pool1 -> pool1
I0902 21:08:21.700845 27367 net.cpp:122] Setting up pool1
I0902 21:08:21.700856 27367 net.cpp:129] Top shape: 100 64 16 16 (1638400)
I0902 21:08:21.700861 27367 net.cpp:137] Memory required for data: 217498000
I0902 21:08:21.700867 27367 layer_factory.hpp:77] Creating layer drop1
I0902 21:08:21.700886 27367 net.cpp:84] Creating Layer drop1
I0902 21:08:21.700893 27367 net.cpp:406] drop1 <- pool1
I0902 21:08:21.700908 27367 net.cpp:367] drop1 -> pool1 (in-place)
I0902 21:08:21.700945 27367 net.cpp:122] Setting up drop1
I0902 21:08:21.700954 27367 net.cpp:129] Top shape: 100 64 16 16 (1638400)
I0902 21:08:21.700958 27367 net.cpp:137] Memory required for data: 224051600
I0902 21:08:21.700964 27367 layer_factory.hpp:77] Creating layer conv3
I0902 21:08:21.700983 27367 net.cpp:84] Creating Layer conv3
I0902 21:08:21.700991 27367 net.cpp:406] conv3 <- pool1
I0902 21:08:21.701009 27367 net.cpp:380] conv3 -> conv3
I0902 21:08:21.711033 27367 net.cpp:122] Setting up conv3
I0902 21:08:21.711057 27367 net.cpp:129] Top shape: 100 128 16 16 (3276800)
I0902 21:08:21.711061 27367 net.cpp:137] Memory required for data: 237158800
I0902 21:08:21.711078 27367 layer_factory.hpp:77] Creating layer bn3_bn
I0902 21:08:21.711115 27367 net.cpp:84] Creating Layer bn3_bn
I0902 21:08:21.711127 27367 net.cpp:406] bn3_bn <- conv3
I0902 21:08:21.711154 27367 net.cpp:380] bn3_bn -> conv3_bn
I0902 21:08:21.711392 27367 net.cpp:122] Setting up bn3_bn
I0902 21:08:21.711412 27367 net.cpp:129] Top shape: 100 128 16 16 (3276800)
I0902 21:08:21.711416 27367 net.cpp:137] Memory required for data: 250266000
I0902 21:08:21.711444 27367 layer_factory.hpp:77] Creating layer bn3_scal
I0902 21:08:21.711462 27367 net.cpp:84] Creating Layer bn3_scal
I0902 21:08:21.711469 27367 net.cpp:406] bn3_scal <- conv3_bn
I0902 21:08:21.711491 27367 net.cpp:380] bn3_scal -> conv3_sc
I0902 21:08:21.711581 27367 layer_factory.hpp:77] Creating layer bn3_scal
I0902 21:08:21.711745 27367 net.cpp:122] Setting up bn3_scal
I0902 21:08:21.711766 27367 net.cpp:129] Top shape: 100 128 16 16 (3276800)
I0902 21:08:21.711769 27367 net.cpp:137] Memory required for data: 263373200
I0902 21:08:21.711802 27367 layer_factory.hpp:77] Creating layer relu3
I0902 21:08:21.711825 27367 net.cpp:84] Creating Layer relu3
I0902 21:08:21.711833 27367 net.cpp:406] relu3 <- conv3_sc
I0902 21:08:21.711853 27367 net.cpp:367] relu3 -> conv3_sc (in-place)
I0902 21:08:21.712354 27367 net.cpp:122] Setting up relu3
I0902 21:08:21.712365 27367 net.cpp:129] Top shape: 100 128 16 16 (3276800)
I0902 21:08:21.712369 27367 net.cpp:137] Memory required for data: 276480400
I0902 21:08:21.712375 27367 layer_factory.hpp:77] Creating layer conv4
I0902 21:08:21.712405 27367 net.cpp:84] Creating Layer conv4
I0902 21:08:21.712433 27367 net.cpp:406] conv4 <- conv3_sc
I0902 21:08:21.712451 27367 net.cpp:380] conv4 -> conv4
I0902 21:08:21.731364 27367 net.cpp:122] Setting up conv4
I0902 21:08:21.731387 27367 net.cpp:129] Top shape: 100 128 16 16 (3276800)
I0902 21:08:21.731405 27367 net.cpp:137] Memory required for data: 289587600
I0902 21:08:21.731431 27367 layer_factory.hpp:77] Creating layer bn4_bn
I0902 21:08:21.731468 27367 net.cpp:84] Creating Layer bn4_bn
I0902 21:08:21.731488 27367 net.cpp:406] bn4_bn <- conv4
I0902 21:08:21.731515 27367 net.cpp:380] bn4_bn -> conv4_bn
I0902 21:08:21.731727 27367 net.cpp:122] Setting up bn4_bn
I0902 21:08:21.731739 27367 net.cpp:129] Top shape: 100 128 16 16 (3276800)
I0902 21:08:21.731742 27367 net.cpp:137] Memory required for data: 302694800
I0902 21:08:21.731760 27367 layer_factory.hpp:77] Creating layer bn4_scal
I0902 21:08:21.731784 27367 net.cpp:84] Creating Layer bn4_scal
I0902 21:08:21.731811 27367 net.cpp:406] bn4_scal <- conv4_bn
I0902 21:08:21.731825 27367 net.cpp:380] bn4_scal -> conv4_sc
I0902 21:08:21.731915 27367 layer_factory.hpp:77] Creating layer bn4_scal
I0902 21:08:21.732069 27367 net.cpp:122] Setting up bn4_scal
I0902 21:08:21.732080 27367 net.cpp:129] Top shape: 100 128 16 16 (3276800)
I0902 21:08:21.732084 27367 net.cpp:137] Memory required for data: 315802000
I0902 21:08:21.732097 27367 layer_factory.hpp:77] Creating layer relu4
I0902 21:08:21.732117 27367 net.cpp:84] Creating Layer relu4
I0902 21:08:21.732125 27367 net.cpp:406] relu4 <- conv4_sc
I0902 21:08:21.732147 27367 net.cpp:367] relu4 -> conv4_sc (in-place)
I0902 21:08:21.732503 27367 net.cpp:122] Setting up relu4
I0902 21:08:21.732513 27367 net.cpp:129] Top shape: 100 128 16 16 (3276800)
I0902 21:08:21.732527 27367 net.cpp:137] Memory required for data: 328909200
I0902 21:08:21.732534 27367 layer_factory.hpp:77] Creating layer pool2
I0902 21:08:21.732553 27367 net.cpp:84] Creating Layer pool2
I0902 21:08:21.732569 27367 net.cpp:406] pool2 <- conv4_sc
I0902 21:08:21.732595 27367 net.cpp:380] pool2 -> pool2
I0902 21:08:21.732653 27367 net.cpp:122] Setting up pool2
I0902 21:08:21.732666 27367 net.cpp:129] Top shape: 100 128 8 8 (819200)
I0902 21:08:21.732669 27367 net.cpp:137] Memory required for data: 332186000
I0902 21:08:21.732676 27367 layer_factory.hpp:77] Creating layer drop2
I0902 21:08:21.732691 27367 net.cpp:84] Creating Layer drop2
I0902 21:08:21.732698 27367 net.cpp:406] drop2 <- pool2
I0902 21:08:21.732712 27367 net.cpp:367] drop2 -> pool2 (in-place)
I0902 21:08:21.732748 27367 net.cpp:122] Setting up drop2
I0902 21:08:21.732758 27367 net.cpp:129] Top shape: 100 128 8 8 (819200)
I0902 21:08:21.732762 27367 net.cpp:137] Memory required for data: 335462800
I0902 21:08:21.732767 27367 layer_factory.hpp:77] Creating layer conv5
I0902 21:08:21.732787 27367 net.cpp:84] Creating Layer conv5
I0902 21:08:21.732796 27367 net.cpp:406] conv5 <- pool2
I0902 21:08:21.732813 27367 net.cpp:380] conv5 -> conv5
I0902 21:08:21.770504 27367 net.cpp:122] Setting up conv5
I0902 21:08:21.770532 27367 net.cpp:129] Top shape: 100 256 8 8 (1638400)
I0902 21:08:21.770536 27367 net.cpp:137] Memory required for data: 342016400
I0902 21:08:21.770565 27367 layer_factory.hpp:77] Creating layer bn5_bn
I0902 21:08:21.770601 27367 net.cpp:84] Creating Layer bn5_bn
I0902 21:08:21.770612 27367 net.cpp:406] bn5_bn <- conv5
I0902 21:08:21.770642 27367 net.cpp:380] bn5_bn -> conv5_bn
I0902 21:08:21.770861 27367 net.cpp:122] Setting up bn5_bn
I0902 21:08:21.770872 27367 net.cpp:129] Top shape: 100 256 8 8 (1638400)
I0902 21:08:21.770886 27367 net.cpp:137] Memory required for data: 348570000
I0902 21:08:21.770905 27367 layer_factory.hpp:77] Creating layer bn5_scal
I0902 21:08:21.770922 27367 net.cpp:84] Creating Layer bn5_scal
I0902 21:08:21.770931 27367 net.cpp:406] bn5_scal <- conv5_bn
I0902 21:08:21.770944 27367 net.cpp:380] bn5_scal -> conv5_sc
I0902 21:08:21.771009 27367 layer_factory.hpp:77] Creating layer bn5_scal
I0902 21:08:21.771179 27367 net.cpp:122] Setting up bn5_scal
I0902 21:08:21.771190 27367 net.cpp:129] Top shape: 100 256 8 8 (1638400)
I0902 21:08:21.771204 27367 net.cpp:137] Memory required for data: 355123600
I0902 21:08:21.771217 27367 layer_factory.hpp:77] Creating layer relu5
I0902 21:08:21.771230 27367 net.cpp:84] Creating Layer relu5
I0902 21:08:21.771250 27367 net.cpp:406] relu5 <- conv5_sc
I0902 21:08:21.771273 27367 net.cpp:367] relu5 -> conv5_sc (in-place)
I0902 21:08:21.771800 27367 net.cpp:122] Setting up relu5
I0902 21:08:21.771811 27367 net.cpp:129] Top shape: 100 256 8 8 (1638400)
I0902 21:08:21.771826 27367 net.cpp:137] Memory required for data: 361677200
I0902 21:08:21.771832 27367 layer_factory.hpp:77] Creating layer conv6
I0902 21:08:21.771863 27367 net.cpp:84] Creating Layer conv6
I0902 21:08:21.771872 27367 net.cpp:406] conv6 <- conv5_sc
I0902 21:08:21.771893 27367 net.cpp:380] conv6 -> conv6
I0902 21:08:21.845679 27367 net.cpp:122] Setting up conv6
I0902 21:08:21.845715 27367 net.cpp:129] Top shape: 100 256 8 8 (1638400)
I0902 21:08:21.845719 27367 net.cpp:137] Memory required for data: 368230800
I0902 21:08:21.845752 27367 layer_factory.hpp:77] Creating layer bn6_bn
I0902 21:08:21.845793 27367 net.cpp:84] Creating Layer bn6_bn
I0902 21:08:21.845825 27367 net.cpp:406] bn6_bn <- conv6
I0902 21:08:21.845849 27367 net.cpp:380] bn6_bn -> conv6_bn
I0902 21:08:21.846101 27367 net.cpp:122] Setting up bn6_bn
I0902 21:08:21.846112 27367 net.cpp:129] Top shape: 100 256 8 8 (1638400)
I0902 21:08:21.846115 27367 net.cpp:137] Memory required for data: 374784400
I0902 21:08:21.846165 27367 layer_factory.hpp:77] Creating layer bn6_scal
I0902 21:08:21.846186 27367 net.cpp:84] Creating Layer bn6_scal
I0902 21:08:21.846194 27367 net.cpp:406] bn6_scal <- conv6_bn
I0902 21:08:21.846217 27367 net.cpp:380] bn6_scal -> conv6_sc
I0902 21:08:21.846321 27367 layer_factory.hpp:77] Creating layer bn6_scal
I0902 21:08:21.846509 27367 net.cpp:122] Setting up bn6_scal
I0902 21:08:21.846523 27367 net.cpp:129] Top shape: 100 256 8 8 (1638400)
I0902 21:08:21.846526 27367 net.cpp:137] Memory required for data: 381338000
I0902 21:08:21.846539 27367 layer_factory.hpp:77] Creating layer relu6
I0902 21:08:21.846560 27367 net.cpp:84] Creating Layer relu6
I0902 21:08:21.846568 27367 net.cpp:406] relu6 <- conv6_sc
I0902 21:08:21.846593 27367 net.cpp:367] relu6 -> conv6_sc (in-place)
I0902 21:08:21.847214 27367 net.cpp:122] Setting up relu6
I0902 21:08:21.847225 27367 net.cpp:129] Top shape: 100 256 8 8 (1638400)
I0902 21:08:21.847229 27367 net.cpp:137] Memory required for data: 387891600
I0902 21:08:21.847235 27367 layer_factory.hpp:77] Creating layer pool3
I0902 21:08:21.847255 27367 net.cpp:84] Creating Layer pool3
I0902 21:08:21.847265 27367 net.cpp:406] pool3 <- conv6_sc
I0902 21:08:21.847280 27367 net.cpp:380] pool3 -> pool3
I0902 21:08:21.847345 27367 net.cpp:122] Setting up pool3
I0902 21:08:21.847357 27367 net.cpp:129] Top shape: 100 256 4 4 (409600)
I0902 21:08:21.847360 27367 net.cpp:137] Memory required for data: 389530000
I0902 21:08:21.847365 27367 layer_factory.hpp:77] Creating layer drop3
I0902 21:08:21.847381 27367 net.cpp:84] Creating Layer drop3
I0902 21:08:21.847389 27367 net.cpp:406] drop3 <- pool3
I0902 21:08:21.847405 27367 net.cpp:367] drop3 -> pool3 (in-place)
I0902 21:08:21.847445 27367 net.cpp:122] Setting up drop3
I0902 21:08:21.847453 27367 net.cpp:129] Top shape: 100 256 4 4 (409600)
I0902 21:08:21.847456 27367 net.cpp:137] Memory required for data: 391168400
I0902 21:08:21.847461 27367 layer_factory.hpp:77] Creating layer fc7
I0902 21:08:21.847491 27367 net.cpp:84] Creating Layer fc7
I0902 21:08:21.847499 27367 net.cpp:406] fc7 <- pool3
I0902 21:08:21.847517 27367 net.cpp:380] fc7 -> fc7
I0902 21:08:22.105305 27367 net.cpp:122] Setting up fc7
I0902 21:08:22.105342 27367 net.cpp:129] Top shape: 100 512 (51200)
I0902 21:08:22.105357 27367 net.cpp:137] Memory required for data: 391373200
I0902 21:08:22.105384 27367 layer_factory.hpp:77] Creating layer bn7_bn
I0902 21:08:22.105464 27367 net.cpp:84] Creating Layer bn7_bn
I0902 21:08:22.105497 27367 net.cpp:406] bn7_bn <- fc7
I0902 21:08:22.105523 27367 net.cpp:380] bn7_bn -> fc7_bn
I0902 21:08:22.105815 27367 net.cpp:122] Setting up bn7_bn
I0902 21:08:22.105829 27367 net.cpp:129] Top shape: 100 512 (51200)
I0902 21:08:22.105832 27367 net.cpp:137] Memory required for data: 391578000
I0902 21:08:22.105880 27367 layer_factory.hpp:77] Creating layer bn7_scal
I0902 21:08:22.105911 27367 net.cpp:84] Creating Layer bn7_scal
I0902 21:08:22.105919 27367 net.cpp:406] bn7_scal <- fc7_bn
I0902 21:08:22.105935 27367 net.cpp:380] bn7_scal -> fc7_sc
I0902 21:08:22.106010 27367 layer_factory.hpp:77] Creating layer bn7_scal
I0902 21:08:22.106171 27367 net.cpp:122] Setting up bn7_scal
I0902 21:08:22.106184 27367 net.cpp:129] Top shape: 100 512 (51200)
I0902 21:08:22.106187 27367 net.cpp:137] Memory required for data: 391782800
I0902 21:08:22.106201 27367 layer_factory.hpp:77] Creating layer relu7
I0902 21:08:22.106215 27367 net.cpp:84] Creating Layer relu7
I0902 21:08:22.106223 27367 net.cpp:406] relu7 <- fc7_sc
I0902 21:08:22.106238 27367 net.cpp:367] relu7 -> fc7_sc (in-place)
I0902 21:08:22.106662 27367 net.cpp:122] Setting up relu7
I0902 21:08:22.106673 27367 net.cpp:129] Top shape: 100 512 (51200)
I0902 21:08:22.106678 27367 net.cpp:137] Memory required for data: 391987600
I0902 21:08:22.106683 27367 layer_factory.hpp:77] Creating layer drop7
I0902 21:08:22.106699 27367 net.cpp:84] Creating Layer drop7
I0902 21:08:22.106707 27367 net.cpp:406] drop7 <- fc7_sc
I0902 21:08:22.106724 27367 net.cpp:367] drop7 -> fc7_sc (in-place)
I0902 21:08:22.106763 27367 net.cpp:122] Setting up drop7
I0902 21:08:22.106773 27367 net.cpp:129] Top shape: 100 512 (51200)
I0902 21:08:22.106777 27367 net.cpp:137] Memory required for data: 392192400
I0902 21:08:22.106783 27367 layer_factory.hpp:77] Creating layer fc8
I0902 21:08:22.106817 27367 net.cpp:84] Creating Layer fc8
I0902 21:08:22.106833 27367 net.cpp:406] fc8 <- fc7_sc
I0902 21:08:22.106853 27367 net.cpp:380] fc8 -> fc8
I0902 21:08:22.140251 27367 net.cpp:122] Setting up fc8
I0902 21:08:22.140272 27367 net.cpp:129] Top shape: 100 512 (51200)
I0902 21:08:22.140285 27367 net.cpp:137] Memory required for data: 392397200
I0902 21:08:22.140302 27367 layer_factory.hpp:77] Creating layer bn8_bn
I0902 21:08:22.140323 27367 net.cpp:84] Creating Layer bn8_bn
I0902 21:08:22.140341 27367 net.cpp:406] bn8_bn <- fc8
I0902 21:08:22.140359 27367 net.cpp:380] bn8_bn -> fc8_bn
I0902 21:08:22.140599 27367 net.cpp:122] Setting up bn8_bn
I0902 21:08:22.140610 27367 net.cpp:129] Top shape: 100 512 (51200)
I0902 21:08:22.140615 27367 net.cpp:137] Memory required for data: 392602000
I0902 21:08:22.140643 27367 layer_factory.hpp:77] Creating layer bn8_scal
I0902 21:08:22.140662 27367 net.cpp:84] Creating Layer bn8_scal
I0902 21:08:22.140679 27367 net.cpp:406] bn8_scal <- fc8_bn
I0902 21:08:22.140707 27367 net.cpp:380] bn8_scal -> fc8_sc
I0902 21:08:22.140805 27367 layer_factory.hpp:77] Creating layer bn8_scal
I0902 21:08:22.141006 27367 net.cpp:122] Setting up bn8_scal
I0902 21:08:22.141017 27367 net.cpp:129] Top shape: 100 512 (51200)
I0902 21:08:22.141031 27367 net.cpp:137] Memory required for data: 392806800
I0902 21:08:22.141054 27367 layer_factory.hpp:77] Creating layer relu8
I0902 21:08:22.141078 27367 net.cpp:84] Creating Layer relu8
I0902 21:08:22.141088 27367 net.cpp:406] relu8 <- fc8_sc
I0902 21:08:22.141103 27367 net.cpp:367] relu8 -> fc8_sc (in-place)
I0902 21:08:22.141683 27367 net.cpp:122] Setting up relu8
I0902 21:08:22.141696 27367 net.cpp:129] Top shape: 100 512 (51200)
I0902 21:08:22.141701 27367 net.cpp:137] Memory required for data: 393011600
I0902 21:08:22.141707 27367 layer_factory.hpp:77] Creating layer drop8
I0902 21:08:22.141723 27367 net.cpp:84] Creating Layer drop8
I0902 21:08:22.141731 27367 net.cpp:406] drop8 <- fc8_sc
I0902 21:08:22.141747 27367 net.cpp:367] drop8 -> fc8_sc (in-place)
I0902 21:08:22.141788 27367 net.cpp:122] Setting up drop8
I0902 21:08:22.141798 27367 net.cpp:129] Top shape: 100 512 (51200)
I0902 21:08:22.141801 27367 net.cpp:137] Memory required for data: 393216400
I0902 21:08:22.141808 27367 layer_factory.hpp:77] Creating layer fc9
I0902 21:08:22.141829 27367 net.cpp:84] Creating Layer fc9
I0902 21:08:22.141836 27367 net.cpp:406] fc9 <- fc8_sc
I0902 21:08:22.141856 27367 net.cpp:380] fc9 -> fc9
I0902 21:08:22.143147 27367 net.cpp:122] Setting up fc9
I0902 21:08:22.143172 27367 net.cpp:129] Top shape: 100 10 (1000)
I0902 21:08:22.143177 27367 net.cpp:137] Memory required for data: 393220400
I0902 21:08:22.143191 27367 layer_factory.hpp:77] Creating layer loss
I0902 21:08:22.143213 27367 net.cpp:84] Creating Layer loss
I0902 21:08:22.143221 27367 net.cpp:406] loss <- fc9
I0902 21:08:22.143234 27367 net.cpp:406] loss <- label
I0902 21:08:22.143249 27367 net.cpp:380] loss -> loss
I0902 21:08:22.143270 27367 layer_factory.hpp:77] Creating layer loss
…
I0902 21:08:22.222913 27367 net.cpp:294] The NetState phase (1) differed from the phase (0) specified by a rule in layer cifar
I0902 21:08:22.223157 27367 net.cpp:51] Initializing net from parameters: 
name: "CIFAR10_vgg"
state {
  phase: TEST
}
layer {
  name: "cifar"
  type: "Data"
  top: "data"
  top: "label"
  include {
    phase: TEST
  }
  transform_param {
    mirror: false
    crop_size: 32
    mean_file: "examples/cifar10/mean.binaryproto"
  }
  data_param {
    source: "examples/cifar10/cifar10_test_lmdb"
    batch_size: 100
    backend: LMDB
  }
}
layer {
  name: "conv1"
  type: "BinaryConvolution"
  bottom: "data"
  top: "conv1"
  param {
    lr_mult: 1
    decay_mult: 1
  }
  convolution_param {
    num_output: 64
    bias_term: false
    pad: 1
    kernel_size: 3
    stride: 1
    weight_filler {
      type: "gaussian"
      std: 0.01
    }
  }
  debug_param {
    xnorno_grad: false
    binary_relax: true
  }
}
layer {
  name: "bn1_bn"
  type: "BatchNorm"
  bottom: "conv1"
  top: "conv1_bn"
}
layer {
  name: "bn1_scal"
  type: "Scale"
  bottom: "conv1_bn"
  top: "conv1_sc"
  scale_param {
    bias_term: true
  }
}
layer {
  name: "relu1"
  type: "ReLU"
  bottom: "conv1_sc"
  top: "conv1_sc"
}
layer {
  name: "conv2"
  type: "BinaryConvolution"
  bottom: "conv1_sc"
  top: "conv2"
  param {
    lr_mult: 1
    decay_mult: 1
  }
  convolution_param {
    num_output: 64
    bias_term: false
    pad: 1
    kernel_size: 3
    stride: 1
    weight_filler {
      type: "gaussian"
      std: 0.01
    }
  }
  debug_param {
    xnorno_grad: false
    binary_relax: true
  }
}
layer {
  name: "bn2_bn"
  type: "BatchNorm"
  bottom: "conv2"
  top: "conv2_bn"
}
layer {
  name: "bn2_scal"
  type: "Scale"
  bottom: "conv2_bn"
  top: "conv2_sc"
  scale_param {
    bias_term: true
  }
}
layer {
  name: "relu2"
  type: "ReLU"
  bottom: "conv2_sc"
  top: "conv2_sc"
}
layer {
  name: "pool1"
  type: "Pooling"
  bottom: "conv2_sc"
  top: "pool1"
  pooling_param {
    pool: MAX
    kernel_size: 2
    stride: 2
  }
}
layer {
  name: "drop1"
  type: "Dropout"
  bottom: "pool1"
  top: "pool1"
  dropout_param {
    dropout_ratio: 0.25
  }
}
layer {
  name: "conv3"
  type: "BinaryConvolution"
  bottom: "pool1"
  top: "conv3"
  param {
    lr_mult: 1
    decay_mult: 1
  }
  convolution_param {
    num_output: 128
    bias_term: false
    pad: 1
    kernel_size: 3
    stride: 1
    weight_filler {
      type: "gaussian"
      std: 0.01
    }
  }
  debug_param {
    xnorno_grad: false
    binary_relax: true
  }
}
layer {
  name: "bn3_bn"
  type: "BatchNorm"
  bottom: "conv3"
  top: "conv3_bn"
}
layer {
  name: "bn3_scal"
  type: "Scale"
  bottom: "conv3_bn"
  top: "conv3_sc"
  scale_param {
    bias_term: true
  }
}
layer {
  name: "relu3"
  type: "ReLU"
  bottom: "conv3_sc"
  top: "conv3_sc"
}
layer {
  name: "conv4"
  type: "BinaryConvolution"
  bottom: "conv3_sc"
  top: "conv4"
  param {
    lr_mult: 1
    decay_mult: 1
  }
  convolution_param {
    num_output: 128
    bias_term: false
    pad: 1
    kernel_size: 3
    stride: 1
    weight_filler {
      type: "gaussian"
      std: 0.01
    }
  }
  debug_param {
    xnorno_grad: false
    binary_relax: true
  }
}
layer {
  name: "bn4_bn"
  type: "BatchNorm"
  bottom: "conv4"
  top: "conv4_bn"
}
layer {
  name: "bn4_scal"
  type: "Scale"
  bottom: "conv4_bn"
  top: "conv4_sc"
  scale_param {
    bias_term: true
  }
}
layer {
  name: "relu4"
  type: "ReLU"
  bottom: "conv4_sc"
  top: "conv4_sc"
}
layer {
  name: "pool2"
  type: "Pooling"
  bottom: "conv4_sc"
  top: "pool2"
  pooling_param {
    pool: MAX
    kernel_size: 2
    stride: 2
  }
}
layer {
  name: "drop2"
  type: "Dropout"
  bottom: "pool2"
  top: "pool2"
  dropout_param {
    dropout_ratio: 0.25
  }
}
layer {
  name: "conv5"
  type: "BinaryConvolution"
  bottom: "pool2"
  top: "conv5"
  param {
    lr_mult: 1
    decay_mult: 1
  }
  convolution_param {
    num_output: 256
    bias_term: false
    pad: 1
    kernel_size: 3
    stride: 1
    weight_filler {
      type: "gaussian"
      std: 0.01
    }
  }
  debug_param {
    xnorno_grad: false
    binary_relax: true
  }
}
layer {
  name: "bn5_bn"
  type: "BatchNorm"
  bottom: "conv5"
  top: "conv5_bn"
}
layer {
  name: "bn5_scal"
  type: "Scale"
  bottom: "conv5_bn"
  top: "conv5_sc"
  scale_param {
    bias_term: true
  }
}
layer {
  name: "relu5"
  type: "ReLU"
  bottom: "conv5_sc"
  top: "conv5_sc"
}
layer {
  name: "conv6"
  type: "BinaryConvolution"
  bottom: "conv5_sc"
  top: "conv6"
  param {
    lr_mult: 1
    decay_mult: 1
  }
  convolution_param {
    num_output: 256
    bias_term: false
    pad: 1
    kernel_size: 3
    stride: 1
    weight_filler {
      type: "gaussian"
      std: 0.01
    }
  }
  debug_param {
    xnorno_grad: false
    binary_relax: true
  }
}
layer {
  name: "bn6_bn"
  type: "BatchNorm"
  bottom: "conv6"
  top: "conv6_bn"
}
layer {
  name: "bn6_scal"
  type: "Scale"
  bottom: "conv6_bn"
  top: "conv6_sc"
  scale_param {
    bias_term: true
  }
}
layer {
  name: "relu6"
  type: "ReLU"
  bottom: "conv6_sc"
  top: "conv6_sc"
}
layer {
  name: "pool3"
  type: "Pooling"
  bottom: "conv6_sc"
  top: "pool3"
  pooling_param {
    pool: MAX
    kernel_size: 2
    stride: 2
  }
}
layer {
  name: "drop3"
  type: "Dropout"
  bottom: "pool3"
  top: "pool3"
  dropout_param {
    dropout_ratio: 0.25
  }
}
layer {
  name: "fc7"
  type: "BinaryInnerProduct"
  bottom: "pool3"
  top: "fc7"
  param {
    lr_mult: 1
    decay_mult: 1
  }
  inner_product_param {
    num_output: 512
    bias_term: false
    weight_filler {
      type: "gaussian"
      std: 0.01
    }
  }
  debug_param {
    xnorno_grad: false
    binary_relax: true
  }
}
layer {
  name: "bn7_bn"
  type: "BatchNorm"
  bottom: "fc7"
  top: "fc7_bn"
}
layer {
  name: "bn7_scal"
  type: "Scale"
  bottom: "fc7_bn"
  top: "fc7_sc"
  scale_param {
    bias_term: true
  }
}
layer {
  name: "relu7"
  type: "ReLU"
  bottom: "fc7_sc"
  top: "fc7_sc"
}
layer {
  name: "drop7"
  type: "Dropout"
  bottom: "fc7_sc"
  top: "fc7_sc"
  dropout_param {
    dropout_ratio: 0.5
  }
}
layer {
  name: "fc8"
  type: "BinaryInnerProduct"
  bottom: "fc7_sc"
  top: "fc8"
  param {
    lr_mult: 1
    decay_mult: 1
  }
  inner_product_param {
    num_output: 512
    bias_term: false
    weight_filler {
      type: "gaussian"
      std: 0.01
    }
  }
  debug_param {
    xnorno_grad: false
    binary_relax: true
  }
}
layer {
  name: "bn8_bn"
  type: "BatchNorm"
  bottom: "fc8"
  top: "fc8_bn"
}
layer {
  name: "bn8_scal"
  type: "Scale"
  bottom: "fc8_bn"
  top: "fc8_sc"
  scale_param {
    bias_term: true
  }
}
layer {
  name: "relu8"
  type: "ReLU"
  bottom: "fc8_sc"
  top: "fc8_sc"
}
layer {
  name: "drop8"
  type: "Dropout"
  bottom: "fc8_sc"
  top: "fc8_sc"
  dropout_param {
    dropout_ratio: 0.5
  }
}
layer {
  name: "fc9"
  type: "BinaryInnerProduct"
  bottom: "fc8_sc"
  top: "fc9"
  param {
    lr_mult: 1
    decay_mult: 1
  }
  param {
    lr_mult: 2
    decay_mult: 0
  }
  inner_product_param {
    num_output: 10
    weight_filler {
      type: "gaussian"
      std: 0.01
    }
    bias_filler {
      type: "constant"
      value: 0.01
    }
  }
  debug_param {
    xnorno_grad: false
    binary_relax: true
  }
}
layer {
  name: "accuracy"
  type: "Accuracy"
  bottom: "fc9"
  bottom: "label"
  top: "accuracy"
  include {
    phase: TEST
  }
}
layer {
  name: "loss"
  type: "SoftmaxWithLoss"
  bottom: "fc9"
  bottom: "label"
  top: "loss"
}
I0902 21:08:22.223703 27367 layer_factory.hpp:77] Creating layer cifar
I0902 21:08:22.223811 27367 db_lmdb.cpp:35] Opened lmdb examples/cifar10/cifar10_test_lmdb
I0902 21:08:22.223843 27367 net.cpp:84] Creating Layer cifar
I0902 21:08:22.223856 27367 net.cpp:380] cifar -> data
I0902 21:08:22.223894 27367 net.cpp:380] cifar -> label
I0902 21:08:22.223917 27367 data_transformer.cpp:25] Loading mean file from: examples/cifar10/mean.binaryproto
I0902 21:08:22.224210 27367 data_layer.cpp:45] output data size: 100,3,32,32
I0902 21:08:22.227617 27367 base_data_layer.cpp:72] Initializing prefetch
I0902 21:08:22.227699 27367 base_data_layer.cpp:75] Prefetch initialized.
I0902 21:08:22.227706 27367 net.cpp:122] Setting up cifar
I0902 21:08:22.227726 27367 net.cpp:129] Top shape: 100 3 32 32 (307200)
I0902 21:08:22.227732 27367 net.cpp:129] Top shape: 100 (100)
I0902 21:08:22.227736 27367 net.cpp:137] Memory required for data: 1229200
I0902 21:08:22.227757 27367 layer_factory.hpp:77] Creating layer label_cifar_1_split
I0902 21:08:22.227784 27367 net.cpp:84] Creating Layer label_cifar_1_split
I0902 21:08:22.227793 27367 net.cpp:406] label_cifar_1_split <- label
I0902 21:08:22.227811 27367 net.cpp:380] label_cifar_1_split -> label_cifar_1_split_0
I0902 21:08:22.227865 27367 net.cpp:380] label_cifar_1_split -> label_cifar_1_split_1
I0902 21:08:22.227939 27367 net.cpp:122] Setting up label_cifar_1_split
I0902 21:08:22.227962 27367 net.cpp:129] Top shape: 100 (100)
I0902 21:08:22.227967 27367 net.cpp:129] Top shape: 100 (100)
I0902 21:08:22.227972 27367 net.cpp:137] Memory required for data: 1230000
I0902 21:08:22.227977 27367 layer_factory.hpp:77] Creating layer conv1
I0902 21:08:22.228013 27367 net.cpp:84] Creating Layer conv1
I0902 21:08:22.228030 27367 net.cpp:406] conv1 <- data
I0902 21:08:22.228049 27367 net.cpp:380] conv1 -> conv1
I0902 21:08:22.228698 27367 net.cpp:122] Setting up conv1
I0902 21:08:22.228711 27367 net.cpp:129] Top shape: 100 64 32 32 (6553600)
I0902 21:08:22.228716 27367 net.cpp:137] Memory required for data: 27444400
I0902 21:08:22.228737 27367 layer_factory.hpp:77] Creating layer bn1_bn
I0902 21:08:22.228754 27367 net.cpp:84] Creating Layer bn1_bn
I0902 21:08:22.228762 27367 net.cpp:406] bn1_bn <- conv1
I0902 21:08:22.228776 27367 net.cpp:380] bn1_bn -> conv1_bn
I0902 21:08:22.229045 27367 net.cpp:122] Setting up bn1_bn
I0902 21:08:22.229058 27367 net.cpp:129] Top shape: 100 64 32 32 (6553600)
I0902 21:08:22.229063 27367 net.cpp:137] Memory required for data: 53658800
I0902 21:08:22.229092 27367 layer_factory.hpp:77] Creating layer bn1_scal
I0902 21:08:22.229113 27367 net.cpp:84] Creating Layer bn1_scal
I0902 21:08:22.229121 27367 net.cpp:406] bn1_scal <- conv1_bn
I0902 21:08:22.229136 27367 net.cpp:380] bn1_scal -> conv1_sc
I0902 21:08:22.229204 27367 layer_factory.hpp:77] Creating layer bn1_scal
I0902 21:08:22.229368 27367 net.cpp:122] Setting up bn1_scal
I0902 21:08:22.229382 27367 net.cpp:129] Top shape: 100 64 32 32 (6553600)
I0902 21:08:22.229385 27367 net.cpp:137] Memory required for data: 79873200
I0902 21:08:22.229405 27367 layer_factory.hpp:77] Creating layer relu1
I0902 21:08:22.229421 27367 net.cpp:84] Creating Layer relu1
I0902 21:08:22.229429 27367 net.cpp:406] relu1 <- conv1_sc
I0902 21:08:22.229442 27367 net.cpp:367] relu1 -> conv1_sc (in-place)
I0902 21:08:22.229918 27367 net.cpp:122] Setting up relu1
I0902 21:08:22.229929 27367 net.cpp:129] Top shape: 100 64 32 32 (6553600)
I0902 21:08:22.229934 27367 net.cpp:137] Memory required for data: 106087600
I0902 21:08:22.229940 27367 layer_factory.hpp:77] Creating layer conv2
I0902 21:08:22.229959 27367 net.cpp:84] Creating Layer conv2
I0902 21:08:22.229969 27367 net.cpp:406] conv2 <- conv1_sc
I0902 21:08:22.229988 27367 net.cpp:380] conv2 -> conv2
I0902 21:08:22.235175 27367 net.cpp:122] Setting up conv2
I0902 21:08:22.235191 27367 net.cpp:129] Top shape: 100 64 32 32 (6553600)
I0902 21:08:22.235196 27367 net.cpp:137] Memory required for data: 132302000
I0902 21:08:22.235209 27367 layer_factory.hpp:77] Creating layer bn2_bn
I0902 21:08:22.235225 27367 net.cpp:84] Creating Layer bn2_bn
I0902 21:08:22.235234 27367 net.cpp:406] bn2_bn <- conv2
I0902 21:08:22.235249 27367 net.cpp:380] bn2_bn -> conv2_bn
I0902 21:08:22.235492 27367 net.cpp:122] Setting up bn2_bn
I0902 21:08:22.235505 27367 net.cpp:129] Top shape: 100 64 32 32 (6553600)
I0902 21:08:22.235509 27367 net.cpp:137] Memory required for data: 158516400
I0902 21:08:22.235536 27367 layer_factory.hpp:77] Creating layer bn2_scal
I0902 21:08:22.235556 27367 net.cpp:84] Creating Layer bn2_scal
I0902 21:08:22.235564 27367 net.cpp:406] bn2_scal <- conv2_bn
I0902 21:08:22.235579 27367 net.cpp:380] bn2_scal -> conv2_sc
I0902 21:08:22.235644 27367 layer_factory.hpp:77] Creating layer bn2_scal
I0902 21:08:22.235802 27367 net.cpp:122] Setting up bn2_scal
I0902 21:08:22.235815 27367 net.cpp:129] Top shape: 100 64 32 32 (6553600)
I0902 21:08:22.235819 27367 net.cpp:137] Memory required for data: 184730800
I0902 21:08:22.235832 27367 layer_factory.hpp:77] Creating layer relu2
I0902 21:08:22.235844 27367 net.cpp:84] Creating Layer relu2
I0902 21:08:22.235852 27367 net.cpp:406] relu2 <- conv2_sc
I0902 21:08:22.235865 27367 net.cpp:367] relu2 -> conv2_sc (in-place)
I0902 21:08:22.236380 27367 net.cpp:122] Setting up relu2
I0902 21:08:22.236393 27367 net.cpp:129] Top shape: 100 64 32 32 (6553600)
I0902 21:08:22.236397 27367 net.cpp:137] Memory required for data: 210945200
I0902 21:08:22.236403 27367 layer_factory.hpp:77] Creating layer pool1
I0902 21:08:22.236421 27367 net.cpp:84] Creating Layer pool1
I0902 21:08:22.236429 27367 net.cpp:406] pool1 <- conv2_sc
I0902 21:08:22.236446 27367 net.cpp:380] pool1 -> pool1
I0902 21:08:22.236519 27367 net.cpp:122] Setting up pool1
I0902 21:08:22.236531 27367 net.cpp:129] Top shape: 100 64 16 16 (1638400)
I0902 21:08:22.236544 27367 net.cpp:137] Memory required for data: 217498800
I0902 21:08:22.236552 27367 layer_factory.hpp:77] Creating layer drop1
I0902 21:08:22.236565 27367 net.cpp:84] Creating Layer drop1
I0902 21:08:22.236573 27367 net.cpp:406] drop1 <- pool1
I0902 21:08:22.236588 27367 net.cpp:367] drop1 -> pool1 (in-place)
I0902 21:08:22.236625 27367 net.cpp:122] Setting up drop1
I0902 21:08:22.236635 27367 net.cpp:129] Top shape: 100 64 16 16 (1638400)
I0902 21:08:22.236640 27367 net.cpp:137] Memory required for data: 224052400
I0902 21:08:22.236645 27367 layer_factory.hpp:77] Creating layer conv3
I0902 21:08:22.236665 27367 net.cpp:84] Creating Layer conv3
I0902 21:08:22.236673 27367 net.cpp:406] conv3 <- pool1
I0902 21:08:22.236698 27367 net.cpp:380] conv3 -> conv3
I0902 21:08:22.246929 27367 net.cpp:122] Setting up conv3
I0902 21:08:22.246948 27367 net.cpp:129] Top shape: 100 128 16 16 (3276800)
I0902 21:08:22.246953 27367 net.cpp:137] Memory required for data: 237159600
I0902 21:08:22.246975 27367 layer_factory.hpp:77] Creating layer bn3_bn
I0902 21:08:22.246994 27367 net.cpp:84] Creating Layer bn3_bn
I0902 21:08:22.247004 27367 net.cpp:406] bn3_bn <- conv3
I0902 21:08:22.247020 27367 net.cpp:380] bn3_bn -> conv3_bn
I0902 21:08:22.247263 27367 net.cpp:122] Setting up bn3_bn
I0902 21:08:22.247275 27367 net.cpp:129] Top shape: 100 128 16 16 (3276800)
I0902 21:08:22.247289 27367 net.cpp:137] Memory required for data: 250266800
I0902 21:08:22.247309 27367 layer_factory.hpp:77] Creating layer bn3_scal
I0902 21:08:22.247325 27367 net.cpp:84] Creating Layer bn3_scal
I0902 21:08:22.247334 27367 net.cpp:406] bn3_scal <- conv3_bn
I0902 21:08:22.247349 27367 net.cpp:380] bn3_scal -> conv3_sc
I0902 21:08:22.247418 27367 layer_factory.hpp:77] Creating layer bn3_scal
I0902 21:08:22.247570 27367 net.cpp:122] Setting up bn3_scal
I0902 21:08:22.247581 27367 net.cpp:129] Top shape: 100 128 16 16 (3276800)
I0902 21:08:22.247586 27367 net.cpp:137] Memory required for data: 263374000
I0902 21:08:22.247609 27367 layer_factory.hpp:77] Creating layer relu3
I0902 21:08:22.247623 27367 net.cpp:84] Creating Layer relu3
I0902 21:08:22.247632 27367 net.cpp:406] relu3 <- conv3_sc
I0902 21:08:22.247644 27367 net.cpp:367] relu3 -> conv3_sc (in-place)
I0902 21:08:22.247992 27367 net.cpp:122] Setting up relu3
I0902 21:08:22.248003 27367 net.cpp:129] Top shape: 100 128 16 16 (3276800)
I0902 21:08:22.248008 27367 net.cpp:137] Memory required for data: 276481200
I0902 21:08:22.248014 27367 layer_factory.hpp:77] Creating layer conv4
I0902 21:08:22.248039 27367 net.cpp:84] Creating Layer conv4
I0902 21:08:22.248049 27367 net.cpp:406] conv4 <- conv3_sc
I0902 21:08:22.248067 27367 net.cpp:380] conv4 -> conv4
I0902 21:08:22.267006 27367 net.cpp:122] Setting up conv4
I0902 21:08:22.267019 27367 net.cpp:129] Top shape: 100 128 16 16 (3276800)
I0902 21:08:22.267033 27367 net.cpp:137] Memory required for data: 289588400
I0902 21:08:22.267045 27367 layer_factory.hpp:77] Creating layer bn4_bn
I0902 21:08:22.267058 27367 net.cpp:84] Creating Layer bn4_bn
I0902 21:08:22.267066 27367 net.cpp:406] bn4_bn <- conv4
I0902 21:08:22.267081 27367 net.cpp:380] bn4_bn -> conv4_bn
I0902 21:08:22.267309 27367 net.cpp:122] Setting up bn4_bn
I0902 21:08:22.267320 27367 net.cpp:129] Top shape: 100 128 16 16 (3276800)
I0902 21:08:22.267325 27367 net.cpp:137] Memory required for data: 302695600
I0902 21:08:22.267344 27367 layer_factory.hpp:77] Creating layer bn4_scal
I0902 21:08:22.267359 27367 net.cpp:84] Creating Layer bn4_scal
I0902 21:08:22.267380 27367 net.cpp:406] bn4_scal <- conv4_bn
I0902 21:08:22.267397 27367 net.cpp:380] bn4_scal -> conv4_sc
I0902 21:08:22.267467 27367 layer_factory.hpp:77] Creating layer bn4_scal
I0902 21:08:22.267621 27367 net.cpp:122] Setting up bn4_scal
I0902 21:08:22.267632 27367 net.cpp:129] Top shape: 100 128 16 16 (3276800)
I0902 21:08:22.267637 27367 net.cpp:137] Memory required for data: 315802800
I0902 21:08:22.267650 27367 layer_factory.hpp:77] Creating layer relu4
I0902 21:08:22.267663 27367 net.cpp:84] Creating Layer relu4
I0902 21:08:22.267670 27367 net.cpp:406] relu4 <- conv4_sc
I0902 21:08:22.267684 27367 net.cpp:367] relu4 -> conv4_sc (in-place)
I0902 21:08:22.268229 27367 net.cpp:122] Setting up relu4
I0902 21:08:22.268246 27367 net.cpp:129] Top shape: 100 128 16 16 (3276800)
I0902 21:08:22.268254 27367 net.cpp:137] Memory required for data: 328910000
I0902 21:08:22.268263 27367 layer_factory.hpp:77] Creating layer pool2
I0902 21:08:22.268287 27367 net.cpp:84] Creating Layer pool2
I0902 21:08:22.268301 27367 net.cpp:406] pool2 <- conv4_sc
I0902 21:08:22.268324 27367 net.cpp:380] pool2 -> pool2
I0902 21:08:22.268390 27367 net.cpp:122] Setting up pool2
I0902 21:08:22.268402 27367 net.cpp:129] Top shape: 100 128 8 8 (819200)
I0902 21:08:22.268406 27367 net.cpp:137] Memory required for data: 332186800
I0902 21:08:22.268412 27367 layer_factory.hpp:77] Creating layer drop2
I0902 21:08:22.268426 27367 net.cpp:84] Creating Layer drop2
I0902 21:08:22.268435 27367 net.cpp:406] drop2 <- pool2
I0902 21:08:22.268450 27367 net.cpp:367] drop2 -> pool2 (in-place)
I0902 21:08:22.268487 27367 net.cpp:122] Setting up drop2
I0902 21:08:22.268496 27367 net.cpp:129] Top shape: 100 128 8 8 (819200)
I0902 21:08:22.268501 27367 net.cpp:137] Memory required for data: 335463600
I0902 21:08:22.268507 27367 layer_factory.hpp:77] Creating layer conv5
I0902 21:08:22.268525 27367 net.cpp:84] Creating Layer conv5
I0902 21:08:22.268533 27367 net.cpp:406] conv5 <- pool2
I0902 21:08:22.268553 27367 net.cpp:380] conv5 -> conv5
I0902 21:08:22.306684 27367 net.cpp:122] Setting up conv5
I0902 21:08:22.306713 27367 net.cpp:129] Top shape: 100 256 8 8 (1638400)
I0902 21:08:22.306721 27367 net.cpp:137] Memory required for data: 342017200
I0902 21:08:22.306747 27367 layer_factory.hpp:77] Creating layer bn5_bn
I0902 21:08:22.306773 27367 net.cpp:84] Creating Layer bn5_bn
I0902 21:08:22.306784 27367 net.cpp:406] bn5_bn <- conv5
I0902 21:08:22.306804 27367 net.cpp:380] bn5_bn -> conv5_bn
I0902 21:08:22.307050 27367 net.cpp:122] Setting up bn5_bn
I0902 21:08:22.307062 27367 net.cpp:129] Top shape: 100 256 8 8 (1638400)
I0902 21:08:22.307067 27367 net.cpp:137] Memory required for data: 348570800
I0902 21:08:22.307086 27367 layer_factory.hpp:77] Creating layer bn5_scal
I0902 21:08:22.307104 27367 net.cpp:84] Creating Layer bn5_scal
I0902 21:08:22.307111 27367 net.cpp:406] bn5_scal <- conv5_bn
I0902 21:08:22.307127 27367 net.cpp:380] bn5_scal -> conv5_sc
I0902 21:08:22.307199 27367 layer_factory.hpp:77] Creating layer bn5_scal
I0902 21:08:22.307355 27367 net.cpp:122] Setting up bn5_scal
I0902 21:08:22.307368 27367 net.cpp:129] Top shape: 100 256 8 8 (1638400)
I0902 21:08:22.307373 27367 net.cpp:137] Memory required for data: 355124400
I0902 21:08:22.307385 27367 layer_factory.hpp:77] Creating layer relu5
I0902 21:08:22.307399 27367 net.cpp:84] Creating Layer relu5
I0902 21:08:22.307406 27367 net.cpp:406] relu5 <- conv5_sc
I0902 21:08:22.307420 27367 net.cpp:367] relu5 -> conv5_sc (in-place)
I0902 21:08:22.307780 27367 net.cpp:122] Setting up relu5
I0902 21:08:22.307791 27367 net.cpp:129] Top shape: 100 256 8 8 (1638400)
I0902 21:08:22.307796 27367 net.cpp:137] Memory required for data: 361678000
I0902 21:08:22.307802 27367 layer_factory.hpp:77] Creating layer conv6
I0902 21:08:22.307824 27367 net.cpp:84] Creating Layer conv6
I0902 21:08:22.307833 27367 net.cpp:406] conv6 <- conv5_sc
I0902 21:08:22.307852 27367 net.cpp:380] conv6 -> conv6
I0902 21:08:22.381630 27367 net.cpp:122] Setting up conv6
I0902 21:08:22.381654 27367 net.cpp:129] Top shape: 100 256 8 8 (1638400)
I0902 21:08:22.381685 27367 net.cpp:137] Memory required for data: 368231600
I0902 21:08:22.381705 27367 layer_factory.hpp:77] Creating layer bn6_bn
I0902 21:08:22.381727 27367 net.cpp:84] Creating Layer bn6_bn
I0902 21:08:22.381738 27367 net.cpp:406] bn6_bn <- conv6
I0902 21:08:22.381759 27367 net.cpp:380] bn6_bn -> conv6_bn
I0902 21:08:22.382014 27367 net.cpp:122] Setting up bn6_bn
I0902 21:08:22.382026 27367 net.cpp:129] Top shape: 100 256 8 8 (1638400)
I0902 21:08:22.382040 27367 net.cpp:137] Memory required for data: 374785200
I0902 21:08:22.382074 27367 layer_factory.hpp:77] Creating layer bn6_scal
I0902 21:08:22.382112 27367 net.cpp:84] Creating Layer bn6_scal
I0902 21:08:22.382120 27367 net.cpp:406] bn6_scal <- conv6_bn
I0902 21:08:22.382135 27367 net.cpp:380] bn6_scal -> conv6_sc
I0902 21:08:22.382215 27367 layer_factory.hpp:77] Creating layer bn6_scal
I0902 21:08:22.382400 27367 net.cpp:122] Setting up bn6_scal
I0902 21:08:22.382411 27367 net.cpp:129] Top shape: 100 256 8 8 (1638400)
I0902 21:08:22.382416 27367 net.cpp:137] Memory required for data: 381338800
I0902 21:08:22.382429 27367 layer_factory.hpp:77] Creating layer relu6
I0902 21:08:22.382442 27367 net.cpp:84] Creating Layer relu6
I0902 21:08:22.382450 27367 net.cpp:406] relu6 <- conv6_sc
I0902 21:08:22.382473 27367 net.cpp:367] relu6 -> conv6_sc (in-place)
I0902 21:08:22.383042 27367 net.cpp:122] Setting up relu6
I0902 21:08:22.383054 27367 net.cpp:129] Top shape: 100 256 8 8 (1638400)
I0902 21:08:22.383069 27367 net.cpp:137] Memory required for data: 387892400
I0902 21:08:22.383075 27367 layer_factory.hpp:77] Creating layer pool3
I0902 21:08:22.383095 27367 net.cpp:84] Creating Layer pool3
I0902 21:08:22.383103 27367 net.cpp:406] pool3 <- conv6_sc
I0902 21:08:22.383121 27367 net.cpp:380] pool3 -> pool3
I0902 21:08:22.383186 27367 net.cpp:122] Setting up pool3
I0902 21:08:22.383198 27367 net.cpp:129] Top shape: 100 256 4 4 (409600)
I0902 21:08:22.383203 27367 net.cpp:137] Memory required for data: 389530800
I0902 21:08:22.383208 27367 layer_factory.hpp:77] Creating layer drop3
I0902 21:08:22.383224 27367 net.cpp:84] Creating Layer drop3
I0902 21:08:22.383231 27367 net.cpp:406] drop3 <- pool3
I0902 21:08:22.383246 27367 net.cpp:367] drop3 -> pool3 (in-place)
I0902 21:08:22.383285 27367 net.cpp:122] Setting up drop3
I0902 21:08:22.383293 27367 net.cpp:129] Top shape: 100 256 4 4 (409600)
I0902 21:08:22.383298 27367 net.cpp:137] Memory required for data: 391169200
I0902 21:08:22.383303 27367 layer_factory.hpp:77] Creating layer fc7
I0902 21:08:22.383332 27367 net.cpp:84] Creating Layer fc7
I0902 21:08:22.383342 27367 net.cpp:406] fc7 <- pool3
I0902 21:08:22.383359 27367 net.cpp:380] fc7 -> fc7
I0902 21:08:22.642313 27367 net.cpp:122] Setting up fc7
I0902 21:08:22.642349 27367 net.cpp:129] Top shape: 100 512 (51200)
I0902 21:08:22.642354 27367 net.cpp:137] Memory required for data: 391374000
I0902 21:08:22.642390 27367 layer_factory.hpp:77] Creating layer bn7_bn
I0902 21:08:22.642429 27367 net.cpp:84] Creating Layer bn7_bn
I0902 21:08:22.642453 27367 net.cpp:406] bn7_bn <- fc7
I0902 21:08:22.642482 27367 net.cpp:380] bn7_bn -> fc7_bn
I0902 21:08:22.642760 27367 net.cpp:122] Setting up bn7_bn
I0902 21:08:22.642772 27367 net.cpp:129] Top shape: 100 512 (51200)
I0902 21:08:22.642776 27367 net.cpp:137] Memory required for data: 391578800
I0902 21:08:22.642796 27367 layer_factory.hpp:77] Creating layer bn7_scal
I0902 21:08:22.642825 27367 net.cpp:84] Creating Layer bn7_scal
I0902 21:08:22.642833 27367 net.cpp:406] bn7_scal <- fc7_bn
I0902 21:08:22.642848 27367 net.cpp:380] bn7_scal -> fc7_sc
I0902 21:08:22.642932 27367 layer_factory.hpp:77] Creating layer bn7_scal
I0902 21:08:22.643105 27367 net.cpp:122] Setting up bn7_scal
I0902 21:08:22.643116 27367 net.cpp:129] Top shape: 100 512 (51200)
I0902 21:08:22.643121 27367 net.cpp:137] Memory required for data: 391783600
I0902 21:08:22.643133 27367 layer_factory.hpp:77] Creating layer relu7
I0902 21:08:22.643146 27367 net.cpp:84] Creating Layer relu7
I0902 21:08:22.643153 27367 net.cpp:406] relu7 <- fc7_sc
I0902 21:08:22.643182 27367 net.cpp:367] relu7 -> fc7_sc (in-place)
I0902 21:08:22.643771 27367 net.cpp:122] Setting up relu7
I0902 21:08:22.643784 27367 net.cpp:129] Top shape: 100 512 (51200)
I0902 21:08:22.643787 27367 net.cpp:137] Memory required for data: 391988400
I0902 21:08:22.643795 27367 layer_factory.hpp:77] Creating layer drop7
I0902 21:08:22.643810 27367 net.cpp:84] Creating Layer drop7
I0902 21:08:22.643818 27367 net.cpp:406] drop7 <- fc7_sc
I0902 21:08:22.643834 27367 net.cpp:367] drop7 -> fc7_sc (in-place)
I0902 21:08:22.643875 27367 net.cpp:122] Setting up drop7
I0902 21:08:22.643883 27367 net.cpp:129] Top shape: 100 512 (51200)
I0902 21:08:22.643888 27367 net.cpp:137] Memory required for data: 392193200
I0902 21:08:22.643894 27367 layer_factory.hpp:77] Creating layer fc8
I0902 21:08:22.643916 27367 net.cpp:84] Creating Layer fc8
I0902 21:08:22.643924 27367 net.cpp:406] fc8 <- fc7_sc
I0902 21:08:22.643942 27367 net.cpp:380] fc8 -> fc8
I0902 21:08:22.677805 27367 net.cpp:122] Setting up fc8
I0902 21:08:22.677825 27367 net.cpp:129] Top shape: 100 512 (51200)
I0902 21:08:22.677830 27367 net.cpp:137] Memory required for data: 392398000
I0902 21:08:22.677846 27367 layer_factory.hpp:77] Creating layer bn8_bn
I0902 21:08:22.677865 27367 net.cpp:84] Creating Layer bn8_bn
I0902 21:08:22.677875 27367 net.cpp:406] bn8_bn <- fc8
I0902 21:08:22.677892 27367 net.cpp:380] bn8_bn -> fc8_bn
I0902 21:08:22.678134 27367 net.cpp:122] Setting up bn8_bn
I0902 21:08:22.678146 27367 net.cpp:129] Top shape: 100 512 (51200)
I0902 21:08:22.678149 27367 net.cpp:137] Memory required for data: 392602800
I0902 21:08:22.678169 27367 layer_factory.hpp:77] Creating layer bn8_scal
I0902 21:08:22.678184 27367 net.cpp:84] Creating Layer bn8_scal
I0902 21:08:22.678192 27367 net.cpp:406] bn8_scal <- fc8_bn
I0902 21:08:22.678207 27367 net.cpp:380] bn8_scal -> fc8_sc
I0902 21:08:22.678274 27367 layer_factory.hpp:77] Creating layer bn8_scal
I0902 21:08:22.678443 27367 net.cpp:122] Setting up bn8_scal
I0902 21:08:22.678463 27367 net.cpp:129] Top shape: 100 512 (51200)
I0902 21:08:22.678467 27367 net.cpp:137] Memory required for data: 392807600
I0902 21:08:22.678480 27367 layer_factory.hpp:77] Creating layer relu8
I0902 21:08:22.678494 27367 net.cpp:84] Creating Layer relu8
I0902 21:08:22.678501 27367 net.cpp:406] relu8 <- fc8_sc
I0902 21:08:22.678514 27367 net.cpp:367] relu8 -> fc8_sc (in-place)
I0902 21:08:22.678897 27367 net.cpp:122] Setting up relu8
I0902 21:08:22.678917 27367 net.cpp:129] Top shape: 100 512 (51200)
I0902 21:08:22.678921 27367 net.cpp:137] Memory required for data: 393012400
I0902 21:08:22.678927 27367 layer_factory.hpp:77] Creating layer drop8
I0902 21:08:22.678941 27367 net.cpp:84] Creating Layer drop8
I0902 21:08:22.678947 27367 net.cpp:406] drop8 <- fc8_sc
I0902 21:08:22.678961 27367 net.cpp:367] drop8 -> fc8_sc (in-place)
I0902 21:08:22.679000 27367 net.cpp:122] Setting up drop8
I0902 21:08:22.679009 27367 net.cpp:129] Top shape: 100 512 (51200)
I0902 21:08:22.679013 27367 net.cpp:137] Memory required for data: 393217200
I0902 21:08:22.679018 27367 layer_factory.hpp:77] Creating layer fc9
I0902 21:08:22.679036 27367 net.cpp:84] Creating Layer fc9
I0902 21:08:22.679044 27367 net.cpp:406] fc9 <- fc8_sc
I0902 21:08:22.679059 27367 net.cpp:380] fc9 -> fc9
I0902 21:08:22.679945 27367 net.cpp:122] Setting up fc9
I0902 21:08:22.679957 27367 net.cpp:129] Top shape: 100 10 (1000)
I0902 21:08:22.679961 27367 net.cpp:137] Memory required for data: 393221200
I0902 21:08:22.679975 27367 layer_factory.hpp:77] Creating layer fc9_fc9_0_split
I0902 21:08:22.679988 27367 net.cpp:84] Creating Layer fc9_fc9_0_split
I0902 21:08:22.679996 27367 net.cpp:406] fc9_fc9_0_split <- fc9
I0902 21:08:22.680009 27367 net.cpp:380] fc9_fc9_0_split -> fc9_fc9_0_split_0
I0902 21:08:22.680033 27367 net.cpp:380] fc9_fc9_0_split -> fc9_fc9_0_split_1
I0902 21:08:22.680086 27367 net.cpp:122] Setting up fc9_fc9_0_split
I0902 21:08:22.680099 27367 net.cpp:129] Top shape: 100 10 (1000)
I0902 21:08:22.680104 27367 net.cpp:129] Top shape: 100 10 (1000)
I0902 21:08:22.680119 27367 net.cpp:137] Memory required for data: 393229200
I0902 21:08:22.680126 27367 layer_factory.hpp:77] Creating layer accuracy
I0902 21:08:22.680147 27367 net.cpp:84] Creating Layer accuracy
I0902 21:08:22.680156 27367 net.cpp:406] accuracy <- fc9_fc9_0_split_0
I0902 21:08:22.680168 27367 net.cpp:406] accuracy <- label_cifar_1_split_0
I0902 21:08:22.680182 27367 net.cpp:380] accuracy -> accuracy
…
