…
I0131 01:44:43.970870 37778 net.cpp:294] The NetState phase (0) differed from the phase (1) specified by a rule in layer acc/top-5
I0131 01:44:43.971638 37778 net.cpp:51] Initializing net from parameters: 
name: "ResNet-18"
state {
  phase: TRAIN
  level: 0
  stage: ""
}
layer {
  name: "data"
  type: "Data"
  top: "data"
  top: "label"
  include {
    phase: TRAIN
  }
  transform_param {
    mirror: true
    crop_size: 224
    mean_value: 104
    mean_value: 117
    mean_value: 123
  }
  data_param {
    source: "/home/zhengzhe/Data/imagenet_shrt256/ilsvrc12_train_lmdb"
    batch_size: 64
    backend: LMDB
  }
}
layer {
  name: "conv1"
  type: "Convolution"
  bottom: "data"
  top: "conv1"
  convolution_param {
    num_output: 64
    bias_term: false
    pad: 3
    kernel_size: 7
    stride: 2
    weight_filler {
      type: "msra"
    }
  }
}
layer {
  name: "bn_conv1"
  type: "BatchNorm"
  bottom: "conv1"
  top: "conv1"
  batch_norm_param {
    moving_average_fraction: 0.9
  }
}
layer {
  name: "scale_conv1"
  type: "Scale"
  bottom: "conv1"
  top: "conv1"
  scale_param {
    bias_term: true
  }
}
layer {
  name: "conv1_relu"
  type: "ReLU"
  bottom: "conv1"
  top: "conv1"
}
layer {
  name: "pool1"
  type: "Pooling"
  bottom: "conv1"
  top: "pool1"
  pooling_param {
    pool: MAX
    kernel_size: 3
    stride: 2
  }
}
layer {
  name: "bn0"
  type: "BatchNorm"
  bottom: "pool1"
  top: "pool1"
}
layer {
  name: "scale0"
  type: "Scale"
  bottom: "pool1"
  top: "pool1"
  scale_param {
    bias_term: true
  }
}
layer {
  name: "res2a_branch1"
  type: "BinaryConvolution"
  bottom: "pool1"
  top: "res2a_branch1"
  convolution_param {
    num_output: 64
    bias_term: false
    pad: 0
    kernel_size: 1
    stride: 1
    weight_filler {
      type: "msra"
    }
  }
}
layer {
  name: "bn2a_branch1"
  type: "BatchNorm"
  bottom: "res2a_branch1"
  top: "res2a_branch1"
  batch_norm_param {
    moving_average_fraction: 0.9
  }
}
layer {
  name: "scale2a_branch1"
  type: "Scale"
  bottom: "res2a_branch1"
  top: "res2a_branch1"
  scale_param {
    bias_term: true
  }
}
layer {
  name: "res2a_branch2a"
  type: "BinaryConvolution"
  bottom: "pool1"
  top: "res2a_branch2a"
  convolution_param {
    num_output: 64
    bias_term: false
    pad: 1
    kernel_size: 3
    stride: 1
    weight_filler {
      type: "msra"
    }
  }
}
layer {
  name: "bn2a_branch2a"
  type: "BatchNorm"
  bottom: "res2a_branch2a"
  top: "res2a_branch2a"
  batch_norm_param {
    moving_average_fraction: 0.9
  }
}
layer {
  name: "scale2a_branch2a"
  type: "Scale"
  bottom: "res2a_branch2a"
  top: "res2a_branch2a"
  scale_param {
    bias_term: true
  }
}
layer {
  name: "res2a_branch2a_relu"
  type: "BinActive"
  bottom: "res2a_branch2a"
  top: "res2a_branch2a"
}
layer {
  name: "res2a_branch2b"
  type: "BinaryConvolution"
  bottom: "res2a_branch2a"
  top: "res2a_branch2b"
  convolution_param {
    num_output: 64
    bias_term: false
    pad: 1
    kernel_size: 3
    stride: 1
    weight_filler {
      type: "msra"
    }
  }
}
layer {
  name: "bn2a_branch2b"
  type: "BatchNorm"
  bottom: "res2a_branch2b"
  top: "res2a_branch2b"
  batch_norm_param {
    moving_average_fraction: 0.9
  }
}
layer {
  name: "scale2a_branch2b"
  type: "Scale"
  bottom: "res2a_branch2b"
  top: "res2a_branch2b"
  scale_param {
    bias_term: true
  }
}
layer {
  name: "res2a"
  type: "Eltwise"
  bottom: "res2a_branch1"
  bottom: "res2a_branch2b"
  top: "res2a"
  eltwise_param {
    operation: SUM
  }
}
layer {
  name: "res2a_relu"
  type: "ReLU"
  bottom: "res2a"
  top: "res2a"
}
layer {
  name: "res2b_branch2a"
  type: "BinaryConvolution"
  bottom: "res2a"
  top: "res2b_branch2a"
  convolution_param {
    num_output: 64
    bias_term: false
    pad: 1
    kernel_size: 3
    stride: 1
    weight_filler {
      type: "msra"
    }
  }
}
layer {
  name: "bn2b_branch2a"
  type: "BatchNorm"
  bottom: "res2b_branch2a"
  top: "res2b_branch2a"
  batch_norm_param {
    moving_average_fraction: 0.9
  }
}
layer {
  name: "scale2b_branch2a"
  type: "Scale"
  bottom: "res2b_branch2a"
  top: "res2b_branch2a"
  scale_param {
    bias_term: true
  }
}
layer {
  name: "res2b_branch2a_relu"
  type: "BinActive"
  bottom: "res2b_branch2a"
  top: "res2b_branch2a"
}
layer {
  name: "res2b_branch2b"
  type: "BinaryConvolution"
  bottom: "res2b_branch2a"
  top: "res2b_branch2b"
  convolution_param {
    num_output: 64
    bias_term: false
    pad: 1
    kernel_size: 3
    stride: 1
    weight_filler {
      type: "msra"
    }
  }
}
layer {
  name: "bn2b_branch2b"
  type: "BatchNorm"
  bottom: "res2b_branch2b"
  top: "res2b_branch2b"
  batch_norm_param {
    moving_average_fraction: 0.9
  }
}
layer {
  name: "scale2b_branch2b"
  type: "Scale"
  bottom: "res2b_branch2b"
  top: "res2b_branch2b"
  scale_param {
    bias_term: true
  }
}
layer {
  name: "res2b"
  type: "Eltwise"
  bottom: "res2a"
  bottom: "res2b_branch2b"
  top: "res2b"
  eltwise_param {
    operation: SUM
  }
}
layer {
  name: "res2b_relu"
  type: "ReLU"
  bottom: "res2b"
  top: "res2b"
}
layer {
  name: "res3a_branch1"
  type: "BinaryConvolution"
  bottom: "res2b"
  top: "res3a_branch1"
  convolution_param {
    num_output: 128
    bias_term: false
    pad: 0
    kernel_size: 1
    stride: 2
    weight_filler {
      type: "msra"
    }
  }
}
layer {
  name: "bn3a_branch1"
  type: "BatchNorm"
  bottom: "res3a_branch1"
  top: "res3a_branch1"
  batch_norm_param {
    moving_average_fraction: 0.9
  }
}
layer {
  name: "scale3a_branch1"
  type: "Scale"
  bottom: "res3a_branch1"
  top: "res3a_branch1"
  scale_param {
    bias_term: true
  }
}
layer {
  name: "res3a_branch2a"
  type: "BinaryConvolution"
  bottom: "res2b"
  top: "res3a_branch2a"
  convolution_param {
    num_output: 128
    bias_term: false
    pad: 1
    kernel_size: 3
    stride: 2
    weight_filler {
      type: "msra"
    }
  }
}
layer {
  name: "bn3a_branch2a"
  type: "BatchNorm"
  bottom: "res3a_branch2a"
  top: "res3a_branch2a"
  batch_norm_param {
    moving_average_fraction: 0.9
  }
}
layer {
  name: "scale3a_branch2a"
  type: "Scale"
  bottom: "res3a_branch2a"
  top: "res3a_branch2a"
  scale_param {
    bias_term: true
  }
}
layer {
  name: "res3a_branch2a_relu"
  type: "BinActive"
  bottom: "res3a_branch2a"
  top: "res3a_branch2a"
}
layer {
  name: "res3a_branch2b"
  type: "BinaryConvolution"
  bottom: "res3a_branch2a"
  top: "res3a_branch2b"
  convolution_param {
    num_output: 128
    bias_term: false
    pad: 1
    kernel_size: 3
    stride: 1
    weight_filler {
      type: "msra"
    }
  }
}
layer {
  name: "bn3a_branch2b"
  type: "BatchNorm"
  bottom: "res3a_branch2b"
  top: "res3a_branch2b"
  batch_norm_param {
    moving_average_fraction: 0.9
  }
}
layer {
  name: "scale3a_branch2b"
  type: "Scale"
  bottom: "res3a_branch2b"
  top: "res3a_branch2b"
  scale_param {
    bias_term: true
  }
}
layer {
  name: "res3a"
  type: "Eltwise"
  bottom: "res3a_branch1"
  bottom: "res3a_branch2b"
  top: "res3a"
  eltwise_param {
    operation: SUM
  }
}
layer {
  name: "res3a_relu"
  type: "ReLU"
  bottom: "res3a"
  top: "res3a"
}
layer {
  name: "res3b_branch2a"
  type: "BinaryConvolution"
  bottom: "res3a"
  top: "res3b_branch2a"
  convolution_param {
    num_output: 128
    bias_term: false
    pad: 1
    kernel_size: 3
    stride: 1
    weight_filler {
      type: "msra"
    }
  }
}
layer {
  name: "bn3b_branch2a"
  type: "BatchNorm"
  bottom: "res3b_branch2a"
  top: "res3b_branch2a"
  batch_norm_param {
    moving_average_fraction: 0.9
  }
}
layer {
  name: "scale3b_branch2a"
  type: "Scale"
  bottom: "res3b_branch2a"
  top: "res3b_branch2a"
  scale_param {
    bias_term: true
  }
}
layer {
  name: "res3b_branch2a_relu"
  type: "BinActive"
  bottom: "res3b_branch2a"
  top: "res3b_branch2a"
}
layer {
  name: "res3b_branch2b"
  type: "BinaryConvolution"
  bottom: "res3b_branch2a"
  top: "res3b_branch2b"
  convolution_param {
    num_output: 128
    bias_term: false
    pad: 1
    kernel_size: 3
    stride: 1
    weight_filler {
      type: "msra"
    }
  }
}
layer {
  name: "bn3b_branch2b"
  type: "BatchNorm"
  bottom: "res3b_branch2b"
  top: "res3b_branch2b"
  batch_norm_param {
    moving_average_fraction: 0.9
  }
}
layer {
  name: "scale3b_branch2b"
  type: "Scale"
  bottom: "res3b_branch2b"
  top: "res3b_branch2b"
  scale_param {
    bias_term: true
  }
}
layer {
  name: "res3b"
  type: "Eltwise"
  bottom: "res3a"
  bottom: "res3b_branch2b"
  top: "res3b"
  eltwise_param {
    operation: SUM
  }
}
layer {
  name: "res3b_relu"
  type: "ReLU"
  bottom: "res3b"
  top: "res3b"
}
layer {
  name: "res4a_branch1"
  type: "BinaryConvolution"
  bottom: "res3b"
  top: "res4a_branch1"
  convolution_param {
    num_output: 256
    bias_term: false
    pad: 0
    kernel_size: 1
    stride: 2
    weight_filler {
      type: "msra"
    }
  }
}
layer {
  name: "bn4a_branch1"
  type: "BatchNorm"
  bottom: "res4a_branch1"
  top: "res4a_branch1"
  batch_norm_param {
    moving_average_fraction: 0.9
  }
}
layer {
  name: "scale4a_branch1"
  type: "Scale"
  bottom: "res4a_branch1"
  top: "res4a_branch1"
  scale_param {
    bias_term: true
  }
}
layer {
  name: "res4a_branch2a"
  type: "BinaryConvolution"
  bottom: "res3b"
  top: "res4a_branch2a"
  convolution_param {
    num_output: 256
    bias_term: false
    pad: 1
    kernel_size: 3
    stride: 2
    weight_filler {
      type: "msra"
    }
  }
}
layer {
  name: "bn4a_branch2a"
  type: "BatchNorm"
  bottom: "res4a_branch2a"
  top: "res4a_branch2a"
  batch_norm_param {
    moving_average_fraction: 0.9
  }
}
layer {
  name: "scale4a_branch2a"
  type: "Scale"
  bottom: "res4a_branch2a"
  top: "res4a_branch2a"
  scale_param {
    bias_term: true
  }
}
layer {
  name: "res4a_branch2a_relu"
  type: "BinActive"
  bottom: "res4a_branch2a"
  top: "res4a_branch2a"
}
layer {
  name: "res4a_branch2b"
  type: "BinaryConvolution"
  bottom: "res4a_branch2a"
  top: "res4a_branch2b"
  convolution_param {
    num_output: 256
    bias_term: false
    pad: 1
    kernel_size: 3
    stride: 1
    weight_filler {
      type: "msra"
    }
  }
}
layer {
  name: "bn4a_branch2b"
  type: "BatchNorm"
  bottom: "res4a_branch2b"
  top: "res4a_branch2b"
  batch_norm_param {
    moving_average_fraction: 0.9
  }
}
layer {
  name: "scale4a_branch2b"
  type: "Scale"
  bottom: "res4a_branch2b"
  top: "res4a_branch2b"
  scale_param {
    bias_term: true
  }
}
layer {
  name: "res4a"
  type: "Eltwise"
  bottom: "res4a_branch1"
  bottom: "res4a_branch2b"
  top: "res4a"
  eltwise_param {
    operation: SUM
  }
}
layer {
  name: "res4a_relu"
  type: "ReLU"
  bottom: "res4a"
  top: "res4a"
}
layer {
  name: "res4b_branch2a"
  type: "BinaryConvolution"
  bottom: "res4a"
  top: "res4b_branch2a"
  convolution_param {
    num_output: 256
    bias_term: false
    pad: 1
    kernel_size: 3
    stride: 1
    weight_filler {
      type: "msra"
    }
  }
}
layer {
  name: "bn4b_branch2a"
  type: "BatchNorm"
  bottom: "res4b_branch2a"
  top: "res4b_branch2a"
  batch_norm_param {
    moving_average_fraction: 0.9
  }
}
layer {
  name: "scale4b_branch2a"
  type: "Scale"
  bottom: "res4b_branch2a"
  top: "res4b_branch2a"
  scale_param {
    bias_term: true
  }
}
layer {
  name: "res4b_branch2a_relu"
  type: "BinActive"
  bottom: "res4b_branch2a"
  top: "res4b_branch2a"
}
layer {
  name: "res4b_branch2b"
  type: "BinaryConvolution"
  bottom: "res4b_branch2a"
  top: "res4b_branch2b"
  convolution_param {
    num_output: 256
    bias_term: false
    pad: 1
    kernel_size: 3
    stride: 1
    weight_filler {
      type: "msra"
    }
  }
}
layer {
  name: "bn4b_branch2b"
  type: "BatchNorm"
  bottom: "res4b_branch2b"
  top: "res4b_branch2b"
  batch_norm_param {
    moving_average_fraction: 0.9
  }
}
layer {
  name: "scale4b_branch2b"
  type: "Scale"
  bottom: "res4b_branch2b"
  top: "res4b_branch2b"
  scale_param {
    bias_term: true
  }
}
layer {
  name: "res4b"
  type: "Eltwise"
  bottom: "res4a"
  bottom: "res4b_branch2b"
  top: "res4b"
  eltwise_param {
    operation: SUM
  }
}
layer {
  name: "res4b_relu"
  type: "ReLU"
  bottom: "res4b"
  top: "res4b"
}
layer {
  name: "res5a_branch1"
  type: "BinaryConvolution"
  bottom: "res4b"
  top: "res5a_branch1"
  convolution_param {
    num_output: 512
    bias_term: false
    pad: 0
    kernel_size: 1
    stride: 2
    weight_filler {
      type: "msra"
    }
  }
}
layer {
  name: "bn5a_branch1"
  type: "BatchNorm"
  bottom: "res5a_branch1"
  top: "res5a_branch1"
  batch_norm_param {
    moving_average_fraction: 0.9
  }
}
layer {
  name: "scale5a_branch1"
  type: "Scale"
  bottom: "res5a_branch1"
  top: "res5a_branch1"
  scale_param {
    bias_term: true
  }
}
layer {
  name: "res5a_branch2a"
  type: "BinaryConvolution"
  bottom: "res4b"
  top: "res5a_branch2a"
  convolution_param {
    num_output: 512
    bias_term: false
    pad: 1
    kernel_size: 3
    stride: 2
    weight_filler {
      type: "msra"
    }
  }
}
layer {
  name: "bn5a_branch2a"
  type: "BatchNorm"
  bottom: "res5a_branch2a"
  top: "res5a_branch2a"
  batch_norm_param {
    moving_average_fraction: 0.9
  }
}
layer {
  name: "scale5a_branch2a"
  type: "Scale"
  bottom: "res5a_branch2a"
  top: "res5a_branch2a"
  scale_param {
    bias_term: true
  }
}
layer {
  name: "res5a_branch2a_relu"
  type: "BinActive"
  bottom: "res5a_branch2a"
  top: "res5a_branch2a"
}
layer {
  name: "res5a_branch2b"
  type: "BinaryConvolution"
  bottom: "res5a_branch2a"
  top: "res5a_branch2b"
  convolution_param {
    num_output: 512
    bias_term: false
    pad: 1
    kernel_size: 3
    stride: 1
    weight_filler {
      type: "msra"
    }
  }
}
layer {
  name: "bn5a_branch2b"
  type: "BatchNorm"
  bottom: "res5a_branch2b"
  top: "res5a_branch2b"
  batch_norm_param {
    moving_average_fraction: 0.9
  }
}
layer {
  name: "scale5a_branch2b"
  type: "Scale"
  bottom: "res5a_branch2b"
  top: "res5a_branch2b"
  scale_param {
    bias_term: true
  }
}
layer {
  name: "res5a"
  type: "Eltwise"
  bottom: "res5a_branch1"
  bottom: "res5a_branch2b"
  top: "res5a"
  eltwise_param {
    operation: SUM
  }
}
layer {
  name: "res5a_relu"
  type: "ReLU"
  bottom: "res5a"
  top: "res5a"
}
layer {
  name: "res5b_branch2a"
  type: "BinaryConvolution"
  bottom: "res5a"
  top: "res5b_branch2a"
  convolution_param {
    num_output: 512
    bias_term: false
    pad: 1
    kernel_size: 3
    stride: 1
    weight_filler {
      type: "msra"
    }
  }
}
layer {
  name: "bn5b_branch2a"
  type: "BatchNorm"
  bottom: "res5b_branch2a"
  top: "res5b_branch2a"
  batch_norm_param {
    moving_average_fraction: 0.9
  }
}
layer {
  name: "scale5b_branch2a"
  type: "Scale"
  bottom: "res5b_branch2a"
  top: "res5b_branch2a"
  scale_param {
    bias_term: true
  }
}
layer {
  name: "res5b_branch2a_relu"
  type: "BinActive"
  bottom: "res5b_branch2a"
  top: "res5b_branch2a"
}
layer {
  name: "res5b_branch2b"
  type: "BinaryConvolution"
  bottom: "res5b_branch2a"
  top: "res5b_branch2b"
  convolution_param {
    num_output: 512
    bias_term: false
    pad: 1
    kernel_size: 3
    stride: 1
    weight_filler {
      type: "msra"
    }
  }
}
layer {
  name: "bn5b_branch2b"
  type: "BatchNorm"
  bottom: "res5b_branch2b"
  top: "res5b_branch2b"
  batch_norm_param {
    moving_average_fraction: 0.9
  }
}
layer {
  name: "scale5b_branch2b"
  type: "Scale"
  bottom: "res5b_branch2b"
  top: "res5b_branch2b"
  scale_param {
    bias_term: true
  }
}
layer {
  name: "res5b"
  type: "Eltwise"
  bottom: "res5a"
  bottom: "res5b_branch2b"
  top: "res5b"
  eltwise_param {
    operation: SUM
  }
}
layer {
  name: "res5b_relu"
  type: "ReLU"
  bottom: "res5b"
  top: "res5b"
}
layer {
  name: "pool5"
  type: "Pooling"
  bottom: "res5b"
  top: "pool5"
  pooling_param {
    pool: AVE
    kernel_size: 7
    stride: 1
  }
}
layer {
  name: "fc1000"
  type: "InnerProduct"
  bottom: "pool5"
  top: "fc1000"
  param {
    lr_mult: 1
    decay_mult: 1
  }
  param {
    lr_mult: 2
    decay_mult: 1
  }
  inner_product_param {
    num_output: 1000
    weight_filler {
      type: "xavier"
    }
    bias_filler {
      type: "constant"
      value: 0
    }
  }
}
layer {
  name: "loss"
  type: "SoftmaxWithLoss"
  bottom: "fc1000"
  bottom: "label"
  top: "loss"
}
I0131 01:44:43.974076 37778 layer_factory.hpp:78] Creating layer data
I0131 01:44:44.001222 37778 db_lmdb.cpp:35] Opened lmdb /home/zhengzhe/Data/imagenet_shrt256/ilsvrc12_train_lmdb
I0131 01:44:44.001487 37778 net.cpp:84] Creating Layer data
I0131 01:44:44.001559 37778 net.cpp:380] data -> data
I0131 01:44:44.001840 37778 net.cpp:380] data -> label
I0131 01:44:44.010080 37778 data_layer.cpp:45] output data size: 64,3,224,224
I0131 01:44:44.135493 37778 base_data_layer.cpp:72] Initializing prefetch
I0131 01:44:44.136256 37778 base_data_layer.cpp:75] Prefetch initialized.
I0131 01:44:44.136286 37778 net.cpp:122] Setting up data
I0131 01:44:44.136485 37778 net.cpp:129] Top shape: 64 3 224 224 (9633792)
I0131 01:44:44.136502 37778 net.cpp:129] Top shape: 64 (64)
I0131 01:44:44.136507 37778 net.cpp:137] Memory required for data: 38535424
I0131 01:44:44.136550 37778 layer_factory.hpp:78] Creating layer conv1
I0131 01:44:44.136673 37778 net.cpp:84] Creating Layer conv1
I0131 01:44:44.136703 37778 net.cpp:406] conv1 <- data
I0131 01:44:44.136773 37778 net.cpp:380] conv1 -> conv1
I0131 01:44:44.757517 37778 cudnn_conv_layer.cpp:194] Reallocating workspace storage: 225816
I0131 01:44:44.757848 37778 net.cpp:122] Setting up conv1
I0131 01:44:44.757881 37778 net.cpp:129] Top shape: 64 64 112 112 (51380224)
I0131 01:44:44.757889 37778 net.cpp:137] Memory required for data: 244056320
I0131 01:44:44.758025 37778 layer_factory.hpp:78] Creating layer bn_conv1
I0131 01:44:44.758085 37778 net.cpp:84] Creating Layer bn_conv1
I0131 01:44:44.758100 37778 net.cpp:406] bn_conv1 <- conv1
I0131 01:44:44.758134 37778 net.cpp:367] bn_conv1 -> conv1 (in-place)
I0131 01:44:44.758415 37778 net.cpp:122] Setting up bn_conv1
I0131 01:44:44.758430 37778 net.cpp:129] Top shape: 64 64 112 112 (51380224)
I0131 01:44:44.758433 37778 net.cpp:137] Memory required for data: 449577216
I0131 01:44:44.758482 37778 layer_factory.hpp:78] Creating layer scale_conv1
I0131 01:44:44.758517 37778 net.cpp:84] Creating Layer scale_conv1
I0131 01:44:44.758527 37778 net.cpp:406] scale_conv1 <- conv1
I0131 01:44:44.758543 37778 net.cpp:367] scale_conv1 -> conv1 (in-place)
I0131 01:44:44.759634 37778 layer_factory.hpp:78] Creating layer scale_conv1
I0131 01:44:44.759928 37778 net.cpp:122] Setting up scale_conv1
I0131 01:44:44.759943 37778 net.cpp:129] Top shape: 64 64 112 112 (51380224)
I0131 01:44:44.759946 37778 net.cpp:137] Memory required for data: 655098112
I0131 01:44:44.759971 37778 layer_factory.hpp:78] Creating layer conv1_relu
I0131 01:44:44.760008 37778 net.cpp:84] Creating Layer conv1_relu
I0131 01:44:44.760017 37778 net.cpp:406] conv1_relu <- conv1
I0131 01:44:44.760033 37778 net.cpp:367] conv1_relu -> conv1 (in-place)
I0131 01:44:44.760542 37778 net.cpp:122] Setting up conv1_relu
I0131 01:44:44.760573 37778 net.cpp:129] Top shape: 64 64 112 112 (51380224)
I0131 01:44:44.760577 37778 net.cpp:137] Memory required for data: 860619008
I0131 01:44:44.760584 37778 layer_factory.hpp:78] Creating layer pool1
I0131 01:44:44.760718 37778 net.cpp:84] Creating Layer pool1
I0131 01:44:44.760730 37778 net.cpp:406] pool1 <- conv1
I0131 01:44:44.760787 37778 net.cpp:380] pool1 -> pool1
I0131 01:44:44.760890 37778 net.cpp:122] Setting up pool1
I0131 01:44:44.760912 37778 net.cpp:129] Top shape: 64 64 56 56 (12845056)
I0131 01:44:44.760917 37778 net.cpp:137] Memory required for data: 911999232
I0131 01:44:44.760924 37778 layer_factory.hpp:78] Creating layer bn0
I0131 01:44:44.760939 37778 net.cpp:84] Creating Layer bn0
I0131 01:44:44.760946 37778 net.cpp:406] bn0 <- pool1
I0131 01:44:44.760962 37778 net.cpp:367] bn0 -> pool1 (in-place)
I0131 01:44:44.762512 37778 net.cpp:122] Setting up bn0
I0131 01:44:44.762527 37778 net.cpp:129] Top shape: 64 64 56 56 (12845056)
I0131 01:44:44.762547 37778 net.cpp:137] Memory required for data: 963379456
I0131 01:44:44.762580 37778 layer_factory.hpp:78] Creating layer scale0
I0131 01:44:44.762619 37778 net.cpp:84] Creating Layer scale0
I0131 01:44:44.762629 37778 net.cpp:406] scale0 <- pool1
I0131 01:44:44.762645 37778 net.cpp:367] scale0 -> pool1 (in-place)
I0131 01:44:44.762727 37778 layer_factory.hpp:78] Creating layer scale0
I0131 01:44:44.762919 37778 net.cpp:122] Setting up scale0
I0131 01:44:44.762933 37778 net.cpp:129] Top shape: 64 64 56 56 (12845056)
I0131 01:44:44.762938 37778 net.cpp:137] Memory required for data: 1014759680
I0131 01:44:44.762951 37778 layer_factory.hpp:78] Creating layer pool1_scale0_0_split
I0131 01:44:44.762997 37778 net.cpp:84] Creating Layer pool1_scale0_0_split
I0131 01:44:44.763006 37778 net.cpp:406] pool1_scale0_0_split <- pool1
I0131 01:44:44.763022 37778 net.cpp:380] pool1_scale0_0_split -> pool1_scale0_0_split_0
I0131 01:44:44.763043 37778 net.cpp:380] pool1_scale0_0_split -> pool1_scale0_0_split_1
I0131 01:44:44.763099 37778 net.cpp:122] Setting up pool1_scale0_0_split
I0131 01:44:44.763113 37778 net.cpp:129] Top shape: 64 64 56 56 (12845056)
I0131 01:44:44.763120 37778 net.cpp:129] Top shape: 64 64 56 56 (12845056)
I0131 01:44:44.763124 37778 net.cpp:137] Memory required for data: 1117520128
I0131 01:44:44.763130 37778 layer_factory.hpp:78] Creating layer res2a_branch1
I0131 01:44:44.763164 37778 net.cpp:84] Creating Layer res2a_branch1
I0131 01:44:44.763175 37778 net.cpp:406] res2a_branch1 <- pool1_scale0_0_split_0
I0131 01:44:44.763192 37778 net.cpp:380] res2a_branch1 -> res2a_branch1
I0131 01:44:44.765808 37778 cudnn_binary_conv_layer.cpp:194] Reallocating workspace storage: 63000
I0131 01:44:44.765838 37778 net.cpp:122] Setting up res2a_branch1
I0131 01:44:44.765851 37778 net.cpp:129] Top shape: 64 64 56 56 (12845056)
I0131 01:44:44.765856 37778 net.cpp:137] Memory required for data: 1168900352
I0131 01:44:44.765871 37778 layer_factory.hpp:78] Creating layer bn2a_branch1
I0131 01:44:44.765888 37778 net.cpp:84] Creating Layer bn2a_branch1
I0131 01:44:44.765897 37778 net.cpp:406] bn2a_branch1 <- res2a_branch1
I0131 01:44:44.765913 37778 net.cpp:367] bn2a_branch1 -> res2a_branch1 (in-place)
I0131 01:44:44.766129 37778 net.cpp:122] Setting up bn2a_branch1
I0131 01:44:44.766153 37778 net.cpp:129] Top shape: 64 64 56 56 (12845056)
I0131 01:44:44.766157 37778 net.cpp:137] Memory required for data: 1220280576
I0131 01:44:44.766177 37778 layer_factory.hpp:78] Creating layer scale2a_branch1
I0131 01:44:44.766223 37778 net.cpp:84] Creating Layer scale2a_branch1
I0131 01:44:44.766232 37778 net.cpp:406] scale2a_branch1 <- res2a_branch1
I0131 01:44:44.766258 37778 net.cpp:367] scale2a_branch1 -> res2a_branch1 (in-place)
I0131 01:44:44.766324 37778 layer_factory.hpp:78] Creating layer scale2a_branch1
I0131 01:44:44.766502 37778 net.cpp:122] Setting up scale2a_branch1
I0131 01:44:44.766516 37778 net.cpp:129] Top shape: 64 64 56 56 (12845056)
I0131 01:44:44.766520 37778 net.cpp:137] Memory required for data: 1271660800
I0131 01:44:44.766546 37778 layer_factory.hpp:78] Creating layer res2a_branch2a
I0131 01:44:44.766571 37778 net.cpp:84] Creating Layer res2a_branch2a
I0131 01:44:44.766582 37778 net.cpp:406] res2a_branch2a <- pool1_scale0_0_split_1
I0131 01:44:44.766599 37778 net.cpp:380] res2a_branch2a -> res2a_branch2a
I0131 01:44:44.774008 37778 cudnn_binary_conv_layer.cpp:194] Reallocating workspace storage: 786432
I0131 01:44:44.774065 37778 net.cpp:122] Setting up res2a_branch2a
I0131 01:44:44.774077 37778 net.cpp:129] Top shape: 64 64 56 56 (12845056)
I0131 01:44:44.774081 37778 net.cpp:137] Memory required for data: 1323041024
I0131 01:44:44.774096 37778 layer_factory.hpp:78] Creating layer bn2a_branch2a
I0131 01:44:44.774132 37778 net.cpp:84] Creating Layer bn2a_branch2a
I0131 01:44:44.774140 37778 net.cpp:406] bn2a_branch2a <- res2a_branch2a
I0131 01:44:44.774157 37778 net.cpp:367] bn2a_branch2a -> res2a_branch2a (in-place)
I0131 01:44:44.774399 37778 net.cpp:122] Setting up bn2a_branch2a
I0131 01:44:44.774412 37778 net.cpp:129] Top shape: 64 64 56 56 (12845056)
I0131 01:44:44.774416 37778 net.cpp:137] Memory required for data: 1374421248
I0131 01:44:44.774438 37778 layer_factory.hpp:78] Creating layer scale2a_branch2a
I0131 01:44:44.774458 37778 net.cpp:84] Creating Layer scale2a_branch2a
I0131 01:44:44.774466 37778 net.cpp:406] scale2a_branch2a <- res2a_branch2a
I0131 01:44:44.774482 37778 net.cpp:367] scale2a_branch2a -> res2a_branch2a (in-place)
I0131 01:44:44.774549 37778 layer_factory.hpp:78] Creating layer scale2a_branch2a
I0131 01:44:44.774724 37778 net.cpp:122] Setting up scale2a_branch2a
I0131 01:44:44.774737 37778 net.cpp:129] Top shape: 64 64 56 56 (12845056)
I0131 01:44:44.774742 37778 net.cpp:137] Memory required for data: 1425801472
I0131 01:44:44.774758 37778 layer_factory.hpp:78] Creating layer res2a_branch2a_relu
I0131 01:44:44.774778 37778 net.cpp:84] Creating Layer res2a_branch2a_relu
I0131 01:44:44.774786 37778 net.cpp:406] res2a_branch2a_relu <- res2a_branch2a
I0131 01:44:44.774801 37778 net.cpp:367] res2a_branch2a_relu -> res2a_branch2a (in-place)
I0131 01:44:44.774816 37778 net.cpp:122] Setting up res2a_branch2a_relu
I0131 01:44:44.774824 37778 net.cpp:129] Top shape: 64 64 56 56 (12845056)
I0131 01:44:44.774827 37778 net.cpp:137] Memory required for data: 1477181696
I0131 01:44:44.774834 37778 layer_factory.hpp:78] Creating layer res2a_branch2b
I0131 01:44:44.774859 37778 net.cpp:84] Creating Layer res2a_branch2b
I0131 01:44:44.774868 37778 net.cpp:406] res2a_branch2b <- res2a_branch2a
I0131 01:44:44.774886 37778 net.cpp:380] res2a_branch2b -> res2a_branch2b
I0131 01:44:44.779635 37778 cudnn_binary_conv_layer.cpp:194] Reallocating workspace storage: 786432
I0131 01:44:44.779677 37778 net.cpp:122] Setting up res2a_branch2b
I0131 01:44:44.779690 37778 net.cpp:129] Top shape: 64 64 56 56 (12845056)
I0131 01:44:44.779693 37778 net.cpp:137] Memory required for data: 1528561920
I0131 01:44:44.779707 37778 layer_factory.hpp:78] Creating layer bn2a_branch2b
I0131 01:44:44.779742 37778 net.cpp:84] Creating Layer bn2a_branch2b
I0131 01:44:44.779752 37778 net.cpp:406] bn2a_branch2b <- res2a_branch2b
I0131 01:44:44.779767 37778 net.cpp:367] bn2a_branch2b -> res2a_branch2b (in-place)
I0131 01:44:44.780040 37778 net.cpp:122] Setting up bn2a_branch2b
I0131 01:44:44.780051 37778 net.cpp:129] Top shape: 64 64 56 56 (12845056)
I0131 01:44:44.780055 37778 net.cpp:137] Memory required for data: 1579942144
I0131 01:44:44.780076 37778 layer_factory.hpp:78] Creating layer scale2a_branch2b
I0131 01:44:44.780110 37778 net.cpp:84] Creating Layer scale2a_branch2b
I0131 01:44:44.780118 37778 net.cpp:406] scale2a_branch2b <- res2a_branch2b
I0131 01:44:44.780133 37778 net.cpp:367] scale2a_branch2b -> res2a_branch2b (in-place)
I0131 01:44:44.780200 37778 layer_factory.hpp:78] Creating layer scale2a_branch2b
I0131 01:44:44.780392 37778 net.cpp:122] Setting up scale2a_branch2b
I0131 01:44:44.780406 37778 net.cpp:129] Top shape: 64 64 56 56 (12845056)
I0131 01:44:44.780411 37778 net.cpp:137] Memory required for data: 1631322368
I0131 01:44:44.780426 37778 layer_factory.hpp:78] Creating layer res2a
I0131 01:44:44.780468 37778 net.cpp:84] Creating Layer res2a
I0131 01:44:44.780478 37778 net.cpp:406] res2a <- res2a_branch1
I0131 01:44:44.780491 37778 net.cpp:406] res2a <- res2a_branch2b
I0131 01:44:44.780504 37778 net.cpp:380] res2a -> res2a
I0131 01:44:44.780586 37778 net.cpp:122] Setting up res2a
I0131 01:44:44.780612 37778 net.cpp:129] Top shape: 64 64 56 56 (12845056)
I0131 01:44:44.780618 37778 net.cpp:137] Memory required for data: 1682702592
I0131 01:44:44.780624 37778 layer_factory.hpp:78] Creating layer res2a_relu
I0131 01:44:44.780639 37778 net.cpp:84] Creating Layer res2a_relu
I0131 01:44:44.780648 37778 net.cpp:406] res2a_relu <- res2a
I0131 01:44:44.780663 37778 net.cpp:367] res2a_relu -> res2a (in-place)
I0131 01:44:44.781433 37778 net.cpp:122] Setting up res2a_relu
I0131 01:44:44.781447 37778 net.cpp:129] Top shape: 64 64 56 56 (12845056)
I0131 01:44:44.781467 37778 net.cpp:137] Memory required for data: 1734082816
I0131 01:44:44.781474 37778 layer_factory.hpp:78] Creating layer res2a_res2a_relu_0_split
I0131 01:44:44.781488 37778 net.cpp:84] Creating Layer res2a_res2a_relu_0_split
I0131 01:44:44.781497 37778 net.cpp:406] res2a_res2a_relu_0_split <- res2a
I0131 01:44:44.781512 37778 net.cpp:380] res2a_res2a_relu_0_split -> res2a_res2a_relu_0_split_0
I0131 01:44:44.781530 37778 net.cpp:380] res2a_res2a_relu_0_split -> res2a_res2a_relu_0_split_1
I0131 01:44:44.781620 37778 net.cpp:122] Setting up res2a_res2a_relu_0_split
I0131 01:44:44.781632 37778 net.cpp:129] Top shape: 64 64 56 56 (12845056)
I0131 01:44:44.781638 37778 net.cpp:129] Top shape: 64 64 56 56 (12845056)
I0131 01:44:44.781642 37778 net.cpp:137] Memory required for data: 1836843264
I0131 01:44:44.781648 37778 layer_factory.hpp:78] Creating layer res2b_branch2a
I0131 01:44:44.781673 37778 net.cpp:84] Creating Layer res2b_branch2a
I0131 01:44:44.781682 37778 net.cpp:406] res2b_branch2a <- res2a_res2a_relu_0_split_0
I0131 01:44:44.781700 37778 net.cpp:380] res2b_branch2a -> res2b_branch2a
I0131 01:44:44.787060 37778 cudnn_binary_conv_layer.cpp:194] Reallocating workspace storage: 786432
I0131 01:44:44.787104 37778 net.cpp:122] Setting up res2b_branch2a
I0131 01:44:44.787115 37778 net.cpp:129] Top shape: 64 64 56 56 (12845056)
I0131 01:44:44.787119 37778 net.cpp:137] Memory required for data: 1888223488
I0131 01:44:44.787132 37778 layer_factory.hpp:78] Creating layer bn2b_branch2a
I0131 01:44:44.787150 37778 net.cpp:84] Creating Layer bn2b_branch2a
I0131 01:44:44.787165 37778 net.cpp:406] bn2b_branch2a <- res2b_branch2a
I0131 01:44:44.787181 37778 net.cpp:367] bn2b_branch2a -> res2b_branch2a (in-place)
I0131 01:44:44.787451 37778 net.cpp:122] Setting up bn2b_branch2a
I0131 01:44:44.787463 37778 net.cpp:129] Top shape: 64 64 56 56 (12845056)
I0131 01:44:44.787467 37778 net.cpp:137] Memory required for data: 1939603712
I0131 01:44:44.787504 37778 layer_factory.hpp:78] Creating layer scale2b_branch2a
I0131 01:44:44.787524 37778 net.cpp:84] Creating Layer scale2b_branch2a
I0131 01:44:44.787533 37778 net.cpp:406] scale2b_branch2a <- res2b_branch2a
I0131 01:44:44.787546 37778 net.cpp:367] scale2b_branch2a -> res2b_branch2a (in-place)
I0131 01:44:44.787617 37778 layer_factory.hpp:78] Creating layer scale2b_branch2a
I0131 01:44:44.787798 37778 net.cpp:122] Setting up scale2b_branch2a
I0131 01:44:44.787816 37778 net.cpp:129] Top shape: 64 64 56 56 (12845056)
I0131 01:44:44.787819 37778 net.cpp:137] Memory required for data: 1990983936
I0131 01:44:44.787834 37778 layer_factory.hpp:78] Creating layer res2b_branch2a_relu
I0131 01:44:44.787848 37778 net.cpp:84] Creating Layer res2b_branch2a_relu
I0131 01:44:44.787855 37778 net.cpp:406] res2b_branch2a_relu <- res2b_branch2a
I0131 01:44:44.787869 37778 net.cpp:367] res2b_branch2a_relu -> res2b_branch2a (in-place)
I0131 01:44:44.787883 37778 net.cpp:122] Setting up res2b_branch2a_relu
I0131 01:44:44.787891 37778 net.cpp:129] Top shape: 64 64 56 56 (12845056)
I0131 01:44:44.787894 37778 net.cpp:137] Memory required for data: 2042364160
I0131 01:44:44.787899 37778 layer_factory.hpp:78] Creating layer res2b_branch2b
I0131 01:44:44.787922 37778 net.cpp:84] Creating Layer res2b_branch2b
I0131 01:44:44.787930 37778 net.cpp:406] res2b_branch2b <- res2b_branch2a
I0131 01:44:44.787945 37778 net.cpp:380] res2b_branch2b -> res2b_branch2b
I0131 01:44:44.793226 37778 cudnn_binary_conv_layer.cpp:194] Reallocating workspace storage: 786432
I0131 01:44:44.793282 37778 net.cpp:122] Setting up res2b_branch2b
I0131 01:44:44.793292 37778 net.cpp:129] Top shape: 64 64 56 56 (12845056)
I0131 01:44:44.793296 37778 net.cpp:137] Memory required for data: 2093744384
I0131 01:44:44.793310 37778 layer_factory.hpp:78] Creating layer bn2b_branch2b
I0131 01:44:44.793330 37778 net.cpp:84] Creating Layer bn2b_branch2b
I0131 01:44:44.793349 37778 net.cpp:406] bn2b_branch2b <- res2b_branch2b
I0131 01:44:44.793366 37778 net.cpp:367] bn2b_branch2b -> res2b_branch2b (in-place)
I0131 01:44:44.793618 37778 net.cpp:122] Setting up bn2b_branch2b
I0131 01:44:44.793630 37778 net.cpp:129] Top shape: 64 64 56 56 (12845056)
I0131 01:44:44.793634 37778 net.cpp:137] Memory required for data: 2145124608
I0131 01:44:44.793655 37778 layer_factory.hpp:78] Creating layer scale2b_branch2b
I0131 01:44:44.793675 37778 net.cpp:84] Creating Layer scale2b_branch2b
I0131 01:44:44.793684 37778 net.cpp:406] scale2b_branch2b <- res2b_branch2b
I0131 01:44:44.793699 37778 net.cpp:367] scale2b_branch2b -> res2b_branch2b (in-place)
I0131 01:44:44.793779 37778 layer_factory.hpp:78] Creating layer scale2b_branch2b
I0131 01:44:44.793962 37778 net.cpp:122] Setting up scale2b_branch2b
I0131 01:44:44.793974 37778 net.cpp:129] Top shape: 64 64 56 56 (12845056)
I0131 01:44:44.793978 37778 net.cpp:137] Memory required for data: 2196504832
I0131 01:44:44.793993 37778 layer_factory.hpp:78] Creating layer res2b
I0131 01:44:44.794009 37778 net.cpp:84] Creating Layer res2b
I0131 01:44:44.794018 37778 net.cpp:406] res2b <- res2a_res2a_relu_0_split_1
I0131 01:44:44.794029 37778 net.cpp:406] res2b <- res2b_branch2b
I0131 01:44:44.794040 37778 net.cpp:380] res2b -> res2b
I0131 01:44:44.794088 37778 net.cpp:122] Setting up res2b
I0131 01:44:44.794101 37778 net.cpp:129] Top shape: 64 64 56 56 (12845056)
I0131 01:44:44.794106 37778 net.cpp:137] Memory required for data: 2247885056
I0131 01:44:44.794111 37778 layer_factory.hpp:78] Creating layer res2b_relu
I0131 01:44:44.794124 37778 net.cpp:84] Creating Layer res2b_relu
I0131 01:44:44.794132 37778 net.cpp:406] res2b_relu <- res2b
I0131 01:44:44.794147 37778 net.cpp:367] res2b_relu -> res2b (in-place)
I0131 01:44:44.794989 37778 net.cpp:122] Setting up res2b_relu
I0131 01:44:44.795006 37778 net.cpp:129] Top shape: 64 64 56 56 (12845056)
I0131 01:44:44.795009 37778 net.cpp:137] Memory required for data: 2299265280
I0131 01:44:44.795017 37778 layer_factory.hpp:78] Creating layer res2b_res2b_relu_0_split
I0131 01:44:44.795033 37778 net.cpp:84] Creating Layer res2b_res2b_relu_0_split
I0131 01:44:44.795042 37778 net.cpp:406] res2b_res2b_relu_0_split <- res2b
I0131 01:44:44.795059 37778 net.cpp:380] res2b_res2b_relu_0_split -> res2b_res2b_relu_0_split_0
I0131 01:44:44.795078 37778 net.cpp:380] res2b_res2b_relu_0_split -> res2b_res2b_relu_0_split_1
I0131 01:44:44.795142 37778 net.cpp:122] Setting up res2b_res2b_relu_0_split
I0131 01:44:44.795156 37778 net.cpp:129] Top shape: 64 64 56 56 (12845056)
I0131 01:44:44.795162 37778 net.cpp:129] Top shape: 64 64 56 56 (12845056)
I0131 01:44:44.795166 37778 net.cpp:137] Memory required for data: 2402025728
I0131 01:44:44.795172 37778 layer_factory.hpp:78] Creating layer res3a_branch1
I0131 01:44:44.795202 37778 net.cpp:84] Creating Layer res3a_branch1
I0131 01:44:44.795212 37778 net.cpp:406] res3a_branch1 <- res2b_res2b_relu_0_split_0
I0131 01:44:44.795231 37778 net.cpp:380] res3a_branch1 -> res3a_branch1
I0131 01:44:44.798229 37778 cudnn_binary_conv_layer.cpp:194] Reallocating workspace storage: 14136
I0131 01:44:44.798257 37778 net.cpp:122] Setting up res3a_branch1
I0131 01:44:44.798269 37778 net.cpp:129] Top shape: 64 128 28 28 (6422528)
I0131 01:44:44.798274 37778 net.cpp:137] Memory required for data: 2427715840
I0131 01:44:44.798288 37778 layer_factory.hpp:78] Creating layer bn3a_branch1
I0131 01:44:44.798310 37778 net.cpp:84] Creating Layer bn3a_branch1
I0131 01:44:44.798319 37778 net.cpp:406] bn3a_branch1 <- res3a_branch1
I0131 01:44:44.798336 37778 net.cpp:367] bn3a_branch1 -> res3a_branch1 (in-place)
I0131 01:44:44.798609 37778 net.cpp:122] Setting up bn3a_branch1
I0131 01:44:44.798622 37778 net.cpp:129] Top shape: 64 128 28 28 (6422528)
I0131 01:44:44.798626 37778 net.cpp:137] Memory required for data: 2453405952
I0131 01:44:44.798652 37778 layer_factory.hpp:78] Creating layer scale3a_branch1
I0131 01:44:44.798672 37778 net.cpp:84] Creating Layer scale3a_branch1
I0131 01:44:44.798681 37778 net.cpp:406] scale3a_branch1 <- res3a_branch1
I0131 01:44:44.798696 37778 net.cpp:367] scale3a_branch1 -> res3a_branch1 (in-place)
I0131 01:44:44.798766 37778 layer_factory.hpp:78] Creating layer scale3a_branch1
I0131 01:44:44.798944 37778 net.cpp:122] Setting up scale3a_branch1
I0131 01:44:44.798959 37778 net.cpp:129] Top shape: 64 128 28 28 (6422528)
I0131 01:44:44.798964 37778 net.cpp:137] Memory required for data: 2479096064
I0131 01:44:44.798979 37778 layer_factory.hpp:78] Creating layer res3a_branch2a
I0131 01:44:44.799000 37778 net.cpp:84] Creating Layer res3a_branch2a
I0131 01:44:44.799010 37778 net.cpp:406] res3a_branch2a <- res2b_res2b_relu_0_split_1
I0131 01:44:44.799027 37778 net.cpp:380] res3a_branch2a -> res3a_branch2a
I0131 01:44:44.808900 37778 cudnn_binary_conv_layer.cpp:194] Reallocating workspace storage: 14136
I0131 01:44:44.808929 37778 net.cpp:122] Setting up res3a_branch2a
I0131 01:44:44.808943 37778 net.cpp:129] Top shape: 64 128 28 28 (6422528)
I0131 01:44:44.808948 37778 net.cpp:137] Memory required for data: 2504786176
I0131 01:44:44.808962 37778 layer_factory.hpp:78] Creating layer bn3a_branch2a
I0131 01:44:44.808980 37778 net.cpp:84] Creating Layer bn3a_branch2a
I0131 01:44:44.808989 37778 net.cpp:406] bn3a_branch2a <- res3a_branch2a
I0131 01:44:44.809005 37778 net.cpp:367] bn3a_branch2a -> res3a_branch2a (in-place)
I0131 01:44:44.809250 37778 net.cpp:122] Setting up bn3a_branch2a
I0131 01:44:44.809265 37778 net.cpp:129] Top shape: 64 128 28 28 (6422528)
I0131 01:44:44.809270 37778 net.cpp:137] Memory required for data: 2530476288
I0131 01:44:44.809291 37778 layer_factory.hpp:78] Creating layer scale3a_branch2a
I0131 01:44:44.809310 37778 net.cpp:84] Creating Layer scale3a_branch2a
I0131 01:44:44.809319 37778 net.cpp:406] scale3a_branch2a <- res3a_branch2a
I0131 01:44:44.809335 37778 net.cpp:367] scale3a_branch2a -> res3a_branch2a (in-place)
I0131 01:44:44.809417 37778 layer_factory.hpp:78] Creating layer scale3a_branch2a
I0131 01:44:44.809600 37778 net.cpp:122] Setting up scale3a_branch2a
I0131 01:44:44.809614 37778 net.cpp:129] Top shape: 64 128 28 28 (6422528)
I0131 01:44:44.809618 37778 net.cpp:137] Memory required for data: 2556166400
I0131 01:44:44.809634 37778 layer_factory.hpp:78] Creating layer res3a_branch2a_relu
I0131 01:44:44.809648 37778 net.cpp:84] Creating Layer res3a_branch2a_relu
I0131 01:44:44.809656 37778 net.cpp:406] res3a_branch2a_relu <- res3a_branch2a
I0131 01:44:44.809670 37778 net.cpp:367] res3a_branch2a_relu -> res3a_branch2a (in-place)
I0131 01:44:44.809686 37778 net.cpp:122] Setting up res3a_branch2a_relu
I0131 01:44:44.809695 37778 net.cpp:129] Top shape: 64 128 28 28 (6422528)
I0131 01:44:44.809698 37778 net.cpp:137] Memory required for data: 2581856512
I0131 01:44:44.809703 37778 layer_factory.hpp:78] Creating layer res3a_branch2b
I0131 01:44:44.809726 37778 net.cpp:84] Creating Layer res3a_branch2b
I0131 01:44:44.809736 37778 net.cpp:406] res3a_branch2b <- res3a_branch2a
I0131 01:44:44.809752 37778 net.cpp:380] res3a_branch2b -> res3a_branch2b
I0131 01:44:44.825012 37778 cudnn_binary_conv_layer.cpp:194] Reallocating workspace storage: 3145728
I0131 01:44:44.825330 37778 net.cpp:122] Setting up res3a_branch2b
I0131 01:44:44.825368 37778 net.cpp:129] Top shape: 64 128 28 28 (6422528)
I0131 01:44:44.825374 37778 net.cpp:137] Memory required for data: 2607546624
I0131 01:44:44.825389 37778 layer_factory.hpp:78] Creating layer bn3a_branch2b
I0131 01:44:44.825407 37778 net.cpp:84] Creating Layer bn3a_branch2b
I0131 01:44:44.825415 37778 net.cpp:406] bn3a_branch2b <- res3a_branch2b
I0131 01:44:44.825439 37778 net.cpp:367] bn3a_branch2b -> res3a_branch2b (in-place)
I0131 01:44:44.825734 37778 net.cpp:122] Setting up bn3a_branch2b
I0131 01:44:44.825762 37778 net.cpp:129] Top shape: 64 128 28 28 (6422528)
I0131 01:44:44.825781 37778 net.cpp:137] Memory required for data: 2633236736
I0131 01:44:44.825803 37778 layer_factory.hpp:78] Creating layer scale3a_branch2b
I0131 01:44:44.825820 37778 net.cpp:84] Creating Layer scale3a_branch2b
I0131 01:44:44.825829 37778 net.cpp:406] scale3a_branch2b <- res3a_branch2b
I0131 01:44:44.825845 37778 net.cpp:367] scale3a_branch2b -> res3a_branch2b (in-place)
I0131 01:44:44.825912 37778 layer_factory.hpp:78] Creating layer scale3a_branch2b
I0131 01:44:44.826078 37778 net.cpp:122] Setting up scale3a_branch2b
I0131 01:44:44.826092 37778 net.cpp:129] Top shape: 64 128 28 28 (6422528)
I0131 01:44:44.826095 37778 net.cpp:137] Memory required for data: 2658926848
I0131 01:44:44.826109 37778 layer_factory.hpp:78] Creating layer res3a
I0131 01:44:44.826125 37778 net.cpp:84] Creating Layer res3a
I0131 01:44:44.826133 37778 net.cpp:406] res3a <- res3a_branch1
I0131 01:44:44.826145 37778 net.cpp:406] res3a <- res3a_branch2b
I0131 01:44:44.826165 37778 net.cpp:380] res3a -> res3a
I0131 01:44:44.826216 37778 net.cpp:122] Setting up res3a
I0131 01:44:44.826229 37778 net.cpp:129] Top shape: 64 128 28 28 (6422528)
I0131 01:44:44.826232 37778 net.cpp:137] Memory required for data: 2684616960
I0131 01:44:44.826239 37778 layer_factory.hpp:78] Creating layer res3a_relu
I0131 01:44:44.826252 37778 net.cpp:84] Creating Layer res3a_relu
I0131 01:44:44.826259 37778 net.cpp:406] res3a_relu <- res3a
I0131 01:44:44.826273 37778 net.cpp:367] res3a_relu -> res3a (in-place)
I0131 01:44:44.826936 37778 net.cpp:122] Setting up res3a_relu
I0131 01:44:44.826949 37778 net.cpp:129] Top shape: 64 128 28 28 (6422528)
I0131 01:44:44.826952 37778 net.cpp:137] Memory required for data: 2710307072
I0131 01:44:44.826958 37778 layer_factory.hpp:78] Creating layer res3a_res3a_relu_0_split
I0131 01:44:44.826972 37778 net.cpp:84] Creating Layer res3a_res3a_relu_0_split
I0131 01:44:44.826979 37778 net.cpp:406] res3a_res3a_relu_0_split <- res3a
I0131 01:44:44.826994 37778 net.cpp:380] res3a_res3a_relu_0_split -> res3a_res3a_relu_0_split_0
I0131 01:44:44.827011 37778 net.cpp:380] res3a_res3a_relu_0_split -> res3a_res3a_relu_0_split_1
I0131 01:44:44.827070 37778 net.cpp:122] Setting up res3a_res3a_relu_0_split
I0131 01:44:44.827082 37778 net.cpp:129] Top shape: 64 128 28 28 (6422528)
I0131 01:44:44.827087 37778 net.cpp:129] Top shape: 64 128 28 28 (6422528)
I0131 01:44:44.827091 37778 net.cpp:137] Memory required for data: 2761687296
I0131 01:44:44.827096 37778 layer_factory.hpp:78] Creating layer res3b_branch2a
I0131 01:44:44.827119 37778 net.cpp:84] Creating Layer res3b_branch2a
I0131 01:44:44.827127 37778 net.cpp:406] res3b_branch2a <- res3a_res3a_relu_0_split_0
I0131 01:44:44.827144 37778 net.cpp:380] res3b_branch2a -> res3b_branch2a
I0131 01:44:44.840965 37778 cudnn_binary_conv_layer.cpp:194] Reallocating workspace storage: 3145728
I0131 01:44:44.841280 37778 net.cpp:122] Setting up res3b_branch2a
I0131 01:44:44.841301 37778 net.cpp:129] Top shape: 64 128 28 28 (6422528)
I0131 01:44:44.841305 37778 net.cpp:137] Memory required for data: 2787377408
I0131 01:44:44.841320 37778 layer_factory.hpp:78] Creating layer bn3b_branch2a
I0131 01:44:44.841338 37778 net.cpp:84] Creating Layer bn3b_branch2a
I0131 01:44:44.841356 37778 net.cpp:406] bn3b_branch2a <- res3b_branch2a
I0131 01:44:44.841392 37778 net.cpp:367] bn3b_branch2a -> res3b_branch2a (in-place)
I0131 01:44:44.841665 37778 net.cpp:122] Setting up bn3b_branch2a
I0131 01:44:44.841692 37778 net.cpp:129] Top shape: 64 128 28 28 (6422528)
I0131 01:44:44.841711 37778 net.cpp:137] Memory required for data: 2813067520
I0131 01:44:44.841734 37778 layer_factory.hpp:78] Creating layer scale3b_branch2a
I0131 01:44:44.841753 37778 net.cpp:84] Creating Layer scale3b_branch2a
I0131 01:44:44.841760 37778 net.cpp:406] scale3b_branch2a <- res3b_branch2a
I0131 01:44:44.841778 37778 net.cpp:367] scale3b_branch2a -> res3b_branch2a (in-place)
I0131 01:44:44.841861 37778 layer_factory.hpp:78] Creating layer scale3b_branch2a
I0131 01:44:44.842048 37778 net.cpp:122] Setting up scale3b_branch2a
I0131 01:44:44.842061 37778 net.cpp:129] Top shape: 64 128 28 28 (6422528)
I0131 01:44:44.842065 37778 net.cpp:137] Memory required for data: 2838757632
I0131 01:44:44.842101 37778 layer_factory.hpp:78] Creating layer res3b_branch2a_relu
I0131 01:44:44.842118 37778 net.cpp:84] Creating Layer res3b_branch2a_relu
I0131 01:44:44.842126 37778 net.cpp:406] res3b_branch2a_relu <- res3b_branch2a
I0131 01:44:44.842142 37778 net.cpp:367] res3b_branch2a_relu -> res3b_branch2a (in-place)
I0131 01:44:44.842157 37778 net.cpp:122] Setting up res3b_branch2a_relu
I0131 01:44:44.842165 37778 net.cpp:129] Top shape: 64 128 28 28 (6422528)
I0131 01:44:44.842169 37778 net.cpp:137] Memory required for data: 2864447744
I0131 01:44:44.842173 37778 layer_factory.hpp:78] Creating layer res3b_branch2b
I0131 01:44:44.842193 37778 net.cpp:84] Creating Layer res3b_branch2b
I0131 01:44:44.842200 37778 net.cpp:406] res3b_branch2b <- res3b_branch2a
I0131 01:44:44.842216 37778 net.cpp:380] res3b_branch2b -> res3b_branch2b
I0131 01:44:44.856729 37778 cudnn_binary_conv_layer.cpp:194] Reallocating workspace storage: 3145728
I0131 01:44:44.857053 37778 net.cpp:122] Setting up res3b_branch2b
I0131 01:44:44.857087 37778 net.cpp:129] Top shape: 64 128 28 28 (6422528)
I0131 01:44:44.857092 37778 net.cpp:137] Memory required for data: 2890137856
I0131 01:44:44.857107 37778 layer_factory.hpp:78] Creating layer bn3b_branch2b
I0131 01:44:44.857125 37778 net.cpp:84] Creating Layer bn3b_branch2b
I0131 01:44:44.857133 37778 net.cpp:406] bn3b_branch2b <- res3b_branch2b
I0131 01:44:44.857149 37778 net.cpp:367] bn3b_branch2b -> res3b_branch2b (in-place)
I0131 01:44:44.857441 37778 net.cpp:122] Setting up bn3b_branch2b
I0131 01:44:44.857455 37778 net.cpp:129] Top shape: 64 128 28 28 (6422528)
I0131 01:44:44.857458 37778 net.cpp:137] Memory required for data: 2915827968
I0131 01:44:44.857479 37778 layer_factory.hpp:78] Creating layer scale3b_branch2b
I0131 01:44:44.857497 37778 net.cpp:84] Creating Layer scale3b_branch2b
I0131 01:44:44.857506 37778 net.cpp:406] scale3b_branch2b <- res3b_branch2b
I0131 01:44:44.857520 37778 net.cpp:367] scale3b_branch2b -> res3b_branch2b (in-place)
I0131 01:44:44.857594 37778 layer_factory.hpp:78] Creating layer scale3b_branch2b
I0131 01:44:44.857760 37778 net.cpp:122] Setting up scale3b_branch2b
I0131 01:44:44.857774 37778 net.cpp:129] Top shape: 64 128 28 28 (6422528)
I0131 01:44:44.857779 37778 net.cpp:137] Memory required for data: 2941518080
I0131 01:44:44.857794 37778 layer_factory.hpp:78] Creating layer res3b
I0131 01:44:44.857810 37778 net.cpp:84] Creating Layer res3b
I0131 01:44:44.857817 37778 net.cpp:406] res3b <- res3a_res3a_relu_0_split_1
I0131 01:44:44.857830 37778 net.cpp:406] res3b <- res3b_branch2b
I0131 01:44:44.857841 37778 net.cpp:380] res3b -> res3b
I0131 01:44:44.857892 37778 net.cpp:122] Setting up res3b
I0131 01:44:44.857904 37778 net.cpp:129] Top shape: 64 128 28 28 (6422528)
I0131 01:44:44.857908 37778 net.cpp:137] Memory required for data: 2967208192
I0131 01:44:44.857914 37778 layer_factory.hpp:78] Creating layer res3b_relu
I0131 01:44:44.857928 37778 net.cpp:84] Creating Layer res3b_relu
I0131 01:44:44.857934 37778 net.cpp:406] res3b_relu <- res3b
I0131 01:44:44.857949 37778 net.cpp:367] res3b_relu -> res3b (in-place)
I0131 01:44:44.858546 37778 net.cpp:122] Setting up res3b_relu
I0131 01:44:44.858577 37778 net.cpp:129] Top shape: 64 128 28 28 (6422528)
I0131 01:44:44.858582 37778 net.cpp:137] Memory required for data: 2992898304
I0131 01:44:44.858587 37778 layer_factory.hpp:78] Creating layer res3b_res3b_relu_0_split
I0131 01:44:44.858602 37778 net.cpp:84] Creating Layer res3b_res3b_relu_0_split
I0131 01:44:44.858608 37778 net.cpp:406] res3b_res3b_relu_0_split <- res3b
I0131 01:44:44.858624 37778 net.cpp:380] res3b_res3b_relu_0_split -> res3b_res3b_relu_0_split_0
I0131 01:44:44.858642 37778 net.cpp:380] res3b_res3b_relu_0_split -> res3b_res3b_relu_0_split_1
I0131 01:44:44.858701 37778 net.cpp:122] Setting up res3b_res3b_relu_0_split
I0131 01:44:44.858726 37778 net.cpp:129] Top shape: 64 128 28 28 (6422528)
I0131 01:44:44.858739 37778 net.cpp:129] Top shape: 64 128 28 28 (6422528)
I0131 01:44:44.858743 37778 net.cpp:137] Memory required for data: 3044278528
I0131 01:44:44.858749 37778 layer_factory.hpp:78] Creating layer res4a_branch1
I0131 01:44:44.858774 37778 net.cpp:84] Creating Layer res4a_branch1
I0131 01:44:44.858783 37778 net.cpp:406] res4a_branch1 <- res3b_res3b_relu_0_split_0
I0131 01:44:44.858814 37778 net.cpp:380] res4a_branch1 -> res4a_branch1
I0131 01:44:44.863687 37778 cudnn_binary_conv_layer.cpp:194] Reallocating workspace storage: 7032
I0131 01:44:44.863715 37778 net.cpp:122] Setting up res4a_branch1
I0131 01:44:44.863726 37778 net.cpp:129] Top shape: 64 256 14 14 (3211264)
I0131 01:44:44.863729 37778 net.cpp:137] Memory required for data: 3057123584
I0131 01:44:44.863744 37778 layer_factory.hpp:78] Creating layer bn4a_branch1
I0131 01:44:44.863764 37778 net.cpp:84] Creating Layer bn4a_branch1
I0131 01:44:44.863772 37778 net.cpp:406] bn4a_branch1 <- res4a_branch1
I0131 01:44:44.863788 37778 net.cpp:367] bn4a_branch1 -> res4a_branch1 (in-place)
I0131 01:44:44.864051 37778 net.cpp:122] Setting up bn4a_branch1
I0131 01:44:44.864064 37778 net.cpp:129] Top shape: 64 256 14 14 (3211264)
I0131 01:44:44.864068 37778 net.cpp:137] Memory required for data: 3069968640
I0131 01:44:44.864089 37778 layer_factory.hpp:78] Creating layer scale4a_branch1
I0131 01:44:44.864110 37778 net.cpp:84] Creating Layer scale4a_branch1
I0131 01:44:44.864120 37778 net.cpp:406] scale4a_branch1 <- res4a_branch1
I0131 01:44:44.864135 37778 net.cpp:367] scale4a_branch1 -> res4a_branch1 (in-place)
I0131 01:44:44.864207 37778 layer_factory.hpp:78] Creating layer scale4a_branch1
I0131 01:44:44.864389 37778 net.cpp:122] Setting up scale4a_branch1
I0131 01:44:44.864403 37778 net.cpp:129] Top shape: 64 256 14 14 (3211264)
I0131 01:44:44.864406 37778 net.cpp:137] Memory required for data: 3082813696
I0131 01:44:44.864421 37778 layer_factory.hpp:78] Creating layer res4a_branch2a
I0131 01:44:44.864451 37778 net.cpp:84] Creating Layer res4a_branch2a
I0131 01:44:44.864460 37778 net.cpp:406] res4a_branch2a <- res3b_res3b_relu_0_split_1
I0131 01:44:44.864478 37778 net.cpp:380] res4a_branch2a -> res4a_branch2a
I0131 01:44:44.891557 37778 cudnn_binary_conv_layer.cpp:194] Reallocating workspace storage: 9048
I0131 01:44:44.891588 37778 net.cpp:122] Setting up res4a_branch2a
I0131 01:44:44.891598 37778 net.cpp:129] Top shape: 64 256 14 14 (3211264)
I0131 01:44:44.891602 37778 net.cpp:137] Memory required for data: 3095658752
I0131 01:44:44.891616 37778 layer_factory.hpp:78] Creating layer bn4a_branch2a
I0131 01:44:44.891635 37778 net.cpp:84] Creating Layer bn4a_branch2a
I0131 01:44:44.891644 37778 net.cpp:406] bn4a_branch2a <- res4a_branch2a
I0131 01:44:44.891660 37778 net.cpp:367] bn4a_branch2a -> res4a_branch2a (in-place)
I0131 01:44:44.891921 37778 net.cpp:122] Setting up bn4a_branch2a
I0131 01:44:44.891933 37778 net.cpp:129] Top shape: 64 256 14 14 (3211264)
I0131 01:44:44.891937 37778 net.cpp:137] Memory required for data: 3108503808
I0131 01:44:44.891958 37778 layer_factory.hpp:78] Creating layer scale4a_branch2a
I0131 01:44:44.891975 37778 net.cpp:84] Creating Layer scale4a_branch2a
I0131 01:44:44.891983 37778 net.cpp:406] scale4a_branch2a <- res4a_branch2a
I0131 01:44:44.891997 37778 net.cpp:367] scale4a_branch2a -> res4a_branch2a (in-place)
I0131 01:44:44.892076 37778 layer_factory.hpp:78] Creating layer scale4a_branch2a
I0131 01:44:44.892241 37778 net.cpp:122] Setting up scale4a_branch2a
I0131 01:44:44.892254 37778 net.cpp:129] Top shape: 64 256 14 14 (3211264)
I0131 01:44:44.892258 37778 net.cpp:137] Memory required for data: 3121348864
I0131 01:44:44.892273 37778 layer_factory.hpp:78] Creating layer res4a_branch2a_relu
I0131 01:44:44.892287 37778 net.cpp:84] Creating Layer res4a_branch2a_relu
I0131 01:44:44.892294 37778 net.cpp:406] res4a_branch2a_relu <- res4a_branch2a
I0131 01:44:44.892308 37778 net.cpp:367] res4a_branch2a_relu -> res4a_branch2a (in-place)
I0131 01:44:44.892338 37778 net.cpp:122] Setting up res4a_branch2a_relu
I0131 01:44:44.892352 37778 net.cpp:129] Top shape: 64 256 14 14 (3211264)
I0131 01:44:44.892372 37778 net.cpp:137] Memory required for data: 3134193920
I0131 01:44:44.892379 37778 layer_factory.hpp:78] Creating layer res4a_branch2b
I0131 01:44:44.892402 37778 net.cpp:84] Creating Layer res4a_branch2b
I0131 01:44:44.892422 37778 net.cpp:406] res4a_branch2b <- res4a_branch2a
I0131 01:44:44.892441 37778 net.cpp:380] res4a_branch2b -> res4a_branch2b
I0131 01:44:44.942556 37778 cudnn_binary_conv_layer.cpp:194] Reallocating workspace storage: 9480
I0131 01:44:44.942586 37778 net.cpp:122] Setting up res4a_branch2b
I0131 01:44:44.942596 37778 net.cpp:129] Top shape: 64 256 14 14 (3211264)
I0131 01:44:44.942600 37778 net.cpp:137] Memory required for data: 3147038976
I0131 01:44:44.942613 37778 layer_factory.hpp:78] Creating layer bn4a_branch2b
I0131 01:44:44.942631 37778 net.cpp:84] Creating Layer bn4a_branch2b
I0131 01:44:44.942643 37778 net.cpp:406] bn4a_branch2b <- res4a_branch2b
I0131 01:44:44.942659 37778 net.cpp:367] bn4a_branch2b -> res4a_branch2b (in-place)
I0131 01:44:44.942904 37778 net.cpp:122] Setting up bn4a_branch2b
I0131 01:44:44.942916 37778 net.cpp:129] Top shape: 64 256 14 14 (3211264)
I0131 01:44:44.942920 37778 net.cpp:137] Memory required for data: 3159884032
I0131 01:44:44.942940 37778 layer_factory.hpp:78] Creating layer scale4a_branch2b
I0131 01:44:44.942981 37778 net.cpp:84] Creating Layer scale4a_branch2b
I0131 01:44:44.942989 37778 net.cpp:406] scale4a_branch2b <- res4a_branch2b
I0131 01:44:44.943006 37778 net.cpp:367] scale4a_branch2b -> res4a_branch2b (in-place)
I0131 01:44:44.943080 37778 layer_factory.hpp:78] Creating layer scale4a_branch2b
I0131 01:44:44.943256 37778 net.cpp:122] Setting up scale4a_branch2b
I0131 01:44:44.943272 37778 net.cpp:129] Top shape: 64 256 14 14 (3211264)
I0131 01:44:44.943276 37778 net.cpp:137] Memory required for data: 3172729088
I0131 01:44:44.943294 37778 layer_factory.hpp:78] Creating layer res4a
I0131 01:44:44.943310 37778 net.cpp:84] Creating Layer res4a
I0131 01:44:44.943317 37778 net.cpp:406] res4a <- res4a_branch1
I0131 01:44:44.943329 37778 net.cpp:406] res4a <- res4a_branch2b
I0131 01:44:44.943341 37778 net.cpp:380] res4a -> res4a
I0131 01:44:44.943410 37778 net.cpp:122] Setting up res4a
I0131 01:44:44.943424 37778 net.cpp:129] Top shape: 64 256 14 14 (3211264)
I0131 01:44:44.943428 37778 net.cpp:137] Memory required for data: 3185574144
I0131 01:44:44.943435 37778 layer_factory.hpp:78] Creating layer res4a_relu
I0131 01:44:44.943449 37778 net.cpp:84] Creating Layer res4a_relu
I0131 01:44:44.943456 37778 net.cpp:406] res4a_relu <- res4a
I0131 01:44:44.943473 37778 net.cpp:367] res4a_relu -> res4a (in-place)
I0131 01:44:44.944087 37778 net.cpp:122] Setting up res4a_relu
I0131 01:44:44.944099 37778 net.cpp:129] Top shape: 64 256 14 14 (3211264)
I0131 01:44:44.944118 37778 net.cpp:137] Memory required for data: 3198419200
I0131 01:44:44.944140 37778 layer_factory.hpp:78] Creating layer res4a_res4a_relu_0_split
I0131 01:44:44.944154 37778 net.cpp:84] Creating Layer res4a_res4a_relu_0_split
I0131 01:44:44.944161 37778 net.cpp:406] res4a_res4a_relu_0_split <- res4a
I0131 01:44:44.944180 37778 net.cpp:380] res4a_res4a_relu_0_split -> res4a_res4a_relu_0_split_0
I0131 01:44:44.944205 37778 net.cpp:380] res4a_res4a_relu_0_split -> res4a_res4a_relu_0_split_1
I0131 01:44:44.944267 37778 net.cpp:122] Setting up res4a_res4a_relu_0_split
I0131 01:44:44.944281 37778 net.cpp:129] Top shape: 64 256 14 14 (3211264)
I0131 01:44:44.944288 37778 net.cpp:129] Top shape: 64 256 14 14 (3211264)
I0131 01:44:44.944291 37778 net.cpp:137] Memory required for data: 3224109312
I0131 01:44:44.944298 37778 layer_factory.hpp:78] Creating layer res4b_branch2a
I0131 01:44:44.944334 37778 net.cpp:84] Creating Layer res4b_branch2a
I0131 01:44:44.944347 37778 net.cpp:406] res4b_branch2a <- res4a_res4a_relu_0_split_0
I0131 01:44:44.944370 37778 net.cpp:380] res4b_branch2a -> res4b_branch2a
I0131 01:44:44.994910 37778 cudnn_binary_conv_layer.cpp:194] Reallocating workspace storage: 9480
I0131 01:44:44.994957 37778 net.cpp:122] Setting up res4b_branch2a
I0131 01:44:44.994968 37778 net.cpp:129] Top shape: 64 256 14 14 (3211264)
I0131 01:44:44.994972 37778 net.cpp:137] Memory required for data: 3236954368
I0131 01:44:44.994987 37778 layer_factory.hpp:78] Creating layer bn4b_branch2a
I0131 01:44:44.995008 37778 net.cpp:84] Creating Layer bn4b_branch2a
I0131 01:44:44.995020 37778 net.cpp:406] bn4b_branch2a <- res4b_branch2a
I0131 01:44:44.995038 37778 net.cpp:367] bn4b_branch2a -> res4b_branch2a (in-place)
I0131 01:44:44.995309 37778 net.cpp:122] Setting up bn4b_branch2a
I0131 01:44:44.995323 37778 net.cpp:129] Top shape: 64 256 14 14 (3211264)
I0131 01:44:44.995327 37778 net.cpp:137] Memory required for data: 3249799424
I0131 01:44:44.995354 37778 layer_factory.hpp:78] Creating layer scale4b_branch2a
I0131 01:44:44.995378 37778 net.cpp:84] Creating Layer scale4b_branch2a
I0131 01:44:44.995385 37778 net.cpp:406] scale4b_branch2a <- res4b_branch2a
I0131 01:44:44.995400 37778 net.cpp:367] scale4b_branch2a -> res4b_branch2a (in-place)
I0131 01:44:44.995478 37778 layer_factory.hpp:78] Creating layer scale4b_branch2a
I0131 01:44:44.995645 37778 net.cpp:122] Setting up scale4b_branch2a
I0131 01:44:44.995657 37778 net.cpp:129] Top shape: 64 256 14 14 (3211264)
I0131 01:44:44.995661 37778 net.cpp:137] Memory required for data: 3262644480
I0131 01:44:44.995676 37778 layer_factory.hpp:78] Creating layer res4b_branch2a_relu
I0131 01:44:44.995690 37778 net.cpp:84] Creating Layer res4b_branch2a_relu
I0131 01:44:44.995697 37778 net.cpp:406] res4b_branch2a_relu <- res4b_branch2a
I0131 01:44:44.995714 37778 net.cpp:367] res4b_branch2a_relu -> res4b_branch2a (in-place)
I0131 01:44:44.995729 37778 net.cpp:122] Setting up res4b_branch2a_relu
I0131 01:44:44.995736 37778 net.cpp:129] Top shape: 64 256 14 14 (3211264)
I0131 01:44:44.995739 37778 net.cpp:137] Memory required for data: 3275489536
I0131 01:44:44.995744 37778 layer_factory.hpp:78] Creating layer res4b_branch2b
I0131 01:44:44.995764 37778 net.cpp:84] Creating Layer res4b_branch2b
I0131 01:44:44.995771 37778 net.cpp:406] res4b_branch2b <- res4b_branch2a
I0131 01:44:44.995787 37778 net.cpp:380] res4b_branch2b -> res4b_branch2b
I0131 01:44:45.048251 37778 cudnn_binary_conv_layer.cpp:194] Reallocating workspace storage: 9480
I0131 01:44:45.048300 37778 net.cpp:122] Setting up res4b_branch2b
I0131 01:44:45.048313 37778 net.cpp:129] Top shape: 64 256 14 14 (3211264)
I0131 01:44:45.048317 37778 net.cpp:137] Memory required for data: 3288334592
I0131 01:44:45.048332 37778 layer_factory.hpp:78] Creating layer bn4b_branch2b
I0131 01:44:45.048368 37778 net.cpp:84] Creating Layer bn4b_branch2b
I0131 01:44:45.048382 37778 net.cpp:406] bn4b_branch2b <- res4b_branch2b
I0131 01:44:45.048400 37778 net.cpp:367] bn4b_branch2b -> res4b_branch2b (in-place)
I0131 01:44:45.048656 37778 net.cpp:122] Setting up bn4b_branch2b
I0131 01:44:45.048669 37778 net.cpp:129] Top shape: 64 256 14 14 (3211264)
I0131 01:44:45.048672 37778 net.cpp:137] Memory required for data: 3301179648
I0131 01:44:45.048693 37778 layer_factory.hpp:78] Creating layer scale4b_branch2b
I0131 01:44:45.048712 37778 net.cpp:84] Creating Layer scale4b_branch2b
I0131 01:44:45.048719 37778 net.cpp:406] scale4b_branch2b <- res4b_branch2b
I0131 01:44:45.048733 37778 net.cpp:367] scale4b_branch2b -> res4b_branch2b (in-place)
I0131 01:44:45.048807 37778 layer_factory.hpp:78] Creating layer scale4b_branch2b
I0131 01:44:45.048982 37778 net.cpp:122] Setting up scale4b_branch2b
I0131 01:44:45.048995 37778 net.cpp:129] Top shape: 64 256 14 14 (3211264)
I0131 01:44:45.049000 37778 net.cpp:137] Memory required for data: 3314024704
I0131 01:44:45.049015 37778 layer_factory.hpp:78] Creating layer res4b
I0131 01:44:45.049031 37778 net.cpp:84] Creating Layer res4b
I0131 01:44:45.049038 37778 net.cpp:406] res4b <- res4a_res4a_relu_0_split_1
I0131 01:44:45.049051 37778 net.cpp:406] res4b <- res4b_branch2b
I0131 01:44:45.049063 37778 net.cpp:380] res4b -> res4b
I0131 01:44:45.049127 37778 net.cpp:122] Setting up res4b
I0131 01:44:45.049144 37778 net.cpp:129] Top shape: 64 256 14 14 (3211264)
I0131 01:44:45.049147 37778 net.cpp:137] Memory required for data: 3326869760
I0131 01:44:45.049154 37778 layer_factory.hpp:78] Creating layer res4b_relu
I0131 01:44:45.049167 37778 net.cpp:84] Creating Layer res4b_relu
I0131 01:44:45.049175 37778 net.cpp:406] res4b_relu <- res4b
I0131 01:44:45.049188 37778 net.cpp:367] res4b_relu -> res4b (in-place)
I0131 01:44:45.049834 37778 net.cpp:122] Setting up res4b_relu
I0131 01:44:45.049865 37778 net.cpp:129] Top shape: 64 256 14 14 (3211264)
I0131 01:44:45.049870 37778 net.cpp:137] Memory required for data: 3339714816
I0131 01:44:45.049875 37778 layer_factory.hpp:78] Creating layer res4b_res4b_relu_0_split
I0131 01:44:45.049890 37778 net.cpp:84] Creating Layer res4b_res4b_relu_0_split
I0131 01:44:45.049898 37778 net.cpp:406] res4b_res4b_relu_0_split <- res4b
I0131 01:44:45.049914 37778 net.cpp:380] res4b_res4b_relu_0_split -> res4b_res4b_relu_0_split_0
I0131 01:44:45.049932 37778 net.cpp:380] res4b_res4b_relu_0_split -> res4b_res4b_relu_0_split_1
I0131 01:44:45.050007 37778 net.cpp:122] Setting up res4b_res4b_relu_0_split
I0131 01:44:45.050020 37778 net.cpp:129] Top shape: 64 256 14 14 (3211264)
I0131 01:44:45.050025 37778 net.cpp:129] Top shape: 64 256 14 14 (3211264)
I0131 01:44:45.050029 37778 net.cpp:137] Memory required for data: 3365404928
I0131 01:44:45.050034 37778 layer_factory.hpp:78] Creating layer res5a_branch1
I0131 01:44:45.050071 37778 net.cpp:84] Creating Layer res5a_branch1
I0131 01:44:45.050078 37778 net.cpp:406] res5a_branch1 <- res4b_res4b_relu_0_split_0
I0131 01:44:45.050098 37778 net.cpp:380] res5a_branch1 -> res5a_branch1
I0131 01:44:45.065325 37778 cudnn_binary_conv_layer.cpp:194] Reallocating workspace storage: 6780
I0131 01:44:45.065376 37778 net.cpp:122] Setting up res5a_branch1
I0131 01:44:45.065387 37778 net.cpp:129] Top shape: 64 512 7 7 (1605632)
I0131 01:44:45.065390 37778 net.cpp:137] Memory required for data: 3371827456
I0131 01:44:45.065405 37778 layer_factory.hpp:78] Creating layer bn5a_branch1
I0131 01:44:45.065423 37778 net.cpp:84] Creating Layer bn5a_branch1
I0131 01:44:45.065435 37778 net.cpp:406] bn5a_branch1 <- res5a_branch1
I0131 01:44:45.065452 37778 net.cpp:367] bn5a_branch1 -> res5a_branch1 (in-place)
I0131 01:44:45.065704 37778 net.cpp:122] Setting up bn5a_branch1
I0131 01:44:45.065716 37778 net.cpp:129] Top shape: 64 512 7 7 (1605632)
I0131 01:44:45.065721 37778 net.cpp:137] Memory required for data: 3378249984
I0131 01:44:45.065742 37778 layer_factory.hpp:78] Creating layer scale5a_branch1
I0131 01:44:45.065760 37778 net.cpp:84] Creating Layer scale5a_branch1
I0131 01:44:45.065768 37778 net.cpp:406] scale5a_branch1 <- res5a_branch1
I0131 01:44:45.065783 37778 net.cpp:367] scale5a_branch1 -> res5a_branch1 (in-place)
I0131 01:44:45.065853 37778 layer_factory.hpp:78] Creating layer scale5a_branch1
I0131 01:44:45.066056 37778 net.cpp:122] Setting up scale5a_branch1
I0131 01:44:45.066069 37778 net.cpp:129] Top shape: 64 512 7 7 (1605632)
I0131 01:44:45.066073 37778 net.cpp:137] Memory required for data: 3384672512
I0131 01:44:45.066088 37778 layer_factory.hpp:78] Creating layer res5a_branch2a
I0131 01:44:45.066114 37778 net.cpp:84] Creating Layer res5a_branch2a
I0131 01:44:45.066131 37778 net.cpp:406] res5a_branch2a <- res4b_res4b_relu_0_split_1
I0131 01:44:45.066149 37778 net.cpp:380] res5a_branch2a -> res5a_branch2a
I0131 01:44:45.164803 37778 cudnn_binary_conv_layer.cpp:194] Reallocating workspace storage: 8652
I0131 01:44:45.164850 37778 net.cpp:122] Setting up res5a_branch2a
I0131 01:44:45.164862 37778 net.cpp:129] Top shape: 64 512 7 7 (1605632)
I0131 01:44:45.164866 37778 net.cpp:137] Memory required for data: 3391095040
I0131 01:44:45.164883 37778 layer_factory.hpp:78] Creating layer bn5a_branch2a
I0131 01:44:45.164906 37778 net.cpp:84] Creating Layer bn5a_branch2a
I0131 01:44:45.164916 37778 net.cpp:406] bn5a_branch2a <- res5a_branch2a
I0131 01:44:45.164932 37778 net.cpp:367] bn5a_branch2a -> res5a_branch2a (in-place)
I0131 01:44:45.165215 37778 net.cpp:122] Setting up bn5a_branch2a
I0131 01:44:45.165228 37778 net.cpp:129] Top shape: 64 512 7 7 (1605632)
I0131 01:44:45.165232 37778 net.cpp:137] Memory required for data: 3397517568
I0131 01:44:45.165267 37778 layer_factory.hpp:78] Creating layer scale5a_branch2a
I0131 01:44:45.165294 37778 net.cpp:84] Creating Layer scale5a_branch2a
I0131 01:44:45.165310 37778 net.cpp:406] scale5a_branch2a <- res5a_branch2a
I0131 01:44:45.165325 37778 net.cpp:367] scale5a_branch2a -> res5a_branch2a (in-place)
I0131 01:44:45.165410 37778 layer_factory.hpp:78] Creating layer scale5a_branch2a
I0131 01:44:45.165604 37778 net.cpp:122] Setting up scale5a_branch2a
I0131 01:44:45.165621 37778 net.cpp:129] Top shape: 64 512 7 7 (1605632)
I0131 01:44:45.165626 37778 net.cpp:137] Memory required for data: 3403940096
I0131 01:44:45.165640 37778 layer_factory.hpp:78] Creating layer res5a_branch2a_relu
I0131 01:44:45.165655 37778 net.cpp:84] Creating Layer res5a_branch2a_relu
I0131 01:44:45.165663 37778 net.cpp:406] res5a_branch2a_relu <- res5a_branch2a
I0131 01:44:45.165678 37778 net.cpp:367] res5a_branch2a_relu -> res5a_branch2a (in-place)
I0131 01:44:45.165693 37778 net.cpp:122] Setting up res5a_branch2a_relu
I0131 01:44:45.165709 37778 net.cpp:129] Top shape: 64 512 7 7 (1605632)
I0131 01:44:45.165714 37778 net.cpp:137] Memory required for data: 3410362624
I0131 01:44:45.165719 37778 layer_factory.hpp:78] Creating layer res5a_branch2b
I0131 01:44:45.165740 37778 net.cpp:84] Creating Layer res5a_branch2b
I0131 01:44:45.165746 37778 net.cpp:406] res5a_branch2b <- res5a_branch2a
I0131 01:44:45.165766 37778 net.cpp:380] res5a_branch2b -> res5a_branch2b
I0131 01:44:45.361250 37778 cudnn_binary_conv_layer.cpp:194] Reallocating workspace storage: 7788
I0131 01:44:45.361299 37778 net.cpp:122] Setting up res5a_branch2b
I0131 01:44:45.361312 37778 net.cpp:129] Top shape: 64 512 7 7 (1605632)
I0131 01:44:45.361316 37778 net.cpp:137] Memory required for data: 3416785152
I0131 01:44:45.361330 37778 layer_factory.hpp:78] Creating layer bn5a_branch2b
I0131 01:44:45.361356 37778 net.cpp:84] Creating Layer bn5a_branch2b
I0131 01:44:45.361371 37778 net.cpp:406] bn5a_branch2b <- res5a_branch2b
I0131 01:44:45.361387 37778 net.cpp:367] bn5a_branch2b -> res5a_branch2b (in-place)
I0131 01:44:45.361647 37778 net.cpp:122] Setting up bn5a_branch2b
I0131 01:44:45.361660 37778 net.cpp:129] Top shape: 64 512 7 7 (1605632)
I0131 01:44:45.361663 37778 net.cpp:137] Memory required for data: 3423207680
I0131 01:44:45.361686 37778 layer_factory.hpp:78] Creating layer scale5a_branch2b
I0131 01:44:45.361704 37778 net.cpp:84] Creating Layer scale5a_branch2b
I0131 01:44:45.361711 37778 net.cpp:406] scale5a_branch2b <- res5a_branch2b
I0131 01:44:45.361726 37778 net.cpp:367] scale5a_branch2b -> res5a_branch2b (in-place)
I0131 01:44:45.361796 37778 layer_factory.hpp:78] Creating layer scale5a_branch2b
I0131 01:44:45.361979 37778 net.cpp:122] Setting up scale5a_branch2b
I0131 01:44:45.361994 37778 net.cpp:129] Top shape: 64 512 7 7 (1605632)
I0131 01:44:45.361997 37778 net.cpp:137] Memory required for data: 3429630208
I0131 01:44:45.362011 37778 layer_factory.hpp:78] Creating layer res5a
I0131 01:44:45.362027 37778 net.cpp:84] Creating Layer res5a
I0131 01:44:45.362036 37778 net.cpp:406] res5a <- res5a_branch1
I0131 01:44:45.362048 37778 net.cpp:406] res5a <- res5a_branch2b
I0131 01:44:45.362059 37778 net.cpp:380] res5a -> res5a
I0131 01:44:45.362110 37778 net.cpp:122] Setting up res5a
I0131 01:44:45.362123 37778 net.cpp:129] Top shape: 64 512 7 7 (1605632)
I0131 01:44:45.362128 37778 net.cpp:137] Memory required for data: 3436052736
I0131 01:44:45.362133 37778 layer_factory.hpp:78] Creating layer res5a_relu
I0131 01:44:45.362148 37778 net.cpp:84] Creating Layer res5a_relu
I0131 01:44:45.362154 37778 net.cpp:406] res5a_relu <- res5a
I0131 01:44:45.362169 37778 net.cpp:367] res5a_relu -> res5a (in-place)
I0131 01:44:45.363024 37778 net.cpp:122] Setting up res5a_relu
I0131 01:44:45.363039 37778 net.cpp:129] Top shape: 64 512 7 7 (1605632)
I0131 01:44:45.363054 37778 net.cpp:137] Memory required for data: 3442475264
I0131 01:44:45.363061 37778 layer_factory.hpp:78] Creating layer res5a_res5a_relu_0_split
I0131 01:44:45.363075 37778 net.cpp:84] Creating Layer res5a_res5a_relu_0_split
I0131 01:44:45.363083 37778 net.cpp:406] res5a_res5a_relu_0_split <- res5a
I0131 01:44:45.363099 37778 net.cpp:380] res5a_res5a_relu_0_split -> res5a_res5a_relu_0_split_0
I0131 01:44:45.363121 37778 net.cpp:380] res5a_res5a_relu_0_split -> res5a_res5a_relu_0_split_1
I0131 01:44:45.363179 37778 net.cpp:122] Setting up res5a_res5a_relu_0_split
I0131 01:44:45.363196 37778 net.cpp:129] Top shape: 64 512 7 7 (1605632)
I0131 01:44:45.363201 37778 net.cpp:129] Top shape: 64 512 7 7 (1605632)
I0131 01:44:45.363205 37778 net.cpp:137] Memory required for data: 3455320320
I0131 01:44:45.363211 37778 layer_factory.hpp:78] Creating layer res5b_branch2a
I0131 01:44:45.363234 37778 net.cpp:84] Creating Layer res5b_branch2a
I0131 01:44:45.363242 37778 net.cpp:406] res5b_branch2a <- res5a_res5a_relu_0_split_0
I0131 01:44:45.363260 37778 net.cpp:380] res5b_branch2a -> res5b_branch2a
I0131 01:44:45.554662 37778 cudnn_binary_conv_layer.cpp:194] Reallocating workspace storage: 7788
I0131 01:44:45.554694 37778 net.cpp:122] Setting up res5b_branch2a
I0131 01:44:45.554704 37778 net.cpp:129] Top shape: 64 512 7 7 (1605632)
I0131 01:44:45.554708 37778 net.cpp:137] Memory required for data: 3461742848
I0131 01:44:45.554723 37778 layer_factory.hpp:78] Creating layer bn5b_branch2a
I0131 01:44:45.554740 37778 net.cpp:84] Creating Layer bn5b_branch2a
I0131 01:44:45.554749 37778 net.cpp:406] bn5b_branch2a <- res5b_branch2a
I0131 01:44:45.554764 37778 net.cpp:367] bn5b_branch2a -> res5b_branch2a (in-place)
I0131 01:44:45.555027 37778 net.cpp:122] Setting up bn5b_branch2a
I0131 01:44:45.555038 37778 net.cpp:129] Top shape: 64 512 7 7 (1605632)
I0131 01:44:45.555042 37778 net.cpp:137] Memory required for data: 3468165376
I0131 01:44:45.555063 37778 layer_factory.hpp:78] Creating layer scale5b_branch2a
I0131 01:44:45.555081 37778 net.cpp:84] Creating Layer scale5b_branch2a
I0131 01:44:45.555089 37778 net.cpp:406] scale5b_branch2a <- res5b_branch2a
I0131 01:44:45.555104 37778 net.cpp:367] scale5b_branch2a -> res5b_branch2a (in-place)
I0131 01:44:45.555191 37778 layer_factory.hpp:78] Creating layer scale5b_branch2a
I0131 01:44:45.555379 37778 net.cpp:122] Setting up scale5b_branch2a
I0131 01:44:45.555393 37778 net.cpp:129] Top shape: 64 512 7 7 (1605632)
I0131 01:44:45.555397 37778 net.cpp:137] Memory required for data: 3474587904
I0131 01:44:45.555413 37778 layer_factory.hpp:78] Creating layer res5b_branch2a_relu
I0131 01:44:45.555428 37778 net.cpp:84] Creating Layer res5b_branch2a_relu
I0131 01:44:45.555434 37778 net.cpp:406] res5b_branch2a_relu <- res5b_branch2a
I0131 01:44:45.555449 37778 net.cpp:367] res5b_branch2a_relu -> res5b_branch2a (in-place)
I0131 01:44:45.555464 37778 net.cpp:122] Setting up res5b_branch2a_relu
I0131 01:44:45.555470 37778 net.cpp:129] Top shape: 64 512 7 7 (1605632)
I0131 01:44:45.555474 37778 net.cpp:137] Memory required for data: 3481010432
I0131 01:44:45.555478 37778 layer_factory.hpp:78] Creating layer res5b_branch2b
I0131 01:44:45.555500 37778 net.cpp:84] Creating Layer res5b_branch2b
I0131 01:44:45.555508 37778 net.cpp:406] res5b_branch2b <- res5b_branch2a
I0131 01:44:45.555524 37778 net.cpp:380] res5b_branch2b -> res5b_branch2b
I0131 01:44:45.749740 37778 cudnn_binary_conv_layer.cpp:194] Reallocating workspace storage: 7788
I0131 01:44:45.749770 37778 net.cpp:122] Setting up res5b_branch2b
I0131 01:44:45.749781 37778 net.cpp:129] Top shape: 64 512 7 7 (1605632)
I0131 01:44:45.749784 37778 net.cpp:137] Memory required for data: 3487432960
I0131 01:44:45.749799 37778 layer_factory.hpp:78] Creating layer bn5b_branch2b
I0131 01:44:45.749816 37778 net.cpp:84] Creating Layer bn5b_branch2b
I0131 01:44:45.749825 37778 net.cpp:406] bn5b_branch2b <- res5b_branch2b
I0131 01:44:45.749843 37778 net.cpp:367] bn5b_branch2b -> res5b_branch2b (in-place)
I0131 01:44:45.750088 37778 net.cpp:122] Setting up bn5b_branch2b
I0131 01:44:45.750118 37778 net.cpp:129] Top shape: 64 512 7 7 (1605632)
I0131 01:44:45.750123 37778 net.cpp:137] Memory required for data: 3493855488
I0131 01:44:45.750196 37778 layer_factory.hpp:78] Creating layer scale5b_branch2b
I0131 01:44:45.750217 37778 net.cpp:84] Creating Layer scale5b_branch2b
I0131 01:44:45.750242 37778 net.cpp:406] scale5b_branch2b <- res5b_branch2b
I0131 01:44:45.750257 37778 net.cpp:367] scale5b_branch2b -> res5b_branch2b (in-place)
I0131 01:44:45.750329 37778 layer_factory.hpp:78] Creating layer scale5b_branch2b
I0131 01:44:45.750519 37778 net.cpp:122] Setting up scale5b_branch2b
I0131 01:44:45.750533 37778 net.cpp:129] Top shape: 64 512 7 7 (1605632)
I0131 01:44:45.750537 37778 net.cpp:137] Memory required for data: 3500278016
I0131 01:44:45.750552 37778 layer_factory.hpp:78] Creating layer res5b
I0131 01:44:45.750571 37778 net.cpp:84] Creating Layer res5b
I0131 01:44:45.750578 37778 net.cpp:406] res5b <- res5a_res5a_relu_0_split_1
I0131 01:44:45.750591 37778 net.cpp:406] res5b <- res5b_branch2b
I0131 01:44:45.750602 37778 net.cpp:380] res5b -> res5b
I0131 01:44:45.750654 37778 net.cpp:122] Setting up res5b
I0131 01:44:45.750668 37778 net.cpp:129] Top shape: 64 512 7 7 (1605632)
I0131 01:44:45.750671 37778 net.cpp:137] Memory required for data: 3506700544
I0131 01:44:45.750679 37778 layer_factory.hpp:78] Creating layer res5b_relu
I0131 01:44:45.750692 37778 net.cpp:84] Creating Layer res5b_relu
I0131 01:44:45.750700 37778 net.cpp:406] res5b_relu <- res5b
I0131 01:44:45.750713 37778 net.cpp:367] res5b_relu -> res5b (in-place)
I0131 01:44:45.751590 37778 net.cpp:122] Setting up res5b_relu
I0131 01:44:45.751605 37778 net.cpp:129] Top shape: 64 512 7 7 (1605632)
I0131 01:44:45.751624 37778 net.cpp:137] Memory required for data: 3513123072
I0131 01:44:45.751642 37778 layer_factory.hpp:78] Creating layer pool5
I0131 01:44:45.751675 37778 net.cpp:84] Creating Layer pool5
I0131 01:44:45.751694 37778 net.cpp:406] pool5 <- res5b
I0131 01:44:45.751713 37778 net.cpp:380] pool5 -> pool5
I0131 01:44:45.752411 37778 net.cpp:122] Setting up pool5
I0131 01:44:45.752444 37778 net.cpp:129] Top shape: 64 512 1 1 (32768)
I0131 01:44:45.752449 37778 net.cpp:137] Memory required for data: 3513254144
I0131 01:44:45.752454 37778 layer_factory.hpp:78] Creating layer fc1000
I0131 01:44:45.752485 37778 net.cpp:84] Creating Layer fc1000
I0131 01:44:45.752504 37778 net.cpp:406] fc1000 <- pool5
I0131 01:44:45.752537 37778 net.cpp:380] fc1000 -> fc1000
I0131 01:44:45.779903 37778 net.cpp:122] Setting up fc1000
I0131 01:44:45.779920 37778 net.cpp:129] Top shape: 64 1000 (64000)
I0131 01:44:45.779925 37778 net.cpp:137] Memory required for data: 3513510144
I0131 01:44:45.779940 37778 layer_factory.hpp:78] Creating layer loss
I0131 01:44:45.780166 37778 net.cpp:84] Creating Layer loss
I0131 01:44:45.780179 37778 net.cpp:406] loss <- fc1000
I0131 01:44:45.780194 37778 net.cpp:406] loss <- label
I0131 01:44:45.780210 37778 net.cpp:380] loss -> loss
I0131 01:44:45.780373 37778 layer_factory.hpp:78] Creating layer loss
…
I0131 01:44:45.784060 37778 net.cpp:294] The NetState phase (1) differed from the phase (0) specified by a rule in layer data
I0131 01:44:45.784534 37778 net.cpp:51] Initializing net from parameters: 
name: "ResNet-18"
state {
  phase: TEST
}
layer {
  name: "data"
  type: "Data"
  top: "data"
  top: "label"
  include {
    phase: TEST
  }
  transform_param {
    mirror: false
    crop_size: 224
    mean_value: 104
    mean_value: 117
    mean_value: 123
  }
  data_param {
    source: "/home/zhengzhe/Data/imagenet_shrt256/ilsvrc12_val_lmdb"
    batch_size: 50
    backend: LMDB
  }
}
layer {
  name: "conv1"
  type: "Convolution"
  bottom: "data"
  top: "conv1"
  convolution_param {
    num_output: 64
    bias_term: false
    pad: 3
    kernel_size: 7
    stride: 2
    weight_filler {
      type: "msra"
    }
  }
}
layer {
  name: "bn_conv1"
  type: "BatchNorm"
  bottom: "conv1"
  top: "conv1"
  batch_norm_param {
    moving_average_fraction: 0.9
  }
}
layer {
  name: "scale_conv1"
  type: "Scale"
  bottom: "conv1"
  top: "conv1"
  scale_param {
    bias_term: true
  }
}
layer {
  name: "conv1_relu"
  type: "ReLU"
  bottom: "conv1"
  top: "conv1"
}
layer {
  name: "pool1"
  type: "Pooling"
  bottom: "conv1"
  top: "pool1"
  pooling_param {
    pool: MAX
    kernel_size: 3
    stride: 2
  }
}
layer {
  name: "bn0"
  type: "BatchNorm"
  bottom: "pool1"
  top: "pool1"
}
layer {
  name: "scale0"
  type: "Scale"
  bottom: "pool1"
  top: "pool1"
  scale_param {
    bias_term: true
  }
}
layer {
  name: "res2a_branch1"
  type: "BinaryConvolution"
  bottom: "pool1"
  top: "res2a_branch1"
  convolution_param {
    num_output: 64
    bias_term: false
    pad: 0
    kernel_size: 1
    stride: 1
    weight_filler {
      type: "msra"
    }
  }
}
layer {
  name: "bn2a_branch1"
  type: "BatchNorm"
  bottom: "res2a_branch1"
  top: "res2a_branch1"
  batch_norm_param {
    moving_average_fraction: 0.9
  }
}
layer {
  name: "scale2a_branch1"
  type: "Scale"
  bottom: "res2a_branch1"
  top: "res2a_branch1"
  scale_param {
    bias_term: true
  }
}
layer {
  name: "res2a_branch2a"
  type: "BinaryConvolution"
  bottom: "pool1"
  top: "res2a_branch2a"
  convolution_param {
    num_output: 64
    bias_term: false
    pad: 1
    kernel_size: 3
    stride: 1
    weight_filler {
      type: "msra"
    }
  }
}
layer {
  name: "bn2a_branch2a"
  type: "BatchNorm"
  bottom: "res2a_branch2a"
  top: "res2a_branch2a"
  batch_norm_param {
    moving_average_fraction: 0.9
  }
}
layer {
  name: "scale2a_branch2a"
  type: "Scale"
  bottom: "res2a_branch2a"
  top: "res2a_branch2a"
  scale_param {
    bias_term: true
  }
}
layer {
  name: "res2a_branch2a_relu"
  type: "BinActive"
  bottom: "res2a_branch2a"
  top: "res2a_branch2a"
}
layer {
  name: "res2a_branch2b"
  type: "BinaryConvolution"
  bottom: "res2a_branch2a"
  top: "res2a_branch2b"
  convolution_param {
    num_output: 64
    bias_term: false
    pad: 1
    kernel_size: 3
    stride: 1
    weight_filler {
      type: "msra"
    }
  }
}
layer {
  name: "bn2a_branch2b"
  type: "BatchNorm"
  bottom: "res2a_branch2b"
  top: "res2a_branch2b"
  batch_norm_param {
    moving_average_fraction: 0.9
  }
}
layer {
  name: "scale2a_branch2b"
  type: "Scale"
  bottom: "res2a_branch2b"
  top: "res2a_branch2b"
  scale_param {
    bias_term: true
  }
}
layer {
  name: "res2a"
  type: "Eltwise"
  bottom: "res2a_branch1"
  bottom: "res2a_branch2b"
  top: "res2a"
  eltwise_param {
    operation: SUM
  }
}
layer {
  name: "res2a_relu"
  type: "ReLU"
  bottom: "res2a"
  top: "res2a"
}
layer {
  name: "res2b_branch2a"
  type: "BinaryConvolution"
  bottom: "res2a"
  top: "res2b_branch2a"
  convolution_param {
    num_output: 64
    bias_term: false
    pad: 1
    kernel_size: 3
    stride: 1
    weight_filler {
      type: "msra"
    }
  }
}
layer {
  name: "bn2b_branch2a"
  type: "BatchNorm"
  bottom: "res2b_branch2a"
  top: "res2b_branch2a"
  batch_norm_param {
    moving_average_fraction: 0.9
  }
}
layer {
  name: "scale2b_branch2a"
  type: "Scale"
  bottom: "res2b_branch2a"
  top: "res2b_branch2a"
  scale_param {
    bias_term: true
  }
}
layer {
  name: "res2b_branch2a_relu"
  type: "BinActive"
  bottom: "res2b_branch2a"
  top: "res2b_branch2a"
}
layer {
  name: "res2b_branch2b"
  type: "BinaryConvolution"
  bottom: "res2b_branch2a"
  top: "res2b_branch2b"
  convolution_param {
    num_output: 64
    bias_term: false
    pad: 1
    kernel_size: 3
    stride: 1
    weight_filler {
      type: "msra"
    }
  }
}
layer {
  name: "bn2b_branch2b"
  type: "BatchNorm"
  bottom: "res2b_branch2b"
  top: "res2b_branch2b"
  batch_norm_param {
    moving_average_fraction: 0.9
  }
}
layer {
  name: "scale2b_branch2b"
  type: "Scale"
  bottom: "res2b_branch2b"
  top: "res2b_branch2b"
  scale_param {
    bias_term: true
  }
}
layer {
  name: "res2b"
  type: "Eltwise"
  bottom: "res2a"
  bottom: "res2b_branch2b"
  top: "res2b"
  eltwise_param {
    operation: SUM
  }
}
layer {
  name: "res2b_relu"
  type: "ReLU"
  bottom: "res2b"
  top: "res2b"
}
layer {
  name: "res3a_branch1"
  type: "BinaryConvolution"
  bottom: "res2b"
  top: "res3a_branch1"
  convolution_param {
    num_output: 128
    bias_term: false
    pad: 0
    kernel_size: 1
    stride: 2
    weight_filler {
      type: "msra"
    }
  }
}
layer {
  name: "bn3a_branch1"
  type: "BatchNorm"
  bottom: "res3a_branch1"
  top: "res3a_branch1"
  batch_norm_param {
    moving_average_fraction: 0.9
  }
}
layer {
  name: "scale3a_branch1"
  type: "Scale"
  bottom: "res3a_branch1"
  top: "res3a_branch1"
  scale_param {
    bias_term: true
  }
}
layer {
  name: "res3a_branch2a"
  type: "BinaryConvolution"
  bottom: "res2b"
  top: "res3a_branch2a"
  convolution_param {
    num_output: 128
    bias_term: false
    pad: 1
    kernel_size: 3
    stride: 2
    weight_filler {
      type: "msra"
    }
  }
}
layer {
  name: "bn3a_branch2a"
  type: "BatchNorm"
  bottom: "res3a_branch2a"
  top: "res3a_branch2a"
  batch_norm_param {
    moving_average_fraction: 0.9
  }
}
layer {
  name: "scale3a_branch2a"
  type: "Scale"
  bottom: "res3a_branch2a"
  top: "res3a_branch2a"
  scale_param {
    bias_term: true
  }
}
layer {
  name: "res3a_branch2a_relu"
  type: "BinActive"
  bottom: "res3a_branch2a"
  top: "res3a_branch2a"
}
layer {
  name: "res3a_branch2b"
  type: "BinaryConvolution"
  bottom: "res3a_branch2a"
  top: "res3a_branch2b"
  convolution_param {
    num_output: 128
    bias_term: false
    pad: 1
    kernel_size: 3
    stride: 1
    weight_filler {
      type: "msra"
    }
  }
}
layer {
  name: "bn3a_branch2b"
  type: "BatchNorm"
  bottom: "res3a_branch2b"
  top: "res3a_branch2b"
  batch_norm_param {
    moving_average_fraction: 0.9
  }
}
layer {
  name: "scale3a_branch2b"
  type: "Scale"
  bottom: "res3a_branch2b"
  top: "res3a_branch2b"
  scale_param {
    bias_term: true
  }
}
layer {
  name: "res3a"
  type: "Eltwise"
  bottom: "res3a_branch1"
  bottom: "res3a_branch2b"
  top: "res3a"
  eltwise_param {
    operation: SUM
  }
}
layer {
  name: "res3a_relu"
  type: "ReLU"
  bottom: "res3a"
  top: "res3a"
}
layer {
  name: "res3b_branch2a"
  type: "BinaryConvolution"
  bottom: "res3a"
  top: "res3b_branch2a"
  convolution_param {
    num_output: 128
    bias_term: false
    pad: 1
    kernel_size: 3
    stride: 1
    weight_filler {
      type: "msra"
    }
  }
}
layer {
  name: "bn3b_branch2a"
  type: "BatchNorm"
  bottom: "res3b_branch2a"
  top: "res3b_branch2a"
  batch_norm_param {
    moving_average_fraction: 0.9
  }
}
layer {
  name: "scale3b_branch2a"
  type: "Scale"
  bottom: "res3b_branch2a"
  top: "res3b_branch2a"
  scale_param {
    bias_term: true
  }
}
layer {
  name: "res3b_branch2a_relu"
  type: "BinActive"
  bottom: "res3b_branch2a"
  top: "res3b_branch2a"
}
layer {
  name: "res3b_branch2b"
  type: "BinaryConvolution"
  bottom: "res3b_branch2a"
  top: "res3b_branch2b"
  convolution_param {
    num_output: 128
    bias_term: false
    pad: 1
    kernel_size: 3
    stride: 1
    weight_filler {
      type: "msra"
    }
  }
}
layer {
  name: "bn3b_branch2b"
  type: "BatchNorm"
  bottom: "res3b_branch2b"
  top: "res3b_branch2b"
  batch_norm_param {
    moving_average_fraction: 0.9
  }
}
layer {
  name: "scale3b_branch2b"
  type: "Scale"
  bottom: "res3b_branch2b"
  top: "res3b_branch2b"
  scale_param {
    bias_term: true
  }
}
layer {
  name: "res3b"
  type: "Eltwise"
  bottom: "res3a"
  bottom: "res3b_branch2b"
  top: "res3b"
  eltwise_param {
    operation: SUM
  }
}
layer {
  name: "res3b_relu"
  type: "ReLU"
  bottom: "res3b"
  top: "res3b"
}
layer {
  name: "res4a_branch1"
  type: "BinaryConvolution"
  bottom: "res3b"
  top: "res4a_branch1"
  convolution_param {
    num_output: 256
    bias_term: false
    pad: 0
    kernel_size: 1
    stride: 2
    weight_filler {
      type: "msra"
    }
  }
}
layer {
  name: "bn4a_branch1"
  type: "BatchNorm"
  bottom: "res4a_branch1"
  top: "res4a_branch1"
  batch_norm_param {
    moving_average_fraction: 0.9
  }
}
layer {
  name: "scale4a_branch1"
  type: "Scale"
  bottom: "res4a_branch1"
  top: "res4a_branch1"
  scale_param {
    bias_term: true
  }
}
layer {
  name: "res4a_branch2a"
  type: "BinaryConvolution"
  bottom: "res3b"
  top: "res4a_branch2a"
  convolution_param {
    num_output: 256
    bias_term: false
    pad: 1
    kernel_size: 3
    stride: 2
    weight_filler {
      type: "msra"
    }
  }
}
layer {
  name: "bn4a_branch2a"
  type: "BatchNorm"
  bottom: "res4a_branch2a"
  top: "res4a_branch2a"
  batch_norm_param {
    moving_average_fraction: 0.9
  }
}
layer {
  name: "scale4a_branch2a"
  type: "Scale"
  bottom: "res4a_branch2a"
  top: "res4a_branch2a"
  scale_param {
    bias_term: true
  }
}
layer {
  name: "res4a_branch2a_relu"
  type: "BinActive"
  bottom: "res4a_branch2a"
  top: "res4a_branch2a"
}
layer {
  name: "res4a_branch2b"
  type: "BinaryConvolution"
  bottom: "res4a_branch2a"
  top: "res4a_branch2b"
  convolution_param {
    num_output: 256
    bias_term: false
    pad: 1
    kernel_size: 3
    stride: 1
    weight_filler {
      type: "msra"
    }
  }
}
layer {
  name: "bn4a_branch2b"
  type: "BatchNorm"
  bottom: "res4a_branch2b"
  top: "res4a_branch2b"
  batch_norm_param {
    moving_average_fraction: 0.9
  }
}
layer {
  name: "scale4a_branch2b"
  type: "Scale"
  bottom: "res4a_branch2b"
  top: "res4a_branch2b"
  scale_param {
    bias_term: true
  }
}
layer {
  name: "res4a"
  type: "Eltwise"
  bottom: "res4a_branch1"
  bottom: "res4a_branch2b"
  top: "res4a"
  eltwise_param {
    operation: SUM
  }
}
layer {
  name: "res4a_relu"
  type: "ReLU"
  bottom: "res4a"
  top: "res4a"
}
layer {
  name: "res4b_branch2a"
  type: "BinaryConvolution"
  bottom: "res4a"
  top: "res4b_branch2a"
  convolution_param {
    num_output: 256
    bias_term: false
    pad: 1
    kernel_size: 3
    stride: 1
    weight_filler {
      type: "msra"
    }
  }
}
layer {
  name: "bn4b_branch2a"
  type: "BatchNorm"
  bottom: "res4b_branch2a"
  top: "res4b_branch2a"
  batch_norm_param {
    moving_average_fraction: 0.9
  }
}
layer {
  name: "scale4b_branch2a"
  type: "Scale"
  bottom: "res4b_branch2a"
  top: "res4b_branch2a"
  scale_param {
    bias_term: true
  }
}
layer {
  name: "res4b_branch2a_relu"
  type: "BinActive"
  bottom: "res4b_branch2a"
  top: "res4b_branch2a"
}
layer {
  name: "res4b_branch2b"
  type: "BinaryConvolution"
  bottom: "res4b_branch2a"
  top: "res4b_branch2b"
  convolution_param {
    num_output: 256
    bias_term: false
    pad: 1
    kernel_size: 3
    stride: 1
    weight_filler {
      type: "msra"
    }
  }
}
layer {
  name: "bn4b_branch2b"
  type: "BatchNorm"
  bottom: "res4b_branch2b"
  top: "res4b_branch2b"
  batch_norm_param {
    moving_average_fraction: 0.9
  }
}
layer {
  name: "scale4b_branch2b"
  type: "Scale"
  bottom: "res4b_branch2b"
  top: "res4b_branch2b"
  scale_param {
    bias_term: true
  }
}
layer {
  name: "res4b"
  type: "Eltwise"
  bottom: "res4a"
  bottom: "res4b_branch2b"
  top: "res4b"
  eltwise_param {
    operation: SUM
  }
}
layer {
  name: "res4b_relu"
  type: "ReLU"
  bottom: "res4b"
  top: "res4b"
}
layer {
  name: "res5a_branch1"
  type: "BinaryConvolution"
  bottom: "res4b"
  top: "res5a_branch1"
  convolution_param {
    num_output: 512
    bias_term: false
    pad: 0
    kernel_size: 1
    stride: 2
    weight_filler {
      type: "msra"
    }
  }
}
layer {
  name: "bn5a_branch1"
  type: "BatchNorm"
  bottom: "res5a_branch1"
  top: "res5a_branch1"
  batch_norm_param {
    moving_average_fraction: 0.9
  }
}
layer {
  name: "scale5a_branch1"
  type: "Scale"
  bottom: "res5a_branch1"
  top: "res5a_branch1"
  scale_param {
    bias_term: true
  }
}
layer {
  name: "res5a_branch2a"
  type: "BinaryConvolution"
  bottom: "res4b"
  top: "res5a_branch2a"
  convolution_param {
    num_output: 512
    bias_term: false
    pad: 1
    kernel_size: 3
    stride: 2
    weight_filler {
      type: "msra"
    }
  }
}
layer {
  name: "bn5a_branch2a"
  type: "BatchNorm"
  bottom: "res5a_branch2a"
  top: "res5a_branch2a"
  batch_norm_param {
    moving_average_fraction: 0.9
  }
}
layer {
  name: "scale5a_branch2a"
  type: "Scale"
  bottom: "res5a_branch2a"
  top: "res5a_branch2a"
  scale_param {
    bias_term: true
  }
}
layer {
  name: "res5a_branch2a_relu"
  type: "BinActive"
  bottom: "res5a_branch2a"
  top: "res5a_branch2a"
}
layer {
  name: "res5a_branch2b"
  type: "BinaryConvolution"
  bottom: "res5a_branch2a"
  top: "res5a_branch2b"
  convolution_param {
    num_output: 512
    bias_term: false
    pad: 1
    kernel_size: 3
    stride: 1
    weight_filler {
      type: "msra"
    }
  }
}
layer {
  name: "bn5a_branch2b"
  type: "BatchNorm"
  bottom: "res5a_branch2b"
  top: "res5a_branch2b"
  batch_norm_param {
    moving_average_fraction: 0.9
  }
}
layer {
  name: "scale5a_branch2b"
  type: "Scale"
  bottom: "res5a_branch2b"
  top: "res5a_branch2b"
  scale_param {
    bias_term: true
  }
}
layer {
  name: "res5a"
  type: "Eltwise"
  bottom: "res5a_branch1"
  bottom: "res5a_branch2b"
  top: "res5a"
  eltwise_param {
    operation: SUM
  }
}
layer {
  name: "res5a_relu"
  type: "ReLU"
  bottom: "res5a"
  top: "res5a"
}
layer {
  name: "res5b_branch2a"
  type: "BinaryConvolution"
  bottom: "res5a"
  top: "res5b_branch2a"
  convolution_param {
    num_output: 512
    bias_term: false
    pad: 1
    kernel_size: 3
    stride: 1
    weight_filler {
      type: "msra"
    }
  }
}
layer {
  name: "bn5b_branch2a"
  type: "BatchNorm"
  bottom: "res5b_branch2a"
  top: "res5b_branch2a"
  batch_norm_param {
    moving_average_fraction: 0.9
  }
}
layer {
  name: "scale5b_branch2a"
  type: "Scale"
  bottom: "res5b_branch2a"
  top: "res5b_branch2a"
  scale_param {
    bias_term: true
  }
}
layer {
  name: "res5b_branch2a_relu"
  type: "BinActive"
  bottom: "res5b_branch2a"
  top: "res5b_branch2a"
}
layer {
  name: "res5b_branch2b"
  type: "BinaryConvolution"
  bottom: "res5b_branch2a"
  top: "res5b_branch2b"
  convolution_param {
    num_output: 512
    bias_term: false
    pad: 1
    kernel_size: 3
    stride: 1
    weight_filler {
      type: "msra"
    }
  }
}
layer {
  name: "bn5b_branch2b"
  type: "BatchNorm"
  bottom: "res5b_branch2b"
  top: "res5b_branch2b"
  batch_norm_param {
    moving_average_fraction: 0.9
  }
}
layer {
  name: "scale5b_branch2b"
  type: "Scale"
  bottom: "res5b_branch2b"
  top: "res5b_branch2b"
  scale_param {
    bias_term: true
  }
}
layer {
  name: "res5b"
  type: "Eltwise"
  bottom: "res5a"
  bottom: "res5b_branch2b"
  top: "res5b"
  eltwise_param {
    operation: SUM
  }
}
layer {
  name: "res5b_relu"
  type: "ReLU"
  bottom: "res5b"
  top: "res5b"
}
layer {
  name: "pool5"
  type: "Pooling"
  bottom: "res5b"
  top: "pool5"
  pooling_param {
    pool: AVE
    kernel_size: 7
    stride: 1
  }
}
layer {
  name: "fc1000"
  type: "InnerProduct"
  bottom: "pool5"
  top: "fc1000"
  param {
    lr_mult: 1
    decay_mult: 1
  }
  param {
    lr_mult: 2
    decay_mult: 1
  }
  inner_product_param {
    num_output: 1000
    weight_filler {
      type: "xavier"
    }
    bias_filler {
      type: "constant"
      value: 0
    }
  }
}
layer {
  name: "loss"
  type: "SoftmaxWithLoss"
  bottom: "fc1000"
  bottom: "label"
  top: "loss"
}
layer {
  name: "acc/top-1"
  type: "Accuracy"
  bottom: "fc1000"
  bottom: "label"
  top: "acc/top-1"
  include {
    phase: TEST
  }
}
layer {
  name: "acc/top-5"
  type: "Accuracy"
  bottom: "fc1000"
  bottom: "label"
  top: "acc/top-5"
  include {
    phase: TEST
  }
  accuracy_param {
    top_k: 5
  }
}
I0131 01:44:45.785415 37778 layer_factory.hpp:78] Creating layer data
I0131 01:44:45.816025 37778 db_lmdb.cpp:35] Opened lmdb /home/zhengzhe/Data/imagenet_shrt256/ilsvrc12_val_lmdb
I0131 01:44:45.816087 37778 net.cpp:84] Creating Layer data
I0131 01:44:45.816107 37778 net.cpp:380] data -> data
I0131 01:44:45.816162 37778 net.cpp:380] data -> label
I0131 01:44:45.817113 37778 data_layer.cpp:45] output data size: 50,3,224,224
I0131 01:44:45.899775 37778 base_data_layer.cpp:72] Initializing prefetch
I0131 01:44:45.900442 37778 base_data_layer.cpp:75] Prefetch initialized.
I0131 01:44:45.900460 37778 net.cpp:122] Setting up data
I0131 01:44:45.900490 37778 net.cpp:129] Top shape: 50 3 224 224 (7526400)
I0131 01:44:45.900497 37778 net.cpp:129] Top shape: 50 (50)
I0131 01:44:45.900501 37778 net.cpp:137] Memory required for data: 30105800
I0131 01:44:45.900533 37778 layer_factory.hpp:78] Creating layer label_data_1_split
I0131 01:44:45.900604 37778 net.cpp:84] Creating Layer label_data_1_split
I0131 01:44:45.900619 37778 net.cpp:406] label_data_1_split <- label
I0131 01:44:45.900653 37778 net.cpp:380] label_data_1_split -> label_data_1_split_0
I0131 01:44:45.900704 37778 net.cpp:380] label_data_1_split -> label_data_1_split_1
I0131 01:44:45.900735 37778 net.cpp:380] label_data_1_split -> label_data_1_split_2
I0131 01:44:45.901063 37778 net.cpp:122] Setting up label_data_1_split
I0131 01:44:45.901094 37778 net.cpp:129] Top shape: 50 (50)
I0131 01:44:45.901103 37778 net.cpp:129] Top shape: 50 (50)
I0131 01:44:45.901108 37778 net.cpp:129] Top shape: 50 (50)
I0131 01:44:45.901113 37778 net.cpp:137] Memory required for data: 30106400
I0131 01:44:45.901118 37778 layer_factory.hpp:78] Creating layer conv1
I0131 01:44:45.901162 37778 net.cpp:84] Creating Layer conv1
I0131 01:44:45.901170 37778 net.cpp:406] conv1 <- data
I0131 01:44:45.901191 37778 net.cpp:380] conv1 -> conv1
I0131 01:44:45.905169 37778 cudnn_conv_layer.cpp:194] Reallocating workspace storage: 225816
I0131 01:44:45.905210 37778 net.cpp:122] Setting up conv1
I0131 01:44:45.905220 37778 net.cpp:129] Top shape: 50 64 112 112 (40140800)
I0131 01:44:45.905225 37778 net.cpp:137] Memory required for data: 190669600
I0131 01:44:45.905256 37778 layer_factory.hpp:78] Creating layer bn_conv1
I0131 01:44:45.905283 37778 net.cpp:84] Creating Layer bn_conv1
I0131 01:44:45.905293 37778 net.cpp:406] bn_conv1 <- conv1
I0131 01:44:45.905309 37778 net.cpp:367] bn_conv1 -> conv1 (in-place)
I0131 01:44:45.908061 37778 net.cpp:122] Setting up bn_conv1
I0131 01:44:45.908080 37778 net.cpp:129] Top shape: 50 64 112 112 (40140800)
I0131 01:44:45.908084 37778 net.cpp:137] Memory required for data: 351232800
I0131 01:44:45.908133 37778 layer_factory.hpp:78] Creating layer scale_conv1
I0131 01:44:45.908167 37778 net.cpp:84] Creating Layer scale_conv1
I0131 01:44:45.908177 37778 net.cpp:406] scale_conv1 <- conv1
I0131 01:44:45.908195 37778 net.cpp:367] scale_conv1 -> conv1 (in-place)
I0131 01:44:45.908309 37778 layer_factory.hpp:78] Creating layer scale_conv1
I0131 01:44:45.908617 37778 net.cpp:122] Setting up scale_conv1
I0131 01:44:45.908632 37778 net.cpp:129] Top shape: 50 64 112 112 (40140800)
I0131 01:44:45.908637 37778 net.cpp:137] Memory required for data: 511796000
I0131 01:44:45.908663 37778 layer_factory.hpp:78] Creating layer conv1_relu
I0131 01:44:45.908681 37778 net.cpp:84] Creating Layer conv1_relu
I0131 01:44:45.908697 37778 net.cpp:406] conv1_relu <- conv1
I0131 01:44:45.908712 37778 net.cpp:367] conv1_relu -> conv1 (in-place)
I0131 01:44:45.909420 37778 net.cpp:122] Setting up conv1_relu
I0131 01:44:45.909435 37778 net.cpp:129] Top shape: 50 64 112 112 (40140800)
I0131 01:44:45.909437 37778 net.cpp:137] Memory required for data: 672359200
I0131 01:44:45.909445 37778 layer_factory.hpp:78] Creating layer pool1
I0131 01:44:45.909466 37778 net.cpp:84] Creating Layer pool1
I0131 01:44:45.909473 37778 net.cpp:406] pool1 <- conv1
I0131 01:44:45.909490 37778 net.cpp:380] pool1 -> pool1
I0131 01:44:45.909565 37778 net.cpp:122] Setting up pool1
I0131 01:44:45.909600 37778 net.cpp:129] Top shape: 50 64 56 56 (10035200)
I0131 01:44:45.909605 37778 net.cpp:137] Memory required for data: 712500000
I0131 01:44:45.909610 37778 layer_factory.hpp:78] Creating layer bn0
I0131 01:44:45.909627 37778 net.cpp:84] Creating Layer bn0
I0131 01:44:45.909636 37778 net.cpp:406] bn0 <- pool1
I0131 01:44:45.909649 37778 net.cpp:367] bn0 -> pool1 (in-place)
I0131 01:44:45.909955 37778 net.cpp:122] Setting up bn0
I0131 01:44:45.909983 37778 net.cpp:129] Top shape: 50 64 56 56 (10035200)
I0131 01:44:45.909987 37778 net.cpp:137] Memory required for data: 752640800
I0131 01:44:45.910019 37778 layer_factory.hpp:78] Creating layer scale0
I0131 01:44:45.910043 37778 net.cpp:84] Creating Layer scale0
I0131 01:44:45.910050 37778 net.cpp:406] scale0 <- pool1
I0131 01:44:45.910065 37778 net.cpp:367] scale0 -> pool1 (in-place)
I0131 01:44:45.910145 37778 layer_factory.hpp:78] Creating layer scale0
I0131 01:44:45.910372 37778 net.cpp:122] Setting up scale0
I0131 01:44:45.910387 37778 net.cpp:129] Top shape: 50 64 56 56 (10035200)
I0131 01:44:45.910390 37778 net.cpp:137] Memory required for data: 792781600
I0131 01:44:45.910405 37778 layer_factory.hpp:78] Creating layer pool1_scale0_0_split
I0131 01:44:45.910421 37778 net.cpp:84] Creating Layer pool1_scale0_0_split
I0131 01:44:45.910444 37778 net.cpp:406] pool1_scale0_0_split <- pool1
I0131 01:44:45.910464 37778 net.cpp:380] pool1_scale0_0_split -> pool1_scale0_0_split_0
I0131 01:44:45.910493 37778 net.cpp:380] pool1_scale0_0_split -> pool1_scale0_0_split_1
I0131 01:44:45.910562 37778 net.cpp:122] Setting up pool1_scale0_0_split
I0131 01:44:45.910578 37778 net.cpp:129] Top shape: 50 64 56 56 (10035200)
I0131 01:44:45.910585 37778 net.cpp:129] Top shape: 50 64 56 56 (10035200)
I0131 01:44:45.910589 37778 net.cpp:137] Memory required for data: 873063200
I0131 01:44:45.910596 37778 layer_factory.hpp:78] Creating layer res2a_branch1
I0131 01:44:45.910620 37778 net.cpp:84] Creating Layer res2a_branch1
I0131 01:44:45.910629 37778 net.cpp:406] res2a_branch1 <- pool1_scale0_0_split_0
I0131 01:44:45.910648 37778 net.cpp:380] res2a_branch1 -> res2a_branch1
I0131 01:44:45.913682 37778 cudnn_binary_conv_layer.cpp:194] Reallocating workspace storage: 63000
I0131 01:44:45.913710 37778 net.cpp:122] Setting up res2a_branch1
I0131 01:44:45.913735 37778 net.cpp:129] Top shape: 50 64 56 56 (10035200)
I0131 01:44:45.913739 37778 net.cpp:137] Memory required for data: 913204000
I0131 01:44:45.913754 37778 layer_factory.hpp:78] Creating layer bn2a_branch1
I0131 01:44:45.913775 37778 net.cpp:84] Creating Layer bn2a_branch1
I0131 01:44:45.913794 37778 net.cpp:406] bn2a_branch1 <- res2a_branch1
I0131 01:44:45.913811 37778 net.cpp:367] bn2a_branch1 -> res2a_branch1 (in-place)
I0131 01:44:45.914083 37778 net.cpp:122] Setting up bn2a_branch1
I0131 01:44:45.914096 37778 net.cpp:129] Top shape: 50 64 56 56 (10035200)
I0131 01:44:45.914100 37778 net.cpp:137] Memory required for data: 953344800
I0131 01:44:45.914124 37778 layer_factory.hpp:78] Creating layer scale2a_branch1
I0131 01:44:45.914144 37778 net.cpp:84] Creating Layer scale2a_branch1
I0131 01:44:45.914150 37778 net.cpp:406] scale2a_branch1 <- res2a_branch1
I0131 01:44:45.914165 37778 net.cpp:367] scale2a_branch1 -> res2a_branch1 (in-place)
I0131 01:44:45.914247 37778 layer_factory.hpp:78] Creating layer scale2a_branch1
I0131 01:44:45.914472 37778 net.cpp:122] Setting up scale2a_branch1
I0131 01:44:45.914486 37778 net.cpp:129] Top shape: 50 64 56 56 (10035200)
I0131 01:44:45.914491 37778 net.cpp:137] Memory required for data: 993485600
I0131 01:44:45.914516 37778 layer_factory.hpp:78] Creating layer res2a_branch2a
I0131 01:44:45.914546 37778 net.cpp:84] Creating Layer res2a_branch2a
I0131 01:44:45.914556 37778 net.cpp:406] res2a_branch2a <- pool1_scale0_0_split_1
I0131 01:44:45.914574 37778 net.cpp:380] res2a_branch2a -> res2a_branch2a
I0131 01:44:45.920473 37778 cudnn_binary_conv_layer.cpp:194] Reallocating workspace storage: 786432
I0131 01:44:45.920516 37778 net.cpp:122] Setting up res2a_branch2a
I0131 01:44:45.920526 37778 net.cpp:129] Top shape: 50 64 56 56 (10035200)
I0131 01:44:45.920543 37778 net.cpp:137] Memory required for data: 1033626400
I0131 01:44:45.920559 37778 layer_factory.hpp:78] Creating layer bn2a_branch2a
I0131 01:44:45.920580 37778 net.cpp:84] Creating Layer bn2a_branch2a
I0131 01:44:45.920589 37778 net.cpp:406] bn2a_branch2a <- res2a_branch2a
I0131 01:44:45.920606 37778 net.cpp:367] bn2a_branch2a -> res2a_branch2a (in-place)
I0131 01:44:45.920897 37778 net.cpp:122] Setting up bn2a_branch2a
I0131 01:44:45.920912 37778 net.cpp:129] Top shape: 50 64 56 56 (10035200)
I0131 01:44:45.920915 37778 net.cpp:137] Memory required for data: 1073767200
I0131 01:44:45.920938 37778 layer_factory.hpp:78] Creating layer scale2a_branch2a
I0131 01:44:45.920956 37778 net.cpp:84] Creating Layer scale2a_branch2a
I0131 01:44:45.920974 37778 net.cpp:406] scale2a_branch2a <- res2a_branch2a
I0131 01:44:45.920990 37778 net.cpp:367] scale2a_branch2a -> res2a_branch2a (in-place)
I0131 01:44:45.921070 37778 layer_factory.hpp:78] Creating layer scale2a_branch2a
I0131 01:44:45.921280 37778 net.cpp:122] Setting up scale2a_branch2a
I0131 01:44:45.921294 37778 net.cpp:129] Top shape: 50 64 56 56 (10035200)
I0131 01:44:45.921298 37778 net.cpp:137] Memory required for data: 1113908000
I0131 01:44:45.921313 37778 layer_factory.hpp:78] Creating layer res2a_branch2a_relu
I0131 01:44:45.921331 37778 net.cpp:84] Creating Layer res2a_branch2a_relu
I0131 01:44:45.921339 37778 net.cpp:406] res2a_branch2a_relu <- res2a_branch2a
I0131 01:44:45.921362 37778 net.cpp:367] res2a_branch2a_relu -> res2a_branch2a (in-place)
I0131 01:44:45.921378 37778 net.cpp:122] Setting up res2a_branch2a_relu
I0131 01:44:45.921386 37778 net.cpp:129] Top shape: 50 64 56 56 (10035200)
I0131 01:44:45.921388 37778 net.cpp:137] Memory required for data: 1154048800
I0131 01:44:45.921394 37778 layer_factory.hpp:78] Creating layer res2a_branch2b
I0131 01:44:45.921417 37778 net.cpp:84] Creating Layer res2a_branch2b
I0131 01:44:45.921425 37778 net.cpp:406] res2a_branch2b <- res2a_branch2a
I0131 01:44:45.921442 37778 net.cpp:380] res2a_branch2b -> res2a_branch2b
I0131 01:44:45.926712 37778 cudnn_binary_conv_layer.cpp:194] Reallocating workspace storage: 786432
I0131 01:44:45.926736 37778 net.cpp:122] Setting up res2a_branch2b
I0131 01:44:45.926746 37778 net.cpp:129] Top shape: 50 64 56 56 (10035200)
I0131 01:44:45.926750 37778 net.cpp:137] Memory required for data: 1194189600
I0131 01:44:45.926764 37778 layer_factory.hpp:78] Creating layer bn2a_branch2b
I0131 01:44:45.926780 37778 net.cpp:84] Creating Layer bn2a_branch2b
I0131 01:44:45.926789 37778 net.cpp:406] bn2a_branch2b <- res2a_branch2b
I0131 01:44:45.926803 37778 net.cpp:367] bn2a_branch2b -> res2a_branch2b (in-place)
I0131 01:44:45.927062 37778 net.cpp:122] Setting up bn2a_branch2b
I0131 01:44:45.927073 37778 net.cpp:129] Top shape: 50 64 56 56 (10035200)
I0131 01:44:45.927078 37778 net.cpp:137] Memory required for data: 1234330400
I0131 01:44:45.927098 37778 layer_factory.hpp:78] Creating layer scale2a_branch2b
I0131 01:44:45.927131 37778 net.cpp:84] Creating Layer scale2a_branch2b
I0131 01:44:45.927140 37778 net.cpp:406] scale2a_branch2b <- res2a_branch2b
I0131 01:44:45.927155 37778 net.cpp:367] scale2a_branch2b -> res2a_branch2b (in-place)
I0131 01:44:45.927237 37778 layer_factory.hpp:78] Creating layer scale2a_branch2b
I0131 01:44:45.927495 37778 net.cpp:122] Setting up scale2a_branch2b
I0131 01:44:45.927508 37778 net.cpp:129] Top shape: 50 64 56 56 (10035200)
I0131 01:44:45.927512 37778 net.cpp:137] Memory required for data: 1274471200
I0131 01:44:45.927527 37778 layer_factory.hpp:78] Creating layer res2a
I0131 01:44:45.927548 37778 net.cpp:84] Creating Layer res2a
I0131 01:44:45.927557 37778 net.cpp:406] res2a <- res2a_branch1
I0131 01:44:45.927570 37778 net.cpp:406] res2a <- res2a_branch2b
I0131 01:44:45.927582 37778 net.cpp:380] res2a -> res2a
I0131 01:44:45.927635 37778 net.cpp:122] Setting up res2a
I0131 01:44:45.927654 37778 net.cpp:129] Top shape: 50 64 56 56 (10035200)
I0131 01:44:45.927659 37778 net.cpp:137] Memory required for data: 1314612000
I0131 01:44:45.927677 37778 layer_factory.hpp:78] Creating layer res2a_relu
I0131 01:44:45.927695 37778 net.cpp:84] Creating Layer res2a_relu
I0131 01:44:45.927703 37778 net.cpp:406] res2a_relu <- res2a
I0131 01:44:45.927718 37778 net.cpp:367] res2a_relu -> res2a (in-place)
I0131 01:44:45.928328 37778 net.cpp:122] Setting up res2a_relu
I0131 01:44:45.928347 37778 net.cpp:129] Top shape: 50 64 56 56 (10035200)
I0131 01:44:45.928352 37778 net.cpp:137] Memory required for data: 1354752800
I0131 01:44:45.928359 37778 layer_factory.hpp:78] Creating layer res2a_res2a_relu_0_split
I0131 01:44:45.928375 37778 net.cpp:84] Creating Layer res2a_res2a_relu_0_split
I0131 01:44:45.928381 37778 net.cpp:406] res2a_res2a_relu_0_split <- res2a
I0131 01:44:45.928396 37778 net.cpp:380] res2a_res2a_relu_0_split -> res2a_res2a_relu_0_split_0
I0131 01:44:45.928414 37778 net.cpp:380] res2a_res2a_relu_0_split -> res2a_res2a_relu_0_split_1
I0131 01:44:45.928475 37778 net.cpp:122] Setting up res2a_res2a_relu_0_split
I0131 01:44:45.928488 37778 net.cpp:129] Top shape: 50 64 56 56 (10035200)
I0131 01:44:45.928493 37778 net.cpp:129] Top shape: 50 64 56 56 (10035200)
I0131 01:44:45.928496 37778 net.cpp:137] Memory required for data: 1435034400
I0131 01:44:45.928503 37778 layer_factory.hpp:78] Creating layer res2b_branch2a
I0131 01:44:45.928522 37778 net.cpp:84] Creating Layer res2b_branch2a
I0131 01:44:45.928531 37778 net.cpp:406] res2b_branch2a <- res2a_res2a_relu_0_split_0
I0131 01:44:45.928550 37778 net.cpp:380] res2b_branch2a -> res2b_branch2a
I0131 01:44:45.934325 37778 cudnn_binary_conv_layer.cpp:194] Reallocating workspace storage: 786432
I0131 01:44:45.934357 37778 net.cpp:122] Setting up res2b_branch2a
I0131 01:44:45.934367 37778 net.cpp:129] Top shape: 50 64 56 56 (10035200)
I0131 01:44:45.934371 37778 net.cpp:137] Memory required for data: 1475175200
I0131 01:44:45.934386 37778 layer_factory.hpp:78] Creating layer bn2b_branch2a
I0131 01:44:45.934404 37778 net.cpp:84] Creating Layer bn2b_branch2a
I0131 01:44:45.934418 37778 net.cpp:406] bn2b_branch2a <- res2b_branch2a
I0131 01:44:45.934434 37778 net.cpp:367] bn2b_branch2a -> res2b_branch2a (in-place)
I0131 01:44:45.934770 37778 net.cpp:122] Setting up bn2b_branch2a
I0131 01:44:45.934800 37778 net.cpp:129] Top shape: 50 64 56 56 (10035200)
I0131 01:44:45.934805 37778 net.cpp:137] Memory required for data: 1515316000
I0131 01:44:45.934839 37778 layer_factory.hpp:78] Creating layer scale2b_branch2a
I0131 01:44:45.934859 37778 net.cpp:84] Creating Layer scale2b_branch2a
I0131 01:44:45.934868 37778 net.cpp:406] scale2b_branch2a <- res2b_branch2a
I0131 01:44:45.934886 37778 net.cpp:367] scale2b_branch2a -> res2b_branch2a (in-place)
I0131 01:44:45.934965 37778 layer_factory.hpp:78] Creating layer scale2b_branch2a
I0131 01:44:45.935212 37778 net.cpp:122] Setting up scale2b_branch2a
I0131 01:44:45.935226 37778 net.cpp:129] Top shape: 50 64 56 56 (10035200)
I0131 01:44:45.935230 37778 net.cpp:137] Memory required for data: 1555456800
I0131 01:44:45.935246 37778 layer_factory.hpp:78] Creating layer res2b_branch2a_relu
I0131 01:44:45.935263 37778 net.cpp:84] Creating Layer res2b_branch2a_relu
I0131 01:44:45.935271 37778 net.cpp:406] res2b_branch2a_relu <- res2b_branch2a
I0131 01:44:45.935286 37778 net.cpp:367] res2b_branch2a_relu -> res2b_branch2a (in-place)
I0131 01:44:45.935309 37778 net.cpp:122] Setting up res2b_branch2a_relu
I0131 01:44:45.935333 37778 net.cpp:129] Top shape: 50 64 56 56 (10035200)
I0131 01:44:45.935335 37778 net.cpp:137] Memory required for data: 1595597600
I0131 01:44:45.935346 37778 layer_factory.hpp:78] Creating layer res2b_branch2b
I0131 01:44:45.935384 37778 net.cpp:84] Creating Layer res2b_branch2b
I0131 01:44:45.935391 37778 net.cpp:406] res2b_branch2b <- res2b_branch2a
I0131 01:44:45.935412 37778 net.cpp:380] res2b_branch2b -> res2b_branch2b
I0131 01:44:45.940718 37778 cudnn_binary_conv_layer.cpp:194] Reallocating workspace storage: 786432
I0131 01:44:45.940759 37778 net.cpp:122] Setting up res2b_branch2b
I0131 01:44:45.940770 37778 net.cpp:129] Top shape: 50 64 56 56 (10035200)
I0131 01:44:45.940788 37778 net.cpp:137] Memory required for data: 1635738400
I0131 01:44:45.940804 37778 layer_factory.hpp:78] Creating layer bn2b_branch2b
I0131 01:44:45.940824 37778 net.cpp:84] Creating Layer bn2b_branch2b
I0131 01:44:45.940838 37778 net.cpp:406] bn2b_branch2b <- res2b_branch2b
I0131 01:44:45.940855 37778 net.cpp:367] bn2b_branch2b -> res2b_branch2b (in-place)
I0131 01:44:45.941164 37778 net.cpp:122] Setting up bn2b_branch2b
I0131 01:44:45.941175 37778 net.cpp:129] Top shape: 50 64 56 56 (10035200)
I0131 01:44:45.941195 37778 net.cpp:137] Memory required for data: 1675879200
I0131 01:44:45.941216 37778 layer_factory.hpp:78] Creating layer scale2b_branch2b
I0131 01:44:45.941234 37778 net.cpp:84] Creating Layer scale2b_branch2b
I0131 01:44:45.941242 37778 net.cpp:406] scale2b_branch2b <- res2b_branch2b
I0131 01:44:45.941257 37778 net.cpp:367] scale2b_branch2b -> res2b_branch2b (in-place)
I0131 01:44:45.941340 37778 layer_factory.hpp:78] Creating layer scale2b_branch2b
I0131 01:44:45.941560 37778 net.cpp:122] Setting up scale2b_branch2b
I0131 01:44:45.941573 37778 net.cpp:129] Top shape: 50 64 56 56 (10035200)
I0131 01:44:45.941577 37778 net.cpp:137] Memory required for data: 1716020000
I0131 01:44:45.941592 37778 layer_factory.hpp:78] Creating layer res2b
I0131 01:44:45.941619 37778 net.cpp:84] Creating Layer res2b
I0131 01:44:45.941633 37778 net.cpp:406] res2b <- res2a_res2a_relu_0_split_1
I0131 01:44:45.941648 37778 net.cpp:406] res2b <- res2b_branch2b
I0131 01:44:45.941660 37778 net.cpp:380] res2b -> res2b
I0131 01:44:45.941716 37778 net.cpp:122] Setting up res2b
I0131 01:44:45.941730 37778 net.cpp:129] Top shape: 50 64 56 56 (10035200)
I0131 01:44:45.941735 37778 net.cpp:137] Memory required for data: 1756160800
I0131 01:44:45.941740 37778 layer_factory.hpp:78] Creating layer res2b_relu
I0131 01:44:45.941754 37778 net.cpp:84] Creating Layer res2b_relu
I0131 01:44:45.941761 37778 net.cpp:406] res2b_relu <- res2b
I0131 01:44:45.941776 37778 net.cpp:367] res2b_relu -> res2b (in-place)
I0131 01:44:45.942414 37778 net.cpp:122] Setting up res2b_relu
I0131 01:44:45.942426 37778 net.cpp:129] Top shape: 50 64 56 56 (10035200)
I0131 01:44:45.942446 37778 net.cpp:137] Memory required for data: 1796301600
I0131 01:44:45.942452 37778 layer_factory.hpp:78] Creating layer res2b_res2b_relu_0_split
I0131 01:44:45.942472 37778 net.cpp:84] Creating Layer res2b_res2b_relu_0_split
I0131 01:44:45.942481 37778 net.cpp:406] res2b_res2b_relu_0_split <- res2b
I0131 01:44:45.942497 37778 net.cpp:380] res2b_res2b_relu_0_split -> res2b_res2b_relu_0_split_0
I0131 01:44:45.942517 37778 net.cpp:380] res2b_res2b_relu_0_split -> res2b_res2b_relu_0_split_1
I0131 01:44:45.942581 37778 net.cpp:122] Setting up res2b_res2b_relu_0_split
I0131 01:44:45.942593 37778 net.cpp:129] Top shape: 50 64 56 56 (10035200)
I0131 01:44:45.942600 37778 net.cpp:129] Top shape: 50 64 56 56 (10035200)
I0131 01:44:45.942602 37778 net.cpp:137] Memory required for data: 1876583200
I0131 01:44:45.942608 37778 layer_factory.hpp:78] Creating layer res3a_branch1
I0131 01:44:45.942631 37778 net.cpp:84] Creating Layer res3a_branch1
I0131 01:44:45.942641 37778 net.cpp:406] res3a_branch1 <- res2b_res2b_relu_0_split_0
I0131 01:44:45.942675 37778 net.cpp:380] res3a_branch1 -> res3a_branch1
I0131 01:44:45.946135 37778 cudnn_binary_conv_layer.cpp:194] Reallocating workspace storage: 14136
I0131 01:44:45.946164 37778 net.cpp:122] Setting up res3a_branch1
I0131 01:44:45.946175 37778 net.cpp:129] Top shape: 50 128 28 28 (5017600)
I0131 01:44:45.946179 37778 net.cpp:137] Memory required for data: 1896653600
I0131 01:44:45.946193 37778 layer_factory.hpp:78] Creating layer bn3a_branch1
I0131 01:44:45.946213 37778 net.cpp:84] Creating Layer bn3a_branch1
I0131 01:44:45.946223 37778 net.cpp:406] bn3a_branch1 <- res3a_branch1
I0131 01:44:45.946238 37778 net.cpp:367] bn3a_branch1 -> res3a_branch1 (in-place)
I0131 01:44:45.946519 37778 net.cpp:122] Setting up bn3a_branch1
I0131 01:44:45.946532 37778 net.cpp:129] Top shape: 50 128 28 28 (5017600)
I0131 01:44:45.946537 37778 net.cpp:137] Memory required for data: 1916724000
I0131 01:44:45.946575 37778 layer_factory.hpp:78] Creating layer scale3a_branch1
I0131 01:44:45.946595 37778 net.cpp:84] Creating Layer scale3a_branch1
I0131 01:44:45.946604 37778 net.cpp:406] scale3a_branch1 <- res3a_branch1
I0131 01:44:45.946619 37778 net.cpp:367] scale3a_branch1 -> res3a_branch1 (in-place)
I0131 01:44:45.946702 37778 layer_factory.hpp:78] Creating layer scale3a_branch1
I0131 01:44:45.946889 37778 net.cpp:122] Setting up scale3a_branch1
I0131 01:44:45.946903 37778 net.cpp:129] Top shape: 50 128 28 28 (5017600)
I0131 01:44:45.946907 37778 net.cpp:137] Memory required for data: 1936794400
I0131 01:44:45.946921 37778 layer_factory.hpp:78] Creating layer res3a_branch2a
I0131 01:44:45.946946 37778 net.cpp:84] Creating Layer res3a_branch2a
I0131 01:44:45.946956 37778 net.cpp:406] res3a_branch2a <- res2b_res2b_relu_0_split_1
I0131 01:44:45.946974 37778 net.cpp:380] res3a_branch2a -> res3a_branch2a
I0131 01:44:45.955241 37778 cudnn_binary_conv_layer.cpp:194] Reallocating workspace storage: 14136
I0131 01:44:45.955271 37778 net.cpp:122] Setting up res3a_branch2a
I0131 01:44:45.955281 37778 net.cpp:129] Top shape: 50 128 28 28 (5017600)
I0131 01:44:45.955283 37778 net.cpp:137] Memory required for data: 1956864800
I0131 01:44:45.955297 37778 layer_factory.hpp:78] Creating layer bn3a_branch2a
I0131 01:44:45.955313 37778 net.cpp:84] Creating Layer bn3a_branch2a
I0131 01:44:45.955322 37778 net.cpp:406] bn3a_branch2a <- res3a_branch2a
I0131 01:44:45.955340 37778 net.cpp:367] bn3a_branch2a -> res3a_branch2a (in-place)
I0131 01:44:45.955652 37778 net.cpp:122] Setting up bn3a_branch2a
I0131 01:44:45.955665 37778 net.cpp:129] Top shape: 50 128 28 28 (5017600)
I0131 01:44:45.955669 37778 net.cpp:137] Memory required for data: 1976935200
I0131 01:44:45.955691 37778 layer_factory.hpp:78] Creating layer scale3a_branch2a
I0131 01:44:45.955713 37778 net.cpp:84] Creating Layer scale3a_branch2a
I0131 01:44:45.955723 37778 net.cpp:406] scale3a_branch2a <- res3a_branch2a
I0131 01:44:45.955739 37778 net.cpp:367] scale3a_branch2a -> res3a_branch2a (in-place)
I0131 01:44:45.955822 37778 layer_factory.hpp:78] Creating layer scale3a_branch2a
I0131 01:44:45.956018 37778 net.cpp:122] Setting up scale3a_branch2a
I0131 01:44:45.956032 37778 net.cpp:129] Top shape: 50 128 28 28 (5017600)
I0131 01:44:45.956035 37778 net.cpp:137] Memory required for data: 1997005600
I0131 01:44:45.956050 37778 layer_factory.hpp:78] Creating layer res3a_branch2a_relu
I0131 01:44:45.956065 37778 net.cpp:84] Creating Layer res3a_branch2a_relu
I0131 01:44:45.956076 37778 net.cpp:406] res3a_branch2a_relu <- res3a_branch2a
I0131 01:44:45.956094 37778 net.cpp:367] res3a_branch2a_relu -> res3a_branch2a (in-place)
I0131 01:44:45.956110 37778 net.cpp:122] Setting up res3a_branch2a_relu
I0131 01:44:45.956118 37778 net.cpp:129] Top shape: 50 128 28 28 (5017600)
I0131 01:44:45.956122 37778 net.cpp:137] Memory required for data: 2017076000
I0131 01:44:45.956128 37778 layer_factory.hpp:78] Creating layer res3a_branch2b
I0131 01:44:45.956147 37778 net.cpp:84] Creating Layer res3a_branch2b
I0131 01:44:45.956156 37778 net.cpp:406] res3a_branch2b <- res3a_branch2a
I0131 01:44:45.956171 37778 net.cpp:380] res3a_branch2b -> res3a_branch2b
I0131 01:44:45.972177 37778 cudnn_binary_conv_layer.cpp:194] Reallocating workspace storage: 3145728
I0131 01:44:45.972507 37778 net.cpp:122] Setting up res3a_branch2b
I0131 01:44:45.972540 37778 net.cpp:129] Top shape: 50 128 28 28 (5017600)
I0131 01:44:45.972544 37778 net.cpp:137] Memory required for data: 2037146400
I0131 01:44:45.972559 37778 layer_factory.hpp:78] Creating layer bn3a_branch2b
I0131 01:44:45.972578 37778 net.cpp:84] Creating Layer bn3a_branch2b
I0131 01:44:45.972585 37778 net.cpp:406] bn3a_branch2b <- res3a_branch2b
I0131 01:44:45.972605 37778 net.cpp:367] bn3a_branch2b -> res3a_branch2b (in-place)
I0131 01:44:45.972908 37778 net.cpp:122] Setting up bn3a_branch2b
I0131 01:44:45.972934 37778 net.cpp:129] Top shape: 50 128 28 28 (5017600)
I0131 01:44:45.972954 37778 net.cpp:137] Memory required for data: 2057216800
I0131 01:44:45.972990 37778 layer_factory.hpp:78] Creating layer scale3a_branch2b
I0131 01:44:45.973008 37778 net.cpp:84] Creating Layer scale3a_branch2b
I0131 01:44:45.973016 37778 net.cpp:406] scale3a_branch2b <- res3a_branch2b
I0131 01:44:45.973034 37778 net.cpp:367] scale3a_branch2b -> res3a_branch2b (in-place)
I0131 01:44:45.973111 37778 layer_factory.hpp:78] Creating layer scale3a_branch2b
I0131 01:44:45.973305 37778 net.cpp:122] Setting up scale3a_branch2b
I0131 01:44:45.973320 37778 net.cpp:129] Top shape: 50 128 28 28 (5017600)
I0131 01:44:45.973323 37778 net.cpp:137] Memory required for data: 2077287200
I0131 01:44:45.973338 37778 layer_factory.hpp:78] Creating layer res3a
I0131 01:44:45.973374 37778 net.cpp:84] Creating Layer res3a
I0131 01:44:45.973387 37778 net.cpp:406] res3a <- res3a_branch1
I0131 01:44:45.973402 37778 net.cpp:406] res3a <- res3a_branch2b
I0131 01:44:45.973423 37778 net.cpp:380] res3a -> res3a
I0131 01:44:45.973479 37778 net.cpp:122] Setting up res3a
I0131 01:44:45.973492 37778 net.cpp:129] Top shape: 50 128 28 28 (5017600)
I0131 01:44:45.973496 37778 net.cpp:137] Memory required for data: 2097357600
I0131 01:44:45.973502 37778 layer_factory.hpp:78] Creating layer res3a_relu
I0131 01:44:45.973516 37778 net.cpp:84] Creating Layer res3a_relu
I0131 01:44:45.973523 37778 net.cpp:406] res3a_relu <- res3a
I0131 01:44:45.973537 37778 net.cpp:367] res3a_relu -> res3a (in-place)
I0131 01:44:45.974452 37778 net.cpp:122] Setting up res3a_relu
I0131 01:44:45.974484 37778 net.cpp:129] Top shape: 50 128 28 28 (5017600)
I0131 01:44:45.974488 37778 net.cpp:137] Memory required for data: 2117428000
I0131 01:44:45.974495 37778 layer_factory.hpp:78] Creating layer res3a_res3a_relu_0_split
I0131 01:44:45.974510 37778 net.cpp:84] Creating Layer res3a_res3a_relu_0_split
I0131 01:44:45.974519 37778 net.cpp:406] res3a_res3a_relu_0_split <- res3a
I0131 01:44:45.974536 37778 net.cpp:380] res3a_res3a_relu_0_split -> res3a_res3a_relu_0_split_0
I0131 01:44:45.974556 37778 net.cpp:380] res3a_res3a_relu_0_split -> res3a_res3a_relu_0_split_1
I0131 01:44:45.974630 37778 net.cpp:122] Setting up res3a_res3a_relu_0_split
I0131 01:44:45.974642 37778 net.cpp:129] Top shape: 50 128 28 28 (5017600)
I0131 01:44:45.974649 37778 net.cpp:129] Top shape: 50 128 28 28 (5017600)
I0131 01:44:45.974653 37778 net.cpp:137] Memory required for data: 2157568800
I0131 01:44:45.974668 37778 layer_factory.hpp:78] Creating layer res3b_branch2a
I0131 01:44:45.974689 37778 net.cpp:84] Creating Layer res3b_branch2a
I0131 01:44:45.974697 37778 net.cpp:406] res3b_branch2a <- res3a_res3a_relu_0_split_0
I0131 01:44:45.974719 37778 net.cpp:380] res3b_branch2a -> res3b_branch2a
I0131 01:44:45.988868 37778 cudnn_binary_conv_layer.cpp:194] Reallocating workspace storage: 3145728
I0131 01:44:45.989228 37778 net.cpp:122] Setting up res3b_branch2a
I0131 01:44:45.989264 37778 net.cpp:129] Top shape: 50 128 28 28 (5017600)
I0131 01:44:45.989269 37778 net.cpp:137] Memory required for data: 2177639200
I0131 01:44:45.989284 37778 layer_factory.hpp:78] Creating layer bn3b_branch2a
I0131 01:44:45.989302 37778 net.cpp:84] Creating Layer bn3b_branch2a
I0131 01:44:45.989311 37778 net.cpp:406] bn3b_branch2a <- res3b_branch2a
I0131 01:44:45.989327 37778 net.cpp:367] bn3b_branch2a -> res3b_branch2a (in-place)
I0131 01:44:45.989614 37778 net.cpp:122] Setting up bn3b_branch2a
I0131 01:44:45.989639 37778 net.cpp:129] Top shape: 50 128 28 28 (5017600)
I0131 01:44:45.989657 37778 net.cpp:137] Memory required for data: 2197709600
I0131 01:44:45.989696 37778 layer_factory.hpp:78] Creating layer scale3b_branch2a
I0131 01:44:45.989713 37778 net.cpp:84] Creating Layer scale3b_branch2a
I0131 01:44:45.989722 37778 net.cpp:406] scale3b_branch2a <- res3b_branch2a
I0131 01:44:45.989737 37778 net.cpp:367] scale3b_branch2a -> res3b_branch2a (in-place)
I0131 01:44:45.989818 37778 layer_factory.hpp:78] Creating layer scale3b_branch2a
I0131 01:44:45.990012 37778 net.cpp:122] Setting up scale3b_branch2a
I0131 01:44:45.990026 37778 net.cpp:129] Top shape: 50 128 28 28 (5017600)
I0131 01:44:45.990046 37778 net.cpp:137] Memory required for data: 2217780000
I0131 01:44:45.990085 37778 layer_factory.hpp:78] Creating layer res3b_branch2a_relu
I0131 01:44:45.990103 37778 net.cpp:84] Creating Layer res3b_branch2a_relu
I0131 01:44:45.990113 37778 net.cpp:406] res3b_branch2a_relu <- res3b_branch2a
I0131 01:44:45.990128 37778 net.cpp:367] res3b_branch2a_relu -> res3b_branch2a (in-place)
I0131 01:44:45.990144 37778 net.cpp:122] Setting up res3b_branch2a_relu
I0131 01:44:45.990154 37778 net.cpp:129] Top shape: 50 128 28 28 (5017600)
I0131 01:44:45.990156 37778 net.cpp:137] Memory required for data: 2237850400
I0131 01:44:45.990162 37778 layer_factory.hpp:78] Creating layer res3b_branch2b
I0131 01:44:45.990185 37778 net.cpp:84] Creating Layer res3b_branch2b
I0131 01:44:45.990192 37778 net.cpp:406] res3b_branch2b <- res3b_branch2a
I0131 01:44:45.990209 37778 net.cpp:380] res3b_branch2b -> res3b_branch2b
I0131 01:44:46.005239 37778 cudnn_binary_conv_layer.cpp:194] Reallocating workspace storage: 3145728
I0131 01:44:46.005589 37778 net.cpp:122] Setting up res3b_branch2b
I0131 01:44:46.005610 37778 net.cpp:129] Top shape: 50 128 28 28 (5017600)
I0131 01:44:46.005620 37778 net.cpp:137] Memory required for data: 2257920800
I0131 01:44:46.005635 37778 layer_factory.hpp:78] Creating layer bn3b_branch2b
I0131 01:44:46.005658 37778 net.cpp:84] Creating Layer bn3b_branch2b
I0131 01:44:46.005668 37778 net.cpp:406] bn3b_branch2b <- res3b_branch2b
I0131 01:44:46.005686 37778 net.cpp:367] bn3b_branch2b -> res3b_branch2b (in-place)
I0131 01:44:46.006011 37778 net.cpp:122] Setting up bn3b_branch2b
I0131 01:44:46.006023 37778 net.cpp:129] Top shape: 50 128 28 28 (5017600)
I0131 01:44:46.006027 37778 net.cpp:137] Memory required for data: 2277991200
I0131 01:44:46.006048 37778 layer_factory.hpp:78] Creating layer scale3b_branch2b
I0131 01:44:46.006067 37778 net.cpp:84] Creating Layer scale3b_branch2b
I0131 01:44:46.006075 37778 net.cpp:406] scale3b_branch2b <- res3b_branch2b
I0131 01:44:46.006090 37778 net.cpp:367] scale3b_branch2b -> res3b_branch2b (in-place)
I0131 01:44:46.006176 37778 layer_factory.hpp:78] Creating layer scale3b_branch2b
I0131 01:44:46.006376 37778 net.cpp:122] Setting up scale3b_branch2b
I0131 01:44:46.006391 37778 net.cpp:129] Top shape: 50 128 28 28 (5017600)
I0131 01:44:46.006394 37778 net.cpp:137] Memory required for data: 2298061600
I0131 01:44:46.006409 37778 layer_factory.hpp:78] Creating layer res3b
I0131 01:44:46.006425 37778 net.cpp:84] Creating Layer res3b
I0131 01:44:46.006435 37778 net.cpp:406] res3b <- res3a_res3a_relu_0_split_1
I0131 01:44:46.006448 37778 net.cpp:406] res3b <- res3b_branch2b
I0131 01:44:46.006462 37778 net.cpp:380] res3b -> res3b
I0131 01:44:46.006517 37778 net.cpp:122] Setting up res3b
I0131 01:44:46.006531 37778 net.cpp:129] Top shape: 50 128 28 28 (5017600)
I0131 01:44:46.006534 37778 net.cpp:137] Memory required for data: 2318132000
I0131 01:44:46.006541 37778 layer_factory.hpp:78] Creating layer res3b_relu
I0131 01:44:46.006554 37778 net.cpp:84] Creating Layer res3b_relu
I0131 01:44:46.006562 37778 net.cpp:406] res3b_relu <- res3b
I0131 01:44:46.006577 37778 net.cpp:367] res3b_relu -> res3b (in-place)
I0131 01:44:46.007458 37778 net.cpp:122] Setting up res3b_relu
I0131 01:44:46.007473 37778 net.cpp:129] Top shape: 50 128 28 28 (5017600)
I0131 01:44:46.007477 37778 net.cpp:137] Memory required for data: 2338202400
I0131 01:44:46.007484 37778 layer_factory.hpp:78] Creating layer res3b_res3b_relu_0_split
I0131 01:44:46.007498 37778 net.cpp:84] Creating Layer res3b_res3b_relu_0_split
I0131 01:44:46.007506 37778 net.cpp:406] res3b_res3b_relu_0_split <- res3b
I0131 01:44:46.007524 37778 net.cpp:380] res3b_res3b_relu_0_split -> res3b_res3b_relu_0_split_0
I0131 01:44:46.007542 37778 net.cpp:380] res3b_res3b_relu_0_split -> res3b_res3b_relu_0_split_1
I0131 01:44:46.007609 37778 net.cpp:122] Setting up res3b_res3b_relu_0_split
I0131 01:44:46.007622 37778 net.cpp:129] Top shape: 50 128 28 28 (5017600)
I0131 01:44:46.007628 37778 net.cpp:129] Top shape: 50 128 28 28 (5017600)
I0131 01:44:46.007644 37778 net.cpp:137] Memory required for data: 2378343200
I0131 01:44:46.007666 37778 layer_factory.hpp:78] Creating layer res4a_branch1
I0131 01:44:46.007690 37778 net.cpp:84] Creating Layer res4a_branch1
I0131 01:44:46.007699 37778 net.cpp:406] res4a_branch1 <- res3b_res3b_relu_0_split_0
I0131 01:44:46.007719 37778 net.cpp:380] res4a_branch1 -> res4a_branch1
I0131 01:44:46.012639 37778 cudnn_binary_conv_layer.cpp:194] Reallocating workspace storage: 7032
I0131 01:44:46.012666 37778 net.cpp:122] Setting up res4a_branch1
I0131 01:44:46.012683 37778 net.cpp:129] Top shape: 50 256 14 14 (2508800)
I0131 01:44:46.012688 37778 net.cpp:137] Memory required for data: 2388378400
I0131 01:44:46.012702 37778 layer_factory.hpp:78] Creating layer bn4a_branch1
I0131 01:44:46.012718 37778 net.cpp:84] Creating Layer bn4a_branch1
I0131 01:44:46.012727 37778 net.cpp:406] bn4a_branch1 <- res4a_branch1
I0131 01:44:46.012742 37778 net.cpp:367] bn4a_branch1 -> res4a_branch1 (in-place)
I0131 01:44:46.013058 37778 net.cpp:122] Setting up bn4a_branch1
I0131 01:44:46.013072 37778 net.cpp:129] Top shape: 50 256 14 14 (2508800)
I0131 01:44:46.013074 37778 net.cpp:137] Memory required for data: 2398413600
I0131 01:44:46.013097 37778 layer_factory.hpp:78] Creating layer scale4a_branch1
I0131 01:44:46.013114 37778 net.cpp:84] Creating Layer scale4a_branch1
I0131 01:44:46.013123 37778 net.cpp:406] scale4a_branch1 <- res4a_branch1
I0131 01:44:46.013139 37778 net.cpp:367] scale4a_branch1 -> res4a_branch1 (in-place)
I0131 01:44:46.013221 37778 layer_factory.hpp:78] Creating layer scale4a_branch1
I0131 01:44:46.013417 37778 net.cpp:122] Setting up scale4a_branch1
I0131 01:44:46.013430 37778 net.cpp:129] Top shape: 50 256 14 14 (2508800)
I0131 01:44:46.013434 37778 net.cpp:137] Memory required for data: 2408448800
I0131 01:44:46.013449 37778 layer_factory.hpp:78] Creating layer res4a_branch2a
I0131 01:44:46.013473 37778 net.cpp:84] Creating Layer res4a_branch2a
I0131 01:44:46.013483 37778 net.cpp:406] res4a_branch2a <- res3b_res3b_relu_0_split_1
I0131 01:44:46.013504 37778 net.cpp:380] res4a_branch2a -> res4a_branch2a
I0131 01:44:46.040174 37778 cudnn_binary_conv_layer.cpp:194] Reallocating workspace storage: 9048
I0131 01:44:46.040205 37778 net.cpp:122] Setting up res4a_branch2a
I0131 01:44:46.040216 37778 net.cpp:129] Top shape: 50 256 14 14 (2508800)
I0131 01:44:46.040220 37778 net.cpp:137] Memory required for data: 2418484000
I0131 01:44:46.040233 37778 layer_factory.hpp:78] Creating layer bn4a_branch2a
I0131 01:44:46.040251 37778 net.cpp:84] Creating Layer bn4a_branch2a
I0131 01:44:46.040258 37778 net.cpp:406] bn4a_branch2a <- res4a_branch2a
I0131 01:44:46.040273 37778 net.cpp:367] bn4a_branch2a -> res4a_branch2a (in-place)
I0131 01:44:46.040581 37778 net.cpp:122] Setting up bn4a_branch2a
I0131 01:44:46.040594 37778 net.cpp:129] Top shape: 50 256 14 14 (2508800)
I0131 01:44:46.040613 37778 net.cpp:137] Memory required for data: 2428519200
I0131 01:44:46.040635 37778 layer_factory.hpp:78] Creating layer scale4a_branch2a
I0131 01:44:46.040653 37778 net.cpp:84] Creating Layer scale4a_branch2a
I0131 01:44:46.040661 37778 net.cpp:406] scale4a_branch2a <- res4a_branch2a
I0131 01:44:46.040675 37778 net.cpp:367] scale4a_branch2a -> res4a_branch2a (in-place)
I0131 01:44:46.040758 37778 layer_factory.hpp:78] Creating layer scale4a_branch2a
I0131 01:44:46.040948 37778 net.cpp:122] Setting up scale4a_branch2a
I0131 01:44:46.040961 37778 net.cpp:129] Top shape: 50 256 14 14 (2508800)
I0131 01:44:46.040966 37778 net.cpp:137] Memory required for data: 2438554400
I0131 01:44:46.040992 37778 layer_factory.hpp:78] Creating layer res4a_branch2a_relu
I0131 01:44:46.041007 37778 net.cpp:84] Creating Layer res4a_branch2a_relu
I0131 01:44:46.041019 37778 net.cpp:406] res4a_branch2a_relu <- res4a_branch2a
I0131 01:44:46.041034 37778 net.cpp:367] res4a_branch2a_relu -> res4a_branch2a (in-place)
I0131 01:44:46.041074 37778 net.cpp:122] Setting up res4a_branch2a_relu
I0131 01:44:46.041082 37778 net.cpp:129] Top shape: 50 256 14 14 (2508800)
I0131 01:44:46.041101 37778 net.cpp:137] Memory required for data: 2448589600
I0131 01:44:46.041108 37778 layer_factory.hpp:78] Creating layer res4a_branch2b
I0131 01:44:46.041133 37778 net.cpp:84] Creating Layer res4a_branch2b
I0131 01:44:46.041142 37778 net.cpp:406] res4a_branch2b <- res4a_branch2a
I0131 01:44:46.041160 37778 net.cpp:380] res4a_branch2b -> res4a_branch2b
I0131 01:44:46.091444 37778 cudnn_binary_conv_layer.cpp:194] Reallocating workspace storage: 9480
I0131 01:44:46.091516 37778 net.cpp:122] Setting up res4a_branch2b
I0131 01:44:46.091529 37778 net.cpp:129] Top shape: 50 256 14 14 (2508800)
I0131 01:44:46.091533 37778 net.cpp:137] Memory required for data: 2458624800
I0131 01:44:46.091547 37778 layer_factory.hpp:78] Creating layer bn4a_branch2b
I0131 01:44:46.091572 37778 net.cpp:84] Creating Layer bn4a_branch2b
I0131 01:44:46.091583 37778 net.cpp:406] bn4a_branch2b <- res4a_branch2b
I0131 01:44:46.091603 37778 net.cpp:367] bn4a_branch2b -> res4a_branch2b (in-place)
I0131 01:44:46.091893 37778 net.cpp:122] Setting up bn4a_branch2b
I0131 01:44:46.091905 37778 net.cpp:129] Top shape: 50 256 14 14 (2508800)
I0131 01:44:46.091909 37778 net.cpp:137] Memory required for data: 2468660000
I0131 01:44:46.091933 37778 layer_factory.hpp:78] Creating layer scale4a_branch2b
I0131 01:44:46.091953 37778 net.cpp:84] Creating Layer scale4a_branch2b
I0131 01:44:46.091959 37778 net.cpp:406] scale4a_branch2b <- res4a_branch2b
I0131 01:44:46.091979 37778 net.cpp:367] scale4a_branch2b -> res4a_branch2b (in-place)
I0131 01:44:46.092059 37778 layer_factory.hpp:78] Creating layer scale4a_branch2b
I0131 01:44:46.092248 37778 net.cpp:122] Setting up scale4a_branch2b
I0131 01:44:46.092262 37778 net.cpp:129] Top shape: 50 256 14 14 (2508800)
I0131 01:44:46.092267 37778 net.cpp:137] Memory required for data: 2478695200
I0131 01:44:46.092281 37778 layer_factory.hpp:78] Creating layer res4a
I0131 01:44:46.092298 37778 net.cpp:84] Creating Layer res4a
I0131 01:44:46.092305 37778 net.cpp:406] res4a <- res4a_branch1
I0131 01:44:46.092317 37778 net.cpp:406] res4a <- res4a_branch2b
I0131 01:44:46.092337 37778 net.cpp:380] res4a -> res4a
I0131 01:44:46.092398 37778 net.cpp:122] Setting up res4a
I0131 01:44:46.092411 37778 net.cpp:129] Top shape: 50 256 14 14 (2508800)
I0131 01:44:46.092416 37778 net.cpp:137] Memory required for data: 2488730400
I0131 01:44:46.092422 37778 layer_factory.hpp:78] Creating layer res4a_relu
I0131 01:44:46.092435 37778 net.cpp:84] Creating Layer res4a_relu
I0131 01:44:46.092442 37778 net.cpp:406] res4a_relu <- res4a
I0131 01:44:46.092456 37778 net.cpp:367] res4a_relu -> res4a (in-place)
I0131 01:44:46.093406 37778 net.cpp:122] Setting up res4a_relu
I0131 01:44:46.093439 37778 net.cpp:129] Top shape: 50 256 14 14 (2508800)
I0131 01:44:46.093444 37778 net.cpp:137] Memory required for data: 2498765600
I0131 01:44:46.093462 37778 layer_factory.hpp:78] Creating layer res4a_res4a_relu_0_split
I0131 01:44:46.093477 37778 net.cpp:84] Creating Layer res4a_res4a_relu_0_split
I0131 01:44:46.093483 37778 net.cpp:406] res4a_res4a_relu_0_split <- res4a
I0131 01:44:46.093500 37778 net.cpp:380] res4a_res4a_relu_0_split -> res4a_res4a_relu_0_split_0
I0131 01:44:46.093518 37778 net.cpp:380] res4a_res4a_relu_0_split -> res4a_res4a_relu_0_split_1
I0131 01:44:46.093587 37778 net.cpp:122] Setting up res4a_res4a_relu_0_split
I0131 01:44:46.093612 37778 net.cpp:129] Top shape: 50 256 14 14 (2508800)
I0131 01:44:46.093617 37778 net.cpp:129] Top shape: 50 256 14 14 (2508800)
I0131 01:44:46.093621 37778 net.cpp:137] Memory required for data: 2518836000
I0131 01:44:46.093626 37778 layer_factory.hpp:78] Creating layer res4b_branch2a
I0131 01:44:46.093649 37778 net.cpp:84] Creating Layer res4b_branch2a
I0131 01:44:46.093657 37778 net.cpp:406] res4b_branch2a <- res4a_res4a_relu_0_split_0
I0131 01:44:46.093689 37778 net.cpp:380] res4b_branch2a -> res4b_branch2a
I0131 01:44:46.144552 37778 cudnn_binary_conv_layer.cpp:194] Reallocating workspace storage: 9480
I0131 01:44:46.144599 37778 net.cpp:122] Setting up res4b_branch2a
I0131 01:44:46.144623 37778 net.cpp:129] Top shape: 50 256 14 14 (2508800)
I0131 01:44:46.144629 37778 net.cpp:137] Memory required for data: 2528871200
I0131 01:44:46.144644 37778 layer_factory.hpp:78] Creating layer bn4b_branch2a
I0131 01:44:46.144661 37778 net.cpp:84] Creating Layer bn4b_branch2a
I0131 01:44:46.144670 37778 net.cpp:406] bn4b_branch2a <- res4b_branch2a
I0131 01:44:46.144686 37778 net.cpp:367] bn4b_branch2a -> res4b_branch2a (in-place)
I0131 01:44:46.144995 37778 net.cpp:122] Setting up bn4b_branch2a
I0131 01:44:46.145022 37778 net.cpp:129] Top shape: 50 256 14 14 (2508800)
I0131 01:44:46.145041 37778 net.cpp:137] Memory required for data: 2538906400
I0131 01:44:46.145063 37778 layer_factory.hpp:78] Creating layer scale4b_branch2a
I0131 01:44:46.145081 37778 net.cpp:84] Creating Layer scale4b_branch2a
I0131 01:44:46.145089 37778 net.cpp:406] scale4b_branch2a <- res4b_branch2a
I0131 01:44:46.145107 37778 net.cpp:367] scale4b_branch2a -> res4b_branch2a (in-place)
I0131 01:44:46.145187 37778 layer_factory.hpp:78] Creating layer scale4b_branch2a
I0131 01:44:46.145392 37778 net.cpp:122] Setting up scale4b_branch2a
I0131 01:44:46.145406 37778 net.cpp:129] Top shape: 50 256 14 14 (2508800)
I0131 01:44:46.145411 37778 net.cpp:137] Memory required for data: 2548941600
I0131 01:44:46.145426 37778 layer_factory.hpp:78] Creating layer res4b_branch2a_relu
I0131 01:44:46.145442 37778 net.cpp:84] Creating Layer res4b_branch2a_relu
I0131 01:44:46.145448 37778 net.cpp:406] res4b_branch2a_relu <- res4b_branch2a
I0131 01:44:46.145463 37778 net.cpp:367] res4b_branch2a_relu -> res4b_branch2a (in-place)
I0131 01:44:46.145479 37778 net.cpp:122] Setting up res4b_branch2a_relu
I0131 01:44:46.145486 37778 net.cpp:129] Top shape: 50 256 14 14 (2508800)
I0131 01:44:46.145489 37778 net.cpp:137] Memory required for data: 2558976800
I0131 01:44:46.145494 37778 layer_factory.hpp:78] Creating layer res4b_branch2b
I0131 01:44:46.145517 37778 net.cpp:84] Creating Layer res4b_branch2b
I0131 01:44:46.145525 37778 net.cpp:406] res4b_branch2b <- res4b_branch2a
I0131 01:44:46.145542 37778 net.cpp:380] res4b_branch2b -> res4b_branch2b
I0131 01:44:46.195793 37778 cudnn_binary_conv_layer.cpp:194] Reallocating workspace storage: 9480
I0131 01:44:46.195842 37778 net.cpp:122] Setting up res4b_branch2b
I0131 01:44:46.195854 37778 net.cpp:129] Top shape: 50 256 14 14 (2508800)
I0131 01:44:46.195858 37778 net.cpp:137] Memory required for data: 2569012000
I0131 01:44:46.195873 37778 layer_factory.hpp:78] Creating layer bn4b_branch2b
I0131 01:44:46.195890 37778 net.cpp:84] Creating Layer bn4b_branch2b
I0131 01:44:46.195901 37778 net.cpp:406] bn4b_branch2b <- res4b_branch2b
I0131 01:44:46.195919 37778 net.cpp:367] bn4b_branch2b -> res4b_branch2b (in-place)
I0131 01:44:46.196259 37778 net.cpp:122] Setting up bn4b_branch2b
I0131 01:44:46.196271 37778 net.cpp:129] Top shape: 50 256 14 14 (2508800)
I0131 01:44:46.196291 37778 net.cpp:137] Memory required for data: 2579047200
I0131 01:44:46.196313 37778 layer_factory.hpp:78] Creating layer scale4b_branch2b
I0131 01:44:46.196331 37778 net.cpp:84] Creating Layer scale4b_branch2b
I0131 01:44:46.196339 37778 net.cpp:406] scale4b_branch2b <- res4b_branch2b
I0131 01:44:46.196363 37778 net.cpp:367] scale4b_branch2b -> res4b_branch2b (in-place)
I0131 01:44:46.196449 37778 layer_factory.hpp:78] Creating layer scale4b_branch2b
I0131 01:44:46.196653 37778 net.cpp:122] Setting up scale4b_branch2b
I0131 01:44:46.196667 37778 net.cpp:129] Top shape: 50 256 14 14 (2508800)
I0131 01:44:46.196671 37778 net.cpp:137] Memory required for data: 2589082400
I0131 01:44:46.196686 37778 layer_factory.hpp:78] Creating layer res4b
I0131 01:44:46.196703 37778 net.cpp:84] Creating Layer res4b
I0131 01:44:46.196712 37778 net.cpp:406] res4b <- res4a_res4a_relu_0_split_1
I0131 01:44:46.196724 37778 net.cpp:406] res4b <- res4b_branch2b
I0131 01:44:46.196741 37778 net.cpp:380] res4b -> res4b
I0131 01:44:46.196800 37778 net.cpp:122] Setting up res4b
I0131 01:44:46.196813 37778 net.cpp:129] Top shape: 50 256 14 14 (2508800)
I0131 01:44:46.196817 37778 net.cpp:137] Memory required for data: 2599117600
I0131 01:44:46.196838 37778 layer_factory.hpp:78] Creating layer res4b_relu
I0131 01:44:46.196853 37778 net.cpp:84] Creating Layer res4b_relu
I0131 01:44:46.196862 37778 net.cpp:406] res4b_relu <- res4b
I0131 01:44:46.196877 37778 net.cpp:367] res4b_relu -> res4b (in-place)
I0131 01:44:46.197531 37778 net.cpp:122] Setting up res4b_relu
I0131 01:44:46.197546 37778 net.cpp:129] Top shape: 50 256 14 14 (2508800)
I0131 01:44:46.197566 37778 net.cpp:137] Memory required for data: 2609152800
I0131 01:44:46.197572 37778 layer_factory.hpp:78] Creating layer res4b_res4b_relu_0_split
I0131 01:44:46.197587 37778 net.cpp:84] Creating Layer res4b_res4b_relu_0_split
I0131 01:44:46.197594 37778 net.cpp:406] res4b_res4b_relu_0_split <- res4b
I0131 01:44:46.197612 37778 net.cpp:380] res4b_res4b_relu_0_split -> res4b_res4b_relu_0_split_0
I0131 01:44:46.197629 37778 net.cpp:380] res4b_res4b_relu_0_split -> res4b_res4b_relu_0_split_1
I0131 01:44:46.197700 37778 net.cpp:122] Setting up res4b_res4b_relu_0_split
I0131 01:44:46.197713 37778 net.cpp:129] Top shape: 50 256 14 14 (2508800)
I0131 01:44:46.197719 37778 net.cpp:129] Top shape: 50 256 14 14 (2508800)
I0131 01:44:46.197722 37778 net.cpp:137] Memory required for data: 2629223200
I0131 01:44:46.197728 37778 layer_factory.hpp:78] Creating layer res5a_branch1
I0131 01:44:46.197752 37778 net.cpp:84] Creating Layer res5a_branch1
I0131 01:44:46.197762 37778 net.cpp:406] res5a_branch1 <- res4b_res4b_relu_0_split_0
I0131 01:44:46.197780 37778 net.cpp:380] res5a_branch1 -> res5a_branch1
I0131 01:44:46.211336 37778 cudnn_binary_conv_layer.cpp:194] Reallocating workspace storage: 6780
I0131 01:44:46.211372 37778 net.cpp:122] Setting up res5a_branch1
I0131 01:44:46.211383 37778 net.cpp:129] Top shape: 50 512 7 7 (1254400)
I0131 01:44:46.211395 37778 net.cpp:137] Memory required for data: 2634240800
I0131 01:44:46.211408 37778 layer_factory.hpp:78] Creating layer bn5a_branch1
I0131 01:44:46.211428 37778 net.cpp:84] Creating Layer bn5a_branch1
I0131 01:44:46.211438 37778 net.cpp:406] bn5a_branch1 <- res5a_branch1
I0131 01:44:46.211455 37778 net.cpp:367] bn5a_branch1 -> res5a_branch1 (in-place)
I0131 01:44:46.211789 37778 net.cpp:122] Setting up bn5a_branch1
I0131 01:44:46.211803 37778 net.cpp:129] Top shape: 50 512 7 7 (1254400)
I0131 01:44:46.211807 37778 net.cpp:137] Memory required for data: 2639258400
I0131 01:44:46.211833 37778 layer_factory.hpp:78] Creating layer scale5a_branch1
I0131 01:44:46.211851 37778 net.cpp:84] Creating Layer scale5a_branch1
I0131 01:44:46.211860 37778 net.cpp:406] scale5a_branch1 <- res5a_branch1
I0131 01:44:46.211876 37778 net.cpp:367] scale5a_branch1 -> res5a_branch1 (in-place)
I0131 01:44:46.211956 37778 layer_factory.hpp:78] Creating layer scale5a_branch1
I0131 01:44:46.212159 37778 net.cpp:122] Setting up scale5a_branch1
I0131 01:44:46.212177 37778 net.cpp:129] Top shape: 50 512 7 7 (1254400)
I0131 01:44:46.212180 37778 net.cpp:137] Memory required for data: 2644276000
I0131 01:44:46.212195 37778 layer_factory.hpp:78] Creating layer res5a_branch2a
I0131 01:44:46.212218 37778 net.cpp:84] Creating Layer res5a_branch2a
I0131 01:44:46.212229 37778 net.cpp:406] res5a_branch2a <- res4b_res4b_relu_0_split_1
I0131 01:44:46.212246 37778 net.cpp:380] res5a_branch2a -> res5a_branch2a
I0131 01:44:46.316409 37778 cudnn_binary_conv_layer.cpp:194] Reallocating workspace storage: 8652
I0131 01:44:46.316442 37778 net.cpp:122] Setting up res5a_branch2a
I0131 01:44:46.316453 37778 net.cpp:129] Top shape: 50 512 7 7 (1254400)
I0131 01:44:46.316463 37778 net.cpp:137] Memory required for data: 2649293600
I0131 01:44:46.316478 37778 layer_factory.hpp:78] Creating layer bn5a_branch2a
I0131 01:44:46.316495 37778 net.cpp:84] Creating Layer bn5a_branch2a
I0131 01:44:46.316504 37778 net.cpp:406] bn5a_branch2a <- res5a_branch2a
I0131 01:44:46.316520 37778 net.cpp:367] bn5a_branch2a -> res5a_branch2a (in-place)
I0131 01:44:46.316812 37778 net.cpp:122] Setting up bn5a_branch2a
I0131 01:44:46.316829 37778 net.cpp:129] Top shape: 50 512 7 7 (1254400)
I0131 01:44:46.316853 37778 net.cpp:137] Memory required for data: 2654311200
I0131 01:44:46.316875 37778 layer_factory.hpp:78] Creating layer scale5a_branch2a
I0131 01:44:46.316895 37778 net.cpp:84] Creating Layer scale5a_branch2a
I0131 01:44:46.316903 37778 net.cpp:406] scale5a_branch2a <- res5a_branch2a
I0131 01:44:46.316918 37778 net.cpp:367] scale5a_branch2a -> res5a_branch2a (in-place)
I0131 01:44:46.317019 37778 layer_factory.hpp:78] Creating layer scale5a_branch2a
I0131 01:44:46.317226 37778 net.cpp:122] Setting up scale5a_branch2a
I0131 01:44:46.317240 37778 net.cpp:129] Top shape: 50 512 7 7 (1254400)
I0131 01:44:46.317245 37778 net.cpp:137] Memory required for data: 2659328800
I0131 01:44:46.317260 37778 layer_factory.hpp:78] Creating layer res5a_branch2a_relu
I0131 01:44:46.317276 37778 net.cpp:84] Creating Layer res5a_branch2a_relu
I0131 01:44:46.317286 37778 net.cpp:406] res5a_branch2a_relu <- res5a_branch2a
I0131 01:44:46.317301 37778 net.cpp:367] res5a_branch2a_relu -> res5a_branch2a (in-place)
I0131 01:44:46.317317 37778 net.cpp:122] Setting up res5a_branch2a_relu
I0131 01:44:46.317325 37778 net.cpp:129] Top shape: 50 512 7 7 (1254400)
I0131 01:44:46.317328 37778 net.cpp:137] Memory required for data: 2664346400
I0131 01:44:46.317334 37778 layer_factory.hpp:78] Creating layer res5a_branch2b
I0131 01:44:46.317363 37778 net.cpp:84] Creating Layer res5a_branch2b
I0131 01:44:46.317374 37778 net.cpp:406] res5a_branch2b <- res5a_branch2a
I0131 01:44:46.317391 37778 net.cpp:380] res5a_branch2b -> res5a_branch2b
I0131 01:44:46.521693 37778 cudnn_binary_conv_layer.cpp:194] Reallocating workspace storage: 7788
I0131 01:44:46.521728 37778 net.cpp:122] Setting up res5a_branch2b
I0131 01:44:46.521744 37778 net.cpp:129] Top shape: 50 512 7 7 (1254400)
I0131 01:44:46.521747 37778 net.cpp:137] Memory required for data: 2669364000
I0131 01:44:46.521761 37778 layer_factory.hpp:78] Creating layer bn5a_branch2b
I0131 01:44:46.521780 37778 net.cpp:84] Creating Layer bn5a_branch2b
I0131 01:44:46.521798 37778 net.cpp:406] bn5a_branch2b <- res5a_branch2b
I0131 01:44:46.521818 37778 net.cpp:367] bn5a_branch2b -> res5a_branch2b (in-place)
I0131 01:44:46.522136 37778 net.cpp:122] Setting up bn5a_branch2b
I0131 01:44:46.522148 37778 net.cpp:129] Top shape: 50 512 7 7 (1254400)
I0131 01:44:46.522152 37778 net.cpp:137] Memory required for data: 2674381600
I0131 01:44:46.522174 37778 layer_factory.hpp:78] Creating layer scale5a_branch2b
I0131 01:44:46.522197 37778 net.cpp:84] Creating Layer scale5a_branch2b
I0131 01:44:46.522205 37778 net.cpp:406] scale5a_branch2b <- res5a_branch2b
I0131 01:44:46.522220 37778 net.cpp:367] scale5a_branch2b -> res5a_branch2b (in-place)
I0131 01:44:46.522297 37778 layer_factory.hpp:78] Creating layer scale5a_branch2b
I0131 01:44:46.522517 37778 net.cpp:122] Setting up scale5a_branch2b
I0131 01:44:46.522532 37778 net.cpp:129] Top shape: 50 512 7 7 (1254400)
I0131 01:44:46.522536 37778 net.cpp:137] Memory required for data: 2679399200
I0131 01:44:46.522552 37778 layer_factory.hpp:78] Creating layer res5a
I0131 01:44:46.522569 37778 net.cpp:84] Creating Layer res5a
I0131 01:44:46.522578 37778 net.cpp:406] res5a <- res5a_branch1
I0131 01:44:46.522590 37778 net.cpp:406] res5a <- res5a_branch2b
I0131 01:44:46.522606 37778 net.cpp:380] res5a -> res5a
I0131 01:44:46.522660 37778 net.cpp:122] Setting up res5a
I0131 01:44:46.522672 37778 net.cpp:129] Top shape: 50 512 7 7 (1254400)
I0131 01:44:46.522677 37778 net.cpp:137] Memory required for data: 2684416800
I0131 01:44:46.522683 37778 layer_factory.hpp:78] Creating layer res5a_relu
I0131 01:44:46.522697 37778 net.cpp:84] Creating Layer res5a_relu
I0131 01:44:46.522704 37778 net.cpp:406] res5a_relu <- res5a
I0131 01:44:46.522719 37778 net.cpp:367] res5a_relu -> res5a (in-place)
I0131 01:44:46.523368 37778 net.cpp:122] Setting up res5a_relu
I0131 01:44:46.523381 37778 net.cpp:129] Top shape: 50 512 7 7 (1254400)
I0131 01:44:46.523401 37778 net.cpp:137] Memory required for data: 2689434400
I0131 01:44:46.523407 37778 layer_factory.hpp:78] Creating layer res5a_res5a_relu_0_split
I0131 01:44:46.523434 37778 net.cpp:84] Creating Layer res5a_res5a_relu_0_split
I0131 01:44:46.523442 37778 net.cpp:406] res5a_res5a_relu_0_split <- res5a
I0131 01:44:46.523459 37778 net.cpp:380] res5a_res5a_relu_0_split -> res5a_res5a_relu_0_split_0
I0131 01:44:46.523481 37778 net.cpp:380] res5a_res5a_relu_0_split -> res5a_res5a_relu_0_split_1
I0131 01:44:46.523548 37778 net.cpp:122] Setting up res5a_res5a_relu_0_split
I0131 01:44:46.523572 37778 net.cpp:129] Top shape: 50 512 7 7 (1254400)
I0131 01:44:46.523578 37778 net.cpp:129] Top shape: 50 512 7 7 (1254400)
I0131 01:44:46.523581 37778 net.cpp:137] Memory required for data: 2699469600
I0131 01:44:46.523587 37778 layer_factory.hpp:78] Creating layer res5b_branch2a
I0131 01:44:46.523612 37778 net.cpp:84] Creating Layer res5b_branch2a
I0131 01:44:46.523620 37778 net.cpp:406] res5b_branch2a <- res5a_res5a_relu_0_split_0
I0131 01:44:46.523654 37778 net.cpp:380] res5b_branch2a -> res5b_branch2a
I0131 01:44:46.722852 37778 cudnn_binary_conv_layer.cpp:194] Reallocating workspace storage: 7788
I0131 01:44:46.722905 37778 net.cpp:122] Setting up res5b_branch2a
I0131 01:44:46.722918 37778 net.cpp:129] Top shape: 50 512 7 7 (1254400)
I0131 01:44:46.722923 37778 net.cpp:137] Memory required for data: 2704487200
I0131 01:44:46.722937 37778 layer_factory.hpp:78] Creating layer bn5b_branch2a
I0131 01:44:46.722959 37778 net.cpp:84] Creating Layer bn5b_branch2a
I0131 01:44:46.722970 37778 net.cpp:406] bn5b_branch2a <- res5b_branch2a
I0131 01:44:46.722987 37778 net.cpp:367] bn5b_branch2a -> res5b_branch2a (in-place)
I0131 01:44:46.723320 37778 net.cpp:122] Setting up bn5b_branch2a
I0131 01:44:46.723331 37778 net.cpp:129] Top shape: 50 512 7 7 (1254400)
I0131 01:44:46.723356 37778 net.cpp:137] Memory required for data: 2709504800
I0131 01:44:46.723381 37778 layer_factory.hpp:78] Creating layer scale5b_branch2a
I0131 01:44:46.723400 37778 net.cpp:84] Creating Layer scale5b_branch2a
I0131 01:44:46.723408 37778 net.cpp:406] scale5b_branch2a <- res5b_branch2a
I0131 01:44:46.723423 37778 net.cpp:367] scale5b_branch2a -> res5b_branch2a (in-place)
I0131 01:44:46.723505 37778 layer_factory.hpp:78] Creating layer scale5b_branch2a
I0131 01:44:46.723740 37778 net.cpp:122] Setting up scale5b_branch2a
I0131 01:44:46.723754 37778 net.cpp:129] Top shape: 50 512 7 7 (1254400)
I0131 01:44:46.723758 37778 net.cpp:137] Memory required for data: 2714522400
I0131 01:44:46.723789 37778 layer_factory.hpp:78] Creating layer res5b_branch2a_relu
I0131 01:44:46.723804 37778 net.cpp:84] Creating Layer res5b_branch2a_relu
I0131 01:44:46.723812 37778 net.cpp:406] res5b_branch2a_relu <- res5b_branch2a
I0131 01:44:46.723826 37778 net.cpp:367] res5b_branch2a_relu -> res5b_branch2a (in-place)
I0131 01:44:46.723842 37778 net.cpp:122] Setting up res5b_branch2a_relu
I0131 01:44:46.723850 37778 net.cpp:129] Top shape: 50 512 7 7 (1254400)
I0131 01:44:46.723853 37778 net.cpp:137] Memory required for data: 2719540000
I0131 01:44:46.723860 37778 layer_factory.hpp:78] Creating layer res5b_branch2b
I0131 01:44:46.723883 37778 net.cpp:84] Creating Layer res5b_branch2b
I0131 01:44:46.723891 37778 net.cpp:406] res5b_branch2b <- res5b_branch2a
I0131 01:44:46.723907 37778 net.cpp:380] res5b_branch2b -> res5b_branch2b
I0131 01:44:46.921999 37778 cudnn_binary_conv_layer.cpp:194] Reallocating workspace storage: 7788
I0131 01:44:46.922049 37778 net.cpp:122] Setting up res5b_branch2b
I0131 01:44:46.922061 37778 net.cpp:129] Top shape: 50 512 7 7 (1254400)
I0131 01:44:46.922065 37778 net.cpp:137] Memory required for data: 2724557600
I0131 01:44:46.922081 37778 layer_factory.hpp:78] Creating layer bn5b_branch2b
I0131 01:44:46.922099 37778 net.cpp:84] Creating Layer bn5b_branch2b
I0131 01:44:46.922112 37778 net.cpp:406] bn5b_branch2b <- res5b_branch2b
I0131 01:44:46.922132 37778 net.cpp:367] bn5b_branch2b -> res5b_branch2b (in-place)
I0131 01:44:46.922498 37778 net.cpp:122] Setting up bn5b_branch2b
I0131 01:44:46.922511 37778 net.cpp:129] Top shape: 50 512 7 7 (1254400)
I0131 01:44:46.922531 37778 net.cpp:137] Memory required for data: 2729575200
I0131 01:44:46.922607 37778 layer_factory.hpp:78] Creating layer scale5b_branch2b
I0131 01:44:46.922628 37778 net.cpp:84] Creating Layer scale5b_branch2b
I0131 01:44:46.922636 37778 net.cpp:406] scale5b_branch2b <- res5b_branch2b
I0131 01:44:46.922652 37778 net.cpp:367] scale5b_branch2b -> res5b_branch2b (in-place)
I0131 01:44:46.922730 37778 layer_factory.hpp:78] Creating layer scale5b_branch2b
I0131 01:44:46.922938 37778 net.cpp:122] Setting up scale5b_branch2b
I0131 01:44:46.922952 37778 net.cpp:129] Top shape: 50 512 7 7 (1254400)
I0131 01:44:46.922956 37778 net.cpp:137] Memory required for data: 2734592800
I0131 01:44:46.922971 37778 layer_factory.hpp:78] Creating layer res5b
I0131 01:44:46.922989 37778 net.cpp:84] Creating Layer res5b
I0131 01:44:46.922997 37778 net.cpp:406] res5b <- res5a_res5a_relu_0_split_1
I0131 01:44:46.923010 37778 net.cpp:406] res5b <- res5b_branch2b
I0131 01:44:46.923022 37778 net.cpp:380] res5b -> res5b
I0131 01:44:46.923080 37778 net.cpp:122] Setting up res5b
I0131 01:44:46.923094 37778 net.cpp:129] Top shape: 50 512 7 7 (1254400)
I0131 01:44:46.923099 37778 net.cpp:137] Memory required for data: 2739610400
I0131 01:44:46.923105 37778 layer_factory.hpp:78] Creating layer res5b_relu
I0131 01:44:46.923118 37778 net.cpp:84] Creating Layer res5b_relu
I0131 01:44:46.923126 37778 net.cpp:406] res5b_relu <- res5b
I0131 01:44:46.923140 37778 net.cpp:367] res5b_relu -> res5b (in-place)
I0131 01:44:46.923768 37778 net.cpp:122] Setting up res5b_relu
I0131 01:44:46.923799 37778 net.cpp:129] Top shape: 50 512 7 7 (1254400)
I0131 01:44:46.923802 37778 net.cpp:137] Memory required for data: 2744628000
I0131 01:44:46.923810 37778 layer_factory.hpp:78] Creating layer pool5
I0131 01:44:46.923832 37778 net.cpp:84] Creating Layer pool5
I0131 01:44:46.923840 37778 net.cpp:406] pool5 <- res5b
I0131 01:44:46.923859 37778 net.cpp:380] pool5 -> pool5
I0131 01:44:46.924873 37778 net.cpp:122] Setting up pool5
I0131 01:44:46.924907 37778 net.cpp:129] Top shape: 50 512 1 1 (25600)
I0131 01:44:46.924911 37778 net.cpp:137] Memory required for data: 2744730400
I0131 01:44:46.924919 37778 layer_factory.hpp:78] Creating layer fc1000
I0131 01:44:46.924952 37778 net.cpp:84] Creating Layer fc1000
I0131 01:44:46.924960 37778 net.cpp:406] fc1000 <- pool5
I0131 01:44:46.924991 37778 net.cpp:380] fc1000 -> fc1000
I0131 01:44:46.951843 37778 net.cpp:122] Setting up fc1000
I0131 01:44:46.951876 37778 net.cpp:129] Top shape: 50 1000 (50000)
I0131 01:44:46.951881 37778 net.cpp:137] Memory required for data: 2744930400
I0131 01:44:46.951897 37778 layer_factory.hpp:78] Creating layer fc1000_fc1000_0_split
I0131 01:44:46.951915 37778 net.cpp:84] Creating Layer fc1000_fc1000_0_split
I0131 01:44:46.951923 37778 net.cpp:406] fc1000_fc1000_0_split <- fc1000
I0131 01:44:46.951939 37778 net.cpp:380] fc1000_fc1000_0_split -> fc1000_fc1000_0_split_0
I0131 01:44:46.951958 37778 net.cpp:380] fc1000_fc1000_0_split -> fc1000_fc1000_0_split_1
I0131 01:44:46.951987 37778 net.cpp:380] fc1000_fc1000_0_split -> fc1000_fc1000_0_split_2
I0131 01:44:46.952078 37778 net.cpp:122] Setting up fc1000_fc1000_0_split
I0131 01:44:46.952091 37778 net.cpp:129] Top shape: 50 1000 (50000)
I0131 01:44:46.952096 37778 net.cpp:129] Top shape: 50 1000 (50000)
I0131 01:44:46.952100 37778 net.cpp:129] Top shape: 50 1000 (50000)
I0131 01:44:46.952105 37778 net.cpp:137] Memory required for data: 2745530400
I0131 01:44:46.952109 37778 layer_factory.hpp:78] Creating layer loss
I0131 01:44:46.952124 37778 net.cpp:84] Creating Layer loss
I0131 01:44:46.952131 37778 net.cpp:406] loss <- fc1000_fc1000_0_split_0
I0131 01:44:46.952158 37778 net.cpp:406] loss <- label_data_1_split_0
I0131 01:44:46.952169 37778 net.cpp:380] loss -> loss
…
