…
I0118 10:01:49.275173 23354 net.cpp:294] The NetState phase (0) differed from the phase (1) specified by a rule in layer data
I0118 10:01:49.275725 23354 net.cpp:51] Initializing net from parameters: 
name: "AlexNet-BN"
state {
  phase: TRAIN
  level: 0
  stage: ""
}
layer {
  name: "data"
  type: "Data"
  top: "data"
  top: "label"
  include {
    phase: TRAIN
  }
  transform_param {
    mirror: true
    crop_size: 224
    mean_value: 104
    mean_value: 117
    mean_value: 123
  }
  data_param {
    source: "/home/zhengzhe/Data/imagenet_shrt256/ilsvrc12_train_lmdb"
    batch_size: 256
    backend: LMDB
  }
}
layer {
  name: "conv1"
  type: "Convolution"
  bottom: "data"
  top: "conv1"
  param {
    lr_mult: 1
    decay_mult: 1
  }
  convolution_param {
    num_output: 96
    bias_term: false
    pad: 2
    kernel_size: 11
    stride: 4
    weight_filler {
      type: "msra"
    }
  }
}
layer {
  name: "bn1"
  type: "BatchNorm"
  bottom: "conv1"
  top: "conv1"
  batch_norm_param {
    moving_average_fraction: 0.9
  }
}
layer {
  name: "relu1"
  type: "ReLU"
  bottom: "conv1"
  top: "conv1"
}
layer {
  name: "pool1"
  type: "Pooling"
  bottom: "conv1"
  top: "pool1"
  pooling_param {
    pool: MAX
    kernel_size: 3
    stride: 2
  }
}
layer {
  name: "bn2"
  type: "BatchNorm"
  bottom: "pool1"
  top: "pool1"
  batch_norm_param {
    moving_average_fraction: 0.9
  }
}
layer {
  name: "binactive1"
  type: "BinActive"
  bottom: "pool1"
  top: "binactive1"
}
layer {
  name: "conv2"
  type: "BinaryConvolution"
  bottom: "binactive1"
  top: "conv2"
  param {
    lr_mult: 1
    decay_mult: 1
  }
  convolution_param {
    num_output: 256
    bias_term: false
    pad: 2
    kernel_size: 5
    weight_filler {
      type: "msra"
    }
  }
  debug_param {
    xnorno_grad: true
  }
}
layer {
  name: "pool2"
  type: "Pooling"
  bottom: "conv2"
  top: "pool2"
  pooling_param {
    pool: MAX
    kernel_size: 3
    stride: 2
  }
}
layer {
  name: "bn3"
  type: "BatchNorm"
  bottom: "pool2"
  top: "pool2"
  batch_norm_param {
    moving_average_fraction: 0.9
  }
}
layer {
  name: "binactive2"
  type: "BinActive"
  bottom: "pool2"
  top: "binactive2"
}
layer {
  name: "conv3"
  type: "BinaryConvolution"
  bottom: "binactive2"
  top: "conv3"
  param {
    lr_mult: 1
    decay_mult: 1
  }
  convolution_param {
    num_output: 384
    bias_term: false
    pad: 1
    kernel_size: 3
    weight_filler {
      type: "msra"
    }
  }
  debug_param {
    xnorno_grad: true
  }
}
layer {
  name: "bn4"
  type: "BatchNorm"
  bottom: "conv3"
  top: "conv3"
  batch_norm_param {
    moving_average_fraction: 0.9
  }
}
layer {
  name: "binactive3"
  type: "BinActive"
  bottom: "conv3"
  top: "binactive3"
}
layer {
  name: "conv4"
  type: "BinaryConvolution"
  bottom: "binactive3"
  top: "conv4"
  param {
    lr_mult: 1
    decay_mult: 1
  }
  convolution_param {
    num_output: 384
    bias_term: false
    pad: 1
    kernel_size: 3
    weight_filler {
      type: "msra"
    }
  }
  debug_param {
    xnorno_grad: true
  }
}
layer {
  name: "bn5"
  type: "BatchNorm"
  bottom: "conv4"
  top: "conv4"
  batch_norm_param {
    moving_average_fraction: 0.9
  }
}
layer {
  name: "binactive4"
  type: "BinActive"
  bottom: "conv4"
  top: "binactive4"
}
layer {
  name: "conv5"
  type: "BinaryConvolution"
  bottom: "binactive4"
  top: "conv5"
  param {
    lr_mult: 1
    decay_mult: 1
  }
  convolution_param {
    num_output: 256
    bias_term: false
    pad: 1
    kernel_size: 3
    weight_filler {
      type: "msra"
    }
  }
  debug_param {
    xnorno_grad: true
  }
}
layer {
  name: "pool5"
  type: "Pooling"
  bottom: "conv5"
  top: "pool5"
  pooling_param {
    pool: MAX
    kernel_size: 3
    stride: 2
  }
}
layer {
  name: "bn6"
  type: "BatchNorm"
  bottom: "pool5"
  top: "pool5"
  batch_norm_param {
    moving_average_fraction: 0.9
  }
}
layer {
  name: "binactive5"
  type: "BinActive"
  bottom: "pool5"
  top: "binactive5"
}
layer {
  name: "fc6"
  type: "BinaryInnerProduct"
  bottom: "binactive5"
  top: "fc6"
  param {
    lr_mult: 1
    decay_mult: 1
  }
  inner_product_param {
    num_output: 4096
    bias_term: false
    weight_filler {
      type: "msra"
    }
  }
  debug_param {
    xnorno_grad: true
  }
}
layer {
  name: "bn7"
  type: "BatchNorm"
  bottom: "fc6"
  top: "fc6"
  batch_norm_param {
    moving_average_fraction: 0.9
  }
}
layer {
  name: "binactive6"
  type: "BinActive"
  bottom: "fc6"
  top: "binactive6"
}
layer {
  name: "fc7"
  type: "BinaryInnerProduct"
  bottom: "binactive6"
  top: "fc7"
  param {
    lr_mult: 1
    decay_mult: 1
  }
  inner_product_param {
    num_output: 4096
    bias_term: false
    weight_filler {
      type: "msra"
    }
  }
  debug_param {
    xnorno_grad: true
  }
}
layer {
  name: "bn8"
  type: "BatchNorm"
  bottom: "fc7"
  top: "fc7"
  batch_norm_param {
    moving_average_fraction: 0.9
  }
}
layer {
  name: "relu7"
  type: "ReLU"
  bottom: "fc7"
  top: "fc7"
}
layer {
  name: "fc8"
  type: "InnerProduct"
  bottom: "fc7"
  top: "fc8"
  param {
    lr_mult: 1
    decay_mult: 1
  }
  param {
    lr_mult: 2
    decay_mult: 0
  }
  inner_product_param {
    num_output: 1000
    weight_filler {
      type: "msra"
    }
    bias_filler {
      type: "constant"
      value: 0
    }
  }
}
layer {
  name: "loss"
  type: "SoftmaxWithLoss"
  bottom: "fc8"
  bottom: "label"
  top: "loss"
}
layer {
  name: "accuracy"
  type: "Accuracy"
  bottom: "fc8"
  bottom: "label"
  top: "accuracy"
}
layer {
  name: "accuracy_5"
  type: "Accuracy"
  bottom: "fc8"
  bottom: "label"
  top: "accuracy_5"
  accuracy_param {
    top_k: 5
  }
}
I0118 10:01:49.277181 23354 layer_factory.hpp:78] Creating layer data
I0118 10:01:49.331140 23354 db_lmdb.cpp:35] Opened lmdb /home/zhengzhe/Data/imagenet_shrt256/ilsvrc12_train_lmdb
I0118 10:01:49.360582 23354 net.cpp:84] Creating Layer data
I0118 10:01:49.360735 23354 net.cpp:380] data -> data
I0118 10:01:49.361055 23354 net.cpp:380] data -> label
I0118 10:01:49.415649 23354 data_layer.cpp:45] output data size: 256,3,224,224
I0118 10:01:49.866425 23354 base_data_layer.cpp:72] Initializing prefetch
I0118 10:01:49.867223 23354 base_data_layer.cpp:75] Prefetch initialized.
I0118 10:01:49.867249 23354 net.cpp:122] Setting up data
I0118 10:01:49.867385 23354 net.cpp:129] Top shape: 256 3 224 224 (38535168)
I0118 10:01:49.867396 23354 net.cpp:129] Top shape: 256 (256)
I0118 10:01:49.867400 23354 net.cpp:137] Memory required for data: 154141696
I0118 10:01:49.867440 23354 layer_factory.hpp:78] Creating layer label_data_1_split
I0118 10:01:49.867545 23354 net.cpp:84] Creating Layer label_data_1_split
I0118 10:01:49.867570 23354 net.cpp:406] label_data_1_split <- label
I0118 10:01:49.867631 23354 net.cpp:380] label_data_1_split -> label_data_1_split_0
I0118 10:01:49.867671 23354 net.cpp:380] label_data_1_split -> label_data_1_split_1
I0118 10:01:49.867689 23354 net.cpp:380] label_data_1_split -> label_data_1_split_2
I0118 10:01:49.867915 23354 net.cpp:122] Setting up label_data_1_split
I0118 10:01:49.867930 23354 net.cpp:129] Top shape: 256 (256)
I0118 10:01:49.867944 23354 net.cpp:129] Top shape: 256 (256)
I0118 10:01:49.867949 23354 net.cpp:129] Top shape: 256 (256)
I0118 10:01:49.867951 23354 net.cpp:137] Memory required for data: 154144768
I0118 10:01:49.867957 23354 layer_factory.hpp:78] Creating layer conv1
I0118 10:01:49.868068 23354 net.cpp:84] Creating Layer conv1
I0118 10:01:49.868079 23354 net.cpp:406] conv1 <- data
I0118 10:01:49.868099 23354 net.cpp:380] conv1 -> conv1
I0118 10:01:54.592991 23354 cudnn_conv_layer.cpp:194] Reallocating workspace storage: 127416
I0118 10:01:54.593621 23354 net.cpp:122] Setting up conv1
I0118 10:01:54.593669 23354 net.cpp:129] Top shape: 256 96 55 55 (74342400)
I0118 10:01:54.593686 23354 net.cpp:137] Memory required for data: 451514368
I0118 10:01:54.593854 23354 layer_factory.hpp:78] Creating layer bn1
I0118 10:01:54.593962 23354 net.cpp:84] Creating Layer bn1
I0118 10:01:54.593998 23354 net.cpp:406] bn1 <- conv1
I0118 10:01:54.594076 23354 net.cpp:367] bn1 -> conv1 (in-place)
I0118 10:01:54.596743 23354 net.cpp:122] Setting up bn1
I0118 10:01:54.596776 23354 net.cpp:129] Top shape: 256 96 55 55 (74342400)
I0118 10:01:54.596786 23354 net.cpp:137] Memory required for data: 748883968
I0118 10:01:54.596905 23354 layer_factory.hpp:78] Creating layer relu1
I0118 10:01:54.597003 23354 net.cpp:84] Creating Layer relu1
I0118 10:01:54.597034 23354 net.cpp:406] relu1 <- conv1
I0118 10:01:54.597086 23354 net.cpp:367] relu1 -> conv1 (in-place)
I0118 10:01:54.598208 23354 net.cpp:122] Setting up relu1
I0118 10:01:54.598239 23354 net.cpp:129] Top shape: 256 96 55 55 (74342400)
I0118 10:01:54.598248 23354 net.cpp:137] Memory required for data: 1046253568
I0118 10:01:54.598263 23354 layer_factory.hpp:78] Creating layer pool1
I0118 10:01:54.598336 23354 net.cpp:84] Creating Layer pool1
I0118 10:01:54.598374 23354 net.cpp:406] pool1 <- conv1
I0118 10:01:54.598436 23354 net.cpp:380] pool1 -> pool1
I0118 10:01:54.598649 23354 net.cpp:122] Setting up pool1
I0118 10:01:54.598680 23354 net.cpp:129] Top shape: 256 96 27 27 (17915904)
I0118 10:01:54.598695 23354 net.cpp:137] Memory required for data: 1117917184
I0118 10:01:54.598716 23354 layer_factory.hpp:78] Creating layer bn2
I0118 10:01:54.598765 23354 net.cpp:84] Creating Layer bn2
I0118 10:01:54.598790 23354 net.cpp:406] bn2 <- pool1
I0118 10:01:54.598842 23354 net.cpp:367] bn2 -> pool1 (in-place)
I0118 10:01:54.602434 23354 net.cpp:122] Setting up bn2
I0118 10:01:54.602468 23354 net.cpp:129] Top shape: 256 96 27 27 (17915904)
I0118 10:01:54.602484 23354 net.cpp:137] Memory required for data: 1189580800
I0118 10:01:54.602583 23354 layer_factory.hpp:78] Creating layer binactive1
I0118 10:01:54.602643 23354 net.cpp:84] Creating Layer binactive1
I0118 10:01:54.602670 23354 net.cpp:406] binactive1 <- pool1
I0118 10:01:54.602720 23354 net.cpp:380] binactive1 -> binactive1
I0118 10:01:54.602838 23354 net.cpp:122] Setting up binactive1
I0118 10:01:54.602883 23354 net.cpp:129] Top shape: 256 96 27 27 (17915904)
I0118 10:01:54.602900 23354 net.cpp:137] Memory required for data: 1261244416
I0118 10:01:54.602921 23354 layer_factory.hpp:78] Creating layer conv2
I0118 10:01:54.603029 23354 net.cpp:84] Creating Layer conv2
I0118 10:01:54.603060 23354 net.cpp:406] conv2 <- binactive1
I0118 10:01:54.603130 23354 net.cpp:380] conv2 -> conv2
I0118 10:01:54.701795 23354 cudnn_binary_conv_layer.cpp:194] Reallocating workspace storage: 19668
I0118 10:01:54.701895 23354 net.cpp:122] Setting up conv2
I0118 10:01:54.701938 23354 net.cpp:129] Top shape: 256 256 27 27 (47775744)
I0118 10:01:54.701978 23354 net.cpp:137] Memory required for data: 1452347392
I0118 10:01:54.702023 23354 layer_factory.hpp:78] Creating layer pool2
I0118 10:01:54.702097 23354 net.cpp:84] Creating Layer pool2
I0118 10:01:54.702134 23354 net.cpp:406] pool2 <- conv2
I0118 10:01:54.702186 23354 net.cpp:380] pool2 -> pool2
I0118 10:01:54.702330 23354 net.cpp:122] Setting up pool2
I0118 10:01:54.702361 23354 net.cpp:129] Top shape: 256 256 13 13 (11075584)
I0118 10:01:54.702402 23354 net.cpp:137] Memory required for data: 1496649728
I0118 10:01:54.702431 23354 layer_factory.hpp:78] Creating layer bn3
I0118 10:01:54.702482 23354 net.cpp:84] Creating Layer bn3
I0118 10:01:54.702531 23354 net.cpp:406] bn3 <- pool2
I0118 10:01:54.702584 23354 net.cpp:367] bn3 -> pool2 (in-place)
I0118 10:01:54.703022 23354 net.cpp:122] Setting up bn3
I0118 10:01:54.703086 23354 net.cpp:129] Top shape: 256 256 13 13 (11075584)
I0118 10:01:54.703112 23354 net.cpp:137] Memory required for data: 1540952064
I0118 10:01:54.703187 23354 layer_factory.hpp:78] Creating layer binactive2
I0118 10:01:54.703215 23354 net.cpp:84] Creating Layer binactive2
I0118 10:01:54.703229 23354 net.cpp:406] binactive2 <- pool2
I0118 10:01:54.703255 23354 net.cpp:380] binactive2 -> binactive2
I0118 10:01:54.703322 23354 net.cpp:122] Setting up binactive2
I0118 10:01:54.703349 23354 net.cpp:129] Top shape: 256 256 13 13 (11075584)
I0118 10:01:54.703358 23354 net.cpp:137] Memory required for data: 1585254400
I0118 10:01:54.703372 23354 layer_factory.hpp:78] Creating layer conv3
I0118 10:01:54.703425 23354 net.cpp:84] Creating Layer conv3
I0118 10:01:54.703440 23354 net.cpp:406] conv3 <- binactive2
I0118 10:01:54.703474 23354 net.cpp:380] conv3 -> conv3
I0118 10:01:54.848479 23354 cudnn_binary_conv_layer.cpp:194] Reallocating workspace storage: 18874368
I0118 10:01:54.849040 23354 net.cpp:122] Setting up conv3
I0118 10:01:54.849092 23354 net.cpp:129] Top shape: 256 384 13 13 (16613376)
I0118 10:01:54.849100 23354 net.cpp:137] Memory required for data: 1651707904
I0118 10:01:54.849140 23354 layer_factory.hpp:78] Creating layer bn4
I0118 10:01:54.849184 23354 net.cpp:84] Creating Layer bn4
I0118 10:01:54.849202 23354 net.cpp:406] bn4 <- conv3
I0118 10:01:54.849304 23354 net.cpp:367] bn4 -> conv3 (in-place)
I0118 10:01:54.849714 23354 net.cpp:122] Setting up bn4
I0118 10:01:54.849756 23354 net.cpp:129] Top shape: 256 384 13 13 (16613376)
I0118 10:01:54.849776 23354 net.cpp:137] Memory required for data: 1718161408
I0118 10:01:54.849829 23354 layer_factory.hpp:78] Creating layer binactive3
I0118 10:01:54.849872 23354 net.cpp:84] Creating Layer binactive3
I0118 10:01:54.849902 23354 net.cpp:406] binactive3 <- conv3
I0118 10:01:54.849948 23354 net.cpp:380] binactive3 -> binactive3
I0118 10:01:54.850035 23354 net.cpp:122] Setting up binactive3
I0118 10:01:54.850073 23354 net.cpp:129] Top shape: 256 384 13 13 (16613376)
I0118 10:01:54.850097 23354 net.cpp:137] Memory required for data: 1784614912
I0118 10:01:54.850133 23354 layer_factory.hpp:78] Creating layer conv4
I0118 10:01:54.850208 23354 net.cpp:84] Creating Layer conv4
I0118 10:01:54.850241 23354 net.cpp:406] conv4 <- binactive3
I0118 10:01:54.850294 23354 net.cpp:380] conv4 -> conv4
I0118 10:01:55.052677 23354 cudnn_binary_conv_layer.cpp:194] Reallocating workspace storage: 9840
I0118 10:01:55.052803 23354 net.cpp:122] Setting up conv4
I0118 10:01:55.052848 23354 net.cpp:129] Top shape: 256 384 13 13 (16613376)
I0118 10:01:55.052870 23354 net.cpp:137] Memory required for data: 1851068416
I0118 10:01:55.052922 23354 layer_factory.hpp:78] Creating layer bn5
I0118 10:01:55.053016 23354 net.cpp:84] Creating Layer bn5
I0118 10:01:55.053056 23354 net.cpp:406] bn5 <- conv4
I0118 10:01:55.053117 23354 net.cpp:367] bn5 -> conv4 (in-place)
I0118 10:01:55.053514 23354 net.cpp:122] Setting up bn5
I0118 10:01:55.053560 23354 net.cpp:129] Top shape: 256 384 13 13 (16613376)
I0118 10:01:55.053581 23354 net.cpp:137] Memory required for data: 1917521920
I0118 10:01:55.053653 23354 layer_factory.hpp:78] Creating layer binactive4
I0118 10:01:55.053711 23354 net.cpp:84] Creating Layer binactive4
I0118 10:01:55.053743 23354 net.cpp:406] binactive4 <- conv4
I0118 10:01:55.053786 23354 net.cpp:380] binactive4 -> binactive4
I0118 10:01:55.053871 23354 net.cpp:122] Setting up binactive4
I0118 10:01:55.053910 23354 net.cpp:129] Top shape: 256 384 13 13 (16613376)
I0118 10:01:55.053932 23354 net.cpp:137] Memory required for data: 1983975424
I0118 10:01:55.053957 23354 layer_factory.hpp:78] Creating layer conv5
I0118 10:01:55.054023 23354 net.cpp:84] Creating Layer conv5
I0118 10:01:55.054055 23354 net.cpp:406] conv5 <- binactive4
I0118 10:01:55.054105 23354 net.cpp:380] conv5 -> conv5
I0118 10:01:55.183794 23354 cudnn_binary_conv_layer.cpp:194] Reallocating workspace storage: 18874368
I0118 10:01:55.184151 23354 net.cpp:122] Setting up conv5
I0118 10:01:55.184206 23354 net.cpp:129] Top shape: 256 256 13 13 (11075584)
I0118 10:01:55.184214 23354 net.cpp:137] Memory required for data: 2028277760
I0118 10:01:55.184257 23354 layer_factory.hpp:78] Creating layer pool5
I0118 10:01:55.184309 23354 net.cpp:84] Creating Layer pool5
I0118 10:01:55.184326 23354 net.cpp:406] pool5 <- conv5
I0118 10:01:55.184386 23354 net.cpp:380] pool5 -> pool5
I0118 10:01:55.184489 23354 net.cpp:122] Setting up pool5
I0118 10:01:55.184506 23354 net.cpp:129] Top shape: 256 256 6 6 (2359296)
I0118 10:01:55.184531 23354 net.cpp:137] Memory required for data: 2037714944
I0118 10:01:55.184542 23354 layer_factory.hpp:78] Creating layer bn6
I0118 10:01:55.184569 23354 net.cpp:84] Creating Layer bn6
I0118 10:01:55.184579 23354 net.cpp:406] bn6 <- pool5
I0118 10:01:55.184612 23354 net.cpp:367] bn6 -> pool5 (in-place)
I0118 10:01:55.184851 23354 net.cpp:122] Setting up bn6
I0118 10:01:55.184865 23354 net.cpp:129] Top shape: 256 256 6 6 (2359296)
I0118 10:01:55.184870 23354 net.cpp:137] Memory required for data: 2047152128
I0118 10:01:55.184898 23354 layer_factory.hpp:78] Creating layer binactive5
I0118 10:01:55.184918 23354 net.cpp:84] Creating Layer binactive5
I0118 10:01:55.184928 23354 net.cpp:406] binactive5 <- pool5
I0118 10:01:55.184952 23354 net.cpp:380] binactive5 -> binactive5
I0118 10:01:55.184993 23354 net.cpp:122] Setting up binactive5
I0118 10:01:55.185005 23354 net.cpp:129] Top shape: 256 256 6 6 (2359296)
I0118 10:01:55.185010 23354 net.cpp:137] Memory required for data: 2056589312
I0118 10:01:55.185015 23354 layer_factory.hpp:78] Creating layer fc6
I0118 10:01:55.185053 23354 net.cpp:84] Creating Layer fc6
I0118 10:01:55.185063 23354 net.cpp:406] fc6 <- binactive5
I0118 10:01:55.185083 23354 net.cpp:380] fc6 -> fc6
I0118 10:01:58.500593 23354 net.cpp:122] Setting up fc6
I0118 10:01:58.500653 23354 net.cpp:129] Top shape: 256 4096 (1048576)
I0118 10:01:58.500658 23354 net.cpp:137] Memory required for data: 2060783616
I0118 10:01:58.500722 23354 layer_factory.hpp:78] Creating layer bn7
I0118 10:01:58.500766 23354 net.cpp:84] Creating Layer bn7
I0118 10:01:58.500783 23354 net.cpp:406] bn7 <- fc6
I0118 10:01:58.500810 23354 net.cpp:367] bn7 -> fc6 (in-place)
I0118 10:01:58.501061 23354 net.cpp:122] Setting up bn7
I0118 10:01:58.501072 23354 net.cpp:129] Top shape: 256 4096 (1048576)
I0118 10:01:58.501077 23354 net.cpp:137] Memory required for data: 2064977920
I0118 10:01:58.501098 23354 layer_factory.hpp:78] Creating layer binactive6
I0118 10:01:58.501113 23354 net.cpp:84] Creating Layer binactive6
I0118 10:01:58.501121 23354 net.cpp:406] binactive6 <- fc6
I0118 10:01:58.501137 23354 net.cpp:380] binactive6 -> binactive6
I0118 10:01:58.501193 23354 net.cpp:122] Setting up binactive6
I0118 10:01:58.501204 23354 net.cpp:129] Top shape: 256 4096 (1048576)
I0118 10:01:58.501206 23354 net.cpp:137] Memory required for data: 2069172224
I0118 10:01:58.501212 23354 layer_factory.hpp:78] Creating layer fc7
I0118 10:01:58.501236 23354 net.cpp:84] Creating Layer fc7
I0118 10:01:58.501246 23354 net.cpp:406] fc7 <- binactive6
I0118 10:01:58.501265 23354 net.cpp:380] fc7 -> fc7
I0118 10:01:59.905968 23354 net.cpp:122] Setting up fc7
I0118 10:01:59.906013 23354 net.cpp:129] Top shape: 256 4096 (1048576)
I0118 10:01:59.906018 23354 net.cpp:137] Memory required for data: 2073366528
I0118 10:01:59.906046 23354 layer_factory.hpp:78] Creating layer bn8
I0118 10:01:59.906085 23354 net.cpp:84] Creating Layer bn8
I0118 10:01:59.906113 23354 net.cpp:406] bn8 <- fc7
I0118 10:01:59.906153 23354 net.cpp:367] bn8 -> fc7 (in-place)
I0118 10:01:59.906406 23354 net.cpp:122] Setting up bn8
I0118 10:01:59.906419 23354 net.cpp:129] Top shape: 256 4096 (1048576)
I0118 10:01:59.906422 23354 net.cpp:137] Memory required for data: 2077560832
I0118 10:01:59.906443 23354 layer_factory.hpp:78] Creating layer relu7
I0118 10:01:59.906462 23354 net.cpp:84] Creating Layer relu7
I0118 10:01:59.906471 23354 net.cpp:406] relu7 <- fc7
I0118 10:01:59.906483 23354 net.cpp:367] relu7 -> fc7 (in-place)
I0118 10:01:59.907217 23354 net.cpp:122] Setting up relu7
I0118 10:01:59.907248 23354 net.cpp:129] Top shape: 256 4096 (1048576)
I0118 10:01:59.907253 23354 net.cpp:137] Memory required for data: 2081755136
I0118 10:01:59.907259 23354 layer_factory.hpp:78] Creating layer fc8
I0118 10:01:59.907313 23354 net.cpp:84] Creating Layer fc8
I0118 10:01:59.907322 23354 net.cpp:406] fc8 <- fc7
I0118 10:01:59.907362 23354 net.cpp:380] fc8 -> fc8
I0118 10:02:00.276824 23354 net.cpp:122] Setting up fc8
I0118 10:02:00.276875 23354 net.cpp:129] Top shape: 256 1000 (256000)
I0118 10:02:00.276881 23354 net.cpp:137] Memory required for data: 2082779136
I0118 10:02:00.276945 23354 layer_factory.hpp:78] Creating layer fc8_fc8_0_split
I0118 10:02:00.276983 23354 net.cpp:84] Creating Layer fc8_fc8_0_split
I0118 10:02:00.276999 23354 net.cpp:406] fc8_fc8_0_split <- fc8
I0118 10:02:00.277046 23354 net.cpp:380] fc8_fc8_0_split -> fc8_fc8_0_split_0
I0118 10:02:00.277082 23354 net.cpp:380] fc8_fc8_0_split -> fc8_fc8_0_split_1
I0118 10:02:00.277108 23354 net.cpp:380] fc8_fc8_0_split -> fc8_fc8_0_split_2
I0118 10:02:00.277195 23354 net.cpp:122] Setting up fc8_fc8_0_split
I0118 10:02:00.277211 23354 net.cpp:129] Top shape: 256 1000 (256000)
I0118 10:02:00.277237 23354 net.cpp:129] Top shape: 256 1000 (256000)
I0118 10:02:00.277245 23354 net.cpp:129] Top shape: 256 1000 (256000)
I0118 10:02:00.277251 23354 net.cpp:137] Memory required for data: 2085851136
I0118 10:02:00.277263 23354 layer_factory.hpp:78] Creating layer loss
I0118 10:02:00.277297 23354 net.cpp:84] Creating Layer loss
I0118 10:02:00.277308 23354 net.cpp:406] loss <- fc8_fc8_0_split_0
I0118 10:02:00.277329 23354 net.cpp:406] loss <- label_data_1_split_0
I0118 10:02:00.277355 23354 net.cpp:380] loss -> loss
…
I0118 10:02:00.282280 23354 net.cpp:294] The NetState phase (1) differed from the phase (0) specified by a rule in layer data
I0118 10:02:00.282496 23354 net.cpp:51] Initializing net from parameters: 
name: "AlexNet-BN"
state {
  phase: TEST
}
layer {
  name: "data"
  type: "Data"
  top: "data"
  top: "label"
  include {
    phase: TEST
  }
  transform_param {
    mirror: false
    crop_size: 224
    mean_value: 104
    mean_value: 117
    mean_value: 123
  }
  data_param {
    source: "/home/zhengzhe/Data/imagenet_shrt256/ilsvrc12_val_lmdb"
    batch_size: 50
    backend: LMDB
  }
}
layer {
  name: "conv1"
  type: "Convolution"
  bottom: "data"
  top: "conv1"
  param {
    lr_mult: 1
    decay_mult: 1
  }
  convolution_param {
    num_output: 96
    bias_term: false
    pad: 2
    kernel_size: 11
    stride: 4
    weight_filler {
      type: "msra"
    }
  }
}
layer {
  name: "bn1"
  type: "BatchNorm"
  bottom: "conv1"
  top: "conv1"
  batch_norm_param {
    moving_average_fraction: 0.9
  }
}
layer {
  name: "relu1"
  type: "ReLU"
  bottom: "conv1"
  top: "conv1"
}
layer {
  name: "pool1"
  type: "Pooling"
  bottom: "conv1"
  top: "pool1"
  pooling_param {
    pool: MAX
    kernel_size: 3
    stride: 2
  }
}
layer {
  name: "bn2"
  type: "BatchNorm"
  bottom: "pool1"
  top: "pool1"
  batch_norm_param {
    moving_average_fraction: 0.9
  }
}
layer {
  name: "binactive1"
  type: "BinActive"
  bottom: "pool1"
  top: "binactive1"
}
layer {
  name: "conv2"
  type: "BinaryConvolution"
  bottom: "binactive1"
  top: "conv2"
  param {
    lr_mult: 1
    decay_mult: 1
  }
  convolution_param {
    num_output: 256
    bias_term: false
    pad: 2
    kernel_size: 5
    weight_filler {
      type: "msra"
    }
  }
  debug_param {
    xnorno_grad: true
  }
}
layer {
  name: "pool2"
  type: "Pooling"
  bottom: "conv2"
  top: "pool2"
  pooling_param {
    pool: MAX
    kernel_size: 3
    stride: 2
  }
}
layer {
  name: "bn3"
  type: "BatchNorm"
  bottom: "pool2"
  top: "pool2"
  batch_norm_param {
    moving_average_fraction: 0.9
  }
}
layer {
  name: "binactive2"
  type: "BinActive"
  bottom: "pool2"
  top: "binactive2"
}
layer {
  name: "conv3"
  type: "BinaryConvolution"
  bottom: "binactive2"
  top: "conv3"
  param {
    lr_mult: 1
    decay_mult: 1
  }
  convolution_param {
    num_output: 384
    bias_term: false
    pad: 1
    kernel_size: 3
    weight_filler {
      type: "msra"
    }
  }
  debug_param {
    xnorno_grad: true
  }
}
layer {
  name: "bn4"
  type: "BatchNorm"
  bottom: "conv3"
  top: "conv3"
  batch_norm_param {
    moving_average_fraction: 0.9
  }
}
layer {
  name: "binactive3"
  type: "BinActive"
  bottom: "conv3"
  top: "binactive3"
}
layer {
  name: "conv4"
  type: "BinaryConvolution"
  bottom: "binactive3"
  top: "conv4"
  param {
    lr_mult: 1
    decay_mult: 1
  }
  convolution_param {
    num_output: 384
    bias_term: false
    pad: 1
    kernel_size: 3
    weight_filler {
      type: "msra"
    }
  }
  debug_param {
    xnorno_grad: true
  }
}
layer {
  name: "bn5"
  type: "BatchNorm"
  bottom: "conv4"
  top: "conv4"
  batch_norm_param {
    moving_average_fraction: 0.9
  }
}
layer {
  name: "binactive4"
  type: "BinActive"
  bottom: "conv4"
  top: "binactive4"
}
layer {
  name: "conv5"
  type: "BinaryConvolution"
  bottom: "binactive4"
  top: "conv5"
  param {
    lr_mult: 1
    decay_mult: 1
  }
  convolution_param {
    num_output: 256
    bias_term: false
    pad: 1
    kernel_size: 3
    weight_filler {
      type: "msra"
    }
  }
  debug_param {
    xnorno_grad: true
  }
}
layer {
  name: "pool5"
  type: "Pooling"
  bottom: "conv5"
  top: "pool5"
  pooling_param {
    pool: MAX
    kernel_size: 3
    stride: 2
  }
}
layer {
  name: "bn6"
  type: "BatchNorm"
  bottom: "pool5"
  top: "pool5"
  batch_norm_param {
    moving_average_fraction: 0.9
  }
}
layer {
  name: "binactive5"
  type: "BinActive"
  bottom: "pool5"
  top: "binactive5"
}
layer {
  name: "fc6"
  type: "BinaryInnerProduct"
  bottom: "binactive5"
  top: "fc6"
  param {
    lr_mult: 1
    decay_mult: 1
  }
  inner_product_param {
    num_output: 4096
    bias_term: false
    weight_filler {
      type: "msra"
    }
  }
  debug_param {
    xnorno_grad: true
  }
}
layer {
  name: "bn7"
  type: "BatchNorm"
  bottom: "fc6"
  top: "fc6"
  batch_norm_param {
    moving_average_fraction: 0.9
  }
}
layer {
  name: "binactive6"
  type: "BinActive"
  bottom: "fc6"
  top: "binactive6"
}
layer {
  name: "fc7"
  type: "BinaryInnerProduct"
  bottom: "binactive6"
  top: "fc7"
  param {
    lr_mult: 1
    decay_mult: 1
  }
  inner_product_param {
    num_output: 4096
    bias_term: false
    weight_filler {
      type: "msra"
    }
  }
  debug_param {
    xnorno_grad: true
  }
}
layer {
  name: "bn8"
  type: "BatchNorm"
  bottom: "fc7"
  top: "fc7"
  batch_norm_param {
    moving_average_fraction: 0.9
  }
}
layer {
  name: "relu7"
  type: "ReLU"
  bottom: "fc7"
  top: "fc7"
}
layer {
  name: "fc8"
  type: "InnerProduct"
  bottom: "fc7"
  top: "fc8"
  param {
    lr_mult: 1
    decay_mult: 1
  }
  param {
    lr_mult: 2
    decay_mult: 0
  }
  inner_product_param {
    num_output: 1000
    weight_filler {
      type: "msra"
    }
    bias_filler {
      type: "constant"
      value: 0
    }
  }
}
layer {
  name: "loss"
  type: "SoftmaxWithLoss"
  bottom: "fc8"
  bottom: "label"
  top: "loss"
}
layer {
  name: "accuracy"
  type: "Accuracy"
  bottom: "fc8"
  bottom: "label"
  top: "accuracy"
}
layer {
  name: "accuracy_5"
  type: "Accuracy"
  bottom: "fc8"
  bottom: "label"
  top: "accuracy_5"
  accuracy_param {
    top_k: 5
  }
}
I0118 10:02:00.282923 23354 layer_factory.hpp:78] Creating layer data
I0118 10:02:00.314909 23354 db_lmdb.cpp:35] Opened lmdb /home/zhengzhe/Data/imagenet_shrt256/ilsvrc12_val_lmdb
I0118 10:02:00.340873 23354 net.cpp:84] Creating Layer data
I0118 10:02:00.340911 23354 net.cpp:380] data -> data
I0118 10:02:00.340960 23354 net.cpp:380] data -> label
I0118 10:02:00.342289 23354 data_layer.cpp:45] output data size: 50,3,224,224
I0118 10:02:00.417985 23354 base_data_layer.cpp:72] Initializing prefetch
I0118 10:02:00.418535 23354 base_data_layer.cpp:75] Prefetch initialized.
I0118 10:02:00.418601 23354 net.cpp:122] Setting up data
I0118 10:02:00.418679 23354 net.cpp:129] Top shape: 50 3 224 224 (7526400)
I0118 10:02:00.418720 23354 net.cpp:129] Top shape: 50 (50)
I0118 10:02:00.418751 23354 net.cpp:137] Memory required for data: 30105800
I0118 10:02:00.418798 23354 layer_factory.hpp:78] Creating layer label_data_1_split
I0118 10:02:00.418876 23354 net.cpp:84] Creating Layer label_data_1_split
I0118 10:02:00.418915 23354 net.cpp:406] label_data_1_split <- label
I0118 10:02:00.418975 23354 net.cpp:380] label_data_1_split -> label_data_1_split_0
I0118 10:02:00.419050 23354 net.cpp:380] label_data_1_split -> label_data_1_split_1
I0118 10:02:00.419103 23354 net.cpp:380] label_data_1_split -> label_data_1_split_2
I0118 10:02:00.419275 23354 net.cpp:122] Setting up label_data_1_split
I0118 10:02:00.419313 23354 net.cpp:129] Top shape: 50 (50)
I0118 10:02:00.419339 23354 net.cpp:129] Top shape: 50 (50)
I0118 10:02:00.419370 23354 net.cpp:129] Top shape: 50 (50)
I0118 10:02:00.419391 23354 net.cpp:137] Memory required for data: 30106400
I0118 10:02:00.419412 23354 layer_factory.hpp:78] Creating layer conv1
I0118 10:02:00.419476 23354 net.cpp:84] Creating Layer conv1
I0118 10:02:00.419507 23354 net.cpp:406] conv1 <- data
I0118 10:02:00.419553 23354 net.cpp:380] conv1 -> conv1
I0118 10:02:00.427381 23354 cudnn_conv_layer.cpp:194] Reallocating workspace storage: 127416
I0118 10:02:00.427429 23354 net.cpp:122] Setting up conv1
I0118 10:02:00.427445 23354 net.cpp:129] Top shape: 50 96 55 55 (14520000)
I0118 10:02:00.427451 23354 net.cpp:137] Memory required for data: 88186400
I0118 10:02:00.427489 23354 layer_factory.hpp:78] Creating layer bn1
I0118 10:02:00.427546 23354 net.cpp:84] Creating Layer bn1
I0118 10:02:00.427561 23354 net.cpp:406] bn1 <- conv1
I0118 10:02:00.427583 23354 net.cpp:367] bn1 -> conv1 (in-place)
I0118 10:02:00.428061 23354 net.cpp:122] Setting up bn1
I0118 10:02:00.428125 23354 net.cpp:129] Top shape: 50 96 55 55 (14520000)
I0118 10:02:00.428162 23354 net.cpp:137] Memory required for data: 146266400
I0118 10:02:00.428321 23354 layer_factory.hpp:78] Creating layer relu1
I0118 10:02:00.428421 23354 net.cpp:84] Creating Layer relu1
I0118 10:02:00.428448 23354 net.cpp:406] relu1 <- conv1
I0118 10:02:00.428534 23354 net.cpp:367] relu1 -> conv1 (in-place)
I0118 10:02:00.429463 23354 net.cpp:122] Setting up relu1
I0118 10:02:00.429502 23354 net.cpp:129] Top shape: 50 96 55 55 (14520000)
I0118 10:02:00.429553 23354 net.cpp:137] Memory required for data: 204346400
I0118 10:02:00.429605 23354 layer_factory.hpp:78] Creating layer pool1
I0118 10:02:00.429700 23354 net.cpp:84] Creating Layer pool1
I0118 10:02:00.429760 23354 net.cpp:406] pool1 <- conv1
I0118 10:02:00.429869 23354 net.cpp:380] pool1 -> pool1
I0118 10:02:00.430101 23354 net.cpp:122] Setting up pool1
I0118 10:02:00.430166 23354 net.cpp:129] Top shape: 50 96 27 27 (3499200)
I0118 10:02:00.430186 23354 net.cpp:137] Memory required for data: 218343200
I0118 10:02:00.430210 23354 layer_factory.hpp:78] Creating layer bn2
I0118 10:02:00.430248 23354 net.cpp:84] Creating Layer bn2
I0118 10:02:00.430261 23354 net.cpp:406] bn2 <- pool1
I0118 10:02:00.430284 23354 net.cpp:367] bn2 -> pool1 (in-place)
I0118 10:02:00.430557 23354 net.cpp:122] Setting up bn2
I0118 10:02:00.430572 23354 net.cpp:129] Top shape: 50 96 27 27 (3499200)
I0118 10:02:00.430577 23354 net.cpp:137] Memory required for data: 232340000
I0118 10:02:00.430613 23354 layer_factory.hpp:78] Creating layer binactive1
I0118 10:02:00.430634 23354 net.cpp:84] Creating Layer binactive1
I0118 10:02:00.430644 23354 net.cpp:406] binactive1 <- pool1
I0118 10:02:00.430666 23354 net.cpp:380] binactive1 -> binactive1
I0118 10:02:00.430717 23354 net.cpp:122] Setting up binactive1
I0118 10:02:00.430732 23354 net.cpp:129] Top shape: 50 96 27 27 (3499200)
I0118 10:02:00.430740 23354 net.cpp:137] Memory required for data: 246336800
I0118 10:02:00.430749 23354 layer_factory.hpp:78] Creating layer conv2
I0118 10:02:00.430788 23354 net.cpp:84] Creating Layer conv2
I0118 10:02:00.430799 23354 net.cpp:406] conv2 <- binactive1
I0118 10:02:00.430843 23354 net.cpp:380] conv2 -> conv2
I0118 10:02:00.489354 23354 cudnn_binary_conv_layer.cpp:194] Reallocating workspace storage: 19668
I0118 10:02:00.489436 23354 net.cpp:122] Setting up conv2
I0118 10:02:00.489462 23354 net.cpp:129] Top shape: 50 256 27 27 (9331200)
I0118 10:02:00.489516 23354 net.cpp:137] Memory required for data: 283661600
I0118 10:02:00.489552 23354 layer_factory.hpp:78] Creating layer pool2
I0118 10:02:00.489599 23354 net.cpp:84] Creating Layer pool2
I0118 10:02:00.489617 23354 net.cpp:406] pool2 <- conv2
I0118 10:02:00.489663 23354 net.cpp:380] pool2 -> pool2
I0118 10:02:00.489759 23354 net.cpp:122] Setting up pool2
I0118 10:02:00.489776 23354 net.cpp:129] Top shape: 50 256 13 13 (2163200)
I0118 10:02:00.489804 23354 net.cpp:137] Memory required for data: 292314400
I0118 10:02:00.489815 23354 layer_factory.hpp:78] Creating layer bn3
I0118 10:02:00.489840 23354 net.cpp:84] Creating Layer bn3
I0118 10:02:00.489851 23354 net.cpp:406] bn3 <- pool2
I0118 10:02:00.489877 23354 net.cpp:367] bn3 -> pool2 (in-place)
I0118 10:02:00.490135 23354 net.cpp:122] Setting up bn3
I0118 10:02:00.490149 23354 net.cpp:129] Top shape: 50 256 13 13 (2163200)
I0118 10:02:00.490154 23354 net.cpp:137] Memory required for data: 300967200
I0118 10:02:00.490195 23354 layer_factory.hpp:78] Creating layer binactive2
I0118 10:02:00.490219 23354 net.cpp:84] Creating Layer binactive2
I0118 10:02:00.490231 23354 net.cpp:406] binactive2 <- pool2
I0118 10:02:00.490254 23354 net.cpp:380] binactive2 -> binactive2
I0118 10:02:00.490306 23354 net.cpp:122] Setting up binactive2
I0118 10:02:00.490321 23354 net.cpp:129] Top shape: 50 256 13 13 (2163200)
I0118 10:02:00.490345 23354 net.cpp:137] Memory required for data: 309620000
I0118 10:02:00.490357 23354 layer_factory.hpp:78] Creating layer conv3
I0118 10:02:00.490397 23354 net.cpp:84] Creating Layer conv3
I0118 10:02:00.490409 23354 net.cpp:406] conv3 <- binactive2
I0118 10:02:00.490435 23354 net.cpp:380] conv3 -> conv3
I0118 10:02:00.578570 23354 cudnn_binary_conv_layer.cpp:194] Reallocating workspace storage: 18874368
I0118 10:02:00.578907 23354 net.cpp:122] Setting up conv3
I0118 10:02:00.578935 23354 net.cpp:129] Top shape: 50 384 13 13 (3244800)
I0118 10:02:00.578963 23354 net.cpp:137] Memory required for data: 322599200
I0118 10:02:00.578999 23354 layer_factory.hpp:78] Creating layer bn4
I0118 10:02:00.579042 23354 net.cpp:84] Creating Layer bn4
I0118 10:02:00.579061 23354 net.cpp:406] bn4 <- conv3
I0118 10:02:00.579103 23354 net.cpp:367] bn4 -> conv3 (in-place)
I0118 10:02:00.579380 23354 net.cpp:122] Setting up bn4
I0118 10:02:00.579398 23354 net.cpp:129] Top shape: 50 384 13 13 (3244800)
I0118 10:02:00.579430 23354 net.cpp:137] Memory required for data: 335578400
I0118 10:02:00.579461 23354 layer_factory.hpp:78] Creating layer binactive3
I0118 10:02:00.579483 23354 net.cpp:84] Creating Layer binactive3
I0118 10:02:00.579493 23354 net.cpp:406] binactive3 <- conv3
I0118 10:02:00.579516 23354 net.cpp:380] binactive3 -> binactive3
I0118 10:02:00.579574 23354 net.cpp:122] Setting up binactive3
I0118 10:02:00.579589 23354 net.cpp:129] Top shape: 50 384 13 13 (3244800)
I0118 10:02:00.579609 23354 net.cpp:137] Memory required for data: 348557600
I0118 10:02:00.579619 23354 layer_factory.hpp:78] Creating layer conv4
I0118 10:02:00.579663 23354 net.cpp:84] Creating Layer conv4
I0118 10:02:00.579674 23354 net.cpp:406] conv4 <- binactive3
I0118 10:02:00.579701 23354 net.cpp:380] conv4 -> conv4
I0118 10:02:00.704694 23354 cudnn_binary_conv_layer.cpp:194] Reallocating workspace storage: 9840
I0118 10:02:00.704742 23354 net.cpp:122] Setting up conv4
I0118 10:02:00.704762 23354 net.cpp:129] Top shape: 50 384 13 13 (3244800)
I0118 10:02:00.704789 23354 net.cpp:137] Memory required for data: 361536800
I0118 10:02:00.704818 23354 layer_factory.hpp:78] Creating layer bn5
I0118 10:02:00.704859 23354 net.cpp:84] Creating Layer bn5
I0118 10:02:00.704874 23354 net.cpp:406] bn5 <- conv4
I0118 10:02:00.704907 23354 net.cpp:367] bn5 -> conv4 (in-place)
I0118 10:02:00.705193 23354 net.cpp:122] Setting up bn5
I0118 10:02:00.705207 23354 net.cpp:129] Top shape: 50 384 13 13 (3244800)
I0118 10:02:00.705212 23354 net.cpp:137] Memory required for data: 374516000
I0118 10:02:00.705257 23354 layer_factory.hpp:78] Creating layer binactive4
I0118 10:02:00.705281 23354 net.cpp:84] Creating Layer binactive4
I0118 10:02:00.705291 23354 net.cpp:406] binactive4 <- conv4
I0118 10:02:00.705314 23354 net.cpp:380] binactive4 -> binactive4
I0118 10:02:00.705374 23354 net.cpp:122] Setting up binactive4
I0118 10:02:00.705389 23354 net.cpp:129] Top shape: 50 384 13 13 (3244800)
I0118 10:02:00.705397 23354 net.cpp:137] Memory required for data: 387495200
I0118 10:02:00.705406 23354 layer_factory.hpp:78] Creating layer conv5
I0118 10:02:00.705443 23354 net.cpp:84] Creating Layer conv5
I0118 10:02:00.705456 23354 net.cpp:406] conv5 <- binactive4
I0118 10:02:00.705482 23354 net.cpp:380] conv5 -> conv5
I0118 10:02:00.790040 23354 cudnn_binary_conv_layer.cpp:194] Reallocating workspace storage: 18874368
I0118 10:02:00.790377 23354 net.cpp:122] Setting up conv5
I0118 10:02:00.790402 23354 net.cpp:129] Top shape: 50 256 13 13 (2163200)
I0118 10:02:00.790412 23354 net.cpp:137] Memory required for data: 396148000
I0118 10:02:00.790442 23354 layer_factory.hpp:78] Creating layer pool5
I0118 10:02:00.790482 23354 net.cpp:84] Creating Layer pool5
I0118 10:02:00.790495 23354 net.cpp:406] pool5 <- conv5
I0118 10:02:00.790522 23354 net.cpp:380] pool5 -> pool5
I0118 10:02:00.790612 23354 net.cpp:122] Setting up pool5
I0118 10:02:00.790627 23354 net.cpp:129] Top shape: 50 256 6 6 (460800)
I0118 10:02:00.790632 23354 net.cpp:137] Memory required for data: 397991200
I0118 10:02:00.790639 23354 layer_factory.hpp:78] Creating layer bn6
I0118 10:02:00.790657 23354 net.cpp:84] Creating Layer bn6
I0118 10:02:00.790664 23354 net.cpp:406] bn6 <- pool5
I0118 10:02:00.790683 23354 net.cpp:367] bn6 -> pool5 (in-place)
I0118 10:02:00.790992 23354 net.cpp:122] Setting up bn6
I0118 10:02:00.791003 23354 net.cpp:129] Top shape: 50 256 6 6 (460800)
I0118 10:02:00.791007 23354 net.cpp:137] Memory required for data: 399834400
I0118 10:02:00.791028 23354 layer_factory.hpp:78] Creating layer binactive5
I0118 10:02:00.791043 23354 net.cpp:84] Creating Layer binactive5
I0118 10:02:00.791049 23354 net.cpp:406] binactive5 <- pool5
I0118 10:02:00.791065 23354 net.cpp:380] binactive5 -> binactive5
I0118 10:02:00.791115 23354 net.cpp:122] Setting up binactive5
I0118 10:02:00.791127 23354 net.cpp:129] Top shape: 50 256 6 6 (460800)
I0118 10:02:00.791131 23354 net.cpp:137] Memory required for data: 401677600
I0118 10:02:00.791137 23354 layer_factory.hpp:78] Creating layer fc6
I0118 10:02:00.791159 23354 net.cpp:84] Creating Layer fc6
I0118 10:02:00.791168 23354 net.cpp:406] fc6 <- binactive5
I0118 10:02:00.791193 23354 net.cpp:380] fc6 -> fc6
I0118 10:02:04.080538 23354 net.cpp:122] Setting up fc6
I0118 10:02:04.080605 23354 net.cpp:129] Top shape: 50 4096 (204800)
I0118 10:02:04.080610 23354 net.cpp:137] Memory required for data: 402496800
I0118 10:02:04.080644 23354 layer_factory.hpp:78] Creating layer bn7
I0118 10:02:04.080698 23354 net.cpp:84] Creating Layer bn7
I0118 10:02:04.080715 23354 net.cpp:406] bn7 <- fc6
I0118 10:02:04.080757 23354 net.cpp:367] bn7 -> fc6 (in-place)
I0118 10:02:04.081048 23354 net.cpp:122] Setting up bn7
I0118 10:02:04.081076 23354 net.cpp:129] Top shape: 50 4096 (204800)
I0118 10:02:04.081079 23354 net.cpp:137] Memory required for data: 403316000
I0118 10:02:04.081099 23354 layer_factory.hpp:78] Creating layer binactive6
I0118 10:02:04.081117 23354 net.cpp:84] Creating Layer binactive6
I0118 10:02:04.081125 23354 net.cpp:406] binactive6 <- fc6
I0118 10:02:04.081140 23354 net.cpp:380] binactive6 -> binactive6
I0118 10:02:04.081195 23354 net.cpp:122] Setting up binactive6
I0118 10:02:04.081207 23354 net.cpp:129] Top shape: 50 4096 (204800)
I0118 10:02:04.081212 23354 net.cpp:137] Memory required for data: 404135200
I0118 10:02:04.081216 23354 layer_factory.hpp:78] Creating layer fc7
I0118 10:02:04.081240 23354 net.cpp:84] Creating Layer fc7
I0118 10:02:04.081269 23354 net.cpp:406] fc7 <- binactive6
I0118 10:02:04.081290 23354 net.cpp:380] fc7 -> fc7
I0118 10:02:05.509815 23354 net.cpp:122] Setting up fc7
I0118 10:02:05.509876 23354 net.cpp:129] Top shape: 50 4096 (204800)
I0118 10:02:05.509882 23354 net.cpp:137] Memory required for data: 404954400
I0118 10:02:05.509920 23354 layer_factory.hpp:78] Creating layer bn8
I0118 10:02:05.509981 23354 net.cpp:84] Creating Layer bn8
I0118 10:02:05.510000 23354 net.cpp:406] bn8 <- fc7
I0118 10:02:05.510035 23354 net.cpp:367] bn8 -> fc7 (in-place)
I0118 10:02:05.510474 23354 net.cpp:122] Setting up bn8
I0118 10:02:05.510493 23354 net.cpp:129] Top shape: 50 4096 (204800)
I0118 10:02:05.510499 23354 net.cpp:137] Memory required for data: 405773600
I0118 10:02:05.510530 23354 layer_factory.hpp:78] Creating layer relu7
I0118 10:02:05.510556 23354 net.cpp:84] Creating Layer relu7
I0118 10:02:05.510566 23354 net.cpp:406] relu7 <- fc7
I0118 10:02:05.510587 23354 net.cpp:367] relu7 -> fc7 (in-place)
I0118 10:02:05.514354 23354 net.cpp:122] Setting up relu7
I0118 10:02:05.514415 23354 net.cpp:129] Top shape: 50 4096 (204800)
I0118 10:02:05.514425 23354 net.cpp:137] Memory required for data: 406592800
I0118 10:02:05.514449 23354 layer_factory.hpp:78] Creating layer fc8
I0118 10:02:05.514530 23354 net.cpp:84] Creating Layer fc8
I0118 10:02:05.514554 23354 net.cpp:406] fc8 <- fc7
I0118 10:02:05.514616 23354 net.cpp:380] fc8 -> fc8
I0118 10:02:06.060448 23354 net.cpp:122] Setting up fc8
I0118 10:02:06.060518 23354 net.cpp:129] Top shape: 50 1000 (50000)
I0118 10:02:06.060525 23354 net.cpp:137] Memory required for data: 406792800
I0118 10:02:06.060619 23354 layer_factory.hpp:78] Creating layer fc8_fc8_0_split
I0118 10:02:06.060672 23354 net.cpp:84] Creating Layer fc8_fc8_0_split
I0118 10:02:06.060693 23354 net.cpp:406] fc8_fc8_0_split <- fc8
I0118 10:02:06.060752 23354 net.cpp:380] fc8_fc8_0_split -> fc8_fc8_0_split_0
I0118 10:02:06.060801 23354 net.cpp:380] fc8_fc8_0_split -> fc8_fc8_0_split_1
I0118 10:02:06.060829 23354 net.cpp:380] fc8_fc8_0_split -> fc8_fc8_0_split_2
I0118 10:02:06.060952 23354 net.cpp:122] Setting up fc8_fc8_0_split
I0118 10:02:06.060971 23354 net.cpp:129] Top shape: 50 1000 (50000)
I0118 10:02:06.060981 23354 net.cpp:129] Top shape: 50 1000 (50000)
I0118 10:02:06.060994 23354 net.cpp:129] Top shape: 50 1000 (50000)
I0118 10:02:06.060998 23354 net.cpp:137] Memory required for data: 407392800
I0118 10:02:06.061007 23354 layer_factory.hpp:78] Creating layer loss
I0118 10:02:06.061031 23354 net.cpp:84] Creating Layer loss
I0118 10:02:06.061041 23354 net.cpp:406] loss <- fc8_fc8_0_split_0
I0118 10:02:06.061064 23354 net.cpp:406] loss <- label_data_1_split_0
I0118 10:02:06.061086 23354 net.cpp:380] loss -> loss
…
