…
I0113 20:51:54.313164 31400 net.cpp:294] The NetState phase (0) differed from the phase (1) specified by a rule in layer data
I0113 20:51:54.313416 31400 net.cpp:51] Initializing net from parameters: 
name: "AlexNet-BN"
state {
  phase: TRAIN
  level: 0
  stage: ""
}
layer {
  name: "data"
  type: "Data"
  top: "data"
  top: "label"
  include {
    phase: TRAIN
  }
  transform_param {
    mirror: true
    crop_size: 224
    mean_value: 104
    mean_value: 117
    mean_value: 123
  }
  data_param {
    source: "/home/zhengzhe/Data/imagenet_shrt256/ilsvrc12_train_lmdb"
    batch_size: 256
    backend: LMDB
  }
}
layer {
  name: "conv1"
  type: "Convolution"
  bottom: "data"
  top: "conv1"
  param {
    lr_mult: 1
    decay_mult: 1
  }
  convolution_param {
    num_output: 96
    bias_term: false
    pad: 2
    kernel_size: 11
    stride: 4
    weight_filler {
      type: "msra"
    }
  }
}
layer {
  name: "bn1"
  type: "BatchNorm"
  bottom: "conv1"
  top: "conv1"
}
layer {
  name: "scale1"
  type: "Scale"
  bottom: "conv1"
  top: "conv1"
  scale_param {
    bias_term: true
  }
}
layer {
  name: "relu1"
  type: "ReLU"
  bottom: "conv1"
  top: "conv1"
}
layer {
  name: "pool1"
  type: "Pooling"
  bottom: "conv1"
  top: "pool1"
  pooling_param {
    pool: MAX
    kernel_size: 3
    stride: 2
  }
}
layer {
  name: "bn2"
  type: "BatchNorm"
  bottom: "pool1"
  top: "pool1"
}
layer {
  name: "scale2"
  type: "Scale"
  bottom: "pool1"
  top: "pool1"
  scale_param {
    bias_term: true
  }
}
layer {
  name: "binactive1"
  type: "BinActive"
  bottom: "pool1"
  top: "binactive1"
}
layer {
  name: "conv2"
  type: "BinaryConvolution"
  bottom: "binactive1"
  top: "conv2"
  param {
    lr_mult: 1
    decay_mult: 1
  }
  convolution_param {
    num_output: 256
    bias_term: false
    pad: 2
    kernel_size: 5
    weight_filler {
      type: "msra"
    }
  }
  debug_param {
    xnorno_grad: true
  }
}
layer {
  name: "pool2"
  type: "Pooling"
  bottom: "conv2"
  top: "pool2"
  pooling_param {
    pool: MAX
    kernel_size: 3
    stride: 2
  }
}
layer {
  name: "bn3"
  type: "BatchNorm"
  bottom: "pool2"
  top: "pool2"
}
layer {
  name: "scale3"
  type: "Scale"
  bottom: "pool2"
  top: "pool2"
  scale_param {
    bias_term: true
  }
}
layer {
  name: "binactive2"
  type: "BinActive"
  bottom: "pool2"
  top: "binactive2"
}
layer {
  name: "conv3"
  type: "BinaryConvolution"
  bottom: "binactive2"
  top: "conv3"
  param {
    lr_mult: 1
    decay_mult: 1
  }
  convolution_param {
    num_output: 384
    bias_term: false
    pad: 1
    kernel_size: 3
    weight_filler {
      type: "msra"
    }
  }
  debug_param {
    xnorno_grad: true
  }
}
layer {
  name: "bn4"
  type: "BatchNorm"
  bottom: "conv3"
  top: "conv3"
}
layer {
  name: "scale4"
  type: "Scale"
  bottom: "conv3"
  top: "conv3"
  scale_param {
    bias_term: true
  }
}
layer {
  name: "binactive3"
  type: "BinActive"
  bottom: "conv3"
  top: "binactive3"
}
layer {
  name: "conv4"
  type: "BinaryConvolution"
  bottom: "binactive3"
  top: "conv4"
  param {
    lr_mult: 1
    decay_mult: 1
  }
  convolution_param {
    num_output: 384
    bias_term: false
    pad: 1
    kernel_size: 3
    weight_filler {
      type: "msra"
    }
  }
  debug_param {
    xnorno_grad: true
  }
}
layer {
  name: "bn5"
  type: "BatchNorm"
  bottom: "conv4"
  top: "conv4"
}
layer {
  name: "scale5"
  type: "Scale"
  bottom: "conv4"
  top: "conv4"
  scale_param {
    bias_term: true
  }
}
layer {
  name: "binactive4"
  type: "BinActive"
  bottom: "conv4"
  top: "binactive4"
}
layer {
  name: "conv5"
  type: "BinaryConvolution"
  bottom: "binactive4"
  top: "conv5"
  param {
    lr_mult: 1
    decay_mult: 1
  }
  convolution_param {
    num_output: 256
    bias_term: false
    pad: 1
    kernel_size: 3
    weight_filler {
      type: "msra"
    }
  }
  debug_param {
    xnorno_grad: true
  }
}
layer {
  name: "pool5"
  type: "Pooling"
  bottom: "conv5"
  top: "pool5"
  pooling_param {
    pool: MAX
    kernel_size: 3
    stride: 2
  }
}
layer {
  name: "bn6"
  type: "BatchNorm"
  bottom: "pool5"
  top: "pool5"
}
layer {
  name: "scale6"
  type: "Scale"
  bottom: "pool5"
  top: "pool5"
  scale_param {
    bias_term: true
  }
}
layer {
  name: "binactive5"
  type: "BinActive"
  bottom: "pool5"
  top: "binactive5"
}
layer {
  name: "fc6"
  type: "BinaryInnerProduct"
  bottom: "binactive5"
  top: "fc6"
  param {
    lr_mult: 1
    decay_mult: 1
  }
  inner_product_param {
    num_output: 4096
    bias_term: false
    weight_filler {
      type: "msra"
    }
  }
  debug_param {
    xnorno_grad: true
  }
}
layer {
  name: "bn7"
  type: "BatchNorm"
  bottom: "fc6"
  top: "fc6"
}
layer {
  name: "scale7"
  type: "Scale"
  bottom: "fc6"
  top: "fc6"
  scale_param {
    bias_term: true
  }
}
layer {
  name: "binactive6"
  type: "BinActive"
  bottom: "fc6"
  top: "binactive6"
}
layer {
  name: "fc7"
  type: "BinaryInnerProduct"
  bottom: "binactive6"
  top: "fc7"
  param {
    lr_mult: 1
    decay_mult: 1
  }
  inner_product_param {
    num_output: 4096
    bias_term: false
    weight_filler {
      type: "msra"
    }
  }
  debug_param {
    xnorno_grad: true
  }
}
layer {
  name: "bn8"
  type: "BatchNorm"
  bottom: "fc7"
  top: "fc7"
}
layer {
  name: "scale8"
  type: "Scale"
  bottom: "fc7"
  top: "fc7"
  scale_param {
    bias_term: true
  }
}
layer {
  name: "relu7"
  type: "ReLU"
  bottom: "fc7"
  top: "fc7"
}
layer {
  name: "fc8"
  type: "InnerProduct"
  bottom: "fc7"
  top: "fc8"
  param {
    lr_mult: 1
    decay_mult: 1
  }
  param {
    lr_mult: 2
    decay_mult: 0
  }
  inner_product_param {
    num_output: 1000
    weight_filler {
      type: "msra"
    }
    bias_filler {
      type: "constant"
      value: 0
    }
  }
}
layer {
  name: "loss"
  type: "SoftmaxWithLoss"
  bottom: "fc8"
  bottom: "label"
  top: "loss"
}
layer {
  name: "accuracy"
  type: "Accuracy"
  bottom: "fc8"
  bottom: "label"
  top: "accuracy"
}
layer {
  name: "accuracy_5"
  type: "Accuracy"
  bottom: "fc8"
  bottom: "label"
  top: "accuracy_5"
  accuracy_param {
    top_k: 5
  }
}
I0113 20:51:54.314193 31400 layer_factory.hpp:78] Creating layer data
I0113 20:51:54.314466 31400 db_lmdb.cpp:35] Opened lmdb /home/zhengzhe/Data/imagenet_shrt256/ilsvrc12_train_lmdb
I0113 20:51:54.314563 31400 net.cpp:84] Creating Layer data
I0113 20:51:54.314599 31400 net.cpp:380] data -> data
I0113 20:51:54.314795 31400 net.cpp:380] data -> label
I0113 20:51:54.317308 31400 data_layer.cpp:45] output data size: 256,3,224,224
I0113 20:51:55.065603 31400 base_data_layer.cpp:72] Initializing prefetch
I0113 20:51:55.066525 31400 base_data_layer.cpp:75] Prefetch initialized.
I0113 20:51:55.066586 31400 net.cpp:122] Setting up data
I0113 20:51:55.066673 31400 net.cpp:129] Top shape: 256 3 224 224 (38535168)
I0113 20:51:55.066773 31400 net.cpp:129] Top shape: 256 (256)
I0113 20:51:55.066843 31400 net.cpp:137] Memory required for data: 154141696
I0113 20:51:55.067000 31400 layer_factory.hpp:78] Creating layer label_data_1_split
I0113 20:51:55.067133 31400 net.cpp:84] Creating Layer label_data_1_split
I0113 20:51:55.067236 31400 net.cpp:406] label_data_1_split <- label
I0113 20:51:55.067371 31400 net.cpp:380] label_data_1_split -> label_data_1_split_0
I0113 20:51:55.067523 31400 net.cpp:380] label_data_1_split -> label_data_1_split_1
I0113 20:51:55.067626 31400 net.cpp:380] label_data_1_split -> label_data_1_split_2
I0113 20:51:55.067860 31400 net.cpp:122] Setting up label_data_1_split
I0113 20:51:55.067945 31400 net.cpp:129] Top shape: 256 (256)
I0113 20:51:55.068043 31400 net.cpp:129] Top shape: 256 (256)
I0113 20:51:55.068130 31400 net.cpp:129] Top shape: 256 (256)
I0113 20:51:55.068207 31400 net.cpp:137] Memory required for data: 154144768
I0113 20:51:55.068279 31400 layer_factory.hpp:78] Creating layer conv1
I0113 20:51:55.068439 31400 net.cpp:84] Creating Layer conv1
I0113 20:51:55.068495 31400 net.cpp:406] conv1 <- data
I0113 20:51:55.068593 31400 net.cpp:380] conv1 -> conv1
I0113 20:51:57.843673 31400 cudnn_conv_layer.cpp:194] Reallocating workspace storage: 127416
I0113 20:51:57.852025 31400 net.cpp:122] Setting up conv1
I0113 20:51:57.852085 31400 net.cpp:129] Top shape: 256 96 55 55 (74342400)
I0113 20:51:57.852108 31400 net.cpp:137] Memory required for data: 451514368
I0113 20:51:57.852247 31400 layer_factory.hpp:78] Creating layer bn1
I0113 20:51:57.852327 31400 net.cpp:84] Creating Layer bn1
I0113 20:51:57.852371 31400 net.cpp:406] bn1 <- conv1
I0113 20:51:57.852437 31400 net.cpp:367] bn1 -> conv1 (in-place)
I0113 20:51:57.855003 31400 net.cpp:122] Setting up bn1
I0113 20:51:57.855039 31400 net.cpp:129] Top shape: 256 96 55 55 (74342400)
I0113 20:51:57.855068 31400 net.cpp:137] Memory required for data: 748883968
I0113 20:51:57.855141 31400 layer_factory.hpp:78] Creating layer scale1
I0113 20:51:57.855216 31400 net.cpp:84] Creating Layer scale1
I0113 20:51:57.855252 31400 net.cpp:406] scale1 <- conv1
I0113 20:51:57.855303 31400 net.cpp:367] scale1 -> conv1 (in-place)
I0113 20:51:57.855450 31400 layer_factory.hpp:78] Creating layer scale1
I0113 20:51:57.855769 31400 net.cpp:122] Setting up scale1
I0113 20:51:57.855787 31400 net.cpp:129] Top shape: 256 96 55 55 (74342400)
I0113 20:51:57.855793 31400 net.cpp:137] Memory required for data: 1046253568
I0113 20:51:57.855830 31400 layer_factory.hpp:78] Creating layer relu1
I0113 20:51:57.855876 31400 net.cpp:84] Creating Layer relu1
I0113 20:51:57.855891 31400 net.cpp:406] relu1 <- conv1
I0113 20:51:57.855922 31400 net.cpp:367] relu1 -> conv1 (in-place)
I0113 20:51:57.857007 31400 net.cpp:122] Setting up relu1
I0113 20:51:57.857113 31400 net.cpp:129] Top shape: 256 96 55 55 (74342400)
I0113 20:51:57.857178 31400 net.cpp:137] Memory required for data: 1343623168
I0113 20:51:57.857262 31400 layer_factory.hpp:78] Creating layer pool1
I0113 20:51:57.857414 31400 net.cpp:84] Creating Layer pool1
I0113 20:51:57.857496 31400 net.cpp:406] pool1 <- conv1
I0113 20:51:57.857573 31400 net.cpp:380] pool1 -> pool1
I0113 20:51:57.857869 31400 net.cpp:122] Setting up pool1
I0113 20:51:57.857957 31400 net.cpp:129] Top shape: 256 96 27 27 (17915904)
I0113 20:51:57.858206 31400 net.cpp:137] Memory required for data: 1415286784
I0113 20:51:57.858296 31400 layer_factory.hpp:78] Creating layer bn2
I0113 20:51:57.858366 31400 net.cpp:84] Creating Layer bn2
I0113 20:51:57.858397 31400 net.cpp:406] bn2 <- pool1
I0113 20:51:57.858439 31400 net.cpp:367] bn2 -> pool1 (in-place)
I0113 20:51:57.862435 31400 net.cpp:122] Setting up bn2
I0113 20:51:57.862653 31400 net.cpp:129] Top shape: 256 96 27 27 (17915904)
I0113 20:51:57.862769 31400 net.cpp:137] Memory required for data: 1486950400
I0113 20:51:57.862992 31400 layer_factory.hpp:78] Creating layer scale2
I0113 20:51:57.863167 31400 net.cpp:84] Creating Layer scale2
I0113 20:51:57.863266 31400 net.cpp:406] scale2 <- pool1
I0113 20:51:57.863389 31400 net.cpp:367] scale2 -> pool1 (in-place)
I0113 20:51:57.863638 31400 layer_factory.hpp:78] Creating layer scale2
I0113 20:51:57.864030 31400 net.cpp:122] Setting up scale2
I0113 20:51:57.864152 31400 net.cpp:129] Top shape: 256 96 27 27 (17915904)
I0113 20:51:57.864226 31400 net.cpp:137] Memory required for data: 1558614016
I0113 20:51:57.864313 31400 layer_factory.hpp:78] Creating layer binactive1
I0113 20:51:57.864409 31400 net.cpp:84] Creating Layer binactive1
I0113 20:51:57.864545 31400 net.cpp:406] binactive1 <- pool1
I0113 20:51:57.864698 31400 net.cpp:380] binactive1 -> binactive1
I0113 20:51:57.864922 31400 net.cpp:122] Setting up binactive1
I0113 20:51:57.865017 31400 net.cpp:129] Top shape: 256 96 27 27 (17915904)
I0113 20:51:57.865131 31400 net.cpp:137] Memory required for data: 1630277632
I0113 20:51:57.865227 31400 layer_factory.hpp:78] Creating layer conv2
I0113 20:51:57.865397 31400 net.cpp:84] Creating Layer conv2
I0113 20:51:57.865512 31400 net.cpp:406] conv2 <- binactive1
I0113 20:51:57.865654 31400 net.cpp:380] conv2 -> conv2
I0113 20:51:57.956358 31400 cudnn_binary_conv_layer.cpp:194] Reallocating workspace storage: 19668
I0113 20:51:57.956570 31400 net.cpp:122] Setting up conv2
I0113 20:51:57.956681 31400 net.cpp:129] Top shape: 256 256 27 27 (47775744)
I0113 20:51:57.956786 31400 net.cpp:137] Memory required for data: 1821380608
I0113 20:51:57.956918 31400 layer_factory.hpp:78] Creating layer pool2
I0113 20:51:57.957083 31400 net.cpp:84] Creating Layer pool2
I0113 20:51:57.957182 31400 net.cpp:406] pool2 <- conv2
I0113 20:51:57.957311 31400 net.cpp:380] pool2 -> pool2
I0113 20:51:57.957505 31400 net.cpp:122] Setting up pool2
I0113 20:51:57.957629 31400 net.cpp:129] Top shape: 256 256 13 13 (11075584)
I0113 20:51:57.957738 31400 net.cpp:137] Memory required for data: 1865682944
I0113 20:51:57.957842 31400 layer_factory.hpp:78] Creating layer bn3
I0113 20:51:57.957983 31400 net.cpp:84] Creating Layer bn3
I0113 20:51:57.958050 31400 net.cpp:406] bn3 <- pool2
I0113 20:51:57.958138 31400 net.cpp:367] bn3 -> pool2 (in-place)
I0113 20:51:57.958647 31400 net.cpp:122] Setting up bn3
I0113 20:51:57.958750 31400 net.cpp:129] Top shape: 256 256 13 13 (11075584)
I0113 20:51:57.958853 31400 net.cpp:137] Memory required for data: 1909985280
I0113 20:51:57.958979 31400 layer_factory.hpp:78] Creating layer scale3
I0113 20:51:57.959110 31400 net.cpp:84] Creating Layer scale3
I0113 20:51:57.959231 31400 net.cpp:406] scale3 <- pool2
I0113 20:51:57.959367 31400 net.cpp:367] scale3 -> pool2 (in-place)
I0113 20:51:57.959569 31400 layer_factory.hpp:78] Creating layer scale3
I0113 20:51:57.959928 31400 net.cpp:122] Setting up scale3
I0113 20:51:57.960037 31400 net.cpp:129] Top shape: 256 256 13 13 (11075584)
I0113 20:51:57.960141 31400 net.cpp:137] Memory required for data: 1954287616
I0113 20:51:57.960270 31400 layer_factory.hpp:78] Creating layer binactive2
I0113 20:51:57.960392 31400 net.cpp:84] Creating Layer binactive2
I0113 20:51:57.960532 31400 net.cpp:406] binactive2 <- pool2
I0113 20:51:57.960618 31400 net.cpp:380] binactive2 -> binactive2
I0113 20:51:57.960744 31400 net.cpp:122] Setting up binactive2
I0113 20:51:57.960878 31400 net.cpp:129] Top shape: 256 256 13 13 (11075584)
I0113 20:51:57.960979 31400 net.cpp:137] Memory required for data: 1998589952
I0113 20:51:57.961089 31400 layer_factory.hpp:78] Creating layer conv3
I0113 20:51:57.961252 31400 net.cpp:84] Creating Layer conv3
I0113 20:51:57.961350 31400 net.cpp:406] conv3 <- binactive2
I0113 20:51:57.961500 31400 net.cpp:380] conv3 -> conv3
I0113 20:51:58.083225 31400 cudnn_binary_conv_layer.cpp:194] Reallocating workspace storage: 18874368
I0113 20:51:58.083675 31400 net.cpp:122] Setting up conv3
I0113 20:51:58.083726 31400 net.cpp:129] Top shape: 256 384 13 13 (16613376)
I0113 20:51:58.083755 31400 net.cpp:137] Memory required for data: 2065043456
I0113 20:51:58.083796 31400 layer_factory.hpp:78] Creating layer bn4
I0113 20:51:58.083880 31400 net.cpp:84] Creating Layer bn4
I0113 20:51:58.083925 31400 net.cpp:406] bn4 <- conv3
I0113 20:51:58.083986 31400 net.cpp:367] bn4 -> conv3 (in-place)
I0113 20:51:58.084372 31400 net.cpp:122] Setting up bn4
I0113 20:51:58.084414 31400 net.cpp:129] Top shape: 256 384 13 13 (16613376)
I0113 20:51:58.084440 31400 net.cpp:137] Memory required for data: 2131496960
I0113 20:51:58.084493 31400 layer_factory.hpp:78] Creating layer scale4
I0113 20:51:58.084547 31400 net.cpp:84] Creating Layer scale4
I0113 20:51:58.084561 31400 net.cpp:406] scale4 <- conv3
I0113 20:51:58.084610 31400 net.cpp:367] scale4 -> conv3 (in-place)
I0113 20:51:58.084718 31400 layer_factory.hpp:78] Creating layer scale4
I0113 20:51:58.085006 31400 net.cpp:122] Setting up scale4
I0113 20:51:58.085044 31400 net.cpp:129] Top shape: 256 384 13 13 (16613376)
I0113 20:51:58.085072 31400 net.cpp:137] Memory required for data: 2197950464
I0113 20:51:58.085105 31400 layer_factory.hpp:78] Creating layer binactive3
I0113 20:51:58.085139 31400 net.cpp:84] Creating Layer binactive3
I0113 20:51:58.085173 31400 net.cpp:406] binactive3 <- conv3
I0113 20:51:58.085219 31400 net.cpp:380] binactive3 -> binactive3
I0113 20:51:58.085294 31400 net.cpp:122] Setting up binactive3
I0113 20:51:58.085336 31400 net.cpp:129] Top shape: 256 384 13 13 (16613376)
I0113 20:51:58.085363 31400 net.cpp:137] Memory required for data: 2264403968
I0113 20:51:58.085372 31400 layer_factory.hpp:78] Creating layer conv4
I0113 20:51:58.085422 31400 net.cpp:84] Creating Layer conv4
I0113 20:51:58.085439 31400 net.cpp:406] conv4 <- binactive3
I0113 20:51:58.085487 31400 net.cpp:380] conv4 -> conv4
I0113 20:51:58.274763 31400 cudnn_binary_conv_layer.cpp:194] Reallocating workspace storage: 9840
I0113 20:51:58.274930 31400 net.cpp:122] Setting up conv4
I0113 20:51:58.275003 31400 net.cpp:129] Top shape: 256 384 13 13 (16613376)
I0113 20:51:58.275079 31400 net.cpp:137] Memory required for data: 2330857472
I0113 20:51:58.275167 31400 layer_factory.hpp:78] Creating layer bn5
I0113 20:51:58.275264 31400 net.cpp:84] Creating Layer bn5
I0113 20:51:58.275351 31400 net.cpp:406] bn5 <- conv4
I0113 20:51:58.275431 31400 net.cpp:367] bn5 -> conv4 (in-place)
I0113 20:51:58.275913 31400 net.cpp:122] Setting up bn5
I0113 20:51:58.275971 31400 net.cpp:129] Top shape: 256 384 13 13 (16613376)
I0113 20:51:58.276005 31400 net.cpp:137] Memory required for data: 2397310976
I0113 20:51:58.276058 31400 layer_factory.hpp:78] Creating layer scale5
I0113 20:51:58.276139 31400 net.cpp:84] Creating Layer scale5
I0113 20:51:58.276224 31400 net.cpp:406] scale5 <- conv4
I0113 20:51:58.276298 31400 net.cpp:367] scale5 -> conv4 (in-place)
I0113 20:51:58.276468 31400 layer_factory.hpp:78] Creating layer scale5
I0113 20:51:58.276778 31400 net.cpp:122] Setting up scale5
I0113 20:51:58.276881 31400 net.cpp:129] Top shape: 256 384 13 13 (16613376)
I0113 20:51:58.276928 31400 net.cpp:137] Memory required for data: 2463764480
I0113 20:51:58.277016 31400 layer_factory.hpp:78] Creating layer binactive4
I0113 20:51:58.277106 31400 net.cpp:84] Creating Layer binactive4
I0113 20:51:58.277191 31400 net.cpp:406] binactive4 <- conv4
I0113 20:51:58.277287 31400 net.cpp:380] binactive4 -> binactive4
I0113 20:51:58.277393 31400 net.cpp:122] Setting up binactive4
I0113 20:51:58.277492 31400 net.cpp:129] Top shape: 256 384 13 13 (16613376)
I0113 20:51:58.277565 31400 net.cpp:137] Memory required for data: 2530217984
I0113 20:51:58.277643 31400 layer_factory.hpp:78] Creating layer conv5
I0113 20:51:58.277729 31400 net.cpp:84] Creating Layer conv5
I0113 20:51:58.277812 31400 net.cpp:406] conv5 <- binactive4
I0113 20:51:58.277931 31400 net.cpp:380] conv5 -> conv5
I0113 20:51:58.378285 31400 cudnn_binary_conv_layer.cpp:194] Reallocating workspace storage: 18874368
I0113 20:51:58.386607 31400 net.cpp:122] Setting up conv5
I0113 20:51:58.386706 31400 net.cpp:129] Top shape: 256 256 13 13 (11075584)
I0113 20:51:58.386729 31400 net.cpp:137] Memory required for data: 2574520320
I0113 20:51:58.386795 31400 layer_factory.hpp:78] Creating layer pool5
I0113 20:51:58.386876 31400 net.cpp:84] Creating Layer pool5
I0113 20:51:58.386914 31400 net.cpp:406] pool5 <- conv5
I0113 20:51:58.386994 31400 net.cpp:380] pool5 -> pool5
I0113 20:51:58.387172 31400 net.cpp:122] Setting up pool5
I0113 20:51:58.387217 31400 net.cpp:129] Top shape: 256 256 6 6 (2359296)
I0113 20:51:58.387239 31400 net.cpp:137] Memory required for data: 2583957504
I0113 20:51:58.387262 31400 layer_factory.hpp:78] Creating layer bn6
I0113 20:51:58.387302 31400 net.cpp:84] Creating Layer bn6
I0113 20:51:58.387331 31400 net.cpp:406] bn6 <- pool5
I0113 20:51:58.387383 31400 net.cpp:367] bn6 -> pool5 (in-place)
I0113 20:51:58.387804 31400 net.cpp:122] Setting up bn6
I0113 20:51:58.387840 31400 net.cpp:129] Top shape: 256 256 6 6 (2359296)
I0113 20:51:58.387881 31400 net.cpp:137] Memory required for data: 2593394688
I0113 20:51:58.387953 31400 layer_factory.hpp:78] Creating layer scale6
I0113 20:51:58.388007 31400 net.cpp:84] Creating Layer scale6
I0113 20:51:58.388036 31400 net.cpp:406] scale6 <- pool5
I0113 20:51:58.388080 31400 net.cpp:367] scale6 -> pool5 (in-place)
I0113 20:51:58.388207 31400 layer_factory.hpp:78] Creating layer scale6
I0113 20:51:58.388486 31400 net.cpp:122] Setting up scale6
I0113 20:51:58.388523 31400 net.cpp:129] Top shape: 256 256 6 6 (2359296)
I0113 20:51:58.388545 31400 net.cpp:137] Memory required for data: 2602831872
I0113 20:51:58.388581 31400 layer_factory.hpp:78] Creating layer binactive5
I0113 20:51:58.388617 31400 net.cpp:84] Creating Layer binactive5
I0113 20:51:58.388644 31400 net.cpp:406] binactive5 <- pool5
I0113 20:51:58.388685 31400 net.cpp:380] binactive5 -> binactive5
I0113 20:51:58.388768 31400 net.cpp:122] Setting up binactive5
I0113 20:51:58.388803 31400 net.cpp:129] Top shape: 256 256 6 6 (2359296)
I0113 20:51:58.388823 31400 net.cpp:137] Memory required for data: 2612269056
I0113 20:51:58.388846 31400 layer_factory.hpp:78] Creating layer fc6
I0113 20:51:58.388914 31400 net.cpp:84] Creating Layer fc6
I0113 20:51:58.388943 31400 net.cpp:406] fc6 <- binactive5
I0113 20:51:58.388989 31400 net.cpp:380] fc6 -> fc6
I0113 20:52:04.043473 31400 net.cpp:122] Setting up fc6
I0113 20:52:04.043534 31400 net.cpp:129] Top shape: 256 4096 (1048576)
I0113 20:52:04.043542 31400 net.cpp:137] Memory required for data: 2616463360
I0113 20:52:04.043603 31400 layer_factory.hpp:78] Creating layer bn7
I0113 20:52:04.043656 31400 net.cpp:84] Creating Layer bn7
I0113 20:52:04.043689 31400 net.cpp:406] bn7 <- fc6
I0113 20:52:04.043725 31400 net.cpp:367] bn7 -> fc6 (in-place)
I0113 20:52:04.044093 31400 net.cpp:122] Setting up bn7
I0113 20:52:04.044116 31400 net.cpp:129] Top shape: 256 4096 (1048576)
I0113 20:52:04.044122 31400 net.cpp:137] Memory required for data: 2620657664
I0113 20:52:04.044152 31400 layer_factory.hpp:78] Creating layer scale7
I0113 20:52:04.044181 31400 net.cpp:84] Creating Layer scale7
I0113 20:52:04.044193 31400 net.cpp:406] scale7 <- fc6
I0113 20:52:04.044215 31400 net.cpp:367] scale7 -> fc6 (in-place)
I0113 20:52:04.044327 31400 layer_factory.hpp:78] Creating layer scale7
I0113 20:52:04.044611 31400 net.cpp:122] Setting up scale7
I0113 20:52:04.044629 31400 net.cpp:129] Top shape: 256 4096 (1048576)
I0113 20:52:04.044636 31400 net.cpp:137] Memory required for data: 2624851968
I0113 20:52:04.044661 31400 layer_factory.hpp:78] Creating layer binactive6
I0113 20:52:04.044700 31400 net.cpp:84] Creating Layer binactive6
I0113 20:52:04.044713 31400 net.cpp:406] binactive6 <- fc6
I0113 20:52:04.044764 31400 net.cpp:380] binactive6 -> binactive6
I0113 20:52:04.044837 31400 net.cpp:122] Setting up binactive6
I0113 20:52:04.044853 31400 net.cpp:129] Top shape: 256 4096 (1048576)
I0113 20:52:04.044859 31400 net.cpp:137] Memory required for data: 2629046272
I0113 20:52:04.044870 31400 layer_factory.hpp:78] Creating layer fc7
I0113 20:52:04.044931 31400 net.cpp:84] Creating Layer fc7
I0113 20:52:04.044945 31400 net.cpp:406] fc7 <- binactive6
I0113 20:52:04.044975 31400 net.cpp:380] fc7 -> fc7
I0113 20:52:06.559558 31400 net.cpp:122] Setting up fc7
I0113 20:52:06.559676 31400 net.cpp:129] Top shape: 256 4096 (1048576)
I0113 20:52:06.559700 31400 net.cpp:137] Memory required for data: 2633240576
I0113 20:52:06.559754 31400 layer_factory.hpp:78] Creating layer bn8
I0113 20:52:06.559824 31400 net.cpp:84] Creating Layer bn8
I0113 20:52:06.559864 31400 net.cpp:406] bn8 <- fc7
I0113 20:52:06.559911 31400 net.cpp:367] bn8 -> fc7 (in-place)
I0113 20:52:06.560322 31400 net.cpp:122] Setting up bn8
I0113 20:52:06.560362 31400 net.cpp:129] Top shape: 256 4096 (1048576)
I0113 20:52:06.560389 31400 net.cpp:137] Memory required for data: 2637434880
I0113 20:52:06.560429 31400 layer_factory.hpp:78] Creating layer scale8
I0113 20:52:06.560497 31400 net.cpp:84] Creating Layer scale8
I0113 20:52:06.560542 31400 net.cpp:406] scale8 <- fc7
I0113 20:52:06.560576 31400 net.cpp:367] scale8 -> fc7 (in-place)
I0113 20:52:06.560698 31400 layer_factory.hpp:78] Creating layer scale8
I0113 20:52:06.560997 31400 net.cpp:122] Setting up scale8
I0113 20:52:06.561031 31400 net.cpp:129] Top shape: 256 4096 (1048576)
I0113 20:52:06.561048 31400 net.cpp:137] Memory required for data: 2641629184
I0113 20:52:06.561080 31400 layer_factory.hpp:78] Creating layer relu7
I0113 20:52:06.561117 31400 net.cpp:84] Creating Layer relu7
I0113 20:52:06.561139 31400 net.cpp:406] relu7 <- fc7
I0113 20:52:06.561177 31400 net.cpp:367] relu7 -> fc7 (in-place)
I0113 20:52:06.562959 31400 net.cpp:122] Setting up relu7
I0113 20:52:06.562999 31400 net.cpp:129] Top shape: 256 4096 (1048576)
I0113 20:52:06.563019 31400 net.cpp:137] Memory required for data: 2645823488
I0113 20:52:06.563036 31400 layer_factory.hpp:78] Creating layer fc8
I0113 20:52:06.563097 31400 net.cpp:84] Creating Layer fc8
I0113 20:52:06.563127 31400 net.cpp:406] fc8 <- fc7
I0113 20:52:06.563174 31400 net.cpp:380] fc8 -> fc8
I0113 20:52:07.075381 31400 net.cpp:122] Setting up fc8
I0113 20:52:07.075459 31400 net.cpp:129] Top shape: 256 1000 (256000)
I0113 20:52:07.075479 31400 net.cpp:137] Memory required for data: 2646847488
I0113 20:52:07.075536 31400 layer_factory.hpp:78] Creating layer fc8_fc8_0_split
I0113 20:52:07.075608 31400 net.cpp:84] Creating Layer fc8_fc8_0_split
I0113 20:52:07.075651 31400 net.cpp:406] fc8_fc8_0_split <- fc8
I0113 20:52:07.075712 31400 net.cpp:380] fc8_fc8_0_split -> fc8_fc8_0_split_0
I0113 20:52:07.075798 31400 net.cpp:380] fc8_fc8_0_split -> fc8_fc8_0_split_1
I0113 20:52:07.075842 31400 net.cpp:380] fc8_fc8_0_split -> fc8_fc8_0_split_2
I0113 20:52:07.075963 31400 net.cpp:122] Setting up fc8_fc8_0_split
I0113 20:52:07.075995 31400 net.cpp:129] Top shape: 256 1000 (256000)
I0113 20:52:07.076017 31400 net.cpp:129] Top shape: 256 1000 (256000)
I0113 20:52:07.076037 31400 net.cpp:129] Top shape: 256 1000 (256000)
I0113 20:52:07.076054 31400 net.cpp:137] Memory required for data: 2649919488
I0113 20:52:07.076076 31400 layer_factory.hpp:78] Creating layer loss
I0113 20:52:07.076122 31400 net.cpp:84] Creating Layer loss
I0113 20:52:07.076146 31400 net.cpp:406] loss <- fc8_fc8_0_split_0
I0113 20:52:07.076182 31400 net.cpp:406] loss <- label_data_1_split_0
I0113 20:52:07.076282 31400 net.cpp:380] loss -> loss
…
I0113 20:52:07.084561 31400 net.cpp:294] The NetState phase (1) differed from the phase (0) specified by a rule in layer data
I0113 20:52:07.084870 31400 net.cpp:51] Initializing net from parameters: 
name: "AlexNet-BN"
state {
  phase: TEST
}
layer {
  name: "data"
  type: "Data"
  top: "data"
  top: "label"
  include {
    phase: TEST
  }
  transform_param {
    mirror: false
    crop_size: 224
    mean_value: 104
    mean_value: 117
    mean_value: 123
  }
  data_param {
    source: "/home/zhengzhe/Data/imagenet_shrt256/ilsvrc12_val_lmdb"
    batch_size: 50
    backend: LMDB
  }
}
layer {
  name: "conv1"
  type: "Convolution"
  bottom: "data"
  top: "conv1"
  param {
    lr_mult: 1
    decay_mult: 1
  }
  convolution_param {
    num_output: 96
    bias_term: false
    pad: 2
    kernel_size: 11
    stride: 4
    weight_filler {
      type: "msra"
    }
  }
}
layer {
  name: "bn1"
  type: "BatchNorm"
  bottom: "conv1"
  top: "conv1"
}
layer {
  name: "scale1"
  type: "Scale"
  bottom: "conv1"
  top: "conv1"
  scale_param {
    bias_term: true
  }
}
layer {
  name: "relu1"
  type: "ReLU"
  bottom: "conv1"
  top: "conv1"
}
layer {
  name: "pool1"
  type: "Pooling"
  bottom: "conv1"
  top: "pool1"
  pooling_param {
    pool: MAX
    kernel_size: 3
    stride: 2
  }
}
layer {
  name: "bn2"
  type: "BatchNorm"
  bottom: "pool1"
  top: "pool1"
}
layer {
  name: "scale2"
  type: "Scale"
  bottom: "pool1"
  top: "pool1"
  scale_param {
    bias_term: true
  }
}
layer {
  name: "binactive1"
  type: "BinActive"
  bottom: "pool1"
  top: "binactive1"
}
layer {
  name: "conv2"
  type: "BinaryConvolution"
  bottom: "binactive1"
  top: "conv2"
  param {
    lr_mult: 1
    decay_mult: 1
  }
  convolution_param {
    num_output: 256
    bias_term: false
    pad: 2
    kernel_size: 5
    weight_filler {
      type: "msra"
    }
  }
  debug_param {
    xnorno_grad: true
  }
}
layer {
  name: "pool2"
  type: "Pooling"
  bottom: "conv2"
  top: "pool2"
  pooling_param {
    pool: MAX
    kernel_size: 3
    stride: 2
  }
}
layer {
  name: "bn3"
  type: "BatchNorm"
  bottom: "pool2"
  top: "pool2"
}
layer {
  name: "scale3"
  type: "Scale"
  bottom: "pool2"
  top: "pool2"
  scale_param {
    bias_term: true
  }
}
layer {
  name: "binactive2"
  type: "BinActive"
  bottom: "pool2"
  top: "binactive2"
}
layer {
  name: "conv3"
  type: "BinaryConvolution"
  bottom: "binactive2"
  top: "conv3"
  param {
    lr_mult: 1
    decay_mult: 1
  }
  convolution_param {
    num_output: 384
    bias_term: false
    pad: 1
    kernel_size: 3
    weight_filler {
      type: "msra"
    }
  }
  debug_param {
    xnorno_grad: true
  }
}
layer {
  name: "bn4"
  type: "BatchNorm"
  bottom: "conv3"
  top: "conv3"
}
layer {
  name: "scale4"
  type: "Scale"
  bottom: "conv3"
  top: "conv3"
  scale_param {
    bias_term: true
  }
}
layer {
  name: "binactive3"
  type: "BinActive"
  bottom: "conv3"
  top: "binactive3"
}
layer {
  name: "conv4"
  type: "BinaryConvolution"
  bottom: "binactive3"
  top: "conv4"
  param {
    lr_mult: 1
    decay_mult: 1
  }
  convolution_param {
    num_output: 384
    bias_term: false
    pad: 1
    kernel_size: 3
    weight_filler {
      type: "msra"
    }
  }
  debug_param {
    xnorno_grad: true
  }
}
layer {
  name: "bn5"
  type: "BatchNorm"
  bottom: "conv4"
  top: "conv4"
}
layer {
  name: "scale5"
  type: "Scale"
  bottom: "conv4"
  top: "conv4"
  scale_param {
    bias_term: true
  }
}
layer {
  name: "binactive4"
  type: "BinActive"
  bottom: "conv4"
  top: "binactive4"
}
layer {
  name: "conv5"
  type: "BinaryConvolution"
  bottom: "binactive4"
  top: "conv5"
  param {
    lr_mult: 1
    decay_mult: 1
  }
  convolution_param {
    num_output: 256
    bias_term: false
    pad: 1
    kernel_size: 3
    weight_filler {
      type: "msra"
    }
  }
  debug_param {
    xnorno_grad: true
  }
}
layer {
  name: "pool5"
  type: "Pooling"
  bottom: "conv5"
  top: "pool5"
  pooling_param {
    pool: MAX
    kernel_size: 3
    stride: 2
  }
}
layer {
  name: "bn6"
  type: "BatchNorm"
  bottom: "pool5"
  top: "pool5"
}
layer {
  name: "scale6"
  type: "Scale"
  bottom: "pool5"
  top: "pool5"
  scale_param {
    bias_term: true
  }
}
layer {
  name: "binactive5"
  type: "BinActive"
  bottom: "pool5"
  top: "binactive5"
}
layer {
  name: "fc6"
  type: "BinaryInnerProduct"
  bottom: "binactive5"
  top: "fc6"
  param {
    lr_mult: 1
    decay_mult: 1
  }
  inner_product_param {
    num_output: 4096
    bias_term: false
    weight_filler {
      type: "msra"
    }
  }
  debug_param {
    xnorno_grad: true
  }
}
layer {
  name: "bn7"
  type: "BatchNorm"
  bottom: "fc6"
  top: "fc6"
}
layer {
  name: "scale7"
  type: "Scale"
  bottom: "fc6"
  top: "fc6"
  scale_param {
    bias_term: true
  }
}
layer {
  name: "binactive6"
  type: "BinActive"
  bottom: "fc6"
  top: "binactive6"
}
layer {
  name: "fc7"
  type: "BinaryInnerProduct"
  bottom: "binactive6"
  top: "fc7"
  param {
    lr_mult: 1
    decay_mult: 1
  }
  inner_product_param {
    num_output: 4096
    bias_term: false
    weight_filler {
      type: "msra"
    }
  }
  debug_param {
    xnorno_grad: true
  }
}
layer {
  name: "bn8"
  type: "BatchNorm"
  bottom: "fc7"
  top: "fc7"
}
layer {
  name: "scale8"
  type: "Scale"
  bottom: "fc7"
  top: "fc7"
  scale_param {
    bias_term: true
  }
}
layer {
  name: "relu7"
  type: "ReLU"
  bottom: "fc7"
  top: "fc7"
}
layer {
  name: "fc8"
  type: "InnerProduct"
  bottom: "fc7"
  top: "fc8"
  param {
    lr_mult: 1
    decay_mult: 1
  }
  param {
    lr_mult: 2
    decay_mult: 0
  }
  inner_product_param {
    num_output: 1000
    weight_filler {
      type: "msra"
    }
    bias_filler {
      type: "constant"
      value: 0
    }
  }
}
layer {
  name: "loss"
  type: "SoftmaxWithLoss"
  bottom: "fc8"
  bottom: "label"
  top: "loss"
}
layer {
  name: "accuracy"
  type: "Accuracy"
  bottom: "fc8"
  bottom: "label"
  top: "accuracy"
}
layer {
  name: "accuracy_5"
  type: "Accuracy"
  bottom: "fc8"
  bottom: "label"
  top: "accuracy_5"
  accuracy_param {
    top_k: 5
  }
}
I0113 20:52:07.085789 31400 layer_factory.hpp:78] Creating layer data
I0113 20:52:07.085960 31400 db_lmdb.cpp:35] Opened lmdb /home/zhengzhe/Data/imagenet_shrt256/ilsvrc12_val_lmdb
I0113 20:52:07.086033 31400 net.cpp:84] Creating Layer data
I0113 20:52:07.086071 31400 net.cpp:380] data -> data
I0113 20:52:07.086133 31400 net.cpp:380] data -> label
I0113 20:52:07.087255 31400 data_layer.cpp:45] output data size: 50,3,224,224
I0113 20:52:07.260087 31400 base_data_layer.cpp:72] Initializing prefetch
I0113 20:52:07.261000 31400 base_data_layer.cpp:75] Prefetch initialized.
I0113 20:52:07.261032 31400 net.cpp:122] Setting up data
I0113 20:52:07.261080 31400 net.cpp:129] Top shape: 50 3 224 224 (7526400)
I0113 20:52:07.261111 31400 net.cpp:129] Top shape: 50 (50)
I0113 20:52:07.261126 31400 net.cpp:137] Memory required for data: 30105800
I0113 20:52:07.261185 31400 layer_factory.hpp:78] Creating layer label_data_1_split
I0113 20:52:07.261281 31400 net.cpp:84] Creating Layer label_data_1_split
I0113 20:52:07.261314 31400 net.cpp:406] label_data_1_split <- label
I0113 20:52:07.261373 31400 net.cpp:380] label_data_1_split -> label_data_1_split_0
I0113 20:52:07.261443 31400 net.cpp:380] label_data_1_split -> label_data_1_split_1
I0113 20:52:07.261484 31400 net.cpp:380] label_data_1_split -> label_data_1_split_2
I0113 20:52:07.261626 31400 net.cpp:122] Setting up label_data_1_split
I0113 20:52:07.261662 31400 net.cpp:129] Top shape: 50 (50)
I0113 20:52:07.261682 31400 net.cpp:129] Top shape: 50 (50)
I0113 20:52:07.261703 31400 net.cpp:129] Top shape: 50 (50)
I0113 20:52:07.261720 31400 net.cpp:137] Memory required for data: 30106400
I0113 20:52:07.261737 31400 layer_factory.hpp:78] Creating layer conv1
I0113 20:52:07.261797 31400 net.cpp:84] Creating Layer conv1
I0113 20:52:07.261826 31400 net.cpp:406] conv1 <- data
I0113 20:52:07.261863 31400 net.cpp:380] conv1 -> conv1
I0113 20:52:07.271034 31400 cudnn_conv_layer.cpp:194] Reallocating workspace storage: 127416
I0113 20:52:07.271127 31400 net.cpp:122] Setting up conv1
I0113 20:52:07.271163 31400 net.cpp:129] Top shape: 50 96 55 55 (14520000)
I0113 20:52:07.271180 31400 net.cpp:137] Memory required for data: 88186400
I0113 20:52:07.271237 31400 layer_factory.hpp:78] Creating layer bn1
I0113 20:52:07.271286 31400 net.cpp:84] Creating Layer bn1
I0113 20:52:07.271313 31400 net.cpp:406] bn1 <- conv1
I0113 20:52:07.271358 31400 net.cpp:367] bn1 -> conv1 (in-place)
I0113 20:52:07.271805 31400 net.cpp:122] Setting up bn1
I0113 20:52:07.271838 31400 net.cpp:129] Top shape: 50 96 55 55 (14520000)
I0113 20:52:07.271858 31400 net.cpp:137] Memory required for data: 146266400
I0113 20:52:07.271914 31400 layer_factory.hpp:78] Creating layer scale1
I0113 20:52:07.271967 31400 net.cpp:84] Creating Layer scale1
I0113 20:52:07.271993 31400 net.cpp:406] scale1 <- conv1
I0113 20:52:07.272043 31400 net.cpp:367] scale1 -> conv1 (in-place)
I0113 20:52:07.272167 31400 layer_factory.hpp:78] Creating layer scale1
I0113 20:52:07.272713 31400 net.cpp:122] Setting up scale1
I0113 20:52:07.272753 31400 net.cpp:129] Top shape: 50 96 55 55 (14520000)
I0113 20:52:07.272770 31400 net.cpp:137] Memory required for data: 204346400
I0113 20:52:07.272811 31400 layer_factory.hpp:78] Creating layer relu1
I0113 20:52:07.272861 31400 net.cpp:84] Creating Layer relu1
I0113 20:52:07.272889 31400 net.cpp:406] relu1 <- conv1
I0113 20:52:07.272927 31400 net.cpp:367] relu1 -> conv1 (in-place)
I0113 20:52:07.275058 31400 net.cpp:122] Setting up relu1
I0113 20:52:07.275105 31400 net.cpp:129] Top shape: 50 96 55 55 (14520000)
I0113 20:52:07.275126 31400 net.cpp:137] Memory required for data: 262426400
I0113 20:52:07.275144 31400 layer_factory.hpp:78] Creating layer pool1
I0113 20:52:07.275184 31400 net.cpp:84] Creating Layer pool1
I0113 20:52:07.275210 31400 net.cpp:406] pool1 <- conv1
I0113 20:52:07.275256 31400 net.cpp:380] pool1 -> pool1
I0113 20:52:07.275383 31400 net.cpp:122] Setting up pool1
I0113 20:52:07.275429 31400 net.cpp:129] Top shape: 50 96 27 27 (3499200)
I0113 20:52:07.275445 31400 net.cpp:137] Memory required for data: 276423200
I0113 20:52:07.275462 31400 layer_factory.hpp:78] Creating layer bn2
I0113 20:52:07.275508 31400 net.cpp:84] Creating Layer bn2
I0113 20:52:07.275540 31400 net.cpp:406] bn2 <- pool1
I0113 20:52:07.275578 31400 net.cpp:367] bn2 -> pool1 (in-place)
I0113 20:52:07.275954 31400 net.cpp:122] Setting up bn2
I0113 20:52:07.276069 31400 net.cpp:129] Top shape: 50 96 27 27 (3499200)
I0113 20:52:07.276093 31400 net.cpp:137] Memory required for data: 290420000
I0113 20:52:07.276154 31400 layer_factory.hpp:78] Creating layer scale2
I0113 20:52:07.277153 31400 net.cpp:84] Creating Layer scale2
I0113 20:52:07.277218 31400 net.cpp:406] scale2 <- pool1
I0113 20:52:07.277285 31400 net.cpp:367] scale2 -> pool1 (in-place)
I0113 20:52:07.277415 31400 layer_factory.hpp:78] Creating layer scale2
I0113 20:52:07.277772 31400 net.cpp:122] Setting up scale2
I0113 20:52:07.277807 31400 net.cpp:129] Top shape: 50 96 27 27 (3499200)
I0113 20:52:07.277828 31400 net.cpp:137] Memory required for data: 304416800
I0113 20:52:07.277878 31400 layer_factory.hpp:78] Creating layer binactive1
I0113 20:52:07.277912 31400 net.cpp:84] Creating Layer binactive1
I0113 20:52:07.277937 31400 net.cpp:406] binactive1 <- pool1
I0113 20:52:07.277974 31400 net.cpp:380] binactive1 -> binactive1
I0113 20:52:07.278050 31400 net.cpp:122] Setting up binactive1
I0113 20:52:07.278082 31400 net.cpp:129] Top shape: 50 96 27 27 (3499200)
I0113 20:52:07.278101 31400 net.cpp:137] Memory required for data: 318413600
I0113 20:52:07.278118 31400 layer_factory.hpp:78] Creating layer conv2
I0113 20:52:07.278184 31400 net.cpp:84] Creating Layer conv2
I0113 20:52:07.278213 31400 net.cpp:406] conv2 <- binactive1
I0113 20:52:07.278255 31400 net.cpp:380] conv2 -> conv2
I0113 20:52:07.436048 31400 cudnn_binary_conv_layer.cpp:194] Reallocating workspace storage: 19668
I0113 20:52:07.438822 31400 net.cpp:122] Setting up conv2
I0113 20:52:07.439015 31400 net.cpp:129] Top shape: 50 256 27 27 (9331200)
I0113 20:52:07.439077 31400 net.cpp:137] Memory required for data: 355738400
I0113 20:52:07.439153 31400 layer_factory.hpp:78] Creating layer pool2
I0113 20:52:07.439291 31400 net.cpp:84] Creating Layer pool2
I0113 20:52:07.439399 31400 net.cpp:406] pool2 <- conv2
I0113 20:52:07.439498 31400 net.cpp:380] pool2 -> pool2
I0113 20:52:07.439716 31400 net.cpp:122] Setting up pool2
I0113 20:52:07.439903 31400 net.cpp:129] Top shape: 50 256 13 13 (2163200)
I0113 20:52:07.439949 31400 net.cpp:137] Memory required for data: 364391200
I0113 20:52:07.439986 31400 layer_factory.hpp:78] Creating layer bn3
I0113 20:52:07.440038 31400 net.cpp:84] Creating Layer bn3
I0113 20:52:07.440099 31400 net.cpp:406] bn3 <- pool2
I0113 20:52:07.440156 31400 net.cpp:367] bn3 -> pool2 (in-place)
I0113 20:52:07.440598 31400 net.cpp:122] Setting up bn3
I0113 20:52:07.441059 31400 net.cpp:129] Top shape: 50 256 13 13 (2163200)
I0113 20:52:07.441107 31400 net.cpp:137] Memory required for data: 373044000
I0113 20:52:07.441205 31400 layer_factory.hpp:78] Creating layer scale3
I0113 20:52:07.441294 31400 net.cpp:84] Creating Layer scale3
I0113 20:52:07.441360 31400 net.cpp:406] scale3 <- pool2
I0113 20:52:07.441422 31400 net.cpp:367] scale3 -> pool2 (in-place)
I0113 20:52:07.441599 31400 layer_factory.hpp:78] Creating layer scale3
I0113 20:52:07.442009 31400 net.cpp:122] Setting up scale3
I0113 20:52:07.442317 31400 net.cpp:129] Top shape: 50 256 13 13 (2163200)
I0113 20:52:07.442370 31400 net.cpp:137] Memory required for data: 381696800
I0113 20:52:07.442440 31400 layer_factory.hpp:78] Creating layer binactive2
I0113 20:52:07.442533 31400 net.cpp:84] Creating Layer binactive2
I0113 20:52:07.442590 31400 net.cpp:406] binactive2 <- pool2
I0113 20:52:07.442644 31400 net.cpp:380] binactive2 -> binactive2
I0113 20:52:07.442765 31400 net.cpp:122] Setting up binactive2
I0113 20:52:07.442876 31400 net.cpp:129] Top shape: 50 256 13 13 (2163200)
I0113 20:52:07.442916 31400 net.cpp:137] Memory required for data: 390349600
I0113 20:52:07.442953 31400 layer_factory.hpp:78] Creating layer conv3
I0113 20:52:07.443022 31400 net.cpp:84] Creating Layer conv3
I0113 20:52:07.443100 31400 net.cpp:406] conv3 <- binactive2
I0113 20:52:07.443168 31400 net.cpp:380] conv3 -> conv3
I0113 20:52:07.575917 31400 cudnn_binary_conv_layer.cpp:194] Reallocating workspace storage: 18874368
I0113 20:52:07.576345 31400 net.cpp:122] Setting up conv3
I0113 20:52:07.576377 31400 net.cpp:129] Top shape: 50 384 13 13 (3244800)
I0113 20:52:07.576386 31400 net.cpp:137] Memory required for data: 403328800
I0113 20:52:07.576426 31400 layer_factory.hpp:78] Creating layer bn4
I0113 20:52:07.576486 31400 net.cpp:84] Creating Layer bn4
I0113 20:52:07.576508 31400 net.cpp:406] bn4 <- conv3
I0113 20:52:07.576547 31400 net.cpp:367] bn4 -> conv3 (in-place)
I0113 20:52:07.576956 31400 net.cpp:122] Setting up bn4
I0113 20:52:07.576973 31400 net.cpp:129] Top shape: 50 384 13 13 (3244800)
I0113 20:52:07.576979 31400 net.cpp:137] Memory required for data: 416308000
I0113 20:52:07.577035 31400 layer_factory.hpp:78] Creating layer scale4
I0113 20:52:07.577085 31400 net.cpp:84] Creating Layer scale4
I0113 20:52:07.577113 31400 net.cpp:406] scale4 <- conv3
I0113 20:52:07.577152 31400 net.cpp:367] scale4 -> conv3 (in-place)
I0113 20:52:07.577281 31400 layer_factory.hpp:78] Creating layer scale4
I0113 20:52:07.577570 31400 net.cpp:122] Setting up scale4
I0113 20:52:07.577610 31400 net.cpp:129] Top shape: 50 384 13 13 (3244800)
I0113 20:52:07.577630 31400 net.cpp:137] Memory required for data: 429287200
I0113 20:52:07.577668 31400 layer_factory.hpp:78] Creating layer binactive3
I0113 20:52:07.577704 31400 net.cpp:84] Creating Layer binactive3
I0113 20:52:07.577733 31400 net.cpp:406] binactive3 <- conv3
I0113 20:52:07.577771 31400 net.cpp:380] binactive3 -> binactive3
I0113 20:52:07.577863 31400 net.cpp:122] Setting up binactive3
I0113 20:52:07.577899 31400 net.cpp:129] Top shape: 50 384 13 13 (3244800)
I0113 20:52:07.577921 31400 net.cpp:137] Memory required for data: 442266400
I0113 20:52:07.577945 31400 layer_factory.hpp:78] Creating layer conv4
I0113 20:52:07.578002 31400 net.cpp:84] Creating Layer conv4
I0113 20:52:07.578032 31400 net.cpp:406] conv4 <- binactive3
I0113 20:52:07.578079 31400 net.cpp:380] conv4 -> conv4
I0113 20:52:07.929090 31400 cudnn_binary_conv_layer.cpp:194] Reallocating workspace storage: 9840
I0113 20:52:07.929177 31400 net.cpp:122] Setting up conv4
I0113 20:52:07.929208 31400 net.cpp:129] Top shape: 50 384 13 13 (3244800)
I0113 20:52:07.929219 31400 net.cpp:137] Memory required for data: 455245600
I0113 20:52:07.929272 31400 layer_factory.hpp:78] Creating layer bn5
I0113 20:52:07.929332 31400 net.cpp:84] Creating Layer bn5
I0113 20:52:07.929363 31400 net.cpp:406] bn5 <- conv4
I0113 20:52:07.929414 31400 net.cpp:367] bn5 -> conv4 (in-place)
I0113 20:52:07.929987 31400 net.cpp:122] Setting up bn5
I0113 20:52:07.930009 31400 net.cpp:129] Top shape: 50 384 13 13 (3244800)
I0113 20:52:07.930017 31400 net.cpp:137] Memory required for data: 468224800
I0113 20:52:07.930097 31400 layer_factory.hpp:78] Creating layer scale5
I0113 20:52:07.930178 31400 net.cpp:84] Creating Layer scale5
I0113 20:52:07.930197 31400 net.cpp:406] scale5 <- conv4
I0113 20:52:07.930232 31400 net.cpp:367] scale5 -> conv4 (in-place)
I0113 20:52:07.930404 31400 layer_factory.hpp:78] Creating layer scale5
I0113 20:52:07.933001 31400 net.cpp:122] Setting up scale5
I0113 20:52:07.933025 31400 net.cpp:129] Top shape: 50 384 13 13 (3244800)
I0113 20:52:07.933030 31400 net.cpp:137] Memory required for data: 481204000
I0113 20:52:07.933048 31400 layer_factory.hpp:78] Creating layer binactive4
I0113 20:52:07.933068 31400 net.cpp:84] Creating Layer binactive4
I0113 20:52:07.933075 31400 net.cpp:406] binactive4 <- conv4
I0113 20:52:07.933115 31400 net.cpp:380] binactive4 -> binactive4
I0113 20:52:07.933207 31400 net.cpp:122] Setting up binactive4
I0113 20:52:07.933230 31400 net.cpp:129] Top shape: 50 384 13 13 (3244800)
I0113 20:52:07.933239 31400 net.cpp:137] Memory required for data: 494183200
I0113 20:52:07.933252 31400 layer_factory.hpp:78] Creating layer conv5
I0113 20:52:07.933310 31400 net.cpp:84] Creating Layer conv5
I0113 20:52:07.933327 31400 net.cpp:406] conv5 <- binactive4
I0113 20:52:07.933377 31400 net.cpp:380] conv5 -> conv5
I0113 20:52:08.217963 31400 cudnn_binary_conv_layer.cpp:194] Reallocating workspace storage: 18874368
I0113 20:52:08.218317 31400 net.cpp:122] Setting up conv5
I0113 20:52:08.218346 31400 net.cpp:129] Top shape: 50 256 13 13 (2163200)
I0113 20:52:08.218353 31400 net.cpp:137] Memory required for data: 502836000
I0113 20:52:08.218382 31400 layer_factory.hpp:78] Creating layer pool5
I0113 20:52:08.218423 31400 net.cpp:84] Creating Layer pool5
I0113 20:52:08.218437 31400 net.cpp:406] pool5 <- conv5
I0113 20:52:08.218469 31400 net.cpp:380] pool5 -> pool5
I0113 20:52:08.218570 31400 net.cpp:122] Setting up pool5
I0113 20:52:08.218586 31400 net.cpp:129] Top shape: 50 256 6 6 (460800)
I0113 20:52:08.218591 31400 net.cpp:137] Memory required for data: 504679200
I0113 20:52:08.218597 31400 layer_factory.hpp:78] Creating layer bn6
I0113 20:52:08.218613 31400 net.cpp:84] Creating Layer bn6
I0113 20:52:08.218622 31400 net.cpp:406] bn6 <- pool5
I0113 20:52:08.218642 31400 net.cpp:367] bn6 -> pool5 (in-place)
I0113 20:52:08.218935 31400 net.cpp:122] Setting up bn6
I0113 20:52:08.218946 31400 net.cpp:129] Top shape: 50 256 6 6 (460800)
I0113 20:52:08.218950 31400 net.cpp:137] Memory required for data: 506522400
I0113 20:52:08.218989 31400 layer_factory.hpp:78] Creating layer scale6
I0113 20:52:08.219012 31400 net.cpp:84] Creating Layer scale6
I0113 20:52:08.219022 31400 net.cpp:406] scale6 <- pool5
I0113 20:52:08.219038 31400 net.cpp:367] scale6 -> pool5 (in-place)
I0113 20:52:08.219125 31400 layer_factory.hpp:78] Creating layer scale6
I0113 20:52:08.219312 31400 net.cpp:122] Setting up scale6
I0113 20:52:08.219326 31400 net.cpp:129] Top shape: 50 256 6 6 (460800)
I0113 20:52:08.219331 31400 net.cpp:137] Memory required for data: 508365600
I0113 20:52:08.219350 31400 layer_factory.hpp:78] Creating layer binactive5
I0113 20:52:08.219367 31400 net.cpp:84] Creating Layer binactive5
I0113 20:52:08.219375 31400 net.cpp:406] binactive5 <- pool5
I0113 20:52:08.219393 31400 net.cpp:380] binactive5 -> binactive5
I0113 20:52:08.219439 31400 net.cpp:122] Setting up binactive5
I0113 20:52:08.219452 31400 net.cpp:129] Top shape: 50 256 6 6 (460800)
I0113 20:52:08.219457 31400 net.cpp:137] Memory required for data: 510208800
I0113 20:52:08.219463 31400 layer_factory.hpp:78] Creating layer fc6
I0113 20:52:08.219487 31400 net.cpp:84] Creating Layer fc6
I0113 20:52:08.219496 31400 net.cpp:406] fc6 <- binactive5
I0113 20:52:08.219516 31400 net.cpp:380] fc6 -> fc6
I0113 20:52:12.216792 31400 net.cpp:122] Setting up fc6
I0113 20:52:12.216850 31400 net.cpp:129] Top shape: 50 4096 (204800)
I0113 20:52:12.216857 31400 net.cpp:137] Memory required for data: 511028000
I0113 20:52:12.216898 31400 layer_factory.hpp:78] Creating layer bn7
I0113 20:52:12.216979 31400 net.cpp:84] Creating Layer bn7
I0113 20:52:12.217020 31400 net.cpp:406] bn7 <- fc6
I0113 20:52:12.217058 31400 net.cpp:367] bn7 -> fc6 (in-place)
I0113 20:52:12.217394 31400 net.cpp:122] Setting up bn7
I0113 20:52:12.217412 31400 net.cpp:129] Top shape: 50 4096 (204800)
I0113 20:52:12.217418 31400 net.cpp:137] Memory required for data: 511847200
I0113 20:52:12.217478 31400 layer_factory.hpp:78] Creating layer scale7
I0113 20:52:12.217515 31400 net.cpp:84] Creating Layer scale7
I0113 20:52:12.217527 31400 net.cpp:406] scale7 <- fc6
I0113 20:52:12.217563 31400 net.cpp:367] scale7 -> fc6 (in-place)
I0113 20:52:12.217679 31400 layer_factory.hpp:78] Creating layer scale7
I0113 20:52:12.217903 31400 net.cpp:122] Setting up scale7
I0113 20:52:12.217918 31400 net.cpp:129] Top shape: 50 4096 (204800)
I0113 20:52:12.217924 31400 net.cpp:137] Memory required for data: 512666400
I0113 20:52:12.217947 31400 layer_factory.hpp:78] Creating layer binactive6
I0113 20:52:12.217967 31400 net.cpp:84] Creating Layer binactive6
I0113 20:52:12.217977 31400 net.cpp:406] binactive6 <- fc6
I0113 20:52:12.218016 31400 net.cpp:380] binactive6 -> binactive6
I0113 20:52:12.218078 31400 net.cpp:122] Setting up binactive6
I0113 20:52:12.218097 31400 net.cpp:129] Top shape: 50 4096 (204800)
I0113 20:52:12.218104 31400 net.cpp:137] Memory required for data: 513485600
I0113 20:52:12.218112 31400 layer_factory.hpp:78] Creating layer fc7
I0113 20:52:12.218165 31400 net.cpp:84] Creating Layer fc7
I0113 20:52:12.218178 31400 net.cpp:406] fc7 <- binactive6
I0113 20:52:12.218206 31400 net.cpp:380] fc7 -> fc7
I0113 20:52:14.170163 31400 net.cpp:122] Setting up fc7
I0113 20:52:14.170230 31400 net.cpp:129] Top shape: 50 4096 (204800)
I0113 20:52:14.170238 31400 net.cpp:137] Memory required for data: 514304800
I0113 20:52:14.170282 31400 layer_factory.hpp:78] Creating layer bn8
I0113 20:52:14.170330 31400 net.cpp:84] Creating Layer bn8
I0113 20:52:14.170354 31400 net.cpp:406] bn8 <- fc7
I0113 20:52:14.170424 31400 net.cpp:367] bn8 -> fc7 (in-place)
I0113 20:52:14.170869 31400 net.cpp:122] Setting up bn8
I0113 20:52:14.170905 31400 net.cpp:129] Top shape: 50 4096 (204800)
I0113 20:52:14.170923 31400 net.cpp:137] Memory required for data: 515124000
I0113 20:52:14.170969 31400 layer_factory.hpp:78] Creating layer scale8
I0113 20:52:14.171018 31400 net.cpp:84] Creating Layer scale8
I0113 20:52:14.171048 31400 net.cpp:406] scale8 <- fc7
I0113 20:52:14.171088 31400 net.cpp:367] scale8 -> fc7 (in-place)
I0113 20:52:14.171247 31400 layer_factory.hpp:78] Creating layer scale8
I0113 20:52:14.171564 31400 net.cpp:122] Setting up scale8
I0113 20:52:14.171603 31400 net.cpp:129] Top shape: 50 4096 (204800)
I0113 20:52:14.171623 31400 net.cpp:137] Memory required for data: 515943200
I0113 20:52:14.171658 31400 layer_factory.hpp:78] Creating layer relu7
I0113 20:52:14.171697 31400 net.cpp:84] Creating Layer relu7
I0113 20:52:14.171723 31400 net.cpp:406] relu7 <- fc7
I0113 20:52:14.171761 31400 net.cpp:367] relu7 -> fc7 (in-place)
I0113 20:52:14.173588 31400 net.cpp:122] Setting up relu7
I0113 20:52:14.173631 31400 net.cpp:129] Top shape: 50 4096 (204800)
I0113 20:52:14.173652 31400 net.cpp:137] Memory required for data: 516762400
I0113 20:52:14.173676 31400 layer_factory.hpp:78] Creating layer fc8
I0113 20:52:14.173722 31400 net.cpp:84] Creating Layer fc8
I0113 20:52:14.173751 31400 net.cpp:406] fc8 <- fc7
I0113 20:52:14.173800 31400 net.cpp:380] fc8 -> fc8
I0113 20:52:14.686733 31400 net.cpp:122] Setting up fc8
I0113 20:52:14.686858 31400 net.cpp:129] Top shape: 50 1000 (50000)
I0113 20:52:14.686883 31400 net.cpp:137] Memory required for data: 516962400
I0113 20:52:14.686954 31400 layer_factory.hpp:78] Creating layer fc8_fc8_0_split
I0113 20:52:14.687021 31400 net.cpp:84] Creating Layer fc8_fc8_0_split
I0113 20:52:14.687058 31400 net.cpp:406] fc8_fc8_0_split <- fc8
I0113 20:52:14.687117 31400 net.cpp:380] fc8_fc8_0_split -> fc8_fc8_0_split_0
I0113 20:52:14.687180 31400 net.cpp:380] fc8_fc8_0_split -> fc8_fc8_0_split_1
I0113 20:52:14.687252 31400 net.cpp:380] fc8_fc8_0_split -> fc8_fc8_0_split_2
I0113 20:52:14.687410 31400 net.cpp:122] Setting up fc8_fc8_0_split
I0113 20:52:14.687450 31400 net.cpp:129] Top shape: 50 1000 (50000)
I0113 20:52:14.687459 31400 net.cpp:129] Top shape: 50 1000 (50000)
I0113 20:52:14.687466 31400 net.cpp:129] Top shape: 50 1000 (50000)
I0113 20:52:14.687489 31400 net.cpp:137] Memory required for data: 517562400
I0113 20:52:14.687516 31400 layer_factory.hpp:78] Creating layer loss
I0113 20:52:14.687562 31400 net.cpp:84] Creating Layer loss
I0113 20:52:14.687575 31400 net.cpp:406] loss <- fc8_fc8_0_split_0
I0113 20:52:14.687613 31400 net.cpp:406] loss <- label_data_1_split_0
I0113 20:52:14.687656 31400 net.cpp:380] loss -> loss
…
