…
I0110 16:22:28.084177  2020 net.cpp:294] The NetState phase (0) differed from the phase (1) specified by a rule in layer data
I0110 16:22:28.084429  2020 net.cpp:51] Initializing net from parameters: 
name: "AlexNet-BN"
state {
  phase: TRAIN
  level: 0
  stage: ""
}
layer {
  name: "data"
  type: "Data"
  top: "data"
  top: "label"
  include {
    phase: TRAIN
  }
  transform_param {
    mirror: true
    crop_size: 224
    mean_value: 104
    mean_value: 117
    mean_value: 123
  }
  data_param {
    source: "/home/zhengzhe/Data/imagenet_shrt256/ilsvrc12_train_lmdb"
    batch_size: 256
    backend: LMDB
  }
}
layer {
  name: "conv1"
  type: "Convolution"
  bottom: "data"
  top: "conv1"
  param {
    lr_mult: 1
    decay_mult: 1
  }
  convolution_param {
    num_output: 96
    bias_term: false
    pad: 2
    kernel_size: 11
    stride: 4
    weight_filler {
      type: "msra"
    }
  }
}
layer {
  name: "bn1"
  type: "BatchNorm"
  bottom: "conv1"
  top: "conv1"
}
layer {
  name: "scale1"
  type: "Scale"
  bottom: "conv1"
  top: "conv1"
  scale_param {
    bias_term: true
  }
}
layer {
  name: "relu1"
  type: "ReLU"
  bottom: "conv1"
  top: "conv1"
}
layer {
  name: "pool1"
  type: "Pooling"
  bottom: "conv1"
  top: "pool1"
  pooling_param {
    pool: MAX
    kernel_size: 3
    stride: 2
  }
}
layer {
  name: "bn2"
  type: "BatchNorm"
  bottom: "pool1"
  top: "pool1"
}
layer {
  name: "scale2"
  type: "Scale"
  bottom: "pool1"
  top: "pool1"
  scale_param {
    bias_term: true
  }
}
layer {
  name: "binactive1"
  type: "BinActive"
  bottom: "pool1"
  top: "binactive1"
}
layer {
  name: "conv2"
  type: "BinaryConvolution"
  bottom: "binactive1"
  top: "conv2"
  param {
    lr_mult: 1
    decay_mult: 1
  }
  convolution_param {
    num_output: 256
    bias_term: false
    pad: 2
    kernel_size: 5
    weight_filler {
      type: "msra"
    }
  }
  debug_param {
    xnorno_grad: true
  }
}
layer {
  name: "pool2"
  type: "Pooling"
  bottom: "conv2"
  top: "pool2"
  pooling_param {
    pool: MAX
    kernel_size: 3
    stride: 2
  }
}
layer {
  name: "bn3"
  type: "BatchNorm"
  bottom: "pool2"
  top: "pool2"
}
layer {
  name: "scale3"
  type: "Scale"
  bottom: "pool2"
  top: "pool2"
  scale_param {
    bias_term: true
  }
}
layer {
  name: "binactive2"
  type: "BinActive"
  bottom: "pool2"
  top: "binactive2"
}
layer {
  name: "conv3"
  type: "BinaryConvolution"
  bottom: "binactive2"
  top: "conv3"
  param {
    lr_mult: 1
    decay_mult: 1
  }
  convolution_param {
    num_output: 384
    bias_term: false
    pad: 1
    kernel_size: 3
    weight_filler {
      type: "msra"
    }
  }
  debug_param {
    xnorno_grad: true
  }
}
layer {
  name: "bn4"
  type: "BatchNorm"
  bottom: "conv3"
  top: "conv3"
}
layer {
  name: "scale4"
  type: "Scale"
  bottom: "conv3"
  top: "conv3"
  scale_param {
    bias_term: true
  }
}
layer {
  name: "binactive3"
  type: "BinActive"
  bottom: "conv3"
  top: "binactive3"
}
layer {
  name: "conv4"
  type: "BinaryConvolution"
  bottom: "binactive3"
  top: "conv4"
  param {
    lr_mult: 1
    decay_mult: 1
  }
  convolution_param {
    num_output: 384
    bias_term: false
    pad: 1
    kernel_size: 3
    weight_filler {
      type: "msra"
    }
  }
  debug_param {
    xnorno_grad: true
  }
}
layer {
  name: "bn5"
  type: "BatchNorm"
  bottom: "conv4"
  top: "conv4"
}
layer {
  name: "scale5"
  type: "Scale"
  bottom: "conv4"
  top: "conv4"
  scale_param {
    bias_term: true
  }
}
layer {
  name: "binactive4"
  type: "BinActive"
  bottom: "conv4"
  top: "binactive4"
}
layer {
  name: "conv5"
  type: "BinaryConvolution"
  bottom: "binactive4"
  top: "conv5"
  param {
    lr_mult: 1
    decay_mult: 1
  }
  convolution_param {
    num_output: 256
    bias_term: false
    pad: 1
    kernel_size: 3
    weight_filler {
      type: "msra"
    }
  }
  debug_param {
    xnorno_grad: true
  }
}
layer {
  name: "pool5"
  type: "Pooling"
  bottom: "conv5"
  top: "pool5"
  pooling_param {
    pool: MAX
    kernel_size: 3
    stride: 2
  }
}
layer {
  name: "bn6"
  type: "BatchNorm"
  bottom: "pool5"
  top: "pool5"
}
layer {
  name: "scale6"
  type: "Scale"
  bottom: "pool5"
  top: "pool5"
  scale_param {
    bias_term: true
  }
}
layer {
  name: "binactive5"
  type: "BinActive"
  bottom: "pool5"
  top: "binactive5"
}
layer {
  name: "fc6"
  type: "BinaryInnerProduct"
  bottom: "binactive5"
  top: "fc6"
  param {
    lr_mult: 1
    decay_mult: 1
  }
  inner_product_param {
    num_output: 4096
    bias_term: false
    weight_filler {
      type: "msra"
    }
  }
  debug_param {
    xnorno_grad: true
  }
}
layer {
  name: "bn7"
  type: "BatchNorm"
  bottom: "fc6"
  top: "fc6"
}
layer {
  name: "scale7"
  type: "Scale"
  bottom: "fc6"
  top: "fc6"
  scale_param {
    bias_term: true
  }
}
layer {
  name: "binactive6"
  type: "BinActive"
  bottom: "fc6"
  top: "binactive6"
}
layer {
  name: "fc7"
  type: "BinaryInnerProduct"
  bottom: "binactive6"
  top: "fc7"
  param {
    lr_mult: 1
    decay_mult: 1
  }
  inner_product_param {
    num_output: 4096
    bias_term: false
    weight_filler {
      type: "msra"
    }
  }
  debug_param {
    xnorno_grad: true
  }
}
layer {
  name: "bn8"
  type: "BatchNorm"
  bottom: "fc7"
  top: "fc7"
}
layer {
  name: "scale8"
  type: "Scale"
  bottom: "fc7"
  top: "fc7"
  scale_param {
    bias_term: true
  }
}
layer {
  name: "relu7"
  type: "ReLU"
  bottom: "fc7"
  top: "fc7"
}
layer {
  name: "fc8"
  type: "InnerProduct"
  bottom: "fc7"
  top: "fc8"
  param {
    lr_mult: 1
    decay_mult: 1
  }
  param {
    lr_mult: 2
    decay_mult: 0
  }
  inner_product_param {
    num_output: 1000
    weight_filler {
      type: "msra"
    }
    bias_filler {
      type: "constant"
      value: 0
    }
  }
}
layer {
  name: "loss"
  type: "SoftmaxWithLoss"
  bottom: "fc8"
  bottom: "label"
  top: "loss"
}
layer {
  name: "accuracy"
  type: "Accuracy"
  bottom: "fc8"
  bottom: "label"
  top: "accuracy"
}
layer {
  name: "accuracy_5"
  type: "Accuracy"
  bottom: "fc8"
  bottom: "label"
  top: "accuracy_5"
  accuracy_param {
    top_k: 5
  }
}
I0110 16:22:28.085299  2020 layer_factory.hpp:78] Creating layer data
I0110 16:22:28.085570  2020 db_lmdb.cpp:35] Opened lmdb /home/zhengzhe/Data/imagenet_shrt256/ilsvrc12_train_lmdb
I0110 16:22:28.085670  2020 net.cpp:84] Creating Layer data
I0110 16:22:28.085713  2020 net.cpp:380] data -> data
I0110 16:22:28.085901  2020 net.cpp:380] data -> label
I0110 16:22:28.088213  2020 data_layer.cpp:45] output data size: 256,3,224,224
I0110 16:22:28.558890  2020 base_data_layer.cpp:72] Initializing prefetch
I0110 16:22:28.819991  2020 base_data_layer.cpp:75] Prefetch initialized.
I0110 16:22:28.820034  2020 net.cpp:122] Setting up data
I0110 16:22:28.820075  2020 net.cpp:129] Top shape: 256 3 224 224 (38535168)
I0110 16:22:28.820086  2020 net.cpp:129] Top shape: 256 (256)
I0110 16:22:28.820091  2020 net.cpp:137] Memory required for data: 154141696
I0110 16:22:28.820128  2020 layer_factory.hpp:78] Creating layer label_data_1_split
I0110 16:22:28.820184  2020 net.cpp:84] Creating Layer label_data_1_split
I0110 16:22:28.820335  2020 net.cpp:406] label_data_1_split <- label
I0110 16:22:28.820408  2020 net.cpp:380] label_data_1_split -> label_data_1_split_0
I0110 16:22:28.820456  2020 net.cpp:380] label_data_1_split -> label_data_1_split_1
I0110 16:22:28.820478  2020 net.cpp:380] label_data_1_split -> label_data_1_split_2
I0110 16:22:28.820591  2020 net.cpp:122] Setting up label_data_1_split
I0110 16:22:28.820610  2020 net.cpp:129] Top shape: 256 (256)
I0110 16:22:28.820623  2020 net.cpp:129] Top shape: 256 (256)
I0110 16:22:28.820664  2020 net.cpp:129] Top shape: 256 (256)
I0110 16:22:28.820672  2020 net.cpp:137] Memory required for data: 154144768
I0110 16:22:28.820679  2020 layer_factory.hpp:78] Creating layer conv1
I0110 16:22:28.820794  2020 net.cpp:84] Creating Layer conv1
I0110 16:22:28.820827  2020 net.cpp:406] conv1 <- data
I0110 16:22:28.820874  2020 net.cpp:380] conv1 -> conv1
I0110 16:22:36.681533  2020 cudnn_conv_layer.cpp:194] Reallocating workspace storage: 127416
I0110 16:22:36.681898  2020 net.cpp:122] Setting up conv1
I0110 16:22:36.681933  2020 net.cpp:129] Top shape: 256 96 55 55 (74342400)
I0110 16:22:36.681941  2020 net.cpp:137] Memory required for data: 451514368
I0110 16:22:36.682057  2020 layer_factory.hpp:78] Creating layer bn1
I0110 16:22:36.682111  2020 net.cpp:84] Creating Layer bn1
I0110 16:22:36.682127  2020 net.cpp:406] bn1 <- conv1
I0110 16:22:36.682160  2020 net.cpp:367] bn1 -> conv1 (in-place)
I0110 16:22:36.683773  2020 net.cpp:122] Setting up bn1
I0110 16:22:36.683792  2020 net.cpp:129] Top shape: 256 96 55 55 (74342400)
I0110 16:22:36.683796  2020 net.cpp:137] Memory required for data: 748883968
I0110 16:22:36.683851  2020 layer_factory.hpp:78] Creating layer scale1
I0110 16:22:36.683900  2020 net.cpp:84] Creating Layer scale1
I0110 16:22:36.683910  2020 net.cpp:406] scale1 <- conv1
I0110 16:22:36.683929  2020 net.cpp:367] scale1 -> conv1 (in-place)
I0110 16:22:36.684032  2020 layer_factory.hpp:78] Creating layer scale1
I0110 16:22:36.684286  2020 net.cpp:122] Setting up scale1
I0110 16:22:36.684300  2020 net.cpp:129] Top shape: 256 96 55 55 (74342400)
I0110 16:22:36.684304  2020 net.cpp:137] Memory required for data: 1046253568
I0110 16:22:36.684330  2020 layer_factory.hpp:78] Creating layer relu1
I0110 16:22:36.684373  2020 net.cpp:84] Creating Layer relu1
I0110 16:22:36.684383  2020 net.cpp:406] relu1 <- conv1
I0110 16:22:36.684398  2020 net.cpp:367] relu1 -> conv1 (in-place)
I0110 16:22:36.684929  2020 net.cpp:122] Setting up relu1
I0110 16:22:36.684943  2020 net.cpp:129] Top shape: 256 96 55 55 (74342400)
I0110 16:22:36.684947  2020 net.cpp:137] Memory required for data: 1343623168
I0110 16:22:36.684952  2020 layer_factory.hpp:78] Creating layer pool1
I0110 16:22:36.684985  2020 net.cpp:84] Creating Layer pool1
I0110 16:22:36.684993  2020 net.cpp:406] pool1 <- conv1
I0110 16:22:36.685011  2020 net.cpp:380] pool1 -> pool1
I0110 16:22:36.685109  2020 net.cpp:122] Setting up pool1
I0110 16:22:36.685124  2020 net.cpp:129] Top shape: 256 96 27 27 (17915904)
I0110 16:22:36.685128  2020 net.cpp:137] Memory required for data: 1415286784
I0110 16:22:36.685134  2020 layer_factory.hpp:78] Creating layer bn2
I0110 16:22:36.685148  2020 net.cpp:84] Creating Layer bn2
I0110 16:22:36.685158  2020 net.cpp:406] bn2 <- pool1
I0110 16:22:36.685171  2020 net.cpp:367] bn2 -> pool1 (in-place)
I0110 16:22:36.686697  2020 net.cpp:122] Setting up bn2
I0110 16:22:36.686713  2020 net.cpp:129] Top shape: 256 96 27 27 (17915904)
I0110 16:22:36.686717  2020 net.cpp:137] Memory required for data: 1486950400
I0110 16:22:36.686753  2020 layer_factory.hpp:78] Creating layer scale2
I0110 16:22:36.686780  2020 net.cpp:84] Creating Layer scale2
I0110 16:22:36.686790  2020 net.cpp:406] scale2 <- pool1
I0110 16:22:36.686806  2020 net.cpp:367] scale2 -> pool1 (in-place)
I0110 16:22:36.686875  2020 layer_factory.hpp:78] Creating layer scale2
I0110 16:22:36.687075  2020 net.cpp:122] Setting up scale2
I0110 16:22:36.687088  2020 net.cpp:129] Top shape: 256 96 27 27 (17915904)
I0110 16:22:36.687093  2020 net.cpp:137] Memory required for data: 1558614016
I0110 16:22:36.687108  2020 layer_factory.hpp:78] Creating layer binactive1
I0110 16:22:36.687129  2020 net.cpp:84] Creating Layer binactive1
I0110 16:22:36.687139  2020 net.cpp:406] binactive1 <- pool1
I0110 16:22:36.687153  2020 net.cpp:380] binactive1 -> binactive1
I0110 16:22:36.687201  2020 net.cpp:122] Setting up binactive1
I0110 16:22:36.687212  2020 net.cpp:129] Top shape: 256 96 27 27 (17915904)
I0110 16:22:36.687216  2020 net.cpp:137] Memory required for data: 1630277632
I0110 16:22:36.687252  2020 layer_factory.hpp:78] Creating layer conv2
I0110 16:22:36.687297  2020 net.cpp:84] Creating Layer conv2
I0110 16:22:36.687307  2020 net.cpp:406] conv2 <- binactive1
I0110 16:22:36.687328  2020 net.cpp:380] conv2 -> conv2
I0110 16:22:36.751829  2020 cudnn_binary_conv_layer.cpp:194] Reallocating workspace storage: 19668
I0110 16:22:36.751895  2020 net.cpp:122] Setting up conv2
I0110 16:22:36.751922  2020 net.cpp:129] Top shape: 256 256 27 27 (47775744)
I0110 16:22:36.751926  2020 net.cpp:137] Memory required for data: 1821380608
I0110 16:22:36.751991  2020 layer_factory.hpp:78] Creating layer pool2
I0110 16:22:36.752050  2020 net.cpp:84] Creating Layer pool2
I0110 16:22:36.752074  2020 net.cpp:406] pool2 <- conv2
I0110 16:22:36.752110  2020 net.cpp:380] pool2 -> pool2
I0110 16:22:36.752203  2020 net.cpp:122] Setting up pool2
I0110 16:22:36.752218  2020 net.cpp:129] Top shape: 256 256 13 13 (11075584)
I0110 16:22:36.752223  2020 net.cpp:137] Memory required for data: 1865682944
I0110 16:22:36.752229  2020 layer_factory.hpp:78] Creating layer bn3
I0110 16:22:36.752248  2020 net.cpp:84] Creating Layer bn3
I0110 16:22:36.752254  2020 net.cpp:406] bn3 <- pool2
I0110 16:22:36.752269  2020 net.cpp:367] bn3 -> pool2 (in-place)
I0110 16:22:36.752509  2020 net.cpp:122] Setting up bn3
I0110 16:22:36.752521  2020 net.cpp:129] Top shape: 256 256 13 13 (11075584)
I0110 16:22:36.752527  2020 net.cpp:137] Memory required for data: 1909985280
I0110 16:22:36.752552  2020 layer_factory.hpp:78] Creating layer scale3
I0110 16:22:36.752578  2020 net.cpp:84] Creating Layer scale3
I0110 16:22:36.752586  2020 net.cpp:406] scale3 <- pool2
I0110 16:22:36.752604  2020 net.cpp:367] scale3 -> pool2 (in-place)
I0110 16:22:36.752676  2020 layer_factory.hpp:78] Creating layer scale3
I0110 16:22:36.752856  2020 net.cpp:122] Setting up scale3
I0110 16:22:36.752868  2020 net.cpp:129] Top shape: 256 256 13 13 (11075584)
I0110 16:22:36.752873  2020 net.cpp:137] Memory required for data: 1954287616
I0110 16:22:36.752904  2020 layer_factory.hpp:78] Creating layer binactive2
I0110 16:22:36.752919  2020 net.cpp:84] Creating Layer binactive2
I0110 16:22:36.752928  2020 net.cpp:406] binactive2 <- pool2
I0110 16:22:36.752943  2020 net.cpp:380] binactive2 -> binactive2
I0110 16:22:36.752980  2020 net.cpp:122] Setting up binactive2
I0110 16:22:36.752992  2020 net.cpp:129] Top shape: 256 256 13 13 (11075584)
I0110 16:22:36.752997  2020 net.cpp:137] Memory required for data: 1998589952
I0110 16:22:36.753003  2020 layer_factory.hpp:78] Creating layer conv3
I0110 16:22:36.753039  2020 net.cpp:84] Creating Layer conv3
I0110 16:22:36.753048  2020 net.cpp:406] conv3 <- binactive2
I0110 16:22:36.753068  2020 net.cpp:380] conv3 -> conv3
I0110 16:22:36.851588  2020 cudnn_binary_conv_layer.cpp:194] Reallocating workspace storage: 18874368
I0110 16:22:36.852655  2020 net.cpp:122] Setting up conv3
I0110 16:22:36.852841  2020 net.cpp:129] Top shape: 256 384 13 13 (16613376)
I0110 16:22:36.852862  2020 net.cpp:137] Memory required for data: 2065043456
I0110 16:22:36.852977  2020 layer_factory.hpp:78] Creating layer bn4
I0110 16:22:36.853173  2020 net.cpp:84] Creating Layer bn4
I0110 16:22:36.853230  2020 net.cpp:406] bn4 <- conv3
I0110 16:22:36.853328  2020 net.cpp:367] bn4 -> conv3 (in-place)
I0110 16:22:36.854853  2020 net.cpp:122] Setting up bn4
I0110 16:22:36.854902  2020 net.cpp:129] Top shape: 256 384 13 13 (16613376)
I0110 16:22:36.854923  2020 net.cpp:137] Memory required for data: 2131496960
I0110 16:22:36.855017  2020 layer_factory.hpp:78] Creating layer scale4
I0110 16:22:36.855109  2020 net.cpp:84] Creating Layer scale4
I0110 16:22:36.855154  2020 net.cpp:406] scale4 <- conv3
I0110 16:22:36.855233  2020 net.cpp:367] scale4 -> conv3 (in-place)
I0110 16:22:36.855613  2020 layer_factory.hpp:78] Creating layer scale4
I0110 16:22:36.856464  2020 net.cpp:122] Setting up scale4
I0110 16:22:36.856528  2020 net.cpp:129] Top shape: 256 384 13 13 (16613376)
I0110 16:22:36.856549  2020 net.cpp:137] Memory required for data: 2197950464
I0110 16:22:36.856703  2020 layer_factory.hpp:78] Creating layer binactive3
I0110 16:22:36.856778  2020 net.cpp:84] Creating Layer binactive3
I0110 16:22:36.856817  2020 net.cpp:406] binactive3 <- conv3
I0110 16:22:36.856897  2020 net.cpp:380] binactive3 -> binactive3
I0110 16:22:36.857065  2020 net.cpp:122] Setting up binactive3
I0110 16:22:36.857126  2020 net.cpp:129] Top shape: 256 384 13 13 (16613376)
I0110 16:22:36.857138  2020 net.cpp:137] Memory required for data: 2264403968
I0110 16:22:36.857167  2020 layer_factory.hpp:78] Creating layer conv4
I0110 16:22:36.857292  2020 net.cpp:84] Creating Layer conv4
I0110 16:22:36.857326  2020 net.cpp:406] conv4 <- binactive3
I0110 16:22:36.857432  2020 net.cpp:380] conv4 -> conv4
I0110 16:22:37.100505  2020 cudnn_binary_conv_layer.cpp:194] Reallocating workspace storage: 9840
I0110 16:22:37.100576  2020 net.cpp:122] Setting up conv4
I0110 16:22:37.100608  2020 net.cpp:129] Top shape: 256 384 13 13 (16613376)
I0110 16:22:37.100620  2020 net.cpp:137] Memory required for data: 2330857472
I0110 16:22:37.100693  2020 layer_factory.hpp:78] Creating layer bn5
I0110 16:22:37.100757  2020 net.cpp:84] Creating Layer bn5
I0110 16:22:37.100777  2020 net.cpp:406] bn5 <- conv4
I0110 16:22:37.100819  2020 net.cpp:367] bn5 -> conv4 (in-place)
I0110 16:22:37.101130  2020 net.cpp:122] Setting up bn5
I0110 16:22:37.101150  2020 net.cpp:129] Top shape: 256 384 13 13 (16613376)
I0110 16:22:37.101155  2020 net.cpp:137] Memory required for data: 2397310976
I0110 16:22:37.101188  2020 layer_factory.hpp:78] Creating layer scale5
I0110 16:22:37.101219  2020 net.cpp:84] Creating Layer scale5
I0110 16:22:37.101230  2020 net.cpp:406] scale5 <- conv4
I0110 16:22:37.101253  2020 net.cpp:367] scale5 -> conv4 (in-place)
I0110 16:22:37.101351  2020 layer_factory.hpp:78] Creating layer scale5
I0110 16:22:37.101572  2020 net.cpp:122] Setting up scale5
I0110 16:22:37.101588  2020 net.cpp:129] Top shape: 256 384 13 13 (16613376)
I0110 16:22:37.101593  2020 net.cpp:137] Memory required for data: 2463764480
I0110 16:22:37.101616  2020 layer_factory.hpp:78] Creating layer binactive4
I0110 16:22:37.101655  2020 net.cpp:84] Creating Layer binactive4
I0110 16:22:37.101675  2020 net.cpp:406] binactive4 <- conv4
I0110 16:22:37.101716  2020 net.cpp:380] binactive4 -> binactive4
I0110 16:22:37.101768  2020 net.cpp:122] Setting up binactive4
I0110 16:22:37.101784  2020 net.cpp:129] Top shape: 256 384 13 13 (16613376)
I0110 16:22:37.101789  2020 net.cpp:137] Memory required for data: 2530217984
I0110 16:22:37.101797  2020 layer_factory.hpp:78] Creating layer conv5
I0110 16:22:37.101845  2020 net.cpp:84] Creating Layer conv5
I0110 16:22:37.101857  2020 net.cpp:406] conv5 <- binactive4
I0110 16:22:37.101886  2020 net.cpp:380] conv5 -> conv5
I0110 16:22:37.216737  2020 cudnn_binary_conv_layer.cpp:194] Reallocating workspace storage: 18874368
I0110 16:22:37.217185  2020 net.cpp:122] Setting up conv5
I0110 16:22:37.217222  2020 net.cpp:129] Top shape: 256 256 13 13 (11075584)
I0110 16:22:37.217231  2020 net.cpp:137] Memory required for data: 2574520320
I0110 16:22:37.217285  2020 layer_factory.hpp:78] Creating layer pool5
I0110 16:22:37.217362  2020 net.cpp:84] Creating Layer pool5
I0110 16:22:37.217389  2020 net.cpp:406] pool5 <- conv5
I0110 16:22:37.217484  2020 net.cpp:380] pool5 -> pool5
I0110 16:22:37.217648  2020 net.cpp:122] Setting up pool5
I0110 16:22:37.217671  2020 net.cpp:129] Top shape: 256 256 6 6 (2359296)
I0110 16:22:37.217676  2020 net.cpp:137] Memory required for data: 2583957504
I0110 16:22:37.217687  2020 layer_factory.hpp:78] Creating layer bn6
I0110 16:22:37.217708  2020 net.cpp:84] Creating Layer bn6
I0110 16:22:37.217718  2020 net.cpp:406] bn6 <- pool5
I0110 16:22:37.217738  2020 net.cpp:367] bn6 -> pool5 (in-place)
I0110 16:22:37.218122  2020 net.cpp:122] Setting up bn6
I0110 16:22:37.218138  2020 net.cpp:129] Top shape: 256 256 6 6 (2359296)
I0110 16:22:37.218143  2020 net.cpp:137] Memory required for data: 2593394688
I0110 16:22:37.218225  2020 layer_factory.hpp:78] Creating layer scale6
I0110 16:22:37.218289  2020 net.cpp:84] Creating Layer scale6
I0110 16:22:37.218312  2020 net.cpp:406] scale6 <- pool5
I0110 16:22:37.218358  2020 net.cpp:367] scale6 -> pool5 (in-place)
I0110 16:22:37.218484  2020 layer_factory.hpp:78] Creating layer scale6
I0110 16:22:37.218786  2020 net.cpp:122] Setting up scale6
I0110 16:22:37.218809  2020 net.cpp:129] Top shape: 256 256 6 6 (2359296)
I0110 16:22:37.218821  2020 net.cpp:137] Memory required for data: 2602831872
I0110 16:22:37.218855  2020 layer_factory.hpp:78] Creating layer binactive5
I0110 16:22:37.218878  2020 net.cpp:84] Creating Layer binactive5
I0110 16:22:37.218888  2020 net.cpp:406] binactive5 <- pool5
I0110 16:22:37.218911  2020 net.cpp:380] binactive5 -> binactive5
I0110 16:22:37.218989  2020 net.cpp:122] Setting up binactive5
I0110 16:22:37.219004  2020 net.cpp:129] Top shape: 256 256 6 6 (2359296)
I0110 16:22:37.219012  2020 net.cpp:137] Memory required for data: 2612269056
I0110 16:22:37.219020  2020 layer_factory.hpp:78] Creating layer fc6
I0110 16:22:37.219086  2020 net.cpp:84] Creating Layer fc6
I0110 16:22:37.219103  2020 net.cpp:406] fc6 <- binactive5
I0110 16:22:37.219130  2020 net.cpp:380] fc6 -> fc6
I0110 16:22:41.054697  2020 net.cpp:122] Setting up fc6
I0110 16:22:41.054787  2020 net.cpp:129] Top shape: 256 4096 (1048576)
I0110 16:22:41.054795  2020 net.cpp:137] Memory required for data: 2616463360
I0110 16:22:41.054839  2020 layer_factory.hpp:78] Creating layer bn7
I0110 16:22:41.054889  2020 net.cpp:84] Creating Layer bn7
I0110 16:22:41.054910  2020 net.cpp:406] bn7 <- fc6
I0110 16:22:41.054939  2020 net.cpp:367] bn7 -> fc6 (in-place)
I0110 16:22:41.055228  2020 net.cpp:122] Setting up bn7
I0110 16:22:41.055258  2020 net.cpp:129] Top shape: 256 4096 (1048576)
I0110 16:22:41.055279  2020 net.cpp:137] Memory required for data: 2620657664
I0110 16:22:41.055308  2020 layer_factory.hpp:78] Creating layer scale7
I0110 16:22:41.055336  2020 net.cpp:84] Creating Layer scale7
I0110 16:22:41.055352  2020 net.cpp:406] scale7 <- fc6
I0110 16:22:41.055373  2020 net.cpp:367] scale7 -> fc6 (in-place)
I0110 16:22:41.055464  2020 layer_factory.hpp:78] Creating layer scale7
I0110 16:22:41.055670  2020 net.cpp:122] Setting up scale7
I0110 16:22:41.055698  2020 net.cpp:129] Top shape: 256 4096 (1048576)
I0110 16:22:41.055703  2020 net.cpp:137] Memory required for data: 2624851968
I0110 16:22:41.055721  2020 layer_factory.hpp:78] Creating layer binactive6
I0110 16:22:41.055742  2020 net.cpp:84] Creating Layer binactive6
I0110 16:22:41.055750  2020 net.cpp:406] binactive6 <- fc6
I0110 16:22:41.055770  2020 net.cpp:380] binactive6 -> binactive6
I0110 16:22:41.055816  2020 net.cpp:122] Setting up binactive6
I0110 16:22:41.055830  2020 net.cpp:129] Top shape: 256 4096 (1048576)
I0110 16:22:41.055835  2020 net.cpp:137] Memory required for data: 2629046272
I0110 16:22:41.055841  2020 layer_factory.hpp:78] Creating layer fc7
I0110 16:22:41.055877  2020 net.cpp:84] Creating Layer fc7
I0110 16:22:41.055888  2020 net.cpp:406] fc7 <- binactive6
I0110 16:22:41.055912  2020 net.cpp:380] fc7 -> fc7
I0110 16:22:42.856609  2020 net.cpp:122] Setting up fc7
I0110 16:22:42.856673  2020 net.cpp:129] Top shape: 256 4096 (1048576)
I0110 16:22:42.856678  2020 net.cpp:137] Memory required for data: 2633240576
I0110 16:22:42.856712  2020 layer_factory.hpp:78] Creating layer bn8
I0110 16:22:42.856758  2020 net.cpp:84] Creating Layer bn8
I0110 16:22:42.856776  2020 net.cpp:406] bn8 <- fc7
I0110 16:22:42.856806  2020 net.cpp:367] bn8 -> fc7 (in-place)
I0110 16:22:42.857084  2020 net.cpp:122] Setting up bn8
I0110 16:22:42.857096  2020 net.cpp:129] Top shape: 256 4096 (1048576)
I0110 16:22:42.857100  2020 net.cpp:137] Memory required for data: 2637434880
I0110 16:22:42.857121  2020 layer_factory.hpp:78] Creating layer scale8
I0110 16:22:42.857158  2020 net.cpp:84] Creating Layer scale8
I0110 16:22:42.857167  2020 net.cpp:406] scale8 <- fc7
I0110 16:22:42.857185  2020 net.cpp:367] scale8 -> fc7 (in-place)
I0110 16:22:42.857266  2020 layer_factory.hpp:78] Creating layer scale8
I0110 16:22:42.857470  2020 net.cpp:122] Setting up scale8
I0110 16:22:42.857507  2020 net.cpp:129] Top shape: 256 4096 (1048576)
I0110 16:22:42.857513  2020 net.cpp:137] Memory required for data: 2641629184
I0110 16:22:42.857529  2020 layer_factory.hpp:78] Creating layer relu7
I0110 16:22:42.857547  2020 net.cpp:84] Creating Layer relu7
I0110 16:22:42.857554  2020 net.cpp:406] relu7 <- fc7
I0110 16:22:42.857574  2020 net.cpp:367] relu7 -> fc7 (in-place)
I0110 16:22:42.858700  2020 net.cpp:122] Setting up relu7
I0110 16:22:42.858713  2020 net.cpp:129] Top shape: 256 4096 (1048576)
I0110 16:22:42.858733  2020 net.cpp:137] Memory required for data: 2645823488
I0110 16:22:42.858741  2020 layer_factory.hpp:78] Creating layer fc8
I0110 16:22:42.858775  2020 net.cpp:84] Creating Layer fc8
I0110 16:22:42.858785  2020 net.cpp:406] fc8 <- fc7
I0110 16:22:42.858809  2020 net.cpp:380] fc8 -> fc8
I0110 16:22:43.285890  2020 net.cpp:122] Setting up fc8
I0110 16:22:43.285943  2020 net.cpp:129] Top shape: 256 1000 (256000)
I0110 16:22:43.285948  2020 net.cpp:137] Memory required for data: 2646847488
I0110 16:22:43.285984  2020 layer_factory.hpp:78] Creating layer fc8_fc8_0_split
I0110 16:22:43.286025  2020 net.cpp:84] Creating Layer fc8_fc8_0_split
I0110 16:22:43.286041  2020 net.cpp:406] fc8_fc8_0_split <- fc8
I0110 16:22:43.286069  2020 net.cpp:380] fc8_fc8_0_split -> fc8_fc8_0_split_0
I0110 16:22:43.286099  2020 net.cpp:380] fc8_fc8_0_split -> fc8_fc8_0_split_1
I0110 16:22:43.286119  2020 net.cpp:380] fc8_fc8_0_split -> fc8_fc8_0_split_2
I0110 16:22:43.286192  2020 net.cpp:122] Setting up fc8_fc8_0_split
I0110 16:22:43.286204  2020 net.cpp:129] Top shape: 256 1000 (256000)
I0110 16:22:43.286211  2020 net.cpp:129] Top shape: 256 1000 (256000)
I0110 16:22:43.286216  2020 net.cpp:129] Top shape: 256 1000 (256000)
I0110 16:22:43.286219  2020 net.cpp:137] Memory required for data: 2649919488
I0110 16:22:43.286224  2020 layer_factory.hpp:78] Creating layer loss
I0110 16:22:43.286260  2020 net.cpp:84] Creating Layer loss
I0110 16:22:43.286269  2020 net.cpp:406] loss <- fc8_fc8_0_split_0
I0110 16:22:43.286285  2020 net.cpp:406] loss <- label_data_1_split_0
I0110 16:22:43.286303  2020 net.cpp:380] loss -> loss
…
I0110 16:22:43.291808  2020 net.cpp:294] The NetState phase (1) differed from the phase (0) specified by a rule in layer data
I0110 16:22:43.292026  2020 net.cpp:51] Initializing net from parameters: 
name: "AlexNet-BN"
state {
  phase: TEST
}
layer {
  name: "data"
  type: "Data"
  top: "data"
  top: "label"
  include {
    phase: TEST
  }
  transform_param {
    mirror: false
    crop_size: 224
    mean_value: 104
    mean_value: 117
    mean_value: 123
  }
  data_param {
    source: "/home/zhengzhe/Data/imagenet_shrt256/ilsvrc12_val_lmdb"
    batch_size: 50
    backend: LMDB
  }
}
layer {
  name: "conv1"
  type: "Convolution"
  bottom: "data"
  top: "conv1"
  param {
    lr_mult: 1
    decay_mult: 1
  }
  convolution_param {
    num_output: 96
    bias_term: false
    pad: 2
    kernel_size: 11
    stride: 4
    weight_filler {
      type: "msra"
    }
  }
}
layer {
  name: "bn1"
  type: "BatchNorm"
  bottom: "conv1"
  top: "conv1"
}
layer {
  name: "scale1"
  type: "Scale"
  bottom: "conv1"
  top: "conv1"
  scale_param {
    bias_term: true
  }
}
layer {
  name: "relu1"
  type: "ReLU"
  bottom: "conv1"
  top: "conv1"
}
layer {
  name: "pool1"
  type: "Pooling"
  bottom: "conv1"
  top: "pool1"
  pooling_param {
    pool: MAX
    kernel_size: 3
    stride: 2
  }
}
layer {
  name: "bn2"
  type: "BatchNorm"
  bottom: "pool1"
  top: "pool1"
}
layer {
  name: "scale2"
  type: "Scale"
  bottom: "pool1"
  top: "pool1"
  scale_param {
    bias_term: true
  }
}
layer {
  name: "binactive1"
  type: "BinActive"
  bottom: "pool1"
  top: "binactive1"
}
layer {
  name: "conv2"
  type: "BinaryConvolution"
  bottom: "binactive1"
  top: "conv2"
  param {
    lr_mult: 1
    decay_mult: 1
  }
  convolution_param {
    num_output: 256
    bias_term: false
    pad: 2
    kernel_size: 5
    weight_filler {
      type: "msra"
    }
  }
  debug_param {
    xnorno_grad: true
  }
}
layer {
  name: "pool2"
  type: "Pooling"
  bottom: "conv2"
  top: "pool2"
  pooling_param {
    pool: MAX
    kernel_size: 3
    stride: 2
  }
}
layer {
  name: "bn3"
  type: "BatchNorm"
  bottom: "pool2"
  top: "pool2"
}
layer {
  name: "scale3"
  type: "Scale"
  bottom: "pool2"
  top: "pool2"
  scale_param {
    bias_term: true
  }
}
layer {
  name: "binactive2"
  type: "BinActive"
  bottom: "pool2"
  top: "binactive2"
}
layer {
  name: "conv3"
  type: "BinaryConvolution"
  bottom: "binactive2"
  top: "conv3"
  param {
    lr_mult: 1
    decay_mult: 1
  }
  convolution_param {
    num_output: 384
    bias_term: false
    pad: 1
    kernel_size: 3
    weight_filler {
      type: "msra"
    }
  }
  debug_param {
    xnorno_grad: true
  }
}
layer {
  name: "bn4"
  type: "BatchNorm"
  bottom: "conv3"
  top: "conv3"
}
layer {
  name: "scale4"
  type: "Scale"
  bottom: "conv3"
  top: "conv3"
  scale_param {
    bias_term: true
  }
}
layer {
  name: "binactive3"
  type: "BinActive"
  bottom: "conv3"
  top: "binactive3"
}
layer {
  name: "conv4"
  type: "BinaryConvolution"
  bottom: "binactive3"
  top: "conv4"
  param {
    lr_mult: 1
    decay_mult: 1
  }
  convolution_param {
    num_output: 384
    bias_term: false
    pad: 1
    kernel_size: 3
    weight_filler {
      type: "msra"
    }
  }
  debug_param {
    xnorno_grad: true
  }
}
layer {
  name: "bn5"
  type: "BatchNorm"
  bottom: "conv4"
  top: "conv4"
}
layer {
  name: "scale5"
  type: "Scale"
  bottom: "conv4"
  top: "conv4"
  scale_param {
    bias_term: true
  }
}
layer {
  name: "binactive4"
  type: "BinActive"
  bottom: "conv4"
  top: "binactive4"
}
layer {
  name: "conv5"
  type: "BinaryConvolution"
  bottom: "binactive4"
  top: "conv5"
  param {
    lr_mult: 1
    decay_mult: 1
  }
  convolution_param {
    num_output: 256
    bias_term: false
    pad: 1
    kernel_size: 3
    weight_filler {
      type: "msra"
    }
  }
  debug_param {
    xnorno_grad: true
  }
}
layer {
  name: "pool5"
  type: "Pooling"
  bottom: "conv5"
  top: "pool5"
  pooling_param {
    pool: MAX
    kernel_size: 3
    stride: 2
  }
}
layer {
  name: "bn6"
  type: "BatchNorm"
  bottom: "pool5"
  top: "pool5"
}
layer {
  name: "scale6"
  type: "Scale"
  bottom: "pool5"
  top: "pool5"
  scale_param {
    bias_term: true
  }
}
layer {
  name: "binactive5"
  type: "BinActive"
  bottom: "pool5"
  top: "binactive5"
}
layer {
  name: "fc6"
  type: "BinaryInnerProduct"
  bottom: "binactive5"
  top: "fc6"
  param {
    lr_mult: 1
    decay_mult: 1
  }
  inner_product_param {
    num_output: 4096
    bias_term: false
    weight_filler {
      type: "msra"
    }
  }
  debug_param {
    xnorno_grad: true
  }
}
layer {
  name: "bn7"
  type: "BatchNorm"
  bottom: "fc6"
  top: "fc6"
}
layer {
  name: "scale7"
  type: "Scale"
  bottom: "fc6"
  top: "fc6"
  scale_param {
    bias_term: true
  }
}
layer {
  name: "binactive6"
  type: "BinActive"
  bottom: "fc6"
  top: "binactive6"
}
layer {
  name: "fc7"
  type: "BinaryInnerProduct"
  bottom: "binactive6"
  top: "fc7"
  param {
    lr_mult: 1
    decay_mult: 1
  }
  inner_product_param {
    num_output: 4096
    bias_term: false
    weight_filler {
      type: "msra"
    }
  }
  debug_param {
    xnorno_grad: true
  }
}
layer {
  name: "bn8"
  type: "BatchNorm"
  bottom: "fc7"
  top: "fc7"
}
layer {
  name: "scale8"
  type: "Scale"
  bottom: "fc7"
  top: "fc7"
  scale_param {
    bias_term: true
  }
}
layer {
  name: "relu7"
  type: "ReLU"
  bottom: "fc7"
  top: "fc7"
}
layer {
  name: "fc8"
  type: "InnerProduct"
  bottom: "fc7"
  top: "fc8"
  param {
    lr_mult: 1
    decay_mult: 1
  }
  param {
    lr_mult: 2
    decay_mult: 0
  }
  inner_product_param {
    num_output: 1000
    weight_filler {
      type: "msra"
    }
    bias_filler {
      type: "constant"
      value: 0
    }
  }
}
layer {
  name: "loss"
  type: "SoftmaxWithLoss"
  bottom: "fc8"
  bottom: "label"
  top: "loss"
}
layer {
  name: "accuracy"
  type: "Accuracy"
  bottom: "fc8"
  bottom: "label"
  top: "accuracy"
}
layer {
  name: "accuracy_5"
  type: "Accuracy"
  bottom: "fc8"
  bottom: "label"
  top: "accuracy_5"
  accuracy_param {
    top_k: 5
  }
}
I0110 16:22:43.292433  2020 layer_factory.hpp:78] Creating layer data
I0110 16:22:43.307713  2020 db_lmdb.cpp:35] Opened lmdb /home/zhengzhe/Data/imagenet_shrt256/ilsvrc12_val_lmdb
I0110 16:22:43.307801  2020 net.cpp:84] Creating Layer data
I0110 16:22:43.307844  2020 net.cpp:380] data -> data
I0110 16:22:43.307938  2020 net.cpp:380] data -> label
I0110 16:22:43.308635  2020 data_layer.cpp:45] output data size: 50,3,224,224
I0110 16:22:43.407553  2020 base_data_layer.cpp:72] Initializing prefetch
I0110 16:22:43.407732  2020 base_data_layer.cpp:75] Prefetch initialized.
I0110 16:22:43.407742  2020 net.cpp:122] Setting up data
I0110 16:22:43.407768  2020 net.cpp:129] Top shape: 50 3 224 224 (7526400)
I0110 16:22:43.407775  2020 net.cpp:129] Top shape: 50 (50)
I0110 16:22:43.407779  2020 net.cpp:137] Memory required for data: 30105800
I0110 16:22:43.407805  2020 layer_factory.hpp:78] Creating layer label_data_1_split
I0110 16:22:43.407856  2020 net.cpp:84] Creating Layer label_data_1_split
I0110 16:22:43.407872  2020 net.cpp:406] label_data_1_split <- label
I0110 16:22:43.407905  2020 net.cpp:380] label_data_1_split -> label_data_1_split_0
I0110 16:22:43.407945  2020 net.cpp:380] label_data_1_split -> label_data_1_split_1
I0110 16:22:43.407961  2020 net.cpp:380] label_data_1_split -> label_data_1_split_2
I0110 16:22:43.408242  2020 net.cpp:122] Setting up label_data_1_split
I0110 16:22:43.408257  2020 net.cpp:129] Top shape: 50 (50)
I0110 16:22:43.408262  2020 net.cpp:129] Top shape: 50 (50)
I0110 16:22:43.408267  2020 net.cpp:129] Top shape: 50 (50)
I0110 16:22:43.408270  2020 net.cpp:137] Memory required for data: 30106400
I0110 16:22:43.408277  2020 layer_factory.hpp:78] Creating layer conv1
I0110 16:22:43.408324  2020 net.cpp:84] Creating Layer conv1
I0110 16:22:43.408334  2020 net.cpp:406] conv1 <- data
I0110 16:22:43.408363  2020 net.cpp:380] conv1 -> conv1
I0110 16:22:43.419155  2020 cudnn_conv_layer.cpp:194] Reallocating workspace storage: 127416
I0110 16:22:43.419255  2020 net.cpp:122] Setting up conv1
I0110 16:22:43.419281  2020 net.cpp:129] Top shape: 50 96 55 55 (14520000)
I0110 16:22:43.419291  2020 net.cpp:137] Memory required for data: 88186400
I0110 16:22:43.419381  2020 layer_factory.hpp:78] Creating layer bn1
I0110 16:22:43.419435  2020 net.cpp:84] Creating Layer bn1
I0110 16:22:43.419450  2020 net.cpp:406] bn1 <- conv1
I0110 16:22:43.419481  2020 net.cpp:367] bn1 -> conv1 (in-place)
I0110 16:22:43.419936  2020 net.cpp:122] Setting up bn1
I0110 16:22:43.419950  2020 net.cpp:129] Top shape: 50 96 55 55 (14520000)
I0110 16:22:43.419955  2020 net.cpp:137] Memory required for data: 146266400
I0110 16:22:43.420011  2020 layer_factory.hpp:78] Creating layer scale1
I0110 16:22:43.420047  2020 net.cpp:84] Creating Layer scale1
I0110 16:22:43.420060  2020 net.cpp:406] scale1 <- conv1
I0110 16:22:43.420089  2020 net.cpp:367] scale1 -> conv1 (in-place)
I0110 16:22:43.420194  2020 layer_factory.hpp:78] Creating layer scale1
I0110 16:22:43.420522  2020 net.cpp:122] Setting up scale1
I0110 16:22:43.420537  2020 net.cpp:129] Top shape: 50 96 55 55 (14520000)
I0110 16:22:43.420542  2020 net.cpp:137] Memory required for data: 204346400
I0110 16:22:43.420617  2020 layer_factory.hpp:78] Creating layer relu1
I0110 16:22:43.420647  2020 net.cpp:84] Creating Layer relu1
I0110 16:22:43.420660  2020 net.cpp:406] relu1 <- conv1
I0110 16:22:43.420682  2020 net.cpp:367] relu1 -> conv1 (in-place)
I0110 16:22:43.421627  2020 net.cpp:122] Setting up relu1
I0110 16:22:43.421649  2020 net.cpp:129] Top shape: 50 96 55 55 (14520000)
I0110 16:22:43.421656  2020 net.cpp:137] Memory required for data: 262426400
I0110 16:22:43.421667  2020 layer_factory.hpp:78] Creating layer pool1
I0110 16:22:43.421694  2020 net.cpp:84] Creating Layer pool1
I0110 16:22:43.421710  2020 net.cpp:406] pool1 <- conv1
I0110 16:22:43.421739  2020 net.cpp:380] pool1 -> pool1
I0110 16:22:43.421851  2020 net.cpp:122] Setting up pool1
I0110 16:22:43.421870  2020 net.cpp:129] Top shape: 50 96 27 27 (3499200)
I0110 16:22:43.421877  2020 net.cpp:137] Memory required for data: 276423200
I0110 16:22:43.421887  2020 layer_factory.hpp:78] Creating layer bn2
I0110 16:22:43.421908  2020 net.cpp:84] Creating Layer bn2
I0110 16:22:43.421917  2020 net.cpp:406] bn2 <- pool1
I0110 16:22:43.421941  2020 net.cpp:367] bn2 -> pool1 (in-place)
I0110 16:22:43.422387  2020 net.cpp:122] Setting up bn2
I0110 16:22:43.422407  2020 net.cpp:129] Top shape: 50 96 27 27 (3499200)
I0110 16:22:43.422415  2020 net.cpp:137] Memory required for data: 290420000
I0110 16:22:43.422464  2020 layer_factory.hpp:78] Creating layer scale2
I0110 16:22:43.422504  2020 net.cpp:84] Creating Layer scale2
I0110 16:22:43.422518  2020 net.cpp:406] scale2 <- pool1
I0110 16:22:43.422549  2020 net.cpp:367] scale2 -> pool1 (in-place)
I0110 16:22:43.422677  2020 layer_factory.hpp:78] Creating layer scale2
I0110 16:22:43.423022  2020 net.cpp:122] Setting up scale2
I0110 16:22:43.423043  2020 net.cpp:129] Top shape: 50 96 27 27 (3499200)
I0110 16:22:43.423048  2020 net.cpp:137] Memory required for data: 304416800
I0110 16:22:43.423069  2020 layer_factory.hpp:78] Creating layer binactive1
I0110 16:22:43.423092  2020 net.cpp:84] Creating Layer binactive1
I0110 16:22:43.423106  2020 net.cpp:406] binactive1 <- pool1
I0110 16:22:43.423128  2020 net.cpp:380] binactive1 -> binactive1
I0110 16:22:43.423190  2020 net.cpp:122] Setting up binactive1
I0110 16:22:43.423207  2020 net.cpp:129] Top shape: 50 96 27 27 (3499200)
I0110 16:22:43.423210  2020 net.cpp:137] Memory required for data: 318413600
I0110 16:22:43.423218  2020 layer_factory.hpp:78] Creating layer conv2
I0110 16:22:43.423265  2020 net.cpp:84] Creating Layer conv2
I0110 16:22:43.423280  2020 net.cpp:406] conv2 <- binactive1
I0110 16:22:43.423307  2020 net.cpp:380] conv2 -> conv2
I0110 16:22:43.497041  2020 cudnn_binary_conv_layer.cpp:194] Reallocating workspace storage: 19668
I0110 16:22:43.497097  2020 net.cpp:122] Setting up conv2
I0110 16:22:43.497120  2020 net.cpp:129] Top shape: 50 256 27 27 (9331200)
I0110 16:22:43.497125  2020 net.cpp:137] Memory required for data: 355738400
I0110 16:22:43.497159  2020 layer_factory.hpp:78] Creating layer pool2
I0110 16:22:43.497212  2020 net.cpp:84] Creating Layer pool2
I0110 16:22:43.497227  2020 net.cpp:406] pool2 <- conv2
I0110 16:22:43.497261  2020 net.cpp:380] pool2 -> pool2
I0110 16:22:43.497368  2020 net.cpp:122] Setting up pool2
I0110 16:22:43.497385  2020 net.cpp:129] Top shape: 50 256 13 13 (2163200)
I0110 16:22:43.497391  2020 net.cpp:137] Memory required for data: 364391200
I0110 16:22:43.497397  2020 layer_factory.hpp:78] Creating layer bn3
I0110 16:22:43.497416  2020 net.cpp:84] Creating Layer bn3
I0110 16:22:43.497426  2020 net.cpp:406] bn3 <- pool2
I0110 16:22:43.497442  2020 net.cpp:367] bn3 -> pool2 (in-place)
I0110 16:22:43.497750  2020 net.cpp:122] Setting up bn3
I0110 16:22:43.497763  2020 net.cpp:129] Top shape: 50 256 13 13 (2163200)
I0110 16:22:43.497767  2020 net.cpp:137] Memory required for data: 373044000
I0110 16:22:43.497792  2020 layer_factory.hpp:78] Creating layer scale3
I0110 16:22:43.497817  2020 net.cpp:84] Creating Layer scale3
I0110 16:22:43.497824  2020 net.cpp:406] scale3 <- pool2
I0110 16:22:43.497869  2020 net.cpp:367] scale3 -> pool2 (in-place)
I0110 16:22:43.497965  2020 layer_factory.hpp:78] Creating layer scale3
I0110 16:22:43.498173  2020 net.cpp:122] Setting up scale3
I0110 16:22:43.498188  2020 net.cpp:129] Top shape: 50 256 13 13 (2163200)
I0110 16:22:43.498194  2020 net.cpp:137] Memory required for data: 381696800
I0110 16:22:43.498226  2020 layer_factory.hpp:78] Creating layer binactive2
I0110 16:22:43.498244  2020 net.cpp:84] Creating Layer binactive2
I0110 16:22:43.498252  2020 net.cpp:406] binactive2 <- pool2
I0110 16:22:43.498268  2020 net.cpp:380] binactive2 -> binactive2
I0110 16:22:43.498324  2020 net.cpp:122] Setting up binactive2
I0110 16:22:43.498338  2020 net.cpp:129] Top shape: 50 256 13 13 (2163200)
I0110 16:22:43.498350  2020 net.cpp:137] Memory required for data: 390349600
I0110 16:22:43.498358  2020 layer_factory.hpp:78] Creating layer conv3
I0110 16:22:43.498400  2020 net.cpp:84] Creating Layer conv3
I0110 16:22:43.498411  2020 net.cpp:406] conv3 <- binactive2
I0110 16:22:43.498436  2020 net.cpp:380] conv3 -> conv3
I0110 16:22:43.585561  2020 cudnn_binary_conv_layer.cpp:194] Reallocating workspace storage: 18874368
I0110 16:22:43.585940  2020 net.cpp:122] Setting up conv3
I0110 16:22:43.585969  2020 net.cpp:129] Top shape: 50 384 13 13 (3244800)
I0110 16:22:43.585975  2020 net.cpp:137] Memory required for data: 403328800
I0110 16:22:43.586015  2020 layer_factory.hpp:78] Creating layer bn4
I0110 16:22:43.586066  2020 net.cpp:84] Creating Layer bn4
I0110 16:22:43.586081  2020 net.cpp:406] bn4 <- conv3
I0110 16:22:43.586112  2020 net.cpp:367] bn4 -> conv3 (in-place)
I0110 16:22:43.586398  2020 net.cpp:122] Setting up bn4
I0110 16:22:43.586410  2020 net.cpp:129] Top shape: 50 384 13 13 (3244800)
I0110 16:22:43.586428  2020 net.cpp:137] Memory required for data: 416308000
I0110 16:22:43.586468  2020 layer_factory.hpp:78] Creating layer scale4
I0110 16:22:43.586493  2020 net.cpp:84] Creating Layer scale4
I0110 16:22:43.586499  2020 net.cpp:406] scale4 <- conv3
I0110 16:22:43.586514  2020 net.cpp:367] scale4 -> conv3 (in-place)
I0110 16:22:43.586603  2020 layer_factory.hpp:78] Creating layer scale4
I0110 16:22:43.586788  2020 net.cpp:122] Setting up scale4
I0110 16:22:43.586802  2020 net.cpp:129] Top shape: 50 384 13 13 (3244800)
I0110 16:22:43.586805  2020 net.cpp:137] Memory required for data: 429287200
I0110 16:22:43.586820  2020 layer_factory.hpp:78] Creating layer binactive3
I0110 16:22:43.586839  2020 net.cpp:84] Creating Layer binactive3
I0110 16:22:43.586848  2020 net.cpp:406] binactive3 <- conv3
I0110 16:22:43.586863  2020 net.cpp:380] binactive3 -> binactive3
I0110 16:22:43.586910  2020 net.cpp:122] Setting up binactive3
I0110 16:22:43.586923  2020 net.cpp:129] Top shape: 50 384 13 13 (3244800)
I0110 16:22:43.586928  2020 net.cpp:137] Memory required for data: 442266400
I0110 16:22:43.586933  2020 layer_factory.hpp:78] Creating layer conv4
I0110 16:22:43.586966  2020 net.cpp:84] Creating Layer conv4
I0110 16:22:43.586977  2020 net.cpp:406] conv4 <- binactive3
I0110 16:22:43.586997  2020 net.cpp:380] conv4 -> conv4
I0110 16:22:43.713003  2020 cudnn_binary_conv_layer.cpp:194] Reallocating workspace storage: 9840
I0110 16:22:43.713062  2020 net.cpp:122] Setting up conv4
I0110 16:22:43.713099  2020 net.cpp:129] Top shape: 50 384 13 13 (3244800)
I0110 16:22:43.713104  2020 net.cpp:137] Memory required for data: 455245600
I0110 16:22:43.713138  2020 layer_factory.hpp:78] Creating layer bn5
I0110 16:22:43.713183  2020 net.cpp:84] Creating Layer bn5
I0110 16:22:43.713201  2020 net.cpp:406] bn5 <- conv4
I0110 16:22:43.713229  2020 net.cpp:367] bn5 -> conv4 (in-place)
I0110 16:22:43.713527  2020 net.cpp:122] Setting up bn5
I0110 16:22:43.713541  2020 net.cpp:129] Top shape: 50 384 13 13 (3244800)
I0110 16:22:43.713543  2020 net.cpp:137] Memory required for data: 468224800
I0110 16:22:43.713568  2020 layer_factory.hpp:78] Creating layer scale5
I0110 16:22:43.713593  2020 net.cpp:84] Creating Layer scale5
I0110 16:22:43.713601  2020 net.cpp:406] scale5 <- conv4
I0110 16:22:43.713642  2020 net.cpp:367] scale5 -> conv4 (in-place)
I0110 16:22:43.713729  2020 layer_factory.hpp:78] Creating layer scale5
I0110 16:22:43.713923  2020 net.cpp:122] Setting up scale5
I0110 16:22:43.713937  2020 net.cpp:129] Top shape: 50 384 13 13 (3244800)
I0110 16:22:43.713940  2020 net.cpp:137] Memory required for data: 481204000
I0110 16:22:43.713956  2020 layer_factory.hpp:78] Creating layer binactive4
I0110 16:22:43.713973  2020 net.cpp:84] Creating Layer binactive4
I0110 16:22:43.713980  2020 net.cpp:406] binactive4 <- conv4
I0110 16:22:43.714002  2020 net.cpp:380] binactive4 -> binactive4
I0110 16:22:43.714059  2020 net.cpp:122] Setting up binactive4
I0110 16:22:43.714071  2020 net.cpp:129] Top shape: 50 384 13 13 (3244800)
I0110 16:22:43.714076  2020 net.cpp:137] Memory required for data: 494183200
I0110 16:22:43.714081  2020 layer_factory.hpp:78] Creating layer conv5
I0110 16:22:43.714112  2020 net.cpp:84] Creating Layer conv5
I0110 16:22:43.714120  2020 net.cpp:406] conv5 <- binactive4
I0110 16:22:43.714141  2020 net.cpp:380] conv5 -> conv5
I0110 16:22:43.797394  2020 cudnn_binary_conv_layer.cpp:194] Reallocating workspace storage: 18874368
I0110 16:22:43.797832  2020 net.cpp:122] Setting up conv5
I0110 16:22:43.797874  2020 net.cpp:129] Top shape: 50 256 13 13 (2163200)
I0110 16:22:43.797879  2020 net.cpp:137] Memory required for data: 502836000
I0110 16:22:43.797917  2020 layer_factory.hpp:78] Creating layer pool5
I0110 16:22:43.797986  2020 net.cpp:84] Creating Layer pool5
I0110 16:22:43.798002  2020 net.cpp:406] pool5 <- conv5
I0110 16:22:43.798033  2020 net.cpp:380] pool5 -> pool5
I0110 16:22:43.798133  2020 net.cpp:122] Setting up pool5
I0110 16:22:43.798161  2020 net.cpp:129] Top shape: 50 256 6 6 (460800)
I0110 16:22:43.798166  2020 net.cpp:137] Memory required for data: 504679200
I0110 16:22:43.798172  2020 layer_factory.hpp:78] Creating layer bn6
I0110 16:22:43.798187  2020 net.cpp:84] Creating Layer bn6
I0110 16:22:43.798197  2020 net.cpp:406] bn6 <- pool5
I0110 16:22:43.798210  2020 net.cpp:367] bn6 -> pool5 (in-place)
I0110 16:22:43.798496  2020 net.cpp:122] Setting up bn6
I0110 16:22:43.798511  2020 net.cpp:129] Top shape: 50 256 6 6 (460800)
I0110 16:22:43.798514  2020 net.cpp:137] Memory required for data: 506522400
I0110 16:22:43.798554  2020 layer_factory.hpp:78] Creating layer scale6
I0110 16:22:43.798578  2020 net.cpp:84] Creating Layer scale6
I0110 16:22:43.798588  2020 net.cpp:406] scale6 <- pool5
I0110 16:22:43.798604  2020 net.cpp:367] scale6 -> pool5 (in-place)
I0110 16:22:43.798698  2020 layer_factory.hpp:78] Creating layer scale6
I0110 16:22:43.798898  2020 net.cpp:122] Setting up scale6
I0110 16:22:43.798912  2020 net.cpp:129] Top shape: 50 256 6 6 (460800)
I0110 16:22:43.798915  2020 net.cpp:137] Memory required for data: 508365600
I0110 16:22:43.798929  2020 layer_factory.hpp:78] Creating layer binactive5
I0110 16:22:43.798945  2020 net.cpp:84] Creating Layer binactive5
I0110 16:22:43.798954  2020 net.cpp:406] binactive5 <- pool5
I0110 16:22:43.798969  2020 net.cpp:380] binactive5 -> binactive5
I0110 16:22:43.799027  2020 net.cpp:122] Setting up binactive5
I0110 16:22:43.799039  2020 net.cpp:129] Top shape: 50 256 6 6 (460800)
I0110 16:22:43.799042  2020 net.cpp:137] Memory required for data: 510208800
I0110 16:22:43.799048  2020 layer_factory.hpp:78] Creating layer fc6
I0110 16:22:43.799072  2020 net.cpp:84] Creating Layer fc6
I0110 16:22:43.799080  2020 net.cpp:406] fc6 <- binactive5
I0110 16:22:43.799098  2020 net.cpp:380] fc6 -> fc6
I0110 16:22:47.929775  2020 net.cpp:122] Setting up fc6
I0110 16:22:47.929886  2020 net.cpp:129] Top shape: 50 4096 (204800)
I0110 16:22:47.929894  2020 net.cpp:137] Memory required for data: 511028000
I0110 16:22:47.929942  2020 layer_factory.hpp:78] Creating layer bn7
I0110 16:22:47.930009  2020 net.cpp:84] Creating Layer bn7
I0110 16:22:47.930048  2020 net.cpp:406] bn7 <- fc6
I0110 16:22:47.930090  2020 net.cpp:367] bn7 -> fc6 (in-place)
I0110 16:22:47.930523  2020 net.cpp:122] Setting up bn7
I0110 16:22:47.930536  2020 net.cpp:129] Top shape: 50 4096 (204800)
I0110 16:22:47.930577  2020 net.cpp:137] Memory required for data: 511847200
I0110 16:22:47.930608  2020 layer_factory.hpp:78] Creating layer scale7
I0110 16:22:47.930656  2020 net.cpp:84] Creating Layer scale7
I0110 16:22:47.930665  2020 net.cpp:406] scale7 <- fc6
I0110 16:22:47.930691  2020 net.cpp:367] scale7 -> fc6 (in-place)
I0110 16:22:47.930855  2020 layer_factory.hpp:78] Creating layer scale7
I0110 16:22:47.931185  2020 net.cpp:122] Setting up scale7
I0110 16:22:47.931197  2020 net.cpp:129] Top shape: 50 4096 (204800)
I0110 16:22:47.931216  2020 net.cpp:137] Memory required for data: 512666400
I0110 16:22:47.931236  2020 layer_factory.hpp:78] Creating layer binactive6
I0110 16:22:47.931257  2020 net.cpp:84] Creating Layer binactive6
I0110 16:22:47.931268  2020 net.cpp:406] binactive6 <- fc6
I0110 16:22:47.931308  2020 net.cpp:380] binactive6 -> binactive6
I0110 16:22:47.931383  2020 net.cpp:122] Setting up binactive6
I0110 16:22:47.931396  2020 net.cpp:129] Top shape: 50 4096 (204800)
I0110 16:22:47.931399  2020 net.cpp:137] Memory required for data: 513485600
I0110 16:22:47.931406  2020 layer_factory.hpp:78] Creating layer fc7
I0110 16:22:47.931460  2020 net.cpp:84] Creating Layer fc7
I0110 16:22:47.931479  2020 net.cpp:406] fc7 <- binactive6
I0110 16:22:47.931502  2020 net.cpp:380] fc7 -> fc7
I0110 16:22:50.019642  2020 net.cpp:122] Setting up fc7
I0110 16:22:50.019695  2020 net.cpp:129] Top shape: 50 4096 (204800)
I0110 16:22:50.019704  2020 net.cpp:137] Memory required for data: 514304800
I0110 16:22:50.019754  2020 layer_factory.hpp:78] Creating layer bn8
I0110 16:22:50.019846  2020 net.cpp:84] Creating Layer bn8
I0110 16:22:50.019881  2020 net.cpp:406] bn8 <- fc7
I0110 16:22:50.019925  2020 net.cpp:367] bn8 -> fc7 (in-place)
I0110 16:22:50.020412  2020 net.cpp:122] Setting up bn8
I0110 16:22:50.020429  2020 net.cpp:129] Top shape: 50 4096 (204800)
I0110 16:22:50.020438  2020 net.cpp:137] Memory required for data: 515124000
I0110 16:22:50.020474  2020 layer_factory.hpp:78] Creating layer scale8
I0110 16:22:50.020521  2020 net.cpp:84] Creating Layer scale8
I0110 16:22:50.020534  2020 net.cpp:406] scale8 <- fc7
I0110 16:22:50.020568  2020 net.cpp:367] scale8 -> fc7 (in-place)
I0110 16:22:50.020732  2020 layer_factory.hpp:78] Creating layer scale8
I0110 16:22:50.021178  2020 net.cpp:122] Setting up scale8
I0110 16:22:50.021203  2020 net.cpp:129] Top shape: 50 4096 (204800)
I0110 16:22:50.021209  2020 net.cpp:137] Memory required for data: 515943200
I0110 16:22:50.021234  2020 layer_factory.hpp:78] Creating layer relu7
I0110 16:22:50.021270  2020 net.cpp:84] Creating Layer relu7
I0110 16:22:50.021281  2020 net.cpp:406] relu7 <- fc7
I0110 16:22:50.021309  2020 net.cpp:367] relu7 -> fc7 (in-place)
I0110 16:22:50.024761  2020 net.cpp:122] Setting up relu7
I0110 16:22:50.024794  2020 net.cpp:129] Top shape: 50 4096 (204800)
I0110 16:22:50.024798  2020 net.cpp:137] Memory required for data: 516762400
I0110 16:22:50.024806  2020 layer_factory.hpp:78] Creating layer fc8
I0110 16:22:50.024866  2020 net.cpp:84] Creating Layer fc8
I0110 16:22:50.024878  2020 net.cpp:406] fc8 <- fc7
I0110 16:22:50.024914  2020 net.cpp:380] fc8 -> fc8
I0110 16:22:50.650579  2020 net.cpp:122] Setting up fc8
I0110 16:22:50.650676  2020 net.cpp:129] Top shape: 50 1000 (50000)
I0110 16:22:50.650682  2020 net.cpp:137] Memory required for data: 516962400
I0110 16:22:50.650727  2020 layer_factory.hpp:78] Creating layer fc8_fc8_0_split
I0110 16:22:50.650799  2020 net.cpp:84] Creating Layer fc8_fc8_0_split
I0110 16:22:50.650828  2020 net.cpp:406] fc8_fc8_0_split <- fc8
I0110 16:22:50.650866  2020 net.cpp:380] fc8_fc8_0_split -> fc8_fc8_0_split_0
I0110 16:22:50.650902  2020 net.cpp:380] fc8_fc8_0_split -> fc8_fc8_0_split_1
I0110 16:22:50.650930  2020 net.cpp:380] fc8_fc8_0_split -> fc8_fc8_0_split_2
I0110 16:22:50.651063  2020 net.cpp:122] Setting up fc8_fc8_0_split
I0110 16:22:50.651077  2020 net.cpp:129] Top shape: 50 1000 (50000)
I0110 16:22:50.651083  2020 net.cpp:129] Top shape: 50 1000 (50000)
I0110 16:22:50.651089  2020 net.cpp:129] Top shape: 50 1000 (50000)
I0110 16:22:50.651121  2020 net.cpp:137] Memory required for data: 517562400
I0110 16:22:50.651135  2020 layer_factory.hpp:78] Creating layer loss
I0110 16:22:50.651178  2020 net.cpp:84] Creating Layer loss
I0110 16:22:50.651194  2020 net.cpp:406] loss <- fc8_fc8_0_split_0
I0110 16:22:50.651221  2020 net.cpp:406] loss <- label_data_1_split_0
I0110 16:22:50.651245  2020 net.cpp:380] loss -> loss
…
