…
I0113 20:50:02.433532 30202 net.cpp:294] The NetState phase (0) differed from the phase (1) specified by a rule in layer data
I0113 20:50:02.433907 30202 net.cpp:51] Initializing net from parameters: 
name: "AlexNet-BN"
state {
  phase: TRAIN
  level: 0
  stage: ""
}
layer {
  name: "data"
  type: "Data"
  top: "data"
  top: "label"
  include {
    phase: TRAIN
  }
  transform_param {
    mirror: true
    crop_size: 224
    mean_value: 104
    mean_value: 117
    mean_value: 123
  }
  data_param {
    source: "/home/zhengzhe/Data/imagenet_shrt256/ilsvrc12_train_lmdb"
    batch_size: 256
    backend: LMDB
  }
}
layer {
  name: "conv1"
  type: "Convolution"
  bottom: "data"
  top: "conv1"
  param {
    lr_mult: 1
    decay_mult: 1
  }
  convolution_param {
    num_output: 96
    bias_term: false
    pad: 2
    kernel_size: 11
    stride: 4
    weight_filler {
      type: "msra"
    }
  }
}
layer {
  name: "bn1"
  type: "BatchNorm"
  bottom: "conv1"
  top: "conv1"
}
layer {
  name: "scale1"
  type: "Scale"
  bottom: "conv1"
  top: "conv1"
  scale_param {
    bias_term: true
  }
}
layer {
  name: "relu1"
  type: "ReLU"
  bottom: "conv1"
  top: "conv1"
}
layer {
  name: "pool1"
  type: "Pooling"
  bottom: "conv1"
  top: "pool1"
  pooling_param {
    pool: MAX
    kernel_size: 3
    stride: 2
  }
}
layer {
  name: "bn2"
  type: "BatchNorm"
  bottom: "pool1"
  top: "pool1"
}
layer {
  name: "scale2"
  type: "Scale"
  bottom: "pool1"
  top: "pool1"
  scale_param {
    bias_term: true
  }
}
layer {
  name: "binactive1"
  type: "BinActive"
  bottom: "pool1"
  top: "binactive1"
}
layer {
  name: "conv2"
  type: "BinaryConvolution"
  bottom: "binactive1"
  top: "conv2"
  param {
    lr_mult: 1
    decay_mult: 1
  }
  convolution_param {
    num_output: 256
    bias_term: false
    pad: 2
    kernel_size: 5
    weight_filler {
      type: "msra"
    }
  }
  debug_param {
    xnorno_grad: true
  }
}
layer {
  name: "pool2"
  type: "Pooling"
  bottom: "conv2"
  top: "pool2"
  pooling_param {
    pool: MAX
    kernel_size: 3
    stride: 2
  }
}
layer {
  name: "bn3"
  type: "BatchNorm"
  bottom: "pool2"
  top: "pool2"
}
layer {
  name: "scale3"
  type: "Scale"
  bottom: "pool2"
  top: "pool2"
  scale_param {
    bias_term: true
  }
}
layer {
  name: "binactive2"
  type: "BinActive"
  bottom: "pool2"
  top: "binactive2"
}
layer {
  name: "conv3"
  type: "BinaryConvolution"
  bottom: "binactive2"
  top: "conv3"
  param {
    lr_mult: 1
    decay_mult: 1
  }
  convolution_param {
    num_output: 384
    bias_term: false
    pad: 1
    kernel_size: 3
    weight_filler {
      type: "msra"
    }
  }
  debug_param {
    xnorno_grad: true
  }
}
layer {
  name: "bn4"
  type: "BatchNorm"
  bottom: "conv3"
  top: "conv3"
}
layer {
  name: "scale4"
  type: "Scale"
  bottom: "conv3"
  top: "conv3"
  scale_param {
    bias_term: true
  }
}
layer {
  name: "binactive3"
  type: "BinActive"
  bottom: "conv3"
  top: "binactive3"
}
layer {
  name: "conv4"
  type: "BinaryConvolution"
  bottom: "binactive3"
  top: "conv4"
  param {
    lr_mult: 1
    decay_mult: 1
  }
  convolution_param {
    num_output: 384
    bias_term: false
    pad: 1
    kernel_size: 3
    weight_filler {
      type: "msra"
    }
  }
  debug_param {
    xnorno_grad: true
  }
}
layer {
  name: "bn5"
  type: "BatchNorm"
  bottom: "conv4"
  top: "conv4"
}
layer {
  name: "scale5"
  type: "Scale"
  bottom: "conv4"
  top: "conv4"
  scale_param {
    bias_term: true
  }
}
layer {
  name: "binactive4"
  type: "BinActive"
  bottom: "conv4"
  top: "binactive4"
}
layer {
  name: "conv5"
  type: "BinaryConvolution"
  bottom: "binactive4"
  top: "conv5"
  param {
    lr_mult: 1
    decay_mult: 1
  }
  convolution_param {
    num_output: 256
    bias_term: false
    pad: 1
    kernel_size: 3
    weight_filler {
      type: "msra"
    }
  }
  debug_param {
    xnorno_grad: true
  }
}
layer {
  name: "pool5"
  type: "Pooling"
  bottom: "conv5"
  top: "pool5"
  pooling_param {
    pool: MAX
    kernel_size: 3
    stride: 2
  }
}
layer {
  name: "bn6"
  type: "BatchNorm"
  bottom: "pool5"
  top: "pool5"
}
layer {
  name: "scale6"
  type: "Scale"
  bottom: "pool5"
  top: "pool5"
  scale_param {
    bias_term: true
  }
}
layer {
  name: "binactive5"
  type: "BinActive"
  bottom: "pool5"
  top: "binactive5"
}
layer {
  name: "fc6"
  type: "BinaryInnerProduct"
  bottom: "binactive5"
  top: "fc6"
  param {
    lr_mult: 1
    decay_mult: 1
  }
  inner_product_param {
    num_output: 4096
    bias_term: false
    weight_filler {
      type: "msra"
    }
  }
  debug_param {
    xnorno_grad: true
  }
}
layer {
  name: "bn7"
  type: "BatchNorm"
  bottom: "fc6"
  top: "fc6"
}
layer {
  name: "scale7"
  type: "Scale"
  bottom: "fc6"
  top: "fc6"
  scale_param {
    bias_term: true
  }
}
layer {
  name: "binactive6"
  type: "BinActive"
  bottom: "fc6"
  top: "binactive6"
}
layer {
  name: "fc7"
  type: "BinaryInnerProduct"
  bottom: "binactive6"
  top: "fc7"
  param {
    lr_mult: 1
    decay_mult: 1
  }
  inner_product_param {
    num_output: 4096
    bias_term: false
    weight_filler {
      type: "msra"
    }
  }
  debug_param {
    xnorno_grad: true
  }
}
layer {
  name: "bn8"
  type: "BatchNorm"
  bottom: "fc7"
  top: "fc7"
}
layer {
  name: "scale8"
  type: "Scale"
  bottom: "fc7"
  top: "fc7"
  scale_param {
    bias_term: true
  }
}
layer {
  name: "relu7"
  type: "ReLU"
  bottom: "fc7"
  top: "fc7"
}
layer {
  name: "fc8"
  type: "InnerProduct"
  bottom: "fc7"
  top: "fc8"
  param {
    lr_mult: 1
    decay_mult: 1
  }
  param {
    lr_mult: 2
    decay_mult: 0
  }
  inner_product_param {
    num_output: 1000
    weight_filler {
      type: "msra"
    }
    bias_filler {
      type: "constant"
      value: 0
    }
  }
}
layer {
  name: "loss"
  type: "SoftmaxWithLoss"
  bottom: "fc8"
  bottom: "label"
  top: "loss"
}
layer {
  name: "accuracy"
  type: "Accuracy"
  bottom: "fc8"
  bottom: "label"
  top: "accuracy"
}
layer {
  name: "accuracy_5"
  type: "Accuracy"
  bottom: "fc8"
  bottom: "label"
  top: "accuracy_5"
  accuracy_param {
    top_k: 5
  }
}
I0113 20:50:02.434944 30202 layer_factory.hpp:78] Creating layer data
I0113 20:50:02.435233 30202 db_lmdb.cpp:35] Opened lmdb /home/zhengzhe/Data/imagenet_shrt256/ilsvrc12_train_lmdb
I0113 20:50:02.435345 30202 net.cpp:84] Creating Layer data
I0113 20:50:02.435389 30202 net.cpp:380] data -> data
I0113 20:50:02.435609 30202 net.cpp:380] data -> label
I0113 20:50:02.439095 30202 data_layer.cpp:45] output data size: 256,3,224,224
I0113 20:50:03.204921 30202 base_data_layer.cpp:72] Initializing prefetch
I0113 20:50:03.205719 30202 base_data_layer.cpp:75] Prefetch initialized.
I0113 20:50:03.205742 30202 net.cpp:122] Setting up data
I0113 20:50:03.205796 30202 net.cpp:129] Top shape: 256 3 224 224 (38535168)
I0113 20:50:03.205811 30202 net.cpp:129] Top shape: 256 (256)
I0113 20:50:03.205821 30202 net.cpp:137] Memory required for data: 154141696
I0113 20:50:03.205869 30202 layer_factory.hpp:78] Creating layer label_data_1_split
I0113 20:50:03.205952 30202 net.cpp:84] Creating Layer label_data_1_split
I0113 20:50:03.205986 30202 net.cpp:406] label_data_1_split <- label
I0113 20:50:03.206066 30202 net.cpp:380] label_data_1_split -> label_data_1_split_0
I0113 20:50:03.206125 30202 net.cpp:380] label_data_1_split -> label_data_1_split_1
I0113 20:50:03.206151 30202 net.cpp:380] label_data_1_split -> label_data_1_split_2
I0113 20:50:03.206320 30202 net.cpp:122] Setting up label_data_1_split
I0113 20:50:03.206348 30202 net.cpp:129] Top shape: 256 (256)
I0113 20:50:03.206369 30202 net.cpp:129] Top shape: 256 (256)
I0113 20:50:03.206382 30202 net.cpp:129] Top shape: 256 (256)
I0113 20:50:03.206390 30202 net.cpp:137] Memory required for data: 154144768
I0113 20:50:03.206400 30202 layer_factory.hpp:78] Creating layer conv1
I0113 20:50:03.206496 30202 net.cpp:84] Creating Layer conv1
I0113 20:50:03.206511 30202 net.cpp:406] conv1 <- data
I0113 20:50:03.209892 30202 net.cpp:380] conv1 -> conv1
I0113 20:50:04.503659 30202 cudnn_conv_layer.cpp:194] Reallocating workspace storage: 127416
I0113 20:50:04.503993 30202 net.cpp:122] Setting up conv1
I0113 20:50:04.504020 30202 net.cpp:129] Top shape: 256 96 55 55 (74342400)
I0113 20:50:04.504025 30202 net.cpp:137] Memory required for data: 451514368
I0113 20:50:04.504122 30202 layer_factory.hpp:78] Creating layer bn1
I0113 20:50:04.504166 30202 net.cpp:84] Creating Layer bn1
I0113 20:50:04.504180 30202 net.cpp:406] bn1 <- conv1
I0113 20:50:04.504212 30202 net.cpp:367] bn1 -> conv1 (in-place)
I0113 20:50:04.505929 30202 net.cpp:122] Setting up bn1
I0113 20:50:04.505959 30202 net.cpp:129] Top shape: 256 96 55 55 (74342400)
I0113 20:50:04.505964 30202 net.cpp:137] Memory required for data: 748883968
I0113 20:50:04.506012 30202 layer_factory.hpp:78] Creating layer scale1
I0113 20:50:04.506052 30202 net.cpp:84] Creating Layer scale1
I0113 20:50:04.506062 30202 net.cpp:406] scale1 <- conv1
I0113 20:50:04.506079 30202 net.cpp:367] scale1 -> conv1 (in-place)
I0113 20:50:04.506172 30202 layer_factory.hpp:78] Creating layer scale1
I0113 20:50:04.506397 30202 net.cpp:122] Setting up scale1
I0113 20:50:04.506412 30202 net.cpp:129] Top shape: 256 96 55 55 (74342400)
I0113 20:50:04.506415 30202 net.cpp:137] Memory required for data: 1046253568
I0113 20:50:04.506440 30202 layer_factory.hpp:78] Creating layer relu1
I0113 20:50:04.506474 30202 net.cpp:84] Creating Layer relu1
I0113 20:50:04.506481 30202 net.cpp:406] relu1 <- conv1
I0113 20:50:04.506496 30202 net.cpp:367] relu1 -> conv1 (in-place)
I0113 20:50:04.506992 30202 net.cpp:122] Setting up relu1
I0113 20:50:04.507005 30202 net.cpp:129] Top shape: 256 96 55 55 (74342400)
I0113 20:50:04.507009 30202 net.cpp:137] Memory required for data: 1343623168
I0113 20:50:04.507015 30202 layer_factory.hpp:78] Creating layer pool1
I0113 20:50:04.507040 30202 net.cpp:84] Creating Layer pool1
I0113 20:50:04.507048 30202 net.cpp:406] pool1 <- conv1
I0113 20:50:04.507066 30202 net.cpp:380] pool1 -> pool1
I0113 20:50:04.507151 30202 net.cpp:122] Setting up pool1
I0113 20:50:04.507165 30202 net.cpp:129] Top shape: 256 96 27 27 (17915904)
I0113 20:50:04.507169 30202 net.cpp:137] Memory required for data: 1415286784
I0113 20:50:04.507175 30202 layer_factory.hpp:78] Creating layer bn2
I0113 20:50:04.507189 30202 net.cpp:84] Creating Layer bn2
I0113 20:50:04.507196 30202 net.cpp:406] bn2 <- pool1
I0113 20:50:04.507210 30202 net.cpp:367] bn2 -> pool1 (in-place)
I0113 20:50:04.508718 30202 net.cpp:122] Setting up bn2
I0113 20:50:04.508734 30202 net.cpp:129] Top shape: 256 96 27 27 (17915904)
I0113 20:50:04.508739 30202 net.cpp:137] Memory required for data: 1486950400
I0113 20:50:04.508772 30202 layer_factory.hpp:78] Creating layer scale2
I0113 20:50:04.508800 30202 net.cpp:84] Creating Layer scale2
I0113 20:50:04.508810 30202 net.cpp:406] scale2 <- pool1
I0113 20:50:04.508826 30202 net.cpp:367] scale2 -> pool1 (in-place)
I0113 20:50:04.508890 30202 layer_factory.hpp:78] Creating layer scale2
I0113 20:50:04.509063 30202 net.cpp:122] Setting up scale2
I0113 20:50:04.509075 30202 net.cpp:129] Top shape: 256 96 27 27 (17915904)
I0113 20:50:04.509080 30202 net.cpp:137] Memory required for data: 1558614016
I0113 20:50:04.509094 30202 layer_factory.hpp:78] Creating layer binactive1
I0113 20:50:04.509114 30202 net.cpp:84] Creating Layer binactive1
I0113 20:50:04.509122 30202 net.cpp:406] binactive1 <- pool1
I0113 20:50:04.509137 30202 net.cpp:380] binactive1 -> binactive1
I0113 20:50:04.509202 30202 net.cpp:122] Setting up binactive1
I0113 20:50:04.509214 30202 net.cpp:129] Top shape: 256 96 27 27 (17915904)
I0113 20:50:04.509218 30202 net.cpp:137] Memory required for data: 1630277632
I0113 20:50:04.509227 30202 layer_factory.hpp:78] Creating layer conv2
I0113 20:50:04.509263 30202 net.cpp:84] Creating Layer conv2
I0113 20:50:04.509271 30202 net.cpp:406] conv2 <- binactive1
I0113 20:50:04.509291 30202 net.cpp:380] conv2 -> conv2
I0113 20:50:04.567221 30202 cudnn_binary_conv_layer.cpp:194] Reallocating workspace storage: 19668
I0113 20:50:04.567275 30202 net.cpp:122] Setting up conv2
I0113 20:50:04.567296 30202 net.cpp:129] Top shape: 256 256 27 27 (47775744)
I0113 20:50:04.567299 30202 net.cpp:137] Memory required for data: 1821380608
I0113 20:50:04.567329 30202 layer_factory.hpp:78] Creating layer pool2
I0113 20:50:04.567401 30202 net.cpp:84] Creating Layer pool2
I0113 20:50:04.567416 30202 net.cpp:406] pool2 <- conv2
I0113 20:50:04.567447 30202 net.cpp:380] pool2 -> pool2
I0113 20:50:04.567534 30202 net.cpp:122] Setting up pool2
I0113 20:50:04.567548 30202 net.cpp:129] Top shape: 256 256 13 13 (11075584)
I0113 20:50:04.567553 30202 net.cpp:137] Memory required for data: 1865682944
I0113 20:50:04.567559 30202 layer_factory.hpp:78] Creating layer bn3
I0113 20:50:04.567574 30202 net.cpp:84] Creating Layer bn3
I0113 20:50:04.567581 30202 net.cpp:406] bn3 <- pool2
I0113 20:50:04.567596 30202 net.cpp:367] bn3 -> pool2 (in-place)
I0113 20:50:04.567808 30202 net.cpp:122] Setting up bn3
I0113 20:50:04.567818 30202 net.cpp:129] Top shape: 256 256 13 13 (11075584)
I0113 20:50:04.567823 30202 net.cpp:137] Memory required for data: 1909985280
I0113 20:50:04.567844 30202 layer_factory.hpp:78] Creating layer scale3
I0113 20:50:04.567867 30202 net.cpp:84] Creating Layer scale3
I0113 20:50:04.567874 30202 net.cpp:406] scale3 <- pool2
I0113 20:50:04.567889 30202 net.cpp:367] scale3 -> pool2 (in-place)
I0113 20:50:04.567958 30202 layer_factory.hpp:78] Creating layer scale3
I0113 20:50:04.568117 30202 net.cpp:122] Setting up scale3
I0113 20:50:04.568130 30202 net.cpp:129] Top shape: 256 256 13 13 (11075584)
I0113 20:50:04.568135 30202 net.cpp:137] Memory required for data: 1954287616
I0113 20:50:04.568161 30202 layer_factory.hpp:78] Creating layer binactive2
I0113 20:50:04.568177 30202 net.cpp:84] Creating Layer binactive2
I0113 20:50:04.568186 30202 net.cpp:406] binactive2 <- pool2
I0113 20:50:04.568200 30202 net.cpp:380] binactive2 -> binactive2
I0113 20:50:04.568238 30202 net.cpp:122] Setting up binactive2
I0113 20:50:04.568248 30202 net.cpp:129] Top shape: 256 256 13 13 (11075584)
I0113 20:50:04.568253 30202 net.cpp:137] Memory required for data: 1998589952
I0113 20:50:04.568260 30202 layer_factory.hpp:78] Creating layer conv3
I0113 20:50:04.568292 30202 net.cpp:84] Creating Layer conv3
I0113 20:50:04.568301 30202 net.cpp:406] conv3 <- binactive2
I0113 20:50:04.568320 30202 net.cpp:380] conv3 -> conv3
I0113 20:50:04.651532 30202 cudnn_binary_conv_layer.cpp:194] Reallocating workspace storage: 18874368
I0113 20:50:04.651870 30202 net.cpp:122] Setting up conv3
I0113 20:50:04.651895 30202 net.cpp:129] Top shape: 256 384 13 13 (16613376)
I0113 20:50:04.651899 30202 net.cpp:137] Memory required for data: 2065043456
I0113 20:50:04.651932 30202 layer_factory.hpp:78] Creating layer bn4
I0113 20:50:04.651979 30202 net.cpp:84] Creating Layer bn4
I0113 20:50:04.651996 30202 net.cpp:406] bn4 <- conv3
I0113 20:50:04.652024 30202 net.cpp:367] bn4 -> conv3 (in-place)
I0113 20:50:04.652253 30202 net.cpp:122] Setting up bn4
I0113 20:50:04.652264 30202 net.cpp:129] Top shape: 256 384 13 13 (16613376)
I0113 20:50:04.652268 30202 net.cpp:137] Memory required for data: 2131496960
I0113 20:50:04.652290 30202 layer_factory.hpp:78] Creating layer scale4
I0113 20:50:04.652313 30202 net.cpp:84] Creating Layer scale4
I0113 20:50:04.652321 30202 net.cpp:406] scale4 <- conv3
I0113 20:50:04.652335 30202 net.cpp:367] scale4 -> conv3 (in-place)
I0113 20:50:04.652415 30202 layer_factory.hpp:78] Creating layer scale4
I0113 20:50:04.652607 30202 net.cpp:122] Setting up scale4
I0113 20:50:04.652621 30202 net.cpp:129] Top shape: 256 384 13 13 (16613376)
I0113 20:50:04.652626 30202 net.cpp:137] Memory required for data: 2197950464
I0113 20:50:04.652640 30202 layer_factory.hpp:78] Creating layer binactive3
I0113 20:50:04.652655 30202 net.cpp:84] Creating Layer binactive3
I0113 20:50:04.652663 30202 net.cpp:406] binactive3 <- conv3
I0113 20:50:04.652684 30202 net.cpp:380] binactive3 -> binactive3
I0113 20:50:04.652724 30202 net.cpp:122] Setting up binactive3
I0113 20:50:04.652735 30202 net.cpp:129] Top shape: 256 384 13 13 (16613376)
I0113 20:50:04.652740 30202 net.cpp:137] Memory required for data: 2264403968
I0113 20:50:04.652746 30202 layer_factory.hpp:78] Creating layer conv4
I0113 20:50:04.652779 30202 net.cpp:84] Creating Layer conv4
I0113 20:50:04.652787 30202 net.cpp:406] conv4 <- binactive3
I0113 20:50:04.652806 30202 net.cpp:380] conv4 -> conv4
I0113 20:50:04.775115 30202 cudnn_binary_conv_layer.cpp:194] Reallocating workspace storage: 9840
I0113 20:50:04.775174 30202 net.cpp:122] Setting up conv4
I0113 20:50:04.775193 30202 net.cpp:129] Top shape: 256 384 13 13 (16613376)
I0113 20:50:04.775198 30202 net.cpp:137] Memory required for data: 2330857472
I0113 20:50:04.775226 30202 layer_factory.hpp:78] Creating layer bn5
I0113 20:50:04.775262 30202 net.cpp:84] Creating Layer bn5
I0113 20:50:04.775276 30202 net.cpp:406] bn5 <- conv4
I0113 20:50:04.775302 30202 net.cpp:367] bn5 -> conv4 (in-place)
I0113 20:50:04.775543 30202 net.cpp:122] Setting up bn5
I0113 20:50:04.775555 30202 net.cpp:129] Top shape: 256 384 13 13 (16613376)
I0113 20:50:04.775559 30202 net.cpp:137] Memory required for data: 2397310976
I0113 20:50:04.775584 30202 layer_factory.hpp:78] Creating layer scale5
I0113 20:50:04.775609 30202 net.cpp:84] Creating Layer scale5
I0113 20:50:04.775619 30202 net.cpp:406] scale5 <- conv4
I0113 20:50:04.775633 30202 net.cpp:367] scale5 -> conv4 (in-place)
I0113 20:50:04.775701 30202 layer_factory.hpp:78] Creating layer scale5
I0113 20:50:04.775867 30202 net.cpp:122] Setting up scale5
I0113 20:50:04.775880 30202 net.cpp:129] Top shape: 256 384 13 13 (16613376)
I0113 20:50:04.775884 30202 net.cpp:137] Memory required for data: 2463764480
I0113 20:50:04.775898 30202 layer_factory.hpp:78] Creating layer binactive4
I0113 20:50:04.775915 30202 net.cpp:84] Creating Layer binactive4
I0113 20:50:04.775923 30202 net.cpp:406] binactive4 <- conv4
I0113 20:50:04.775938 30202 net.cpp:380] binactive4 -> binactive4
I0113 20:50:04.775984 30202 net.cpp:122] Setting up binactive4
I0113 20:50:04.775995 30202 net.cpp:129] Top shape: 256 384 13 13 (16613376)
I0113 20:50:04.775998 30202 net.cpp:137] Memory required for data: 2530217984
I0113 20:50:04.776005 30202 layer_factory.hpp:78] Creating layer conv5
I0113 20:50:04.776036 30202 net.cpp:84] Creating Layer conv5
I0113 20:50:04.776046 30202 net.cpp:406] conv5 <- binactive4
I0113 20:50:04.776063 30202 net.cpp:380] conv5 -> conv5
I0113 20:50:04.859244 30202 cudnn_binary_conv_layer.cpp:194] Reallocating workspace storage: 18874368
I0113 20:50:04.859583 30202 net.cpp:122] Setting up conv5
I0113 20:50:04.859606 30202 net.cpp:129] Top shape: 256 256 13 13 (11075584)
I0113 20:50:04.859611 30202 net.cpp:137] Memory required for data: 2574520320
I0113 20:50:04.859639 30202 layer_factory.hpp:78] Creating layer pool5
I0113 20:50:04.859679 30202 net.cpp:84] Creating Layer pool5
I0113 20:50:04.859694 30202 net.cpp:406] pool5 <- conv5
I0113 20:50:04.859720 30202 net.cpp:380] pool5 -> pool5
I0113 20:50:04.859819 30202 net.cpp:122] Setting up pool5
I0113 20:50:04.859836 30202 net.cpp:129] Top shape: 256 256 6 6 (2359296)
I0113 20:50:04.859841 30202 net.cpp:137] Memory required for data: 2583957504
I0113 20:50:04.859850 30202 layer_factory.hpp:78] Creating layer bn6
I0113 20:50:04.859866 30202 net.cpp:84] Creating Layer bn6
I0113 20:50:04.859875 30202 net.cpp:406] bn6 <- pool5
I0113 20:50:04.859889 30202 net.cpp:367] bn6 -> pool5 (in-place)
I0113 20:50:04.860123 30202 net.cpp:122] Setting up bn6
I0113 20:50:04.860136 30202 net.cpp:129] Top shape: 256 256 6 6 (2359296)
I0113 20:50:04.860159 30202 net.cpp:137] Memory required for data: 2593394688
I0113 20:50:04.860196 30202 layer_factory.hpp:78] Creating layer scale6
I0113 20:50:04.860219 30202 net.cpp:84] Creating Layer scale6
I0113 20:50:04.860227 30202 net.cpp:406] scale6 <- pool5
I0113 20:50:04.860246 30202 net.cpp:367] scale6 -> pool5 (in-place)
I0113 20:50:04.860314 30202 layer_factory.hpp:78] Creating layer scale6
I0113 20:50:04.860488 30202 net.cpp:122] Setting up scale6
I0113 20:50:04.860502 30202 net.cpp:129] Top shape: 256 256 6 6 (2359296)
I0113 20:50:04.860507 30202 net.cpp:137] Memory required for data: 2602831872
I0113 20:50:04.860522 30202 layer_factory.hpp:78] Creating layer binactive5
I0113 20:50:04.860538 30202 net.cpp:84] Creating Layer binactive5
I0113 20:50:04.860545 30202 net.cpp:406] binactive5 <- pool5
I0113 20:50:04.860561 30202 net.cpp:380] binactive5 -> binactive5
I0113 20:50:04.860599 30202 net.cpp:122] Setting up binactive5
I0113 20:50:04.860613 30202 net.cpp:129] Top shape: 256 256 6 6 (2359296)
I0113 20:50:04.860617 30202 net.cpp:137] Memory required for data: 2612269056
I0113 20:50:04.860623 30202 layer_factory.hpp:78] Creating layer fc6
I0113 20:50:04.860653 30202 net.cpp:84] Creating Layer fc6
I0113 20:50:04.860661 30202 net.cpp:406] fc6 <- binactive5
I0113 20:50:04.860680 30202 net.cpp:380] fc6 -> fc6
I0113 20:50:09.070055 30202 net.cpp:122] Setting up fc6
I0113 20:50:09.070107 30202 net.cpp:129] Top shape: 256 4096 (1048576)
I0113 20:50:09.070114 30202 net.cpp:137] Memory required for data: 2616463360
I0113 20:50:09.070156 30202 layer_factory.hpp:78] Creating layer bn7
I0113 20:50:09.070209 30202 net.cpp:84] Creating Layer bn7
I0113 20:50:09.070235 30202 net.cpp:406] bn7 <- fc6
I0113 20:50:09.070267 30202 net.cpp:367] bn7 -> fc6 (in-place)
I0113 20:50:09.070611 30202 net.cpp:122] Setting up bn7
I0113 20:50:09.070627 30202 net.cpp:129] Top shape: 256 4096 (1048576)
I0113 20:50:09.070633 30202 net.cpp:137] Memory required for data: 2620657664
I0113 20:50:09.070663 30202 layer_factory.hpp:78] Creating layer scale7
I0113 20:50:09.070698 30202 net.cpp:84] Creating Layer scale7
I0113 20:50:09.070708 30202 net.cpp:406] scale7 <- fc6
I0113 20:50:09.070729 30202 net.cpp:367] scale7 -> fc6 (in-place)
I0113 20:50:09.070825 30202 layer_factory.hpp:78] Creating layer scale7
I0113 20:50:09.071039 30202 net.cpp:122] Setting up scale7
I0113 20:50:09.071053 30202 net.cpp:129] Top shape: 256 4096 (1048576)
I0113 20:50:09.071058 30202 net.cpp:137] Memory required for data: 2624851968
I0113 20:50:09.071074 30202 layer_factory.hpp:78] Creating layer binactive6
I0113 20:50:09.071089 30202 net.cpp:84] Creating Layer binactive6
I0113 20:50:09.071097 30202 net.cpp:406] binactive6 <- fc6
I0113 20:50:09.071118 30202 net.cpp:380] binactive6 -> binactive6
I0113 20:50:09.071161 30202 net.cpp:122] Setting up binactive6
I0113 20:50:09.071173 30202 net.cpp:129] Top shape: 256 4096 (1048576)
I0113 20:50:09.071177 30202 net.cpp:137] Memory required for data: 2629046272
I0113 20:50:09.071184 30202 layer_factory.hpp:78] Creating layer fc7
I0113 20:50:09.071220 30202 net.cpp:84] Creating Layer fc7
I0113 20:50:09.071229 30202 net.cpp:406] fc7 <- binactive6
I0113 20:50:09.071251 30202 net.cpp:380] fc7 -> fc7
I0113 20:50:11.111346 30202 net.cpp:122] Setting up fc7
I0113 20:50:11.111482 30202 net.cpp:129] Top shape: 256 4096 (1048576)
I0113 20:50:11.111523 30202 net.cpp:137] Memory required for data: 2633240576
I0113 20:50:11.111595 30202 layer_factory.hpp:78] Creating layer bn8
I0113 20:50:11.111676 30202 net.cpp:84] Creating Layer bn8
I0113 20:50:11.111729 30202 net.cpp:406] bn8 <- fc7
I0113 20:50:11.111795 30202 net.cpp:367] bn8 -> fc7 (in-place)
I0113 20:50:11.112187 30202 net.cpp:122] Setting up bn8
I0113 20:50:11.112236 30202 net.cpp:129] Top shape: 256 4096 (1048576)
I0113 20:50:11.112269 30202 net.cpp:137] Memory required for data: 2637434880
I0113 20:50:11.112329 30202 layer_factory.hpp:78] Creating layer scale8
I0113 20:50:11.112414 30202 net.cpp:84] Creating Layer scale8
I0113 20:50:11.112457 30202 net.cpp:406] scale8 <- fc7
I0113 20:50:11.112540 30202 net.cpp:367] scale8 -> fc7 (in-place)
I0113 20:50:11.112687 30202 layer_factory.hpp:78] Creating layer scale8
I0113 20:50:11.112990 30202 net.cpp:122] Setting up scale8
I0113 20:50:11.113042 30202 net.cpp:129] Top shape: 256 4096 (1048576)
I0113 20:50:11.113075 30202 net.cpp:137] Memory required for data: 2641629184
I0113 20:50:11.113127 30202 layer_factory.hpp:78] Creating layer relu7
I0113 20:50:11.113184 30202 net.cpp:84] Creating Layer relu7
I0113 20:50:11.113224 30202 net.cpp:406] relu7 <- fc7
I0113 20:50:11.113273 30202 net.cpp:367] relu7 -> fc7 (in-place)
I0113 20:50:11.114476 30202 net.cpp:122] Setting up relu7
I0113 20:50:11.114532 30202 net.cpp:129] Top shape: 256 4096 (1048576)
I0113 20:50:11.114567 30202 net.cpp:137] Memory required for data: 2645823488
I0113 20:50:11.114603 30202 layer_factory.hpp:78] Creating layer fc8
I0113 20:50:11.114673 30202 net.cpp:84] Creating Layer fc8
I0113 20:50:11.114715 30202 net.cpp:406] fc8 <- fc7
I0113 20:50:11.114771 30202 net.cpp:380] fc8 -> fc8
I0113 20:50:11.675263 30202 net.cpp:122] Setting up fc8
I0113 20:50:11.675310 30202 net.cpp:129] Top shape: 256 1000 (256000)
I0113 20:50:11.675315 30202 net.cpp:137] Memory required for data: 2646847488
I0113 20:50:11.675354 30202 layer_factory.hpp:78] Creating layer fc8_fc8_0_split
I0113 20:50:11.675390 30202 net.cpp:84] Creating Layer fc8_fc8_0_split
I0113 20:50:11.675405 30202 net.cpp:406] fc8_fc8_0_split <- fc8
I0113 20:50:11.675433 30202 net.cpp:380] fc8_fc8_0_split -> fc8_fc8_0_split_0
I0113 20:50:11.675459 30202 net.cpp:380] fc8_fc8_0_split -> fc8_fc8_0_split_1
I0113 20:50:11.675474 30202 net.cpp:380] fc8_fc8_0_split -> fc8_fc8_0_split_2
I0113 20:50:11.675547 30202 net.cpp:122] Setting up fc8_fc8_0_split
I0113 20:50:11.675561 30202 net.cpp:129] Top shape: 256 1000 (256000)
I0113 20:50:11.675568 30202 net.cpp:129] Top shape: 256 1000 (256000)
I0113 20:50:11.675575 30202 net.cpp:129] Top shape: 256 1000 (256000)
I0113 20:50:11.675577 30202 net.cpp:137] Memory required for data: 2649919488
I0113 20:50:11.675582 30202 layer_factory.hpp:78] Creating layer loss
I0113 20:50:11.675608 30202 net.cpp:84] Creating Layer loss
I0113 20:50:11.675616 30202 net.cpp:406] loss <- fc8_fc8_0_split_0
I0113 20:50:11.675631 30202 net.cpp:406] loss <- label_data_1_split_0
I0113 20:50:11.675643 30202 net.cpp:380] loss -> loss
…
I0113 20:50:11.680307 30202 net.cpp:294] The NetState phase (1) differed from the phase (0) specified by a rule in layer data
I0113 20:50:11.680527 30202 net.cpp:51] Initializing net from parameters: 
name: "AlexNet-BN"
state {
  phase: TEST
}
layer {
  name: "data"
  type: "Data"
  top: "data"
  top: "label"
  include {
    phase: TEST
  }
  transform_param {
    mirror: false
    crop_size: 224
    mean_value: 104
    mean_value: 117
    mean_value: 123
  }
  data_param {
    source: "/home/zhengzhe/Data/imagenet_shrt256/ilsvrc12_val_lmdb"
    batch_size: 50
    backend: LMDB
  }
}
layer {
  name: "conv1"
  type: "Convolution"
  bottom: "data"
  top: "conv1"
  param {
    lr_mult: 1
    decay_mult: 1
  }
  convolution_param {
    num_output: 96
    bias_term: false
    pad: 2
    kernel_size: 11
    stride: 4
    weight_filler {
      type: "msra"
    }
  }
}
layer {
  name: "bn1"
  type: "BatchNorm"
  bottom: "conv1"
  top: "conv1"
}
layer {
  name: "scale1"
  type: "Scale"
  bottom: "conv1"
  top: "conv1"
  scale_param {
    bias_term: true
  }
}
layer {
  name: "relu1"
  type: "ReLU"
  bottom: "conv1"
  top: "conv1"
}
layer {
  name: "pool1"
  type: "Pooling"
  bottom: "conv1"
  top: "pool1"
  pooling_param {
    pool: MAX
    kernel_size: 3
    stride: 2
  }
}
layer {
  name: "bn2"
  type: "BatchNorm"
  bottom: "pool1"
  top: "pool1"
}
layer {
  name: "scale2"
  type: "Scale"
  bottom: "pool1"
  top: "pool1"
  scale_param {
    bias_term: true
  }
}
layer {
  name: "binactive1"
  type: "BinActive"
  bottom: "pool1"
  top: "binactive1"
}
layer {
  name: "conv2"
  type: "BinaryConvolution"
  bottom: "binactive1"
  top: "conv2"
  param {
    lr_mult: 1
    decay_mult: 1
  }
  convolution_param {
    num_output: 256
    bias_term: false
    pad: 2
    kernel_size: 5
    weight_filler {
      type: "msra"
    }
  }
  debug_param {
    xnorno_grad: true
  }
}
layer {
  name: "pool2"
  type: "Pooling"
  bottom: "conv2"
  top: "pool2"
  pooling_param {
    pool: MAX
    kernel_size: 3
    stride: 2
  }
}
layer {
  name: "bn3"
  type: "BatchNorm"
  bottom: "pool2"
  top: "pool2"
}
layer {
  name: "scale3"
  type: "Scale"
  bottom: "pool2"
  top: "pool2"
  scale_param {
    bias_term: true
  }
}
layer {
  name: "binactive2"
  type: "BinActive"
  bottom: "pool2"
  top: "binactive2"
}
layer {
  name: "conv3"
  type: "BinaryConvolution"
  bottom: "binactive2"
  top: "conv3"
  param {
    lr_mult: 1
    decay_mult: 1
  }
  convolution_param {
    num_output: 384
    bias_term: false
    pad: 1
    kernel_size: 3
    weight_filler {
      type: "msra"
    }
  }
  debug_param {
    xnorno_grad: true
  }
}
layer {
  name: "bn4"
  type: "BatchNorm"
  bottom: "conv3"
  top: "conv3"
}
layer {
  name: "scale4"
  type: "Scale"
  bottom: "conv3"
  top: "conv3"
  scale_param {
    bias_term: true
  }
}
layer {
  name: "binactive3"
  type: "BinActive"
  bottom: "conv3"
  top: "binactive3"
}
layer {
  name: "conv4"
  type: "BinaryConvolution"
  bottom: "binactive3"
  top: "conv4"
  param {
    lr_mult: 1
    decay_mult: 1
  }
  convolution_param {
    num_output: 384
    bias_term: false
    pad: 1
    kernel_size: 3
    weight_filler {
      type: "msra"
    }
  }
  debug_param {
    xnorno_grad: true
  }
}
layer {
  name: "bn5"
  type: "BatchNorm"
  bottom: "conv4"
  top: "conv4"
}
layer {
  name: "scale5"
  type: "Scale"
  bottom: "conv4"
  top: "conv4"
  scale_param {
    bias_term: true
  }
}
layer {
  name: "binactive4"
  type: "BinActive"
  bottom: "conv4"
  top: "binactive4"
}
layer {
  name: "conv5"
  type: "BinaryConvolution"
  bottom: "binactive4"
  top: "conv5"
  param {
    lr_mult: 1
    decay_mult: 1
  }
  convolution_param {
    num_output: 256
    bias_term: false
    pad: 1
    kernel_size: 3
    weight_filler {
      type: "msra"
    }
  }
  debug_param {
    xnorno_grad: true
  }
}
layer {
  name: "pool5"
  type: "Pooling"
  bottom: "conv5"
  top: "pool5"
  pooling_param {
    pool: MAX
    kernel_size: 3
    stride: 2
  }
}
layer {
  name: "bn6"
  type: "BatchNorm"
  bottom: "pool5"
  top: "pool5"
}
layer {
  name: "scale6"
  type: "Scale"
  bottom: "pool5"
  top: "pool5"
  scale_param {
    bias_term: true
  }
}
layer {
  name: "binactive5"
  type: "BinActive"
  bottom: "pool5"
  top: "binactive5"
}
layer {
  name: "fc6"
  type: "BinaryInnerProduct"
  bottom: "binactive5"
  top: "fc6"
  param {
    lr_mult: 1
    decay_mult: 1
  }
  inner_product_param {
    num_output: 4096
    bias_term: false
    weight_filler {
      type: "msra"
    }
  }
  debug_param {
    xnorno_grad: true
  }
}
layer {
  name: "bn7"
  type: "BatchNorm"
  bottom: "fc6"
  top: "fc6"
}
layer {
  name: "scale7"
  type: "Scale"
  bottom: "fc6"
  top: "fc6"
  scale_param {
    bias_term: true
  }
}
layer {
  name: "binactive6"
  type: "BinActive"
  bottom: "fc6"
  top: "binactive6"
}
layer {
  name: "fc7"
  type: "BinaryInnerProduct"
  bottom: "binactive6"
  top: "fc7"
  param {
    lr_mult: 1
    decay_mult: 1
  }
  inner_product_param {
    num_output: 4096
    bias_term: false
    weight_filler {
      type: "msra"
    }
  }
  debug_param {
    xnorno_grad: true
  }
}
layer {
  name: "bn8"
  type: "BatchNorm"
  bottom: "fc7"
  top: "fc7"
}
layer {
  name: "scale8"
  type: "Scale"
  bottom: "fc7"
  top: "fc7"
  scale_param {
    bias_term: true
  }
}
layer {
  name: "relu7"
  type: "ReLU"
  bottom: "fc7"
  top: "fc7"
}
layer {
  name: "fc8"
  type: "InnerProduct"
  bottom: "fc7"
  top: "fc8"
  param {
    lr_mult: 1
    decay_mult: 1
  }
  param {
    lr_mult: 2
    decay_mult: 0
  }
  inner_product_param {
    num_output: 1000
    weight_filler {
      type: "msra"
    }
    bias_filler {
      type: "constant"
      value: 0
    }
  }
}
layer {
  name: "loss"
  type: "SoftmaxWithLoss"
  bottom: "fc8"
  bottom: "label"
  top: "loss"
}
layer {
  name: "accuracy"
  type: "Accuracy"
  bottom: "fc8"
  bottom: "label"
  top: "accuracy"
}
layer {
  name: "accuracy_5"
  type: "Accuracy"
  bottom: "fc8"
  bottom: "label"
  top: "accuracy_5"
  accuracy_param {
    top_k: 5
  }
}
I0113 20:50:11.680905 30202 layer_factory.hpp:78] Creating layer data
I0113 20:50:11.681007 30202 db_lmdb.cpp:35] Opened lmdb /home/zhengzhe/Data/imagenet_shrt256/ilsvrc12_val_lmdb
I0113 20:50:11.681044 30202 net.cpp:84] Creating Layer data
I0113 20:50:11.681061 30202 net.cpp:380] data -> data
I0113 20:50:11.681092 30202 net.cpp:380] data -> label
I0113 20:50:11.681674 30202 data_layer.cpp:45] output data size: 50,3,224,224
I0113 20:50:11.819332 30202 base_data_layer.cpp:72] Initializing prefetch
I0113 20:50:11.829998 30202 base_data_layer.cpp:75] Prefetch initialized.
I0113 20:50:11.830760 30202 net.cpp:122] Setting up data
I0113 20:50:11.830819 30202 net.cpp:129] Top shape: 50 3 224 224 (7526400)
I0113 20:50:11.830878 30202 net.cpp:129] Top shape: 50 (50)
I0113 20:50:11.830914 30202 net.cpp:137] Memory required for data: 30105800
I0113 20:50:11.830971 30202 layer_factory.hpp:78] Creating layer label_data_1_split
I0113 20:50:11.831079 30202 net.cpp:84] Creating Layer label_data_1_split
I0113 20:50:11.831176 30202 net.cpp:406] label_data_1_split <- label
I0113 20:50:11.831254 30202 net.cpp:380] label_data_1_split -> label_data_1_split_0
I0113 20:50:11.831377 30202 net.cpp:380] label_data_1_split -> label_data_1_split_1
I0113 20:50:11.831485 30202 net.cpp:380] label_data_1_split -> label_data_1_split_2
I0113 20:50:11.831671 30202 net.cpp:122] Setting up label_data_1_split
I0113 20:50:11.831854 30202 net.cpp:129] Top shape: 50 (50)
I0113 20:50:11.831899 30202 net.cpp:129] Top shape: 50 (50)
I0113 20:50:11.831938 30202 net.cpp:129] Top shape: 50 (50)
I0113 20:50:11.831971 30202 net.cpp:137] Memory required for data: 30106400
I0113 20:50:11.832005 30202 layer_factory.hpp:78] Creating layer conv1
I0113 20:50:11.832085 30202 net.cpp:84] Creating Layer conv1
I0113 20:50:11.832175 30202 net.cpp:406] conv1 <- data
I0113 20:50:11.832233 30202 net.cpp:380] conv1 -> conv1
I0113 20:50:11.848755 30202 cudnn_conv_layer.cpp:194] Reallocating workspace storage: 127416
I0113 20:50:11.849133 30202 net.cpp:122] Setting up conv1
I0113 20:50:11.849226 30202 net.cpp:129] Top shape: 50 96 55 55 (14520000)
I0113 20:50:11.849268 30202 net.cpp:137] Memory required for data: 88186400
I0113 20:50:11.849337 30202 layer_factory.hpp:78] Creating layer bn1
I0113 20:50:11.849445 30202 net.cpp:84] Creating Layer bn1
I0113 20:50:11.849506 30202 net.cpp:406] bn1 <- conv1
I0113 20:50:11.849566 30202 net.cpp:367] bn1 -> conv1 (in-place)
I0113 20:50:11.850001 30202 net.cpp:122] Setting up bn1
I0113 20:50:11.850425 30202 net.cpp:129] Top shape: 50 96 55 55 (14520000)
I0113 20:50:11.850466 30202 net.cpp:137] Memory required for data: 146266400
I0113 20:50:11.850543 30202 layer_factory.hpp:78] Creating layer scale1
I0113 20:50:11.850659 30202 net.cpp:84] Creating Layer scale1
I0113 20:50:11.850729 30202 net.cpp:406] scale1 <- conv1
I0113 20:50:11.850800 30202 net.cpp:367] scale1 -> conv1 (in-place)
I0113 20:50:11.850961 30202 layer_factory.hpp:78] Creating layer scale1
I0113 20:50:11.851436 30202 net.cpp:122] Setting up scale1
I0113 20:50:11.851779 30202 net.cpp:129] Top shape: 50 96 55 55 (14520000)
I0113 20:50:11.851817 30202 net.cpp:137] Memory required for data: 204346400
I0113 20:50:11.851876 30202 layer_factory.hpp:78] Creating layer relu1
I0113 20:50:11.851959 30202 net.cpp:84] Creating Layer relu1
I0113 20:50:11.852015 30202 net.cpp:406] relu1 <- conv1
I0113 20:50:11.852066 30202 net.cpp:367] relu1 -> conv1 (in-place)
I0113 20:50:11.852965 30202 net.cpp:122] Setting up relu1
I0113 20:50:11.853868 30202 net.cpp:129] Top shape: 50 96 55 55 (14520000)
I0113 20:50:11.853907 30202 net.cpp:137] Memory required for data: 262426400
I0113 20:50:11.853941 30202 layer_factory.hpp:78] Creating layer pool1
I0113 20:50:11.853998 30202 net.cpp:84] Creating Layer pool1
I0113 20:50:11.854059 30202 net.cpp:406] pool1 <- conv1
I0113 20:50:11.854115 30202 net.cpp:380] pool1 -> pool1
I0113 20:50:11.854269 30202 net.cpp:122] Setting up pool1
I0113 20:50:11.854413 30202 net.cpp:129] Top shape: 50 96 27 27 (3499200)
I0113 20:50:11.854456 30202 net.cpp:137] Memory required for data: 276423200
I0113 20:50:11.854490 30202 layer_factory.hpp:78] Creating layer bn2
I0113 20:50:11.854537 30202 net.cpp:84] Creating Layer bn2
I0113 20:50:11.854588 30202 net.cpp:406] bn2 <- pool1
I0113 20:50:11.854643 30202 net.cpp:367] bn2 -> pool1 (in-place)
I0113 20:50:11.855046 30202 net.cpp:122] Setting up bn2
I0113 20:50:11.855442 30202 net.cpp:129] Top shape: 50 96 27 27 (3499200)
I0113 20:50:11.855480 30202 net.cpp:137] Memory required for data: 290420000
I0113 20:50:11.855553 30202 layer_factory.hpp:78] Creating layer scale2
I0113 20:50:11.855659 30202 net.cpp:84] Creating Layer scale2
I0113 20:50:11.855720 30202 net.cpp:406] scale2 <- pool1
I0113 20:50:11.855774 30202 net.cpp:367] scale2 -> pool1 (in-place)
I0113 20:50:11.855926 30202 layer_factory.hpp:78] Creating layer scale2
I0113 20:50:11.856334 30202 net.cpp:122] Setting up scale2
I0113 20:50:11.856664 30202 net.cpp:129] Top shape: 50 96 27 27 (3499200)
I0113 20:50:11.856701 30202 net.cpp:137] Memory required for data: 304416800
I0113 20:50:11.856747 30202 layer_factory.hpp:78] Creating layer binactive1
I0113 20:50:11.856811 30202 net.cpp:84] Creating Layer binactive1
I0113 20:50:11.856861 30202 net.cpp:406] binactive1 <- pool1
I0113 20:50:11.856914 30202 net.cpp:380] binactive1 -> binactive1
I0113 20:50:11.857024 30202 net.cpp:122] Setting up binactive1
I0113 20:50:11.857131 30202 net.cpp:129] Top shape: 50 96 27 27 (3499200)
I0113 20:50:11.857169 30202 net.cpp:137] Memory required for data: 318413600
I0113 20:50:11.857203 30202 layer_factory.hpp:78] Creating layer conv2
I0113 20:50:11.857266 30202 net.cpp:84] Creating Layer conv2
I0113 20:50:11.857336 30202 net.cpp:406] conv2 <- binactive1
I0113 20:50:11.857411 30202 net.cpp:380] conv2 -> conv2
I0113 20:50:12.021006 30202 cudnn_binary_conv_layer.cpp:194] Reallocating workspace storage: 19668
I0113 20:50:12.028621 30202 net.cpp:122] Setting up conv2
I0113 20:50:12.028769 30202 net.cpp:129] Top shape: 50 256 27 27 (9331200)
I0113 20:50:12.028821 30202 net.cpp:137] Memory required for data: 355738400
I0113 20:50:12.028892 30202 layer_factory.hpp:78] Creating layer pool2
I0113 20:50:12.029014 30202 net.cpp:84] Creating Layer pool2
I0113 20:50:12.029110 30202 net.cpp:406] pool2 <- conv2
I0113 20:50:12.029194 30202 net.cpp:380] pool2 -> pool2
I0113 20:50:12.029394 30202 net.cpp:122] Setting up pool2
I0113 20:50:12.029575 30202 net.cpp:129] Top shape: 50 256 13 13 (2163200)
I0113 20:50:12.029615 30202 net.cpp:137] Memory required for data: 364391200
I0113 20:50:12.029650 30202 layer_factory.hpp:78] Creating layer bn3
I0113 20:50:12.029701 30202 net.cpp:84] Creating Layer bn3
I0113 20:50:12.029754 30202 net.cpp:406] bn3 <- pool2
I0113 20:50:12.029809 30202 net.cpp:367] bn3 -> pool2 (in-place)
I0113 20:50:12.030222 30202 net.cpp:122] Setting up bn3
I0113 20:50:12.030642 30202 net.cpp:129] Top shape: 50 256 13 13 (2163200)
I0113 20:50:12.030683 30202 net.cpp:137] Memory required for data: 373044000
I0113 20:50:12.030778 30202 layer_factory.hpp:78] Creating layer scale3
I0113 20:50:12.030869 30202 net.cpp:84] Creating Layer scale3
I0113 20:50:12.030932 30202 net.cpp:406] scale3 <- pool2
I0113 20:50:12.030990 30202 net.cpp:367] scale3 -> pool2 (in-place)
I0113 20:50:12.031153 30202 layer_factory.hpp:78] Creating layer scale3
I0113 20:50:12.031551 30202 net.cpp:122] Setting up scale3
I0113 20:50:12.031853 30202 net.cpp:129] Top shape: 50 256 13 13 (2163200)
I0113 20:50:12.031891 30202 net.cpp:137] Memory required for data: 381696800
I0113 20:50:12.031956 30202 layer_factory.hpp:78] Creating layer binactive2
I0113 20:50:12.032047 30202 net.cpp:84] Creating Layer binactive2
I0113 20:50:12.032102 30202 net.cpp:406] binactive2 <- pool2
I0113 20:50:12.032155 30202 net.cpp:380] binactive2 -> binactive2
I0113 20:50:12.032264 30202 net.cpp:122] Setting up binactive2
I0113 20:50:12.032369 30202 net.cpp:129] Top shape: 50 256 13 13 (2163200)
I0113 20:50:12.032409 30202 net.cpp:137] Memory required for data: 390349600
I0113 20:50:12.032441 30202 layer_factory.hpp:78] Creating layer conv3
I0113 20:50:12.032517 30202 net.cpp:84] Creating Layer conv3
I0113 20:50:12.032601 30202 net.cpp:406] conv3 <- binactive2
I0113 20:50:12.032661 30202 net.cpp:380] conv3 -> conv3
I0113 20:50:12.225978 30202 cudnn_binary_conv_layer.cpp:194] Reallocating workspace storage: 18874368
I0113 20:50:12.232281 30202 net.cpp:122] Setting up conv3
I0113 20:50:12.232524 30202 net.cpp:129] Top shape: 50 384 13 13 (3244800)
I0113 20:50:12.232581 30202 net.cpp:137] Memory required for data: 403328800
I0113 20:50:12.232648 30202 layer_factory.hpp:78] Creating layer bn4
I0113 20:50:12.232774 30202 net.cpp:84] Creating Layer bn4
I0113 20:50:12.232877 30202 net.cpp:406] bn4 <- conv3
I0113 20:50:12.232952 30202 net.cpp:367] bn4 -> conv3 (in-place)
I0113 20:50:12.233407 30202 net.cpp:122] Setting up bn4
I0113 20:50:12.233845 30202 net.cpp:129] Top shape: 50 384 13 13 (3244800)
I0113 20:50:12.233888 30202 net.cpp:137] Memory required for data: 416308000
I0113 20:50:12.233947 30202 layer_factory.hpp:78] Creating layer scale4
I0113 20:50:12.234040 30202 net.cpp:84] Creating Layer scale4
I0113 20:50:12.234108 30202 net.cpp:406] scale4 <- conv3
I0113 20:50:12.234165 30202 net.cpp:367] scale4 -> conv3 (in-place)
I0113 20:50:12.234330 30202 layer_factory.hpp:78] Creating layer scale4
I0113 20:50:12.234746 30202 net.cpp:122] Setting up scale4
I0113 20:50:12.235056 30202 net.cpp:129] Top shape: 50 384 13 13 (3244800)
I0113 20:50:12.235100 30202 net.cpp:137] Memory required for data: 429287200
I0113 20:50:12.235149 30202 layer_factory.hpp:78] Creating layer binactive3
I0113 20:50:12.235218 30202 net.cpp:84] Creating Layer binactive3
I0113 20:50:12.235272 30202 net.cpp:406] binactive3 <- conv3
I0113 20:50:12.235330 30202 net.cpp:380] binactive3 -> binactive3
I0113 20:50:12.235462 30202 net.cpp:122] Setting up binactive3
I0113 20:50:12.235579 30202 net.cpp:129] Top shape: 50 384 13 13 (3244800)
I0113 20:50:12.235618 30202 net.cpp:137] Memory required for data: 442266400
I0113 20:50:12.235654 30202 layer_factory.hpp:78] Creating layer conv4
I0113 20:50:12.235731 30202 net.cpp:84] Creating Layer conv4
I0113 20:50:12.235815 30202 net.cpp:406] conv4 <- binactive3
I0113 20:50:12.235877 30202 net.cpp:380] conv4 -> conv4
I0113 20:50:12.466857 30202 cudnn_binary_conv_layer.cpp:194] Reallocating workspace storage: 9840
I0113 20:50:12.466908 30202 net.cpp:122] Setting up conv4
I0113 20:50:12.466926 30202 net.cpp:129] Top shape: 50 384 13 13 (3244800)
I0113 20:50:12.466930 30202 net.cpp:137] Memory required for data: 455245600
I0113 20:50:12.466959 30202 layer_factory.hpp:78] Creating layer bn5
I0113 20:50:12.466995 30202 net.cpp:84] Creating Layer bn5
I0113 20:50:12.467008 30202 net.cpp:406] bn5 <- conv4
I0113 20:50:12.467034 30202 net.cpp:367] bn5 -> conv4 (in-place)
I0113 20:50:12.467311 30202 net.cpp:122] Setting up bn5
I0113 20:50:12.467322 30202 net.cpp:129] Top shape: 50 384 13 13 (3244800)
I0113 20:50:12.467327 30202 net.cpp:137] Memory required for data: 468224800
I0113 20:50:12.467382 30202 layer_factory.hpp:78] Creating layer scale5
I0113 20:50:12.467406 30202 net.cpp:84] Creating Layer scale5
I0113 20:50:12.467416 30202 net.cpp:406] scale5 <- conv4
I0113 20:50:12.467435 30202 net.cpp:367] scale5 -> conv4 (in-place)
I0113 20:50:12.467512 30202 layer_factory.hpp:78] Creating layer scale5
I0113 20:50:12.467695 30202 net.cpp:122] Setting up scale5
I0113 20:50:12.467708 30202 net.cpp:129] Top shape: 50 384 13 13 (3244800)
I0113 20:50:12.467712 30202 net.cpp:137] Memory required for data: 481204000
I0113 20:50:12.467727 30202 layer_factory.hpp:78] Creating layer binactive4
I0113 20:50:12.467742 30202 net.cpp:84] Creating Layer binactive4
I0113 20:50:12.467749 30202 net.cpp:406] binactive4 <- conv4
I0113 20:50:12.467766 30202 net.cpp:380] binactive4 -> binactive4
I0113 20:50:12.467814 30202 net.cpp:122] Setting up binactive4
I0113 20:50:12.467826 30202 net.cpp:129] Top shape: 50 384 13 13 (3244800)
I0113 20:50:12.467831 30202 net.cpp:137] Memory required for data: 494183200
I0113 20:50:12.467836 30202 layer_factory.hpp:78] Creating layer conv5
I0113 20:50:12.467867 30202 net.cpp:84] Creating Layer conv5
I0113 20:50:12.467876 30202 net.cpp:406] conv5 <- binactive4
I0113 20:50:12.467895 30202 net.cpp:380] conv5 -> conv5
I0113 20:50:12.611213 30202 cudnn_binary_conv_layer.cpp:194] Reallocating workspace storage: 18874368
I0113 20:50:12.612443 30202 net.cpp:122] Setting up conv5
I0113 20:50:12.612596 30202 net.cpp:129] Top shape: 50 256 13 13 (2163200)
I0113 20:50:12.612622 30202 net.cpp:137] Memory required for data: 502836000
I0113 20:50:12.612777 30202 layer_factory.hpp:78] Creating layer pool5
I0113 20:50:12.612956 30202 net.cpp:84] Creating Layer pool5
I0113 20:50:12.613095 30202 net.cpp:406] pool5 <- conv5
I0113 20:50:12.613260 30202 net.cpp:380] pool5 -> pool5
I0113 20:50:12.613688 30202 net.cpp:122] Setting up pool5
I0113 20:50:12.613729 30202 net.cpp:129] Top shape: 50 256 6 6 (460800)
I0113 20:50:12.613839 30202 net.cpp:137] Memory required for data: 504679200
I0113 20:50:12.613864 30202 layer_factory.hpp:78] Creating layer bn6
I0113 20:50:12.613984 30202 net.cpp:84] Creating Layer bn6
I0113 20:50:12.614013 30202 net.cpp:406] bn6 <- pool5
I0113 20:50:12.614136 30202 net.cpp:367] bn6 -> pool5 (in-place)
I0113 20:50:12.615295 30202 net.cpp:122] Setting up bn6
I0113 20:50:12.615422 30202 net.cpp:129] Top shape: 50 256 6 6 (460800)
I0113 20:50:12.615445 30202 net.cpp:137] Memory required for data: 506522400
I0113 20:50:12.615602 30202 layer_factory.hpp:78] Creating layer scale6
I0113 20:50:12.615744 30202 net.cpp:84] Creating Layer scale6
I0113 20:50:12.615862 30202 net.cpp:406] scale6 <- pool5
I0113 20:50:12.615906 30202 net.cpp:367] scale6 -> pool5 (in-place)
I0113 20:50:12.616474 30202 layer_factory.hpp:78] Creating layer scale6
I0113 20:50:12.618157 30202 net.cpp:122] Setting up scale6
I0113 20:50:12.618332 30202 net.cpp:129] Top shape: 50 256 6 6 (460800)
I0113 20:50:12.618471 30202 net.cpp:137] Memory required for data: 508365600
I0113 20:50:12.618603 30202 layer_factory.hpp:78] Creating layer binactive5
I0113 20:50:12.618758 30202 net.cpp:84] Creating Layer binactive5
I0113 20:50:12.618903 30202 net.cpp:406] binactive5 <- pool5
I0113 20:50:12.619045 30202 net.cpp:380] binactive5 -> binactive5
I0113 20:50:12.619251 30202 net.cpp:122] Setting up binactive5
I0113 20:50:12.619529 30202 net.cpp:129] Top shape: 50 256 6 6 (460800)
I0113 20:50:12.619654 30202 net.cpp:137] Memory required for data: 510208800
I0113 20:50:12.619693 30202 layer_factory.hpp:78] Creating layer fc6
I0113 20:50:12.619843 30202 net.cpp:84] Creating Layer fc6
I0113 20:50:12.620004 30202 net.cpp:406] fc6 <- binactive5
I0113 20:50:12.620155 30202 net.cpp:380] fc6 -> fc6
I0113 20:50:18.102257 30202 net.cpp:122] Setting up fc6
I0113 20:50:18.102327 30202 net.cpp:129] Top shape: 50 4096 (204800)
I0113 20:50:18.102334 30202 net.cpp:137] Memory required for data: 511028000
I0113 20:50:18.102391 30202 layer_factory.hpp:78] Creating layer bn7
I0113 20:50:18.102443 30202 net.cpp:84] Creating Layer bn7
I0113 20:50:18.102463 30202 net.cpp:406] bn7 <- fc6
I0113 20:50:18.102520 30202 net.cpp:367] bn7 -> fc6 (in-place)
I0113 20:50:18.102869 30202 net.cpp:122] Setting up bn7
I0113 20:50:18.102881 30202 net.cpp:129] Top shape: 50 4096 (204800)
I0113 20:50:18.102885 30202 net.cpp:137] Memory required for data: 511847200
I0113 20:50:18.102910 30202 layer_factory.hpp:78] Creating layer scale7
I0113 20:50:18.102938 30202 net.cpp:84] Creating Layer scale7
I0113 20:50:18.102947 30202 net.cpp:406] scale7 <- fc6
I0113 20:50:18.102964 30202 net.cpp:367] scale7 -> fc6 (in-place)
I0113 20:50:18.103073 30202 layer_factory.hpp:78] Creating layer scale7
I0113 20:50:18.103288 30202 net.cpp:122] Setting up scale7
I0113 20:50:18.103302 30202 net.cpp:129] Top shape: 50 4096 (204800)
I0113 20:50:18.103307 30202 net.cpp:137] Memory required for data: 512666400
I0113 20:50:18.103322 30202 layer_factory.hpp:78] Creating layer binactive6
I0113 20:50:18.103338 30202 net.cpp:84] Creating Layer binactive6
I0113 20:50:18.103351 30202 net.cpp:406] binactive6 <- fc6
I0113 20:50:18.103376 30202 net.cpp:380] binactive6 -> binactive6
I0113 20:50:18.103426 30202 net.cpp:122] Setting up binactive6
I0113 20:50:18.103440 30202 net.cpp:129] Top shape: 50 4096 (204800)
I0113 20:50:18.103446 30202 net.cpp:137] Memory required for data: 513485600
I0113 20:50:18.103451 30202 layer_factory.hpp:78] Creating layer fc7
I0113 20:50:18.103488 30202 net.cpp:84] Creating Layer fc7
I0113 20:50:18.103498 30202 net.cpp:406] fc7 <- binactive6
I0113 20:50:18.103518 30202 net.cpp:380] fc7 -> fc7
I0113 20:50:20.639631 30202 net.cpp:122] Setting up fc7
I0113 20:50:20.639751 30202 net.cpp:129] Top shape: 50 4096 (204800)
I0113 20:50:20.639777 30202 net.cpp:137] Memory required for data: 514304800
I0113 20:50:20.639835 30202 layer_factory.hpp:78] Creating layer bn8
I0113 20:50:20.639902 30202 net.cpp:84] Creating Layer bn8
I0113 20:50:20.639945 30202 net.cpp:406] bn8 <- fc7
I0113 20:50:20.639997 30202 net.cpp:367] bn8 -> fc7 (in-place)
I0113 20:50:20.640413 30202 net.cpp:122] Setting up bn8
I0113 20:50:20.640450 30202 net.cpp:129] Top shape: 50 4096 (204800)
I0113 20:50:20.640470 30202 net.cpp:137] Memory required for data: 515124000
I0113 20:50:20.640518 30202 layer_factory.hpp:78] Creating layer scale8
I0113 20:50:20.640571 30202 net.cpp:84] Creating Layer scale8
I0113 20:50:20.640600 30202 net.cpp:406] scale8 <- fc7
I0113 20:50:20.640640 30202 net.cpp:367] scale8 -> fc7 (in-place)
I0113 20:50:20.640789 30202 layer_factory.hpp:78] Creating layer scale8
I0113 20:50:20.641088 30202 net.cpp:122] Setting up scale8
I0113 20:50:20.641124 30202 net.cpp:129] Top shape: 50 4096 (204800)
I0113 20:50:20.641145 30202 net.cpp:137] Memory required for data: 515943200
I0113 20:50:20.641181 30202 layer_factory.hpp:78] Creating layer relu7
I0113 20:50:20.641227 30202 net.cpp:84] Creating Layer relu7
I0113 20:50:20.641253 30202 net.cpp:406] relu7 <- fc7
I0113 20:50:20.641291 30202 net.cpp:367] relu7 -> fc7 (in-place)
I0113 20:50:20.643151 30202 net.cpp:122] Setting up relu7
I0113 20:50:20.643194 30202 net.cpp:129] Top shape: 50 4096 (204800)
I0113 20:50:20.643216 30202 net.cpp:137] Memory required for data: 516762400
I0113 20:50:20.643240 30202 layer_factory.hpp:78] Creating layer fc8
I0113 20:50:20.643290 30202 net.cpp:84] Creating Layer fc8
I0113 20:50:20.643319 30202 net.cpp:406] fc8 <- fc7
I0113 20:50:20.643373 30202 net.cpp:380] fc8 -> fc8
I0113 20:50:21.138146 30202 net.cpp:122] Setting up fc8
I0113 20:50:21.138262 30202 net.cpp:129] Top shape: 50 1000 (50000)
I0113 20:50:21.138284 30202 net.cpp:137] Memory required for data: 516962400
I0113 20:50:21.138348 30202 layer_factory.hpp:78] Creating layer fc8_fc8_0_split
I0113 20:50:21.138411 30202 net.cpp:84] Creating Layer fc8_fc8_0_split
I0113 20:50:21.138445 30202 net.cpp:406] fc8_fc8_0_split <- fc8
I0113 20:50:21.138499 30202 net.cpp:380] fc8_fc8_0_split -> fc8_fc8_0_split_0
I0113 20:50:21.138556 30202 net.cpp:380] fc8_fc8_0_split -> fc8_fc8_0_split_1
I0113 20:50:21.138615 30202 net.cpp:380] fc8_fc8_0_split -> fc8_fc8_0_split_2
I0113 20:50:21.138752 30202 net.cpp:122] Setting up fc8_fc8_0_split
I0113 20:50:21.138808 30202 net.cpp:129] Top shape: 50 1000 (50000)
I0113 20:50:21.138833 30202 net.cpp:129] Top shape: 50 1000 (50000)
I0113 20:50:21.138856 30202 net.cpp:129] Top shape: 50 1000 (50000)
I0113 20:50:21.138875 30202 net.cpp:137] Memory required for data: 517562400
I0113 20:50:21.138901 30202 layer_factory.hpp:78] Creating layer loss
I0113 20:50:21.138942 30202 net.cpp:84] Creating Layer loss
I0113 20:50:21.138969 30202 net.cpp:406] loss <- fc8_fc8_0_split_0
I0113 20:50:21.139004 30202 net.cpp:406] loss <- label_data_1_split_0
I0113 20:50:21.139041 30202 net.cpp:380] loss -> loss
…
