…
I0110 21:04:46.676152 53034 net.cpp:294] The NetState phase (0) differed from the phase (1) specified by a rule in layer data
I0110 21:04:46.676728 53034 net.cpp:51] Initializing net from parameters: 
name: "AlexNet-BN"
state {
  phase: TRAIN
  level: 0
  stage: ""
}
layer {
  name: "data"
  type: "Data"
  top: "data"
  top: "label"
  include {
    phase: TRAIN
  }
  transform_param {
    mirror: true
    crop_size: 224
    mean_value: 104
    mean_value: 117
    mean_value: 123
  }
  data_param {
    source: "/home/zhengzhe/Data/imagenet_shrt256/ilsvrc12_train_lmdb"
    batch_size: 256
    backend: LMDB
  }
}
layer {
  name: "conv1"
  type: "Convolution"
  bottom: "data"
  top: "conv1"
  param {
    lr_mult: 1
    decay_mult: 1
  }
  convolution_param {
    num_output: 96
    bias_term: false
    pad: 2
    kernel_size: 11
    stride: 4
    weight_filler {
      type: "msra"
    }
  }
}
layer {
  name: "bn1"
  type: "BatchNorm"
  bottom: "conv1"
  top: "conv1"
}
layer {
  name: "scale1"
  type: "Scale"
  bottom: "conv1"
  top: "conv1"
  scale_param {
    bias_term: true
  }
}
layer {
  name: "relu1"
  type: "ReLU"
  bottom: "conv1"
  top: "conv1"
}
layer {
  name: "pool1"
  type: "Pooling"
  bottom: "conv1"
  top: "pool1"
  pooling_param {
    pool: MAX
    kernel_size: 3
    stride: 2
  }
}
layer {
  name: "bn2"
  type: "BatchNorm"
  bottom: "pool1"
  top: "pool1"
}
layer {
  name: "scale2"
  type: "Scale"
  bottom: "pool1"
  top: "pool1"
  scale_param {
    bias_term: true
  }
}
layer {
  name: "binactive1"
  type: "BinActive"
  bottom: "pool1"
  top: "binactive1"
}
layer {
  name: "conv2"
  type: "BinaryConvolution"
  bottom: "binactive1"
  top: "conv2"
  param {
    lr_mult: 1
    decay_mult: 1
  }
  convolution_param {
    num_output: 256
    bias_term: false
    pad: 2
    kernel_size: 5
    weight_filler {
      type: "msra"
    }
  }
  debug_param {
    xnorno_grad: true
  }
}
layer {
  name: "pool2"
  type: "Pooling"
  bottom: "conv2"
  top: "pool2"
  pooling_param {
    pool: MAX
    kernel_size: 3
    stride: 2
  }
}
layer {
  name: "bn3"
  type: "BatchNorm"
  bottom: "pool2"
  top: "pool2"
}
layer {
  name: "scale3"
  type: "Scale"
  bottom: "pool2"
  top: "pool2"
  scale_param {
    bias_term: true
  }
}
layer {
  name: "binactive2"
  type: "BinActive"
  bottom: "pool2"
  top: "binactive2"
}
layer {
  name: "conv3"
  type: "BinaryConvolution"
  bottom: "binactive2"
  top: "conv3"
  param {
    lr_mult: 1
    decay_mult: 1
  }
  convolution_param {
    num_output: 384
    bias_term: false
    pad: 1
    kernel_size: 3
    weight_filler {
      type: "msra"
    }
  }
  debug_param {
    xnorno_grad: true
  }
}
layer {
  name: "bn4"
  type: "BatchNorm"
  bottom: "conv3"
  top: "conv3"
}
layer {
  name: "scale4"
  type: "Scale"
  bottom: "conv3"
  top: "conv3"
  scale_param {
    bias_term: true
  }
}
layer {
  name: "binactive3"
  type: "BinActive"
  bottom: "conv3"
  top: "binactive3"
}
layer {
  name: "conv4"
  type: "BinaryConvolution"
  bottom: "binactive3"
  top: "conv4"
  param {
    lr_mult: 1
    decay_mult: 1
  }
  convolution_param {
    num_output: 384
    bias_term: false
    pad: 1
    kernel_size: 3
    weight_filler {
      type: "msra"
    }
  }
  debug_param {
    xnorno_grad: true
  }
}
layer {
  name: "bn5"
  type: "BatchNorm"
  bottom: "conv4"
  top: "conv4"
}
layer {
  name: "scale5"
  type: "Scale"
  bottom: "conv4"
  top: "conv4"
  scale_param {
    bias_term: true
  }
}
layer {
  name: "binactive4"
  type: "BinActive"
  bottom: "conv4"
  top: "binactive4"
}
layer {
  name: "conv5"
  type: "BinaryConvolution"
  bottom: "binactive4"
  top: "conv5"
  param {
    lr_mult: 1
    decay_mult: 1
  }
  convolution_param {
    num_output: 256
    bias_term: false
    pad: 1
    kernel_size: 3
    weight_filler {
      type: "msra"
    }
  }
  debug_param {
    xnorno_grad: true
  }
}
layer {
  name: "pool5"
  type: "Pooling"
  bottom: "conv5"
  top: "pool5"
  pooling_param {
    pool: MAX
    kernel_size: 3
    stride: 2
  }
}
layer {
  name: "bn6"
  type: "BatchNorm"
  bottom: "pool5"
  top: "pool5"
}
layer {
  name: "scale6"
  type: "Scale"
  bottom: "pool5"
  top: "pool5"
  scale_param {
    bias_term: true
  }
}
layer {
  name: "binactive5"
  type: "BinActive"
  bottom: "pool5"
  top: "binactive5"
}
layer {
  name: "fc6"
  type: "BinaryInnerProduct"
  bottom: "binactive5"
  top: "fc6"
  param {
    lr_mult: 1
    decay_mult: 1
  }
  inner_product_param {
    num_output: 4096
    bias_term: false
    weight_filler {
      type: "msra"
    }
  }
  debug_param {
    xnorno_grad: true
  }
}
layer {
  name: "bn7"
  type: "BatchNorm"
  bottom: "fc6"
  top: "fc6"
}
layer {
  name: "scale7"
  type: "Scale"
  bottom: "fc6"
  top: "fc6"
  scale_param {
    bias_term: true
  }
}
layer {
  name: "binactive6"
  type: "BinActive"
  bottom: "fc6"
  top: "binactive6"
}
layer {
  name: "fc7"
  type: "BinaryInnerProduct"
  bottom: "binactive6"
  top: "fc7"
  param {
    lr_mult: 1
    decay_mult: 1
  }
  inner_product_param {
    num_output: 4096
    bias_term: false
    weight_filler {
      type: "msra"
    }
  }
  debug_param {
    xnorno_grad: true
  }
}
layer {
  name: "bn8"
  type: "BatchNorm"
  bottom: "fc7"
  top: "fc7"
}
layer {
  name: "scale8"
  type: "Scale"
  bottom: "fc7"
  top: "fc7"
  scale_param {
    bias_term: true
  }
}
layer {
  name: "relu7"
  type: "ReLU"
  bottom: "fc7"
  top: "fc7"
}
layer {
  name: "fc8"
  type: "InnerProduct"
  bottom: "fc7"
  top: "fc8"
  param {
    lr_mult: 1
    decay_mult: 1
  }
  param {
    lr_mult: 2
    decay_mult: 0
  }
  inner_product_param {
    num_output: 1000
    weight_filler {
      type: "msra"
    }
    bias_filler {
      type: "constant"
      value: 0
    }
  }
}
layer {
  name: "loss"
  type: "SoftmaxWithLoss"
  bottom: "fc8"
  bottom: "label"
  top: "loss"
}
layer {
  name: "accuracy"
  type: "Accuracy"
  bottom: "fc8"
  bottom: "label"
  top: "accuracy"
}
layer {
  name: "accuracy_5"
  type: "Accuracy"
  bottom: "fc8"
  bottom: "label"
  top: "accuracy_5"
  accuracy_param {
    top_k: 5
  }
}
I0110 21:04:46.678299 53034 layer_factory.hpp:78] Creating layer data
I0110 21:04:46.699996 53034 db_lmdb.cpp:35] Opened lmdb /home/zhengzhe/Data/imagenet_shrt256/ilsvrc12_train_lmdb
I0110 21:04:46.730803 53034 net.cpp:84] Creating Layer data
I0110 21:04:46.730945 53034 net.cpp:380] data -> data
I0110 21:04:46.731231 53034 net.cpp:380] data -> label
I0110 21:04:46.777766 53034 data_layer.cpp:45] output data size: 256,3,224,224
I0110 21:04:47.758441 53034 base_data_layer.cpp:72] Initializing prefetch
I0110 21:04:47.758759 53034 base_data_layer.cpp:75] Prefetch initialized.
I0110 21:04:47.758777 53034 net.cpp:122] Setting up data
I0110 21:04:47.758823 53034 net.cpp:129] Top shape: 256 3 224 224 (38535168)
I0110 21:04:47.758834 53034 net.cpp:129] Top shape: 256 (256)
I0110 21:04:47.758838 53034 net.cpp:137] Memory required for data: 154141696
I0110 21:04:47.758875 53034 layer_factory.hpp:78] Creating layer label_data_1_split
I0110 21:04:47.758946 53034 net.cpp:84] Creating Layer label_data_1_split
I0110 21:04:47.758973 53034 net.cpp:406] label_data_1_split <- label
I0110 21:04:47.759037 53034 net.cpp:380] label_data_1_split -> label_data_1_split_0
I0110 21:04:47.759074 53034 net.cpp:380] label_data_1_split -> label_data_1_split_1
I0110 21:04:47.759089 53034 net.cpp:380] label_data_1_split -> label_data_1_split_2
I0110 21:04:47.759176 53034 net.cpp:122] Setting up label_data_1_split
I0110 21:04:47.759189 53034 net.cpp:129] Top shape: 256 (256)
I0110 21:04:47.759200 53034 net.cpp:129] Top shape: 256 (256)
I0110 21:04:47.759228 53034 net.cpp:129] Top shape: 256 (256)
I0110 21:04:47.759232 53034 net.cpp:137] Memory required for data: 154144768
I0110 21:04:47.759239 53034 layer_factory.hpp:78] Creating layer conv1
I0110 21:04:47.759330 53034 net.cpp:84] Creating Layer conv1
I0110 21:04:47.759344 53034 net.cpp:406] conv1 <- data
I0110 21:04:47.759366 53034 net.cpp:380] conv1 -> conv1
I0110 21:04:56.645967 53034 cudnn_conv_layer.cpp:194] Reallocating workspace storage: 127416
I0110 21:04:56.646520 53034 net.cpp:122] Setting up conv1
I0110 21:04:56.646565 53034 net.cpp:129] Top shape: 256 96 55 55 (74342400)
I0110 21:04:56.646575 53034 net.cpp:137] Memory required for data: 451514368
I0110 21:04:56.646708 53034 layer_factory.hpp:78] Creating layer bn1
I0110 21:04:56.646772 53034 net.cpp:84] Creating Layer bn1
I0110 21:04:56.646791 53034 net.cpp:406] bn1 <- conv1
I0110 21:04:56.646837 53034 net.cpp:367] bn1 -> conv1 (in-place)
I0110 21:04:56.649581 53034 net.cpp:122] Setting up bn1
I0110 21:04:56.649610 53034 net.cpp:129] Top shape: 256 96 55 55 (74342400)
I0110 21:04:56.649616 53034 net.cpp:137] Memory required for data: 748883968
I0110 21:04:56.649694 53034 layer_factory.hpp:78] Creating layer scale1
I0110 21:04:56.649760 53034 net.cpp:84] Creating Layer scale1
I0110 21:04:56.649775 53034 net.cpp:406] scale1 <- conv1
I0110 21:04:56.649804 53034 net.cpp:367] scale1 -> conv1 (in-place)
I0110 21:04:56.649955 53034 layer_factory.hpp:78] Creating layer scale1
I0110 21:04:56.650337 53034 net.cpp:122] Setting up scale1
I0110 21:04:56.650367 53034 net.cpp:129] Top shape: 256 96 55 55 (74342400)
I0110 21:04:56.650372 53034 net.cpp:137] Memory required for data: 1046253568
I0110 21:04:56.650413 53034 layer_factory.hpp:78] Creating layer relu1
I0110 21:04:56.650460 53034 net.cpp:84] Creating Layer relu1
I0110 21:04:56.650475 53034 net.cpp:406] relu1 <- conv1
I0110 21:04:56.650498 53034 net.cpp:367] relu1 -> conv1 (in-place)
I0110 21:04:56.651399 53034 net.cpp:122] Setting up relu1
I0110 21:04:56.651422 53034 net.cpp:129] Top shape: 256 96 55 55 (74342400)
I0110 21:04:56.651429 53034 net.cpp:137] Memory required for data: 1343623168
I0110 21:04:56.651439 53034 layer_factory.hpp:78] Creating layer pool1
I0110 21:04:56.651480 53034 net.cpp:84] Creating Layer pool1
I0110 21:04:56.651495 53034 net.cpp:406] pool1 <- conv1
I0110 21:04:56.651525 53034 net.cpp:380] pool1 -> pool1
I0110 21:04:56.651666 53034 net.cpp:122] Setting up pool1
I0110 21:04:56.651688 53034 net.cpp:129] Top shape: 256 96 27 27 (17915904)
I0110 21:04:56.651696 53034 net.cpp:137] Memory required for data: 1415286784
I0110 21:04:56.651706 53034 layer_factory.hpp:78] Creating layer bn2
I0110 21:04:56.651728 53034 net.cpp:84] Creating Layer bn2
I0110 21:04:56.651749 53034 net.cpp:406] bn2 <- pool1
I0110 21:04:56.651772 53034 net.cpp:367] bn2 -> pool1 (in-place)
I0110 21:04:56.653939 53034 net.cpp:122] Setting up bn2
I0110 21:04:56.653965 53034 net.cpp:129] Top shape: 256 96 27 27 (17915904)
I0110 21:04:56.653972 53034 net.cpp:137] Memory required for data: 1486950400
I0110 21:04:56.654029 53034 layer_factory.hpp:78] Creating layer scale2
I0110 21:04:56.654072 53034 net.cpp:84] Creating Layer scale2
I0110 21:04:56.654085 53034 net.cpp:406] scale2 <- pool1
I0110 21:04:56.654110 53034 net.cpp:367] scale2 -> pool1 (in-place)
I0110 21:04:56.654219 53034 layer_factory.hpp:78] Creating layer scale2
I0110 21:04:56.654533 53034 net.cpp:122] Setting up scale2
I0110 21:04:56.654556 53034 net.cpp:129] Top shape: 256 96 27 27 (17915904)
I0110 21:04:56.654561 53034 net.cpp:137] Memory required for data: 1558614016
I0110 21:04:56.654587 53034 layer_factory.hpp:78] Creating layer binactive1
I0110 21:04:56.654618 53034 net.cpp:84] Creating Layer binactive1
I0110 21:04:56.654631 53034 net.cpp:406] binactive1 <- pool1
I0110 21:04:56.654659 53034 net.cpp:380] binactive1 -> binactive1
I0110 21:04:56.654727 53034 net.cpp:122] Setting up binactive1
I0110 21:04:56.654747 53034 net.cpp:129] Top shape: 256 96 27 27 (17915904)
I0110 21:04:56.654753 53034 net.cpp:137] Memory required for data: 1630277632
I0110 21:04:56.654793 53034 layer_factory.hpp:78] Creating layer conv2
I0110 21:04:56.654850 53034 net.cpp:84] Creating Layer conv2
I0110 21:04:56.654863 53034 net.cpp:406] conv2 <- binactive1
I0110 21:04:56.654896 53034 net.cpp:380] conv2 -> conv2
I0110 21:04:56.758991 53034 cudnn_binary_conv_layer.cpp:194] Reallocating workspace storage: 19668
I0110 21:04:56.759074 53034 net.cpp:122] Setting up conv2
I0110 21:04:56.759105 53034 net.cpp:129] Top shape: 256 256 27 27 (47775744)
I0110 21:04:56.759111 53034 net.cpp:137] Memory required for data: 1821380608
I0110 21:04:56.759151 53034 layer_factory.hpp:78] Creating layer pool2
I0110 21:04:56.759208 53034 net.cpp:84] Creating Layer pool2
I0110 21:04:56.759227 53034 net.cpp:406] pool2 <- conv2
I0110 21:04:56.759268 53034 net.cpp:380] pool2 -> pool2
I0110 21:04:56.759397 53034 net.cpp:122] Setting up pool2
I0110 21:04:56.759419 53034 net.cpp:129] Top shape: 256 256 13 13 (11075584)
I0110 21:04:56.759428 53034 net.cpp:137] Memory required for data: 1865682944
I0110 21:04:56.759436 53034 layer_factory.hpp:78] Creating layer bn3
I0110 21:04:56.759461 53034 net.cpp:84] Creating Layer bn3
I0110 21:04:56.759474 53034 net.cpp:406] bn3 <- pool2
I0110 21:04:56.759496 53034 net.cpp:367] bn3 -> pool2 (in-place)
I0110 21:04:56.759871 53034 net.cpp:122] Setting up bn3
I0110 21:04:56.759887 53034 net.cpp:129] Top shape: 256 256 13 13 (11075584)
I0110 21:04:56.759893 53034 net.cpp:137] Memory required for data: 1909985280
I0110 21:04:56.759927 53034 layer_factory.hpp:78] Creating layer scale3
I0110 21:04:56.759956 53034 net.cpp:84] Creating Layer scale3
I0110 21:04:56.759969 53034 net.cpp:406] scale3 <- pool2
I0110 21:04:56.759992 53034 net.cpp:367] scale3 -> pool2 (in-place)
I0110 21:04:56.760097 53034 layer_factory.hpp:78] Creating layer scale3
I0110 21:04:56.760360 53034 net.cpp:122] Setting up scale3
I0110 21:04:56.760380 53034 net.cpp:129] Top shape: 256 256 13 13 (11075584)
I0110 21:04:56.760385 53034 net.cpp:137] Memory required for data: 1954287616
I0110 21:04:56.760429 53034 layer_factory.hpp:78] Creating layer binactive2
I0110 21:04:56.760455 53034 net.cpp:84] Creating Layer binactive2
I0110 21:04:56.760468 53034 net.cpp:406] binactive2 <- pool2
I0110 21:04:56.760493 53034 net.cpp:380] binactive2 -> binactive2
I0110 21:04:56.760551 53034 net.cpp:122] Setting up binactive2
I0110 21:04:56.760569 53034 net.cpp:129] Top shape: 256 256 13 13 (11075584)
I0110 21:04:56.760576 53034 net.cpp:137] Memory required for data: 1998589952
I0110 21:04:56.760587 53034 layer_factory.hpp:78] Creating layer conv3
I0110 21:04:56.760633 53034 net.cpp:84] Creating Layer conv3
I0110 21:04:56.760648 53034 net.cpp:406] conv3 <- binactive2
I0110 21:04:56.760675 53034 net.cpp:380] conv3 -> conv3
I0110 21:04:56.911106 53034 cudnn_binary_conv_layer.cpp:194] Reallocating workspace storage: 18874368
I0110 21:04:56.912120 53034 net.cpp:122] Setting up conv3
I0110 21:04:56.912153 53034 net.cpp:129] Top shape: 256 384 13 13 (16613376)
I0110 21:04:56.912159 53034 net.cpp:137] Memory required for data: 2065043456
I0110 21:04:56.912194 53034 layer_factory.hpp:78] Creating layer bn4
I0110 21:04:56.912241 53034 net.cpp:84] Creating Layer bn4
I0110 21:04:56.912256 53034 net.cpp:406] bn4 <- conv3
I0110 21:04:56.912288 53034 net.cpp:367] bn4 -> conv3 (in-place)
I0110 21:04:56.912585 53034 net.cpp:122] Setting up bn4
I0110 21:04:56.912600 53034 net.cpp:129] Top shape: 256 384 13 13 (16613376)
I0110 21:04:56.912603 53034 net.cpp:137] Memory required for data: 2131496960
I0110 21:04:56.912629 53034 layer_factory.hpp:78] Creating layer scale4
I0110 21:04:56.912654 53034 net.cpp:84] Creating Layer scale4
I0110 21:04:56.912663 53034 net.cpp:406] scale4 <- conv3
I0110 21:04:56.912681 53034 net.cpp:367] scale4 -> conv3 (in-place)
I0110 21:04:56.912757 53034 layer_factory.hpp:78] Creating layer scale4
I0110 21:04:56.912953 53034 net.cpp:122] Setting up scale4
I0110 21:04:56.912968 53034 net.cpp:129] Top shape: 256 384 13 13 (16613376)
I0110 21:04:56.912972 53034 net.cpp:137] Memory required for data: 2197950464
I0110 21:04:56.913017 53034 layer_factory.hpp:78] Creating layer binactive3
I0110 21:04:56.913035 53034 net.cpp:84] Creating Layer binactive3
I0110 21:04:56.913045 53034 net.cpp:406] binactive3 <- conv3
I0110 21:04:56.913064 53034 net.cpp:380] binactive3 -> binactive3
I0110 21:04:56.913111 53034 net.cpp:122] Setting up binactive3
I0110 21:04:56.913125 53034 net.cpp:129] Top shape: 256 384 13 13 (16613376)
I0110 21:04:56.913130 53034 net.cpp:137] Memory required for data: 2264403968
I0110 21:04:56.913136 53034 layer_factory.hpp:78] Creating layer conv4
I0110 21:04:56.913170 53034 net.cpp:84] Creating Layer conv4
I0110 21:04:56.913180 53034 net.cpp:406] conv4 <- binactive3
I0110 21:04:56.913202 53034 net.cpp:380] conv4 -> conv4
I0110 21:04:57.058641 53034 cudnn_binary_conv_layer.cpp:194] Reallocating workspace storage: 9840
I0110 21:04:57.058696 53034 net.cpp:122] Setting up conv4
I0110 21:04:57.058718 53034 net.cpp:129] Top shape: 256 384 13 13 (16613376)
I0110 21:04:57.058723 53034 net.cpp:137] Memory required for data: 2330857472
I0110 21:04:57.058758 53034 layer_factory.hpp:78] Creating layer bn5
I0110 21:04:57.058800 53034 net.cpp:84] Creating Layer bn5
I0110 21:04:57.058817 53034 net.cpp:406] bn5 <- conv4
I0110 21:04:57.058846 53034 net.cpp:367] bn5 -> conv4 (in-place)
I0110 21:04:57.059110 53034 net.cpp:122] Setting up bn5
I0110 21:04:57.059123 53034 net.cpp:129] Top shape: 256 384 13 13 (16613376)
I0110 21:04:57.059126 53034 net.cpp:137] Memory required for data: 2397310976
I0110 21:04:57.059150 53034 layer_factory.hpp:78] Creating layer scale5
I0110 21:04:57.059175 53034 net.cpp:84] Creating Layer scale5
I0110 21:04:57.059185 53034 net.cpp:406] scale5 <- conv4
I0110 21:04:57.059201 53034 net.cpp:367] scale5 -> conv4 (in-place)
I0110 21:04:57.059274 53034 layer_factory.hpp:78] Creating layer scale5
I0110 21:04:57.059479 53034 net.cpp:122] Setting up scale5
I0110 21:04:57.059492 53034 net.cpp:129] Top shape: 256 384 13 13 (16613376)
I0110 21:04:57.059496 53034 net.cpp:137] Memory required for data: 2463764480
I0110 21:04:57.059514 53034 layer_factory.hpp:78] Creating layer binactive4
I0110 21:04:57.059531 53034 net.cpp:84] Creating Layer binactive4
I0110 21:04:57.059541 53034 net.cpp:406] binactive4 <- conv4
I0110 21:04:57.059558 53034 net.cpp:380] binactive4 -> binactive4
I0110 21:04:57.059602 53034 net.cpp:122] Setting up binactive4
I0110 21:04:57.059615 53034 net.cpp:129] Top shape: 256 384 13 13 (16613376)
I0110 21:04:57.059619 53034 net.cpp:137] Memory required for data: 2530217984
I0110 21:04:57.059626 53034 layer_factory.hpp:78] Creating layer conv5
I0110 21:04:57.059659 53034 net.cpp:84] Creating Layer conv5
I0110 21:04:57.059669 53034 net.cpp:406] conv5 <- binactive4
I0110 21:04:57.059690 53034 net.cpp:380] conv5 -> conv5
I0110 21:04:57.164407 53034 cudnn_binary_conv_layer.cpp:194] Reallocating workspace storage: 18874368
I0110 21:04:57.164774 53034 net.cpp:122] Setting up conv5
I0110 21:04:57.164803 53034 net.cpp:129] Top shape: 256 256 13 13 (11075584)
I0110 21:04:57.164810 53034 net.cpp:137] Memory required for data: 2574520320
I0110 21:04:57.164847 53034 layer_factory.hpp:78] Creating layer pool5
I0110 21:04:57.164894 53034 net.cpp:84] Creating Layer pool5
I0110 21:04:57.164911 53034 net.cpp:406] pool5 <- conv5
I0110 21:04:57.164943 53034 net.cpp:380] pool5 -> pool5
I0110 21:04:57.165046 53034 net.cpp:122] Setting up pool5
I0110 21:04:57.165062 53034 net.cpp:129] Top shape: 256 256 6 6 (2359296)
I0110 21:04:57.165068 53034 net.cpp:137] Memory required for data: 2583957504
I0110 21:04:57.165074 53034 layer_factory.hpp:78] Creating layer bn6
I0110 21:04:57.165093 53034 net.cpp:84] Creating Layer bn6
I0110 21:04:57.165107 53034 net.cpp:406] bn6 <- pool5
I0110 21:04:57.165123 53034 net.cpp:367] bn6 -> pool5 (in-place)
I0110 21:04:57.165462 53034 net.cpp:122] Setting up bn6
I0110 21:04:57.165475 53034 net.cpp:129] Top shape: 256 256 6 6 (2359296)
I0110 21:04:57.165478 53034 net.cpp:137] Memory required for data: 2593394688
I0110 21:04:57.165524 53034 layer_factory.hpp:78] Creating layer scale6
I0110 21:04:57.165551 53034 net.cpp:84] Creating Layer scale6
I0110 21:04:57.165585 53034 net.cpp:406] scale6 <- pool5
I0110 21:04:57.165604 53034 net.cpp:367] scale6 -> pool5 (in-place)
I0110 21:04:57.165693 53034 layer_factory.hpp:78] Creating layer scale6
I0110 21:04:57.165886 53034 net.cpp:122] Setting up scale6
I0110 21:04:57.165900 53034 net.cpp:129] Top shape: 256 256 6 6 (2359296)
I0110 21:04:57.165904 53034 net.cpp:137] Memory required for data: 2602831872
I0110 21:04:57.165921 53034 layer_factory.hpp:78] Creating layer binactive5
I0110 21:04:57.165937 53034 net.cpp:84] Creating Layer binactive5
I0110 21:04:57.165946 53034 net.cpp:406] binactive5 <- pool5
I0110 21:04:57.165963 53034 net.cpp:380] binactive5 -> binactive5
I0110 21:04:57.166004 53034 net.cpp:122] Setting up binactive5
I0110 21:04:57.166018 53034 net.cpp:129] Top shape: 256 256 6 6 (2359296)
I0110 21:04:57.166023 53034 net.cpp:137] Memory required for data: 2612269056
I0110 21:04:57.166029 53034 layer_factory.hpp:78] Creating layer fc6
I0110 21:04:57.166071 53034 net.cpp:84] Creating Layer fc6
I0110 21:04:57.166081 53034 net.cpp:406] fc6 <- binactive5
I0110 21:04:57.166101 53034 net.cpp:380] fc6 -> fc6
I0110 21:05:00.710755 53034 net.cpp:122] Setting up fc6
I0110 21:05:00.711484 53034 net.cpp:129] Top shape: 256 4096 (1048576)
I0110 21:05:00.711493 53034 net.cpp:137] Memory required for data: 2616463360
I0110 21:05:00.711540 53034 layer_factory.hpp:78] Creating layer bn7
I0110 21:05:00.711591 53034 net.cpp:84] Creating Layer bn7
I0110 21:05:00.711609 53034 net.cpp:406] bn7 <- fc6
I0110 21:05:00.711642 53034 net.cpp:367] bn7 -> fc6 (in-place)
I0110 21:05:00.711930 53034 net.cpp:122] Setting up bn7
I0110 21:05:00.711942 53034 net.cpp:129] Top shape: 256 4096 (1048576)
I0110 21:05:00.711946 53034 net.cpp:137] Memory required for data: 2620657664
I0110 21:05:00.711968 53034 layer_factory.hpp:78] Creating layer scale7
I0110 21:05:00.711995 53034 net.cpp:84] Creating Layer scale7
I0110 21:05:00.712002 53034 net.cpp:406] scale7 <- fc6
I0110 21:05:00.712018 53034 net.cpp:367] scale7 -> fc6 (in-place)
I0110 21:05:00.712100 53034 layer_factory.hpp:78] Creating layer scale7
I0110 21:05:00.712286 53034 net.cpp:122] Setting up scale7
I0110 21:05:00.712298 53034 net.cpp:129] Top shape: 256 4096 (1048576)
I0110 21:05:00.712302 53034 net.cpp:137] Memory required for data: 2624851968
I0110 21:05:00.712318 53034 layer_factory.hpp:78] Creating layer binactive6
I0110 21:05:00.712335 53034 net.cpp:84] Creating Layer binactive6
I0110 21:05:00.712350 53034 net.cpp:406] binactive6 <- fc6
I0110 21:05:00.712368 53034 net.cpp:380] binactive6 -> binactive6
I0110 21:05:00.712414 53034 net.cpp:122] Setting up binactive6
I0110 21:05:00.712429 53034 net.cpp:129] Top shape: 256 4096 (1048576)
I0110 21:05:00.712435 53034 net.cpp:137] Memory required for data: 2629046272
I0110 21:05:00.712440 53034 layer_factory.hpp:78] Creating layer fc7
I0110 21:05:00.712473 53034 net.cpp:84] Creating Layer fc7
I0110 21:05:00.712481 53034 net.cpp:406] fc7 <- binactive6
I0110 21:05:00.712499 53034 net.cpp:380] fc7 -> fc7
I0110 21:05:02.269769 53034 net.cpp:122] Setting up fc7
I0110 21:05:02.269821 53034 net.cpp:129] Top shape: 256 4096 (1048576)
I0110 21:05:02.269827 53034 net.cpp:137] Memory required for data: 2633240576
I0110 21:05:02.269866 53034 layer_factory.hpp:78] Creating layer bn8
I0110 21:05:02.269913 53034 net.cpp:84] Creating Layer bn8
I0110 21:05:02.269942 53034 net.cpp:406] bn8 <- fc7
I0110 21:05:02.269975 53034 net.cpp:367] bn8 -> fc7 (in-place)
I0110 21:05:02.270242 53034 net.cpp:122] Setting up bn8
I0110 21:05:02.270254 53034 net.cpp:129] Top shape: 256 4096 (1048576)
I0110 21:05:02.270257 53034 net.cpp:137] Memory required for data: 2637434880
I0110 21:05:02.270280 53034 layer_factory.hpp:78] Creating layer scale8
I0110 21:05:02.270304 53034 net.cpp:84] Creating Layer scale8
I0110 21:05:02.270311 53034 net.cpp:406] scale8 <- fc7
I0110 21:05:02.270326 53034 net.cpp:367] scale8 -> fc7 (in-place)
I0110 21:05:02.270419 53034 layer_factory.hpp:78] Creating layer scale8
I0110 21:05:02.270609 53034 net.cpp:122] Setting up scale8
I0110 21:05:02.270644 53034 net.cpp:129] Top shape: 256 4096 (1048576)
I0110 21:05:02.270660 53034 net.cpp:137] Memory required for data: 2641629184
I0110 21:05:02.270676 53034 layer_factory.hpp:78] Creating layer relu7
I0110 21:05:02.270695 53034 net.cpp:84] Creating Layer relu7
I0110 21:05:02.270704 53034 net.cpp:406] relu7 <- fc7
I0110 21:05:02.270718 53034 net.cpp:367] relu7 -> fc7 (in-place)
I0110 21:05:02.271700 53034 net.cpp:122] Setting up relu7
I0110 21:05:02.271728 53034 net.cpp:129] Top shape: 256 4096 (1048576)
I0110 21:05:02.271736 53034 net.cpp:137] Memory required for data: 2645823488
I0110 21:05:02.271749 53034 layer_factory.hpp:78] Creating layer fc8
I0110 21:05:02.271811 53034 net.cpp:84] Creating Layer fc8
I0110 21:05:02.271819 53034 net.cpp:406] fc8 <- fc7
I0110 21:05:02.271853 53034 net.cpp:380] fc8 -> fc8
I0110 21:05:02.665156 53034 net.cpp:122] Setting up fc8
I0110 21:05:02.665208 53034 net.cpp:129] Top shape: 256 1000 (256000)
I0110 21:05:02.665213 53034 net.cpp:137] Memory required for data: 2646847488
I0110 21:05:02.665251 53034 layer_factory.hpp:78] Creating layer fc8_fc8_0_split
I0110 21:05:02.665287 53034 net.cpp:84] Creating Layer fc8_fc8_0_split
I0110 21:05:02.665302 53034 net.cpp:406] fc8_fc8_0_split <- fc8
I0110 21:05:02.665329 53034 net.cpp:380] fc8_fc8_0_split -> fc8_fc8_0_split_0
I0110 21:05:02.665364 53034 net.cpp:380] fc8_fc8_0_split -> fc8_fc8_0_split_1
I0110 21:05:02.665379 53034 net.cpp:380] fc8_fc8_0_split -> fc8_fc8_0_split_2
I0110 21:05:02.665453 53034 net.cpp:122] Setting up fc8_fc8_0_split
I0110 21:05:02.665465 53034 net.cpp:129] Top shape: 256 1000 (256000)
I0110 21:05:02.665472 53034 net.cpp:129] Top shape: 256 1000 (256000)
I0110 21:05:02.665475 53034 net.cpp:129] Top shape: 256 1000 (256000)
I0110 21:05:02.665479 53034 net.cpp:137] Memory required for data: 2649919488
I0110 21:05:02.665485 53034 layer_factory.hpp:78] Creating layer loss
I0110 21:05:02.665515 53034 net.cpp:84] Creating Layer loss
I0110 21:05:02.665524 53034 net.cpp:406] loss <- fc8_fc8_0_split_0
I0110 21:05:02.665535 53034 net.cpp:406] loss <- label_data_1_split_0
I0110 21:05:02.665547 53034 net.cpp:380] loss -> loss
…
I0110 21:05:02.670723 53034 net.cpp:294] The NetState phase (1) differed from the phase (0) specified by a rule in layer data
I0110 21:05:02.670943 53034 net.cpp:51] Initializing net from parameters: 
name: "AlexNet-BN"
state {
  phase: TEST
}
layer {
  name: "data"
  type: "Data"
  top: "data"
  top: "label"
  include {
    phase: TEST
  }
  transform_param {
    mirror: false
    crop_size: 224
    mean_value: 104
    mean_value: 117
    mean_value: 123
  }
  data_param {
    source: "/home/zhengzhe/Data/imagenet_shrt256/ilsvrc12_val_lmdb"
    batch_size: 50
    backend: LMDB
  }
}
layer {
  name: "conv1"
  type: "Convolution"
  bottom: "data"
  top: "conv1"
  param {
    lr_mult: 1
    decay_mult: 1
  }
  convolution_param {
    num_output: 96
    bias_term: false
    pad: 2
    kernel_size: 11
    stride: 4
    weight_filler {
      type: "msra"
    }
  }
}
layer {
  name: "bn1"
  type: "BatchNorm"
  bottom: "conv1"
  top: "conv1"
}
layer {
  name: "scale1"
  type: "Scale"
  bottom: "conv1"
  top: "conv1"
  scale_param {
    bias_term: true
  }
}
layer {
  name: "relu1"
  type: "ReLU"
  bottom: "conv1"
  top: "conv1"
}
layer {
  name: "pool1"
  type: "Pooling"
  bottom: "conv1"
  top: "pool1"
  pooling_param {
    pool: MAX
    kernel_size: 3
    stride: 2
  }
}
layer {
  name: "bn2"
  type: "BatchNorm"
  bottom: "pool1"
  top: "pool1"
}
layer {
  name: "scale2"
  type: "Scale"
  bottom: "pool1"
  top: "pool1"
  scale_param {
    bias_term: true
  }
}
layer {
  name: "binactive1"
  type: "BinActive"
  bottom: "pool1"
  top: "binactive1"
}
layer {
  name: "conv2"
  type: "BinaryConvolution"
  bottom: "binactive1"
  top: "conv2"
  param {
    lr_mult: 1
    decay_mult: 1
  }
  convolution_param {
    num_output: 256
    bias_term: false
    pad: 2
    kernel_size: 5
    weight_filler {
      type: "msra"
    }
  }
  debug_param {
    xnorno_grad: true
  }
}
layer {
  name: "pool2"
  type: "Pooling"
  bottom: "conv2"
  top: "pool2"
  pooling_param {
    pool: MAX
    kernel_size: 3
    stride: 2
  }
}
layer {
  name: "bn3"
  type: "BatchNorm"
  bottom: "pool2"
  top: "pool2"
}
layer {
  name: "scale3"
  type: "Scale"
  bottom: "pool2"
  top: "pool2"
  scale_param {
    bias_term: true
  }
}
layer {
  name: "binactive2"
  type: "BinActive"
  bottom: "pool2"
  top: "binactive2"
}
layer {
  name: "conv3"
  type: "BinaryConvolution"
  bottom: "binactive2"
  top: "conv3"
  param {
    lr_mult: 1
    decay_mult: 1
  }
  convolution_param {
    num_output: 384
    bias_term: false
    pad: 1
    kernel_size: 3
    weight_filler {
      type: "msra"
    }
  }
  debug_param {
    xnorno_grad: true
  }
}
layer {
  name: "bn4"
  type: "BatchNorm"
  bottom: "conv3"
  top: "conv3"
}
layer {
  name: "scale4"
  type: "Scale"
  bottom: "conv3"
  top: "conv3"
  scale_param {
    bias_term: true
  }
}
layer {
  name: "binactive3"
  type: "BinActive"
  bottom: "conv3"
  top: "binactive3"
}
layer {
  name: "conv4"
  type: "BinaryConvolution"
  bottom: "binactive3"
  top: "conv4"
  param {
    lr_mult: 1
    decay_mult: 1
  }
  convolution_param {
    num_output: 384
    bias_term: false
    pad: 1
    kernel_size: 3
    weight_filler {
      type: "msra"
    }
  }
  debug_param {
    xnorno_grad: true
  }
}
layer {
  name: "bn5"
  type: "BatchNorm"
  bottom: "conv4"
  top: "conv4"
}
layer {
  name: "scale5"
  type: "Scale"
  bottom: "conv4"
  top: "conv4"
  scale_param {
    bias_term: true
  }
}
layer {
  name: "binactive4"
  type: "BinActive"
  bottom: "conv4"
  top: "binactive4"
}
layer {
  name: "conv5"
  type: "BinaryConvolution"
  bottom: "binactive4"
  top: "conv5"
  param {
    lr_mult: 1
    decay_mult: 1
  }
  convolution_param {
    num_output: 256
    bias_term: false
    pad: 1
    kernel_size: 3
    weight_filler {
      type: "msra"
    }
  }
  debug_param {
    xnorno_grad: true
  }
}
layer {
  name: "pool5"
  type: "Pooling"
  bottom: "conv5"
  top: "pool5"
  pooling_param {
    pool: MAX
    kernel_size: 3
    stride: 2
  }
}
layer {
  name: "bn6"
  type: "BatchNorm"
  bottom: "pool5"
  top: "pool5"
}
layer {
  name: "scale6"
  type: "Scale"
  bottom: "pool5"
  top: "pool5"
  scale_param {
    bias_term: true
  }
}
layer {
  name: "binactive5"
  type: "BinActive"
  bottom: "pool5"
  top: "binactive5"
}
layer {
  name: "fc6"
  type: "BinaryInnerProduct"
  bottom: "binactive5"
  top: "fc6"
  param {
    lr_mult: 1
    decay_mult: 1
  }
  inner_product_param {
    num_output: 4096
    bias_term: false
    weight_filler {
      type: "msra"
    }
  }
  debug_param {
    xnorno_grad: true
  }
}
layer {
  name: "bn7"
  type: "BatchNorm"
  bottom: "fc6"
  top: "fc6"
}
layer {
  name: "scale7"
  type: "Scale"
  bottom: "fc6"
  top: "fc6"
  scale_param {
    bias_term: true
  }
}
layer {
  name: "binactive6"
  type: "BinActive"
  bottom: "fc6"
  top: "binactive6"
}
layer {
  name: "fc7"
  type: "BinaryInnerProduct"
  bottom: "binactive6"
  top: "fc7"
  param {
    lr_mult: 1
    decay_mult: 1
  }
  inner_product_param {
    num_output: 4096
    bias_term: false
    weight_filler {
      type: "msra"
    }
  }
  debug_param {
    xnorno_grad: true
  }
}
layer {
  name: "bn8"
  type: "BatchNorm"
  bottom: "fc7"
  top: "fc7"
}
layer {
  name: "scale8"
  type: "Scale"
  bottom: "fc7"
  top: "fc7"
  scale_param {
    bias_term: true
  }
}
layer {
  name: "relu7"
  type: "ReLU"
  bottom: "fc7"
  top: "fc7"
}
layer {
  name: "fc8"
  type: "InnerProduct"
  bottom: "fc7"
  top: "fc8"
  param {
    lr_mult: 1
    decay_mult: 1
  }
  param {
    lr_mult: 2
    decay_mult: 0
  }
  inner_product_param {
    num_output: 1000
    weight_filler {
      type: "msra"
    }
    bias_filler {
      type: "constant"
      value: 0
    }
  }
}
layer {
  name: "loss"
  type: "SoftmaxWithLoss"
  bottom: "fc8"
  bottom: "label"
  top: "loss"
}
layer {
  name: "accuracy"
  type: "Accuracy"
  bottom: "fc8"
  bottom: "label"
  top: "accuracy"
}
layer {
  name: "accuracy_5"
  type: "Accuracy"
  bottom: "fc8"
  bottom: "label"
  top: "accuracy_5"
  accuracy_param {
    top_k: 5
  }
}
I0110 21:05:02.671325 53034 layer_factory.hpp:78] Creating layer data
I0110 21:05:02.690214 53034 db_lmdb.cpp:35] Opened lmdb /home/zhengzhe/Data/imagenet_shrt256/ilsvrc12_val_lmdb
I0110 21:05:02.690316 53034 net.cpp:84] Creating Layer data
I0110 21:05:02.690387 53034 net.cpp:380] data -> data
I0110 21:05:02.690474 53034 net.cpp:380] data -> label
I0110 21:05:02.691160 53034 data_layer.cpp:45] output data size: 50,3,224,224
I0110 21:05:03.169194 53034 base_data_layer.cpp:72] Initializing prefetch
I0110 21:05:03.836823 53034 base_data_layer.cpp:75] Prefetch initialized.
I0110 21:05:03.836884 53034 net.cpp:122] Setting up data
I0110 21:05:03.836943 53034 net.cpp:129] Top shape: 50 3 224 224 (7526400)
I0110 21:05:03.836956 53034 net.cpp:129] Top shape: 50 (50)
I0110 21:05:03.836958 53034 net.cpp:137] Memory required for data: 30105800
I0110 21:05:03.836992 53034 layer_factory.hpp:78] Creating layer label_data_1_split
I0110 21:05:03.837049 53034 net.cpp:84] Creating Layer label_data_1_split
I0110 21:05:03.837066 53034 net.cpp:406] label_data_1_split <- label
I0110 21:05:03.837100 53034 net.cpp:380] label_data_1_split -> label_data_1_split_0
I0110 21:05:03.837138 53034 net.cpp:380] label_data_1_split -> label_data_1_split_1
I0110 21:05:03.837153 53034 net.cpp:380] label_data_1_split -> label_data_1_split_2
I0110 21:05:03.837430 53034 net.cpp:122] Setting up label_data_1_split
I0110 21:05:03.837445 53034 net.cpp:129] Top shape: 50 (50)
I0110 21:05:03.837450 53034 net.cpp:129] Top shape: 50 (50)
I0110 21:05:03.837455 53034 net.cpp:129] Top shape: 50 (50)
I0110 21:05:03.837457 53034 net.cpp:137] Memory required for data: 30106400
I0110 21:05:03.837462 53034 layer_factory.hpp:78] Creating layer conv1
I0110 21:05:03.837508 53034 net.cpp:84] Creating Layer conv1
I0110 21:05:03.837517 53034 net.cpp:406] conv1 <- data
I0110 21:05:03.837538 53034 net.cpp:380] conv1 -> conv1
I0110 21:05:03.852308 53034 cudnn_conv_layer.cpp:194] Reallocating workspace storage: 127416
I0110 21:05:03.852449 53034 net.cpp:122] Setting up conv1
I0110 21:05:03.852490 53034 net.cpp:129] Top shape: 50 96 55 55 (14520000)
I0110 21:05:03.852524 53034 net.cpp:137] Memory required for data: 88186400
I0110 21:05:03.852594 53034 layer_factory.hpp:78] Creating layer bn1
I0110 21:05:03.852651 53034 net.cpp:84] Creating Layer bn1
I0110 21:05:03.852686 53034 net.cpp:406] bn1 <- conv1
I0110 21:05:03.852726 53034 net.cpp:367] bn1 -> conv1 (in-place)
I0110 21:05:03.853169 53034 net.cpp:122] Setting up bn1
I0110 21:05:03.853212 53034 net.cpp:129] Top shape: 50 96 55 55 (14520000)
I0110 21:05:03.853231 53034 net.cpp:137] Memory required for data: 146266400
I0110 21:05:03.853304 53034 layer_factory.hpp:78] Creating layer scale1
I0110 21:05:03.853374 53034 net.cpp:84] Creating Layer scale1
I0110 21:05:03.853402 53034 net.cpp:406] scale1 <- conv1
I0110 21:05:03.853440 53034 net.cpp:367] scale1 -> conv1 (in-place)
I0110 21:05:03.853571 53034 layer_factory.hpp:78] Creating layer scale1
I0110 21:05:03.853885 53034 net.cpp:122] Setting up scale1
I0110 21:05:03.853945 53034 net.cpp:129] Top shape: 50 96 55 55 (14520000)
I0110 21:05:03.853971 53034 net.cpp:137] Memory required for data: 204346400
I0110 21:05:03.854056 53034 layer_factory.hpp:78] Creating layer relu1
I0110 21:05:03.854109 53034 net.cpp:84] Creating Layer relu1
I0110 21:05:03.854140 53034 net.cpp:406] relu1 <- conv1
I0110 21:05:03.854172 53034 net.cpp:367] relu1 -> conv1 (in-place)
I0110 21:05:03.855108 53034 net.cpp:122] Setting up relu1
I0110 21:05:03.855152 53034 net.cpp:129] Top shape: 50 96 55 55 (14520000)
I0110 21:05:03.855172 53034 net.cpp:137] Memory required for data: 262426400
I0110 21:05:03.855196 53034 layer_factory.hpp:78] Creating layer pool1
I0110 21:05:03.855242 53034 net.cpp:84] Creating Layer pool1
I0110 21:05:03.855268 53034 net.cpp:406] pool1 <- conv1
I0110 21:05:03.855315 53034 net.cpp:380] pool1 -> pool1
I0110 21:05:03.855453 53034 net.cpp:122] Setting up pool1
I0110 21:05:03.855497 53034 net.cpp:129] Top shape: 50 96 27 27 (3499200)
I0110 21:05:03.855518 53034 net.cpp:137] Memory required for data: 276423200
I0110 21:05:03.855541 53034 layer_factory.hpp:78] Creating layer bn2
I0110 21:05:03.855577 53034 net.cpp:84] Creating Layer bn2
I0110 21:05:03.855599 53034 net.cpp:406] bn2 <- pool1
I0110 21:05:03.855650 53034 net.cpp:367] bn2 -> pool1 (in-place)
I0110 21:05:03.856052 53034 net.cpp:122] Setting up bn2
I0110 21:05:03.856088 53034 net.cpp:129] Top shape: 50 96 27 27 (3499200)
I0110 21:05:03.856122 53034 net.cpp:137] Memory required for data: 290420000
I0110 21:05:03.856189 53034 layer_factory.hpp:78] Creating layer scale2
I0110 21:05:03.856245 53034 net.cpp:84] Creating Layer scale2
I0110 21:05:03.856281 53034 net.cpp:406] scale2 <- pool1
I0110 21:05:03.856325 53034 net.cpp:367] scale2 -> pool1 (in-place)
I0110 21:05:03.856454 53034 layer_factory.hpp:78] Creating layer scale2
I0110 21:05:03.856740 53034 net.cpp:122] Setting up scale2
I0110 21:05:03.856781 53034 net.cpp:129] Top shape: 50 96 27 27 (3499200)
I0110 21:05:03.856798 53034 net.cpp:137] Memory required for data: 304416800
I0110 21:05:03.856834 53034 layer_factory.hpp:78] Creating layer binactive1
I0110 21:05:03.856866 53034 net.cpp:84] Creating Layer binactive1
I0110 21:05:03.856892 53034 net.cpp:406] binactive1 <- pool1
I0110 21:05:03.856926 53034 net.cpp:380] binactive1 -> binactive1
I0110 21:05:03.857005 53034 net.cpp:122] Setting up binactive1
I0110 21:05:03.857040 53034 net.cpp:129] Top shape: 50 96 27 27 (3499200)
I0110 21:05:03.857062 53034 net.cpp:137] Memory required for data: 318413600
I0110 21:05:03.857081 53034 layer_factory.hpp:78] Creating layer conv2
I0110 21:05:03.857138 53034 net.cpp:84] Creating Layer conv2
I0110 21:05:03.857172 53034 net.cpp:406] conv2 <- binactive1
I0110 21:05:03.857215 53034 net.cpp:380] conv2 -> conv2
I0110 21:05:03.954910 53034 cudnn_binary_conv_layer.cpp:194] Reallocating workspace storage: 19668
I0110 21:05:03.955072 53034 net.cpp:122] Setting up conv2
I0110 21:05:03.955143 53034 net.cpp:129] Top shape: 50 256 27 27 (9331200)
I0110 21:05:03.955175 53034 net.cpp:137] Memory required for data: 355738400
I0110 21:05:03.955255 53034 layer_factory.hpp:78] Creating layer pool2
I0110 21:05:03.955381 53034 net.cpp:84] Creating Layer pool2
I0110 21:05:03.955425 53034 net.cpp:406] pool2 <- conv2
I0110 21:05:03.955487 53034 net.cpp:380] pool2 -> pool2
I0110 21:05:03.955649 53034 net.cpp:122] Setting up pool2
I0110 21:05:03.955701 53034 net.cpp:129] Top shape: 50 256 13 13 (2163200)
I0110 21:05:03.955725 53034 net.cpp:137] Memory required for data: 364391200
I0110 21:05:03.955751 53034 layer_factory.hpp:78] Creating layer bn3
I0110 21:05:03.955804 53034 net.cpp:84] Creating Layer bn3
I0110 21:05:03.955834 53034 net.cpp:406] bn3 <- pool2
I0110 21:05:03.955876 53034 net.cpp:367] bn3 -> pool2 (in-place)
I0110 21:05:03.956439 53034 net.cpp:122] Setting up bn3
I0110 21:05:03.956480 53034 net.cpp:129] Top shape: 50 256 13 13 (2163200)
I0110 21:05:03.956503 53034 net.cpp:137] Memory required for data: 373044000
I0110 21:05:03.956558 53034 layer_factory.hpp:78] Creating layer scale3
I0110 21:05:03.956629 53034 net.cpp:84] Creating Layer scale3
I0110 21:05:03.956661 53034 net.cpp:406] scale3 <- pool2
I0110 21:05:03.956737 53034 net.cpp:367] scale3 -> pool2 (in-place)
I0110 21:05:03.956930 53034 layer_factory.hpp:78] Creating layer scale3
I0110 21:05:03.957337 53034 net.cpp:122] Setting up scale3
I0110 21:05:03.957394 53034 net.cpp:129] Top shape: 50 256 13 13 (2163200)
I0110 21:05:03.957419 53034 net.cpp:137] Memory required for data: 381696800
I0110 21:05:03.957489 53034 layer_factory.hpp:78] Creating layer binactive2
I0110 21:05:03.957535 53034 net.cpp:84] Creating Layer binactive2
I0110 21:05:03.957563 53034 net.cpp:406] binactive2 <- pool2
I0110 21:05:03.957609 53034 net.cpp:380] binactive2 -> binactive2
I0110 21:05:03.957723 53034 net.cpp:122] Setting up binactive2
I0110 21:05:03.957770 53034 net.cpp:129] Top shape: 50 256 13 13 (2163200)
I0110 21:05:03.957795 53034 net.cpp:137] Memory required for data: 390349600
I0110 21:05:03.957818 53034 layer_factory.hpp:78] Creating layer conv3
I0110 21:05:03.957885 53034 net.cpp:84] Creating Layer conv3
I0110 21:05:03.957934 53034 net.cpp:406] conv3 <- binactive2
I0110 21:05:03.957985 53034 net.cpp:380] conv3 -> conv3
I0110 21:05:04.119176 53034 cudnn_binary_conv_layer.cpp:194] Reallocating workspace storage: 18874368
I0110 21:05:04.119705 53034 net.cpp:122] Setting up conv3
I0110 21:05:04.119772 53034 net.cpp:129] Top shape: 50 384 13 13 (3244800)
I0110 21:05:04.119807 53034 net.cpp:137] Memory required for data: 403328800
I0110 21:05:04.119865 53034 layer_factory.hpp:78] Creating layer bn4
I0110 21:05:04.119966 53034 net.cpp:84] Creating Layer bn4
I0110 21:05:04.120005 53034 net.cpp:406] bn4 <- conv3
I0110 21:05:04.120064 53034 net.cpp:367] bn4 -> conv3 (in-place)
I0110 21:05:04.120574 53034 net.cpp:122] Setting up bn4
I0110 21:05:04.120611 53034 net.cpp:129] Top shape: 50 384 13 13 (3244800)
I0110 21:05:04.120635 53034 net.cpp:137] Memory required for data: 416308000
I0110 21:05:04.120682 53034 layer_factory.hpp:78] Creating layer scale4
I0110 21:05:04.120735 53034 net.cpp:84] Creating Layer scale4
I0110 21:05:04.120771 53034 net.cpp:406] scale4 <- conv3
I0110 21:05:04.120817 53034 net.cpp:367] scale4 -> conv3 (in-place)
I0110 21:05:04.120996 53034 layer_factory.hpp:78] Creating layer scale4
I0110 21:05:04.121351 53034 net.cpp:122] Setting up scale4
I0110 21:05:04.121393 53034 net.cpp:129] Top shape: 50 384 13 13 (3244800)
I0110 21:05:04.121419 53034 net.cpp:137] Memory required for data: 429287200
I0110 21:05:04.121455 53034 layer_factory.hpp:78] Creating layer binactive3
I0110 21:05:04.121500 53034 net.cpp:84] Creating Layer binactive3
I0110 21:05:04.121531 53034 net.cpp:406] binactive3 <- conv3
I0110 21:05:04.121575 53034 net.cpp:380] binactive3 -> binactive3
I0110 21:05:04.121675 53034 net.cpp:122] Setting up binactive3
I0110 21:05:04.121714 53034 net.cpp:129] Top shape: 50 384 13 13 (3244800)
I0110 21:05:04.121737 53034 net.cpp:137] Memory required for data: 442266400
I0110 21:05:04.121762 53034 layer_factory.hpp:78] Creating layer conv4
I0110 21:05:04.121826 53034 net.cpp:84] Creating Layer conv4
I0110 21:05:04.121863 53034 net.cpp:406] conv4 <- binactive3
I0110 21:05:04.121917 53034 net.cpp:380] conv4 -> conv4
I0110 21:05:04.379521 53034 cudnn_binary_conv_layer.cpp:194] Reallocating workspace storage: 9840
I0110 21:05:04.379593 53034 net.cpp:122] Setting up conv4
I0110 21:05:04.379621 53034 net.cpp:129] Top shape: 50 384 13 13 (3244800)
I0110 21:05:04.379627 53034 net.cpp:137] Memory required for data: 455245600
I0110 21:05:04.379667 53034 layer_factory.hpp:78] Creating layer bn5
I0110 21:05:04.379714 53034 net.cpp:84] Creating Layer bn5
I0110 21:05:04.379731 53034 net.cpp:406] bn5 <- conv4
I0110 21:05:04.379765 53034 net.cpp:367] bn5 -> conv4 (in-place)
I0110 21:05:04.380126 53034 net.cpp:122] Setting up bn5
I0110 21:05:04.380141 53034 net.cpp:129] Top shape: 50 384 13 13 (3244800)
I0110 21:05:04.380146 53034 net.cpp:137] Memory required for data: 468224800
I0110 21:05:04.380173 53034 layer_factory.hpp:78] Creating layer scale5
I0110 21:05:04.380198 53034 net.cpp:84] Creating Layer scale5
I0110 21:05:04.380205 53034 net.cpp:406] scale5 <- conv4
I0110 21:05:04.380220 53034 net.cpp:367] scale5 -> conv4 (in-place)
I0110 21:05:04.380337 53034 layer_factory.hpp:78] Creating layer scale5
I0110 21:05:04.380607 53034 net.cpp:122] Setting up scale5
I0110 21:05:04.380625 53034 net.cpp:129] Top shape: 50 384 13 13 (3244800)
I0110 21:05:04.380630 53034 net.cpp:137] Memory required for data: 481204000
I0110 21:05:04.380648 53034 layer_factory.hpp:78] Creating layer binactive4
I0110 21:05:04.380666 53034 net.cpp:84] Creating Layer binactive4
I0110 21:05:04.380676 53034 net.cpp:406] binactive4 <- conv4
I0110 21:05:04.380692 53034 net.cpp:380] binactive4 -> binactive4
I0110 21:05:04.380743 53034 net.cpp:122] Setting up binactive4
I0110 21:05:04.380770 53034 net.cpp:129] Top shape: 50 384 13 13 (3244800)
I0110 21:05:04.380775 53034 net.cpp:137] Memory required for data: 494183200
I0110 21:05:04.380782 53034 layer_factory.hpp:78] Creating layer conv5
I0110 21:05:04.380813 53034 net.cpp:84] Creating Layer conv5
I0110 21:05:04.380823 53034 net.cpp:406] conv5 <- binactive4
I0110 21:05:04.380846 53034 net.cpp:380] conv5 -> conv5
I0110 21:05:04.497203 53034 cudnn_binary_conv_layer.cpp:194] Reallocating workspace storage: 18874368
I0110 21:05:04.497696 53034 net.cpp:122] Setting up conv5
I0110 21:05:04.497745 53034 net.cpp:129] Top shape: 50 256 13 13 (2163200)
I0110 21:05:04.497753 53034 net.cpp:137] Memory required for data: 502836000
I0110 21:05:04.497802 53034 layer_factory.hpp:78] Creating layer pool5
I0110 21:05:04.497886 53034 net.cpp:84] Creating Layer pool5
I0110 21:05:04.497911 53034 net.cpp:406] pool5 <- conv5
I0110 21:05:04.497965 53034 net.cpp:380] pool5 -> pool5
I0110 21:05:04.498088 53034 net.cpp:122] Setting up pool5
I0110 21:05:04.498107 53034 net.cpp:129] Top shape: 50 256 6 6 (460800)
I0110 21:05:04.498113 53034 net.cpp:137] Memory required for data: 504679200
I0110 21:05:04.498121 53034 layer_factory.hpp:78] Creating layer bn6
I0110 21:05:04.498138 53034 net.cpp:84] Creating Layer bn6
I0110 21:05:04.498147 53034 net.cpp:406] bn6 <- pool5
I0110 21:05:04.498167 53034 net.cpp:367] bn6 -> pool5 (in-place)
I0110 21:05:04.498646 53034 net.cpp:122] Setting up bn6
I0110 21:05:04.498687 53034 net.cpp:129] Top shape: 50 256 6 6 (460800)
I0110 21:05:04.498697 53034 net.cpp:137] Memory required for data: 506522400
I0110 21:05:04.498762 53034 layer_factory.hpp:78] Creating layer scale6
I0110 21:05:04.498801 53034 net.cpp:84] Creating Layer scale6
I0110 21:05:04.498814 53034 net.cpp:406] scale6 <- pool5
I0110 21:05:04.498852 53034 net.cpp:367] scale6 -> pool5 (in-place)
I0110 21:05:04.498994 53034 layer_factory.hpp:78] Creating layer scale6
I0110 21:05:04.499230 53034 net.cpp:122] Setting up scale6
I0110 21:05:04.499243 53034 net.cpp:129] Top shape: 50 256 6 6 (460800)
I0110 21:05:04.499248 53034 net.cpp:137] Memory required for data: 508365600
I0110 21:05:04.499265 53034 layer_factory.hpp:78] Creating layer binactive5
I0110 21:05:04.499281 53034 net.cpp:84] Creating Layer binactive5
I0110 21:05:04.499290 53034 net.cpp:406] binactive5 <- pool5
I0110 21:05:04.499310 53034 net.cpp:380] binactive5 -> binactive5
I0110 21:05:04.499388 53034 net.cpp:122] Setting up binactive5
I0110 21:05:04.499406 53034 net.cpp:129] Top shape: 50 256 6 6 (460800)
I0110 21:05:04.499414 53034 net.cpp:137] Memory required for data: 510208800
I0110 21:05:04.499433 53034 layer_factory.hpp:78] Creating layer fc6
I0110 21:05:04.499465 53034 net.cpp:84] Creating Layer fc6
I0110 21:05:04.499475 53034 net.cpp:406] fc6 <- binactive5
I0110 21:05:04.499505 53034 net.cpp:380] fc6 -> fc6
I0110 21:05:08.340719 53034 net.cpp:122] Setting up fc6
I0110 21:05:08.340803 53034 net.cpp:129] Top shape: 50 4096 (204800)
I0110 21:05:08.340811 53034 net.cpp:137] Memory required for data: 511028000
I0110 21:05:08.340890 53034 layer_factory.hpp:78] Creating layer bn7
I0110 21:05:08.340991 53034 net.cpp:84] Creating Layer bn7
I0110 21:05:08.341042 53034 net.cpp:406] bn7 <- fc6
I0110 21:05:08.341109 53034 net.cpp:367] bn7 -> fc6 (in-place)
I0110 21:05:08.341509 53034 net.cpp:122] Setting up bn7
I0110 21:05:08.341526 53034 net.cpp:129] Top shape: 50 4096 (204800)
I0110 21:05:08.341576 53034 net.cpp:137] Memory required for data: 511847200
I0110 21:05:08.341634 53034 layer_factory.hpp:78] Creating layer scale7
I0110 21:05:08.341691 53034 net.cpp:84] Creating Layer scale7
I0110 21:05:08.341706 53034 net.cpp:406] scale7 <- fc6
I0110 21:05:08.341732 53034 net.cpp:367] scale7 -> fc6 (in-place)
I0110 21:05:08.341890 53034 layer_factory.hpp:78] Creating layer scale7
I0110 21:05:08.342133 53034 net.cpp:122] Setting up scale7
I0110 21:05:08.342147 53034 net.cpp:129] Top shape: 50 4096 (204800)
I0110 21:05:08.342154 53034 net.cpp:137] Memory required for data: 512666400
I0110 21:05:08.342180 53034 layer_factory.hpp:78] Creating layer binactive6
I0110 21:05:08.342239 53034 net.cpp:84] Creating Layer binactive6
I0110 21:05:08.342258 53034 net.cpp:406] binactive6 <- fc6
I0110 21:05:08.342329 53034 net.cpp:380] binactive6 -> binactive6
I0110 21:05:08.342471 53034 net.cpp:122] Setting up binactive6
I0110 21:05:08.342502 53034 net.cpp:129] Top shape: 50 4096 (204800)
I0110 21:05:08.342546 53034 net.cpp:137] Memory required for data: 513485600
I0110 21:05:08.342586 53034 layer_factory.hpp:78] Creating layer fc7
I0110 21:05:08.342689 53034 net.cpp:84] Creating Layer fc7
I0110 21:05:08.342710 53034 net.cpp:406] fc7 <- binactive6
I0110 21:05:08.342784 53034 net.cpp:380] fc7 -> fc7
I0110 21:05:09.925725 53034 net.cpp:122] Setting up fc7
I0110 21:05:09.925786 53034 net.cpp:129] Top shape: 50 4096 (204800)
I0110 21:05:09.925792 53034 net.cpp:137] Memory required for data: 514304800
I0110 21:05:09.925834 53034 layer_factory.hpp:78] Creating layer bn8
I0110 21:05:09.925902 53034 net.cpp:84] Creating Layer bn8
I0110 21:05:09.925923 53034 net.cpp:406] bn8 <- fc7
I0110 21:05:09.925952 53034 net.cpp:367] bn8 -> fc7 (in-place)
I0110 21:05:09.926272 53034 net.cpp:122] Setting up bn8
I0110 21:05:09.926283 53034 net.cpp:129] Top shape: 50 4096 (204800)
I0110 21:05:09.926286 53034 net.cpp:137] Memory required for data: 515124000
I0110 21:05:09.926309 53034 layer_factory.hpp:78] Creating layer scale8
I0110 21:05:09.926334 53034 net.cpp:84] Creating Layer scale8
I0110 21:05:09.926350 53034 net.cpp:406] scale8 <- fc7
I0110 21:05:09.926368 53034 net.cpp:367] scale8 -> fc7 (in-place)
I0110 21:05:09.926461 53034 layer_factory.hpp:78] Creating layer scale8
I0110 21:05:09.926656 53034 net.cpp:122] Setting up scale8
I0110 21:05:09.926668 53034 net.cpp:129] Top shape: 50 4096 (204800)
I0110 21:05:09.926671 53034 net.cpp:137] Memory required for data: 515943200
I0110 21:05:09.926687 53034 layer_factory.hpp:78] Creating layer relu7
I0110 21:05:09.926703 53034 net.cpp:84] Creating Layer relu7
I0110 21:05:09.926709 53034 net.cpp:406] relu7 <- fc7
I0110 21:05:09.926723 53034 net.cpp:367] relu7 -> fc7 (in-place)
I0110 21:05:09.928174 53034 net.cpp:122] Setting up relu7
I0110 21:05:09.928190 53034 net.cpp:129] Top shape: 50 4096 (204800)
I0110 21:05:09.928194 53034 net.cpp:137] Memory required for data: 516762400
I0110 21:05:09.928200 53034 layer_factory.hpp:78] Creating layer fc8
I0110 21:05:09.928226 53034 net.cpp:84] Creating Layer fc8
I0110 21:05:09.928234 53034 net.cpp:406] fc8 <- fc7
I0110 21:05:09.928254 53034 net.cpp:380] fc8 -> fc8
I0110 21:05:10.302271 53034 net.cpp:122] Setting up fc8
I0110 21:05:10.302345 53034 net.cpp:129] Top shape: 50 1000 (50000)
I0110 21:05:10.302350 53034 net.cpp:137] Memory required for data: 516962400
I0110 21:05:10.302386 53034 layer_factory.hpp:78] Creating layer fc8_fc8_0_split
I0110 21:05:10.302424 53034 net.cpp:84] Creating Layer fc8_fc8_0_split
I0110 21:05:10.302441 53034 net.cpp:406] fc8_fc8_0_split <- fc8
I0110 21:05:10.302467 53034 net.cpp:380] fc8_fc8_0_split -> fc8_fc8_0_split_0
I0110 21:05:10.302494 53034 net.cpp:380] fc8_fc8_0_split -> fc8_fc8_0_split_1
I0110 21:05:10.302507 53034 net.cpp:380] fc8_fc8_0_split -> fc8_fc8_0_split_2
I0110 21:05:10.302590 53034 net.cpp:122] Setting up fc8_fc8_0_split
I0110 21:05:10.302603 53034 net.cpp:129] Top shape: 50 1000 (50000)
I0110 21:05:10.302608 53034 net.cpp:129] Top shape: 50 1000 (50000)
I0110 21:05:10.302613 53034 net.cpp:129] Top shape: 50 1000 (50000)
I0110 21:05:10.302639 53034 net.cpp:137] Memory required for data: 517562400
I0110 21:05:10.302646 53034 layer_factory.hpp:78] Creating layer loss
I0110 21:05:10.302669 53034 net.cpp:84] Creating Layer loss
I0110 21:05:10.302676 53034 net.cpp:406] loss <- fc8_fc8_0_split_0
I0110 21:05:10.302690 53034 net.cpp:406] loss <- label_data_1_split_0
I0110 21:05:10.302702 53034 net.cpp:380] loss -> loss
…
