…
I0114 15:47:04.726620  9978 net.cpp:294] The NetState phase (0) differed from the phase (1) specified by a rule in layer data
I0114 15:47:04.726991  9978 net.cpp:51] Initializing net from parameters: 
name: "AlexNet-BN"
state {
  phase: TRAIN
  level: 0
  stage: ""
}
layer {
  name: "data"
  type: "Data"
  top: "data"
  top: "label"
  include {
    phase: TRAIN
  }
  transform_param {
    mirror: true
    crop_size: 224
    mean_value: 104
    mean_value: 117
    mean_value: 123
  }
  data_param {
    source: "/home/zhengzhe/Data/imagenet_shrt256/ilsvrc12_train_lmdb"
    batch_size: 256
    backend: LMDB
  }
}
layer {
  name: "conv1"
  type: "Convolution"
  bottom: "data"
  top: "conv1"
  param {
    lr_mult: 1
    decay_mult: 1
  }
  convolution_param {
    num_output: 96
    bias_term: false
    pad: 2
    kernel_size: 11
    stride: 4
    weight_filler {
      type: "msra"
    }
  }
}
layer {
  name: "bn1"
  type: "BatchNorm"
  bottom: "conv1"
  top: "conv1"
}
layer {
  name: "scale1"
  type: "Scale"
  bottom: "conv1"
  top: "conv1"
  scale_param {
    bias_term: true
  }
}
layer {
  name: "relu1"
  type: "ReLU"
  bottom: "conv1"
  top: "conv1"
}
layer {
  name: "pool1"
  type: "Pooling"
  bottom: "conv1"
  top: "pool1"
  pooling_param {
    pool: MAX
    kernel_size: 3
    stride: 2
  }
}
layer {
  name: "bn2"
  type: "BatchNorm"
  bottom: "pool1"
  top: "pool1"
}
layer {
  name: "scale2"
  type: "Scale"
  bottom: "pool1"
  top: "pool1"
  scale_param {
    bias_term: true
  }
}
layer {
  name: "binactive1"
  type: "BinActive"
  bottom: "pool1"
  top: "binactive1"
}
layer {
  name: "conv2"
  type: "BinaryConvolution"
  bottom: "binactive1"
  top: "conv2"
  param {
    lr_mult: 1
    decay_mult: 1
  }
  convolution_param {
    num_output: 256
    bias_term: false
    pad: 2
    kernel_size: 5
    weight_filler {
      type: "msra"
    }
  }
  debug_param {
    xnorno_grad: true
  }
}
layer {
  name: "pool2"
  type: "Pooling"
  bottom: "conv2"
  top: "pool2"
  pooling_param {
    pool: MAX
    kernel_size: 3
    stride: 2
  }
}
layer {
  name: "bn3"
  type: "BatchNorm"
  bottom: "pool2"
  top: "pool2"
}
layer {
  name: "scale3"
  type: "Scale"
  bottom: "pool2"
  top: "pool2"
  scale_param {
    bias_term: true
  }
}
layer {
  name: "binactive2"
  type: "BinActive"
  bottom: "pool2"
  top: "binactive2"
}
layer {
  name: "conv3"
  type: "BinaryConvolution"
  bottom: "binactive2"
  top: "conv3"
  param {
    lr_mult: 1
    decay_mult: 1
  }
  convolution_param {
    num_output: 384
    bias_term: false
    pad: 1
    kernel_size: 3
    weight_filler {
      type: "msra"
    }
  }
  debug_param {
    xnorno_grad: true
  }
}
layer {
  name: "bn4"
  type: "BatchNorm"
  bottom: "conv3"
  top: "conv3"
}
layer {
  name: "scale4"
  type: "Scale"
  bottom: "conv3"
  top: "conv3"
  scale_param {
    bias_term: true
  }
}
layer {
  name: "binactive3"
  type: "BinActive"
  bottom: "conv3"
  top: "binactive3"
}
layer {
  name: "conv4"
  type: "BinaryConvolution"
  bottom: "binactive3"
  top: "conv4"
  param {
    lr_mult: 1
    decay_mult: 1
  }
  convolution_param {
    num_output: 384
    bias_term: false
    pad: 1
    kernel_size: 3
    weight_filler {
      type: "msra"
    }
  }
  debug_param {
    xnorno_grad: true
  }
}
layer {
  name: "bn5"
  type: "BatchNorm"
  bottom: "conv4"
  top: "conv4"
}
layer {
  name: "scale5"
  type: "Scale"
  bottom: "conv4"
  top: "conv4"
  scale_param {
    bias_term: true
  }
}
layer {
  name: "binactive4"
  type: "BinActive"
  bottom: "conv4"
  top: "binactive4"
}
layer {
  name: "conv5"
  type: "BinaryConvolution"
  bottom: "binactive4"
  top: "conv5"
  param {
    lr_mult: 1
    decay_mult: 1
  }
  convolution_param {
    num_output: 256
    bias_term: false
    pad: 1
    kernel_size: 3
    weight_filler {
      type: "msra"
    }
  }
  debug_param {
    xnorno_grad: true
  }
}
layer {
  name: "pool5"
  type: "Pooling"
  bottom: "conv5"
  top: "pool5"
  pooling_param {
    pool: MAX
    kernel_size: 3
    stride: 2
  }
}
layer {
  name: "bn6"
  type: "BatchNorm"
  bottom: "pool5"
  top: "pool5"
}
layer {
  name: "scale6"
  type: "Scale"
  bottom: "pool5"
  top: "pool5"
  scale_param {
    bias_term: true
  }
}
layer {
  name: "binactive5"
  type: "BinActive"
  bottom: "pool5"
  top: "binactive5"
}
layer {
  name: "fc6"
  type: "BinaryInnerProduct"
  bottom: "binactive5"
  top: "fc6"
  param {
    lr_mult: 1
    decay_mult: 1
  }
  inner_product_param {
    num_output: 4096
    bias_term: false
    weight_filler {
      type: "msra"
    }
  }
  debug_param {
    xnorno_grad: true
  }
}
layer {
  name: "bn7"
  type: "BatchNorm"
  bottom: "fc6"
  top: "fc6"
}
layer {
  name: "scale7"
  type: "Scale"
  bottom: "fc6"
  top: "fc6"
  scale_param {
    bias_term: true
  }
}
layer {
  name: "binactive6"
  type: "BinActive"
  bottom: "fc6"
  top: "binactive6"
}
layer {
  name: "fc7"
  type: "BinaryInnerProduct"
  bottom: "binactive6"
  top: "fc7"
  param {
    lr_mult: 1
    decay_mult: 1
  }
  inner_product_param {
    num_output: 4096
    bias_term: false
    weight_filler {
      type: "msra"
    }
  }
  debug_param {
    xnorno_grad: true
  }
}
layer {
  name: "bn8"
  type: "BatchNorm"
  bottom: "fc7"
  top: "fc7"
}
layer {
  name: "scale8"
  type: "Scale"
  bottom: "fc7"
  top: "fc7"
  scale_param {
    bias_term: true
  }
}
layer {
  name: "relu7"
  type: "ReLU"
  bottom: "fc7"
  top: "fc7"
}
layer {
  name: "fc8"
  type: "InnerProduct"
  bottom: "fc7"
  top: "fc8"
  param {
    lr_mult: 1
    decay_mult: 1
  }
  param {
    lr_mult: 2
    decay_mult: 0
  }
  inner_product_param {
    num_output: 1000
    weight_filler {
      type: "msra"
    }
    bias_filler {
      type: "constant"
      value: 0
    }
  }
}
layer {
  name: "loss"
  type: "SoftmaxWithLoss"
  bottom: "fc8"
  bottom: "label"
  top: "loss"
}
layer {
  name: "accuracy"
  type: "Accuracy"
  bottom: "fc8"
  bottom: "label"
  top: "accuracy"
}
layer {
  name: "accuracy_5"
  type: "Accuracy"
  bottom: "fc8"
  bottom: "label"
  top: "accuracy_5"
  accuracy_param {
    top_k: 5
  }
}
I0114 15:47:04.728119  9978 layer_factory.hpp:78] Creating layer data
I0114 15:47:04.728585  9978 db_lmdb.cpp:35] Opened lmdb /home/zhengzhe/Data/imagenet_shrt256/ilsvrc12_train_lmdb
I0114 15:47:04.728703  9978 net.cpp:84] Creating Layer data
I0114 15:47:04.728745  9978 net.cpp:380] data -> data
I0114 15:47:04.728955  9978 net.cpp:380] data -> label
I0114 15:47:04.732193  9978 data_layer.cpp:45] output data size: 256,3,224,224
I0114 15:47:05.353116  9978 base_data_layer.cpp:72] Initializing prefetch
I0114 15:47:05.353893  9978 base_data_layer.cpp:75] Prefetch initialized.
I0114 15:47:05.353957  9978 net.cpp:122] Setting up data
I0114 15:47:05.354030  9978 net.cpp:129] Top shape: 256 3 224 224 (38535168)
I0114 15:47:05.354068  9978 net.cpp:129] Top shape: 256 (256)
I0114 15:47:05.354092  9978 net.cpp:137] Memory required for data: 154141696
I0114 15:47:05.354156  9978 layer_factory.hpp:78] Creating layer label_data_1_split
I0114 15:47:05.354322  9978 net.cpp:84] Creating Layer label_data_1_split
I0114 15:47:05.354385  9978 net.cpp:406] label_data_1_split <- label
I0114 15:47:05.354495  9978 net.cpp:380] label_data_1_split -> label_data_1_split_0
I0114 15:47:05.354596  9978 net.cpp:380] label_data_1_split -> label_data_1_split_1
I0114 15:47:05.354655  9978 net.cpp:380] label_data_1_split -> label_data_1_split_2
I0114 15:47:05.354841  9978 net.cpp:122] Setting up label_data_1_split
I0114 15:47:05.354884  9978 net.cpp:129] Top shape: 256 (256)
I0114 15:47:05.354920  9978 net.cpp:129] Top shape: 256 (256)
I0114 15:47:05.354954  9978 net.cpp:129] Top shape: 256 (256)
I0114 15:47:05.354977  9978 net.cpp:137] Memory required for data: 154144768
I0114 15:47:05.355001  9978 layer_factory.hpp:78] Creating layer conv1
I0114 15:47:05.355115  9978 net.cpp:84] Creating Layer conv1
I0114 15:47:05.355152  9978 net.cpp:406] conv1 <- data
I0114 15:47:05.355209  9978 net.cpp:380] conv1 -> conv1
I0114 15:47:06.995301  9978 cudnn_conv_layer.cpp:194] Reallocating workspace storage: 127416
I0114 15:47:06.995790  9978 net.cpp:122] Setting up conv1
I0114 15:47:06.995847  9978 net.cpp:129] Top shape: 256 96 55 55 (74342400)
I0114 15:47:06.995873  9978 net.cpp:137] Memory required for data: 451514368
I0114 15:47:06.995991  9978 layer_factory.hpp:78] Creating layer bn1
I0114 15:47:06.996070  9978 net.cpp:84] Creating Layer bn1
I0114 15:47:06.996109  9978 net.cpp:406] bn1 <- conv1
I0114 15:47:06.996167  9978 net.cpp:367] bn1 -> conv1 (in-place)
I0114 15:47:06.998272  9978 net.cpp:122] Setting up bn1
I0114 15:47:06.998322  9978 net.cpp:129] Top shape: 256 96 55 55 (74342400)
I0114 15:47:06.998353  9978 net.cpp:137] Memory required for data: 748883968
I0114 15:47:06.998433  9978 layer_factory.hpp:78] Creating layer scale1
I0114 15:47:06.998503  9978 net.cpp:84] Creating Layer scale1
I0114 15:47:06.998536  9978 net.cpp:406] scale1 <- conv1
I0114 15:47:06.998581  9978 net.cpp:367] scale1 -> conv1 (in-place)
I0114 15:47:06.998739  9978 layer_factory.hpp:78] Creating layer scale1
I0114 15:47:06.999085  9978 net.cpp:122] Setting up scale1
I0114 15:47:06.999128  9978 net.cpp:129] Top shape: 256 96 55 55 (74342400)
I0114 15:47:06.999153  9978 net.cpp:137] Memory required for data: 1046253568
I0114 15:47:06.999204  9978 layer_factory.hpp:78] Creating layer relu1
I0114 15:47:06.999260  9978 net.cpp:84] Creating Layer relu1
I0114 15:47:06.999290  9978 net.cpp:406] relu1 <- conv1
I0114 15:47:06.999326  9978 net.cpp:367] relu1 -> conv1 (in-place)
I0114 15:47:07.000104  9978 net.cpp:122] Setting up relu1
I0114 15:47:07.000146  9978 net.cpp:129] Top shape: 256 96 55 55 (74342400)
I0114 15:47:07.000170  9978 net.cpp:137] Memory required for data: 1343623168
I0114 15:47:07.000192  9978 layer_factory.hpp:78] Creating layer pool1
I0114 15:47:07.000239  9978 net.cpp:84] Creating Layer pool1
I0114 15:47:07.000269  9978 net.cpp:406] pool1 <- conv1
I0114 15:47:07.000310  9978 net.cpp:380] pool1 -> pool1
I0114 15:47:07.000455  9978 net.cpp:122] Setting up pool1
I0114 15:47:07.000495  9978 net.cpp:129] Top shape: 256 96 27 27 (17915904)
I0114 15:47:07.000520  9978 net.cpp:137] Memory required for data: 1415286784
I0114 15:47:07.000542  9978 layer_factory.hpp:78] Creating layer bn2
I0114 15:47:07.000578  9978 net.cpp:84] Creating Layer bn2
I0114 15:47:07.000607  9978 net.cpp:406] bn2 <- pool1
I0114 15:47:07.000649  9978 net.cpp:367] bn2 -> pool1 (in-place)
I0114 15:47:07.006953  9978 net.cpp:122] Setting up bn2
I0114 15:47:07.007002  9978 net.cpp:129] Top shape: 256 96 27 27 (17915904)
I0114 15:47:07.007028  9978 net.cpp:137] Memory required for data: 1486950400
I0114 15:47:07.007092  9978 layer_factory.hpp:78] Creating layer scale2
I0114 15:47:07.007149  9978 net.cpp:84] Creating Layer scale2
I0114 15:47:07.007180  9978 net.cpp:406] scale2 <- pool1
I0114 15:47:07.007223  9978 net.cpp:367] scale2 -> pool1 (in-place)
I0114 15:47:07.007350  9978 layer_factory.hpp:78] Creating layer scale2
I0114 15:47:07.007649  9978 net.cpp:122] Setting up scale2
I0114 15:47:07.007690  9978 net.cpp:129] Top shape: 256 96 27 27 (17915904)
I0114 15:47:07.007714  9978 net.cpp:137] Memory required for data: 1558614016
I0114 15:47:07.007750  9978 layer_factory.hpp:78] Creating layer binactive1
I0114 15:47:07.007791  9978 net.cpp:84] Creating Layer binactive1
I0114 15:47:07.007835  9978 net.cpp:406] binactive1 <- pool1
I0114 15:47:07.007885  9978 net.cpp:380] binactive1 -> binactive1
I0114 15:47:07.007992  9978 net.cpp:122] Setting up binactive1
I0114 15:47:07.008029  9978 net.cpp:129] Top shape: 256 96 27 27 (17915904)
I0114 15:47:07.008052  9978 net.cpp:137] Memory required for data: 1630277632
I0114 15:47:07.008074  9978 layer_factory.hpp:78] Creating layer conv2
I0114 15:47:07.008141  9978 net.cpp:84] Creating Layer conv2
I0114 15:47:07.008174  9978 net.cpp:406] conv2 <- binactive1
I0114 15:47:07.008219  9978 net.cpp:380] conv2 -> conv2
I0114 15:47:07.134716  9978 cudnn_binary_conv_layer.cpp:194] Reallocating workspace storage: 19668
I0114 15:47:07.134843  9978 net.cpp:122] Setting up conv2
I0114 15:47:07.134889  9978 net.cpp:129] Top shape: 256 256 27 27 (47775744)
I0114 15:47:07.134953  9978 net.cpp:137] Memory required for data: 1821380608
I0114 15:47:07.135037  9978 layer_factory.hpp:78] Creating layer pool2
I0114 15:47:07.135138  9978 net.cpp:84] Creating Layer pool2
I0114 15:47:07.135205  9978 net.cpp:406] pool2 <- conv2
I0114 15:47:07.135289  9978 net.cpp:380] pool2 -> pool2
I0114 15:47:07.135457  9978 net.cpp:122] Setting up pool2
I0114 15:47:07.135527  9978 net.cpp:129] Top shape: 256 256 13 13 (11075584)
I0114 15:47:07.135586  9978 net.cpp:137] Memory required for data: 1865682944
I0114 15:47:07.135639  9978 layer_factory.hpp:78] Creating layer bn3
I0114 15:47:07.135705  9978 net.cpp:84] Creating Layer bn3
I0114 15:47:07.135759  9978 net.cpp:406] bn3 <- pool2
I0114 15:47:07.135825  9978 net.cpp:367] bn3 -> pool2 (in-place)
I0114 15:47:07.136222  9978 net.cpp:122] Setting up bn3
I0114 15:47:07.136291  9978 net.cpp:129] Top shape: 256 256 13 13 (11075584)
I0114 15:47:07.136348  9978 net.cpp:137] Memory required for data: 1909985280
I0114 15:47:07.136428  9978 layer_factory.hpp:78] Creating layer scale3
I0114 15:47:07.136510  9978 net.cpp:84] Creating Layer scale3
I0114 15:47:07.136566  9978 net.cpp:406] scale3 <- pool2
I0114 15:47:07.136634  9978 net.cpp:367] scale3 -> pool2 (in-place)
I0114 15:47:07.136788  9978 layer_factory.hpp:78] Creating layer scale3
I0114 15:47:07.137092  9978 net.cpp:122] Setting up scale3
I0114 15:47:07.137161  9978 net.cpp:129] Top shape: 256 256 13 13 (11075584)
I0114 15:47:07.137212  9978 net.cpp:137] Memory required for data: 1954287616
I0114 15:47:07.137298  9978 layer_factory.hpp:78] Creating layer binactive2
I0114 15:47:07.137375  9978 net.cpp:84] Creating Layer binactive2
I0114 15:47:07.137434  9978 net.cpp:406] binactive2 <- pool2
I0114 15:47:07.137503  9978 net.cpp:380] binactive2 -> binactive2
I0114 15:47:07.137617  9978 net.cpp:122] Setting up binactive2
I0114 15:47:07.137683  9978 net.cpp:129] Top shape: 256 256 13 13 (11075584)
I0114 15:47:07.137737  9978 net.cpp:137] Memory required for data: 1998589952
I0114 15:47:07.137789  9978 layer_factory.hpp:78] Creating layer conv3
I0114 15:47:07.137872  9978 net.cpp:84] Creating Layer conv3
I0114 15:47:07.137934  9978 net.cpp:406] conv3 <- binactive2
I0114 15:47:07.138008  9978 net.cpp:380] conv3 -> conv3
I0114 15:47:07.293869  9978 cudnn_binary_conv_layer.cpp:194] Reallocating workspace storage: 18874368
I0114 15:47:07.294230  9978 net.cpp:122] Setting up conv3
I0114 15:47:07.294260  9978 net.cpp:129] Top shape: 256 384 13 13 (16613376)
I0114 15:47:07.294291  9978 net.cpp:137] Memory required for data: 2065043456
I0114 15:47:07.294325  9978 layer_factory.hpp:78] Creating layer bn4
I0114 15:47:07.294383  9978 net.cpp:84] Creating Layer bn4
I0114 15:47:07.294401  9978 net.cpp:406] bn4 <- conv3
I0114 15:47:07.294443  9978 net.cpp:367] bn4 -> conv3 (in-place)
I0114 15:47:07.294714  9978 net.cpp:122] Setting up bn4
I0114 15:47:07.294729  9978 net.cpp:129] Top shape: 256 384 13 13 (16613376)
I0114 15:47:07.294735  9978 net.cpp:137] Memory required for data: 2131496960
I0114 15:47:07.294765  9978 layer_factory.hpp:78] Creating layer scale4
I0114 15:47:07.294795  9978 net.cpp:84] Creating Layer scale4
I0114 15:47:07.294807  9978 net.cpp:406] scale4 <- conv3
I0114 15:47:07.294833  9978 net.cpp:367] scale4 -> conv3 (in-place)
I0114 15:47:07.294955  9978 layer_factory.hpp:78] Creating layer scale4
I0114 15:47:07.295174  9978 net.cpp:122] Setting up scale4
I0114 15:47:07.295190  9978 net.cpp:129] Top shape: 256 384 13 13 (16613376)
I0114 15:47:07.295197  9978 net.cpp:137] Memory required for data: 2197950464
I0114 15:47:07.295218  9978 layer_factory.hpp:78] Creating layer binactive3
I0114 15:47:07.295261  9978 net.cpp:84] Creating Layer binactive3
I0114 15:47:07.295292  9978 net.cpp:406] binactive3 <- conv3
I0114 15:47:07.295336  9978 net.cpp:380] binactive3 -> binactive3
I0114 15:47:07.295403  9978 net.cpp:122] Setting up binactive3
I0114 15:47:07.295418  9978 net.cpp:129] Top shape: 256 384 13 13 (16613376)
I0114 15:47:07.295439  9978 net.cpp:137] Memory required for data: 2264403968
I0114 15:47:07.295462  9978 layer_factory.hpp:78] Creating layer conv4
I0114 15:47:07.295519  9978 net.cpp:84] Creating Layer conv4
I0114 15:47:07.295533  9978 net.cpp:406] conv4 <- binactive3
I0114 15:47:07.295564  9978 net.cpp:380] conv4 -> conv4
I0114 15:47:07.645153  9978 cudnn_binary_conv_layer.cpp:194] Reallocating workspace storage: 9840
I0114 15:47:07.647011  9978 net.cpp:122] Setting up conv4
I0114 15:47:07.647130  9978 net.cpp:129] Top shape: 256 384 13 13 (16613376)
I0114 15:47:07.647207  9978 net.cpp:137] Memory required for data: 2330857472
I0114 15:47:07.647291  9978 layer_factory.hpp:78] Creating layer bn5
I0114 15:47:07.647411  9978 net.cpp:84] Creating Layer bn5
I0114 15:47:07.647512  9978 net.cpp:406] bn5 <- conv4
I0114 15:47:07.647603  9978 net.cpp:367] bn5 -> conv4 (in-place)
I0114 15:47:07.648034  9978 net.cpp:122] Setting up bn5
I0114 15:47:07.648454  9978 net.cpp:129] Top shape: 256 384 13 13 (16613376)
I0114 15:47:07.648524  9978 net.cpp:137] Memory required for data: 2397310976
I0114 15:47:07.648610  9978 layer_factory.hpp:78] Creating layer scale5
I0114 15:47:07.648725  9978 net.cpp:84] Creating Layer scale5
I0114 15:47:07.648813  9978 net.cpp:406] scale5 <- conv4
I0114 15:47:07.648900  9978 net.cpp:367] scale5 -> conv4 (in-place)
I0114 15:47:07.649076  9978 layer_factory.hpp:78] Creating layer scale5
I0114 15:47:07.649485  9978 net.cpp:122] Setting up scale5
I0114 15:47:07.649818  9978 net.cpp:129] Top shape: 256 384 13 13 (16613376)
I0114 15:47:07.649886  9978 net.cpp:137] Memory required for data: 2463764480
I0114 15:47:07.649966  9978 layer_factory.hpp:78] Creating layer binactive4
I0114 15:47:07.650064  9978 net.cpp:84] Creating Layer binactive4
I0114 15:47:07.650144  9978 net.cpp:406] binactive4 <- conv4
I0114 15:47:07.650228  9978 net.cpp:380] binactive4 -> binactive4
I0114 15:47:07.650374  9978 net.cpp:122] Setting up binactive4
I0114 15:47:07.650517  9978 net.cpp:129] Top shape: 256 384 13 13 (16613376)
I0114 15:47:07.650591  9978 net.cpp:137] Memory required for data: 2530217984
I0114 15:47:07.650653  9978 layer_factory.hpp:78] Creating layer conv5
I0114 15:47:07.650749  9978 net.cpp:84] Creating Layer conv5
I0114 15:47:07.650853  9978 net.cpp:406] conv5 <- binactive4
I0114 15:47:07.650946  9978 net.cpp:380] conv5 -> conv5
I0114 15:47:07.781956  9978 cudnn_binary_conv_layer.cpp:194] Reallocating workspace storage: 18874368
I0114 15:47:07.784737  9978 net.cpp:122] Setting up conv5
I0114 15:47:07.785444  9978 net.cpp:129] Top shape: 256 256 13 13 (11075584)
I0114 15:47:07.785535  9978 net.cpp:137] Memory required for data: 2574520320
I0114 15:47:07.785632  9978 layer_factory.hpp:78] Creating layer pool5
I0114 15:47:07.785780  9978 net.cpp:84] Creating Layer pool5
I0114 15:47:07.785900  9978 net.cpp:406] pool5 <- conv5
I0114 15:47:07.786005  9978 net.cpp:380] pool5 -> pool5
I0114 15:47:07.786248  9978 net.cpp:122] Setting up pool5
I0114 15:47:07.786463  9978 net.cpp:129] Top shape: 256 256 6 6 (2359296)
I0114 15:47:07.786540  9978 net.cpp:137] Memory required for data: 2583957504
I0114 15:47:07.786602  9978 layer_factory.hpp:78] Creating layer bn6
I0114 15:47:07.786677  9978 net.cpp:84] Creating Layer bn6
I0114 15:47:07.786761  9978 net.cpp:406] bn6 <- pool5
I0114 15:47:07.786841  9978 net.cpp:367] bn6 -> pool5 (in-place)
I0114 15:47:07.787289  9978 net.cpp:122] Setting up bn6
I0114 15:47:07.787724  9978 net.cpp:129] Top shape: 256 256 6 6 (2359296)
I0114 15:47:07.787832  9978 net.cpp:137] Memory required for data: 2593394688
I0114 15:47:07.788123  9978 layer_factory.hpp:78] Creating layer scale6
I0114 15:47:07.788265  9978 net.cpp:84] Creating Layer scale6
I0114 15:47:07.788357  9978 net.cpp:406] scale6 <- pool5
I0114 15:47:07.788439  9978 net.cpp:367] scale6 -> pool5 (in-place)
I0114 15:47:07.788624  9978 layer_factory.hpp:78] Creating layer scale6
I0114 15:47:07.789032  9978 net.cpp:122] Setting up scale6
I0114 15:47:07.789353  9978 net.cpp:129] Top shape: 256 256 6 6 (2359296)
I0114 15:47:07.789430  9978 net.cpp:137] Memory required for data: 2602831872
I0114 15:47:07.789506  9978 layer_factory.hpp:78] Creating layer binactive5
I0114 15:47:07.789602  9978 net.cpp:84] Creating Layer binactive5
I0114 15:47:07.789681  9978 net.cpp:406] binactive5 <- pool5
I0114 15:47:07.789757  9978 net.cpp:380] binactive5 -> binactive5
I0114 15:47:07.789891  9978 net.cpp:122] Setting up binactive5
I0114 15:47:07.790017  9978 net.cpp:129] Top shape: 256 256 6 6 (2359296)
I0114 15:47:07.790087  9978 net.cpp:137] Memory required for data: 2612269056
I0114 15:47:07.790146  9978 layer_factory.hpp:78] Creating layer fc6
I0114 15:47:07.790243  9978 net.cpp:84] Creating Layer fc6
I0114 15:47:07.790345  9978 net.cpp:406] fc6 <- binactive5
I0114 15:47:07.790449  9978 net.cpp:380] fc6 -> fc6
I0114 15:47:13.994580  9978 net.cpp:122] Setting up fc6
I0114 15:47:13.994706  9978 net.cpp:129] Top shape: 256 4096 (1048576)
I0114 15:47:13.994730  9978 net.cpp:137] Memory required for data: 2616463360
I0114 15:47:13.994799  9978 layer_factory.hpp:78] Creating layer bn7
I0114 15:47:13.994873  9978 net.cpp:84] Creating Layer bn7
I0114 15:47:13.994915  9978 net.cpp:406] bn7 <- fc6
I0114 15:47:13.994976  9978 net.cpp:367] bn7 -> fc6 (in-place)
I0114 15:47:13.995388  9978 net.cpp:122] Setting up bn7
I0114 15:47:13.995429  9978 net.cpp:129] Top shape: 256 4096 (1048576)
I0114 15:47:13.995451  9978 net.cpp:137] Memory required for data: 2620657664
I0114 15:47:13.995504  9978 layer_factory.hpp:78] Creating layer scale7
I0114 15:47:13.995558  9978 net.cpp:84] Creating Layer scale7
I0114 15:47:13.995586  9978 net.cpp:406] scale7 <- fc6
I0114 15:47:13.995633  9978 net.cpp:367] scale7 -> fc6 (in-place)
I0114 15:47:13.995771  9978 layer_factory.hpp:78] Creating layer scale7
I0114 15:47:13.996067  9978 net.cpp:122] Setting up scale7
I0114 15:47:13.996104  9978 net.cpp:129] Top shape: 256 4096 (1048576)
I0114 15:47:13.996124  9978 net.cpp:137] Memory required for data: 2624851968
I0114 15:47:13.996160  9978 layer_factory.hpp:78] Creating layer binactive6
I0114 15:47:13.996196  9978 net.cpp:84] Creating Layer binactive6
I0114 15:47:13.996222  9978 net.cpp:406] binactive6 <- fc6
I0114 15:47:13.996265  9978 net.cpp:380] binactive6 -> binactive6
I0114 15:47:13.996351  9978 net.cpp:122] Setting up binactive6
I0114 15:47:13.996393  9978 net.cpp:129] Top shape: 256 4096 (1048576)
I0114 15:47:13.996415  9978 net.cpp:137] Memory required for data: 2629046272
I0114 15:47:13.996436  9978 layer_factory.hpp:78] Creating layer fc7
I0114 15:47:13.996500  9978 net.cpp:84] Creating Layer fc7
I0114 15:47:13.996528  9978 net.cpp:406] fc7 <- binactive6
I0114 15:47:13.996572  9978 net.cpp:380] fc7 -> fc7
I0114 15:47:16.847345  9978 net.cpp:122] Setting up fc7
I0114 15:47:16.847643  9978 net.cpp:129] Top shape: 256 4096 (1048576)
I0114 15:47:16.847740  9978 net.cpp:137] Memory required for data: 2633240576
I0114 15:47:16.847872  9978 layer_factory.hpp:78] Creating layer bn8
I0114 15:47:16.848012  9978 net.cpp:84] Creating Layer bn8
I0114 15:47:16.848121  9978 net.cpp:406] bn8 <- fc7
I0114 15:47:16.848243  9978 net.cpp:367] bn8 -> fc7 (in-place)
I0114 15:47:16.848732  9978 net.cpp:122] Setting up bn8
I0114 15:47:16.848840  9978 net.cpp:129] Top shape: 256 4096 (1048576)
I0114 15:47:16.848932  9978 net.cpp:137] Memory required for data: 2637434880
I0114 15:47:16.849052  9978 layer_factory.hpp:78] Creating layer scale8
I0114 15:47:16.849189  9978 net.cpp:84] Creating Layer scale8
I0114 15:47:16.849284  9978 net.cpp:406] scale8 <- fc7
I0114 15:47:16.849433  9978 net.cpp:367] scale8 -> fc7 (in-place)
I0114 15:47:16.849642  9978 layer_factory.hpp:78] Creating layer scale8
I0114 15:47:16.850008  9978 net.cpp:122] Setting up scale8
I0114 15:47:16.850116  9978 net.cpp:129] Top shape: 256 4096 (1048576)
I0114 15:47:16.850208  9978 net.cpp:137] Memory required for data: 2641629184
I0114 15:47:16.850319  9978 layer_factory.hpp:78] Creating layer relu7
I0114 15:47:16.850432  9978 net.cpp:84] Creating Layer relu7
I0114 15:47:16.850525  9978 net.cpp:406] relu7 <- fc7
I0114 15:47:16.850632  9978 net.cpp:367] relu7 -> fc7 (in-place)
I0114 15:47:16.851903  9978 net.cpp:122] Setting up relu7
I0114 15:47:16.852016  9978 net.cpp:129] Top shape: 256 4096 (1048576)
I0114 15:47:16.852103  9978 net.cpp:137] Memory required for data: 2645823488
I0114 15:47:16.852197  9978 layer_factory.hpp:78] Creating layer fc8
I0114 15:47:16.852324  9978 net.cpp:84] Creating Layer fc8
I0114 15:47:16.852422  9978 net.cpp:406] fc8 <- fc7
I0114 15:47:16.852535  9978 net.cpp:380] fc8 -> fc8
I0114 15:47:17.595232  9978 net.cpp:122] Setting up fc8
I0114 15:47:17.595365  9978 net.cpp:129] Top shape: 256 1000 (256000)
I0114 15:47:17.595388  9978 net.cpp:137] Memory required for data: 2646847488
I0114 15:47:17.595446  9978 layer_factory.hpp:78] Creating layer fc8_fc8_0_split
I0114 15:47:17.595507  9978 net.cpp:84] Creating Layer fc8_fc8_0_split
I0114 15:47:17.595541  9978 net.cpp:406] fc8_fc8_0_split <- fc8
I0114 15:47:17.595595  9978 net.cpp:380] fc8_fc8_0_split -> fc8_fc8_0_split_0
I0114 15:47:17.595656  9978 net.cpp:380] fc8_fc8_0_split -> fc8_fc8_0_split_1
I0114 15:47:17.595703  9978 net.cpp:380] fc8_fc8_0_split -> fc8_fc8_0_split_2
I0114 15:47:17.595854  9978 net.cpp:122] Setting up fc8_fc8_0_split
I0114 15:47:17.595893  9978 net.cpp:129] Top shape: 256 1000 (256000)
I0114 15:47:17.595952  9978 net.cpp:129] Top shape: 256 1000 (256000)
I0114 15:47:17.596009  9978 net.cpp:129] Top shape: 256 1000 (256000)
I0114 15:47:17.596062  9978 net.cpp:137] Memory required for data: 2649919488
I0114 15:47:17.596119  9978 layer_factory.hpp:78] Creating layer loss
I0114 15:47:17.596227  9978 net.cpp:84] Creating Layer loss
I0114 15:47:17.596289  9978 net.cpp:406] loss <- fc8_fc8_0_split_0
I0114 15:47:17.596364  9978 net.cpp:406] loss <- label_data_1_split_0
I0114 15:47:17.596442  9978 net.cpp:380] loss -> loss
…
I0114 15:47:17.615519  9978 net.cpp:294] The NetState phase (1) differed from the phase (0) specified by a rule in layer data
I0114 15:47:17.616134  9978 net.cpp:51] Initializing net from parameters: 
name: "AlexNet-BN"
state {
  phase: TEST
}
layer {
  name: "data"
  type: "Data"
  top: "data"
  top: "label"
  include {
    phase: TEST
  }
  transform_param {
    mirror: false
    crop_size: 224
    mean_value: 104
    mean_value: 117
    mean_value: 123
  }
  data_param {
    source: "/home/zhengzhe/Data/imagenet_shrt256/ilsvrc12_val_lmdb"
    batch_size: 50
    backend: LMDB
  }
}
layer {
  name: "conv1"
  type: "Convolution"
  bottom: "data"
  top: "conv1"
  param {
    lr_mult: 1
    decay_mult: 1
  }
  convolution_param {
    num_output: 96
    bias_term: false
    pad: 2
    kernel_size: 11
    stride: 4
    weight_filler {
      type: "msra"
    }
  }
}
layer {
  name: "bn1"
  type: "BatchNorm"
  bottom: "conv1"
  top: "conv1"
}
layer {
  name: "scale1"
  type: "Scale"
  bottom: "conv1"
  top: "conv1"
  scale_param {
    bias_term: true
  }
}
layer {
  name: "relu1"
  type: "ReLU"
  bottom: "conv1"
  top: "conv1"
}
layer {
  name: "pool1"
  type: "Pooling"
  bottom: "conv1"
  top: "pool1"
  pooling_param {
    pool: MAX
    kernel_size: 3
    stride: 2
  }
}
layer {
  name: "bn2"
  type: "BatchNorm"
  bottom: "pool1"
  top: "pool1"
}
layer {
  name: "scale2"
  type: "Scale"
  bottom: "pool1"
  top: "pool1"
  scale_param {
    bias_term: true
  }
}
layer {
  name: "binactive1"
  type: "BinActive"
  bottom: "pool1"
  top: "binactive1"
}
layer {
  name: "conv2"
  type: "BinaryConvolution"
  bottom: "binactive1"
  top: "conv2"
  param {
    lr_mult: 1
    decay_mult: 1
  }
  convolution_param {
    num_output: 256
    bias_term: false
    pad: 2
    kernel_size: 5
    weight_filler {
      type: "msra"
    }
  }
  debug_param {
    xnorno_grad: true
  }
}
layer {
  name: "pool2"
  type: "Pooling"
  bottom: "conv2"
  top: "pool2"
  pooling_param {
    pool: MAX
    kernel_size: 3
    stride: 2
  }
}
layer {
  name: "bn3"
  type: "BatchNorm"
  bottom: "pool2"
  top: "pool2"
}
layer {
  name: "scale3"
  type: "Scale"
  bottom: "pool2"
  top: "pool2"
  scale_param {
    bias_term: true
  }
}
layer {
  name: "binactive2"
  type: "BinActive"
  bottom: "pool2"
  top: "binactive2"
}
layer {
  name: "conv3"
  type: "BinaryConvolution"
  bottom: "binactive2"
  top: "conv3"
  param {
    lr_mult: 1
    decay_mult: 1
  }
  convolution_param {
    num_output: 384
    bias_term: false
    pad: 1
    kernel_size: 3
    weight_filler {
      type: "msra"
    }
  }
  debug_param {
    xnorno_grad: true
  }
}
layer {
  name: "bn4"
  type: "BatchNorm"
  bottom: "conv3"
  top: "conv3"
}
layer {
  name: "scale4"
  type: "Scale"
  bottom: "conv3"
  top: "conv3"
  scale_param {
    bias_term: true
  }
}
layer {
  name: "binactive3"
  type: "BinActive"
  bottom: "conv3"
  top: "binactive3"
}
layer {
  name: "conv4"
  type: "BinaryConvolution"
  bottom: "binactive3"
  top: "conv4"
  param {
    lr_mult: 1
    decay_mult: 1
  }
  convolution_param {
    num_output: 384
    bias_term: false
    pad: 1
    kernel_size: 3
    weight_filler {
      type: "msra"
    }
  }
  debug_param {
    xnorno_grad: true
  }
}
layer {
  name: "bn5"
  type: "BatchNorm"
  bottom: "conv4"
  top: "conv4"
}
layer {
  name: "scale5"
  type: "Scale"
  bottom: "conv4"
  top: "conv4"
  scale_param {
    bias_term: true
  }
}
layer {
  name: "binactive4"
  type: "BinActive"
  bottom: "conv4"
  top: "binactive4"
}
layer {
  name: "conv5"
  type: "BinaryConvolution"
  bottom: "binactive4"
  top: "conv5"
  param {
    lr_mult: 1
    decay_mult: 1
  }
  convolution_param {
    num_output: 256
    bias_term: false
    pad: 1
    kernel_size: 3
    weight_filler {
      type: "msra"
    }
  }
  debug_param {
    xnorno_grad: true
  }
}
layer {
  name: "pool5"
  type: "Pooling"
  bottom: "conv5"
  top: "pool5"
  pooling_param {
    pool: MAX
    kernel_size: 3
    stride: 2
  }
}
layer {
  name: "bn6"
  type: "BatchNorm"
  bottom: "pool5"
  top: "pool5"
}
layer {
  name: "scale6"
  type: "Scale"
  bottom: "pool5"
  top: "pool5"
  scale_param {
    bias_term: true
  }
}
layer {
  name: "binactive5"
  type: "BinActive"
  bottom: "pool5"
  top: "binactive5"
}
layer {
  name: "fc6"
  type: "BinaryInnerProduct"
  bottom: "binactive5"
  top: "fc6"
  param {
    lr_mult: 1
    decay_mult: 1
  }
  inner_product_param {
    num_output: 4096
    bias_term: false
    weight_filler {
      type: "msra"
    }
  }
  debug_param {
    xnorno_grad: true
  }
}
layer {
  name: "bn7"
  type: "BatchNorm"
  bottom: "fc6"
  top: "fc6"
}
layer {
  name: "scale7"
  type: "Scale"
  bottom: "fc6"
  top: "fc6"
  scale_param {
    bias_term: true
  }
}
layer {
  name: "binactive6"
  type: "BinActive"
  bottom: "fc6"
  top: "binactive6"
}
layer {
  name: "fc7"
  type: "BinaryInnerProduct"
  bottom: "binactive6"
  top: "fc7"
  param {
    lr_mult: 1
    decay_mult: 1
  }
  inner_product_param {
    num_output: 4096
    bias_term: false
    weight_filler {
      type: "msra"
    }
  }
  debug_param {
    xnorno_grad: true
  }
}
layer {
  name: "bn8"
  type: "BatchNorm"
  bottom: "fc7"
  top: "fc7"
}
layer {
  name: "scale8"
  type: "Scale"
  bottom: "fc7"
  top: "fc7"
  scale_param {
    bias_term: true
  }
}
layer {
  name: "relu7"
  type: "ReLU"
  bottom: "fc7"
  top: "fc7"
}
layer {
  name: "fc8"
  type: "InnerProduct"
  bottom: "fc7"
  top: "fc8"
  param {
    lr_mult: 1
    decay_mult: 1
  }
  param {
    lr_mult: 2
    decay_mult: 0
  }
  inner_product_param {
    num_output: 1000
    weight_filler {
      type: "msra"
    }
    bias_filler {
      type: "constant"
      value: 0
    }
  }
}
layer {
  name: "loss"
  type: "SoftmaxWithLoss"
  bottom: "fc8"
  bottom: "label"
  top: "loss"
}
layer {
  name: "accuracy"
  type: "Accuracy"
  bottom: "fc8"
  bottom: "label"
  top: "accuracy"
}
layer {
  name: "accuracy_5"
  type: "Accuracy"
  bottom: "fc8"
  bottom: "label"
  top: "accuracy_5"
  accuracy_param {
    top_k: 5
  }
}
I0114 15:47:17.619335  9978 layer_factory.hpp:78] Creating layer data
I0114 15:47:17.620126  9978 db_lmdb.cpp:35] Opened lmdb /home/zhengzhe/Data/imagenet_shrt256/ilsvrc12_val_lmdb
I0114 15:47:17.620376  9978 net.cpp:84] Creating Layer data
I0114 15:47:17.620512  9978 net.cpp:380] data -> data
I0114 15:47:17.620636  9978 net.cpp:380] data -> label
I0114 15:47:17.621486  9978 data_layer.cpp:45] output data size: 50,3,224,224
I0114 15:47:17.787380  9978 base_data_layer.cpp:72] Initializing prefetch
I0114 15:47:17.788316  9978 base_data_layer.cpp:75] Prefetch initialized.
I0114 15:47:17.788360  9978 net.cpp:122] Setting up data
I0114 15:47:17.788470  9978 net.cpp:129] Top shape: 50 3 224 224 (7526400)
I0114 15:47:17.788507  9978 net.cpp:129] Top shape: 50 (50)
I0114 15:47:17.788529  9978 net.cpp:137] Memory required for data: 30105800
I0114 15:47:17.788578  9978 layer_factory.hpp:78] Creating layer label_data_1_split
I0114 15:47:17.788652  9978 net.cpp:84] Creating Layer label_data_1_split
I0114 15:47:17.788691  9978 net.cpp:406] label_data_1_split <- label
I0114 15:47:17.788754  9978 net.cpp:380] label_data_1_split -> label_data_1_split_0
I0114 15:47:17.788830  9978 net.cpp:380] label_data_1_split -> label_data_1_split_1
I0114 15:47:17.788883  9978 net.cpp:380] label_data_1_split -> label_data_1_split_2
I0114 15:47:17.789048  9978 net.cpp:122] Setting up label_data_1_split
I0114 15:47:17.789090  9978 net.cpp:129] Top shape: 50 (50)
I0114 15:47:17.789120  9978 net.cpp:129] Top shape: 50 (50)
I0114 15:47:17.789149  9978 net.cpp:129] Top shape: 50 (50)
I0114 15:47:17.789170  9978 net.cpp:137] Memory required for data: 30106400
I0114 15:47:17.789191  9978 layer_factory.hpp:78] Creating layer conv1
I0114 15:47:17.789263  9978 net.cpp:84] Creating Layer conv1
I0114 15:47:17.789296  9978 net.cpp:406] conv1 <- data
I0114 15:47:17.789366  9978 net.cpp:380] conv1 -> conv1
I0114 15:47:17.797410  9978 cudnn_conv_layer.cpp:194] Reallocating workspace storage: 127416
I0114 15:47:17.797487  9978 net.cpp:122] Setting up conv1
I0114 15:47:17.797524  9978 net.cpp:129] Top shape: 50 96 55 55 (14520000)
I0114 15:47:17.797551  9978 net.cpp:137] Memory required for data: 88186400
I0114 15:47:17.797606  9978 layer_factory.hpp:78] Creating layer bn1
I0114 15:47:17.797652  9978 net.cpp:84] Creating Layer bn1
I0114 15:47:17.797684  9978 net.cpp:406] bn1 <- conv1
I0114 15:47:17.797729  9978 net.cpp:367] bn1 -> conv1 (in-place)
I0114 15:47:17.798174  9978 net.cpp:122] Setting up bn1
I0114 15:47:17.798214  9978 net.cpp:129] Top shape: 50 96 55 55 (14520000)
I0114 15:47:17.798238  9978 net.cpp:137] Memory required for data: 146266400
I0114 15:47:17.798307  9978 layer_factory.hpp:78] Creating layer scale1
I0114 15:47:17.798368  9978 net.cpp:84] Creating Layer scale1
I0114 15:47:17.798403  9978 net.cpp:406] scale1 <- conv1
I0114 15:47:17.798471  9978 net.cpp:367] scale1 -> conv1 (in-place)
I0114 15:47:17.798620  9978 layer_factory.hpp:78] Creating layer scale1
I0114 15:47:17.798995  9978 net.cpp:122] Setting up scale1
I0114 15:47:17.799041  9978 net.cpp:129] Top shape: 50 96 55 55 (14520000)
I0114 15:47:17.799064  9978 net.cpp:137] Memory required for data: 204346400
I0114 15:47:17.799119  9978 layer_factory.hpp:78] Creating layer relu1
I0114 15:47:17.799163  9978 net.cpp:84] Creating Layer relu1
I0114 15:47:17.799196  9978 net.cpp:406] relu1 <- conv1
I0114 15:47:17.799237  9978 net.cpp:367] relu1 -> conv1 (in-place)
I0114 15:47:17.800539  9978 net.cpp:122] Setting up relu1
I0114 15:47:17.800585  9978 net.cpp:129] Top shape: 50 96 55 55 (14520000)
I0114 15:47:17.800611  9978 net.cpp:137] Memory required for data: 262426400
I0114 15:47:17.800634  9978 layer_factory.hpp:78] Creating layer pool1
I0114 15:47:17.800673  9978 net.cpp:84] Creating Layer pool1
I0114 15:47:17.800703  9978 net.cpp:406] pool1 <- conv1
I0114 15:47:17.800748  9978 net.cpp:380] pool1 -> pool1
I0114 15:47:17.800889  9978 net.cpp:122] Setting up pool1
I0114 15:47:17.800928  9978 net.cpp:129] Top shape: 50 96 27 27 (3499200)
I0114 15:47:17.800949  9978 net.cpp:137] Memory required for data: 276423200
I0114 15:47:17.800973  9978 layer_factory.hpp:78] Creating layer bn2
I0114 15:47:17.801010  9978 net.cpp:84] Creating Layer bn2
I0114 15:47:17.801039  9978 net.cpp:406] bn2 <- pool1
I0114 15:47:17.801081  9978 net.cpp:367] bn2 -> pool1 (in-place)
I0114 15:47:17.801517  9978 net.cpp:122] Setting up bn2
I0114 15:47:17.801554  9978 net.cpp:129] Top shape: 50 96 27 27 (3499200)
I0114 15:47:17.801575  9978 net.cpp:137] Memory required for data: 290420000
I0114 15:47:17.801638  9978 layer_factory.hpp:78] Creating layer scale2
I0114 15:47:17.801695  9978 net.cpp:84] Creating Layer scale2
I0114 15:47:17.801728  9978 net.cpp:406] scale2 <- pool1
I0114 15:47:17.801774  9978 net.cpp:367] scale2 -> pool1 (in-place)
I0114 15:47:17.801915  9978 layer_factory.hpp:78] Creating layer scale2
I0114 15:47:17.802248  9978 net.cpp:122] Setting up scale2
I0114 15:47:17.802286  9978 net.cpp:129] Top shape: 50 96 27 27 (3499200)
I0114 15:47:17.802306  9978 net.cpp:137] Memory required for data: 304416800
I0114 15:47:17.802353  9978 layer_factory.hpp:78] Creating layer binactive1
I0114 15:47:17.802393  9978 net.cpp:84] Creating Layer binactive1
I0114 15:47:17.802420  9978 net.cpp:406] binactive1 <- pool1
I0114 15:47:17.802460  9978 net.cpp:380] binactive1 -> binactive1
I0114 15:47:17.802544  9978 net.cpp:122] Setting up binactive1
I0114 15:47:17.802597  9978 net.cpp:129] Top shape: 50 96 27 27 (3499200)
I0114 15:47:17.802620  9978 net.cpp:137] Memory required for data: 318413600
I0114 15:47:17.802644  9978 layer_factory.hpp:78] Creating layer conv2
I0114 15:47:17.802698  9978 net.cpp:84] Creating Layer conv2
I0114 15:47:17.802731  9978 net.cpp:406] conv2 <- binactive1
I0114 15:47:17.802781  9978 net.cpp:380] conv2 -> conv2
I0114 15:47:17.894934  9978 cudnn_binary_conv_layer.cpp:194] Reallocating workspace storage: 19668
I0114 15:47:17.895030  9978 net.cpp:122] Setting up conv2
I0114 15:47:17.895082  9978 net.cpp:129] Top shape: 50 256 27 27 (9331200)
I0114 15:47:17.895107  9978 net.cpp:137] Memory required for data: 355738400
I0114 15:47:17.895151  9978 layer_factory.hpp:78] Creating layer pool2
I0114 15:47:17.895207  9978 net.cpp:84] Creating Layer pool2
I0114 15:47:17.895246  9978 net.cpp:406] pool2 <- conv2
I0114 15:47:17.895298  9978 net.cpp:380] pool2 -> pool2
I0114 15:47:17.895447  9978 net.cpp:122] Setting up pool2
I0114 15:47:17.895488  9978 net.cpp:129] Top shape: 50 256 13 13 (2163200)
I0114 15:47:17.895512  9978 net.cpp:137] Memory required for data: 364391200
I0114 15:47:17.895539  9978 layer_factory.hpp:78] Creating layer bn3
I0114 15:47:17.895578  9978 net.cpp:84] Creating Layer bn3
I0114 15:47:17.895607  9978 net.cpp:406] bn3 <- pool2
I0114 15:47:17.895650  9978 net.cpp:367] bn3 -> pool2 (in-place)
I0114 15:47:17.896088  9978 net.cpp:122] Setting up bn3
I0114 15:47:17.896167  9978 net.cpp:129] Top shape: 50 256 13 13 (2163200)
I0114 15:47:17.896222  9978 net.cpp:137] Memory required for data: 373044000
I0114 15:47:17.896327  9978 layer_factory.hpp:78] Creating layer scale3
I0114 15:47:17.896411  9978 net.cpp:84] Creating Layer scale3
I0114 15:47:17.896471  9978 net.cpp:406] scale3 <- pool2
I0114 15:47:17.896545  9978 net.cpp:367] scale3 -> pool2 (in-place)
I0114 15:47:17.896719  9978 layer_factory.hpp:78] Creating layer scale3
I0114 15:47:17.897040  9978 net.cpp:122] Setting up scale3
I0114 15:47:17.897109  9978 net.cpp:129] Top shape: 50 256 13 13 (2163200)
I0114 15:47:17.897164  9978 net.cpp:137] Memory required for data: 381696800
I0114 15:47:17.897258  9978 layer_factory.hpp:78] Creating layer binactive2
I0114 15:47:17.897331  9978 net.cpp:84] Creating Layer binactive2
I0114 15:47:17.897398  9978 net.cpp:406] binactive2 <- pool2
I0114 15:47:17.897480  9978 net.cpp:380] binactive2 -> binactive2
I0114 15:47:17.897599  9978 net.cpp:122] Setting up binactive2
I0114 15:47:17.897667  9978 net.cpp:129] Top shape: 50 256 13 13 (2163200)
I0114 15:47:17.897722  9978 net.cpp:137] Memory required for data: 390349600
I0114 15:47:17.897779  9978 layer_factory.hpp:78] Creating layer conv3
I0114 15:47:17.897872  9978 net.cpp:84] Creating Layer conv3
I0114 15:47:17.897933  9978 net.cpp:406] conv3 <- binactive2
I0114 15:47:17.898005  9978 net.cpp:380] conv3 -> conv3
I0114 15:47:18.112063  9978 cudnn_binary_conv_layer.cpp:194] Reallocating workspace storage: 18874368
I0114 15:47:18.112567  9978 net.cpp:122] Setting up conv3
I0114 15:47:18.112648  9978 net.cpp:129] Top shape: 50 384 13 13 (3244800)
I0114 15:47:18.112700  9978 net.cpp:137] Memory required for data: 403328800
I0114 15:47:18.112772  9978 layer_factory.hpp:78] Creating layer bn4
I0114 15:47:18.112861  9978 net.cpp:84] Creating Layer bn4
I0114 15:47:18.112923  9978 net.cpp:406] bn4 <- conv3
I0114 15:47:18.112995  9978 net.cpp:367] bn4 -> conv3 (in-place)
I0114 15:47:18.113440  9978 net.cpp:122] Setting up bn4
I0114 15:47:18.113508  9978 net.cpp:129] Top shape: 50 384 13 13 (3244800)
I0114 15:47:18.113566  9978 net.cpp:137] Memory required for data: 416308000
I0114 15:47:18.113656  9978 layer_factory.hpp:78] Creating layer scale4
I0114 15:47:18.113775  9978 net.cpp:84] Creating Layer scale4
I0114 15:47:18.113870  9978 net.cpp:406] scale4 <- conv3
I0114 15:47:18.113953  9978 net.cpp:367] scale4 -> conv3 (in-place)
I0114 15:47:18.114142  9978 layer_factory.hpp:78] Creating layer scale4
I0114 15:47:18.114585  9978 net.cpp:122] Setting up scale4
I0114 15:47:18.114936  9978 net.cpp:129] Top shape: 50 384 13 13 (3244800)
I0114 15:47:18.115005  9978 net.cpp:137] Memory required for data: 429287200
I0114 15:47:18.115082  9978 layer_factory.hpp:78] Creating layer binactive3
I0114 15:47:18.115185  9978 net.cpp:84] Creating Layer binactive3
I0114 15:47:18.115272  9978 net.cpp:406] binactive3 <- conv3
I0114 15:47:18.115361  9978 net.cpp:380] binactive3 -> binactive3
I0114 15:47:18.115520  9978 net.cpp:122] Setting up binactive3
I0114 15:47:18.115665  9978 net.cpp:129] Top shape: 50 384 13 13 (3244800)
I0114 15:47:18.115736  9978 net.cpp:137] Memory required for data: 442266400
I0114 15:47:18.115798  9978 layer_factory.hpp:78] Creating layer conv4
I0114 15:47:18.115901  9978 net.cpp:84] Creating Layer conv4
I0114 15:47:18.116015  9978 net.cpp:406] conv4 <- binactive3
I0114 15:47:18.116106  9978 net.cpp:380] conv4 -> conv4
I0114 15:47:18.291157  9978 cudnn_binary_conv_layer.cpp:194] Reallocating workspace storage: 9840
I0114 15:47:18.291371  9978 net.cpp:122] Setting up conv4
I0114 15:47:18.291445  9978 net.cpp:129] Top shape: 50 384 13 13 (3244800)
I0114 15:47:18.291497  9978 net.cpp:137] Memory required for data: 455245600
I0114 15:47:18.291576  9978 layer_factory.hpp:78] Creating layer bn5
I0114 15:47:18.291663  9978 net.cpp:84] Creating Layer bn5
I0114 15:47:18.291725  9978 net.cpp:406] bn5 <- conv4
I0114 15:47:18.291800  9978 net.cpp:367] bn5 -> conv4 (in-place)
I0114 15:47:18.292256  9978 net.cpp:122] Setting up bn5
I0114 15:47:18.292321  9978 net.cpp:129] Top shape: 50 384 13 13 (3244800)
I0114 15:47:18.292393  9978 net.cpp:137] Memory required for data: 468224800
I0114 15:47:18.292493  9978 layer_factory.hpp:78] Creating layer scale5
I0114 15:47:18.292570  9978 net.cpp:84] Creating Layer scale5
I0114 15:47:18.292627  9978 net.cpp:406] scale5 <- conv4
I0114 15:47:18.292693  9978 net.cpp:367] scale5 -> conv4 (in-place)
I0114 15:47:18.292856  9978 layer_factory.hpp:78] Creating layer scale5
I0114 15:47:18.293186  9978 net.cpp:122] Setting up scale5
I0114 15:47:18.293253  9978 net.cpp:129] Top shape: 50 384 13 13 (3244800)
I0114 15:47:18.293303  9978 net.cpp:137] Memory required for data: 481204000
I0114 15:47:18.293376  9978 layer_factory.hpp:78] Creating layer binactive4
I0114 15:47:18.293442  9978 net.cpp:84] Creating Layer binactive4
I0114 15:47:18.293496  9978 net.cpp:406] binactive4 <- conv4
I0114 15:47:18.293563  9978 net.cpp:380] binactive4 -> binactive4
I0114 15:47:18.293684  9978 net.cpp:122] Setting up binactive4
I0114 15:47:18.293747  9978 net.cpp:129] Top shape: 50 384 13 13 (3244800)
I0114 15:47:18.293795  9978 net.cpp:137] Memory required for data: 494183200
I0114 15:47:18.293848  9978 layer_factory.hpp:78] Creating layer conv5
I0114 15:47:18.293931  9978 net.cpp:84] Creating Layer conv5
I0114 15:47:18.293987  9978 net.cpp:406] conv5 <- binactive4
I0114 15:47:18.294064  9978 net.cpp:380] conv5 -> conv5
I0114 15:47:18.424635  9978 cudnn_binary_conv_layer.cpp:194] Reallocating workspace storage: 18874368
I0114 15:47:18.430150  9978 net.cpp:122] Setting up conv5
I0114 15:47:18.433917  9978 net.cpp:129] Top shape: 50 256 13 13 (2163200)
I0114 15:47:18.434028  9978 net.cpp:137] Memory required for data: 502836000
I0114 15:47:18.434113  9978 layer_factory.hpp:78] Creating layer pool5
I0114 15:47:18.434201  9978 net.cpp:84] Creating Layer pool5
I0114 15:47:18.434262  9978 net.cpp:406] pool5 <- conv5
I0114 15:47:18.434345  9978 net.cpp:380] pool5 -> pool5
I0114 15:47:18.434602  9978 net.cpp:122] Setting up pool5
I0114 15:47:18.434681  9978 net.cpp:129] Top shape: 50 256 6 6 (460800)
I0114 15:47:18.434732  9978 net.cpp:137] Memory required for data: 504679200
I0114 15:47:18.434785  9978 layer_factory.hpp:78] Creating layer bn6
I0114 15:47:18.434849  9978 net.cpp:84] Creating Layer bn6
I0114 15:47:18.434903  9978 net.cpp:406] bn6 <- pool5
I0114 15:47:18.434967  9978 net.cpp:367] bn6 -> pool5 (in-place)
I0114 15:47:18.435465  9978 net.cpp:122] Setting up bn6
I0114 15:47:18.435986  9978 net.cpp:129] Top shape: 50 256 6 6 (460800)
I0114 15:47:18.436059  9978 net.cpp:137] Memory required for data: 506522400
I0114 15:47:18.436170  9978 layer_factory.hpp:78] Creating layer scale6
I0114 15:47:18.436316  9978 net.cpp:84] Creating Layer scale6
I0114 15:47:18.436415  9978 net.cpp:406] scale6 <- pool5
I0114 15:47:18.436506  9978 net.cpp:367] scale6 -> pool5 (in-place)
I0114 15:47:18.436715  9978 layer_factory.hpp:78] Creating layer scale6
I0114 15:47:18.437177  9978 net.cpp:122] Setting up scale6
I0114 15:47:18.437532  9978 net.cpp:129] Top shape: 50 256 6 6 (460800)
I0114 15:47:18.437602  9978 net.cpp:137] Memory required for data: 508365600
I0114 15:47:18.437681  9978 layer_factory.hpp:78] Creating layer binactive5
I0114 15:47:18.437779  9978 net.cpp:84] Creating Layer binactive5
I0114 15:47:18.437861  9978 net.cpp:406] binactive5 <- pool5
I0114 15:47:18.437944  9978 net.cpp:380] binactive5 -> binactive5
I0114 15:47:18.438099  9978 net.cpp:122] Setting up binactive5
I0114 15:47:18.438249  9978 net.cpp:129] Top shape: 50 256 6 6 (460800)
I0114 15:47:18.438319  9978 net.cpp:137] Memory required for data: 510208800
I0114 15:47:18.438386  9978 layer_factory.hpp:78] Creating layer fc6
I0114 15:47:18.438478  9978 net.cpp:84] Creating Layer fc6
I0114 15:47:18.438575  9978 net.cpp:406] fc6 <- binactive5
I0114 15:47:18.438664  9978 net.cpp:380] fc6 -> fc6
I0114 15:47:24.793805  9978 net.cpp:122] Setting up fc6
I0114 15:47:24.806373  9978 net.cpp:129] Top shape: 50 4096 (204800)
I0114 15:47:24.806406  9978 net.cpp:137] Memory required for data: 511028000
I0114 15:47:24.806504  9978 layer_factory.hpp:78] Creating layer bn7
I0114 15:47:24.806577  9978 net.cpp:84] Creating Layer bn7
I0114 15:47:24.806650  9978 net.cpp:406] bn7 <- fc6
I0114 15:47:24.806704  9978 net.cpp:367] bn7 -> fc6 (in-place)
I0114 15:47:24.807194  9978 net.cpp:122] Setting up bn7
I0114 15:47:24.807232  9978 net.cpp:129] Top shape: 50 4096 (204800)
I0114 15:47:24.807253  9978 net.cpp:137] Memory required for data: 511847200
I0114 15:47:24.807297  9978 layer_factory.hpp:78] Creating layer scale7
I0114 15:47:24.807353  9978 net.cpp:84] Creating Layer scale7
I0114 15:47:24.807382  9978 net.cpp:406] scale7 <- fc6
I0114 15:47:24.807423  9978 net.cpp:367] scale7 -> fc6 (in-place)
I0114 15:47:24.807624  9978 layer_factory.hpp:78] Creating layer scale7
I0114 15:47:24.807943  9978 net.cpp:122] Setting up scale7
I0114 15:47:24.807982  9978 net.cpp:129] Top shape: 50 4096 (204800)
I0114 15:47:24.808004  9978 net.cpp:137] Memory required for data: 512666400
I0114 15:47:24.808038  9978 layer_factory.hpp:78] Creating layer binactive6
I0114 15:47:24.808076  9978 net.cpp:84] Creating Layer binactive6
I0114 15:47:24.808104  9978 net.cpp:406] binactive6 <- fc6
I0114 15:47:24.808151  9978 net.cpp:380] binactive6 -> binactive6
I0114 15:47:24.808243  9978 net.cpp:122] Setting up binactive6
I0114 15:47:24.808280  9978 net.cpp:129] Top shape: 50 4096 (204800)
I0114 15:47:24.808300  9978 net.cpp:137] Memory required for data: 513485600
I0114 15:47:24.808322  9978 layer_factory.hpp:78] Creating layer fc7
I0114 15:47:24.808384  9978 net.cpp:84] Creating Layer fc7
I0114 15:47:24.808415  9978 net.cpp:406] fc7 <- binactive6
I0114 15:47:24.808467  9978 net.cpp:380] fc7 -> fc7
I0114 15:47:26.999186  9978 net.cpp:122] Setting up fc7
I0114 15:47:26.999307  9978 net.cpp:129] Top shape: 50 4096 (204800)
I0114 15:47:26.999330  9978 net.cpp:137] Memory required for data: 514304800
I0114 15:47:26.999395  9978 layer_factory.hpp:78] Creating layer bn8
I0114 15:47:26.999456  9978 net.cpp:84] Creating Layer bn8
I0114 15:47:26.999490  9978 net.cpp:406] bn8 <- fc7
I0114 15:47:26.999539  9978 net.cpp:367] bn8 -> fc7 (in-place)
I0114 15:47:26.999960  9978 net.cpp:122] Setting up bn8
I0114 15:47:26.999995  9978 net.cpp:129] Top shape: 50 4096 (204800)
I0114 15:47:27.000017  9978 net.cpp:137] Memory required for data: 515124000
I0114 15:47:27.000061  9978 layer_factory.hpp:78] Creating layer scale8
I0114 15:47:27.000108  9978 net.cpp:84] Creating Layer scale8
I0114 15:47:27.000134  9978 net.cpp:406] scale8 <- fc7
I0114 15:47:27.000172  9978 net.cpp:367] scale8 -> fc7 (in-place)
I0114 15:47:27.000316  9978 layer_factory.hpp:78] Creating layer scale8
I0114 15:47:27.000617  9978 net.cpp:122] Setting up scale8
I0114 15:47:27.000655  9978 net.cpp:129] Top shape: 50 4096 (204800)
I0114 15:47:27.000676  9978 net.cpp:137] Memory required for data: 515943200
I0114 15:47:27.000710  9978 layer_factory.hpp:78] Creating layer relu7
I0114 15:47:27.000747  9978 net.cpp:84] Creating Layer relu7
I0114 15:47:27.000772  9978 net.cpp:406] relu7 <- fc7
I0114 15:47:27.000808  9978 net.cpp:367] relu7 -> fc7 (in-place)
I0114 15:47:27.002746  9978 net.cpp:122] Setting up relu7
I0114 15:47:27.002789  9978 net.cpp:129] Top shape: 50 4096 (204800)
I0114 15:47:27.002810  9978 net.cpp:137] Memory required for data: 516762400
I0114 15:47:27.002831  9978 layer_factory.hpp:78] Creating layer fc8
I0114 15:47:27.002921  9978 net.cpp:84] Creating Layer fc8
I0114 15:47:27.002979  9978 net.cpp:406] fc8 <- fc7
I0114 15:47:27.003051  9978 net.cpp:380] fc8 -> fc8
I0114 15:47:27.489327  9978 net.cpp:122] Setting up fc8
I0114 15:47:27.489519  9978 net.cpp:129] Top shape: 50 1000 (50000)
I0114 15:47:27.489572  9978 net.cpp:137] Memory required for data: 516962400
I0114 15:47:27.489656  9978 layer_factory.hpp:78] Creating layer fc8_fc8_0_split
I0114 15:47:27.489750  9978 net.cpp:84] Creating Layer fc8_fc8_0_split
I0114 15:47:27.489816  9978 net.cpp:406] fc8_fc8_0_split <- fc8
I0114 15:47:27.489895  9978 net.cpp:380] fc8_fc8_0_split -> fc8_fc8_0_split_0
I0114 15:47:27.489984  9978 net.cpp:380] fc8_fc8_0_split -> fc8_fc8_0_split_1
I0114 15:47:27.490077  9978 net.cpp:380] fc8_fc8_0_split -> fc8_fc8_0_split_2
I0114 15:47:27.490253  9978 net.cpp:122] Setting up fc8_fc8_0_split
I0114 15:47:27.490339  9978 net.cpp:129] Top shape: 50 1000 (50000)
I0114 15:47:27.490401  9978 net.cpp:129] Top shape: 50 1000 (50000)
I0114 15:47:27.490450  9978 net.cpp:129] Top shape: 50 1000 (50000)
I0114 15:47:27.490496  9978 net.cpp:137] Memory required for data: 517562400
I0114 15:47:27.490547  9978 layer_factory.hpp:78] Creating layer loss
I0114 15:47:27.490617  9978 net.cpp:84] Creating Layer loss
I0114 15:47:27.490670  9978 net.cpp:406] loss <- fc8_fc8_0_split_0
I0114 15:47:27.490733  9978 net.cpp:406] loss <- label_data_1_split_0
I0114 15:47:27.490808  9978 net.cpp:380] loss -> loss
…
